data/results/test_convenience_sim/checkpoints/checkpoint_0000.pth (torch, 185835 bytes, 39 tensors)

shared_backbone.0.weight f4 [64, 2]
00000000: ae8c 943c f826 643e f973 b1be d32c db3d
00000010: 0617 dfbc 41b1 9cbe 8f5b cfbd 0462 4a3e
00000020: 5794 ff3d 8cb2 d8bc f625 a03d ce00 1a3e
00000030: 9e8a 213e 2390 4a3d ea09 243e d5fd 18be
00000040: 4ee9 693e 1508 53be db5a 15be 3f37 343d
00000050: bfa0 a3be 39a5 c73d acb2 07bd d47a 7abe
00000060: f6ad 363d 5cd9 2e3c 3a89 a1be 6db8 adbd
00000070: e96e cfbc 47e8 44be 6e2b 383b 55b9 f5bd
00000080: 324d 39bd 4926 86be 99d5 89bd 5cb6 09be
00000090: 0f6e cbbd 8378 3dbd ad82 d6bd 2f4d 33be
000000a0: 498c 00bd 2a4f bcbc 4795 35be d193 163e
000000b0: 352b 61be 401b fbbc fcd3 d03c b414 8bbd
000000c0: 2368 90bb 784c 1fbe 21a8 35be 26d3 d8bd
000000d0: 3bfd e23c 5bc0 78bd 4f1f 723e 8e59 18be
000000e0: 575e 863c 035c 923e b89a 6f3d 493b 62be
000000f0: 4de8 bf3c 3a0c 1c3e 860f 713c 3f02 9ebe
00000100: 2ab5 2a3e 0fee d7bc 2d26 d5bd 3538 d9be
00000110: e867 b43d bffd b8bd d24c a9be e6e8 18be
00000120: aae0 a53e 02df 81bd f30f 02be 686c ffbd
00000130: bd31 713e af6a acbd 185b 133e 33f6 3d3e
00000140: 41f7 b4bd a798 f6bb ff6e 0f3d 45e8 9a3e
00000150: 408c 14be 30cf 0c3e f5ea febd 63cc cbbe
00000160: 778a ee3c f6ee 65be b6cb dfbe 0b13 2e3e
00000170: 22da 05be 1e42 79be 6851 213e 0202 8b3c
00000180: 0899 883d 53b7 683e 5833 d0bd 9772 f33d
00000190: beca 163e bc49 dc3d 71a1 15be 21ca 783e
000001a0: e0d6 b83e bcc0 70bc 5e4b 1fbe 30bc 47bd
000001b0: 128a 343e f68f 2dbe e097 74be b67b 2f3e
000001c0: 4fc5 0cbd 651d 353c 42a5 e83c f36d b7bd
000001d0: ae9f c93e f753 203b f91b c3be e4d5 2c3e
000001e0: 1fee 66be 5838 103d b674 14be b2e4 8fbe
000001f0: b4e2 09be f091 753e 1202 60be b7a1 42be
0.018133488 0.2228049 -0.34658793 0.10701909 -0.027232658 -0.30603984 -0.10124885 0.19763952
0.124794655 -0.026452325 0.078197405 0.1503937 0.15775535 0.049453866 0.16019407 -0.14940579
0.22842905 -0.20608552 -0.1458544 0.043998 -0.31958577 0.097483106 -0.03312938 -0.24460918
0.044599496 0.01067194 -0.31550008 -0.08482442 -0.02532144 -0.19229232 0.0028102058 -0.1199824
-0.045239635 -0.26201084 -0.06730194 -0.13448471 -0.099331014 -0.046257507 -0.10474143 -0.17509912
-0.031383786 -0.022986967 -0.17732726 0.14704825 -0.21989138 -0.030652642 0.025491707 -0.06791058
-0.0044069453 -0.15556514 -0.17739917 -0.10587148 0.02770864 -0.06073032 0.23644756 -0.14877912
0.016402407 0.28585824 0.05849716 -0.22092928 0.0234262 0.15239039 0.014713174 -0.3086109
0.16670671 -0.026358632 -0.10407672 -0.42425695 0.08808881 -0.09032773 -0.33066422 -0.14932594
0.32397968 -0.063413635 -0.12701397 -0.12471849 0.2355413 -0.08418786 0.14390218 0.18550949
-0.088362224 -0.007525522 0.035017963 0.30255333 -0.14506626 0.13750911 -0.12447158 -0.39804372
0.02911876 -0.22454438 -0.43710107 0.16999452 -0.13071492 -0.24341628 0.1575371 0.01696873
0.066698134 0.22726183 -0.10166043 0.11887091 0.14725778 0.10756251 -0.14612366 0.24295856
0.36101437 -0.014694389 -0.15556094 -0.048763454 0.17630795 -0.16949448 -0.2388606 0.17137036
-0.034367856 0.0110543715 0.028399114 -0.08956518 0.39379638 0.002446411 -0.3810728 0.16878468
-0.22551773 0.035209984 -0.14497647 -0.28104168 -0.13465387 0.23981452 -0.2187579 -0.19007002

shared_backbone.0.bias f4 [64]
00000000: f2f1 b7bd f6b9 de3c 0000 0000 5815 4cbd
00000010: 8a79 b43c 0e7a b93c a209 a13b 43dc dc3c
00000020: aece 4fbc f615 4cbd 7597 3a3d 1da8 69bd
00000030: cdb4 0b3d 0000 0000 0000 0000 b7ab 3dbd
00000040: 0000 0000 0000 0000 0000 0000 0000 0000
00000050: 0000 0000 b8ae a83d a315 4cbd 0023 b039
00000060: 0000 0000 0000 0000 c617 86bd 23fa 133c
00000070: 31cb 0a3d c5e3 f63c 8848 833d 8843 a8bc
00000080: 3014 e13c 0000 0000 2a5b e23c 0000 0000
00000090: c925 063d 0000 0000 3ca4 273d 93dc 423d
000000a0: 0000 0000 9d66 d3bc c015 4cbd 0000 0000
000000b0: f2de 83bc 5b7c a53d 0000 0000 5d43 923c
000000c0: 8049 bdbc 13fb 4bbd cfaf 1a3c e515 4cbd
000000d0: 14a9 7f3b f215 4cbd 1c41 86bc 2a97 4d3c
000000e0: c415 4cbd e6fc 383c 7f05 2ebd 68b7 433d
000000f0: b814 4cbd 0000 0000 819e 973d 0000 0000
-0.08981694 0.027188282 0.0 -0.049825042 0.02203061 0.022641208 0.0049144784 0.026960498
-0.012683554 -0.04982563 0.045554597 -0.05704509 0.034107972 0.0 0.0 -0.04630634
0.0 0.0 0.0 0.0 0.0 0.0823645 -0.049825322 0.00033595413
0.0 0.0 -0.06547503 0.009031805 0.033885185 0.030137906 0.064103186 -0.020540014
0.027475446 0.0 0.027631361 0.0 0.03275088 0.0 0.04092811 0.047573637
0.0 -0.025805766 -0.04982543 0.0 -0.01609752 0.080803595 0.0 0.017854387
-0.023106337 -0.04979999 0.00944133 -0.049825568 0.003901069 -0.049825616 -0.016388468 0.012548247
-0.049825445 0.011290764 -0.04248571 0.04778233 -0.049824446 0.0 0.07403279 0.0

shared_backbone.2.weight f4 [64, 64]
00000000: 5743 803e 9f8f 58be 5b26 373d a3c3 ab3e
00000010: a373 9ebe 503c 573d 7045 723e 911c 0abd
00000020: a21b 0f3b 7382 51bc ade0 493e 2965 db3c
00000030: b277 333e 4e6f eb3d d699 c03d 3435 36be
00000040: 741b d9bc f046 9abd 6cd1 19be 5d92 593e
00000050: b32d 5b3e 0293 ea3d 9d28 e63b 238b 30be
00000060: 6911 0b3e c73e b53d ab4b 9abd 6309 a0bd
00000070: 1384 2ebd 269b 013e 3802 abbd 5329 523e
00000080: b935 1b3e c17e cf3d 1179 b8bd a82c 3fbe
00000090: c32e a43e f96e 56be 971e 43be e579 a6bd
000000a0: f967 213d 94bc 513c 2621 113e 8056 3b3c
000000b0: bcfc 3dbe 12ae a9be f79a 893e cbfe 283d
000000c0: a59a 83be 96d3 c9be aad6 613d 8f98 3bbe
000000d0: 84db 133e 548f 64be 0b95 6fbe e041 3dbe
000000e0: 4224 88be d902 73be d999 86be dbd8 873d
000000f0: 4a22 af3c d2c6 7cbe 6e48 ebbc 78ef 99bd
00000100: 61ea 36bd 1f16 853e c94e 8abe fb39 2a3e
00000110: e38a ddbd f5fe ebbd e7ae 293e 4f52 613c
00000120: 2f5b e8bc c067 8b3e 4c40 05bd b68b 323d
00000130: 8d6d 2ebe fb61 a23d 1971 18be 74b4 09be
00000140: 5811 7dbe 35d2 2e3e ed7c 12be 853c b73d
00000150: e74d 0f3e 44e5 b0bd de5d 17be efdc 7cbe
00000160: 57d5 193d 2db2 843e c613 903e 3ed5 02be
00000170: dc6a 263d 10b7 cabd 56cf 8dbe 1179 94be
00000180: 05c2 c43d 1453 213e 4648 16be 3068 c83e
00000190: 5d4f 8b3d 1f66 6bbd e1e3 18be 04aa a4be
000001a0: c269 00be 7e76 f7bd 22d9 e1bd 50eb 50be
000001b0: a6f2 bfbb 47ac 8dbe 6265 7dbe 5848 963d
000001c0: 781f 5c3e 580a 08be 0290 1bbe b039 12bb
000001d0: 9370 3fbe b501 86be 1775 783e 6b72 64be
000001e0: 528a 693e c079 3cbe a35b 113e bea2 65be
000001f0: 7956 6bbd a0eb 453e e3dc a5be 44d2 a6bd
00000200: a95d e23c 98d9 983e 0604 8ebe 31ab 59bd
00000210: 2af4 ecbe 9b90 b0bd 2bcd f0bc 6e53 293c
00000220: bc9e a73e 2443 d03c 7e5f c43e d456 97bd
00000230: d230 92bc f62e 6bbd 0ff0 213d 0769 98be
00000240: 4d85 523e 3f38 c03d 4e52 213e 9978 5bbd
00000250: acef 05bd ea95 4c3e b314 043e e807 05be
00000260: 0f9d 5bbe df45 dabd 0ecc 08be c486 72bd
00000270: 7922 0b3e a6af d3bc 21bb 233e 5e37 8d3d
00000280: 9c45 60bd 60db 9ebe 90c0 12be 0182 623e
00000290: 4fb7 813d 390f 063d a20d 463e 5fb7 e53d
000002a0: 6285 e3bc 67af 14be dff5 97be b04a 32be
000002b0: 4866 20bd c82e da3e e7b7 96bd e3b3 95be
000002c0: 4240 95bc 51f0 b7bd 5508 fdbd a80b 063e
000002d0: 0fad ab3c fb07 9cbd 9e20 a0bb 447e 4bbe
000002e0: 9c08 cfbc f5b2 65be f040 76bd b365 973d
000002f0: 5293 153f 1bb5 aabd 209b b73d 43c6 203e
00000300: 28eb babd f7bd 8fbe 4a02 4dbe 6450 333e
00000310: da69 f53d aaef a93d 81c0 ebbd 4ca8 51be
00000320: 9384 22be bd89 423d 42ad 603c d0d8 dc3c
00000330: 82d8 0dbc dbc7 c63e 5e6e c6bd 547e adbd
00000340: 8f81 81be 91e7 523e ad5d 3f3d ef0e 7d3d
00000350: 90e9 843e a2d0 733d 0f2e 093e 1de0 84bd
00000360: 8276 683d c324 153e 3157 22bd 918c f7bd
00000370: a6aa 393a e125 04be 9bd4 a4bd 7e71 80be
00000380: 512e 2d3e 6f4f 0ebe 3798 843d 65bb 1fbe
00000390: bd78 eebd 71f0 31ba 1d7f a83e 31d8 44bc
000003a0: ab4d fc3d 3a86 0c3e b0da 81be fea9 c23c
000003b0: 66d9 81be c8f8 e6bb 7672 18bd fded a8be
000003c0: 1dbd 15bf 6d56 c43e c7d2 a3be d0c0 35be
000003d0: 7398 81be b15f 29be 5416 f53d c7ae 4dbe
000003e0: c985 dabd ee2d 3cbe f46d 863d 8233 2e3e
000003f0: 106c 59bc 286c 973d f52b 303e e9aa 133e
0.25051376 -0.21148537 0.044714313 0.33547696 -0.309476 0.052547753 0.23659301 -0.03371865
0.0021836539 -0.012787449 0.19714613 0.026781635 0.17526129 0.11495839 0.09404342 -0.17793733
-0.026502348 -0.075330615 -0.15021294 0.2124724 0.21404152 0.11453821 0.0070238844 -0.17240576
0.1358086 0.088498645 -0.07533964 -0.078142904 -0.042606425 0.1265684 -0.083500326 0.20523576
0.15157212 0.10131598 -0.090074666 -0.18669379 0.32066926 -0.2094077 -0.19054638 -0.08128718
0.039405797 0.012801308 0.14172801 0.011434197 -0.18553442 -0.33140618 0.2687604 0.041258615
-0.25703922 -0.3941924 0.05513636 -0.18319915 0.14439207 -0.223203 -0.23396699 -0.1848216
-0.26590163 -0.23731555 -0.2628925 0.06633159 0.021378655 -0.24685219 -0.02872106 -0.07516378
-0.044657115 0.2599344 -0.27013233 0.1662368 -0.10817506 -0.115232386 0.16570626 0.013752534
-0.028363792 0.27227592 -0.03253202 0.04359027 -0.17033978 0.079288445 -0.14886893 -0.13447744
-0.24713647 0.17072375 -0.14305468 0.0894709 0.13994561 -0.08637479 -0.14781901 -0.24693654
0.037556972 0.25917187 0.28140086 -0.12776658 0.040629253 -0.09898198 -0.27697247 -0.28998616
0.09607319 0.15754348 -0.14676008 0.3914199 0.06802247 -0.057470437 -0.14930679 -0.32160962
-0.12540343 -0.120831475 -0.11027743 -0.20402265 -0.0058577834 -0.276705 -0.24745706 0.07338017
0.2149638 -0.13285196 -0.15191653 -0.0022312216 -0.18695287 -0.26173177 0.24263416 -0.22309272
0.22806671 -0.18405819 0.14195113 -0.22425362 -0.057455514 0.19328165 -0.32395086 -0.08145574
0.027632551 0.2985351 -0.27737445 -0.053141776 -0.46280032 -0.08621331 -0.029394707 0.010334833
0.32738292 0.02542264 0.38354105 -0.07389608 -0.017845545 -0.057417832 0.03953558 -0.2976763
0.20558663 0.09385728 0.15754053 -0.053581808 -0.032699272 0.19979063 0.12898521 -0.12991297
-0.21446632 -0.10657858 -0.1335909 -0.059210554 0.13587369 -0.025840592 0.15989353 0.06895326
-0.054753885 -0.31026745 -0.1433127 0.22119905 0.063337915 0.03272936 0.19341138 0.11216616
-0.027773563 -0.14520036 -0.29679772 -0.17411304 -0.039160043 0.42613816 -0.07359295 -0.29238805
-0.018219117 -0.089813836 -0.12355105 0.13090384 0.020956544 -0.0761871 -0.004886701 -0.19872385
-0.02527266 -0.22431548 -0.060120523 0.073924445 0.5842792 -0.083353244 0.089651346 0.15700631
-0.09126884 -0.2807462 -0.20020404 0.17511135 0.1198308 0.082976654 -0.115113266 -0.20474356
-0.15870886 0.04749464 0.013713183 0.026958853 -0.0086575765 0.38824353 -0.096890196 -0.08471361
-0.25294158 0.20596148 0.046720196 0.06178182 0.25959444 0.05952514 0.13396476 -0.06488059
0.056753643 0.14564805 -0.039633933 -0.12087358 0.00070826185 -0.12905075 -0.08048364 -0.25086588
0.169122 -0.13897489 0.06474345 -0.15598829 -0.11644123 -0.0006787843 0.3290948 -0.012014435
0.123195015 0.13723078 -0.25362158 0.0237627 -0.25361174 -0.0070487 -0.037218533 -0.3299407
-0.5849169 0.38347188 -0.31996748 -0.17749333 -0.25311622 -0.1654041 0.119671494 -0.20086204
-0.10670049 -0.18376896 0.06563941 0.17011836 -0.013270393 0.07393676 0.17204268 0.14420666

shared_backbone.2.bias f4 [64]
00000000: f8bc 9ebd c264 89bd a8c3 42bc 2983 74bd
00000010: 39c9 333d e060 55bc 7c57 a73b 28b1 88bc
00000020: 0cf2 293d 957f 89bc d115 4cbd f715 4cbd
00000030: 0000 0000 0ea8 783d f5f4 5cbd 9d28 35bd
00000040: eb5a 79bd 2eab a0bd 9470 dd3c 1bf8 493d
00000050: 0000 0000 f415 4cbd 4044 81bd 0000 0000
00000060: 9615 4cbd 3762 313d 8fa9 213c 0616 4cbd
00000070: 6715 92bd e015 4cbd cb82 a93d c671 583d
00000080: d6e9 20bd 0000 0000 0541 98bc b5cc bf3c
00000090: 80f0 203c d128 35bd 2c14 4cbd d2c7 1cbd
000000a0: 925e 8ebd 8f60 1ebb 7dfb 7fbd 0000 0000
000000b0: 3beb 24bc e815 4cbd eec1 1dbd 3315 8f3c
000000c0: 6cff 373c 1016 4cbd 8eea 0fbd 0000 0000
000000d0: f6c5 1ebd 9f15 4cbd 31b2 6abc 1c5f e33c
000000e0: d9cf 0c3d 6434 9a3c 235b 603d fc26 35bd
000000f0: 069e b53b 3e1a 073c 0000 0000 8c6e 21bd
-0.07750887 -0.06708671 -0.011887468 -0.059695397 0.043893073 -0.013023585 0.0051068645 -0.016686037
0.0414906 -0.016784469 -0.049825493 -0.049825635 0.0 0.060707144 -0.053944547 -0.044228185
-0.06087772 -0.0784515 0.02703122 0.049308877 0.0 -0.049825624 -0.06311846 0.0
-0.049825273 0.043306556 0.009867086 -0.04982569 -0.071329884 -0.04982555 0.082769 0.052842878
-0.039285503 0.0 -0.018585691 0.023413042 0.009822965 -0.04422838 -0.049823925 -0.0382765
-0.069516316 -0.002416644 -0.062495697 0.0 -0.010065849 -0.04982558 -0.038515024 0.017466163
0.011230331 -0.049825728 -0.0351358 0.0 -0.03876301 -0.049825307 -0.014324711 0.027755313
0.034377906 0.01882381 0.054774415 -0.04422663 0.0055425195 0.008246003 0.0 -0.039412066

goal_head.weight f4 [2, 64]
00000000: 9c84 81bd c4dc adbd 48ed ce3d e9d1 54be
00000010: c204 c0bc dbf6 92be 7e63 9dbd 0351 a8bd
00000020: d839 623e c2bc 743e 0d42 f4bd 595a e5bd
00000030: 5c1a 71be 0d67 a6bb 2ac9 55be aad6 27be
00000040: 764a 99bc 2f87 123e 7ce4 b6bc 399f 06be
00000050: c339 48be 5ebe c0bd fd04 ea3d 0270 c9bd
00000060: 1ffc 2d3e 1612 623d 3e26 d1bd 8627 5cbc
00000070: 7610 a8bd d43e 94be 17a5 49bd f58c 77be
00000080: 577b b33d 811f 493d b668 a5bd fa80 f3bc
00000090: 768f 643e 4613 993e 1b80 84bc 96fd 5a3e
000000a0: eea0 aa3e d727 cebe 9437 a63d 96b8 c0bd
000000b0: 361b b0be 4685 40be 1005 20be f4d3 24bd
000000c0: bb21 3fbe 01ff e9bc 6318 54bc d2b1 8f3d
000000d0: eea3 25be 2989 80be a5db bfbc 8f7e 10be
000000e0: e82a 90bd e650 133e 4d54 b9be 4ac1 453e
000000f0: 699e 29be 221d 923e f7ea 3dbe 89f2 423e
00000100: e253 423d c4c2 a53c 9cd4 57bb faae 9e3c
00000110: 4ac9 6f3e ed51 e8bd eaff 823e 12e5 c8be
00000120: 30ab ed3c e464 1d3e 4c9a 363d 2d70 853e
00000130: 3a68 643c f639 d53c 3e7a 17be 65f3 433e
00000140: bd4e 693e d6b1 193d eda6 10be 210c 823e
00000150: be77 b33c 6a06 513e 0b14 613e 5e61 13be
00000160: c337 823e d91f 88bc 45d2 60be 99de 5fbd
00000170: 410d 6abe 50bd d9bd 1260 1fbe 2c4f 043e
00000180: f54b c43d 5b8c 343d e714 fd3d 479e 4f3e
00000190: f0e9 703e def9 613e e843 b43c eaad d1bc
000001a0: 6b5e 3bbe cf77 0c3d 86cb a43d e3c1 033e
000001b0: 2e69 5d3d cdbe af3d 80ef 2a3e 3818 a83e
000001c0: b5fd 81be b08e 963c f1f7 0dbe f3cf acbb
000001d0: 8a07 5e3e bdb2 ff3d 18e6 893d 971b 1b3d
000001e0: 44c4 653e 1ecc f1bd 73bf 8d3d 80e2 163d
000001f0: 8d92 bbbe 958a 153e 4d27 8fbe e60b f6be
-0.06324121 -0.08489373 0.101038516 -0.207832 -0.023439769 -0.2870396 -0.07684992 -0.08218577
0.22092378 0.2390013 -0.11926661 -0.11198873 -0.23545212 -0.0050782026 -0.20877519 -0.16390482
-0.018712264 0.14309381 -0.022325747 -0.13146676 -0.19553284 -0.0941131 0.11426733 -0.09835817
0.16990708 0.05519303 -0.10212372 -0.0134371575 -0.08206265 -0.28954184 -0.049229708 -0.24174865
0.087637596 0.04910231 -0.08076613 -0.029724587 0.22320351 0.29897517 -0.016174367 0.21385798
0.33325905 -0.4026477 0.081160694 -0.09410207 -0.3439576 -0.1880084 -0.15626931 -0.040241197
-0.18665211 -0.028563978 -0.012945267 0.070163384 -0.16175815 -0.25104645 -0.023420164 -0.14110778
-0.07039434 0.14386329 -0.3619713 0.19312015 -0.16564335 0.28537852 -0.18546663 0.19037832
0.047443278 0.020234473 -0.0032933122 0.019370545 0.2341663 -0.11343751 0.25585872 -0.39237267
0.029012293 0.15370518 0.044580743 0.26062146 0.013940865 0.026028614 -0.14792725 0.19135816
0.22783943 0.037523113 -0.14126177 0.2539988 0.021907683 0.20412603 0.21980302 -0.14392611
0.25433168 -0.016616749 -0.21955211 -0.054655645 -0.22856618 -0.106318116 -0.15563992 0.12920827
0.095848 0.044079166 0.123575024 0.20275222 0.2352674 0.22067973 0.022005036 -0.025595624
-0.18297736 0.034293946 0.080466315 0.1286693 0.054055385 0.08581314 0.16692924 0.32830977
-0.25388876 0.018378586 -0.13864113 -0.005273813 0.21682563 0.124852635 0.0673334 0.03786811
0.2243815 -0.118065104 0.06921282 0.0368371 -0.36635247 0.14603646 -0.27959672 -0.48055953

goal_head.bias f4 [2]
00000000: 1f56 ddbc 2056 dd3c
-0.027018605 0.027018607

portfolio_head.weight f4 [15, 64]
00000000: 1c5a cdbd 445e 213e da24 dabd e945 3c3e
00000010: 28f9 8d3c d0af 053e f549 0c3d ab8e 493e
00000020: f940 84be 12ce 5b3e 324d 56be fa76 a73d
00000030: cd51 7a3d 972c b53d 76a6 163e be07 50be
00000040: 81da 46bd 7c27 f33b 4705 6f3e 21b3 503d
00000050: 8e36 533e 7121 ba3c 8f50 eebd a137 b6bd
00000060: c5ee 9cbe 851f fa3e 7351 8cbe 5fb7 963e
00000070: 445c c43d 9654 803d 7235 13be 1100 09bc
00000080: d2bb 90be 8d56 53bc ba03 b9bd 3cd3 08be
00000090: ca31 c9bd acf6 553b 84fb a5bb 1831 e83d
000000a0: 37c1 30be 20d5 693e f0d0 20b8 49dd ac3d
000000b0: aee6 18be ff57 633e 0913 133e 17a1 a9be
000000c0: c641 5dbd 3348 58be a690 a23e be97 873e
000000d0: 8e24 9ebd 4820 7abe 2685 04be 63eb 693e
000000e0: dcdb d23d b09b 9ebd e4ef e53e 3eeb 40bd
000000f0: 95e5 3a3e 45b4 ab3e b314 4dbe 61a7 463d
00000100: e24a d33c 3509 8ebd 2b80 ebbc d15c 68be
00000110: d8ac dd3d 28fa 3e3e 3694 ccbd c7b1 f4bd
00000120: 469c 23bd 54d8 703e d62b a73d c3df 713e
00000130: aca1 8f3e b88e 673e a93b bfbe 2621 6cbc
00000140: 3dd2 5c3c f53e 02be a209 e9bc 04c9 b73d
00000150: 0007 003f e56d e83d 849f 873e e21f be3d
00000160: 9e76 84be 02f8 4abd 6de6 803d 6236 b83e
00000170: 24ad 783b 2c33 0a3e 979b 493e 5d67 b4bd
00000180: bd0d 3bbe 2d6e 49bd d88f 723e 9fe1 853d
00000190: 4dc7 643e 2901 abbe 7d03 16bd 1b9b 71bd
000001a0: 5bb8 873d 9c6b 06be 2a5c 933c e6e4 2dbd
000001b0: fdc0 823e 5466 d6bd d7cf 94bd 55f5 5d3e
000001c0: c71c 9d3e 5dda 03be 972a 14bd dea1 96bd
000001d0: d8e4 a93c 0f52 32be 16b1 53be 5aa1 bcbd
000001e0: 3c12 c2bc 4cf2 0fbe c7c1 ef3d ceba d9bc
000001f0: 19bc 3fbe 49b8 1f3e c38a 1e3e d2af dbbc
00000200: 6fbe 73bd 6555 80be 9fdf 2bbe ca2f 103e
00000210: bdad 89be 2591 063e fc49 1fbe cc89 38be
00000220: 983d bf3d 797e 743d 887d 443d 0a57 653e
00000230: 10ad df3e 5acb a93e 8507 8c3b 1288 5bbe
00000240: 6751 fc3d e0c8 083e 94a3 743d 3efd ccbe
00000250: 9033 4dbe e38a 64bd ee0e 51bd 7fb1 913e
00000260: 1e70 ed3d cde9 adbb 8bed 0e3e 8d5a 8bbd
00000270: e709 6f3e 14f3 a2bc 7cf0 443d e96d 6a3e
00000280: 06bf 0c3e a65c 5dbe 14bb b4be 2444 163e
00000290: a917 1c3e 04e4 14be c57c 90bc 1cdd 003e
000002a0: aaf8 6a3e 5689 1c3e 447e 77bd 4602 e9bd
000002b0: b4a8 1fbe c210 c63d 0263 6fbe dd80 37be
000002c0: 652c 0d3e fd0a 06be 38e1 403e 7dd0 f8bd
000002d0: 90f9 243d 316f 20be d702 933d fdf4 4b3e
000002e0: b9f3 a8bd 3af0 a83c ba4e b0bd b19a cdbd
000002f0: 8b4c 933e efeb cabd 2cfa bcbd c83e 883e
00000300: 1012 38bb dc87 a2be cbb9 6f3e 3d2e af3d
00000310: d704 29bd d1b8 843e e51a 263e 4da1 2bbe
00000320: 6b36 5dbe 7180 3cbe 4849 19be 91fe 43be
00000330: 4d45 96be 9167 4fbe 72ed 263d 9f59 dcbe
00000340: 9e0f 303d 0fd1 913b 80b6 9bbe 907d bebd
00000350: 30e1 4f3e db69 1abd 8c00 62be 006e c73e
00000360: 9e00 67be f0ee 6b3d e39a 9b3c d3d4 d9bc
00000370: 45db d8bc ca45 a4bd 748e 5fbe dea0 353b
00000380: a14c 573d 7f77 fa3d a20a 393e e54c 783d
00000390: e385 f0bd d1ff f63d 9b7f 673e 4126 04be
000003a0: e6e8 2f3e a67a 953d ee18 00be e8c9 0abe
000003b0: c91c 25be 0245 303d 611c 7bbe 20cd ebbd
000003c0: 0e14 943e d5ff 383d 3fd2 893e 8f4e 4abd
000003d0: 2516 423e 8dd0 7e3e f6c7 22be 8e5c 9cbd
000003e0: 7a93 cb3d b074 b8bd 41fc f93b b558 a33e
000003f0: 793b f1bc 1ba6 953d 1ba0 b43e 71c5 0d3d
-0.100269526 0.15758616 -0.1065156 0.18386044 0.017330721 0.13055348 0.03425022 0.1968333
-0.2583082 0.21465328 -0.20927885 0.0817699 0.061113168 0.088463955 0.14711937 -0.20315453
-0.048548225 0.0074204784 0.23341857 0.05095208 0.2062628 0.022721024 -0.11636459 -0.08897329
-0.30650917 0.48852172 -0.2740589 0.29436776 0.09587911 0.062661335 -0.14375857 -0.008361832
-0.28268296 -0.012899053 -0.09033914 -0.1336183 -0.0982395 0.0032648249 -0.0050653834 0.11337489
-0.17261206 0.22835207 -3.834156e-05 0.08440644 -0.14931747 0.22201537 0.1436273 -0.33130714
-0.054017805 -0.21121292 0.31750983 0.26482958 -0.07721816 -0.24426377 -0.12941417 0.22843699
0.10295841 -0.07744539 0.44909585 -0.047099344 0.18251641 0.33535972 -0.20027427 0.04849947
0.025792543 -0.0693535 -0.028747639 -0.22691657 0.10823983 0.18650115 -0.099892065 -0.11947971
-0.039943956 0.23520023 0.08162658 0.23620515 0.28053033 0.22613037 -0.37350205 -0.0144122
0.013477859 -0.12719329 -0.028446976 0.089738876 0.5001068 0.11349086 0.26488888 0.09283425
-0.25871748 -0.049552925 0.0629395 0.3597899 0.0037944997 0.13496083 0.19688259 -0.088087775
-0.1826696 -0.049177337 0.23687685 0.065371744 0.22341652 -0.33399323 -0.03662442 -0.05898581
0.0662696 -0.13126987 0.017988283 -0.042454623 0.25537863 -0.10468736 -0.07266205 0.21675618
0.30686018 -0.12876268 -0.03617343 -0.073550925 0.020739004 -0.17414115 -0.20673022 -0.09210463
-0.023690335 -0.14057273 0.11706882 -0.026578333 -0.18724097 0.15597643 0.15482621 -0.026817236
-0.059507784 -0.2506515 -0.16784523 0.1408073 -0.26890364 0.13141306 -0.15555567 -0.18021315
0.0933792 0.059690926 0.04797128 0.22396484 0.43686724 0.33162957 0.0042733573 -0.21438625
0.12320214 0.13357878 0.059726313 -0.40036958 -0.20039201 -0.055796515 -0.05103963 0.2845573
0.1159365 -0.0053074122 0.13957803 -0.068043806 0.23343621 -0.0198913 0.048080906 0.2289349
0.13744745 -0.21617374 -0.3529898 0.14674431 0.152434 -0.14540106 -0.01763762 0.12584347
0.2294642 0.15286765 -0.06042315 -0.11377387 -0.15591699 0.09671165 -0.23377612 -0.17920251
0.13786466 -0.13090129 0.18835914 -0.12149141 0.040277064 -0.15667416 0.07178276 0.19917674
-0.082496114 0.020622361 -0.08608766 -0.10039271 0.28769335 -0.09908282 -0.09227404 0.26610398
-0.0028086938 -0.31744277 0.23410718 0.08553741 -0.04126438 0.25922254 0.16221197 -0.1676075
-0.2160279 -0.18408372 -0.14969361 -0.19140078 -0.29349747 -0.20254351 0.04075379 -0.43037125
0.042983644 0.0044499706 -0.30412674 -0.09301293 0.20300746 -0.037698608 -0.22070521 0.3895111
-0.22558829 0.057600915 0.018994754 -0.02659074 -0.026471743 -0.08021124 -0.21831685 0.0027714293
0.052563313 0.12229823 0.18070462 0.060620207 -0.11744287 0.12060512 0.22607271 -0.12905218
0.17178687 0.07298784 -0.1250951 -0.13553584 -0.16124262 0.04303456 -0.24522544 -0.11513734
0.2892155 0.045165855 0.26918218 -0.049391326 0.1895376 0.24884243 -0.15896592 -0.07634841
0.09940238 -0.090066314 0.007628948 0.31903616 -0.029447304 0.07307073 0.352784 0.034612123

portfolio_head.bias f4 [15]
00000000: 836b a13a 5904 333d 3e60 253b 0883 dbbc
00000010: 6c7b 7bbd 8509 a4bc c84f eaba 5689 9abd
00000020: 658f 713c 8f1f 14bd dd39 1d3d 2450 09ba
00000030: 524c 3f3d 39ca 933d b4bd 603c
0.0012315366 0.043705318 0.0025234367 -0.026795879 -0.061397 -0.02002407 -0.001787656 -0.07545726
0.014743661 -0.03616291 0.03838526 -0.0005238077 0.046703644 0.07216305 0.013717104

network.0.weight f4 [64, 2]
00000000: c0c6 b83e 8d1f 953e 868b 223e 496c 893e
00000010: 4a55 38be 024d b3be 4f39 b93e 7731 a63e
00000020: 1faf 78be 882e 28bd abf6 d6bc f6e3 2fbe
00000030: ad21 2a3e abb6 0c3e b211 db3d 0d35 a43d
00000040: 8a3a 203d 772b 8bbe a76e 8abe dc7d df3d
00000050: de45 e0bc 11d9 ec3e 6d26 74bb 16bb 03be
00000060: 0997 533e 015b 803e 86da 6c3e d6e1 953c
00000070: e178 ddbd ce34 b33d 1eab 41be 6316 e4bd
00000080: 6682 53be a4cd 33bd 936d 893e f8ae e9bd
00000090: 0222 323e cb72 733c cb3f 58bc 946f edbc
000000a0: 4916 ecbd 460f e43d f061 34be 3d13 093e
000000b0: 15a8 853e 8a6f 253d f710 8a3e 9749 8b3e
000000c0: 6fe1 7c3e 1407 c6bb c11f 4f3e c67a 393d
000000d0: 68cb 7dbd b5c5 29be 39ee 313e 0cf0 fb3d
000000e0: 13ce 173e 13c2 993b 6411 ccbb 1326 4c3e
000000f0: b64b 09be 2112 bd3e 5f08 d1bd 0ec9 b9bd
00000100: 5bef 3abe 3412 9cbe dda2 263d 3215 353e
00000110: 8df7 f23e 624a 133d b1d8 b4bd 7a32 e7bd
00000120: 2a0c cdbe c174 27bb 2e19 91bb 458d cb3e
00000130: ccf9 d73e 2856 183e 1e3c 59be 46ab 4cbd
00000140: 4c37 05be 8916 b4be 1f1f 80be 3d99 f33e
00000150: 4a2e 17bd 93b6 9ebd 0c01 e2bd e6b5 8a3e
00000160: e123 ad3e ab34 c73d f021 2cbd 8c01 60be
00000170: 5992 583e 72af 9f3e 0569 efbd 2484 f6bd
00000180: 82e9 6f3e fa56 2b3d 0b06 d73b b459 f1be
00000190: d09c 883e 79d4 a63e 89b3 ef3d 7f4c 6f3e
000001a0: 6404 a9bc 4fcc 21bd 5e4f 51bd 93a8 ed3d
000001b0: edd2 5c3e 6f20 a23e 8453 b1bd 5de6 a5be
000001c0: 1c90 4bbe c8d0 8e3e ad6e 00bd dd1b 07be
000001d0: 7ef9 123e c946 883d e0c5 c1bd 31a7 49bb
000001e0: e8cf f7ba a235 c23e d90a ca3e c9d7 833c
000001f0: e35a bcbd a11e 18be 7518 7d3e c9d8 133e
0.36089134 0.29125634 0.15873536 0.26840428 -0.18001285 -0.3501969 0.36176535 0.32459614
-0.24285553 -0.04106 -0.026240667 -0.17176804 0.16614409 0.13741557 0.106967345 0.08017931
0.039118327 -0.271816 -0.27037546 0.10912678 -0.027377065 0.4625936 -0.003725435 -0.12864336
0.20663084 0.2506943 0.23130235 0.018296164 -0.108140714 0.08750306 -0.18912932 -0.111370824
-0.20655212 -0.043897286 0.2684141 -0.11410326 0.17395785 0.014858912 -0.013198803 -0.028983869
-0.11527688 0.11135726 -0.17615485 0.13386245 0.261048 0.040389575 0.26966068 0.27204582
0.24695371 -0.0060433242 0.20226957 0.0452831 -0.06196156 -0.16579325 0.17376031 0.12301645
0.14824705 0.004692325 -0.006227659 0.19936399 -0.13407788 0.36927894 -0.10206675 -0.09071551
-0.1825537 -0.30482638 0.040682662 0.17683867 0.4745449 0.03595961 -0.08830393 -0.112889245
-0.40048343 -0.0025551768 -0.0044280505 0.39756218 0.42182767 0.14876616 -0.21214339 -0.049968027
-0.13009375 -0.35173443 -0.25023744 0.4757785 -0.03690938 -0.07749667 -0.11035356 0.27091902
0.33816436 0.097268425 -0.042024553 -0.2187559 0.21149577 0.31188542 -0.11689953 -0.120369226
0.2342892 0.041830994 0.0065619997 -0.4713875 0.26682138 0.3258398 0.117041655 0.23369025
-0.020631976 -0.039501484 -0.05110108 0.116044186 0.21564837 0.3166537 -0.086585075 -0.32402316
-0.19879192 0.27893662 -0.03135555 -0.13194223 0.14352986 0.06654126 -0.0946157 -0.003076982
-0.0018906565 0.37931544 0.394614 0.016094105 -0.09197023 -0.14855434 0.24716361 0.14438166

network.0.bias f4 [64]
00000000: 171b bf3d 73dd 243e 0000 0000 e10f 223e
00000010: 0000 0000 0000 0000 1c85 283e de75 253e
00000020: 0209 c6bd 5a50 20bd c83e 1f3e 0000 0000
00000030: ed72 253e 5b57 1d3e 4120 34bd 0000 0000
00000040: 0000 0000 59cf e83d ef8b 9d3d 0000 0000
00000050: 4d6e da3d 2615 4cbd 2022 fa3d 1e56 fe3d
00000060: ca08 293e a175 e43d 0000 0000 dee3 263e
00000070: acb2 893c 4492 1c3e dd00 153e 0000 0000
00000080: 0000 0000 3903 ddbd 45a8 fa3d 0000 0000
00000090: 0000 0000 cb4e 1f3e 633b 253e 0000 0000
000000a0: 0000 0000 3699 163e 0000 0000 bd81 163e
000000b0: cada b33d 0000 0000 ce22 243e 0000 0000
000000c0: 60f0 263e 0000 0000 5548 f63d da8e 083e
000000d0: ed79 73bd cf15 4cbd 94d3 203e 0000 0000
000000e0: c611 4cbd 2a15 4cbd ec67 283e 0000 0000
000000f0: 3927 1d3e d359 083e 0000 0000 0a63 063e
0.09331339 0.16100101 0.0 0.1582637 0.0 0.0 0.16457027 0.16158244
-0.09669687 -0.03913913 0.15551293 0.0 0.16157122 0.15365355 -0.043976072 0.0
0.0 0.113676734 0.07692706 0.0 0.106655695 -0.049824856 0.1221354 0.12418769
0.16507259 0.111552484 0.0 0.16297862 0.01680883 0.15290171 0.1455111 0.0
0.0 -0.1079163 0.12239126 0.0 0.0 0.15557401 0.16135935 0.0
0.0 0.14706883 0.0 0.14697929 0.08781965 0.0 0.16028902 0.0
0.16302633 0.0 0.12025515 0.13335744 -0.05944245 -0.049825486 0.1570571 0.0
-0.049821638 -0.04982487 0.16445893 0.0 0.15346994 0.13315515 0.0 0.13123718

network.2.weight f4 [64, 64]
00000000: 16db 103e b5ad 8cbe d780 403d be83 6b3b
00000010: db7d 6cbe 4bae 053e ec8b 863e 6069 ff3e
00000020: 7f36 5e3e 5717 8aba a22e ba3d f8d9 d4be
00000030: f0fe 0d3d 5fab 9d3d 30f3 e4bc e7d1 b83e
00000040: f74c b3bc 3627 b43e e464 ccbd 21ed 50be
00000050: 7a57 ae3d 504e a93d c8ee 8bbb 0eac 683e
00000060: dd8f 013e 5c70 a93e 96b1 c53d ab82 57be
00000070: 04bc 243e 320f 1c3d 0302 7f3e 0bbf 3ebe
00000080: 8d7b f33d 625e 86be 78b9 a23e 55ee 8cbd
00000090: 9ceb 053e 194b 7a3c c0ef 5c3c a6e0 7d3e
000000a0: 3441 1e3e dad9 203d f5bd e33d 2360 153e
000000b0: 2cf2 833e 35f6 6bbd 6efe b53d bb30 b7be
000000c0: e3fc 183e b589 1dbe 46f6 ccbd 126c 353e
000000d0: 1898 9dbe ba9c 6bbe 3b32 d3bb 0d90 73bd
000000e0: 843f 5ebd dbdc 343d 5bf9 40be 6b81 21bd
000000f0: 3ea3 063e c3df 803e 69ed 2a3d cb22 b93d
00000100: 791e 44be 077e 5a3e 67a8 32be d66a 0d3e
00000110: 58ca 20bd c312 0ebe 8e9a 8dbe b3f3 193e
00000120: 20cb da3d dd6e b13d c217 8d3e d7f4 c7bc
00000130: 3dac 943e 14b9 313d 41f5 13be 7a32 173e
00000140: 52c2 0e3e ad98 f4bd 3c4e a53d da84 f2bc
00000150: 0e59 753e 8c7c febd 536a bd3e 3664 79bd
00000160: b0a5 b43e ec2e 3f3d 1ef9 623d e8fd 8e3e
00000170: 23a5 ef3d e60b d13d bb74 c53e 597b 233d
00000180: e0b9 de3c b8c8 bd3d ec25 673d 0a50 6bbe
00000190: 5fd8 38bd e17f 8f3e b22e 3cbc fafb 5abd
000001a0: 11e8 013c 2c2c 413e 11bd bfbe 5fc2 7a3d
000001b0: 2d13 f53e f96c 97bd 9662 efbd 0480 7abd
000001c0: c4fb 353e 91bc bebd 9742 ac3d 44d7 9c3e
000001d0: 4075 85bd 22b5 bfbd b99d 083e be02 113e
000001e0: aaa4 0c3f 2fd0 61bb febe ba3d c416 64be
000001f0: 23fb 4d3e b956 933e 4dc6 f83e 8296 d63e
00000200: 131d 103d 50fc acba 617d 743e 25e7 af3e
00000210: 5a20 41be 3276 543e 3719 543c 74ff 853e
00000220: 64ac 63be 2817 45be 7fd0 d63d f94a 59be
00000230: dc18 843e bffe 433e 2457 a33d 818f 80be
00000240: 81f7 99be 6059 083e 8dd6 ad3c 4b6f a1bc
00000250: 8ec3 0ebe ca80 8fbe e022 1cbc 5a0f d43c
00000260: d3fa 92be 3b43 8ebd 65ae 483d 4c7d fabd
00000270: 9205 893c 84c3 b53e d7aa b33e 38dc c3bc
00000280: 7af8 f0bc 1b0b ab3d da7a 4c3e f89e 61bc
00000290: da2c 6e3e cd8e bc3e 5c5e b43d cf00 173e
000002a0: 25ef f53d c1c5 763e a597 00bf 6c8b 3d3e
000002b0: 2111 c53d 00bc 34bd ada4 f03d aa2e a43e
000002c0: 2cd2 1dbd 44df 55bd e3ac 143d 6a4c 20be
000002d0: 46cc fdbb 5c5b c53d aa85 bc3d 305a 8f3e
000002e0: 9ff3 463d e4f3 1ebc 1ad2 093e a8bd 513d
000002f0: 8cb7 fc3e 9c59 c93c ad8a c6bd bc31 1c3e
00000300: 0742 8f3e 4534 68bd 553e 323d 64f2 da3c
00000310: 1182 5abd 6cc7 9bbd faf5 c13e 5498 623e
00000320: 043d bd3b a5a0 b0bc 2bfc 703d a85e 1f3e
00000330: 3d9b 383d aa97 603b a442 a53e ec7b 73be
00000340: ff6d 773e d436 a63d 8ea9 013d 0c88 36be
00000350: 899c 1c3e 84a2 df3b 13bd 763d 36c7 6e3d
00000360: 7049 1c3e a670 173e ddb7 563e 8cb0 973e
00000370: 0266 4a3d cf74 763e 372d 233e bab9 403e
00000380: c5ce 9dbd e7d1 193e fd2b 88bd a7b7 c93d
00000390: ee10 1e3d 9db9 353d 046e 29be d026 a23e
000003a0: 47e3 e63e e78a 833e 3906 23be c41f a23d
000003b0: 396d 34be 5d05 ecbb cf8f eb3e 1bb5 4abc
000003c0: 6960 1dbe 19b9 aebd 74d3 c93e 65b3 163f
000003d0: fc37 353e 1bae 913e 0e18 773d 7d3c 453e
000003e0: 2839 7c3d 2e43 eabd 1a11 113c 2802 e0bd
000003f0: 6caa 043d 3951 fd3e 581c 733e 9746 8a3e
0.14146075 -0.27476278 0.04699787 0.0035936679 -0.23094885 0.13054769 0.26278627 0.49885082
0.21700476 -0.001053552 0.09090926 -0.41572547 0.034666955 0.07698702 -0.027947992 0.36097643
-0.021887286 0.35186166 -0.09980181 -0.20402957 0.085127786 0.0826689 -0.0042704083 0.22721884
0.12652536 0.33093536 0.096530125 -0.2104594 0.16087347 0.03810043 0.24903111 -0.18627565
0.118888 -0.26243883 0.31782126 -0.06881396 0.13078159 0.015276694 0.013484895 0.24792728
0.1545456 0.03927026 0.11120216 0.14587454 0.257707 -0.05760785 0.08886419 -0.35779366
0.14940219 -0.15384562 -0.100079104 0.17717007 -0.307801 -0.23009005 -0.006445197 -0.05946355
-0.054259792 0.044155937 -0.18845122 -0.039430063 0.1314821 0.25170717 0.04173032 0.09039839
-0.1915225 0.21337138 -0.17447053 0.13810286 -0.03925547 -0.13874345 -0.27656978 0.1503437
0.10683274 0.086637236 0.27557188 -0.02440874 0.29037657 0.043389395 -0.14449026 0.14765349
0.13941315 -0.11943183 0.08071563 -0.029604364 0.23959753 -0.12426099 0.3699518 -0.060886584
0.3528266 0.046675608 0.055413358 0.2792809 0.11701419 0.102073476 0.3856562 0.039912555
0.027188241 0.092668 0.05643265 -0.22979751 -0.045128223 0.2802725 -0.011485742 -0.05346296
0.007928864 0.18864506 -0.37448934 0.061220523 0.47866192 -0.07393832 -0.11688726 -0.06115724
0.17771822 -0.0931331 0.084111385 0.30632985 -0.06516504 -0.0936072 0.13341416 0.14161202
0.5493876 -0.0034456362 0.0911846 -0.2227431 0.20115332 0.28777102 0.4858879 0.41911703
0.035183977 -0.0013197754 0.23875953 0.34356037 -0.18859997 0.20748213 0.012945465 0.26171458
-0.2223373 -0.19247115 0.10488986 -0.21220006 0.25800216 0.19140147 0.07975605 -0.25109485
-0.30071643 0.13315344 0.02122047 -0.019706389 -0.13941786 -0.28027946 -0.009529799 0.025886226
-0.2870699 -0.06946417 0.04899444 -0.1223093 0.016726289 0.3550073 0.35091278 -0.02390872
-0.029415358 0.083517276 0.19968739 -0.013770811 0.23259297 0.36827698 0.0880706 0.14746402
0.12008504 0.24098875 -0.5023139 0.18510216 0.09622408 -0.044124603 0.117501594 0.32066852
-0.038530514 -0.052214876 0.03629769 -0.1565415 -0.0077452986 0.09636566 0.09205182 0.27998495
0.04857218 -0.009701703 0.13459054 0.05120626 0.49358785 0.024578862 -0.09694419 0.15253347
0.27980062 -0.056690473 0.043516476 0.026726909 -0.053346697 -0.07606396 0.37882978 0.22128421
0.005775096 -0.021560976 0.058834236 0.15563452 0.04506992 0.0034270086 0.32277405 -0.23777741
0.24163054 0.081159264 0.03165584 -0.17825335 0.15294088 0.0068247933 0.06023891 0.05829545
0.15262389 0.14789066 0.20968576 0.29626882 0.04941369 0.24067996 0.15935217 0.18820849
-0.07705454 0.15021478 -0.06649015 0.09849482 0.038590364 0.044366468 -0.16545874 0.31670237
0.45095274 0.25691912 -0.15920343 0.07916215 -0.1761979 -0.007202788 0.46008155 -0.0123722805
-0.15368809 -0.08531398 0.39419138 0.58867484 0.17697138 0.28453144 0.060325675 0.19261356
0.061577946 -0.11438595 0.008854175 -0.10937911 0.03238909 0.4947603 0.23741281 0.2700698

network.2.bias f4 [64]
00000000: dab9 aa3d 9ed8 1e3e 4830 193e b2d2 1b3e
00000010: 0c27 8f3d 4815 4cbd c099 243e ab20 7fbd
00000020: d410 4cbd cd18 253e e4dd 223e 0000 0000
00000030: 893d 0f3e 0000 0000 0000 0000 2ae4 8e3d
00000040: 0000 0000 0000 0000 9483 213e d3eb 083e
00000050: 0000 0000 ee70 90bd 0000 0000 accd 013e
00000060: e4f6 243e cf11 4cbd ba15 4cbd 0000 0000
00000070: 6d0c 4cbd a820 35bd b64c f33d 64a5 c03d
00000080: b72d 1a3e 7014 4cbd 9b0e 4cbd df8e 4fbd
00000090: 7d37 203e 0a1b 203e 0000 0000 9415 4cbd
000000a0: 62e6 eebc df13 4cbd db9f 243e 0000 0000
000000b0: 4e16 203e 5796 f33d 0000 0000 766a 173e
000000c0: 0316 4cbd 7ec1 8abd 0000 0000 cd14 4cbd
000000d0: add4 243e 19a3 37bd ee29 39bd ff39 253e
000000e0: f973 e73d 0000 0000 1e71 243e ef1d 253e
000000f0: 3a79 243e e014 4cbd db2c 1fbd 548d fb3d
0.083362296 0.1551232 0.14959824 0.15217093 0.069898695 -0.049824983 0.16074276 -0.062287014
-0.049820736 0.16122742 0.15904957 0.0 0.13988318 0.0 0.0 0.069771126
0.0 0.0 0.1577285 0.1337121 0.0 -0.0705279 0.0 0.12676114
0.16109806 -0.04982167 -0.049825408 0.0 -0.049816538 -0.044220597 0.11879866 0.09406546
0.15056501 -0.04982418 -0.049818616 -0.050673362 0.15646167 0.15635315 0.0 -0.049825266
-0.02916259 -0.049823638 0.16076605 0.0 0.15633509 0.118939094 0.0 0.14786705
-0.04982568 -0.06775187 0.0 -0.049824525 0.16096754 -0.044833276 -0.045206003 0.16135405
0.11301417 0.0 0.16058776 0.161247 0.1606187 -0.049824595 -0.038861137 0.122828156

network.4.weight f4 [1, 64]
00000000: c87d d83d 6566 293e 2b75 193e 291d 1f3e
00000010: 31ac c53d 8d32 003d a24f 393e 0a34 213d
00000020: 5a46 4a3d 2b91 2e3e 7c13 233e c446 b2bb
00000030: 2efb 0a3e b963 aeb8 9b21 3d3c cfcd b33d
00000040: ff27 2fbc efe6 b1bc 02ba 203e c97e 063e
00000050: dbc8 f0bc 77d3 4c3d b3d4 703c 5f53 043e
00000060: 75c9 313e cb4d 2f3d 6710 303d 9746 6dbb
00000070: f802 493d 4cd7 2a3d 6632 163e 897c 0b3e
00000080: 0920 203e 996a 463d de34 3d3d 6180 393d
00000090: 192a 203e cbe5 1e3e 0763 2839 a9a7 dc3c
000000a0: 5935 15bd 5168 473d 8c9f 2f3e 9bd2 8e3c
000000b0: 7d09 213e 39a7 193e bd1b 093a a0e0 223e
000000c0: 9255 df3c 47a3 4b3d 33ae a9bb da96 443d
000000d0: c3cc 2c3e f692 073d 2fdb 523d a17c 2e3e
000000e0: 1efe 0b3e 62e1 f53b a4af 273e 3b3d 2d3e
000000f0: 8365 333e 6767 e63c c11c 403d 171f 0d3e
0.10570866 0.16542967 0.14986102 0.15538467 0.096519835 0.03129821 0.18096784 0.03935627
0.0493835 0.17047565 0.15925401 -0.005440565 0.1357238 -8.315541e-05 0.011543657 0.08779489
-0.010690688 -0.021716563 0.15695956 0.13134302 -0.02939265 0.050006356 0.014699149 0.12922429
0.17362006 0.0427988 0.042984392 -0.0036205405 0.049075097 0.04170923 0.14667663 0.13621725
0.1563722 0.048441503 0.046192996 0.045288447 0.15641059 0.15517347 0.00016058619 0.026935415
-0.03642783 0.04868347 0.17150706 0.017434409 0.15726276 0.15005197 0.00052302686 0.15906
0.027262483 0.04971626 -0.005178237 0.047995426 0.16874985 0.033099137 0.05147856 0.1703973
0.13671157 0.0075036744 0.16375595 0.16917889 0.17519192 0.028125478 0.04690242 0.13781391

exp_avg f4 [64, 2]
00000000: cc84 023b c72a e938 bd41 0438 75bd 5ab8
00000010: 0000 0000 0000 0000 5efa 8036 b143 aa35
00000020: ca0c 0c3b 8541 0739 f04a 0fbb 3935 33b9
00000030: 2ebd 08ba 1705 84b8 88f9 96bb 5f5f c6b9
00000040: 456b 99ba cb58 fc35 0000 0000 1661 3936
00000050: 9217 d439 977d ca36 1f03 8438 6f26 c634
00000060: 3e1d 70ba 948c dbb7 0000 0000 0000 0000
00000070: 0000 0000 0000 0000 8222 6539 bef4 1937
00000080: 0000 0000 0000 0000 0000 0000 0000 0000
00000090: 0000 0000 0000 0000 0000 0000 0000 0000
000000a0: 0000 0000 0000 0000 9564 9aba a07b 30b9
000000b0: 0000 0000 3d92 8735 40c8 f93a beec 1639
000000c0: 0000 0000 0000 0000 0000 0000 0000 0000
000000d0: 62db 343b d825 6139 dfd9 64ba c9d8 16b9
000000e0: d114 613a 7357 8eb8 804e c9ba 59c6 13b9
000000f0: d807 de3a ad6b 07b7 d872 d13a 578f 0d39
00000100: ea4b 53b9 d39c 45b8 0000 0000 0000 0000
00000110: 66b1 f03a b025 8638 0000 0000 0000 0000
00000120: e79a 843a a1d8 8b38 0000 0000 0000 0000
00000130: 4a6a b73a 069e e838 4dee 56bb 8581 8db9
00000140: 0000 0000 0000 0000 6090 a4ba 0af6 8eb8
00000150: 0000 0000 0927 a935 0000 0000 0000 0000
00000160: d7b0 0e3a 513e 7638 26f0 fb39 232b 9c36
00000170: 0000 0000 0000 0000 457d d0ba 5dfe fdb8
00000180: 0f69 feb9 6993 a8b7 0000 0000 0995 9f32
00000190: d652 e239 8003 15b7 4aa6 8e36 d46a 1236
000001a0: 97ca 45ba 7f92 57b9 0000 0000 afc0 3336
000001b0: 8211 b2ba 3112 1db8 d9ad 0e38 c71d aeb6
000001c0: 0000 0000 ac9e b735 9d75 173b 83f9 4839
000001d0: d19c 2a3a d88b c137 9ef5 8539 4f42 c3b6
000001e0: 0000 0000 10a4 be34 0000 0000 0000 0000
000001f0: e480 b73a e59b c637 0000 0000 0000 0000
0.001991558 0.00011118274 3.1532476e-05 -5.2151696e-05 0.0 0.0 3.843844e-06 1.2685688e-06
0.0021369928 0.00012899011 -0.0021864735 -0.00017090597 -0.0005216178 -6.2951985e-05 -0.004607383 -0.0003783656
-0.0011704942 1.8801305e-06 0.0 2.762366e-06 0.00040453352 6.0346897e-06 6.294832e-05 3.6908338e-07
-0.0009159631 -2.6172296e-05 0.0 0.0 0.0 0.0 0.00021851997 9.176494e-06
0.0 0.0 0.0 0.0 0.0 0.0 0.0 0.0
0.0 0.0 -0.0011779243 -0.00016830722 0.0 1.0100845e-06 0.0019056872 0.00014393308
0.0 0.0 0.0 0.0 0.0027596583 0.0002147177 -0.0008729975 -0.00014385874
0.0008586171 -6.787376e-05 -0.0015358478 -0.00014092903 0.0016939593 -8.071697e-06 0.0015979661 0.00013500206
-0.00020150808 -4.7114514e-05 0.0 0.0 0.0018363416 6.396638e-05 0.0 0.0
0.0010116965 6.668387e-05 0.0 0.0 0.0013993469 0.00011092056 -0.0032795847 -0.00026990115
0.0 0.0 -0.0012555234 -6.816916e-05 0.0 1.2602842e-06 0.0 0.0
0.00054432213 5.8709007e-05 0.00048053375 4.654184e-06 0.0 0.0 -0.0015906474 -0.00012111359
-0.0004852493 -2.0095804e-05 0.0 1.857781e-08 0.00043167797 -8.881907e-06 4.2512884e-06 2.1817877e-06
-0.0007545142 -0.00020558572 0.0 2.6785235e-06 -0.001358554 -3.744866e-05 3.4017346e-05 -5.1890706e-06
0.0 1.3680742e-06 0.0023110874 0.00019166437 0.0006508353 2.3072513e-05 0.00025550736 -5.819172e-06
0.0 3.550963e-07 0.0 0.0 0.0014000204 2.3676033e-05 0.0 0.0

exp_avg_sq f4 [64, 2]
00000000: 4bf3 f434 cffa de30 85d1 da2f 34c4 692f
00000010: 0000 0000 0000 0000 ea01 172e 1a94 832c
00000020: cc43 ce35 8333 5c32 2898 6f35 8305 e231
00000030: 4903 8835 d544 c231 2645 bf35 7f08 3032
00000040: cd62 7335 9780 c531 0000 0000 fef9 9b2d
00000050: 61cf f032 dbeb 9530 e0e5 a031 32fc 1d2c
00000060: e9a2 9e35 4dcb f831 0000 0000 0000 0000
00000070: 0000 0000 0000 0000 c4d6 1734 d6bc e32f
00000080: 0000 0000 0000 0000 0000 0000 0000 0000
00000090: 0000 0000 0000 0000 0000 0000 0000 0000
000000a0: 0000 0000 0000 0000 f281 8a34 06c3 4f31
000000b0: 0000 0000 40d7 262c 689c 6835 1637 d731
000000c0: 0000 0000 0000 0000 0000 0000 0000 0000
000000d0: baeb 6935 cf06 9431 6bc2 0735 caeb 8b31
000000e0: 071c 6f35 b552 ba31 e09d 8135 e9e1 fd31
000000f0: 3a9b 3b35 60d8 8131 14b4 7335 89ca b131
00000100: 7897 1336 514c 8d32 0000 0000 0000 0000
00000110: fdd8 b235 2ad7 4532 0000 0000 0000 0000
00000120: 1ffb 8235 8efb 2532 0000 0000 0000 0000
00000130: 7795 2936 05c8 9232 8c25 a135 9d98 f231
00000140: 0000 0000 0000 0000 88e1 e435 ab07 0532
00000150: 0000 0000 9add 812c 0000 0000 0000 0000
00000160: d17c 8234 a926 3930 0bfb a832 64b4 ad2f
00000170: 0000 0000 0000 0000 75d7 9135 4cc1 fe31
00000180: 1d75 e134 0d49 4931 0000 0000 1f2c 6726
00000190: d94b 9e35 a7ab 1232 b1b7 382e a29a 422d
000001a0: e9e8 c535 d238 9532 0000 0000 e9a6 922d
000001b0: 7941 8735 1c73 dd31 0dc2 2c2f 5b49 9a2e
000001c0: 0000 0000 ac07 992c e4ec ce35 a8a1 2432
000001d0: ed32 fb34 4352 4431 8a02 4f31 488a 112f
000001e0: 0000 0000 daf4 a42a 0000 0000 0000 0000
000001f0: a2ed 0834 2568 9830 0000 0000 0000 0000
4.562556e-07 1.622391e-09 3.9802842e-10 2.1260932e-10 0.0 0.0 3.4335125e-11 3.7396865e-12
1.5367928e-06 1.2817398e-08 8.9255855e-07 6.5780923e-09 1.0133746e-06 5.6539684e-09 1.4250734e-06 1.024648e-08
9.066833e-07 5.7480736e-09 0.0 1.7732479e-11 2.8033982e-08 1.0908211e-09 4.6827466e-09 2.2451038e-12
1.181933e-06 7.2408626e-09 0.0 0.0 0.0 0.0 1.4141102e-07 4.1425235e-10
0.0 0.0 0.0 0.0 0.0 0.0 0.0 0.0
0.0 0.0 2.579905e-07 3.0233323e-09 0.0 2.3709507e-12 8.6654336e-07 6.263586e-09
0.0 0.0 0.0 0.0 8.714229e-07 4.308141e-09 5.0574334e-07 4.0722385e-09
8.9075223e-07 5.422715e-09 9.657197e-07 7.388952e-09 6.9888813e-07 3.778993e-09 9.07866e-07 5.1744036e-09
2.1992873e-06 1.6449265e-08 0.0 0.0 1.3325185e-06 1.1515832e-08 0.0 0.0
9.758841e-07 9.661461e-09 0.0 0.0 2.5269962e-06 1.7087595e-08 1.2006362e-06 7.060477e-09
0.0 0.0 1.7052962e-06 7.743362e-09 0.0 3.6910032e-12 0.0 0.0
2.4305203e-07 6.735755e-10 1.9671935e-08 3.1596692e-10 0.0 0.0 1.0866048e-06 7.4143482e-09
4.1994727e-07 2.9290874e-09 0.0 8.020402e-16 1.1793992e-06 8.537348e-09 4.1999907e-11 1.1061959e-11
1.474543e-06 1.7371722e-08 0.0 1.6672401e-11 1.0077339e-06 6.445033e-09 1.571225e-10 7.01614e-11
0.0 4.3493733e-12 1.541714e-06 9.582813e-09 4.6789447e-07 2.8568514e-09 3.0123908e-09 1.32368e-10
0.0 2.9302152e-13 0.0 0.0 1.2752437e-07 1.1089055e-09 0.0 0.0

exp_avg f4 [64]
00000000: 579c 0a3b c435 1bbb 0000 0000 ec0f f537
00000010: a4ae 173b fd2a 79bb de25 51bb ee49 02bc
00000020: 7e58 4ebb dbe9 0539 7823 70b9 6c42 2d39
00000030: 0088 6dbb 0000 0000 0000 0000 3b20 c139
00000040: 0000 0000 0000 0000 0000 0000 0000 0000
00000050: 0000 0000 2bba d8bb e6dd 4338 4809 f73a
00000060: 0000 0000 0000 0000 abbb 8c3b 4e96 4cbb
00000070: 5e56 1bbb 0d97 a1bb 6c4d abba b903 243b
00000080: d3af 5c39 0000 0000 1e79 8437 0000 0000
00000090: 5cdc 8c39 0000 0000 abe7 053b 008a c8bb
000000a0: 0000 0000 2881 1b3a 2a62 7438 0000 0000
000000b0: a129 0f3b bdbc 7939 0000 0000 b55d 55bb
000000c0: 8105 bcba 808e 6635 2af0 07ba c07c c938
000000d0: f093 8ebb 57d9 0139 f601 d7ba eafb 8cb9
000000e0: 7da4 8438 0a1b 023b 6e78 deba 05ba c6b9
000000f0: e1b6 8937 0000 0000 bf8c d539 0000 0000
0.0021150315 -0.002368317 0.0 2.921369e-05 0.0023144865 -0.0038020008 -0.003191344 -0.0079521965
-0.003148585 0.00012770986 -0.00022901397 0.0001652331 -0.0036244392 0.0 0.0 0.00036835842
0.0 0.0 0.0 0.0 0.0 -0.00661399 4.6698282e-05 0.001884737
0.0 0.0 0.0042948327 -0.0031217518 -0.0023702602 -0.0049313367 -0.0013069338 0.0025026633
0.00021046335 0.0 1.5792026e-05 0.0 0.0002686706 0.0 0.0020432274 -0.0061199665
0.0 0.00059320265 5.8265556e-05 0.0 0.002184488 0.00023816801 0.0 -0.0032557074
-0.0014344902 8.588904e-07 -0.00051856285 9.6076634e-05 -0.0043511316 0.00012383364 -0.0016403783 -0.00026890571
6.324889e-05 0.0019852542 -0.0016973147 -0.00037904098 1.6416832e-05 0.0 0.0004073139 0.0

exp_avg_sq f4 [64]
00000000: b2c3 6d35 2684 d634 0000 0000 e549 0831
00000010: 9f18 b136 33f2 a436 700e 8236 3c5f fa36
00000020: f5a3 d236 1ac9 2233 b22c f335 b847 4333
00000030: b558 dc36 0000 0000 0000 0000 a5f7 ae34
00000040: 0000 0000 0000 0000 0000 0000 0000 0000
00000050: 0000 0000 bfc0 7036 c51f ae31 49a3 d436
00000060: 0000 0000 0000 0000 06fb 5936 5a8b 0736
00000070: 25a6 8a36 8076 9f36 8897 1f36 41c3 2836
00000080: 28fa c436 0000 0000 bc8a a136 0000 0000
00000090: a7e5 2337 0000 0000 b975 2237 9040 b436
000000a0: 0000 0000 5e51 9336 e488 0732 0000 0000
000000b0: 391e 1235 b52c 2335 0000 0000 1aec c236
000000c0: bcb1 f735 9643 f12b 698a a536 b742 b832
000000d0: 309c 0037 cc0d 1933 2d28 a936 f883 1234
000000e0: d5b5 1f32 1609 a536 7c90 0a36 7092 7534
000000f0: 4d28 2c30 0000 0000 3299 b835 0000 0000
8.8574154e-07 3.9956757e-07 0.0 1.9832609e-09 5.2778773e-06 4.9157766e-06 3.8759827e-06 7.4616673e-06
6.277575e-06 3.7901465e-08 1.8117919e-06 4.5467203e-08 6.566838e-06 0.0 0.0 3.259021e-07
0.0 0.0 0.0 0.0 0.0 3.587498e-06 5.0676783e-09 6.3371012e-06
0.0 0.0 3.2481635e-06 2.019768e-06 4.1320623e-06 4.7523645e-06 2.378105e-06 2.5147604e-06
5.870377e-06 0.0 4.8143247e-06 0.0 9.769027e-06 0.0 9.683362e-06 5.371934e-06
0.0 4.390414e-06 7.8891595e-09 0.0 5.443322e-07 6.078729e-07 0.0 5.8091364e-06
1.8454662e-06 1.7142839e-12 4.9334963e-06 2.1450758e-08 7.66576e-06 3.5635637e-08 5.0412696e-06 1.364532e-07
9.296362e-09 4.918441e-06 2.0647703e-06 2.2870677e-07 6.2630506e-10 0.0 1.3753654e-06 0.0
