data/results/sentiment_gbwm_20251203_220710/final_model_safe.pth (torch, 101825 bytes, 27 tensors)

state_encoder.time_encoder.0.weight f4 [16, 1]
000000 fa 96 33 be cd 5d f4 3d 4d 7e c3 3e 8f 27 57 be
       -0.17538062 0.119319536 0.38182297 -0.21011184
000010 99 9c 27 be 10 32 22 3e 8a 57 fe bd 5e e2 af 3e
       -0.16368331 0.1583941 -0.124190405 0.34352392
000020 75 6f 84 3e 35 4a 5a bf b8 11 41 3e c2 29 89 3e
       0.25866285 -0.8526948 0.18854415 0.2678967
000030 64 d6 23 3f 70 0a 1b bd 8e cc c1 be 3f 67 b4 3e
       0.6399901 -0.03785175 -0.37851375 0.3523502

state_encoder.time_encoder.0.bias f4 [16]
000000 00 00 00 00 00 00 00 00 00 00 00 00 00 00 00 00
       0.0 0.0 0.0 0.0
000010 00 00 00 00 00 00 00 00 00 00 00 00 00 00 00 00
       0.0 0.0 0.0 0.0
000020 00 00 00 00 00 00 00 00 00 00 00 00 00 00 00 00
       0.0 0.0 0.0 0.0
000030 00 00 00 00 00 00 00 00 00 00 00 00 00 00 00 00
       0.0 0.0 0.0 0.0

state_encoder.wealth_encoder.0.weight f4 [32, 1]
000000 b1 6e 51 be 63 ac 85 3e 29 35 a9 be ad 3c c6 3e
       -0.20452382 0.26108083 -0.3304837 0.38718167
000010 b3 6d a9 bd 7a ee 07 3f d2 0c d4 bd 33 63 58 bc
       -0.082728766 0.5309826 -0.10354008 -0.013207245
000020 19 35 8f be cd 6e ae bb 23 93 eb be d3 c5 2f 3d
       -0.27970198 -0.005323267 -0.46010694 0.04291327
000030 d4 c5 04 3e 43 d2 ee bd 66 1c 54 3e 1e 71 63 3e
       0.1296609 -0.11661198 0.20713958 0.2221112
000040 58 2e 52 3c 52 83 12 3d 7a 29 16 3e 2a 16 94 3b
       0.012828432 0.035769768 0.1466426 0.0045192437
000050 dd 8a 43 3e e7 4c ef 3e b0 b1 af bd c0 2c 5a be
       0.19095941 0.4673836 -0.08578813 -0.21306133
000060 1b bc d3 bd 65 1c 20 be 35 6c 8a 3d 00 45 a0 be
       -0.10338613 -0.15635832 0.0675892 -0.31302643
000070 0e cc 95 3e 23 07 d0 be 9a e8 d3 3e 15 7e 26 be
       0.29257244 -0.40630445 0.41388398 -0.16259034

state_encoder.wealth_encoder.0.bias f4 [32]
000000 00 00 00 00 00 00 00 00 00 00 00 00 00 00 00 00
       0.0 0.0 0.0 0.0
000010 00 00 00 00 00 00 00 00 00 00 00 00 00 00 00 00
       0.0 0.0 0.0 0.0
000020 00 00 00 00 00 00 00 00 00 00 00 00 00 00 00 00
       0.0 0.0 0.0 0.0
000030 00 00 00 00 00 00 00 00 00 00 00 00 00 00 00 00
       0.0 0.0 0.0 0.0
000040 00 00 00 00 00 00 00 00 00 00 00 00 00 00 00 00
       0.0 0.0 0.0 0.0
000050 00 00 00 00 00 00 00 00 00 00 00 00 00 00 00 00
       0.0 0.0 0.0 0.0
000060 00 00 00 00 00 00 00 00 00 00 00 00 00 00 00 00
       0.0 0.0 0.0 0.0
000070 00 00 00 00 00 00 00 00 00 00 00 00 00 00 00 00
       0.0 0.0 0.0 0.0

state_encoder.sentiment_encoder.0.weight f4 [16, 2]
000000 b1 a8 a8 3e ae 85 33 be 78 70 22 bf 11 d5 3f 3d
       0.329412 -0.17531464 -0.63452864 0.046834055
000010 8b be 50 bf 5b 44 2d be ac c8 12 3e a4 89 aa be
       -0.81540745 -0.16920607 0.14334363 -0.33308136
000020 1b 06 04 3f fe 2e f9 3e 8a db 87 3e df c1 30 be
       0.51571816 0.48668665 0.26534683 -0.17261456
000030 38 09 94 3c b6 2a 12 3f d1 6b b8 be 70 66 e8 3d
       0.018070802 0.5709642 -0.36019757 0.113476634
000040 d5 09 4a 3e b3 5e 52 3e 35 98 fd 3c d6 98 96 3e
       0.19730313 0.20543937 0.030956367 0.2941348
000050 d8 01 ac bd 96 4a e3 be 7e ab 54 3c ea d3 58 3e
       -0.08398789 -0.44392842 0.01298034 0.21174589
000060 c9 be 99 be 9a 42 df 3e 7f 77 b5 3e 95 ab a8 3d
       -0.3002837 0.436055 0.3544273 0.08235852
000070 99 47 bf bd 79 41 96 be 45 e5 82 3e ec fb 40 bf
       -0.09339828 -0.29346827 0.25565544 -0.753844

state_encoder.sentiment_encoder.0.bias f4 [16]
000000 00 00 00 00 00 00 00 00 00 00 00 00 00 00 00 00
       0.0 0.0 0.0 0.0
000010 00 00 00 00 00 00 00 00 00 00 00 00 00 00 00 00
       0.0 0.0 0.0 0.0
000020 00 00 00 00 00 00 00 00 00 00 00 00 00 00 00 00
       0.0 0.0 0.0 0.0
000030 00 00 00 00 00 00 00 00 00 00 00 00 00 00 00 00
       0.0 0.0 0.0 0.0

state_encoder.fusion.0.weight f4 [64, 64]
000000 d2 5b 3c 3e 73 08 80 3d 53 a4 23 be da d2 78 bd
       0.18394402 0.062516116 -0.15980653 -0.06074796
000010 ee e0 46 3e 67 e7 84 3e b4 10 49 be 0a f9 95 bd
       0.19421741 0.25957796 -0.19635278 -0.07322891
000020 82 71 5d be 49 ff ad 3d 53 a2 ee 3d 1c 72 14 be
       -0.21625331 0.084959574 0.11652055 -0.14496654
000030 cf be 3f bc 2d 1c 00 be 50 47 86 3e 80 c8 f5 bd
       -0.011703207 -0.12510748 0.26226282 -0.12001133
000040 2d dd de bb 72 75 23 3e 8a 5f 92 3e 7d de 81 be
       -0.0068012686 0.1596277 0.28588516 -0.25365058
000050 cb e6 9c 3c 58 8b f0 bd c6 0c 95 bd 51 27 df 3d
       0.01915302 -0.11745328 -0.07277827 0.10896171
000060 f2 94 44 3c 6b b0 35 be 17 5d 4f bd d5 79 91 3e
       0.011998402 -0.1774308 -0.050625887 0.28413263
000070 f9 13 d7 bd a5 93 00 bf fb 75 9f be 9d b3 4f 3e
       -0.10501856 -0.5022529 -0.311447 0.20283361
000080 e8 f1 ec bd 43 e2 69 3d cf 4f ef bd 28 f1 59 bc
       -0.115695775 0.057100546 -0.11685144 -0.013302125
000090 ff 71 d0 bd f0 94 81 3e e8 0a 05 3e c7 ff 11 3e
       -0.10177993 0.25308943 0.12992442 0.14257728
0000a0 d9 20 93 3d 4c 40 08 bd df d2 5d 3e e2 38 1c 3e
       0.071839996 -0.033264443 0.21662472 0.15256074
0000b0 bb 97 ba 3c 45 c8 c6 bd 66 39 37 bd 17 fe 92 be
       0.022777429 -0.09706167 -0.044732474 -0.2870948
0000c0 76 81 2c 3e 47 a4 41 3d 7a 9b f5 3c 77 f5 30 be
       0.1684626 0.047275808 0.029981364 -0.17281137
0000d0 a6 4b 44 be 53 9c 3f 3e 4d 9d 91 3e 8c 8c 19 bd
       -0.19169483 0.18711977 0.28440323 -0.03748755
0000e0 5d a9 52 3e be 54 8b bd 4f 9b ef 3b 76 f7 56 3e
       0.2057242 -0.06803273 0.0073122154 0.20992836
0000f0 03 49 b3 bc fe 5e 8b 3c 31 e4 f6 be 74 23 20 be
       -0.0218854 0.01701307 -0.4822097 -0.15638524
000100 e1 c8 d0 3d 0f e7 e7 3d 52 d3 09 bd 21 bd 72 3e
       0.101945646 0.11323368 -0.033648796 0.2370496
000110 15 3b 92 bb 6e 79 14 3c ac ce 51 bd f0 d7 60 bd
       -0.0044626095 0.009062154 -0.05122249 -0.054893434
000120 b0 89 a0 39 98 87 85 bd 8b ff 54 bb 82 5e ef bd
       0.00030620163 -0.06520003 -0.0032500948 -0.11687948
000130 ae 9f d0 3d a4 16 94 3b fd 5e 0c 3e 81 dc 24 3d
       0.101867065 0.0045193005 0.1370811 0.04024935
000140 8f 93 dc bd 8f 17 9f 3d 3a 3a 38 be a2 56 ac bd
       -0.10770332 0.07768165 -0.17990962 -0.084149614
000150 d0 31 c8 3d 4c c7 89 3e a2 99 ea bd 7c 2b 25 be
       0.09775126 0.26909864 -0.114550844 -0.16129869
000160 5f 3f 02 3e a0 d2 aa 3e b4 2c 0d be 17 1e 2f 3e
       0.12719487 0.3336382 -0.13786584 0.17101322
000170 74 77 02 3f 08 ab 08 be 75 8b 51 3e 91 e2 47 3e
       0.5096352 -0.13346493 0.20463355 0.19520022
000180 89 bd 8e 3d c7 a7 0c 3d b4 42 ec be e9 79 5f be
       0.06969745 0.034339692 -0.4614464 -0.21823849
000190 8b 80 c2 3b 01 6f 49 3d c1 d3 9d 3d 5e 13 07 ba
       0.0059357337 0.049178127 0.077064045 -0.0005152727
0001a0 80 70 ec bb 46 e2 de bd af 00 81 bc 07 07 93 be
       -0.0072155595 -0.10883002 -0.015747396 -0.287163
0001b0 06 34 74 3e 53 cb c0 be 68 18 04 be 08 55 e5 3d
       0.2384797 -0.37655124 -0.12899935 0.11197859
0001c0 a8 c7 92 3d ad 2f a9 3d b5 45 b0 bd 5b 07 8f be
       0.07166988 0.082610466 -0.086070456 -0.279353
0001d0 78 84 3d 3e d4 be 84 be dc 62 6c be 9a 13 4e be
       0.18507564 -0.2592684 -0.23084587 -0.20124665
0001e0 1e c4 dd bc 13 b8 66 bc 8d ec f6 3e cb 91 90 bd
       -0.027071055 -0.014081973 0.4822735 -0.07059058
0001f0 78 2d 56 bc 22 1e d7 bd 1f b0 e7 bd 72 60 f8 3c
       -0.013072364 -0.10503794 -0.11312889 0.030319426
000200 ad f9 2a 3e 58 88 ba 3d 6f 33 02 3d 4d 3b d9 bc
       0.16696806 0.09108037 0.031787332 -0.026517535
000210 6b 23 9b bd 5d d2 44 3d 48 2c 24 be 7c 91 64 be
       -0.07575115 0.04805218 -0.16032517 -0.22321123
000220 2c 67 2f 3e fe 98 a1 3e 86 2a 95 3c ca 37 1b 3d
       0.171292 0.31562036 0.018208753 0.037895
000230 cc 8e 91 3b 72 75 0c 3e 41 17 5a 3b db 20 bc be
       0.0044420715 0.13716677 0.003327802 -0.36743817
000240 e6 c0 82 bd 51 7c 8c 3e 25 d2 79 3e c1 ba ab bc
       -0.06384449 0.27438596 0.2439657 -0.020963075
000250 15 3f d0 bd 85 30 b7 3e 00 55 b1 bd 85 56 e9 bc
       -0.10168282 0.35779205 -0.086587906 -0.028483639
000260 a2 8d 83 be 0f 5a 84 3e dd 7a ac 3d 3d 5a 1d bf
       -0.25693995 0.2584996 0.08421872 -0.6146582
000270 37 1a c0 3c 72 87 84 bd 57 30 a2 3c ad 6d 06 3c
       0.02345 -0.06471147 0.01979844 0.00820486
000280 65 2f 67 be 61 60 47 bc 54 04 29 be 20 5a 29 be
       -0.22576673 -0.012168975 -0.16505557 -0.16538286
000290 96 60 17 3e 93 26 df 3c 96 12 9b 3e 47 37 42 3e
       0.14782938 0.027240073 0.30287617 0.18966399
0002a0 2d 77 68 be c0 52 9a be f4 11 8e bd b1 35 4f bd
       -0.22701712 -0.30141258 -0.06937018 -0.050588313
0002b0 1d e9 88 3d cf e3 83 3e f2 05 c9 3b 9c bc df 3d
       0.06685088 0.25759742 0.006134742 0.10924646
0002c0 41 a7 cf 3c 2a 22 9a bd e1 5c c8 bd d6 2f b8 3d
       0.025348308 -0.075260475 -0.0978334 0.08993499
0002d0 78 c3 36 ba f3 fa cb bd cf 68 2d be b0 d9 72 3e
       -0.0006971876 -0.09959974 -0.16934513 0.23715854
0002e0 a2 61 58 3e f1 9f d5 bc ea 32 8a be 12 4d 0b 3e
       0.21130994 -0.026077243 -0.2699197 0.13603619
0002f0 97 25 02 3e 3d f4 84 3c 2a 9f a6 bc 25 12 1f be
       0.12709652 0.016229743 -0.020339567 -0.15534265
000300 52 02 4c 3e f4 0a c9 ba 57 c4 8d bd ba 41 27 be
       0.1992276 -0.0015338347 -0.069222145 -0.16333666
000310 23 81 02 be 29 61 06 be 32 7d 82 3e 9d c7 64 bd
       -0.12744574 -0.13123001 0.2548614 -0.05585443
000320 82 49 e8 bb 7c e7 0b 3e e2 c8 8d 3d df 9e 56 3d
       -0.007088841 0.13662523 0.06923081 0.052397605
000330 9a 18 a9 3d 1b d5 9b bd ca 6c 49 be a0 9a be bd
       0.082566455 -0.07609006 -0.19670406 -0.09306836
000340 13 bf f5 bd e3 09 96 bb 2d 2e db bd 95 72 27 3e
       -0.11999335 -0.0045788153 -0.10702167 0.16352303
000350 4f c0 88 bc dc b9 d0 be 8c d3 1b 3e 10 9a c1 bd
       -0.016693262 -0.407668 0.15217417 -0.09453213
000360 52 6d 3d 3c 11 69 21 3e 7e d4 f9 bc c0 6d f0 bc
       0.0115617085 0.15762736 -0.030496832 -0.029349208
000370 55 8c 0e 3e 37 53 7b be c5 06 d8 3e 05 64 9f 3d
       0.1392072 -0.24543463 0.42192665 0.07782749
000380 0f e7 a1 3e e2 f4 ab 3c 33 5d b8 be 06 4b 3f 3d
       0.31621596 0.020990793 -0.36008605 0.046702407
000390 88 a9 bc 3d f5 1c 5b 3e 12 51 95 3e 3d 2b 16 3e
       0.09212023 0.21397765 0.29163414 0.14664932
0003a0 2a f3 88 3e aa bf 18 3e 0a e4 f8 bd c4 ec 35 3e
       0.2674802 0.14916864 -0.1215287 0.177661
0003b0 e8 8c 0f be 7a 1f 8b bd ea 39 a5 be 07 39 8d bb
       -0.14018595 -0.06793113 -0.32270747 -0.0043097767
0003c0 93 c4 30 be d5 1b 1a 3c b6 03 02 3e 06 27 c6 3e
       -0.17262487 0.00940605 0.12696728 0.38701648
0003d0 6f c7 40 bd c4 cd 06 3e bd cf 81 3d ff 13 b5 bd
       -0.047065195 0.13164431 0.06338451 -0.088417046
0003e0 8a 65 f8 3d f9 4b ad 3e cd 3a df bd 71 52 51 3e
       0.12128742 0.33847025 -0.10899887 0.20441605
0003f0 de 8d 72 be f2 ba 6f 3e 1e 16 5b 3d 7f 5d f1 bd
       -0.2368693 0.23411158 0.05348789 -0.11785411

state_encoder.fusion.0.bias f4 [64]
000000 00 00 00 00 00 00 00 00 00 00 00 00 00 00 00 00
       0.0 0.0 0.0 0.0
000010 00 00 00 00 00 00 00 00 00 00 00 00 00 00 00 00
       0.0 0.0 0.0 0.0
000020 00 00 00 00 00 00 00 00 00 00 00 00 00 00 00 00
       0.0 0.0 0.0 0.0
000030 00 00 00 00 00 00 00 00 00 00 00 00 00 00 00 00
       0.0 0.0 0.0 0.0
000040 00 00 00 00 00 00 00 00 00 00 00 00 00 00 00 00
       0.0 0.0 0.0 0.0
000050 00 00 00 00 00 00 00 00 00 00 00 00 00 00 00 00
       0.0 0.0 0.0 0.0
000060 00 00 00 00 00 00 00 00 00 00 00 00 00 00 00 00
       0.0 0.0 0.0 0.0
000070 00 00 00 00 00 00 00 00 00 00 00 00 00 00 00 00
       0.0 0.0 0.0 0.0
000080 00 00 00 00 00 00 00 00 00 00 00 00 00 00 00 00
       0.0 0.0 0.0 0.0
000090 00 00 00 00 00 00 00 00 00 00 00 00 00 00 00 00
       0.0 0.0 0.0 0.0
0000a0 00 00 00 00 00 00 00 00 00 00 00 00 00 00 00 00
       0.0 0.0 0.0 0.0
0000b0 00 00 00 00 00 00 00 00 00 00 00 00 00 00 00 00
       0.0 0.0 0.0 0.0
0000c0 00 00 00 00 00 00 00 00 00 00 00 00 00 00 00 00
       0.0 0.0 0.0 0.0
0000d0 00 00 00 00 00 00 00 00 00 00 00 00 00 00 00 00
       0.0 0.0 0.0 0.0
0000e0 00 00 00 00 00 00 00 00 00 00 00 00 00 00 00 00
       0.0 0.0 0.0 0.0
0000f0 00 00 00 00 00 00 00 00 00 00 00 00 00 00 00 00
       0.0 0.0 0.0 0.0

shared_layers.0.weight f4 [64, 64]
000000 89 dd 61 3b 13 c6 84 3d 61 f5 07 bd 63 c9 a3 3c
       0.003446432 0.06483092 -0.033192996 0.01999349
000010 44 87 8c bd 4b 44 3f 3e fe 8e 13 be c9 11 25 be
       -0.06861737 0.18678395 -0.14410016 -0.16120066
000020 eb da d3 3d 96 32 1b 3c 93 17 93 3c b1 df ec bd
       0.1034449 0.00947251 0.017955577 -0.11566103
000030 03 93 e5 3e 9c 12 b7 3c e4 58 3c be 64 eb 97 3d
       0.44838724 0.02234774 -0.18393284 0.07417944
000040 e6 3d 2d 3d 01 3d 99 be cb 9d 6f ba 09 12 96 3d
       0.04229536 -0.29929355 -0.00091406394 0.07327659
000050 97 16 1a bd 49 e4 5e 3d 07 88 7a be 0c 5b d7 bc
       -0.0376192 0.05441693 -0.24465953 -0.026288532
000060 5e b9 bb 3e de bc 22 3e d4 e2 a6 bd cd f2 3f bd
       0.3666486 0.1589236 -0.08148733 -0.046862412
000070 5a bd bd bd eb 9d de bd 65 5d 15 3d 60 9a 21 3e
       -0.092646316 -0.10869964 0.03646602 0.15781546
000080 3a 01 9f 3d 20 5e 66 3e 2f 77 fa be b5 ab 84 3e
       0.07763906 0.22496843 -0.48919055 0.25912252
000090 cc 9b 5f be fc 36 bb be b7 dd a1 bb cb be ce bd
       -0.21836776 -0.36565387 -0.0049397605 -0.100949846
0000a0 b9 cb c1 b9 e5 cc 95 3e a1 04 80 3e 38 2e 6f be
       -0.00036963614 0.29257885 0.25003532 -0.23357475
0000b0 a9 8f 52 be 9d 01 98 3d 95 e1 58 3d 2f 78 6a 3e
       -0.20562615 0.07422183 0.052949507 0.22897409
0000c0 dc 24 6a be 4e cd 1b 3d 0a 4c 8f 3d 96 1f a5 3c
       -0.22865623 0.03803759 0.06996925 0.020156663
0000d0 0f fb d2 3d 05 f0 3b be 2d 5e 6a be 1e fd 4f bd
       0.10301792 -0.18353279 -0.22887488 -0.0507785
0000e0 cd 9b 61 be 03 ab 86 3a d4 48 14 be 08 9d 36 be
       -0.2203209 0.0010274354 -0.14480907 -0.1783334
0000f0 64 1d e9 3d 79 3d f4 bd 2b b0 77 3d 4b 8e ad 3e
       0.11382559 -0.119257875 0.06047074 0.33897623
000100 11 f2 b7 be 74 7f 88 bd 12 82 7b bd e6 7b f9 bc
       -0.3592687 -0.06664935 -0.06140334 -0.030454587
000110 9d 51 2e 3d b7 7e 7e bd d4 e4 09 3c cf 80 85 be
       0.0425583 -0.062132563 0.008416373 -0.26074836
000120 47 db 63 be 6e ab 2d be 1f 8a 6c 3d 67 9a 18 bd
       -0.22251616 -0.16959926 0.05774891 -0.037256625
000130 b2 99 14 bd b6 06 1f 3e da 7a 10 bd cf b7 a3 3e
       -0.036279388 0.15529904 -0.03527341 0.31976172
000140 54 5e 11 3e bb 41 ba bd e8 fd b2 3b 9a a4 e1 bd
       0.1419614 -0.09094568 0.005462397 -0.110177234
000150 34 fb a1 3c 5b 36 9e be ac f1 90 3d 25 e8 22 be
       0.019773103 -0.30900845 0.07077345 -0.15908869
000160 c0 65 d9 bb ac d6 5a 3d d4 67 58 3c da 13 01 3e
       -0.006634444 0.053427383 0.013208348 0.12605229
000170 a3 7b 86 bd 82 42 7f 3e fc d1 8a 3c 68 5d 11 3d
       -0.065665506 0.24927714 0.016945831 0.03548947
000180 91 34 fc bd 0e 56 3d 3e d0 98 be 3d 16 87 3e 3d
       -0.12314714 0.18489859 0.093064904 0.046515547
000190 fd b1 df 3d 00 02 9f 3e e8 bf c4 3e 64 89 bd 3d
       0.109226204 0.31056213 0.38427663 0.09254721
0001a0 16 60 9b be 3f b6 2a be e8 3e 67 3d 2e bb 32 3e
       -0.30346745 -0.16671084 0.056456476 0.17454216
0001b0 67 63 05 bf 1a c5 0b 3e 3a 92 c8 3e 86 d3 26 be
       -0.521048 0.13649407 0.39174062 -0.16291627
0001c0 7f 37 c3 bd 43 79 2d be 7d 7b 8f be d2 8c ea bd
       -0.095320694 -0.16940789 -0.28023902 -0.114526406
0001d0 03 76 2f 3e b3 58 16 3d 67 f3 58 bd 43 12 89 bc
       0.17134862 0.036705684 -0.0529665 -0.01673234
0001e0 10 c5 4f bd f6 84 9a be 77 3d 44 bd 40 35 89 bd
       -0.050725043 -0.30179566 -0.04791018 -0.0669961
0001f0 76 65 84 3e 74 21 f1 bd 48 33 f2 bd 26 5b ff 3d
       0.2585866 -0.11773959 -0.11826187 0.12468557
000200 d6 7a c5 3d 20 de c3 3d 29 0b a3 be 69 59 a8 bc
       0.0964257 0.09563851 -0.31844452 -0.020550447
000210 df 08 5d 3d 18 a4 fd 3d 55 98 4d be 8c eb 82 3e
       0.05396354 0.12384814 -0.20077641 0.25570333
000220 a2 1c 99 be 4d 95 41 3d de d4 94 be 9e f4 02 3e
       -0.29904658 0.047261525 -0.29068655 0.12788627
000230 d6 f0 35 3e 66 d3 e1 3d 51 3c ba 3d 8a b7 8a 3d
       0.17767653 0.11026649 0.09093536 0.067732885
000240 24 02 8e 3d e1 e1 81 3e 40 8c 6c be 44 32 5d bd
       0.06934002 0.25367644 -0.23100376 -0.054003015
000250 8c 70 51 3d ea 92 1e be b5 18 be be ee f5 88 be
       0.051132724 -0.15485731 -0.37128225 -0.2675013
000260 98 12 86 3e f1 26 69 3e 15 54 e8 3d e1 02 cf be
       0.2618606 0.22768761 0.113441624 -0.40431884
000270 68 89 04 3e 6c 93 40 3e 2a 65 ee 3b 4c cc 53 3e
       0.12943041 0.18806237 0.0072752433 0.20683402
000280 09 6f 9e 3d fd 7a 4f be b9 66 8a 3e ab 6f 5c bd
       0.07736022 -0.2026176 0.27031496 -0.053817432
000290 fa 28 ee 3d 01 19 69 bd 01 05 18 bd 1d cc 07 3e
       0.116289094 -0.05690861 -0.037114147 0.13261457
0002a0 09 e5 1a be bb a9 be bd b0 04 13 3c 35 f2 28 be
       -0.15126432 -0.09309717 0.008973286 -0.16498645
0002b0 5b 87 02 be 7c d2 86 3e 2e d1 88 bd c7 33 ef bc
       -0.12746947 0.26332462 -0.06680523 -0.029199494
0002c0 0c e2 34 3e 32 a6 1f be 9b fe d2 3d 15 9a ad bd
       0.17664355 -0.15590742 0.103024684 -0.084766544
0002d0 be e2 59 3e 4d 7e 4a 3d b6 e8 63 3e c7 dc 28 3e
       0.21277902 0.049436856 0.22256741 0.1649047
0002e0 85 ef 9f be 6d d1 8d 3e 58 e3 7d 3d fa 73 b4 bd
       -0.31237426 0.27698842 0.06198439 -0.08811183
0002f0 8f d3 22 be 1c b9 0d bd 3d a2 2c 3e 53 d7 a4 bd
       -0.15901016 -0.034600362 0.16858764 -0.08048882
000300 40 1b 86 bd 9a 12 aa 3d 31 8c a6 be 82 51 a9 3e
       -0.06548166 0.08304329 -0.32528833 0.33069998
000310 81 76 a7 3c 22 ba d7 3c 97 a4 22 3e 96 88 4a be
       0.02044225 0.026333872 0.15883099 -0.19778666
000320 2d 3f 9d bc 0a 59 47 be 2e a7 35 be f0 a7 a5 bd
       -0.019195164 -0.1946756 -0.17739555 -0.08088672
000330 bd cd 44 be 96 65 04 be 47 50 54 be 49 b9 4a be
       -0.19219108 -0.12929377 -0.20733748 -0.19797243
000340 d3 63 5b 3e 1d d6 69 be 1b a8 e7 bc ff 2a 51 bd
       0.21424799 -0.22835584 -0.028278401 -0.051066395
000350 af da 47 3b b9 fb 69 3c 84 a1 1d bd f6 8f 92 be
       0.0030495336 0.014281207 -0.03848411 -0.28625458
000360 5a 24 be bc 1b 45 8f 3e 94 1f 64 be e1 7d 34 3e
       -0.023210693 0.2798241 -0.22277671 0.17626144
000370 52 ab 8e 3e 71 90 bf be 2e 74 a1 3d ac c5 ae bd
       0.27865082 -0.37414888 0.07883488 -0.08533797
000380 6d d0 7c be 2e 93 e7 3d 02 81 61 3e de d6 e6 bd
       -0.24688883 0.11307369 0.22021869 -0.112714514
000390 65 04 1e be 5a 83 0c bd c7 d1 a7 bd 94 53 8c bc
       -0.15431364 -0.034304954 -0.08194309 -0.017129697
0003a0 e6 55 0f be f6 b5 ea 3a 7c 6d 80 be 5a 85 31 3e
       -0.13997611 0.0017907012 -0.2508353 0.17336026
0003b0 4a d2 9c 3b cc 34 10 be aa 16 8c be 3b 22 1b be
       0.0047858106 -0.1408264 -0.2736104 -0.15149777
0003c0 99 be 59 be 3b 47 15 3e b9 5e 03 be 8f 00 a5 bd
       -0.21264113 0.14577954 -0.12829103 -0.08056747
0003d0 9c f3 61 3e 60 64 00 be c7 7a 73 be 06 44 55 3d
       0.22065586 -0.1253829 -0.23777305 0.052066825
0003e0 d9 e1 55 be 88 69 16 3e b0 0b a2 be 87 00 77 3d
       -0.20886935 0.14688694 -0.31649542 0.060303237
0003f0 67 9b d6 bc fd cc c5 3d 0d e5 7a 3e 8e 6d 88 be
       -0.026197148 0.09658239 0.24501438 -0.26646084

shared_layers.0.bias f4 [64]
000000 00 00 00 00 00 00 00 00 00 00 00 00 00 00 00 00
       0.0 0.0 0.0 0.0
000010 00 00 00 00 00 00 00 00 00 00 00 00 00 00 00 00
       0.0 0.0 0.0 0.0
000020 00 00 00 00 00 00 00 00 00 00 00 00 00 00 00 00
       0.0 0.0 0.0 0.0
000030 00 00 00 00 00 00 00 00 00 00 00 00 00 00 00 00
       0.0 0.0 0.0 0.0
000040 00 00 00 00 00 00 00 00 00 00 00 00 00 00 00 00
       0.0 0.0 0.0 0.0
000050 00 00 00 00 00 00 00 00 00 00 00 00 00 00 00 00
       0.0 0.0 0.0 0.0
000060 00 00 00 00 00 00 00 00 00 00 00 00 00 00 00 00
       0.0 0.0 0.0 0.0
000070 00 00 00 00 00 00 00 00 00 00 00 00 00 00 00 00
       0.0 0.0 0.0 0.0
000080 00 00 00 00 00 00 00 00 00 00 00 00 00 00 00 00
       0.0 0.0 0.0 0.0
000090 00 00 00 00 00 00 00 00 00 00 00 00 00 00 00 00
       0.0 0.0 0.0 0.0
0000a0 00 00 00 00 00 00 00 00 00 00 00 00 00 00 00 00
       0.0 0.0 0.0 0.0
0000b0 00 00 00 00 00 00 00 00 00 00 00 00 00 00 00 00
       0.0 0.0 0.0 0.0
0000c0 00 00 00 00 00 00 00 00 00 00 00 00 00 00 00 00
       0.0 0.0 0.0 0.0
0000d0 00 00 00 00 00 00 00 00 00 00 00 00 00 00 00 00
       0.0 0.0 0.0 0.0
0000e0 00 00 00 00 00 00 00 00 00 00 00 00 00 00 00 00
       0.0 0.0 0.0 0.0
0000f0 00 00 00 00 00 00 00 00 00 00 00 00 00 00 00 00
       0.0 0.0 0.0 0.0

goal_head.weight f4 [2, 64]
000000 85 29 1a ba aa 48 aa 3a 55 2a 1b bb bd 02 bc 3a
       -0.00058808207 0.0012991626 -0.0023676355 0.0014344078
000010 39 d8 ca b9 81 f5 60 3b 77 99 c8 3a 44 24 63 ba
       -0.0003868954 0.003432602 0.0015304525 -0.0008664767
000020 20 9c f3 ba 9d 13 e7 3a b3 04 8a b9 85 94 ab b9
       -0.0018585958 0.0017629747 -0.00026324912 -0.00032726317
000030 7e 16 2b ba c4 92 33 3a b7 b6 2a ba fe 0c 34 ba
       -0.0006526484 0.0006850178 -0.0006512212 -0.0006868391
000040 b7 a2 9a ba 82 f6 10 3b cf 9a a6 b7 af 43 11 3b
       -0.001179776 0.0022119586 -1.986083e-05 0.0022165587
000050 67 da 9e 39 3d 81 75 b6 52 18 33 3a 5f 7d 20 bb
       0.0003029883 -3.6583072e-06 0.0006831932 -0.002448879
000060 3e 2c 73 39 a1 46 c2 ba 9a fd 03 bb 6e fa 83 39
       0.00023190767 -0.0014822074 -0.0020140172 0.00025172852
000070 34 d3 06 bb 19 8f 68 ba 38 73 a8 38 c9 1a f1 b9
       -0.0020572664 -0.0008871421 8.0323254e-05 -0.0004598706
000080 e1 33 e0 39 ea b2 a9 3a 00 ec 7a ba 82 23 d5 3a
       0.00042763262 0.0012946997 -0.000957191 0.0016261193
000090 8a 22 16 bb 87 26 35 3a 63 80 93 ba 30 17 fd b9
       -0.002290877 0.0006910343 -0.0011253472 -0.00048273196
0000a0 53 e6 cc b9 82 6c d5 ba 8f b1 fb 3a 9e 9b 5b 3a
       -0.00039081517 -0.0016282948 0.0019202697 0.0008377376
0000b0 c2 11 84 39 c7 50 14 ba ce 87 6d 3a 82 c9 8f ba
       0.00025190233 -0.0005657789 0.0009061069 -0.0010970088
0000c0 0e a2 25 ba 4a 9e 6f b9 a4 14 56 39 d5 72 d1 b8
       -0.00063183985 -0.00022851783 0.0002041632 -9.987286e-05
0000d0 0c 7c 87 3a 10 ed 84 3a 5c 70 ef ba 1d 1d ed ba
       0.0010336651 0.0010141451 -0.0018267739 -0.0018090341
0000e0 cd 9d 86 b9 f3 a2 3e ba c7 42 e5 39 bd bb f5 39
       -0.00025676042 -0.0007272206 0.00043728037 0.00046869917
0000f0 89 34 63 39 3e 69 57 b9 c1 de 26 ba f8 f1 09 3b
       0.00021667978 -0.00020543204 -0.00063655904 0.0021048766
000100 ae 59 4b 39 b8 36 e3 3a eb 45 d4 b8 56 a2 19 3b
       0.00019392997 0.0017335033 -0.00010121971 0.0023442707
000110 46 cc 84 b8 08 5c 94 ba 16 a9 12 3b 0f 7d f7 b8
       -6.3322994e-05 -0.0011318931 0.0022378615 -0.00011801172
000120 d3 98 de b9 c9 6e 6e b8 07 6b 25 b9 2b 77 34 ba
       -0.00042457003 -5.68468e-05 -0.00015775497 -0.00068842125
000130 9a dd 82 39 4f f6 73 3a 75 3f 47 ba 2b 53 1e ba
       0.00024960638 0.0009306417 -0.00076007034 -0.00060396147
000140 24 73 4a ba 08 0d 07 bb d2 f2 22 b9 6a 1a 6c ba
       -0.0007722846 -0.0020607132 -0.00015539982 -0.00090066215
000150 64 9e b2 3a 52 8f 60 bb 04 5b e0 39 61 e0 ac b9
       0.0013627526 -0.0034265113 0.0004279242 -0.00032973572
000160 70 e2 92 39 09 e1 41 3b 50 a6 ba ba 99 e2 43 b9
       0.00028016 0.0029583594 -0.0014240239 -0.00018681063
000170 8b 81 30 3a aa 0c 49 39 92 4a 5b ba 1c 9f c2 3a
       0.00067331706 0.00019173571 -0.0008365299 0.0014848444
000180 d9 73 f6 3a b1 9d 99 b9 4e 03 c6 3a 2e 50 19 3b
       0.0018802836 -0.00029299923 0.0015107186 0.0023393738
000190 f9 97 c1 3a 8b 7a d5 3a 0a 89 a0 ba 16 cb 22 3a
       0.0014770023 0.0016287131 -0.0012247872 0.0006210072
0001a0 62 6e 17 bb 5e d9 50 39 0f 79 3a ba 4e 04 73 b9
       -0.0023106565 0.00019917401 -0.0007113376 -0.0002317589
0001b0 98 d1 49 3a d4 29 8f ba b5 14 89 ba c0 3f 75 3a
       0.00076987734 -0.00109225 -0.0010458442 0.0009355508
0001c0 c1 f5 6f ba e5 eb 98 3a 12 75 46 3b 30 23 60 3a
       -0.00091537467 0.0011666982 0.0030282182 0.0008550165
0001d0 9d 6b 2f ba 9d 17 90 b9 3f ea 1f ba 5d 3b 28 3a
       -0.0006691756 -0.00027483414 -0.0006100274 0.0006417537
0001e0 52 a3 27 38 0c 58 f1 39 eb 5d 8f 3a c1 aa 07 3b
       3.9968007e-05 0.00046032702 0.0010938024 0.0020701142
0001f0 35 24 64 ba dc 2a 45 ba f4 4c 2d ba 34 b8 96 b9
       -0.0008702905 -0.000752134 -0.0006610893 -0.00028747472

goal_head.bias f4 [2]
000000 00 00 00 00 00 00 00 00
       0.0 0.0

portfolio_head.weight f4 [15, 64]
000000 14 8e ac 39 1d 8a 8b ba 9d 2e e6 ba ea 7c 7c ba
       0.00032912253 -0.0010646019 -0.0017561499 -0.0009631651
000010 2a 17 3d bb a5 d5 2a 3a 57 33 59 3a a9 56 61 3a
       -0.0028852918 0.0006516821 0.00082855433 0.0008595982
000020 a5 63 eb 3a 7e 31 b6 39 a0 56 85 3a 4d c3 c2 b9
       0.0017958774 0.0003475062 0.0010172911 -0.00037148074
000030 9d f5 a6 3a 93 57 70 3a 1e be 2e 39 5f a4 85 3a
       0.0012737993 0.0009168323 0.00016664757 0.0010196081
000040 0a fd a8 b9 03 2d a0 b7 da bb 18 ba 38 78 d2 ba
       -0.00032231986 -1.9094447e-05 -0.0005826332 -0.0016057556
000050 4f 73 f2 3a 03 ee 0c bb 6b 23 bb 3a cc b6 5c 3a
       0.0018497499 -0.002150417 0.0014277523 0.0008419573
000060 1d fe 0a 39 f9 87 8b 38 2f 70 76 bb 5c 73 dc ba
       0.0001325537 6.6533634e-05 -0.0037603488 -0.0016819048
000070 e4 57 85 3a 7f b1 95 ba cb 26 a5 3a 7b 09 5a ba
       0.0010173288 -0.0011420696 0.0012600062 -0.0008317453
000080 80 36 7d 3a cc 39 19 3a 02 b6 0b 39 38 04 b9 3a
       0.0009659305 0.0005845099 0.00013323876 0.0014115637
000090 6f e5 dc 3a ef 47 ee 3a ff 2b 05 ba b1 95 8c ba
       0.0016853045 0.0018179397 -0.00050801033 -0.0010725764
0000a0 7d f5 b1 3a 35 c3 b8 3a 62 af 65 3a cb a9 80 3a
       0.001357719 0.0014096262 0.0008761791 0.0009816227
0000b0 04 b5 c2 b8 e6 30 a2 39 2d 79 0f 3a 41 b0 16 b9
       -9.284358e-05 0.0003093548 0.00054730737 -0.00014370774
0000c0 92 22 f0 39 80 f9 70 ba 4a fb e0 3a 9c 33 7e 3a
       0.00045802124 -0.0009192452 0.0017164734 0.00096970215
0000d0 50 11 a8 3a 84 45 4c 3b 98 d4 4c 38 78 15 b3 ba
       0.0012822542 0.0031169364 4.8835383e-05 -0.0013663014
0000e0 49 a8 83 ba 8c 94 5a 3a 30 f9 a5 3a 2f 09 60 ba
       -0.001004466 0.0008338175 0.0012662765 -0.00085462903
0000f0 6f d5 1b 3a 62 e0 13 39 a6 e1 96 3a 56 8c 1e ba
       0.0005944585 0.00014102602 0.001151134 -0.00060481334
000100 e6 a5 26 bb 04 47 d4 39 06 22 2e 3a e0 2a d0 3a
       -0.0025428473 0.00040488702 0.0006642643 0.0015881918
000110 5f e0 14 bb 1d b7 8f 39 8c 0f ea 39 26 a2 05 bb
       -0.0022716743 0.00027411515 0.0004464354 -0.0020390837
000120 06 4b 13 3a 59 0d ce 39 21 a9 0f ba 5d 70 21 3b
       0.00056187843 0.00039301327 -0.0005480219 0.0024633624
000130 fb ae 9d ba e6 0b f1 3a 38 c5 62 b9 35 dd 38 b9
       -0.0012030298 0.0018390387 -0.00021626509 -0.00017630013
000140 91 25 97 3a e1 18 00 3b 44 67 0c bb 6d fe 47 3a
       0.0011531581 0.001954608 -0.0021423856 0.000762916
000150 16 71 0c 3b 02 c1 ba 39 44 35 57 ba 57 61 01 3a
       0.002142971 0.00035620487 -0.00082095363 0.0004935464
000160 6e 93 1d 39 02 ef 41 ba c4 a5 0f bb 22 df 85 3a
       0.00015027609 -0.00073979807 -0.0021918872 0.0010213593
000170 0b 90 7a 3a b7 0b 83 ba 2e 04 cc b8 d2 d2 38 3a
       0.0009558207 -0.0009997998 -9.7282566e-05 0.00070504576
000180 df 83 00 b8 1d ee 53 ba 33 12 2b 3a 20 36 08 ba
       -3.0640393e-05 -0.0008084493 0.0006525844 -0.00051960535
000190 b9 11 d1 b9 da d7 9d 39 47 81 6a 3a 1d 43 f7 39
       -0.0003987679 0.00030106195 0.00089456554 0.00047161515
0001a0 f8 3d a7 ba 14 53 21 ba cb 3d b5 ba 0c 50 60 3a
       -0.0012759557 -0.0006154042 -0.001382762 0.000855685
0001b0 67 e5 59 3a 9b 78 4d 3a 22 63 e3 39 0d f7 ae 3a
       0.00083120767 0.0007838101 0.00043370674 0.0013348773
0001c0 fe 54 91 3a b8 a2 a8 ba 87 6d e3 b8 13 37 64 ba
       0.0011087952 -0.0012865877 -0.000108446045 -0.00087057165
0001d0 c6 ce fc ba c5 d0 a7 b7 19 1d 5a ba 3d 31 04 3b
       -0.0019287698 -2.0005167e-05 -0.0008320376 0.002017095
0001e0 0b cc 08 ba 18 81 3e bb be df 1b 39 5c 48 16 bb
       -0.0005218393 -0.0029068645 0.00014865302 -0.0022931313
0001f0 26 31 fd 39 df bc 02 3b 86 a6 f0 ba 39 e1 8b b7
       0.0004829254 0.0019949002 -0.0018360175 -1.6674969e-05
000200 db c0 21 3b a6 4c 39 ba 84 f1 aa b9 1a 9d 89 ba
       0.0024681601 -0.00070686114 -0.0003260487 -0.001049909
000210 b7 cc c7 3a 89 e6 62 b9 2d 94 a7 ba b4 31 a2 3a
       0.0015243505 -0.0002163892 -0.0012785249 0.0012374432
000220 b3 f8 33 b9 5c 0b 47 ba db 24 ba 3a b4 98 dc 3a
       -0.00017163418 -0.000759294 0.0014201658 0.0016830177
000230 e7 6b 95 ba 67 c0 03 3a ce c1 69 ba 85 09 ec b9
       -0.0011399955 0.00050259236 -0.0008917124 -0.0004502052
000240 94 4b 67 b8 46 07 5e b9 c6 3d 70 38 d8 03 68 ba
       -5.514508e-05 -0.0002117428 5.727799e-05 -0.00088506704
000250 12 fb ed 3a 7e 7f ce ba 8b 2f 70 ba 76 27 21 3a
       0.001815649 -0.0015754548 -0.0009162358 0.0006147543
000260 01 30 d8 b9 4e 84 af 3a 3e da 3a ba e1 f6 46 3a
       -0.00041234496 0.001339087 -0.00071278575 0.00075898884
000270 89 90 70 ba a0 67 00 ba b3 5a e4 ba bb b2 f9 39
       -0.0009176811 -0.0004898254 -0.001742205 0.00047626146
000280 5d 25 65 ba 5e 4d be b8 df 33 10 ba 17 fe 27 3b
       -0.00087412243 -9.074317e-05 -0.00055008935 0.0025633627
000290 ca 05 9a 3a e4 e1 4e ba bb 7c 22 b9 8c 1c 01 b9
       0.0011750993 -0.00078919367 -0.0001549599 -0.00012313033
0002a0 77 2e b6 3a fb 42 20 bb c3 f6 68 b9 24 9b db b9
       0.0013899346 -0.0024453986 -0.0002221717 -0.00041886524
0002b0 cb db d2 3a a7 ad 00 3a 8e 9e 38 ba dc 98 17 3b
       0.0016087232 0.0004908689 -0.00070426695 0.0023131883
0002c0 9a 5e 9f 3a a7 03 94 ba 7b 90 66 bb f0 56 05 3b
       0.0012158931 -0.0011292592 -0.0035181332 0.0020346008
0002d0 93 a5 b9 39 e6 a3 5f ba 7d 6e 14 bb d9 d9 09 bb
       0.00035409312 -0.00085311977 -0.0022648864 -0.0021034388
0002e0 ce fc e1 b9 0f a9 32 3a 84 01 8d ba ee 35 98 b9
       -0.00043103698 0.0006815353 -0.0010757898 -0.0002903188
0002f0 a0 56 b4 b7 9d 44 c6 3a 4c 3f e2 ba 10 65 a3 b9
       -2.149801e-05 0.001512665 -0.0017261296 -0.0003116508
000300 73 b9 93 3a 73 e0 26 ba 2b 17 9d 3a 4b ed 57 3a
       0.0011270478 -0.0006365843 0.0011985054 0.00082369585
000310 e5 82 db b9 10 61 02 3a 5a f9 15 bb b6 07 2e 3a
       -0.0004186846 0.000497357 -0.002288422 0.0006638722
000320 0a 44 30 bb a6 7c 1c 3a 92 a8 8e b8 e6 e0 38 3a
       -0.0026896023 0.0005969502 -6.802486e-05 0.00070525554
000330 0b 96 07 ba 9b 94 99 ba 1e 0d a4 3a 9c 16 58 ba
       -0.00051721995 -0.0011717262 0.0012516116 -0.0008243115
000340 8e 0f a4 3a 06 80 aa b9 52 5f 3b ba 02 66 cf ba
       0.0012516843 -0.00032520312 -0.0007147688 -0.0015823247
000350 a0 99 ef ba 89 78 48 39 67 3e c3 b9 f9 c6 0b 3b
       -0.0018280037 0.00019118389 -0.00037239792 0.0021328314
000360 50 88 b6 b9 39 cc ec ba d2 95 35 bb 26 64 9e 3a
       -0.00034815306 -0.0018066234 -0.0027707708 0.001208429
000370 0b be 11 bb 7c b4 87 3a c8 0a 8c 39 f7 0b 2a ba
       -0.0022238519 0.0010353471 0.00026710914 -0.0006486768
000380 75 b0 b1 39 a0 75 25 39 0b a7 aa ba c2 b2 d0 3a
       0.00033891542 0.00015779445 -0.0013019753 0.0015922415
000390 56 69 02 39 b7 3a 95 ba 65 22 cf 38 0e 2d 44 ba
       0.00012437007 -0.0011385296 9.876936e-05 -0.00074835203
0003a0 f0 a7 2b ba 0d 23 ab b8 33 2d 01 3a 44 30 02 39
       -0.0006548157 -8.160444e-05 0.00049276947 0.00012415746
0003b0 20 b9 02 ba e0 f4 c8 3a 92 04 ae 3a 81 a0 ee ba
       -0.0004986692 0.0015331767 0.0013276509 -0.0018205793
0003c0 c9 6f dd b8 13 0c c2 b9 7d 61 9b 3a 0b aa f9 b9
       -0.00010558923 -0.0003701156 0.0011854615 -0.00047619673
0003d0 d2 e7 da b9 f4 1d a7 3a 06 20 cb ba 0e 8a 38 b7
       -0.0004175292 0.0012750016 -0.0015497215 -1.0999398e-05
0003e0 f4 e3 18 3b ab 6c 44 ba 49 2c 02 38 89 f6 17 3a
       0.002332923 -0.00074929994 3.103566e-05 0.00057969295
0003f0 dd f1 c7 3a 92 86 f3 39 c9 15 e9 39 df bf 85 3b
       0.0015254576 0.00046448834 0.00044457454 0.0040817107

portfolio_head.bias f4 [15]
000000 00 00 00 00 00 00 00 00 00 00 00 00 00 00 00 00
       0.0 0.0 0.0 0.0
000010 00 00 00 00 00 00 00 00 00 00 00 00 00 00 00 00
       0.0 0.0 0.0 0.0
000020 00 00 00 00 00 00 00 00 00 00 00 00 00 00 00 00
       0.0 0.0 0.0 0.0
000030 00 00 00 00 00 00 00 00 00 00 00 00
       0.0 0.0 0.0

state_encoder.time_encoder.0.weight f4 [16, 1]
000000 06 33 02 be 66 af 5c 3e 81 ab 52 3f 98 d3 8b be
       -0.12714776 0.21551284 0.82292944 -0.2730987
000010 ad 58 f6 bd 59 4a bb 3d 47 89 f4 3d 8f ac 47 be
       -0.12028632 0.0914504 0.11940246 -0.1949942
000020 fe 80 bd be d9 da a8 3e 3a f3 c9 be b4 83 2e bf
       -0.37012476 0.32979468 -0.3944338 -0.68169713
000030 2d aa 07 bd f4 24 f4 be ed 1a 75 3d cd d4 e3 bd
       -0.033121277 -0.47684443 0.05984013 -0.11124573

state_encoder.time_encoder.0.bias f4 [16]
000000 00 00 00 00 00 00 00 00 00 00 00 00 00 00 00 00
       0.0 0.0 0.0 0.0
000010 00 00 00 00 00 00 00 00 00 00 00 00 00 00 00 00
       0.0 0.0 0.0 0.0
000020 00 00 00 00 00 00 00 00 00 00 00 00 00 00 00 00
       0.0 0.0 0.0 0.0
000030 00 00 00 00 00 00 00 00 00 00 00 00 00 00 00 00
       0.0 0.0 0.0 0.0

state_encoder.wealth_encoder.0.weight f4 [32, 1]
000000 d0 dd bd 3d 83 39 15 3e 2c 7f 49 be 03 a7 07 3e
       0.09270823 0.1457272 -0.19677418 0.13247304
000010 35 40 e7 3e c1 bf e6 3d 2a 69 8b 3e 17 c5 bb 3d
       0.45166174 0.11267043 0.2722867 0.09168451
000020 d0 a7 ac 3e 91 e8 df 3d 2a 6d 9c 3d 40 2b aa be
       0.3372178 0.109330304 0.07638009 -0.33236122
000030 fa e5 84 3e 5b 15 24 3e f7 32 9f be b0 46 c7 3e
       0.25956708 0.16023771 -0.3109357 0.38921118
000040 93 ff 4d 3c 98 29 20 be cb 87 f2 be cf 30 30 be
       0.012573141 -0.15640867 -0.47369227 -0.17206119
000050 4f 84 c5 3e 78 b8 89 be 5f af 18 be 00 03 dd bd
       0.38577506 -0.2689855 -0.14910649 -0.10791588
000060 78 f5 01 be 13 66 57 be 16 63 01 bf 37 06 cb 3e
       -0.12691295 -0.21035032 -0.5054182 0.3965318
000070 e2 1f ef 3c d2 88 fc bd 8f 87 b7 3d 32 3d d6 3c
       0.029190008 -0.12330784 0.089614026 0.026152227

state_encoder.wealth_encoder.0.bias f4 [32]
000000 00 00 00 00 00 00 00 00 00 00 00 00 00 00 00 00
       0.0 0.0 0.0 0.0
000010 00 00 00 00 00 00 00 00 00 00 00 00 00 00 00 00
       0.0 0.0 0.0 0.0
000020 00 00 00 00 00 00 00 00 00 00 00 00 00 00 00 00
       0.0 0.0 0.0 0.0
000030 00 00 00 00 00 00 00 00 00 00 00 00 00 00 00 00
       0.0 0.0 0.0 0.0
000040 00 00 00 00 00 00 00 00 00 00 00 00 00 00 00 00
       0.0 0.0 0.0 0.0
000050 00 00 00 00 00 00 00 00 00 00 00 00 00 00 00 00
       0.0 0.0 0.0 0.0
000060 00 00 00 00 00 00 00 00 00 00 00 00 00 00 00 00
       0.0 0.0 0.0 0.0
000070 00 00 00 00 00 00 00 00 00 00 00 00 00 00 00 00
       0.0 0.0 0.0 0.0

state_encoder.sentiment_encoder.0.weight f4 [16, 2]
000000 ee 49 2a 3e 5e 43 eb bd 41 f9 6a 3e d0 39 d4 3d
       0.16629764 -0.11487459 0.22946645 0.10362589
000010 7d 55 e4 3c 58 75 00 3e 01 f5 fd be b6 c9 c5 bd
       0.027872795 0.12544763 -0.49600986 -0.09657614
000020 b6 66 d5 3e 92 7a d2 bd 87 c5 9f 3c 5e d3 a7 3e
       0.41679925 -0.10277285 0.019503368 0.32778448
000030 92 3a 0c bf 25 69 a3 3d 75 99 48 bf 69 b1 ed bd
       -0.5477687 0.07979039 -0.78359157 -0.11606104
000040 89 a1 8e be e8 70 ae 3d 2e 52 ba 3e f0 c9 0c 3e
       -0.27857617 0.08517629 0.36390823 0.13748908
000050 5c 77 ce 3e 8f 4d 95 3e 91 33 6b 3e d1 fb 8e bd
       0.4032544 0.29160735 0.2296889 -0.06981624
000060 69 5a 3c 3c 6e 76 e2 be 61 f4 86 3e 50 51 50 bf
       0.011496165 -0.4423098 0.2635832 -0.81374073
000070 ce 03 8a be 30 d5 f1 be 0f af 05 be 17 f4 48 3f
       -0.26956028 -0.47232962 -0.13055061 0.7849745

state_encoder.sentiment_encoder.0.bias f4 [16]
000000 00 00 00 00 00 00 00 00 00 00 00 00 00 00 00 00
       0.0 0.0 0.0 0.0
000010 00 00 00 00 00 00 00 00 00 00 00 00 00 00 00 00
       0.0 0.0 0.0 0.0
000020 00 00 00 00 00 00 00 00 00 00 00 00 00 00 00 00
       0.0 0.0 0.0 0.0
000030 00 00 00 00 00 00 00 00 00 00 00 00 00 00 00 00
       0.0 0.0 0.0 0.0

state_encoder.fusion.0.weight f4 [64, 64]
000000 5d b7 74 3d 2a 9a 15 be 2b 84 e1 bd de e6 ce 3c
       0.05974518 -0.1460959 -0.11011537 0.02525657
000010 61 09 37 3e da 6a 38 be d4 dc 2a 3c de fd 19 3e
       0.17874672 -0.1800951 0.010428626 0.15038249
000020 c3 27 5b bd d1 1d 12 be c8 92 b5 3e 22 6f 4b 3d
       -0.053504717 -0.14269187 0.35463548 0.04966653
000030 ed b4 04 3d 58 6d fd bd cf 4d 02 3e 46 e7 77 3e
       0.032399107 -0.12374371 0.12724994 0.24209318
000040 b1 48 5c be c9 b5 d3 be 09 52 87 3c 9d f8 c5 bd
       -0.21512105 -0.4134963 0.01651861 -0.0966656
000050 93 e5 d1 bd cb 82 a7 bc 97 d0 1a be 3e a4 ae bd
       -0.10248866 -0.02044811 -0.15118633 -0.085274205
000060 d2 13 b3 bd 49 1e fc 3d 7b b1 9c 3d f6 73 74 3d
       -0.08744015 0.12310464 0.07651039 0.0596809
000070 74 56 da bd e7 ae 85 bd ff 82 74 3c 3d bf c5 bd
       -0.10661021 -0.065275006 0.01492381 -0.096556164
000080 34 8b e4 3d d1 33 10 3e 24 d3 2b be 74 9b 27 be
       0.111593634 0.14082266 -0.16779763 -0.16367894
000090 fb 6c 58 be 9b 81 ba 3d 17 53 1c be d7 03 78 bc
       -0.21135323 0.091067515 -0.15266071 -0.015137634
0000a0 b5 06 02 3e b1 4f 0e be e1 50 54 3d c9 8d cd bd
       0.12697871 -0.13897587 0.051834945 -0.10036809
0000b0 10 fc ba 3d 40 af ab bc c9 c1 4f be 9c cd 25 3c
       0.09130108 -0.02095759 -0.20288767 0.010119822
0000c0 80 30 4e 3d ad fc 60 bd 86 d4 a5 bd 9d 25 4b 3d
       0.050339222 -0.05492847 -0.08097176 0.049596418
0000d0 db 0e d1 be 86 6f 88 bd 56 26 e4 bd 67 ac 38 3e
       -0.40831646 -0.066618964 -0.111401245 0.18034516
0000e0 42 1e bf 3e 18 b7 01 be 52 da e2 3e 6d ea 2b be
       0.37327772 -0.12667501 0.4430719 -0.16788645
0000f0 79 7a ac be 10 51 5d be 30 57 02 3f 85 b8 fd 3d
       -0.3368719 -0.21612954 0.5091429 0.1238871
000100 57 a7 07 be c5 34 30 be 3a ed 9d be cf 01 94 3d
       -0.13247429 -0.1720763 -0.30845052 0.072269075
000110 8f 45 15 be 54 c7 09 3d 8d 90 ac 3d 32 35 38 3e
       -0.14577316 0.03363736 0.084260084 0.17989042
000120 49 ae 8d 3d 7a 17 84 bb 8f c1 84 be cb 67 1a be
       0.06918008 -0.004031119 -0.25928923 -0.15078656
000130 68 8e af bd 46 14 3b bd 62 fb c9 3d 32 90 4f be
       -0.08572084 -0.04567363 0.098624006 -0.2026985
000140 34 cc 20 bd da bd 96 3d 75 a0 09 bb 73 af 19 bd
       -0.039257243 0.0736043 -0.002100018 -0.037520837
000150 49 16 ad be be 74 43 3e 0e 09 0c bd 29 69 b6 3e
       -0.33806065 0.19087502 -0.034188323 0.35627106
000160 ff 0c a3 be 6c 49 a9 bd bc 94 4e 3e 62 ea a4 3e
       -0.31845853 -0.08265957 0.20173925 0.3221007
000170 28 2a 51 3d eb ca dc 3d e8 be 54 3e ed b4 80 be
       0.051065594 0.10780891 0.2077595 -0.25138035
000180 b2 36 21 be b4 63 f1 bd a0 1d b2 bc 98 3c 4a bc
       -0.15743521 -0.11786595 -0.021742642 -0.012343548
000190 85 f7 87 bb b1 33 8d be 32 30 17 be da c7 df bd
       -0.0041493797 -0.275785 -0.14764479 -0.109267905
0001a0 07 b3 57 bd 4e 6f ac 3e 6b c9 9f 3e 18 49 bd bd
       -0.05266097 0.3367867 0.31208357 -0.09242457
0001b0 b2 8d ee 3d 6e 80 6c be 44 59 1d 3d 8a c2 85 be
       0.1164812 -0.23095867 0.03841521 -0.26124984
0001c0 79 27 7e be 7f 37 2d bb 86 b2 b5 bd d9 57 dc bd
       -0.24819745 -0.0026430783 -0.08871941 -0.10758943
0001d0 79 ba cc b9 fb 5c e7 bd 69 1e 85 3e ab e1 ae 3e
       -0.00039048845 -0.112970315 0.25999764 0.34156546
0001e0 7d 40 dc 3d 3e fd 7f bd de 80 a9 be 3f 80 36 bc
       0.10754488 -0.06249737 -0.3310613 -0.011138975
0001f0 d3 54 f0 bd bd 52 28 be fe 9a 06 3e c4 61 9d 3d
       -0.11734929 -0.16437812 0.13145062 0.07684663
000200 0e 40 20 be 0a aa c1 3d f6 b7 80 be f5 19 9d bd
       -0.15649435 0.094562605 -0.2514035 -0.076709665
000210 c3 e0 35 be 0e 6f 92 3b f3 de 22 3e 73 7e 82 be
       -0.17761521 0.004468805 0.15905361 -0.25487098
000220 87 6d a7 3e b1 2c 9c 3d 59 34 4c be a9 05 1f 3e
       0.3270075 0.07625712 -0.19941844 0.15529503
000230 0c a0 8b bd ee 5b 37 be 3f 2b 13 be 83 75 b2 bd
       -0.06817636 -0.17906162 -0.14371966 -0.0871382
000240 14 86 9a 3e 7a 92 bf be 63 c4 b8 bd 53 79 a0 3e
       0.30180418 -0.3741644 -0.09021833 0.31342563
000250 0c 4b f1 3d 91 a5 5d be 0a 43 89 3d 0f e6 a9 be
       0.11781892 -0.2164519 0.0670224 -0.33183333
000260 bf 3f fb 3c 13 9a 46 be 6c 71 0d 3e d0 d9 03 3e
       0.030670045 -0.19394712 0.13812798 0.12876058
000270 88 8a 6d 3e d6 5f 9c 3e 6a e7 61 bb 0a 15 40 3c
       0.23197377 0.30541867 -0.003447021 0.011723766
000280 36 3d 31 be 5a b1 c7 3e 83 4f b4 3d 7b 18 88 bd
       -0.17308506 0.39002496 0.08804228 -0.06645294
000290 df 44 34 be 01 58 6a 3d 1d 80 b2 be 76 25 98 be
       -0.17604397 0.057212833 -0.34863368 -0.2971608
0002a0 a4 c9 1d 3e 1e 1e 2a 3e dd 88 84 bc 98 3b 08 be
       0.15408951 0.16613051 -0.016178543 -0.13303983
0002b0 d5 95 f0 bd 46 bf 20 bd 89 20 13 3e 22 af fa 3d
       -0.11747328 -0.039244913 0.1436788 0.12240435
0002c0 5a 9a 5e 3d 11 13 33 bd f7 cc 0f 3e c1 c0 f8 bd
       0.05434642 -0.043719355 0.14043032 -0.1214614
0002d0 bb 75 42 be 3a d2 2c bd 6d 7d 06 be ca be fb bc
       -0.18990223 -0.042192675 -0.13133784 -0.030730624
0002e0 71 5a 17 be 38 06 a8 bd 9f c8 cc 3d e8 7b d7 bc
       -0.14780594 -0.08204311 0.09999203 -0.0263042
0002f0 43 9e 88 bd 00 d7 82 be 1d ec 32 be c2 e5 a1 bd
       -0.06670811 -0.25554657 -0.17472883 -0.07905151
000300 11 30 5d 3d 3b 57 7f 3d 36 2e 8a bd f6 66 ee 3d
       0.054000918 0.06233905 -0.06747095 0.11640732
000310 45 c5 51 bd 2d 94 c2 bb 39 8e 93 bd 8b 74 3e bd
       -0.05121352 -0.005938074 -0.07204861 -0.046497863
000320 a1 e7 9a 3d b1 1b 0b be 85 e5 15 be 07 92 f3 bc
       0.07563711 -0.13584782 -0.14638336 -0.029732717
000330 4b 51 9f be 35 48 9e 3d 74 c6 a7 3d 63 00 0f be
       -0.3111671 0.07728616 0.08192149 -0.13964991
000340 6c ef 14 be bc 69 e4 bd c1 43 81 bc f7 f5 ee 3d
       -0.14544457 -0.1115298 -0.015779378 0.11668008
000350 ea 66 2b 3e 31 e7 80 be b4 65 82 be a1 09 3b be
       0.16738477 -0.25176385 -0.25468218 -0.18265392
000360 3b eb 0c 3e c8 91 0f 3e 55 ca 27 3c 23 aa f0 bd
       0.13761608 0.14020455 0.010241111 -0.11751201
000370 35 92 41 bd 3b 01 b1 3e 20 4e 52 be 35 5f f9 bd
       -0.047258575 0.3457125 -0.20537615 -0.121763624
000380 4a c7 22 3d 08 f5 fe bd 51 11 73 3d f5 79 56 be
       0.039740838 -0.1244908 0.059342686 -0.2094496
000390 dc 7d 1f be de b7 48 be 60 e4 e5 3e c9 cb 49 be
       -0.15575355 -0.1960139 0.449008 -0.19706644
0003a0 56 c5 01 be 0e 31 f7 bd 29 d7 5d be ea 9f 11 3e
       -0.12672934 -0.12069903 -0.21664108 0.14221159
0003b0 52 98 ba 3d 98 2e 67 3e 75 8c 52 3e 62 34 74 bb
       0.09111084 0.22576368 0.20561393 -0.0037262668
0003c0 72 a9 3a bc 02 ab b3 bc 9f 9d 9b be 63 e8 da 3d
       -0.011392938 -0.021932129 -0.30393693 0.106888555
0003d0 8f d6 53 be 01 5a 9a be 19 3f 93 bd d6 4e a0 3e
       -0.20687316 -0.30146793 -0.07189769 0.31310147
0003e0 87 92 10 3d 57 79 12 3c 01 11 a1 be ef 82 c2 3e
       0.03529599 0.0089400625 -0.31458285 0.3799052
0003f0 13 75 26 3e c6 1b 6b 3c 55 41 a9 3e 83 86 38 be
       0.16255598 0.014349883 0.33057657 -0.18020062

state_encoder.fusion.0.bias f4 [64]
000000 00 00 00 00 00 00 00 00 00 00 00 00 00 00 00 00
       0.0 0.0 0.0 0.0
000010 00 00 00 00 00 00 00 00 00 00 00 00 00 00 00 00
       0.0 0.0 0.0 0.0
000020 00 00 00 00 00 00 00 00 00 00 00 00 00 00 00 00
       0.0 0.0 0.0 0.0
000030 00 00 00 00 00 00 00 00 00 00 00 00 00 00 00 00
       0.0 0.0 0.0 0.0
000040 00 00 00 00 00 00 00 00 00 00 00 00 00 00 00 00
       0.0 0.0 0.0 0.0
000050 00 00 00 00 00 00 00 00 00 00 00 00 00 00 00 00
       0.0 0.0 0.0 0.0
000060 00 00 00 00 00 00 00 00 00 00 00 00 00 00 00 00
       0.0 0.0 0.0 0.0
000070 00 00 00 00 00 00 00 00 00 00 00 00 00 00 00 00
       0.0 0.0 0.0 0.0
000080 00 00 00 00 00 00 00 00 00 00 00 00 00 00 00 00
       0.0 0.0 0.0 0.0
000090 00 00 00 00 00 00 00 00 00 00 00 00 00 00 00 00
       0.0 0.0 0.0 0.0
0000a0 00 00 00 00 00 00 00 00 00 00 00 00 00 00 00 00
       0.0 0.0 0.0 0.0
0000b0 00 00 00 00 00 00 00 00 00 00 00 00 00 00 00 00
       0.0 0.0 0.0 0.0
0000c0 00 00 00 00 00 00 00 00 00 00 00 00 00 00 00 00
       0.0 0.0 0.0 0.0
0000d0 00 00 00 00 00 00 00 00 00 00 00 00 00 00 00 00
       0.0 0.0 0.0 0.0
0000e0 00 00 00 00 00 00 00 00 00 00 00 00 00 00 00 00
       0.0 0.0 0.0 0.0
0000f0 00 00 00 00 00 00 00 00 00 00 00 00 00 00 00 00
       0.0 0.0 0.0 0.0

value_layers.0.weight f4 [64, 64]
000000 db df dd bd 39 f6 10 bd eb 63 f6 3c 67 17 14 3e
       -0.10833713 -0.035391066 0.030076941 0.14462052
000010 73 85 f1 bd 93 be 46 be 53 6c 6b be c9 2d ca 3c
       -0.117930315 -0.19408636 -0.22990541 0.024680035
000020 72 8c ae 3c a4 75 61 3d 03 02 15 3e 0c 8a a6 be
       0.021307204 0.05504383 0.14551549 -0.32527196
000030 c4 ab 88 3e 2d 6f 4b bd 08 66 6f bd f8 de 29 3e
       0.26693547 -0.049666572 -0.058446914 0.16588962
000040 98 c3 53 bd 4e 83 8d be 5a df f5 3d 27 db 44 be
       -0.051700205 -0.2763924 0.120054916 -0.19224225
000050 7f a2 90 3c 25 3f 78 be d7 23 5b bd e9 8e fd 3e
       0.01765561 -0.24242838 -0.053500976 0.49523094
000060 71 4a c4 bd f9 c9 87 3d 3a 84 0a bc 63 59 c7 3e
       -0.09584511 0.0663032 -0.008454377 0.38935384
000070 08 bc 1a 3d e7 ae 70 bd 01 c8 dc bc ef 25 91 bd
       0.037776977 -0.05876055 -0.026950838 -0.070873134
000080 26 89 8f 3e 3f 4c 74 bd 92 2d 63 bd ac 81 7c bd
       0.28034323 -0.059643026 -0.05546338 -0.061647102
000090 9a 34 f1 bd 53 50 0f bc 17 b9 a4 3e ab 02 ed bd
       -0.11777611 -0.008747178 0.32172462 -0.115727745
0000a0 1b 97 8a bc d0 f0 a3 bd b7 1e da be e8 6e d0 bb
       -0.016917756 -0.08004916 -0.4260156 -0.0063608773
0000b0 3b 35 a2 bd df 04 1c 3e dd 58 a4 bd 51 14 f0 3d
       -0.07920309 0.15236233 -0.08024762 0.11722625
0000c0 8c 16 12 be b3 96 6a be 09 a2 db 3d 86 5c d2 3c
       -0.14266413 -0.2290905 0.10724265 0.025678884
0000d0 84 7e 13 be 2d 93 ab be 78 e7 21 be 8d 68 41 3d
       -0.1440373 -0.33510724 -0.15810955 0.047218848
0000e0 f3 c3 be 3e 7f e3 ce bd a0 53 38 bc b4 36 1e bd
       0.37258872 -0.10101985 -0.0112504065 -0.038626388
0000f0 28 f6 2b be ca c3 5b be 89 93 85 3e 4a 12 ff 3d
       -0.1679312 -0.21461406 0.26089123 0.1245466
000100 69 8f 3a bb 9a 0e fd bd 72 c4 10 3d c2 d5 9b 3e
       -0.0028466827 -0.12356301 0.035343595 0.30436522
000110 ff b5 cd bd ee 8b 35 3d d9 d8 3f 3e 36 fc e2 3b
       -0.100444786 0.0443229 0.18735065 0.0069270385
000120 8b 12 68 3e e1 67 0a bd 8e 8b e4 3d 42 75 5d be
       0.22663324 -0.033790473 0.111594304 -0.21626762
000130 db 0a b8 3d 4c 6a 48 be 2b da 96 3d c5 79 35 3d
       0.089864455 -0.19571799 0.07365831 0.04430558
000140 a8 d3 cd 3c ad d6 8f be 70 12 fe 3d 62 2a 5e 3e
       0.02512534 -0.28093472 0.124058604 0.21695855
000150 c1 bd 4e bd 89 0a 68 3c 03 7b 80 3e a1 81 b8 bd
       -0.050473932 0.014162668 0.2509385 -0.090091
000160 da aa 57 3c 10 c0 48 3d 7c 20 9b 3e bb bf ac 3c
       0.013163293 0.04901129 0.3029822 0.021087518
000170 b7 97 3d bd 4f 66 b4 be f9 51 7c be 7a 72 86 be
       -0.046287265 -0.35234305 -0.24640645 -0.26259214
000180 5d f6 9c be 72 56 a1 3e 02 75 03 be c9 f7 f1 3d
       -0.3065671 0.31511265 -0.12837604 0.118148394
000190 1d 88 33 3e 0d b4 a3 3d 3b a5 5f bd cf 58 5c 3d
       0.17532392 0.07993326 -0.054600935 0.053795632
0001a0 a5 53 7e 3e 7f c4 21 3e d5 16 bd bd cb 19 b7 3c
       0.24836595 0.15797614 -0.092328705 0.022351166
0001b0 8f c0 a8 3e 74 f6 56 3c 24 02 d7 3d d6 90 00 be
       0.3295941 0.013120282 0.10498455 -0.1255525
0001c0 9c 9f cf bd f0 75 82 be 56 33 87 be 44 6d 8c 3d
       -0.10137865 -0.25480604 -0.26406354 0.06856778
0001d0 a0 33 2c 3e 21 9d aa 3e 87 8c 29 3e a7 20 38 be
       0.16816568 0.33323005 0.16557513 -0.17981206
0001e0 46 24 cd 3e 36 7b 8a bd c4 14 ce 3c 33 f1 b0 bd
       0.40066737 -0.06761782 0.025156386 -0.08639755
0001f0 82 f4 18 bd 5f 05 e8 bd 25 86 8c be 45 02 3a 3d
       -0.037342556 -0.113291495 -0.27446094 0.04541232
000200 f9 44 fd 3d 59 1f 68 3e 34 66 2f bd 9f 1a 63 3e
       0.12366671 0.22668208 -0.042822078 0.22178124
000210 eb 69 ba bd 09 4b 90 3e ad cb 9d bc fb d6 9c be
       -0.091022335 0.28182247 -0.01926216 -0.30632767
000220 c0 5d 95 3d af 97 d9 bd 29 e6 07 3d 78 8f 88 3d
       0.07293272 -0.106246345 0.033178482 0.066679895
000230 3c d0 94 be 8f f7 18 be bb 28 f9 3c 6c 0f 5c 3e
       -0.2906512 -0.14938186 0.03041493 0.21490258
000240 db aa 83 3e e6 49 da bc 48 28 c9 3d 6c 41 36 3e
       0.2571629 -0.026646566 0.09822136 0.17798394
000250 40 07 b1 3d fe 80 b2 bd f1 e2 8f bd d6 fe 91 3c
       0.08643961 -0.087160096 -0.070257075 0.01782171
000260 9f 1e 33 be 00 8b 2b be 3f 1e de 3c 32 fb 8c 3a
       -0.1749215 -0.16752243 0.027114032 0.0010756014
000270 ca f0 a4 bd c5 f2 20 3c 74 85 5e 3d 95 9b 44 3e
       -0.08053739 0.009823506 0.05432649 0.19199975
000280 06 cb 16 3e 08 1c 0a 39 95 18 6d be 85 ea 24 bc
       0.14725885 0.00013171148 -0.23153909 -0.010065679
000290 7f 07 26 3b 3c d0 ba be 2d c0 f9 bd e6 d8 4c 3e
       0.0025334058 -0.36486995 -0.12194858 0.20004615
0002a0 8d 94 5b bd 03 20 06 be 0a 9a 78 bd a7 3b 4d be
       -0.053608466 -0.13098149 -0.060693778 -0.20042287
0002b0 f1 c9 f5 be 6a d6 f7 bd 72 25 ea bd 4b 04 0a 3e
       -0.48005632 -0.12101443 -0.114329234 0.134782
0002c0 32 23 e6 3d 6d d9 8a be 0a 81 84 3c 93 63 d7 3d
       0.11237182 -0.27119008 0.016174812 0.10517039
0002d0 46 20 f3 3e b4 03 00 3d e0 5e eb 3c 72 5d 08 be
       0.4748556 0.03125353 0.028731763 -0.13316897
0002e0 b8 03 fe bd f5 3f 8a bd 9d 6b bc bd 56 ae 81 be
       -0.12403053 -0.0675048 -0.09200213 -0.2532832
0002f0 39 4a da be 73 bd c6 bb 27 e2 62 bd db fa 83 3e
       -0.42634752 -0.0060650646 -0.055391457 0.25777325
000300 e1 6e 01 3d 7a c6 95 be 52 bb c1 3d e8 88 2f 3e
       0.031599883 -0.29252988 0.09459557 0.1714207
000310 46 99 81 3c 4e 93 95 bd 5d a5 b6 bd 00 10 37 be
       0.015820157 -0.07303487 -0.08918259 -0.17877197
000320 d5 e7 4c be 26 54 12 bc e7 ed 34 3d 8d f8 6b 3d
       -0.20010312 -0.008931195 0.044172194 0.057610083
000330 c3 b8 15 3e 04 f1 94 3e 97 53 57 3e 36 da 0a be
       0.14621262 0.2909013 0.2102798 -0.13559803
000340 cb 20 c8 bd 45 d1 a9 3c 7d a9 7f be f0 20 91 3d
       -0.0977188 0.02072967 -0.24966998 0.070863605
000350 a7 69 c7 3c ad ed 65 3e f2 15 81 3e 94 9b fd 3d
       0.024342371 0.22453947 0.25212055 0.1238319
000360 d6 9a 84 be 9f 56 46 be e7 7b 18 be 19 86 16 3e
       -0.2589938 -0.19368981 -0.14891015 0.14699592
000370 48 13 e6 3e 73 25 85 be 6a c3 7c 3e 6d f7 af bd
       0.44936585 -0.26005134 0.2468392 -0.085921146
000380 ab 27 80 3e 47 6d 88 3e da 37 17 bc 11 4c 3b 3e
       0.25030264 0.26645872 -0.009229625 0.18290736
000390 01 f8 1e bc 04 23 08 be 76 b9 81 be 12 22 1f be
       -0.009702683 -0.13294607 -0.25336808 -0.1554034
0003a0 c5 2f 2d be 6d 3b 69 3d 9c b9 ab 3e 54 bb 1f be
       -0.16912754 0.05694144 0.33540046 -0.15598804
0003b0 cc eb 1d 3e 0b 41 1f 3e cc 63 2a be 13 8c 51 be
       0.1542198 0.15552156 -0.16639632 -0.2046359
0003c0 18 a1 46 3b 33 be f1 bd 84 56 39 bd 89 1e ce 3d
       0.0030308422 -0.11803856 -0.045248523 0.10064418
0003d0 b0 be 7a 3c ee fe 0e be 7e 1d 5f 3e 29 0c 86 be
       0.0153042525 -0.13964435 0.21788594 -0.26181152
0003e0 13 70 b2 bd de df e9 3d 47 e8 6c 3b 86 7c 8d be
       -0.08712783 0.114196524 0.003614919 -0.27634066
0003f0 7b a7 b7 bd 8f fe 21 bd a8 60 92 3e 6f d0 e3 bd
       -0.08967491 -0.039549407 0.28589368 -0.1112374
