data/results/test_convenience_hist/checkpoints/checkpoint_0000.pth (torch, 176107 bytes, 39 tensors)

shared_backbone.0.weight f4 [64, 2]
0	0xbd5168f2	-0.051125474
1	0xbeca48b7	-0.39508602
2	0x3e359d1b	0.17735712
3	0x3de2c9ef	0.11073672
4	0xbde88318	-0.11353129
5	0xbe0eb343	-0.1393557
6	0xbccda5ec	-0.025103532
7	0xbe8c4f51	-0.27404264
8	0x3da077db	0.078353606
9	0x3e40fb0f	0.18845771
10	0xbc394532	-0.011308001
11	0xbd15d249	-0.036577497
12	0xbcb2a166	-0.021805476
13	0x3e0d9b45	0.13828762
14	0xbdfdb925	-0.12388829
15	0xbdc28181	-0.09497357
16	0xbd99ce8b	-0.07510098
17	0xbe03f139	-0.12884988
18	0xbe053c4f	-0.13011287
19	0xbd2159c2	-0.03939224
20	0xbe8e5d1d	-0.27805415
21	0x3dbb51e4	0.09146479
22	0xbd8ba822	-0.06819178
23	0xbe856827	-0.26056024
24	0x3e2c6cf2	0.16838434
25	0xbddc0b0b	-0.10744294
26	0x3da5025b	0.0805709
27	0x3d88639b	0.06659623
28	0xbe3a9517	-0.18220936
29	0x3e18146f	0.14851545
30	0x3de512b6	0.111852095
31	0xbe0fbaec	-0.14036149
32	0xbe9a8c1d	-0.30185023
33	0xbcf8e8ba	-0.03038441
34	0x3da9bfd4	0.082885414
35	0xbd735856	-0.059410416
36	0xbe8953f5	-0.26821867
37	0x3e02c5e4	0.12770802
38	0xbe792bc4	-0.24333102
39	0x3d9b0c22	0.075706735
40	0xbda346a0	-0.07972455
41	0xbe7ecc6f	-0.24882673
42	0xbdfb3ee4	-0.12267855
43	0xbc060f5e	-0.008182375
44	0x3e3a3be3	0.18186907
45	0xbda49f24	-0.08038166
46	0xbe5b2ab9	-0.21403016
47	0x3e1be61f	0.15224503
48	0x3e1edcb4	0.15513879
49	0xbe83e13a	-0.25757772
50	0xbe7930cf	-0.24335025
51	0x3e0519ec	0.1299817
52	0x3e32d825	0.17465265
53	0x3d4dc012	0.050232
54	0x3e0b55aa	0.13606897
55	0xbe648769	-0.2231728
56	0xbddd391b	-0.10801908
57	0x3c0b0cf2	0.008486973
58	0x3e34d396	0.17658839
59	0xbec55fe6	-0.38549727
60	0xbe9e676d	-0.30938283
61	0xbd746510	-0.059666693
62	0xbc92dcfc	-0.01792764
63	0x3dfad56b	0.122477375
64	0xbcfca263	-0.03083915
65	0x3e707f02	0.2348595
66	0x3e213e9d	0.15746541
67	0xbe18eeb0	-0.14934802
68	0xbe75766b	-0.23970954
69	0xbe0c64a0	-0.1371026
70	0xbcfc6e81	-0.030814411
71	0xbe61b91d	-0.22043271
72	0x3d96a7b3	0.07356205
73	0x3e7bb2a0	0.24579859
74	0x3e17ebe5	0.1483608
75	0x3e531a13	0.20615415
76	0xbd90b379	-0.07065482
77	0xbe3e73a4	-0.18598801
78	0x3e3345ff	0.1750717
79	0xbd73f257	-0.059557285
80	0xbcba53c9	-0.02274503
81	0x3dead6e7	0.114667706
82	0x3f0ab5e8	0.54183817
83	0x3e82ee41	0.25572398
84	0xbd128e68	-0.03578034
85	0xbd9d8a43	-0.07692387
86	0xbdfd3bf9	-0.123649545
87	0xbe9f4a4d	-0.31111374
88	0xbc291689	-0.010320314
89	0xbd2abe0c	-0.04168515
90	0xbbdf0793	-0.006806323
91	0xbdb01cd0	-0.085992455
92	0x3ea35897	0.31903526
93	0xbd859a73	-0.065235995
94	0xbe8a7e87	-0.27049658
95	0xbeeb1e2f	-0.45921466
96	0xbe62fcc5	-0.22166736
97	0xbd5b8446	-0.053592943
98	0x3e35fed9	0.17772998
99	0xbda04582	-0.078257576
100	0xbe3b310d	-0.1828043
101	0xbda75d54	-0.08172098
102	0xbd046ccc	-0.03233032
103	0xbcef6aaf	-0.029225675
104	0xbe9e56ec	-0.3092569
105	0xbdbb3662	-0.09141232
106	0xbe4ab96d	-0.19797297
107	0x3d984e43	0.07436802
108	0x3ea1809d	0.31543437
109	0xbe88b59b	-0.26701054
110	0xbd6d2fef	-0.05790704
111	0x3e334c53	0.17509584
112	0x3e2eebff	0.17082213
113	0x3df21cf7	0.11821931
114	0x3da189b5	0.07887594
115	0x3eacead2	0.33772904
116	0xbd0f2257	-0.03494486
117	0xbe1dc925	-0.15408762
118	0x3e372221	0.17884113
119	0xbda52b14	-0.08064857
120	0xbbfd65ac	-0.0077330675
121	0xbe8fd245	-0.2809011
122	0x3df58044	0.11987355
123	0xbe3364c9	-0.17518915
124	0x3e3959cd	0.18100663
125	0xbe221d33	-0.15831451
126	0xbdf8ff8f	-0.12158119
127	0x3d6f92c8	0.05848959

shared_backbone.0.bias f4 [64]
0	0x00000000	0.0
1	0x3cee194d	0.029064799
2	0x00000000	0.0
3	0x00000000	0.0
4	0x3c9f907c	0.019478075
5	0xbd87c00d	-0.06628428
6	0xbd6a4189	-0.057191405
7	0x00000000	0.0
8	0x00000000	0.0
9	0x00000000	0.0
10	0x3d4c728f	0.04991394
11	0x00000000	0.0
12	0x3ccfd183	0.025368458
13	0xbdadf3c9	-0.08493764
14	0xbd38aa72	-0.045084424
15	0xbbf451f6	-0.0074560596
16	0xbd38aa99	-0.04508457
17	0xbcc93e35	-0.024565795
18	0xbd38aa6d	-0.045084406
19	0xbd38aa99	-0.04508457
20	0x00000000	0.0
21	0x00000000	0.0
22	0xbd91779e	-0.07102893
23	0x3d29b670	0.04143375
24	0xbba9cb2c	-0.0051816907
25	0xbd38aa6a	-0.045084395
26	0x3cc5f416	0.02416424
27	0x3d0fb1c3	0.035081636
28	0xbd38aaa8	-0.045084625
29	0xbd36a4c3	-0.044590723
30	0x00000000	0.0
31	0xbc891f86	-0.016738664
32	0x3d6fdbed	0.058559347
33	0x3ce8f957	0.028439207
34	0x00000000	0.0
35	0xbd38aab7	-0.04508468
36	0x3ccae875	0.024769047
37	0xbbf41e1b	-0.007449878
38	0x00000000	0.0
39	0x3d21faab	0.039545696
40	0xbd38a9ea	-0.045083918
41	0x3cdc59e6	0.026898336
42	0xbd38aab7	-0.04508468
43	0x00000000	0.0
44	0xbd38aa96	-0.04508456
45	0x00000000	0.0
46	0x3ccd7975	0.02508233
47	0x00000000	0.0
48	0x00000000	0.0
49	0xbd5e7819	-0.054313753
50	0x00000000	0.0
51	0x00000000	0.0
52	0x00000000	0.0
53	0xbd1ec9bc	-0.038766608
54	0xbd2f28c8	-0.0427635
55	0xbc74ed27	-0.01494912
56	0xbd4ff88c	-0.050774142
57	0x3cb9eb6e	0.02269527
58	0x00000000	0.0
59	0x3c846c8f	0.016165046
60	0x00000000	0.0
61	0xbcb62a59	-0.02223699
62	0xbce43d8a	-0.027861375
63	0xbd38aa55	-0.045084316

shared_backbone.2.weight f4 [64, 64]
0	0x3d8ee4d8	0.06977242
1	0xbd290ccf	-0.04127198
2	0x3e1a58da	0.15072957
3	0x3ebd4be3	0.3697196
4	0xbe1a038c	-0.15040416
5	0xbe7c3849	-0.24630846
6	0xbd3bd77f	-0.04585981
7	0xbdd91be1	-0.106010206
8	0xbc7daccd	-0.015483093
9	0x3e8b2a4f	0.27180716
10	0xbe0d3fc1	-0.13793851
11	0xbe4af92c	-0.19821614
12	0x3cc7c3c9	0.02438535
13	0xbe8fe87b	-0.28107056
14	0xbe2ce92b	-0.16885822
15	0xbd98861b	-0.074474536
16	0x3d78a3e1	0.060703162
17	0xbbf52985	-0.007481756
18	0xbe7a37f4	-0.24435407
19	0x3de9cffb	0.11416622
20	0xbe1281d6	-0.14307341
21	0x3eca7ba6	0.3954746
22	0x3dac0f67	0.08401375
23	0xbecb9b71	-0.3976703
24	0x3dfcc3b7	0.12342017
25	0x3e05b647	0.13057815
26	0xbe4d6758	-0.20058954
27	0x3e0fc528	0.14040053
28	0x3dcbe869	0.09956438
29	0x3e6641fc	0.22486109
30	0x3d3aac14	0.045574263
31	0x3e75a904	0.23990256
32	0xbcff9d38	-0.031202897
33	0xbe5229e4	-0.20523793
34	0xbe0aac5c	-0.13542312
35	0x3ebe6027	0.37182733
36	0xbd49dbd2	-0.049281903
37	0xbdcff751	-0.10154594
38	0x3d8a854b	0.06763705
39	0xbb4a63b4	-0.0030882182
40	0x3ca91f39	0.020644771
41	0x3d393293	0.045214247
42	0xbdf6cc5b	-0.120506965
43	0xbcde6408	-0.027147308
44	0xbe1cbb37	-0.15305792
45	0x3debeb81	0.11519528
46	0xbd91ca96	-0.07118718
47	0x3e0e61f8	0.1390456
48	0x3dd791b9	0.10525841
49	0xbcd3ad92	-0.0258396
50	0x3e411c2c	0.18858403
51	0xbe7e5397	-0.24836574
52	0x3da5ecc5	0.08101801
53	0x3d559579	0.0521445
54	0x3d5fbe32	0.054624744
55	0xbd3c703c	-0.046005473
56	0xbe8719d3	-0.2638689
57	0x3e6dec66	0.2323471
58	0x3e584266	0.21119079
59	0xbe9b773d	-0.3036441
60	0xbe3ba0eb	-0.18323104
61	0x3ea98cf9	0.33115366
62	0xbdee9967	-0.11650353
63	0xbe1e8012	-0.15478542
64	0xbcd66b73	-0.026174283
65	0xbd3a5726	-0.045493267
66	0xbe1a1a28	-0.1504904
67	0x3e146b2e	0.14494011
68	0xbe17d95b	-0.14829008
69	0x3d64233d	0.05569767
70	0x3d887535	0.066629805
71	0xbdbc356f	-0.09189879
72	0xbdab923e	-0.08377503
73	0x3d7bf219	0.06151018
74	0x3b513653	0.003192325
75	0x3ecd8f3f	0.4014835
76	0xbdbcc5fc	-0.0921745
77	0xbd8deb22	-0.06929614
78	0x3d08bfeb	0.033386152
79	0x3db292ed	0.0871943
80	0x3e6ccb46	0.23124418
81	0xbeabd452	-0.33560425
82	0x3c1b0f0c	0.009464037
83	0xbd38f164	-0.045152083
84	0xbe069869	-0.13144077
85	0x3cf74ede	0.030188974
86	0xbe702da5	-0.23454912
87	0xbcfc8d11	-0.030828984
88	0xbe4fdf07	-0.20299922
89	0xbe7d3c9d	-0.24730153
90	0x3e21642e	0.15760872
91	0xbe25447d	-0.16139407
92	0xbdc3dfdc	-0.09564182
93	0x3e065a9e	0.13120505
94	0x3e04570d	0.12923832
95	0xbda92668	-0.082592785
96	0x3dae54ec	0.08512291
97	0xbf217a72	-0.6307746
98	0x3e95c36e	0.29250664
99	0x3e7b0795	0.24514611
100	0xbdd46b35	-0.103720106
101	0xbc13d403	-0.0090227155
102	0xbed04f1d	-0.4068536
103	0xbe1e58f6	-0.15463623
104	0xbe1335bb	-0.14375965
105	0x3db91433	0.09037056
106	0xbe748faa	-0.23882928
107	0xbd2a7ff5	-0.041625936
108	0x3aa30300	0.0012436807
109	0xbc3c8927	-0.011507309
110	0x3e07d7b2	0.13265875
111	0xbdad4bc0	-0.08461714
112	0x3ea37eee	0.31932777
113	0x3e5db155	0.21649678
114	0x3e0c4038	0.13696373
115	0x3eb10709	0.3457568
116	0x3de4a9e9	0.1116522
117	0xbd6e5ef1	-0.058196012
118	0x3e003139	0.12518777
119	0xbd266905	-0.0406275
120	0x3c825a2e	0.015912142
121	0xbd3a159e	-0.045430772
122	0xb85fe5a3	-5.338121e-05
123	0x3e33f41b	0.17573588
124	0xbe6b6515	-0.22987778
125	0xbe1ed11f	-0.15509461
126	0xbcb21175	-0.02173684
127	0xbe066f49	-0.1312839
128	0xbdcf2fbb	-0.10116526
129	0xbd819f5d	-0.06329224
130	0x3e1e3518	0.15449941
131	0xbd21733b	-0.039416533
132	0xbe1dea66	-0.15421447
133	0xbea5e641	-0.32402232
134	0xbe132330	-0.14368892
135	0x3ca08a8e	0.019597318
136	0xbd6cc757	-0.057807293
137	0xbe09e7c6	-0.13467321
138	0x3d4ae3c4	0.04953362
139	0x3d014e31	0.03156871
140	0xbe90335c	-0.28164184
141	0xbe4ff0cc	-0.203067
142	0x3e8c43b9	0.27395418
143	0xbe0fe670	-0.14052749
144	0xbe49be11	-0.19701411
145	0xbdc95eb5	-0.09832517
146	0xbd8f2948	-0.06990296
147	0x3db8c754	0.09022394
148	0x3be60105	0.0070191645
149	0xbcc42cec	-0.023947202
150	0x3e8a1e4b	0.26976237
151	0x3e736ded	0.23772402
152	0xbd0e1190	-0.034684718
153	0xbc8883d5	-0.016664425
154	0xbeaeecca	-0.3416503
155	0xbe86c35c	-0.26320922
156	0x3d1b4435	0.037906844
157	0xbe63591c	-0.22201961
158	0x3e923348	0.2855475
159	0x3e064cac	0.13115185
160	0xbdf9b03f	-0.121918194
161	0xbe1d27c7	-0.15347205
162	0x3e4b68d4	0.19864208
163	0xbedd3876	-0.4320714
164	0xbe6329ba	-0.22183886
165	0xbe545859	-0.20736827
166	0x3cc16601	0.02360821
167	0xbd2915e8	-0.041280657
168	0xbe94c52f	-0.2905669
169	0x3dd0c6b1	0.101941474
170	0x3e1678b8	0.14694488
171	0x3e3bcf5f	0.18340825
172	0x3dc90a6e	0.098164424
173	0xbd1ad65a	-0.037802078
174	0xbcc6836e	-0.024232592
175	0x3e51cf65	0.20489271
176	0xbd596230	-0.053072155
177	0x3c8ab12a	0.016930182
178	0xbc2a52f7	-0.010395757
179	0xbd571d1b	-0.05251799
180	0x3e9e89bd	0.3096446
181	0x3e09d87e	0.13461491
182	0x3e8053a4	0.25063813
183	0xbe11f46f	-0.142534
184	0xbdd6375c	-0.10459778
185	0x3e50ce31	0.20391156
186	0xbeafb088	-0.3431437
187	0x3d845d6f	0.064631335
188	0xbd7c88c0	-0.061653852
189	0x3ddd3c0d	0.108024694
190	0x3e5f0d2f	0.21782373
191	0xbebb2df7	-0.36558506
192	0x3df5a8e2	0.119951025
193	0x3d2bf9e6	0.04198637
194	0xbe4a341f	-0.19746445
195	0xbe0d88cd	-0.13821717
196	0x3e4ea2d6	0.20179304
197	0x3e99c602	0.3003388
198	0xbe638803	-0.22219853
199	0x3d4590b5	0.048233707
200	0xbdda8c3d	-0.106712796
201	0x3d7723b1	0.060336772
202	0x3e00bc05	0.12571724
203	0x3dfd5023	0.123688005
204	0xbeaa09b9	-0.33210543
205	0xbe98c498	-0.2983749
206	0xbc426567	-0.0118649965
207	0xbe518339	-0.20460214
208	0xbe80d74f	-0.25164267
209	0x3d17b7cc	0.037040517
210	0xbe935e71	-0.2878299
211	0x3d01966c	0.031637594
212	0x3d7d1701	0.061789516
213	0xbe3573d5	-0.17719968
214	0x3dd5d995	0.10441891
215	0xbeebb4ef	-0.4603648
216	0xbdce0155	-0.10058848
217	0xbe97a072	-0.29614598
218	0xbe22fce4	-0.15916783
219	0x3e3cca90	0.18436646
220	0xbe16b582	-0.14717677
221	0xbd691e39	-0.05691359
222	0x3e1016ed	0.14071245
223	0xbca65d35	-0.020308116
224	0xbdd0054f	-0.101572625
225	0xbe0cc0c4	-0.13745409
226	0xbe872c51	-0.26400998
227	0xbe692d43	-0.22771172
228	0xbac014ed	-0.0014654674
229	0x3d8967ea	0.06709273
230	0x3d44e780	0.048072338
231	0xbcf9a4ae	-0.030474033
232	0x3e4690af	0.1939113
233	0x3b4e0d10	0.0031440891
234	0xbda638f1	-0.081163295
235	0xbe11fc22	-0.14256337
236	0x3e95a376	0.29226273
237	0xbe8a193f	-0.26972386
238	0xbd195d41	-0.03744245
239	0xbd082e32	-0.03324718
240	0x3b800a83	0.003907503
241	0x3eaa78bb	0.33295235
242	0x3dc9bf99	0.098509975
243	0xbd8808ff	-0.06642341
244	0x3ceef647	0.029170169
245	0xbdf4382d	-0.11924777
246	0x3d0446a6	0.032293938
247	0x3e8fc514	0.28080046
248	0x3d9d048b	0.07666882
249	0xbe870727	-0.26372644
250	0xbdc61c35	-0.09673349
251	0xbe904363	-0.28176412
252	0xbe12ee06	-0.14348611
253	0xbe0673b3	-0.13130073
254	0xbe80081a	-0.2500618
255	0xbe8d8bb5	-0.2764565

shared_backbone.2.bias f4 [64]
0	0x00000000	0.0
1	0xbd4d4872	-0.050117917
2	0xbd4f1e7b	-0.050566178
3	0xbd38aab4	-0.04508467
4	0xbd38aa71	-0.04508442
5	0xbc92ae73	-0.01790545
6	0x3c9fc88b	0.019504806
7	0x3d187294	0.037218645
8	0xbd38aac0	-0.045084715
9	0x3d08e3fb	0.033420544
10	0xbb322644	-0.0027183453
11	0xbd38aaa6	-0.045084618
12	0x00000000	0.0
13	0x3ca79dce	0.02046099
14	0xbc86e35b	-0.016465833
15	0x00000000	0.0
16	0xbc8dedaf	-0.01732525
17	0x3cd735f9	0.026270853
18	0x3d751077	0.059830155
19	0x3cdb48d2	0.026768122
20	0xbd0509c8	-0.03248003
21	0x3d46e1da	0.048555233
22	0x00000000	0.0
23	0x3c8aa73d	0.016925449
24	0xbd38aabd	-0.045084704
25	0xbd38a9f5	-0.04508396
26	0x3d87a82f	0.06623875
27	0x3d131581	0.03590918
28	0x3d04a8f8	0.032387704
29	0xbd572550	-0.05252582
30	0xbd38aa0e	-0.04508405
31	0x00000000	0.0
32	0x3d7bf052	0.061508484
33	0xbb9dc0a4	-0.0048142243
34	0x00000000	0.0
35	0x3b35956e	0.0027707475
36	0xbd7ac60e	-0.061224036
37	0xbd556acb	-0.0521038
38	0x00000000	0.0
39	0x00000000	0.0
40	0x3d5ebf68	0.054381758
41	0xbd38aaa9	-0.04508463
42	0xbd80ac61	-0.06282879
43	0xbd7f76d5	-0.062369186
44	0xbd96d303	-0.07364466
45	0xbc7cbdba	-0.015426094
46	0x00000000	0.0
47	0xbd38aaa9	-0.04508463
48	0xbd38a795	-0.045081694
49	0x3c9a009c	0.018799119
50	0xbb5b71f9	-0.003348468
51	0x3d4a4af1	0.049387876
52	0xbca2b250	-0.019860417
53	0x3ca677b1	0.020320745
54	0xbceabe1d	-0.028655106
55	0x00000000	0.0
56	0x3d4f7694	0.050650194
57	0xbd145284	-0.036211506
58	0x3c1ac563	0.009446475
59	0xbcdd1e95	-0.026992122
60	0x00000000	0.0
61	0x3d2561ca	0.040376462
62	0xbd38aabd	-0.045084704
63	0xbd61ced0	-0.055128872

goal_head.weight f4 [2, 64]
0	0xbe420d2b	-0.18950336
1	0x3e35bd73	0.1774805
2	0xbe1a230a	-0.15052429
3	0x3e1ba9ad	0.15201445
4	0xbe045ed0	-0.12926793
5	0xbce9dba7	-0.028547121
6	0xbe79f636	-0.24410328
7	0xbe002608	-0.12514508
8	0x3d2b13dc	0.041766986
9	0xbe51c40d	-0.20484944
10	0xbd693400	-0.056934357
11	0x3e9c28ad	0.30499783
12	0xbd144584	-0.036199108
13	0x3e3b3345	0.18281277
14	0x3e8e65a3	0.27811918
15	0xbe3a91a7	-0.18219624
16	0xbe1a8c54	-0.15092593
17	0xbdefd54e	-0.117106065
18	0x3d48b9a9	0.049005184
19	0xbeb784d0	-0.35843515
20	0x3bae9e68	0.005328942
21	0xbedfafef	-0.43688914
22	0xbeb2dc4d	-0.349337
23	0x3e3d4d9f	0.18486641
24	0x3ebb7dd8	0.3661945
25	0xbdf5ebc5	-0.1200786
26	0xbea57760	-0.32317638
27	0xbdafbbab	-0.08580717
28	0x3e7f4235	0.249276
29	0x3d62b82f	0.055351432
30	0xbe8c468d	-0.27397576
31	0xbdaf31c8	-0.08554417
32	0x3d737a83	0.05944301
33	0x3d85b5df	0.0652883
34	0x3d85d29d	0.06534312
35	0x3d3ebb50	0.046565354
36	0x3d859d01	0.06524087
37	0x3e876a1d	0.26448146
38	0xbdc4d765	-0.09611396
39	0xbe0d72cd	-0.13813324
40	0x3e28f0c8	0.16498101
41	0x3d46e9d8	0.048562855
42	0xbe04ea62	-0.12980035
43	0xbdd303a1	-0.103034265
44	0xbc20bf82	-0.009811284
45	0xbd24aee8	-0.040205866
46	0x3d4cdbdf	0.050014373
47	0xbe2a924d	-0.16657372
48	0xbd0608cc	-0.032723233
49	0xbdf20e2f	-0.118191116
50	0xbe076819	-0.13223304
51	0xbe9a4eef	-0.30138347
52	0x3d2a2e82	0.04154826
53	0xbe25009f	-0.16113518
54	0x3d5c749b	0.05382214
55	0xbe151e1f	-0.14562272
56	0xbe58a943	-0.21158318
57	0xbd37ce27	-0.044874337
58	0xbe954fb2	-0.29162365
59	0x3c983324	0.018579073
60	0x3e6c3f27	0.23070966
61	0xbe63f7df	-0.22262524
62	0x3da4fe2a	0.080562904
63	0xbc10f0a6	-0.008846438
64	0x3c9a1c53	0.018812334
65	0x3e691695	0.2276252
66	0xbe642d7f	-0.2228298
67	0x3defe033	0.117126845
68	0xbe173242	-0.14765266
69	0x3e436a3d	0.19083495
70	0x3dfdefcf	0.123992555
71	0x3d8eee5b	0.069790564
72	0xbe4352d4	-0.19074565
73	0x3ed79e5f	0.42113015
74	0x3d3f2166	0.04666271
75	0x3ca40edf	0.020026622
76	0xbd013d86	-0.031552814
77	0x3e2e908b	0.17047326
78	0x3da70e07	0.081569724
79	0xbdc80d8a	-0.09768207
80	0xbdf457cf	-0.11930811
81	0x3e1feec9	0.15618433
82	0x3d582dd3	0.052778076
83	0x3da6d8de	0.08146833
84	0xbe35c5f6	-0.17751297
85	0xbe8ac8c2	-0.2710629
86	0x3e25d81e	0.16195723
87	0xbdc4825c	-0.095951766
88	0x3e0e183c	0.13876432
89	0x3da00e43	0.0781522
90	0xbe8fa8c7	-0.28058454
91	0x3e52ba8a	0.20578972
92	0x3dea9c76	0.11455624
93	0x3e48f73e	0.19625565
94	0x3bde23d2	0.0067791725
95	0xbe4b166f	-0.19832776
96	0x3dcdb5b5	0.100444235
97	0xbcb32b26	-0.02187116
98	0x3e68cc70	0.22734237
99	0x3e62db92	0.22154072
100	0x3d9f6edc	0.077848166
101	0xbe7ddde1	-0.24791671
102	0x3ea4e4fd	0.32205954
103	0x3cccf454	0.025018848
104	0xbdeeba2a	-0.11656602
105	0xbe8575b4	-0.26066363
106	0xbe45d290	-0.19318604
107	0xbdfca2a5	-0.123357095
108	0xbe266ab0	-0.16251636
109	0x3e2cdf0b	0.16881959
110	0xbbb438e4	-0.005499946
111	0xbe224f92	-0.15850666
112	0x3decd4cd	0.11564026
113	0x3e4c9507	0.19978724
114	0x3d326c24	0.043560162
115	0x3c2e699e	0.010645298
116	0xbe480335	-0.19532473
117	0x3e388a77	0.1802157
118	0xbc7a252c	-0.0152676515
119	0xbd187826	-0.037223957
120	0x3de8b870	0.11363304
121	0xbee1e42a	-0.44119388
122	0xbd7d1f2f	-0.061797317
123	0x3da441c2	0.08020355
124	0xbeb4793d	-0.35248747
125	0x3d2f5ba8	0.04281202
126	0xbc9b481d	-0.018955285
127	0x3e1da228	0.15393889

goal_head.bias f4 [2]
0	0xbd26ed46	-0.040753625
1	0x3d26ed45	0.04075362

portfolio_head.weight f4 [15, 64]
0	0xbe0fbf40	-0.140378
1	0xbdc7c840	-0.097549915
2	0x3e69e2fe	0.22840497
3	0x3cc275f2	0.023737881
4	0x3e851370	0.25991392
5	0x3e3ae212	0.18250301
6	0xbe6b4066	-0.22973785
7	0x3c8482eb	0.016175708
8	0x3ebb6164	0.3659774
9	0x3da1d01d	0.079010226
10	0xbe42f189	-0.19037451
11	0xbe033f58	-0.12817132
12	0x3eafbfac	0.34325922
13	0x3d7f09bf	0.062265154
14	0x3e5be1cf	0.21472858
15	0x3e6d6255	0.23182042
16	0x3e090749	0.13381685
17	0x3dd4c070	0.10388267
18	0xbe0abd08	-0.13548672
19	0xbd6f90cf	-0.05848771
20	0x3c4b912a	0.0124247465
21	0xbebf6837	-0.37384197
22	0xbe23baaf	-0.15989183
23	0x3e7befc1	0.24603178
24	0xbe656c7f	-0.22404669
25	0xbd085233	-0.033281516
26	0x3e1030cb	0.14081113
27	0xbe33471e	-0.17507598
28	0xbe78f564	-0.24312359
29	0x3bd7174a	0.0065640556
30	0xbcf0e853	-0.029407656
31	0x3b9abe38	0.004722383
32	0x3e45124f	0.19245265
33	0x3eff2643	0.4983388
34	0x3e0a85de	0.13527629
35	0x3d190bbb	0.037364703
36	0xbeb3c706	-0.3511278
37	0xbe1f1632	-0.1553581
38	0xbe452428	-0.19252074
39	0xbd52bd8d	-0.0514503
40	0x3d98ca44	0.07460454
41	0x3daa15e7	0.08304959
42	0xbdb72683	-0.089428924
43	0xbd7e47f6	-0.062080346
44	0xbe30e14d	-0.17273445
45	0xbe25197f	-0.16123007
46	0xbe1bb41c	-0.15205425
47	0x3d042fa4	0.032271996
48	0xbda1b847	-0.07896476
49	0xbe774617	-0.24147831
50	0xbdc0b75b	-0.09409972
51	0xbdbb2127	-0.09137183
52	0x3d828c5c	0.06374428
53	0x3d871350	0.065954804
54	0xbcd3efe1	-0.02587122
55	0x3eb5db9a	0.35519105
56	0x3cdf47a7	0.027255846
57	0xbe2e0b6c	-0.16996545
58	0x3d89e39c	0.06732866
59	0xbd7e00f7	-0.06201264
60	0xbe34e72c	-0.1766631
61	0x3d9cb9aa	0.076526
62	0xbe1969d5	-0.14981778
63	0x3e61c2f1	0.2204702
64	0x3d928220	0.071537256
65	0x3e30ec1b	0.17277567
66	0xbeca3c9a	-0.3949936
67	0x3e25d323	0.16193824
68	0x3f0887a2	0.5333196
69	0xbcdc36a1	-0.026881518
70	0xbdca0c43	-0.0986562
71	0xbd99e356	-0.07514064
72	0x3d14229d	0.036165822
73	0x3d7a9fe7	0.06118765
74	0x3e9fc27e	0.31203073
75	0xbdf4f3f5	-0.119605936
76	0xbe549bad	-0.2076251
77	0x3e395da0	0.18102121
78	0x3d9166e7	0.07099705
79	0xbd43dd69	-0.047818575
80	0x3d0cd336	0.034381114
81	0x3d14f6eb	0.03636829
82	0x3e589cf6	0.21153626
83	0x3dacca70	0.084370494
84	0x3eb5880a	0.35455352
85	0x3d9c927c	0.07645127
86	0xbe7e6bd9	-0.24845828
87	0xbd527d93	-0.05138929
88	0xbd850c12	-0.06496443
89	0xbc36a891	-0.011148588
90	0x3eac1495	0.33609453
91	0x3dcd1412	0.10013594
92	0xbe0bc6ff	-0.1365013
93	0xbda8cd68	-0.08242303
94	0x3c479b39	0.012183004
95	0xbc0c0e5d	-0.008548346
96	0xbe01de0c	-0.1268236
97	0x3d29ed9d	0.04148637
98	0xbe425d45	-0.18980892
99	0xbe265442	-0.1624308
100	0xbe6651d5	-0.22492154
101	0xbdea14f5	-0.114297785
102	0x3e81fef2	0.2538982
103	0xbe00ad9c	-0.12566227
104	0x399b30b0	0.0002960018
105	0xbdb71d24	-0.08941105
106	0xbd2f168c	-0.04274611
107	0x3eb68f56	0.35656232
108	0x3e6e89b1	0.23294713
109	0xbde6d719	-0.11271495
110	0x3d9bbe8a	0.07604702
111	0x3e8e8614	0.27836668
112	0x3d4e0ab3	0.050303172
113	0xbdeab5f1	-0.11460484
114	0x3e9077cd	0.282164
115	0xbeccbd93	-0.39988384
116	0xbce18bf8	-0.027532563
117	0xbe19e39d	-0.15028234
118	0xbdf95647	-0.12174659
119	0xbc915b9f	-0.017743884
120	0xbdeddca1	-0.11614347
121	0x3df442d8	0.11926812
122	0x3e610ec5	0.2197829
123	0xbe1112b1	-0.14167286
124	0xbe08a380	-0.1334362
125	0x3e04ddf4	0.12975293
126	0xbdc51f30	-0.09625089
127	0xbdcf48cd	-0.101213075
128	0x3c005ac0	0.0078341365
129	0x3d983668	0.07432252
130	0x3e4e13a7	0.20124684
131	0x3e00fbb2	0.12596014
132	0x3c63e936	0.013910582
133	0x3df08c50	0.117455125
134	0x3dd196f1	0.10233868
135	0xbe9e0466	-0.3086273
136	0xbde62ca9	-0.11238987
137	0xbdc62fc6	-0.09677081
138	0xbe6a04b4	-0.22853357
139	0xbe95e505	-0.2927629
140	0xbdb663b8	-0.089057386
141	0xbbc77017	-0.00608636
142	0x3e73c587	0.2380582
143	0xbcdd3dac	-0.027006947
144	0x3ea1f3d4	0.3163134
145	0x3d09904f	0.03358489
146	0x3dc4a98b	0.0960265
147	0xbdb1b6e9	-0.086774655
148	0x3e3476f4	0.17623502
149	0x3e83ebed	0.25765935
150	0xbcc64a39	-0.024205314
151	0x3e8db7b7	0.27679226
152	0x3ed5d805	0.41766372
153	0xbe0cb9e7	-0.13742791
154	0xbde12c54	-0.10994783
155	0x3e808cc2	0.2510739
156	0xbecd38f9	-0.4008253
157	0x3cd100d1	0.025513085
158	0xbd0295cd	-0.031881142
159	0xbe5f41d2	-0.21802452
160	0xbebe9341	-0.3722172
161	0x3d7f6312	0.06235034
162	0xbea28673	-0.31743202
163	0xbd65cebf	-0.05610537
164	0xbeb78ddc	-0.35850418
165	0x3e10cf7d	0.1414165
166	0x3b171723	0.0023054562
167	0xbe4563e2	-0.19276384
168	0xbab9c54c	-0.0014173179
169	0x3d7d29b4	0.06180735
170	0xbe03e6b0	-0.12880969
171	0xbbe528f1	-0.006993406
172	0xbdca681e	-0.0988314
173	0x3e64c8d1	0.2234223
174	0xbe033abd	-0.12815376
175	0xbdb8b3ac	-0.09018645
176	0xbe1b933d	-0.15192886
177	0x3dda2a6b	0.10652622
178	0x3d0f39ff	0.03496742
179	0xbcc03880	-0.023464441
180	0x3d5b5040	0.05354333
181	0x3ea8d256	0.32972974
182	0x3e0764b7	0.13222013
183	0xbea13918	-0.31488872
184	0x3e0db48a	0.13838401
185	0x3d76c9b3	0.06025095
186	0xbdb27381	-0.08713437
187	0xbd34a545	-0.044102926
188	0xbd996313	-0.074896
189	0xbe522e86	-0.2052556
190	0xbdfc15a0	-0.12308812
191	0x3e2ba3a9	0.1676165
192	0xbe7c0a59	-0.24613322
193	0xbc217f4e	-0.009857012
194	0x3d20fbdb	0.039302688
195	0xbe1abc13	-0.15110807
196	0xbea70aae	-0.32625335
197	0xbd4df895	-0.050285894
198	0xbd9ab3a0	-0.07553792
199	0x3d08ced6	0.03340038
200	0xbe15c738	-0.14626777
201	0x3ee70583	0.45121393
202	0xbea42cc2	-0.32065398
203	0xbd9dfbea	-0.077140644
204	0xbd4b1c20	-0.04958737
205	0x3da617eb	0.08110031
206	0xbe27f2d8	-0.16401231
207	0xbc3e819a	-0.011627579
208	0xbd881a06	-0.066455886
209	0xbd9f1dea	-0.077693775
210	0xbce96e87	-0.028495086
211	0xbd228376	-0.039676152
212	0xbe814fb1	-0.25256112
213	0x3d2d4dce	0.04231053
214	0xbeb586d9	-0.35454443
215	0x3e72ad10	0.2369883
216	0xbcfcc593	-0.03085593
217	0xbd064ce1	-0.03278816
218	0x3e96ef38	0.29479384
219	0x3e1b8266	0.15186462
220	0x3eaaf46a	0.33389598
221	0xbe15e4d3	-0.14638071
222	0xbdbf8294	-0.09351078
223	0xbe6ae13c	-0.22937483
224	0x3e142947	0.14468871
225	0xbe3916f0	-0.18075156
226	0xbe7988f7	-0.24368654
227	0x3e8de058	0.27710223
228	0xbd8cb97c	-0.06871316
229	0xbd88caf9	-0.06679339
230	0xbe99062c	-0.2988752
231	0x3d6bb575	0.057546098
232	0x3e7a6070	0.2445085
233	0xbd7e26d9	-0.062048767
234	0xbe916b54	-0.28402197
235	0x3dc9771e	0.09837173
236	0xbcc01857	-0.023449106
237	0xbe43730e	-0.19086859
238	0x3db6a8b6	0.08918898
239	0x3e6cc9d7	0.23123871
240	0xbba41118	-0.0050069205
241	0xbd01821d	-0.031618226
242	0xbe9595d8	-0.29215884
243	0xbbed7a57	-0.00724725
244	0xba8b4200	-0.0010624528
245	0x3d8c677d	0.06855676
246	0xbc4c2fe0	-0.012462586
247	0x3dde3831	0.108505614
248	0x3eaaa740	0.33330727
249	0xbd23c8b2	-0.03998632
250	0x3db077b2	0.0861658
251	0x3de3939f	0.11112141
252	0x3e1ec309	0.15504088
253	0x3ac07e48	0.0014686072
254	0xbde86007	-0.11346441
255	0xbe7be28d	-0.24598141

portfolio_head.bias f4 [15]
0	0xbcb46cf9	-0.022024618
1	0x3d17476e	0.036933355
2	0x3b4dd978	0.003141014
3	0x3db08a63	0.08620145
4	0xbd81f5f3	-0.06345739
5	0x3c7e1aee	0.01550935
6	0x3c6eb678	0.014569871
7	0xbd9437f4	-0.07237235
8	0xbd0f2d97	-0.034955587
9	0xbc34223e	-0.010994492
10	0x3b815a71	0.003947549
11	0x3d34bb04	0.044123664
12	0x3b4123f2	0.0029470888
13	0x3a9f6fba	0.0012164034
14	0xbd4cbc5a	-0.049984314

network.0.weight f4 [64, 2]
0	0x3d047d10	0.03234583
1	0x3dd7e351	0.10541404
2	0xbe94e6b2	-0.29082257
3	0x3da5360a	0.08066948
4	0xbe12792e	-0.14304039
5	0x3e388480	0.18019295
6	0x3e966105	0.29370895
7	0xbe87d7e9	-0.26531914
8	0xbd68bf9d	-0.05682336
9	0xbdb7c302	-0.08972742
10	0xbd3baf4b	-0.04582147
11	0xbe8a16fb	-0.26970658
12	0xbd89d10a	-0.06729324
13	0xbdaa7b37	-0.083242826
14	0x3e910e9b	0.28331456
15	0x3c864830	0.016391844
16	0xbc973945	-0.018459925
17	0xbe40445c	-0.18776077
18	0xbdbc76bd	-0.09202335
19	0x3ec5d973	0.38642463
20	0x3dc71f8c	0.09722814
21	0x3e4f361e	0.20235488
22	0x3eecfef7	0.46288273
23	0xbded0689	-0.11573512
24	0x3e3813ed	0.17976351
25	0x3ebc6ebe	0.3680324
26	0x3e949545	0.29020134
27	0x3e86ecd9	0.26352575
28	0xbe1c0210	-0.15235162
29	0xbe7a5012	-0.24444607
30	0xbc069984	-0.008215312
31	0xbddf5fc2	-0.10906936
32	0xbd9dd455	-0.07706515
33	0xbce28a1c	-0.027653746
34	0xbcf0ed1f	-0.029409943
35	0x3bd16e11	0.0063912948
36	0xbd6e47bf	-0.05817389
37	0x3d51a34f	0.051181134
38	0xbdbf0429	-0.09326965
39	0x3c42f2bd	0.011898694
40	0xbe1b5b11	-0.15171458
41	0xbcbeaf52	-0.023276959
42	0x3e3752e9	0.17902721
43	0x3f2b59db	0.66933984
44	0xbd621f62	-0.05520571
45	0xbdd7ffc1	-0.10546828
46	0x3ec489f9	0.38386515
47	0x3dd68c2a	0.10475953
48	0x3d27f6bc	0.04100679
49	0x3e2bcc86	0.16777238
50	0xbe899000	-0.26867676
51	0xbe764ae2	-0.24052003
52	0xbd18dd9e	-0.037320726
53	0xbe30774b	-0.17233007
54	0xbdd5d4eb	-0.104410015
55	0xbda1cf91	-0.07900918
56	0x3e22f158	0.15912378
57	0x3da79c35	0.08184091
58	0x3e091a1f	0.1338887
59	0x3edd8cd0	0.43271494
60	0x3e0e1b62	0.13877633
61	0x3d789cf8	0.060696572
62	0x3f02e50a	0.51130736
63	0x3e0318e2	0.12802461
64	0x3e7ca2f6	0.2467154
65	0x3dca5b16	0.098806545
66	0xbd61ef1d	-0.055159677
67	0xbe0bb618	-0.13643682
68	0x3eea2583	0.45731744
69	0x3d403eec	0.046935007
70	0x3e0c12a3	0.13678984
71	0xbd80e4fa	-0.06293674
72	0x3dfd270b	0.123609625
73	0xbac60ea8	-0.0015110569
74	0xbde1d94e	-0.11027776
75	0x3e8dcac0	0.27693748
76	0xbe5f4445	-0.21803387
77	0x3d330176	0.043702565
78	0xbdc7d602	-0.097576156
79	0xbde7127f	-0.11282825
80	0xbe455ede	-0.1927447
81	0xbd979a8e	-0.07402526
82	0x3e897acc	0.268515
83	0x3e256687	0.16152392
84	0xbe65ae60	-0.224298
85	0x3dea8a00	0.11452103
86	0xbdc224b8	-0.0947966
87	0x3e9ba20e	0.30397075
88	0xbd2462a4	-0.040133134
89	0x3dab9781	0.083785065
90	0xbe823480	-0.2543068
91	0xbdb8116e	-0.089876994
92	0x391c7b80	0.00014923327
93	0x3e3c7b01	0.18406297
94	0x3ca5c0b0	0.020233482
95	0x3ea7b5a7	0.32755777
96	0xbed184d8	-0.40921664
97	0xbe8ddee7	-0.27709123
98	0x3e45a757	0.19302116
99	0x3d659dde	0.056058757
100	0x3e06ed35	0.13176425
101	0x3e167cc9	0.1469604
102	0xbdc37880	-0.09544468
103	0x3e982d8b	0.29722247
104	0xbe303aa5	-0.17209871
105	0xbeb0c844	-0.3452779
106	0xbe2e6b0c	-0.17033023
107	0x3e328019	0.17431678
108	0xbd3eac64	-0.046551123
109	0xbdd277e1	-0.10276771
110	0xbe0fd0e8	-0.14044535
111	0x3e6f658d	0.23378582
112	0xbdcb605b	-0.09930488
113	0x3d4335aa	0.0476586
114	0xbecb298c	-0.39680135
115	0xbc97f6c3	-0.018550282
116	0xbe208829	-0.15676941
117	0x3e5c37c1	0.21505643
118	0xbe85ab51	-0.26107267
119	0xbe1dbe20	-0.15404558
120	0xbe32ffd2	-0.174804
121	0xbe276648	-0.16347611
122	0xbdbba052	-0.09161438
123	0x3ea01ad5	0.3127047
124	0x3edf76a2	0.43645197
125	0x3e46ccd1	0.19414069
126	0xbdce21f3	-0.10065069
127	0xbd00d04d	-0.03144865

network.0.bias f4 [64]
0	0x3daaa501	0.08332253
1	0xbd375a3c	-0.04476379
2	0xbd38a984	-0.045083538
3	0x3db07a56	0.08617084
4	0x00000000	0.0
5	0x00000000	0.0
6	0x00000000	0.0
7	0x3df06f58	0.11739987
8	0x00000000	0.0
9	0x3dde1894	0.10844532
10	0x3dec0e12	0.11526121
11	0x3df1739c	0.11789629
12	0x3da03cba	0.07824083
13	0x3de81fcc	0.1133419
14	0x00000000	0.0
15	0xbd3796f8	-0.04482171
16	0x00000000	0.0
17	0xbd38a7d4	-0.04508193
18	0xbd38a7e8	-0.045082003
19	0xbd386518	-0.045018286
20	0x00000000	0.0
21	0x3df457d0	0.119308114
22	0x00000000	0.0
23	0x3dec4788	0.11537081
24	0x3de67a40	0.11253786
25	0x00000000	0.0
26	0x00000000	0.0
27	0x00000000	0.0
28	0x3dfa6240	0.12225771
29	0x3df43ee4	0.11926058
30	0x3d20fb3f	0.039302107
31	0x3dee8af3	0.11647596
32	0x3d88647d	0.066597916
33	0x00000000	0.0
34	0x3d4bee28	0.04978767
35	0x3df459bb	0.11931177
36	0x3de15666	0.11002807
37	0xbd38aa62	-0.045084365
38	0xbd38a464	-0.04507865
39	0x00000000	0.0
40	0x00000000	0.0
41	0x3de310f1	0.11087216
42	0xbd2dcce3	-0.042431723
43	0x3de0374a	0.109480456
44	0xbd38aa7e	-0.04508447
45	0x00000000	0.0
46	0x3de3e907	0.11128431
47	0x3de129be	0.1099429
48	0x00000000	0.0
49	0x3de8d69c	0.113690585
50	0x3de5bba4	0.1121743
51	0x3de60171	0.11230744
52	0x00000000	0.0
53	0xbd468e3f	-0.0484755
54	0x00000000	0.0
55	0xbd3887b1	-0.04505128
56	0xbd38a8d1	-0.04508287
57	0x00000000	0.0
58	0x3db2f016	0.08737199
59	0x00000000	0.0
60	0x00000000	0.0
61	0x3ddb4e29	0.10708267
62	0x3db8ea61	0.09029079
63	0x00000000	0.0

network.2.weight f4 [64, 64]
0	0x3e5887c0	0.21145535
1	0x3c628c8d	0.013827455
2	0xbeb9e6e9	-0.36308983
3	0x3e524e47	0.20537673
4	0xbe2d85a7	-0.16945516
5	0xbcca4a10	-0.024693519
6	0x3d6aef44	0.057357088
7	0x3eb3a14b	0.35083994
8	0xbe082aab	-0.13297527
9	0x3c109113	0.008823651
10	0x3da49fc8	0.08038288
11	0x3eee6811	0.4656377
12	0x3ea524c8	0.32254624
13	0x3d91c852	0.07118286
14	0xbdf2f756	-0.11863582
15	0xbe068ab5	-0.1313885
16	0xbe5378c2	-0.20651534
17	0x3dd173d4	0.102271706
18	0xbe342513	-0.17592268
19	0xbe7e9d46	-0.24864683
20	0xbe4b8953	-0.19876604
21	0x3ea86910	0.32892656
22	0x3e7e31af	0.2482364
23	0x3e63ff9c	0.22265476
24	0x3d438b37	0.047740187
25	0x3cb0cc52	0.021581803
26	0xbe6c7361	-0.23090889
27	0xbe596643	-0.21230416
28	0x3ec781c4	0.3896619
29	0x3e36cc7f	0.17851447
30	0x3eb87966	0.3603012
31	0x3e1bae7b	0.15203278
32	0x3e14bc10	0.14524865
33	0x3cc80743	0.024417525
34	0x3dceab4a	0.100912645
35	0xbd94829c	-0.07251474
36	0x3e848bef	0.2588801
37	0x3d372be9	0.04471961
38	0x3d48d7ad	0.04903381
39	0xbdfdd073	-0.12393274
40	0x3e8529be	0.2600841
41	0x3eb8fff1	0.36132768
42	0x3cbda1c3	0.023148423
43	0x3e18831f	0.14893769
44	0xbd2919bb	-0.041284304
45	0x3dd06e4d	0.10177288
46	0x3e7b9c50	0.24571347
47	0x3e06088d	0.130892
48	0x3e3ec492	0.18629673
49	0xbddda0fc	-0.10821721
50	0xbc83e478	-0.016100153
51	0x3e58402f	0.21118234
52	0x3cb79b4b	0.022412917
53	0xbe479536	-0.19490513
54	0x3c647d01	0.013945819
55	0xbecc8423	-0.39944562
56	0x3e248dd4	0.16069728
57	0x3eec8a7f	0.46199414
58	0xbcb2cfb9	-0.021827566
59	0x3e04352b	0.12910907
60	0xbe9c1b83	-0.3048974
61	0x3e6f95c4	0.23396975
62	0x3c91973e	0.017772313
63	0xbdd56f33	-0.104216
64	0xbd4dd3c3	-0.05025078
65	0xbe1d857d	-0.15382953
66	0x3c98912e	0.018623915
67	0x3d060793	0.032722067
68	0xbe1e27ff	-0.15444945
69	0x3da446b7	0.080213
70	0xbe42c474	-0.19020253
71	0xbdb7fb4b	-0.08983477
72	0xbda2c23f	-0.07947206
73	0x3e633174	0.22186834
74	0x3e8f4d94	0.27988875
75	0xbe254d6c	-0.16142815
76	0x3e3022d4	0.17200786
77	0xbebdd16f	-0.37073848
78	0xbcb9a566	-0.022661876
79	0x3b575755	0.003285845
80	0x3de9524b	0.11392649
81	0x3e0fa81f	0.14028977
82	0x3e05d054	0.13067752
83	0x3d1075af	0.03526848
84	0x3c8b0171	0.01696846
85	0xbcaf9b07	-0.021436227
86	0x3d5e82be	0.054323904
87	0x3dfe6451	0.124214776
88	0xbacaf98b	-0.0015485747
89	0xbe855eb5	-0.26048818
90	0xbe8228ea	-0.2542184
91	0x3cf722f8	0.030168042
92	0xbcb1be7f	-0.02169728
93	0xbe926a95	-0.2859694
94	0xbe30bc95	-0.17259438
95	0xbdf332a7	-0.118748955
96	0xbeade4fa	-0.33963758
97	0xbe5e68a8	-0.2171961
98	0xbda7ada4	-0.08187416
99	0xbded6e8e	-0.11593352
100	0x3e8cad5c	0.27476013
101	0x3d91881e	0.071060404
102	0x3d40ee11	0.047102038
103	0x3e6f3b04	0.23362356
104	0xbe59ac09	-0.21257032
105	0xbea7c51e	-0.32767576
106	0x3e8f713b	0.28016075
107	0xbe987ba8	-0.29781842
108	0xbca85562	-0.020548526
109	0x3da2a066	0.0794075
110	0xbd02a88c	-0.03189902
111	0x3ea55e14	0.32298338
112	0xbba9501a	-0.0051670196
113	0xbee3efce	-0.44518894
114	0xbd6b2801	-0.057411198
115	0x3c85c798	0.016330525
116	0xbd446e24	-0.0479566
117	0xbe40a30f	-0.18812202
118	0x3c3102bb	0.010803874
119	0xbe43a34a	-0.19105259
120	0xbdb2cf76	-0.08730976
121	0x3e315ac5	0.17319782
122	0xbddc6042	-0.10760547
123	0xbea7814f	-0.32715842
124	0x3e23c490	0.15992951
125	0xbdd315eb	-0.10306915
126	0xbdd7f37f	-0.1054449
127	0x3dc50eb4	0.09621945
128	0x3da9081a	0.082534984
129	0xbd2a6f3b	-0.041609984
130	0x3dc79000	0.09744263
131	0x3ea04cc6	0.31308573
132	0x3b4bc00c	0.003108981
133	0xbe532027	-0.20617734
134	0xbe83c2a8	-0.25734448
135	0xbcc3662c	-0.02385243
136	0xbe1714a9	-0.14753975
137	0x3e969059	0.29407004
138	0xbd337698	-0.04381427
139	0xbe386de2	-0.18010667
140	0x3ebca7a9	0.36846665
141	0xbe53c42f	-0.20680307
142	0xbe50c6dd	-0.2038836
143	0x3c538f8d	0.012912643
144	0xbe635498	-0.22200239
145	0xbe6063ee	-0.2191312
146	0xbda8e861	-0.08247448
147	0x3c64e7e9	0.013971307
148	0x3bab31a0	0.0052244216
149	0xbd080e88	-0.033216983
150	0xbe9507b8	-0.2910745
151	0x3e0f31ac	0.13983792
152	0x3ea71129	0.3263028
153	0x3dd9c6c0	0.10633612
154	0x3e8885ea	0.26664668
155	0x3ea7a4b4	0.32742846
156	0x3ef32a94	0.47493422
157	0x3e17cf62	0.14825204
158	0x3e574250	0.2102139
159	0x3ebb09f8	0.36531043
160	0x3ea98edd	0.3311681
161	0xbe9cb839	-0.306093
162	0x3de5ce55	0.11220995
163	0x3e6c74b1	0.23091389
164	0x3ec40734	0.38286746
165	0x3e42ce59	0.19024028
166	0xbda262c8	-0.07928997
167	0x3d8baf67	0.06820565
168	0x3ddbb713	0.10728278
169	0x3e84a866	0.25909728
170	0xbe4c6b0a	-0.19962707
171	0xbe27bcda	-0.16380635
172	0x3df18352	0.117926255
173	0xbdefb324	-0.1170409
174	0x3da348e7	0.079728894
175	0x3dc1033b	0.09424444
176	0x3cff6b21	0.031179013
177	0x3e4cad02	0.19987872
178	0x3e9862a1	0.29762748
179	0x3e562709	0.20913328
180	0x3a790a90	0.000950017
181	0xbe7e0e32	-0.24810103
182	0xbd72653a	-0.05917857
183	0xbcd10ad1	-0.025517853
184	0xbe41ff13	-0.1894496
185	0x3dc4dd9d	0.09612582
186	0x3d8a0b88	0.06740481
187	0x3e968800	0.29400635
188	0xbcba6bde	-0.022756513
189	0x3d570416	0.05249413
190	0x3e967f6a	0.29394084
191	0x3d7469c5	0.059671182
192	0xbd6a8174	-0.057252362
193	0x3e081ccd	0.13292237
194	0x3e1fa90e	0.15591833
195	0x3f234f2a	0.6379267
196	0xbdbebb97	-0.09313124
197	0x3e3fa715	0.1871608
198	0x3d5c8554	0.05383809
199	0xbe993f1d	-0.29930964
200	0xbd46f17a	-0.048570134
201	0xbd9d31f4	-0.076755434
202	0x3e241f73	0.16027622
203	0x3e4a0745	0.19729336
204	0xbdb370e3	-0.08761766
205	0xbdef5131	-0.11685408
206	0xbdb1cf33	-0.08682098
207	0xbd18a9dd	-0.03727137
208	0xbe0a7eb6	-0.13524899
209	0xbe17f7ee	-0.14840671
210	0x3ccdc4c1	0.025118234
211	0xbe453080	-0.19256783
212	0x3b636d4a	0.0034702593
213	0xbee79935	-0.45234075
214	0xbcd1dc4e	-0.025617745
215	0xbdf6de26	-0.1205409
216	0x3e48ab39	0.19596566
217	0x3e249ee7	0.16076241
218	0xbdfb1897	-0.122605495
219	0x3cf361eb	0.029709777
220	0xbe6781d9	-0.22608127
221	0xbd8be2ff	-0.068304054
222	0xbdfe88a4	-0.12428406
223	0x3b01c02f	0.0019798388
224	0xbe69165b	-0.22762434
225	0x3d1f257c	0.038854107
226	0x3d5ab381	0.053393845
227	0xbd33c458	-0.04388842
228	0x3d069ad8	0.032862514
229	0x3e09777d	0.13424487
230	0xbd75d9f0	-0.060022295
231	0xbe1ad89c	-0.15121692
232	0x3d9b473f	0.075819485
233	0xbcc8b216	-0.02449898
234	0x3e1dc4b6	0.1540707
235	0x3e82f4da	0.25577432
236	0xbeb39887	-0.35077307
237	0xbea47d4a	-0.32126838
238	0x3db4742a	0.08811219
239	0x3e049503	0.12947468
240	0xbd617405	-0.055042285
241	0x3e12ec9a	0.14348069
242	0xbe33bd77	-0.17552744
243	0xbe23bc89	-0.15989889
244	0xbd8293fc	-0.06375882
245	0xbec07d6a	-0.37595683
246	0x3e1d3fe3	0.15356402
247	0x3d3f5a91	0.04671723
248	0x3e7d5055	0.24737675
249	0xbe0555b3	-0.13020973
250	0x3defaa13	0.11702361
251	0xbcb55878	-0.022136912
252	0x3e3963bb	0.1810445
253	0x3d8b5d03	0.0680485
254	0xbe98629f	-0.29762742
255	0xbe4ca9a8	-0.19986594

network.2.bias f4 [64]
0	0x3df6930f	0.12039768
1	0x00000000	0.0
2	0x3de84500	0.11341286
3	0xbd38a99f	-0.04508364
4	0xbd7d5d20	-0.06185639
5	0xbd5417b1	-0.051780406
6	0x3d827e86	0.06371789
7	0x3de5fd61	0.11229969
8	0x3ddf671c	0.109083384
9	0xbd38aa18	-0.04508409
10	0x3de9cb83	0.1141577
11	0xbd38aaa8	-0.045084625
12	0x00000000	0.0
13	0xbd38a9c0	-0.04508376
14	0x00000000	0.0
15	0x3df6fcac	0.12059912
16	0x3de76eb5	0.113004126
17	0x3df23c75	0.118279375
18	0xbd38aa7f	-0.045084473
19	0xbd38a974	-0.045083478
20	0xbd59831d	-0.053103555
21	0x3dceba39	0.10094113
22	0xbd38a687	-0.045080688
23	0x3dae64f9	0.08515353
24	0x3df0428c	0.11731443
25	0xbd38aaae	-0.045084648
26	0x00000000	0.0
27	0x3dead706	0.11466794
28	0x3df44a79	0.11928267
29	0x3df224f6	0.11823456
30	0x3df31223	0.11868694
31	0xbd237f98	-0.039916605
32	0x3df65205	0.12027363
33	0x3df5aa9e	0.11995433
34	0x3deaa9bf	0.11458158
35	0x3df66c24	0.12032345
36	0xbd2b8f48	-0.04188469
37	0xbd38a9cd	-0.04508381
38	0x3d50ce2c	0.05097787
39	0xbd0803ea	-0.033206858
40	0xbd38aa57	-0.045084324
41	0x00000000	0.0
42	0x00000000	0.0
43	0x3df470f2	0.11935605
44	0x00000000	0.0
45	0x00000000	0.0
46	0x3df26bf7	0.11836999
47	0xbd38aa0c	-0.045084044
48	0xbd5dccf1	-0.054150525
49	0x3dcd2766	0.1001728
50	0x00000000	0.0
51	0x3de7336e	0.11289106
52	0x3d8cac09	0.068687506
53	0xbd7221de	-0.05911433
54	0x3de85d77	0.11345952
55	0xbd38a996	-0.045083605
56	0xbd1f97ea	-0.038963236
57	0x3df4617d	0.11932657
58	0x00000000	0.0
59	0xbd3cc774	-0.04608865
60	0x3df714c8	0.120645106
61	0x00000000	0.0
62	0xbd1f981c	-0.038963422
63	0x3d8e7501	0.069559105

network.4.weight f4 [1, 64]
0	0x3e19fcb9	0.15037812
1	0x3c6e179f	0.014531999
2	0x3df74c9c	0.12075159
3	0x3d270f19	0.040785883
4	0x3d3deff6	0.046371423
5	0x3d17a59b	0.037023168
6	0x3de53452	0.1119162
7	0x3ded9122	0.115999475
8	0x3de33606	0.110942885
9	0x3d05238a	0.032504596
10	0x3dfa9951	0.12236274
11	0x3cf94941	0.030430438
12	0xbc5e87ca	-0.013582179
13	0x3cf33e98	0.029692933
14	0xbc288974	-0.010286678
15	0x3e0d74ab	0.13814037
16	0x3e0a6870	0.13516402
17	0x3dfb9401	0.12284089
18	0x3d1dce9a	0.03852711
19	0x3d076b19	0.03306112
20	0x3d1cb683	0.038259994
21	0x3dde4c6a	0.108544186
22	0x3cfe6eb9	0.031058656
23	0x3dadc84f	0.084854715
24	0x3dffa9d4	0.12483564
25	0x3cd8b4bc	0.026453368
26	0xbc3f61d0	-0.011681035
27	0x3df4a2e5	0.11945132
28	0x3e035d50	0.12828565
29	0x3e0023d1	0.12513663
30	0x3e04698b	0.12930886
31	0x3d479e14	0.04873474
32	0x3e094f0f	0.13409065
33	0x3e064b3c	0.13114637
34	0x3dfb2aee	0.122640476
35	0x3e074710	0.13210702
36	0x3d3b0d9f	0.045667287
37	0x3cd48d38	0.025946245
38	0x3ddd8c6e	0.108178005
39	0x3d32c0d9	0.043640945
40	0x3cfb3418	0.030664489
41	0xb9d41875	-0.00040454013
42	0x3bf1c652	0.007378378
43	0x3e05231f	0.13001679
44	0x3aadc419	0.0013257294
45	0xbb482574	-0.0030539902
46	0x3e026b4a	0.1273624
47	0x3d0d89d8	0.034555286
48	0x3d218a1e	0.03943836
49	0x3dd9660c	0.10615167
50	0xba8e4710	-0.0010854919
51	0x3dfb30b6	0.1226515
52	0x3de913ff	0.11380767
53	0x3d470e59	0.048597667
54	0x3dfdbd62	0.123896375
55	0x3d021d3c	0.03176616
56	0x3cebb3f4	0.028772332
57	0x3e02be8c	0.12768
58	0xbbce600d	-0.0062980712
59	0x3d378ee1	0.044813994
60	0x3e0a15e7	0.13484918
61	0x3c61002a	0.013732949
62	0x3cb435dd	0.02199834
63	0x3de8a79e	0.113600954

exp_avg f4 [64, 2]
0	0x00000000	0.0
1	0x00000000	0.0
2	0x3a37ac60	0.0007006582
3	0x37b611c7	2.1704369e-05
4	0x00000000	0.0
5	0x00000000	0.0
6	0x00000000	0.0
7	0x00000000	0.0
8	0xba7bf4d6	-0.00096113735
9	0xb887920b	-6.464504e-05
10	0x3aac8add	0.0013163943
11	0x389f8c2b	7.607819e-05
12	0x39f0c364	0.00045921945
13	0x38095ff8	3.2752723e-05
14	0x00000000	0.0
15	0x00000000	0.0
16	0x00000000	0.0
17	0x00000000	0.0
18	0x00000000	0.0
19	0x00000000	0.0
20	0xb74d2817	-1.2228286e-05
21	0xb77555cc	-1.4623114e-05
22	0x00000000	0.0
23	0x00000000	0.0
24	0x3a5147fa	0.00079834426
25	0x39002f0a	0.00012224555
26	0x3aaf5bd4	0.0013378807
27	0x38328b5e	4.2568303e-05
28	0x00000000	0.0
29	0x35f97b04	1.8587748e-06
30	0xbadfd9b3	-0.0017078429
31	0xb7ea63bc	-2.7941416e-05
32	0x00000000	0.0
33	0x36594933	3.2378127e-06
34	0x3a2ef87b	0.00066746
35	0x38631667	5.414188e-05
36	0x00000000	0.0
37	0x35e693b4	1.7179323e-06
38	0x00000000	0.0
39	0x365c4bfb	3.282678e-06
40	0x00000000	0.0
41	0x00000000	0.0
42	0x00000000	0.0
43	0x00000000	0.0
44	0x391a3626	0.00014706756
45	0xb79e638e	-1.8881427e-05
46	0x39222079	0.00015461621
47	0xb6b5b5ef	-5.4154e-06
48	0xba53adf8	-0.00080749346
49	0x379582ca	1.7823088e-05
50	0x00000000	0.0
51	0x35e0efc5	1.6759083e-06
52	0x38d949f4	0.00010361141
53	0x37adedbe	2.0733914e-05
54	0x3b064032	0.002048504
55	0x38615f9b	5.373322e-05
56	0x00000000	0.0
57	0x369ca7b7	4.668687e-06
58	0xbb01cd22	-0.0019806107
59	0xb899b51f	-7.329345e-05
60	0x00000000	0.0
61	0x00000000	0.0
62	0x3affebc8	0.0019525224
63	0x38cb3316	9.68931e-05
64	0xb902c257	-0.00012470163
65	0xb8602982	-5.344442e-05
66	0xba105348	-0.0005505574
67	0xb85dbd94	-5.2867064e-05
68	0x00000000	0.0
69	0x00000000	0.0
70	0x391e7218	0.00015110557
71	0x371f0c05	9.479937e-06
72	0x3acc7dc4	0.0015601446
73	0x3883cbd8	6.2845356e-05
74	0x3aff4d48	0.0019477988
75	0x38bc9755	8.992726e-05
76	0x00000000	0.0
77	0x00000000	0.0
78	0x3a1cb762	0.0005978254
79	0xb8575d39	-5.1346815e-05
80	0xb5dde045	-1.6531054e-06
81	0x351f2744	5.9289255e-07
82	0xbab02b2b	-0.00134406
83	0x38385dd8	4.3956417e-05
84	0x38baeb10	8.912955e-05
85	0x3723898a	9.74758e-06
86	0x00000000	0.0
87	0x00000000	0.0
88	0x00000000	0.0
89	0x3654aae6	3.1689938e-06
90	0x00000000	0.0
91	0x00000000	0.0
92	0x3ada284d	0.0016644091
93	0x38d2f843	0.00010059823
94	0x00000000	0.0
95	0x00000000	0.0
96	0x00000000	0.0
97	0x00000000	0.0
98	0x395d0fa4	0.00021082029
99	0x3855b6da	5.095345e-05
100	0x00000000	0.0
101	0x00000000	0.0
102	0x00000000	0.0
103	0x00000000	0.0
104	0x00000000	0.0
105	0x00000000	0.0
106	0x374e5b94	1.2299879e-05
107	0x368c56ab	4.1824146e-06
108	0x3a46d5d0	0.0007584961
109	0x37ee25a2	2.8389335e-05
110	0x397e509a	0.00024253354
111	0x3854e7a9	5.076049e-05
112	0x3b1a9fc8	0.0023593772
113	0x38b7427c	8.738504e-05
114	0x3b32a487	0.002725871
115	0x386a2e1c	5.583289e-05
116	0x00000000	0.0
117	0x00000000	0.0
118	0xbad3dfa7	-0.0016164676
119	0xb8a607da	-7.916959e-05
120	0x00000000	0.0
121	0x00000000	0.0
122	0x3a1def52	0.0006024736
123	0x3854f463	5.077234e-05
124	0x3addd550	0.0016924534
125	0x38767fee	5.8770114e-05
126	0x00000000	0.0
127	0x35bca129	1.4053995e-06

exp_avg_sq f4 [64, 2]
0	0x00000000	0.0
1	0x00000000	0.0
2	0x354499d4	7.323954e-07
3	0x30f30f0b	1.7684852e-09
4	0x00000000	0.0
5	0x00000000	0.0
6	0x00000000	0.0
7	0x00000000	0.0
8	0x344a5602	1.8844005e-07
9	0x2ff00e61	4.3665963e-10
10	0x351643ab	5.5977824e-07
11	0x3103e4b9	1.9193023e-09
12	0x33d84b56	1.0071987e-07
13	0x30323cfa	6.4842676e-10
14	0x00000000	0.0
15	0x00000000	0.0
16	0x00000000	0.0
17	0x00000000	0.0
18	0x00000000	0.0
19	0x00000000	0.0
20	0x2e81e8e7	5.9076126e-11
21	0x2dc66fc2	2.2559624e-11
22	0x00000000	0.0
23	0x00000000	0.0
24	0x3585cce0	9.968899e-07
25	0x3135a4c2	2.643262e-09
26	0x3437c8d8	1.711627e-07
27	0x2f3729e9	1.6658643e-10
28	0x00000000	0.0
29	0x2c742f4f	3.4700747e-12
30	0x34fd6fcc	4.7206265e-07
31	0x30c9bf55	1.4679055e-09
32	0x00000000	0.0
33	0x2d393a92	1.0529038e-11
34	0x351a0006	5.7369505e-07
35	0x30a02fe0	1.1655139e-09
36	0x00000000	0.0
37	0x2c509509	2.964131e-12
38	0x00000000	0.0
39	0x2d3e65d1	1.0822857e-11
40	0x00000000	0.0
41	0x00000000	0.0
42	0x00000000	0.0
43	0x00000000	0.0
44	0x34699527	2.1754077e-07
45	0x3019b174	5.591325e-10
46	0x3108c41a	1.9902076e-09
47	0x2ed2feb6	9.59494e-11
48	0x34ff1519	4.7512802e-07
49	0x30c82cb0	1.4564616e-09
50	0x00000000	0.0
51	0x2c468093	2.8208865e-12
52	0x350eeded	5.324535e-07
53	0x30b0d993	1.2867524e-09
54	0x362d9d05	2.5870406e-06
55	0x31b7de4f	5.3512745e-09
56	0x00000000	0.0
57	0x2dc08f2e	2.1891457e-11
58	0x34a8e9a2	3.146243e-07
59	0x300bfe48	5.092926e-10
60	0x00000000	0.0
61	0x00000000	0.0
62	0x34f5dfc3	4.5797614e-07
63	0x30b7fa61	1.3386164e-09
64	0x3495631d	2.7825527e-07
65	0x30915775	1.0574995e-09
66	0x358bacdf	1.0406619e-06
67	0x313fca48	2.7909142e-09
68	0x00000000	0.0
69	0x00000000	0.0
70	0x32c4fc89	2.2932243e-08
71	0x2ec67bf5	9.026017e-11
72	0x35c998e4	1.5020164e-06
73	0x316de927	3.462057e-09
74	0x353eb09a	7.1037505e-07
75	0x30d77036	1.5675201e-09
76	0x00000000	0.0
77	0x00000000	0.0
78	0x35399b19	6.914357e-07
79	0x30987a41	1.1094202e-09
80	0x2c412325	2.7446459e-12
81	0x2ac6c000	3.5305092e-13
82	0x353b094d	6.9676463e-07
83	0x309d1c3c	1.1431278e-09
84	0x3209126c	7.978638e-09
85	0x2ed1d990	9.5428665e-11
86	0x00000000	0.0
87	0x00000000	0.0
88	0x00000000	0.0
89	0x2d317043	1.0086212e-11
90	0x00000000	0.0
91	0x00000000	0.0
92	0x35cc7268	1.5232481e-06
93	0x3157463d	3.1326544e-09
94	0x00000000	0.0
95	0x00000000	0.0
96	0x00000000	0.0
97	0x00000000	0.0
98	0x34d741bb	4.0094696e-07
99	0x3095f2ad	1.091015e-09
100	0x00000000	0.0
101	0x00000000	0.0
102	0x00000000	0.0
103	0x00000000	0.0
104	0x00000000	0.0
105	0x00000000	0.0
106	0x2f07755e	1.2319876e-10
107	0x2d11a9dd	8.280013e-12
108	0x34f7fcc8	4.6191258e-07
109	0x309d0658	1.1425056e-09
110	0x336e18a6	5.543611e-08
111	0x2f9be1bb	2.8354727e-10
112	0x35161e0a	5.5923067e-07
113	0x306a32eb	8.5201063e-10
114	0x357f8922	9.5194457e-07
115	0x30f50836	1.782843e-09
116	0x00000000	0.0
117	0x00000000	0.0
118	0x3545d838	7.370286e-07
119	0x30fcbe12	1.8389434e-09
120	0x00000000	0.0
121	0x00000000	0.0
122	0x351c3534	5.819195e-07
123	0x308b087d	1.0115994e-09
124	0x34ea702b	4.366751e-07
125	0x30459aae	7.1887996e-10
126	0x00000000	0.0
127	0x2c0b97e4	1.9837404e-12

exp_avg f4 [64]
0	0x00000000	0.0
1	0x39ca6655	0.00038604686
2	0x00000000	0.0
3	0x00000000	0.0
4	0xbad338f3	-0.0016114995
5	0x3b31a32d	0.0027105317
6	0x3aaa5bc6	0.0012997321
7	0x00000000	0.0
8	0x00000000	0.0
9	0x00000000	0.0
10	0xba4b9733	-0.0007766366
11	0x00000000	0.0
12	0x3b77f200	0.0037833452
13	0x3ae516b6	0.0017478082
14	0x38b43800	8.5935e-05
15	0xbb287e93	-0.002571021
16	0x391cf64d	0.00014969074
17	0x3b4c2cd4	0.003115465
18	0x38a69035	7.9423575e-05
19	0x391f2318	0.00015176495
20	0x00000000	0.0
21	0x00000000	0.0
22	0xb962fa66	-0.0002164632
23	0xb9d24118	-0.0004010282
24	0xb92c6ef2	-0.00016444529
25	0x38a27d1f	7.7480676e-05
26	0x3afa89c7	0.0019114547
27	0x3b03401f	0.0020027233
28	0x396253ea	0.000215843
29	0xba9bf4e8	-0.0011898549
30	0x00000000	0.0
31	0x3b9c1069	0.0047626984
32	0xbb6b847b	-0.0035937119
33	0xbb09ebf8	-0.002104519
34	0x00000000	0.0
35	0x39b77320	0.00034990255
36	0x3b819f1a	0.003955734
37	0x3bb4b965	0.005515265
38	0x00000000	0.0
39	0xbaf1cb6a	-0.0018447463
40	0x380d30d4	3.3662494e-05
41	0x3b54598e	0.0032402012
42	0x39ccec0b	0.00039085778
43	0x00000000	0.0
44	0x3919a03c	0.00014650909
45	0x00000000	0.0
46	0x3b82dfc0	0.0039939582
47	0x00000000	0.0
48	0x00000000	0.0
49	0x3b40d127	0.002942154
50	0x00000000	0.0
51	0x00000000	0.0
52	0x00000000	0.0
53	0x393bd58a	0.00017913259
54	0x3a66f9f0	0.00088110473
55	0x3b0beb4c	0.0021349965
56	0x3b82206e	0.003971151
57	0x3b3bcc10	0.0028655566
58	0x00000000	0.0
59	0xbb183b82	-0.0023228829
60	0x00000000	0.0
61	0x3b5c3f73	0.0033607155
62	0x3b5d8098	0.0033798572
63	0x388842ed	6.497451e-05

exp_avg_sq f4 [64]
0	0x00000000	0.0
1	0x362fca81	2.6194905e-06
2	0x00000000	0.0
3	0x00000000	0.0
4	0x3542b338	7.253143e-07
5	0x36311b16	2.6390821e-06
6	0x357cc365	9.416165e-07
7	0x00000000	0.0
8	0x00000000	0.0
9	0x00000000	0.0
10	0x3347d680	4.6528385e-08
11	0x00000000	0.0
12	0x36ac72e0	5.1393727e-06
13	0x34965bda	2.8006508e-07
14	0x31fed82d	7.4169493e-09
15	0x3628be1d	2.5144611e-06
16	0x32c15092	2.2504796e-08
17	0x36168b3e	2.2432791e-06
18	0x31d9b00e	6.3355463e-09
19	0x32c6b594	2.3132806e-08
20	0x00000000	0.0
21	0x00000000	0.0
22	0x358974b1	1.0241257e-06
23	0x346de006	2.2153844e-07
24	0x364f67b3	3.0905765e-06
25	0x31cf2aeb	6.029372e-09
26	0x361cb941	2.3353643e-06
27	0x3719a9e9	9.159071e-06
28	0x3348f71f	4.6790884e-08
29	0x357a157e	9.316353e-07
30	0x00000000	0.0
31	0x3632ae3c	2.6625485e-06
32	0x36127ba0	2.1827655e-06
33	0x369f41db	4.746236e-06
34	0x00000000	0.0
35	0x34040833	1.2296441e-07
36	0x36d57b1c	6.3622265e-06
37	0x365dd5db	3.3056047e-06
38	0x00000000	0.0
39	0x35e50f54	1.7066291e-06
40	0x309c6b18	1.1380932e-09
41	0x36144d54	2.209873e-06
42	0x3424bfbb	1.5343441e-07
43	0x00000000	0.0
44	0x32b92f36	2.1558304e-08
45	0x00000000	0.0
46	0x36bd506e	5.642002e-06
47	0x00000000	0.0
48	0x00000000	0.0
49	0x35fce8a0	1.8843166e-06
50	0x00000000	0.0
51	0x00000000	0.0
52	0x00000000	0.0
53	0x327dd9a9	1.4776028e-08
54	0x36038366	1.9597005e-06
55	0x3509912c	5.124773e-07
56	0x35ef86c0	1.7846105e-06
57	0x364666d7	2.956416e-06
58	0x00000000	0.0
59	0x36643652	3.4006266e-06
60	0x00000000	0.0
61	0x35f9b276	1.8603885e-06
62	0x359b8124	1.1585985e-06
63	0x3191afea	4.2400545e-09
