data/results/quick_test/checkpoints/checkpoint_0000.pth (torch, 198827 bytes, 39 tensors)

shared_backbone.0.weight f4 [64, 2]
0	0xbe4fa5c3	-0.20278077
1	0x3e3efe69	0.18651737
2	0xbe8eeae9	-0.27913597
3	0xbe8fd812	-0.28094536
4	0xbdccd358	-0.10001248
5	0x3e040f8e	0.12896559
6	0x3d633de3	0.05547894
7	0xbe099e97	-0.13439403
8	0x3b5382b1	0.0032273943
9	0xbe6a1889	-0.22860922
10	0xbd5bc388	-0.05365327
11	0xbda82dce	-0.082118616
12	0xbd96a1d0	-0.07355082
13	0xbc0ee8d5	-0.008722504
14	0x3dce7402	0.100807205
15	0xbda5935d	-0.08084748
16	0xbe75e3ef	-0.24012731
17	0xbe2881bf	-0.16455744
18	0xbf8fd94d	-1.123819
19	0x3d7a9ed9	0.061186645
20	0x3a7e603e	0.0009703672
21	0xbe1b43c6	-0.15162572
22	0xbd8755bf	-0.06608152
23	0xbc82acec	-0.015951596
24	0xbda1252f	-0.0786842
25	0x3ec789eb	0.3897241
26	0x3eb9ba67	0.36275026
27	0xbe22223c	-0.15833372
28	0xbd00d5bf	-0.031453844
29	0x3ecbb509	0.39786556
30	0xbe8989a8	-0.26862836
31	0x3e83ab42	0.25716597
32	0xbea0eb22	-0.31429392
33	0x3dd61ca8	0.104546845
34	0xbcfa356f	-0.030543057
35	0xbe10e4ab	-0.1414973
36	0xbe2f1c19	-0.17100562
37	0x3d79affe	0.060958855
38	0x3c59996b	0.013281207
39	0xbd2afbee	-0.041744165
40	0xbdca649c	-0.09882471
41	0x3daf3d25	0.08556584
42	0xbd42259b	-0.047399145
43	0xbd94f5b0	-0.07273424
44	0xbe0bd414	-0.1365512
45	0x3dec3b30	0.115347266
46	0xbf13f22c	-0.577914
47	0x3e6f4e6b	0.23369758
48	0x3d05cd25	0.032666344
49	0xbea03382	-0.31289297
50	0x3e1a4b04	0.15067679
51	0xbe1d8005	-0.15380867
52	0xbe236a59	-0.15958537
53	0x3d18f7e0	0.037345767
54	0x3d8da439	0.069160886
55	0x3dab5da8	0.08367473
56	0xbf89ed51	-1.0775548
57	0x3d88ee6f	0.066861026
58	0xbc5d536a	-0.013508657
59	0xbd0faeda	-0.03507886
60	0x3f015b46	0.505299
61	0x3c48b0b0	0.012249157
62	0x3db5fafa	0.088857606
63	0xbc6810cd	-0.014164162
64	0x3d33454d	0.043767262
65	0xbd78f457	-0.060779896
66	0xbde86705	-0.113477744
67	0x3e729236	0.23688588
68	0xbd78b0cd	-0.060715485
69	0xbcc539ba	-0.024075378
70	0xbd71b633	-0.05901165
71	0x3d9b94a2	0.07596709
72	0x3e7d5004	0.24737555
73	0x3d159480	0.036518574
74	0xbdb07449	-0.0861593
75	0xbea3df4f	-0.32006308
76	0xbd6beca7	-0.057598736
77	0x3d52bced	0.051449705
78	0xbe30220f	-0.17200492
79	0x3c74cd22	0.014941486
80	0xbd07fa22	-0.03319753
81	0xbe461b43	-0.19346337
82	0x3d126e0e	0.035749488
83	0xbe250b69	-0.16117634
84	0xbd6309bc	-0.055429205
85	0xbc91d342	-0.01780093
86	0x3cb37fa2	0.021911446
87	0xbe8f8a74	-0.2803532
88	0xbd2badc9	-0.04191378
89	0x3d9ddad2	0.07707752
90	0xbddef1cf	-0.10885965
91	0xbd851dbf	-0.06499814
92	0xbe6b4dec	-0.22978944
93	0xbd394a48	-0.045236856
94	0xbc47ebcf	-0.012202217
95	0xbe01fefa	-0.12694922
96	0x3da03022	0.078216806
97	0xbee03879	-0.43793085
98	0x3d320e95	0.043470938
99	0xbde72803	-0.112869285
100	0xba5d787b	-0.0008448434
101	0xbe5f8681	-0.21828653
102	0x3dc34369	0.09534342
103	0xbd9aff1b	-0.07568189
104	0xbe33dd78	-0.17564952
105	0x3dd8bafd	0.1058254
106	0xbef2ad71	-0.4739795
107	0x3b98f965	0.004668402
108	0x3e8272b4	0.25478137
109	0xbe97e042	-0.29663283
110	0xbe9aa8cf	-0.30206916
111	0xbdb0839b	-0.08618852
112	0xbd1fea21	-0.039041642
113	0xbec3cc9e	-0.38242048
114	0x3e0beb4b	0.13663976
115	0xbd9e2694	-0.07722202
116	0x3d7bc6a8	0.06146875
117	0xbcd4d28f	-0.025979308
118	0x3e18b7db	0.14913885
119	0xbe3dec73	-0.1854723
120	0xbc0f631c	-0.008751657
121	0xbcd165da	-0.025561262
122	0xbe4a7ed5	-0.19774945
123	0x3c21cf44	0.009876076
124	0xbe0d142d	-0.13777228
125	0x3cb8701e	0.0225144
126	0x3e064711	0.13113047
127	0xbddefed8	-0.10888451

shared_backbone.0.bias f4 [64]
0	0xbd75f9f9	-0.060052846
1	0x00000000	0.0
2	0xbc472178	-0.012153976
3	0xbd785679	-0.06062934
4	0xbd423353	-0.047412228
5	0x00000000	0.0
6	0xbc2fb3d8	-0.01072403
7	0xbddb0982	-0.10695173
8	0x00000000	0.0
9	0x3e8c6e11	0.27427724
10	0x00000000	0.0
11	0x00000000	0.0
12	0xbe5922c7	-0.21204673
13	0xbdeb17a9	-0.11479122
14	0xbe80efc4	-0.25182927
15	0xbd8e82d1	-0.06958545
16	0xbd75fb7d	-0.06005429
17	0x00000000	0.0
18	0xbd75fb33	-0.060054015
19	0xbd89a000	-0.06719971
20	0xbc819538	-0.015818223
21	0xbd4b4b21	-0.049632195
22	0xbd75fc06	-0.0600548
23	0x3d06c400	0.032901764
24	0xbd7ab554	-0.061208084
25	0xbe0bb19e	-0.13641974
26	0xbd4cdffc	-0.050018296
27	0xbde2864d	-0.11060772
28	0x3e7dc0c0	0.2478056
29	0x00000000	0.0
30	0xbe62f6b3	-0.22164421
31	0xbe26df34	-0.16296083
32	0xbd27d1b4	-0.040971473
33	0xbe052677	-0.13002954
34	0xbd75fc3b	-0.060055
35	0xbdd3659a	-0.10322113
36	0xbdb2497a	-0.08705421
37	0x00000000	0.0
38	0xbd7941bc	-0.060853705
39	0xbd80c4ec	-0.0628756
40	0xbd75fc32	-0.060054965
41	0xbdaabc34	-0.08336678
42	0x00000000	0.0
43	0xbdaa2f59	-0.08309812
44	0xbd5cd064	-0.053909674
45	0x00000000	0.0
46	0xbd75f186	-0.060044788
47	0x00000000	0.0
48	0xbd8c354d	-0.06846104
49	0xbd90e7ca	-0.0707546
50	0xbc836ed5	-0.01604406
51	0xbdca1eab	-0.09869131
52	0xbd75f7f8	-0.060050935
53	0xbcdf85dd	-0.02728551
54	0xbdb69f62	-0.089171186
55	0x00000000	0.0
56	0xbd5b01a3	-0.053468358
57	0xbe1b0b30	-0.15140986
58	0xbdfa94c8	-0.12235409
59	0xbc775134	-0.015095044
60	0xbc98d4fb	-0.018656245
61	0xbd75facb	-0.060053628
62	0xbd8c4d35	-0.068506636
63	0xbe0727a9	-0.13198723

shared_backbone.2.weight f4 [64, 64]
0	0x3e82c9dc	0.2554463
1	0xbd6ec925	-0.058297295
2	0xbeabd28e	-0.33559078
3	0x3df80536	0.12110369
4	0xbebf4baf	-0.3736243
5	0xbe47931c	-0.19489712
6	0xbe0636b4	-0.13106805
7	0xbe6a2c56	-0.22868475
8	0x3e58e889	0.21182455
9	0x3db27ddc	0.08715412
10	0xbe8c63e6	-0.27419966
11	0xbe272513	-0.16322736
12	0xbf107473	-0.5642769
13	0xbe29c55d	-0.16579194
14	0xbe21d43f	-0.15803622
15	0x3de7e694	0.11323276
16	0x3d2a62dd	0.04159819
17	0xbe48f5b4	-0.19624978
18	0xbd42a12c	-0.047516987
19	0xbc419674	-0.011815656
20	0x3c8bdb48	0.017072335
21	0x3e726de0	0.23674726
22	0xbe9ab546	-0.30216426
23	0xbe272f7e	-0.1632671
24	0xbda83a0b	-0.08214196
25	0xbc265694	-0.010152478
26	0xbcddb471	-0.02706358
27	0xbd25f50f	-0.04051691
28	0x3d1c1db7	0.038114276
29	0xbd374bdf	-0.04475009
30	0xbd9c5def	-0.07635104
31	0x3d5da096	0.054108225
32	0xbe06874e	-0.13137552
33	0xbd16a321	-0.036776666
34	0xbd50533b	-0.050860625
35	0x3cf5e67c	0.03001713
36	0x3e7091d9	0.23493136
37	0xbd16e627	-0.036840584
38	0x3e001639	0.12508477
39	0x3d14d34a	0.036334313
40	0xbdd74452	-0.10511078
41	0xbe8d7db2	-0.2763496
42	0xba5b3d9e	-0.00083633687
43	0x3dec8234	0.11548272
44	0x3d8daf92	0.06918253
45	0xbdf74c68	-0.1207512
46	0xbdbd05ee	-0.092296466
47	0x3c939abb	0.018018117
48	0x3eaadcf3	0.33371696
49	0x3e60933d	0.21931167
50	0xbee0cd5d	-0.4390668
51	0x3e2dada5	0.16960771
52	0xbe1292a6	-0.14313754
53	0x3e5530dd	0.20819421
54	0xbd7f8769	-0.062384997
55	0xbe2dc018	-0.16967809
56	0x3dad805c	0.08471748
57	0xbdd5a4d4	-0.10431829
58	0x3db2532d	0.08707271
59	0x3df09a4c	0.1174818
60	0xbb33626f	-0.0027371903
61	0x3ddb8d56	0.10720317
62	0xbea36456	-0.31912488
63	0xbd8d5123	-0.06900241
64	0x3e4e8149	0.20166506
65	0xbd8a9d52	-0.06768288
66	0x3c6d7352	0.014492827
67	0xbe9648a8	-0.29352307
68	0xbdcf0e61	-0.101101644
69	0x3e1f86f9	0.15578832
70	0x3d70e276	0.05880972
71	0xbda09061	-0.07840038
72	0x3e0c369d	0.13692708
73	0x3e262d8c	0.16228312
74	0x3dd9abe4	0.10628489
75	0xbe1943c3	-0.14967255
76	0x3db0e9b2	0.08638324
77	0xbe32a272	-0.1744478
78	0xbdd28b1c	-0.10280439
79	0xbca79381	-0.020456078
80	0x3ed1e745	0.40996757
81	0x3c0e011e	0.008667259
82	0xbd8bf5a6	-0.06833963
83	0x3e89b888	0.268986
84	0xbd701616	-0.058614813
85	0xbed8ef45	-0.42370048
86	0xbdfa4a90	-0.12221253
87	0xbe6e8102	-0.232914
88	0x3db9851f	0.09058594
89	0x3cc626f5	0.024188498
90	0x3eb90d61	0.3614302
91	0xbe4a4cb6	-0.19755825
92	0x3c189791	0.00931348
93	0xbe256ff5	-0.1615599
94	0x3d43b908	0.04778388
95	0x3c2c6e86	0.010524398
96	0x3e59aa21	0.21256305
97	0xbcbd5125	-0.023109982
98	0xbda56b21	-0.08077074
99	0x3ea4cf2a	0.32189304
100	0xbd5b4c53	-0.053539585
101	0x3e25aee4	0.16179997
102	0x3e04a02d	0.12951727
103	0x3e13eb9e	0.1444535
104	0x3ddfbd0c	0.1092473
105	0x3d8d2eff	0.068937294
106	0x3d8839fc	0.06651685
107	0xbe794740	-0.24343586
108	0xbbea73dd	-0.0071549253
109	0xbe1e1020	-0.15435839
110	0xbe0bb460	-0.13643026
111	0xbe954bf7	-0.2915952
112	0xbdfc9b96	-0.12334363
113	0xbe065f8d	-0.13122387
114	0xbe31152d	-0.17293234
115	0x3d59e248	0.053194314
116	0xbc12d559	-0.008961999
117	0x3dfcaa3f	0.12337159
118	0xbe86a70a	-0.26299316
119	0xbd6c85b5	-0.0577447
120	0x3debc87f	0.11512851
121	0x3e0e410e	0.13892004
122	0x3d7e0576	0.062016927
123	0xbdca21f7	-0.098697595
124	0x3ea63708	0.3246386
125	0xbe5215a3	-0.20516066
126	0xbdd52a03	-0.10408404
127	0x3ea19e81	0.3156624
128	0x3bfee7e4	0.0077791084
129	0xbeb2469e	-0.34819502
130	0xbe8a9551	-0.27067044
131	0xbcca7c04	-0.024717338
132	0xbda13575	-0.07871524
133	0xbde90bc9	-0.11379201
134	0xbe41fe6e	-0.18944713
135	0xbd57c992	-0.052682467
136	0xbe961167	-0.29310152
137	0x3d682123	0.056672227
138	0xbc2aeb8b	-0.010432134
139	0xbde702ea	-0.11279853
140	0xbd6525ed	-0.055944372
141	0xbdfe415e	-0.124148116
142	0xbb8c130d	-0.004274732
143	0x3df10127	0.11767798
144	0xbe19a3bc	-0.15003866
145	0x3e20b664	0.15694577
146	0x3e699667	0.2281128
147	0xbd63ab7f	-0.055583473
148	0x3db11ae5	0.08647708
149	0xbda80e62	-0.08205868
150	0x3df12b47	0.117758326
151	0x3c53919e	0.012913136
152	0x3dcd7194	0.10031429
153	0xbd46f1cc	-0.04857044
154	0xbd897d8c	-0.06713399
155	0xbeb41eb1	-0.35179666
156	0xbe66bb97	-0.22532497
157	0x3db446c2	0.088025585
158	0x3e85c4c8	0.26126695
159	0xbec2f45d	-0.3807706
160	0xbe1781bd	-0.14795585
161	0x3de9b226	0.11410932
162	0x3e17e964	0.14835125
163	0xbd83e01a	-0.06439228
164	0xbc3ece30	-0.011645839
165	0x3e4cf411	0.20014979
166	0x3f0f3b98	0.5595031
167	0x3e0e53f7	0.13899218
168	0xbe3c19e1	-0.18369247
169	0xbda5582d	-0.08073459
170	0x3e84b274	0.259174
171	0xbddd3b29	-0.108022995
172	0x3e0e3700	0.13888168
173	0xbc748cc5	-0.01492614
174	0xbe7a72d9	-0.24457873
175	0xbe533bbe	-0.20628259
176	0xbb1121f8	-0.002214549
177	0xbddfb181	-0.10922528
178	0x3d810ec6	0.06301646
179	0xbe02cdea	-0.12773862
180	0xbeb3582d	-0.3502821
181	0xbdff27a5	-0.124587335
182	0xbe96e9ac	-0.29475152
183	0xbdd57205	-0.10422138
184	0xbe7cf076	-0.24701104
185	0xbe584a22	-0.2112203
186	0x3de428d9	0.111406036
187	0xbe8c97fd	-0.27459708
188	0xbe4d539f	-0.2005143
189	0xbb5ad6e3	-0.0033392243
190	0xbd3fb75a	-0.046805717
191	0x3e7865b8	0.24257553
192	0xbe607dd6	-0.21923003
193	0xbe05a9f9	-0.1305312
194	0x3e3401c5	0.175788
195	0x3ce5a5d1	0.028033169
196	0x3d4c2899	0.049843404
197	0xbe989656	-0.29802197
198	0xbd9dbf33	-0.07702484
199	0xbe9ae919	-0.30255964
200	0xbe41b97b	-0.18918411
201	0x3d1c757f	0.03819799
202	0x3e60ea4c	0.21964377
203	0x3d61e954	0.05515416
204	0xbeb30f18	-0.34972453
205	0x3da93a5e	0.08263086
206	0x3e3e3778	0.18575847
207	0x3e7eb052	0.24871948
208	0x3e571241	0.21003057
209	0x3e257aed	0.16160174
210	0xbe56113a	-0.20905009
211	0xbddd2937	-0.10798877
212	0xbe71a972	-0.23599795
213	0x3e90af64	0.28258812
214	0x3e928566	0.286174
215	0xbe2ea2d4	-0.17054302
216	0x3d3ab321	0.045580987
217	0x3d03e741	0.032202963
218	0x3dc5459f	0.0963242
219	0x3e5fdfe6	0.21862754
220	0xbe1f5d06	-0.1556283
221	0xbdda8c47	-0.10671287
222	0xbe44980b	-0.19198625
223	0xbd870eaf	-0.065945975
224	0x3dd188b3	0.102311514
225	0xbce39b41	-0.027783992
226	0x3c38a245	0.011269157
227	0xbdd493f8	-0.10379785
228	0xbde5a9e0	-0.11214042
229	0x3e2257a1	0.1585374
230	0xbdfacbe3	-0.122459196
231	0x3dfa47df	0.122207396
232	0x3eb1e265	0.34743038
233	0x3e652664	0.22377926
234	0x3e864cc9	0.26230457
235	0xbd646a08	-0.05576518
236	0xbc6c1181	-0.01440847
237	0xbd356c6b	-0.04429285
238	0xba3e46bb	-0.00072584645
239	0x3e75ff3e	0.24023148
240	0x3dc72c78	0.097252786
241	0xbde1bf10	-0.110227704
242	0xbebde50e	-0.37088817
243	0x3d358b25	0.04432215
244	0xbea5ee37	-0.32408306
245	0xbd9e1213	-0.07718291
246	0x3d18cc29	0.037304077
247	0xbd458c9a	-0.04822979
248	0x3d0645d2	0.03278143
249	0xbe110a79	-0.14164151
250	0xbe059934	-0.13046724
251	0xbeab5c45	-0.33468834
252	0x3d2b3b9c	0.041804895
253	0xbcd9fa57	-0.02660863
254	0xbe243ec3	-0.16039567
255	0x3e545d9f	0.20738839

shared_backbone.2.bias f4 [64]
0	0xbd171044	-0.036880746
1	0xbd2d667e	-0.042334072
2	0xbe0ee8ad	-0.13955946
3	0xbccb6a28	-0.024830893
4	0xbd070092	-0.03295953
5	0x3df5e35f	0.12006258
6	0xbe1599fe	-0.14609525
7	0xbd75f908	-0.060051948
8	0x3e24ba18	0.16086614
9	0xbd483726	-0.04888072
10	0xbe4e5daf	-0.20152925
11	0xbdc23e03	-0.09484484
12	0xbd52f81e	-0.051506154
13	0xbd026574	-0.031835034
14	0xbe2f1807	-0.1709901
15	0xbe20c290	-0.1569922
16	0xbcf82f09	-0.030295866
17	0xbe406ae8	-0.18790781
18	0xbd63a260	-0.055574775
19	0xbd5b0297	-0.053469267
20	0xbd75fb9b	-0.060054403
21	0xbd7e8cc9	-0.062145982
22	0xbd9c7eef	-0.07641398
23	0xbe050241	-0.12989141
24	0xbdc1b6bc	-0.09458682
25	0xbd518dad	-0.051160503
26	0x3e41bd9c	0.18919986
27	0xbd4ff0b2	-0.050766654
28	0xbdd53b36	-0.10411684
29	0xbda92191	-0.082583554
30	0xbd75fc16	-0.06005486
31	0xbe48031c	-0.19532436
32	0xbd451507	-0.048115756
33	0x3d735af3	0.059412908
34	0xbda91202	-0.08255388
35	0x3e087db6	0.13329205
36	0xbe41cd46	-0.18925962
37	0xbe450211	-0.1923907
38	0xbe152bfa	-0.14567557
39	0xbd5218ec	-0.0512933
40	0x3db93128	0.09042579
41	0xbdc9f842	-0.098618045
42	0xbdd1d005	-0.10244755
43	0xbdb233ca	-0.08701284
44	0xbd721c9e	-0.059109323
45	0x3da37396	0.07981031
46	0xbd9b8205	-0.07593159
47	0xbdc56556	-0.09638469
48	0xbd82f66a	-0.06394656
49	0xbd57c65c	-0.052679405
50	0xbe26e326	-0.16297588
51	0xbd89a068	-0.06720048
52	0xbe3abf7b	-0.18237107
53	0xbdc4dbd5	-0.09612242
54	0xbd75fc37	-0.060054984
55	0xbd0754c9	-0.03303984
56	0xbdf52d88	-0.11971575
57	0xbd75fb14	-0.0600539
58	0xbd84aa69	-0.06477816
59	0xbd132710	-0.035925925
60	0xbe3086b7	-0.1723889
61	0xbd293ebe	-0.0413196
62	0xbd75faee	-0.06005376
63	0xbd789983	-0.060693275

goal_head.weight f4 [2, 64]
0	0xbe134573	-0.14381962
1	0xbdcb124c	-0.09915599
2	0x3edd1323	0.43178663
3	0xbe3e590e	-0.18588659
4	0xbda88175	-0.08227817
5	0xbe09b1b5	-0.13446696
6	0x3de49632	0.1116146
7	0x3e80fa1d	0.2519082
8	0xbe92b612	-0.28654534
9	0x3e98b888	0.29828286
10	0x3d6327e5	0.05545797
11	0x3d5449c4	0.05182816
12	0x3dba8bb7	0.0910868
13	0xbe24a220	-0.16077471
14	0xbc9e1779	-0.019298302
15	0xbe6057ec	-0.2190854
16	0xbeb08811	-0.3447881
17	0xbc4c55d6	-0.012471637
18	0xbdda8913	-0.10670676
19	0x3e8eee71	0.2791629
20	0xbe37c427	-0.1794592
21	0xbdc984c7	-0.098397784
22	0x3d366bd3	0.044536423
23	0xbe93dd87	-0.2887995
24	0x3de8419d	0.1134064
25	0xbd0b519a	-0.03401337
26	0xbf720bf7	-0.94549507
27	0x3c87a8b2	0.016559932
28	0x3e04a577	0.12953745
29	0xbeb43cc1	-0.35202602
30	0x3d977d5c	0.07396957
31	0x3e76b2e8	0.24091685
32	0xbd1cd84f	-0.038292225
33	0xbea3aaad	-0.31966153
34	0xbe18f13c	-0.14935774
35	0xbee6da5a	-0.45088464
36	0x3e2065de	0.15663859
37	0x3e2dfd43	0.16991143
38	0x3e2338eb	0.15939681
39	0xbcb93111	-0.022606404
40	0x3f42ce71	0.76096255
41	0xbd9e5cd1	-0.07732547
42	0x3d19a046	0.037506364
43	0xbdaaf7d3	-0.0834805
44	0xbcb0e33d	-0.02159273
45	0xbdf53c65	-0.1197441
46	0x3d20212f	0.039094146
47	0xbe80df5a	-0.25170404
48	0x3db8a87d	0.090165116
49	0xbd55ce5c	-0.052198753
50	0xbd3cd6da	-0.046103336
51	0x3e2ef3ad	0.17085142
52	0xbd0b2deb	-0.033979338
53	0x3dc78f13	0.09744086
54	0x3c093d31	0.008376406
55	0x3e9c9207	0.3058016
56	0xbe43bccf	-0.19114994
57	0x3e9f0cc4	0.31064427
58	0xbe242635	-0.160302
59	0xbe07094e	-0.13187143
60	0x3e509d3c	0.2037248
61	0x3d78bfce	0.060729794
62	0x3d5d176f	0.053977426
63	0x3d1fad62	0.03898371
64	0xbd71aa94	-0.059000567
65	0x3dd71bcf	0.10503351
66	0xbda01520	-0.07816529
67	0xbaf408af	-0.001861831
68	0x3e1a52e2	0.1507068
69	0x3e7edf1d	0.24889798
70	0x3e47ff34	0.19530946
71	0xbd113c56	-0.03545793
72	0x3f43c11b	0.7646653
73	0x3ec7db25	0.39034382
74	0x3da9adc0	0.08285093
75	0xbc3c8d7e	-0.011508344
76	0xbd435f69	-0.047698412
77	0xbdb4499c	-0.088031024
78	0x3e391a59	0.18076457
79	0x3c6fc56f	0.014634474
80	0x3e308949	0.1723987
81	0x3cd3f459	0.02587335
82	0x3d309d8b	0.043118995
83	0xbd8d200c	-0.06890878
84	0x3e64244e	0.22279474
85	0xbe51e9f7	-0.20499407
86	0x3e957071	0.29187348
87	0x3e3c8eb1	0.18413807
88	0x3e10dd3f	0.14146899
89	0x3d08b661	0.033377055
90	0x3e8af791	0.27142003
91	0xbd87944f	-0.066200845
92	0xbe98db99	-0.2985504
93	0xbe09e3cf	-0.13465808
94	0x3df40700	0.11915398
95	0x3d35bda0	0.044370294
96	0x3e6648aa	0.22488657
97	0x3ed29819	0.41131666
98	0xbe657223	-0.22406821
99	0x3ea5106a	0.32239085
100	0x3ca13b35	0.019681552
101	0x3c9e163f	0.019297717
102	0xbe3d381d	-0.18478437
103	0x3a159171	0.00057055714
104	0xbf6925e7	-0.9107346
105	0xbe1ffad0	-0.15623021
106	0x3e61e374	0.22059423
107	0x3d63ef8b	0.055648368
108	0xbd437e3a	-0.0477278
109	0x3ee368a7	0.4441578
110	0xbd8d3615	-0.06895081
111	0xbde84b22	-0.113424554
112	0x3e426004	0.1898194
113	0x3e5d8171	0.21631409
114	0xbc985f2d	-0.01860007
115	0xbe84e7b8	-0.25958037
116	0x3d2813ff	0.041034695
117	0x3e6f0119	0.23340262
118	0xbdab103b	-0.08352705
119	0xbe62bb31	-0.2214172
120	0x3c4685f5	0.012116899
121	0x3d39647c	0.045261845
122	0x3dc3d40b	0.09561928
123	0x3e760fcc	0.24029464
124	0x3ea3de40	0.320055
125	0x3e67bffe	0.22631833
126	0x3e6a6a9f	0.22892235
127	0x3e715a32	0.23569563

goal_head.bias f4 [2]
0	0xbedf1bbd	-0.4357585
1	0x3edf1bc2	0.43575865

portfolio_head.weight f4 [15, 64]
0	0xbe6914d6	-0.22761855
1	0x3bee492b	0.007271906
2	0x3d874efc	0.06606862
3	0xbd4dfb45	-0.050288457
4	0x3e42b4dc	0.19014305
5	0x3de4c7ca	0.11170919
6	0x3e513c94	0.20433265
7	0xbea1911f	-0.3155603
8	0x3e027d3e	0.12743089
9	0xbe8346f3	-0.25640067
10	0xbd5d6657	-0.054052677
11	0xbe102525	-0.1407667
12	0x3ec3a95c	0.38215148
13	0xbe611fb8	-0.21984756
14	0x3d42a8a6	0.047524117
15	0xbeb298fb	-0.3488234
16	0xbe496496	-0.19667277
17	0xbcd572bd	-0.026055688
18	0xbda36180	-0.07977581
19	0xbd9ea1d9	-0.07745714
20	0x3e13dd66	0.14439926
21	0x3b83c657	0.0040214467
22	0x3dd20660	0.10255122
23	0xbdf2bbf8	-0.118522584
24	0x3e5b32b2	0.21406057
25	0xbe7b732c	-0.24555653
26	0x3e11dd9d	0.14244695
27	0xbb3082b9	-0.0026933386
28	0x3d2b0457	0.041752186
29	0xbe3776bf	-0.17916392
30	0xbd49b0e2	-0.049240954
31	0x3dd586d0	0.10426104
32	0x3e854cf3	0.2603527
33	0xbe235921	-0.15951969
34	0x3decc1b7	0.11560386
35	0x3ed22e83	0.4105111
36	0x3c186d98	0.009303473
37	0xbd6bf276	-0.057604276
38	0xbe8b0770	-0.27154112
39	0xbd552c47	-0.05204418
40	0xbf0a1b08	-0.53947496
41	0xbd338210	-0.04382521
42	0x3e6109ef	0.21976446
43	0x3d8fd6a7	0.070233636
44	0xbd493568	-0.049123198
45	0xbda97543	-0.08274319
46	0xbe19dd3b	-0.15025799
47	0x3e26392c	0.16232747
48	0x3d0e4534	0.034733966
49	0x3dabdad3	0.08391347
50	0x3e579821	0.21054126
51	0xbd2caef1	-0.042159025
52	0xbe78d69c	-0.24300617
53	0xbd9182d3	-0.07105031
54	0x3ecf2c74	0.40463603
55	0xbe0d84fc	-0.13820261
56	0x3e1e1cda	0.15440693
57	0xbc38e1a7	-0.011284268
58	0x3e094eb7	0.13408934
59	0xbdc55797	-0.09635847
60	0xbe0ab438	-0.1354531
61	0x3e0042a3	0.1252542
62	0xbe5a67fb	-0.21328728
63	0xbe0c0d1e	-0.13676879
64	0x3dd2c07f	0.10290622
65	0xbd82e4e8	-0.06391317
66	0xbe697fd4	-0.22802669
67	0x3dd97025	0.10617093
68	0xbe01238b	-0.12611215
69	0x3cf6fb7a	0.03014921
70	0x3e8b273c	0.2717837
71	0xbe6baa67	-0.23014222
72	0x3de80fd6	0.113311455
73	0xbee360ff	-0.4440994
74	0x3ec8cd0d	0.3921894
75	0x3c015286	0.00789321
76	0x3cac7af5	0.021054724
77	0xbe97dfc2	-0.296629
78	0x3d40c568	0.04706326
79	0x3e826fd0	0.2547593
80	0xbd64836b	-0.055789392
81	0x3d3d0077	0.04614302
82	0x3e161f0b	0.1466028
83	0x3e3b744c	0.18306082
84	0x3e749842	0.23886207
85	0x3db5fd0a	0.08886154
86	0xbe7b944f	-0.24568294
87	0xbc8aaf55	-0.016929308
88	0xba393cd5	-0.00070662546
89	0x3d3326c5	0.043738145
90	0x3d21b70c	0.039481208
91	0x3e1a94b2	0.15095785
92	0xbe0ff841	-0.14059545
93	0xbddc1d68	-0.10747796
94	0xbdd0cf5d	-0.101958014
95	0xbe1a97a3	-0.15096907
96	0x3e089321	0.13337375
97	0xbe5a1179	-0.21295728
98	0x3e9817db	0.297057
99	0x3bb68232	0.0055697197
100	0xbe00e64a	-0.12587848
101	0xbd9edf9d	-0.077574946
102	0xbe20fea9	-0.15722145
103	0xbed13160	-0.40857983
104	0xbdffe40a	-0.12494667
105	0x3db0d466	0.08634262
106	0xbe19fd97	-0.15038143
107	0xbce5034f	-0.02795568
108	0x3dd7cdc4	0.105372936
109	0x3dd338a3	0.10313537
110	0xbd5f5dfd	-0.054532994
111	0x3e573669	0.2101685
112	0x3c471036	0.012149861
113	0xbe77291e	-0.24136779
114	0x3cdd89d7	0.027043266
115	0xbed52ba3	-0.41634855
116	0x3e62dcfc	0.22154611
117	0x3d85a102	0.065248504
118	0xbe640ef3	-0.22271328
119	0xbdc5f20a	-0.09665306
120	0xbdcb63c2	-0.09931137
121	0x3d51afeb	0.05119316
122	0x3d4b5f9c	0.049651727
123	0xbd16a087	-0.036774185
124	0x3cecc432	0.028902147
125	0xbdb792fb	-0.08963581
126	0x3ea4b2a2	0.32167536
127	0xbe361c67	-0.17784272
128	0xbee67b8d	-0.45016137
129	0xbe69e807	-0.22842418
130	0x3e8568ad	0.26056424
131	0x3ea5e981	0.32404712
132	0x3c9c0bac	0.019048534
133	0x3e69a7f2	0.22817972
134	0xbe532616	-0.20619997
135	0xbe5883af	-0.21143983
136	0xbdef293a	-0.11677785
137	0x3d3ccbb7	0.046092715
138	0x3e927dd2	0.28611618
139	0x3e3247df	0.17410229
140	0xbcbd49c6	-0.023106467
141	0x3e6a128d	0.22858639
142	0xbe394795	-0.18093713
143	0xbd6e9527	-0.05824771
144	0xbe10adec	-0.14128846
145	0xbdf8e232	-0.12152518
146	0x3e211b9f	0.15733193
147	0xbd804fd1	-0.06265224
148	0x3df3e067	0.11908036
149	0x3ecda6a3	0.40166196
150	0x3dbc864a	0.09205301
151	0xbea09411	-0.31362966
152	0xbe193364	-0.1496101
153	0xbe854b49	-0.26034
154	0x3dd98be6	0.10622387
155	0x3da2badc	0.07945797
156	0x3b5fe5b0	0.0034164004
157	0xbe192a57	-0.14957558
158	0xbe1b4f64	-0.15167004
159	0xbe1fe336	-0.15614018
160	0x3d28df06	0.041228317
161	0xbe1b4721	-0.15163852
162	0xbe4cb08b	-0.19989221
163	0x3e023a0a	0.12717453
164	0x3e6a233b	0.22865002
165	0xbde1ac8b	-0.11019238
166	0x3d8e1bcc	0.069388956
167	0x3e9ab671	0.30217317
168	0x3ebe8efe	0.3721847
169	0x3dc97c9b	0.0983822
170	0x3dd7e8b3	0.10542431
171	0x3da571b0	0.08078325
172	0x3cfbb644	0.03072656
173	0xbd0dbdf3	-0.034604978
174	0xbce2584c	-0.027629994
175	0xbd9746f4	-0.0738658
176	0xbe8e437f	-0.2778587
177	0xbc3f13c6	-0.011662429
178	0x3df9248b	0.12165173
179	0x3e2f9765	0.17147596
180	0xbd5648c8	-0.052315503
181	0xbcad4e07	-0.02115537
182	0x3db8e656	0.09028308
183	0xbd85e39d	-0.065375544
184	0xbd286a1c	-0.04111682
185	0xbe8e4abb	-0.2779139
186	0xbe4798a8	-0.19491827
187	0xbda5d0d9	-0.08096475
188	0x3e22a102	0.15881732
189	0x3dc38035	0.09545938
190	0xbda5987d	-0.080857255
191	0xbca63501	-0.020288946
192	0xbabac97a	-0.0014250719
193	0x3e88c173	0.2671009
194	0xbe38765a	-0.18013898
195	0xbdf82400	-0.121162415
196	0xbd832f7e	-0.06405543
197	0x3e194a62	0.14969781
198	0xbd5a4754	-0.05329068
199	0x3d388b7f	0.04505491
200	0xbd5dd40b	-0.054157298
201	0x3c9f42f1	0.0194411
202	0x3e329a42	0.17441657
203	0xbb567440	-0.00327231
204	0x3d72dbdb	0.0592917
205	0x3c94d2dd	0.018166954
206	0x3dbd54e9	0.09244711
207	0xbe413f50	-0.18871808
208	0x3e5725cf	0.21010517
209	0xbdfa14d4	-0.12211004
210	0xbd0ea786	-0.03482773
211	0x3e9fbe8d	0.31200066
212	0x3d29aef3	0.04142661
213	0xbda886ff	-0.082288735
214	0x3d70950f	0.058735903
215	0x3d5c0345	0.053714056
216	0x3d93d977	0.072192125
217	0xbe1d4522	-0.15358403
218	0xbe847daa	-0.25877124
219	0x3e893792	0.2680021
220	0xbe305e07	-0.17223369
221	0xbdc56325	-0.09638051
222	0x3dfbe471	0.12299431
223	0x3eb6e3b1	0.3572059
224	0x3e5445b6	0.20729718
225	0xbef534f0	-0.4789195
226	0x3e182a29	0.14859833
227	0x3e93f921	0.28901008
228	0x3ca6a579	0.020342575
229	0xbedb7189	-0.42860058
230	0x3eb0cc45	0.34530845
231	0x3e9cc3d3	0.30618152
232	0x3eccea87	0.4002268
233	0x3c31023d	0.010803756
234	0x3eab1b99	0.33419493
235	0x3d90d28d	0.070714094
236	0x3d62e50d	0.05539422
237	0xbe87dbe8	-0.26534963
238	0x3eae63af	0.34060428
239	0x3de975c5	0.11399416
240	0xbe33084c	-0.17483634
241	0xbe8cdc8d	-0.27512017
242	0x3c78ff97	0.015197656
243	0xbd4a046d	-0.049320627
244	0xbe0f30a6	-0.13983402
245	0xbd8edb33	-0.06975403
246	0x3c74f98f	0.0149520775
247	0x3c13be81	0.009017588
248	0xbc51d250	-0.01280649
249	0xbe6b997a	-0.23007765
250	0x3e801d43	0.25022325
251	0xbe0a5489	-0.1350881
252	0x3d98ae13	0.07455077
253	0x3c410f81	0.011783482
254	0x3e539b11	0.20664622
255	0xbd3ef857	-0.046623554

portfolio_head.bias f4 [15]
0	0xbc8006eb	-0.015628299
1	0x3c94720f	0.018120794
2	0xbd101614	-0.035177305
3	0xbc1060b2	-0.008812116
4	0x3d7de311	0.061984126
5	0xbc057748	-0.008146115
6	0x3d3ee258	0.046602577
7	0xbb1d78c6	-0.0024028285
8	0x3d1f423c	0.038881525
9	0x3ccc45ae	0.02493557
10	0x3e01efb2	0.12689093
11	0xbd5b6b5d	-0.053569186
12	0x3c731ab6	0.014837911
13	0xbca15a49	-0.019696372
14	0x3c2de83f	0.010614454

network.0.weight f4 [64, 2]
0	0xbd6ccf72	-0.057815023
1	0xbd66cd33	-0.056348037
2	0xbf1b2ce4	-0.6061537
3	0xbd0f8864	-0.03504218
4	0xbe5cd9a0	-0.21567392
5	0x3cd64647	0.026156558
6	0xbeaca8e8	-0.33722615
7	0xbe7b1ce7	-0.24522744
8	0xbe9c5aee	-0.30538124
9	0xbe02c8e9	-0.12771954
10	0xbd45b336	-0.048266612
11	0xbe829feb	-0.25512633
12	0xbf4cb862	-0.79968846
13	0xbd2ee2ae	-0.042696647
14	0xbe92b4ae	-0.28653473
15	0xbd21fecd	-0.039549638
16	0xbd0f34f5	-0.034962613
17	0xbdcae7ad	-0.0990747
18	0xbef8b333	-0.48574218
19	0xbd81e27c	-0.063420266
20	0xbe537e33	-0.2065361
21	0xbe3ad6a7	-0.18245946
22	0xbf52fd59	-0.8241783
23	0x3d809809	0.062789984
24	0xbe8169fe	-0.25276178
25	0xbe6d2d76	-0.23161873
26	0x3e0be7fa	0.13662711
27	0xbd2fd9fa	-0.042932488
28	0xbda3359d	-0.0796921
29	0xbd1637dc	-0.036674365
30	0xbe776a5f	-0.24161671
31	0xbe2397b2	-0.15975836
32	0xbe14fdd7	-0.14549957
33	0xbe0c37d2	-0.13693169
34	0xbf036daf	-0.5133924
35	0xbd04a6aa	-0.032385506
36	0xbee507f3	-0.44732627
37	0xbdbedc93	-0.09319415
38	0x3e130e9d	0.14361043
39	0x3e04966b	0.12948005
40	0xbdf5882b	-0.119888626
41	0xbe940263	-0.2890807
42	0xbe65b0a1	-0.2243066
43	0xbe125eee	-0.14294025
44	0xbe9eecde	-0.3104009
45	0x3e990ad8	0.29891086
46	0xbe725aea	-0.23667493
47	0x3d7cb518	0.061696142
48	0x3e5ade40	0.21373844
49	0xbe6efdc4	-0.23338991
50	0x3e6f4ec9	0.23369898
51	0xbdf3c6bc	-0.1190314
52	0xbeab4da4	-0.33457673
53	0xbd87d91c	-0.06633207
54	0xbd7a10a2	-0.06105102
55	0xbcc4a093	-0.024002349
56	0xbe0dabdf	-0.13835095
57	0x3e0d8694	0.13820869
58	0xbed2c140	-0.41163063
59	0xbd08526b	-0.033281725
60	0x3d662b9b	0.05619393
61	0xbd4d3958	-0.050103515
62	0xbcfe9e0b	-0.03108122
63	0xbe58cdef	-0.21172307
64	0xbc746efc	-0.014919039
65	0x3d028a84	0.03187038
66	0xbdb69f49	-0.089171
67	0xbcd8c939	-0.026463138
68	0x3d1dc099	0.038513754
69	0xbe187be4	-0.1489101
70	0xbcd90171	-0.026489945
71	0xbe199486	-0.14998063
72	0xbeb18ca2	-0.34677607
73	0xbe5fc83b	-0.21853726
74	0xbef1876a	-0.47173625
75	0xbdfe7eff	-0.12426566
76	0xbd88cce7	-0.06679707
77	0x3dc2e3d9	0.09516115
78	0xbcbb10b1	-0.022835108
79	0xbcc59db9	-0.02412306
80	0xbceb08f5	-0.028690794
81	0xbe8e23fd	-0.27761832
82	0xbf389895	-0.7210782
83	0xbdaefac1	-0.08543921
84	0xbd9da299	-0.07697029
85	0x3e1a80de	0.15088221
86	0x3e8eda61	0.27900985
87	0xbdf76ca1	-0.12081266
88	0xbf05befb	-0.5224454
89	0xbd5229c7	-0.051309373
90	0xbeb4d1b3	-0.35316238
91	0xb9d55a76	-0.00040693925
92	0xbec0b485	-0.37637725
93	0xbe247a30	-0.16062236
94	0xbdf41fad	-0.11920104
95	0x3d37c8fc	0.044869408
96	0xbe863633	-0.26213226
97	0xbe1b11c7	-0.151435
98	0xbe848af2	-0.25887257
99	0xbd862cbd	-0.06551502
100	0xbff43a9d	-1.9080387
101	0xbe9c9a3d	-0.30586424
102	0x3d6118c4	0.05495526
103	0xbe5cc4c1	-0.2155943
104	0x3e04b991	0.12961413
105	0x3e4db878	0.200899
106	0xbed982b8	-0.42482543
107	0xbd9ae1c3	-0.07562592
108	0xbe03108f	-0.12799285
109	0xbd961317	-0.0732786
110	0xbd608070	-0.054809988
111	0xbd183212	-0.037157126
112	0xbeb8d079	-0.36096552
113	0xbe349cb5	-0.17637904
114	0xbe8f33e6	-0.27969283
115	0xbe4cb3d1	-0.1999047
116	0xbf11e01a	-0.56982577
117	0xbde07a17	-0.10960787
118	0xbe814523	-0.2524806
119	0xbebabb76	-0.36471146
120	0xbe771982	-0.24130824
121	0x3d0a0fc2	0.033706434
122	0xbe1ea475	-0.15492423
123	0xbeab3ca6	-0.3344471
124	0xbd9ce71a	-0.076612666
125	0x3d1b2058	0.037872642
126	0xbe1021c6	-0.14075384
127	0x3cf5307c	0.029930346

network.0.bias f4 [64]
0	0x00000000	0.0
1	0x3f08d86f	0.5345525
2	0x3e3aef2e	0.18255302
3	0x3ea907a2	0.33013636
4	0x3e906943	0.28205308
5	0xbd75959b	-0.059957128
6	0x3f348350	0.70512867
7	0x3e82c7c3	0.2554303
8	0x00000000	0.0
9	0x3edcd2fd	0.4312972
10	0x00000000	0.0
11	0x3f3828c8	0.7193723
12	0x00000000	0.0
13	0x3e3a49f8	0.1819228
14	0x00000000	0.0
15	0x00000000	0.0
16	0x3e143962	0.14475015
17	0x3ee77da3	0.4521304
18	0x3ecdceee	0.40196937
19	0x3dbba938	0.09163135
20	0x00000000	0.0
21	0x3e5ba675	0.21450217
22	0xbdad6a3d	-0.08467529
23	0xbd75f3e0	-0.06004703
24	0x3e4f3cd5	0.2023805
25	0x3e30eb9b	0.17277376
26	0x3e9963af	0.29958865
27	0xbd75fac7	-0.060053613
28	0x3ddf2125	0.10894994
29	0x3eba76a6	0.36418647
30	0x3e195409	0.14973463
31	0x00000000	0.0
32	0xbd75e294	-0.060030535
33	0xbd75f927	-0.060052063
34	0x3e16ff0b	0.14745729
35	0xbd8b13cf	-0.067908876
36	0x3eaae32a	0.33376437
37	0x3edb2b63	0.4280654
38	0xbd878cb4	-0.06618634
39	0x00000000	0.0
40	0x00000000	0.0
41	0x3f248f5a	0.6428124
42	0xbd7a07ae	-0.06104248
43	0x3e4cae5e	0.19988391
44	0x3eec8ad8	0.4619968
45	0x3e9f2342	0.31081587
46	0x3eb32f5c	0.3499707
47	0xbd75fad8	-0.060053676
48	0x3e7e4694	0.24831611
49	0x00000000	0.0
50	0x3f650863	0.8946592
51	0xbda27eb2	-0.079343215
52	0x3e47aa1d	0.19498487
53	0x3ec24535	0.37943426
54	0x00000000	0.0
55	0x00000000	0.0
56	0x3ead2e09	0.33824185
57	0x3e8b6d7b	0.27231964
58	0x3f03e40d	0.5151985
59	0x00000000	0.0
60	0xbd75f3e5	-0.06004705
61	0x3e05c33a	0.13062754
62	0xbd75fbf1	-0.060054723
63	0xbd75e726	-0.060034893

network.2.weight f4 [64, 64]
0	0xbe885daf	-0.26633975
1	0x3c946050	0.018112332
2	0x3e0fd385	0.14045532
3	0x3dce3db4	0.10070363
4	0xbe19e15b	-0.15027373
5	0x3e5e2c1f	0.21696518
6	0xbe58e765	-0.2118202
7	0x3d8aee77	0.06783765
8	0xbd5cabad	-0.05387466
9	0xbe7a86ac	-0.24465436
10	0x3e646a06	0.2230607
11	0xbb5c28b8	-0.0033593606
12	0xbe20e6e0	-0.15713072
13	0x3c910f58	0.017707512
14	0xbe04c59a	-0.12966004
15	0xbe15b289	-0.14618887
16	0xbe50a6ca	-0.20376125
17	0x3dec32ad	0.11533103
18	0xbe89a071	-0.2688022
19	0x3def1970	0.11674774
20	0x3d9757cc	0.07389793
21	0xbd813765	-0.06309394
22	0xbe6bef7e	-0.23040578
23	0x3e9be3f3	0.3044735
24	0x3dd12fa7	0.10214167
25	0x3e1e5c08	0.15464795
26	0xbe2abcf1	-0.16673638
27	0x3e216a8f	0.15763305
28	0xbd9e6e71	-0.07735909
29	0xbd7cd11e	-0.061722867
30	0xbe17a263	-0.1480804
31	0xbdcd171a	-0.10014172
32	0xbd56cc4f	-0.052440938
33	0x3ce0ffa7	0.027465655
34	0x3d71ab3f	0.059001204
35	0x3aa7ca1a	0.001280132
36	0x3e5342c8	0.20630944
37	0x3ec7b6c1	0.39006618
38	0xbc54ab17	-0.012980244
39	0x3bdcb021	0.0067348634
40	0x3c59280d	0.013254178
41	0xbe662f1e	-0.22478911
42	0x3e07fc2c	0.1327979
43	0xbe8c29d4	-0.27375662
44	0x3e2b0a1d	0.16703077
45	0xbdc3530d	-0.09537325
46	0x3d99f917	0.07518213
47	0xbd471539	-0.048604224
48	0x3e38969f	0.18026207
49	0xbe887b25	-0.26656452
50	0xbd421377	-0.047381844
51	0x3e3ee29a	0.18641129
52	0xbed9dda3	-0.42551908
53	0x3c60c1f1	0.013718114
54	0xbec3aefb	-0.38219437
55	0xbe0a78a0	-0.13522577
56	0x3e494651	0.1965573
57	0x3e1b6eef	0.15179037
58	0x3e8bee3c	0.27330196
59	0x3d95224f	0.072819345
60	0xbe768e6b	-0.24077766
61	0x3e90fa59	0.28316
62	0xbceefaed	-0.029172385
63	0x3e18e858	0.14932382
64	0x3e187cec	0.14891404
65	0xbed7207b	-0.42016968
66	0xbdf62877	-0.12019437
67	0x3d7cfe62	0.061766036
68	0xbe44e5f5	-0.19228347
69	0x3e38a577	0.1803187
70	0xbe3d4d12	-0.18486431
71	0x3e48f345	0.1962405
72	0x3e474b8c	0.19462413
73	0x3dac5704	0.084150344
74	0x3bfa8e65	0.0076463693
75	0xbeb6fb22	-0.35738474
76	0xbe63f10f	-0.22259925
77	0xbe9c6fda	-0.30554086
78	0x3cadf39c	0.021234326
79	0x3e0f7645	0.1400996
80	0x3e1accab	0.15117137
81	0xbe35ae02	-0.1774216
82	0x3d4ca48a	0.049961604
83	0xbe5b2b08	-0.21403134
84	0xbd55c835	-0.052192885
85	0xbe3daa37	-0.18521963
86	0x3cbff616	0.023432773
87	0xbe05d1fa	-0.13068381
88	0xbea17fbb	-0.31542763
89	0x3ed3040d	0.41214028
90	0x3e08fe5c	0.1337828
91	0x3d2bc3b3	0.04193468
92	0x3e12aaf8	0.14323032
93	0xbd3aa75f	-0.045569774
94	0xbdd5d069	-0.10440142
95	0x3e35c318	0.17750204
96	0x3dbf918d	0.093539335
97	0x3a73b3da	0.00092965143
98	0xbe217c96	-0.15770182
99	0xbe7e52d7	-0.24836288
100	0xbe59d213	-0.21271543
101	0x3c231fe9	0.009956338
102	0x3df366fa	0.118848756
103	0xbe8ac81b	-0.27105793
104	0x3e3684d0	0.17824101
105	0xbe128521	-0.14308597
106	0x3ddfc802	0.1092682
107	0xbc98675d	-0.018603975
108	0x3d88fc16	0.066887066
109	0xbdeed8b2	-0.11662425
110	0xbe56c088	-0.20971882
111	0x3e2df435	0.16987689
112	0xbe80532f	-0.25063464
113	0x3c935ea5	0.017989466
114	0x3d18cd1c	0.037304983
115	0xbdc7ed00	-0.09762001
116	0xbcaa46ba	-0.020785678
117	0x3bf3b669	0.0074375165
118	0xbe14301c	-0.14471477
119	0x3dc55d03	0.09636881
120	0x3dd213a0	0.102576494
121	0xbc67374b	-0.014112304
122	0x3e3ef0e9	0.18646587
123	0xbe0a7b2b	-0.13523547
124	0xbe12abea	-0.14323393
125	0x3e21e1ff	0.15808867
126	0xbeac6478	-0.33670402
127	0xbe933a78	-0.28755546
128	0x3c2604a5	0.010132943
129	0x3f0ceb7e	0.5504683
130	0x3ec6d6d9	0.3883579
131	0x3f187b30	0.5956297
132	0x3e9921e5	0.29908672
133	0x3e80e457	0.2517421
134	0x3f93a347	1.1534203
135	0x3e4d4fd7	0.20049988
136	0xbe5d1d66	-0.21593246
137	0x3eaa37b8	0.33245635
138	0xbe2ac509	-0.16676725
139	0x3f691720	0.9105091
140	0xbd86e489	-0.06586558
141	0xbe15aad4	-0.14615947
142	0xbe2c9f83	-0.16857724
143	0x3df2df30	0.11858976
144	0xbe93c86f	-0.28863856
145	0x3eb84427	0.35989496
146	0x3eebf98c	0.46088827
147	0x3e573a02	0.21018222
148	0xbcb08697	-0.021548552
149	0x3d9f933d	0.07791755
150	0x3ea3ab19	0.31966475
151	0xbdaa53e0	-0.08316779
152	0xbebed880	-0.3727455
153	0x3b5db7b1	0.0033831412
154	0x3d87a3d5	0.06623045
155	0x3e5701b6	0.20996746
156	0x3e35c821	0.17752124
157	0x3e9ecc1e	0.31015104
158	0xbdabde7e	-0.083920464
159	0x3d9ebaf1	0.077505
160	0xbdf95858	-0.12175053
161	0xbe485547	-0.1956378
162	0xbd38a624	-0.04508032
163	0x3e8f0ecd	0.2794098
164	0x3e665eca	0.22497097
165	0xbbf428ba	-0.007451144
166	0xbc6a6a6d	-0.0143076
167	0xbd94dcdb	-0.07268687
168	0xbd8bc74c	-0.06825122
169	0x3fa40475	1.281386
170	0xbe520dd5	-0.20513089
171	0xbe790e42	-0.24321845
172	0x3f4e1920	0.8050709
173	0x3de2a8ae	0.11067329
174	0x3e20a5cc	0.15688246
175	0x3dd0f261	0.1020248
176	0x3d1b0ea6	0.037855767
177	0xbd8d3851	-0.06895507
178	0xbfdafe35	-1.7108828
179	0xbd15d66d	-0.036581445
180	0xbe9ae144	-0.3024999
181	0x3ee6a0ab	0.45044455
182	0xbd815882	-0.0631571
183	0x3d10858d	0.035283614
184	0x3dab7ed9	0.08373804
185	0x3e8c01df	0.27345178
186	0x3f5bc592	0.85848343
187	0xbe0535c5	-0.13008793
188	0x3d331bcf	0.043727692
189	0xbe021fde	-0.12707469
190	0x3e61deca	0.22057644
191	0x3e2fb970	0.17160583
192	0x3cd987f3	0.026554083
193	0x3d4c48a7	0.049873974
194	0xbf270adc	-0.65250945
195	0xbc38c1cb	-0.011276673
196	0xbebb5b22	-0.36592966
197	0x3d705740	0.058676958
198	0xbdbbbdec	-0.09167084
199	0xbebb1e3c	-0.36546504
200	0xbc5a6932	-0.013330745
201	0xbdbdb3e8	-0.0926283
202	0xbe227141	-0.15863515
203	0xbe994310	-0.29933977
204	0x3e17098e	0.14749739
205	0xbda4f078	-0.08053678
206	0x3d5169fc	0.051126465
207	0x3e4c85d5	0.19972928
208	0xbe7ad5d5	-0.24495633
209	0xbe5e4c51	-0.217088
210	0xbe72f865	-0.23727567
211	0xbd554f49	-0.052077565
212	0x3ed2e48c	0.41189992
213	0xbe3a2dfa	-0.18181601
214	0x3d27d7ed	0.040977407
215	0xbe3e3414	-0.18574554
216	0xbd0881c1	-0.033326868
217	0xbdddb78c	-0.108260244
218	0xbf1401d8	-0.57815313
219	0xbe85b7d8	-0.26116824
220	0xbe093ac3	-0.13401322
221	0xbe3cd437	-0.18440329
222	0xbefdec36	-0.49594277
223	0x3e239c9b	0.15977709
224	0xbe45806d	-0.19287272
225	0x3d9c8b01	0.076437004
226	0xbe481750	-0.19540143
227	0xbcae7b1f	-0.021298943
228	0xbe95a1c5	-0.29224983
229	0xbe56a710	-0.20962167
230	0xbddc8591	-0.10767663
231	0xbecf2345	-0.40456596
232	0x3dc2724b	0.09494456
233	0xbe05c19f	-0.13062142
234	0xbe73cb2f	-0.23807977
235	0xbd504e59	-0.05085597
236	0xbe7c0c26	-0.2461401
237	0xbe18fbb4	-0.14939767
238	0xbe362db2	-0.17790869
239	0x3e09b693	0.13448553
240	0xbe9ad5b2	-0.30241162
241	0x3cc0b9d0	0.023526102
242	0xbf0f5c90	-0.56000614
243	0x3dab08ae	0.08351265
244	0xbe179fbd	-0.14807029
245	0xbeb77a6a	-0.35835582
246	0xbd7814d4	-0.06056674
247	0xbece6566	-0.40311736
248	0xbea907ae	-0.33013672
249	0xbec43a21	-0.383256
250	0xbdccb69f	-0.0999577
251	0x3e50612b	0.20349567
252	0xbdebf1d5	-0.11520735
253	0x3e0ef471	0.13960434
254	0x3c257b72	0.010100232
255	0x3da9d9f1	0.08293522

network.2.bias f4 [64]
0	0x00000000	0.0
1	0x00000000	0.0
2	0x3eafff42	0.34374434
3	0xbe226e30	-0.15862346
4	0x3e4eab60	0.20182562
5	0xbd75f877	-0.060051408
6	0xbd9f5481	-0.0777979
7	0xbebb6d5b	-0.3660687
8	0x00000000	0.0
9	0x3e90507c	0.28186405
10	0x3e6a26ed	0.22866412
11	0xbd302377	-0.043002572
12	0x3e60249a	0.21888962
13	0xbd775917	-0.060387697
14	0x3eb004fc	0.34378803
15	0xbd76b6d8	-0.060232967
16	0x3e547f24	0.20751625
17	0x00000000	0.0
18	0x00000000	0.0
19	0xbd7c893f	-0.061654326
20	0xbd75f925	-0.060052056
21	0x3e43104e	0.19049188
22	0xbd75d47e	-0.0600171
23	0xbd63afa8	-0.05558744
24	0xbd75fb36	-0.060054027
25	0xbd75f42d	-0.060047317
26	0xbd68d1e8	-0.056840807
27	0x00000000	0.0
28	0x3ea48092	0.3212934
29	0x3e8e89f0	0.27839613
30	0x3e65b65d	0.22432847
31	0x3e8c0d28	0.27353787
32	0xbd75f06b	-0.060043734
33	0xbe36cabe	-0.17850778
34	0xbd75fbe6	-0.060054682
35	0x3e2e06b4	0.16994745
36	0x00000000	0.0
37	0xbe16d156	-0.14728293
38	0xbe9ef697	-0.31047508
39	0x00000000	0.0
40	0x3e5cd188	0.21564305
41	0xbd75f396	-0.060046755
42	0xbd75f64a	-0.060049333
43	0xbd75fa99	-0.06005344
44	0x00000000	0.0
45	0xbd75fbd1	-0.060054604
46	0xbe3ccd1d	-0.1843762
47	0x3e80a941	0.2512913
48	0x3e4931c2	0.19647887
49	0x3e3d6571	0.18495728
50	0x3e4616b7	0.19344603
51	0x3e52ceb9	0.20586671
52	0x3e86a5cb	0.26298365
53	0xbd530b58	-0.05152449
54	0x00000000	0.0
55	0x3e3cc78e	0.18435499
56	0x3e52feaf	0.20604967
57	0x3e773768	0.2414223
58	0x3e9556ba	0.2916773
59	0x3e2175e7	0.15767632
60	0x3e585937	0.21127783
61	0x3e8c2898	0.2737472
62	0xbd9339b5	-0.07188741
63	0x3e54d456	0.20784125

network.4.weight f4 [1, 64]
0	0x3caefba0	0.021360219
1	0x3cd58c32	0.026067827
2	0x3f0fd7ed	0.5618885
3	0x3e1a5865	0.15072782
4	0x3ec79407	0.38980123
5	0x3d71e71a	0.059058286
6	0x3d9759fe	0.073902115
7	0xbeac646c	-0.33670366
8	0xbbb89af7	-0.0056337076
9	0x3ee1de48	0.441149
10	0x3ec5d9df	0.38642785
11	0xbdc16669	-0.09443361
12	0x3eaf2e32	0.34214932
13	0x3d469f39	0.04849169
14	0x3ef1eba4	0.47250092
15	0x3d56ad04	0.052411094
16	0x3ec2c7ea	0.38043147
17	0xbba120f7	-0.00491726
18	0xbc2c40fd	-0.010513541
19	0x3d3d5ad3	0.046229195
20	0x3d35f6e3	0.044424903
21	0x3ed21cf5	0.41037717
22	0x3d70e76e	0.05881446
23	0x3d0228a3	0.031777035
24	0x3d43ea40	0.04783082
25	0x3d705292	0.058672495
26	0x3d6f68fa	0.058449723
27	0xbb299702	-0.0025877361
28	0x3f071dda	0.52779925
29	0x3ed7567a	0.42058164
30	0x3edd0d3f	0.43174168
31	0x3eec9118	0.46204448
32	0x3d6504a0	0.055912614
33	0x3e415b5b	0.18882506
34	0x3d395880	0.045250416
35	0x3e9d2a95	0.3069655
36	0xbbd568a3	-0.006512718
37	0xbe0539a0	-0.13010263
38	0x3d264ae5	0.04059877
39	0xbc2e7d6b	-0.010650019
40	0x3eba9959	0.3644512
41	0x3d5eeef3	0.0544271
42	0x3d546ffd	0.051864613
43	0x3d5a1c93	0.053249907
44	0xbc62f98f	-0.013853445
45	0x3d50dff3	0.050994825
46	0xbb3aac1d	-0.0028483935
47	0x3ebf37b7	0.37347195
48	0x3ea29184	0.31751645
49	0x3ee7955c	0.4523114
50	0x3ec60a29	0.38679627
51	0x3eafaf51	0.34313443
52	0x3eca8cd8	0.3956058
53	0x3d416d32	0.047223277
54	0x3c3ce74d	0.011529756
55	0x3ec653ba	0.38735753
56	0x3eb46c95	0.35239092
57	0x3eb6d61c	0.35710227
58	0x3ef7c549	0.48392704
59	0x3e77cc47	0.2419902
60	0x3ec10c79	0.37704828
61	0x3ec2b08e	0.38025326
62	0x3d85a0cf	0.065248124
63	0x3ea7f062	0.32800585

exp_avg f4 [64, 2]
0	0x00000004	6e-45
1	0x00000004	6e-45
2	0x00000000	0.0
3	0x00000000	0.0
4	0x0cbfdef4	2.9562395e-31
5	0x0c40e3c8	1.4859687e-31
6	0x12371e31	5.778183e-28
7	0x1086ba00	5.314026e-29
8	0x0b4c88f3	3.9392e-32
9	0x09eb65a9	5.6669793e-33
10	0x00000000	0.0
11	0x00000000	0.0
12	0x00000004	6e-45
13	0x00000004	6e-45
14	0x135fcbc3	2.824702e-27
15	0x1189f7fe	2.1767626e-28
16	0x00000000	0.0
17	0x00000000	0.0
18	0x3969af7d	0.00022285986
19	0x3901e3cb	0.00012387258
20	0x00000000	0.0
21	0x00000000	0.0
22	0x00000000	0.0
23	0x00000000	0.0
24	0x19a853e4	1.7404676e-23
25	0x18743c6c	3.1566766e-24
26	0xbae16685	-0.0017196691
27	0xb95368c2	-0.00020161553
28	0x124f16a8	6.534561e-28
29	0x10e7fa28	9.149886e-29
30	0x00000004	6e-45
31	0x00000004	6e-45
32	0x00000000	0.0
33	0x00000004	6e-45
34	0x00000000	0.0
35	0x00000000	0.0
36	0x00000000	0.0
37	0x00000004	6e-45
38	0x00000004	6e-45
39	0x00000004	6e-45
40	0x00000004	6e-45
41	0x00000004	6e-45
42	0x00000004	6e-45
43	0x00000004	6e-45
44	0x00000004	6e-45
45	0x00000004	6e-45
46	0xb58b904a	-1.0398301e-06
47	0x34466867	1.8478168e-07
48	0x00000004	6e-45
49	0x00000004	6e-45
50	0xb801e0c5	-3.096533e-05
51	0xb5466cdb	-7.3919153e-07
52	0x00000004	6e-45
53	0x00000004	6e-45
54	0x168a1045	2.230537e-25
55	0x161af02b	1.2515805e-25
56	0x3a3b0584	0.0007134306
57	0x395c0c63	0.0002098545
58	0x00000000	0.0
59	0x00000000	0.0
60	0xbbd06db4	-0.006360734
61	0xba74983e	-0.0009330547
62	0x00000004	6e-45
63	0x00000004	6e-45
64	0x34102999	1.3426178e-07
65	0x32531c14	1.2288201e-08
66	0x00000004	6e-45
67	0x00000004	6e-45
68	0x00000004	6e-45
69	0x00000004	6e-45
70	0x00000004	6e-45
71	0x00000004	6e-45
72	0xba5d1fbc	-0.000843521
73	0xb8fef374	-0.000121570105
74	0x00000000	0.0
75	0x00000000	0.0
76	0x00000004	6e-45
77	0x00000004	6e-45
78	0x00000004	6e-45
79	0x00000004	6e-45
80	0x00000004	6e-45
81	0x00000004	6e-45
82	0x00000004	6e-45
83	0x00000004	6e-45
84	0x00000000	0.0
85	0x00000000	0.0
86	0x00000004	6e-45
87	0x00000004	6e-45
88	0x00000004	6e-45
89	0x00000004	6e-45
90	0x00000000	0.0
91	0x00000000	0.0
92	0x00000000	0.0
93	0x00000004	6e-45
94	0x00000000	0.0
95	0x00000000	0.0
96	0x00000004	6e-45
97	0x00000004	6e-45
98	0x00000004	6e-45
99	0x00000004	6e-45
100	0x00000004	6e-45
101	0x00000004	6e-45
102	0x21d68dd9	1.4538751e-18
103	0x201fc9cb	1.3534592e-19
104	0x00000000	0.0
105	0x00000004	6e-45
106	0x00000004	6e-45
107	0x00000004	6e-45
108	0xbae56ece	-0.0017504336
109	0xb91cb7d7	-0.00014945805
110	0x00000000	0.0
111	0x00000000	0.0
112	0x00000004	6e-45
113	0x00000004	6e-45
114	0x000000b9	2.59e-43
115	0x0000001a	3.6e-44
116	0x00000004	6e-45
117	0x00000004	6e-45
118	0x393071a8	0.00016827008
119	0xb80a824e	-3.302312e-05
120	0x00000004	6e-45
121	0x00000004	6e-45
122	0x00000000	0.0
123	0x00000004	6e-45
124	0x00000004	6e-45
125	0x00000004	6e-45
126	0x02a6d44a	2.4513356e-37
127	0x00ab42a8	1.5727782e-38

exp_avg_sq f4 [64, 2]
0	0x2a23764d	1.4518352e-13
1	0x2ada74d8	3.8805656e-13
2	0x00000000	0.0
3	0x00000000	0.0
4	0x3740f470	1.1501004e-05
5	0x34729829	2.2593362e-07
6	0x36fd8825	7.555837e-06
7	0x343409ed	1.6767417e-07
8	0x365659a6	3.1940667e-06
9	0x33935ff5	6.8626754e-08
10	0x00000000	0.0
11	0x00000000	0.0
12	0x368bed63	4.1701583e-06
13	0x33a053cf	7.465825e-08
14	0x36e604ad	6.8550785e-06
15	0x3414f049	1.387099e-07
16	0x00000000	0.0
17	0x00000000	0.0
18	0x3829bde1	4.046958e-05
19	0x36494c60	2.999579e-06
20	0x00000000	0.0
21	0x00000000	0.0
22	0x00000000	0.0
23	0x00000000	0.0
24	0x3519e477	5.73294e-07
25	0x329e3a6e	1.8420192e-08
26	0x380216a5	3.1015505e-05
27	0x35527397	7.83993e-07
28	0x35bab842	1.3911706e-06
29	0x332564a8	3.8508603e-08
30	0x29d008a5	9.238555e-14
31	0x2b7af5b5	8.915883e-13
32	0x00000000	0.0
33	0x2c129487	2.0830297e-12
34	0x00000000	0.0
35	0x00000000	0.0
36	0x00000000	0.0
37	0x2b995885	1.0895873e-12
38	0x33854aa5	6.206873e-08
39	0x3080d0a9	9.37253e-10
40	0x356cbb64	8.818954e-07
41	0x32a14bfe	1.8777424e-08
42	0x253cf93d	1.6390846e-16
43	0x200d4c0b	1.1968325e-19
44	0x2e548587	4.8321815e-11
45	0x2d8e9775	1.6210791e-11
46	0x3615d29d	2.2325323e-06
47	0x34042df0	1.231017e-07
48	0x3334a287	4.2057334e-08
49	0x2ff6a6e5	4.4865725e-10
50	0x37ddc189	2.6435375e-05
51	0x350a9b36	5.163487e-07
52	0x3347eedd	4.6550543e-08
53	0x30cdd66c	1.4976655e-09
54	0x3584eaef	9.903141e-07
55	0x32b00bcc	2.0494461e-08
56	0x37c94862	2.3994773e-05
57	0x35f2238d	1.8040752e-06
58	0x00000000	0.0
59	0x00000000	0.0
60	0x39622c15	0.00021569461
61	0x367a0939	3.7258271e-06
62	0x34409ef5	1.7939222e-07
63	0x315414d4	3.08619e-09
64	0x37247a20	9.803596e-06
65	0x344ff424	1.9367195e-07
66	0x34fea63a	4.7432133e-07
67	0x323f0c92	1.1120521e-08
68	0x345a80b8	2.034966e-07
69	0x318fdb97	4.1868122e-09
70	0x34742753	2.2738577e-07
71	0x312942bd	2.4630673e-09
72	0x383af1db	4.45711e-05
73	0x356370c7	8.47282e-07
74	0x00000000	0.0
75	0x00000000	0.0
76	0x33215293	3.7560834e-08
77	0x2f5970cc	1.9776109e-10
78	0x2e54a18f	4.8346712e-11
79	0x2e093f25	3.1206277e-11
80	0x331ca8c0	3.6475058e-08
81	0x301d314b	5.7186317e-10
82	0x3459b6b7	2.0276171e-07
83	0x3131ca43	2.5871862e-09
84	0x00000000	0.0
85	0x00000000	0.0
86	0x33317c50	4.1324085e-08
87	0x2fb2fad8	3.2556247e-10
88	0x33bc6cb8	8.774208e-08
89	0x31050d04	1.9361446e-09
90	0x00000000	0.0
91	0x00000000	0.0
92	0x00000000	0.0
93	0x2849f3f5	1.1210641e-14
94	0x00000000	0.0
95	0x00000000	0.0
96	0x3526986b	6.2061616e-07
97	0x326944bb	1.35780125e-08
98	0x354cf17a	7.6347317e-07
99	0x32817dce	1.5074786e-08
100	0x354bd6ad	7.593579e-07
101	0x32480270	1.1642086e-08
102	0x36bac2f1	5.565926e-06
103	0x342053ab	1.49316e-07
104	0x00000000	0.0
105	0x299ccd53	6.96341e-14
106	0x2e07ff6e	3.0922313e-11
107	0x2e62f0c0	5.160028e-11
108	0x37a68b85	1.9853711e-05
109	0x34f706ef	4.601238e-07
110	0x00000000	0.0
111	0x00000000	0.0
112	0x2f2484ec	1.4962936e-10
113	0x2a758568	2.1806656e-13
114	0x36841228	3.93602e-06
115	0x339efcc1	7.403424e-08
116	0x3435af3b	1.6920687e-07
117	0x318254d5	3.7931422e-09
118	0x387914b4	5.9385507e-05
119	0x35ac4160	1.2834025e-06
120	0x35785a14	9.251828e-07
121	0x3296c287	1.7550759e-08
122	0x00000000	0.0
123	0x2b1ff4b9	5.682777e-13
124	0x2ef57385	1.11618305e-10
125	0x2e15c4ef	3.405359e-11
126	0x3697771c	4.514017e-06
127	0x33b9922c	8.641322e-08

exp_avg f4 [64]
0	0x00000004	6e-45
1	0x00000000	0.0
2	0x0e8d3a99	3.481561e-30
3	0x12589162	6.833678e-28
4	0x0b97095f	5.8177184e-32
5	0x00000000	0.0
6	0x00000004	6e-45
7	0x1376ec92	3.1166203e-27
8	0x00000000	0.0
9	0x39cb7fd6	0.00038814422
10	0x00000000	0.0
11	0x00000000	0.0
12	0x19d56eb2	2.2068393e-23
13	0xbb577e2b	-0.0032881598
14	0x129170bc	9.178578e-28
15	0x00000004	6e-45
16	0x00000004	6e-45
17	0x00000000	0.0
18	0x00000004	6e-45
19	0x00000004	6e-45
20	0x00000004	6e-45
21	0x00000004	6e-45
22	0x00000004	6e-45
23	0x366143fb	3.3567183e-06
24	0x00000004	6e-45
25	0xb80a8955	-3.3029664e-05
26	0x00000004	6e-45
27	0x1693448b	2.3792388e-25
28	0x3b254d0f	0.0025222932
29	0x00000000	0.0
30	0xbc28d308	-0.01030422
31	0x00000004	6e-45
32	0x341da51b	1.468183e-07
33	0x00000004	6e-45
34	0x00000004	6e-45
35	0x00000004	6e-45
36	0xbb003732	-0.001956415
37	0x00000000	0.0
38	0x00000004	6e-45
39	0x00000004	6e-45
40	0x00000004	6e-45
41	0x00000004	6e-45
42	0x00000000	0.0
43	0x00000004	6e-45
44	0x00000004	6e-45
45	0x00000000	0.0
46	0x00000004	6e-45
47	0x00000000	0.0
48	0x00000004	6e-45
49	0x00000004	6e-45
50	0x00000004	6e-45
51	0x21ebd255	1.5979894e-18
52	0x00000004	6e-45
53	0x00000004	6e-45
54	0xbb69e0dc	-0.0035687005
55	0x00000000	0.0
56	0x00000004	6e-45
57	0x00000108	3.7e-43
58	0x00000004	6e-45
59	0xba30edfd	-0.000674933
60	0x00000004	6e-45
61	0x00000004	6e-45
62	0x00000004	6e-45
63	0x02d6aa5d	3.1542258e-37

exp_avg_sq f4 [64]
0	0x2f2f28b5	1.593062e-10
1	0x00000000	0.0
2	0x38158d2d	3.565585e-05
3	0x37ea3fc4	2.7924667e-05
4	0x374da062	1.2256294e-05
5	0x00000000	0.0
6	0x375f0af2	1.3294384e-05
7	0x37b280ee	2.1279291e-05
8	0x00000000	0.0
9	0x3aa8853d	0.0012857091
10	0x00000000	0.0
11	0x00000000	0.0
12	0x357cf0f1	9.422793e-07
13	0x393d03b3	0.00018025823
14	0x365129d6	3.1167779e-06
15	0x3009f969	5.0194743e-10
16	0x30bc56b8	1.3703447e-09
17	0x00000000	0.0
18	0x30450835	7.1679845e-10
19	0x33ae8609	8.126887e-08
20	0x364305a7	2.9060554e-06
21	0x258f20b2	2.48287e-16
22	0x32407992	1.1203513e-08
23	0x3827d0cf	4.001037e-05
24	0x33c19c5d	9.015705e-08
25	0x388d93e5	6.7509514e-05
26	0x348a46f4	2.5756128e-07
27	0x3636b353	2.7224494e-06
28	0x3a478a5c	0.0007611865
29	0x00000000	0.0
30	0x39d797ea	0.0004112118
31	0x34e029da	4.1753702e-07
32	0x380465e5	3.156615e-05
33	0x35bfdccd	1.429487e-06
34	0x34eb935a	4.3879373e-07
35	0x3521a6cb	6.021989e-07
36	0x38ed25b8	0.00011308066
37	0x00000000	0.0
38	0x3397c4ae	7.067261e-08
39	0x328f7df6	1.6704671e-08
40	0x33f95dca	1.1612026e-07
41	0x34f8e0c0	4.6357127e-07
42	0x00000000	0.0
43	0x339ccf04	7.301972e-08
44	0x34b23285	3.3191841e-07
45	0x00000000	0.0
46	0x2d01be69	7.375081e-12
47	0x00000000	0.0
48	0x360205cd	1.9374886e-06
49	0x36282170	2.5053414e-06
50	0x3606416f	2.0005643e-06
51	0x3818b054	3.6403842e-05
52	0x2e497923	4.58097e-11
53	0x3307d367	3.1624406e-08
54	0x38c833c8	9.546388e-05
55	0x00000000	0.0
56	0x2f56c8de	1.9534549e-10
57	0x3713dcc0	8.81328e-06
58	0x34fa568c	4.66291e-07
59	0x3973895b	0.00023225455
60	0x364f6ebd	3.0909862e-06
61	0x2fcd868e	3.738489e-10
62	0x328a2732	1.6083138e-08
63	0x374dfd5d	1.2277943e-05
