data/results/test_historical_small/checkpoints/checkpoint_0000.pth (torch, 197995 bytes, 39 tensors)

shared_backbone.0.weight f4 [64, 2]
-0.031011939 -0.06913341 0.059403703 0.09369422 -0.23645376 -0.032022253 0.21557261 -0.03002542
-0.2705098 -0.0770432 0.03555577 0.078685075 -9.353517e-05 0.14569153 0.1473391 0.1536964
0.0048094233 0.15205409 -0.113276705 0.1012113 0.049435895 0.19037795 0.008802156 0.008279321
-0.35962233 -0.015957845 -0.40035433 -0.040854163 -0.015816329 0.08127725 -0.131993 -0.04982485
0.17201445 -0.1933079 -0.06557433 -0.02467342 -0.20166807 -0.0041883793 -0.05215802 -0.014913925
-0.11353552 0.061837845 0.3066599 -0.06408922 -0.0686185 -0.05936924 -0.016021146 0.13082448
-0.253329 -0.09551423 -0.095791526 0.034759857 -0.041338045 -0.121614784 -0.12399114 -0.27572718
-0.062041383 0.2781434 -0.12441728 -0.033532355 -0.18863817 -0.19469132 -0.57370013 0.10233382
-0.18755086 -0.022910945 0.22237776 -0.29670534 -0.2690138 -0.041323345 -0.2644508 -0.04765419
0.0007996019 -0.0702739 -0.007840524 -0.387315 -0.023831122 -0.06591424 -0.11027325 0.06986906
0.1227659 -0.49008211 0.014814229 -0.0967949 0.23889315 -0.020071182 0.014490464 0.13726439
-0.0009948482 0.10280931 -0.24670628 0.124615185 0.011080247 0.077304825 -0.3202873 0.32349017
-0.03984542 -0.08115673 0.2052878 0.14411967 -0.48885047 0.266383 -0.14272185 -0.26468223
-0.022248235 -0.065367825 0.39881364 -0.06286969 0.10573648 0.41511342 -0.08080498 -0.058583982
0.010765044 -0.18903868 -0.19743505 0.12002524 -0.035680864 -0.20408078 0.130074 -0.24755558
-0.27714595 0.00969528 0.05796835 -0.15376611 -0.08923301 0.38426784 -0.0067474768 -0.19507815
00000000: c00c febc d195 8dbd 4c51 733d c1e2 bf3d
00000010: ef20 72be c429 03bd 11bf 5c3e dff7 f5bc
00000020: 4380 8abe d3c8 9dbd eda2 113d a425 a13d
00000030: 5028 c4b8 2930 153e 10e0 163e 9762 1d3e
00000040: 5e98 9d3b 11b4 1b3e 9efd e7bd df47 cf3d
00000050: 4b7d 4a3d 70f2 423e eb36 103c fda5 073c
00000060: 6b20 b8be 07ba 82bc 3efb ccbe b256 27bd
00000070: 3f91 81bc b074 a63d 2c29 07be 2415 4cbd
00000080: 8e24 303e 82f2 45be d64b 86bd e91f cabc
00000090: 1382 4ebe ac3e 89bb a6a3 55bd 8959 74bc
000000a0: 5085 e8bd ae49 7d3d 8702 9d3e 3541 83bd
000000b0: db87 8cbd 292d 73bd c73e 83bc daf6 053e
000000c0: 57b4 81be f79c c3bd 592e c4bd 5a60 0e3d
000000d0: 1552 29bd 2c11 f9bd 11ef fdbd 1d2c 8dbe
000000e0: 1b1f 7ebd d068 8e3e 7dce febd 3959 09bd
000000f0: 5d2a 41be 295d 47be 03de 12bf 6594 d13d
00000100: 550d 40be bcaf bbbc ffb6 633e c3e9 97be
00000110: 2dbc 89be ab42 29bd 1866 87be 0a31 43bd
00000120: 609c 513a c3eb 8fbd 8b75 00bc 274e c6be
00000130: 7c39 c3bc 0cfe 86bd f1d6 e1bd 8217 8f3d
00000140: b06c fb3d 0bec fabe 61b7 723c 683c c6bd
00000150: 68a0 743e 526c a4bc 6969 6d3c 098f 0c3e
00000160: 9165 82ba b08d d23d 92a0 7cbe 3f36 ff3d
00000170: ed89 353c fe51 9e3d b2fc a3be 81a0 a53e
00000180: f334 23bd 8035 a6bd f736 523e 1b94 133e
00000190: 9c4a fabe 5a63 883e ad25 12be 6e84 87be
000001a0: ee41 b6bc 91df 85bd 4d31 cc3e d3c1 80bd
000001b0: 5e8c d83d bf89 d43e 157d a5bd c2f5 6fbd
000001c0: de5f 303c 5b93 41be 6a2c 4abe cbcf f53d
000001d0: 1926 12bd 8dfa 50be 1e32 053e 367f 7dbe
000001e0: 13e6 8dbe f4d8 1e3c 3870 6d3d dd74 1dbe
000001f0: ccbf b6bd c1be c43e f019 ddbb 91c2 47be

shared_backbone.0.bias f4 [64]
-0.06687714 0.0021640856 -0.06005441 -0.006520824 0.0 0.0020672004 -0.088798776 0.0012983079
-0.10069199 -0.060054347 0.01102471 -0.10319825 -0.026239084 -0.06005425 -0.042948 0.0
-0.02935504 -0.06004627 0.0 -0.06005481 -0.060054015 -0.15056157 -0.06005253 -0.068592735
0.0 -0.06005378 0.0 0.0 -0.017906837 0.0 0.0 -0.060052134
0.0 -0.24215554 -0.06005298 -0.053067632 -0.07559231 0.0 0.0 -0.031818435
-0.1088067 -0.04583419 -0.16714598 -0.081482925 -0.06811666 -0.0060749664 -0.047414508 -0.04031988
-0.10400621 -0.0052374112 0.24503814 0.0 -0.042714447 -0.18306835 -0.04357687 0.0
-0.035260327 -0.026208876 -0.066373274 0.0033626931 -0.060054466 0.031153018 -0.06005471 -0.050370697
00000000: e2f6 88bd 55d3 0d3b 9dfb 75bd a3ac d5bb
00000010: 0000 0000 de79 073b 22dc b5bd fc2b aa3a
00000020: 9a37 cebd 8cfb 75bd fca0 343c 9b59 d3bd
00000030: 59f3 d6bc 72fb 75bd 3eea 2fbd 0000 0000
00000040: fb79 f0bc 14f3 75bd 0000 0000 08fc 75bd
00000050: 33fb 75bd d02c 1abe a4f9 75bd 597a 8cbd
00000060: 0000 0000 f4fa 75bd 0000 0000 0000 0000
00000070: 5cb1 92bc 0000 0000 0000 0000 3af9 75bd
00000080: 0000 0000 9ff7 77be 1dfa 75bd 725d 59bd
00000090: 24d0 9abd 0000 0000 0000 0000 0c54 02bd
000000a0: 0cd6 debd a2bc 3bbd 5128 2bbe 85e0 a6bd
000000b0: bf80 8bbd 8310 c7bb b735 42bd 7526 25bd
000000c0: 3501 d5bd 979e abbb 47eb 7a3e 0000 0000
000000d0: 58f5 2ebd 4576 3bbe a97d 32bd 0000 0000
000000e0: 226d 10bd ffb3 d6bc b6ee 87bd a160 5c3b
000000f0: acfb 75bd 9d34 ff3c edfb 75bd 8151 4ebd

shared_backbone.2.weight f4 [64, 64]
0.15449196 -0.0718241 0.08005502 -0.07636065 -0.30227658 -0.08828754 -0.29164338 0.10599576
0.0762624 -0.18282002 -0.31686634 -0.061517324 0.2745294 0.008646069 -0.5684525 -0.13685824
-0.17719571 0.27552757 -0.094639674 0.055861805 -0.16043021 -0.13333781 -0.10903158 -0.26311
-0.1953759 -0.059622128 0.13893914 0.29829115 0.10728077 0.16884495 -0.07647767 0.17397088
-0.073266484 0.13018304 0.14869848 -0.19448023 -0.10506407 0.054158416 -0.043374594 0.3404615
-0.09326863 0.21382385 -0.049020614 0.10318886 0.07185007 -0.37594453 -0.06761101 0.1218978
-0.14213419 -0.0786931 -0.13857114 -0.16865972 0.11928499 0.09248417 -0.24349092 0.2829267
-0.1393608 -0.04300074 0.01861541 -0.06302391 -0.05349761 -0.015273632 0.113828756 -0.08461838
0.10854111 -0.21680667 0.30210358 0.1620176 -0.21450366 -0.22669753 -0.08270922 -0.11144088
0.04199387 -0.09742445 -0.20542078 -0.125949 0.1412363 -0.19369197 0.013345456 0.17697942
-0.18799332 0.13435495 -0.0023628976 -0.33608085 -0.00797506 0.16111603 0.22226806 0.15505019
-0.06849583 0.04539803 0.018567692 -0.18178199 -0.15715538 -0.10679224 0.2786819 -0.19243027
0.09634953 -0.47568166 0.04381111 0.08461171 -0.13865463 0.0038469015 0.1646096 -0.12554048
0.0861335 -0.019136662 -0.4370698 -0.19503437 0.08578449 0.041784856 -0.12233421 0.268293
-0.27259803 0.18283813 0.33975103 -0.125955 -0.033546004 0.120417595 0.009944658 0.27657592
-0.21294993 -0.114015624 -0.26826486 -0.17790864 -0.20946895 -0.2744281 0.29773277 -0.2344401
-0.0126515385 -0.05011073 -0.2522958 -0.389593 -0.12365303 -0.17410949 0.13254887 -0.08595947
0.0811635 0.159364 -0.22710823 -0.10222115 0.12785171 -0.0036678233 -0.042349275 0.066210024
-0.03196805 -0.15851076 0.46361533 0.06209024 0.085867725 -0.23491591 -0.22850735 -0.05948485
0.04531931 -0.122703865 -0.16430701 0.32104483 -0.17981905 0.08609513 -0.09999892 -0.05451147
0.3737079 -0.34571669 0.12749568 -0.09484606 -0.23243527 -0.04955907 -0.1973831 -0.25000128
0.021381844 -0.061531436 -0.3550253 -0.069071084 0.022545869 0.14882915 -0.4640662 -0.17197776
-0.05063185 -0.21826611 0.20501216 0.10957072 0.036594935 -0.4336232 0.23169075 0.037158288
0.0035228387 -0.08043885 -0.04629206 -0.040129784 -0.0038224685 -0.5741962 -0.031764925 -0.14837886
-0.1358797 -0.275682 0.043279953 -0.25090152 -0.09583914 -0.16008565 0.15066698 -0.16208567
0.20767754 0.20264894 -0.10293516 0.5961722 0.30140316 -0.2492983 -0.0081808735 0.06060543
-0.24512745 0.13658436 -0.077231176 0.053638075 -0.040927127 -0.12943341 0.04226022 -0.028012352
-0.20918052 -0.3490958 0.030449519 -0.21050242 -0.06286788 -0.24549787 0.26025233 -0.19210844
0.09802296 0.17803846 0.0032410915 0.3148976 -0.20906554 0.094686665 0.20750973 0.021871354
-0.13869186 0.093608536 -0.16298 0.28172398 -0.3837172 -0.13864356 -0.07628196 -0.1002284
0.1219436 -0.08959365 -0.12847365 0.1216403 -0.19693515 -0.18553922 0.117584124 0.08912146
-0.060894668 0.03259511 -0.06582105 -0.12529548 0.033506777 0.108364336 -0.15770353 0.124829724
00000000: 2433 1e3e 8418 93bd e3f3 a33d f962 9cbd
00000010: ffc3 9abe 19d0 b4bd 4852 95be 4e14 d93d
00000020: 762f 9c3d 2c35 3bbe 4e3c a2be 97f9 7bbd
00000030: 1e8f 8c3e 3ea8 0d3c 1a86 11bf 9124 0cbe
00000040: cb72 35be f311 8d3e 72d2 c1bd 59cf 643d
00000050: d147 24be b589 08be f34b dfbd 5bb6 86be
00000060: 9f10 48be 5536 74bd 1046 0e3e 9eb9 983e
00000070: 05b6 db3d b1e5 2c3e 53a0 9cbd 6c25 323e
00000080: bd0c 96bd b44e 053e 6a44 183e d325 47be
00000090: d52b d7bd 37d5 5d3d 8fa9 31bd f850 ae3e
000000a0: a003 bfbd a4f4 5a3e d7c9 48bd ae54 d33d
000000b0: 2126 933d cd7b c0be a477 8abd 8ea5 f93d
000000c0: a08b 11be d929 a1bd 98e5 0dbe 22b5 2cbe
000000d0: b04b f43d 5768 bd3d af55 79be c5db 903e
000000e0: 99b4 0ebe 8b21 30bd 587f 983c ae12 81bd
000000f0: 4f20 5bbd 413e 7abc 0d1f e93d 674c adbd
00000100: cd4a de3d 9102 5ebe 52ad 9a3e f1e7 253e
00000110: d9a6 5bbe 6623 68be 7463 a9bd 1e3b e4bd
00000120: c401 2c3d 7886 c7bd d359 52be c6f8 00be
00000130: 40a0 103e 3057 46be e6a6 5a3c 183a 353e
00000140: 5281 40be 5894 093e d8da 1abb ca12 acbe
00000150: d3a9 02bc 9afb 243e 3d9a 633e 7ac5 1e3e
00000160: 8b47 8cbd 49f3 393d 461b 983c 0f25 3abe
00000170: 57ed 20be e4b5 dabd 65af 8e3e 710c 45be
00000180: e752 c53d 8c8c f3be 4773 333d e748 ad3d
00000190: 7bfb 0dbe 4c1c 7c3b 6b8f 283e af8d 00be
000001a0: c366 b03d 7dc4 9cbc 9dc7 dfbe 17b7 47be
000001b0: c7af af3d 9926 2b3d 5c8a fabd b35d 893e
000001c0: f891 8bbe eb39 3b3e d9f3 ad3e 59fa 00be
000001d0: 8967 09bd 809d f63d ebee 223c 5c9b 8d3e
000001e0: 8c0f 5abe 0681 e9bd 035a 89be af2d 36be
000001f0: 077f 56be d781 8cbe 6e70 983e 1111 70be
00000200: 6648 4fbc e940 4dbd ea2c 81be bc78 c7be
00000210: cd3d fdbd c249 32be e4ba 073e 850b b0bd
00000220: 0d39 a63d 5130 233e 0f8f 68be 5359 d1bd
00000230: 8feb 023e dd5f 70bb 6f76 2dbd 1f99 873d
00000240: eef0 02bd a550 22be fd5e ed3e 5652 7e3d
00000250: 6bdb af3d cc8d 70be d5fd 69be 63a6 73bd
00000260: bea0 393d 2a4c fbbd 1940 28be fd5f a43e
00000270: 7c22 38be a552 b03d 3ccc ccbd 6b47 5fbd
00000280: a456 bf3e c701 b1be 3a8e 023e a73e c2bd
00000290: 8303 6ebe 74fe 4abd cc1e 4abe 2b00 80be
000002a0: fa28 af3c 6308 7cbd e0c5 b5be 2475 8dbd
000002b0: 1db2 b83c ab66 183e 169a edbe f01a 30be
000002c0: 5863 4fbd 2781 5fbe b5ee 513e 9d66 e03d
000002d0: 92e4 153d dc03 debe 5740 6d3e 4a33 183d
000002e0: 6ddf 663b 20bd a4bd be9c 3dbd 215f 24bd
000002f0: 6182 7abb 86fe 12bf f01b 02bd a1f0 17be
00000300: 0c24 0bbe 3126 8dbe 5246 313d 2a76 80be
00000310: 5047 c4bd 7eed 23be 7248 1a3e c9f9 25be
00000320: 6ca9 543e 3483 4f3e abcf d2bd be9e 183f
00000330: 8451 9a3e 0e48 7fbe 1209 06bc 663d 783d
00000340: b102 7bbe c5dc 0b3e 612b 9ebd 99b3 5b3d
00000350: 34a3 27bd 318a 04be 0d19 2d3d 297a e5bc
00000360: 6b33 56be afbc b2be 4571 f93c f28d 57be
00000370: e0c0 80bd cb63 7bbe cb3f 853e 13b8 44be
00000380: 43c0 c83d b74f 363e 7e68 543b 423a a13e
00000390: 4715 56be 15eb c13d 6e7d 543e 8e2b b33c
000003a0: 3d05 0ebe d5b5 bf3d 3be4 26be 203e 903e
000003b0: 9576 c4be 94f8 0dbe b739 9cbd 8c44 cdbd
000003c0: 91bd f93d e07c b7bd 998e 03be 8d1e f93d
000003d0: 5ea9 49be fefd 3dbe f2cf f03d 5085 b63d
000003e0: b06c 79bd 7382 053d 30cd 86bd 754d 00be
000003f0: 673e 093d 1fee dd3d 097d 21be baa6 ff3d

shared_backbone.2.bias f4 [64]
0.0 -0.111484036 -0.031858165 -0.11011969 -0.06005412 -0.06005342 -0.04082705 -0.035152275
-0.07696142 -0.060054976 -0.06654755 0.030610664 -0.07291293 0.087309755 0.05202059 -0.05300132
-0.043607388 -0.0068341778 0.027859282 -0.03869624 -0.0014623173 -0.123112865 -0.060054567 0.09101905
-0.037962086 -0.060054947 -0.06005471 -0.020291772 -0.11323236 -0.13885668 -0.030831 0.08546375
0.0 0.059469145 -0.044201892 -0.000100880425 -0.06005412 0.06697118 -0.07116529 -0.043347828
0.06748186 -0.07923177 -0.08234776 -0.015372223 -0.06983853 -0.060738858 -0.05254016 -0.08593776
-0.03803455 -0.08099893 -0.024107343 -0.08181087 -3.9770734e-05 -0.060054973 -0.05571725 -0.088641815
-0.060054526 0.089598134 -0.07217373 0.021931576 -0.012091575 0.04406559 -0.060054325 -0.09258713
00000000: 0000 0000 be51 e4bd b57d 02bd 6f86 e1bd
00000010: 4ffb 75bd 93fa 75bd 443a 27bd d5fb 0fbd
00000020: f39d 9dbd 35fc 75bd 154a 88bd 37c3 fa3c
00000030: 6053 95bd 75cf b23d 8b13 553d ea17 59bd
00000040: a99d 32bd 3df1 dfbb 2639 e43c f37f 1ebd
00000050: 3aab bfba 9922 fcbd c7fb 75bd 3268 ba3d
00000060: 227e 1bbd 2dfc 75bd edfb 75bd ee3a a6bc
00000070: 5ee6 e7bd 7230 0ebe 4b91 fcbc 9e07 af3d
00000080: 0000 0000 eb95 733d 0b0d 35bd c48f d3b8
00000090: 4ffb 75bd 3028 893d 1cbf 91bd 7e8d 31bd
000000a0: ee33 8a3d 4444 a2bd f1a5 a8bd c7db 7bbc
000000b0: 8107 8fbd 4fc9 78bd 5a34 57bd 2300 b0bd
000000c0: 1eca 1bbd c4e2 a5bd c37c c5bc 758c a7bd
000000d0: 80cf 26b8 34fc 75bd c537 64bd d789 b5bd
000000e0: bcfb 75bd 3a7f b73d d2cf 93bd d9a9 b33c
000000f0: be1b 46bc 1f7e 343d 86fb 75bd 529e bdbd

goal_head.weight f4 [2, 64]
-0.051064614 -0.058740284 -0.08356637 0.039440855 0.12838383 0.015850926 -0.005862396 0.13723679
0.116960324 -0.18829268 0.20235837 -0.1675393 0.06653162 -0.19177422 -0.46118137 0.080601536
0.07995566 -0.014246425 -0.050161254 0.20925812 -0.3156443 0.11498077 -0.12708075 -0.21017398
-0.016490286 -0.158289 0.20350917 0.051724933 0.03071572 -0.19646247 -0.003188871 -0.3266128
0.22386615 -0.5297568 0.022333583 -0.019132234 -0.13276365 -0.61143094 0.10477497 -0.10085929
-0.37126338 0.072529584 0.20770763 0.004712225 -0.07548237 0.005050385 0.06420152 -0.21174286
-0.58287483 -0.027985092 -0.124196574 0.05700351 -0.21653569 0.31503496 0.09672887 -0.019091697
-0.20089096 -0.33804607 0.112241946 -0.034856047 -0.16379668 -0.58809865 0.33924413 -0.093582496
0.049923643 0.0778127 0.2714482 -0.022012454 -0.13312367 -0.21817054 -0.09602113 0.051222064
-0.21522816 0.153153 0.13978255 0.31963876 0.100212164 0.42681992 0.113038294 0.16793476
0.06920015 0.09080353 0.045921072 0.26810426 0.03019299 -0.083460435 -0.049672272 0.4371524
0.19169088 0.03658599 -0.1263106 -0.19742957 -0.085802525 -0.25726554 0.14795522 0.2847707
0.22724466 0.032376103 -0.14129996 0.042838827 0.5083303 0.16435945 -0.15230961 0.022813171
0.37111384 0.23232156 0.08090606 0.2346855 0.029403865 0.117315836 -0.22560063 -0.29664356
-0.034593955 0.2008053 0.1612451 -0.11408569 0.17113066 0.17428094 -0.15742002 -0.2880652
-0.18029016 0.3874529 -0.07228649 -0.04051324 -0.024568185 0.18825924 -0.031882815 -0.33580342
00000000: 2129 51bd a799 70bd d824 abbd bc8c 213d
00000010: 0d77 033e cdd9 813c 5819 c0bb cd87 0c3e
00000020: e588 ef3d cccf 40be 0837 4f3e 6c8f 2bbe
00000030: bb41 883d 7660 44be f71f ecbe 6b12 a53d
00000040: cbbf a33d d669 69bc e375 4dbd c347 563e
00000050: 219c a1be 0a7b eb3d 7521 02be d937 57be
00000060: a316 87bc 8316 22be b564 503e 86dd 533d
00000070: 899f fb3c 752d 49be 61fc 50bb cb39 a7be
00000080: 2b3d 653e 249e 07bf ebf4 b63c 34bb 9cbc
00000090: 32f3 07be bd86 1cbf 4294 d63d 518f cebd
000000a0: 3c16 bebe 648a 943d 4fb1 543e 0269 9a3b
000000b0: 8096 9abd b37d a53b 167c 833d 1fd3 58be
000000c0: 4937 15bf fe40 e5bc c65a febd 837c 693d
000000d0: 88bb 5dbe 434c a13e c919 c63d 3166 9cbc
000000e0: 5cb6 4dbe 6014 adbe 1bdf e53d 37c5 0ebd
000000f0: 51ba 27be a28d 16bf 68b1 ad3e 2ea8 bfbd
00000100: bc7c 4c3d 445c 9f3d 42fb 8a3e 7653 b4bc
00000110: 9251 08be 1968 5fbe baa6 c4bd 3ace 513d
00000120: c564 5cbe 24d4 1c3e 2823 0f3e b1a7 a33e
00000130: 093c cd3d 2488 da3e 9f80 e73d 17f7 2b3e
00000140: cfb8 8d3d 33f7 b93d bc17 3c3d f644 893e
00000150: 4a57 f73c 4eed aabd 2775 4bbd 70d2 df3e
00000160: 9d4a 443e 31db 153d 9157 01be fa2a 4abe
00000170: 3cb9 afbd 4fb8 83be 9381 173e 77cd 913e
00000180: d3b2 683e ce9c 043d f0b0 10be c477 2f3d
00000190: ef21 023f d84d 283e 0df7 1bbe b0e2 ba3c
000001a0: a202 be3e b4e5 6d3e 14b2 a53d 6551 703e
000001b0: 60e0 f03c 4943 f03d da03 67be aae1 97be
000001c0: 64b2 0dbd e89f 4d3e 6f1d 253e c2a5 e9bd
000001d0: e03c 2f3e b476 323e b732 21be 487d 93be
000001e0: fc9d 38be 3a60 c63e f00a 94bd 36f1 25bd
000001f0: 3843 c9bc 08c7 403e 8e97 02bd 6dee abbe

goal_head.bias f4 [2]
-0.20361812 0.20361805
00000000: 4581 50be 4081 503e

portfolio_head.weight f4 [15, 64]
0.0986302 -0.11782293 -0.00025075913 -0.13855627 0.07042144 -0.014671064 0.033478096 0.20709111
0.31860933 -0.37903905 -0.07839851 0.08645622 -0.08679611 0.2023597 0.22190604 -0.101614155
0.08362343 -0.14359717 0.2666708 -0.16021821 0.030907333 -0.00806236 0.1552355 -0.20621441
0.1252112 -0.24088141 -0.046784308 0.032549143 -0.40121147 -0.256884 0.011880366 0.076118454
0.020135872 0.12980425 -0.3539232 -0.23346974 0.24626948 -0.04916236 -0.20238481 0.091073826
-0.0011717977 0.25902054 0.10114358 0.22180846 0.047470056 -0.07708074 -0.09826705 0.32243502
0.10652392 0.14098272 -0.23393513 -0.046225294 0.010363398 0.122549795 -0.15629955 0.19104801
0.09513764 -0.11361535 -0.18622306 0.14621793 -0.036469642 0.12628277 0.07194159 0.3616894
-0.0497117 -0.062478162 0.18587181 0.06703313 -0.009408143 -0.2799282 0.16348508 0.041978233
0.42748317 0.104841806 0.009787256 -0.15931325 0.17133757 -0.3056777 -0.2756064 0.08182305
0.046576817 0.0189582 0.19234425 -0.15828116 0.14140037 -0.09043237 0.15045953 -0.078515895
0.1282715 -0.03208903 0.2667065 -0.11261685 -0.21121599 -0.19427103 -0.17721792 -0.07352514
0.08916677 0.29696637 -0.07007189 0.09095312 -0.061275415 -0.13382527 -0.079881616 -0.045872957
-0.12287313 0.06848461 0.11274972 -0.3539424 0.13634358 -0.051792946 -0.16839828 0.11672436
-0.1069034 -0.13144934 -0.015836148 0.03498645 -0.21820462 0.19303283 0.25355127 0.049959585
-0.085602485 0.16977613 0.23540512 0.15699314 -0.11051473 -0.0070473766 -0.48215768 0.032816082
0.022035627 0.003395378 0.09645409 -0.075649425 0.013955487 -0.14153877 0.28500134 -0.24499471
0.06775218 0.22020215 -0.23571144 -0.022188881 -0.5322711 -0.16914402 -0.11626859 -0.056946766
0.20766577 0.058275 -0.0031250683 -0.15999427 0.046403397 -0.35720468 0.22244819 -0.11876734
-0.013002974 0.044872493 -0.4758674 0.1565696 0.048341565 -0.10870889 0.25937864 0.1855935
0.2758004 0.12740888 0.13217954 0.0779686 -0.10480323 -0.08822748 -0.080737695 0.13456678
0.04045513 -0.25346327 -0.037751503 -0.21166581 -0.13252129 -0.09361635 0.28412288 0.012793303
0.42857826 -0.034274682 -0.28203243 -0.017097617 0.10009634 0.08942355 -0.033550296 0.025700478
0.20396584 -0.06776584 -0.053165354 0.0012446777 -0.03180786 0.13446477 0.14784236 -0.23954488
-0.099669196 -0.31193712 0.35166338 0.16500889 0.093281396 -0.3168132 -0.20176478 0.15775894
-0.29172784 0.12812129 -0.028912246 -0.1508836 0.063290335 0.023387678 -0.14983009 0.040375646
0.0903766 0.10859718 -0.103691585 0.09835535 0.060279943 -0.27421293 -0.07859881 -0.09412517
-0.22796983 -0.07647436 -0.30400524 0.014585572 -0.2944091 -0.19847323 -0.03537533 -0.1828532
-0.23128626 -0.20778331 0.09785456 -0.07096561 -0.07176818 0.07364236 -0.43663976 -0.24331146
0.1454201 -0.06770742 0.14019184 -0.16892447 0.37031507 -0.04653499 0.07283375 -0.18022284
0.13035978 -0.02793693 0.20933208 -0.14664337 -0.13246913 0.015553394 0.12376878 -0.023847498
0.16102113 0.27847624 -0.39498878 -0.44392708 -0.38011852 0.052587204 -0.11626686 0.01327977
00000000: a1fe c93d 264d f1bd 5278 83b9 b2e1 0dbe
00000010: 1e39 903d e75e 70bc 5420 093d b10f 543e
00000020: c320 a33e 6811 c2be 668f a0bd f50f b13d
00000030: 29c2 b1bd 6237 4f3e 563b 633e 151b d0bd
00000040: c342 ab3d 230b 13be 1389 883e 3e10 24be
00000050: 6031 fd3c fd17 04bc 0ef6 1e3e df29 53be
00000060: 5d37 003e 9ea9 76be e7a0 3fbd 4052 053d
00000070: 976b cdbe 4d86 83be dea5 423c fee3 9b3d
00000080: fcf3 a43c 68eb 043e 6c35 b5be b112 6fbe
00000090: 112e 7c3e 795e 49bd f73d 4fbe ea84 ba3d
000000a0: 0297 99ba 579e 843e 5e24 cf3d c221 633e
000000b0: f66f 423d 82dc 9dbd 3c40 c9bd 3416 a53e
000000c0: 3729 da3d c65d 103e b18c 6fbe bc56 3dbd
000000d0: 3ecb 293c 63fb fa3d fd0c 20be 17a2 433e
000000e0: 86d7 c23d 2aaf e8bd 42b1 3ebe 27ba 153e
000000f0: 3161 15bd 4550 013e 1d56 933d 5a2f b93e
00000100: 7f9e 4bbd 1ae9 7fbd 2e55 3e3e aa48 893d
00000110: 9d24 1abc c052 8fbe a268 273e 5ef1 2b3d
00000120: 13df da3e 4db7 d63d ba5a 203c 0323 23be
00000130: 1e73 2f3e ca81 9cbe 481c 8dbe d892 a73d
00000140: 55c7 3e3d 3a4e 9b3c e4f5 443e 7514 22be
00000150: 42cb 103e 9b34 b9bd 1012 1a3e f1cc a0bd
00000160: 9b59 033e c96f 03bd c18d 883e aaa3 e6bd
00000170: 0149 58be fcee 46be 9d78 35be 5994 96bd
00000180: 119d b63d fa0b 983e da81 8fbd a145 ba3d
00000190: eefb 7abd 7e09 09be f998 a3bd 48e5 3bbd
000001a0: e8a4 fbbd a941 8c3d 53e9 e63d f037 b5be
000001b0: a79d 0b3e d724 54bd 9970 2cbe 2e0d ef3d
000001c0: 2bf0 dabd a89a 06be cfba 81bc f44d 0f3d
000001d0: 0871 5fbe 66aa 453e 79d1 813e 6ca2 4c3d
000001e0: 5b50 afbd cbd9 2d3e 0a0e 713e cfc2 203e
000001f0: 8c55 e2bd aeed e6bb 5fdd f6be 286a 063d
00000200: 0f84 b43c fd84 5e3b b989 c53d 16ee 9abd
00000210: 8ea5 643c 8aef 10be b2eb 913e e5df 7abe
00000220: a8c1 8a3d ac7c 613e 575e 71be 75c5 b5bc
00000230: eb42 08bf 1734 2dbe 3a1e eebd 0341 69bd
00000240: 56a6 543e c4b1 6e3d f2cd 4cbb 8ad5 23be
00000250: 7d11 3e3d 88e3 b6be 75c9 633e 4b3c f3bd
00000260: 6d0a 55bc 38cc 373d e4a4 f3be c853 203e
00000270: ce01 463d c4a2 debd 47cd 843e 390c 3e3e
00000280: b635 8d3e 7977 023e 135a 073e 00ae 9f3d
00000290: 13a3 d6bd 9cb0 b4bd ce59 a5bd e0cb 093e
000002a0: 47b4 253d f0c5 81be 52a1 1abd ecbe 58be
000002b0: a9b3 07be eeb9 bfbd 8e78 913e 009b 513c
000002c0: 9c6e db3e 9c63 0cbd 8e66 90be 4d10 8cbc
000002d0: 4fff cc3d b223 b73d 096c 09bd cf89 d23c
000002e0: 6cdc 503e d1c8 8abd eac3 59bd 7424 a33a
000002f0: f548 02bd 22b1 093e fd63 173e 414b 75be
00000300: 5d1f ccbd 39b6 9fbe 390d b43e 17f8 283e
00000310: 510a bf3d 5735 a2be 6d9b 4ebe 8f8b 213e
00000320: 5a5d 95be 3a32 033e 60d9 ecbc 3b81 1abe
00000330: 5d9e 813d 8497 bf3c 0f6d 19be ef60 253d
00000340: 5e17 b93d 3368 de3d 415c d4bd 886e c93d
00000350: 1ae8 763d a365 8cbe 6af8 a0bd b2c4 c0bd
00000360: ec70 69be 979e 9cbd 93a6 9bbe 53f8 6e3c
00000370: cabc 96be 913c 4bbe b9e5 10bd df3d 3bbe
00000380: 4ed6 6cbe 26c5 54be f967 c83d 6b56 91bd
00000390: 32fb 92bd ced1 963d 3f8f dfbe a426 79be
000003a0: 02e9 143e 30aa 8abd 738e 0f3e 89fa 2cbe
000003b0: f099 bd3e 799b 3ebd dc29 953d 568c 38be
000003c0: 097d 053e fddb e4bc 265b 563e ae29 16be
000003d0: fda5 07be aad3 7e3c 7c7a fd3d d45b c3bc
000003e0: b9e2 243e 7094 8e3e f83b cabe 694a e3be
000003f0: e59e c2be ae65 573d 521d eebd 6493 593c

portfolio_head.bias f4 [15]
0.011459937 0.08036762 -0.005269253 -0.048713684 0.022623267 -0.1426811 -0.053134535 -0.028698318
-0.010986592 0.040554695 0.052585978 0.04359753 0.079136066 -0.06469452 0.017147366
00000000: 76c2 3b3c c797 a43d b3a9 acbb 0088 47bd
00000010: 6e54 b93c ff1a 12be 99a3 59bd bc18 ebbc
00000020: 1b01 34bc ae1c 263d 6564 573d 5393 323d
00000030: 1712 a23d 8f7e 84bd a278 8c3c

network.0.weight f4 [64, 2]
-0.51032996 0.31851062 -0.10404284 -0.032956082 0.23814434 0.003967628 -0.5369808 0.046160683
-0.22891021 -0.04193106 -0.3874806 0.5675947 -0.15101619 -0.06164076 -0.536379 0.35361117
-0.23730259 0.5383175 -0.4267357 0.50079185 -0.32738867 0.7497412 -0.23721567 -0.16337952
-0.029259255 0.35348573 -0.24056591 0.023238001 -0.4243781 0.23447865 -0.451314 0.07493912
-0.17519307 -0.01689537 -0.48517436 0.027553527 -0.18799289 0.14712691 -0.24419013 -0.14922227
-0.010723353 -0.029450392 -0.15794185 -0.02578514 -0.4808059 0.26739886 -0.009853244 -0.03807768
-0.029251004 -0.017073682 -0.020771513 -0.029977567 0.54774374 0.23721209 -0.37156117 0.09138493
-0.061752956 -0.19307597 -0.24500266 0.03591841 -0.016255008 -0.26732 0.4328686 0.09457247
-0.44684437 0.09764155 -0.45513254 0.4323441 -0.44811487 0.32698727 -0.3166725 -0.16131854
-0.44506952 -0.27827635 -0.23639214 -0.11546365 0.55710804 0.14805035 -0.04366652 -0.20738053
0.47198272 0.4132921 -0.26311356 -0.12681274 -0.43348673 0.19015424 -0.12588648 -0.025512086
-0.35962138 0.48348835 0.5898878 0.2914937 -0.4197353 -0.05607245 -0.02495152 -0.21717979
-0.36011904 0.51135916 -0.045250837 -0.1782323 -0.023053061 -0.16000976 0.48693836 0.4687591
-0.04016701 0.0014495406 -0.045135092 0.21769376 -0.48561573 0.21041597 -0.25999752 0.30932084
0.12052915 0.23740113 -0.032213494 -0.06632941 -0.36404353 0.19554302 -0.4868774 -0.08196044
-0.27992946 -0.0731963 -0.10616108 0.10376569 -0.50525135 0.33759752 -0.4669696 0.20604125
00000000: fca4 02bf d313 a33e 6a14 d5bd f5fc 06bd
00000010: 1cdc 733e e002 823b 9377 09bf fc12 3d3d
00000020: 7067 6abe e7bf 2bbd db63 c6be e34d 113f
00000030: fda3 1abe 067b 7cbd 2250 09bf 860c b53e
00000040: 73ff 72be 2dcf 093f 1a7d dabe e533 003f
00000050: 7d9f a7be 0aef 3f3f aae8 72be f64c 27be
00000060: 1bb1 efbc 15fc b43e e956 76be 9f5d be3c
00000070: 1648 d9be 2c1b 703e a112 e7be ae79 993d
00000080: d065 33be 2968 8abc c668 f8be efb7 e13c
00000090: 3581 40be 70a8 163e fa0c 7abe b9cd 18be
000000a0: 01b1 2fbc f341 f1bc 82bb 21be 5c3b d3bc
000000b0: 312c f6be 81e8 883e 806f 21bc 57f7 1bbd
000000c0: cd9f efbc 1bde 8bbc 0529 aabc 8493 f5bc
000000d0: ef38 0c3f bae7 723e 443d bebe 0628 bb3d
000000e0: abf0 7cbd b5b5 45be fae1 7abe 2f1f 133d
000000f0: 3929 85bc 2bde 88be f4a0 dd3e 36af c13d
00000100: c9c8 e4be 4bf8 c73d 2207 e9be 355c dd3e
00000110: 506f e5be e06a a73e e622 a2be b030 25be
00000120: 27e0 e3be 3d7a 8ebe c810 72be 3578 ecbd
00000130: a29e 0e3f 839a 173e aadb 32bd 905b 54be
00000140: b8a7 f13e 069b d33e d2b6 86be 33db 01be
00000150: f9f1 ddbe cbb7 423e 63e8 00be b9fe d0bc
00000160: 4b20 b8be c98b f73e e302 173f aa3e 953e
00000170: 8ce7 d6be 3aac 65bd 2167 ccbc 6164 5ebe
00000180: 8661 b8be 6fe8 023f f158 39bd 8782 36be
00000190: c6d9 bcbc 99d9 23be fc4f f93e 3101 f03e
000001a0: 2a86 24bd 83fe bd3a 93df 38bd 1deb 5e3e
000001b0: a0a2 f8be 4977 573e 651e 85be 4d5f 9e3e
000001c0: fdd7 f63d 4819 733e 4cf2 03bd b7d7 87bd
000001d0: ea63 babe 6e3c 483e ff47 f9be e0da a7bd
000001e0: ea52 8fbe f1e7 95bd fb6a d9bd 1b83 d43d
000001f0: 2758 01bf 95d9 ac3e a416 efbe 7afc 523e

network.0.bias f4 [64]
0.31424138 0.14136125 0.1691658 0.34743944 -0.060053475 0.4573915 0.0 0.3400811
0.23160699 0.2645386 0.44125548 0.0 -0.082320556 0.22193691 0.17194891 0.30371866
0.0 0.30578795 0.23472986 0.0 -0.064053684 -0.06004984 0.30307236 0.0
-0.06003314 0.0 0.2615355 0.2372731 0.0 -0.060050726 0.0 0.1654169
0.28124994 0.28167367 0.27929014 0.0 0.29356867 0.0 0.32222462 0.0
0.22576982 0.0 0.27618858 -0.06003419 0.47286263 0.39868316 0.0 -0.06110958
0.4858259 -0.060054686 -0.058235403 0.35283893 -0.060051944 -0.07492397 0.30233228 -0.060051143
0.16762447 0.0 0.2309387 0.3076767 0.20017467 -0.060048155 0.31539786 0.29396516
00000000: 3fe4 a03e 01c1 103e cd39 2d3e 95e3 b13e
00000010: a2fa 75bd 382f ea3e 0000 0000 1c1f ae3e
00000020: 622a 6d3e 9a71 873e 3dec e13e 0000 0000
00000030: ae97 a8bd 6e43 633e 6013 303e 0381 9b3e
00000040: 0000 0000 3d90 9c3e 065d 703e 0000 0000
00000050: 942e 83bd d2f6 75bd 4d2c 9b3e 0000 0000
00000060: 4fe5 75bd 0000 0000 fbe7 853e b8f7 723e
00000070: 0000 0000 c0f7 75bd 0000 0000 0c63 293e
00000080: feff 8f3e 8837 903e 1eff 8e3e 0000 0000
00000090: a24e 963e 0000 0000 a0fa a43e 0000 0000
000000a0: 3430 673e 0000 0000 9768 8d3e 69e6 75bd
000000b0: 0d1b f23e 3320 cc3e 0000 0000 0a4e 7abd
000000c0: 2cbe f83e e7fb 75bd 3f88 6ebd 4ea7 b43e
000000d0: 07f9 75bd bd71 99bd 4ccb 9a3e 30f8 75bd
000000e0: c0a5 2b3e 0000 0000 327b 6c3e cd87 9d3e
000000f0: 97fa 4c3e 0ef5 75bd d47b a13e 9a82 963e

network.2.weight f4 [64, 64]
-0.11126515 0.2218087 -0.13823286 -0.083381355 0.03906854 0.014936021 0.21048328 -0.2500595
-0.042145524 -0.024554098 -0.1777874 -0.04858723 -0.09775849 0.035600908 0.198649 -0.37991995
0.16711108 -0.096983396 0.21999665 0.045277003 -0.429235 0.08154494 -0.2256175 0.31775078
0.08148417 -0.14385736 0.2352461 -0.1712944 0.098403364 -0.04265217 -0.22890073 -0.42047533
-0.24281794 -0.064130045 -0.04000875 0.018651515 -0.0032912516 0.21317224 -0.022181265 -0.11259959
0.27419114 0.24347576 -0.15377167 -0.098471455 -0.027877241 -0.21146673 0.039155595 -0.07455652
-0.07096511 -0.11643665 0.006887575 0.13191341 0.06273029 -0.4136 0.09426165 -0.018301679
-0.24679184 0.04391311 0.03335544 0.24804185 0.10229395 -0.13919602 -0.048105627 0.26004612
0.3296248 -0.04954384 0.15389754 -0.2399244 -0.19940211 0.41400304 -0.080322534 0.39827505
-0.0875438 0.04129934 0.37966308 0.081727766 0.12227835 0.028299244 -0.47602344 -0.55088955
0.15544519 0.115386985 0.18926594 -0.1541268 0.1262456 -0.17929439 0.3044921 -0.09704447
0.041883137 0.016820207 0.09082775 -0.035432704 -0.00572398 -0.07138545 -0.059667345 -0.051849414
0.37250245 0.3974545 -0.11170175 0.20287243 -0.11541656 0.09243576 -0.015578423 -0.015957747
-0.008207232 -0.21103275 -0.33623978 -0.21218956 0.39650118 0.23484766 -0.07321239 0.10387101
0.607024 0.2784179 0.17806149 0.38362503 -0.11900328 -0.11088548 0.11086633 -0.29958147
-0.012137893 -0.03301751 0.14886765 -0.20887491 -0.15715545 -0.26803917 -0.1096651 0.24860273
0.36060277 -0.09928695 -0.26251614 -0.13192241 -0.0841508 0.35011894 -0.10148842 0.07305867
0.515061 0.13204148 0.035979114 -0.13960141 0.1456423 0.27220282 -0.3298863 0.08257476
0.062057734 0.2256371 -0.096518114 -0.13461676 0.036046162 0.0053898976 0.13775855 0.08964543
0.13220367 0.06372873 0.0090285735 0.3322593 0.09535998 0.356809 -0.37916982 0.07248406
0.13889189 0.090617985 0.05161083 0.017410444 0.16614704 -0.26757106 -0.22893384 0.0011376223
-0.313688 0.0012181116 0.3692782 -0.063736305 0.74222195 -0.33964276 -0.13272998 0.019914811
0.56706697 -0.023696007 0.22796062 -0.18275538 -0.028321752 -0.21797948 0.27194208 0.18647864
-0.067226216 0.08310764 0.4868584 0.09505463 0.08292687 -0.13801625 -0.04192415 0.23721576
0.32560852 -0.23760624 0.11172515 0.007876696 0.12210951 0.8677234 0.3043541 0.073260106
0.1602478 0.26929486 0.5365417 0.039671455 -0.14957623 0.17370072 -0.07044153 0.012230448
0.046616733 0.08286074 0.23017344 -0.0038278855 0.05250394 -0.101077214 0.055653214 -0.42821068
0.12654234 0.01719561 0.20268372 0.11380835 0.21544525 -0.007973849 0.07839702 -0.12587655
0.10703921 -0.06457471 -0.101289526 -0.09968915 0.04940479 -0.35323548 0.4806466 -0.0029998678
0.2284889 -0.16808432 -0.02073255 0.084683545 0.85571676 0.4272829 -0.14133742 0.32098684
0.62606025 -0.38402918 -0.040126953 0.6369891 -0.3698387 0.001054787 -0.02425852 -0.04594717
0.09764452 0.3028137 0.33593768 0.22727863 0.025851812 0.121148944 0.09677181 0.3014665
00000000: fcde e3bd d221 633e ea8c 0dbe d8c3 aabd
00000010: 5506 203d 36b6 743c ee88 573e cc07 80be
00000020: c9a0 2cbd ad25 c9bc e60d 36be 6703 47bd
00000030: 9a35 c8bd 42d2 113d a56a 4b3e de84 c2be
00000040: 2b1f 2b3e 3b9f c6bd cd46 613e 6174 393d
00000050: b1c4 dbbe 0901 a73d 4608 67be 3bb0 a23e
00000060: 2ce1 a63d 584f 13be 5be4 703e cd67 2fbe
00000070: b487 c93d 0bb4 2ebd f464 6abe 8b48 d7be
00000080: 44a5 78be 9d56 83bd 37e0 23bd 10cb 983c
00000090: 0ab2 57bb d349 5a3e 7cb5 b5bc 9d9a e6bd
000000a0: c862 8c3e b651 793e 5276 1dbe 67ab c9bd
000000b0: d05e e4bc bc8a 58be 9e61 203d 17b1 98bd
000000c0: 2856 91bd 5776 eebd 2bb1 e13b 4f14 073e
000000d0: bd78 803d 61c3 d3be 410c c13d 67ed 95bc
000000e0: 00b7 7cbe 3cde 333d b79f 083d affe 7d3e
000000f0: 7e7f d13d 6789 0ebe 680a 45bd c424 853e
00000100: 95c4 a83e 7bee 4abd 5197 1d3e beae 75be
00000110: 1130 4cbe 35f8 d33e 2480 a4bd b5ea cb3e
00000120: 2a4a b3bd 7f29 293d 3363 c23e e360 a73d
00000130: 126d fa3d d1d3 e73c 58b9 f3be 1907 0dbf
00000140: 062d 1f3e 0350 ec3d eece 413e 6ad3 1dbe
00000150: 8746 013e f398 37be 63e6 9b3e 40bf c6bd
00000160: a78d 2b3d 88ca 893c e603 ba3d e221 11bd
00000170: 3990 bbbb 8932 92bd bf65 74bd 0d60 54bd
00000180: a4b8 be3e 287f cb3e e3c3 e4bd cabd 4f3e
00000190: 845f ecbd f64e bd3d a43c 7fbc d2b9 82bc
000001a0: a077 06bc f818 58be 9f27 acbe 3848 59be
000001b0: 3402 cb3e e87b 703e 61f0 95bd 53ba d43d
000001c0: ed65 1b3f ca8c 8e3e c055 363e 806a c43e
000001d0: feb7 f3bd ed17 e3bd e30d e33d be62 99be
000001e0: 03de 46bc 5e3d 07bd c370 183e 4ee3 55be
000001f0: 5ced 20be 6e3c 89be 1998 e0bd b791 7e3e
00000200: eda0 b83e f556 cbbd 8468 86be ab16 07be
00000210: 4157 acbd ca42 b33e 29d9 cfbd c99f 953d
00000220: 0adb 033f e235 073e d65e 133d acf3 0ebe
00000230: 4123 153e 2b5e 8b3e dbe6 a8be f51c a93d
00000240: 4030 7e3d 690d 673e 4aab c5bd fad8 09be
00000250: 24a5 133d bd9d b03b 9410 0d3e 0698 b73d
00000260: 6660 073e 3584 823d 95ec 133c e41d aa3e
00000270: 184c c33d abaf b63e 8c22 c2be 8672 943d
00000280: ad39 0e3e ec95 b93d e165 533d 59a0 8e3c
00000290: 7322 2a3e 13ff 88be a26d 6abe 451c 953a
000002a0: b79b a0be 0ba9 9f3a 0812 bd3e 2e88 82bd
000002b0: 4202 3e3f a8e5 adbe 5eea 07be 6324 a33c
000002c0: 4d2b 113f 211e c2bc 826e 693e 3a24 3bbe
000002d0: 0503 e8bc 0336 5fbe fe3b 8b3e 42f4 3e3e
000002e0: e6ad 89bd 5734 aa3d 8145 f93e 00ac c23d
000002f0: 90d5 a93d 2254 0dbe a8b8 2bbd b0e8 723e
00000300: 29b6 a63e 0d4f 73be 28d0 e43d 420d 013c
00000310: 8d14 fa3d 1f23 5e3f 4dd4 9b3e 6509 963d
00000320: 0018 243e 04e1 893e cc5a 093f 897e 223d
00000330: 832a 19be 9ade 313e a643 90bd 3862 483c
00000340: 30f1 3e3d e4b2 a93d 96b2 6b3e 43dd 7abb
00000350: 5f0e 573d 9201 cfbd a0f4 633d 6e3e dbbe
00000360: 5194 013e cfdd 8c3c 528c 4f3e 5a14 e93d
00000370: ae9d 5c3e bfa4 02bc 9e8e a03d c8e5 00be
00000380: 6037 db3d bf3f 84bd e270 cfbd d329 ccbd
00000390: ad5c 4a3d 48db b4be 5017 f63e 6e99 44bb
000003a0: fff8 693e 4c1e 2cbe 4fd7 a9bc 916e ad3d
000003b0: 4110 5b3f d3c4 da3e c2ba 10be 6358 a43e
000003c0: 7c45 203f 799f c4be 295c 24bd b811 233f
000003d0: 805b bdbe c740 8a3a ceb9 c6bc 1a33 3cbd
000003e0: daf9 c73d 660a 9b3e 0600 ac3e bbbb 683e
000003f0: 2ec7 d33c f01c f83d 4c30 c63d d159 9a3e

network.2.bias f4 [64]
0.0 0.32481366 0.26847038 0.53052515 0.16708124 0.21985406 -0.06002342 0.28138584
0.33313847 0.0 0.12891218 -0.06000867 0.168093 0.5019736 -0.060052674 -0.15962295
-0.073046416 -0.060049947 0.0 0.09210313 0.42913178 -0.05558785 0.0 0.24465764
0.43431592 -0.106056996 0.0 0.16293406 0.0 0.1610202 0.41562405 0.21845308
0.20076172 0.14922732 -0.060054667 -0.060049597 -0.060054846 0.40416908 -0.060054164 0.48112237
0.0 0.22472537 -0.06005478 0.19084412 -0.112909734 0.2875228 -0.100438125 0.22165354
-0.05557955 -0.0600547 -0.076427475 0.09439591 0.17753725 0.0 0.17119284 0.3771101
0.23558612 0.26645046 -0.060046647 -0.0600549 0.35005218 0.0 0.0 0.38814232
00000000: 0000 0000 fa4d a63e f374 893e 7fd0 073f
00000010: 5817 2b3e 6c21 613e 1edb 75bd ce11 903e
00000020: 2091 aa3e 0000 0000 8e01 043e a7cb 75bd
00000030: 9220 2c3e 5881 003f cbf9 75bd 3374 23be
00000040: 5c99 95bd eff6 75bd 0000 0000 91a0 bc3d
00000050: 29b7 db3e 16b0 63bd 0000 0000 8887 7a3e
00000060: a85e de3e 6934 d9bd 0000 0000 30d8 263e
00000070: 0000 0000 7be2 243e adcc d43e 2ab2 5f3e
00000080: 7b94 4d3e 0ccf 183e e2fb 75bd 91f6 75bd
00000090: 12fc 75bd 40ef ce3e 5bfb 75bd ac55 f63e
000000a0: 0000 0000 681e 663e 00fc 75bd a46c 433e
000000b0: 383d e7bd 3036 933e 81b2 cdbd 25f9 623e
000000c0: 62a7 63bd ebfb 75bd 0286 9cbd a552 c13d
000000d0: 53cc 353e 0000 0000 2d4d 2f3e 9314 c13e
000000e0: 7d3d 713e 326c 883e 79f3 75bd 20fc 75bd
000000f0: 0a3a b33e 0000 0000 0000 0000 97ba c63e

network.4.weight f4 [1, 64]
0.012762654 0.17609665 0.15707195 0.4077372 0.120374024 0.14014569 0.058817584 0.124552466
0.12070423 0.012448477 0.057805106 0.059062753 0.103208005 0.2984322 0.04095693 -0.76882803
0.055193033 0.059006374 -0.021978661 0.118017346 0.28945097 0.043439027 -0.010886393 0.17856996
0.29130742 1.1987958 0.019030523 0.11650632 0.006553214 0.2009113 0.24002016 0.14447679
0.072351985 0.19242354 0.047935087 0.0537797 0.0408992 0.23775612 0.036994725 0.29800525
0.008352032 0.2125039 0.047776565 0.13903233 0.06464063 0.1675825 0.045335308 0.15017004
0.048076287 0.049574412 -0.06491594 -0.14654352 0.1553481 0.018620137 0.089205496 -2.1017232
0.11994188 0.16421966 0.059655126 0.036078446 0.21858457 -0.01622558 -0.012151176 0.20416264
00000000: 731a 513c ae52 343e 78d7 203e eec2 d03e
00000010: a886 f63d 5a82 0f3e b5ea 703d 5d15 ff3d
00000020: c833 f73d b2f4 4b3c 0cc5 6c3d c9eb 713d
00000030: b85e d33d 1bcc 983e 74c2 273d ead1 44bf
00000040: 1712 623d abb0 713d 980c b4bc 14b3 f13d
00000050: eb32 943e 1fed 313d d75c 32bc 0bdb 363e
00000060: 3f26 953e 2472 993f e6e5 9b3c de9a ee3d
00000070: 58bc d63b b1bb 4d3e d8c7 753e b9f1 133e
00000080: 472d 943d ad0a 453e 9557 443d 1a48 5c3d
00000090: eb85 273d 5776 733e c887 173d 2594 983e
000000a0: f6d6 083c 9f9a 593e 5cb1 433d 7e5e 0e3e
000000b0: 4e62 843d bf9a 2b3e 84b1 393d 2dc6 193e
000000c0: a4eb 443d 8a0e 4b3d a6f2 84bd 810f 16be
000000d0: 9313 1f3e 4289 983c 5fb1 b63d a282 06c0
000000e0: 17a4 f53d 3329 283e ef58 743d fec6 133d
000000f0: a2d4 5f3e 82eb 84bc ba15 47bc 0310 513e

exp_avg f4 [64, 2]
3.2438357e-15 1.0369284e-16 0.0021348111 0.00013534386 0.0 1.7515894e-17 -0.00029534934 1.4314931e-05
0.0 0.0 0.00010960537 -2.5464267e-06 3.9804067e-14 1.3641847e-15 0.00179292 0.00014963973
2.2754893e-14 7.388293e-16 0.0 1.6347534e-17 -0.0004999912 -2.3830358e-05 7.4535376e-14 2.1877391e-15
0.0 5.825267e-17 0.0 1.3937164e-17 7.825643e-15 3.0778022e-16 0.0 0.0
0.0010750219 5.3328433e-05 0.0 1.2942651e-18 0.0 0.0 1.1548001e-15 3.6217908e-17
3.189357e-17 1.4889883e-17 0.0003297405 0.00010496299 0.0 4.5040274e-18 1.323975e-11 4.4352223e-13
0.0 0.0 0.0 8.808129e-18 0.0 0.0 0.0 0.0
2.7092014e-15 3.487946e-16 0.0 0.0 0.0 0.0 0.0 3.896861e-18
0.0 0.0 2.593093e-06 9.588475e-08 0.0 5.4234854e-18 0.0 1.1478965e-16
5.0669668e-15 2.4390716e-16 0.0 0.0 0.0 0.0 1.3974993e-13 5.275748e-15
2.601905e-05 1.4823764e-06 4.744467e-10 3.135901e-11 -0.0003015422 1.8906714e-05 9.611975e-15 4.3609854e-16
5.0114188e-15 2.6905544e-16 4.2518208e-10 8.350678e-11 4.1905346e-14 1.8003518e-15 0.0 3.9057437e-17
5.2387696e-15 1.7284998e-16 6.096052e-05 5.8940925e-05 -0.001384847 -0.00026037404 0.0 0.0
3.906086e-13 1.5099252e-14 -0.010297325 -0.00031827015 -0.00088693807 -4.213614e-05 0.0 0.0
3.5378372e-16 2.5939681e-17 3.253112e-16 4.0290247e-16 1.1707621e-14 4.5529736e-16 0.001829175 0.00014015214
0.0 1.972166e-17 0.0015827977 7.1117734e-05 5.8020555e-16 1.5364071e-17 1.5604722e-15 8.1686216e-17
00000000: 35be 6927 7319 ef24 30e8 0b3b 17eb 0d39
00000010: 0000 0000 3c8e a123 1ed9 9ab9 292a 7037
00000020: 0000 0000 0000 0000 efdb e538 47e3 2ab6
00000030: f742 3329 8899 c426 6a00 eb3a 9ce8 1c39
00000040: 36f5 cc28 fbf3 5426 0000 0000 86c7 9623
00000050: d711 03ba 4ee7 c7b7 b8d6 a729 aaa4 1d27
00000060: 0000 0000 4f52 8624 0000 0000 338c 8023
00000070: 69f9 0c28 586c b125 0000 0000 0000 0000
00000080: c0e7 8c3a f8ac 5f38 0000 0000 f4ff be21
00000090: 0000 0000 0000 0000 9b6c a626 8f06 2724
000000a0: 4815 1324 be55 8923 05e1 ac39 931f dc38
000000b0: 0000 0000 562b a622 88ea 682d 4aae f92a
000000c0: 0000 0000 0000 0000 0000 0000 377b 2223
000000d0: 0000 0000 0000 0000 0000 0000 0000 0000
000000e0: f237 4327 ff10 c925 0000 0000 0000 0000
000000f0: 0000 0000 0000 0000 0000 0000 d0c4 8f22
00000100: 0000 0000 0000 0000 0005 2e36 33e9 cd33
00000110: 0000 0000 5f17 c822 0000 0000 ed57 0425
00000120: 858e b627 589a 8c25 0000 0000 0000 0000
00000130: 0000 0000 0000 0000 2d58 1d2a 3014 be27
00000140: 7c43 da37 11f6 c635 386a 0230 1beb 092e
00000150: 4f18 9eb9 dc99 9e37 6927 2d28 c964 fb25
00000160: 2e8e b427 9319 9b25 0fbf e92f 23a2 b72e
00000170: 93b9 3c29 a1ba 0127 0000 0000 e21e 3424
00000180: 1fbf bc27 4f48 4725 dcaf 7f38 5637 7738
00000190: c183 b5ba d082 88b9 0000 0000 0000 0000
000001a0: a2e4 db2a 8100 8828 1db6 28bc 7fdd a6b9
000001b0: 6881 68ba 56bb 30b8 0000 0000 0000 0000
000001c0: 43f1 cb25 5740 ef23 7687 bb25 e941 e825
000001d0: dfe7 5228 043b 0326 eec0 ef3a cef5 1239
000001e0: 0000 0000 74e6 b523 e175 cf3a 0b25 9538
000001f0: 9d3b 2726 63b5 8d23 43e3 e026 085b bc24

exp_avg_sq f4 [64, 2]
4.740687e-08 7.3190315e-11 1.5634689e-05 4.958534e-08 0.0 2.228768e-12 2.5753921e-05 7.364207e-08
0.0 0.0 9.077807e-06 2.3274946e-08 3.212554e-07 7.823409e-10 4.1390915e-05 1.2846888e-07
2.892396e-07 4.8644255e-10 0.0 1.9413507e-12 2.6534656e-06 7.619196e-09 2.399858e-07 4.9545573e-10
0.0 2.2586804e-11 0.0 1.4110723e-12 1.2005385e-07 3.1739886e-10 0.0 0.0
1.0593027e-05 2.9383097e-08 0.0 1.2168745e-14 0.0 0.0 9.687537e-09 9.529001e-12
7.389363e-12 1.6105803e-12 3.487702e-05 6.24596e-08 0.0 1.4736777e-13 1.3764268e-06 3.3108039e-09
0.0 0.0 0.0 5.6359594e-13 0.0 0.0 0.0 0.0
8.855269e-08 2.5109928e-10 0.0 0.0 0.0 0.0 0.0 1.1031363e-13
0.0 0.0 3.7078105e-05 6.502882e-08 0.0 2.1367661e-13 0.0 2.187729e-11
2.1568988e-07 3.5782424e-10 0.0 0.0 0.0 0.0 8.7347587e-07 1.5322815e-09
6.820125e-06 1.4718998e-08 1.5456843e-06 4.5839452e-09 1.4174271e-05 2.9210494e-08 2.8851363e-07 4.6279128e-10
1.9740088e-07 4.1093404e-10 6.274469e-08 1.3167422e-09 7.222273e-07 2.0577064e-09 0.0 6.4639687e-12
4.2750553e-08 5.1970615e-11 9.268222e-06 2.5168438e-08 3.3812594e-05 1.5372132e-07 0.0 0.0
9.3532304e-07 2.8686276e-09 5.7261237e-05 1.0772135e-07 6.0133234e-06 1.6909702e-08 0.0 0.0
2.3125914e-08 2.712179e-11 3.1636585e-10 6.372764e-11 1.5820811e-07 4.6998905e-10 1.20404775e-05 3.793446e-08
0.0 2.825448e-12 5.8444307e-06 1.8967448e-08 2.4454805e-09 1.7147966e-12 4.6228386e-08 8.0406716e-11
00000000: 689c 4b33 7cf2 a02e 3d27 8337 a8f7 5433
00000010: 0000 0000 ead5 1c2c 200a d837 2825 9e33
00000020: 0000 0000 0000 0000 e24c 1837 26ee c732
00000030: 0279 ac34 590c 5730 289b 2d38 42f1 0934
00000040: ca48 9b34 5ab6 0530 0000 0000 449c 082c
00000050: 3112 3236 94e5 0232 66d7 8034 9930 0830
00000060: 0000 0000 f6ac c62d 0000 0000 3d97 c62b
00000070: 27e8 0034 eb7d ae2f 0000 0000 0000 0000
00000080: b4b8 3137 1d66 fc32 0000 0000 6e36 5b28
00000090: 0000 0000 0000 0000 3d6e 2632 cea2 272d
000000a0: bcfe 012d 45ab e22b ea48 1238 8721 8633
000000b0: 0000 0000 deeb 252a aabd b835 4784 6331
000000c0: 0000 0000 0000 0000 0000 0000 5ea3 1e2b
000000d0: 0000 0000 0000 0000 0000 0000 0000 0000
000000e0: 5b2a be33 150b 8a2f 0000 0000 0000 0000
000000f0: 0000 0000 0000 0000 0000 0000 7a67 f829
00000100: 0000 0000 0000 0000 5084 1b38 f9a5 8b33
00000110: 0000 0000 1794 702a 0000 0000 476f c02d
00000120: 6298 6734 49b7 c42f 0000 0000 0000 0000
00000130: 0000 0000 0000 0000 ce78 6a35 5d98 d230
00000140: 6dd8 e436 d6de 7c32 4f75 cf35 cf80 9d31
00000150: 08ce 6d37 8eea fa32 03e5 9a34 156c fe2f
00000160: 24f5 5334 d3e9 e12f 42be 8633 bff8 b430
00000170: 15df 4135 8e67 0d31 0000 0000 416e e32c
00000180: bb9c 3733 b691 642e b67e 1b37 fb31 d832
00000190: ffd1 0d38 980e 2534 0000 0000 0000 0000
000001a0: e912 7b35 6e21 4531 c92b 7038 7054 e733
000001b0: 0ec6 c936 d440 9132 0000 0000 0000 0000
000001c0: 6ca6 c632 d790 ee2d 89ec ad2f 7923 8c2e
000001d0: eadf 2934 8a30 0130 7501 4a37 61ed 2233
000001e0: 0000 0000 bfd2 462c 471b c436 dced a232
000001f0: 590d 2831 0f56 f12b a68c 4633 f5d0 b02e

exp_avg f4 [64]
5.870444e-15 0.0056802058 8.0979584e-16 0.00042365506 0.0 -0.00026682808 5.3228943e-14 0.0060915775
2.8607633e-14 7.557801e-16 -0.0014747271 7.411978e-14 2.693142e-15 6.443444e-16 1.3700404e-14 0.0
0.0024805644 5.983644e-17 0.0 2.0486934e-15 4.98569e-16 0.0031352516 2.0823052e-16 2.0363534e-11
0.0 4.072183e-16 0.0 0.0 1.8135548e-14 0.0 0.0 1.8015963e-16
0.0 4.396478e-06 2.5073896e-16 5.306959e-15 1.3358931e-14 0.0 0.0 1.9096568e-13
8.825363e-05 1.2078377e-09 0.00037143906 2.0811439e-14 1.17220195e-14 3.340371e-09 8.3718636e-14 1.8057044e-15
8.2258605e-15 0.001787176 -0.011064606 0.0 6.1302683e-13 -0.015214929 -0.001450242 0.0
1.6612762e-15 1.8796357e-14 2.2233936e-14 0.0058970475 9.117738e-16 0.0031696754 1.5622281e-15 3.936897e-15
00000000: 4a81 d327 0521 ba3b 6368 6926 051e de39
00000010: 0000 0000 0fe5 8bb9 cbb8 6f29 db9b c73b
00000020: 5bd6 0029 bad6 5926 a14b c1ba 25e7 a629
00000030: b40f 4227 3ab8 3926 f6cd 7628 0000 0000
00000040: f790 223b 33f9 8924 0000 0000 b99f 1327
00000050: e6b3 0f26 cb78 4d3b cd12 7025 9a1e b32d
00000060: 0000 0000 d0be ea25 0000 0000 0000 0000
00000070: ba59 a328 0000 0000 0000 0000 bdb5 4f25
00000080: 0000 0000 7585 9336 8a8a 9025 0f34 bf27
00000090: 32a7 7028 0000 0000 0000 0000 1c02 572a
000000a0: cf14 b938 0301 a630 b5bd c239 e973 bb28
000000b0: 462a 5328 6e8c 6531 8284 bc29 5e1d 0227
000000c0: 162f 1428 ad3f ea3a 5248 35bc 0000 0000
000000d0: 3d8d 2c2b 0a48 79bc 0c16 beba 0000 0000
000000e0: 466a ef26 734d a928 f743 c828 053c c13b
000000f0: 8466 8326 54ba 4f3b 0b24 e126 77d7 8d27

exp_avg_sq f4 [64]
1.9925542e-07 8.1794744e-05 4.7637765e-09 0.00012037258 0.0 3.817501e-05 1.1156053e-06 0.00020882644
7.98605e-07 4.149451e-09 1.2826689e-05 7.2708065e-07 4.8277094e-08 3.0160303e-09 5.845889e-07 0.0
4.6808353e-05 2.6009467e-11 0.0 3.048976e-08 1.8057204e-09 9.8229495e-05 3.1498415e-10 5.697474e-06
0.0 1.2046324e-09 0.0 0.0 5.9983023e-07 0.0 0.0 2.357845e-10
0.0 0.00010265581 4.567128e-10 4.6760594e-08 7.893295e-07 0.0 0.0 2.2451684e-06
2.3431443e-05 7.96257e-06 4.2600517e-05 1.0852272e-06 8.5695797e-07 2.6411894e-06 3.368368e-06 1.3816111e-08
1.1358449e-07 4.0893705e-05 0.0002640206 0.0 4.7245603e-06 0.00016031227 2.828208e-05 0.0
8.468547e-08 1.3744469e-07 7.2697253e-07 6.2158295e-05 6.0391216e-09 3.2873904e-05 1.7729175e-08 1.7115029e-07
00000000: eaf2 5534 3889 ab38 9fae a331 8970 fc38
00000010: 0000 0000 1b1e 2038 e8bb 9535 6cf8 5a39
00000020: b85f 5635 f592 8e31 3632 5737 9a2c 4335
00000030: 3a59 4f33 9142 4f31 a5ec 1c35 0000 0000
00000040: 1654 4438 1dc8 e42d 0000 0000 d8f3 0233
00000050: 232d f830 8f00 ce38 142a ad2f ee2c bf36
00000060: 0000 0000 3c90 a530 0000 0000 0000 0000
00000070: 0504 2135 0000 0000 0000 0000 b89f 812f
00000080: 0000 0000 eb48 d738 9d14 fb2f d1d5 4833
00000090: 4fe2 5335 0000 0000 0000 0000 b3ab 1636
000000a0: a48e c437 fa96 0537 f5ad 3238 1fa8 9135
000000b0: b409 6635 4a3f 3136 1f0c 6236 e65b 6d32
000000c0: bceb f333 4885 2b38 3f6c 8a39 0000 0000
000000d0: aa87 9e36 7f19 2839 4e3f ed37 0000 0000
000000e0: 54dc b533 8294 1334 2c25 4335 fb5a 8238
000000f0: ad80 cf31 16e2 0938 de4a 9832 6fc5 3734

exp_avg f4 [64, 64]
0.0 0.0 0.0 0.0 0.0 0.0 0.0 0.0
0.0 0.0 0.0 0.0 0.0 0.0 0.0 0.0
0.0 0.0 0.0 0.0 0.0 0.0 0.0 0.0
0.0 0.0 0.0 0.0 0.0 0.0 0.0 0.0
0.0 0.0 0.0 0.0 0.0 0.0 0.0 0.0
0.0 0.0 0.0 0.0 0.0 0.0 0.0 0.0
0.0 0.0 0.0 0.0 0.0 0.0 0.0 0.0
0.0 0.0 0.0 0.0 0.0 0.0 0.0 0.0
1.0024797e-16 1.9818406e-08 -4.435948e-19 -2.306563e-10 0.0 5.509922e-16 6.9377737e-16 1.3789821e-08
6.9622413e-16 -2.5541205e-18 1.4627731e-08 7.6613696e-16 -1.6283337e-19 -3.035661e-19 4.6370326e-16 0.0
1.3595665e-15 -5.5411035e-19 0.0 1.10358814e-17 -2.0576246e-18 9.203516e-16 -9.021813e-21 6.13244e-16
0.0 -1.5010256e-18 0.0 0.0 6.476091e-17 0.0 0.0 -2.5702816e-18
0.0 9.669198e-16 -2.951996e-19 -8.5555646e-20 2.0498585e-16 0.0 0.0 1.534237e-16
7.4441596e-16 3.6670603e-16 9.5582e-16 4.175763e-16 2.7243534e-16 -1.913916e-18 2.9371002e-16 -5.7633234e-18
2.8074934e-16 1.6679175e-15 2.4466635e-07 0.0 7.1046577e-16 1.2865843e-15 6.0628547e-09 0.0
3.983519e-17 -2.298403e-18 3.91192e-16 1.1610947e-09 -1.1044985e-18 4.176764e-10 -1.5180022e-17 4.3366995e-17
0.0 4.318145e-05 0.0 5.9215607e-05 0.0 3.151216e-05 0.0 5.7395308e-05
0.0 0.0 4.8430928e-05 0.0 0.0 0.0 0.0 0.0
1.5108115e-05 0.0 0.0 0.0 0.0 1.4028462e-06 0.0 0.0
0.0 0.0 0.0 0.0 0.0 0.0 0.0 0.0
0.0 1.960561e-09 0.0 0.0 0.0 0.0 0.0 0.0
9.8861e-07 0.0 2.4724748e-06 0.0 0.0 -2.54092e-10 0.0 0.0
0.0 4.897062e-05 0.00038662725 0.0 0.0 3.7518753e-06 7.888156e-06 0.0
0.0 0.0 0.0 4.4769597e-05 0.0 7.808665e-05 0.0 0.0
0.0 4.2743554e-07 0.0 2.276248e-09 0.0 8.191343e-07 0.0 9.1465935e-08
0.0 0.0 7.068222e-07 0.0 0.0 0.0 0.0 0.0
0.0 0.0 0.0 0.0 0.0 0.0 0.0 0.0
0.0 0.0 0.0 0.0 0.0 0.0 0.0 0.0
0.0 0.0 0.0 0.0 0.0 0.0 0.0 0.0
0.0 0.0 0.0 0.0 0.0 0.0 0.0 0.0
0.0 0.0 1.2653205e-05 0.0 0.0 0.0 0.0 0.0
0.0 0.0 0.0 1.3163574e-07 0.0 1.648717e-06 0.0 0.0
00000000: 0000 0000 0000 0000 0000 0000 0000 0000
00000010: 0000 0000 0000 0000 0000 0000 0000 0000
00000020: 0000 0000 0000 0000 0000 0000 0000 0000
00000030: 0000 0000 0000 0000 0000 0000 0000 0000
00000040: 0000 0000 0000 0000 0000 0000 0000 0000
00000050: 0000 0000 0000 0000 0000 0000 0000 0000
00000060: 0000 0000 0000 0000 0000 0000 0000 0000
00000070: 0000 0000 0000 0000 0000 0000 0000 0000
00000080: 0000 0000 0000 0000 0000 0000 0000 0000
00000090: 0000 0000 0000 0000 0000 0000 0000 0000
000000a0: 0000 0000 0000 0000 0000 0000 0000 0000
000000b0: 0000 0000 0000 0000 0000 0000 0000 0000
000000c0: 0000 0000 0000 0000 0000 0000 0000 0000
000000d0: 0000 0000 0000 0000 0000 0000 0000 0000
000000e0: 0000 0000 0000 0000 0000 0000 0000 0000
000000f0: 0000 0000 0000 0000 0000 0000 0000 0000
00000100: f527 e724 233d aa32 13ed 02a1 fa9b 7daf
00000110: 0000 0000 0cd0 1e26 bcf7 4726 46e8 6c32
00000120: 46ac 4826 f975 3ca2 714d 7b32 eed2 5c26
00000130: 5e3d 40a0 9d31 b3a0 43a7 0526 0000 0000
00000140: 27ef c326 658b 23a1 0000 0000 7a93 4b23
00000150: 6ed3 17a2 fba2 8426 d06a 2a9e 6cc1 3026
00000160: 0000 0000 2583 dda1 0000 0000 0000 0000
00000170: 1854 9524 0000 0000 0000 0000 3fa7 3da2
00000180: 0000 0000 0b59 8b26 4d41 aea0 3703 ca9f
00000190: 2555 6c25 0000 0000 0000 0000 afe2 3025
000001a0: 3490 5626 4264 d325 89bf 8926 63b7 f025
000001b0: 5c0c 9d25 da38 0da2 f34f a925 0da1 d4a2
000001c0: 4ad7 a125 4b5f f026 b05a 8334 0000 0000
000001d0: 1fc7 4c26 956a b926 6f51 d031 0000 0000
000001e0: 17b5 3724 9b97 29a2 c081 e125 6394 9f30
000001f0: c6fe a2a1 ba9e e52f d002 8ca3 b6fe 4724
00000200: 0000 0000 bb1d 3538 0000 0000 465e 7838
00000210: 0000 0000 ed2b 0438 0000 0000 bebb 7038
00000220: 0000 0000 0000 0000 5022 4b38 0000 0000
00000230: 0000 0000 0000 0000 0000 0000 0000 0000
00000240: dc78 7d37 0000 0000 0000 0000 0000 0000
00000250: 0000 0000 6e49 bc35 0000 0000 0000 0000
00000260: 0000 0000 0000 0000 0000 0000 0000 0000
00000270: 0000 0000 0000 0000 0000 0000 0000 0000
00000280: 0000 0000 8eba 0631 0000 0000 0000 0000
00000290: 0000 0000 0000 0000 0000 0000 0000 0000
000002a0: 62b0 8435 0000 0000 cbec 2536 0000 0000
000002b0: 0000 0000 45b0 8baf 0000 0000 0000 0000
000002c0: 0000 0000 ce65 4d38 3bb4 ca39 0000 0000
000002d0: 0000 0000 bac8 7b36 5f57 0437 0000 0000
000002e0: 0000 0000 0000 0000 0000 0000 fdc6 3b38
000002f0: 0000 0000 73c2 a338 0000 0000 0000 0000
00000300: 0000 0000 4b7a e534 0000 0000 2e6c 1c31
00000310: 0000 0000 7be2 5b35 0000 0000 ee6b c433
00000320: 0000 0000 0000 0000 74bc 3d35 0000 0000
00000330: 0000 0000 0000 0000 0000 0000 0000 0000
00000340: 0000 0000 0000 0000 0000 0000 0000 0000
00000350: 0000 0000 0000 0000 0000 0000 0000 0000
00000360: 0000 0000 0000 0000 0000 0000 0000 0000
00000370: 0000 0000 0000 0000 0000 0000 0000 0000
00000380: 0000 0000 0000 0000 0000 0000 0000 0000
00000390: 0000 0000 0000 0000 0000 0000 0000 0000
000003a0: 0000 0000 0000 0000 0000 0000 0000 0000
000003b0: 0000 0000 0000 0000 0000 0000 0000 0000
000003c0: 0000 0000 0000 0000 1a49 5437 0000 0000
000003d0: 0000 0000 0000 0000 0000 0000 0000 0000
000003e0: 0000 0000 0000 0000 0000 0000 c257 0d34
000003f0: 0000 0000 7c49 dd35 0000 0000 0000 0000
