data/comparisons/comparison_20251204_165029/baseline_model.pth (torch, 358029 bytes, 57 tensors)

state_encoder.encoder.0.weight f4 [64, 2]
-0.03357232 -0.1603402 0.014491281 -0.055139344 -0.021297758 -0.20782241 -0.030712161 -0.21432431
0.031730253 -0.017422361 -0.0038676572 -0.15903822 -0.019798236 0.07943039 -0.024967182 0.09478014
-0.018172132 -0.030543838 0.012492346 -0.06904397 -0.0053177383 -0.062579215 0.0040978463 -0.015997162
-0.0336165 0.035237778 -0.0003130783 -0.07045015 0.019469855 0.14217055 0.0111803515 -0.07833669
-0.02589418 0.113133304 0.0054004476 0.039158612 0.0047656945 -0.080343634 -0.024861192 0.24949923
0.04181197 -0.11169313 0.0074932915 -0.100523114 -0.014008564 -0.029375369 0.0027787231 -0.23160306
0.021191398 0.0835964 0.014228237 -0.059162483 0.007151964 0.0915865 -0.028995542 -0.07365989
-0.020402133 0.08352404 0.012584076 0.038717803 -0.003221585 -0.017188989 -0.00085494056 0.112616494
0.000105915846 -0.010308173 0.066465095 0.079965554 0.017635705 0.08275431 -0.010170269 -0.253546
-0.017842425 0.13397819 -0.017327921 0.17461361 0.017693602 -0.16521424 0.0033519424 -0.10278175
-0.009362156 -0.07119108 -0.014944658 -0.056069527 0.046248626 -0.13939671 0.024940189 0.03157453
0.0031244708 -0.17762128 0.018574301 -0.11914984 -0.037268907 -0.048465256 -0.021979813 0.09086994
0.034928877 -0.013984457 -0.016065761 0.15721975 -0.017057348 0.09396226 -0.021836555 -0.33719814
-0.0020379438 -0.20227654 0.007380501 0.03878451 -0.011785261 0.13299517 -0.0073872656 -0.031622
-0.006664513 -0.042702653 -0.013204714 -0.14942119 0.008491421 0.23334181 -0.008289543 0.14310594
0.02806349 0.056729607 0.044841245 0.26144335 -0.0045290906 -0.2182637 -0.03448336 -0.06646246
00000000: 2183 09bd 3930 24be d66c 6d3c cbd9 61bd
00000010: a378 aebc 66cf 54be 1298 fbbc d577 5bbe
00000020: 95f7 013d 57b9 8ebc 8578 7dbb eada 22be
00000030: e92f a2bc 66ac a23d fa87 ccbc 171c c23d
00000040: b9dd 94bc 1237 fabc b2ac 4c3c ed66 8dbd
00000050: 6c40 aebb 8829 80bd 3a47 863b 7b0c 83bc
00000060: 75b1 09bd 7d55 103d a824 a4b9 2b48 90bd
00000070: 3f7f 9f3c 2895 113e cb2d 373c fd6e a0bd
00000080: 0820 d4bc 6fb2 e73d 3df6 b03b c864 203d
00000090: 8b29 9c3b 348b a4bd b3a9 cbbc ba7c 7f3e
000000a0: 0743 2b3d 5ebf e4bd 498a f53b 10df cdbd
000000b0: 2d84 65bc 9da4 f0bc 3d1b 363b 5a29 6dbe
000000c0: 9599 ad3c 9734 ab3d 8d1d 693c 5c54 72bd
000000d0: 065b ea3b b491 bb3d 0f88 edbc ffda 96bd
000000e0: 6022 a7bc a70e ab3d 712d 4e3c 8f96 1e3d
000000f0: 3a21 53bb eccf 8cbc 171e 60ba 7aa3 e63d
00000100: 231f de38 9ce3 28bc da1e 883d fbc4 a33d
00000110: c178 903c 177b a93d 33a1 26bc c8d0 81be
00000120: 472a 92bc 9431 093e 49f3 8dbc e9cd 323e
00000130: 2cf2 903c ec2d 29be 43ac 5b3b 3d7f d2bd
00000140: ba63 19bc a1cc 91bd 70da 74bc 29a9 65bd
00000150: 336f 3d3d 03be 0ebe 5e4f cc3c 4b54 013d
00000160: ecc3 4c3b 5ae2 35be 2229 983c d504 f4bd
00000170: 48a7 18bd 8183 46bd 020f b4bc 051a ba3d
00000180: 9511 0f3d 101f 65bc 589c 83bc 37fe 203e
00000190: dabb 8bbc 496f c03d 93e2 b2bc 3ca5 acbe
000001a0: 068f 05bb 9521 4fbe 21d8 f13b 82dc 1e3d
000001b0: f816 41bc e32f 083e e010 f2bb 1286 01bd
000001c0: fd61 dabb fae8 2ebd 9658 58bc de01 19be
000001d0: 9a1f 0b3c 28f1 6e3e ddd0 07bc 5d8a 123e
000001e0: 67e5 e53c 4e5d 683d 74ab 373d e7db 853e
000001f0: c468 94bb 8580 5fbe 6c3e 0dbd 781d 88bd

state_encoder.encoder.0.bias f4 [64]
0.032054607 -0.016367434 0.04093411 0.038296986 -0.03459777 0.022245314 0.0048922654 0.025762988
0.025561186 0.0015099673 0.0076379115 0.00777164 0.046537817 0.009799698 -0.026417935 -0.026935482
-0.003310455 -0.020106515 0.013038398 0.014632783 -0.026830062 -0.01854089 0.043605737 0.020443222
-0.015862083 -0.009156681 -0.0023610184 0.015933802 0.031859484 -0.019588534 0.01544791 -0.025050556
-0.015262712 -0.053400643 -0.014975135 -0.00074868917 0.019440297 0.01583367 -0.003706552 -0.0018704887
0.0039143777 -0.008668976 -0.034943655 -0.031984236 -0.02018497 -0.024062468 0.04506684 0.030366708
-0.028459767 0.009734034 0.0077086124 0.030051598 -0.010321063 -0.01786043 -0.00358083 -0.00403681
0.025410876 0.033475693 -0.04583583 0.007846861 -0.027207075 -0.022270318 0.010489693 0.015216027
00000000: b14b 033d ff14 86bc 86aa 273d 4ddd 1c3d
00000010: 64b6 0dbd ce3b b63c 4c4f a03b e70c d33c
00000020: b165 d13c 18ea c53a 7247 fa3b 3ea9 fe3b
00000030: 709e 3e3d ea8e 203c 6d6a d8bc cda7 dcbc
00000040: 38f4 58bb 6bb6 a4bc 019f 553c 57be 6f3c
00000050: b8ca dbbc 11e3 97bc ee9b 323d 8b78 a73c
00000060: 33f1 81bc e705 16bc 51bb 1abb 9b87 823c
00000070: 177f 023d 2278 a0bc 3b19 7d3c d336 cdbc
00000080: 7410 7abc a2ba 5abd 455a 75bc ae43 44ba
00000090: 4241 9f3c 9db5 813c a0e9 72bb 302b f5ba
000000a0: 2e44 803b 5208 0ebc 1421 0fbd e701 03bd
000000b0: f35a a5bc a71e c5bc 0298 383d 9ac3 f83c
000000c0: 7524 e9bc 7f7b 1f3c 8798 fc3b c52e f63c
000000d0: ad19 29bc 0950 92bc 5cac 6abb 3747 84bb
000000e0: 782a d03c cf1d 093d 5abe 3bbd 1f90 003c
000000f0: 5fe1 debc 3e70 b6bc f6dc 2b3c a54c 793c

state_encoder.encoder.2.weight f4 [64, 64]
0.027947035 -0.022099499 -0.005675787 0.036892377 -0.00231285 -0.012870299 -0.027681703 -0.038012244
-0.02046202 0.002990275 0.025552085 -0.00031231754 -0.092016235 0.01382077 0.037859652 0.008514692
0.03559346 -0.009383314 -0.026413802 0.08236369 -0.060735796 0.0011642711 0.009949427 0.030942155
-0.015158434 0.07282913 -0.011308468 -0.07583868 0.06260172 -0.017980052 0.033520926 0.10064901
0.03588004 -0.026656691 -0.03359005 0.078345865 0.012816777 -0.04039709 0.0052147564 -0.009050328
0.025939163 0.015240548 -0.023961853 -0.060067978 0.0019114079 -0.06524053 0.09135485 -0.016896153
0.0021286556 0.007962336 0.039437886 0.00083500624 0.034660872 -0.022722887 -0.005956767 0.070802286
0.0022266768 0.035096753 0.0020032502 0.004626579 0.017689819 -0.039075483 0.064679794 0.008378736
0.007644205 -0.04624999 -0.033905115 0.0075973943 0.024787955 -0.03183252 -0.0065585095 -0.046950303
-0.03376766 -0.020947197 -0.038551893 0.05150419 -0.06481948 0.02202335 -0.029337022 0.004868619
0.05037488 -0.061155025 -0.054513033 -0.02979279 -0.00010353366 -0.0043557645 -0.07493064 -0.022398224
-0.011801598 0.064385995 0.036884498 0.08321473 -0.02254636 0.07747934 -0.010976244 0.015928961
0.029846597 0.11345731 -0.052535422 -0.021227527 0.032774776 0.028004806 -0.0133718 -0.011005389
-0.06534932 0.02283453 -0.08071214 0.09419499 0.070908695 -0.004686997 -0.029336106 -0.038920727
-0.014006579 -0.032207288 0.017273173 0.017589366 -0.032631107 0.013750257 0.0201519 -0.076677226
-0.083569705 -0.10142989 -0.000833494 0.04290122 0.092450745 0.14208898 0.04212123 -0.015675738
0.08801291 0.024783548 0.02429171 -0.096708305 0.0015837844 -0.03480314 -0.04996402 0.017798398
0.10508703 0.0224571 0.024742428 -0.02217557 0.06143369 -0.0030311944 0.0075809523 -0.07560866
0.0074114986 -0.0159277 0.03556159 0.020974305 0.005257341 -0.046406467 0.03349087 0.11343966
-0.00780046 0.08679528 0.02345396 0.02972285 0.0051620905 0.026476024 0.035797887 0.019052656
0.011541203 0.027139142 -0.020013267 0.043155268 0.030498391 0.027850067 0.014086074 -0.038671844
0.07921565 -0.024767896 0.041703537 -0.026741434 -0.060961176 -0.039171737 0.082316674 0.03110584
-0.023334384 -0.104344256 0.0022120317 0.055686302 -0.13290422 0.023076667 -0.062838204 -0.067754306
0.017052589 0.0864232 -0.04503864 -0.035626728 -0.030117417 -0.005352841 -0.00257322 -0.019585256
0.037546623 0.050184067 -0.03148319 0.038320158 -0.10617499 -0.013843875 -0.045006443 0.06573774
-0.07410779 -0.055908877 -0.0096333 -0.015322516 -0.036107603 0.023679426 -0.06546782 0.06793389
-0.04354719 -0.00751868 -0.00302381 0.033968795 -0.021240637 0.052233513 -0.027375406 -0.11210281
0.014235384 0.0016593253 -0.01917944 0.15042396 -0.033929307 -0.05187187 -0.04575762 -0.051391896
0.014873571 -0.078789935 0.0010219109 0.037488718 0.017285828 -0.06261974 0.0050665806 0.02868242
0.064146355 -0.025997313 0.06423908 0.08554555 0.067960575 0.0306851 -0.035156567 -0.05563344
0.026597075 -0.015338924 -0.062210113 0.05949833 0.08201887 0.03622743 0.017393667 0.051471528
0.0028479164 0.13340373 0.032325543 -0.079950124 -0.030792397 -0.054010402 0.05869233 -0.02866166
00000000: 2ef1 e43c 020a b5bc f4fb b9bb 761c 173d
00000010: 2f93 17bb f2dd 52bc bdc4 e2bc bab2 1bbd
00000020: f79f a7bc 7df8 433b 9b52 d13c 8dbe a3b9
00000030: 0273 bcbd 8370 623c b912 1b3d 3581 0b3c
00000040: 73ca 113d 79bc 19bc c261 d8bc 4bae a83d
00000050: 19c6 78bd 759a 983a ec02 233c 677a fd3c
00000060: 155b 78bc 7027 953d 2747 39bc 4f51 9bbd
00000070: 5535 803d e74a 93bc 3d4d 093d 1121 ce3d
00000080: f3f6 123d 225f dabc b895 09bd cc73 a03d
00000090: 76fd 513c 6b77 25bd 8ce0 aa3b d447 14bc
000000a0: 5e7e d43c 7eb3 793c a64b c4bc d709 76bd
000000b0: 3588 fa3a d49c 85bd 4018 bb3d cd69 8abc
000000c0: ea80 0b3b 7574 023c 9f89 213d 52e4 5a3a
000000d0: 8ff8 0d3d 5925 babc fc30 c3bb ca00 913d
000000e0: 70ed 113b 9dc1 0f3d f648 033b 8f9a 973b
000000f0: 3dea 903c 9d0d 20bd d776 843d f746 093c
00000100: 3d7c fa3b a170 3dbd 17e0 0abd 90f3 f83b
00000110: 1c10 cb3c d162 02bd c4e8 d6bb f64e 40bd
00000120: f54f 0abd 7599 abbc 97e8 1dbd 0ff6 523d
00000130: 13c0 84bd 506a b43c 3254 f0bc f088 9f3b
00000140: e455 4e3d b17d 7abd 0f49 5fbd 0210 f4bc
00000150: 3620 d9b8 cdba 8ebb 3c75 99bd 7b7c b7bc
00000160: 7d5b 41bc cedc 833d 3314 173d 7c6c aa3d
00000170: 25b3 b8bc 7dad 9e3d b4d5 33bc 747d 823c
00000180: da80 f43c 4e5c e83d 622f 57bd 5ae5 adbc
00000190: d83e 063d 566a e53c 6515 5bbc f24f 34bc
000001a0: ddd5 85bd 7b0f bb3c 684c a5bd 4ee9 c03d
000001b0: 9438 913d 6195 99bb 4652 f0bc 576b 1fbd
000001c0: da7b 65bc caeb 03bd 7880 8d3c 9317 903c
000001d0: 32a8 05bd c248 613c 9915 a53c f308 9dbd
000001e0: 9826 abbd 79ba cfbd d67e 5aba 31b9 2f3d
000001f0: d156 bd3d c67f 113e 5087 2c3d 686a 80bc
00000200: 1d40 b43d de06 cb3c 69ff c63c 010f c6bd
00000210: fc96 cf3a bd8d 0ebd 12a7 4cbd f2cd 913c
00000220: de37 d73d f4f7 b73c a2b0 ca3c 8aa9 b5bc
00000230: e5a1 7b3d 01a7 46bb a369 f83b b7d8 9abd
00000240: 28dc f23b cf7a 82bc 08a9 113d 4ed2 ab3c
00000250: c645 ac3b b514 3ebd b92d 093d 0d53 e83d
00000260: 009b ffbb b9c1 b13d 8522 c03c 567d f33c
00000270: c126 a93b 3fe4 d83c cea0 123d 5114 9c3c
00000280: 5017 3d3c e852 de3c ddf2 a3bc 94c3 303d
00000290: c3d7 f93c d325 e43c 47c9 663c 5e66 1ebd
000002a0: d13b a23d 0be6 cabc 54d1 2a3d da10 dbbc
000002b0: 6db2 79bd 8b72 20bd a595 a83d add1 fe3c
000002c0: c027 bfbc 71b2 d5bd bcf7 103b 5217 643d
000002d0: 0b18 08be 470b bd3c 51b1 80bd c5c2 8abd
000002e0: dfb1 8b3c a6fe b03d 707a 38bd 55ed 11bd
000002f0: cdb8 f6bc e366 afbb 78a3 28bb 4271 a0bc
00000300: 7dca 193d cf8d 4d3d 84f4 00bd 99f5 1c3d
00000310: 4672 d9bd 6cd1 62bc ad58 38bd 82a1 863d
00000320: d3c5 97bd b500 65bd fdd4 1dbc 4a0b 7bbc
00000330: 91e5 13bd 5bfb c13c fe13 86bd ec20 8b3d
00000340: 8a5e 32bd 425f f6bb 1d2b 46bb dd22 0b3d
00000350: d800 aebc cff2 553d 6342 e0bc 2896 e5bd
00000360: 873b 693c b87d d93a 331e 9dbc bd08 1a3e
00000370: 75f9 0abd 9977 54bd 586c 3bbd 4f80 52bd
00000380: 47b0 733c 9e5c a1bd a4f1 853a c58d 193d
00000390: 029b 8d3c c73e 80bd 8f05 a63b 65f7 ea3c
000003a0: 2a5f 833d 51f8 d4bc c78f 833d 8132 af3d
000003b0: ea2e 8b3d 525f fb3c 5500 10bd e4df 63bd
000003c0: 1ce2 d93c 1c50 7bbc 08d0 7ebd 85b4 733d
000003d0: 82f9 a73d 3763 143d 2a7d 8e3c cfd3 523d
000003e0: 1ca4 3a3b fd9a 083e ca67 043d e4bc a3bd
000003f0: 5640 fcbc 033a 5dbd 5e67 703d dccb eabc

state_encoder.encoder.2.bias f4 [64]
0.0026232782 -0.02109708 0.0046656732 -0.0011815749 0.012627105 0.0039140023 -0.0066798865 0.0281819
0.003494469 0.011150856 0.015207282 -0.0035125227 -0.00041630765 -0.02088041 0.012922118 0.010235902
-0.0029091171 0.01825629 0.0024162754 0.0067404094 0.03314997 0.01910242 -0.0032490082 0.015758483
-0.01492929 -0.004319687 0.017564662 0.0012145672 -0.0051592677 0.0063416 0.00017604741 -0.012188148
0.0069853626 -0.0066426666 -0.0023566594 -0.015059801 -0.002437505 0.0069540343 -0.014594616 0.00022698106
-0.00810546 0.012906887 -0.010679106 -0.008289977 -0.006251798 0.011216456 0.008514273 -0.0041715326
0.0014889705 0.010119253 -0.010915813 -0.054248504 -0.0056926757 0.0010951444 -0.013787333 -0.0060405787
0.02412114 -0.01353369 -5.6522727e-05 0.013215653 0.016886966 -0.021731514 -0.014066966 -0.02354488
00000000: 4eeb 2b3b c9d3 acbc 81e2 983b 13df 9aba
00000010: ebe1 4e3c 0841 803b f3e2 dabb badd e63c
00000020: 7603 653b 14b2 363c f727 793c 5a32 66bb
00000030: de43 dab9 650d abbc 4bb7 533c 7cb4 273c
00000040: e3a6 3ebb 378e 953c 605a 1e3b a7de dc3b
00000050: 43c8 073d ae7c 9c3c 50ed 54bb ef17 813c
00000060: fb99 74bc 298c 8dbb c4e3 8f3c 1d32 9f3a
00000070: 130f a9bb 32cd cf3b 5e99 3839 ccb0 47bc
00000080: 78e5 e43b baaa d9bb 2f72 1abb 62bd 76bc
00000090: 8cbe 1fbb abde e33b 421e 6fbc c401 6e39
000000a0: c3cc 04bc 6877 533c 6bf7 2ebc afd2 07bc
000000b0: e2db ccbb 3ac5 373c 737f 0b3c 5ab1 88bb
000000c0: 8f29 c33a 39cb 253c 3dd8 32bc ae33 5ebd
000000d0: a089 babb f38a 8f3a 44e4 61bc 0cf0 c5bb
000000e0: b299 c53c 69bc 5dbc d112 6db8 7786 583c
000000f0: 8956 8a3c 4a06 b2bc 2279 66bc 31e1 c0bc

shared_layers.0.weight f4 [64, 64]
-0.0053103874 0.033712544 0.046530634 0.06615052 -0.046418924 0.08457194 -0.04610736 -0.014430414
-0.0187318 -0.09848284 -0.022166882 0.00700203 0.03255459 -0.006252446 0.055598337 0.017954841
-0.08340897 0.07711961 -0.0036508148 -0.011409656 -0.002525277 -0.029255567 -0.008970591 0.06703174
-0.025809372 -0.079727344 -0.027088504 -0.05506992 -0.07646682 -0.06260814 0.01602436 0.08893993
0.054611474 0.056180228 -0.016217533 -0.026714843 0.036770858 -0.09087387 0.043900467 -0.08743399
-0.010790044 0.083964355 0.052057486 -0.079593346 -0.016991673 0.055812865 -0.05906487 0.0572883
0.047450818 0.09673907 0.011830568 0.08421835 0.03274266 0.05244989 0.016235314 -0.016956156
0.02708268 0.030376479 -0.004627771 0.102810204 0.037362956 -0.076918595 -0.13375576 0.0022415826
0.013234219 -0.052912943 -0.010892229 -0.04140178 0.010131262 -0.018622907 -0.022335203 0.06285136
-0.0033916594 -0.028264666 0.04505101 0.025786439 -0.06984676 -0.025356673 0.029799633 -0.01943414
-0.047816023 -0.03942532 -0.01245194 0.06154979 -0.000761288 0.08774946 -0.028335331 -0.024111655
0.026344547 -0.00846174 0.04732809 0.11864848 -0.059166405 -0.0023231634 -0.12244023 0.011270925
0.024106162 0.07513999 -0.019642688 -0.0064453487 -0.01220707 0.0014884793 -0.023883777 -0.049744695
0.04005694 0.032567486 0.11057704 0.07009927 0.03899049 -0.019950332 0.059955377 -0.1472704
0.10251737 0.042800557 0.041992 -0.04416732 0.013190056 0.025048057 -0.026035713 -0.006131751
-0.08216886 0.037771568 -0.03292244 0.015764296 -0.006135127 0.02462191 -0.09254043 -0.0013246713
-0.009358572 0.07223998 0.034483634 0.014140442 -0.055644788 -0.068581566 0.036046524 0.029819936
-0.076269336 -0.09017194 -0.06777895 0.017157529 0.004863937 -0.0519482 -0.032371048 0.028463457
-0.02951752 0.062530935 0.029918129 0.024283653 0.06635477 0.063810185 0.032726504 -0.091193594
-0.048401695 -0.121855475 -0.0648001 -0.026337575 0.009028571 0.021842701 -0.007648556 -0.009836168
0.100329146 -0.063524485 0.098466784 -0.048425734 0.15795566 -0.030449118 0.056317225 0.12256845
0.05858886 0.16525337 -0.078251824 -0.012328907 0.04210756 0.0031555863 -0.08302166 -0.032406926
0.098567195 -0.03637113 0.0010420275 0.01114775 0.055756263 -0.060258422 -0.056686923 -0.03260022
0.11922052 -0.022630185 0.09657864 0.02897871 -0.0035975447 -0.07716543 0.037625305 -0.072006375
0.07813475 0.025069205 -0.049789768 0.04990718 0.021818152 0.03425803 -0.16142447 0.027291097
-0.033251494 -0.11319115 0.05927845 -0.0046862117 -0.079225466 -0.12834014 -0.0043816976 -0.066297345
0.042327583 0.020319574 0.074212015 -0.16694933 0.057731483 -0.020882808 0.058209915 0.066651426
-0.08343849 -0.05371009 0.11421767 0.0019080344 -0.087367125 0.043945044 -0.014207056 0.03677607
0.14654405 0.0029721253 -0.0070550255 -0.07980881 0.09657193 0.075718105 0.026550831 -0.02139565
-0.109232634 0.07908556 0.010043621 -0.020087188 0.0061524315 0.0047108317 -0.010306266 -0.09506217
-0.01078195 -0.10095399 -0.042426493 0.13284291 0.09212652 -0.075704 -0.032544658 -0.07484476
-0.021798918 -0.08009056 -0.054087974 -0.10583283 0.04419127 -0.09236304 -0.04357374 0.06416205
00000000: c202 aebb 2a16 0a3d e896 3e3d ed79 873d
00000010: c521 3ebd 0e34 ad3d 12db 3cbd 8b6d 6cbc
00000020: 6f73 99bc 5fb1 c9bd 5297 b5bc 4971 e53b
00000030: f657 053d 52e1 ccbb 15bb 633d 0816 933c
00000040: 52d2 aabd e3f0 9d3d 8242 6fbb 91ef 3abc
00000050: 1e7f 25bb 5fa9 efbc 63f9 12bc f047 893d
00000060: 2d6e d3bc 1748 a3bd b6e8 ddbc ff90 61bd
00000070: a39a 9cbd b238 80bd 8545 833c 2326 b63d
00000080: 48b0 5f3d 3d1d 663d a2da 84bc 16d9 dabc
00000090: 0a9d 163d 141c babd fad0 333d 9710 b3bd
000000a0: bac8 30bc 81f5 ab3d 3b3a 553d d601 a3bd
000000b0: 1f32 8bbc 089c 643d 01ee 71bd 23a7 6a3d
000000c0: ca5b 423d 221f c63d 00d5 413c ac7a ac3d
000000d0: 2b1d 063d b2d5 563d ecff 843c a3e7 8abc
000000e0: 7fdc dd3c 18d8 f83c 8fa4 97bb 288e d23d
000000f0: e609 193d 7f87 9dbd 45f7 08be 84e7 123b
00000100: 56d4 583c 3ebb 58bd 5275 32bc ea94 29bd
00000110: 98fd 253c 118f 98bc 51f8 b6bc 37b8 803d
00000120: 9a46 5ebb 4d8b e7bc 6887 383d 153e d33c
00000130: d10b 8fbd ccb8 cfbc 5c1e f43c 5834 9fbc
00000140: bcda 43bd 727c 21bd 3903 4cbc a21b 7c3d
00000150: 2c91 47ba fdb5 b33d 7f1f e8bc ce85 c5bc
00000160: 85d0 d73c 1ca3 0abc 19db 413d f9fd f23d
00000170: 7958 72bd 3740 18bb f1c1 fabd b0a9 383c
00000180: 497a c53c ffe2 993d b4e9 a0bc 8133 d3bb
00000190: 2a00 48bc 1419 c33a e9a7 c3bc 18c1 4bbd
000001a0: bf12 243d 7c65 053d 3776 e23d 3590 8f3d
000001b0: 7eb4 1f3d e16e a3bc c593 753d 0dce 16be
000001c0: a0f4 d13d a34f 2f3d ceff 2b3d cbe8 34bd
000001d0: 1b1b 583c 9531 cd3c d948 d5bc dbec c8bb
000001e0: 2648 a8bd 5cb6 1a3d aed9 06bd 2024 813c
000001f0: 2d09 c9bb e3b3 c93c d685 bdbd 98a0 adba
00000200: b254 19bc 8ef2 933d b63e 0d3d 50ad 673c
00000210: caeb 63bd 7e74 8cbd 85a5 133d f048 f43c
00000220: 1933 9cbd 11ac b8bd b1cf 8abd f28d 8c3c
00000230: a961 9f3b a3c7 54bd 8197 04bd 322c e93c
00000240: bace f1bc 3810 803d dd16 f53c 83ee c63c
00000250: 02e5 873d eaae 823d 3a0c 063d b5c3 babd
00000260: db40 46bd 5d8f f9bd eab5 84bd e6c1 d7bc
00000270: 92ec 133c 77ef b23c bda0 fabb e127 21bc
00000280: 5e79 cd3d 2019 82bd f4a8 c93d 105a 46bd
00000290: 21bf 213e 6e70 f9bc e4ac 663d 2b05 fb3d
000002a0: dffa 6f3d 2e38 293e 7e42 a0bd 2fff 49bc
000002b0: fa78 2c3d f4cd 4e3b 4307 aabd 20bd 04bd
000002c0: 99dd c93d e5f9 14bd a494 883a 0da5 363c
000002d0: ae60 643d 89d1 76bd 8c30 68bd cf87 05bd
000002e0: e329 f43d f062 b9bc 06cb c53d c264 ed3c
000002f0: c9c4 6bbb e908 9ebd fe1c 1a3d 1478 93bd
00000300: 1d05 a03d ef5d cd3c 5bf0 4bbd 796b 4c3d
00000310: fbbb b23c 2652 0c3d 754c 25be 9491 df3c
00000320: b832 08bd c3d0 e7bd f6cd 723d cb8e 99bb
00000330: f640 a2bd 996b 03be 5894 8fbb e7c6 87bd
00000340: b05f 2d3d 3c75 a63c 78fc 973d c4f4 2abe
00000350: d977 6c3d 6c12 abbc 856d 6e3d 8b80 883d
00000360: cde1 aabd 1dff 5bbd f4ea e93d 0317 fa3a
00000370: 89ed b2bd b8ff 333d b6c4 68bc 81a2 163d
00000380: a50f 163e fdc7 423b d82d e7bb cd72 a3bd
00000390: 81c7 c53d 1812 9b3d 2181 d93c ee45 afbc
000003a0: 5cb5 dfbd 9cf7 a13d 008e 243c e38d a4bc
000003b0: 569a c93b 525d 9a3b 9ddb 28bc f4af c2bd
000003c0: c7a6 30bc f7c0 cebd 67c7 2dbd f907 083e
000003d0: d4ac bc3d b30a 9bbd 8c4d 05bd 3648 99bd
000003e0: a593 b2bc 8506 a4bd 5a8b 5dbd e2be d8bd
000003f0: e801 353d d528 bdbd 617a 32bd 6567 833d

shared_layers.0.bias f4 [64]
-0.027149078 0.04838595 -0.03806817 0.014032085 -0.009535406 -0.017414246 -0.001279681 -0.019949978
-0.012491353 0.05026726 0.009551682 -0.010525827 -0.010241515 -0.0495578 -0.01644283 -0.03527432
-0.060110133 -0.009767584 0.046376266 0.08539596 0.01630674 0.69453853 -0.025200382 0.045723524
-0.042040497 0.03799632 0.02821715 0.0046424344 -0.013129274 0.042599775 0.01835643 -0.08629996
-0.0016656674 0.00084446854 -0.033733312 -0.004379564 -0.0073885345 0.028999409 0.021246191 0.010036039
0.014177493 -0.008280029 -0.033846963 -0.014938013 -0.014225535 -0.025357548 0.043530043 -0.018259076
-0.018992033 -0.0084039215 -0.037957627 0.02441983 0.01581371 0.0053281356 0.026604354 0.028237533
0.018674904 0.046963573 -0.0136072375 -0.0950414 0.0435066 -0.009868579 0.036337107 -0.01368212
00000000: be67 debc 5930 463d 5fed 1bbd d5e6 653c
00000010: 643a 1cbc 52a8 8ebc f8ba a7ba 236e a3bc
00000020: 88a8 4cbc 0be5 4d3d a87e 1c3c 8574 2cbc
00000030: 07cc 27bc 1ffd 4abd 1db3 86bc ce7b 10bd
00000040: 0b36 76bd 3708 20bc 0af5 3d3d 14e4 ae3d
00000050: b695 853c 47cd 313f 0871 cebc 9748 3b3d
00000060: a832 2cbd 07a2 1b3d a727 e73c 901f 983b
00000070: 2b1c 57bc 1a7d 2e3d 3960 963c 09be b0bd
00000080: 8652 daba 535f 5d3a f12b 0abd 7282 8fbb
00000090: 851b f2bb 2b90 ed3c 7e0c ae3c 336e 243c
000000a0: b748 683c f5a8 07bc 1da3 0abd 91be 74bc
000000b0: 3812 69bc a2ba cfbc 8f4c 323d 0f94 95bc
000000c0: 2e95 9bbc 9ab0 09bc 7579 1bbd 180c c83c
000000d0: c18b 813c a497 ae3b 60f1 d93c 6652 e73c
000000e0: 1dfc 983c e05c 403d e4f0 5ebc 11a5 c2bd
000000f0: fa33 323d d2af 21bc 38d6 143d f82a 60bc

goal_head.weight f4 [2, 64]
-0.09841308 0.010882544 -0.101052724 -0.0049378127 -0.01606439 0.06876476 -0.1459985 -0.042589266
-0.041101687 -0.185525 0.08786239 -0.0829074 0.23671086 0.020035015 0.030298853 -0.099939644
-0.07105276 0.036458198 -0.1254324 -0.01695183 0.1049827 -1.3816583 0.068707086 -0.05897519
-0.016786411 -0.013841302 0.038467515 0.13961236 -0.12996353 0.026775604 0.16977547 0.12107501
0.111770034 0.0014868795 0.12961984 -0.21896346 0.07231652 -0.1514806 -0.0821485 0.074994676
-0.13337035 -0.12248918 -0.007940586 0.01187397 -0.01059962 -0.008348271 -0.16777164 -0.07251736
0.120709814 -0.19121815 0.091689214 0.06637111 -0.16984113 0.010592539 0.024372565 0.013212756
0.016406044 0.05874225 -0.021230975 0.17690656 -0.08955905 -0.013862666 0.090258904 -0.13285802
0.10092334 -0.010652372 0.10253408 0.008188124 0.01912952 -0.06565383 0.14454225 0.042102624
0.0404945 0.18718839 -0.087747 0.083610386 -0.23616578 -0.02061972 -0.030716514 0.10067201
0.07076841 -0.03634991 0.12966721 0.018632818 -0.10437111 1.3843997 -0.06904708 0.05831349
0.01585667 0.015099184 -0.036332022 -0.13872333 0.1297901 -0.027261898 -0.16916625 -0.12206056
-0.11423526 -0.0018669661 -0.13025047 0.2199249 -0.076945305 0.15227084 0.08325774 -0.07651692
0.13534124 0.12317423 0.008131534 -0.009526028 0.010286561 0.011012553 0.16766785 0.07310717
-0.11972395 0.19329162 -0.094422415 -0.06678166 0.17354217 -0.011853403 -0.024159914 -0.012043025
-0.016144365 -0.059481677 0.016019395 -0.1770991 0.09135652 0.011922978 -0.08940117 0.13297643
00000000: cc8c c9bd b34c 323c bbf4 cebd 60cd a1bb
00000010: 7899 83bc 8ad4 8c3d a180 15be 1572 2ebd
00000020: 3e5a 28bd 44fa 3dbe 32f1 b33d 5bcb a9bd
00000030: 5564 723e 7920 a43c 4d35 f83c 28ad ccbd
00000040: 1c84 91bd 3155 153d 5a71 00be 90de 8abc
00000050: 2b01 d73d 2eda b0bf 4db6 8c3d f88f 71bd
00000060: a883 89bc a1c6 62bc 1d90 1d3d 8bf6 0e3e
00000070: 2915 05be 8358 db3c 9fd9 2d3e 2df6 f73d
00000080: b0e7 e43d 66e3 c23a 10bb 043e f537 60be
00000090: af1a 943d bb1d 1bbe 793d a8bd cf96 993d
000000a0: 3d92 08be 9bdb fabd 3b19 02bc 0a8b 423c
000000b0: 07aa 2dbc 30c7 08bc 54cc 2bbe fb83 94bd
000000c0: b536 f73d b1ce 43be 8ec7 bb3d 94ed 873d
000000d0: d5ea 2dbe 548c 2d3c f9a8 c73c 517a 583c
000000e0: f865 863c b79b 703d 95ec adbc fe26 353e
000000f0: bc6a b7bd 3c20 63bc a9d9 b83d ef0b 08be
00000100: e5b0 ce3d 4987 2ebc 63fd d13d 7b27 063c
00000110: 83b5 9c3c 8475 86bd e202 143e cd73 2c3d
00000120: 90dd 253d 50ae 3f3e b3b4 b3bd ec3b ab3d
00000130: 71d5 71be b0ea a8bc 33a1 fbbc 202d ce3d
00000140: 07ef 903d a5e3 14bd 7bc7 043e daa3 983c
00000150: 85c0 d5bd 0234 b13f 8e68 8dbd 20da 6e3d
00000160: d9e5 813c 9162 773c e3d0 14bd 7d0d 0ebe
00000170: b2e7 043e 5854 dfbc eb39 2dbe e3fa f9bd
00000180: 2df4 e9bd fdb4 f4ba 6160 05be fe33 613e
00000190: 8095 9dbd e3ec 1b3e 0983 aa3d e7b4 9cbd
000001a0: e596 0a3e c542 fc3d 203a 053c 0f13 1cbc
000001b0: f788 283c ff6d 343c 1fb1 2b3e 36b9 953d
000001c0: d531 f5bd 3dee 453e 8a60 c1bd d3c4 88bd
000001d0: 0ab5 313e c734 42bc 03eb c5bc 1c50 45bc
000001e0: 3041 84bc 0fa3 73bd 1b3b 833c 7759 35be
000001f0: 2119 bb3d 9858 433c f617 b7bd f92a 083e

goal_head.bias f4 [2]
-2.4103897 2.4103897
00000000: d343 1ac0 d343 1a40

portfolio_head.weight f4 [15, 64]
0.0730497 -0.1443083 0.15968029 -0.103058875 0.08634908 0.0880232 0.02665767 -0.005847004
0.06336192 -0.07607941 -0.11884049 0.12917529 -0.09011926 0.13342327 0.12877953 0.13238512
0.24160588 -0.031385247 -0.08885726 -0.21037918 -0.060320124 -0.2014115 0.03505207 -0.08937537
0.17748359 -0.15117605 -0.057458527 -0.054733988 0.09222871 -0.146501 -0.0877557 0.14546779
-0.010859847 -0.055269323 0.1641424 0.07185505 -0.052236225 -0.0581912 -0.09049865 -0.08246163
0.03176482 0.12741311 0.21583965 0.10712482 -0.0120947985 -0.015690561 -0.13635437 -0.009308865
-0.007867228 0.06038266 0.14047103 -0.0984309 -0.13844053 0.013940567 -0.13465364 -0.16204348
-0.033610135 -0.10270847 -0.059536606 0.22752549 -0.15600972 -0.062724896 -0.14579386 0.024883747
-0.2871616 0.03313524 -0.079516985 -0.054717023 0.050439846 0.044926204 -0.08265372 -0.09910464
-0.0022458837 0.12667224 -0.026450623 0.0113214115 -0.0019830645 -0.237378 0.11199557 -0.0674216
-0.019815767 -0.1039957 0.11297515 0.061023775 0.116250545 0.20979892 -0.038795456 0.17948544
-0.045686074 0.17698413 0.14876086 0.06397369 -0.0024318076 -0.009418566 0.022959506 -0.043732904
0.042997833 -0.030634653 0.03380776 -0.019715922 -0.14905085 -0.053707965 -0.009168358 0.04396749
0.06740137 0.14443791 0.002088448 0.100917526 -0.074888244 -0.089981526 0.0118547985 -0.07621914
-0.06539296 -0.09699502 0.015460743 0.08758155 -0.06607185 -0.008826414 0.0044161696 -0.010886993
0.07728735 0.17526536 -0.16021171 -0.0021070514 0.06353955 -0.13032919 0.19516838 -0.048983976
-0.023942659 -0.084832996 0.06377521 -0.10601262 0.054004148 0.057482023 -0.01123658 0.006284706
0.084863454 -0.0031844438 -0.020850347 0.06349797 -0.1016043 -0.01841274 0.06349195 0.10784638
0.09081062 -0.0042859 -0.0012164324 -0.04960009 -0.033607177 0.28669977 0.056621786 0.028271075
0.08056723 -0.05372381 -0.025619013 -0.080810666 0.036558863 -0.09408369 -0.069598414 0.038943026
-0.008864382 -0.0024573882 0.024067543 0.12148455 -0.0553674 -0.023941241 -0.00885155 -0.082162224
0.00904425 0.09087385 0.10988628 0.11443031 -0.019225309 0.014470533 0.00088406453 0.023061182
-0.03155221 0.06894264 0.047322784 -0.09597736 0.026470888 -0.05677692 -0.091696374 -0.11326449
-0.06082795 -0.0424274 -0.077824295 0.07017674 -0.047225486 -0.0028706102 -0.086654484 0.073745415
-0.0018825928 0.008136812 -0.032275744 -0.028596748 0.033474572 0.020931695 -0.005312713 0.006146914
-0.05290623 0.0058690403 0.023719225 -0.025504706 0.005793787 -0.04560074 -0.060438752 0.0051924232
-0.0755546 -0.012361131 0.044230286 0.06468846 -0.04846395 0.3485496 0.049755905 0.048847515
-0.020652352 0.043141525 0.012556991 -0.006490234 -0.04577772 0.04721654 -0.03330276 -0.07264211
-0.041848395 0.05081267 -0.04821564 0.08590519 -0.006549597 0.037669387 0.082389064 0.00053479057
0.029035464 -0.033694662 0.030382482 0.032222897 -0.059030138 -0.036662634 0.12131517 0.023311412
-0.06522393 0.043560795 -0.024295107 -0.04666067 0.059880525 -0.010564063 0.008221852 -0.0030337458
-0.08018986 -0.0007691979 -0.0512579 -0.15945147 0.0921638 0.052216917 -0.038869996 0.04822484
00000000: 159b 953d 8ec5 13be 3b83 233e 8810 d3bd
00000010: c9d7 b03d 8245 b43d 3061 da3c 3998 bfbb
00000020: e5c3 813d 86cf 9bbd a562 f3bd 8746 043e
00000030: 7290 b8bd 1ca0 083e c8de 033e f78f 073e
00000040: 8867 773e d18d 00bd ccfa b5bd a46d 57be
00000050: 3c12 77bd d13e 4ebe c292 0f3d 6f0a b7bd
00000060: 42be 353e e5cd 1abe a259 6bbd bf30 60bd
00000070: 68e2 bc3d 5c04 16be 43b9 b3bd 82f5 143e
00000080: 80ed 31bc 1662 62bd f214 283e be28 933d
00000090: a7f5 55bd e559 6ebd 5b57 b9bd a5e1 a8bd
000000a0: d41b 023d 9578 023e 1205 5d3e 4264 db3d
000000b0: 4329 46bc 7e89 80bc 7ba0 0bbe 3684 18bc
000000c0: 8ce5 00bc cf53 773d a3d7 0f3e 2496 c9bd
000000d0: 5bc3 0dbe fa66 643c a5e2 09be baee 25be
000000e0: c8aa 09bd d158 d2bd a8dc 73bd 71fc 683e
000000f0: 03c1 1fbe e975 80bd fc4a 15be 00d9 cb3c
00000100: d806 93be d1b8 073d cdd9 a2bd f51e 60bd
00000110: 039a 4e3d 8a04 383d 5b46 a9bd 60f7 cabd
00000120: ad2f 13bb 5eb6 013e faae d8bc 717d 393c
00000130: 4df6 01bb 3813 73be ef5d e53d 5614 8abd
00000140: ad54 a2bc b3fb d4bd 845f e73d 11f4 793d
00000150: c414 ee3d 87d5 563e fce7 1ebd 08cb 373e
00000160: 5221 3bbd 543b 353e c454 183e a304 833d
00000170: f65e 1fbb 5450 1abc 9315 bc3c 4621 33bd
00000180: 7f1e 303d 86f5 fabc 017a 0a3d 4983 a1bc
00000190: c9a0 18be e2fc 5bbd e136 16bc 4117 343d
000001a0: bb09 8a3d 88e7 133e 58de 083b d9ad ce3d
000001b0: 025f 99bd 3c48 b8bd a13a 423c c818 9cbd
000001c0: bfec 85bd 53a5 c6bd 0e4f 7d3c f55d b33d
000001d0: ae50 87bd aa9c 10bc 84b5 903b 5c5f 32bc
000001e0: d548 9e3d c378 333e 8a0e 24be 7516 0abb
000001f0: 0621 823d 0475 05be 38da 473e 6ca3 48bd
00000200: 6523 c4bc ecbc adbd 949c 823d 251d d9bd
00000210: 7433 5d3d 4572 6b3d a219 38bc efef cd3b
00000220: e4cc ad3d 1ab2 50bb 59ce aabc 390b 823d
00000230: ea15 d0bd 51d6 96bc 1108 823d 90de dc3d
00000240: ebfa b93d bc70 8cbb b370 9fba 7729 4bbd
00000250: aea7 09bd 50ca 923e 3fec 673d be98 e73c
00000260: 6f00 a53d 7f0d 5cbd f7de d1bc 1080 a5bd
00000270: bfbe 153d f3ae c0bd 9d89 8ebd b982 1f3d
00000280: ea3b 11bc 220c 21bb 4c29 c53c e4cc f83d
00000290: edc8 62bd 6c20 c4bc 1706 11bc ab44 a8bd
000002a0: 552e 143c 121c ba3d 0f0c e13d 705a ea3d
000002b0: 657e 9dbc d015 6d3c 91c0 673a ceea bc3c
000002c0: e43c 01bd cd31 8d3d 89d5 413d c78f c4bd
000002d0: 7ad9 d83c ea8e 68bd 4fcb bbbd 37f7 e7bd
000002e0: ba26 79bd 5ac8 2dbd 5862 9fbd d3b8 8f3d
000002f0: 836f 41bd d920 3cbb e877 b1bd d607 973d
00000300: 55c1 f6ba 4350 053c 9233 04bd ba43 eabc
00000310: a21c 093d f278 ab3c 4416 aebb 0d6c c93b
00000320: 34b4 58bd 1451 c03b d24e c23c 3fef d0bc
00000330: cfd9 bd3b d7c7 3abd a08e 77bd 3425 aa3b
00000340: 5fbc 9abd 5786 4abc d12a 353d 627b 843d
00000350: 2382 46bd 1875 b23e d9cc 4b3d 5514 483d
00000360: 1f2f a9bc 2bb5 303d d6bb 4d3c 07ac d4bb
00000370: 6b81 3bbd 2166 413d 7a68 08bd 63c5 94bd
00000380: 3969 2bbd f220 503d c37d 45bd 0fef af3d
00000390: 009e d6bb 374b 1a3d 99bb a83d 3031 0c3a
000003a0: c8db ed3c 6a03 0abd afe4 f83c 28fc 033d
000003b0: 96c9 71bd 8f2b 16bd 1674 f83d 93f7 be3c
000003c0: 2094 85bd ce6c 323d 8806 c7bc 421f 3fbd
000003d0: 4845 753d e414 2dbc f2b4 063c cfd1 46bb
000003e0: 953a a4bd ffa3 49ba cef3 51bd 3f47 23be
000003f0: 60c0 bc3d 68e1 553d 2536 1fbd 6987 453d

portfolio_head.bias f4 [15]
-0.13374917 0.03436508 0.206337 0.24722731 -0.048538838 -0.19181417 0.07987216 0.1205305
-0.190312 -0.087735444 0.014323398 -0.18976122 0.02868609 0.46046862 0.033244234
00000000: 8bf5 08be 66c2 0c3d 024a 533e 2829 7d3e
00000010: a9d0 46bd ef6a 44be 0494 a33d b2d8 f63d
00000020: 26e1 42be a4ae b3bd afac 6a3c c450 42be
00000030: 17ff ea3c 8bc2 eb3e 1b2b 083d

state_encoder.encoder.0.weight f4 [64, 2]
-0.5741985 -0.19236225 -0.9672452 0.15193754 -0.8316111 -0.025778174 0.30221197 0.1654252
0.00385005 -0.045280427 -0.3398941 0.017847762 0.41131803 0.047010798 0.012323248 -0.12639134
-0.2035845 0.029485822 0.41907907 0.06607693 -0.584644 -0.0017304575 -0.4995058 0.16823408
-0.009769199 -0.0032722303 -0.50180036 0.12070346 -0.47867975 0.004926862 0.061567932 -0.06784114
0.01441767 -0.006703518 -0.6902966 0.024277013 0.4113758 -0.023537414 -0.00025146094 0.04417324
-0.46083105 0.18554074 0.7502593 0.066190556 -0.02066332 -0.03855998 -0.029557675 -0.06465366
-0.9424432 0.25329942 0.40674442 0.026180761 -0.62659097 -0.034517664 0.9784153 0.13497493
0.5259118 0.16036186 -0.60096335 -0.13457465 -0.82724804 -0.11743468 0.7570422 0.052661188
0.015564865 0.12011348 -0.9317036 0.028095113 -0.7126301 0.008011741 0.5308759 -0.25389037
0.9368792 0.056111984 -0.015415977 0.052620944 -0.03241748 -0.080806196 -0.96199954 0.006321178
0.8541647 -0.14963937 -0.61588836 0.21141745 0.6415008 -0.11549584 0.017062146 -0.06991645
0.21547355 -0.15761891 0.39147812 -0.022395227 -0.0034629884 0.03864298 0.51302767 -0.16548687
-0.4242598 0.30195835 -0.6862317 -0.09331435 -0.95021284 0.23098278 -0.7604984 -0.15013976
0.2160837 0.3352517 -0.007733014 -0.079612345 -0.29494977 0.09220094 0.39660904 0.17978215
0.98334247 -0.0217582 0.7656376 -0.164812 -0.5922843 -0.23766974 0.016323395 -0.059245095
-0.35045785 -0.011059708 0.5212345 0.0076028644 0.5470616 -0.23710549 -0.5041618 -0.16891815
00000000: acfe 12bf 9cfa 44be 629d 77bf 8495 1b3e
00000010: 77e4 54bf c02c d3bc 87bb 9a3e 3965 293e
00000020: 1f51 7c3b f877 39bd 9906 aebe 7835 923c
00000030: 4798 d23e 658e 403d 73e7 493c bb6c 01be
00000040: 7578 50be 408c f13c 8891 d63e 5753 873d
00000050: 3bab 15bf 85d0 e2ba 39bf ffbe 8e45 2c3e
00000060: fe0e 20bc ea72 56bb fd75 00bf 6033 f73d
00000070: 8315 f5be 8471 a13b a82e 7c3d 4cf0 8abd
00000080: 1738 6c3c 2fa9 dbbb 47b7 30bf 96e0 c63c
00000090: d99f d23e 89d1 c0bc 84d6 83b9 00ef 343d
000000a0: 0cf2 ebbe 64fe 3d3e fe10 403f ea8e 873d
000000b0: 1f46 a9bc 12f1 1dbd f022 f2bc 2369 84bd
000000c0: f543 71bf 76b0 813e ce40 d03e 0979 d63c
000000d0: 4468 20bf 6562 0dbd 6d79 7a3f de36 0a3e
000000e0: 28a2 063f e635 243e bcd8 19bf f0cd 09be
000000f0: 87c6 53bf 9881 f0bd 85cd 413f 42b3 573d
00000100: c703 7f3c 0efe f53d 2184 6ebf b927 e63c
00000110: ed6e 36bf ad43 033c 7ce7 073f ebfd 81be
00000120: 51d7 6f3f aed5 653d 4b93 7cbc 0f89 573d
00000130: 31c8 04bd b87d a5bd 9a45 76bf e221 cf3b
00000140: 8aaa 5a3f 103b 19be dcaa 1dbf d17d 583e
00000150: 6539 243f 1589 ecbd eac5 8b3c 5b30 8fbd
00000160: 19a5 5c3e da66 21be d26f c83e 3276 b7bc
00000170: 4ef3 62bb 1a48 1e3d c855 033f 6475 29be
00000180: 9538 d9be 499a 9a3e e1ac 2fbf 981b bfbd
00000190: 2641 73bf c086 6c3e 06b0 42bf 3dbe 19be
000001a0: 0c45 5d3e 1ca6 ab3e 3965 fdbb cc0b a3bd
000001b0: a803 97be d9d3 bc3d 5710 cb3e d018 383e
000001c0: 55bc 7b3f 413e b2bc d300 443f 7ac4 28be
000001d0: f29f 17bf b25f 73be a4b8 853c fcaa 72bd
000001e0: 366f b3be c733 35bc a06f 053f 7321 f93b
000001f0: 3b0c 0c3f c8cb 72be bf10 01bf e1f8 2cbe

state_encoder.encoder.0.bias f4 [64]
0.5239585 0.17046349 0.21765111 -0.174755 0.013486945 0.094556406 -0.32070997 -0.0042431494
0.109870195 -0.3387873 0.2634104 0.46285743 0.0038686236 0.36433083 0.15566656 0.006639149
-0.00093350036 0.3439505 -0.08416557 -0.0012193384 0.48308656 -0.31813404 0.010297017 -0.004275872
0.18981051 -0.31369168 0.47954962 -0.13466083 -0.4986608 0.13549198 0.25651446 -0.20674948
-0.013336183 0.20112818 0.29224697 -0.41794187 -0.2639965 -0.012649515 0.0014352872 0.18646073
-0.18187039 0.47510514 -0.21238913 -0.016095161 -0.08507855 -0.11649155 -0.0018144983 -0.2022374
0.48588187 0.29925787 0.18613306 0.14831433 -0.13300411 -1.2115925e-06 0.13796048 -0.6312087
-0.200377 -0.1350704 0.5667454 -0.00079632975 0.3952884 -0.4883521 -0.4281219 0.25371236
00000000: 2522 063f fb8d 2e3e efdf 5e3e faf2 32be
00000010: 59f8 5c3c caa6 c13d 1934 a4be 1e0a 8bbb
00000020: a003 e13d 8775 adbe badd 863e a6fb ec3e
00000030: bc88 7d3b 9289 ba3e 0e67 1f3e 388d d93b
00000040: 26b6 74ba 481a b03e 005f acbd 35d2 9fba
00000050: 1f57 f73e 77e2 a2be d2b4 283c 9d1c 8cbb
00000060: b05d 423e 329c a0be 8787 f53e 87e4 09be
00000070: 7850 ffbe 69be 0a3e dd55 833e 23b6 53be
00000080: 0180 5abc 8cf4 4d3e 65a1 953e 7afc d5be
00000090: 8d2a 87be e93f 4fbc 3f20 bc3a 90ef 3e3e
000000a0: 3b3c 3abe fb40 f33e 897c 59be 00da 83bc
000000b0: aa3d aebd 1f93 eebd 76d4 edba 5217 4fbe
000000c0: 82c5 f83e 5438 993e aa99 3e3e b6df 173e
000000d0: 3b32 08be 009e a2b5 8345 0d3e e596 21bf
000000e0: a12f 4dbe e54f 0abe 3a16 113f c9c0 50ba
000000f0: 3e63 ca3e 4909 fabe cb32 dbbe 96e6 813e

state_encoder.encoder.2.weight f4 [64, 64]
0.80289936 0.34987095 0.30201516 0.19373344 -0.14720696 0.0398887 -0.1718262 0.061744664
-0.08765432 -0.18717891 0.03419197 0.15421873 -0.33024716 0.24451414 0.1334326 -0.15077585
-0.05688811 0.3120953 -0.073314846 0.12607414 0.39100978 -0.7011655 -0.2720286 -0.26926056
0.45126057 0.0637865 0.69519067 -0.40780434 -0.4229347 0.5136673 0.14326406 -0.2923619
-0.02925405 0.32426456 0.43041775 -0.65261596 -0.63935626 -0.14323024 0.34953627 0.06473179
-0.42456418 0.44926843 -0.50181586 0.13863647 0.20194179 0.28637078 0.21347965 0.08893553
0.25187904 0.3499909 0.110961 0.3883083 -0.16284204 -0.12097748 -0.23570904 -0.28527606
-0.28142992 -0.3009068 0.64919245 0.37910828 0.15620069 -0.36347678 -0.6976924 0.1792458
-1.0267719 -0.3478431 -0.45402682 -0.13085638 -0.021243578 -0.22267318 -0.12068814 -0.07247654
0.13045838 0.51902884 -0.19021328 -0.13206565 -0.08439748 -0.44623917 -0.35148934 -0.06878735
-0.16640308 -0.43825313 -0.036218736 0.32765976 -0.149722 0.746881 -0.18241175 -0.02900332
-0.37021798 0.37315944 -0.670508 0.21871953 0.5341773 -0.10349876 -0.4255838 0.37895492
0.028705748 -0.5046813 -0.41904816 0.64906955 0.93142956 0.19034933 -0.011904624 -0.11833362
0.14680976 -0.6458619 0.29384556 -0.022873392 -0.21709219 0.20971543 -0.012371869 -0.010717069
0.0029462944 -0.5164535 -0.19503106 -0.27953207 0.2011597 0.06920065 0.036210123 0.24145712
0.57172906 0.3062013 -1.4601773 0.19391896 0.0426913 0.6364275 0.41517538 0.008012672
1.0852504 0.31136015 0.3402994 0.23803712 -0.08174626 -0.07517424 -0.21024178 0.031521413
0.01164867 -0.09286939 0.4115048 0.10158124 -0.064277 0.37417644 0.065731235 0.22839926
-0.05176145 0.23966484 0.215178 0.12002361 0.50682837 -0.08737637 -0.0014044731 -0.11673785
0.13638991 -0.21280582 0.46659967 0.46035448 -0.59636486 0.038660385 0.29759052 -0.1479947
-0.09690801 0.14244281 0.27538013 -0.304847 -0.17674945 0.111825936 0.2548112 0.31115428
-0.069732614 0.74182934 -0.3424305 -0.12418388 0.30904183 0.2473158 0.07401498 0.24879473
0.32276297 0.43575442 0.12778428 0.2664245 0.33297896 0.10478405 0.07835416 -0.5640526
-0.27873966 0.28610215 1.0492887 0.30548444 0.22337952 -0.47274953 -0.3014993 0.053853776
0.38339654 -0.10319419 0.022648979 -0.027164036 0.057210308 -0.25412676 -0.5763097 0.29543567
0.5340556 -0.6399607 -0.097256266 0.9593551 0.012633454 0.24235046 -0.07183913 0.3362236
0.039171085 -0.038263883 0.7122103 0.0078075067 0.806396 -0.23521262 0.316674 0.003200036
-0.10287666 -0.5432618 0.59200037 0.4306187 -0.87005246 -0.1555467 -0.4471597 0.2858799
0.038620815 -0.18487853 -0.009679906 -0.58656055 0.12925476 -0.39358786 0.12048374 0.16466255
-0.02369992 0.4041388 0.09898845 -0.40795514 -0.37307692 0.4840476 0.28090045 -0.059625156
0.6993306 0.022378916 -0.14190477 -0.18263917 -0.20882079 0.07186859 0.43349552 -0.9602288
0.21103524 0.5235178 0.68624073 0.27985224 0.50676215 -0.5929722 -0.6659728 -0.67169833
00000000: d08a 4d3f 4922 b33e bba1 9a3e 0f62 463e
00000010: 6cbd 16be 5562 233d 35f3 2fbe f9e7 7c3d
00000020: 1c84 b3bd d4ab 3fbe e10c 0c3d 84eb 1d3e
00000030: 2816 a9be ea61 7a3e 8ea2 083e fc64 1abe
00000040: 8203 69bd f5ca 9f3e 1826 96bd 9419 013e
00000050: 6f32 c83e 957f 33bf 5547 8bbe 85dc 89be
00000060: a00b e73e 7fa2 823d 04f8 313f bbcb d0be
00000070: e68a d8be b37f 033f d0b3 123e 75b0 95be
00000080: 31a6 efbc 0106 a63e b75f dc3e d711 27bf
00000090: daac 23bf f3aa 12be 6bf6 b23e 1a92 843d
000000a0: 7a60 d9be 8306 e63e 0177 00bf b8f6 0d3e
000000b0: d4c9 4e3e 319f 923e 699a 5a3e d523 b63d
000000c0: 4af6 803e 0232 b33e 853f e33d 58d0 c63e
000000d0: 10c0 26be 0bc3 f7bd b65d 71be b40f 92be
000000e0: 9517 90be 7510 9abe 7a31 263f 7b1a c23e
000000f0: 13f3 1f3e a119 babe f89b 32bf 368c 373e
00000100: 436d 83bf 7e18 b2be 3476 e8be 37ff 05be
00000110: 0307 aebc 7004 64be 582b f7bd 956e 94bd
00000120: e296 053e 13df 043f 45c7 42be 383c 07be
00000130: 96d8 acbd 7679 e4be 69f6 b3be 62e0 8cbd
00000140: 9265 2abe b762 e0be 195a 14bd 05c3 a73e
00000150: b950 19be 9833 3f3f 25ca 3abe 5f98 edbc
00000160: 368d bdbe c10e bf3e 6aa6 2bbf 03f8 5f3e
00000170: d8bf 083f 28f7 d3bd 1fe6 d9be 6106 c23e
00000180: 5128 eb3c cb32 01bf 7b8d d6be 6c29 263f
00000190: 2b72 6e3f efea 423e 9d0b 43bc e658 f2bd
000001a0: 4c55 163e 3557 25bf ed72 963e fb60 bbbc
000001b0: 6a4d 5ebe a4bf 563e 61b3 4abc a596 2fbc
000001c0: 9e16 413b 4c36 04bf 39b6 47be d41e 8fbe
000001d0: cffc 4d3e 12b9 8d3d 1151 143d 8940 773e
000001e0: d65c 123f 6bc6 9c3e 17e7 babf b192 463e
000001f0: 13dd 2e3d eaec 223f de91 d43e 9547 033c
00000200: 7ce9 8a3f 996a 9f3e b93b ae3e 01c0 733e
00000210: 956a a7bd f4f4 99bd 9f49 57be 991c 013d
00000220: 10da 3e3c 4f32 bebd c2b0 d23e d309 d03d
00000230: a9a3 83bd 0e94 bf3e 199e 863d 7fe1 693e
00000240: d003 54bd b36a 753e 9f57 5c3e f0ce f53d
00000250: 81bf 013f 62f2 b2bd 4c16 b8ba 4114 efbd
00000260: cca9 0b3e c5e9 59be 27e6 ee3e 95b3 eb3e
00000270: 5eab 18bf 5a5a 1e3d c95d 983e ec8b 17be
00000280: b577 c6bd 87dc 113e a0fe 8c3e e814 9cbe
00000290: cffd 34be ff04 e53d 9d76 823e 9d4f 9f3e
000002a0: f9cf 8ebd 87e8 3d3f 0d53 afbe 1e54 febd
000002b0: bb3a 9e3e 5a40 7d3e 2a95 973d 0cc4 7e3e
000002c0: 3041 a53e 341b df3e e2d9 023e cb68 883e
000002d0: 387c aa3e 0599 d63d 2578 a03d c065 10bf
000002e0: f7b6 8ebe fb7b 923e 184f 863f 7568 9c3e
000002f0: 9abd 643e 3a0c f2be 1e5e 9abe c795 5c3d
00000300: 8d4c c43e 7a57 d3bd 5a8a b93c 1d87 debc
00000310: 5b55 6a3d e71c 82be 0889 13bf 5843 973e
00000320: deb7 083f 77d4 23bf 4b2e c7bd 4c98 753f
00000330: 8cfc 4e3c b82a 783e 6520 93bd 8025 ac3e
00000340: dc71 203d 97ba 1cbd 6a53 363f 1dd6 ff3b
00000350: f86f 4e3f 94db 70be 1823 a23e b2b7 513b
00000360: 00b1 d2bd 3513 0bbf 568d 173f 0e7a dc3e
00000370: c2bb 5ebf a247 1fbe 1ef2 e4be da5e 923e
00000380: dc30 1e3d cc50 3dbe 7898 1ebc d528 16bf
00000390: 5c5b 043e 5984 c9be 2ec0 f63d 4d9d 283e
000003a0: 5626 c2bc 48eb ce3e 75ba ca3d 7fdf d0be
000003b0: f003 bfbe 16d5 f73e 2fd2 8f3e 8239 74bd
000003c0: 5507 333f fd53 b73c 7c4f 11be c305 3bbe
000003d0: 1ed5 55be d72f 933d 20f3 dd3e 8ed1 75bf
000003e0: 9f19 583e 4305 063f 79ad 2f3f cb48 8f3e
000003f0: 2abb 013f 07cd 17bf 327d 2abf 6cf4 2bbf

state_encoder.encoder.2.bias f4 [64]
0.13971326 -0.11201236 0.4631172 0.36771753 0.5036218 0.44090942 -0.086448945 -0.21180144
-0.21328343 0.17464927 0.3782088 -0.41198406 -0.38142556 0.17699079 0.5475091 -0.497824
-0.4559779 0.8281058 0.5462918 -0.084265396 0.44469097 -0.38208777 -0.5996702 0.439024
0.034530092 0.23819879 -0.17063142 -0.28428632 -0.024332281 -0.36822644 0.4567702 -0.12155575
-0.43970674 -0.32564184 -0.32601383 0.4488765 0.5276112 -0.35198116 0.56615394 -0.36580154
0.19514678 -0.6243029 0.49111655 -0.26238203 -0.36393636 -0.34755793 0.4418801 0.5499268
0.5089435 0.25810665 -0.42866722 0.7157255 -0.34341234 0.45228288 -0.2157962 -0.5483626
-0.42519832 -0.24133003 -0.25529668 -0.40540364 0.30558166 0.44188082 0.91891927 -0.22473426
00000000: fe10 0f3e bc66 e5bd b31d ed3e 7945 bc3e
00000010: 5ced 003f e1be e13e 250c b1bd 7ae2 58be
00000020: f966 5abe 42d7 323e 95a4 c13e 93ef d2be
00000030: 364a c3be 133d 353e 8e29 0c3f cae2 febe
00000040: ef75 e9be befe 533f c8d9 0b3f 5693 acbd
00000050: 89ae e33e 02a1 c3be fc83 19bf c1c7 e03e
00000060: 6d6f 0d3d 62ea 733e 01ba 2ebe fa8d 91be
00000070: 7e54 c7bc 2d88 bcbe c9dd e93e 39f2 f8bd
00000080: 3e21 e1be 87ba a6be 49eb a6be 24d3 e53e
00000090: 8711 073f e036 b4be 77ef 103f 574a bbbe
000000a0: 8fd4 473e 51d2 1fbf a173 fb3e f056 86be
000000b0: de55 babe 1df3 b1be 1c3e e23e 01c8 0c3f
000000c0: 1f4a 023f 8e26 843e 457a dbbe c939 373f
000000d0: bed3 afbe 9f91 e73e aef9 5cbe 7e61 0cbf
000000e0: 98b3 d9be 381f 77be 3fb6 82be 1191 cfbe
000000f0: 3375 9c3e 343e e23e 4b3e 6b3f bd20 66be

value_layers.0.weight f4 [64, 64]
0.34610185 -0.53568166 0.6465148 0.36221716 1.161783 0.15132555 -0.21426104 -0.32393718
-0.4278038 -0.002152541 0.2713861 -0.7327786 -0.105340585 0.3025018 0.46652734 -1.1073656
-0.35524398 1.9270457 -0.1487508 -0.29570898 0.26158732 0.106006846 -0.0050121867 0.3432768
-0.13330615 0.29921257 -0.35502136 -0.034517936 0.42708412 -0.5858979 0.3747734 -0.2464742
0.009715203 0.067953944 -0.02482797 0.34557313 0.11941557 -0.29043314 0.075044036 -0.38057855
0.30368042 -1.6118716 1.5107079 -0.15851122 0.0040832954 -0.11894448 0.12766291 1.5469103
1.2269328 -0.009311612 -1.001296 1.6227783 0.0020641661 0.21366051 -0.128602 -0.5441931
-0.41027594 0.15995684 -0.108275495 -0.45843968 0.7480895 0.05587116 2.3062747 -0.07048276
-0.86508673 1.271721 -0.30905044 -0.46871403 -0.590304 -0.12887084 0.99822974 0.23212132
1.0652655 0.9221683 0.31608936 0.6447016 0.19457182 -1.767466 0.19788203 0.52147096
-0.047946114 -0.08193161 0.53065354 1.1249709 -0.006358262 -0.2475898 -0.03340174 0.05417783
-1.1105752 -0.91011 0.8958095 -0.19369118 1.1140053 0.18556257 0.009139767 1.5596298
-0.14549258 0.041591097 -1.025015 0.19233447 0.34485558 0.3822267 -0.22331668 0.019237429
-0.7764383 0.11688669 -0.45550093 -0.360034 0.17256133 -0.12038243 -0.092131004 -0.3327796
-0.49173146 -1.1847005 0.6602997 -0.4943288 -0.45542285 -0.18502484 0.84387714 0.28303364
0.044561625 -0.21968001 0.94722146 -0.0036675034 -0.7096522 0.39974084 -0.22204418 -0.9922601
-0.29503432 -0.08812659 -0.41978645 -0.521528 -0.34996596 -0.62280047 0.14411959 0.27870303
0.54692155 0.097426 -0.44063133 0.20604213 0.5829096 -0.11768196 -0.8356304 0.8337545
0.6459263 -0.6737162 -0.34143618 0.088508554 -0.61663795 0.43466836 0.63764316 -0.76446354
-0.12721717 0.022683498 -0.3411668 0.32107586 -0.07015439 0.55070484 -0.71961474 0.15166865
0.5887942 0.5204328 0.19408412 -0.25823087 -0.9573007 0.6824307 -0.6853553 0.36715114
0.10299271 0.5507016 0.012344356 0.027368115 0.64690506 0.5619134 -0.35651886 -0.13353457
0.062256623 -0.065722495 0.18284017 -0.68044233 0.5289482 -0.8332457 0.49190474 0.5168131
1.0286038 0.29090175 0.39364788 0.7121461 0.12150717 -0.37788227 -0.5097623 -0.17305301
-0.42778096 0.46126616 -0.1179672 0.31598404 -0.53910476 0.46622527 0.70304304 -0.07196106
0.22105575 0.72102374 0.3440588 0.040963873 -0.1826717 -0.68383276 0.57418704 0.047953837
-0.50323665 0.06907473 0.5604632 0.21274775 0.53491956 -1.4143647 -0.5154273 0.45547393
-0.6935611 -0.2869517 0.7334637 -0.34123045 1.0235398 -0.14438444 0.34256288 0.75144047
-0.003109566 -0.04585549 -0.92111176 1.6168401 0.9269691 -0.20175229 0.5479693 -0.3821722
-0.54550743 0.21707474 -0.13555767 -0.23048425 -0.5211378 -0.3113629 2.3494432 0.092091076
-0.35259202 -0.42323753 0.34832305 0.2193008 -1.5693883 0.46912417 0.19119895 -0.3585886
-0.38498464 -1.7662083 0.16541266 -0.22722661 -0.0034735263 3.1416335 0.14879948 -0.36380234
00000000: 4334 b13e 6f22 09bf fe81 253f 8774 b93e
00000010: 4eb5 943f 16f5 1a3e 3f67 5bbe 18db a5be
00000020: 1a09 dbbe a511 0dbb 1ef3 8a3e 6197 3bbf
00000030: cebc d7bd 84e1 9a3e acdc ee3e 28be 8dbf
00000040: 8ae2 b5be 6fa9 f63f 2152 18be 2b67 97be
00000050: c6ee 853e 1e1a d93d 453d a4bb fac1 af3e
00000060: 6881 08be 6432 993e 5cc5 b5be ae62 0dbd
00000070: c5aa da3e 68fd 15bf 4de2 bf3e bc63 7cbe
00000080: 842c 1f3c 702b 8b3d 0764 cbbc f6ee b03e
00000090: 2690 f43d a7b3 94be b0b0 993d 31db c2be
000000a0: 007c 9b3e cf51 cebf e05e c13f c450 22be
000000b0: 2acd 853b 2a99 f3bd 11ba 023e 2801 c63f
000000c0: 220c 9d3f bb8f 18bc 782a 80bf 33b7 cf3f
000000d0: f646 073b d2c9 5a3e 3eb0 03be 3d50 0bbf
000000e0: b00f d2be bacb 233e 8bbf ddbd 9bb8 eabe
000000f0: cb82 3f3f 28d9 643d 019a 1340 4459 90bd
00000100: 5376 5dbf c1c7 a23f dc3b 9ebe 49fb efbe
00000110: 2a1e 17bf b8f6 03be fc8b 7f3f 36b1 6d3e
00000120: 9f5a 883f 3913 6c3f 77d6 a13e 2a0b 253f
00000130: d63d 473e 533c e2bf 96a1 4a3e 1f7f 053f
00000140: 2563 44bd c3cb a7bd e9d8 073f 0cff 8f3f
00000150: f858 d0bb 2e88 7dbe 43d0 08bd 93e9 5d3d
00000160: 5427 8ebf f8fc 68bf c553 653f fb56 46be
00000170: ba97 8e3f 1d04 3e3e f6be 153c f3a1 c73f
00000180: 02fc 14be 6d5b 2a3d b133 83bf 54f3 443e
00000190: e990 b03e 38b3 c33e 21ad 64be d097 9d3c
000001a0: a9c4 46bf 4a62 ef3d 6b37 e9be 6056 b8be
000001b0: ebb3 303e 108b f6bd 2eaf bcbd 1662 aabe
000001c0: 3ac4 fbbe 44a4 97bf 6709 293f aa18 fdbe
000001d0: 2f2d e9be 2777 3dbe 5508 583f c9e9 903e
000001e0: 4086 363d ccf3 60be 1b7d 723f 7f5a 70bb
000001f0: c4ab 35bf d5aa cc3e 8d5f 63be c204 7ebf
00000200: bd0e 97be b77b b4bd 40ee d6be dc82 05bf
00000210: bd2e b3be da6f 1fbf 1694 133e 2ab2 8e3e
00000220: 0d03 0c3f 4887 c73d 6e9a e1be b5fc 523e
00000230: 9039 153f 3d03 f1bd e0eb 55bf ef70 553f
00000240: 6d5b 253f aa78 2cbf b9d0 aebe f943 b53d
00000250: fcdb 1dbf da8c de3e 953c 233f e2b3 43bf
00000260: 3845 02be bed2 b93c 6aad aebe 0e64 a43e
00000270: 1bad 8fbd fefa 0c3f ac38 38bf 074f 1b3e
00000280: 37bb 163f 153b 053f fdbd 463e d636 84be
00000290: a911 75bf c7b3 2e3f 7273 2fbf 3cfb bb3e
000002a0: d8ed d23d c8fa 0c3f fb3f 4a3c 1933 e03c
000002b0: 929b 253f 8ed9 0f3f a489 b6be 49bd 08be
000002c0: cd00 7f3d 8499 86bd 743a 3b3e 7831 2ebf
000002d0: 2669 073f 974f 55bf f0da fb3e dd4d 043f
000002e0: 4aa9 833f 13f1 943e 378c c93e 354f 363f
000002f0: c0d8 f83d c979 c1be c87f 02bf cf34 31be
00000300: 1b06 dbbe 142b ec3e ca98 f1bd a9c8 a13e
00000310: c502 0abf 14b5 ee3e a1fa 333f 5260 93bd
00000320: 705c 623e 0395 383f 7a28 b03e bcc9 273d
00000330: 4a0e 3bbe aa0f 2fbf ecfd 123f 3e6b 443d
00000340: 1ed4 00bf 0d77 8d3d 847a 0f3f 8cda 593e
00000350: 7df0 083f e709 b5bf 0bf3 03bf e133 e93e
00000360: 388d 31bf 55eb 92be 47c4 3b3f c2b5 aebe
00000370: 5a03 833f 84d9 13be 6764 af3e 675e 403f
00000380: dcc9 4bbb f7d2 3bbd fbcd 6bbf 9ef4 ce3f
00000390: d94d 6d3f 2798 4ebe b747 0c3f 13ac c3be
000003a0: 60a6 0bbf d748 5e3e a1cf 0abe 1004 6cbe
000003b0: 4969 05bf f56a 9fbe 475d 1640 3f9a bc3d
000003c0: f186 b4be 97b2 d8be 6657 b23e 6490 603e
000003d0: b7e1 c8bf 0b31 f03e a8c9 433e ed98 b7be
000003e0: b51c c5be 1d13 e2bf f061 293e 18ae 68be
000003f0: 1aa4 63bb 8610 4940 e45e 183e 4d44 babe
