data/comparisons/comparison_20251204_165029/sentiment_model.pth (torch, 494607 bytes, 81 tensors)

state_encoder.time_encoder.0.weight f4 [16, 1]
0	0x3d9c7ad3	0.07640614
1	0x3e6d1536	0.23152623
2	0x3db7c08c	0.08972272
3	0xbcb9ee31	-0.022696586
4	0x3d986d03	0.07442667
5	0x3da0c016	0.078491375
6	0x3881b05e	6.18405e-05
7	0xbcb77947	-0.022396697
8	0x3c9709ca	0.018437285
9	0xbdaa01be	-0.083011135
10	0xb9552724	-0.00020327844
11	0x3cca7999	0.024716185
12	0xbe073622	-0.13204244
13	0xbe5d6c10	-0.21623254
14	0x3d1cf41d	0.038318742
15	0xbc532cd8	-0.01288911

state_encoder.time_encoder.0.bias f4 [16]
0	0xbcc52b6e	-0.02406856
1	0xbd9dd3d2	-0.07706417
2	0xbcf99df2	-0.030470822
3	0xbbf37f62	-0.0074309567
4	0xbce2eb26	-0.027700018
5	0xbce2ba7a	-0.02767681
6	0x3c13f8c5	0.009031479
7	0xbb8096c4	-0.0039242227
8	0x3b8a8fff	0.0042285915
9	0x3d0ee9ce	0.034890942
10	0x3bbfba38	0.0058510564
11	0xbc338a86	-0.0109583195
12	0x3d472a01	0.048624042
13	0x3d9306c6	0.07179026
14	0xbc16996b	-0.009191851
15	0xbc3fc3b7	-0.011704377

state_encoder.wealth_encoder.0.weight f4 [32, 1]
0	0xbd7c68dc	-0.06162344
1	0xbd9c28ec	-0.07624993
2	0x3ce1d413	0.027566945
3	0x3e6e1dc1	0.23253538
4	0x3e0af4e2	0.13569978
5	0x3e07ec00	0.1327362
6	0x3e1c663a	0.15273371
7	0x3d2cf4c7	0.042225625
8	0xbc93cf95	-0.018043319
9	0x3ecdba60	0.40181255
10	0x3e80415c	0.25049865
11	0x3de2d4a9	0.11075718
12	0xbdd59793	-0.10429301
13	0xbd84d793	-0.0648643
14	0x3de144d2	0.109994546
15	0x3e8b5a62	0.27217394
16	0x3c91f40f	0.017816572
17	0x3d0c141f	0.034198876
18	0x3e07f3b3	0.13276558
19	0xbd3b4d7a	-0.045728184
20	0xbd17a36f	-0.037021097
21	0x3d8d7285	0.069066085
22	0x3e323aac	0.17405194
23	0xbd6dfa0b	-0.058099788
24	0x3e7afe99	0.24511184
25	0x3cbc8099	0.023010539
26	0xbda3391a	-0.07969876
27	0xbe1beb3d	-0.15226455
28	0x3de5f4a6	0.112283036
29	0x3d971c43	0.07378437
30	0x3dfc2227	0.123112015
31	0xbd95d1e4	-0.07315424

state_encoder.wealth_encoder.0.bias f4 [32]
0	0xbbc1432f	-0.0058979015
1	0xbbe1579a	-0.006876898
2	0x3b4e7bf7	0.0031506994
3	0x3c36bdd0	0.011153653
4	0x3c3bb70a	0.011457214
5	0x3c18957a	0.009312982
6	0xbbda0ed8	-0.0066546015
7	0x3b4f7075	0.0031652723
8	0xbc90fcdd	-0.0176987
9	0xbc73c55b	-0.014878596
10	0xbbf422f3	-0.0074504553
11	0x3bbf99fd	0.0058472143
12	0xbc1ce3da	-0.009575808
13	0xbc4ada5c	-0.0123811625
14	0xb9a8cd29	-0.00032196313
15	0x3ada1e38	0.0016641086
16	0xba0d0007	-0.0005378727
17	0x3b9f0a91	0.0048535545
18	0xbbd92386	-0.006626549
19	0xb98d6d1a	-0.00026974903
20	0xbba6ed9f	-0.0050942446
21	0x3c6d512a	0.014484683
22	0xba931fdd	-0.0011224706
23	0xbc0504cf	-0.008118822
24	0x3c2eddfe	0.010673044
25	0x3b8ee22e	0.004360459
26	0xbc3d1c94	-0.011542458
27	0xba98f513	-0.0011669717
28	0x3b5c77d8	0.0033640768
29	0x3c16d5cc	0.009206247
30	0x3c3b57e9	0.011434534
31	0xbb407210	-0.0029364862

state_encoder.sentiment_encoder.0.weight f4 [16, 2]
0	0x3d3c844a	0.0460246
1	0x3db36a0f	0.087604634
2	0xbc8d71a1	-0.017266097
3	0x3d8a804d	0.06762753
4	0x4000afa8	2.0107212
5	0x3f833421	1.0250283
6	0xba3e206c	-0.0007252756
7	0xbce29065	-0.027656743
8	0xbc31bf08	-0.010848768
9	0xbc590d7f	-0.013247847
10	0x3cf0a705	0.029376516
11	0x3d9a82a7	0.07544451
12	0xbf1420a5	-0.5786231
13	0xbedcfcca	-0.43161613
14	0x3d84d513	0.06485953
15	0xbe5052f4	-0.20344144
16	0xbdb901e7	-0.09033566
17	0xbd0786d0	-0.03308755
18	0xbd9619a2	-0.07329108
19	0x3d642871	0.05570263
20	0x3fe1b6ba	1.7633889
21	0x3f63efc7	0.89037746
22	0xbbef8c42	-0.007310421
23	0x3e0f500f	0.13995384
24	0x3bc03348	0.005865488
25	0x3e21b425	0.15791376
26	0x3d3e7949	0.046502385
27	0x3e1102c4	0.14161211
28	0x3c2be8fb	0.010492559
29	0xbd45c4eb	-0.0482835
30	0x36b84280	5.491369e-06
31	0x3e3595b7	0.17732893

state_encoder.sentiment_encoder.0.bias f4 [16]
0	0xbb595e53	-0.0033167794
1	0xbc872a93	-0.016499793
2	0x3dc652a2	0.0968373
3	0x3c04a844	0.008096758
4	0xbb6dc15a	-0.0036278577
5	0xbbd785a9	-0.006577213
6	0xbd150704	-0.036383644
7	0x3ca3c561	0.019991579
8	0xbc0a6c61	-0.008448691
9	0xbc517802	-0.01278496
10	0x3db9f1c8	0.09079319
11	0xbc671053	-0.014103013
12	0xbbe0fa93	-0.0068658083
13	0xbc39aace	-0.011332227
14	0x3b4f90d2	0.0031672013
15	0xbc7a9ed2	-0.015296655

state_encoder.fusion.0.weight f4 [64, 64]
0	0xba3d2111	-0.0007214705
1	0x39cd5b56	0.00039168698
2	0xbe06e0e7	-0.13171731
3	0xbb168fbd	-0.0022973858
4	0xbca1cfbb	-0.019752374
5	0xbdae8dff	-0.08523177
6	0x3d945511	0.07242788
7	0x3cfa4e8b	0.03055503
8	0xbce03497	-0.027368827
9	0xbd372e31	-0.044721786
10	0x3bc91907	0.0061370167
11	0xbd527211	-0.051378313
12	0x3d5cf5cb	0.053945344
13	0xbbbe5d2b	-0.0058094463
14	0xbc2dda10	-0.010611072
15	0x3c154a95	0.00911202
16	0xbd9d17dd	-0.07670567
17	0xbd72d55a	-0.0592855
18	0xbdc692f2	-0.09695996
19	0x3c838cb8	0.01605831
20	0xbc6dc445	-0.014512126
21	0xb9af361e	-0.00033418922
22	0xbd488c73	-0.048962068
23	0x3dcb8cc7	0.099389605
24	0xbd4326c9	-0.04764441
25	0xbc941db1	-0.018080564
26	0xbd2f1d25	-0.042752404
27	0x3be4d880	0.0069838166
28	0xbcbd5306	-0.023110878
29	0x3d75b4e4	0.059986964
30	0xbc3ce0a6	-0.01152817
31	0x3c727ad1	0.0147997895
32	0xbd8c32fe	-0.068456635
33	0xbd1bc1ec	-0.038026735
34	0xbd8c2ee4	-0.06844881
35	0xbc2f7fba	-0.010711605
36	0xbdba7c4b	-0.09105738
37	0xbd0f4550	-0.03497821
38	0xbc1a10f8	-0.00940346
39	0x3db90e57	0.09035938
40	0x3d0453ce	0.032306485
41	0xbd8d91f1	-0.06912602
42	0x3d350cae	0.044201545
43	0xbbea4e48	-0.007150445
44	0x3bd83653	0.006598273
45	0x3cc86fbe	0.024467345
46	0xbafefe94	-0.0019454532
47	0xbd510390	-0.051028788
48	0xbdaa330b	-0.08310517
49	0x3d8d17d4	0.068893105
50	0xbd575d71	-0.052579347
51	0x3d8fb52f	0.0701698
52	0x3ce27574	0.027643897
53	0x3cb796e2	0.022410814
54	0xbc1db8df	-0.009626596
55	0x3db8a654	0.090160996
56	0xbc95e1b9	-0.01829611
57	0xbc0482c4	-0.008087818
58	0xbcb45258	-0.02201192
59	0xbd8d54e6	-0.06900959
60	0xbd6fc11a	-0.058533765
61	0xbdd5c9e8	-0.10438901
62	0xbd39c272	-0.045351453
63	0xbc103019	-0.00880053
64	0x3c732e98	0.014842652
65	0x3df9bc0a	0.12194069
66	0xbd0034a7	-0.031300213
67	0x3d9d6129	0.076845475
68	0xbc2e1728	-0.010625638
69	0xbd999795	-0.07499615
70	0xbd408bda	-0.047008373
71	0x3d581282	0.052752025
72	0xbd1bf81c	-0.038078412
73	0x3d340881	0.043953422
74	0xbda093bb	-0.07840677
75	0xbd88fe3d	-0.06689117
76	0x3c8ccbd1	0.017187031
77	0xbc96afd8	-0.018394396
78	0xbc250a48	-0.010073252
79	0xbd5f9b0a	-0.054591216
80	0xbd09eb3c	-0.033671603
81	0x3d11055f	0.035405513
82	0xbc8f4ae8	-0.017491773
83	0xbd93999f	-0.07207035
84	0xbdaf797c	-0.08568093
85	0xbe0922e4	-0.13392216
86	0xbd08d6c5	-0.033407945
87	0x3cc115ef	0.023570029
88	0x3d4f6a9d	0.050638784
89	0xbc562066	-0.013069248
90	0x3cbff505	0.023432264
91	0x3d134d0b	0.035962146
92	0x3d1dbe9e	0.038511865
93	0x3c07dd0e	0.00829245
94	0x3ca4923b	0.02008926
95	0xbd421485	-0.04738285
96	0xbd9cea1b	-0.076618396
97	0xbd5f4121	-0.05450547
98	0xbd379249	-0.044817243
99	0xbd72b9f7	-0.05925938
100	0x3dd11a42	0.102100864
101	0xbc013237	-0.007885507
102	0x3c91a049	0.017776625
103	0x3c198e2b	0.009372274
104	0x3c0ea889	0.008707174
105	0xbd802def	-0.06258761
106	0xbda3e6b0	-0.080029845
107	0x3c71eb05	0.014765506
108	0xbd44fa7f	-0.048090454
109	0xbd6e169c	-0.05812703
110	0x3d9dfa7a	0.0771379
111	0x3d7760cb	0.060395043
112	0xbd83b161	-0.06430317
113	0x3d00ef94	0.03147848
114	0xbd5f512f	-0.054520782
115	0x3d884025	0.066528596
116	0x3c87c0db	0.016571453
117	0x3c3cfeb6	0.011535337
118	0xbded9ea3	-0.11602523
119	0x3d4637b2	0.04839296
120	0x3d877a97	0.06615179
121	0x3d7a7439	0.061145995
122	0x3d3e3b84	0.046443477
123	0xbd971327	-0.073767
124	0xbdc1feaa	-0.094724014
125	0x3c4188c7	0.011812395
126	0x3d64a9c8	0.05582598
127	0x3cd98b54	0.026555695
128	0xbb7842db	-0.0037881646
129	0x3cf41037	0.029792888
130	0xbcf4d604	-0.029887207
131	0x3d93ce55	0.07217089
132	0x3d078911	0.0330897
133	0xbda00482	-0.0781336
134	0xbd8cba25	-0.06871442
135	0x3abd3f6d	0.0014438458
136	0x3d5a40f5	0.053284604
137	0xbd0abc28	-0.033870846
138	0x3cb2dd1c	0.021833949
139	0xbca9bdfe	-0.020720478
140	0xbd8bc17e	-0.06824015
141	0x3d384c38	0.044994563
142	0xbd25f208	-0.040514022
143	0x3d61c166	0.05511608
144	0x3d80e1c3	0.06293061
145	0x3d3e56cb	0.04646949
146	0x3bf1112c	0.0073567834
147	0x3c499069	0.0123024965
148	0x3be6e208	0.007045988
149	0xbcbe3b25	-0.023221562
150	0x3dab914e	0.08377324
151	0xbcc11191	-0.023567947
152	0x3c525b0b	0.012839089
153	0x3e047932	0.12936857
154	0x3d57c878	0.052681416
155	0x3bcfd2e6	0.0063422797
156	0x3dcf5a39	0.101246305
157	0xbd3a40c6	-0.04547193
158	0x3c091867	0.008367634
159	0xbd59b04f	-0.053146657
160	0xbcde4a0c	-0.027134918
161	0xbd59cde9	-0.053174887
162	0x3d2d3bcd	0.04229336
163	0xbdb90940	-0.090349674
164	0xbceff741	-0.029292705
165	0xbd2bfd6d	-0.041989733
166	0x3b15bda6	0.0022848635
167	0x3d246e69	0.040144358
168	0x3daf3cad	0.08556495
169	0xbd8d3d20	-0.06896424
170	0xbd0774bc	-0.03307031
171	0xbd0d3d90	-0.03448254
172	0xbcc48a25	-0.023991654
173	0x3b07977f	0.0020689664
174	0xbdbb2642	-0.091381565
175	0x3c928a8c	0.01788833
176	0x3d342da9	0.043988857
177	0xbc2809a9	-0.010256209
178	0xbbd4c051	-0.0064926525
179	0xbc59339c	-0.013256934
180	0xbce30348	-0.027711526
181	0xbd3ae122	-0.04562486
182	0xbc55ed04	-0.013056997
183	0x3c7be10e	0.015373481
184	0xbdac2525	-0.08405522
185	0x3afa1e0c	0.0019082441
186	0xbe4bdef6	-0.19909272
187	0xbc82afea	-0.015953023
188	0x3b732a1f	0.0037103964
189	0xb994ba70	-0.00028367667
190	0xbdb7e2c9	-0.08978803
191	0xbd789ba1	-0.060695294
192	0x3d4f4f2b	0.05061261
193	0xbdfaee39	-0.122524686
194	0x3dcaf95c	0.09910843
195	0xbcbe25e9	-0.023211436
196	0x3dcf9ef6	0.10137741
197	0x3c44fd4c	0.012023281
198	0xbd5aaacb	-0.053385537
199	0x3bf1d9a2	0.00738068
200	0xbbf2c8fe	-0.007409214
201	0xbd90a8c1	-0.07063437
202	0x3caff224	0.021477766
203	0x3cf8eb20	0.030385554
204	0x3ce13ab6	0.027493816
205	0x3d8ed0b8	0.06973404
206	0xbc9338ac	-0.01797136
207	0x3d452165	0.04812755
208	0x3d010055	0.031494457
209	0xbd14555a	-0.03621421
210	0x3bb2798d	0.005446619
211	0xbd29d8f9	-0.041466687
212	0xbd2643d5	-0.040592033
213	0x3ca3accd	0.019979859
214	0x3d7dbeb2	0.06194944
215	0xb8a60d04	-7.917921e-05
216	0x3c68a32c	0.014199059
217	0xbd79289e	-0.06082975
218	0x3bc9b86b	0.0061560175
219	0xbd248b36	-0.040171824
220	0xbcc563e2	-0.02409548
221	0x3dc9395c	0.098253936
222	0x3b44d4d4	0.0030034082
223	0x3e00473f	0.12527178
224	0xbd50eb57	-0.051005688
225	0xbd9fda85	-0.07805351
226	0x3cbcef2a	0.023063261
227	0x3ca2099e	0.019779976
228	0x3d262518	0.04056272
229	0x3c2ede93	0.010673183
230	0x3aa3ba82	0.0012491497
231	0xbccb6fb0	-0.02483353
232	0x3ccce0e4	0.02500958
233	0xbb6a16fb	-0.0035719264
234	0x3afb5aef	0.0019176881
235	0xbcd86921	-0.026417317
236	0x3da393c1	0.07987166
237	0x3d12e64f	0.03586417
238	0xbd1b77ec	-0.037956163
239	0x3b907679	0.0044086543
240	0x3de94b12	0.11391272
241	0x3d1666d6	0.036719166
242	0x3d8ed94a	0.06975038
243	0xbb9de895	-0.0048189857
244	0x3c756745	0.014978235
245	0x3d887476	0.06662838
246	0xbc95c5cd	-0.018282795
247	0xbe1a7b40	-0.15086079
248	0x3d2334cb	0.03984527
249	0x3c58e661	0.01323852
250	0x3d74f1a5	0.059800763
251	0x3d9d1819	0.07670612
252	0xbd7d721d	-0.061876405
253	0xbd83897b	-0.06422707
254	0xbc7ce520	-0.015435487
255	0x3d8a6bf8	0.06758875

state_encoder.fusion.0.bias f4 [64]
0	0x3c3152ec	0.010822993
1	0x3c2baaf7	0.010477773
2	0xbbf4d5a9	-0.0074717593
3	0xbc618141	-0.013763727
4	0x3b9053be	0.004404514
5	0xbbfd1342	-0.007723243
6	0x3b1a4de9	0.0023544973
7	0xbbeb1eec	-0.007175317
8	0x3be23b6b	0.006904056
9	0xbccf617b	-0.025315037
10	0x3bcdecbd	0.006284325
11	0xbade4fca	-0.0016961035
12	0xbc8f34c2	-0.017481212
13	0x3c01a3ae	0.007912559
14	0xbc09b869	-0.008405783
15	0xbbfebe80	-0.007774174
16	0x3b229140	0.0024805814
17	0x3bd6835d	0.0065464214
18	0x3bae6825	0.0053224736
19	0x3a383ef8	0.0007028426
20	0x3c38dfca	0.011283824
21	0x3c4263e9	0.011864641
22	0xbb54aaac	-0.0032450361
23	0x3c02ceef	0.007983907
24	0xbd7307e6	-0.059333704
25	0xbb040094	-0.0020141946
26	0x3c7134cd	0.014722061
27	0x3b8998e2	0.0041991333
28	0x3ba77d8b	0.0051114014
29	0x3b5ec8fc	0.0033994308
30	0xbc0d294c	-0.008615803
31	0xbb6fa2d9	-0.003656557
32	0x3c1ed0b9	0.009693318
33	0x3c3e2219	0.011604809
34	0x3a110007	0.0005531315
35	0x3bd5b1fe	0.0065214625
36	0x3cbcc736	0.02304421
37	0xbc882215	-0.016617814
38	0xbc505eab	-0.012717883
39	0xbb9e5ebd	-0.004833071
40	0xbb235341	-0.002492145
41	0xbcb49fec	-0.022048913
42	0xbb8da8a3	-0.0043230816
43	0xbc36fff1	-0.01116942
44	0xbc924c3c	-0.017858617
45	0xbae16fc6	-0.0017199449
46	0xbae2d8a7	-0.0017306999
47	0xbb741342	-0.0037242924
48	0x3c0133ca	0.007885883
49	0xbc9868d8	-0.01860468
50	0x3c0f1103	0.008732083
51	0xbc46e7a6	-0.01214019
52	0xbd94fbcc	-0.07274589
53	0x3c334a7d	0.010943052
54	0x3ca90959	0.02063434
55	0x3b94b204	0.0045378227
56	0xbb4462a8	-0.002996603
57	0xbc31805c	-0.010833826
58	0x3c68b557	0.014203391
59	0x3c137d5b	0.009002055
60	0x3c3f086d	0.011659724
61	0x3be35929	0.006938119
62	0xbbd34e49	-0.0064485413
63	0x3b367a60	0.0027843937

shared_layers.0.weight f4 [64, 64]
0	0x3cf83b35	0.03030167
1	0xbc243101	-0.010021449
2	0x3d3dca2b	0.04633538
3	0x3d4691b0	0.048478782
4	0x3bfbe70b	0.0076874546
5	0x3d8b0c18	0.06789416
6	0x3d8f83cf	0.07007562
7	0x3c432838	0.011911444
8	0x3b74dc76	0.003736285
9	0xbac6de01	-0.0015172363
10	0x3d923ea0	0.07140851
11	0x3d79ed3e	0.061017267
12	0xb9094544	-0.00013091142
13	0x3d7c74cf	0.061634835
14	0x3d398ed8	0.045302242
15	0x3daa7707	0.08323484
16	0x3d007d91	0.03136975
17	0xbd91a8b0	-0.07112253
18	0x3d3619c6	0.044458173
19	0xbe0186e0	-0.12649107
20	0xbd338a59	-0.04383311
21	0x3d28bfca	0.04119853
22	0x3cd4cc68	0.025976375
23	0x3d60c348	0.054873735
24	0x3e15be29	0.14623322
25	0x3d9aeb93	0.075644635
26	0xbde43599	-0.111430354
27	0xbd6518b7	-0.055931773
28	0xbd2c3c24	-0.042049542
29	0xbb283a2a	-0.0025669434
30	0x3d32a409	0.043613467
31	0x3d195f0e	0.037444167
32	0xbd46a6fc	-0.048499092
33	0xbcc0f425	-0.023553917
34	0xbafa2d04	-0.0019086902
35	0xbd8c9bca	-0.06865652
36	0xbd923ab3	-0.07140102
37	0x3d777533	0.060414504
38	0x3db80ec4	0.08987191
39	0xbda16ab6	-0.078816816
40	0x3d81bdaa	0.06335004
41	0x3cc23349	0.023706095
42	0xbd2fddde	-0.0429362
43	0xbd829da1	-0.063777216
44	0x3b8f433f	0.00437203
45	0xbcfdd712	-0.030986343
46	0xbd8e8bdb	-0.06960269
47	0xbbe7e278	-0.0070765577
48	0xbcb19a6b	-0.021680078
49	0x3dc33f4c	0.09533557
50	0x3ce0f0d3	0.027458584
51	0xbddd8a72	-0.10817422
52	0x3c531e9f	0.012885719
53	0x3d83e4b2	0.064401045
54	0x3ced2441	0.028947951
55	0x3d0684aa	0.032841362
56	0xbc12f3d6	-0.008969268
57	0xbd786dd2	-0.060651608
58	0x3dd1f9e3	0.1025274
59	0xbd89c068	-0.06726152
60	0xbda86b12	-0.08223547
61	0xbd5f5726	-0.05452647
62	0x3cce8bca	0.025213141
63	0x3c72db0d	0.014822734
64	0x3d009184	0.031388775
65	0xbccbdb3f	-0.024884818
66	0xbd771def	-0.06033128
67	0x3d9d0e95	0.07668797
68	0xbe156765	-0.14590223
69	0xbdeb89d5	-0.11500899
70	0xbc91f1cb	-0.017815491
71	0x3cfcfb34	0.030881502
72	0xbc5105fd	-0.012757775
73	0x3cf6b411	0.03011516
74	0xbd8483bc	-0.06470439
75	0xbe262800	-0.16226196
76	0x3cd978de	0.026546892
77	0xbe1b20bb	-0.15149204
78	0xbea011c8	-0.31263566
79	0xbc66328f	-0.01405014
80	0xbd765d8e	-0.060147814
81	0x3dc8db1e	0.09807418
82	0x3bf304df	0.007416352
83	0xbd7d4163	-0.061829936
84	0x3e639d01	0.22227861
85	0xbe2f278e	-0.17104933
86	0x3db29df2	0.08721532
87	0xbc96b27a	-0.018395651
88	0xbd825381	-0.06363583
89	0x3dd6703a	0.10470624
90	0x3d408d08	0.047009498
91	0xbdc87b29	-0.09789116
92	0xbe3b5140	-0.18292713
93	0x3b6372c2	0.0034705852
94	0x3de93f0d	0.11388979
95	0x3d367393	0.044543814
96	0xbdb25b09	-0.0870877
97	0xbd1f6d7c	-0.03892277
98	0xbd0ac677	-0.033880677
99	0x3d8fc1d9	0.070193954
100	0xbdb06913	-0.08613791
101	0x3d36aaa3	0.044596326
102	0x3dccea77	0.10005658
103	0xbd6c5532	-0.057698436
104	0x3bc0eafd	0.005887388
105	0x3d07183b	0.032982092
106	0x3c8950cc	0.01676216
107	0x3d0f1423	0.034931313
108	0xbd98e6d8	-0.07465905
109	0xbd7f7384	-0.062366024
110	0x3dfad137	0.12246936
111	0x3db4e7a6	0.08833246
112	0xbd04bdc0	-0.032407522
113	0x3ce99619	0.028513955
114	0xbdc0d599	-0.094157405
115	0xbd770b8b	-0.060313743
116	0xbe4ed6ab	-0.20199077
117	0x3dc8d382	0.09805967
118	0xbd5974f2	-0.053090043
119	0xbdced9b8	-0.1010012
120	0x3e45c1e8	0.1931225
121	0x3ca5851c	0.020205073
122	0x3cd210ce	0.025642779
123	0xbb81e029	-0.0039634896
124	0xbd813a63	-0.063099645
125	0xbd0da3ac	-0.034579918
126	0x3e2e0fb4	0.16998178
127	0xbcdead06	-0.027182113
128	0xbdd20c15	-0.10256211
129	0x3d8594a4	0.065224916
130	0x3c55100c	0.013004314
131	0x3dbdf870	0.09275901
132	0x3c3064c3	0.010766211
133	0xbd1ec76c	-0.038764402
134	0xbd694ed7	-0.056959953
135	0x3baf7df7	0.0053555924
136	0x3d646c93	0.055767607
137	0xbd976f47	-0.07394271
138	0xbcf34975	-0.029698113
139	0xbd6d437d	-0.05792569
140	0x3d6a4136	0.057191096
141	0xbccb4348	-0.024812356
142	0xbd1a850e	-0.037724547
143	0x3d7a6f06	0.061141036
144	0xbdd6c1dd	-0.10486195
145	0x3de34d7c	0.11098763
146	0xbd4880e3	-0.04895104
147	0x3d346c35	0.044048507
148	0x3c29adc1	0.010356368
149	0x3d1a0fa6	0.03761258
150	0xbd101584	-0.03517677
151	0x3d19b116	0.037522398
152	0x3db16a94	0.08662906
153	0xbbe5f7eb	-0.0070180795
154	0xbd32bb48	-0.043635637
155	0xbd806f0c	-0.062711805
156	0xbcd65d6c	-0.026167594
157	0x3b8dac75	0.004323537
158	0x3d0953ac	0.03352706
159	0xbd97be8e	-0.07409392
160	0x3d1f5a58	0.038904518
161	0x3c5a80c3	0.013336363
162	0x3cf8c066	0.03036518
163	0x3d3189f6	0.04334446
164	0x3ce0d9bd	0.027447576
165	0x3d49f624	0.049307004
166	0x3cc39c05	0.023878107
167	0xbd8eeffa	-0.06979366
168	0x3d6851ca	0.056718625
169	0xbd141c4d	-0.036159802
170	0xbd8e615a	-0.06952162
171	0xbde903ea	-0.113777
172	0xbde790f7	-0.11306947
173	0xbaeb3ef7	-0.0017947842
174	0xbb635694	-0.0034689056
175	0xbd9dfe9b	-0.07714578
176	0xbd74067f	-0.059576508
177	0x3c7d21d3	0.015449959
178	0xbcba9093	-0.022774016
179	0xbdadc4e8	-0.084848225
180	0xbcaa7514	-0.02080778
181	0x3a6c4ab6	0.00090138183
182	0x3cd37956	0.025814693
183	0xbc1690d4	-0.009189803
184	0x3df804ae	0.121102676
185	0xbdb13159	-0.086519904
186	0xbce0470a	-0.027377624
187	0xbc1c3bd1	-0.009535746
188	0x3d840e88	0.06448084
189	0x3d856540	0.065134525
190	0xbc203c1c	-0.009779956
191	0xbd9e541d	-0.07730887
192	0xbc1510b2	-0.009098219
193	0x3cff5881	0.031170132
194	0x3da8736c	0.0822514
195	0x3c2de1db	0.01061293
196	0xbd4c9cc4	-0.04995419
197	0xbde86cfa	-0.11348911
198	0x3c7588d1	0.014986233
199	0xbd11496a	-0.035470404
200	0xbb5c01b8	-0.003357036
201	0x3dc31d38	0.095270574
202	0xbd320542	-0.043462045
203	0x3cb5a923	0.022175377
204	0x3d87a1c7	0.066226535
205	0xbd3012c9	-0.042986665
206	0x3d850160	0.06494403
207	0xbd668d76	-0.05628725
208	0xbc24af6f	-0.010051592
209	0xbd299d20	-0.04140961
210	0x3d5a97ac	0.0533673
211	0x3e0d47b3	0.13796882
212	0xbd9d89e4	-0.07692316
213	0x3b95106b	0.0045490763
214	0x3d132029	0.035919342
215	0x3d3ebf0b	0.04656891
216	0x3e0dbaf1	0.13840844
217	0xbc133e4b	-0.00898702
218	0xbcf20140	-0.029541612
219	0xbcd82a1e	-0.02638727
220	0x3b4dc546	0.0031398102
221	0x3dbc102e	0.091827735
222	0xbd426c88	-0.047466785
223	0xbc10ffaa	-0.008850018
224	0x3d8f8f90	0.07009804
225	0xbd1a9529	-0.037739906
226	0xbdbf9a49	-0.093555994
227	0x3dc30776	0.095229074
228	0xbe1a9670	-0.1509645
229	0x3df7b36e	0.1209477
230	0x3dac2fed	0.084075786
231	0xbaacddec	-0.0013188696
232	0x3d2f5d28	0.04281345
233	0xbd0e75e6	-0.034780405
234	0x3d57c82d	0.052681137
235	0x3d22fd9b	0.03979264
236	0x3d3c30a4	0.045944825
237	0x3db1f992	0.0869018
238	0x3ba904a4	0.005158024
239	0xbb43c28e	-0.0029870602
240	0xbcb30c50	-0.021856457
241	0xbcdae086	-0.02671839
242	0x3c85fda7	0.016356302
243	0x3d42761c	0.04747592
244	0xbcac5c0e	-0.021039989
245	0xbd11c34a	-0.035586633
246	0xbd0436fe	-0.032279007
247	0x3bbd5bba	0.005778757
248	0xbc81b5fa	-0.015833843
249	0x3d802561	0.062571295
250	0x3d9f7621	0.07786203
251	0xbd2bfe0a	-0.041990317
252	0xbd50fccd	-0.05102234
253	0xbd986200	-0.07440567
254	0xbd173f82	-0.0369258
255	0xbca44a33	-0.020054912

shared_layers.0.bias f4 [64]
0	0xbd040cf4	-0.032238916
1	0xbd8828fc	-0.06648442
2	0xbc3df17f	-0.011593222
3	0xbd83d0f4	-0.06436339
4	0x3bf4847e	0.0074620834
5	0xbcb60d08	-0.02222301
6	0xbcd8addc	-0.02645009
7	0xbc9365be	-0.01799285
8	0xbc7c545d	-0.015400973
9	0x3d1f9c4a	0.03896741
10	0xbc5832fa	-0.0131957475
11	0x3bd7e4b1	0.0065885414
12	0xbc941a53	-0.018078959
13	0x3d58bdcc	0.05291538
14	0x3e343d09	0.17601408
15	0xbd9117d6	-0.070846245
16	0x3c3406d8	0.01098796
17	0xbc72cb80	-0.014819026
18	0x3cd536be	0.02602708
19	0x3d407735	0.046988685
20	0xbc59a5d7	-0.013284168
21	0x3cc70224	0.024293013
22	0xbca6b7ee	-0.020351376
23	0xbbeec554	-0.007286707
24	0x3d33f261	0.043932322
25	0x3d1a2366	0.037631415
26	0xbc14a7ed	-0.00907324
27	0xbcf0722c	-0.029351316
28	0x3c53dd98	0.01293125
29	0xbc8c6ffa	-0.017143238
30	0x3a18a486	0.0005822856
31	0x3c9ae70a	0.018908996
32	0x3c3125b4	0.010812212
33	0xbc8912f8	-0.016732678
34	0x3ca8a52c	0.020586573
35	0x3cb72f5a	0.022361446
36	0x3ca9f328	0.020745829
37	0x3cd49a22	0.025952403
38	0xbc5840d2	-0.013199048
39	0x3ef787d1	0.48345807
40	0x3ab01f7e	0.001343712
41	0xbd3cb61a	-0.046072103
42	0x3d7e25d3	0.06204779
43	0x3bee7bde	0.0072779497
44	0xbd840656	-0.06446521
45	0xbcf6a6ac	-0.030108772
46	0x3ca55045	0.020179877
47	0xbc214885	-0.00984395
48	0x3c3a57e4	0.011373494
49	0x3c84c22e	0.016205873
50	0xbb325891	-0.0027213434
51	0xbc920f97	-0.0178297
52	0xb993eb6e	-0.00028213434
53	0x3c2b9961	0.01047358
54	0x3ccd64b3	0.025072431
55	0x3a09a934	0.00052513485
56	0xbcbc1022	-0.022956911
57	0x3cc6eccc	0.024282835
58	0xbcb823b8	-0.02247797
59	0xbce43e87	-0.027861847
60	0x3d0e1680	0.034689426
61	0x3cdc5de2	0.026900236
62	0x3c60335b	0.013684119
63	0x3c5df7da	0.013547862

goal_head.weight f4 [2, 64]
0	0x3cf4ad24	0.029867716
1	0xbd3b2963	-0.045693766
2	0xbcc60bee	-0.02417561
3	0x3dc69352	0.09696068
4	0xbc1e60c2	-0.009666624
5	0x3d1f86b1	0.03894681
6	0x3d183e2e	0.037168674
7	0xbcb2d97a	-0.021832217
8	0xbb557b94	-0.003257488
9	0xbd26292c	-0.04056661
10	0x3ce7ed3f	0.02831137
11	0xbcff818e	-0.031189706
12	0x3c13720c	0.008999359
13	0xbe081dbb	-0.13292591
14	0xbe85ea02	-0.26155096
15	0x3db41af4	0.087942034
16	0xbc9f1b91	-0.019422324
17	0x3c617925	0.013761793
18	0xbc3d5f0c	-0.0115583055
19	0xbd541ca0	-0.05178511
20	0x3d093ee4	0.033507243
21	0xbd5eea71	-0.0544228
22	0x3d34b409	0.044117007
23	0x3ce1b1b8	0.027550563
24	0xbd1591cb	-0.036515992
25	0xbd8fde22	-0.0702479
26	0xbc043bf5	-0.0080709355
27	0x3def9740	0.116987705
28	0xbd6075ca	-0.054799832
29	0x3d2ae788	0.04172471
30	0xbd01bfdb	-0.03167711
31	0xbc036b15	-0.008021136
32	0xbe3d8fbe	-0.18511865
33	0xbb36ed5d	-0.0027912476
34	0xbccb8fa4	-0.024848767
35	0xbd4713e4	-0.048602954
36	0xbc46e92c	-0.012140553
37	0xbcaebc5a	-0.021330047
38	0x3d4333ae	0.047656707
39	0xbfd1f8bf	-1.6404036
40	0xbce1c4a9	-0.027559595
41	0x3d752363	0.0598482
42	0xbdcac8ea	-0.099016026
43	0xbcdc24b2	-0.026872966
44	0x3de59993	0.112109326
45	0x3d45c492	0.048283167
46	0xbd012053	-0.031524967
47	0x3a50cb1f	0.0007964838
48	0xbc3ed848	-0.011648245
49	0x3c91318c	0.017723821
50	0x3d54baea	0.051936068
51	0x3bb87ebf	0.0056303437
52	0xbd054e75	-0.032545526
53	0xbce99da7	-0.028517557
54	0xbd18ef7a	-0.037337758
55	0x3b748e89	0.0037316403
56	0x3d092196	0.033479296
57	0xbd6b0fe0	-0.057388186
58	0x3d04fa3c	0.032465205
59	0x3debcfc6	0.11514239
60	0xbd40d2ca	-0.047076024
61	0xbcfa929f	-0.030587493
62	0xbc1ec110	-0.009689584
63	0x3c32e14f	0.010917976
64	0xbcf5e60d	-0.030016923
65	0x3d300240	0.042970896
66	0x3cdc8b34	0.026921846
67	0xbdc440d3	-0.09582677
68	0x3bfcb076	0.0077114655
69	0xbd1fbb93	-0.038997244
70	0xbd149fd7	-0.036285248
71	0x3ca319fc	0.019909851
72	0x3b85c85b	0.004082722
73	0x3d2e57f3	0.042564344
74	0xbcf44d25	-0.029821942
75	0x3d01498d	0.031564284
76	0xbc182caa	-0.0092879925
77	0x3e06a42f	0.13148569
78	0x3e839135	0.25696722
79	0xbdb40a7f	-0.087910645
80	0x3c9f2541	0.019426944
81	0xbc5b4e9b	-0.01338544
82	0x3c4b50bd	0.012409386
83	0x3d49700a	0.049179114
84	0xbd1af6d3	-0.037833046
85	0x3d53e25b	0.05172954
86	0xbd2c2bc9	-0.042033944
87	0xbcdd6ee8	-0.027030423
88	0x3d1cae6a	0.03825227
89	0x3d91453e	0.07093285
90	0x3be814a1	0.0070825373
91	0xbdf46e86	-0.11935143
92	0x3d57e8d7	0.052712288
93	0xbd238f81	-0.039931778
94	0x3cff3b50	0.031156212
95	0x3c37901d	0.011203793
96	0x3e3f888c	0.18704432
97	0x3b87eafe	0.0041478863
98	0x3cd56b37	0.0260521
99	0x3d41678a	0.047217883
100	0x3c1908bd	0.009340462
101	0x3ca4b512	0.020105872
102	0xbd4d77c1	-0.050163034
103	0x3fd1a7cf	1.6379336
104	0x3ce28ae3	0.027654117
105	0xbd6f2004	-0.05838014
106	0x3dc7532c	0.09732661
107	0x3cd5473b	0.026034942
108	0xbde522cb	-0.11188277
109	0xbd394416	-0.045230947
110	0x3cf7f4d5	0.030268112
111	0x39d23846	0.00040096248
112	0x3c09bf6f	0.008407458
113	0xbc929116	-0.017891448
114	0xbd500c9e	-0.050793283
115	0xbbee731d	-0.007276906
116	0x3cfbad78	0.030722365
117	0x3ce2e44a	0.027696747
118	0x3d191c47	0.037380483
119	0xbb923b78	-0.0044626556
120	0xbd0cece9	-0.034405623
121	0x3d6804af	0.05664509
122	0xbcf4d5aa	-0.02988704
123	0xbdecb3de	-0.115577444
124	0x3d3c6c7b	0.046001893
125	0x3cfcc8cb	0.030857464
126	0x3c24a4f0	0.01004909
127	0xbc1ed064	-0.009693239

goal_head.bias f4 [2]
0	0xc005b18a	-2.0889611
1	0x4005b18b	2.0889614

portfolio_head.weight f4 [15, 64]
0	0xb86f91f0	-5.7117955e-05
1	0x3c1f68af	0.009729548
2	0x3d17e260	0.037081122
3	0x3d7b0dcc	0.061292455
4	0xbd08dfa9	-0.033416424
5	0xbd2ac8a6	-0.04169526
6	0xbd37c1b4	-0.044862464
7	0x3d45ced8	0.048292965
8	0x3ce0e723	0.027453965
9	0xbd188563	-0.037236582
10	0xbd3fd431	-0.04683322
11	0x3d2f5d90	0.042813838
12	0x3cc8a401	0.024492266
13	0xbd5e807a	-0.054321744
14	0xbcaf104b	-0.021370074
15	0x3dcb7d36	0.099359915
16	0xbda0a231	-0.078434356
17	0x3d590223	0.052980553
18	0xbd871b47	-0.065969996
19	0xbdaf2614	-0.08552185
20	0x3bfeaa54	0.0077717695
21	0xbd33b0c3	-0.043869745
22	0xbcb69842	-0.022289399
23	0x3c377615	0.011197587
24	0x3d459266	0.04823532
25	0xb98e7220	-0.0002716938
26	0x3bb7a6a5	0.0056045824
27	0x3b191f1d	0.0023364492
28	0xbd2fdcd3	-0.042935204
29	0xbd0fe0c2	-0.035126455
30	0xbba542ff	-0.005043387
31	0xbbce0d10	-0.0062881783
32	0x3ccc06c8	0.024905577
33	0x3d2e35ca	0.042531766
34	0xbb5830e7	-0.0032988132
35	0x3ba895d4	0.005144814
36	0xbdc4c97a	-0.09608741
37	0xbba183bb	-0.0049290336
38	0xbda7a9a8	-0.08186656
39	0x3e637b14	0.2221492
40	0x3ab265cc	0.001361066
41	0xbcbacd1e	-0.022802886
42	0xbd224e64	-0.03962554
43	0x3ce688b5	0.028141359
44	0x3cdb98ab	0.026806196
45	0x3c0f8760	0.008760303
46	0x3b90c7fb	0.004418371
47	0x3c801440	0.015634656
48	0x3d4e67e1	0.050392035
49	0x3cf6eecc	0.030143164
50	0xbca652ee	-0.020303216
51	0xbb1fbb62	-0.0024373163
52	0xbb825f41	-0.0039786403
53	0xbca687e2	-0.020328466
54	0xbc04367b	-0.00806963
55	0xbdd64ac1	-0.10463477
56	0x3d38a749	0.04508141
57	0xbc12d7d2	-0.008962588
58	0x3c4b07aa	0.012391964
59	0xbd31dde8	-0.043424517
60	0xbd7bbc4c	-0.06145887
61	0xbb0dfc03	-0.0021665103
62	0x3ce00c03	0.027349478
63	0xbb05c76d	-0.0020413056
64	0x3c08fd08	0.008361109
65	0xbda54683	-0.0807009
66	0xbb3e280a	-0.0029015564
67	0x3e0f9547	0.14021789
68	0x3cc342e0	0.0238356
69	0x39fd863c	0.00048355933
70	0x3dc557d9	0.09635896
71	0x3cf3ec68	0.029775813
72	0xbdad031c	-0.08447859
73	0x3ce5aada	0.02803557
74	0x3d9b94f5	0.07596771
75	0x3cb629dd	0.022236759
76	0xbd83eeb0	-0.064420104
77	0xbd1cf576	-0.038320027
78	0x3e644a4a	0.22293964
79	0xba0af7e4	-0.0005301221
80	0x3d82507e	0.06363009
81	0xbccf0a09	-0.02527334
82	0x3d75aba5	0.059978146
83	0x3d36be3e	0.044615023
84	0x3cfff2ba	0.03124367
85	0x3cc46c76	0.0239775
86	0x3d89337e	0.066992745
87	0xbb3c761c	-0.0028756922
88	0x3bc045ec	0.0058677103
89	0xbb8a29da	-0.004216415
90	0xbda4e12e	-0.08050762
91	0xbd239c8b	-0.039944213
92	0x3ba911f8	0.0051596127
93	0x3d0e4dc4	0.03474213
94	0x3cce6524	0.025194712
95	0xbdd275b9	-0.1027636
96	0x3d29c9dd	0.041452277
97	0xbb2b7631	-0.0026162977
98	0xbcee1c77	-0.029066307
99	0x3d0ccca7	0.03437486
100	0x3dd8e2cb	0.10590132
101	0xbcfc999a	-0.030834962
102	0xbd64b444	-0.055835977
103	0xbddbd410	-0.10733807
104	0x3d221517	0.039570894
105	0xbe5dc2a5	-0.21656282
106	0xbd3c64ee	-0.04599469
107	0xbcb6e094	-0.022323884
108	0x3d963346	0.073339984
109	0xbcd5f4c4	-0.02611769
110	0xbce0af7f	-0.027427433
111	0xbdb34b37	-0.087545805
112	0xbde349ac	-0.11098036
113	0xbd2871d8	-0.041124195
114	0x3cc5779b	0.024104884
115	0xbcec7c4a	-0.02886786
116	0xbd7cc78e	-0.061713748
117	0x3ddaee0f	0.10689937
118	0xbd9dc6f3	-0.07703962
119	0xbcc63480	-0.024194956
120	0xbd28f2c8	-0.04124716
121	0x3d252623	0.040319573
122	0xbd0d95ad	-0.03456657
123	0xbc08a4ea	-0.0083401
124	0x3d0b8c29	0.034069214
125	0xbd6c5312	-0.05769641
126	0x397848ff	0.00023678316
127	0x3cb1a7f8	0.021686539
128	0xbcb19ceb	-0.02168127
129	0x3dc147be	0.09437512
130	0xbcff9818	-0.031200454
131	0xbd5330f1	-0.051560346
132	0xbb65d41e	-0.0035069059
133	0xbdba974f	-0.09110891
134	0xbd890e6a	-0.066922024
135	0xbcc4c598	-0.024020001
136	0xbd96feed	-0.07372842
137	0xbccb0bca	-0.024785895
138	0x3cf4a178	0.02986215
139	0xbd0b93a0	-0.034076333
140	0xbc2c98db	-0.01053449
141	0xbdabf271	-0.083958514
142	0xbe82d0df	-0.2554998
143	0x3c0b1ee7	0.008491254
144	0x3bc25f38	0.005931761
145	0x3b8ea56a	0.004353215
146	0x3cadc6b3	0.021212911
147	0xbdd9bb40	-0.10631418
148	0xbdc6220b	-0.09674462
149	0xbd748429	-0.05969635
150	0xbbbec4b8	-0.0058217905
151	0xbd013666	-0.03154602
152	0xbd9e060a	-0.077159956
153	0xbd404835	-0.046943862
154	0xba918c29	-0.0011104393
155	0x3d53d8dc	0.051720485
156	0xbdd7b1a1	-0.10531927
157	0x3d109ed4	0.03530772
158	0xbd14c175	-0.036317308
159	0x3df79bc4	0.12090257
160	0xba0f7d54	-0.00054736924
161	0xbcff2126	-0.031143736
162	0x3d270552	0.04077656
163	0x3ba36e00	0.0049874783
164	0xbd54b250	-0.051927865
165	0xbaea3421	-0.0017868319
166	0x3d7079d6	0.05870994
167	0xbc3997f4	-0.011327732
168	0xbdfa313b	-0.12216421
169	0x3dcde37f	0.10053157
170	0xbcd94944	-0.026524194
171	0xbd48ed2a	-0.049054302
172	0x3b42076a	0.002960647
173	0xbc9b4bb8	-0.018957004
174	0xbd92f567	-0.07175713
175	0xbbbd443e	-0.0057759574
176	0x3d340a8c	0.04395537
177	0x3dfecf8d	0.12441931
178	0xbcb0eb40	-0.021596551
179	0xbc942562	-0.018084232
180	0xbdbe4589	-0.092906065
181	0x3ca64ca0	0.02030021
182	0x3db8ef85	0.0903006
183	0xbc4c78d0	-0.012479976
184	0x3e181331	0.14851071
185	0xbd07d5bc	-0.033162817
186	0xbc120360	-0.0089119375
187	0x3d8ca2d9	0.06866998
188	0x3cdaeed2	0.026725207
189	0x3da67be2	0.081290975
190	0xbbae351e	-0.0053163907
191	0x3d97ce8a	0.07412441
192	0xbd79133f	-0.06080937
193	0xbd877373	-0.06613817
194	0x3d050a2b	0.0324804
195	0x3d65012c	0.05590932
196	0xbe0fce46	-0.14043531
197	0x3af8d4f6	0.0018984366
198	0xbcd4e182	-0.025986437
199	0x3d39ea4c	0.04538946
200	0xbd043023	-0.03227247
201	0xbd8f07fb	-0.06983944
202	0xbc7665a6	-0.015038883
203	0x3dad2238	0.08453792
204	0xbcbde6ea	-0.023181397
205	0x3c05dd80	0.0081704855
206	0x3e6a32ef	0.22870992
207	0x3dbafcd6	0.09130256
208	0xbc33e620	-0.010980159
209	0xbae53add	-0.0017488856
210	0xbc5027de	-0.012704818
211	0xbd8553ce	-0.06510125
212	0xbc50a25d	-0.012734023
213	0xbc9390af	-0.018013326
214	0xbc5b22e5	-0.013375019
215	0xbdb526ab	-0.08845266
216	0x3e1a386f	0.1506059
217	0xbd1c8f01	-0.038222317
218	0x3cba8824	0.022769995
219	0xbcda6013	-0.02665714
220	0xbc98bc80	-0.018644571
221	0x3c371910	0.011175409
222	0xbc623a73	-0.013807881
223	0x3cf5df54	0.030013718
224	0xbcbceee3	-0.023063129
225	0x3d5c648f	0.053806838
226	0xbd11aad5	-0.03556331
227	0x3c877886	0.016536962
228	0xbd38e930	-0.04514426
229	0x3cbdfee9	0.02319284
230	0xbe108528	-0.14113295
231	0xbe7a9c08	-0.24473584
232	0x3cc2c929	0.023777561
233	0xbdca9d44	-0.09893277
234	0xbcdc5cb6	-0.026899677
235	0x3cc7dee6	0.024398278
236	0x3d9acb97	0.07558363
237	0xbcf6b440	-0.030115247
238	0x3d5f277e	0.054481022
239	0xbd1fa0a3	-0.038971554
240	0xbbdad222	-0.006677882
241	0x3c3b7e94	0.011443753
242	0xbd68ac2a	-0.056804813
243	0x3cc7346b	0.024316987
244	0x3d292ac5	0.041300554
245	0x3c9b2f4c	0.018943451
246	0xbc9e4d11	-0.019323858
247	0xbcc52fc4	-0.024070628
248	0x3d639ed3	0.05557139
249	0x3d490d38	0.049084872
250	0xbd7f3a62	-0.062311538
251	0xbdc40fc6	-0.09573321
252	0x3cc3a407	0.023881925
253	0x3cf09f31	0.029372783
254	0x3c8f5277	0.017495377
255	0xbdae635e	-0.085150465

portfolio_head.bias f4 [15]
0	0x3ecb9645	0.39763084
1	0x3c19bb68	0.00938306
2	0xbf2553fc	-0.64581275
3	0x3ed10640	0.4082508
4	0xbea6f9ef	-0.3261256
5	0xbe9276a5	-0.28606144
6	0xbd957f8e	-0.0729972
7	0xbe4a1035	-0.19732745
8	0xbe25c4bf	-0.16188334
9	0x3f2c4b5e	0.673025
10	0x3f2bda7d	0.6713026
11	0x3e1671db	0.1469187
12	0x3e914c52	0.2837854
13	0xbeb0a7fb	-0.3450316
14	0xbe9c01c5	-0.304701

state_encoder.time_encoder.0.weight f4 [16, 1]
0	0x3f54357c	0.8289411
1	0xbfb35bb8	-1.4012365
2	0xbf4ee79f	-0.80822176
3	0x3f819a90	1.0125294
4	0xbf5b255a	-0.8560387
5	0xbf79346a	-0.973456
6	0xbf3da45f	-0.74078935
7	0xbf45bdbd	-0.7724264
8	0x39841306	0.00025191176
9	0x3f43215e	0.7622279
10	0xbf6f2187	-0.93410534
11	0x3f6350cf	0.8879518
12	0xbf3d0651	-0.73837763
13	0x3f5c370e	0.86021507
14	0x3f1c8a07	0.61148113
15	0x3f5a2d03	0.8522493

state_encoder.time_encoder.0.bias f4 [16]
0	0xbe521cc1	-0.20518781
1	0x3e5275b9	0.2055272
2	0x3eb859b4	0.36005938
3	0xbe781ab6	-0.2422894
4	0x3e2defab	0.16985957
5	0x3e87fd0e	0.26560253
6	0x3f0bf6ac	0.54673266
7	0x3f2445cf	0.6416902
8	0x3a9497b2	0.0011336713
9	0xbe65be5b	-0.22435896
10	0x3eba3d22	0.36374766
11	0xbe4d57ea	-0.20053068
12	0x3efc3fa6	0.4926731
13	0xbe6f9a96	-0.23398814
14	0xbe565195	-0.20929559
15	0xbe646244	-0.2230311

state_encoder.wealth_encoder.0.weight f4 [32, 1]
0	0xbe6db27e	-0.2321262
1	0x3e06c1b3	0.13159828
2	0xbdd510d5	-0.10403601
3	0x3e2e3eae	0.17016098
4	0x3e999c67	0.30002138
5	0xbeb58782	-0.35454947
6	0x3c23d6c0	0.009999931
7	0xbdcc3c86	-0.099724814
8	0xbbefbf9d	-0.0073165433
9	0xbd601cb6	-0.05471488
10	0xbd927acb	-0.07152327
11	0xbcbffbf4	-0.02343557
12	0xbe2d5d97	-0.16930233
13	0x3d836f9c	0.06417772
14	0x3d14713f	0.036240812
15	0x3d9f2ea2	0.077725664
16	0x3c5aad24	0.013346944
17	0x3cd7b20b	0.026330015
18	0xbe5aad5e	-0.21355197
19	0xbdc12c3d	-0.09432266
20	0xbde3e68a	-0.11127956
21	0x3d55cdf5	0.05219837
22	0xbed6c8f0	-0.41950178
23	0x3ca8776b	0.020564755
24	0xbdd66171	-0.10467804
25	0x3c79f4ac	0.015256088
26	0xbc855626	-0.01627643
27	0xbe292f31	-0.16521908
28	0xbc97d63b	-0.01853477
29	0xbedf49d6	-0.4361102
30	0x3e07c379	0.1325816
31	0x3daff2c7	0.08591228

state_encoder.wealth_encoder.0.bias f4 [32]
0	0x3c181a74	0.009283651
1	0xbbcbd149	-0.006220017
2	0xbc3c0226	-0.011475122
3	0x3bdca359	0.0067333397
4	0xbc433107	-0.0119135445
5	0x3bb23092	0.005437919
6	0xbe15150b	-0.14558809
7	0x3b346ab6	0.0027529425
8	0xbb7e448a	-0.0038798177
9	0x3cf19bd3	0.029493248
10	0x3bd8075d	0.0065926746
11	0xbb69949d	-0.003564156
12	0xbe5affb1	-0.21386601
13	0xbc812061	-0.01576251
14	0x3ba3dd4e	0.005000747
15	0xbc6c2c57	-0.014414868
16	0xbc5b0261	-0.013367266
17	0x3c04058a	0.008057961
18	0xbb42e1c3	-0.0029736615
19	0xbe9aaefb	-0.30211625
20	0xbb25f548	-0.00253232
21	0x3994d100	0.00028384477
22	0x3d00efb7	0.03147861
23	0x3b063eae	0.0020484137
24	0x3dae4476	0.08509152
25	0x3c033a91	0.008009569
26	0xbb474f2f	-0.0030412187
27	0xbc009625	-0.007848297
28	0x3dccb984	0.09996322
29	0x3cab53d5	0.020913998
30	0xbc060976	-0.008180967
31	0x3c55c3c7	0.013047165

state_encoder.sentiment_encoder.0.weight f4 [16, 2]
0	0xbe7827f7	-0.24233995
1	0xbe42b8ea	-0.19015852
2	0x3f02bf2b	0.5107295
3	0xbe665d53	-0.22496538
4	0xbf0084d7	-0.502027
5	0x3f37fc35	0.7186921
6	0x3f72345f	0.9461116
7	0xbf03d296	-0.51493204
8	0xbd3f8b2e	-0.04676359
9	0x38e60b4a	0.000109693574
10	0xbefe2c98	-0.49643397
11	0x3df6cb8d	0.12050543
12	0xbe483214	-0.19550353
13	0x3dd9f191	0.10641778
14	0x3ecf0893	0.4043623
15	0x3d7b1e2a	0.061308064
16	0xbf7aedf3	-0.9801933
17	0xbd8bff6e	-0.06835829
18	0xbf8acb4b	-1.084329
19	0x3f5989f4	0.84976125
20	0xbf12a6c4	-0.57285714
21	0x3e77d629	0.2420279
22	0xbf7eb35e	-0.9949244
23	0x3f491d43	0.78560275
24	0xbf87688f	-1.0578784
25	0x3edfedb1	0.43736032
26	0xbe911795	-0.28338304
27	0xbd8c9cbd	-0.06865833
28	0x3e856b22	0.26058298
29	0xbf227f3a	-0.6347538
30	0xbf3939b2	-0.7235366
31	0xbf0cec58	-0.5504813

state_encoder.sentiment_encoder.0.bias f4 [16]
0	0xbb0e2b3a	-0.0021693246
1	0x3de72733	0.112867735
2	0xbd0e9b55	-0.034816105
3	0x3e49bb2a	0.19700304
4	0xbcaf75e8	-0.021418527
5	0xbcab7f10	-0.020934612
6	0x3c1d4f14	0.009601373
7	0x3cd0f4ef	0.025507418
8	0xbe004294	-0.12525398
9	0xbda0dec7	-0.078549914
10	0xbd1ccf57	-0.038283672
11	0xbd925e04	-0.07146838
12	0xbd045ca3	-0.032314908
13	0xbbf0762b	-0.0073383055
14	0x3b6ccea7	0.0036133917
15	0xbd8afcbe	-0.06786488

state_encoder.fusion.0.weight f4 [64, 64]
0	0x3ed9e5cd	0.42558137
1	0xbe9c9a53	-0.3058649
2	0xbf978ae0	-1.1839256
3	0x3e8d77d3	0.2763048
4	0xbf015f7d	-0.5053633
5	0xbf08e94e	-0.53480995
6	0xbf7a78b3	-0.9784042
7	0xbf60681b	-0.8765885
8	0x3e77b766	0.24191055
9	0x3e922068	0.2854035
10	0xbe9402d2	-0.28908402
11	0x3ea8f9a2	0.33002955
12	0xbf8eb96a	-1.1150334
13	0x3efa3ca3	0.48874387
14	0x3e90500d	0.28186074
15	0x3e6b9463	0.23005824
16	0xbef95b6f	-0.4870257
17	0x3ea36c7c	0.31918705
18	0x3e3938bc	0.18088049
19	0xbd961453	-0.07328095
20	0x3e0c3479	0.13691892
21	0xbe03bd0b	-0.12865083
22	0x3e0b3402	0.13594058
23	0x3e02e71b	0.12783472
24	0xbd55f860	-0.052238822
25	0x3b0c8113	0.002143924
26	0x3b32cae1	0.002728157
27	0x3d93004b	0.0717779
28	0x3e19945d	0.14998002
29	0x3e3fa860	0.18716574
30	0xbe1d5b28	-0.15366805
31	0x3db60037	0.0888676
32	0xbcb05918	-0.021526858
33	0x3d18e862	0.037330993
34	0xbd701612	-0.058614798
35	0x3d74dd7f	0.059781548
36	0xbdc3493e	-0.09535454
37	0x3e02bdbb	0.12767689
38	0xbdce6b81	-0.100790985
39	0xbceb2a7f	-0.028706787
40	0xbd3aecc5	-0.045635957
41	0xbe4d8477	-0.20070063
42	0x3d919cd5	0.071099915
43	0x3dc7775f	0.09739565
44	0xbec20543	-0.3789464
45	0xbbf52c4e	-0.007482088
46	0xbe5965ab	-0.2123019
47	0x3da5bbcd	0.08092461
48	0x3d003123	0.03129686
49	0xbb4f20dd	-0.0031605281
50	0xbea528f1	-0.32257798
51	0xbe80fef0	-0.25194502
52	0xbe273418	-0.16328466
53	0x3d81f903	0.06346323
54	0xbe6ef239	-0.23334588
55	0xbd765329	-0.0601379
56	0x3ee51e71	0.44749787
57	0x3efa6ad4	0.48909628
58	0xbe5e2227	-0.21692716
59	0x3e9994dd	0.29996386
60	0x3e6427e0	0.22280836
61	0xbe9b0c43	-0.30282792
62	0xbc73a313	-0.014870423
63	0x3e007718	0.1254543
64	0x3eaf1c5a	0.34201318
65	0xbf0f54c5	-0.55988723
66	0x3e10dde5	0.14147146
67	0x3f066ada	0.5250679
68	0xbe25d9be	-0.16196343
69	0xbe6fbd5e	-0.23412082
70	0x3e82be13	0.2553564
71	0x3e8163fa	0.2527159
72	0xbbd94a0c	-0.0066311415
73	0x3cd915c2	0.026499633
74	0xbdeecc58	-0.11660069
75	0xbdb4dbfc	-0.08831021
76	0x3e9297bb	0.28631386
77	0x3e37c400	0.17945862
78	0xbe0c407a	-0.13696471
79	0x3e05fb72	0.130842
80	0xbe1bb617	-0.1520618
81	0xbeedd2dc	-0.46449935
82	0x3e19bc8f	0.15013336
83	0xbf2b610f	-0.66944975
84	0xbe4c2974	-0.19937688
85	0xbe42869f	-0.18996666
86	0xbf750ef4	-0.9572594
87	0xbf0f28db	-0.55921715
88	0xbc2b429f	-0.010452895
89	0x3cc42752	0.02394453
90	0x3f13c571	0.57723147
91	0xbd561612	-0.05226714
92	0xbf848a9c	-1.03548
93	0xbf3485b4	-0.70516515
94	0x3f1e0b62	0.6173612
95	0xbe9602b3	-0.29298934
96	0xbd03d067	-0.03218117
97	0xbe41d319	-0.18928184
98	0x3dd2b661	0.10288692
99	0xbf83e41b	-1.0303987
100	0x3e8d83c5	0.27639595
101	0xbf299e84	-0.662575
102	0x3f26e434	0.6519196
103	0xbec8bb6b	-0.3920549
104	0x3f796774	0.9742348
105	0xbe4e7bdf	-0.2016444
106	0xbef97d7d	-0.48728552
107	0xbe942275	-0.2893254
108	0x3f17b083	0.5925371
109	0x3f2da904	0.6783602
110	0xbf018069	-0.50586563
111	0x3f052f74	0.5202553
112	0x3d938af9	0.07204241
113	0x3f538c85	0.8263629
114	0xbf0356da	-0.513044
115	0x3f27b24d	0.6550644
116	0xbea40f07	-0.32042715
117	0x3cb1cffe	0.021705624
118	0x3ea9cc0f	0.33163497
119	0x3eefdc70	0.46847868
120	0xbeb0ef18	-0.34557414
121	0xbeced46d	-0.40396443
122	0xbebd070d	-0.36919442
123	0xbedd2eb5	-0.43199697
124	0x3ec6c9e8	0.38825917
125	0x3ee7c13b	0.4526461
126	0xbe9e34c6	-0.30899638
127	0xbe473d1f	-0.1945691
128	0x3e88833d	0.26662627
129	0xbd402f57	-0.046920147
130	0xbf9345cd	-1.1505677
131	0x3ec1e635	0.37870947
132	0xbe97b01b	-0.29626545
133	0xbeb50a9b	-0.35359654
134	0xc01679e8	-2.3511906
135	0xc06ff388	-3.749239
136	0xbe439711	-0.19100596
137	0x3f110ac9	0.5665708
138	0xbf0d3c22	-0.5516988
139	0x3e9f41d7	0.3110492
140	0xc01556ec	-2.3334303
141	0x3ec6a422	0.38797098
142	0x3e973550	0.29532862
143	0x3edeef73	0.4354206
144	0xbeec1475	-0.46109357
145	0xbd9408e0	-0.07228255
146	0xbdc49bbd	-0.09600017
147	0xbd7fc809	-0.062446628
148	0x3d9e6bf1	0.07735432
149	0x3ea6aa49	0.32551792
150	0x3efb14be	0.49039263
151	0xbd178419	-0.036991213
152	0x3cee75cb	0.029108902
153	0x3d053263	0.032518756
154	0x3dcd1caf	0.100152366
155	0x3d9bd238	0.076084554
156	0x3f44d48e	0.7688683
157	0x3d59a8f5	0.053139646
158	0xbe248a1e	-0.16068313
159	0xbd13db8a	-0.03609804
160	0xbd5c1e09	-0.05373958
161	0xbe5b2407	-0.21400462
162	0x3ded4230	0.1158489
163	0x3e9ffb63	0.3124648
164	0x3c2f86c8	0.010713287
165	0x3def9044	0.11697438
166	0xbe16b702	-0.1471825
167	0x3efc101b	0.49231037
168	0xbf109c60	-0.5648861
169	0xbd382e2b	-0.044965904
170	0xbde233ad	-0.110450126
171	0xbed140f7	-0.40869877
172	0xbe997359	-0.29970816
173	0x3e170d07	0.14751063
174	0xbd46c451	-0.048527066
175	0xbee2d684	-0.44304287
176	0xbe3c4768	-0.18386614
177	0xbf27008f	-0.6523523
178	0x3d2f151d	0.042744745
179	0xbf0d2fbc	-0.5515096
180	0xbde96e6a	-0.11398013
181	0xbeb8837c	-0.36037815
182	0x3d9b2e21	0.07577158
183	0x3e4a5157	0.19757591
184	0x3f0407f8	0.5157466
185	0x3f02e1ad	0.51125604
186	0xbd1d305f	-0.03837621
187	0x3e274f12	0.16338757
188	0xbd886608	-0.06660086
189	0xbd69274f	-0.056922253
190	0xbaca3180	-0.0015426129
191	0x3e2be21a	0.1678547
192	0xbd55d294	-0.052202776
193	0xbe86dfdf	-0.26342675
194	0x3f7a44ae	0.97761047
195	0xbef06e30	-0.46959066
196	0x3e497e77	0.19677149
197	0x3ee3fa04	0.44526684
198	0x401a9d63	2.4158561
199	0x40808f1f	4.017471
200	0xbe47ac63	-0.19499354
201	0xbed635e4	-0.4183799
202	0x3f553687	0.8328633
203	0xbe35ced2	-0.17754677
204	0x4006f52c	2.108714
205	0xbf2dc80f	-0.6788339
206	0xbeb8cc04	-0.36093152
207	0xbf223f9a	-0.633783
208	0xbe8fd0ec	-0.28089082
209	0xbd852014	-0.06500259
210	0xbe984846	-0.2974264
211	0x3d45e9b4	0.04831858
212	0xbe53f7fa	-0.20700064
213	0x3c2a5a56	0.010397514
214	0xbedcb6cd	-0.43108216
215	0xbe85463a	-0.2603014
216	0x3e576ecc	0.2103836
217	0xbdb0b31b	-0.08627912
218	0x3ed6b2da	0.41933328
219	0x3df625b8	0.12018913
220	0xbf0e2341	-0.55522543
221	0x3e37a6da	0.17934743
222	0x3ec008fd	0.37506858
223	0xbbe41aea	-0.006961216
224	0xbe6b3508	-0.22969449
225	0xbe0390c1	-0.12848188
226	0xbe179968	-0.14804614
227	0xbf65ef58	-0.89818335
228	0xbd6f965a	-0.058492996
229	0x3af19712	0.0018431863
230	0x3e3a9b76	0.18223366
231	0x3d043ac7	0.032282617
232	0x3f09e867	0.5387024
233	0xbb815b66	-0.003947663
234	0xbccd4627	-0.025057865
235	0xbe2458c4	-0.16049486
236	0x3ed64e55	0.41856638
237	0x3e73cdbf	0.23808955
238	0xbdb130e7	-0.086519055
239	0xbc201d90	-0.009772673
240	0x3e95e323	0.29274854
241	0x3f297cb2	0.66205895
242	0x3d93897c	0.072039574
243	0x3e6a6bb5	0.2289265
244	0x3d1d1873	0.038353395
245	0x3da06b76	0.078329965
246	0x3e208a0d	0.15677662
247	0x3d6aa7d9	0.05728898
248	0xbe8f08bc	-0.2793635
249	0xbea65e90	-0.3249402
250	0xbd803a62	-0.06261136
251	0x3e00fb32	0.12595823
252	0xbd88821b	-0.06665441
253	0x3e8090ed	0.2511057
254	0xbdb83743	-0.08994915
255	0xbe05fc53	-0.13084535

state_encoder.fusion.0.bias f4 [64]
0	0xbe17b94c	-0.14816779
1	0x3f4727f6	0.7779535
2	0xbf422798	-0.75841665
3	0x3f681090	0.9065027
4	0x3e7c93bf	0.24665736
5	0xbf246074	-0.64209676
6	0xbe30f451	-0.172807
7	0x3ecee101	0.4040604
8	0x3e734eae	0.23760483
9	0xbe6f3cb5	-0.23363002
10	0x3efe3ce9	0.49655846
11	0xbf10f422	-0.5662252
12	0xbe470e69	-0.19439091
13	0xbeb1ddf2	-0.34739643
14	0x3eb48741	0.3525944
15	0xbf14a70f	-0.5806741
16	0x3e871b4b	0.2638801
17	0x3e53368c	0.20626277
18	0xbe99a5ce	-0.3000931
19	0x3ebf31d6	0.3734271
20	0xbe99e7df	-0.30059716
21	0xbebf4254	-0.37355292
22	0x3f0cfe98	0.5507598
23	0x3f0bb7f3	0.5457756
24	0xbea37559	-0.31925467
25	0x3ef76fac	0.48327386
26	0x3e407a4d	0.18796654
27	0x3e1e9b0f	0.15488838
28	0xbe8ce6b6	-0.27519768
29	0x3ed582f3	0.4170147
30	0xbea17b47	-0.31539366
31	0x3e63ef37	0.22259222
32	0x3f36ed99	0.71456295
33	0xbed75842	-0.42059523
34	0x3f08bc25	0.53412086
35	0xbe82b0d8	-0.25525546
36	0x3f1f0640	0.6211891
37	0xbea0715a	-0.3133648
38	0xbf11e988	-0.56996965
39	0xbe83326a	-0.256244
40	0xbd9e4642	-0.07728244
41	0xbf087336	-0.533008
42	0x3e97a74e	0.2961983
43	0xbeb4894f	-0.35261008
44	0x3eb9057f	0.36137006
45	0xbec49317	-0.3839347
46	0xbf013483	-0.5047075
47	0xbe8bb332	-0.27285153
48	0x3ed5e4e9	0.41776207
49	0xbf104529	-0.5635553
50	0xbce7f323	-0.028314179
51	0xbeec007e	-0.46094126
52	0x3ec2937d	0.3800315
53	0x3ea85a61	0.32881454
54	0xbf2eea77	-0.68326515
55	0xbe8290da	-0.25501138
56	0x3f40ad86	0.75264776
57	0x3de5cbf3	0.11220541
58	0xbf0f0800	-0.5587158
59	0x3e75cd35	0.24004062
60	0x3f4cfeb6	0.8007616
61	0x3f345639	0.70444065
62	0xbe83b99a	-0.2572754
63	0x3f0b9ad5	0.5453313

value_layers.0.weight f4 [64, 64]
0	0x3eca1923	0.39472303
1	0xbe8e89e6	-0.27839583
2	0x400153f8	2.02075
3	0xc00d3e8c	-2.2069426
4	0xbe142f29	-0.14471115
5	0x3f413efc	0.7548673
6	0x3d99c103	0.07507517
7	0xbef63adb	-0.48091778
8	0xbf864d12	-1.049227
9	0x3eced8ca	0.40399772
10	0xbf3c693f	-0.7359809
11	0x3f8d9183	1.1060032
12	0x3edb5b3e	0.4284305
13	0x3f1b570c	0.606797
14	0xbf8f3746	-1.1188743
15	0x3ebc88af	0.3682303
16	0xbed03dcf	-0.40672156
17	0xbe400c0d	-0.18754597
18	0x3d9787bf	0.073989384
19	0xbe2ed945	-0.17075069
20	0x3f14c594	0.5811398
21	0x3da959bc	0.082690686
22	0xbe4a64b8	-0.19764984
23	0xbdabd765	-0.083906926
24	0x3eff3d00	0.49851227
25	0xbf8295fc	-1.0202022
26	0xbf19ea09	-0.60122734
27	0xbf213072	-0.62964547
28	0x3e09f6d7	0.13473068
29	0xbf169a76	-0.5882944
30	0x3ee7bdb8	0.4526193
31	0x3e89ac4e	0.2688927
32	0xbfbe9fd3	-1.4892524
33	0x3ee73243	0.45155534
34	0xbea160d1	-0.31519178
35	0x3f2a1c2c	0.66449237
36	0xbfd9e7c0	-1.702385
37	0x3e9c7ad6	0.30562466
38	0x3e936906	0.28791064
39	0x3f03648c	0.513253
40	0x3d6acf8a	0.05732683
41	0x3ef97e0d	0.48728982
42	0xbf4422d6	-0.76615655
43	0x3ea306a7	0.31841013
44	0xbfc09761	-1.5046197
45	0x3fbfec84	1.4994054
46	0x3eb5d033	0.35510406
47	0x3efac70b	0.48979983
48	0xbf0b2ce0	-0.5436535
49	0x3f16d530	0.5891905
50	0xbe4fc150	-0.20288587
51	0x3ebb4c84	0.36581814
52	0xbec301ca	-0.38087302
53	0xbf2a4758	-0.6651511
54	0x3ead4c8d	0.33847466
55	0x3eb9d1aa	0.36292773
56	0xbfe612c1	-1.7974473
57	0xbed7edb6	-0.42173547
58	0x3f7d33db	0.9890725
59	0xbd8b4226	-0.06799726
60	0xbfe724e8	-1.8058138
61	0xbfcb2910	-1.5871906
62	0x3ef6f874	0.4823643
63	0xbed3e33b	-0.413843
64	0xbe5cb703	-0.21554188
65	0x3ef6d466	0.48208922
66	0xbf9d78ec	-1.2302527
67	0x3fac1f53	1.3447059
68	0xbe3b2623	-0.18276267
69	0xbf64e801	-0.8941651
70	0xbebd6a45	-0.3699514
71	0x3ea838f2	0.32855946
72	0x3f0076bf	0.5018119
73	0xbeb61034	-0.35559237
74	0x3f11eb17	0.56999344
75	0xbf2a4433	-0.66510314
76	0xbee6e14d	-0.45093766
77	0xbf239d45	-0.6391185
78	0x3effcf56	0.49962872
79	0xbeca01c0	-0.3945446
80	0x3eabef92	0.33581215
81	0x3f12eb60	0.57390404
82	0x3ddaacfd	0.10677526
83	0x3ede3a45	0.4340383
84	0xbeb705d8	-0.35746646
85	0xbe3a2f0f	-0.18182014
86	0x3f63934d	0.8889664
87	0x3d0580f6	0.03259369
88	0xbf433c56	-0.7626394
89	0x3f32151c	0.6956346
90	0x3d735ffa	0.059417702
91	0xbc8a227f	-0.016862152
92	0xbd642d99	-0.055707548
93	0x3ee37272	0.44423252
94	0xbef18821	-0.4717417
95	0xbe5024f3	-0.20326595
96	0x3fb515ba	1.4147255
97	0xbc385f23	-0.011253151
98	0x3f852fb2	1.040518
99	0xbf0ac2a0	-0.54203224
100	0x3f51a4e2	0.81892216
101	0xbe3a84c2	-0.18214706
102	0xbeab97e0	-0.3351431
103	0xbe0a75b0	-0.13521457
104	0x3de86de2	0.113490835
105	0xbf0263e4	-0.5093367
106	0x3ee2a9f3	0.44270286
107	0xbf16351d	-0.58674794
108	0x3f88c29f	1.0684394
109	0xbed3b458	-0.4134853
110	0xbe610a29	-0.21976532
111	0x3d3f3c1b	0.04668818
112	0x3c067a56	0.008207878
113	0xbe882bb7	-0.26595852
114	0xbed7dece	-0.42162174
115	0xbe1c0c8f	-0.15239166
116	0x3e947f3a	0.29003316
117	0x3f4c259b	0.7974488
118	0xbf5dba3d	-0.866123
119	0xbeae2b27	-0.34017298
120	0x3f906762	1.128155
121	0x3e89621b	0.2683266
122	0xbf7aad82	-0.97921
123	0x3ee4428c	0.4458202
124	0x3f945b15	1.1590296
125	0x3f8d53f8	1.104125
126	0xbf3524d4	-0.7075932
127	0x3f0ad68c	0.5423362
128	0xbe6d10ac	-0.23150891
129	0x3ee1e697	0.4412124
130	0xbe63dc4b	-0.22252004
131	0x3cc016bd	0.023448342
132	0xbdc3fe73	-0.09570017
133	0xbe7e1fc7	-0.2481681
134	0xbcedc2ee	-0.029023614
135	0x3ef432a9	0.476949
136	0x3ceb269f	0.02870494
137	0xbc82c167	-0.015961362
138	0x3ec553be	0.38540453
139	0xbe4e68dd	-0.2015719
140	0xbe9de247	-0.30836698
141	0xbead2ceb	-0.33823332
142	0xbe08cdba	-0.13359728
143	0xbf07022e	-0.527377
144	0x3f03908f	0.51392454
145	0x3cb812e6	0.022469949
146	0xbe3adc7f	-0.18248175
147	0x3ebe9331	0.37221673
148	0xbe69858a	-0.22804847
149	0xbe12f831	-0.1435249
150	0x3f829775	1.0202471
151	0xbd89e2a1	-0.06732679
152	0xbe1fc2b2	-0.15601614
153	0x3e9b4e75	0.30333295
154	0x3a347c2a	0.0006884957
155	0xbdfcbf79	-0.12341208
156	0xbed0e407	-0.4079897
157	0xbeb08e02	-0.34483343
158	0xbe87505f	-0.26428506
159	0x3e3be90b	0.18350618
160	0x3e316b34	0.17326051
161	0x3b275735	0.0025534157
162	0x3f019d19	0.50630337
163	0xbe7f0efc	-0.2490806
164	0x3da81cde	0.08208631
165	0xbda65842	-0.081223026
166	0xbee643fd	-0.44973746
167	0xbf287661	-0.6580563
168	0x3d4d97c1	0.050193552
169	0xbf3f784f	-0.7479295
170	0x3e27343d	0.16328521
171	0xbebf4008	-0.3735354
172	0x3cdec0a2	0.027191464
173	0xbe247eb0	-0.16063952
174	0xbf10a8ef	-0.5650777
175	0x3ba7f1bc	0.0051252525
176	0x3eb4fe26	0.3535015
177	0xbf475ade	-0.7787303
178	0x3e66ed7a	0.22551528
179	0xbf06f586	-0.5271839
180	0x3d3cf06e	0.04612773
181	0x3e29d593	0.16585378
182	0xbf3055fe	-0.68881214
183	0x3db598bc	0.088670224
184	0x3e88776c	0.26653612
185	0x3df734c7	0.12070613
186	0xbe9b47ca	-0.30328208
187	0x3e817b03	0.25289163
188	0x3e17e311	0.14832713
189	0x3eb293fa	0.34878522
190	0xbd95c7b3	-0.0731348
191	0x3ee9648e	0.4558453
192	0x3e8224a1	0.2541857
193	0x3e5ea638	0.21743095
194	0x3dc617b7	0.09672492
195	0x3e3d6b65	0.18497999
196	0x4001c919	2.027899
197	0xbdc7f7e8	-0.09764081
198	0x3f16ecf7	0.5895533
199	0x3e133967	0.14377366
200	0xbf145f20	-0.5795765
201	0x3da886ae	0.08228813
202	0xbe192c69	-0.14958347
203	0x3e606026	0.21911678
204	0x3eae5e08	0.34056115
205	0xbdd6910c	-0.10476884
206	0xbf355f1d	-0.70848256
207	0xbf067721	-0.52525526
208	0xbe9860c9	-0.2976134
209	0xbcac87b7	-0.021060808
210	0x3e2d3025	0.16912897
211	0xbed8de89	-0.4235728
212	0x3e2f50e2	0.17120698
213	0xbf82d5bc	-1.0221477
214	0x3e22342b	0.15840213
215	0x3f5d005d	0.8632868
216	0x3e92fe68	0.28709722
217	0xbe46b15f	-0.19403599
218	0xbd729168	-0.0592207
219	0xbead879c	-0.33892524
220	0xbfd38521	-1.6525003
221	0xbedcd9a6	-0.43134803
222	0x3deb1078	0.114777505
223	0x3f910bff	1.1331786
224	0x3e91bbc2	0.2846356
225	0xbf80051c	-1.0001559
226	0xbd8ad66c	-0.06779179
227	0x3dca6196	0.09881894
228	0x3c938768	0.018008903
229	0xbffeec8b	-1.9915937
230	0xbf9096bd	-1.1296002
231	0xbfd64da7	-1.6742448
232	0xbf96a3c2	-1.1768725
233	0x3d4645ab	0.048406284
234	0x40042b61	2.0651476
235	0x3e6f2b1f	0.23356293
236	0xbe8d19a9	-0.2755864
237	0x3e341af3	0.17588405
238	0xbf4075ea	-0.7517992
239	0xbfac0905	-1.3440253
240	0x3f8d8fca	1.1059506
241	0xbf41f7e1	-0.7576886
242	0x3f19c99e	0.6007327
243	0xbf6b398b	-0.9188468
244	0x3fa84df3	1.3148788
245	0xbdd97bb3	-0.10619297
246	0xbb62dfb4	-0.00346182
247	0xbf85a0f8	-1.0439749
248	0xbd213ea1	-0.03936637
249	0xbef1ade1	-0.47202972
250	0xbdf0fbd9	-0.11766786
251	0x3e4f289f	0.2023034
252	0x3d468bbb	0.0484731
253	0x3ce4e62f	0.027941791
254	0x3e83fbcd	0.25778046
255	0x3eacde93	0.3376356
