data/results/gbwm_8goals_bs4800_lr0.01_sim/checkpoints/checkpoint_0000.pth (torch, 198251 bytes, 39 tensors)

shared_backbone.0.weight f4 [64, 2]
000000 28 1f ed 3e 94 63 25 3e b9 45 02 be 55 b5 18 bd
       0.46312833 0.16151267 -0.1272191 -0.037282307
000010 8c 90 dd bd 53 04 1d 3d 26 79 a0 3d d2 d2 62 3e
       -0.10818586 0.038334202 0.07835607 0.22150734
000020 26 de e9 3d 77 0c 8c bb 34 f8 57 be ff a6 bb be
       0.114193246 -0.004273947 -0.21090776 -0.36650845
000030 3c e0 43 3d de 2a ee bd e1 73 73 3d af 75 f8 bd
       0.04782127 -0.1162927 0.059436683 -0.12131821
000040 8a 3e 8c bd 9a 3d 3d bd ac eb fa bc 2f f0 4b 3d
       -0.06847866 -0.046201326 -0.030629955 0.049789604
000050 69 84 06 bd d6 49 98 bd 84 41 82 bd f3 e9 89 bc
       -0.03284112 -0.07435958 -0.06360152 -0.016835188
000060 99 1a b9 bc 37 b0 f3 bb f2 4b a0 3d 6d b4 ec bd
       -0.02259569 -0.007436778 0.078269854 -0.11557851
000070 95 a8 84 be f8 ef 02 be 01 e2 79 bc 54 57 af be
       -0.25909868 -0.12786853 -0.015251637 -0.34246314
000080 96 83 05 3e fd 97 45 3d 16 57 f4 bd 0c 71 23 be
       0.13038477 0.04824065 -0.11930673 -0.15961093
000090 a3 ae 19 be 7c f4 92 3e 92 f9 8b be 4b 79 a6 3d
       -0.15008025 0.28702152 -0.27338845 0.081286035
0000a0 b2 1a 09 3e ef 0c cb be cf 13 b5 bd e2 c3 93 be
       0.1338909 -0.39658305 -0.08841669 -0.28860384
0000b0 e5 93 61 be 6f e8 8f bd 18 76 04 be 22 25 c8 bd
       -0.22029074 -0.07026755 -0.12935674 -0.097727075
0000c0 95 a1 99 be cb e3 9b 3e 9c c2 aa be fc 02 bb bd
       -0.3000609 0.3044723 -0.333516 -0.091314286
0000d0 e9 09 d3 bd 12 db 3b 3f 0d 59 3f bc 43 cd 42 be
       -0.103046246 0.7338115 -0.011678946 -0.19023614
0000e0 19 39 23 be 66 33 b8 bc c8 e0 b1 be 87 ba 1c 3c
       -0.1593975 -0.022485446 -0.34741807 0.009565956
0000f0 19 2e c4 3e 5d 59 39 3d e0 0a 52 be 76 f7 53 be
       0.3831642 0.04525124 -0.20511961 -0.20699868
000100 6f 61 81 be ac 56 a6 3d 20 f9 f6 3b 70 ae 4f 3d
       -0.25269648 0.08122 0.0075370222 0.050703466
000110 54 f8 34 bd 83 51 36 bd 14 73 29 3e 35 3f 22 bd
       -0.044182137 -0.04451133 0.16547805 -0.03961106
000120 0e 43 3f 3d 16 d0 a6 bd 52 8e 99 be d6 74 4b 3e
       0.046694808 -0.08145158 -0.29991394 0.19868788
000130 c8 3f 81 bd 94 13 30 3d 3d cf 23 bd 85 d0 2c bc
       -0.063109934 0.04298742 -0.03999256 -0.010547762
000140 10 e9 c0 ba 5c d1 12 be d2 c6 04 3e a3 62 11 bf
       -0.0014717896 -0.14337677 0.12966469 -0.5679113
000150 d9 16 56 3e 3f 3a 94 be 1d ad 4e be 41 1c 46 be
       0.20907153 -0.28950688 -0.20183225 -0.19346716
000160 3f 01 d7 37 17 77 8d 3d 34 76 f7 bd b4 76 85 3e
       2.5630578e-05 0.0690748 -0.12083092 0.26067126
000170 95 d1 78 bd 4a ca 04 3e d3 81 8c be 9e d5 ba bd
       -0.060746748 0.12967792 -0.27442798 -0.091227755
000180 6d 52 22 be 8b b6 2e bd 29 ca f9 3d 4b ea c3 be
       -0.15851755 -0.042654555 0.12196762 -0.3826469
000190 e6 f8 a3 3d 0f 89 58 bc d0 07 55 bd 67 04 46 3b
       0.08006458 -0.013216271 -0.052009404 0.0030215026
0001a0 e8 ea d1 bc ef 25 e9 bd 43 a7 15 bb 41 31 f0 bd
       -0.025624707 -0.113841884 -0.0022835291 -0.117281444
0001b0 45 c0 9f bd 01 3f 74 bd 29 f7 82 be 5f c3 79 3d
       -0.078003444 -0.059630398 -0.25579193 0.060977336
0001c0 9a 0b 9c 3e 65 d3 66 bc 15 05 4e be 6a 69 ee bc
       0.304776 -0.014088486 -0.20119126 -0.029103
0001d0 a9 d8 4c 3d d9 f1 13 be e5 29 ec bc ee 86 86 be
       0.05001131 -0.14447726 -0.02882857 -0.26274818
0001e0 07 6a aa be 76 5e 88 3d e8 8c 72 be 81 bf 23 be
       -0.33284017 0.06658642 -0.23686564 -0.15991022
0001f0 c1 61 06 bd 5b b7 2f be 4b 62 1e bc d8 8f 81 be
       -0.03280807 -0.17159788 -0.00966699 -0.25305057

shared_backbone.0.bias f4 [64]
000000 be 54 60 bc 00 00 00 00 38 1e 13 bc 69 8b 44 be
       -0.013692079 0.0 -0.008979373 -0.19193806
000010 6d 2d 13 be 00 00 00 00 54 7e c7 bd 3f 9c 5d bd
       -0.14372797 0.0 -0.09740892 -0.054104086
000020 00 00 00 00 6a fb 75 bd 00 00 00 00 74 28 83 bb
       0.0 -0.06005422 0.0 -0.004002625
000030 32 00 98 bd cc 0d 94 bd 00 00 00 00 00 00 00 00
       -0.07421912 -0.07229194 0.0 0.0
000040 4e 9d a4 bc 00 00 00 00 17 01 e1 bc 37 fa 75 bd
       -0.02009454 0.0 -0.02746634 -0.060053077
000050 2a 94 c5 3c 00 00 00 00 bd 15 e4 3c 00 00 00 00
       0.024118502 0.0 0.027842397 0.0
000060 ff ae 9d bd 00 00 00 00 4d cc 2a be c8 5d e5 bd
       -0.076993935 0.0 -0.16679497 -0.11199528
000070 00 00 00 00 f8 1c e5 bc 13 94 6f be 00 00 00 00
       0.0 -0.027967915 -0.2339633 0.0
000080 9a fb 75 bd e3 10 84 bd 00 00 00 00 8d f0 32 be
       -0.0600544 -0.064485334 0.0 -0.17474575
000090 8d eb cb bd 7a dd 39 be c9 fd b6 bd 00 00 00 00
       -0.09957037 -0.18150893 -0.089351244 0.0
0000a0 fc b7 de bd 25 3e df bd 41 11 53 3c 00 00 00 00
       -0.10874936 -0.10900525 0.012882532 0.0
0000b0 38 dc b7 bd 57 c6 f3 bd ef 67 5e bd 00 00 00 00
       -0.0897755 -0.11903065 -0.054298338 0.0
0000c0 00 00 00 00 47 8e e8 bd c0 66 f4 bd e5 3c 35 bc
       0.0 -0.11355262 -0.119336605 -0.011061882
0000d0 00 00 00 00 00 00 00 00 00 00 00 00 ff 64 9d 3d
       0.0 0.0 0.0 0.07685279
0000e0 44 55 37 be 84 fb 75 bd e9 e2 35 bd 00 00 00 00
       -0.1790362 -0.060054317 -0.04440585 0.0
0000f0 a5 f1 63 bd 00 00 00 00 00 00 00 00 a1 ae a1 bd
       -0.055650372 0.0 0.0 -0.07894636

shared_backbone.2.weight f4 [64, 64]
000000 25 79 2b 3d ca 2e 02 be 18 c4 34 be ef f9 22 be
       0.04186358 -0.12713161 -0.17652929 -0.15915655
000010 d2 c1 81 3d 9e c1 4f bd 32 15 80 bd 5f de 95 be
       0.063357964 -0.050721757 -0.06254043 -0.29271218
000020 08 91 6d 3e 81 ac 04 3e a5 11 8a be 7e 86 2e be
       0.23199856 0.1295643 -0.26966587 -0.17043492
000030 1f a9 22 3e eb a1 b6 be b6 0c 94 3e 66 ca af bc
       0.15884827 -0.3567041 0.28915948 -0.021458816
000040 eb 19 0c be ac a4 1b 3e fc 8d 14 be f7 bb 27 be
       -0.13681762 0.15199536 -0.14507288 -0.16380297
000050 de 5c 29 be c0 33 8f 3d a8 34 a7 be 71 53 9f 3e
       -0.16539332 0.069922924 -0.3265736 0.31118348
000060 3c f9 a3 be 57 e9 92 be 2b 89 b3 bc 70 49 77 be
       -0.32026088 -0.2869365 -0.021915993 -0.24149108
000070 a3 0e 68 be 14 72 23 be 9c 6c 34 3d 90 50 53 3e
       -0.22661833 -0.15961486 0.04404889 0.20636201
000080 04 6b ee bb c4 8b b1 3e b2 22 0e 3e 45 e7 b2 be
       -0.007275941 0.34676945 0.13880423 -0.3494207
000090 95 37 66 be 1c 9c 98 bd ef cf 6f bd af cb 58 bd
       -0.2248214 -0.074516505 -0.05854791 -0.052928623
0000a0 33 63 b1 bd 3c 4e e9 bd 16 77 b8 3d b7 56 f8 3d
       -0.08661499 -0.11391875 0.09007089 0.121259145
0000b0 2c f9 e9 bd d0 ca 68 3e f6 fe 28 3e d4 22 c8 bc
       -0.11424479 0.22733617 0.1650351 -0.02443067
0000c0 3e 74 a1 bd 4f f9 8c 3d 0a d4 15 be 59 e8 ac bd
       -0.078834996 0.06883489 -0.14631668 -0.08442754
0000d0 a6 45 fe bc 93 97 72 3e 21 63 3f 3e 0a 0a 92 3e
       -0.03103907 0.23690633 0.18690158 0.28523284
0000e0 52 a2 08 be dc e2 67 3e 87 20 84 bc 72 68 5c 3e
       -0.1334317 0.22645134 -0.016128791 0.21524218
0000f0 9b 36 eb 3b 24 98 85 be a9 b2 35 3e b0 e8 85 3c
       0.0071781403 -0.26092637 0.17743935 0.016346306
000100 03 7e ad bd 8a 17 4a 3e d4 1f a9 be 4a f6 03 3e
       -0.084713005 0.19735542 -0.33032095 0.1288692
000110 9d a3 3f be 95 8e a5 3e 11 8d a0 bc 5f b8 a9 3d
       -0.18714757 0.32335344 -0.019598516 0.08287119
000120 52 a6 05 be 60 b5 c9 bc 0b 6e 80 bd 21 a3 36 bc
       -0.13051727 -0.02462262 -0.06270989 -0.011147291
000130 e5 0c 89 bd 38 a9 8b 3c e7 51 a6 3c ea ac d9 bd
       -0.066919126 0.017048463 0.020302726 -0.10628684
000140 75 db 51 3e 28 c8 8c 3d c1 c0 4e 3e f4 5e 54 be
       0.20493872 0.06874114 0.20190717 -0.20739347
000150 ec a4 3f 3e c4 91 83 3c 31 1b 30 be c2 8e 8b be
       0.18715256 0.016060717 -0.17197873 -0.27257353
000160 e4 43 d2 bd 25 ea 17 3b c1 fd 31 3f 95 ff 7a be
       -0.10266855 0.0023180333 0.6952782 -0.2451156
000170 49 5a ba be 49 1e 2d be 87 4c 97 3d 36 4d b7 bc
       -0.36397007 -0.16906084 0.07387643 -0.022375684
000180 1f b1 9f 3d 70 38 d4 38 14 e6 01 3e ee aa a6 3e
       0.07797455 0.0001011946 0.12685424 0.32552284
000190 ba 1a ad bd b2 80 09 3e 8b b1 0c 3e 40 17 87 be
       -0.08452363 0.13428 0.13739602 -0.26384926
0001a0 ec 23 d4 3d 52 80 bf 3d 80 22 8d 3d 42 24 c0 bd
       0.10358414 0.09350647 0.06891346 -0.09381916
0001b0 da d3 19 3e 71 b1 11 be 4c 1f bc 3e e9 b5 eb 3d
       0.15022221 -0.14227845 0.36742628 0.11509306
0001c0 b8 1d 16 be aa 9b fa bd bb 5b 9d 3e f5 e8 14 be
       -0.14659774 -0.12236722 0.30734047 -0.14541991
0001d0 02 e8 5f 3e f3 e3 87 3d 99 1a 81 3e 74 57 28 be
       0.21865848 0.06635275 0.25215605 -0.1643961
0001e0 dd a2 29 be 27 78 94 3c 92 39 31 bd 19 66 6f 3d
       -0.16566034 0.0181237 -0.043267794 0.058446977
0001f0 39 b8 7e 3e 09 a6 d2 3d d2 55 1f 3e 0e f7 a3 3d
       0.24874963 0.10285575 0.15560082 0.08006106
000200 41 10 df bc a7 cf e4 bd 24 43 f8 bc 65 16 42 be
       -0.02722943 -0.11172419 -0.030305453 -0.18953855
000210 53 bd 3e 3e b9 14 d1 bc 52 dc 09 bd a8 2b 93 bd
       0.18626909 -0.025522577 -0.03365738 -0.07186061
000220 40 01 4f be 88 b4 82 3e 86 12 36 3c b4 1f cb bd
       -0.2021532 0.2552836 0.011112815 -0.09918156
000230 25 49 5a 3e 73 fc b4 3e e5 6e 5a 3e 55 82 0c 3c
       0.21316965 0.35348853 0.21331365 0.008575995
000240 20 21 2b 3e 13 d9 dc bd 3d ea 3c be 94 86 37 3e
       0.16711855 -0.10783591 -0.1844873 0.17922431
000250 01 af 7d be 5d 08 f3 3d 89 f1 a6 bd ab 47 74 bc
       -0.2477379 0.118668295 -0.08151538 -0.014909665
000260 a7 e4 2e be 9c d1 a3 3e b6 ff aa be f5 e3 e2 3c
       -0.17079411 0.31995857 -0.33398217 0.027696589
000270 75 1a ba be 15 d8 3c be 17 7a 34 3d a7 3f b9 3c
       -0.3634831 -0.18441804 0.044061746 0.02261336
000280 37 2f ed 3d 1f 54 58 be fe b8 25 bd 92 b6 d1 bd
       0.11581271 -0.2112584 -0.040459625 -0.10239901
000290 c9 13 9f 3d 3c c5 ff be 85 44 24 3e 57 cf 14 3d
       0.077674456 -0.49955165 0.16041763 0.036330547
0002a0 3e dc 1d 3e c3 26 ca 3e 5a fc 4b be c3 85 a7 3c
       0.15416047 0.39482698 -0.19920483 0.020449525
0002b0 7d 77 ff 3d 0e 20 6d 3e 14 55 d7 bd b5 53 70 bd
       0.124739625 0.23156759 -0.10514274 -0.05867358
0002c0 3d 56 ec bd d4 94 ac 3e 76 31 0c be d3 df de bd
       -0.11539886 0.33707297 -0.13690743 -0.10882535
0002d0 50 f1 7f be 8e 7c fe 3b ed a8 07 be 90 76 ab be
       -0.24994397 0.007766313 -0.13248034 -0.33488894
0002e0 a1 63 0e 3d d7 12 53 3d 52 60 53 bd 07 8f 5b 3e
       0.034762982 0.05153164 -0.05160553 0.2144128
0002f0 1c a4 93 3e b4 64 83 3e 6e ab 30 bd 61 52 2f bd
       0.28836143 0.25662768 -0.043132238 -0.042803172
000300 03 41 4a bd 35 d4 82 bd 85 cd 57 be 61 2c 82 be
       -0.049378406 -0.063881315 -0.21074493 -0.25424483
000310 1e 92 d7 bd c7 8d 10 be aa af 2d be 36 6f af be
       -0.105259165 -0.14116584 -0.16961542 -0.34264535
000320 04 a6 b3 bc 46 e4 d6 3d 99 b1 7a 3d 5c c1 9b 3c
       -0.021929748 0.104927585 0.061204527 0.0190131
000330 88 a5 1a be 7b 2c 4d 3e c4 9d 3e bd 29 a8 72 3e
       -0.15102208 0.20036499 -0.046537176 0.2369696
000340 bc 5c e0 bd 59 7c 05 be 6a b3 69 be 1a 12 40 be
       -0.10955188 -0.13035716 -0.22822347 -0.18756905
000350 62 26 55 be 71 39 d2 bd 18 b3 15 bf 17 1a 0c bd
       -0.20815423 -0.10264862 -0.584764 -0.03420457
000360 3f 1a 81 3e 5b 67 3b be 99 ec 1c 3d f9 b8 9e be
       0.25215337 -0.18301146 0.038311575 -0.31000498
000370 50 07 58 3d eb 0d 6c bd 69 a0 9a be 7c a4 49 3d
       0.05274135 -0.05763046 -0.30200508 0.04922913
000380 1d d8 05 3e 51 0e 71 be 33 45 41 3e 6f 37 47 be
       0.13070722 -0.23540618 0.18874054 -0.1945474
000390 44 1b ca bc 50 f2 3e 3e ae 7d 1c be 58 93 15 3d
       -0.024671204 0.18647122 -0.15282318 0.03651747
0003a0 a3 52 85 3d ac 13 d2 be d5 6b f8 3d e7 b6 f2 bd
       0.06509902 -0.41030633 0.12129942 -0.11851292
0003b0 2f 59 5c 3e c8 8b 41 be 5b 50 31 be b1 43 d3 be
       0.21518396 -0.18900979 -0.1731581 -0.41262582
0003c0 c6 97 2e be 88 cc 3f bc 79 ed 83 be e4 f0 b9 3d
       -0.17050084 -0.011706479 -0.25767115 0.09079149
0003d0 3b 69 d9 3d 23 78 37 bd f5 e8 5f be a2 d3 94 bc
       0.10615774 -0.044792306 -0.2186621 -0.01816732
0003e0 7f 9b db bd 40 c0 50 3d ae 48 83 bc 09 fd 7b 3e
       -0.10723018 0.050964594 -0.016025867 0.24608244
0003f0 ad e3 47 3e 38 d9 7e 3e 32 ff 06 3e 48 bb 91 bc
       0.19520445 0.2488755 0.13183287 -0.017789498

shared_backbone.2.bias f4 [64]
000000 1c b4 90 bd c3 7c 31 bd 01 07 66 bd f6 a3 63 bd
       -0.07065603 -0.043331873 -0.056159023 -0.055576287
000010 5d 43 8d bd 26 da 7a bd 91 c6 9b 3d 05 e4 97 bd
       -0.06897614 -0.0612432 0.07606233 -0.07416538
000020 8a 5c a2 bd be 2a b3 bd 6c b3 fb 3c d4 27 1a 3c
       -0.07927807 -0.08748387 0.030725203 0.00940891
000030 d9 1a d0 3d 76 7b 81 bd 24 fc 75 bd 01 8d 78 bd
       0.10161371 -0.063223764 -0.060054913 -0.060681347
000040 ab af 63 bd 15 d6 ad bb 08 9a a7 bd 5e 7d 3c bd
       -0.055587452 -0.0053050616 -0.08183676 -0.046017997
000050 fd fb 75 bd f4 65 b8 bd df b1 28 be c9 62 c3 bd
       -0.060054768 -0.09003821 -0.16474102 -0.09540326
000060 89 6f 10 bd d5 1d 02 3c 59 a6 38 bc 51 1d ad bd
       -0.03526262 0.007941683 -0.011270129 -0.08452857
000070 7a fe 5d bc 23 6d 44 bc 00 00 00 00 8c d7 9e bd
       -0.0135494415 -0.011988911 0.0 -0.07755956
000080 ed 89 6f bd 02 ed 34 bd 4b ce 33 be 58 aa e7 bd
       -0.058481146 -0.04417134 -0.17559163 -0.11311787
000090 f3 47 c4 bd 34 8d ec bc 9f 8d 53 bd 97 cf a7 bd
       -0.09584036 -0.028875925 -0.051648732 -0.081938915
0000a0 c2 13 70 bd fc 14 94 bd 50 ef 5b bc 31 97 f5 bd
       -0.058612593 -0.07230565 -0.013423756 -0.11991728
0000b0 ad d6 fb bb af 00 8b bd c2 cd 57 bd b1 3f e3 bc
       -0.0076855035 -0.0678724 -0.05268646 -0.027740331
0000c0 e2 d2 60 bc d5 83 da bb 2b 39 24 bc 86 fb 75 bd
       -0.013722153 -0.0066685476 -0.0100233955 -0.060054325
0000d0 cf eb 0a bc 55 f9 75 bd c7 b8 84 bd 47 c3 7c bd
       -0.008479073 -0.060052235 -0.06480556 -0.06170967
0000e0 76 26 77 be 08 fc 75 bd ba 10 4a bd ed 0d 8a bd
       -0.24135765 -0.06005481 -0.049332358 -0.067409374
0000f0 f8 53 9c bd b9 fb 75 bd 00 00 00 00 d9 72 f2 bd
       -0.07633203 -0.060054515 0.0 -0.11838312

goal_head.weight f4 [2, 64]
000000 18 0b 0b be e2 d7 dd bd 4d 5f f3 3b 9c f5 fe bc
       -0.1357845 -0.10832192 0.007427132 -0.031122975
000010 67 22 31 3e 09 fc a4 3e 01 3d 13 bf e5 f7 fa 3d
       0.1729828 0.32223538 -0.5751496 0.122543134
000020 84 ad 01 be c3 75 74 be 82 97 a7 be fa ea 8a bd
       -0.12663847 -0.23873048 -0.3273278 -0.067830995
000030 56 54 12 bf c6 9b f7 3d b1 7a d1 bd d6 90 94 bd
       -0.57159936 0.12090258 -0.1022848 -0.07254188
000040 8c 0a 78 3c 24 00 22 bd f4 31 38 bd 87 8b e4 3c
       0.015139233 -0.039550915 -0.044969514 0.027898563
000050 a1 78 89 3e 55 bd 28 bd 58 40 1d be a3 e6 a0 3d
       0.26849845 -0.041196186 -0.15356576 0.078564905
000060 e3 4e 8c 3d 1b 81 91 3d 14 7d a7 3c e7 ba 80 bd
       0.06850984 0.07104703 0.020445384 -0.06285649
000070 24 e1 d2 bc ca 65 e6 bd dc e9 df 3d 30 59 5f bd
       -0.025742121 -0.112498835 0.10933277 -0.054528415
000080 73 64 a7 3d b6 f7 f9 bd 63 1c 91 3e 70 5e a3 3e
       0.08173456 -0.1220545 0.2834197 0.31907988
000090 95 99 36 3e 21 b0 d5 bc ef 98 f6 3d ee ba dd bb
       0.17832024 -0.026084961 0.120408885 -0.0067666685
0000a0 05 aa 93 3e a2 8a 2c 3e 5c 11 85 be e9 d3 c2 bc
       0.28840652 0.16849759 -0.25989807 -0.023782687
0000b0 c2 c8 f1 bc 9c 5e 6e bd 3d 23 6f 3e cf 0f 5b 3d
       -0.029514674 -0.058195695 0.23353286 0.053481873
0000c0 96 33 4f be 2c f4 0f be b2 c5 2f be 92 dc e0 bc
       -0.20234522 -0.14057988 -0.17165259 -0.027448926
0000d0 16 fe b6 be c1 49 34 be 2d 33 0b 3c bc f4 1a bc
       -0.35740727 -0.1760626 0.008496088 -0.009457763
0000e0 14 9c 11 3d 42 8d 67 be f1 5f 1e 3e 52 17 ca bd
       0.03554924 -0.2261248 0.15466286 -0.09867729
0000f0 ec be 75 3e 29 47 15 be 3a cb e3 bd 1f 46 90 bd
       0.23998612 -0.14577927 -0.11122747 -0.070446245
000100 ea 01 5d 3d bd 85 b6 3d 79 66 51 3d 85 ee f5 bd
       0.053956904 0.08912227 0.051123116 -0.120083846
000110 d3 f9 01 bd 0d f6 2f 3e be 8e 52 3e 64 89 3f 3e
       -0.03173239 0.17183705 0.20562264 0.18704754
000120 f8 35 59 be 64 03 43 be ac 07 ab 3e 29 44 28 3e
       -0.21211994 -0.19044262 0.3340429 0.16432251
000130 d1 7c 15 3f 12 11 93 bb ae 8d a7 bd dd 5f 9d bc
       0.5839358 -0.004488119 -0.0818132 -0.01921075
000140 c1 48 fb be 53 aa 19 3e 7d 50 ef 3d 05 89 2a 3e
       -0.49078944 0.1500638 0.11685274 0.16653831
000150 07 7b 44 3d 56 f1 32 bc 1b 0f 14 be 60 10 99 bd
       0.04796889 -0.010921797 -0.14458887 -0.074738264
000160 d0 58 9e 3e e1 88 cd 3e df 43 85 3e b1 d0 0a be
       0.30927134 0.40143493 0.26028344 -0.13556172
000170 ea 86 02 3e 82 46 c9 bd 34 4a b4 bd 3c 06 6e 3c
       0.12746778 -0.098279014 -0.088032156 0.014527854
000180 41 16 8e 3e 2e 66 0c 3e 74 5c 97 3d 61 f2 72 3e
       0.27751353 0.13710853 0.07390681 0.23725273
000190 b9 05 e8 3d b8 7d 1b be dd a3 d2 be cd f2 62 3d
       0.113292165 -0.15184677 -0.41140643 0.055407334
0001a0 be fa b5 3e 2a e5 54 be 08 c5 04 bc fa 1e f8 3d
       0.35542864 -0.20790544 -0.008103617 0.12115283
0001b0 3f 51 72 3d 0e 1f 78 bd 8e da 2a 3e 6f bd 85 3e
       0.059159514 -0.06057649 0.16684934 0.2612109
0001c0 39 2f 97 3e 80 18 70 3c 37 d0 06 3d 01 1a 8b be
       0.29528216 0.014654279 0.032913413 -0.27168277
0001d0 26 6c cb bd 15 61 47 3e c9 96 18 be 31 58 26 bd
       -0.09932737 0.19470628 -0.1490127 -0.04061145
0001e0 d9 b6 e7 3d 3e 83 6f bd 36 2c 8d bd 6e 45 ac bd
       0.11314172 -0.05847477 -0.06893198 -0.0841168
0001f0 6b de bb bd 1a 5c cd 3c a9 a3 34 3e 9a e6 35 3d
       -0.09173282 0.025068332 0.17640556 0.044409372

goal_head.bias f4 [2]
000000 37 ae de be 38 ae de 3e
       -0.4349229 0.43492293

portfolio_head.weight f4 [15, 64]
000000 ed b9 a7 bd e2 c9 88 bc cc a5 62 3d cf 05 43 3e
       -0.081897594 -0.016697828 0.055333897 0.19045185
000010 9b b1 74 3d 32 15 68 bd b0 d2 0a be 63 95 66 be
       0.05973969 -0.05666084 -0.13556933 -0.22517924
000020 32 31 16 bc 82 06 93 3d e9 97 1b be 12 f4 66 bd
       -0.0091670025 0.07178976 -0.15194668 -0.056385107
000030 ca a3 f3 bd 3b de a4 3c d8 e9 63 bc 42 6c 88 3e
       -0.11896475 0.020125499 -0.013910733 0.26645094
000040 56 92 fe bd d1 5a 2f 3d 0f c3 dd 3c cd 02 9f bd
       -0.12430255 0.04281122 0.02707055 -0.07764206
000050 21 bd c7 3d ee 6d c8 39 81 e9 00 3f 2f 28 e7 bd
       0.0975287 0.00038228877 0.503563 -0.11286961
000060 af fe 8a 3e 9c 86 ce bd 03 eb d4 3d fe ed fc bc
       0.27147433 -0.100842685 0.103963874 -0.030875202
000070 5a 88 8f 3d 92 3a 72 bd dc a1 c7 be 53 b3 12 3e
       0.07008429 -0.05913789 -0.38990676 0.1432622
000080 5f f1 96 bd 10 89 8d 3e 4e 4a 1e be 61 42 93 be
       -0.07370257 0.27643633 -0.15458032 -0.2876158
000090 c3 60 4e 3b e0 3c 2e 3e fd 86 aa 3d ae 90 82 bc
       0.003149078 0.1701541 0.08326528 -0.01593813
0000a0 8e 78 37 be 9c 24 7a be 3c 77 a7 3e c4 5e d2 3d
       -0.17917082 -0.24428028 0.32708156 0.10271981
0000b0 3f ac 8f 3b 39 b9 3d 3d 28 4d d4 3d a8 17 e5 bd
       0.004384547 0.04631922 0.10366279 -0.11186153
0000c0 fc 75 01 be 18 22 97 bc a9 d5 0c be fc 51 79 3e
       -0.12642664 -0.018448874 -0.1375338 0.24347681
0000d0 24 3f d1 bd 87 f2 f5 3c 57 f5 80 3d bd 5b b2 3d
       -0.10217121 0.030022873 0.06296795 0.08708904
0000e0 2f 23 ae 3e 91 dd c3 be b2 3c 32 3e 2e 81 ff bc
       0.34011218 -0.3825498 0.17405966 -0.031189527
0000f0 0d 92 1e 3d 08 43 b5 bd b7 92 8f be 3e b9 2f 3e
       0.038713504 -0.08850676 -0.28041622 0.17160508
000100 41 51 42 be ca 71 54 3d 59 f3 29 3e 13 6c ab be
       -0.18976308 0.05186633 0.16596736 -0.33480892
000110 9c af 42 3b ab b2 f6 bc 7a 76 1a bd d5 b7 b4 3e
       0.0029706722 -0.030114492 -0.037710644 0.35296503
000120 e7 d4 a7 3e 59 10 7e bd c5 a5 75 be 7b b6 55 3d
       0.3277962 -0.06202731 -0.23989017 0.05217598
000130 06 67 29 3c 03 37 de 3d 75 23 d4 3e 21 4a 8e bd
       0.010339504 0.108503364 0.41433302 -0.06947733
000140 38 c9 df 3d c1 56 bd bd 23 5c 7b be 02 41 13 bd
       0.10927051 -0.092450626 -0.24546866 -0.03595067
000150 23 ac 3c 3e 91 00 e1 bd 12 34 3f be 71 f3 ac 3e
       0.1842504 -0.10986436 -0.18672207 0.3377948
000160 46 59 8d 3d 4f e4 94 bd da bd 58 bd d0 ad 91 3d
       0.06901793 -0.07270109 -0.05291543 0.0711323
000170 57 8e 19 be 55 2b 07 3c 1b ff 17 be ea 55 14 3e
       -0.14995705 0.008250077 -0.14843409 0.14485899
000180 7d 3e 95 bd f9 33 44 bd 2e 99 e3 bc 02 1c 2c 3d
       -0.07287309 -0.047901127 -0.027783003 0.042018898
000190 ff c7 93 3e a4 cc ea bd 25 70 8f bd 87 30 76 bd
       0.28863522 -0.11464813 -0.07003812 -0.060104873
0001a0 ee 01 fb bc 21 d0 aa bd 54 61 d8 3d e7 f4 1a 3e
       -0.030640569 -0.08340479 0.10565439 0.15132485
0001b0 2f ed b2 3d 70 be 0e 3e ac cb 7d 3e 27 95 74 be
       0.087366454 0.13939834 0.24784726 -0.23885022
0001c0 03 23 2d be 6c 23 a0 3d a5 1c d6 bd 19 e0 54 be
       -0.16907887 0.07819256 -0.10454682 -0.20788611
0001d0 06 28 70 bc 08 7b 26 be 55 61 ed bd 3f ee 4c bd
       -0.01465798 -0.1625787 -0.1159083 -0.050031897
0001e0 a2 a5 cc 3d e0 21 4c 3d 4c f7 a5 be f8 3e 9c bc
       0.099925295 0.049836993 -0.32415235 -0.019072995
0001f0 75 0b 01 3e 01 de 93 3d 30 6c 4d be 46 c9 f1 bd
       0.12602027 0.07220078 -0.20060802 -0.11805968
000200 84 af 9f be d3 4b 52 bd b2 eb ae 3e e3 7c 0e be
       -0.31188595 -0.051341843 0.34164196 -0.13914828
000210 6f 62 c3 3d e0 86 ae 3d 06 af 5a bd 76 59 43 be
       0.09540259 0.08521819 -0.05338957 -0.19077095
000220 ae 2a 68 3e 9a e2 f6 bd dd af db be 9c bb 15 be
       0.22672531 -0.120549396 -0.4290761 -0.14622349
000230 86 14 ab bd 8d 16 78 be 07 91 68 3e 7e 16 be bc
       -0.08353524 -0.24227352 0.22711574 -0.023204084
000240 1c 24 ed bd 38 aa d0 bd 44 ed a5 3d e8 6f a6 bd
       -0.11579153 -0.10188717 0.081018955 -0.08126813
000250 ce 53 28 bc 0b 74 cf bb 5c 6f 35 3e 3e 68 cf 3d
       -0.010273887 -0.006330972 0.17718261 0.101273045
000260 1d 4c af 3d 8c 6d cf bd 3c 4e 10 bd 66 83 a6 bb
       0.08559439 -0.10128316 -0.03523086 -0.005081582
000270 16 bf 71 3d ef f7 dc bd 87 39 1e 3e 82 6a 8f be
       0.059020124 -0.10789477 0.15451632 -0.28010947
000280 49 10 9b 3d db de 79 3d 56 c6 00 ba 1c ef 73 3c
       0.075714655 0.061003547 -0.0004912367 0.014888551
000290 a1 49 46 3e c2 f9 38 3e 21 ab 61 3d 15 9e 73 3e
       0.19364025 0.18064025 0.055094842 0.23790772
0002a0 45 8f 95 be 88 76 06 3e 47 a4 60 be c3 c5 35 3e
       -0.29210868 0.13131154 -0.21937667 0.17751221
0002b0 3f dd d7 bd 83 80 1b 3e 27 0e e4 be 7b 8a da 3d
       -0.10540246 0.15185742 -0.44542047 0.10670944
0002c0 a5 47 b0 3d cb 13 87 bd be c6 5a 3d 8b f4 bb 3e
       0.08607415 -0.06595572 0.05341219 0.3671001
0002d0 14 1e 54 be f9 ec ac bd 1b 06 93 3e 11 93 87 be
       -0.20714599 -0.084436364 0.28715596 -0.2647939
0002e0 08 b6 6a be df 1e 86 be 06 24 92 bd 56 c7 ba 3d
       -0.22921002 -0.26195428 -0.07135777 0.091200516
0002f0 5a 75 32 be 25 c2 bd 3d c7 3f b6 bd 0a 4f 12 bd
       -0.17427579 0.09265546 -0.08898883 -0.03571991
000300 1d e4 7f 3e 25 83 af 3d 74 eb 89 bd 6f 1b 67 be
       0.24989362 0.08569936 -0.06734362 -0.22569059
000310 6b 00 b5 3e 11 32 22 3e b5 b4 6e bc 62 10 e7 3d
       0.3535188 0.15839411 -0.014569451 0.11282422
000320 93 72 d3 bd 90 d1 36 bd 10 52 7c be 70 f8 7d bd
       -0.10324588 -0.044633448 -0.2464068 -0.062004507
000330 23 48 b1 bd 88 ad 02 3e d8 03 16 be 1a af a4 be
       -0.08656337 0.1276151 -0.14649904 -0.32164842
000340 71 05 da 3d 21 4c a0 3d 4e 97 13 bd ad 2e c6 bc
       0.10645569 0.078270204 -0.036032967 -0.024192179
000350 d2 4b 08 be 6b de 5b be 84 b9 45 3e f2 be 45 3d
       -0.13310173 -0.21471564 0.1930905 0.048277803
000360 79 de 97 bd 54 28 f3 bd e4 4d 9d 3d 48 0a 90 bd
       -0.0741548 -0.11872926 0.07680872 -0.07033211
000370 c7 5d 1d be f7 35 bc be ff 4c 98 3e 7a 4f 3d 3e
       -0.15367804 -0.36759922 0.29746243 0.18487349
000380 99 1b 5c be f3 9c 34 3e 17 25 c7 3c bf b2 cd 3d
       -0.21494903 0.17637996 0.024309678 0.10043859
000390 da 36 a2 be 49 d9 35 3e f7 c4 33 be 06 53 49 be
       -0.31682473 0.17758669 -0.17555605 -0.19660577
0003a0 2f 03 3b be 43 94 64 be de 14 8c 3c 98 5e 2d 3e
       -0.18262933 -0.22322182 0.017099794 0.16930616
0003b0 44 25 47 3d ec 20 b4 3e a2 a4 0f be 89 99 10 be
       0.048619524 0.35181367 -0.14027646 -0.14121069
0003c0 a6 93 b7 3c c6 a1 a8 bc 04 97 65 be 56 53 a5 bd
       0.022409271 -0.020584952 -0.22420889 -0.08072536
0003d0 92 19 1b 3e 05 98 b2 be 43 bf 61 3e 1e 77 bc bd
       0.15146473 -0.34881607 0.22045617 -0.09202407
0003e0 d5 48 60 3e 29 d1 43 3e 12 c0 3b 3e 0f 60 98 3d
       0.21902783 0.19122757 0.18334988 0.07440197
0003f0 43 88 06 3e 57 ef 2a 3c e2 19 d1 3d 1b 40 c6 bd
       0.13137917 0.01043304 0.10210015 -0.09680196

portfolio_head.bias f4 [15]
000000 9f d5 12 3c ab f5 24 bd df 7b c2 3c 6c c4 39 bb
       0.008962064 -0.04027335 0.023740707 -0.0028345836
000010 bc a6 74 bc a2 11 5b 3c e3 8a 14 3d 83 a2 3f bc
       -0.014932331 0.013370903 0.036265265 -0.011696461
000020 03 fd 65 3c fe c6 05 3b ff 44 ca bc eb 59 35 3b
       0.0140373735 0.0020412798 -0.024691103 0.0027672003
000030 0d 9e 1c bc 6d 22 74 3c 73 14 ab 3c
       -0.009559167 0.014900786 0.020883774

network.0.weight f4 [64, 2]
000000 80 1c 95 be 43 1d 65 be 1c 0f 98 be 20 f9 b6 bd
       -0.29123306 -0.22374444 -0.29699028 -0.089342356
000010 bb c5 06 bf 71 dc ae 3c a5 5b 09 bd 79 a2 a0 bb
       -0.5264546 0.021345349 -0.033534665 -0.0049021807
000020 9d 4f ed be 46 d7 2b bd 2c af 0d bf 2a f5 a1 3d
       -0.46349803 -0.041953348 -0.55345416 0.079080895
000030 5e 96 47 3f 3f a9 c1 3d 20 25 c3 be 45 e0 12 bd
       0.7796382 0.09456109 -0.38114262 -0.03585841
000040 0b 6f 5c be 6d b6 0c be ca 00 a1 be 6e 4a 73 bd
       -0.21526735 -0.13741465 -0.31445915 -0.059397154
000050 1f 27 98 be f5 22 c2 bd 95 96 f4 be 88 a1 13 bd
       -0.29717347 -0.09479324 -0.47771135 -0.03604272
000060 79 81 1a bf bb d0 b8 be 7d 19 16 be 3e a6 35 bd
       -0.6035381 -0.3609675 -0.1465816 -0.044347994
000070 65 36 06 be aa 42 7f be 34 0a 02 bf 69 87 15 3c
       -0.13106687 -0.24927774 -0.5079682 0.009126523
000080 c7 4e 37 bf 20 f4 57 3e 14 a0 7b be 41 f4 6e bd
       -0.7160458 0.2108922 -0.24572784 -0.058338407
000090 9d 48 20 bd c3 5c 9a be fc 88 e3 bd 11 27 32 be
       -0.03913175 -0.30148897 -0.11110112 -0.17397715
0000a0 68 7d ec be b0 01 3a 3e 58 fa 3d be 49 c0 a7 bc
       -0.46189427 0.18164706 -0.1855253 -0.02047743
0000b0 d5 8a 44 3f bb 27 1b 3e e4 46 93 bd bc 3f 13 be
       0.7677434 0.15151875 -0.07191256 -0.14379781
0000c0 00 0b 74 3c 88 af 15 be 42 3c e3 3e c5 9e 8a 3e
       0.014895201 -0.14617741 0.4438191 0.27074257
0000d0 e7 33 95 be 5f 74 29 be 79 0b 0e be 65 13 dd be
       -0.2914116 -0.16548298 -0.13871564 -0.4317886
0000e0 29 b1 55 be 8b 1f 0a be f3 a6 0c bf 1d 86 0c 3c
       -0.20868362 -0.13488595 -0.54942244 0.008576897
0000f0 6e 69 b0 bd 8a 03 fb bc 78 9a 51 3d 53 1b 20 be
       -0.08613859 -0.030641336 0.051172704 -0.15635423
000100 ad 8c 5b be 60 d8 e5 bd 39 75 36 bd 4b cf 86 bd
       -0.21440382 -0.11222911 -0.044545386 -0.06582507
000110 1e 0e a9 be 34 e3 17 be 9e 14 02 3d 31 6b 4f be
       -0.33018583 -0.14832765 0.031757943 -0.20255734
000120 d1 aa d3 be 13 17 98 be 10 ba 71 be 81 e0 0e be
       -0.4134126 -0.29705104 -0.23606133 -0.13952829
000130 7b 83 3c be 5d 66 79 be 25 96 f4 be f1 91 4f bd
       -0.18409531 -0.24355455 -0.477708 -0.05067629
000140 11 4c d5 be d1 53 00 bd 69 d7 a7 be a2 1d ed bd
       -0.41659597 -0.031329934 -0.32781532 -0.11577918
000150 65 5c 2b bf 2d 8b c5 3d b3 60 70 be 15 51 b0 3d
       -0.6693786 0.09645686 -0.23474388 0.08609215
000160 ac 78 ce be f2 32 ef 3c 28 4b b5 be 4a 19 c6 bd
       -0.4032644 0.029199097 -0.35408902 -0.09672792
000170 bc 97 f3 be 20 37 60 3c f1 02 92 be 9f f1 30 be
       -0.47576702 0.013685018 -0.2851787 -0.17279671
000180 15 de 0e be 7d 92 80 3d 1c 68 61 be ab 0c 4d 3a
       -0.13951905 0.062779404 -0.22012371 0.0007822017
000190 67 fe 7e be d1 d3 90 be 10 6a 41 be 4d 2b 44 3d
       -0.24901734 -0.28286603 -0.18888116 0.047892857
0001a0 37 a7 3f 3f b5 68 76 3e 4d 14 ac be ab 7e fa bd
       0.74864525 0.2406338 -0.33609238 -0.12231191
0001b0 38 bc a1 be 67 2d 86 be ae 93 4a bd 37 8b 8d bd
       -0.31588912 -0.26206514 -0.049457245 -0.06911319
0001c0 87 c1 63 be 72 0f 8e be 2f 18 b5 be a7 de 7e bd
       -0.22241794 -0.2774616 -0.35370013 -0.062224057
0001d0 2b d4 fd be 42 05 c8 3d f2 c1 d4 be ba 7b 8c 3c
       -0.49575934 0.09766628 -0.4155422 0.017148841
0001e0 9c 90 ea be d8 cc e6 38 f9 6e d7 be 0b 21 9d bd
       -0.45813453 0.0001100541 -0.42076853 -0.07672318
0001f0 33 60 81 be 94 4b f4 bd f1 39 da be 18 00 dc 3c
       -0.25268707 -0.11928478 -0.4262233 0.026855513

network.0.bias f4 [64]
000000 7e 19 ce 3e bd c9 18 3f 22 0e 14 3f 74 e1 fb bd
       0.40253824 0.5968283 0.57834065 -0.12298861
000010 e9 aa f3 3e 5a 36 36 3f ff b2 0e 3f 11 4c db 3e
       0.47591332 0.71176684 0.55741876 0.42831472
000020 00 00 00 00 00 00 00 00 00 ae ae 3e 99 ee 02 3f
       0.0 0.0 0.34117126 0.5114532
000030 bf ee 03 3e 00 00 00 00 00 00 00 00 f3 5a 01 3f
       0.12884043 0.0 0.0 0.505294
000040 17 78 5d 3f 00 00 00 00 ad 34 53 bd dc 5e e9 bd
       0.8651137 0.0 -0.051563907 -0.11395046
000050 a4 b0 01 3f c3 f7 75 bd 8c ed 05 3f 00 00 00 00
       0.5066016 -0.060050737 0.5231559 0.0
000060 5a e7 92 bd b1 d6 d8 3e 00 00 00 00 57 9a 58 3e
       -0.07173033 0.42351297 0.0 0.21152626
000070 00 00 00 00 09 1d 0b 3f 00 00 00 00 30 e3 10 be
       0.0 0.5434118 0.0 -0.14149165
000080 00 00 00 00 a5 b9 51 bd ab e8 1f 3f 87 f3 af bd
       0.0 -0.051202435 0.624644 -0.08591371
000090 f3 b6 b7 3d c7 99 01 3f 93 99 0c 3e 33 46 ff 3e
       0.08970442 0.5062527 0.13730459 0.49858245
0000a0 12 b3 e5 3e 20 f1 c6 3e f8 3f 3d 3f 5a d8 ac bd
       0.44863182 0.3885584 0.73925734 -0.08439703
0000b0 d5 dd f4 3e 06 60 06 3f 04 60 06 3f 00 00 00 00
       0.47825494 0.5249027 0.5249026 0.0
0000c0 56 d7 90 bd 07 f9 75 bd c3 80 2e 3f 56 7c 75 bd
       -0.07072322 -0.060051944 0.68165225 -0.05993303
0000d0 4e a4 e8 3e fc 78 c9 3e 0f 74 07 3f ff fb 75 bd
       0.45437855 0.39350116 0.52911466 -0.060054775
0000e0 3d 3d 96 3e 99 d4 cb 3e f6 db 1d 3f 6a 36 dd 3e
       0.29343596 0.39810637 0.6166376 0.43205577
0000f0 d0 0f ec 3e 82 da f0 3e 00 00 00 00 6a 6a e5 3e
       0.46105814 0.47041708 0.0 0.4480775

network.2.weight f4 [64, 64]
000000 ce 2a 92 bd 25 b6 52 be d0 52 99 be 33 69 25 be
       -0.071370706 -0.20577295 -0.29945993 -0.16153412
000010 b2 b9 3d be 56 44 0b bd 11 c3 af be 70 a7 47 3d
       -0.18527868 -0.034000717 -0.3432851 0.048743665
000020 c9 a2 10 bd 56 16 98 be a6 fe 2d be ca 26 65 3e
       -0.035311494 -0.2970454 -0.16991672 0.22378078
000030 1e b2 af be 8b 25 97 bd 31 60 a7 be c9 2f fb 3d
       -0.3431558 -0.07380208 -0.32690576 0.12264974
000040 0b 75 82 3c 9f 59 07 bd b2 2b 5d 3c e5 71 63 bd
       0.015924951 -0.033044454 0.013499187 -0.05552854
000050 5f ea 2b bd 24 bb c7 3d 36 81 9f be 32 e0 fd bd
       -0.04197156 0.09752491 -0.31153268 -0.123962775
000060 a4 de fc bd d6 76 bf bd 4f 20 25 3d fe c6 de 3c
       -0.12347153 -0.09348838 0.040314015 0.027194496
000070 7a 79 0d be c2 f7 c7 be 45 a0 2b bd ae 5a c5 3e
       -0.13815871 -0.39056212 -0.04190089 0.38545746
000080 bc 3d 61 3d ac 00 46 be 2d e4 41 be a9 9d 69 be
       0.054990515 -0.19336194 -0.18934698 -0.22814049
000090 85 2d 85 be 28 de 80 3d f0 9f 69 be 4e 81 71 3e
       -0.2601129 0.06292373 -0.22814918 0.23584482
0000a0 c0 6e 7e 3c 29 f7 72 3c d0 59 15 be 09 8e ac bd
       0.015529335 0.014829435 -0.14585042 -0.084255286
0000b0 04 de a2 be a5 74 98 3c 27 3a 24 be 0e 63 a6 3e
       -0.3181001 0.018610308 -0.16037808 0.32497448
0000c0 a9 94 13 be 2d 8a 87 3e bc 66 f9 3d 7d 46 83 3e
       -0.14412178 0.26472607 0.12177798 0.25639716
0000d0 e5 49 74 bd 76 c1 21 3e 58 09 80 bd d0 f2 df 3d
       -0.059640784 0.15796456 -0.06251782 0.10934985
0000e0 4a e7 e5 bd 2a 3e fc bd a4 f1 00 be 00 bd a7 bd
       -0.112257555 -0.12316544 -0.12592179 -0.08190346
0000f0 8c 31 a0 bd 50 b1 94 bd 72 20 b7 3e ae b7 60 3e
       -0.0782195 -0.07260382 0.3576694 0.21945068
000100 83 4b 25 3e 0e f6 34 3e 09 f7 fc be a5 f8 06 3d
       0.16142087 0.17671987 -0.49407223 0.03295197
000110 63 85 c3 bd f9 da 28 3d 71 f6 8d bd 47 0b f7 bc
       -0.09546926 0.041224454 -0.069317706 -0.030156745
000120 b3 d8 72 be 64 4c 5d be 1c a6 89 bd f9 c5 87 3d
       -0.23715477 -0.21611172 -0.06721136 0.06629557
000130 1c 23 00 be 0d 81 01 3e 8b 0d db 3d 4c 18 2c 3d
       -0.12513393 0.12646885 0.106959425 0.04201536
000140 bd 5e 93 be b7 d7 1a 3d bf 51 72 be 3a b0 2f be
       -0.28783217 0.037803378 -0.23663996 -0.17157069
000150 3c ff c8 bd 67 24 9b bc 2b 55 2a be dd 37 c0 be
       -0.09814307 -0.018938256 -0.16634052 -0.3754262
000160 96 fb 24 3e e2 20 a7 bd 39 cd 80 3e 9d 10 f5 be
       0.16111597 -0.08160569 0.25156572 -0.47864237
000170 1d f5 c0 3c f1 d1 ed bd de 30 31 be 38 ed 52 be
       0.02355438 -0.11612309 -0.17303798 -0.20598304
000180 11 e9 ae 3d 78 dd 8d 3d be c5 37 3e 60 70 07 be
       0.08540548 0.069270074 0.17946526 -0.13226461
000190 ca c4 cc bd e0 97 3e be 80 15 3c 3e fb 71 37 be
       -0.09998472 -0.18612623 0.18367577 -0.17914574
0001a0 20 19 51 bb 18 87 97 be 8b 9f 3f 3e 15 07 13 3e
       -0.0031905845 -0.29595256 0.18713205 0.1435817
0001b0 1a 0b 08 be 5f 4c bd 3e 38 a5 6b 3e 40 c6 0d bd
       -0.13285485 0.3697233 0.23012245 -0.034612894
0001c0 d9 41 0f 3e 5f 52 37 be bd d0 8d 3c db b0 38 3e
       0.13989963 -0.17902516 0.017311448 0.18036215
0001d0 e9 93 93 bd 82 95 3e be d3 67 5f 3e c8 2b 11 be
       -0.07205946 -0.1861172 0.2181695 -0.14176857
0001e0 83 6f 80 3d 97 c7 86 3e c2 09 0d be 8e 9e 45 bd
       0.06271269 0.2632415 -0.13773254 -0.048246913
0001f0 56 3f 39 be 8e ba b4 bb dd 00 34 3e f1 7e b9 bd
       -0.18090567 -0.005515403 0.17578454 -0.09057415
000200 50 2a 44 be c1 cf ed 3e 4f 90 8e 3e a3 2f 07 be
       -0.19156766 0.46447566 0.27844474 -0.13201766
000210 f7 dd 3b 3e 46 79 60 3f 92 d3 8b 3e 1b e1 b4 be
       0.18346392 0.8768505 0.27309853 -0.35327992
000220 7c ba cc 3d 23 d6 5a 3e 7f b6 52 3e e3 fe 92 3e
       0.099965066 0.21370749 0.20577429 0.28710088
000230 51 cb ee 3d a3 6f ac 3e b0 ae b4 bc e1 a5 c6 3e
       0.11659873 0.33678922 -0.022055954 0.3879843
000240 00 60 89 3f 95 5a dc 3e 8a a1 c6 3d 8a 83 96 3c
       1.0732422 0.4303786 0.0969878 0.01837327
000250 f1 d5 96 3d c2 22 87 3e 5c 5d 4d 3b 33 78 51 bd
       0.07365025 0.26393706 0.0031336164 -0.05114002
000260 6c 0f 45 be c2 1d d3 3d 08 b7 e4 bd 55 e4 cc 3d
       -0.19244164 0.1030841 -0.11167723 0.100044884
000270 2f 04 ab bd 89 c7 19 3f 0c 81 78 bd 68 4b 86 3c
       -0.08350407 0.6007009 -0.060669944 0.016393378
000280 e3 bd cd bd 9b 50 84 be b3 6c ef 3e 11 99 d1 bd
       -0.10045984 -0.25842747 0.46762618 -0.10234273
000290 30 12 8b 3e 08 96 7e 3e d1 76 38 bc 9b 2c 65 3e
       0.27162313 0.2486192 -0.011258797 0.22380297
0002a0 8b 78 f1 3d 7d 3f cd 3e 80 9a 7f 3f ba 43 e5 3d
       0.1179057 0.400875 0.99845123 0.111945584
0002b0 b2 24 59 3d 4b 34 7e 3e 7d 66 e1 3e ca 7b df bd
       0.05301351 0.24824636 0.44023505 -0.10912283
0002c0 ca ef 31 be 5a e3 2a 3d f9 04 a1 3e 6c 0c e1 3d
       -0.17376629 0.041720726 0.31449106 0.109886974
0002d0 99 4f 20 3e 3d 93 c9 bd b1 ad b2 3e 20 cf 04 be
       0.15655364 -0.098425366 0.3489814 -0.12969637
0002e0 0c b1 93 bd 77 6c e7 3e 5b f9 e3 3e 65 8f c4 bc
       -0.072115034 0.4519994 0.4452618 -0.023994157
0002f0 52 8a 03 3f 39 ac 7a 3e 29 bc 36 3e b0 bf 81 3e
       0.51382935 0.2447976 0.17845215 0.25341558
000300 12 a9 d5 bd 5e 61 bf 3e 33 97 69 3e ae b9 ed bd
       -0.10432638 0.37378973 0.22811584 -0.11607681
000310 13 64 1e 3e ef 3d 08 3f 49 1a bd 3e a8 e6 2a 3e
       0.15467863 0.53219503 0.36934116 0.16689551
000320 c9 5b 05 3c ce ed 84 be 85 07 78 3d a9 7e 65 3e
       0.008139559 -0.2596268 0.060554046 0.22411598
000330 bc 5b 26 3e 79 c1 05 3e 6e 3c e1 bd a3 d3 0a 3d
       0.16245931 0.13062085 -0.10997854 0.03389324
000340 3d 70 85 3f 45 bd 6a 3d a6 e8 49 3b b6 0c b2 3c
       1.0424877 0.057309408 0.0030808835 0.021734577
000350 b4 96 54 3f a7 93 19 be 37 3d 2c 3e 77 9e ce 3d
       0.83042455 -0.14997731 0.16820227 0.100888185
000360 21 7b 21 3d c6 64 be 3d b7 79 60 be 87 dd 7c bd
       0.039424066 0.09296565 -0.2192143 -0.061734702
000370 57 65 fd 3d 15 b1 30 3f 6c 54 dc bd d0 6f 72 3e
       0.12372845 0.69020206 -0.1075829 0.23675466
000380 57 84 12 bd e8 7c 8e bd cb de 85 3d 31 e6 24 3d
       -0.03577074 -0.06957418 0.06536635 0.04025859
000390 b0 50 4e bd 75 73 14 3e 34 9a 56 3e 73 45 01 3f
       -0.05036992 0.14497168 0.20957261 0.50496596
0003a0 4c 40 6c 3e f8 cb 40 bd 97 5e 14 3f f0 96 87 3e
       0.23071402 -0.04706952 0.5795683 0.26482344
0003b0 be 1b af 3e 9a d9 d8 3e f1 b8 f2 3e c1 f5 7b bd
       0.34200853 0.42353517 0.47406724 -0.061513666
0003c0 19 11 6b 3e 75 1b a4 3e d4 36 c7 3e 5a f5 94 3e
       0.22955741 0.32052198 0.38909018 0.29093438
0003d0 31 19 97 bc 47 3a 75 3d a1 00 23 3f d4 13 01 3e
       -0.01844463 0.05987003 0.63672835 0.1260522
0003e0 d2 34 67 be a8 21 3a 3d 32 41 08 3f 91 ea 19 3e
       -0.22578743 0.045442253 0.5322448 0.15030886
0003f0 41 be c7 3e 6e 59 ca 3e 31 1d af bd 18 d8 36 be
       0.3901234 0.39521354 -0.0855049 -0.1785587

network.2.bias f4 [64]
000000 40 73 bf 3b 96 9b b7 bd d6 0e e1 3e 88 0c d8 3e
       0.0058425963 -0.089652225 0.4395663 0.4219706
000010 36 89 d3 3e 02 fc 75 bd 00 00 00 00 00 00 00 00
       0.4131562 -0.060054787 0.0 0.0
000020 db 42 d8 3e 13 82 58 bd 10 6e df 3e 00 00 00 00
       0.42238507 -0.052858423 0.4363866 0.0
000030 b2 cf df 3e 00 00 00 00 23 52 dc 3e ae 28 dc 3e
       0.43713146 0.0 0.43031415 0.42999786
000040 c8 44 cf 3e a3 20 b8 bd 16 f2 df 3e 68 38 d5 3e
       0.40482163 -0.089906 0.43739384 0.41644597
000050 e9 34 c8 bd 00 00 00 00 d2 44 85 bd 9f 11 dd 3e
       -0.09775717 0.0 -0.06507267 0.43177506
000060 0f 49 e1 3e 16 4d e6 bc 70 f9 ce 3e bb 8f d8 3e
       0.44001052 -0.02811293 0.4042468 0.42297158
000070 0e 96 db 3e 91 f5 75 bd 00 00 00 00 af 18 dc 3e
       0.4288792 -0.060048643 0.0 0.42987582
000080 2a 07 e1 3e 45 7b d2 3e 29 60 d9 3e 40 6c 76 bd
       0.43950778 0.41109672 0.42456177 -0.06016183
000090 77 d7 87 bd 1e ac 63 bd 31 be c7 3f 0b 7c ce 3e
       -0.066328935 -0.055584066 1.5604917 0.40329012
0000a0 1b de db 3e 6d 0a e3 3e 00 00 00 00 bf f4 75 bd
       0.4294289 0.44343892 0.0 -0.06004786
0000b0 00 00 00 00 f0 d2 76 bd de 4d e0 3e 75 a6 e0 3e
       0.0 -0.06025976 0.43809408 0.43876997
0000c0 3c f5 51 bd c9 23 76 bd 9f b3 bc 3e df 6d dc 3e
       -0.051259264 -0.06009272 0.3685579 0.43052575
0000d0 8c fe f7 3e 4d fb 75 bd 1a 25 81 bd 74 c4 e3 3e
       0.4843639 -0.060054112 -0.06305905 0.4448582
0000e0 ad aa 85 bd fb 47 89 bd 7c e4 e2 3e 4c bb d9 3e
       -0.065266944 -0.06703182 0.44314945 0.4252571
0000f0 00 00 00 00 d6 e5 9d bd 3a 60 e3 3e a3 17 d6 3e
       0.0 -0.07709853 0.44409353 0.41814908

network.4.weight f4 [1, 64]
000000 57 c6 b1 3d c5 e9 9c bd 2a 49 a7 3e c0 3d a0 3e
       0.086804084 -0.076617755 0.32673007 0.31297112
000010 9c 08 a3 3e 8d b4 41 3d 79 34 39 3c d8 f7 63 bc
       0.31842506 0.047291327 0.011304014 -0.013914071
000020 2c ae af 3e 70 c7 70 3d 10 53 ac 3e f7 32 06 3c
       0.3431257 0.05878395 0.33657122 0.008190862
000030 b1 b1 aa 3e 53 19 5d 3b 5b d5 c2 3e 0c 26 b0 3e
       0.33338693 0.0033737018 0.38053402 0.34404027
000040 5b 79 9c 3e c8 48 4c bc 6d 0b 9f 3e ad 12 ab 3e
       0.30561337 -0.012468524 0.31063405 0.33412686
000050 05 21 b8 bd 6f e6 93 3a 20 22 3a 3d 6a 26 b4 3e
       -0.08990673 0.0011283885 0.0454427 0.35185558
000060 40 68 aa 3e 66 49 77 3d aa 34 79 3e b8 5c a1 3e
       0.3328266 0.060372733 0.24336496 0.3151605
000070 48 29 92 3e be 6e 61 3d d5 36 1c bc 0a d8 b1 3e
       0.2854712 0.055037253 -0.009534557 0.34735137
000080 be 20 b4 3e 1f a7 90 3e 30 a0 ac 3e c3 8b 45 3d
       0.3518123 0.28252503 0.33715963 0.04822899
000090 70 d8 42 3d 89 aa 45 3d 71 e5 37 c0 86 08 a0 3e
       0.047569692 0.048258338 -2.873379 0.31256503
0000a0 37 f3 af 3e 77 99 b9 3e c9 4c 01 3b d9 a8 63 3d
       0.34365246 0.36249897 0.0019729605 0.055580948
0000b0 3d e1 a0 3c d9 30 4b 3d 7c 24 af 3e ed 66 b3 3e
       0.019638652 0.04960713 0.34207523 0.35039464
0000c0 99 42 f1 3c cf 7a 45 3d 22 e5 80 3e e6 45 8f 3e
       0.029450702 0.048212823 0.25174814 0.27983016
0000d0 28 6f a1 3e 12 bc 33 3d 8b d6 46 3d 68 99 bd 3e
       0.31530118 0.04388053 0.048544448 0.37031102
0000e0 28 de 6c 3d d4 ae 4e 3d 1b 30 b3 3e aa cc c1 3e
       0.057829052 0.050459698 0.3499764 0.3785146
0000f0 f7 da a2 ba a8 c2 6a 3d 07 f8 c3 3e ff 10 a4 3e
       -0.0012424876 0.057314545 0.38275167 0.32044217

exp_avg f4 [64, 2]
000000 03 ac 3f 39 3c 73 d0 b8 00 00 00 00 00 00 00 00
       0.00018279259 -9.939677e-05 0.0 0.0
000010 04 00 00 00 04 00 00 00 bf c0 09 b8 20 25 e6 b7
       6e-45 6e-45 -3.2842854e-05 -2.7435424e-05
000020 04 00 00 00 04 00 00 00 00 00 00 00 00 00 00 00
       6e-45 6e-45 0.0 0.0
000030 04 00 00 00 04 00 00 00 ec 74 83 04 ef 19 e0 01
       6e-45 6e-45 3.0905328e-36 8.232182e-38
000040 00 00 00 00 00 00 00 00 04 00 00 80 04 00 00 00
       0.0 0.0 -6e-45 6e-45
000050 00 00 00 00 00 00 00 00 86 33 1a 07 da 0d 8e 06
       0.0 0.0 1.1600814e-34 5.3434816e-35
000060 04 00 00 00 04 00 00 00 41 9d e3 21 ce bf 47 20
       6e-45 6e-45 1.5423743e-18 1.6919418e-19
000070 00 00 00 00 00 00 00 00 00 00 00 00 00 00 00 00
       0.0 0.0 0.0 0.0
000080 7f c5 3f ba f6 83 25 b9 00 00 00 00 00 00 00 00
       -0.0007315501 -0.00015784786 0.0 0.0
000090 92 ef 2b 38 6e 0b e6 37 00 00 00 00 04 00 00 00
       4.0992694e-05 2.7423459e-05 0.0 6e-45
0000a0 ee 39 e1 39 a2 42 5b 39 00 00 00 00 00 00 00 00
       0.00042958505 0.0002091029 0.0 0.0
0000b0 a9 cb 35 39 c5 fc 46 38 00 00 00 00 00 00 00 00
       0.00017337374 4.744229e-05 0.0 0.0
0000c0 3b c9 a9 2d 0d 6a ba 2d 00 00 00 00 00 00 00 00
       1.930244e-11 2.1192848e-11 0.0 0.0
0000d0 d2 08 c4 39 ab 8a cb 38 04 00 00 00 04 00 00 00
       0.00037390605 9.705623e-05 6e-45 6e-45
0000e0 00 00 00 00 00 00 00 00 04 00 00 00 04 00 00 00
       0.0 0.0 6e-45 6e-45
0000f0 0e 10 df ba bc 45 3f b9 00 00 00 00 00 00 00 00
       -0.0017018334 -0.00018241158 0.0 0.0
000100 04 00 00 00 04 00 00 00 8b 8a 48 2a 73 02 85 2a
       6e-45 6e-45 1.7811635e-13 2.3627245e-13
000110 00 00 00 00 00 00 00 00 49 c7 00 00 31 25 00 00
       0.0 0.0 7.149e-41 1.3342e-41
000120 04 00 00 00 04 00 00 00 b1 36 15 0a 29 63 97 09
       6e-45 6e-45 7.184375e-33 3.6445177e-33
000130 04 00 00 00 04 00 00 00 00 00 00 00 00 00 00 00
       6e-45 6e-45 0.0 0.0
000140 04 00 00 00 04 00 00 00 2d a6 aa 1d 37 62 2c 1c
       6e-45 6e-45 4.5170447e-21 5.7036966e-22
000150 54 bc 7d 3a 9e 11 31 39 00 00 00 00 00 00 00 00
       0.0009679247 0.00016886598 0.0 0.0
000160 04 00 00 00 04 00 00 00 67 54 ab b6 dd f9 bd b6
       6e-45 6e-45 -5.106023e-06 -5.661727e-06
000170 bc 8c 17 37 f6 ec 27 37 00 00 00 00 00 00 00 00
       9.033069e-06 1.0009147e-05 0.0 0.0
000180 00 00 00 00 00 00 00 00 4f 03 00 00 15 00 00 00
       0.0 0.0 1.187e-42 3e-44
000190 04 00 00 00 04 00 00 00 c9 2d 00 00 f3 3d 00 00
       6e-45 6e-45 1.6425e-41 2.2223e-41
0001a0 00 00 00 00 00 00 00 00 00 00 00 00 00 00 00 00
       0.0 0.0 0.0 0.0
0001b0 00 00 00 00 00 00 00 00 7c 82 6e 39 e6 ba c8 38
       0.0 0.0 0.00022746058 9.571556e-05
0001c0 a4 67 bc ba ce b5 33 b9 00 00 00 00 04 00 00 00
       -0.0014374149 -0.00017138498 0.0 6e-45
0001d0 c3 c6 3e 23 a6 1e bf 20 00 00 00 00 00 00 00 00
       1.034201e-17 3.237694e-19 0.0 0.0
0001e0 04 00 00 00 04 00 00 00 00 00 00 00 00 00 00 00
       6e-45 6e-45 0.0 0.0
0001f0 00 00 00 00 00 00 00 00 04 00 00 00 04 00 00 80
       0.0 0.0 6e-45 -6e-45

exp_avg_sq f4 [64, 2]
000000 f5 44 56 39 0d e3 5a 37 00 00 00 00 00 00 00 00
       0.00020434319 1.3046677e-05 0.0 0.0
000010 42 7e ca 35 e8 2f 13 34 27 d4 ff 36 04 2a 35 35
       1.5086919e-06 1.370787e-07 7.62429e-06 6.7488895e-07
000020 2f 57 b2 36 43 ff a9 34 00 00 00 00 00 00 00 00
       5.314963e-06 3.166443e-07 0.0 0.0
000030 17 ce 2c 34 b9 52 20 32 02 4e 7a 36 dc 0c 8a 34
       1.6093723e-07 9.332035e-09 3.729831e-06 2.571386e-07
000040 00 00 00 00 00 00 00 00 ac b8 54 2c 28 f6 83 2c
       0.0 0.0 3.0229525e-12 3.7505728e-12
000050 00 00 00 00 00 00 00 00 eb 3e 05 37 69 68 21 35
       0.0 0.0 7.942067e-06 6.012911e-07
000060 75 6f 4c 33 93 f0 0a 31 c1 43 67 37 36 4e 69 35
       4.759882e-08 2.0218394e-09 1.3784448e-05 8.6913076e-07
000070 00 00 00 00 00 00 00 00 00 00 00 00 00 00 00 00
       0.0 0.0 0.0 0.0
000080 e1 1d 78 38 5d 13 7d 36 00 00 00 00 00 00 00 00
       5.9155635e-05 3.7711209e-06 0.0 0.0
000090 37 b2 80 35 76 f5 f3 33 00 00 00 00 8c b7 89 2b
       9.58861e-07 1.13602184e-07 0.0 9.78538e-13
0000a0 6b 42 68 38 d8 fa 57 36 00 00 00 00 00 00 00 00
       5.5374967e-05 3.2183507e-06 0.0 0.0
0000b0 92 86 47 37 3d 4b 7b 35 00 00 00 00 00 00 00 00
       1.1892656e-05 9.361427e-07 0.0 0.0
0000c0 4d a2 f4 33 e7 75 b3 32 00 00 00 00 00 00 00 00
       1.1391658e-07 2.0891958e-08 0.0 0.0
0000d0 4a 2a 57 36 7b 21 4f 35 cf 67 69 33 a1 42 06 31
       3.2062112e-06 7.716223e-07 5.4343953e-08 1.953744e-09
0000e0 00 00 00 00 00 00 00 00 78 de 44 2e bd 6d 3c 2f
       0.0 0.0 4.4762832e-11 1.7137487e-10
0000f0 9b 43 84 39 45 dd 62 37 00 00 00 00 00 00 00 00
       0.00025227372 1.3522168e-05 0.0 0.0
000100 a9 97 d5 2a 0e 49 2e 2d f6 d1 b1 34 93 11 c0 32
       3.7941636e-13 9.906976e-12 3.3121586e-07 2.2359734e-08
000110 00 00 00 00 00 00 00 00 e9 ce fc 36 f6 70 e4 34
       0.0 0.0 7.5342728e-06 4.25505e-07
000120 7e 4b 74 34 f4 01 86 32 25 84 6d 32 51 af bd 31
       2.2751735e-07 1.5600541e-08 1.3825262e-08 5.520555e-09
000130 c0 ef 9a 34 ec df 87 32 00 00 00 00 00 00 00 00
       2.8859176e-07 1.5817896e-08 0.0 0.0
000140 b7 7f dc 33 34 d9 73 31 1d f5 40 36 f8 82 dd 33
       1.02677795e-07 3.548462e-09 2.8752904e-06 1.03149375e-07
000150 87 c1 61 38 c3 99 61 36 00 00 00 00 00 00 00 00
       5.3824417e-05 3.3617114e-06 0.0 0.0
000160 30 f1 97 35 24 50 a1 33 df bb 57 34 0b 58 83 32
       1.1320572e-06 7.511724e-08 2.0091782e-07 1.5290444e-08
000170 b6 57 fc 34 8c ae 83 33 00 00 00 00 00 00 00 00
       4.7002476e-07 6.131913e-08 0.0 0.0
000180 00 00 00 00 00 00 00 00 1a 88 0a 35 a2 29 8e 32
       0.0 0.0 5.160706e-07 1.6549908e-08
000190 56 8c 73 36 01 6c 79 34 4c 35 89 36 6f f6 a1 34
       3.6291508e-06 2.3229224e-07 4.0891227e-06 3.016789e-07
0001a0 00 00 00 00 00 00 00 00 00 00 00 00 00 00 00 00
       0.0 0.0 0.0 0.0
0001b0 00 00 00 00 00 00 00 00 31 ff d9 37 a6 d1 13 36
       0.0 0.0 2.5987249e-05 2.2026738e-06
0001c0 f5 bb a0 38 32 37 86 36 00 00 00 00 95 bd fe 2c
       7.664404e-05 3.999937e-06 0.0 7.240162e-12
0001d0 f7 27 b0 36 10 88 cb 34 00 00 00 00 00 00 00 00
       5.2498613e-06 3.7910695e-07 0.0 0.0
0001e0 26 4f 85 2d 3e 62 d5 2e 00 00 00 00 00 00 00 00
       1.5155498e-11 9.70357e-11 0.0 0.0
0001f0 00 00 00 00 00 00 00 00 55 7c 8f 2d 6b ca 74 2d
       0.0 0.0 1.6312432e-11 1.391474e-11

exp_avg f4 [64]
000000 a6 86 29 ba 00 00 00 00 04 00 00 00 37 d0 0b b8
       -0.00064669026 0.0 6e-45 -3.3334098e-05
000010 04 00 00 00 00 00 00 00 04 00 00 00 95 38 8c 04
       6e-45 0.0 6e-45 3.2965804e-36
000020 00 00 00 00 04 00 00 00 00 00 00 00 fe 75 29 08
       0.0 6e-45 0.0 5.0995287e-34
000030 04 00 00 00 a4 e3 f1 21 00 00 00 00 00 00 00 00
       6e-45 1.6391051e-18 0.0 0.0
000040 8d b8 ab ba 00 00 00 00 e3 87 28 38 04 00 00 00
       -0.0013101265 0.0 4.0180876e-05 6e-45
000050 0b 57 c4 39 00 00 00 00 5b ac b1 39 00 00 00 00
       0.00037448885 0.0 0.00033888486 0.0
000060 ee 1a b5 2d 00 00 00 00 cc bb 05 3a 04 00 00 00
       2.0589277e-11 0.0 0.0005101531 6e-45
000070 00 00 00 00 04 00 00 00 c2 0d d5 ba 00 00 00 00
       0.0 6e-45 -0.001625471 0.0
000080 04 00 00 00 18 e9 55 2a 00 00 00 00 e9 04 01 00
       6e-45 1.8999071e-13 0.0 9.3597e-41
000090 04 00 00 00 4f 07 d2 0a 04 00 00 00 00 00 00 00
       6e-45 2.0225014e-32 6e-45 0.0
0000a0 04 00 00 00 51 c4 c9 1d 82 72 80 3a 00 00 00 00
       6e-45 5.3407243e-21 0.0009799751 0.0
0000b0 04 00 00 00 f8 76 b5 b6 86 83 1f 37 00 00 00 00
       6e-45 -5.40807e-06 9.507761e-06 0.0
0000c0 00 00 00 00 88 03 00 00 04 00 00 00 07 39 03 00
       0.0 1.267e-42 6e-45 2.95964e-40
0000d0 00 00 00 00 00 00 00 00 00 00 00 00 47 6b 6f 3a
       0.0 0.0 0.0 0.0009133112
0000e0 a6 05 dc ba 04 00 00 00 b6 7e 4b 23 00 00 00 00
       -0.0016786351 6e-45 1.1031484e-17 0.0
0000f0 04 00 00 00 00 00 00 00 00 00 00 00 04 00 00 00
       6e-45 0.0 0.0 6e-45

exp_avg_sq f4 [64]
000000 08 c7 13 3a 00 00 00 00 41 a6 ec 36 32 58 3f 37
       0.0005637263 0.0 7.0527026e-06 1.1405022e-05
000010 6d fb 0e 37 00 00 00 00 fe 25 d9 34 b8 86 3b 37
       8.522399e-06 0.0 4.0447043e-07 1.1177435e-05
000020 00 00 00 00 05 6b 9a 30 00 00 00 00 4b 6b 00 38
       0.0 1.1235392e-09 0.0 3.0617502e-05
000030 72 b3 f0 33 63 e5 20 38 00 00 00 00 00 00 00 00
       1.1208512e-07 3.8360606e-05 0.0 0.0
000040 03 13 30 39 00 00 00 00 e8 2d a7 36 22 da 59 2f
       0.0001679175 0.0 4.982332e-06 1.9813531e-10
000050 2d a8 24 39 00 00 00 00 13 e8 73 38 00 00 00 00
       0.00015702909 0.0 5.815185e-05 0.0
000060 24 ec fa 34 00 00 00 00 5f 11 a2 36 31 87 cc 33
       4.6737944e-07 0.0 4.8299985e-06 9.5240814e-08
000070 00 00 00 00 96 68 0f 33 e3 99 d2 39 00 00 00 00
       0.0 3.3389902e-08 0.00040168976 0.0
000080 7d c8 f8 30 7e 3f 19 35 00 00 00 00 07 e8 3d 37
       1.8101357e-09 5.7089335e-07 0.0 1.1319301e-05
000090 e2 5b 07 35 3e 0e 5b 34 5c f7 0b 35 00 00 00 00
       5.0425126e-07 2.0401146e-07 5.214149e-07 0.0
0000a0 44 03 10 34 e4 5b a4 36 f9 ed 22 39 00 00 00 00
       1.3412233e-07 4.8982783e-06 0.00015538176 0.0
0000b0 8e 18 2c 36 d1 62 e4 34 03 3d c2 35 00 00 00 00
       2.564429e-06 4.2540208e-07 1.4471883e-06 0.0
0000c0 00 00 00 00 89 1c 67 35 2d 1b 0c 37 b5 c2 78 37
       0.0 8.609573e-07 8.350978e-06 1.4827286e-05
0000d0 00 00 00 00 00 00 00 00 00 00 00 00 25 14 14 39
       0.0 0.0 0.0 0.00014121884
0000e0 9a 69 f5 38 3b 7c c9 30 ae 7d 93 37 00 00 00 00
       0.0001170218 1.4659983e-09 1.758229e-05 0.0
0000f0 3a 76 b8 32 00 00 00 00 00 00 00 00 01 38 ea 30
       2.1474182e-08 0.0 0.0 1.7041658e-09
