data/results/gbwm_4goals_bs4800_lr0.01/checkpoints/checkpoint_0000.pth (torch, 198827 bytes, 39 tensors)

shared_backbone.0.weight f4 [64, 2]
-0.061387897 -0.004737209 0.04018003 -0.027633049 -0.074907266 -0.28572017 0.055924956 0.41076973
-0.13865823 -0.054895643 0.20614988 -0.038899116 0.085417226 0.16626585 0.026863225 -0.11555424
0.02744703 0.0443911 -0.016565584 -0.0029963676 -0.14647244 -0.34475368 0.23827556 0.35651356
-0.16693072 0.076513074 -0.07074907 -0.026708402 -0.1113777 -0.052310772 0.22344801 -0.11628198
0.09401444 -0.37834874 -0.11157348 0.014276018 -0.04056143 -0.16322707 0.030327028 0.0642884
0.16484185 -0.07396336 -0.08911912 -0.16613416 -0.18739974 -0.099625826 -0.7516667 0.23809254
-0.029173672 0.2178213 0.0263681 0.031995296 -0.086513616 0.12628108 -0.037669465 -0.02168664
0.44093394 0.08314531 -0.057730924 -0.121017426 -0.15722862 -0.2083634 -0.06713324 -0.2000504
-0.006595745 0.06350746 -0.10602166 0.059876706 -0.16339584 -0.09549754 -0.023118386 0.40833578
0.10959345 -0.108914316 0.4360108 -0.0032293606 -0.0780318 -0.08673176 -0.19437648 -0.21979767
-0.00066367816 -0.32189742 -0.23352467 -0.02711275 0.16504155 -0.48289368 -0.04745756 0.057722196
0.0023619311 0.11580974 -0.17082623 -0.20444196 0.054293934 -0.13405648 0.020041063 -0.080114916
0.021454783 0.4284571 -0.20380737 0.12006982 -0.05110946 0.1809154 -0.05021987 -0.2690325
-0.14689438 0.044856206 -0.05846336 -0.12298604 -0.31474102 -0.37098965 -0.07908688 -0.019402264
-0.00038510485 -0.21555756 0.031403784 -0.32703835 0.111056484 -0.13667026 0.3079322 -0.48484498
-0.020929608 -0.1662965 -0.3345735 0.008429788 -0.16850615 -0.14864166 -0.15280557 0.2307771
00000000: e071 7bbd 973a 9bbb d193 243d b45e e2bc
00000010: fb68 99bd ea49 92be 9111 653d 6950 d23e
00000020: 6cfc 0dbe 41da 60bd f418 533e ae54 1fbd
00000030: 3aef ae3d 9841 2a3e 4410 dc3c b4a7 ecbd
00000040: 98d8 e03c 71d3 353d 8cb4 87bc b55e 44bb
00000050: dffc 15be 8e83 b0be 82fe 733e f288 b63e
00000060: e3ef 2abe e3b2 9c3d e3e4 90bd 94cb dabc
00000070: fe19 e4bd d243 56bd 8ecf 643e 3f25 eebd
00000080: a58a c03d edb6 c1be a380 e4bd f6e5 693c
00000090: be23 26bd ff24 27be 6370 f83c a3a9 833d
000000a0: 4dcc 283e 1a7a 97bd 1684 b6bd 131f 2abe
000000b0: b8e5 3fbe a008 ccbd 3b6d 40bf 88ce 733e
000000c0: a0fd eebc 8c0c 5f3e ea01 d83c 800d 033d
000000d0: 0d2e b1bd d44f 013e 4c4b 1abd 2ea8 b1bc
000000e0: 18c2 e13e 1748 aa3d 4377 6cbd fcd7 f7bd
000000f0: 8a00 21be 375d 55be 277d 89bd 03da 4cbe
00000100: 1f21 d8bb 3310 823d e221 d9bd 4741 753d
00000110: 3d51 27be 3794 c3bd c562 bdbc 6311 d13e
00000120: 8872 e03d 780e dfbd cf3c df3e aea3 53bb
00000130: 23cf 9fbd 6ca0 b1bd a10a 47be a412 61be
00000140: b0fa 2dba bdcf a4be 1721 6fbe 8f1b debc
00000150: a700 293e d73d f7be dc62 42bd 1c6e 6c3d
00000160: a1ca 1a3b a82d ed3d 12ed 2ebe 3c59 51be
00000170: 5163 5e3d 1a46 09be 282d a43c 4a13 a4bd
00000180: f1c1 af3c bb5e db3e e1b2 50be 2ae7 f53d
00000190: 2758 51bd e341 393e 5ab3 4dbd a1be 89be
000001a0: 7b6b 16be 24bb 373d 4777 6fbd 1be0 fbbd
000001b0: bc25 a1be 5bf2 bdbe 4df8 a1bd 7ff1 9ebc
000001c0: e6e7 c9b9 1fbb 5cbe 41a1 003d 9271 a7be
000001d0: 9571 e33d 4af3 0bbe 4aa9 9d3e 9a3d f8be
000001e0: 9274 abbc a149 2abe 384d abbe 181d 0a3c
000001f0: e08c 2cbe 8535 18be 1079 1cbe d550 6c3e

shared_backbone.0.bias f4 [64]
0.0 -0.06902975 0.0 -0.05851304 0.0 -0.19499952 -0.16695511 -0.047232617
-0.07588547 -0.052914992 0.0 -0.037058447 -0.059933648 -0.02272193 -0.02120984 -0.21491465
-0.08611797 -0.06005444 -0.06005497 -0.06589072 -0.19831865 0.0 0.0 -0.030027336
-0.021993775 -0.043404255 -0.03748295 -0.06093483 -0.030031437 0.0 0.0 0.0
-0.10828008 -0.060048465 0.0 -0.037462186 -0.1134673 -0.33028847 0.0 0.0
-0.11689831 0.0 -0.056740154 -0.06039024 -0.023429533 0.0 -0.057133954 -0.06260375
-0.013397429 -0.060052037 -0.067117244 -0.06299023 -0.0188435 0.0 0.0 -0.06005468
0.0 -0.06884716 -0.11019233 -0.042970724 -0.07344121 -0.06005384 0.0 -0.014631727
00000000: 0000 0000 785f 8dbd 0000 0000 5fab 6fbd
00000010: 0000 0000 f4ad 47be 48f6 2abe fd76 41bd
00000020: d769 9bbd 64bd 58bd 0000 0000 99ca 17bd
00000030: fc7c 75bd 5723 babc 42c0 adbc 9612 5cbe
00000040: 9e5e b0bd a5fb 75bd 33fc 75bd b7f1 86bd
00000050: 0b14 4bbe 0000 0000 0000 0000 e3fb f5bc
00000060: 4a2c b4bc a9c8 31bd b987 19bd cd96 79bd
00000070: 7d04 f6bc 0000 0000 0000 0000 0000 0000
00000080: f2c1 ddbd 61f5 75bd 0000 0000 f371 19bd
00000090: 8b61 e8bd 921b a9be 0000 0000 0000 0000
000000a0: 6268 efbd 0000 0000 5d68 68bd c25b 77bd
000000b0: 4bef bfbc 0000 0000 4b05 6abd 6536 80bd
000000c0: e480 5bbc 20f9 75bd c474 89bd 0601 81bd
000000d0: af5d 9abc 0000 0000 0000 0000 e5fb 75bd
000000e0: 0000 0000 bdff 8cbd 84ac e1bd 1202 30bd
000000f0: 5868 96bd 04fb 75bd 0000 0000 e9b9 6fbc

shared_backbone.2.weight f4 [64, 64]
0.3357873 -0.06947655 0.19122651 -0.064924255 0.029448599 0.19162391 -0.49939936 0.10142594
0.06547927 -0.05795612 0.11513681 0.27974772 -0.31750163 0.14295828 -0.24989538 0.07913862
0.0066049336 -0.048466492 -0.09034895 -0.18085425 -0.332254 0.10348376 0.15788697 0.20004463
-0.21000208 0.28603172 -0.15215941 -0.07211952 0.004784861 -0.19247034 -0.24784033 0.22272316
0.063018344 0.13648596 -0.05471036 -0.17225401 -0.25267127 -0.100787856 -0.03339533 -0.09731977
-0.10299311 0.17608589 -0.27899414 0.07452565 -0.3168163 0.16182473 0.2582076 -0.016013406
-0.037321772 -0.06605618 -0.26590714 -0.028137853 0.21789645 -0.24213058 0.15929729 -0.013511083
0.011343585 -0.008498448 -0.037236717 -0.13832493 -0.1977344 -0.19239686 -0.07142758 -0.25659645
0.16901861 -0.08375071 -0.103953734 -0.24609324 -0.08771696 -0.08606321 0.002798019 0.07692768
-0.32562122 -0.041683044 -0.09391869 -0.12652886 -0.017469449 0.21593936 0.20104097 0.1522308
-0.13493237 -0.19782315 -0.1859725 -0.01224163 -0.06062449 0.011341235 0.39458257 -0.24667862
-0.08228668 -0.01044308 -0.20330776 -0.124181725 -0.30588874 0.14116783 -0.09534133 -0.048840195
0.15938689 0.16325335 0.19815953 -0.22521214 0.13190728 0.093424715 -0.22872746 -0.01893174
0.084655724 -0.10034868 -0.078918196 0.18062961 -0.014343458 -0.25069046 -0.27480412 -0.18065478
0.14342062 0.17405267 -0.048266347 0.2825182 -0.20667258 -0.04953068 -0.112210326 -0.1639022
-0.121830195 0.23551068 0.1313803 -0.3074343 -0.14924154 -0.2646892 0.33731887 -0.14448184
0.022391142 0.10424758 0.51456934 0.016877975 0.064051405 -0.05713923 -0.012481149 -0.18041572
0.04198287 0.17961112 -0.039978206 -0.33630317 0.10212202 -0.20333724 0.042263366 -0.16231537
-0.18496643 -0.2633353 -0.04991551 0.04118492 -0.25394413 -0.06966223 -0.20709468 -0.053132813
-0.20748034 -0.033562474 0.14328693 -0.22698471 -0.038694624 -0.12197181 -0.17336226 -0.5019819
-0.032642107 0.10194792 0.1943022 -0.0014211704 -0.03995053 -0.2725141 0.022889407 0.061897118
-0.2302321 -0.21612895 -0.19431539 0.31806332 -0.074977465 0.092491776 -0.2919485 -0.042306095
0.04086126 0.19294909 -0.19758959 -0.008670285 0.30102986 0.19990304 -0.047385532 0.3083738
-0.057459656 0.0048361896 0.14925186 -0.24146317 -0.061449196 -0.20293245 -0.20064577 0.10558457
-0.24324225 0.20400122 -0.1874036 0.072248824 -0.36096045 -0.28162578 0.2398387 -0.10929402
-0.2975225 -0.15481184 0.006490041 0.12866184 0.10174928 0.24654275 0.075408876 0.045818906
-0.11296796 -0.10008186 0.050426114 0.26784286 -0.1285137 0.2394457 -0.085858114 0.05483961
-0.05988712 0.022066325 0.10230289 -0.093034744 0.11631134 -0.13761815 -0.27005714 0.12243277
-0.09437609 0.068675205 0.1363162 -0.22496775 -0.19812426 -0.6531138 0.31474546 0.15118201
0.00766192 -0.106056646 -0.0036757789 0.20531447 0.071701095 -0.16915298 0.21222094 -0.09186314
-0.11546394 0.16519657 -0.21834445 0.122933075 -0.3524451 -0.18126333 0.23982681 0.31387886
0.009781808 0.05164188 0.050682753 0.1524509 -0.13448566 0.14487658 -0.23224504 0.03351831
00000000: 50ec ab3e b949 8ebd e2d0 433e 02f7 84bd
00000010: 303e f13c 0f39 443e 46b1 ffbe 67b8 cf3d
00000020: ff19 863d 6663 6dbd d9cc eb3d 183b 8f3e
00000030: 938f a2be a863 123e 93e4 7fbe 6e13 a23d
00000040: 336e d83b cd84 46bd df08 b9bd db31 39be
00000050: 321d aabe 4bef d33d 1fad 213e 80d8 4c3e
00000060: c90a 57be c072 923e adcf 1bbe 66b3 93bd
00000070: 53ca 9c3b f216 45be dbc9 7dbe 8a11 643e
00000080: c30f 813d fac2 0b3e f817 60bd 5b63 30be
00000090: 215e 81be dd69 cebd 8bc9 08bd 964f c7bd
000000a0: 0dee d2bd dc4f 343e 52d8 8ebe e7a0 983d
000000b0: bf35 a2be 62b5 253e c933 843e 8c2e 83bc
000000c0: b7de 18bd 7648 87bd fb24 88be 5b81 e6bc
000000d0: 3f20 5f3e 14f1 77be d41e 233e 975d 5dbc
000000e0: 72da 393c 133d 0bbc 8785 18bd 0da5 0dbe
000000f0: e37a 4abe af03 45be a048 92bd 9c60 83be
00000100: 3713 2d3e 7e85 abbd b2e5 d4bd deff 7bbe
00000110: f3a4 b3bd e941 b0bd f85e 373b 428c 9d3d
00000120: d3b7 a6be d7bb 2abd 7158 c0bd c890 01be
00000130: 171c 8fbc 351f 5d3e afdd 4d3e 64e2 1b3e
00000140: b62b 0abe 2792 4abe 936f 3ebe 1e91 48bc
00000150: 6351 78bd 96d0 393c ba06 ca3e 5299 7cbe
00000160: eb85 a8bd 7419 2bbc e92f 50be fd52 febd
00000170: 739d 9cbe 4d8e 103e 5142 c3bd a80c 48bd
00000180: 5136 233e e32b 273e 55ea 4a3e 039e 66be
00000190: b412 073e 7555 bf3d 8837 6abe bd16 9bbc
000001a0: fb5f ad3d 9c83 cdbd dd9f a1bd f8f6 383e
000001b0: d300 6bbc 805a 80be 20b3 8cbe 91fd 38be
000001c0: dbdc 123e dd3a 323e efb2 45bd 3aa6 903e
000001d0: faa1 53be afe0 4abd 87ce e5bd fad5 27be
000001e0: 1c82 f9bd b629 713e 8f88 063e 0768 9dbe
000001f0: c6d2 18be 5885 87be 0fb5 ac3e 0cf3 13be
00000200: a16d b73c c17f d53d d1ba 033f ae43 8a3c
00000210: 622d 833d d30a 6abd bc7d 4cbc e6be 38be
00000220: 3bf6 2b3d faeb 373e 30c0 23bd ee2f acbe
00000230: 5a25 d13d a337 50be 5a1c 2d3d 0036 26be
00000240: d767 3dbe e2d3 86be 3574 4cbd 85b1 283d
00000250: f704 82be 12ab 8ebd a110 54be cba1 59bd
00000260: ba75 54be ce78 09bd cfb9 123e ae6e 68be
00000270: 417e 1ebd 5bcc f9bd e085 31be e381 00bf
00000280: bbb3 05bd 12ca d03d 28f7 463e 9146 baba
00000290: 2ba3 23bd f886 8bbe 9182 bb3c d587 7d3d
000002a0: f7c1 6bbe e850 5dbe 9dfa 46be 32d9 a23e
000002b0: c98d 99bd 546c bd3d 467a 95be 2849 2dbd
000002c0: 235e 273d 7294 453e ed54 4abe d00d 0ebc
000002d0: 9620 9a3e 62b3 4c3e 5517 42bd 2ce3 9d3e
000002e0: d15a 6bbd e678 9e3b 7bd5 183e 1f42 77be
000002f0: 27b2 7bbd 86cd 4fbe 1676 4dbe b93c d83d
00000300: 7f14 79be b2e5 503e bbe6 3fbe 31f7 933d
00000310: cfcf b8be 4131 90be 4798 753e 8bd5 dfbd
00000320: de54 98be ff86 1ebe 69aa d43b eebf 033e
00000330: ed61 d03d b475 7c3e f86f 9a3d 9bac 3b3d
00000340: bf5b e7bd b8f7 ccbd 9d8b 4e3d b322 893e
00000350: 1899 03be 4131 753e 61d6 afbd 809f 603d
00000360: 324c 75bd 70c4 b43c 2d84 d13d 0089 bebd
00000370: a434 ee3d c6eb 0cbe ee44 8abe 08be fa3d
00000380: 4048 c1bd 96a5 8c3d 7996 0b3e f25d 66be
00000390: 16e1 4abe 7732 27bf 5126 a13e 75cf 1a3e
000003a0: d810 fb3b 3a34 d9bd 56e5 70bb f53d 523e
000003b0: 06d8 923d 7036 2dbe 7250 593e be22 bcbd
000003c0: 5c78 ecbd 4a29 293e b095 5fbe 56c4 fb3d
000003d0: af73 b4be 189d 39be 2995 753e bbb4 a03e
000003e0: e043 203c 7086 533d b898 4f3d 171c 1c3e
000003f0: 9cb6 09be 875a 143e a5d1 6dbe 7f4a 093d

shared_backbone.2.bias f4 [64]
-0.06005486 -0.0046446095 0.029908355 -0.0049371156 -0.068623915 -0.05500137 -0.011314139 -0.058337416
-0.060053512 -0.07543163 -0.013707278 -0.006344248 -0.022597099 -0.022898516 -0.062228277 -0.10703452
-0.091140434 -0.06964452 -0.042047165 -0.06431558 -0.060055017 -0.26146975 -0.059273884 -0.11284707
-0.010090092 -0.051121008 -0.09036087 -0.11038892 -0.008585806 -0.09348658 -0.060102336 -0.014957118
-0.060054827 -0.07994947 -0.059442624 -0.04269342 -0.027310714 0.0050754817 -0.060054746 -0.28790063
-0.2760661 0.029287294 -0.23291868 -0.0057770624 0.13374192 -0.057256404 -0.10719012 -0.05847038
-0.12890644 -0.057584707 0.11496419 -0.036635138 -0.058958925 -0.07859249 -0.050425183 -0.028386671
-0.006393592 -0.0610082 0.08039847 -0.06004965 -0.14629045 -0.09458746 -0.055588186 -0.060055017
00000000: 16fc 75bd cf31 98bb 5e02 f53c 87c7 a1bb
00000010: b28a 8cbd 1e49 61bd f05e 39bc 37f3 6ebd
00000020: acfa 75bd e67b 9abd 7e94 60bc 69e3 cfbb
00000030: 8d1d b9bc ab95 bbbc 14e3 7ebd ea34 dbbd
00000040: d6a7 babd c9a1 8ebd a639 2cbd e3b7 83bd
00000050: 40fc 75bd 5ddf 85be 2cc9 72bd 5d1c e7bd
00000060: ea50 25bc 4364 51bd 1f0f b9bd 9613 e2bd
00000070: 7bab 0cbc e475 bfbd de2d 76bd b30e 75bc
00000080: 0dfc 75bd 8cbc a3bd 1c7a 73bd 4cdf 2ebd
00000090: b8ba dfbc 3a50 a63b f7fb 75bd b667 93be
000000a0: 8958 8dbe e8eb ef3c 3c82 6ebe 834d bdbb
000000b0: a4f3 083e b185 6abd 7e86 dbbd a37e 6fbd
000000c0: 0d00 04be f1dd 6bbd 5872 eb3d ba0e 16bd
000000d0: ea7e 71bd 19f5 a0bd a38a 4ebd 2a8b e8bc
000000e0: 5681 d1bb bce3 79bd f4a7 a43d 9ff6 75bd
000000f0: 2acd 15be 12b7 c1bd 70b0 63bd 40fc 75bd

goal_head.weight f4 [2, 64]
0.14715195 -0.26962057 -0.14483592 -0.17118226 0.13101056 -0.04741868 -0.14261551 0.03739441
-0.1828197 -0.0065775365 -0.17391363 0.041200805 -0.19858946 -0.026735026 0.06324401 0.14467387
0.041941423 -0.08206463 -0.18009199 -0.05755999 0.25600004 -0.07321498 0.17414841 0.16044348
-0.107272625 -0.083968334 0.03449328 -0.2704923 -0.053103663 -0.015419532 0.03837486 -0.22967854
-0.12997255 0.07240115 -0.14333734 -0.32348916 0.24025041 0.04801504 -0.015256172 0.5864116
0.26075965 -0.34545782 -0.13101149 -0.49702036 0.62840414 -0.20340793 -0.07129136 -0.23738475
0.07486528 0.07707271 -0.7999032 -0.10450213 -0.07332671 0.07344229 -0.08901863 -0.10524724
-0.108306184 -0.010006113 -0.058830682 0.073259965 0.03510686 -0.2321553 -0.017935826 0.12804003
0.16547912 0.2249368 0.1616984 0.32548663 -0.27957344 -0.004253427 0.05539832 0.1952004
0.24734592 -0.05566521 0.29061282 0.20908524 0.046420492 0.12462338 0.08037871 0.067640856
-0.1696842 -0.18036155 -0.102569655 -0.24404466 0.02433269 -0.47969654 -0.1557546 0.18717037
0.07359968 -0.048101496 -0.14042513 -0.01253195 0.050954673 -0.0030886338 -0.116177216 0.10708285
0.014188475 0.08441451 -0.10972334 0.15419129 0.045792785 0.2797524 -0.025176903 0.13987067
-0.08259211 0.24236189 0.05055929 -0.04652336 -0.9069707 -0.010211994 0.20885779 -0.25395748
-0.06257649 -0.09529626 0.14715856 0.2122105 -0.13146219 0.2264552 -0.11676467 0.07691407
0.16145946 -0.030658165 0.6700611 0.14697504 0.02201991 -0.061575778 0.054892994 -0.208771
00000000: 00af 163e b50b 8abe de4f 14be 674a 2fbe
00000010: a227 063e 173a 42bd cd09 12be e22a 193d
00000020: 1635 3bbe 6088 d7bb 6a16 32be 2dc2 283d
00000030: 095b 4bbe 6a03 dbbc 1386 813d 6325 143e
00000040: c5ca 2b3d 8011 a8bd 096a 38be 06c4 6bbd
00000050: 7012 833e bcf1 95bd f653 323e 4c4b 243e
00000060: c0b1 dbbd 97f7 abbd d348 0d3d f77d 8abe
00000070: 3a83 59bd 34a2 7cbc f52e 1d3d da30 6bbe
00000080: 8617 05be 0e47 943d 06c7 12be 5fa0 a5be
00000090: 3404 763e 6bab 443d 06f5 79bc 121f 163f
000000a0: 4a82 853e d9df b0be e027 06be 7479 febe
000000b0: 18df 203f 2b4a 50be 3401 92bd fd14 73be
000000c0: f852 993d 4cd8 9d3d 75c6 4cbf 3605 d6bd
000000d0: 502c 96bd e968 963d 664f b6bd dd8b d7bd
000000e0: a2cf ddbd aef0 23bc 71f8 70bd 5209 963d
000000f0: 36cc 0f3d 1eba 6dbe 27ee 92bc ed1c 033e
00000100: 5c73 293e d555 663e 4494 253e 2fa6 a63e
00000110: 4024 8fbe 5560 8bbb 59e9 623d 9de2 473e
00000120: 4048 7d3e 3401 64bd 34cb 943e 711a 563e
00000130: 6a23 3e3d 8b3a ff3d 989d a43d 4a87 8a3d
00000140: b2c1 2dbe b3b0 38be 0a10 d2bd d8e6 79be
00000150: 5955 c73c c99a f5be 227e 1fbe 97a9 3f3e
00000160: 6ebb 963d 1306 45bd 9bcb 0fbe cf52 4dbc
00000170: d9b5 503d ad6a 4abb 52ee edbd 414e db3d
00000180: c776 683c 84e1 ac3d a1b6 e0bd 52e4 1d3e
00000190: 3791 3b3d b53b 8f3e cb3f cebc 423a 0f3e
000001a0: 0d26 a9bd b72d 783e 4217 4f3d 478f 3ebd
000001b0: 3b2f 68bf 3550 27bc d1de 553e b706 82be
000001c0: 1a28 80bd b02a c3bd bcb0 163e b64d 593e
000001d0: 069e 06be dfe3 673e 5122 efbd 2085 9d3d
000001e0: a155 253e d526 fbbc 2089 2b3f a080 163e
000001f0: 1963 b43c e236 7cbd 7ad7 603d 11c8 55be

goal_head.bias f4 [2]
-0.45667845 0.4566784
00000000: c2d1 e9be c0d1 e93e

portfolio_head.weight f4 [15, 64]
0.17652997 -0.010001568 0.119792536 -0.27685127 -0.008348891 -0.042340253 -0.12568076 -0.050786026
0.20116492 -0.01985656 0.18170539 0.026383795 -0.014390501 0.22319356 -0.20023741 -0.2394611
-0.18832107 -0.1864058 0.0016645455 0.099458806 -0.07577799 -0.31156632 0.017965905 -0.056827158
0.055467837 0.19828707 0.07920061 -0.058300555 0.07881834 -0.102491714 0.07633254 0.07798011
0.19767475 -0.18780053 -0.11636038 0.104327075 -0.044741105 -0.12053788 -0.098209105 0.21417625
0.2779105 -0.0915154 -0.13552691 0.032410797 0.2176295 -0.026796414 0.27297097 0.057586033
-0.2703066 0.02648024 -0.009980323 -0.058837514 0.17284916 -0.21756946 -0.14221407 -0.07796575
-0.09368107 0.10928694 0.1421945 0.050171476 -0.09389084 -0.07285633 -0.6257019 -0.17167948
0.14660718 0.47040895 -0.057589095 -0.05024792 -0.06102631 -0.07096226 -0.085314855 -0.11841909
0.04579179 -0.036206927 -0.13315302 -0.18007773 0.03503975 -0.28847793 0.22124235 -0.056398526
-0.008210842 -0.0035181332 -0.02043161 -0.05668098 0.20706837 0.1650504 0.20494616 0.3835724
0.18683816 0.2696205 0.010490982 0.119411975 0.22492622 -0.26323366 -0.28030616 -0.07228077
0.10249855 0.24503928 0.10199085 0.1535215 -0.2268252 -0.02975706 -0.027053209 -0.12108488
0.1379697 -0.16130424 0.13342416 0.08849376 0.33884254 0.29752153 0.04836285 -0.16119502
0.098447874 0.18826355 0.073410034 -0.054696903 0.37391022 -0.19610256 0.0236019 -0.003246328
0.07541357 0.07072631 -0.0272708 -0.14351983 -0.2952122 -0.1787646 0.010308201 -0.107029915
0.08402024 -0.20625067 -0.0045957905 0.21166487 0.24712962 0.30724502 0.04197787 0.053054575
0.12758541 -0.33920592 0.09511663 -0.1435358 0.05496512 -0.27109274 -0.16882642 0.011713646
0.2552547 -0.009973305 0.08911922 -0.076534495 0.19498837 0.15679926 0.17039105 -0.33689737
-0.00083866325 -0.042432256 0.014046468 -0.1284458 0.04607226 -0.012820649 0.0247668 -0.015769608
0.049597014 -0.1441554 -0.01857115 -0.06009363 0.4187427 0.08255483 -0.11893951 -0.26267096
-0.45232016 0.13286488 -0.01054404 -0.0838053 0.20268542 -0.017490726 -0.0064645316 0.015176538
0.101375684 0.21372399 -0.15604238 -0.03667057 -0.06268675 -0.27661398 -0.21064562 -0.17826603
0.107027814 -0.11108324 -0.20388299 0.19884588 -0.06304759 0.010684783 0.055921443 -0.17523524
-0.1562246 -0.0047821603 -0.34986454 0.19472404 -0.020432817 0.15281218 -0.22542046 0.011579846
0.016040087 0.25488707 0.3755784 -0.065663666 0.29706666 -0.16393575 -0.14815731 0.257109
0.119911596 0.24621634 0.1437617 0.1376021 0.043643568 0.14772774 -0.25618252 -0.17994858
-0.29748675 0.13487613 0.21776974 -0.09292568 0.19515853 0.28753737 0.15633512 -0.0032132745
-0.1347105 0.13682 0.10299822 -0.04110517 -0.17072736 0.1344059 -0.31948346 -0.36845958
-0.046048716 0.22713405 0.19757462 -0.13962819 -0.5357885 0.11561381 -0.21452886 -0.03211616
-0.22281134 -0.26813683 -0.07921189 0.050605617 0.08218016 0.17912073 -0.22936335 -0.35679635
0.3061602 0.13734685 -0.23261705 0.07750408 0.0342517 -0.038992684 -0.24720836 -0.001569981
00000000: 46c4 343e 9edd 23bc ca55 f53d 73bf 8dbe
00000010: c9c9 08bc f96c 2dbd 75b2 00be 0205 50bd
00000020: 2dfe 4d3e 39aa a2bc fa10 3a3e d422 d83c
00000030: 23c6 6bbc da8c 643e 090b 4dbe 4a35 75be
00000040: 3dd7 40be 29e1 3ebe e12c da3a 0fb1 cb3d
00000050: 7e31 9bbd 9f85 9fbe 3c2d 933c 98c3 68bd
00000060: 3e32 633d c40b 4b3e ee33 a23d 90cc 6ebd
00000070: 836b a13d 2de7 d1bd 3c54 9c3d 09b4 9f3d
00000080: 406b 4a3e c84e 40be 5a4e eebd 6fa9 d53d
00000090: 7342 37bd 90dc f6bd db21 c9bd 0551 5b3e
000000a0: 494a 8e3e 6d6c bbbd 91c7 0abe 2fc1 043d
000000b0: 45da 5e3e 2784 dbbc dac2 8b3e 55df 6b3d
000000c0: a065 8abe 17ed d83c 8284 23bc 9bff 70bd
000000d0: 5fff 303e 87ca 5ebe 91a0 11be 82ac 9fbd
000000e0: dcdb bfbd d5d1 df3d 6f9b 113e 9b80 4d3d
000000f0: d749 c0bd b335 95bd 002e 20bf bfcc 2fbe
00000100: 3120 163e 71d9 f03e 8be2 6bbd c3d0 4dbd
00000110: b9f6 79bd a954 91bd 8eb9 aebd b585 f2bd
00000120: 2c90 3b3d b74d 14bd 4459 08be 4c66 38be
00000130: d785 0f3d 61b3 93be 5b8d 623e 2402 67bd
00000140: c486 06bc 7b90 66bb 3160 a7bc 512a 68bd
00000150: bb09 543e f902 293e 68dd 513e 9a63 c43e
00000160: 8152 3f3e b30b 8a3e 5ee2 2b3c 448e f43d
00000170: 0f53 663e 90c6 86be 4a84 8fbe f107 94bd
00000180: c3ea d13d 94eb 7a3e 94e0 d03d bd34 1d3e
00000190: dd44 68be 14c5 f3bc b19e ddbc 59fb f7bd
000001a0: ee47 0d3e f02c 25be 58a0 083e 373c b53d
000001b0: c57c ad3e be54 983e 2018 463d 4f10 25be
000001c0: 0a9f c93d 29c8 403e 0058 963d dc09 60bd
000001d0: 2971 bf3e 1ccf 48be c658 c13c 59c0 54bb
000001e0: 6e72 9a3d f5d8 903d 0367 dfbc ddf6 12be
000001f0: 0e26 97be 110e 37be bbe3 283c 8032 dbbd
00000200: ce12 ac3d 6033 53be 4998 96bb adbe 583e
00000210: 8c0f 7d3e 384f 9d3e fdf0 2b3d c14f 593d
00000220: c0a5 023e 66ac adbe 82cc c23d 0cfb 12be
00000230: 1b23 613d abcc 8abe d5e0 2cbe 98ea 3f3c
00000240: beb0 823e 1367 23bc 2384 b63d 1ebe 9cbd
00000250: 08ab 473e fc8f 203e fe7a 2e3e d07d acbe
00000260: bdd9 5bba 72cd 2dbd 2823 663c 4c87 03be
00000270: 44b6 3c3d b30d 52bc bfe3 ca3c 442f 81bc
00000280: 3d26 4b3d 799d 13be 8622 98bc bd24 76bd
00000290: 7165 d63e 8212 a93d 8f96 f3bd cf7c 86be
000002a0: 8296 e7be bb0d 083e e9c0 2cbc 1da2 abbd
000002b0: c48c 4f3e b648 8fbc 6cd4 d3bb 04a7 783c
000002c0: 0e9e cf3d 76da 5a3e 93c9 1fbe e133 16bd
000002d0: e961 80bd 59a0 8dbe 7cb3 57be 5f8b 36be
000002e0: 6631 db3d 9c7f e3bd b4c6 50be 419e 4b3e
000002f0: 181f 81bd 3a0f 2f3c e20d 653d de70 33be
00000300: 57f9 1fbe abb3 9cbb 7221 b3be bd65 473e
00000310: b962 a7bc cc7a 1c3e 9fd4 66be 65b9 3d3c
00000320: 8066 833c 8f80 823e d04b c03e ac7a 86bd
00000330: 1f19 983e c6de 27be 8db6 17be caa3 833e
00000340: 3694 f53d 2320 7c3e 4436 133e 91e7 0c3e
00000350: 99c3 323d f145 173e 5b2a 83be 7144 38be
00000360: 2f50 98be f81c 0a3e 08ff 5e3e d24f bebd
00000370: a3d7 473e 1938 933e 5016 203e cd95 52bb
00000380: 8df1 09be 8b1a 0c3e bbf0 d23d e55d 28bd
00000390: 27d3 2ebe b3a1 093e 5693 a3be bca6 bcbe
000003a0: 949d 3cbd d495 683e 0051 4a3e b1fa 0ebe
000003b0: 6f29 09bf efc6 ec3d 74ad 5bbe 3c8c 03bd
000003c0: a828 64be 3b49 89be d839 a2bd d647 4f3d
000003d0: 124e a83d 6d6b 373e 3ade 6abe 03ae b6be
000003e0: 08c1 9c3e a7a4 0c3e 2a33 6ebe 76ba 9e3d
000003f0: 834b 0c3d cbb6 1fbd 3024 7dbe d2c7 cdba

portfolio_head.bias f4 [15]
-0.013572674 -0.046790555 0.035993665 0.06049639 0.012514952 0.012287784 -0.031277426 -0.023445638
0.037770964 -0.019246494 -0.08591704 0.07369357 -0.05203742 -0.052366782 0.018840155
00000000: ec5f 5ebc 74a7 3fbd 186e 133d 10cb 773d
00000010: 830b 4d3c b452 493c c21c 00bd 1111 c0bc
00000020: bab5 1a3d d3aa 9dbc 46f5 afbd a8ec 963d
00000030: 3125 55bd 8d7e 56bd ab56 9a3c

network.0.weight f4 [64, 2]
-0.17328711 -0.21309294 -0.407415 0.15019153 -0.28775087 -0.030230004 -0.17847793 -0.12175589
-0.055175357 -0.038547114 -0.38249552 0.051051985 -0.4499495 -0.045648783 -0.40913376 0.02747088
-0.03142711 -0.2774177 -0.14718257 -0.08994873 -0.4484768 0.04179255 -0.31132305 -0.40741336
-0.2600652 0.014504038 -0.03995631 -0.2675076 -0.07558523 0.025266226 -0.48285824 0.06674462
-0.8343967 -0.2706258 0.41336042 0.3619732 -0.46895865 0.0839818 -0.43254894 -0.15486322
0.36829534 0.038019806 -0.17009428 0.13994995 0.20214722 0.10893752 -0.9023807 -0.3162023
-0.35525927 -0.047431167 -0.0670692 -0.18363875 -0.42908973 0.037531868 0.42309606 0.09784749
-0.55403847 -0.21285674 -0.2391947 -0.018826455 -0.013387684 -0.19688885 -0.17374349 0.10849432
-0.395027 0.023139603 -0.27601552 -0.62798476 -0.17361674 -0.09010292 -0.051715467 -0.32406428
-0.035506055 -0.18210158 -0.536887 -0.075952426 -0.093952 0.13853054 -0.55246925 0.08158782
-1.1313013 -0.3142925 -0.54128987 0.42840827 -0.18910912 0.19329166 -0.17959857 -0.049719047
0.54306644 0.26480404 -0.20720312 -0.067368895 -0.13350995 -0.00485933 -0.12009191 -0.4637523
-0.9333379 -0.21223451 -0.50962925 0.10072015 -0.119910784 -0.026613792 -0.39091143 0.017634513
-0.307748 -0.27216643 -0.0011059673 -0.14033711 -0.39213648 0.13342711 -0.0030176821 -0.14233334
-0.42664075 0.010322334 -0.4713893 0.06376895 -0.1720659 0.0777164 -0.117958605 -0.3703151
-0.37717378 0.031760704 -0.072831646 -0.075224355 -0.37557024 0.009637262 -0.30338907 0.114411525
00000000: 2d72 31be 0935 5abe b398 d0be cfcb 193e
00000010: 1554 93be eaa4 f7bc ebc2 36be 275b f9bd
00000020: 8eff 61bd 94e3 1dbd 74d6 c3be e31b 513d
00000030: c85f e6be 38fa 3abd fb79 d1be 9c0a e13c
00000040: b7b9 00bd b109 8ebe 07b7 16be 0a37 b8bd
00000050: c09e e5be aa2e 2b3d bc65 9fbe 7c98 d0be
00000060: 4427 85be 58a2 6d3c 3aa9 23bd c2f6 88be
00000070: 6ecc 9abd 1efb ce3c 3239 f7be 67b1 883d
00000080: 069b 55bf 778f 8abe faa3 d33e 8d54 b93e
00000090: 591b f0be a6fe ab3d 0e77 ddbe 7794 1ebe
000000a0: 3591 bc3e a8ba 1b3d 322d 2ebe 0a4f 0f3e
000000b0: aeff 4e3e a21a df3d 6c02 67bf 45e5 a1be
000000c0: 8be4 b5be 2f47 42bd 945b 89bd cc0b 3cbe
000000d0: a6b1 dbbe 04bb 193d 0ca0 d83e 4464 c83d
000000e0: 77d5 0dbf 1ef7 59be 75ef 74be f039 9abc
000000f0: 0458 5bbc 3b9d 49be d0e9 31be 4532 de3d
00000100: fb40 cabe 448f bd3c e851 8dbe 9cc3 20bf
00000110: 96c8 31be e187 b8bd 99d3 53bd c1eb a5be
00000120: cc6e 11bd d678 3abe 6d71 09bf f28c 9bbd
00000130: e869 c0bd f3da 0d3e a06e 0dbf 8417 a73d
00000140: 7bce 90bf f2ea a0be f991 0abf 5458 db3e
00000150: d2a5 41be 40ee 453e b0e8 37be 33a6 4bbd
00000160: 6706 0b3f 6594 873e 0e2d 54be b4f8 89bd
00000170: d5b6 08be 043b 9fbb bff2 f5bd f170 edbe
00000180: 3cef 6ebf 0154 59be 1077 02bf 5e46 ce3d
00000190: c993 f5bd 2b05 dabc 8b25 c8be 4176 903c
000001a0: 2591 9dbe 6659 8bbe 1bf6 90ba 88b4 0fbe
000001b0: 1dc6 c8be 1ea1 083e 4ec4 45bb d5bf 11be
000001c0: a870 dabe 021f 293c f059 f1be 4c99 823d
000001d0: 0b32 30be c729 9f3d 4894 f1bd f199 bdbe
000001e0: ec1c c1be 8317 023d c228 95bd 3a0f 9abd
000001f0: be4a c0be 9be5 1d3c d055 9bbe 9750 ea3d

network.0.bias f4 [64]
0.0 -0.060051583 -0.060050175 0.062123507 0.0 0.33100832 0.48736286 0.35555914
0.0 0.0 0.3813936 0.18648967 0.22637843 -0.06004917 -0.060042333 0.5714929
0.12477148 0.17545678 0.41444013 0.0 0.17875066 -0.060051247 0.09507169 0.10334551
0.30907714 0.0 0.37228 0.14466839 0.09766531 -0.05659172 0.0 -0.060051553
0.34256622 0.18716581 0.062344782 0.0 0.41021463 0.0 -0.06054813 0.61333936
0.1868883 0.57845396 -0.06005288 0.0 0.040281508 0.0 -0.05720135 0.0
0.11795942 0.5947995 0.0 0.338373 0.15780187 0.0 0.51151586 0.0
0.36051884 0.41390568 -0.06005156 0.0 0.3275276 0.0 0.32327387 -0.059993606
00000000: 0000 0000 a6f8 75bd 2cf7 75bd 3875 7e3d
00000010: 0000 0000 ec79 a93e a087 f93e d90b b63e
00000020: 0000 0000 0000 0000 0646 c33e 26f7 3e3e
00000030: bfcf 673e 1ef6 75bd f3ee 75bd 5c4d 123f
00000040: 3188 ff3d f1aa 333e 7f31 d43e 0000 0000
00000050: 6a0a 373e 4cf8 75bd f2b4 c23d d0a6 d33d
00000060: 5c3f 9e3e 0000 0000 7c9b be3e f323 143e
00000070: c004 c83d b8cc 67bd 0000 0000 9ef8 75bd
00000080: d764 af3e 65a8 3f3e 3e5d 7f3d 0000 0000
00000090: a707 d23e 0000 0000 5101 78bd cf03 1d3f
000000a0: a65f 3f3e 8f15 143f 02fa 75bd 0000 0000
000000b0: 39fe 243d 0000 0000 f64b 6abd 0000 0000
000000c0: b594 f13d c844 183f 0000 0000 3a3f ad3e
000000d0: d096 213e 0000 0000 b4f2 023f 0000 0000
000000e0: ed95 b83e 72eb d33e a0f8 75bd 0000 0000
000000f0: b3b1 a73e 0000 0000 2784 a53e dbbb 75bd

network.2.weight f4 [64, 64]
-0.18536842 -0.01911844 -0.06670197 0.00424127 0.21776669 0.16085036 0.1005113 -0.08515757
-0.16963547 -0.16874842 0.060742803 0.11362614 -0.28041938 -0.20898916 -0.2871265 0.5984586
-0.47666094 0.35666436 0.020081539 0.09429713 0.06836917 -0.16751345 0.122408 -0.6106221
-0.3099301 -0.5258473 0.050651684 0.112948924 -0.029006982 0.017874908 -0.17099461 0.09031426
0.10537422 -0.19889595 -0.039315596 -0.15751632 0.2944049 -0.13807863 -0.38891613 0.46020475
-0.40928113 0.6722849 -0.07826651 0.27567714 -0.38543466 -0.24777982 -0.10355768 0.055966426
-0.6082185 0.3234507 0.49001235 -0.31738967 -0.12694311 0.012046491 0.4511693 -0.1677957
0.07110895 -0.037471376 -0.017948646 -0.0011677492 -0.18762746 -0.04370794 0.052690245 0.05467592
-0.0009702417 0.17146969 -0.011852626 -0.23020995 0.14178775 -0.08221638 -0.37523365 -0.21724167
0.30298528 0.08851057 -0.12852226 0.036615193 -0.20058683 0.007176017 -0.019823186 0.036789577
-0.21379219 -0.13540138 -0.17215873 -0.1532002 0.10667872 -0.06794451 -0.16306016 0.08400914
0.283891 0.050493315 -0.08626556 0.30244032 -0.29380742 -0.17142293 0.094429635 -0.058129452
0.25283617 -0.027785169 -0.119188406 -0.083906926 0.048732482 -0.12637125 0.35367575 -0.19440944
-0.06660774 0.26431033 0.07222623 -0.30659544 -0.080238596 -0.11648094 0.21839058 -0.3903346
0.039988384 -0.32767123 0.16514307 0.021880046 0.0028325377 -0.21905021 0.022760706 -0.09483394
-0.28836235 -0.23053086 0.08136265 -0.04564238 0.036415137 0.17034017 -0.18889788 0.19220652
-0.15083325 -0.04950895 -0.033539858 0.31339654 -0.11419682 0.32886776 0.54363304 0.047426373
-0.17981154 0.025872888 0.07137012 -0.18683942 -0.22725165 0.26258457 0.03741274 0.6296999
-0.24144664 -0.11979706 0.39068308 -0.09848604 0.329679 0.07968339 0.23865822 -0.39056718
-0.010131454 -0.15150361 -0.003986885 0.03135164 0.03952519 -0.035438806 0.08559138 0.14002484
-0.039952785 0.0593311 -0.1537104 0.027072709 0.5562958 0.012085096 0.27071106 0.720643
-0.80218124 0.86747426 0.19408537 0.027454797 -0.1390142 -0.31238812 0.09874218 -0.15777801
-1.102691 0.72083336 0.0048633153 0.18431006 -0.28219378 0.3229108 0.8445315 0.17136662
0.2186446 0.47235417 -0.32785174 0.12605947 -0.25988364 0.10189608 -0.11007477 0.060296573
-0.13621996 -0.21537088 -0.03743277 -0.05316078 -0.03163104 0.364826 0.1452191 0.23273104
0.0385069 -0.13824247 -0.31267017 -0.20542845 0.1390208 0.037767973 -0.1278959 0.5044629
-0.18944155 0.19284578 0.57809496 0.15712543 0.14363377 0.05288342 0.041496806 -0.3608625
0.0884399 -0.13322712 0.19008845 0.25868377 -0.19118838 0.10011237 -0.14817159 -0.3592025
0.10763268 0.1261878 0.109488554 -0.08262043 0.16862378 -0.16226792 -0.21312436 0.7621126
-0.7122786 0.6232417 0.028305044 -0.26762682 -0.54389536 -0.10634927 -0.19536626 -0.18351178
-0.7108004 0.6531339 -0.2889524 0.2774645 -0.013844117 -0.13011509 0.55611676 -0.20743091
0.09054682 0.4607492 0.18560214 -0.22716789 0.010079159 -0.27023563 0.025881812 -0.12551485
00000000: 38d1 3dbe 469e 9cbc 0b9b 88bd 5afa 8a3b
00000010: 3bfe 5e3e f5b5 243e ded8 cd3d 1867 aebd
00000020: ecb4 2dbe 63cc 2cbe 72cd 783d d2b4 e83d
00000030: 2193 8fbe 4101 56be 3f02 93be 9534 193f
00000040: e70c f4be b69c b63e 0a82 a43c db1e c13d
00000050: 2305 8c3d a588 2bbe 0cb1 fa3d bb51 1cbf
00000060: 28af 9ebe ee9d 06bf 2478 4f3d c451 e73d
00000070: 0da0 edbc 666e 923c 3619 2fbe aff6 b83d
00000080: 70ce d73d 61ab 4bbe 6409 21bd f54b 21be
00000090: 3dbc 963e 7c64 0dbe 0420 c7be f59f eb3e
000000a0: 4c8d d1be dd1a 2c3f 314a a0bd 8e25 8d3e
000000b0: b157 c5be feb9 7dbe 0d16 d4bd 0d3d 653d
000000c0: 35b4 1bbf 559b a53e e6e2 fa3e e680 a2be
000000d0: 60fd 01be a55e 453c aaff e63e a3d2 2bbe
000000e0: 92a1 913d 967b 19bd 0a09 93bc 290f 99ba
000000f0: 6a21 40be 1907 33bd bad1 573d dcf3 5f3d
00000100: d157 7eba c095 2f3e 8431 42bc 28bc 6bbe
00000110: cf30 113e 1061 a8bd a01e c0be 9a74 5ebe
00000120: e320 9b3e 0845 b53d 579b 03be d0f9 153d
00000130: a266 4dbe cb24 eb3b 3c64 a2bc abb0 163d
00000140: 57ec 5abe a9a6 0abe 614a 30be 83e0 1cbe
00000150: 5f7a da3d 7e26 8bbd 3ef9 26be fc0c ac3d
00000160: 295a 913e 14d2 4e3d ffab b0bd 75d9 9a3e
00000170: ed6d 96be 7e89 2fbe 5364 c13d 2619 6ebd
00000180: be73 813e b99d e3bc 0d19 f4bd 65d7 abbd
00000190: b69b 473d 7767 01be fd14 b53e 4513 47be
000001a0: a469 88bd af53 873e 58eb 933d 14fa 9cbe
000001b0: 2254 a4bd 8f8d eebd c8a1 5f3e f0d9 c7be
000001c0: dcca 233d 86c4 a7be 441b 293e c83d b33c
000001d0: 19a2 393b b34e 60be a974 ba3c 4c38 c2bd
000001e0: 3ba4 93be 4810 6cbe 76a1 a63d 81f3 3abd
000001f0: 0a28 153d a76d 2e3e 726e 41be c9d1 443e
00000200: 0874 1abe e6c9 4abd 1761 09bd 8375 a03e
00000210: 06e0 e9bd 5b61 a83e 892b 0b3f 2842 423d
00000220: 8420 38be 61f3 d33c 7f2a 923d d552 3fbe
00000230: a8b4 68be 7c71 863e 1a3e 193d 0334 213f
00000240: ca3d 77be 2958 f5bd 9d07 c83e 0db3 c9bd
00000250: b0cb a83e 0c31 a33d d262 743e 6cf8 c7be
00000260: 66fe 25bc c323 1bbe 6aa4 82bb 946a 003d
00000270: 2ae5 213d 4828 11bd 894a af3d ac62 0f3e
00000280: 88a5 23bd 2b05 733d 4266 1dbe 96c7 dd3c
00000290: 6769 0e3f 9100 463c a49a 8a3e 0f7c 383f
000002a0: c05b 4dbf cb12 5e3f 51be 463e e2e8 e03c
000002b0: bd59 0ebe 56f1 9fbe 5739 ca3d 8f90 21be
000002c0: fb24 8dbf 8988 383f 725c 9f3b c7bb 3c3e
000002d0: b47b 90be 9054 a53e 3733 583f bb7a 2f3e
000002e0: 5fe4 5f3e 68d8 f13e 2fdc a7be bc15 013e
000002f0: 780f 85be e4ae d03d e26e e1bd 8af9 763d
00000300: 3f7d 0bbe 2f8a 5cbe 1b53 19bd 1ebf 59bd
00000310: 8d8f 01bd 79ca ba3e 51b4 143e 0c51 6e3e
00000320: 69b9 1d3d 6f8f 0dbe 4e16 a0be d65b 52be
00000330: 785b 0e3e 97b2 1a3d 25f7 02be 7b24 013f
00000340: f7fc 41be 5d79 453e 08fe 133f 7de5 203e
00000350: bb14 133e 499c 583d 8ef8 293d f8c2 b8be
00000360: fa1f b53d b16c 08be 8ca6 423e 3372 843e
00000370: e3c6 43be b707 cd3d 4bba 17be 64e9 b7be
00000380: 866e dc3d 6037 013e 893b e03d e634 a9bd
00000390: b6ab 2c3e 9029 26be 463d 5abe d019 433f
000003a0: e457 36bf c58c 1f3f fbdf e73c 6206 89be
000003b0: ba3c 0bbf a5cd d9bd 180e 48be 83ea 3bbe
000003c0: 04f7 35bf c933 273f 92f1 93be d40f 8e3e
000003d0: 6fd2 62bc e43c 05be ab5d 0e3f c568 54be
000003e0: 9c70 b93d 52e7 eb3e 7d0e 3e3e b39e 68be
000003f0: 0f23 253c 535c 8abe 1806 d43c f786 00be

network.2.bias f4 [64]
0.3216834 -0.08037337 0.353014 0.39169922 -0.061370563 0.26980376 0.43427673 0.34852567
0.36939684 0.3376755 0.025812244 0.36692974 0.34744835 0.0 0.3463681 -0.06005289
-0.065544486 0.0 0.45902374 -0.060052186 0.2931126 0.34612086 -0.09529921 0.40442535
0.39505506 0.3268097 -0.16488697 0.41730702 -0.060054187 -0.065014385 -0.06004861 0.33066484
0.4283621 0.30668685 0.40843356 0.4262054 -0.055588387 0.28857946 0.2317175 0.0
0.30714348 0.0 0.392076 0.30554575 0.29162806 -0.17933042 0.3460984 0.41081974
0.9709107 0.31399244 0.35347998 0.37999675 -0.061097026 0.35296234 0.30125147 0.37045175
-0.060050722 -0.07115447 0.3812346 -0.121695295 -0.05558466 -0.15141965 -0.060041755 0.33931276
00000000: b0b3 a43e cb9a a4bd 40be b43e cd8c c83e
00000010: b35f 7bbd b823 8a3e 8559 de3e f571 b23e
00000020: 9521 bd3e cee3 ac3e 3374 d33c 37de bb3e
00000030: c0e4 b13e 0000 0000 2957 b13e 05fa 75bd
00000040: 303c 86bd 0000 0000 2905 eb3e 48f9 75bd
00000050: db12 963e c136 b13e 3b2c c3bd d710 cf3e
00000060: a844 ca3e 9a53 a73e 21d8 28be 44a9 d53e
00000070: 61fb 75bd 4326 85bd 88f5 75bd e74c a93e
00000080: 4752 db3e 0f06 9d3e 341e d13e 9837 da3e
00000090: a6b0 63bd b0c0 933e 5a47 6d3e 0000 0000
000000a0: e941 9d3e 0000 0000 2fbe c83e 7e70 9c3e
000000b0: 4650 953e 65a2 37be cf33 b13e f756 d23e
000000c0: 9b8d 783f 9ec3 a03e 54fb b43e ef8e c23e
000000d0: e040 7abd 7bb7 b43e a23d 9a3e daab bd3e
000000e0: bff7 75bd 6fb9 91bd 2e31 c33e 623b f9bd
000000f0: beac 63bd c10d 1bbe 58ee 75bd 67ba ad3e

network.4.weight f4 [1, 64]
0.18184303 0.052175406 0.30048266 0.24466477 0.04249212 0.18577458 0.35936397 0.2253273
0.22363587 0.24510404 -0.0048624305 0.2856323 0.28355 0.0024028737 0.17603709 0.038727127
0.05051156 0.014889791 0.32188788 0.04327158 0.20890565 0.2642604 0.08355892 0.29064208
0.28505728 0.20381023 -0.100891285 0.26287925 0.05442226 0.05603725 0.05283885 0.22476824
0.3531659 0.18864864 0.2803314 0.31517082 0.044136103 0.10053019 0.080123566 -0.0089131445
0.24668895 0.012196476 0.31489095 0.19850041 0.20825389 -0.15638366 0.30005953 0.34278116
-2.3125718 0.18360452 0.28470734 0.3103607 0.055008363 0.25799814 0.17332825 0.25497243
0.04933818 0.06232972 0.2788839 0.124403745 0.052478846 -0.09456288 0.05656855 0.25444385
00000000: 0f35 3a3e e1b5 553d ddd8 993e 6789 7a3e
00000010: 380c 2e3d b13b 3e3e 8efe b73e 33bc 663e
00000020: cd00 653e 8efc 7a3e 0655 9fbb 663e 923e
00000030: 772d 913e 8879 1d3b 1143 343e 56a0 1e3d
00000040: 36e5 4e3d 4ff4 733c 7dce a43e 8a3d 313d
00000050: 5deb 553e 244d 873e f020 ab3d 0acf 943e
00000060: 07f3 913e a1b3 503e 17a0 cebd 1c98 863e
00000070: e0e9 5e3d 5187 653d 8d6d 583d a529 663e
00000080: 29d2 b43e 1c2d 413e 9987 8f3e 125e a13e
00000090: 0fc8 343d c6e2 cd3d d317 a43d 7008 12bc
000000a0: 079c 7c3e bad3 473c 6339 a13e b143 4b3e
000000b0: 8240 553e 0a23 20be 67a1 993e 0381 af3e
000000c0: 2d01 14c0 d302 3c3e 29c5 913e 99e7 9e3e
000000d0: 7350 613d 5518 843e f67c 313e bf8b 823e
000000e0: d516 4a3d 734d 7f3d dfc9 8e3e 64c7 fe3d
000000f0: 0ff4 563d 2faa c1bd 6db4 673d 7746 823e

exp_avg f4 [64, 2]
0.0 0.0 6e-45 6e-45 0.0 0.0 -0.00026061508 -6.804445e-05
0.0 0.0 -6e-45 6e-45 1.5410674e-06 8.809112e-07 6e-45 6e-45
6e-45 6e-45 6e-45 6e-45 0.0 0.0 -0.0007279347 -0.00021122636
0.0 6e-45 6e-45 6e-45 6e-45 6e-45 6.1272067e-38 8.999339e-39
6e-45 6e-45 6e-45 6e-45 6e-45 6e-45 3.0480178e-34 1.7160168e-34
1.2844e-41 1.56e-42 0.0 0.0 0.0 0.0 6e-45 6e-45
-0.00019622773 -7.842729e-05 8e-45 6e-45 6e-45 6e-45 6e-45 6e-45
-0.00091934094 -0.00016448571 0.0 0.0 0.0 0.0 0.0 0.0
6e-45 6e-45 6e-45 6e-45 0.0 0.0 -0.00011598685 -4.8478403e-05
6e-45 6e-45 -0.00060238916 0.00028324366 0.0 0.0 0.0 0.0
6e-45 6e-45 0.0 0.0 0.0002064816 1.5573465e-05 6e-45 6e-45
-1.6864837e-05 -1.1919216e-05 0.0 0.0 6e-45 6e-45 6e-45 6e-45
0.00019764162 -6.0141618e-05 0.0 6e-45 6e-45 6e-45 6e-45 6e-45
6e-45 6e-45 0.0 0.0 0.0 0.0 6e-45 6e-45
0.0 0.0 6e-45 6e-45 1.7470532e-36 1.0755181e-37 0.0005873155 0.00016577439
6e-45 6e-45 0.0 6e-45 0.0 0.0 6e-45 6e-45
00000000: 0000 0000 0000 0000 0400 0000 0400 0000
00000010: 0000 0000 0000 0000 2aa3 88b9 16b3 8eb8
00000020: 0000 0000 0000 0000 0400 0080 0400 0000
00000030: acd6 ce35 c277 6c35 0400 0000 0400 0000
00000040: 0400 0000 0400 0000 0400 0000 0400 0000
00000050: 0000 0000 0000 0000 dfd2 3eba a57c 5db9
00000060: 0000 0000 0400 0000 0400 0000 0400 0000
00000070: 0400 0000 0400 0000 66cc a601 7ffe 6100
00000080: 0400 0000 0400 0000 0400 0000 0400 0000
00000090: 0400 0000 0400 0000 5693 ca07 0719 6407
000000a0: ce23 0000 5904 0000 0000 0000 0000 0000
000000b0: 0000 0000 0000 0000 0400 0000 0400 0000
000000c0: 7bc2 4db9 5579 a4b8 0600 0000 0400 0000
000000d0: 0400 0000 0400 0000 0400 0000 0400 0000
000000e0: edff 70ba cc79 2cb9 0000 0000 0000 0000
000000f0: 0000 0000 0000 0000 0000 0000 0000 0000
00000100: 0400 0000 0400 0000 0400 0000 0400 0000
00000110: 0000 0000 0000 0000 f73d f3b8 4a55 4bb8
00000120: 0400 0000 0400 0000 a7e9 1dba 5280 9439
00000130: 0000 0000 0000 0000 0000 0000 0000 0000
00000140: 0400 0000 0400 0000 0000 0000 0000 0000
00000150: fc82 5839 c3a3 8237 0400 0000 0400 0000
00000160: f678 8db7 a5f8 47b7 0000 0000 0000 0000
00000170: 0400 0000 0400 0000 0400 0000 0400 0000
00000180: 053e 4f39 9240 7cb8 0000 0000 0400 0000
00000190: 0400 0000 0400 0000 0400 0000 0400 0000
000001a0: 0400 0000 0400 0000 0000 0000 0000 0000
000001b0: 0000 0000 0000 0000 0400 0000 0400 0000
000001c0: 0000 0000 0000 0000 0400 0000 0400 0000
000001d0: 739f 1404 5664 1202 13f6 193a b9d3 2d39
000001e0: 0400 0000 0400 0000 0000 0000 0400 0000
000001f0: 0000 0000 0000 0000 0400 0000 0400 0000

exp_avg_sq f4 [64, 2]
0.0 0.0 2.0263894e-06 4.0914415e-08 0.0 0.0 2.3438339e-05 5.050526e-07
0.0 0.0 7.449509e-06 1.1696461e-07 1.2815033e-06 2.8530733e-08 1.8810164e-07 2.7121387e-09
2.8377738e-07 6.307471e-09 3.2457564e-07 4.9659166e-09 0.0 0.0 4.003945e-05 8.065547e-07
0.0 7.9593615e-17 3.6107915e-07 7.98409e-09 7.8730073e-07 1.9143403e-08 6.140141e-06 1.0465839e-07
9.478457e-07 1.9508473e-08 5.107826e-12 3.647534e-12 5.8455043e-08 7.8604595e-10 1.91567e-06 3.7713694e-08
8.419515e-06 1.2434013e-07 0.0 0.0 0.0 0.0 3.1838246e-07 4.4411617e-08
3.3790086e-05 6.8758095e-07 4.659562e-06 9.4192444e-08 1.015271e-07 3.794608e-09 1.5155079e-11 2.1633475e-11
3.669465e-05 8.458946e-07 0.0 0.0 0.0 0.0 0.0 0.0
3.1439686e-07 7.466482e-09 7.884383e-13 1.1424493e-12 0.0 0.0 1.341817e-05 2.7960817e-07
2.1097947e-06 3.913306e-08 0.00023183494 3.945839e-06 0.0 0.0 0.0 0.0
7.487616e-08 1.7712635e-09 0.0 0.0 5.7165835e-06 1.1171956e-07 2.1049914e-08 3.8115902e-10
3.2169698e-06 6.979422e-08 0.0 0.0 8.479497e-07 1.4837803e-08 1.7757365e-06 3.390248e-08
4.6337376e-05 9.0065123e-07 0.0 1.292305e-13 6.669336e-08 2.5869216e-09 2.4486736e-08 5.7844035e-10
3.1659844e-09 2.35978e-10 0.0 0.0 0.0 0.0 1.3734346e-10 2.0436843e-11
0.0 0.0 1.8095017e-07 3.4346312e-09 5.069212e-06 8.798443e-08 2.9615107e-05 6.181689e-07
2.8018196e-08 1.0453461e-09 0.0 7.873505e-13 0.0 0.0 7.1496353e-10 4.7674576e-11
00000000: 0000 0000 0000 0000 1bfd 0736 e0b9 2f33
00000010: 0000 0000 0000 0000 739d c437 f392 0735
00000020: 0000 0000 0000 0000 ccf6 f936 f92d fb33
00000030: 1e00 ac35 bf13 f532 fcf8 4934 7360 3a31
00000040: 115a 9834 1ab9 d831 5641 ae34 aaa0 aa31
00000050: 0000 0000 0000 0000 08f0 2738 0482 5835
00000060: 0000 0000 c787 b724 57da c134 662a 0932
00000070: e556 5335 ca70 a432 6907 ce36 8fc0 e033
00000080: 766f 7e35 9693 a732 35b7 b32c 1156 802c
00000090: 0010 7b33 1111 5830 f68e 0036 a5fa 2133
000000a0: 8b41 0d37 5b82 0534 0000 0000 0000 0000
000000b0: 0000 0000 0000 0000 27ee aa34 17bf 3e33
000000c0: d4b9 0d38 3492 3835 5559 9c36 d846 ca33
000000d0: 1d07 da33 ba61 8231 344e 852d 414a be2d
000000e0: 95e8 1938 6f11 6335 0000 0000 0000 0000
000000f0: 0000 0000 0000 0000 0000 0000 0000 0000
00000100: 60ca a834 ef45 0032 f8ec 5d2b 13c9 a02b
00000110: 0000 0000 0000 0000 9a1e 6137 0e1d 9634
00000120: ff95 0d36 4113 2833 b818 7339 8066 8436
00000130: 0000 0000 0000 0000 0000 0000 0000 0000
00000140: 9bcb a033 cb70 f330 0000 0000 0000 0000
00000150: 14d1 bf36 7aea ef33 40d1 b432 5d8b d12f
00000160: 1fe3 5736 c7e1 9533 0000 0000 0000 0000
00000170: a99e 6335 59e9 7e32 d755 ee35 2c9c 1133
00000180: 615a 4238 48c4 7135 0000 0000 2880 112a
00000190: 1039 8f33 9bc5 3131 e756 d232 1f00 1f30
000001a0: 9690 5931 f3ba 812f 0000 0000 0000 0000
000001b0: 0000 0000 0000 0000 bf02 172f aec3 b32d
000001c0: 0000 0000 0000 0000 344b 4234 ac06 6c31
000001d0: 3318 aa36 f4f1 bc33 f56d f837 3ef0 2535
000001e0: aaac f032 d9ab 8f30 0000 0000 959e 5d2b
000001f0: 0000 0000 0000 0000 1687 4430 cdac 512e

exp_avg f4 [64]
0.0 6e-45 0.0 -0.00037446353 0.0 6e-45 1.7612241e-06 6e-45
6e-45 6e-45 0.0 -0.00056016137 6e-45 6e-45 6e-45 1.1342049e-37
6e-45 6e-45 6e-45 3.2512165e-34 1.9676e-41 0.0 0.0 6e-45
-0.00021010585 1e-44 6e-45 6e-45 0.00038043893 0.0 0.0 0.0
6e-45 6e-45 0.0 -0.0001776304 6e-45 -0.0006929231 0.0 0.0
6e-45 0.0 0.00034321137 6e-45 -2.5865746e-05 0.0 6e-45 6e-45
0.0007129742 6e-45 6e-45 6e-45 6e-45 0.0 0.0 6e-45
0.0 6e-45 1.9058712e-36 0.00025678438 6e-45 6e-45 0.0 6e-45
00000000: 0000 0000 0400 0000 0000 0000 a553 c4b9
00000010: 0000 0000 0400 0000 3363 ec35 0400 0000
00000020: 0400 0000 0400 0000 0000 0000 cbd7 12ba
00000030: 0400 0000 0400 0000 0400 0000 4661 1a02
00000040: 0400 0000 0400 0000 0400 0000 9514 d807
00000050: d936 0000 0000 0000 0000 0000 0400 0000
00000060: dc4f 5cb9 0700 0000 0400 0000 0400 0000
00000070: a675 c739 0000 0000 0000 0000 0000 0000
00000080: 0400 0000 0400 0000 0000 0000 4c42 3ab9
00000090: 0400 0000 48a5 35ba 0000 0000 0000 0000
000000a0: 0400 0000 0000 0000 0df1 b339 0400 0000
000000b0: 44fa d8b7 0000 0000 0400 0000 0400 0000
000000c0: e3e6 3a3a 0400 0000 0400 0000 0400 0000
000000d0: 0400 0000 0000 0000 0000 0000 0400 0000
000000e0: 0000 0000 0400 0000 3322 2204 04a1 8639
000000f0: 0400 0000 0400 0000 0000 0000 0400 0000

exp_avg_sq f4 [64]
0.0 6.0085104e-06 0.0 0.000100741105 0.0 1.1123688e-05 2.7902681e-06 5.6268595e-07
8.943513e-07 6.616044e-07 0.0 0.00016919908 5.2361446e-14 1.3250783e-06 2.668867e-06 1.2004838e-05
2.4930148e-06 1.9904316e-09 1.3857287e-07 5.6890854e-06 1.3805679e-05 0.0 0.0 2.1362372e-05
0.000113430055 1.3715625e-05 4.0207382e-07 2.1399558e-09 0.00020877566 0.0 0.0 0.0
7.2689915e-07 1.7930027e-11 0.0 3.9651604e-05 4.8454935e-06 0.00037193592 0.0 0.0
1.7476027e-07 0.0 1.9051693e-05 5.4088904e-08 1.181324e-05 0.0 2.0934938e-06 5.0906597e-06
0.00015412139 8.5015966e-11 2.778158e-07 1.568141e-07 9.647031e-08 0.0 0.0 5.7255556e-09
0.0 4.0181516e-07 1.033147e-05 0.00010651562 5.183734e-08 5.1796784e-10 0.0 1.4076342e-11
00000000: 0000 0000 b69c c936 0000 0000 f844 d338
00000010: 0000 0000 e09f 3a37 7140 3b36 7c0b 1735
00000020: 5a13 7035 1c99 3135 0000 0000 086b 3139
00000030: a3d0 6b29 58d9 b135 c91a 3336 6368 4937
00000040: ab4d 2736 0bc8 0831 9fca 1434 dfe4 be36
00000050: f19e 6737 0000 0000 0000 0000 5833 b337
00000060: 4ce1 ed38 291c 6637 9bdc d734 800e 1331
00000070: caea 5a39 0000 0000 0000 0000 0000 0000
00000080: 2120 4335 d5b6 9d2d 0000 0000 964f 2638
00000090: 7996 a236 6500 c339 0000 0000 0000 0000
000000a0: bda5 3b34 0000 0000 33d1 9f37 614f 6833
000000b0: 7b31 4637 0000 0000 f37d 0c36 6fd0 aa36
000000c0: a59b 2139 bcf3 ba2e b626 9534 bb60 2834
000000d0: 1d2b cf33 0000 0000 0000 0000 85ba c431
000000e0: 0000 0000 0eb9 d734 5355 2d37 2361 df38
000000f0: c2a3 5e33 bf60 0e30 0000 0000 35a2 772d

exp_avg f4 [64, 64]
0.0 6e-45 0.0 6e-45 0.0 6e-45 6e-45 6e-45
6e-45 6e-45 0.0 6e-45 0.0 6e-45 0.0 6e-45
6e-45 0.0 6e-45 6e-45 6e-45 0.0 0.0 0.0
6e-45 6e-45 0.0 6e-45 6e-45 0.0 0.0 0.0
6e-45 0.0 0.0 6e-45 6e-45 6e-45 0.0 0.0
6e-45 0.0 6e-45 6e-45 6e-45 0.0 6e-45 6e-45
6e-45 0.0 6e-45 6e-45 0.0 0.0 0.0 0.0
0.0 6e-45 6e-45 6e-45 6e-45 0.0 0.0 0.0
0.0 6e-45 0.0 6e-45 0.0 6e-45 6e-45 6e-45
6e-45 6e-45 0.0 6e-45 0.0 6e-45 6e-45 6e-45
6e-45 -6e-45 0.0 6e-45 6e-45 0.0 0.0 -6e-45
6e-45 6e-45 -6e-45 -6e-45 6e-45 0.0 0.0 0.0
6e-45 -6e-45 0.0 6e-45 6e-45 6e-45 0.0 0.0
6e-45 0.0 6e-45 -6e-45 6e-45 0.0 6e-45 6e-45
6e-45 0.0 -6e-45 -6e-45 -6e-45 0.0 0.0 -6e-45
0.0 6e-45 6e-45 6e-45 6e-45 0.0 0.0 -6e-45
0.0 6e-45 0.0 1.10746996e-07 0.0 6e-45 7.623047e-34 0.0
6e-45 6e-45 0.0 -2.9966808e-05 -6e-45 6e-45 6e-45 3.709763e-39
6e-45 -6e-45 0.0 -2.7704121e-37 7e-45 0.0 0.0 6e-45
-4.5115143e-13 6e-45 -6e-45 -6e-45 -3.464923e-05 0.0 0.0 0.0
6e-45 -6e-45 0.0 7.229293e-08 -6e-45 2.0769421e-11 0.0 0.0
0.0 0.0 3.298316e-09 -6e-45 3.5123674e-27 0.0 -6e-45 -6e-45
-1.9599542e-05 -6e-45 6e-45 -6e-45 -6e-45 0.0 0.0 -6e-45
0.0 0.0 3.581753e-38 1.186098e-05 0.0 -6e-45 0.0 -6e-45
0.0 6e-45 0.0 -0.000107048705 0.0 6e-45 2.8729796e-18 6e-45
6e-45 6e-45 0.0 -0.0003052807 -6e-45 -6e-45 6e-45 6.38799e-40
6e-45 -6e-45 -6e-45 8.150898e-37 -5.3e-44 0.0 0.0 -6e-45
-5.2928235e-06 6e-45 6e-45 -6e-45 -0.0004572655 0.0 0.0 0.0
6e-45 -6e-45 0.0 -3.088594e-05 6e-45 -9.370207e-06 0.0 0.0
6e-45 0.0 -7.592228e-05 -6e-45 -5.4018133e-06 0.0 6e-45 -6e-45
-0.00013528198 -6e-45 -6e-45 -6e-45 6e-45 0.0 0.0 -6e-45
0.0 6e-45 4.0479628e-38 -0.00017660978 -6e-45 -6e-45 0.0 -6e-45
00000000: 0000 0000 0400 0000 0000 0000 0400 0000
00000010: 0000 0000 0400 0000 0400 0000 0400 0000
00000020: 0400 0000 0400 0000 0000 0000 0400 0000
00000030: 0000 0000 0400 0000 0000 0000 0400 0000
00000040: 0400 0000 0000 0000 0400 0000 0400 0000
00000050: 0400 0000 0000 0000 0000 0000 0000 0000
00000060: 0400 0000 0400 0000 0000 0000 0400 0000
00000070: 0400 0000 0000 0000 0000 0000 0000 0000
00000080: 0400 0000 0000 0000 0000 0000 0400 0000
00000090: 0400 0000 0400 0000 0000 0000 0000 0000
000000a0: 0400 0000 0000 0000 0400 0000 0400 0000
000000b0: 0400 0000 0000 0000 0400 0000 0400 0000
000000c0: 0400 0000 0000 0000 0400 0000 0400 0000
000000d0: 0000 0000 0000 0000 0000 0000 0000 0000
000000e0: 0000 0000 0400 0000 0400 0000 0400 0000
000000f0: 0400 0000 0000 0000 0000 0000 0000 0000
00000100: 0000 0000 0400 0000 0000 0000 0400 0000
00000110: 0000 0000 0400 0000 0400 0000 0400 0000
00000120: 0400 0000 0400 0000 0000 0000 0400 0000
00000130: 0000 0000 0400 0000 0400 0000 0400 0000
00000140: 0400 0000 0400 0080 0000 0000 0400 0000
00000150: 0400 0000 0000 0000 0000 0000 0400 0080
00000160: 0400 0000 0400 0000 0400 0080 0400 0080
00000170: 0400 0000 0000 0000 0000 0000 0000 0000
00000180: 0400 0000 0400 0080 0000 0000 0400 0000
00000190: 0400 0000 0400 0000 0000 0000 0000 0000
000001a0: 0400 0000 0000 0000 0400 0000 0400 0080
000001b0: 0400 0000 0000 0000 0400 0000 0400 0000
000001c0: 0400 0000 0000 0000 0400 0080 0400 0080
000001d0: 0400 0080 0000 0000 0000 0000 0400 0080
000001e0: 0000 0000 0400 0000 0400 0000 0400 0000
000001f0: 0400 0000 0000 0000 0000 0000 0400 0080
00000200: 0000 0000 0400 0000 0000 0000 ced3 ed33
00000210: 0000 0000 0400 0000 b651 7d08 0000 0000
00000220: 0400 0000 0400 0000 0000 0000 3b61 fbb7
00000230: 0400 0080 0400 0000 0400 0000 4f65 2800
00000240: 0400 0000 0400 0080 0000 0000 638b bc82
00000250: 0500 0000 0000 0000 0000 0000 0400 0000
00000260: c6f9 fdaa 0400 0000 0400 0080 0400 0080
00000270: 5454 11b8 0000 0000 0000 0000 0000 0000
00000280: 0400 0000 0400 0080 0000 0000 753f 9b33
00000290: 0400 0080 94b0 b62d 0000 0000 0000 0000
000002a0: 0000 0000 0000 0000 97a8 6231 0400 0080
000002b0: a323 8b13 0000 0000 0400 0080 0400 0080
000002c0: b269 a4b7 0400 0080 0400 0000 0400 0080
000002d0: 0400 0080 0000 0000 0000 0000 0400 0080
000002e0: 0000 0000 0000 0000 5a02 4301 85fe 4637
000002f0: 0000 0000 0400 0080 0000 0000 0400 0080
00000300: 0000 0000 0400 0000 0000 0000 567f e0b8
00000310: 0000 0000 0400 0000 0dfd 5322 0400 0000
00000320: 0400 0000 0400 0000 0000 0000 150e a0b9
00000330: 0400 0080 0400 0080 0400 0000 b6f4 0600
00000340: 0400 0000 0400 0080 0400 0080 2bae 8a03
00000350: 2600 0080 0000 0000 0000 0000 0400 0080
00000360: 0299 b1b6 0400 0000 0400 0000 0400 0080
00000370: 23bd efb9 0000 0000 0000 0000 0000 0000
00000380: 0400 0000 0400 0080 0000 0000 878b 01b8
00000390: 0400 0000 bc34 1db7 0000 0000 0000 0000
000003a0: 0400 0000 0000 0000 7738 9fb8 0400 0080
000003b0: 3941 b5b6 0000 0000 0400 0000 0400 0080
000003c0: 7bda 0db9 0400 0080 0400 0080 0400 0080
000003d0: 0400 0000 0000 0000 0000 0000 0400 0080
000003e0: 0000 0000 0400 0000 5e64 5c01 5430 39b9
000003f0: 0400 0080 0400 0080 0000 0000 0400 0080
