data/results/gbwm_4goals_bs4800_lr0.01_hist/checkpoints/checkpoint_0000.pth (torch, 198443 bytes, 39 tensors)

shared_backbone.0.weight f4 [64, 2]
-0.8762538 0.0024385022 -0.10493868 -0.22319435 -0.09652628 0.03588452 0.3571056 -0.47203416
-0.10305138 -0.118290365 -0.07556538 -0.22898692 -0.16750264 -0.05327302 -0.08563531 -0.075562015
-0.1702823 -0.028153444 -0.06242186 -0.025731277 -0.05528769 -0.19404605 0.036898524 -0.020057473
-1.0673429 0.13191725 0.24899659 0.14136478 0.25039923 -0.29719 -0.045572504 0.17377745
-0.11749263 0.04120328 0.018801806 -0.2783458 -0.3955083 0.095490895 -0.0079077035 -0.10652186
-0.16533025 0.15174234 -0.039671544 -0.20121415 -0.16148363 -0.2591606 0.13017333 -0.09329257
-0.012882807 -0.14474797 -0.0054668486 0.14059453 -0.037713356 -0.09478831 0.063599855 0.096449114
0.22333322 -0.2975283 0.16146755 0.0133348545 -0.201141 -0.24639249 0.23281987 -0.18859494
-0.007097459 0.058139253 -0.03051676 -0.09405199 -0.14513709 -0.14358751 0.117356166 -0.110956915
0.049257603 -0.21446209 -0.07156804 -0.124660395 0.07178798 -0.22418366 -0.10683022 -0.1853894
-0.03844224 -0.13214777 -0.03450767 -0.17193428 0.07996474 -0.3825522 -0.07733219 -0.03277582
-0.2772815 -0.2631298 -0.07343564 -0.015604187 -0.21580541 -0.24877355 0.012874359 -0.20256305
-0.037589785 0.14401656 0.12548392 -0.33264053 -0.03687832 -0.04787403 -0.8633157 0.26877156
-0.18138325 -0.24970931 -0.41647846 -0.01456911 -0.15731299 -0.24004284 -0.3735569 0.24906516
0.19989718 0.022145933 0.060822837 -0.04552404 -0.00018384757 0.017255288 -0.088175826 0.122201696
-0.08210529 0.22520214 -0.13247238 0.03793847 -0.078103855 -0.03796204 0.4364297 -0.2610298
00000000: 2b52 60bf 47cf 1f3b 17ea d6bd 0f8d 64be
00000010: 92af c5bd a5fb 123d 8cd6 b63e 76ae f1be
00000020: 9a0c d3bd 3842 f2bd 06c2 9abd 8c7b 6abe
00000030: d085 2bbe cf34 5abd 9161 afbd 42c0 9abd
00000040: 7c5e 2ebe 0da2 e6bc 10ae 7fbd 66ca d2bc
00000050: 5875 62bd 02b4 46be e822 173d 924f a4bc
00000060: b19e 88bf 5115 073e f6f8 7e3e eec1 103e
00000070: 5434 803e 4a29 98be 3caa 3abd b7f2 313e
00000080: fa9f f0bd c5c4 283d 3f06 9a3c 5783 8ebe
00000090: 1080 cabe bb90 c33d 508f 01bc 2228 dabd
000000a0: 554c 29be 5862 1b3e a17e 22bd 150b 4ebe
000000b0: f75b 25be b3b0 84be 284c 053e 2d10 bfbd
000000c0: 6912 53bc d038 14be 4023 b3bb 03f8 0f3e
000000d0: 5279 1abd 6020 c2bd a440 823d 1d87 c53d
000000e0: 77b1 643e a155 98be c057 253e 6f7a 5a3c
000000f0: e8f7 4dbe 504e 7cbe 5568 6e3e 081f 41be
00000100: cd91 e8bb 6d23 6e3d 49fe f9bc 549e c0bd
00000110: d19e 14be 9b08 13be 6e58 f03d 613d e3bd
00000120: 57c2 493d f39b 5bbe 4492 92bd f34d ffbd
00000130: 9405 933d 6790 65be cdc9 dabd b8d6 3dbe
00000140: 9c75 1dbd bf51 07be ea57 0dbd 8a0f 30be
00000150: 8ec4 a33d e2dd c3be 5760 9ebd f03f 06bd
00000160: d7f7 8dbe f3b8 86be 6d65 96bd b4a8 7fbc
00000170: 18fc 5cbe 7ebe 7ebe faee 523c b06c 4fbe
00000180: bff7 19bd 1479 133e db7e 003e dc4f aabe
00000190: b90d 17bd 8f17 44bd 4202 5dbf 6d9c 893e
000001a0: 88bc 39be ccb3 7fbe aa3c d5be 47b3 6ebc
000001b0: a816 21be cacd 75be da42 bfbe f00a 7f3e
000001c0: d9b1 4c3e 636b b53c 5e21 793d 6a77 3abd
000001d0: 35c7 40b9 f65a 8d3c 8795 b4bd e244 fa3d
000001e0: d126 a8bd 649b 663e d7a6 07be 5e65 1b3d
000001f0: eaf4 9fbd 167e 1bbd b773 df3e b3a5 85be

shared_backbone.0.bias f4 [64]
0.02856604 0.0 -0.020758193 -0.074436605 0.0 0.0 0.0 0.0
-0.050149452 -0.011416808 -0.06005381 -0.05703273 0.25500363 -0.074631006 -0.059587583 -0.07969413
-0.060054652 -0.032758597 -0.005323943 -0.034354016 0.004505977 -0.0126292 0.0 -0.14716873
-0.073458225 -0.060951293 0.0 -0.12813744 -0.23996669 -0.16120028 0.0 -0.1753856
-0.023140788 0.0 -0.006955579 -0.14593427 -0.06490257 0.0 -0.07093853 0.0
0.0 0.0 -0.07924508 0.0 0.0 -0.060054176 0.0 -0.01916842
-0.013470588 -0.13712792 -0.08655221 0.03533438 0.0 -0.0067115044 0.0 -0.034283843
-0.21263994 -0.10383912 -0.041880876 -0.028401852 -0.010300425 -0.060054835 -0.060045447 -0.4135743
00000000: 5403 ea3c 0000 0000 160d aabc 3872 98bd
00000010: 0000 0000 0000 0000 0000 0000 0000 0000
00000020: 8369 4dbd 900d 3bbc fcfa 75bd 279b 69bd
00000030: d68f 823e 24d8 98bd 1c12 74bd ad36 a3bd
00000040: defb 75bd e12d 06bd 7974 aebb ccb6 0cbd
00000050: e0a6 933b b4ea 4ebc 0000 0000 66b3 16be
00000060: 4471 96bd 10a8 79bd 0000 0000 7636 03be
00000070: d4b9 75be b011 25be 0000 0000 4898 33be
00000080: c091 bdbc 0000 0000 a0eb e3bb cb6f 15be
00000090: a3eb 84bd 0000 0000 3848 91bd 0000 0000
000000a0: 0000 0000 0000 0000 3f4b a2bd 0000 0000
000000b0: 0000 0000 5efb 75bd 0000 0000 1707 9dbc
000000c0: beb3 5cbc 436b 0cbe 4942 b1bd c8ba 103d
000000d0: 0000 0000 2eec dbbb 0000 0000 376d 0cbd
000000e0: 49be 59be 9ba9 d4bd 488b 2bbd 00ab e8bc
000000f0: 1dc3 28bc 0ffc 75bd 37f2 75bd 03c0 d3be

shared_backbone.2.weight f4 [64, 64]
-0.64741665 -0.114446975 -0.14501727 0.295872 0.079998 -0.27624276 0.22477777 -0.0025806336
0.017477568 0.0069746412 0.16094308 0.133296 -1.2671859 0.16194096 0.28922057 0.09278231
0.02817895 -0.059482466 -0.07343445 -0.018176237 -0.34172893 -0.005657182 0.03897008 0.038974307
0.18044348 0.050322823 -0.100277044 -0.15679824 -0.4984019 -0.010350569 -0.09817224 0.36464512
0.13772501 0.1665345 -0.22566657 0.41351387 -0.15542689 -0.1573963 0.008770414 -0.00062698586
-0.17166393 -0.1805684 0.11186459 0.24136722 -0.14633337 -0.26376906 -0.2154235 0.12429173
-0.14251904 -0.013634461 -0.021709861 -0.028470518 -0.16684647 -0.12538934 0.08326734 -0.24217857
-0.22365169 -0.0144793065 -0.15117115 0.079638384 -0.27162957 0.18658784 0.030994173 -0.41442588
0.33253735 -0.13635111 -0.23802575 -0.074944295 0.119233556 -0.17529634 -0.1668681 -0.25315174
-0.016965112 -0.16626146 0.14319363 -0.23750009 -0.14211738 0.013095639 -0.2551095 0.05538418
0.45746782 -0.18615574 -0.4096587 0.15783903 -0.032072324 0.0030777147 0.15761924 -0.054615144
0.049787316 -0.40752444 0.075557984 -0.05258075 0.096719 0.07802477 0.16393332 -0.21586557
0.46155292 -0.010813373 -0.29574198 -0.039833616 0.0044519575 -0.20417261 -0.13180748 -0.4309984
0.0019787368 0.18765515 -0.056613863 -0.0687663 -0.12131874 0.11814212 0.03830521 -0.055929195
-0.20166223 -0.15350015 -0.017259339 -0.011553709 -0.32950422 0.014192856 -0.19390205 -0.11690879
0.07373856 -0.116263986 -0.10800211 0.010592349 -0.15597461 -0.06532837 0.0004502738 -0.12662497
-0.21553431 -0.09870658 0.08011236 -0.20203112 0.15439576 0.08989238 0.12902239 0.169303
-0.24862388 -0.08794636 0.18123478 -0.0038520736 0.06555394 -0.027630895 0.08504218 0.074656464
0.21144949 -0.011867838 -0.19169094 0.16339879 -0.2550019 -0.25880307 -0.11374565 0.29883382
0.23111807 -0.39468518 0.24531063 -0.21785906 0.13583763 0.21692188 -0.16184391 0.2409331
-0.11707783 0.091138974 -0.013086834 0.016161663 0.1335813 0.085603096 0.023178242 -0.14363545
0.009636985 0.042384874 0.32697675 0.043260496 -0.032447014 0.2312992 0.19906896 -0.053059887
0.08689238 0.22214313 -0.2048469 -0.072935894 -0.028016135 -0.30312616 0.23008919 -0.06579526
-0.017240455 0.20939507 0.39907372 -0.045313604 0.20033304 0.007583917 -0.09419976 0.21888793
0.11927495 0.21910231 0.12113168 0.20085068 -0.07590287 0.104022175 -0.026549801 -0.21087287
-0.08304761 0.11181998 0.106049165 0.15772325 0.021251608 0.048864827 -0.30885127 -0.08760976
0.23578097 -0.28997925 0.24606211 -0.013802063 -0.47698647 -0.18190975 0.007238261 0.025565509
0.12938502 -0.12678757 -0.18214825 -0.092775755 0.1594324 -0.25282598 0.2020533 0.27546534
-0.01767395 -0.3341139 -0.11172621 -0.3121848 -0.197305 0.08669363 -0.07670298 0.17026734
-0.009036279 -0.14490183 -0.21071891 0.4041619 -0.059818946 -0.046991993 0.26322794 -0.33765697
0.10338148 -0.30000788 0.13498873 0.0926932 -0.06215269 0.2692869 0.2982123 -0.18733276
0.0072106696 -0.024411442 0.08795276 -0.02695664 0.03736237 -0.0047755395 -0.05033542 -0.3563753
00000000: 19bd 25bf 2d63 eabd 687f 14be 897c 973e
00000010: fed5 a33d b16f 8dbe 252c 663e d91f 29bb
00000020: 1e2d 8f3c 888b e43b 43ce 243e bf7e 083e
00000030: 2633 a2bf dad3 253e b814 943e a704 be3d
00000040: 8bd7 e63c e3a3 73bd cd64 96bd 55e6 94bc
00000050: 18f7 aebe e25f b9bb 179f 1f3d 86a3 1f3d
00000060: 2dc6 383e 4e1f 4e3d 0d5e cdbd b88f 20be
00000070: 892e ffbe 6f95 29bc 870e c9bd c4b2 ba3e
00000080: c907 0d3e 0588 2a3e 2315 67be 17b8 d33e
00000090: 3a28 1fbe 7f2c 21be c8b1 0f3c 4f5c 24ba
000000a0: abc8 2fbe ece6 38be 4319 e53d f828 773e
000000b0: 6ad8 15be bd0c 87be fa97 5cbe aa8c fe3d
000000c0: 83f0 11be 1363 5fbc e1d8 b1bc 013b e9bc
000000d0: cdd9 2abe 1066 00be 1188 aa3d a9fd 77be
000000e0: f304 65be 9d3a 6dbc 9ccc 1abe 7319 a33d
000000f0: 0813 8bbe e210 3f3e 7ee7 fd3c a12f d4be
00000100: 5642 aa3e a09f 0bbe 06bd 73be 657c 99bd
00000110: b930 f43d e280 33be 79df 2abe 1b9d 81be
00000120: 6bfa 8abc 7240 2abe 5aa1 123e 3933 73be
00000130: 3887 11be 178f 563c b69d 82be 86da 623d
00000140: 3939 ea3e 9c9f 3ebe c9be d1be 8ea0 213e
00000150: 455e 03bd 7cb3 493b f066 213e 21b4 5fbd
00000160: c9ed 4b3d 0ba7 d0be 25be 9a3d ea5e 57bd
00000170: 9c14 c63d 73cb 9f3d 23de 273e dd0b 5dbe
00000180: aa50 ec3e 932a 31bc 7e6b 97be 9328 23bd
00000190: bae1 913b a012 51be 8af8 06be d3ab dcbe
000001a0: b2ad 013b ac28 403e f0e3 67bd 59d5 8cbd
000001b0: f675 f8bd 7ff4 f13d ede5 1c3d 0316 65bd
000001c0: 8b80 4ebe 252f 1dbe 7563 8dbc c54b 3dbc
000001d0: c7b4 a8be 2789 683c 428e 46be e06d efbd
000001e0: 3e04 973d d01b eebd 3630 ddbd 888b 2d3c
000001f0: cfb7 1fbe e1ca 85bd ba12 ec39 faa9 01be
00000200: 07b5 5cbe ad26 cabd f311 a43d 3fe1 4ebe
00000210: ec19 1e3e 7f19 b83d 721e 043e c45d 2d3e
00000220: 4297 7ebe 391d b4bd 9c95 393e 1273 7cbb
00000230: 2541 863d 305a e2bc 982a ae3d 7de5 983d
00000240: 3786 583e 5271 42bc a14a 44be 0352 273e
00000250: 9c8f 82be d681 84be 7bf3 e8bd bf00 993e
00000260: 37aa 6c3e 2d14 cabe b632 7b3e 7216 5fbe
00000270: 0519 0b3e c520 5e3e 69ba 25be 2bb7 763e
00000280: 80c6 efbd 12a7 ba3d 296a 56bc 7765 843c
00000290: 89c9 083e ad50 af3d 4ce0 bd3c 2c15 13be
000002a0: 72e4 1d3c c39b 2d3d 7f69 a73e eb31 313d
000002b0: 29e7 04bd b3d9 6c3e bcd8 4b3e 5355 59bd
000002c0: a2f4 b13d 7d79 633e 63c3 51be 6a5f 95bd
000002d0: 1882 e5bc 5a33 9bbe 809c 6b3e aabf 86bd
000002e0: db3b 8dbc a96b 563e 6453 cc3e c29a 39bd
000002f0: 1b24 4d3e 8282 f83b ceeb c0bd 2824 603e
00000300: 6d46 f43d 5b5c 603e e313 f83d cdab 4d3e
00000310: f772 9bbd 9409 d53d f87e d9bc 0fef 57be
00000320: de14 aabd e001 e53d 4e30 d93d 3482 213e
00000330: da17 ae3c 7c26 483d c121 9ebe bf6c b3bd
00000340: 9170 713e 2978 94be b5f7 7b3e 0c22 62bc
00000350: 9237 f4be 8d46 3abe ef2e ed3b c26e d13c
00000360: 827d 043e 9ad4 01be 1285 3abe 3701 bebd
00000370: 3f42 233e 6872 81be 0fe7 4e3e cb09 8d3e
00000380: f6c8 90bc fa10 abbe b6d0 e4bd b0d6 9fbe
00000390: 520a 4abe 6e8c b13d 7416 9dbd 905a 2e3e
000003a0: e70c 14bc 2561 14be b3c6 57be 4fee ce3e
000003b0: b604 75bd ad7a 40bd d0c5 863e 60e1 acbe
000003c0: abb9 d33d a29a 99be 7c3a 0a3e efd5 bd3d
000003d0: d293 7ebd f9df 893e 48af 983e 29d4 3fbe
000003e0: 7b47 ec3b 81fa c7bc 9420 b43d 2cd4 dcbc
000003f0: 4909 193d 217c 9cbb 832c 4ebd d376 b6be

shared_backbone.2.bias f4 [64]
0.077705234 -0.07604454 -0.10277552 -0.04813895 -0.026997652 -0.08284846 0.048862282 0.077659905
-0.040520426 -0.059576485 -0.17627831 0.031054106 -0.09226081 -0.12568797 -0.03640558 -0.08135148
-0.059282005 -0.034059364 -0.08621188 -0.060054086 -0.084537186 -0.10585957 -0.10594884 -0.040660754
-0.060054928 -0.0852878 -0.062860966 -0.11656154 -0.049063127 -0.0048428127 -0.044548254 -0.14668106
-0.1303688 0.06510583 -0.043805875 -0.06005318 -0.09008083 -0.28181565 -0.060054086 -0.12689254
-0.04743121 -0.052257072 0.095020704 -0.065427825 -0.20221733 -0.1251433 -0.041632522 -0.042193923
0.05174302 0.0037413563 -0.042953756 0.06782022 0.11222358 -0.09435856 -0.06005492 -0.07939215
-0.072631665 -0.08160486 -0.065608144 -0.117827825 -0.055588704 -0.07665418 0.0670745 -0.05787931
00000000: ec23 9f3d 3dbd 9bbd f97b d2bd 592d 45bd
00000010: 2e2a ddbc 74ac a9bd d123 483d 280c 9f3d
00000020: bff8 25bd 7906 74bd 4d82 34be 2e65 fe3c
00000030: 3cf3 bcbd 59b4 00be 041e 15bd 9b9b a6bd
00000040: b0d1 72bd d581 0bbd db8f b0bd 46fb 75bd
00000050: d521 adbd e7cc d8bd b5fb d8bd e48b 26bd
00000060: 28fc 75bd 5fab aebd 40bd 80bd d1b7 eebd
00000070: 6bf6 48bd 75b0 9ebb 3b78 36bd 8f33 16be
00000080: 667f 05be 3556 853d ca6d 33bd 53fa 75bd
00000090: 4c7c b8bd 244a 90be 46fb 75bd 1ef0 01be
000000a0: 3a47 42bd 830b 56bd 379a c23d 06ff 85bd
000000b0: 0f12 4fbe 9125 00be dd86 2abd 89d3 2cbd
000000c0: 7df0 533d 8b31 753b 47f0 2fbd 54e5 8a3d
000000d0: 7ad5 e53d 103f c1bd 26fc 75bd 5a98 a2bd
000000e0: e9bf 94bd 7320 a7bd 905d 86bd b74f f1bd
000000f0: fbb0 63bd defc 9cbd 5b5e 893d db12 6dbd

goal_head.weight f4 [2, 64]
-0.51021326 -0.55793446 0.07267574 0.010697446 -0.33043545 -0.13674764 -0.1799041 -0.4312707
-0.017000824 0.15525609 -0.1760275 -0.15406121 0.048511405 0.05589816 -0.13805297 -0.037523203
0.027953891 -0.12340658 0.05694164 0.17864764 0.049572762 -0.18164422 -0.017451026 0.25174418
0.026838027 -0.19843632 -0.13280259 -0.09455716 -0.00097181165 -0.29518044 0.12533726 0.04239474
0.11475644 -0.19394433 -0.1029241 -0.12448032 -0.25174978 -0.0054358845 0.14965583 0.057215516
-0.045316078 -0.081193745 -0.525073 0.19187944 0.3572753 0.017959628 -0.019437775 -0.235419
-0.44487837 -0.13403426 0.22760278 -0.4230617 -0.6184722 0.07434728 -0.13512959 -0.04518089
-0.10855661 0.18308762 -0.02627618 0.09562741 0.07107841 0.05620467 -0.14862573 0.03353733
0.2438321 0.039810717 -0.13284916 0.13730612 -0.074878074 -0.07840838 0.27758732 0.43499422
0.051155996 0.064087845 0.26776764 0.33149627 -0.3195243 -0.1030055 0.14222494 -0.21871917
-0.14702599 0.28104472 -0.028425956 0.08453107 -0.01575711 0.06331088 0.3509706 0.3190436
-0.028483095 0.059175503 -0.09550329 -0.1772027 0.20017833 0.15460339 0.116734244 0.37960345
-0.008440775 0.43666956 0.118083276 -0.40487912 0.06767493 0.034636613 0.20879723 0.00095494406
-0.043023646 -0.062582806 0.49924552 -0.07582344 0.14673701 -0.0898901 0.014115473 -0.2217696
0.21392414 0.06789473 -0.014608451 0.082328364 0.28553876 0.04888593 -0.32544622 0.08517977
-0.022561627 0.37779197 -0.16539668 -0.022862922 -0.12457079 0.11988697 0.35804626 -0.41170135
00000000: 569d 02bf cbd4 0ebf 05d7 943d 5744 2f3c
00000010: d62e a9be 9307 0cbe c838 38be 83cf dcbe
00000020: 5045 8bbc 74fb 1e3e 8e40 34be 39c2 1dbe
00000030: e5b3 463d 78f5 643d c25d 0dbe eeb1 19bd
00000040: 8fff e43c 97bc fcbd a33b 693d 68ef 363e
00000050: cf0c 4b3d f100 3abe 74f5 8ebc 9de4 803e
00000060: 6cdb db3c e432 4bbe 67fd 07be 2fa7 c1bd
00000070: 2dc1 7eba e421 97be 6958 003e 1ba6 2d3d
00000080: 6d05 eb3d 5899 46be dfc9 d2bd 8aef febd
00000090: 59e5 80be 811f b2bb 613f 193e d15a 6a3d
000000a0: 5a9d 39bd e848 a6bd 2f6b 06bf 0b7c 443e
000000b0: caec b63e 1220 933c f83b 9fbc ae11 71be
000000c0: 19c7 e3be 4740 09be b410 693e 8b9b d8be
000000d0: 3254 1ebf 6343 983d 695f 0abe 990f 39bd
000000e0: ee52 debd 527b 3b3e 2541 d7bc 4ed8 c33d
000000f0: 8f91 913d de36 663d 5831 18be 705e 093d
00000100: 1faf 793e 9010 233d 9c09 08be fa99 0c3e
00000110: ad59 99bd 9394 a0bd ed1f 8e3e 90b7 de3e
00000120: f388 513d 7d40 833d d718 893e e1b9 a93e
00000130: b098 a3be 8cf4 d2bd 6aa3 113e ebf7 5fbe
00000140: fb8d 16be 18e5 8f3e 8ddd e8bc a01e ad3d
00000150: 0e15 81bc 22a9 813d 6bb2 b33e af59 a33e
00000160: 6155 e9bc 0362 723d 3b97 c3bd a074 35be
00000170: 8cfb 4c3e 5a50 1e3e 5d12 ef3d 625b c23e
00000180: 2d4b 0abc 2793 df3e a5d5 f13d 514c cfbe
00000190: 2799 8a3d 1fdf 0d3d f1ce 553e 3655 7a3a
000001a0: 9039 30bd 6a2b 80bd 1c9d ff3e 5249 9bbd
000001b0: 3a42 163e 4d18 b8bd 9644 673c 9217 63be
000001c0: ee0e 5b3e 640c 8b3d 4958 6fbc c69b a83d
000001d0: 2332 923e 9d3c 483d e3a0 a6be bb72 ae3d
000001e0: 29d3 b8bc f36d c13e bf5d 29be 064b bbbc
000001f0: f81e ffbd 4d87 f53d d751 b73e 85ca d2be

goal_head.bias f4 [2]
-0.34817138 0.34817135
00000000: 8543 b2be 8443 b23e

portfolio_head.weight f4 [15, 64]
0.10316874 0.37043688 0.041296214 0.19602038 -0.16039525 0.11342297 0.12933677 -0.14826974
-0.0409643 0.07623458 -0.07557541 0.009458197 -0.38448223 0.29577094 0.14330332 0.04350698
0.12468051 -0.027814735 0.16729698 0.035189793 -0.054646533 -0.31387234 0.36933365 0.36813405
0.1551131 0.14945492 0.00027495314 0.06589563 0.27272242 -0.26975456 -0.131094 0.17370562
0.035218578 -0.044228144 -0.3178484 0.19606355 -0.103066586 -0.1905785 0.16306984 -0.13491194
-0.20865315 0.096882574 -0.22803347 -0.090501875 0.12929906 -0.25120744 -0.06550482 -0.16342995
-0.1686233 -0.0892685 -0.046078045 0.0041957987 -0.12898712 0.12260672 -0.17423746 -0.002859156
0.18464747 0.11837633 0.10560807 0.07781327 0.032035954 -0.030981472 0.005010578 -0.059835322
0.13586512 -0.057645172 0.0066303043 0.0991073 -0.06452314 -0.12191311 0.11664671 -0.1677033
0.20545979 -0.19362271 -0.15490377 -0.103296995 -0.28102127 -0.061283056 -0.07141052 -0.0109070195
0.1381549 0.11468564 -0.24041829 0.07983098 -0.19052202 0.29415196 -0.016055692 0.3940523
-0.41178864 0.19041578 0.08917993 -0.32664397 -0.075364634 0.08489 -0.031357564 0.20131494
-0.18207338 -0.11836697 0.13339956 0.023019306 0.1450634 0.16741118 -0.15395603 0.005145561
-0.48543844 0.07293512 -0.071832255 0.06705345 -0.3166191 -0.014604674 0.00967216 0.07648589
0.116962075 0.0873239 0.022375934 0.014420001 0.18120097 -0.054237455 -0.049484532 -0.01249777
0.110178486 -0.020766199 -0.16474773 -0.07215944 -0.1959226 -0.08309292 -0.09423867 -0.06895917
0.017655525 -0.39897236 0.025126854 0.08357529 0.09032344 -0.2204336 -0.19960088 -0.0475234
-0.20373039 -0.028316716 -0.053330354 0.1528882 0.047550365 -0.15379377 0.07288663 0.04860983
-0.22600242 -0.09332848 -0.0982949 -0.14568461 -0.028048316 -0.10386531 -0.09569921 0.11173552
-0.4296832 0.15692244 0.21538936 0.045943275 -0.027946696 -0.13414857 -0.07736925 0.05154124
0.14014019 -0.0060271844 0.039632615 0.024479847 -0.2980024 -0.2504086 0.22382121 0.08218869
-0.3799914 0.24557441 0.0866563 -0.09517151 -0.23179236 -0.2728434 -0.16444738 0.014244311
-0.203867 -0.01400772 0.15087861 0.007570432 -0.02905574 -0.09721951 0.22355668 -0.31176758
0.023321286 -0.1542675 0.0138359135 0.018835487 -0.13089171 0.124002956 0.14480175 -0.005788256
-0.33654985 -0.30730817 0.10599396 0.13858016 -0.08694873 -0.15778951 -0.16873659 -0.11283878
0.045618866 0.09832143 -0.31213757 -0.21198626 0.38827878 -0.15150304 0.110713825 0.17360727
-0.05319281 -0.055076122 -0.043403406 -0.04135802 -0.11093975 0.015869668 0.362166 0.08428333
0.08023157 0.028869705 -0.2635454 -0.5664125 -0.07848407 -0.0836817 -0.41958708 -0.12326248
-0.14834796 0.03510651 -0.102587715 -0.00014711166 -0.008721486 -0.50442904 0.16259497 0.3342483
0.46598792 0.04333788 0.070764706 0.16900025 0.34075546 0.16808276 0.09231717 0.09075357
-0.12908785 -0.17424452 0.26821163 -0.16076763 0.08243025 -0.055286217 -0.2961505 -0.113969825
0.04238499 0.19591956 -0.1307191 -0.2859243 -0.040931195 0.20881775 0.19761658 0.09256978
00000000: 224a d33d e7a9 bd3e 3826 293d 91b9 483e
00000010: a73e 24be 4d4a e83d dc70 043e 06d4 17be
00000020: 2fca 27bd e020 9c3d 48c7 9abd 8ef6 1a3c
00000030: dbda c4be 4a6f 973e 1bbe 123e 6034 323d
00000040: 7f58 ff3d badb e3bc e64f 2b3e 2c23 103d
00000050: 0bd5 5fbd e0b3 a0be 4d19 bd3e 117c bc3e
00000060: f8d5 1e3e b60a 193e 9627 9039 4af4 863d
00000070: 46a2 8b3e 451d 8abe 813d 06be e3df 313e
00000080: 5b41 103d 9228 35bd 07bd a2be e2c4 483e
00000090: 9314 d3bd 0327 43be c8fb 263e 5b26 0abe
000000a0: 2ca9 55be 5f6a c63d 9b81 69be 0c59 b9bd
000000b0: f966 043e 439e 80be 6427 86bd 2e5a 27be
000000c0: 96ab 2cbe 67d2 b6bd 55bc 3cbd e97c 893b
000000d0: 3315 04be 3b19 fb3d 4e6b 32be ae60 3bbb
000000e0: 3a14 3d3e 4a6f f23d 0b49 d83d 905c 9f3d
000000f0: 2238 033d dbcc fdbc c62f a43b e215 75bd
00000100: 3a20 0b3e 581d 6cbd 0643 d93b c5f8 ca3d
00000110: b524 84bd 95ad f9bd 78e4 ee3d 6aba 2bbe
00000120: 0d64 523e 0845 46be 189f 1ebe 608d d3bd
00000130: 05e2 8fbe f103 7bbd ae3f 92bd 5bb3 32bc
00000140: 7a78 0d3e 4ee0 ea3d 3630 76be 6d7e a33d
00000150: 3418 43be 169b 963e 3a87 83bc 39c1 c93e
00000160: f6d5 d2be 5bfc 423e f8a3 b63d e13d a7be
00000170: c658 9abd cfda ad3d ca70 00bd 8125 4e3e
00000180: 7271 3abe 626a f2bd e599 083e fc92 bc3c
00000190: 808b 143e d66d 2b3e a6a6 1dbe 189c a83b
000001a0: 638b f8be 025f 953d ca1c 93bd 5253 893d
000001b0: e61b a2be 7148 6fbc fb77 1e3c a2a4 9c3d
000001c0: d089 ef3d dfd6 b23d bc4d b73c de41 6c3c
000001d0: bf8c 393e 1828 5ebd 4bb0 4abd 72c3 4cbc
000001e0: 42a5 e13d e01d aabc a1b3 28be 54c8 93bd
000001f0: ef9f 48be 9f2c aabd 3400 c1bd 773a 8dbd
00000200: 52a2 903c 1b46 ccbe d5d6 cd3c 8629 ab3d
00000210: 7ffb b83d 58b9 61be 2c64 4cbe e6a7 42bd
00000220: b39e 50be 75f8 e7bc ee70 5abd b98e 1c3e
00000230: 2cc4 423d 1d7c 1dbe 9645 953d 1a1b 473d
00000240: 2e6d 67be 0123 bfbd d64e c9bd 592e 15be
00000250: 95c5 e5bc 56b7 d4bd f3fd c3bd 98d5 e43d
00000260: 70ff dbbe 47b0 203e 078f 5c3e 042f 3c3d
00000270: 78f0 e4bc 3e5e 09be c573 9ebd e81c 533d
00000280: e980 0f3e b07f c5bb cf55 223d f689 c83c
00000290: c593 98be 8e35 80be 6331 653e 8b52 a83d
000002a0: 3c8e c2be dc77 7b3e dc78 b13d 48e9 c2bd
000002b0: fa5a 6dbe 21b2 8bbe e564 28be f860 693c
000002c0: 83c2 50be a380 65bc ec7f 1a3e 6311 f83b
000002d0: 4e06 eebc 061b c7bd 0bec 643e 00a0 9fbe
000002e0: 480c bf3c 4df8 1dbe 07b0 623c e14c 9a3c
000002f0: 7a08 06be 43f5 fd3d e946 143e 69ab bdbb
00000300: 4350 acbe 7f57 9dbe 5c13 d93d f5e7 0d3e
00000310: 2d12 b2bd 9393 21be 49c9 2cbe 0518 e7bd
00000320: d9da 3a3d bf5c c93d 7fd0 9fbe ed12 59be
00000330: 7acc c63e 9d23 1bbe eebd e23d 1bc6 313e
00000340: b4e0 59bd 8097 61bd c5c7 31bd 0767 29bd
00000350: 6134 e3bd 1b01 823c d26d b93e bd9c ac3d
00000360: 7350 a43d 2980 ec3c 6cef 86be 6900 11bf
00000370: 42bc a0bd 5061 abbd 1ed4 d6be 0a71 fcbd
00000380: 87e8 17be d8cb 0f3d 8219 d2bd fc41 1ab9
00000390: 90e4 0ebc 4322 01bf 4c7f 263e 9822 ab3e
000003a0: f895 ee3e 1083 313d 16ed 903d 670e 2d3e
000003b0: 8077 ae3e e31d 2c3e c910 bd3d 02dd b93d
000003c0: 9b2f 04be 286d 32be 0953 893e 45a0 24be
000003d0: 31d1 a83d cd73 62bd 0aa1 97be 0369 e9bd
000003e0: e29b 2d3d 239f 483e 3adb 05be ab64 92be
000003f0: 78a7 27bd 52d4 553e 005c 4a3e 3a95 bd3d

portfolio_head.bias f4 [15]
0.030998195 0.009249963 -0.0051361937 -0.0363298 -0.04178781 -0.055483527 0.0051071057 0.101590894
0.087911986 -0.07122876 0.018708028 -0.025614413 -0.014065723 0.03344449 0.008285318
00000000: edef fd3c 288d 173c 844d a8bb 8ece 14bd
00000010: b229 2bbd b242 63bd 8259 a73b e30e d03d
00000020: 330b b43d 62e0 91bd 9441 993c 51d5 d1bc
00000030: eb73 66bc 17fd 083d 24bf 073c

network.0.weight f4 [64, 2]
0.31917813 0.4933652 0.1696426 0.21351503 -0.3441074 -0.11942127 -0.378079 -0.14212474
-0.23701648 0.2336924 0.45102265 0.48082894 -0.43955222 0.15477945 -0.23145631 0.19439735
-0.4559937 0.12626468 0.4680481 0.39038587 0.2240663 0.15713508 0.084421515 -0.16976741
-0.4666279 -0.11784797 -0.08973258 -0.38241854 0.0523839 -0.19221145 0.5459033 0.41785872
-0.2208368 -0.07022771 -0.56517303 -0.13261025 -0.032847695 -0.28654438 -0.04945359 -0.018424861
-0.017702756 0.17630216 -0.46309906 -0.07073684 -0.33892244 -0.21308492 -0.10987167 -0.22833803
-0.03027186 -0.33916858 -0.009621575 -0.3114432 -0.140006 -0.093058795 -0.5061824 0.33829138
-0.011046033 -0.0517415 -0.110285506 0.062215194 -0.49494052 0.10437688 -0.31630167 -0.008812952
-0.039909884 -0.021465885 -0.17031851 0.10967554 -0.10838198 -0.1959851 0.2807823 0.44288078
-0.5196198 0.13027894 0.4321512 0.34865445 -0.1696323 0.2482 -0.014537523 -0.08698269
-0.10120327 0.25749037 0.03537499 0.0958937 -0.55952257 0.06864745 -0.0039952085 -0.15546337
-0.045626823 -0.08052957 -0.2851639 -0.08809407 -0.03664927 -0.029283166 -0.08272456 -0.32310152
0.9826253 0.21048814 -0.43371764 -0.17804302 -0.50657463 -0.16267009 0.40611517 0.43307117
-0.5445925 0.12588169 -0.24977951 -0.090536036 -0.014666611 -0.057733595 -0.10592755 -0.22409883
-0.22388184 0.15359356 -0.52444434 0.007619476 -0.42986608 0.35221195 0.13614945 -0.12952934
0.37697098 0.28266305 -0.3345696 -0.21483038 -0.5098379 0.06945262 -0.053741172 -0.13389738
00000000: 516b a33e 5d9a fc3e cab6 2d3e afa3 5a3e
00000010: d82e b0be 2493 f4bd 9293 c1be 2689 11be
00000020: 73b4 72be 0f4d 6f3e 71ec e63e 362f f63e
00000030: fd0c e1be 817e 1e3e e202 6dbe 1910 473e
00000040: 0278 e9be 874b 013e 00a4 ef3e a8e0 c73e
00000050: a371 653e 05e8 203e 30e5 ac3d 82d7 2dbe
00000060: dae9 eebe 475a f1bd b7c5 b7bd 5dcc c3be
00000070: 8090 563d 14d3 44be 52c0 0b3f 94f1 d53e
00000080: 0b23 62be 8cd3 8fbd 2eaf 10bf fbca 07be
00000090: 4e8b 06bd f2b5 92be d98f 4abd bcef 96bc
000000a0: 5f05 91bc 8e88 343e 521b edbe 7ade 90bd
000000b0: 3e87 adbe ef32 5abe 6604 e1bd 72d1 69be
000000c0: b1fc f7bc 81a7 adbe cfa3 1dbc 7c75 9fbe
000000d0: bc5d 0fbe 9c95 bebd 2b95 01bf 8734 ad3e
000000e0: 6cfa 34bc e5ee 53bd 5edd e1bd 5cd5 7e3d
000000f0: d868 fdbe 8cc3 d53d 4bf2 a1be 3364 10bc
00000100: 8c78 23bd 39d9 afbc fa67 2ebe 929d e03d
00000110: 5ff7 ddbd 51b0 48be b3c2 8f3e 45c1 e23e
00000120: ce05 05bf d867 053e ec42 dd3e d682 b23e
00000130: 17b4 2dbe 2428 7e3e ca2e 6ebc fb23 b2bd
00000140: a943 cfbd c7d5 833e 5ee5 103d eb63 c43d
00000150: df3c 0fbf 0997 8c3d 3dea 82bb ca31 1fbe
00000160: 31e3 3abd b0ec a4bd 0101 92be aa6a b4bd
00000170: 8c1d 16bd 40e3 efbc 7e6b a9bd 906d a5be
00000180: 558d 7b3f 348a 573e 3d10 debe e950 36be
00000190: e0ae 01bf fd92 26be 54ee cf3e 81bb dd3e
000001a0: 6a6a 0bbf 21e7 003e 33c6 7fbe f56a b9bd
000001b0: 3a4c 70bc 107a 6cbd 8bf0 d8bd 2a7a 65be
000001c0: 4841 65be a147 1d3e fc41 06bf ccac f93b
000001d0: 6817 dcbe 2055 b43e c36a 0b3e 57a3 04be
000001e0: 5702 c13e 36b9 903e b54c abbe 7ffc 5bbe
000001f0: bd84 02bf 2d3d 8e3d b41f 5cbd 651c 09be

network.0.bias f4 [64]
0.22213152 0.35568452 0.50259507 0.3310531 0.2878391 0.29171294 0.3686566 -0.08189048
0.381403 0.072777584 0.08874233 0.32619032 0.0 0.0 0.08223138 0.3147446
0.0 0.49897873 -0.07039114 0.0 0.35808438 0.40046865 0.0 0.0
-0.061528593 -0.065218516 0.0 0.7210463 0.0 -0.060053516 0.42434028 -0.06004568
0.0 -0.06005208 0.0 0.2464841 0.44152835 0.46164218 -0.054421254 0.0
-0.04281907 0.33913648 0.4800621 0.0 -0.060054395 0.40327507 0.0 0.0
-0.25290942 0.38103822 0.45002833 0.13497695 0.46218365 0.3520963 0.0 0.0
0.38808894 0.45211044 0.5440234 0.10747307 0.27691603 0.30030704 0.4386558 0.0
00000000: 7276 633e 481c b63e 12aa 003f cb7f a93e
00000010: a65f 933e 665b 953e 8fc0 bc3e 32b6 a7bd
00000020: 4147 c33e 6a0c 953d 8abe b53d 6b02 a73e
00000030: 0000 0000 0000 0000 ed68 a83d 3426 a13e
00000040: 0000 0000 247a ff3e 3b29 90bd 0000 0000
00000050: d656 b73e 3a0a cd3e 0000 0000 0000 0000
00000060: 6805 7cbd 4991 85bd 0000 0000 7e96 383f
00000070: 0000 0000 adfa 75bd 2143 d93e 75f2 75bd
00000080: 0000 0000 2bf9 75bd 0000 0000 5466 7c3e
00000090: 0110 e23e 5d5c ec3e d2e8 5ebd 0000 0000
000000a0: 0d63 2fbd 4ca3 ad3e b3ca f53e 0000 0000
000000b0: 99fb 75bd 127a ce3e 0000 0000 0000 0000
000000c0: 587d 81be 7117 c33e 1d6a e63e 6637 0a3e
000000d0: 56a3 ec3e f745 b43e 0000 0000 0000 0000
000000e0: 98b3 c63e 057b e73e 1e45 0b3f d71a dc3d
000000f0: f0c7 8d3e d8c1 993e 7e97 e03e 0000 0000

network.2.weight f4 [64, 64]
0.18733227 0.18423787 0.49702287 0.20948438 0.009373486 0.09303495 0.26769343 0.30881768
0.04151774 -0.079497665 0.7095787 0.113789454 -0.26451072 -0.065375455 -0.29047632 0.265374
-0.08221402 0.0647048 0.18311828 -0.36071372 0.020142954 0.25169766 -0.08413934 -0.04304313
0.21060295 -0.027570788 0.013543155 0.6185493 0.2613908 0.18004952 0.17594267 0.050670814
-0.31816486 -0.19049641 0.25142464 0.11786151 0.16519311 0.44011712 -0.05932084 -0.06848991
0.0876958 0.19276829 0.47131976 0.040737532 0.2902124 0.13671635 -0.07596152 0.22135754
-0.9706473 0.07103175 0.09151051 -0.07270444 0.5823346 -0.046371937 -0.13594706 -0.116543114
0.1263505 0.04891938 0.66698503 0.07595781 0.14596231 -0.112837374 0.3404003 -0.03159291
0.43240604 0.20571221 0.29140028 0.06782292 0.005219252 0.35994124 0.07559558 -0.09746363
-0.06277503 0.30188826 -0.15395996 0.08607016 0.074174635 -0.15118025 0.06707941 0.20926604
0.067818835 0.026518358 -0.1292585 -0.19836614 0.06913863 0.47199556 0.25241452 0.02467876
0.3009596 -0.049817406 -0.10693043 0.5994107 -0.23431517 -0.214869 0.24089704 0.25598854
-0.12090576 -0.28762347 0.17368758 0.12205489 -0.09637702 0.11398321 0.08564118 0.040076885
0.12032136 0.35366383 0.3022074 0.06676557 0.25251684 0.21792884 -0.104763016 -0.0249545
-0.64317214 0.39908338 0.13371141 0.02463764 0.37513998 0.058801748 0.32018808 -0.013530611
0.55654657 0.5627468 0.44657502 -0.25931126 0.050158933 0.073697016 0.33932868 0.21896397
0.017151786 0.08785497 0.5539791 -0.12675337 0.019832997 -0.026215876 0.08036667 -0.16592008
-0.23389734 0.23566847 0.056193113 0.13811669 -0.0711852 0.1232739 -0.079350874 0.18294266
0.21480402 0.23821716 0.015574922 0.24869983 0.39641753 -0.05587557 -0.08560367 -0.15504342
0.16237225 -0.34105715 -0.16793792 0.46907574 0.042360228 0.43415043 0.0009327445 0.10922283
0.011012282 -0.21921887 -0.08086851 0.16859463 0.22985035 0.09053133 -0.27767134 -0.19830735
-0.24650863 0.04061655 0.27549165 -0.012612665 -0.090546496 0.2339942 0.4829698 -0.17122734
-0.67849594 -0.0009930113 0.114280015 -0.13344829 0.34784785 0.17428131 0.01987592 -0.37914437
0.24102029 0.18535687 0.05962334 0.15460691 0.33033156 0.09754093 0.112986594 0.031403877
-0.03220072 0.11474443 0.5826128 0.5238108 0.011717285 0.22064935 0.04509032 0.19475134
0.14109343 0.06566346 -0.13296631 0.3914164 -0.034410466 0.1979318 0.26875237 0.09536152
0.12837288 0.44547486 0.1633034 -0.052422795 0.19017696 0.1944536 -0.14994177 -0.14770454
0.02606992 0.105079286 -0.131846 0.797483 -0.096314006 -0.098307244 0.029178962 -0.15635829
0.057150703 -0.037920125 0.03293082 0.32608485 0.5150578 0.17816006 0.00891125 0.4181084
-0.032163456 0.4519922 0.50911576 -0.08222602 -0.02482121 0.3218342 -0.061482985 0.12722616
-1.1751429 0.16229567 -0.038271412 0.08683043 0.11316625 0.3193414 -0.16355237 -0.16848622
0.5486997 0.29947865 0.7342661 0.2487467 0.15067331 0.041986242 0.5897312 0.14362668
00000000: 08d4 3f3e daa8 3c3e c879 fe3e 1383 563e
00000010: 4093 193c 1c89 be3d 1d0f 893e 5a1d 9e3e
00000020: 810e 2a3d accf a2bd f3a6 353f 720a e93d
00000030: f36d 87be 91e3 85bd 50b9 94be 1adf 873e
00000040: d35f a8bd f383 843d 5c83 3b3e 78af b8be
00000050: d602 a53c 84de 803e 3f51 acbd fe4d 30bd
00000060: 4da8 573e 22dc e1bc 1ce4 5d3c 3f59 1e3f
00000070: 04d5 853e e75e 383e 512a 343e 338c 4f3d
00000080: 81e6 a2be 7e11 43be bbba 803e 6061 f13d
00000090: 6228 293e 0857 e13e 69fa 72bd 7044 8cbd
000000a0: db99 b33d 0d65 453e d350 f13e 66dc 263d
000000b0: b896 943e 5fff 0b3e b791 9bbd 8dab 623e
000000c0: 577c 78bf 1879 913d dd69 bb3d 11e6 94bd
000000d0: e113 153f 80f0 3dbd b535 0bbe 28ae eebd
000000e0: 0762 013e b05f 483d 88bf 2a3f c58f 9b3d
000000f0: 2577 153e 4817 e7bd f348 ae3e 9167 01bd
00000100: 5364 dd3e 39a6 523e 6b32 953e bee6 8a3d
00000110: 4206 ab3b 384a b83e dbd1 9a3d 039b c7bd
00000120: 3290 80bd 1991 9a3e aea7 1dbe 8d45 b03d
00000130: dfe8 973d ffce 1abe ee60 893d d649 563e
00000140: 9ae4 8a3d 073d d93c 575c 04be 7e20 4bbe
00000150: 8e98 8d3d 67a9 f13e 7a3c 813e 1c2b ca3c
00000160: 6017 9a3e 560d 4cbd 57fe dabd fb72 193f
00000170: 51f0 6fbe 9e06 5cbe b7ad 763e ee10 833e
00000180: 709d f7bd 6243 93be 28db 313e eaf7 f93d
00000190: 5161 c5bd 0770 e93d a564 af3d a927 243d
000001a0: 0c6b f63d 6d13 b53e eeba 9a3e 63bc 883d
000001b0: e349 813e bd28 5f3e fe8d d6bd 616d ccbc
000001c0: eea6 24bf a854 cc3e a5eb 083e e0d4 c93c
000001d0: 5912 c03e 1ada 703d b1ef a33e 7faf 5dbc
000001e0: d679 0e3f 2d10 103f 7ba5 e43e 72c4 84be
000001f0: 7473 4d3d 76ee 963d 7dbc ad3e 1738 603e
00000200: e781 8c3c 4eed b33d 93d1 0d3f a3cb 01be
00000210: cf78 a23c adc2 d6bc 4897 a43d f4e6 29be
00000220: c982 6fbe 1353 713e c02a 663d 766e 0d3e
00000230: 8cc9 91bd 0777 fc3d b682 a2bd 5255 3b3e
00000240: 96f5 5b3e 33ef 733e f52d 7f3c 2bab 7e3e
00000250: 3df7 ca3e c8dd 64bd fa50 afbd b4c3 1ebe
00000260: e944 263e 0b9f aebe ebf7 2bbe b22a f03e
00000270: eb81 2d3d f748 de3e 6c83 743a 38b0 df3d
00000280: dc6c 343c e97a 60be 649e a5bd 12a4 2c3e
00000290: e45d 6b3e 7d68 b93d f02a 8ebe 1511 4bbe
000002a0: c26c 7cbe 8a5d 263d 3e0d 8d3e 5aa5 4ebc
000002b0: 7170 b9bd 2d9c 6f3e d147 f73e 3856 2fbe
000002c0: e9b1 2dbf ee27 82ba a40b ea3d aba6 08be
000002d0: 1d19 b23e cd76 323e d3d2 a23c 361f c2be
000002e0: 06ce 763e 31ce 3d3e 9a37 743d 4651 1e3e
000002f0: 3821 a93e 8ac3 c73d 8465 e73d 5aa1 003d
00000300: e7e4 03bd 21ff ea3d 1d26 153f 7718 063f
00000310: dbf9 3f3c e7f1 613e a1b0 383d e56c 473e
00000320: cc7a 103e 907a 863d 5228 08be bb67 c83e
00000330: fdf1 0cbd a2ae 4a3e e999 893e e74c c33d
00000340: 2e74 033e 4815 e43e 0239 273e 49b9 56bd
00000350: c0bd 423e d81e 473e 568a 19be dc3f 17be
00000360: 9690 d53c cf33 d73d a302 07be d927 4c3f
00000370: 4740 c5bd 4f55 c9bd b808 ef3c 631c 20be
00000380: db16 6a3d 2252 1bbd 78e2 063d 98f4 a63e
00000390: d4da 033f 976f 363e 7e00 123c 4e12 d63e
000003a0: d4bd 03bd 866b e73e 6955 023f 1e66 a8bd
000003b0: da55 cbbc 74c7 a43e 95d5 7bbd 9347 023e
000003c0: 156b 96bf d630 263e 7cc2 1cbd 27d4 b13d
000003d0: b5c3 e73d b780 a33e 467a 27be a787 2cbe
000003e0: 9577 0c3f 4455 993e ddf8 3b3f 74b7 7e3e
000003f0: 1b4a 1a3e c4f9 2b3d a0f8 163f df12 133e

network.2.bias f4 [64]
0.5112118 0.44884127 0.38886014 0.46590653 0.4651717 0.0 0.0 -0.08080424
0.0 -0.060052633 -0.06039487 0.46873364 -0.07388843 0.0 0.0 -0.06004985
-0.06005322 0.47078866 -0.060054272 -0.05493763 0.4136819 0.0 0.46785846 -0.17081672
0.0 0.0 -0.08249341 -0.060052764 0.446829 0.48980606 0.47965598 0.6631526
-0.06005182 0.46991003 0.0 0.4572733 0.4260819 -0.060054053 0.46530813 -0.060046714
0.6120266 0.46156305 0.47954628 0.45514998 0.0 -0.086373076 0.5230115 0.4190074
0.0 -0.23403934 -0.060053438 -0.060020905 0.0 0.47637874 -0.060054615 -0.060050078
-0.08616653 0.51543266 -0.06113833 -0.060054846 -0.060050976 0.58308166 0.4077712 0.48822117
00000000: c7de 023f 86ce e53e ad18 c73e 4d8b ee3e
00000010: fc2a ee3e 0000 0000 0000 0000 b27c a5bd
00000020: 0000 0000 c0f9 75bd 9c60 77bd dbfd ef3e
00000030: d152 97bd 0000 0000 0000 0000 d5f6 75bd
00000040: 5dfa 75bd 360b f13e 78fb 75bd 4806 61bd
00000050: 1dce d33e 0000 0000 258b ef3e 94ea 2ebe
00000060: 0000 0000 0000 0000 4ef2 a8bd e3f9 75bd
00000070: c5c6 e43e dcc7 fa3e 7895 f53e 5ec4 293f
00000080: e6f8 75bd 0c98 f03e 0000 0000 ba1f ea3e
00000090: 6827 da3e 3dfb 75bd de3c ee3e 8bf3 75bd
000000a0: c6ad 1c3f fe51 ec3e 1787 f53e 6b09 e93e
000000b0: 0000 0000 5ee4 b0bd 15e4 053f 2388 d63e
000000c0: 0000 0000 02a8 6fbe 98fa 75bd 7bd8 75bd
000000d0: 0000 0000 eae7 f33e d4fb 75bd 12f7 75bd
000000e0: 1478 b0bd 65f3 033f 2f6c 7abd 12fc 75bd
000000f0: 03f8 75bd d744 153f 63c7 d03e 20f8 f93e

network.4.weight f4 [1, 64]
0.25671145 0.21292542 0.15578501 0.28382158 0.2831258 -0.007879439 -0.017762154 0.061486274
0.00798791 0.045150436 0.047492635 0.24972165 0.050726973 0.006346391 0.002972246 0.05305737
0.056005273 0.23891951 0.0467781 0.062986284 0.14152941 -0.0025247727 0.24001771 -0.04410664
0.016729085 -0.010351477 -0.054457836 0.0571562 0.219953 0.28289628 0.2757974 0.32303014
0.059003863 0.27318317 0.0028305994 0.23480095 0.20363629 0.056691956 0.25594345 0.055691257
0.3658708 0.21454301 0.22202359 0.22952832 -0.0021038752 -0.068802245 0.31796867 0.16859028
0.024906207 0.27499306 0.04499473 0.05875114 -0.0018292506 0.23582892 0.052307937 0.05682758
-0.069990985 -2.0428994 0.0476758 0.03328386 0.037340134 0.33449212 0.1830117 0.22809969
00000000: af6f 833e 1f09 5a3e 1b86 1f3e 1051 913e
00000010: ddf5 903e c318 01bc f081 91bc 08d9 7b3d
00000020: b9df 023c aaef 383d a387 423d 08b7 7f3e
00000030: 16c7 4f3d 63f5 cf3b 03ca 423b af52 593d
00000040: c965 653d 51a7 743e 659a 3f3d f4fe 803d
00000050: 16ed 103e a876 25bb 34c7 753e 2aa9 34bd
00000060: 6f0b 893c 3e99 29bc 2e0f 5fbd 9f1c 6a3d
00000070: 5c3b 613e c8d7 903e 5135 8d3e 3564 a53e
00000080: 09ae 713d aade 8b3e 9481 393b a96f 703e
00000090: 0886 503e d335 683d 050b 833e 841c 643d
000000a0: 6b53 bb3e 2ab1 5b3e 275a 633e 7909 6b3e
000000b0: 2be1 09bb 31e8 8cbd cacc a23e eea2 2c3e
000000c0: 1a08 cc3c e4cb 8c3e 654c 383d 09a5 703d
000000d0: 77c3 efba 237d 713e d940 563d 09c4 683d
000000e0: 6f57 8fbd ddbe 02c0 b347 433d a854 083d
000000f0: f8f1 183d 8d42 ab3e 6b67 3b3e f792 693e

exp_avg f4 [64, 2]
9.40299e-37 -1.4337939e-11 0.0 0.0 6e-45 6e-45 0.003245173 0.00028306528
0.0 0.0 0.0 0.0 0.0 0.0 0.0 0.0
6e-45 6e-45 6e-45 6e-45 6e-45 6e-45 6e-45 6e-45
0.0013955216 0.00017697763 0.0024198787 0.00020479914 0.001468914 0.00012185021 6e-45 6e-45
0.0 6e-45 6e-45 6e-45 6e-45 6e-45 6e-45 6e-45
1.729377e-10 -2.6919917e-09 6e-45 6e-45 0.0 0.0 8.0282e-41 5.726e-42
6e-45 6e-45 6e-45 6e-45 0.0 0.0 6e-45 6e-45
2.3844e-41 1.673e-42 6e-45 -6e-45 0.0 0.0 7.672762e-05 7.0431884e-06
6e-45 6e-45 0.0 0.0 2.456e-42 7.92e-43 7.383e-42 4.57e-43
6e-45 6e-45 0.0 0.0 6e-45 6e-45 0.0 0.0
0.0 0.0 0.0 0.0 5.9625244e-31 4.9696163e-32 0.0 0.0
0.0 0.0 0.0 6e-45 0.0 0.0 6e-45 6e-45
6e-45 6e-45 6e-45 6e-45 6e-45 6e-45 1.8735074e-24 -1.9928792e-10
0.0 0.0 4.65572e-40 2.019662e-39 0.0 0.0 0.0 6e-45
6e-45 6e-45 6e-45 6e-45 6e-45 6e-45 -6e-45 6e-45
6e-45 6e-45 6e-45 6e-45 0.0 6e-45 1.7986488e-25 2.9858974e-26
00000000: ccfb 9f03 563c 7cad 0000 0000 0000 0000
00000010: 0400 0000 0400 0000 f8ac 543b 6168 9439
00000020: 0000 0000 0000 0000 0000 0000 0000 0000
00000030: 0000 0000 0000 0000 0000 0000 0000 0000
00000040: 0400 0000 0400 0000 0400 0000 0400 0000
00000050: 0400 0000 0400 0000 0400 0000 0400 0000
00000060: efe9 b63a 1293 3939 d496 1e3b 5abf 5639
00000070: 9388 c03a d589 ff38 0400 0000 0400 0000
00000080: 0000 0000 0400 0000 0400 0000 0400 0000
00000090: 0400 0000 0400 0000 0400 0000 0400 0000
000000a0: a325 3e2f 05fe 38b1 0400 0000 0400 0000
000000b0: 0000 0000 0000 0000 cbdf 0000 f60f 0000
000000c0: 0400 0000 0400 0000 0400 0000 0400 0000
000000d0: 0000 0000 0000 0000 0400 0000 0400 0000
000000e0: 7842 0000 aa04 0000 0400 0000 0400 0080
000000f0: 0000 0000 0000 0000 d4e8 a038 8754 ec36
00000100: 0400 0000 0400 0000 0000 0000 0000 0000
00000110: d906 0000 3502 0000 9514 0000 4601 0000
00000120: 0400 0000 0400 0000 0000 0000 0000 0000
00000130: 0400 0000 0400 0000 0000 0000 0000 0000
00000140: 0000 0000 0000 0000 0000 0000 0000 0000
00000150: b77e 410d c404 810b 0000 0000 0000 0000
00000160: 0000 0000 0000 0000 0000 0000 0400 0000
00000170: 0000 0000 0000 0000 0400 0000 0400 0000
00000180: 0400 0000 0400 0000 0400 0000 0400 0000
00000190: 0400 0000 0400 0000 a3f4 1018 901e 5baf
000001a0: 0000 0000 0000 0000 d311 0500 fffd 1500
000001b0: 0000 0000 0000 0000 0000 0000 0400 0000
000001c0: 0400 0000 0400 0000 0400 0000 0400 0000
000001d0: 0400 0000 0400 0000 0400 0080 0400 0000
000001e0: 0400 0000 0400 0000 0400 0000 0400 0000
000001f0: 0000 0000 0400 0000 75a9 5e16 bfda 1315

exp_avg_sq f4 [64, 2]
1.5729416e-06 1.163241e-07 0.0 0.0 3.5229635e-09 9.7487976e-11 4.9296425e-05 2.5785874e-07
0.0 0.0 0.0 0.0 0.0 0.0 0.0 0.0
9.850027e-12 2.2731277e-11 1.2737954e-06 1.1313344e-08 5.7420496e-10 4.5230673e-13 1.5658565e-06 8.330944e-09
2.6521924e-05 1.3611944e-06 5.9757065e-05 3.406947e-07 3.3528973e-05 1.9372206e-07 5.39555e-08 4.227051e-10
0.0 7.580359e-12 7.418196e-07 3.3382699e-09 1.2874093e-08 1.2607421e-09 3.6286013e-07 2.019554e-09
1.7291128e-05 1.2495813e-07 8.643737e-07 6.1280607e-09 0.0 0.0 2.7074266e-06 1.251661e-08
8.520019e-08 7.5592493e-10 4.1677836e-07 3.201591e-09 0.0 0.0 1.8958317e-06 1.1718874e-08
4.4190783e-06 1.7894752e-08 5.217371e-06 2.0403139e-08 0.0 0.0 2.7524673e-05 1.3744655e-07
7.83183e-07 4.2834856e-09 0.0 0.0 6.1256924e-06 5.120275e-08 7.1233358e-06 3.7119595e-08
2.1454937e-06 1.4422682e-08 0.0 0.0 1.7856573e-06 8.066445e-09 0.0 0.0
0.0 0.0 0.0 0.0 1.1210826e-05 6.8223265e-08 0.0 0.0
0.0 0.0 0.0 1.5057595e-12 0.0 0.0 6.4522646e-07 3.7410257e-09
2.4630954e-06 1.8254358e-08 2.3955881e-06 1.0192847e-08 3.380061e-07 1.666909e-09 5.040375e-07 4.0902908e-08
0.0 0.0 4.054248e-07 1.5501698e-08 0.0 0.0 0.0 3.0564915e-12
1.6950447e-05 6.372936e-08 1.8029387e-07 8.9866475e-10 5.346449e-07 3.575734e-09 1.6339129e-10 4.551891e-11
5.4720854e-06 4.1274728e-08 5.3351302e-14 2.4555712e-11 0.0 1.2806137e-14 0.0002055565 7.2323604e-07
00000000: dd1d d335 dacd f933 0000 0000 0000 0000
00000010: a118 7231 da60 d62e a2c3 4e38 d66f 8a34
00000020: 0000 0000 0000 0000 0000 0000 0000 0000
00000030: 0000 0000 0000 0000 0000 0000 0000 0000
00000040: 9448 2d2d 49f2 c72d 47f7 aa35 9d5c 4232
00000050: 15d6 1d30 45a0 fe2a 6b2a d235 e11f 0f32
00000060: 667b de37 49b2 b635 a9a3 7a38 b9e8 b634
00000070: 76a1 0c38 ea01 5034 b3bc 6733 7462 e82f
00000080: 0000 0000 e75a 052d 7421 4735 7767 6531
00000090: dc2c 5d32 6b46 ad30 1ecf c234 5fc8 0a31
000000a0: 6a0c 9137 3b2c 0634 4f07 6835 fe8e d231
000000b0: 0000 0000 0000 0000 3cb1 3536 a208 5732
000000c0: 4df7 b633 7dc9 4f30 95c1 df34 fc02 5c31
000000d0: 0000 0000 0000 0000 4874 fe35 2754 4932
000000e0: 9847 9436 fab6 9932 e010 af36 fa42 af32
000000f0: 0000 0000 0000 0000 c9e4 e637 0595 1334
00000100: ed3b 5235 f02d 9331 0000 0000 0000 0000
00000110: 4c8b cd36 05ea 5b33 fd04 ef36 6d6d 1f33
00000120: 4dfb 0f36 a0c7 7732 0000 0000 0000 0000
00000130: b8aa ef35 9a94 0a32 0000 0000 0000 0000
00000140: 0000 0000 0000 0000 0000 0000 0000 0000
00000150: 2216 3c37 2382 9233 0000 0000 0000 0000
00000160: 0000 0000 0000 0000 0000 0000 b4ea d32b
00000170: 0000 0000 0000 0000 a033 2d35 698a 8031
00000180: a84b 2536 c2cd 9c32 e4c3 2036 9d1c 2f32
00000190: 3477 b534 2619 e530 314d 0735 39ad 2f33
000001a0: 0000 0000 0000 0000 29a9 d934 9828 8532
000001b0: 0000 0000 0000 0000 0000 0000 db14 572c
000001c0: cf30 8e37 96db 8833 cd96 4134 e905 7730
000001d0: 8584 0f35 fab8 7531 8fa6 332f bd31 482e
000001e0: db9c b736 0b46 3133 dd45 7029 8cfe d72d
000001f0: 0000 0000 e2b1 6628 a78a 5739 6724 4235

exp_avg f4 [64]
-3.6775186e-10 0.0 6e-45 0.0059385947 0.0 0.0 0.0 0.0
6e-45 6e-45 6e-45 6e-45 0.0055347392 0.004187249 0.0025068042 6e-45
6e-45 6e-45 6e-45 6e-45 -6.9109646e-08 6e-45 0.0 1.09677e-40
6e-45 6e-45 0.0 6e-45 3.7744e-41 6e-45 0.0 0.0007605206
6e-45 0.0 2.0312e-41 1.0623e-41 6e-45 0.0 6e-45 0.0
0.0 0.0 8.231213e-31 0.0 0.0 6e-45 0.0 6e-45
6e-45 6e-45 6e-45 -5.1115037e-09 0.0 5.1867056e-38 0.0 6e-45
6e-45 6e-45 6e-45 6e-45 6e-45 6e-45 6e-45 4.635659e-25
00000000: 792c caaf 0000 0000 0400 0000 8b98 c23b
00000010: 0000 0000 0000 0000 0000 0000 0000 0000
00000020: 0400 0000 0400 0000 0400 0000 0400 0000
00000030: c25c b53b 3135 893b 3249 243b 0400 0000
00000040: 0400 0000 0400 0000 0400 0000 0400 0000
00000050: 6e69 94b3 0400 0000 0000 0000 bc31 0100
00000060: 0400 0000 0400 0000 0000 0000 0400 0000
00000070: 3769 0000 0400 0000 0000 0000 ac5d 473a
00000080: 0400 0000 0000 0000 9f38 0000 9d1d 0000
00000090: 0400 0000 0000 0000 0400 0000 0000 0000
000000a0: 0000 0000 0000 0000 1f8f 850d 0000 0000
000000b0: 0000 0000 0400 0000 0000 0000 0400 0000
000000c0: 0400 0000 0400 0000 0400 0000 43a1 afb1
000000d0: 0000 0000 1032 8d01 0000 0000 0400 0000
000000e0: 0400 0000 0400 0000 0400 0000 0400 0000
000000f0: 0400 0000 0400 0000 0400 0000 7977 0f17

exp_avg_sq f4 [64]
7.10033e-05 0.0 7.257089e-08 0.0001131516 0.0 0.0 0.0 0.0
1.4629105e-08 5.559342e-06 5.00622e-10 3.9074325e-06 0.00079581846 0.0001591937 9.02918e-05 2.1918717e-07
4.9868314e-09 1.6706155e-06 8.0539377e-07 9.059649e-07 6.26863e-05 3.3520632e-06 0.0 5.7511543e-06
2.6229452e-07 1.624807e-06 0.0 5.585032e-06 7.4848417e-06 8.401141e-06 0.0 6.207168e-05
2.1431076e-06 0.0 2.6026211e-05 1.679799e-05 7.1650966e-06 0.0 3.6507734e-06 0.0
0.0 0.0 3.338089e-05 0.0 0.0 9.905833e-10 0.0 1.7516682e-06
8.8242405e-06 4.6591545e-06 8.6916714e-07 2.4893541e-05 0.0 9.059639e-06 0.0 2.0107538e-09
2.8188093e-05 3.3266008e-07 1.8370764e-06 2.773011e-08 2.0885796e-05 1.595692e-08 8.424582e-12 0.00029589838
00000000: 9be7 9438 0000 0000 45d8 9b33 cd4b ed38
00000010: 0000 0000 0000 0000 0000 0000 0000 0000
00000020: 7c53 7b32 628a ba36 249c 0930 971c 8336
00000030: 799e 503a 3ced 2639 0a5b bd38 b659 6b34
00000040: a258 ab31 e939 e035 3d32 5835 6f31 7335
00000050: 7376 8338 02f4 6036 0000 0000 0afa c036
00000060: 7cd1 8c34 f213 da35 0000 0000 0f67 bb36
00000070: 4d26 fb36 a0f2 0c37 0000 0000 7b2c 8238
00000080: 4fd2 0f36 0000 0000 dd52 da37 69e9 8c37
00000090: b66b f036 0000 0000 cfff 7436 0000 0000
000000a0: 0000 0000 0000 0000 7502 0c38 0000 0000
000000b0: 0000 0000 0d25 8830 0000 0000 dc1a eb35
000000c0: d30b 1437 d555 9c36 b650 6935 79d2 d037
000000d0: 0000 0000 dafe 1737 0000 0000 8e2d 0a31
000000e0: 7875 ec37 7498 b234 7791 f635 2833 ee32
000000f0: e833 af37 a311 8932 f234 142d cf22 9b39

exp_avg f4 [64, 64]
2.410957e-38 0.0 -6e-45 0.0008033061 0.0 0.0 0.0 0.0
-6e-45 -6e-45 6e-45 6e-45 8.068687e-05 0.0005742132 0.0005350951 -6e-45
0.0 -6e-45 6e-45 6e-45 -7.55896e-17 6e-45 0.0 -1.363e-42
-6e-45 6e-45 0.0 6e-45 1.216e-42 6e-45 0.0 7.92977e-05
-6e-45 0.0 -4e-44 2.45e-43 -6e-45 0.0 6e-45 0.0
0.0 0.0 8.4434334e-33 0.0 0.0 0.0 0.0 6e-45
6e-45 6e-45 6e-45 3.8946283e-38 0.0 -2.21067e-40 0.0 0.0
-6e-45 6e-45 6e-45 -6e-45 -6e-45 6e-45 0.0 -1.2020156e-26
6e-45 0.0 0.0 0.0 0.0 0.0 0.0 0.0
0.0 6e-45 0.0 6e-45 6e-45 6e-45 6e-45 0.0
0.0 0.0 6e-45 0.0 6e-45 6e-45 0.0 0.0
0.0 0.0 0.0 0.0 0.0 0.0 0.0 6e-45
0.0 0.0 6e-45 0.0 6e-45 0.0 0.0 0.0
0.0 0.0 6e-45 0.0 0.0 0.0 0.0 0.0
6e-45 0.0 0.0 6e-45 0.0 6e-45 0.0 0.0
0.0 0.0 0.0 0.0 6e-45 0.0 0.0 0.0
6e-45 0.0 -6e-45 6e-45 0.0 0.0 0.0 0.0
0.0 6e-45 -6e-45 6e-45 6e-45 6e-45 6e-45 6e-45
0.0 -6e-45 6e-45 6e-45 6e-45 6e-45 0.0 6e-45
6e-45 6e-45 0.0 6e-45 6e-45 6e-45 0.0 6e-45
6e-45 0.0 6e-45 6e-45 6e-45 0.0 -6e-45 0.0
0.0 0.0 6e-45 0.0 0.0 0.0 0.0 6e-45
6e-45 -6e-45 6e-45 -6e-45 0.0 6e-45 0.0 0.0
6e-45 6e-45 6e-45 6e-45 6e-45 6e-45 0.0 6e-45
-6e-45 0.0 -6e-45 6e-45 0.0 0.0 0.0 0.0
-6e-45 6e-45 -6e-45 6e-45 -6e-45 6e-45 6e-45 -6e-45
0.0 6e-45 -6e-45 6e-45 6e-45 6e-45 0.0 6e-45
-6e-45 6e-45 0.0 6e-45 6e-45 6e-45 0.0 6e-45
6e-45 0.0 6e-45 6e-45 6e-45 0.0 6e-45 0.0
0.0 0.0 6e-45 0.0 0.0 0.0 0.0 6e-45
6e-45 6e-45 6e-45 -6e-45 0.0 -6e-45 0.0 6e-45
6e-45 6e-45 6e-45 -6e-45 6e-45 6e-45 0.0 6e-45
00000000: d643 0301 0000 0000 0400 0080 f694 523a
00000010: 0000 0000 0000 0000 0000 0000 0000 0000
00000020: 0400 0080 0400 0080 0400 0000 0400 0000
00000030: 6f36 a938 cc86 163a a045 0c3a 0400 0080
00000040: 0000 0000 0400 0080 0400 0000 0400 0000
00000050: 394c aea4 0400 0000 0000 0000 cd03 0080
00000060: 0400 0080 0400 0000 0000 0000 0400 0000
00000070: 6403 0000 0400 0000 0000 0000 a14c a638
00000080: 0400 0080 0000 0000 1d00 0080 af00 0000
00000090: 0400 0080 0000 0000 0400 0000 0000 0000
000000a0: 0000 0000 0000 0000 fe5c 2f0a 0000 0000
000000b0: 0000 0000 0000 0000 0000 0000 0400 0000
000000c0: 0400 0000 0400 0000 0400 0000 320b 5401
000000d0: 0000 0000 3f68 0280 0000 0000 0000 0000
000000e0: 0400 0080 0400 0000 0400 0000 0400 0080
000000f0: 0400 0080 0400 0000 0000 0000 6f15 6e94
00000100: 0400 0000 0000 0000 0000 0000 0000 0000
00000110: 0000 0000 0000 0000 0000 0000 0000 0000
00000120: 0000 0000 0400 0000 0000 0000 0400 0000
00000130: 0400 0000 0400 0000 0400 0000 0000 0000
00000140: 0000 0000 0000 0000 0400 0000 0000 0000
00000150: 0400 0000 0400 0000 0000 0000 0000 0000
00000160: 0000 0000 0000 0000 0000 0000 0000 0000
00000170: 0000 0000 0000 0000 0000 0000 0400 0000
00000180: 0000 0000 0000 0000 0400 0000 0000 0000
00000190: 0400 0000 0000 0000 0000 0000 0000 0000
000001a0: 0000 0000 0000 0000 0400 0000 0000 0000
000001b0: 0000 0000 0000 0000 0000 0000 0000 0000
000001c0: 0400 0000 0000 0000 0000 0000 0400 0000
000001d0: 0000 0000 0400 0000 0000 0000 0000 0000
000001e0: 0000 0000 0000 0000 0000 0000 0000 0000
000001f0: 0400 0000 0000 0000 0000 0000 0000 0000
00000200: 0400 0000 0000 0000 0400 0080 0400 0000
00000210: 0000 0000 0000 0000 0000 0000 0000 0000
00000220: 0000 0000 0400 0000 0400 0080 0400 0000
00000230: 0400 0000 0400 0000 0400 0000 0400 0000
00000240: 0000 0000 0400 0080 0400 0000 0400 0000
00000250: 0400 0000 0400 0000 0000 0000 0400 0000
00000260: 0400 0000 0400 0000 0000 0000 0400 0000
00000270: 0400 0000 0400 0000 0000 0000 0400 0000
00000280: 0400 0000 0000 0000 0400 0000 0400 0000
00000290: 0400 0000 0000 0000 0400 0080 0000 0000
000002a0: 0000 0000 0000 0000 0400 0000 0000 0000
000002b0: 0000 0000 0000 0000 0000 0000 0400 0000
000002c0: 0400 0000 0400 0080 0400 0000 0400 0080
000002d0: 0000 0000 0400 0000 0000 0000 0000 0000
000002e0: 0400 0000 0400 0000 0400 0000 0400 0000
000002f0: 0400 0000 0400 0000 0000 0000 0400 0000
00000300: 0400 0080 0000 0000 0400 0080 0400 0000
00000310: 0000 0000 0000 0000 0000 0000 0000 0000
00000320: 0400 0080 0400 0000 0400 0080 0400 0000
00000330: 0400 0080 0400 0000 0400 0000 0400 0080
00000340: 0000 0000 0400 0000 0400 0080 0400 0000
00000350: 0400 0000 0400 0000 0000 0000 0400 0000
00000360: 0400 0080 0400 0000 0000 0000 0400 0000
00000370: 0400 0000 0400 0000 0000 0000 0400 0000
00000380: 0400 0000 0000 0000 0400 0000 0400 0000
00000390: 0400 0000 0000 0000 0400 0000 0000 0000
000003a0: 0000 0000 0000 0000 0400 0000 0000 0000
000003b0: 0000 0000 0000 0000 0000 0000 0400 0000
000003c0: 0400 0000 0400 0000 0400 0000 0400 0080
000003d0: 0000 0000 0400 0080 0000 0000 0400 0000
000003e0: 0400 0000 0400 0000 0400 0000 0400 0080
000003f0: 0400 0000 0400 0000 0000 0000 0400 0000
