data/results/gbwm_8goals_bs4800_lr0.01/checkpoints/checkpoint_0000.pth (torch, 198699 bytes, 39 tensors)

shared_backbone.0.weight f4 [64, 2]
00000000: 9b8e 3fbe 938f 21be c53a bbbe c496 053e
00000010: 6014 253c fdfa 4ebd 4d40 43be f40f c83d
00000020: 6827 48bd 966a 30be 5bda 89be 7caf 83bd
00000030: 07f8 183d 6e85 92be a5b4 ffbd 79bc ed3d
00000040: 1537 5bbe 2ed2 9fba afd1 04be b4ec 88bd
00000050: b477 39bd eb36 edbd 4d2a 7abe 7f43 233c
00000060: 9197 863c 96e1 c83c c81d c8bd 85f6 e93b
00000070: 9fa5 a8bd d2a4 2b3e 7e2f f2bc 61e1 4fbe
00000080: 9efb 4abe 0fb7 b03d 359d 8bbe 801b 92be
00000090: bfb7 f43e 11fb c63e fcf4 06be 2368 95bd
000000a0: 7c45 2abe 842e b4bd 2d0b e7bd e990 34be
000000b0: ab14 3cbe 6527 683d 25db 003c a16a bebd
000000c0: 5efa 243d 5820 ccbe 6b5a 913c 1e08 d2bd
000000d0: e7c6 9dbd 1211 b2bd ed1d 89bc 32bc 5b3e
000000e0: 26a3 303e cb1e 85be 13ad f9bc 79f6 c23c
000000f0: c139 28bd 59c8 3abe 3353 153d a5ad 91be
00000100: d4fb 3fbd 3b51 20be 9317 8bbc e3b4 f1bd
00000110: 0421 89be 8e81 39bc a853 b2bc fa4b 10be
00000120: a6a5 27be 0eb9 e5bd 05a3 dcbd acd3 bfbd
00000130: d712 0c3e b8bb 32be abdd 633e cea9 47be
00000140: f7ad f8bd 5038 9dbd 8f96 00be 1e21 42bb
00000150: 8c46 42be 3fad 4a3d 7966 8abb 52d7 623d
00000160: cfa7 c53d 942a 99be f3dd a03d c949 df3c
00000170: 8b75 9a3c d9e2 12bf 3786 e7bd 8f37 d3bc
00000180: be6b c5bc fa43 3bbd 93d5 fcbc bcf2 0cbd
00000190: 8918 a0be acd0 5a3e eb80 6cbe 5755 943e
000001a0: cc24 04bd 7ab0 b3bc c614 b6bc b8e0 4dbe
000001b0: c73a f9bc 4522 a2be 43e6 983e 5153 3fbe
000001c0: 750e 073d 536a 493d 1b42 8cbe 2495 38bc
000001d0: a05a f03b 233c 46bd 21d7 073f 2674 29bd
000001e0: d26e 4f3c 93ea b13d 3d7e 09be b463 89be
000001f0: fda7 983c c5aa 67bc a5c2 f8bd 2d7f 36bc
-0.18706743 -0.15777425 -0.36568275 0.13045794 0.010075659 -0.05053233 -0.19067498 0.09768668
-0.048865706 -0.1722816 -0.26924405 -0.06429955 0.037345912 -0.28617424 -0.12485627 0.11608214
-0.21407731 -0.0012193376 -0.12970613 -0.066857725 -0.045280173 -0.115827404 -0.24430199 0.009964823
0.016429694 0.02452163 -0.09771305 0.007139983 -0.08234715 0.16762093 -0.029563662 -0.20300819
-0.19822547 0.08628666 -0.27268377 -0.28536606 0.47796437 0.38863423 -0.13179392 -0.07295253
-0.16628069 -0.08797935 -0.112814285 -0.17633404 -0.18367259 0.056678195 0.007864748 -0.092976816
0.04027783 -0.39868426 0.01774331 -0.102554545 -0.07703953 -0.08694662 -0.016737903 0.2145851
0.17249736 -0.26000056 -0.030478036 0.023799168 -0.041070703 -0.18240489 0.036456298 -0.28452793
-0.04687102 -0.15655987 -0.016979015 -0.118020795 -0.26783 -0.011322392 -0.021768406 -0.14091483
-0.16371784 -0.11216937 -0.10773281 -0.09366545 0.13679062 -0.17454422 0.22252528 -0.19498369
-0.12142556 -0.076767564 -0.12557434 -0.002962179 -0.18972224 0.049481627 -0.0042236415 0.055381127
0.096511476 -0.29915297 0.078548335 0.027256863 0.018854877 -0.5737739 -0.11304896 -0.025783328
-0.024099227 -0.045719124 -0.030863559 -0.034411177 -0.3126872 0.21368665 -0.23096053 0.2897136
-0.032261655 -0.021934737 -0.022226702 -0.20105255 -0.030423535 -0.3166677 0.29863176 -0.18684126
0.03297277 0.049173664 -0.27394184 -0.011266027 0.007335022 -0.048397195 0.53062636 -0.041370533
0.012660699 0.086873196 -0.13427062 -0.2683388 0.01863479 -0.014139836 -0.121465005 -0.0111387195

shared_backbone.0.bias f4 [64]
00000000: 0000 0000 7f56 4bbd fc64 96bc 2336 8cbd
00000010: 3efb 75bd 0000 0000 c5cd 0cbd c01d 8bbd
00000020: 0000 0000 0000 0000 c48b ffbc a21c 8dbc
00000030: 580a adbd 99fb 75bd 792f d8bd 0000 0000
00000040: 1d5f bdbc 0000 0000 245f bebd 0000 0000
00000050: 0000 0000 0000 0000 15fc 75bd a4ad f9bd
00000060: 88c9 f3bc 774e f6bd 0000 0000 b6e9 15be
00000070: 0e5c 2fbe c4a6 1abe 0000 0000 b8b0 05be
00000080: 4a03 5bbd ba5e 7dbd 0000 0000 6251 b4bd
00000090: 0000 0000 0000 0000 d7f3 04be 4aef 6fbe
000000a0: 0000 0000 0000 0000 31f6 8cbd 696b 56bd
000000b0: 0856 b0bd 8e92 fcbd a5f4 1cbc 0000 0000
000000c0: 0000 0000 835f 7fbd 70b1 88bd 00c0 acbd
000000d0: 50dc bcbd db3f 103c 0dfc 75bd 9b5f 90bd
000000e0: d958 dbbd 33f9 75bd e870 13be c5d9 87bd
000000f0: 37ee cbbd 0000 0000 11eb 41bd 5ffb 75bd
0.0 -0.049643036 -0.0183587 -0.06846263 -0.060054056 0.0 -0.034375925 -0.06792784
0.0 0.0 -0.031194575 -0.017225567 -0.084492385 -0.060054395 -0.1055593 0.0
-0.023116643 0.0 -0.092954904 0.0 0.0 0.0 -0.060054857 -0.121913224
-0.029759184 -0.12026685 0.0 -0.14639935 -0.1712496 -0.15102679 0.0 -0.13055694
-0.053469934 -0.061857916 0.0 -0.08804585 0.0 0.0 -0.12983643 -0.23431125
0.0 0.0 -0.06882895 -0.052348528 -0.08610159 -0.123326406 -0.009579812 0.0
0.0 -0.062346946 -0.066744685 -0.084350586 -0.09221709 0.008804287 -0.060054827 -0.07049485
-0.10710306 -0.060052108 -0.14398539 -0.06633333 -0.09957545 0.0 -0.047343317 -0.06005418

shared_backbone.2.weight f4 [64, 64]
00000000: 3981 0bbe 984a 0c3e 3bc4 89be 9175 90be
00000010: 987c 863e ee5c 0bbe c893 47be 4e38 36be
00000020: 2854 90be ef13 023e b86a cc3c d05d 0b3e
00000030: 3c2c 243e e46d adbe 17df a43c 58a7 92bd
00000040: a16a 0bbd 225e aa3e 8057 9ebe d26f 32bd
00000050: 8a9c 27be 428a 653e eb39 61be 2450 dc3d
00000060: 905a 3f3d ede0 c43d 19d6 923e 7d7c ccbe
00000070: 27d6 833d efb3 44be ab1f 023e 4960 89bd
00000080: aa7f f43d e2ae 1bbe 6499 f23d 5f9d 5dbd
00000090: 104c 7f3c ebac 24be ec48 ffbd 2ece 14be
000000a0: 0103 833c 30fc 9b3e efe3 133c a44d fd3d
000000b0: 66c1 09be e871 89bc 065c d03d f8f7 ca3c
000000c0: af35 eb3d b71f 1f3c ab02 833e aeb8 0b3d
000000d0: 5db8 783e 568d fcbe c7e8 86bd 8c46 dc3d
000000e0: 2280 e3bd 8697 7c3e 9431 ee3d 738c 35be
000000f0: 8108 563e 9b8d 403d c4f1 9dbb b3c1 733e
00000100: 7875 833d 93c8 483e 033a 003e 1e9c 14be
00000110: 68c4 4bbd 6831 12bd 12c9 88be 5571 a3be
00000120: 5be6 4b3e 3622 38be 278c d1bc d4f7 883e
00000130: 5de1 5ebd 5d2c c63d 095b bcbe f508 93bc
00000140: efb7 07bf b468 b83d b405 0dbe 2ad5 84bd
00000150: 5f15 2b3e fcdb 693e fb45 cc3e 61a9 97be
00000160: 6b19 83be d276 8cbc 61f0 363e 4dfd 96bd
00000170: 674b 9a3e c8e9 59bd c91b b53e b6d4 9dbe
00000180: 1445 703d 6d2f 8a3d 59fd 723e 65a0 48be
00000190: 65c8 053e 8139 52bd 4bd4 a8bd 161d 61be
000001a0: acfa 90bd 72b5 de3c e6f6 4f3d 68d9 56be
000001b0: 9bd0 a43d 41d5 903b 57b0 dd3d 2099 2a3d
000001c0: 2781 bfbd 74d0 33be 8c79 16be 61a5 32bd
000001d0: 6235 1e3e 203a 2a3d 9773 763d c00a f4bd
000001e0: d056 0b3e 5ec5 0cbd 0315 6d3e 1f87 aa3d
000001f0: 4303 dd3c 4992 633d 98fd 1b3e 6f66 12be
00000200: 85dc afbe f683 dcbd 4454 40be 8c59 f9bd
00000210: d5ed 8c3d 56ac 263d 4630 893c 35dd 503e
00000220: 4194 39be d140 14be e3a5 22bc e29d 04bd
00000230: cc92 7c3e 2164 8a3e 8beb 7b3e 3477 aabd
00000240: 4656 75bd 04f4 c8be a385 d7bd 1f32 f03d
00000250: 5427 193d 98ce 1ebe ab18 843d 7b43 9bbe
00000260: 338a a6bd fa87 453e e856 4b3d 60e9 f2bd
00000270: 5b23 59be 17c5 063e 17da a83d d5ab 853d
00000280: 0fb9 c83d 70a1 953d b903 c23d 56fb 193d
00000290: d1c3 bd3c 252f 50bd 727a f13d 02d6 7dbe
000002a0: 51f5 4bbe f2b8 dc3d 842a 2ebe 99ba 73be
000002b0: 6c13 87be 2374 e6bd 8808 343b 96b2 a5bd
000002c0: 286b 14be 9a85 973e ada4 c7bb ed0b 4dbe
000002d0: a21f 143e 816b f8bd 5454 84be f074 82bd
000002e0: b838 b03e bbb8 e9bc db62 013d 8b4a e0be
000002f0: ca8c fa3c 3f79 cabe 19bc debd 1cea 17be
00000300: 957b 96bc 984d 053e 8ed8 113e da7c 473d
00000310: e6e1 11bd f112 363e ed68 80be bd14 303e
00000320: 0142 f93d 82ff 243e ffc1 1dbe 04bd c3bd
00000330: 52fb 43be 1925 4e3c b5e3 0fbe ede2 5e3e
00000340: 545b 07bb 808e 41bd 82a7 75be 6935 773d
00000350: 8b20 1cbd 3455 e6bd d1c5 dd3c 1b32 dbbc
00000360: 4654 8b3d 17ad b4bb 42e6 063f 57b4 153e
00000370: d094 253e 07de 083e c0b1 94be 0d61 c6bd
00000380: ed9b 0a3e 60e7 2fbe 3b8f a8ba dd64 323e
00000390: 79bc 5ebe b070 093d 2b7f bbbd 6b0d 783d
000003a0: 9827 28bd d0e8 a03e da50 9dbd eb91 2dbb
000003b0: 8a2b 07bc 4e93 15bd e094 4b3d 081c b83e
000003c0: ca48 40be b73a b43d ac24 303e 190c 06bf
000003d0: 788d 0abe fa79 b6be 43ec 4ebd 6495 fabe
000003e0: 9b88 2c3c a7e8 293e 651d 0bbd 53bf 853d
000003f0: f3b2 95be e721 2abe 1802 123d abc7 32bc
-0.13623513 0.1370033 -0.26907524 -0.28214696 0.26266932 -0.13609669 -0.19489968 -0.17794916
-0.28189206 0.12702917 0.024953231 0.13610005 0.16032499 -0.33872902 0.020125909 -0.071608245
-0.034037236 0.33274943 -0.30926132 -0.04356367 -0.16368309 0.22416022 -0.2199475 0.10757473
0.046717227 0.09613214 0.2867897 -0.39938727 0.06437331 -0.19209264 0.12707393 -0.06707818
0.119384125 -0.15203431 0.11845663 -0.05410516 0.0155821 -0.16081588 -0.124650806 -0.14531776
0.015992643 0.3046584 0.009026512 0.123683244 -0.13452682 -0.016777948 0.10173802 0.024776444
0.11484849 0.009712151 0.25587973 0.03411167 0.24289079 -0.4932658 -0.065873675 0.10755643
-0.11108424 0.24667177 0.1163055 -0.17729358 0.20901681 0.047010045 -0.0048200805 0.23804359
0.0641889 0.19607763 0.1252213 -0.14512679 -0.049747854 -0.03569165 -0.26715904 -0.31922403
0.19912092 -0.179818 -0.025579525 0.26751578 -0.054414142 0.096764304 -0.36788204 -0.017948607
-0.53015035 0.090043455 -0.13771707 -0.0648597 0.16707371 0.22837824 0.3989714 -0.29621413
-0.2560533 -0.017146502 0.17865135 -0.07372532 0.30135652 -0.053201467 0.3537276 -0.30826348
0.058659628 0.06747327 0.23729457 -0.19592436 0.13064726 -0.05132437 -0.08243617 -0.21983752
-0.07079062 0.02718613 0.05077257 -0.20981371 0.08047601 0.004419953 0.1082465 0.041649938
-0.09350806 -0.17559987 -0.14694804 -0.04361475 0.15450051 0.04155934 0.06016883 -0.11916113
0.13607335 -0.03436791 0.23152547 0.083265536 0.026979094 0.05555943 0.15233457 -0.14296888
-0.3434793 -0.10767357 -0.18782145 -0.12175283 0.068813 0.040691696 0.016746651 0.20396884
-0.1812296 -0.1447785 -0.009927246 -0.03237713 0.24665374 0.27029517 0.24601571 -0.083235174
-0.05989673 -0.3924867 -0.10523536 0.1172831 0.03739102 -0.15508497 0.064500175 -0.3032492
-0.08131828 0.19290152 0.049643427 -0.11860919 -0.21204893 0.13161121 0.08244722 0.06526915
0.09800922 0.073061824 0.09473366 0.03759321 0.023164662 -0.05082621 0.11790933 -0.24788669
-0.199178 0.10777463 -0.17008406 -0.2380165 -0.26382005 -0.1125262 0.0027470905 -0.08090703
-0.14494002 0.29594117 -0.006092629 -0.2002408 0.14465192 -0.1212988 -0.25845587 -0.0636996
0.34418273 -0.02853047 0.031588417 -0.43806872 0.030584712 -0.39545628 -0.108757205 -0.148354
-0.018369475 0.13017881 0.14242765 0.048703052 -0.035615824 0.17780663 -0.25080052 0.17195411
0.12170792 0.16113093 -0.15406035 -0.09557536 -0.1913884 0.012582087 -0.14051707 0.21766253
-0.00206538 -0.04725504 -0.2398968 0.06035367 -0.038116973 -0.1124672 0.027071865 -0.02675729
0.06803183 -0.005513798 0.52695096 0.14619575 0.16170049 0.13365947 -0.29041862 -0.0968648
0.13536043 -0.17178106 -0.0012860069 0.17421289 -0.21751584 0.033554733 -0.09155115 0.06055967
-0.041053385 0.31427622 -0.07681437 -0.002648468 -0.008250127 -0.036517434 0.049702525 0.35958886
-0.18777767 0.088002615 0.17201489 -0.5236221 -0.13530529 -0.35639936 -0.050518285 -0.489421
0.010530616 0.16592656 -0.03396358 0.06530633 -0.2923809 -0.16614495 0.035646528 -0.010911862

shared_backbone.2.bias f4 [64]
00000000: 9b01 88bc 2625 79bd bafe 4dbd 0ec6 19be
00000010: 8547 e7bd a367 a5bd 93a0 acbd aa69 4fbd
00000020: 039d 8fbd efd6 cabd caa4 94bd 322c 53bd
00000030: ee1f b9bc 42a0 2cbd 61e6 47be 670f 2abd
00000040: dcf8 75bd e477 0bbd 3645 c8b8 debc 84bd
00000050: 2446 0dbe 2df2 39bd 198f 28bd 5025 a9bd
00000060: 0afc 75bd 3bc3 b3bd b4ab 85bc 8462 acbd
00000070: 7c29 aabd 96fb 75bd 4af1 11bd 028f 6bbd
00000080: a08c 51bd 58db 0ebe d946 0ebd 747a 73bd
00000090: f351 0fbd 90ad c4bc 520a e9bc cf6c b2bd
000000a0: 27e4 82bc 8d59 efbd 0b09 23bd 006e 293e
000000b0: 308d a8bd 3015 08be c755 ddbd ccab adbd
000000c0: acc4 76bd 2794 adbd b9a0 38bc 299c 8ebd
000000d0: 5a6c b8bd 2b54 c9bd 3e2e cdbd 2647 9abd
000000e0: 986a d2be ab25 b4bd 39c8 9bbd 48cb 50bd
000000f0: 8e8d 5bbd e235 f2bb 3c40 61bd cbe0 02bd
-0.016602328 -0.060826443 -0.050291754 -0.15016958 -0.11292938 -0.08076408 -0.084290646 -0.05063788
-0.070123695 -0.099042766 -0.072579935 -0.05155582 -0.022598233 -0.04214502 -0.19521476 -0.041518595
-0.060051784 -0.034049883 -9.549635e-05 -0.06481336 -0.13796288 -0.045396972 -0.041152094 -0.0825907
-0.060054816 -0.08777472 -0.016317226 -0.08417228 -0.08308694 -0.060054384 -0.0356305 -0.05750943
-0.0511595 -0.1395086 -0.034735534 -0.059442952 -0.034990262 -0.024008542 -0.028447304 -0.0871216
-0.015977932 -0.11687002 -0.039803546 0.16545868 -0.082300544 -0.13289332 -0.10807376 -0.08480033
-0.060246155 -0.084755234 -0.011268788 -0.06963379 -0.090050414 -0.09830507 -0.100185856 -0.07533102
-0.4109695 -0.08796247 -0.07606549 -0.050975114 -0.053601794 -0.0073916772 -0.0549929 -0.03195266

goal_head.weight f4 [2, 64]
00000000: 51e1 ae3e d7bb 883d afcc 41bd 4490 a53d
00000010: c7c2 6dbe 1e04 10bd 6672 2cbd d5e0 0e3d
00000020: 9658 fd3d 5e7f 38bd 2591 18be 1fe2 7e3d
00000030: bae9 71be 22c4 6b3e b2e5 cb3e 851d 70be
00000040: c146 63be 1427 7bbe 3617 afbd a43f c9bc
00000050: a33b 943d 694b 97be 3d7b 88bd 9087 dc3d
00000060: 35a3 cb3e 7eeb aebd 6f8c 5ebe c80a bd3d
00000070: 58af 233e b9b9 96bd 500c 33be e347 2dbd
00000080: 6aab 703e f80c 3cbe f4c9 f5bc 6371 a5bc
00000090: 6224 2bbd 9b61 113e 3637 0a3c 3bfd 26be
000000a0: 425e 29be e795 53be 9479 a03c 3d3d 0abf
000000b0: 890f ffbd 277e 41bc 9efe 5a3d 8b95 d23e
000000c0: 0757 08be 7368 76be b6e0 4dbe 64db 0e3e
000000d0: 6b28 e5bc 1411 3bbe 5028 103e 8793 3ebe
000000e0: 6c18 2c3f 76e8 a03e 3aac 193e a75d 343e
000000f0: e938 17be cc81 ec3b 52e1 c6bd 9bc5 293e
00000100: 55f5 87bd 1e91 233e 54db f2bd 60ae 1ebe
00000110: 2d9f cdbd 3344 183d 2ba8 693e e3ed 9a3d
00000120: 3559 c63e e83a 8fbd 4603 77bd e42a 373e
00000130: 471e 0cbd aabc 983e 2397 5ebe 2b5a 6b3c
00000140: 0c24 ab3c 7bd9 113d 3a2d c6bd 8d43 89be
00000150: 6761 d7bc af43 bebc 3b80 213e b332 55be
00000160: fba7 d6bd 3fad 4abd c6e3 1e3e 5399 26bd
00000170: 4185 893e fb90 83be 09bb 9dbe 7a91 d73d
00000180: a304 503d 48f3 33be 6d3f 7a3d 2134 7d3e
00000190: 1b6f 5b3e e039 943e 3780 463e 11b9 8cbd
000001a0: cace db3e bdef 8a3e a875 df3d 34b7 fe3e
000001b0: 6302 0abe def1 d53d c94f e5bc 49f5 1fbe
000001c0: 650f 20be 75f2 eb3d fa2e 973e 852e 733e
000001d0: 965e ea3d 05fa 13bb 1c91 87bd c20a 9a3e
000001e0: b83c 46bf af32 4a3e e619 0abe 1927 923e
000001f0: b5f0 5c3d 9490 993e 3180 513d f767 8e3e
0.34156278 0.066764526 -0.047314342 0.08084157 -0.23218833 -0.035160176 -0.042101286 0.034882385
0.12370412 -0.04504334 -0.14899118 0.062227365 -0.23624316 0.23024037 0.3982368 -0.23448761
-0.22194959 -0.24526626 -0.08549349 -0.024566479 0.07237937 -0.2954972 -0.06664131 0.10768044
0.39772955 -0.0854101 -0.21733259 0.09230572 0.15984857 -0.073596425 -0.17485166 -0.042304885
0.2350289 -0.18364322 -0.030003525 -0.020195669 -0.041782744 0.1419739 0.008436015 -0.16307537
-0.16539863 -0.20662652 0.019589223 -0.5399969 -0.12454135 -0.011809862 0.053465478 0.41129717
-0.13314448 -0.24063282 -0.20105252 0.13950878 -0.027973374 -0.18268234 0.14077878 -0.18610965
0.67224765 0.31427354 0.15007105 0.1761385 -0.14767803 0.0072176214 -0.09710945 0.16579287
-0.0663859 0.15973327 -0.1185824 -0.15496206 -0.10040126 0.037174415 0.22818057 0.075649045
0.38739935 -0.06993657 -0.060305856 0.17887455 -0.034208562 0.2983144 -0.21737342 0.014364759
0.020891212 0.035607796 -0.09676595 -0.2680935 -0.026291562 -0.023225633 0.15771572 -0.20820121
-0.104812585 -0.049481627 0.15516576 -0.040673565 0.26859477 -0.2569655 -0.3080676 0.10525794
0.050785672 -0.17573273 0.061095644 0.24726917 0.21429102 0.28950405 0.19384848 -0.06871236
0.42931205 0.2713603 0.10911113 0.49749148 -0.13477473 0.10446523 -0.027992146 -0.15620913
-0.15630873 0.115208544 0.29528028 0.23748215 0.11443822 -0.0022579443 -0.06619474 0.30086333
-0.774364 0.19745897 -0.13486442 0.28545454 0.053940494 0.29993117 0.051147643 0.27813694

goal_head.bias f4 [2]
00000000: 48b1 c5be 4ab1 c53e
-0.38611817 0.38611823

portfolio_head.weight f4 [15, 64]
00000000: 0f42 6dbe 4cd7 143e 8078 f0bd 5809 30bd
00000010: 49b3 0ebe eaa9 75be 2dec 683c cb53 8fbd
00000020: 062a a43c 825d 1abe e5c5 a1bb 0296 b53d
00000030: 1e42 113e ec38 243e b0ed b33a 5195 883d
00000040: 5158 06bd 7403 2f3e 6e0c 663e 8e69 77be
00000050: e44a c83c 9b33 7a3d dd31 773d 8d88 27be
00000060: e975 663e cbdc d5bd 8689 dfbd e954 a1bc
00000070: cc7b 0cbe 6ddb b8bd 6c1f 8ebe b3cf 913e
00000080: f451 d6bd e337 48bd a4a9 0e3e d47a c2be
00000090: 8ced 91be fbcc adbe 04f6 1bbd 8c09 ae3d
000000a0: fd4b c93d a953 b03e db69 27be 2503 9d3d
000000b0: 9743 20be 6a57 c23d 104a 343d 5000 a43d
000000c0: e343 02be bfaf fcbd c734 463e 1f1a 363e
000000d0: dac7 adbd dfcb 26bd e334 bbbe 0ca1 92bc
000000e0: 7ee6 ac3c 78c0 8b3e e637 373e 8e12 74bd
000000f0: 4730 84bd f92d ae3d 8860 18be d97b 12be
00000100: 8edb 25be 254a a3bd dc84 80be 38e1 d9bd
00000110: ebf0 da3d 2b48 143d ffb2 3dbd 93ae babe
00000120: acaa dfbe cd4d 413e d105 3a3e bfe3 f53d
00000130: 76ea 0b3d ed8d b5bd 313e eabc 1db8 92bd
00000140: 79f3 d83c 2eb0 f93b 9074 833e e21f a43e
00000150: d334 b13d 0f26 1cbe 577b 703e fe76 86be
00000160: 5309 543e e0b2 ff3d d1b2 f6bd e232 2fbc
00000170: bb08 d2ba fbfd 9d3d 0361 843d 5dd2 97be
00000180: a147 ef3e bf29 c33d 5424 6ebe f954 d23c
00000190: da56 f5bd e44b d4b9 8426 d7bd 65b5 cdbd
000001a0: e746 29bd fcf7 e4bc f939 d23e c460 933e
000001b0: cce9 a73d 30fd 7a3e ce95 d03d 2fe0 3d3d
000001c0: e3b2 ddbe 0d3d 00bd f2d7 ea3d dfe4 92bd
000001d0: e216 243e 7e62 64be eaee 193d b1a3 c4bd
000001e0: ee41 a53d c74f bc3d f3d0 51bd 70d1 3bbd
000001f0: 584b 8cbe ecf2 2b3e 2da4 0dbe 4f6f 02be
00000200: 6b0b f0bc 651e f5bd 8d93 76be c97b 043e
00000210: 69ab 82bd 7704 00bd 9100 193e b52c 593c
00000220: 4cb4 513e 9021 7cbe 5e62 1d3b ae60 373e
00000230: fafe c43a 5c56 913e 036c 983d 9f36 c13d
00000240: 12f1 74be 7aa8 103e 45f9 933d 1f0e 91be
00000250: 2510 413e 2db2 d3bc 2a0a 09bd 5103 23be
00000260: 66d8 90bd ec43 35be 4bf1 223d ae11 813e
00000270: 7d1d 9abd 294f 17be afa6 123e e9f2 dc3d
00000280: dfdc 8d3e 5972 e9bc d58e d33e b539 a63e
00000290: 6f19 793d e35c 00be ae86 893e 15f7 893e
000002a0: 5891 0cba 80a4 383d 5c27 b83e f5cb a7bc
000002b0: f205 933d 42d4 013e 2950 ac3d 6950 7cbe
000002c0: 8bb2 7bbe 92c2 073e 06af 9a3c 0917 34be
000002d0: a332 eabd 8cd0 d43d 35ca 953d 359d a73d
000002e0: 928b fa3d 2a81 5b3e 6799 103e 9e12 0e3e
000002f0: f43e 6e3d 5593 aabd e859 e3bd c6e4 8c3e
00000300: e20c c4be d43f 163e a68e 61bd 851b db3d
00000310: 53b7 173d 0c9e 16be b167 843e 910b fc3e
00000320: 82ae 663d 2c31 fa3d 8e75 353e 4a8e 37be
00000330: 4ad3 c63c 311f 003e e9ba b73c 81c9 3c3d
00000340: 764d c53c 815d 723d 6211 5f3e acf6 ad3d
00000350: a099 243e 6da7 be3b d67a 593e 42e9 19be
00000360: 7503 b23c 2bcc 95bc d8a8 353d b5e8 953c
00000370: 19a8 68bd c522 833d 5189 e83e db61 2f3e
00000380: 2796 b23e 2965 2d3e 34fe 41be 0732 96bd
00000390: 195e 9dbd 438e 163e eecd 0ebe bde6 21bf
000003a0: af24 d3bc 0961 a63d 315a 18be 7d15 a7be
000003b0: 6912 8e3e 29b1 5abe de66 b03d 94d3 54be
000003c0: b8ee f2be 8ab8 87bd a7ee 8fbe b365 913e
000003d0: fa71 6cbe b8f2 6a3e 6c64 073e a9dc 413e
000003e0: a2b3 b43d ba0f 39be ccb3 84bd f431 8e3d
000003f0: 5ad0 443d d651 80bd 4566 a33d c2c1 ca3d
-0.2316973 0.14535254 -0.117417336 -0.04297766 -0.1393558 -0.23990598 0.014216465 -0.06998404
0.02003957 -0.15074733 -0.004936921 0.08866502 0.14185378 0.16037339 0.0013727453 0.06669105
-0.03279907 0.17091161 0.22465679 -0.2416136 0.024449773 0.06108437 0.060350288 -0.16360684
0.22505917 -0.104425035 -0.109149024 -0.019693809 -0.137191 -0.09026227 -0.27758348 0.28478774
-0.1046485 -0.048881423 0.139319 -0.37984335 -0.28501546 -0.3394545 -0.038076416 0.08497915
0.09828947 0.34438828 -0.16348974 0.076666154 -0.15650783 0.09489329 0.044015944 0.08007872
-0.12721209 -0.123382084 0.1935607 0.17783402 -0.08485384 -0.04072177 -0.36563787 -0.017899059
0.021106001 0.2729528 0.17892417 -0.059588008 -0.06454521 0.08504862 -0.14880574 -0.14305057
-0.16197035 -0.07973126 -0.25101364 -0.1063866 0.10690483 0.036201637 -0.046313282 -0.36461315
-0.436849 0.18877335 0.18166281 0.1200633 0.034159146 -0.08864961 -0.028594108 -0.07164023
0.026483284 0.007619879 0.25674868 0.32055575 0.086526535 -0.15248893 0.2348455 -0.2626266
0.20706682 0.124852896 -0.12045825 -0.010693284 -0.001602433 0.077144586 0.06463816 -0.29652682
0.46734336 0.09529447 -0.23256046 0.025675284 -0.11979456 -0.00040492334 -0.10505393 -0.10044364
-0.041327383 -0.02795028 0.41059855 0.28784764 0.0819889 0.24510646 0.10184823 0.046356376
-0.43300542 -0.031308223 0.114669695 -0.0717256 0.16024354 -0.22303197 0.03758136 -0.09601534
0.08069216 0.09194904 -0.05122466 -0.045854032 -0.27401233 0.16791886 -0.1383216 -0.12737773
-0.02930232 -0.11968688 -0.24079724 0.12937845 -0.0638035 -0.031254258 0.14941622 0.013255288
0.20478934 -0.24622178 0.002401493 0.17907974 0.0015029602 0.283862 0.074424766 0.09434246
-0.23920086 0.14126769 0.07225279 -0.28331086 0.18853815 -0.025841797 -0.03345696 -0.15919234
-0.07072525 -0.17701691 0.039780896 0.252088 -0.07525156 -0.14776291 0.14321397 0.10788519
0.27707574 -0.028496908 0.4131991 0.32465902 0.06081527 -0.12535433 0.26860565 0.2694632
-0.0005362234 0.045078754 0.3596753 -0.020482996 0.07178868 0.12678626 0.08413727 -0.24640049
-0.24579827 0.13257816 0.018882286 -0.17586912 -0.114354394 0.1039134 0.073139586 0.08184282
0.12233652 0.21435991 0.14121018 0.1387429 0.058165506 -0.083288826 -0.11101133 0.2751829
-0.3829108 0.14672786 -0.05506768 0.10698608 0.037040066 -0.14708728 0.2586036 0.49227574
0.056318767 0.1221641 0.17720625 -0.17925373 0.024270672 0.12511899 0.022427993 0.046090607
0.024084788 0.059171204 0.21783975 0.084943146 0.16074228 0.0058182986 0.21238264 -0.15030387
0.021730164 -0.018285831 0.044350475 0.01829944 -0.056800935 0.06403116 0.45417264 0.17127173
0.34880182 0.16933121 -0.18944627 -0.07333761 -0.07683963 0.14702706 -0.13945743 -0.63242704
-0.025774328 0.08123977 -0.14878155 -0.32633582 0.2774842 -0.21356644 0.0861337 -0.20783836
-0.47447753 -0.06626995 -0.28111765 0.28397903 -0.23090354 0.22944152 0.13221902 0.18931831
0.08823325 -0.18072405 -0.06479606 0.069431216 0.048050262 -0.06265609 0.07978491 0.099002376

portfolio_head.bias f4 [15]
00000000: 98ae c2bc 8a7e b8bd 02eb f03c 30ec d43d
00000010: 9297 b9bb de6f 9bbd ae00 c13c bb4a 8b3d
00000020: 18b6 1cbe 4ad8 313d aecd 703c 398f 13be
00000030: 4b13 febc 1ac2 433e 43aa 9ebc
-0.023764893 -0.090085104 0.029408935 0.10396612 -0.0056638205 -0.07589696 0.023559894 0.06801363
-0.15303838 0.04341916 0.014697475 -0.14410104 -0.031015059 0.19117013 -0.019368296

network.0.weight f4 [64, 2]
00000000: 3587 d3bd 5413 4dbd 8121 2abe 352b 263d
00000010: 6aa7 d4be 3ac8 2c3e dce3 a8bc ec7c 76bb
00000020: 92b2 8dbe df68 9c3d ce4f 8c3d f602 bebe
00000030: 5f1d 90be 1c5f b4be 427d adbd fbc4 85be
00000040: 7af9 96be f201 02bd 77fd 52be 0771 47bd
00000050: 0b18 5bbe 3d25 843e 4cea abbe be6f b3be
00000060: 2ea5 16bf 7747 1cbe fbac f2be 3bdc 22bc
00000070: ab9b 0ebf 2a22 debd 4541 c2be 9b1a 9cbd
00000080: 25ed 153f 7b17 69be 3a5a b4bc 07d7 08be
00000090: 06e5 25be f220 8abd 3d0e 76be 27fd 8fbe
000000a0: b0ee 93bd 0f6c 2fbc a61a a2bd 50fe f13b
000000b0: 0b6b f93b e738 21bf adc8 50bf 3dbf 84bd
000000c0: 24f2 d8be b725 dabd 4f6a a6be 5138 2abf
000000d0: 7b5b 26be cd94 99bd a773 6dbd 5bc0 10bd
000000e0: f84f f8be 5a30 2b3d ed35 2a3f cf93 5cbe
000000f0: 8eb6 09bf 70e5 dbbe b502 d4be 9ed8 e53d
00000100: eb0e 83be 99ec 80ba c8d2 7abe 83b5 5cbe
00000110: ba53 07bf 0dcd 063e 6586 93bd b9f7 79bd
00000120: 59b5 b53d 305e b3be df6a 10bf d659 cdbc
00000130: ecdf d8be f882 92bd 3d36 0abf 927a 3abe
00000140: 7af8 f3bc 53fb 2cbe a1ba c2be fa0a 2cbe
00000150: cc9c c6be 26c6 02be 327a 2cbf 2b1a 783d
00000160: e2e2 91bd e27b 25be f462 04bf d000 e3bd
00000170: bc96 b5be 9c32 3ebc 3ab4 283f e43c a93d
00000180: 0175 d63c de5b e1bc a7a5 edbe bc08 633c
00000190: 4b57 84bd 872d e7bd 32e8 b9bd 4cd1 ccbe
000001a0: 192c 9abe 3975 9dbd 562f acbd 8df4 61bc
000001b0: c13f 19bd d0d6 adbd 6c83 aebe 2e5c fabc
000001c0: 1e5f c7be f22a 1ebe ebd6 6abe c15b d9be
000001d0: f850 173f 80df c2be c5f8 ab3d f27d 17bf
000001e0: e65c 11bd 34fe 60be 7805 d3be 5967 31be
000001f0: f738 253f f060 8fbe adaf 37bb b33b 9fbe
-0.10328523 -0.05006726 -0.16614343 0.04056855 -0.41533977 0.16873255 -0.020616464 -0.003761108
-0.276753 0.0763719 0.06851159 -0.37111634 -0.28147408 -0.35228813 -0.08471157 -0.26126847
-0.2948721 -0.031740136 -0.20604502 -0.048691776 -0.2139589 0.2580966 -0.33577192 -0.3504619
-0.58845794 -0.15261637 -0.473976 -0.009940202 -0.5570628 -0.1084636 -0.37940422 -0.07622262
0.5856498 -0.22762863 -0.02201568 -0.13363276 -0.16200647 -0.06744565 -0.24028869 -0.28122827
-0.072232604 -0.0107069155 -0.07915239 0.0073850527 0.0076116375 -0.6297745 -0.81556207 -0.06481788
-0.4237224 -0.10651725 -0.32502982 -0.6649218 -0.16245835 -0.074990846 -0.057971623 -0.035339694
-0.4849851 0.04179416 0.66488534 -0.2154076 -0.5379418 -0.42948484 -0.41408315 0.11222957
-0.2559732 -0.0009836137 -0.24494469 -0.21553616 -0.5286213 0.13164158 -0.07203368 -0.061027262
0.0887248 -0.35032797 -0.5641307 -0.025067251 -0.4235834 -0.071538866 -0.5398901 -0.1821082
-0.029781569 -0.16892748 -0.38033012 -0.16801062 -0.38791502 -0.127709 -0.67373955 0.06057183
-0.071233526 -0.16160539 -0.5171349 -0.11084139 -0.35466564 -0.011608746 0.65900004 0.08263567
0.026178839 -0.027509626 -0.46415445 0.013857063 -0.06461962 -0.112879805 -0.09077491 -0.4000343
-0.3011177 -0.07688374 -0.08407466 -0.013791216 -0.037414316 -0.08488238 -0.34084642 -0.030561533
-0.38939756 -0.1544607 -0.22933547 -0.42452815 0.59107924 -0.38061142 0.083970584 -0.5917655
-0.035488985 -0.21971971 -0.4121511 -0.1732458 0.64540046 -0.28003645 -0.0028028295 -0.31100234

network.0.bias f4 [64]
00000000: 0000 0000 1df7 75bd 694b bc3e 0629 76bd
00000010: ddf6 75bd a679 c33e 0000 0000 196f 0e3e
00000020: 0000 0000 0000 0000 7fc7 5dbd 0000 0000
00000030: d0b7 3c3f ca03 e43e 405b 173f b46a bc3e
00000040: 57e2 a13e 0000 0000 0000 0000 0000 0000
00000050: 6a70 b0bd 56fb 75bd 2e1f 5e3e b5c4 423e
00000060: 57f1 d83e f764 973e 0000 0000 33fb 75bd
00000070: 80e3 e43e c7a5 e13e d94c bb3d aff8 c23e
00000080: b5f8 75bd 0000 0000 ba7d 1c3f 0000 0000
00000090: 96cb 9f3e e0c2 083f 6d45 d33e 00c2 3d3f
000000a0: be62 99bd 0000 0000 9751 d03e 367a 483f
000000b0: 0000 0000 cfaa 023f 2d94 ad3e 3557 f73e
000000c0: 92b8 75bd 5e6c df3e 0000 0000 94ec 953e
000000d0: df03 983e e1f3 75bd c778 9ebd 0000 0000
000000e0: 513e d83e 205b 003f 5d4f ad3e a6e2 7d3e
000000f0: a4eb 75bd 0fe7 eb3e 7fdb cb3e 0000 0000
0.0 -0.06005012 0.36776283 -0.060097717 -0.06004988 0.38178748 0.0 0.13909568
0.0 0.0 -0.054145332 0.0 0.73717976 0.4453414 0.5912361 0.36800158
0.31617996 0.0 0.0 0.0 -0.08615191 -0.060054146 0.21691582 0.1902035
0.42371628 0.29569218 0.0 -0.060054015 0.4470482 0.4407179 0.09145517 0.38080356
-0.06005164 0.0 0.61129344 0.0 0.3121001 0.53422356 0.41263905 0.74124146
-0.07489537 0.0 0.40687248 0.7831148 0.0 0.51041883 0.33902112 0.4830872
-0.059990473 0.43637365 0.0 0.29282057 0.29690453 -0.060047034 -0.0773788 0.0
0.42235044 0.50139046 0.33849612 0.24793491 -0.060039178 0.4607472 0.398159 0.0

network.2.weight f4 [64, 64]
00000000: 98f0 d2bd 9b4d b2bd 2589 75bd 3368 adbd
00000010: 871f ba3c 312e c9be 5bb0 9abd b28b c33d
00000020: 176c 00be 6b03 4cbe 833c 40be cef4 93ba
00000030: d4e1 27bd bc66 143d 49cc 2f3e c46a 84be
00000040: 9b78 03be 888d 053e 3b41 cf3d ff92 3bbe
00000050: 09f9 d2bd b63e 9cbd 17e5 f33c f918 a93d
00000060: e1b6 0a3d b760 fe3d 42b0 92be 29dd 373e
00000070: c8ee 07be 2803 7fbe 074b 9d3e 4131 4c3e
00000080: bb61 5ebe 36ec 7ebe 8866 153e 7460 64bd
00000090: 42b7 b3be b4a8 c2be 225d 243c 579c c2bd
000000a0: d9f3 8dbe acf9 c6bd da53 b2be 02e4 01bd
000000b0: 0281 4c3e 07bc 033e 843f 9fbd 8b43 92bd
000000c0: b998 b33c 79da 42be d567 573e dbb1 82be
000000d0: a2f9 83be 73bc 713c fea5 ed3d a9ce 8fbe
000000e0: ec2f 5c3e 4d9c 3ebe 6bae ccbd e0da e8bc
000000f0: 314f 1abd 0f57 32be 2186 583e b644 953d
00000100: 8d2d a1be c8f1 abbd 67a6 3abd a5a1 b63c
00000110: 0f5a 20bc e1f3 743d ef50 e7bd 68f5 bdbd
00000120: 722b 3dbe 2c9f 8fbe c7c6 913b 99ff 793e
00000130: 806a 0ebd aa2c 67be 33a2 273e 0c22 88be
00000140: c5df 84be 858a 883d 0e57 7abd b919 9bbe
00000150: fdac afbd 448b 5c3b 9f53 6a3d 6ad9 033e
00000160: 1f6b b7bd bc1b 48be ecbf 2bbe 2edd 783e
00000170: adf5 d6bd 334a 1e3e e417 be3d 5786 46be
00000180: 748f be3d fb5a 243e eaf8 93bd bef6 34be
00000190: 44c4 7ebd 76ca 9b3e b7c9 c13d 005d 8dbc
000001a0: 8440 fc3c 3056 c7be 0a2e 8b3e 73da 4e3e
000001b0: 8b96 8dbe 6f31 28be 8638 58bd a40f 86be
000001c0: e882 3ebd 0aa4 ae3a d066 07bb 6dcf 83be
000001d0: 20c6 a3be 4641 9bbe ebff 42be 5d60 973d
000001e0: 4293 903e 7425 5b3c 20ef 7c3e 9210 383d
000001f0: cb2a e4bd f7ab acbd 302b 1bbe 5d9a b5bd
00000200: 81b0 34be 55b3 703e 0979 d4bd 00d4 643e
00000210: 5b1a b63e c364 063e 43ce 393a 9611 973d
00000220: 9d90 f5bd f5d7 9bbd e7c8 813e e91a 613e
00000230: 5a64 17be 8b37 1dbe 400d c1bb 15a5 8f3d
00000240: 9f8c 05be f828 023d 721d fdbd 63f2 10bd
00000250: 0f97 86be 4efc b2bd 4cc0 ba3d 25de 50be
00000260: d45b 183e d838 023e e8d4 4f3e b46d acbd
00000270: 4f6b 983d 79df 99be fe03 6f3d b9b3 80be
00000280: 6b30 29be e105 e1bd 3bdb babe deaa ba3d
00000290: ccf7 90bc 270b 38be ebe7 8f3d c674 e7bd
000002a0: d5f6 643e 6aec 09be 3049 7cbe 3a10 623e
000002b0: 3ec0 00be 1d1b 9bbe c7c4 a4bb b455 b3bc
000002c0: df4d 36be f73f d5be 8948 123e e5ba 65be
000002d0: df6b 4b3e 8f44 ce3d 07c3 4c3e 6d72 19bc
000002e0: 1269 e93d 3fe7 a23e 65fc c9be 2ea5 89bc
000002f0: 58aa 323e 99de 333e 9913 f43b 7085 13bb
00000300: 428a cd3d 05dc 6f3e 120f ac3e 1111 bfbc
00000310: 86ca 9f3d 2934 7e3e 3105 b8be 1212 ee3d
00000320: 3214 ccbd 560e 523c 3ded f2bd f127 fa3d
00000330: 9aa0 6e3f 632a 9b3d 22f4 0d3f 8185 233e
00000340: 08ef 513d 24ed f23b 129e d63e 4535 8dbb
00000350: 1909 373d edfc a53d 5d0f ac3e 3247 07be
00000360: 04a9 413e 381d 5f3e 8bac b3be c657 c13d
00000370: f78f f63d dc9a dabc b768 9dbe df06 d33d
00000380: a1e1 8e3d 677b 9bbd 7e14 2a3f e111 433e
00000390: 0195 8c3d 91ef 133f cbaa cc3e fe69 913f
000003a0: b5cb 1fbd 0a43 773e 25fd dc3e 9acd 4d3f
000003b0: 54d1 f73c 4823 e73b 1f79 ba3e 0e8d 4b3e
000003c0: 5658 813d 97b4 053c b056 733d 9415 3d3e
000003d0: 35eb df3e fbd0 0a3e 65b9 3f3d cc01 be3e
000003e0: 782d af3e a795 273d 687b 853d a676 863e
000003f0: 62a7 58bd 561b a53e 7064 663e a29e 453e
-0.10299796 -0.08706208 -0.059945244 -0.0846714 0.022720112 -0.39293054 -0.075531684 0.09548129
-0.12541233 -0.19923179 -0.18773083 -0.0011288167 -0.04098685 0.036230788 0.17167772 -0.25862706
-0.12838976 0.13042271 0.101198636 -0.18317793 -0.10301406 -0.07629149 0.029772324 0.08256716
0.033865813 0.12420791 -0.286501 0.1795546 -0.13274682 -0.24903548 0.30721304 0.19940664
-0.21716969 -0.24894795 0.14589894 -0.055756047 -0.35100752 -0.38019335 0.01003197 -0.09502476
-0.27725103 -0.0971559 -0.348296 -0.031711586 0.19971088 0.12864695 -0.077757865 -0.07141789
0.02192341 -0.19028653 0.21035703 -0.25526318 -0.25776392 0.014754402 0.11603926 -0.28087357
0.21502656 -0.18614312 -0.09994205 -0.02842468 -0.03767318 -0.17416023 0.21144916 0.07288496
-0.31480065 -0.083957255 -0.04556885 0.022293875 -0.009787097 0.059802894 -0.11294734 -0.09275323
-0.18473604 -0.28051126 0.004448745 0.24413909 -0.034769535 -0.22575632 0.16370468 -0.26588476
-0.25951973 0.066670455 -0.061118178 -0.30293062 -0.08577917 0.0033652345 0.057208654 0.12875906
-0.089559786 -0.1954183 -0.16772431 0.24303123 -0.10496078 0.15457992 0.092819005 -0.19387184
0.09304705 0.16050331 -0.07225211 -0.1767225 -0.062198892 0.30427903 0.09462302 -0.01725626
0.030792482 -0.38932943 0.27183563 0.2020052 -0.27653918 -0.16425107 -0.05278828 -0.26183808
-0.04651156 0.0013324034 -0.0020660646 -0.2574419 -0.31987095 -0.30323237 -0.19042937 0.07391427
0.2823735 0.013375629 0.24700594 0.044937678 -0.111409746 -0.08431237 -0.15153193 -0.08867333
-0.17645456 0.2350591 -0.10374648 0.22346497 0.35566983 0.13124375 0.00070879253 0.07376401
-0.119904734 -0.0760955 0.2534859 0.21982922 -0.14784375 -0.15353219 -0.005891472 0.07013909
-0.13041924 0.031777352 -0.12359132 -0.035387408 -0.26287124 -0.087395296 0.09118709 -0.20397241
0.1487878 0.12716997 0.20296061 -0.08419362 0.074423425 -0.3005331 0.058353417 -0.25137118
-0.16522376 -0.109874494 -0.36495385 0.091146216 -0.017696284 -0.17973004 0.07026657 -0.1130157
0.22359784 -0.13469091 -0.24637294 0.22076502 -0.12573335 -0.30294123 -0.0050283405 -0.021891452
-0.17803143 -0.41650364 0.14285482 -0.22434576 0.19865368 0.1007167 0.19996272 -0.00936566
0.11396994 0.31817052 -0.39450374 -0.016802397 0.17447793 0.17565383 0.0074486253 -0.0022509955
0.10036136 0.23423775 0.33605248 -0.023323568 0.078023 0.24824585 -0.3594146 0.116245404
-0.099647895 0.012820801 -0.11861656 0.122146495 0.9321381 0.07576444 0.5545064 0.15968896
0.05125335 0.0074135233 0.41917473 -0.0043093287 0.04468641 0.081048824 0.3360547 -0.13210753
0.1891213 0.2178849 -0.35092577 0.094405696 0.12039178 -0.02668517 -0.30743954 0.10304045
0.06976629 -0.075918965 0.6643752 0.19049789 0.06864358 0.57787424 0.39974055 1.1360471
-0.03901263 0.24146667 0.43161884 0.8039185 0.030251183 0.0070537664 0.36420533 0.19878027
0.06315677 0.008160732 0.059408844 0.18465263 0.43734136 0.13556282 0.046807665 0.37110746
0.34214377 0.040914204 0.065176785 0.26262397 -0.052894004 0.32247418 0.22499251 0.19298795

network.2.bias f4 [64]
00000000: 0000 0000 abfb 75bd 35ae 56bd f700 e13e
00000010: 0000 0000 0000 0000 de9a 013f eca4 ca3e
00000020: d814 a43e 0000 0000 5a94 d93e dff7 e43e
00000030: 768d 3bbd c311 70bd 95ba d53e 08fc 75bd
00000040: 000d 603d 11ac 63bd faa6 e43e ad07 e83e
00000050: 65b6 d53e f67d d63e 6ba2 f63e 5e1c 773f
00000060: 99e6 05be a0e3 df3e d68f df3e 0971 d33e
00000070: a08c 063f 04fc 75bd 95e7 75bd c95c f53e
00000080: 93ee 75bd 7125 cc3e 072e e33e e5ca de3e
00000090: 0000 0000 0000 0000 10fc 75bd cc63 c73e
000000a0: 6de4 e03e 0306 e13e 6d58 d83e 0000 0000
000000b0: 0bf0 a3bd 5bb5 023f b7fb 75bd 153e 78bd
000000c0: dbfa 75bd 90ce e73e 0000 0000 7ef9 e13e
000000d0: 4e15 dc3e adc2 f53e c7b6 e13e b8e9 e03e
000000e0: a045 de3e 3a32 8f3e 2d12 a7bd 0000 0000
000000f0: 87f8 dc3e 48e3 e63e f508 c53e da81 e83e
0.0 -0.060054462 -0.05241223 0.4394605 0.0 0.0 0.50626934 0.3957895
0.32047153 0.0 0.42495996 0.4472036 -0.045789205 -0.05861069 0.41743913 -0.06005481
0.054699898 -0.055584017 0.44658643 0.45318356 0.41740718 0.41892976 0.4817079 0.9652766
-0.13076247 0.43728352 0.43664426 0.41297176 0.52558327 -0.060054794 -0.060035307 0.47922352
-0.060041975 0.39872316 0.44371054 0.4351417 0.0 0.0 -0.06005484 0.38943326
0.43924275 0.439499 0.42254964 0.0 -0.08004769 0.51057976 -0.060054507 -0.06060608
-0.060053688 0.45274782 0.0 0.4413566 0.42985004 0.48000088 0.4408476 0.43928313
0.43412495 0.27968007 -0.08157764 0.0 0.4315836 0.45095277 0.38483396 0.4541157

network.4.weight f4 [1, 64]
00000000: 1a91 01bc 8d40 5e3d 89b5 8c3d cc2a a23e
00000010: cda9 19bc 4317 be3a 1364 df3e 7488 5b3e
00000020: aa78 093e e83a f1bc 82b0 9b3e dc39 a23e
00000030: 6f7c 6d3d 4144 8d3d 8fbd 953e 1589 3e3d
00000040: 5c24 3c3b 86b6 463d 7362 b03e d751 b33e
00000050: f5a0 a23e 679e a83e 5c24 bf3e 6557 fbbf
00000060: 9c45 cfbd 4f09 a93e 59ac a33e 2236 923e
00000070: d612 e3bf c31f 413d eec3 6b3d acad a23e
00000080: 5782 673d b336 903e 93ec 9d3e f218 a23e
00000090: 63e3 eb3b 17bc 85bc 8dfc 163d 510d 913e
000000a0: 1d1f a03e 875c a93e 5bc6 9d3e 7238 293c
000000b0: 030b 8c3d 478b ba3e db27 193d 0e4c 413d
000000c0: 6eca 613d 8fcb a73e 4587 6d3b 5e57 923e
000000d0: 3a78 8f3e bfdf 853e 874a 923e 4db8 b93e
000000e0: ef27 a73e 8cbe 1e3e 5113 fb3c 5078 6abc
000000f0: 9bd6 893e 09f7 a03e e7f1 7e3e b2c4 a63e
-0.00790813 0.05426078 0.068705626 0.31673276 -0.009378863 0.0014502782 0.43631038 0.21438771
0.13424936 -0.029447034 0.30408102 0.31684768 0.057979997 0.06897784 0.29246184 0.04651745
0.0028708195 0.04851391 0.3445011 0.35023376 0.31763425 0.3293335 0.37332428 -1.9636046
-0.10120699 0.33014914 0.31967428 0.28556925 -1.7740123 0.04714943 0.0575599 0.31773126
0.056520786 0.28166732 0.30844554 0.31659657 0.0071987375 -0.01632504 0.036861945 0.28330472
0.31273738 0.33078405 0.30815396 0.010328399 0.06838038 0.36434385 0.037391525 0.047191672
0.055124693 0.3277249 0.0036243957 0.2858228 0.28021413 0.26147267 0.28572485 0.36273423
0.32647654 0.15502375 0.03064886 -0.014310911 0.26921543 0.31438473 0.24896966 0.32571942

exp_avg f4 [64, 2]
00000000: 0000 0000 0000 0000 0400 0000 0400 0000
00000010: 0400 0000 0400 0000 0400 0000 0400 0000
00000020: 0400 0000 0400 0000 0000 0000 0000 0000
00000030: e7a6 2b11 c482 f00e 0400 0000 0400 0000
00000040: 0000 0000 0000 0000 0000 0000 0000 0000
00000050: 0400 0000 0400 0000 0400 0000 0400 0000
00000060: 0400 0000 0400 0000 0400 0000 0400 0000
00000070: ca03 7425 067c 7d25 0000 0000 0000 0000
00000080: 0400 0000 0400 0000 0000 0000 0000 0000
00000090: f8ca 1abb c2c9 1fba 0000 0000 0000 0000
000000a0: 0000 0000 0000 0000 0000 0000 0000 0000
000000b0: 0400 0000 0400 0000 0400 0000 0400 0000
000000c0: 0400 0000 0400 0000 0400 0000 0400 0000
000000d0: 0000 0000 0000 0000 1f16 7cb6 edf0 57b6
000000e0: 29f9 0100 2376 0000 0400 0000 0400 0000
000000f0: 0000 0000 0000 0000 0400 0000 0400 0000
00000100: 0400 0000 0400 0000 0400 0000 0400 0000
00000110: 0000 0000 0000 0000 0400 0000 0400 0000
00000120: 0000 0000 0000 0000 0000 0000 0000 0000
00000130: 1a00 0000 0400 0000 4f6a 0214 5783 ad12
00000140: 0000 0000 0000 0000 0000 0000 0000 0000
00000150: 0400 0000 0400 0000 f9f9 4b24 79e4 5324
00000160: 0400 0000 0400 0000 4761 3d1e 10b7 8e1d
00000170: 0400 0000 0400 0000 0000 0000 0000 0000
00000180: 0000 0000 0000 0000 0400 0000 0400 0000
00000190: 0400 0000 0400 0000 0400 0000 0400 0000
000001a0: 0400 0000 0400 0000 0400 0000 0400 0000
000001b0: 0400 0000 0400 0000 6420 99ba 5f86 7db9
000001c0: 0400 0000 0400 0000 0000 0000 0400 0000
000001d0: 0400 0000 0400 0000 5bc8 36bb feb6 33ba
000001e0: 2ba3 1303 58de 0503 0000 0000 0000 0000
000001f0: 0400 0000 0400 0000 0000 0000 0400 0000
0.0 0.0 6e-45 6e-45 6e-45 6e-45 6e-45 6e-45
6e-45 6e-45 0.0 0.0 1.3540952e-28 5.929049e-30 6e-45 6e-45
0.0 0.0 0.0 0.0 6e-45 6e-45 6e-45 6e-45
6e-45 6e-45 6e-45 6e-45 2.116491e-16 2.1986273e-16 0.0 0.0
6e-45 6e-45 0.0 0.0 -0.0023619514 -0.0006095433 0.0 0.0
0.0 0.0 0.0 0.0 6e-45 6e-45 6e-45 6e-45
6e-45 6e-45 6e-45 6e-45 0.0 0.0 -3.7563802e-06 -3.2177734e-06
1.81217e-40 4.238e-41 6e-45 6e-45 0.0 0.0 6e-45 6e-45
6e-45 6e-45 6e-45 6e-45 0.0 0.0 6e-45 6e-45
0.0 0.0 0.0 0.0 3.6e-44 6e-45 6.5842884e-27 1.0950213e-27
0.0 0.0 0.0 0.0 6e-45 6e-45 4.4230343e-17 4.5946856e-17
6e-45 6e-45 1.0025693e-20 3.777637e-21 6e-45 6e-45 0.0 0.0
0.0 0.0 6e-45 6e-45 6e-45 6e-45 6e-45 6e-45
6e-45 6e-45 6e-45 6e-45 6e-45 6e-45 -0.0011682627 -0.00024178017
6e-45 6e-45 0.0 6e-45 6e-45 6e-45 -0.0027890417 -0.0006855576
4.3386725e-37 3.9340425e-37 0.0 0.0 6e-45 6e-45 0.0 6e-45

exp_avg_sq f4 [64, 2]
00000000: 0000 0000 0000 0000 89dc be32 84c5 9831
00000010: cdcc 8235 20c5 8233 6448 482f 7eb9 822f
00000020: b1ce e12f 770a 742c 0000 0000 0000 0000
00000030: 052d 8a35 cc5e 5a33 ce07 b231 c0e6 6030
00000040: 0000 0000 0000 0000 0000 0000 0000 0000
00000050: 0b44 3234 e77d 1132 5330 6a33 40a6 3132
00000060: 2800 d034 61a3 b332 58e8 102f e0f9 452e
00000070: 6788 0a36 db23 2e34 0000 0000 0000 0000
00000080: f54d d735 8d0a 1e34 0000 0000 0000 0000
00000090: 0715 9338 a7c7 b236 0000 0000 0000 0000
000000a0: 0000 0000 0000 0000 0000 0000 0000 0000
000000b0: 0b10 812e 3df2 052f b071 5834 ff08 0c32
000000c0: 7a7a 0834 819d ae31 2a73 1c34 d8cb 1732
000000d0: 0000 0000 0000 0000 0b5b 3236 f942 5e34
000000e0: 5f8b 7e36 f454 6634 462d 8434 315c 3e32
000000f0: 0000 0000 0000 0000 8d5d 5634 6f17 f531
00000100: 19a1 2031 0873 642c 073f ce34 5edb b332
00000110: 0000 0000 0000 0000 9ba3 8935 cef8 5333
00000120: 0000 0000 0000 0000 0000 0000 0000 0000
00000130: 6bf5 2236 7af9 1734 fc1d ed36 e086 c234
00000140: 0000 0000 0000 0000 0000 0000 0000 0000
00000150: 915d 1b2f d9d1 982e 4af5 b835 e1a4 c633
00000160: 2a2b 7735 74ca 6333 920d 5736 0cef 6034
00000170: 807d 3034 5e4c 9431 0000 0000 0000 0000
00000180: 0000 0000 0000 0000 9777 e233 6677 1832
00000190: d22f cf2d 46c4 222e f208 8a31 be85 ab30
000001a0: 836a f234 2350 0833 0997 2c36 c52a 2c34
000001b0: 17a4 2b32 49d1 d12e 3a14 8f38 08db 8d36
000001c0: cba5 4535 bc62 2433 0000 0000 3ba4 f72a
000001d0: 3c9c ba34 ad54 9432 a819 a338 2d44 ac36
000001e0: df79 fb34 524e d032 0000 0000 0000 0000
000001f0: b6f1 b235 9bd2 b933 0000 0000 b597 b22c
0.0 0.0 2.2219199e-08 4.446237e-09 9.74536e-07 6.0894536e-08 1.8215612e-10 2.3778662e-10
4.1074125e-10 3.4680295e-12 0.0 0.0 1.0294904e-06 5.0843298e-08 5.181369e-09 8.181864e-10
0.0 0.0 0.0 0.0 1.6602296e-07 8.468738e-09 5.452632e-08 1.0340557e-08
3.8743133e-07 2.0912639e-08 1.3179269e-10 4.5014548e-11 2.0643e-06 1.6218057e-07 0.0 0.0
1.6041437e-06 1.4718735e-07 0.0 0.0 7.013423e-05 5.328056e-06 0.0 0.0
0.0 0.0 0.0 0.0 5.8690906e-11 1.218234e-10 2.0157927e-07 8.151118e-09
1.2710544e-07 5.0819726e-09 1.4570529e-07 8.8357055e-09 0.0 0.0 2.657706e-06 2.0699726e-07
3.7930074e-06 2.1451325e-07 2.4619857e-07 1.10804175e-08 0.0 0.0 1.9964337e-07 7.1331026e-09
2.3374638e-09 3.2464604e-12 3.8416349e-07 2.09381e-08 0.0 0.0 1.0254911e-06 4.9353552e-08
0.0 0.0 0.0 0.0 2.4282733e-06 1.415373e-07 7.066641e-06 3.623345e-07
0.0 0.0 0.0 0.0 1.413041e-10 6.949436e-11 1.3780457e-06 9.250085e-08
9.207748e-07 5.3036686e-08 3.2045396e-06 2.094859e-07 1.6436934e-07 4.316049e-09 0.0 0.0
0.0 0.0 1.05456984e-07 8.8747125e-09 2.3554412e-11 3.700886e-11 4.0173456e-09 1.2479899e-09
4.515351e-07 3.173785e-08 2.5717911e-06 1.6034308e-07 9.99082e-09 9.541396e-11 6.822539e-05 4.227626e-06
7.362948e-07 3.8274024e-08 0.0 4.3989972e-13 3.4758875e-07 1.7267974e-08 7.7772245e-05 5.133936e-06
4.6841066e-07 2.4250003e-08 0.0 0.0 1.3332381e-06 8.653043e-08 0.0 5.075907e-12

exp_avg f4 [64]
00000000: 0000 0000 0400 0000 0400 0000 0400 0000
00000010: 0400 0000 0000 0000 fe17 3711 0400 0000
00000020: 0000 0000 0000 0000 0400 0000 0400 0000
00000030: 0400 0000 0400 0000 2724 8225 0000 0000
00000040: 0400 0000 0000 0000 0941 c1bb 0000 0000
00000050: 0000 0000 0000 0000 0400 0000 0400 0000
00000060: 0400 0000 0400 0000 0000 0000 6c6d 86b6
00000070: 168a 0200 0400 0000 0000 0000 0400 0000
00000080: 0400 0000 0400 0000 0000 0000 0400 0000
00000090: 0000 0000 0000 0000 1c00 0000 271e 1c14
000000a0: 0000 0000 0000 0000 0400 0000 2d93 5924
000000b0: 0400 0000 8ed2 5b1e 0400 0000 0000 0000
000000c0: 0000 0000 0400 0000 0400 0000 0400 0000
000000d0: 0400 0000 0400 0000 0400 0000 63af f2ba
000000e0: 0400 0000 0400 0000 0400 0000 f96a c6bb
000000f0: 9a7a 1d03 0000 0000 0400 0000 0400 0000
0.0 6e-45 6e-45 6e-45 6e-45 0.0 1.4443548e-28 6e-45
0.0 0.0 6e-45 6e-45 6e-45 6e-45 2.2575903e-16 0.0
6e-45 0.0 -0.0058976454 0.0 0.0 0.0 6e-45 6e-45
6e-45 6e-45 0.0 -4.0062496e-06 2.33207e-40 6e-45 0.0 6e-45
6e-45 6e-45 0.0 6e-45 0.0 0.0 3.9e-44 7.881934e-27
0.0 0.0 6e-45 4.7179037e-17 6e-45 1.1637305e-20 6e-45 0.0
0.0 6e-45 6e-45 6e-45 6e-45 6e-45 6e-45 -0.0018515404
6e-45 6e-45 6e-45 -0.0060552326 4.6278893e-37 0.0 6e-45 6e-45

exp_avg_sq f4 [64]
00000000: 0000 0000 676b 0c35 786c 2036 fad5 2c33
00000010: f363 5430 0000 0000 6c17 2536 7270 3033
00000020: 0000 0000 0000 0000 7ce0 bb34 cda6 6335
00000030: f240 5635 3945 f930 425b d136 0000 0000
00000040: 728f 2337 0000 0000 88d0 a339 0000 0000
00000050: 0000 0000 0000 0000 dbca d132 ba15 a334
00000060: 3ce8 0b35 89e3 9334 0000 0000 3bfc f536
00000070: 3f56 0637 c71e 1135 0000 0000 afe4 7534
00000080: a8c2 3631 445d 7835 0000 0000 e56d 1036
00000090: 0000 0000 0000 0000 5c2c a836 89d0 5d37
000000a0: 0000 0000 0000 0000 abdb 1e32 46c1 6536
000000b0: ad2c 0536 82fd 0737 18a8 8234 0000 0000
000000c0: 0000 0000 2667 3134 47e0 0732 c844 f531
000000d0: a06c a135 a1c9 f736 6904 8632 1c03 3839
000000e0: f68d b135 a4de c32e 1e92 2335 67d3 7839
000000f0: 20c0 7635 0000 0000 6e15 7336 9041 8d30
0.0 5.2310355e-07 2.3904995e-06 4.024148e-08 7.7267187e-10 0.0 2.460055e-06 4.108046e-08
0.0 0.0 3.4994798e-07 8.4806817e-07 7.981572e-07 1.8136809e-09 6.239309e-06 0.0
9.748956e-06 0.0 0.0003124515 0.0 0.0 0.0 2.442305e-08 3.0376924e-07
5.211948e-07 2.7546437e-07 0.0 7.3309325e-06 8.007103e-06 5.4061496e-07 0.0 2.2900598e-07
2.6595135e-09 9.252292e-07 0.0 2.152164e-06 0.0 0.0 5.0119543e-06 1.322118e-05
0.0 0.0 9.246757e-09 3.423616e-06 1.984455e-06 8.105651e-06 2.433669e-07 0.0
0.0 1.6521935e-07 7.909029e-09 7.138258e-09 1.2027049e-06 7.3846463e-06 1.5601659e-08 0.00017548766
1.3228844e-06 8.907122e-11 6.093486e-07 0.00023729877 9.192172e-07 0.0 3.6222295e-06 1.0277734e-09

exp_avg f4 [64, 64]
00000000: 0000 0000 0400 0080 0400 0000 0000 0000
00000010: 0000 0000 0000 0000 0400 0000 0000 0000
00000020: 0000 0000 0000 0000 0000 0000 0400 0000
00000030: 0000 0000 0000 0000 0400 0000 0000 0000
00000040: 0400 0000 0000 0000 0400 0000 0000 0000
00000050: 0000 0000 0000 0000 0000 0000 0000 0000
00000060: 0000 0000 0000 0000 0000 0000 0400 0000
00000070: 0400 0000 0000 0000 0000 0000 0000 0000
00000080: 0000 0000 0000 0000 0000 0000 0000 0000
00000090: 0000 0000 0000 0000 0000 0000 0400 0000
000000a0: 0000 0000 0000 0000 0000 0000 0400 0080
000000b0: 0400 0000 0400 0000 0000 0000 0000 0000
000000c0: 0000 0000 0000 0000 0000 0000 0000 0000
000000d0: 0000 0000 0400 0000 0000 0000 0400 0000
000000e0: 0000 0000 0000 0000 0000 0000 0400 0000
000000f0: 0400 0000 0000 0000 0400 0000 0000 0000
00000100: 0000 0000 0000 0000 0400 0000 0400 0000
00000110: 0400 0080 0000 0000 0400 0000 0400 0000
00000120: 0000 0000 0000 0000 0400 0080 0000 0000
00000130: 0400 0000 0400 0000 0400 0000 0000 0000
00000140: 0400 0000 0000 0000 0400 0000 0000 0000
00000150: 0000 0000 0000 0000 0000 0000 0400 0000
00000160: 0400 0080 0400 0000 0000 0000 0400 0000
00000170: 0400 0000 0400 0000 0000 0000 0400 0000
00000180: 0000 0000 0400 0000 0000 0000 0400 0000
00000190: 0000 0000 0000 0000 0400 0000 0400 0000
000001a0: 0000 0000 0000 0000 0000 0000 0400 0000
000001b0: 0400 0000 0400 0000 0400 0080 0000 0000
000001c0: 0000 0000 0400 0000 0000 0000 0400 0000
000001d0: 0400 0000 0400 0000 0400 0080 0400 0000
000001e0: 0400 0000 0000 0000 0400 0000 0400 0000
000001f0: 0400 0000 0000 0000 0400 0000 0000 0000
00000200: 0000 0000 0400 0000 0400 0000 0400 0080
00000210: 0000 0000 0000 0000 0400 0000 0400 0000
00000220: 0000 0000 0000 0000 0000 0000 0400 0000
00000230: 0400 0000 0400 0080 0400 0000 0000 0000
00000240: 0400 0080 0000 0000 0400 0000 0000 0000
00000250: 0000 0000 0000 0000 0400 0000 0400 0000
00000260: 0000 0000 0400 0000 0000 0000 0400 0000
00000270: 0400 0000 0400 0000 0000 0000 0400 0000
00000280: 0000 0000 0400 0000 0000 0000 0400 0000
00000290: 0000 0000 0000 0000 0400 0000 0400 0000
000002a0: 0000 0000 0000 0000 0400 0000 0400 0000
000002b0: 0400 0000 0400 0000 0000 0000 0000 0000
000002c0: 0000 0000 0400 0000 0400 0000 0400 0000
000002d0: 0400 0000 0400 0000 0000 0000 0400 0000
000002e0: 0400 0000 0400 0000 0400 0000 0400 0000
000002f0: 0400 0000 0000 0000 0400 0000 0400 0000
00000300: 0000 0000 0000 0000 0000 0000 0000 0000
00000310: 0000 0000 0000 0000 0000 0000 0000 0000
00000320: 0000 0000 0000 0000 0000 0000 0000 0000
00000330: 0000 0000 0000 0000 0000 0000 0000 0000
00000340: 0000 0000 0000 0000 0400 0000 0000 0000
00000350: 0000 0000 0000 0000 0000 0000 0000 0000
00000360: 0000 0000 0000 0000 0000 0000 0000 0000
00000370: 0000 0000 0000 0000 0000 0000 0000 0000
00000380: 0000 0000 0000 0000 0000 0000 0000 0000
00000390: 0000 0000 0000 0000 0000 0000 0000 0000
000003a0: 0000 0000 0000 0000 0000 0000 0000 0000
000003b0: 0000 0000 0000 0000 0000 0000 0000 0000
000003c0: 0000 0000 0000 0000 0000 0000 0000 0000
000003d0: 0000 0000 0000 0000 0000 0000 0400 0000
000003e0: 0000 0000 0000 0000 0000 0000 0400 0000
000003f0: 0000 0000 0000 0000 0000 0000 0000 0000
0.0 -6e-45 6e-45 0.0 0.0 0.0 6e-45 0.0
0.0 0.0 0.0 6e-45 0.0 0.0 6e-45 0.0
6e-45 0.0 6e-45 0.0 0.0 0.0 0.0 0.0
0.0 0.0 0.0 6e-45 6e-45 0.0 0.0 0.0
0.0 0.0 0.0 0.0 0.0 0.0 0.0 6e-45
0.0 0.0 0.0 -6e-45 6e-45 6e-45 0.0 0.0
0.0 0.0 0.0 0.0 0.0 6e-45 0.0 6e-45
0.0 0.0 0.0 6e-45 6e-45 0.0 6e-45 0.0
0.0 0.0 6e-45 6e-45 -6e-45 0.0 6e-45 6e-45
0.0 0.0 -6e-45 0.0 6e-45 6e-45 6e-45 0.0
6e-45 0.0 6e-45 0.0 0.0 0.0 0.0 6e-45
-6e-45 6e-45 0.0 6e-45 6e-45 6e-45 0.0 6e-45
0.0 6e-45 0.0 6e-45 0.0 0.0 6e-45 6e-45
0.0 0.0 0.0 6e-45 6e-45 6e-45 -6e-45 0.0
0.0 6e-45 0.0 6e-45 6e-45 6e-45 -6e-45 6e-45
6e-45 0.0 6e-45 6e-45 6e-45 0.0 6e-45 0.0
0.0 6e-45 6e-45 -6e-45 0.0 0.0 6e-45 6e-45
0.0 0.0 0.0 6e-45 6e-45 -6e-45 6e-45 0.0
-6e-45 0.0 6e-45 0.0 0.0 0.0 6e-45 6e-45
0.0 6e-45 0.0 6e-45 6e-45 6e-45 0.0 6e-45
0.0 6e-45 0.0 6e-45 0.0 0.0 6e-45 6e-45
0.0 0.0 6e-45 6e-45 6e-45 6e-45 0.0 0.0
0.0 6e-45 6e-45 6e-45 6e-45 6e-45 0.0 6e-45
6e-45 6e-45 6e-45 6e-45 6e-45 0.0 6e-45 6e-45
0.0 0.0 0.0 0.0 0.0 0.0 0.0 0.0
0.0 0.0 0.0 0.0 0.0 0.0 0.0 0.0
0.0 0.0 6e-45 0.0 0.0 0.0 0.0 0.0
0.0 0.0 0.0 0.0 0.0 0.0 0.0 0.0
0.0 0.0 0.0 0.0 0.0 0.0 0.0 0.0
0.0 0.0 0.0 0.0 0.0 0.0 0.0 0.0
0.0 0.0 0.0 0.0 0.0 0.0 0.0 6e-45
0.0 0.0 0.0 6e-45 0.0 0.0 0.0 0.0
