data/results/gbwm_8goals_bs4800_lr0.01_sim/final_model.pth (torch, 199219 bytes, 39 tensors)

shared_backbone.0.weight f4 [64, 2]
0	0x3f1ddc38	0.6166415
1	0x3e5eea33	0.21769027
2	0xbe0245b9	-0.1272191
3	0xbd18b555	-0.037282307
4	0xbddd908c	-0.10818586
5	0x3d1d0453	0.038334202
6	0x3d2ac584	0.04169227
7	0x3de6634f	0.1124941
8	0x3de9de26	0.114193246
9	0xbb8c0c77	-0.004273947
10	0xbe57f834	-0.21090776
11	0xbebba6ff	-0.36650845
12	0x3d43e03c	0.04782127
13	0xbdee2ade	-0.1162927
14	0x3d7373e1	0.059436683
15	0xbdf875af	-0.12131821
16	0xbd8c3e8a	-0.06847866
17	0xbd3d3d9a	-0.046201326
18	0xbcfaebac	-0.030629955
19	0x3d4bf02f	0.049789604
20	0xbd068469	-0.03284112
21	0xbd9849d6	-0.07435958
22	0xbd824184	-0.06360152
23	0xbc89e9f3	-0.016835188
24	0xbcb91a99	-0.02259569
25	0xbbf3b037	-0.007436778
26	0x3da04bf2	0.078269854
27	0xbdecb46d	-0.11557851
28	0xbe84a895	-0.25909868
29	0xbe02eff8	-0.12786853
30	0xbc79e201	-0.015251637
31	0xbeaf5754	-0.34246314
32	0x3d97d089	0.07412822
33	0xbb7c2f80	-0.003848046
34	0xbdf45716	-0.11930673
35	0xbe23710c	-0.15961093
36	0xbe04f059	-0.1298231
37	0x3fa3b7a0	1.2790413
38	0xbe8bf992	-0.27338845
39	0x3da6794b	0.081286035
40	0x3edc720e	0.43055767
41	0xbf76194d	-0.96132356
42	0xbdb513cf	-0.08841669
43	0xbe93c3e2	-0.28860384
44	0xc04fd359	-3.2472746
45	0xbd7f1de1	-0.062284354
46	0xbe047618	-0.12935674
47	0xbdc82522	-0.097727075
48	0xbeb2de58	-0.3493526
49	0x3e89b240	0.26893806
50	0xbeaac29c	-0.333516
51	0xbdbb02fc	-0.091314286
52	0x3f26828d	0.65042955
53	0x3f9073bf	1.1285323
54	0xbc3f590d	-0.011678946
55	0xbe42cd43	-0.19023614
56	0xbe233919	-0.1593975
57	0xbcb83366	-0.022485446
58	0xbeb1e0c8	-0.34741807
59	0x3c1cba87	0.009565956
60	0x3e945eeb	0.28978667
61	0xbd89c64f	-0.067272775
62	0xbe520ae0	-0.20511961
63	0xbe53f776	-0.20699868
64	0xbe81616f	-0.25269648
65	0x3da656ac	0.08122
66	0x3acb1a63	0.0015495535
67	0x3c9632bd	0.01833474
68	0xbd34f854	-0.044182137
69	0xbd365183	-0.04451133
70	0x3e297314	0.16547805
71	0xbd223f35	-0.03961106
72	0x3d3f430e	0.046694808
73	0xbda6d016	-0.08145158
74	0xbe998e52	-0.29991394
75	0x3e4b74d6	0.19868788
76	0xbd813fc8	-0.063109934
77	0x3d301394	0.04298742
78	0xbd23cf3d	-0.03999256
79	0xbc2cd085	-0.010547762
80	0xbac0e910	-0.0014717896
81	0xbe12d15c	-0.14337677
82	0x3e04c6d2	0.12966469
83	0xbf1162a3	-0.5679113
84	0x3d59adb3	0.053144168
85	0xbededba3	-0.43526945
86	0xbe4ead1d	-0.20183225
87	0xbe461c41	-0.19346716
88	0xbde7a74b	-0.113112055
89	0xbd0dd982	-0.03463126
90	0xbe1dbc28	-0.15403807
91	0x3de52fe4	0.11190775
92	0xbdadf526	-0.08494024
93	0x3d1db477	0.038502183
94	0xbe8c81d3	-0.27442798
95	0xbdbad59e	-0.091227755
96	0xbe22526d	-0.15851755
97	0xbd2eb68b	-0.042654555
98	0x3df9ca29	0.12196762
99	0xbec3ea4b	-0.3826469
100	0x3da3f8e6	0.08006458
101	0xbc58890f	-0.013216271
102	0xbd5507d0	-0.052009404
103	0x3b460467	0.0030215026
104	0xbcd1eae8	-0.025624707
105	0xbde925ef	-0.113841884
106	0xbb15a743	-0.0022835291
107	0xbdf03141	-0.117281444
108	0xbd9fc045	-0.078003444
109	0xbd743f01	-0.059630398
110	0xbe924dbc	-0.28574932
111	0x3ad6cb38	0.0016387468
112	0x3e759b46	0.23985013
113	0xbdc28b62	-0.094992414
114	0xbe4e0515	-0.20119126
115	0xbcee696a	-0.029103
116	0x3d4cd8a9	0.05001131
117	0xbe13f1d9	-0.14447726
118	0xbcec29e5	-0.02882857
119	0xbe8686ee	-0.26274818
120	0xbeaa6a07	-0.33284017
121	0x3d885e76	0.06658642
122	0xbe728ce8	-0.23686564
123	0xbe23bf81	-0.15991022
124	0xbd0661c1	-0.03280807
125	0xbe2fb75b	-0.17159788
126	0xbc1e624b	-0.00966699
127	0xbe818fd8	-0.25305057

shared_backbone.0.bias f4 [64]
0	0xbe945306	-0.28969592
1	0x00000000	0.0
2	0xbc131e38	-0.008979373
3	0xbe682f6a	-0.22674337
4	0xbe132d6d	-0.14372797
5	0x00000000	0.0
6	0xbdc77e54	-0.09740892
7	0xbd5d9c3f	-0.054104086
8	0x00000000	0.0
9	0xbd75fb6a	-0.06005422
10	0x00000000	0.0
11	0xbb832874	-0.004002625
12	0xbd980032	-0.07421912
13	0xbd940dcc	-0.07229194
14	0x00000000	0.0
15	0x00000000	0.0
16	0xbdc4d151	-0.096102364
17	0x00000000	0.0
18	0xbc75a6b2	-0.014993357
19	0xbd75fa37	-0.060053077
20	0xbeb069e9	-0.34455803
21	0x00000000	0.0
22	0x3ed7a29d	0.42116252
23	0x00000000	0.0
24	0xbde852d3	-0.113439225
25	0x00000000	0.0
26	0xbf30ffc2	-0.69140255
27	0xbde55dc8	-0.11199528
28	0x00000000	0.0
29	0xbce51cf8	-0.027967915
30	0xbeaa4538	-0.33255935
31	0x00000000	0.0
32	0xbd75fb9a	-0.0600544
33	0xbd8e07b5	-0.06935064
34	0x00000000	0.0
35	0xbe32f08d	-0.17474575
36	0xbdcbeb8d	-0.09957037
37	0xbe39dd7a	-0.18150893
38	0xbdb6fdc9	-0.089351244
39	0x00000000	0.0
40	0xbddeb7fc	-0.10874936
41	0xbddf3e25	-0.10900525
42	0xbd35a4ae	-0.044346504
43	0x00000000	0.0
44	0xbe4bf90c	-0.19919223
45	0xbe15f392	-0.14643696
46	0xbd931d90	-0.07183373
47	0x00000000	0.0
48	0x00000000	0.0
49	0xbde88e47	-0.11355262
50	0xbdf466c0	-0.119336605
51	0xbc353ce5	-0.011061882
52	0x00000000	0.0
53	0x00000000	0.0
54	0x00000000	0.0
55	0xbbea319f	-0.0071470286
56	0xbe805102	-0.25061804
57	0xbd75fb84	-0.060054317
58	0xbd35e2e9	-0.04440585
59	0x00000000	0.0
60	0xbd63f1a5	-0.055650372
61	0x00000000	0.0
62	0x00000000	0.0
63	0xbda1aea1	-0.07894636

shared_backbone.2.weight f4 [64, 64]
0	0x3d2b7925	0.04186358
1	0xbe022eca	-0.12713161
2	0xbe34c418	-0.17652929
3	0xbe22f9ef	-0.15915655
4	0x3d81c1d2	0.063357964
5	0xbd4fc19e	-0.050721757
6	0xbd801532	-0.06254043
7	0xbe95de5f	-0.29271218
8	0x3e6d9108	0.23199856
9	0x3e04ac81	0.1295643
10	0xbe8a11a5	-0.26966587
11	0xbe2e867e	-0.17043492
12	0x3e22a91f	0.15884827
13	0xbeb6a1eb	-0.3567041
14	0x3e940cb6	0.28915948
15	0xbcafca66	-0.021458816
16	0xbe0c19eb	-0.13681762
17	0x3e1ba4ac	0.15199536
18	0xbe148dfc	-0.14507288
19	0xbe27bbf7	-0.16380297
20	0xbe295cde	-0.16539332
21	0x3d8f33c0	0.069922924
22	0xbea734a8	-0.3265736
23	0x3e9f5371	0.31118348
24	0xbea3f93c	-0.32026088
25	0xbe92e957	-0.2869365
26	0xbcb3892b	-0.021915993
27	0xbe774970	-0.24149108
28	0xbe680ea3	-0.22661833
29	0xbe237214	-0.15961486
30	0x3d346c9c	0.04404889
31	0x3e535090	0.20636201
32	0xbbee6b04	-0.007275941
33	0x3eb18bc4	0.34676945
34	0x3e0e22b2	0.13880423
35	0xbeb2e745	-0.3494207
36	0xbe663795	-0.2248214
37	0xbd989c1c	-0.074516505
38	0xbd6fcfef	-0.05854791
39	0xbd58cbaf	-0.052928623
40	0xbdb16333	-0.08661499
41	0xbde94e3c	-0.11391875
42	0x3db87716	0.09007089
43	0x3df856b7	0.121259145
44	0xbde9f92c	-0.11424479
45	0x3e68cad0	0.22733617
46	0x3e28fef6	0.1650351
47	0xbcc822d4	-0.02443067
48	0xbda1743e	-0.078834996
49	0x3d8cf94f	0.06883489
50	0xbe15d40a	-0.14631668
51	0xbdace859	-0.08442754
52	0xbcfe45a6	-0.03103907
53	0x3e729793	0.23690633
54	0x3e3f6321	0.18690158
55	0x3e920a0a	0.28523284
56	0xbe08a252	-0.1334317
57	0x3e67e2dc	0.22645134
58	0xbc842087	-0.016128791
59	0x3e5c6872	0.21524218
60	0x3beb369b	0.0071781403
61	0xbe859824	-0.26092637
62	0x3e35b2a9	0.17743935
63	0x3c85e8b0	0.016346306
64	0x3d16134f	0.036639508
65	0x3e4a178a	0.19735542
66	0xbea91fd4	-0.33032095
67	0x3e0bb101	0.1364174
68	0xbe3fa39d	-0.18714757
69	0x3ea58e95	0.32335344
70	0xbca08d11	-0.019598516
71	0x3da9b85f	0.08287119
72	0xbe05a652	-0.13051727
73	0xbcc9b560	-0.02462262
74	0xbd806e0b	-0.06270989
75	0xbc36a321	-0.011147291
76	0xbd890ce5	-0.066919126
77	0x3c8ba938	0.017048463
78	0x3ca651e7	0.020302726
79	0xbdd9acea	-0.10628684
80	0x3e543e7b	0.2072696
81	0x3d8cc828	0.06874114
82	0x3f478abe	0.7794608
83	0xbe545ef4	-0.20739347
84	0x3dd3ce59	0.10342092
85	0x3c8391c4	0.016060717
86	0xbf23707c	-0.6384351
87	0xbe8b8ec2	-0.27257353
88	0xbe6f0ed3	-0.23345499
89	0x3b17ea25	0.0023180333
90	0x3fc029e4	1.5012784
91	0xbe7aff95	-0.2451156
92	0xbeba5a49	-0.36397007
93	0xbe2d1e49	-0.16906084
94	0x3da51608	0.08060843
95	0xbcb74d36	-0.022375684
96	0x3d9fb11f	0.07797455
97	0x3ba7bb85	0.0051187896
98	0x3e01e614	0.12685424
99	0x3ea6aaee	0.32552284
100	0xbdad1aba	-0.08452363
101	0x3e0980b2	0.13428
102	0x3e0cb18b	0.13739602
103	0xbe871740	-0.26384926
104	0x3dd423ec	0.10358414
105	0x3dbf8052	0.09350647
106	0x3d878b1c	0.0661833
107	0xbdc02442	-0.09381916
108	0x3e1c9f6d	0.15295191
109	0xbe0c7d4d	-0.13719673
110	0x3eae990c	0.3410114
111	0x3debb5e9	0.11509306
112	0xbe161db8	-0.14659774
113	0xbdfa9baa	-0.12236722
114	0x3e9d5bbb	0.30734047
115	0xbe14e8f5	-0.14541991
116	0x3e5fe802	0.21865848
117	0x3d87e3f3	0.06635275
118	0x3e811a99	0.25215605
119	0xbe285774	-0.1643961
120	0xbe23483f	-0.15945528
121	0x3c947827	0.0181237
122	0xbd313992	-0.043267794
123	0x3d6f6619	0.058446977
124	0x3e7eb839	0.24874963
125	0x3dd2a609	0.10285575
126	0x3e1f55d2	0.15560082
127	0x3da3f70e	0.08006106
128	0xbcdf1041	-0.02722943
129	0xbde4cfa7	-0.11172419
130	0xbcf84324	-0.030305453
131	0xbe421665	-0.18953855
132	0x3e3ebd53	0.18626909
133	0xbcd114b9	-0.025522577
134	0xbd09dc52	-0.03365738
135	0xbd932ba8	-0.07186061
136	0xbe4f0140	-0.2021532
137	0x3e82b488	0.2552836
138	0x3c361286	0.011112815
139	0xbdcb1fb4	-0.09918156
140	0x3e5a4925	0.21316965
141	0x3eb4fc73	0.35348853
142	0x3e5a6ee5	0.21331365
143	0x3c0c8255	0.008575995
144	0x3e2b2120	0.16711855
145	0xbddcd913	-0.10783591
146	0xbe3cea3d	-0.1844873
147	0x3e378694	0.17922431
148	0xbe7daf01	-0.2477379
149	0x3df3085d	0.118668295
150	0xbda6f189	-0.08151538
151	0xbc7447ab	-0.014909665
152	0xbe2ee4a7	-0.17079411
153	0x3ea3d19c	0.31995857
154	0xbeaaffb6	-0.33398217
155	0x3ce2e3f5	0.027696589
156	0xbeba1a75	-0.3634831
157	0xbe3cd815	-0.18441804
158	0x3d347a17	0.044061746
159	0x3cb93fa7	0.02261336
160	0x3ded2f37	0.11581271
161	0xbe58541f	-0.2112584
162	0xbd25b8fe	-0.040459625
163	0xbdd1b692	-0.10239901
164	0x3d9f13c9	0.077674456
165	0xbeffc53c	-0.49955165
166	0x3e244485	0.16041763
167	0x3d14cf57	0.036330547
168	0x3e1ddc3e	0.15416047
169	0x3eca26c3	0.39482698
170	0xbe4bfc5a	-0.19920483
171	0x3ca785c3	0.020449525
172	0x3dff777d	0.124739625
173	0x3e6d200e	0.23156759
174	0xbdd75514	-0.10514274
175	0xbd7053b5	-0.05867358
176	0xbdec563d	-0.11539886
177	0x3eac94d4	0.33707297
178	0xbe0c3176	-0.13690743
179	0xbddedfd3	-0.10882535
180	0xbe7ff150	-0.24994397
181	0x3bfe7c8e	0.007766313
182	0xbe07a8ed	-0.13248034
183	0xbeab7690	-0.33488894
184	0x3d0e63a1	0.034762982
185	0x3d5312d7	0.05153164
186	0xbd536052	-0.05160553
187	0x3e5b8f07	0.2144128
188	0x3e93a41c	0.28836143
189	0x3e8364b4	0.25662768
190	0xbd30ab6e	-0.043132238
191	0xbd2f5261	-0.042803172
192	0xbd4a4103	-0.049378406
193	0xbd82d435	-0.063881315
194	0xbe57cd85	-0.21074493
195	0xbe822c61	-0.25424483
196	0xbdd7921e	-0.105259165
197	0xbe108dc7	-0.14116584
198	0xbe2dafaa	-0.16961542
199	0xbeaf6f36	-0.34264535
200	0xbcb3a604	-0.021929748
201	0x3dd6e446	0.104927585
202	0x3d7ab199	0.061204527
203	0x3c9bc15c	0.0190131
204	0xbe1aa588	-0.15102208
205	0x3e4d2c7b	0.20036499
206	0xbd3e9dc4	-0.046537176
207	0x3e72a829	0.2369696
208	0xbde05cbc	-0.10955188
209	0xbe057c59	-0.13035716
210	0xbe69b36a	-0.22822347
211	0xbe40121a	-0.18756905
212	0xbe552662	-0.20815423
213	0xbdd23971	-0.10264862
214	0xbf15b318	-0.584764
215	0xbd0c1a17	-0.03420457
216	0x3e811a3f	0.25215337
217	0xbe3b675b	-0.18301146
218	0x3d1cec99	0.038311575
219	0xbe9eb8f9	-0.31000498
220	0x3d580750	0.05274135
221	0xbd6c0deb	-0.05763046
222	0xbe9aa069	-0.30200508
223	0x3d49a47c	0.04922913
224	0x3e05d81d	0.13070722
225	0xbe710e51	-0.23540618
226	0x3e414533	0.18874054
227	0xbe47376f	-0.1945474
228	0xbcca1b44	-0.024671204
229	0x3e3ef250	0.18647122
230	0xbe1c7dae	-0.15282318
231	0x3d159358	0.03651747
232	0x3d8552a3	0.06509902
233	0xbed213ac	-0.41030633
234	0x3df86bd5	0.12129942
235	0xbdf2b6e7	-0.11851292
236	0x3e5c592f	0.21518396
237	0xbe418bc8	-0.18900979
238	0xbe31505b	-0.1731581
239	0xbed343b1	-0.41262582
240	0xbe2e97c6	-0.17050084
241	0xbc3fcc88	-0.011706479
242	0xbe83ed79	-0.25767115
243	0x3db9f0e4	0.09079149
244	0x3dd9693b	0.10615774
245	0xbd377823	-0.044792306
246	0xbe5fe8f5	-0.2186621
247	0xbc94d3a2	-0.01816732
248	0xbddb9b7f	-0.10723018
249	0x3d50c040	0.050964594
250	0xbc8348ae	-0.016025867
251	0x3e7bfd09	0.24608244
252	0x3e47e3ad	0.19520445
253	0x3e7ed938	0.2488755
254	0x3e06ff32	0.13183287
255	0xbc91bb48	-0.017789498

shared_backbone.2.bias f4 [64]
0	0xbd90b41c	-0.07065603
1	0x3dafea91	0.08589662
2	0xbd660701	-0.056159023
3	0xbd63a3f6	-0.055576287
4	0xbe4d11c5	-0.2002631
5	0xbd7ada26	-0.0612432
6	0x3f3aeb34	0.7301514
7	0xbd97e405	-0.07416538
8	0xbe3d10fe	-0.18463513
9	0xbddba55e	-0.10724901
10	0xbd83fc2b	-0.064445816
11	0xbce12d6b	-0.027487477
12	0x3e993a08	0.29927087
13	0xbd817b76	-0.063223764
14	0xbe067136	-0.13129124
15	0xbdd0d33e	-0.10196541
16	0xbd63afab	-0.055587452
17	0xbc835fcd	-0.016036892
18	0xbda79a08	-0.08183676
19	0xbdf2322e	-0.11825977
20	0x3e654c24	0.22392327
21	0xbdbabc02	-0.09117891
22	0xbe5297c0	-0.205657
23	0xbddbc49c	-0.1073086
24	0xbe100303	-0.14063649
25	0x3e0966db	0.13418142
26	0xbd98a95e	-0.07454179
27	0xbdf550c1	-0.11978293
28	0xbdcf2261	-0.10113979
29	0xbd2db6ff	-0.042410847
30	0xbe2e7f44	-0.17040735
31	0xbd9ed78c	-0.07755956
32	0xbeb08a5f	-0.3448057
33	0xbd34ed02	-0.04417134
34	0xbe33ce4b	-0.17559163
35	0xbe285bea	-0.16441312
36	0xbdc447f3	-0.09584036
37	0xbeb3541a	-0.35025102
38	0xbe2cb6f8	-0.16866672
39	0xbda7cf97	-0.081938915
40	0xbd7013c2	-0.058612593
41	0xbd9414fc	-0.07230565
42	0xbde679e6	-0.11253719
43	0xbdf59731	-0.11991728
44	0xbc910b50	-0.01770559
45	0xbe467f3d	-0.19384475
46	0xbdad1699	-0.08451576
47	0xbe478464	-0.19484097
48	0xbc826131	-0.015915485
49	0xbd3002ba	-0.04297135
50	0xbdbbd450	-0.09171355
51	0xbd75fb86	-0.060054325
52	0xbdec5b57	-0.11540859
53	0xbd75f955	-0.060052235
54	0xbe7969b1	-0.24356724
55	0xbd7cc347	-0.06170967
56	0xbe9ccb1d	-0.30623713
57	0xbe35d63b	-0.17757504
58	0xbd4a10ba	-0.049332358
59	0xbd8a0ded	-0.067409374
60	0xbd9c53f8	-0.07633203
61	0xbe3a564c	-0.18196982
62	0xbe8429b5	-0.2581307
63	0xbe07f01a	-0.13275185

goal_head.weight f4 [2, 64]
0	0xbe0b0b18	-0.1357845
1	0xbf04fa43	-0.5194437
2	0x3bf35f4d	0.007427132
3	0xbcfef59c	-0.031122975
4	0x3ec95544	0.39322865
5	0x3ea4fc09	0.32223538
6	0xc0a2e111	-5.089974
7	0x3dfaf7e5	0.122543134
8	0xbe019362	-0.12653878
9	0xbe721e0d	-0.23644276
10	0xbfe3d39d	-1.7798954
11	0xbdd14e8c	-0.1022006
12	0xc03a234b	-2.908404
13	0x3df79bc6	0.12090258
14	0xbdc0c449	-0.094124384
15	0xbd91dff7	-0.07122796
16	0x3c780a8c	0.015139233
17	0xbd2211ab	-0.03956763
18	0xbd3831f4	-0.044969514
19	0x3d8f75f0	0.07004917
20	0x3fc303f7	1.5235585
21	0xbd28d8b0	-0.041222274
22	0xbe1cde8e	-0.15319273
23	0x3da0e810	0.078567624
24	0x3e6e94f4	0.23299009
25	0xbe965d39	-0.29367998
26	0x3c93e3c2	0.01805294
27	0xbd81338d	-0.06308661
28	0xbcb5492d	-0.02212962
29	0xbf88d334	-1.0689454
30	0x3e66f7b7	0.22555433
31	0xbd5f5930	-0.054528415
32	0x3e58d266	0.2117401
33	0xbdf9f7b6	-0.1220545
34	0x3e911c63	0.2834197
35	0x3ea38d72	0.31943852
36	0x3e369995	0.17832024
37	0x3ebd8223	0.3701335
38	0x3daae98d	0.083453275
39	0xbbddbaee	-0.0067666685
40	0x3e93aa05	0.28840652
41	0x3e2c8aa2	0.16849759
42	0xbe847832	-0.25872952
43	0xbcc2d3e9	-0.023782687
44	0xbce8b92d	-0.028408611
45	0x3cabdc86	0.020979177
46	0x3da5b6ce	0.08091508
47	0x3e0eb9ea	0.13938108
48	0xbe4f389c	-0.20236439
49	0xbe272a9a	-0.16324845
50	0xbe26b8bc	-0.16281408
51	0xbce0dc92	-0.027448926
52	0xbea9ab4a	-0.33138496
53	0xbe3449c1	-0.1760626
54	0x3ea5211e	0.3225183
55	0xbc1af4bc	-0.009457763
56	0x3d13e7b7	0.036109652
57	0xbcc66a91	-0.024220737
58	0x3e1e5ff1	0.15466286
59	0xbdca1752	-0.09867729
60	0x3e75beec	0.23998612
61	0xbe815e8c	-0.25267446
62	0xbe91e5db	-0.28495678
63	0xbd9037f9	-0.07041926
64	0x3d5d01ea	0.053956904
65	0x3f000ff8	0.50024366
66	0x3d516679	0.051123116
67	0xbdf5ee85	-0.120083846
68	0xbe81034b	-0.25197825
69	0x3e2ff60d	0.17183705
70	0x40970dce	4.720435
71	0x3e3f8964	0.18704754
72	0xbe59501a	-0.21221963
73	0xbe455b1a	-0.19273034
74	0x3fe4afa7	1.7866105
75	0x3e4b75f1	0.1986921
76	0x403aed65	2.9207394
77	0xbb931112	-0.004488119
78	0xbdb84416	-0.08997361
79	0xbca82366	-0.020524692
80	0xbefb48c1	-0.49078944
81	0x3e19aeb6	0.15008053
82	0x3def507d	0.11685274
83	0x3dfebefc	0.12438771
84	0xbf9a81f4	-1.2070909
85	0xbc3283e5	-0.010895704
86	0xbe1470e5	-0.14496191
87	0xbd9911cd	-0.07474098
88	0x3e144420	0.14479113
89	0x3f442389	0.7661672
90	0x3e867d5e	0.26267523
91	0xbe0a945e	-0.1353316
92	0x3dfda7d9	0.1238553
93	0x3f5bb150	0.8581743
94	0xbe5127e4	-0.20425373
95	0x3c6e063c	0.014527854
96	0x3e170c4f	0.14750789
97	0x3e0c662e	0.13710853
98	0x3d975c74	0.07390681
99	0x3e729460	0.23689413
100	0x3de805b9	0.113292165
101	0xbf0c4dfd	-0.548065
102	0xbebfb80b	-0.374451
103	0x3d62f2cd	0.055407334
104	0x3eb5fabe	0.35542864
105	0xbe54e52a	-0.20790544
106	0xbc17eae5	-0.009272312
107	0x3df81efa	0.12115283
108	0x3d6dc974	0.05805345
109	0xbe0f1afc	-0.13975137
110	0x3ea39132	0.31946713
111	0x3e3384eb	0.17531173
112	0x3e9731b9	0.29530123
113	0x3d18dff2	0.037322946
114	0x3cc5386d	0.024074757
115	0xbe8b1a01	-0.27168277
116	0xbe005bb3	-0.1253498
117	0x3e476115	0.19470628
118	0xbeed12f2	-0.46303517
119	0xbd265831	-0.04061145
120	0x3de69108	0.11258131
121	0xbe855058	-0.2603786
122	0xbd8d2c36	-0.06893198
123	0xbdac456e	-0.0841168
124	0xbdbbde6b	-0.09173282
125	0x3e072171	0.1319635
126	0x3eb344e1	0.35013488
127	0x3d35ca4c	0.04438238

goal_head.bias f4 [2]
0	0xbf65b5f8	-0.8973079
1	0x3f65b5f7	0.8973078

portfolio_head.weight f4 [15, 64]
0	0xbda7b9ed	-0.081897594
1	0x3d380413	0.04492576
2	0x3d62a5cc	0.055333897
3	0x3e4305cf	0.19045185
4	0xbdffba8f	-0.12486755
5	0xbd681532	-0.05666084
6	0xbe6a421a	-0.22876778
7	0xbe669563	-0.22517924
8	0xbd211d09	-0.03933433
9	0x3d8c5407	0.068519644
10	0xbd8e6697	-0.06953161
11	0xbd9f46ce	-0.07777177
12	0xbe6ea5a4	-0.23305374
13	0x3ca4de3b	0.020125499
14	0x3e3b9862	0.18319848
15	0x3e863418	0.2621162
16	0xbdfe9256	-0.12430255
17	0x3d31d551	0.043416325
18	0x3cddc30f	0.02707055
19	0x3c805336	0.015664678
20	0xbd3b9b26	-0.045802258
21	0x39b9528e	0.00035347458
22	0x3f017ed1	0.5058413
23	0xbde7306a	-0.11288531
24	0x3f0ae27d	0.54251844
25	0x3d8d76f9	0.06907458
26	0x3dfbb1d2	0.12289776
27	0xbcf8133e	-0.030282613
28	0xbbe25fc4	-0.006908389
29	0x3c8ab66b	0.016932687
30	0xbeccad36	-0.399759
31	0x3e12b353	0.1432622
32	0xbec26725	-0.37969318
33	0x3e8d8910	0.27643633
34	0xbe1e4a4e	-0.15458032
35	0xbe905d66	-0.28196257
36	0x3b4e60c3	0.003149078
37	0xbcfe9452	-0.031076584
38	0x3f2dd5e4	0.67904496
39	0xbc8290ae	-0.01593813
40	0xbe37788e	-0.17917082
41	0xbe7a249c	-0.24428028
42	0x3e9d5bb0	0.30734015
43	0x3dd25ec4	0.10271981
44	0x3b88926c	0.0041678455
45	0x3b8776ac	0.00413402
46	0x3e5aa659	0.21352519
47	0xbddb4cb8	-0.10707992
48	0xbe013c07	-0.12620555
49	0xbc1428bf	-0.009042918
50	0xbe26072e	-0.16213676
51	0x3e7951fc	0.24347681
52	0xbd04020d	-0.03222852
53	0x3cf5f287	0.030022873
54	0x3df0e780	0.11762905
55	0x3db25bbd	0.08708904
56	0x3ead7799	0.33880308
57	0xbe897abd	-0.26851454
58	0x3e323cb2	0.17405966
59	0xbcff812e	-0.031189527
60	0x3d1e920d	0.038713504
61	0xbea4434b	-0.3208259
62	0xbefb8312	-0.49123436
63	0x3e3011eb	0.17194335
64	0xbe425141	-0.18976308
65	0xbf168ad6	-0.58805597
66	0x3e29f359	0.16596736
67	0xbeab6c13	-0.33480892
68	0xbe8ac62f	-0.27104327
69	0xbcf6b2ab	-0.030114492
70	0x3e7bdecb	0.24596708
71	0x3eb4b7d5	0.35296503
72	0x3ea86429	0.32888916
73	0xbd758f26	-0.05995097
74	0x3e8e2750	0.27764368
75	0x3cb6c482	0.0223105
76	0x3f266e87	0.650124
77	0x3dde3703	0.108503364
78	0x3f1751b1	0.59109026
79	0xbd8f1beb	-0.06987747
80	0x3ddfc938	0.10927051
81	0xbdc2a434	-0.095039755
82	0xbe7b5c23	-0.24546866
83	0x3c2584b8	0.010102443
84	0xbf02ecf6	-0.51142824
85	0xbde10a2f	-0.109882705
86	0xbe3cd45b	-0.18440382
87	0x3eacedfb	0.33775315
88	0x3e49747d	0.19673343
89	0xbe927ba9	-0.2860997
90	0xbd3299ba	-0.043603636
91	0x3d90e006	0.07073979
92	0xbe27a9c7	-0.16373359
93	0x3ea32094	0.31860793
94	0xbe6c9347	-0.23103057
95	0x3e1455ea	0.14485899
96	0x3dbbf925	0.0917838
97	0xbd4433f9	-0.047901127
98	0xbce3992e	-0.027783003
99	0x3d6371af	0.05552834
100	0x3e93c7ff	0.28863522
101	0x3e9025a3	0.28153715
102	0xbf1a7f4e	-0.603505
103	0xbd763087	-0.060104873
104	0xbcfb01ee	-0.030640569
105	0xbdaad021	-0.08340479
106	0x3de612d7	0.11234062
107	0x3e1af4e7	0.15132485
108	0x3db30ed7	0.08743065
109	0x3e29ef7d	0.16595264
110	0x3db8f12e	0.090303764
111	0xbe395ec1	-0.18102552
112	0xbe2c1706	-0.16805658
113	0x3d8598b5	0.06523267
114	0xbdbfd158	-0.09366101
115	0xbe54e019	-0.20788611
116	0xb99aaa98	-0.0002950027
117	0xbe267b08	-0.1625787
118	0xbea8c22b	-0.32960638
119	0xbd4cee3f	-0.050031897
120	0x3dcba307	0.099432044
121	0x3d2e27eb	0.042518537
122	0xbea5f74c	-0.32415235
123	0xbc9c3ef8	-0.019072995
124	0x3e010b75	0.12602027
125	0xbe187e51	-0.14891936
126	0x3c908e4c	0.017645977
127	0xbdf181f6	-0.11792366
128	0xbe9faf84	-0.31188595
129	0xbe3c0dd3	-0.18364649
130	0x3eaeebb2	0.34164196
131	0xbe0e7ce3	-0.13914828
132	0x3ec50045	0.38476768
133	0x3dae86e0	0.08521819
134	0xbe133510	-0.1437571
135	0xbe435976	-0.19077095
136	0x3e687fd6	0.22705016
137	0xbdf35710	-0.1188184
138	0xbf09b7b2	-0.5379592
139	0xbdd36655	-0.10322253
140	0x3d31b150	0.04338199
141	0xbe78168d	-0.24227352
142	0x3e7df2cc	0.24799651
143	0xbcb76339	-0.02238618
144	0xbded241c	-0.11579153
145	0xbdce574f	-0.100752465
146	0x3da5ed44	0.081018955
147	0xbd913230	-0.07089651
148	0x3d9f1d23	0.07769229
149	0xbbd05149	-0.006357346
150	0x3e370c71	0.1787584
151	0x3dcf6b93	0.1012794
152	0x3e2986f6	0.1655539
153	0xbec52c62	-0.38510424
154	0xbc50ad88	-0.012736686
155	0xbbcf50a5	-0.0063267522
156	0x3c62179f	0.013799577
157	0xbeb18a49	-0.34675816
158	0x3e874b67	0.26424715
159	0xbe8f6a82	-0.28010947
160	0x3ef9c6b2	0.48784405
161	0x3d79dedb	0.061003547
162	0xba00c656	-0.0004912367
163	0x3cb015f7	0.021494849
164	0x3e4649a1	0.19364025
165	0x3e609995	0.21933587
166	0xbec6bfcf	-0.38818213
167	0x3e739e15	0.23790772
168	0xbe958f45	-0.29210868
169	0x3e067688	0.13131154
170	0xbe7ba305	-0.24573906
171	0x3e35c5c3	0.17751221
172	0xbde197b4	-0.11015263
173	0x3e575ca2	0.2103143
174	0xbebda69b	-0.37041172
175	0x3c8f4233	0.017487621
176	0x3db011ec	0.08597168
177	0xbb9b0cac	-0.004731735
178	0x3d1011bd	0.035173167
179	0x3ebbf48b	0.3671001
180	0xbdc5232e	-0.096258506
181	0xbdacecf9	-0.084436364
182	0x3ef1c99e	0.47224134
183	0xbe879311	-0.2647939
184	0xbe6638b8	-0.22482574
185	0x3dadd655	0.08488146
186	0xbd922406	-0.07135777
187	0x3dbac756	0.091200516
188	0xbe32755a	-0.17427579
189	0xbe056bea	-0.13029447
190	0x3dc79f0f	0.09747135
191	0xbd11f4ff	-0.035634037
192	0x3e7fe41d	0.24989362
193	0x3f55c0aa	0.8349711
194	0xbd89eb74	-0.06734362
195	0xbe671b6f	-0.22569059
196	0x3f44fd61	0.76949126
197	0x3e223211	0.15839411
198	0x3f073aba	0.52823985
199	0x3de71062	0.11282422
200	0xbdd1ad02	-0.10238077
201	0xbd33eebf	-0.043928858
202	0x3cf68f15	0.030097524
203	0xbda05603	-0.078289054
204	0x3e61a53f	0.22035693
205	0x3e02ad88	0.1276151
206	0xbe9edd52	-0.3102823
207	0xbea4b995	-0.32172838
208	0x3dda0571	0.10645569
209	0x3d9cc820	0.07655358
210	0xbd13974e	-0.036032967
211	0xbd68ff77	-0.056884255
212	0x3e852c4f	0.26010367
213	0xbe5be4fa	-0.21474066
214	0x3e479a05	0.19492348
215	0x3d4588c8	0.048226148
216	0xbd5bfb5f	-0.053706523
217	0xbe667c2b	-0.22508304
218	0x3d9154ca	0.0709625
219	0xbd8e5ed5	-0.069516815
220	0xbdf3d31b	-0.119054995
221	0xbcad40f6	-0.02114914
222	0xbc9f7d15	-0.019468823
223	0x3e3d4f7a	0.18487349
224	0xbeb80d76	-0.3594777
225	0x3e349cf3	0.17637996
226	0x3cc72517	0.024309678
227	0x3dee840c	0.1164628
228	0xbea236da	-0.31682473
229	0x3eacd3bc	0.3375529
230	0xbf012b79	-0.5045696
231	0xbe495306	-0.19660577
232	0xbe3b032f	-0.18262933
233	0xbe649443	-0.22322182
234	0x3bab354c	0.0052248593
235	0x3e2d5e98	0.16930616
236	0x3d51b333	0.05119629
237	0x3ea8c0d8	0.32959628
238	0xbe1124a4	-0.14174134
239	0xbea4c4e3	-0.32181463
240	0x3cbb6729	0.022876339
241	0xbcc5c884	-0.024143465
242	0xbe3e8df7	-0.18608843
243	0xbda55356	-0.08072536
244	0x3e5c93ad	0.21540709
245	0xbeb29805	-0.34881607
246	0x3f4700d4	0.7773564
247	0xbdbc771e	-0.09202407
248	0x3e645e6a	0.22301641
249	0x3ef42c2a	0.47689945
250	0x3e3bc012	0.18334988
251	0x3d98600f	0.07440197
252	0x3e068843	0.13137917
253	0x3e83abdf	0.25717065
254	0x3eaa2b28	0.3323605
255	0xbdc595dd	-0.09647725

portfolio_head.bias f4 [15]
0	0xbdecfc7d	-0.11571596
1	0x3e8ab894	0.27093947
2	0x3c034bee	0.0080137085
3	0x3e453129	0.19257034
4	0x3e4c04f8	0.1992377
5	0xbd9adc6b	-0.07561573
6	0x3ce35034	0.027748205
7	0x3d45f7a0	0.048331857
8	0xbeae8298	-0.3408401
9	0x3e91e26c	0.2849306
10	0x3e02dbb9	0.1277913
11	0xbc0979cd	-0.008390856
12	0x3e40bdfc	0.18822473
13	0xbda70b9c	-0.08156511
14	0xbd773bf1	-0.0603599

network.0.weight f4 [64, 2]
0	0xbe4e1b8d	-0.20127697
1	0x3c182e9d	0.009288457
2	0xbf14943b	-0.5803868
3	0xbe00d53b	-0.12581341
4	0xbf3cfe6f	-0.73825735
5	0x3bb233d7	0.0054383087
6	0xbd095ba5	-0.033534665
7	0xbba0a279	-0.0049021807
8	0xbf18064c	-0.5938461
9	0x3ba2e1d7	0.00497077
10	0xbf561ac3	-0.83634585
11	0xbc2091df	-0.009800403
12	0x3f3cb7ef	0.7371816
13	0xbd491c25	-0.049099106
14	0xbebe4432	-0.37161404
15	0x3cf25418	0.029581115
16	0xbe5c6f0b	-0.21526735
17	0xbe0cb66d	-0.13741465
18	0xbea100ca	-0.31445915
19	0xbd734a6e	-0.059397154
20	0xbf8691f6	-1.0513294
21	0x3941c4f3	0.00018479284
22	0xbf264fae	-0.6496533
23	0x395861b9	0.0002063577
24	0xc0441f09	-3.0643942
25	0xbe51f7fd	-0.20504756
26	0xbe16197d	-0.1465816
27	0xbd35a63e	-0.044347994
28	0xbe063665	-0.13106687
29	0xbe7f42aa	-0.24927774
30	0xbf2b0d72	-0.6681739
31	0x3b3564bf	0.0027678458
32	0xbf7dce0d	-0.99142534
33	0x3e0493e2	0.12947038
34	0xbe7ba014	-0.24572784
35	0xbd6ef441	-0.058338407
36	0xbd20489d	-0.03913175
37	0xbe9a5cc3	-0.30148897
38	0xbde388fc	-0.11110112
39	0xbe322711	-0.17397715
40	0xbf25ebe1	-0.6481305
41	0x3db272a7	0.087132744
42	0xbe3dfa58	-0.1855253
43	0xbca7c049	-0.02047743
44	0x3f4ef1e9	0.80837876
45	0x3d753c4c	0.059871957
46	0xbd9346e4	-0.07191256
47	0xbe133fbc	-0.14379781
48	0x3c740b00	0.014895201
49	0xbe15af88	-0.14617741
50	0x3df75c4c	0.12078151
51	0xbd88b98c	-0.06676015
52	0xbe9533e7	-0.2914116
53	0xbe29745f	-0.16548298
54	0xbe102f4b	-0.14080541
55	0xbee7c3e4	-0.4526664
56	0xbe55b129	-0.20868362
57	0xbe0a1f8b	-0.13488595
58	0xbf38ab3a	-0.7213627
59	0x3b2842c7	0.0025674568
60	0xbdb0696e	-0.08613859
61	0xbcfb038a	-0.030641336
62	0x3d519a78	0.051172704
63	0xbe201b53	-0.15635423
64	0xbe5b8cad	-0.21440382
65	0xbde5d860	-0.11222911
66	0xbd367539	-0.044545386
67	0xbd86cf4b	-0.06582507
68	0xbf1bf849	-0.6092573
69	0xbe0c2f29	-0.13689865
70	0x3d02149e	0.031757943
71	0xbe4f6b31	-0.20255734
72	0xc02f29af	-2.7369192
73	0xbe40985f	-0.18808125
74	0xbef6d108	-0.48206353
75	0xbc517aec	-0.0127856545
76	0xbfffd892	-1.9987967
77	0xbe14e8ff	-0.14542006
78	0xbf231439	-0.6370273
79	0x3ac04185	0.0014667964
80	0xbefe6b1b	-0.4969109
81	0x3cb6f67c	0.02233433
82	0xbe9c5625	-0.30534473
83	0x3c40942e	0.011754079
84	0xbf6bdb82	-0.9213182
85	0x3ca25eb3	0.019820547
86	0xbe7060b3	-0.23474388
87	0x3db05115	0.08609215
88	0xbf1455d3	-0.5794346
89	0x3bdebd7c	0.0067974906
90	0xbf17db01	-0.5931855
91	0x392a48e7	0.00016239622
92	0xbf2b85b5	-0.67000896
93	0x3b8730ab	0.0041256747
94	0xbe9202f1	-0.2851787
95	0xbe30f19f	-0.17279671
96	0xbe0ede15	-0.13951905
97	0x3d80927d	0.062779404
98	0xbe61681c	-0.22012371
99	0x3a4d0cab	0.0007822017
100	0xbf071032	-0.5275909
101	0xbe99305f	-0.29919717
102	0xbe416a10	-0.18888116
103	0x3d442b4d	0.047892857
104	0x3f48ec7a	0.78485835
105	0x3e11d124	0.14239937
106	0xbe995d44	-0.2995397
107	0x3bd0c25b	0.006370825
108	0xbf0adbd9	-0.5424171
109	0xbcb0aa78	-0.02156566
110	0xbd4a93ae	-0.049457245
111	0xbd8d8b37	-0.06911319
112	0xbe940bd6	-0.2891528
113	0xbdabcafb	-0.08388325
114	0xbed6efe8	-0.4197991
115	0x3be3413b	0.0069352663
116	0xbf3f9c76	-0.74848115
117	0x3c4dbcbc	0.012557205
118	0xbf0533ef	-0.5203237
119	0x3c31bd73	0.010848391
120	0xbf1adae9	-0.6049028
121	0x3baecca6	0.0053344546
122	0xbf121683	-0.570656
123	0x3ae8ca91	0.0017760565
124	0xbe816033	-0.25268707
125	0xbdf44b94	-0.11928478
126	0xbf0c8969	-0.5489717
127	0x3c0d3f31	0.008621023

network.0.bias f4 [64]
0	0x3e429b5d	0.19004579
1	0x3f2012c7	0.6252865
2	0x3f31f70e	0.695176
3	0xbdfbe174	-0.12298861
4	0x3f106e6a	0.5641848
5	0x3f4d6d9f	0.80245394
6	0x3ebe8f6a	0.3721879
7	0x3eca67d8	0.39532351
8	0x00000000	0.0
9	0x00000000	0.0
10	0x3f49f28b	0.78885716
11	0x3f1cb96e	0.61220443
12	0x3ec578bd	0.38568678
13	0x00000000	0.0
14	0x00000000	0.0
15	0x3f221816	0.63318
16	0x3f78fb92	0.97258866
17	0x00000000	0.0
18	0xbd5334ad	-0.051563907
19	0xbde95edc	-0.11395046
20	0x3f1ab669	0.60434586
21	0xbd75f7c3	-0.060050737
22	0x3eae427e	0.34035105
23	0x00000000	0.0
24	0xbd92e75a	-0.07173033
25	0x3e036e4d	0.12835045
26	0x00000000	0.0
27	0x3ceaa9a8	0.028645352
28	0x00000000	0.0
29	0x3f2fb4c5	0.6863521
30	0x00000000	0.0
31	0xbe10e330	-0.14149165
32	0x00000000	0.0
33	0xbd51b9a5	-0.051202435
34	0x3f298bf0	0.6622915
35	0xbdaff387	-0.08591371
36	0x3eaa804f	0.33301017
37	0x3eeb708d	0.45984307
38	0x3e53726d	0.20649119
39	0x3f19a8ff	0.6002349
40	0x3f00b556	0.50276697
41	0x3e96f836	0.29486245
42	0x3f5d7cd9	0.8651863
43	0xbdacd85a	-0.08439703
44	0x3f0ba51a	0.545488
45	0x3f0efc72	0.5585395
46	0x3f221742	0.6331674
47	0x00000000	0.0
48	0xbd90d756	-0.07072322
49	0xbd75f907	-0.060051944
50	0x3f3cb5a4	0.7371466
51	0xbd757c56	-0.05993303
52	0x3e8df9c2	0.27729613
53	0x3e91257b	0.28348908
54	0x3f05c37d	0.52251416
55	0xbd75fbff	-0.060054775
56	0xbc8b4ad4	-0.017003454
57	0x3ecb0011	0.39648488
58	0x3f343d66	0.70406187
59	0x3f002263	0.5005247
60	0x3f13e95a	0.5777794
61	0x3f09d6b2	0.53843224
62	0x00000000	0.0
63	0x3f061204	0.5237124

network.2.weight f4 [64, 64]
0	0xbd922ace	-0.071370706
1	0xbe52b625	-0.20577295
2	0xbe9952d0	-0.29945993
3	0xbe256933	-0.16153412
4	0xbe3db9b2	-0.18527868
5	0xbd0b4456	-0.034000717
6	0xbeafc311	-0.3432851
7	0x3d47a770	0.048743665
8	0xbd10a2c9	-0.035311494
9	0xbe981656	-0.2970454
10	0xbe2dfea6	-0.16991672
11	0x3e6526ca	0.22378078
12	0xbeafb21e	-0.3431558
13	0xbd97258b	-0.07380208
14	0xbea76031	-0.32690576
15	0x3dfb2fc9	0.12264974
16	0x3c82750b	0.015924951
17	0xbd07599f	-0.033044454
18	0x3c5d2bb2	0.013499187
19	0xbd6371e5	-0.05552854
20	0xbd2bea5f	-0.04197156
21	0x3dc7bb24	0.09752491
22	0xbe9f8136	-0.31153268
23	0xbdfde032	-0.123962775
24	0xbdfcdea4	-0.12347153
25	0xbdbf76d6	-0.09348838
26	0x3d25204f	0.040314015
27	0x3cdec6fe	0.027194496
28	0xbe0d797a	-0.13815871
29	0xbec7f7c2	-0.39056212
30	0xbd2ba045	-0.04190089
31	0x3ec55aae	0.38545746
32	0x3d613dbc	0.054990515
33	0xbe4600ac	-0.19336194
34	0xbe41e42d	-0.18934698
35	0xbe699da9	-0.22814049
36	0xbe852d85	-0.2601129
37	0x3d80de28	0.06292373
38	0xbe699ff0	-0.22814918
39	0x3e71814e	0.23584482
40	0x3c7e6ec0	0.015529335
41	0x3c72f729	0.014829435
42	0xbe1559d0	-0.14585042
43	0xbdac8e09	-0.084255286
44	0xbea2de04	-0.3181001
45	0x3c9874a5	0.018610308
46	0xbe243a27	-0.16037808
47	0x3ea6630e	0.32497448
48	0xbe1394a9	-0.14412178
49	0x3e878a2d	0.26472607
50	0x3df966bc	0.12177798
51	0x3e83467d	0.25639716
52	0xbd7449e5	-0.059640784
53	0x3e21c176	0.15796456
54	0xbd800958	-0.06251782
55	0x3ddff2d0	0.10934985
56	0xbde5e74a	-0.112257555
57	0xbdfc3e2a	-0.12316544
58	0xbe00f1a4	-0.12592179
59	0xbda7bd00	-0.08190346
60	0xbda0318c	-0.0782195
61	0xbd94b150	-0.07260382
62	0x3eb72072	0.3576694
63	0x3e60b7ae	0.21945068
64	0x3e254b83	0.16142087
65	0x3e34f60e	0.17671987
66	0xbefcf709	-0.49407223
67	0x3d06f8a5	0.03295197
68	0xbdc38563	-0.09546926
69	0x3d28daf9	0.041224454
70	0xbd8df671	-0.069317706
71	0xbcf70b47	-0.030156745
72	0xbe72d8b3	-0.23715477
73	0xbe5d4c64	-0.21611172
74	0xbd89a61c	-0.06721136
75	0x3d87c5f9	0.06629557
76	0xbe00231c	-0.12513393
77	0x3e01810d	0.12646885
78	0x3ddb0d8b	0.106959425
79	0x3d2c184c	0.04201536
80	0xbe935ebd	-0.28783217
81	0x3d1ad7b7	0.037803378
82	0xbe7251bf	-0.23663996
83	0xbe2fb03a	-0.17157069
84	0xbdc8ff3c	-0.09814307
85	0xbc9b2467	-0.018938256
86	0xbe2a552b	-0.16634052
87	0xbec037dd	-0.3754262
88	0x3e24fb96	0.16111597
89	0xbda720e2	-0.08160569
90	0x3e80cd39	0.25156572
91	0xbef5109d	-0.47864237
92	0x3cc0f51d	0.02355438
93	0xbdedd1f1	-0.11612309
94	0xbe3130de	-0.17303798
95	0xbe52ed38	-0.20598304
96	0x3daee911	0.08540548
97	0x3d8ddd78	0.069270074
98	0x3e37c5be	0.17946526
99	0xbe077060	-0.13226461
100	0xbdccc4ca	-0.09998472
101	0xbe3e97e0	-0.18612623
102	0x3e3c1580	0.18367577
103	0xbe3771fb	-0.17914574
104	0xbb511920	-0.0031905845
105	0xbe978718	-0.29595256
106	0x3e3f9f8b	0.18713205
107	0x3e130715	0.1435817
108	0xbe080b1a	-0.13285485
109	0x3ebd4c5f	0.3697233
110	0x3e6ba538	0.23012245
111	0xbd0dc640	-0.034612894
112	0x3e0f41d9	0.13989963
113	0xbe37525f	-0.17902516
114	0x3c8dd0bd	0.017311448
115	0x3e38b0db	0.18036215
116	0xbd9393e9	-0.07205946
117	0xbe3e9582	-0.1861172
118	0x3e5f67d3	0.2181695
119	0xbe112bc8	-0.14176857
120	0x3d806f83	0.06271269
121	0x3e86c797	0.2632415
122	0xbe0d09c2	-0.13773254
123	0xbd459e8e	-0.048246913
124	0xbe393f56	-0.18090567
125	0xbbb4ba8e	-0.005515403
126	0x3e3400dd	0.17578454
127	0xbdb97ef1	-0.09057415
128	0xbe538be4	-0.20658833
129	0x3f07ddb6	0.5307268
130	0x3ed2bbaf	0.41158816
131	0xbe072fa3	-0.13201766
132	0x3e888456	0.26663464
133	0x3f84e9d0	1.0383854
134	0x3e909397	0.28237602
135	0xbe90bcad	-0.28268948
136	0x3dccba7c	0.099965066
137	0x3e5ad623	0.21370749
138	0xbfd152a8	-1.635335
139	0x3ec4521f	0.38343903
140	0xbf802f67	-1.0014466
141	0x3eac6fa3	0.33678922
142	0xbcb4aeb0	-0.022055954
143	0x3eff3a23	0.49849042
144	0x3fa3613e	1.2764051
145	0x3edc5a95	0.4303786
146	0x3dc6a18a	0.0969878
147	0x3c96838a	0.01837327
148	0x3e236cbb	0.15959446
149	0x3e8722c2	0.26393706
150	0x3cc8241e	0.024431285
151	0xbd517833	-0.05114002
152	0xbe450f6c	-0.19244164
153	0x3dd31e5b	0.10308524
154	0xbde4b708	-0.11167723
155	0x3db66dbe	0.089076504
156	0xbdab042f	-0.08350407
157	0x3f3ba4d8	0.73298407
158	0xbd78810c	-0.060669944
159	0x3c864b68	0.016393378
160	0xbdcdbde3	-0.10045984
161	0xbe84509b	-0.25842747
162	0x3f0cc237	0.5498385
163	0xbdd19911	-0.10234273
164	0xbee86f45	-0.45397392
165	0x3e803e0b	0.25047335
166	0xbea7dd7c	-0.32786167
167	0x3ea13f15	0.3149344
168	0x3e516c64	0.20451504
169	0x3ecd9976	0.40156144
170	0x3f986579	1.1905967
171	0x3de543ba	0.111945584
172	0x3ddb8a9c	0.10719797
173	0x3e9d0774	0.3066975
174	0x3f0b34ef	0.54377645
175	0xbddf7bca	-0.10912283
176	0xbe31efca	-0.17376629
177	0x3d2ae35a	0.041720726
178	0x3ec8f866	0.39252013
179	0x3de10c6c	0.109886974
180	0x3e295b73	0.16538791
181	0xbde275c6	-0.1105762
182	0x3ec65edb	0.38744244
183	0xbe04cf20	-0.12969637
184	0xbd2786b4	-0.040899947
185	0x3ee02f5a	0.43786126
186	0x3f12dddc	0.5736978
187	0x3d122dfc	0.035688385
188	0x3f18ccd7	0.5968756
189	0x3e9b0083	0.30273828
190	0x3e36bc29	0.17845215
191	0x3ea564a4	0.32303345
192	0xbdffcef8	-0.12490648
193	0x3ede03e2	0.43362337
194	0x3eb5fa3d	0.3554248
195	0xbdedb9ae	-0.11607681
196	0x3e6d80fe	0.23193738
197	0x3f300671	0.6875983
198	0x3ebe5fa8	0.37182355
199	0x3e6cd821	0.23129322
200	0x3c055bc9	0.008139559
201	0xbe84edce	-0.2596268
202	0xbfe50a48	-1.7893763
203	0x3ea112bf	0.31459615
204	0xbf734faf	-0.9504346
205	0x3e05c179	0.13062085
206	0xbde13c6e	-0.10997854
207	0x3e0dc46d	0.13844462
208	0x3f9ea89e	1.2395208
209	0x3d6abd45	0.057309408
210	0x3b49e8a6	0.0030808835
211	0x3cb20cb6	0.021734577
212	0x3f690eb5	0.91038066
213	0xbe1993a7	-0.14997731
214	0x3e3b2c5f	0.18278645
215	0x3dce9e77	0.100888185
216	0x3d217b21	0.039424066
217	0x3db17df5	0.086666025
218	0xbe6079b7	-0.2192143
219	0xbd96f822	-0.07371546
220	0x3dfd6557	0.12372845
221	0x3f510bd4	0.81658673
222	0xbddc546c	-0.1075829
223	0x3e726fd0	0.23675466
224	0xbd128457	-0.03577074
225	0xbd8e7ce8	-0.06957418
226	0x3e10a231	0.14124371
227	0x3d24e631	0.04025859
228	0xbf44f8b1	-0.7694197
229	0x3e101a24	0.14072472
230	0xbddd1ab7	-0.10796111
231	0x3f1719b3	0.5902359
232	0x3e9f4bb0	0.31112432
233	0xbd559edc	-0.052153453
234	0x3f441554	0.76595044
235	0x3e8796f0	0.26482344
236	0x3ec7cf05	0.3902513
237	0x3ef3bb20	0.47603703
238	0x3f125cd4	0.57172894
239	0xbd7bf5c1	-0.061513666
240	0x3e6b1119	0.22955741
241	0x3ea41b75	0.32052198
242	0x3eebc0c1	0.46045497
243	0x3e94f55a	0.29093438
244	0xbc856494	-0.016283311
245	0x3d2c2513	0.042027544
246	0x3f2b50a3	0.66919917
247	0x3e0113d4	0.1260522
248	0xbe4939ba	-0.19650927
249	0x3cd132b8	0.02553688
250	0x3f279ca6	0.654734
251	0x3e50bcbb	0.20384495
252	0x3eef3ffc	0.46728504
253	0x3ee50632	0.4473129
254	0xbdaf1d31	-0.0855049
255	0xbdeba559	-0.11506147

network.2.bias f4 [64]
0	0x3bbf7340	0.0058425963
1	0xbdb79b96	-0.089652225
2	0x3f1c73ab	0.61113995
3	0x3f160e3b	0.58615464
4	0x3f15e4e8	0.5855241
5	0xbd75fc02	-0.060054787
6	0x00000000	0.0
7	0x00000000	0.0
8	0x3f1aeac6	0.60514486
9	0xbe0b74b2	-0.13618734
10	0x3f1d7c58	0.6151786
11	0x00000000	0.0
12	0x3f1d73e8	0.61504984
13	0x00000000	0.0
14	0x3f201b83	0.6254198
15	0x3f1bba35	0.60831004
16	0x3f122a27	0.5709557
17	0xbdb820a3	-0.089906
18	0x3f1af1b7	0.6052508
19	0x3f1777db	0.5916726
20	0xbdc834e9	-0.09775717
21	0x00000000	0.0
22	0xbd8dcfc6	-0.06924395
23	0x3f1f4c17	0.6222548
24	0x3f20e4f7	0.6284937
25	0xbce64d16	-0.02811293
26	0x3f072ae9	0.5279985
27	0x3f197858	0.59949255
28	0x3f178632	0.5918914
29	0xbd75f591	-0.060048643
30	0x00000000	0.0
31	0x3f1dcf23	0.6164419
32	0x3f213c48	0.62982607
33	0x3f10eab7	0.56608146
34	0x3f1b2992	0.60610306
35	0xbd766c40	-0.06016183
36	0xbd87d777	-0.066328935
37	0xbd63ac1e	-0.055584066
38	0x3fc9a17a	1.5752404
39	0x3f12a599	0.5728393
40	0x3f1cea27	0.6129479
41	0x3f236b24	0.6383536
42	0x00000000	0.0
43	0xbd75f4bf	-0.06004786
44	0x00000000	0.0
45	0xbda651f4	-0.081211
46	0x3f1e8ca8	0.61933374
47	0x3f215561	0.630209
48	0xbd51f53c	-0.051259264
49	0xbd8aea63	-0.06782987
50	0x3f025c17	0.5092177
51	0x3f157e8a	0.5839621
52	0x3f2860ee	0.657729
53	0xbd75fb4d	-0.060054112
54	0xbd81251a	-0.06305905
55	0x3f24a9d0	0.64321613
56	0xbd85aaad	-0.065266944
57	0xbd8947fb	-0.06703182
58	0x3f221da6	0.6332649
59	0x3f1fe48b	0.62458104
60	0xbc5ebeab	-0.0135952635
61	0xbd9de5d6	-0.07709853
62	0x3f2557d9	0.6458717
63	0x3f1825ec	0.59432864

network.4.weight f4 [1, 64]
0	0x3db1c657	0.086804084
1	0xbd9ce9c5	-0.076617755
2	0x3efb75b4	0.49113238
3	0x3ef712f7	0.48256657
4	0x3f00347f	0.500801
5	0x3d41b48d	0.047291327
6	0x3c393479	0.011304014
7	0xbc63f7d8	-0.013914071
8	0x3f08d280	0.534462
9	0x3d585f06	0.052824996
10	0x3f024923	0.5089285
11	0x3c0632f7	0.008190862
12	0x3f0cac51	0.54950434
13	0x3b5d1953	0.0033737018
14	0x3f12689a	0.5719086
15	0x3f0b4d6e	0.54415023
16	0x3efc6add	0.4930028
17	0xbc4c48c8	-0.012468524
18	0x3ef5d766	0.48015898
19	0x3f05f8fa	0.52333033
20	0xbdb82105	-0.08990673
21	0x3a93e66f	0.0011283885
22	0x3d3721a8	0.04470983
23	0x3f118516	0.568437
24	0x3f09f000	0.53881836
25	0x3d774966	0.060372733
26	0x3ec92f16	0.39293736
27	0x3f06b349	0.5261732
28	0x3eede520	0.4646387
29	0x3d616ebe	0.055037253
30	0xbc1c36d5	-0.009534557
31	0x3f0a64cb	0.5406005
32	0x3f128db3	0.57247466
33	0x3eeeaad6	0.46614712
34	0x3f0b36fb	0.5438077
35	0x3d458bc3	0.04822899
36	0x3d42d870	0.047569692
37	0x3d45aa89	0.048258338
38	0xc03fc720	-2.9965286
39	0x3ef06896	0.46954793
40	0x3f0ec2c1	0.5576592
41	0x3f138e7a	0.57639277
42	0x3b014cc9	0.0019729605
43	0x3d63a8d9	0.055580948
44	0x3ca0e13d	0.019638652
45	0x3d4a1624	0.04933752
46	0x3f06aac7	0.52604336
47	0x3f0f20d3	0.5590946
48	0x3cf14299	0.029450702
49	0x3d44ac06	0.048015617
50	0x3ee99ba7	0.45626566
51	0x3ef12a08	0.4710238
52	0x3f01bc93	0.50678366
53	0x3d33bc12	0.04388053
54	0x3d46d68b	0.048544448
55	0x3f17ae61	0.59250456
56	0x3d6cde28	0.057829052
57	0x3d4eaed4	0.050459698
58	0x3f0d9c82	0.55316937
59	0x3f16b58e	0.5887078
60	0xb994ac93	-0.00028357338
61	0x3d6ac2a8	0.057314545
62	0x3f1d1b3f	0.613697
63	0x3f05976f	0.52184194

exp_avg f4 [64, 2]
0	0xbb630c85	-0.0034644913
1	0xb9f9dd71	-0.00047657968
2	0x00000000	0.0
3	0x00000000	0.0
4	0x00000004	6e-45
5	0x00000004	6e-45
6	0x00000004	6e-45
7	0x00000004	6e-45
8	0x00000004	6e-45
9	0x00000004	6e-45
10	0x00000000	0.0
11	0x00000000	0.0
12	0x00000004	6e-45
13	0x00000004	6e-45
14	0x00000004	6e-45
15	0x00000004	6e-45
16	0x00000000	0.0
17	0x00000000	0.0
18	0x80000004	-6e-45
19	0x00000004	6e-45
20	0x00000000	0.0
21	0x00000000	0.0
22	0x00000004	6e-45
23	0x00000004	6e-45
24	0x00000004	6e-45
25	0x00000004	6e-45
26	0x00000004	6e-45
27	0x00000004	6e-45
28	0x00000000	0.0
29	0x00000000	0.0
30	0x00000000	0.0
31	0x00000000	0.0
32	0x00000004	6e-45
33	0x00000004	6e-45
34	0x00000000	0.0
35	0x00000000	0.0
36	0xbbef7f9f	-0.007308915
37	0xbacc0ca9	-0.0015567738
38	0x00000000	0.0
39	0x00000004	6e-45
40	0x38605aaa	5.34902e-05
41	0x366c5039	3.5213436e-06
42	0x00000000	0.0
43	0x00000000	0.0
44	0xb90878e0	-0.00013015
45	0xb8872b18	-6.4453285e-05
46	0x00000000	0.0
47	0x00000000	0.0
48	0x00000004	6e-45
49	0x00000004	6e-45
50	0x00000000	0.0
51	0x00000000	0.0
52	0xbb992378	-0.0046734177
53	0xbaf55801	-0.0018718244
54	0x00000004	6e-45
55	0x00000004	6e-45
56	0x00000000	0.0
57	0x00000000	0.0
58	0x00000004	6e-45
59	0x00000004	6e-45
60	0x00000004	6e-45
61	0x00000004	6e-45
62	0x00000000	0.0
63	0x00000000	0.0
64	0x00000004	6e-45
65	0x00000004	6e-45
66	0x00000004	6e-45
67	0x00000004	6e-45
68	0x00000000	0.0
69	0x00000000	0.0
70	0x00000004	6e-45
71	0x00000004	6e-45
72	0x00000004	6e-45
73	0x00000004	6e-45
74	0x00000004	6e-45
75	0x00000004	6e-45
76	0x00000004	6e-45
77	0x00000004	6e-45
78	0x00000000	0.0
79	0x00000000	0.0
80	0x00000004	6e-45
81	0x00000004	6e-45
82	0x00000004	6e-45
83	0x00000004	6e-45
84	0x00000004	6e-45
85	0x00000004	6e-45
86	0x00000000	0.0
87	0x00000000	0.0
88	0x00000004	6e-45
89	0x00000004	6e-45
90	0x00000004	6e-45
91	0x00000004	6e-45
92	0x00000004	6e-45
93	0x00000004	6e-45
94	0x00000000	0.0
95	0x00000000	0.0
96	0x00000000	0.0
97	0x00000000	0.0
98	0x00000004	6e-45
99	0x00000004	6e-45
100	0x00000004	6e-45
101	0x00000004	6e-45
102	0x00000004	6e-45
103	0x00000004	6e-45
104	0x00000000	0.0
105	0x00000000	0.0
106	0x00000000	0.0
107	0x00000000	0.0
108	0x00000000	0.0
109	0x00000000	0.0
110	0x00000004	6e-45
111	0x00000004	6e-45
112	0x00000004	6e-45
113	0x00000004	6e-45
114	0x00000000	0.0
115	0x00000004	6e-45
116	0x00000004	6e-45
117	0x00000004	6e-45
118	0x00000000	0.0
119	0x00000000	0.0
120	0x00000004	6e-45
121	0x00000004	6e-45
122	0x00000000	0.0
123	0x00000000	0.0
124	0x00000000	0.0
125	0x00000000	0.0
126	0x00000004	6e-45
127	0x80000004	-6e-45

exp_avg_sq f4 [64, 2]
0	0x39c70bc6	0.0003796501
1	0x37ad9934	2.0694548e-05
2	0x00000000	0.0
3	0x00000000	0.0
4	0x2e06a554	3.0614913e-11
5	0x2c43bda3	2.7816436e-12
6	0x2f2be952	1.5635251e-10
7	0x2d862747	1.5251479e-11
8	0x2eed2be9	1.0785312e-10
9	0x2ce2134c	6.4254487e-12
10	0x00000000	0.0
11	0x00000000	0.0
12	0x2c65cf46	3.2657917e-12
13	0x2a5535f7	1.8936923e-13
14	0x2ea67033	7.5687366e-11
15	0x2cb79712	5.217945e-12
16	0x00000000	0.0
17	0x00000000	0.0
18	0x248d7275	6.13429e-17
19	0x24af7e12	7.6107723e-17
20	0x00000000	0.0
21	0x00000000	0.0
22	0x2f3133a5	1.6116404e-10
23	0x2d56a6fe	1.2201571e-11
24	0x2b87efec	9.658919e-13
25	0x2938c5db	4.102782e-14
26	0x2f99c70c	2.797197e-10
27	0x2d9b2263	1.763673e-11
28	0x00000000	0.0
29	0x00000000	0.0
30	0x00000000	0.0
31	0x00000000	0.0
32	0x30a9a299	1.2342581e-09
33	0x2eae83be	7.936006e-11
34	0x00000000	0.0
35	0x00000000	0.0
36	0x3a80137d	0.0009771433
37	0x3881f6fd	6.1972045e-05
38	0x00000000	0.0
39	0x23b725cc	1.9856907e-17
40	0x35ff4ecd	1.9021915e-06
41	0x3332c8c4	4.162645e-08
42	0x00000000	0.0
43	0x00000000	0.0
44	0x355b62c1	8.1727563e-07
45	0x3515a61e	5.574856e-07
46	0x00000000	0.0
47	0x00000000	0.0
48	0x2c5bb719	3.1223411e-12
49	0x2bd8c075	1.5401141e-12
50	0x00000000	0.0
51	0x00000000	0.0
52	0x3b2e6f4c	0.002661663
53	0x39401427	0.00018318054
54	0x2b9b335c	1.1027667e-12
55	0x29328cf2	3.964619e-14
56	0x00000000	0.0
57	0x00000000	0.0
58	0x2682e817	9.08347e-16
59	0x277a966b	3.4776011e-15
60	0x31b541f7	5.2752926e-09
61	0x2f9c54cc	2.8436486e-10
62	0x00000000	0.0
63	0x00000000	0.0
64	0x230e0696	7.69923e-18
65	0x2567c77e	2.0103647e-16
66	0x2ceca7f8	6.7261717e-12
67	0x2b028d97	4.6381773e-13
68	0x00000000	0.0
69	0x00000000	0.0
70	0x2f281a21	1.5288794e-10
71	0x2d17e66a	8.6345184e-12
72	0x2ca27115	4.6168716e-12
73	0x2ab236dd	3.165722e-13
74	0x2a9def23	2.8054737e-13
75	0x29fc4251	1.1202552e-13
76	0x2cce0bee	5.8561966e-12
77	0x2ab4b272	3.2098244e-13
78	0x00000000	0.0
79	0x00000000	0.0
80	0x2c129e52	2.0835733e-12
81	0x29a22514	7.200677e-14
82	0x2e804e3c	5.834663e-11
83	0x2c134ab1	2.0931418e-12
84	0x30b3cd61	1.3082336e-09
85	0x2eafab0a	7.988461e-11
86	0x00000000	0.0
87	0x00000000	0.0
88	0x2e0d3fbf	3.2116306e-11
89	0x2cb726a2	5.205462e-12
90	0x2c91204e	4.1247344e-12
91	0x2ad6ee95	3.8179586e-13
92	0x2d28e2f1	9.6000855e-12
93	0x2bc4a507	1.3972442e-12
94	0x00000000	0.0
95	0x00000000	0.0
96	0x00000000	0.0
97	0x00000000	0.0
98	0x2d383b11	1.04723044e-11
99	0x2abd0f09	3.3583577e-13
100	0x2ea1f1f2	7.3644105e-11
101	0x2ca5d9a1	4.7137437e-12
102	0x2eb67893	8.29782e-11
103	0x2cd7642c	6.121789e-12
104	0x00000000	0.0
105	0x00000000	0.0
106	0x00000000	0.0
107	0x00000000	0.0
108	0x00000000	0.0
109	0x00000000	0.0
110	0x3011e48d	5.3075483e-10
111	0x2e47a1b1	4.5390972e-11
112	0x30da213e	1.5871036e-09
113	0x2eb68689	8.3003e-11
114	0x00000000	0.0
115	0x25296312	1.469198e-16
116	0x2eea4437	1.06532054e-10
117	0x2d075624	7.692989e-12
118	0x00000000	0.0
119	0x00000000	0.0
120	0x25b14934	3.075421e-16
121	0x270de34a	1.9690894e-15
122	0x00000000	0.0
123	0x00000000	0.0
124	0x00000000	0.0
125	0x00000000	0.0
126	0x25bed1b1	3.3101838e-16
127	0x25a2c57b	2.8236338e-16

exp_avg f4 [64]
0	0xbb5324b2	-0.0032217917
1	0x00000000	0.0
2	0x00000004	6e-45
3	0x00000004	6e-45
4	0x00000004	6e-45
5	0x00000000	0.0
6	0x00000004	6e-45
7	0x00000004	6e-45
8	0x00000000	0.0
9	0x00000004	6e-45
10	0x00000000	0.0
11	0x00000004	6e-45
12	0x00000004	6e-45
13	0x00000004	6e-45
14	0x00000000	0.0
15	0x00000000	0.0
16	0x00000004	6e-45
17	0x00000000	0.0
18	0xbc1a5deb	-0.009421806
19	0x00000004	6e-45
20	0x3870ffef	5.7458816e-05
21	0x00000000	0.0
22	0xba720d34	-0.0009233535
23	0x00000000	0.0
24	0x00000004	6e-45
25	0x00000000	0.0
26	0xbbad42b4	-0.0052874926
27	0x00000004	6e-45
28	0x00000000	0.0
29	0x00000004	6e-45
30	0x00000004	6e-45
31	0x00000000	0.0
32	0x00000004	6e-45
33	0x00000004	6e-45
34	0x00000000	0.0
35	0x00000004	6e-45
36	0x00000004	6e-45
37	0x00000004	6e-45
38	0x00000004	6e-45
39	0x00000000	0.0
40	0x00000004	6e-45
41	0x00000004	6e-45
42	0x00000004	6e-45
43	0x00000000	0.0
44	0x00000004	6e-45
45	0x00000004	6e-45
46	0x00000004	6e-45
47	0x00000000	0.0
48	0x00000000	0.0
49	0x00000004	6e-45
50	0x00000004	6e-45
51	0x00000004	6e-45
52	0x00000000	0.0
53	0x00000000	0.0
54	0x00000000	0.0
55	0x00000004	6e-45
56	0x00000004	6e-45
57	0x00000004	6e-45
58	0x00000004	6e-45
59	0x00000000	0.0
60	0x00000004	6e-45
61	0x00000000	0.0
62	0x00000000	0.0
63	0x00000004	6e-45

exp_avg_sq f4 [64]
0	0x3a3ef517	0.0007284446
1	0x00000000	0.0
2	0x2f1d5bc0	1.4311663e-10
3	0x2f8054de	2.3343366e-10
4	0x2f3e2670	1.7294055e-10
5	0x00000000	0.0
6	0x2d10640b	8.207666e-12
7	0x2f796317	2.2681622e-10
8	0x00000000	0.0
9	0x28cd5b9e	2.2799305e-14
10	0x00000000	0.0
11	0x302ac82f	6.213012e-10
12	0x2c200d42	2.2744727e-12
13	0x3055f912	7.78429e-10
14	0x00000000	0.0
15	0x00000000	0.0
16	0x31745a43	3.555798e-09
17	0x00000000	0.0
18	0x3b0dda93	0.0021645173
19	0x2790dbf2	4.0206494e-15
20	0x362d0f6c	2.5787986e-06
21	0x00000000	0.0
22	0x38bb1d70	8.922338e-05
23	0x00000000	0.0
24	0x2d3903d2	1.0516881e-11
25	0x00000000	0.0
26	0x3b6ac319	0.0035821854
27	0x2c07ffd9	1.9326678e-12
28	0x00000000	0.0
29	0x2b3eb74e	6.7755946e-13
30	0x32107486	8.4083975e-09
31	0x00000000	0.0
32	0x29256d16	3.6731977e-14
33	0x2d4be70f	1.1590519e-11
34	0x00000000	0.0
35	0x2f7c8dab	2.2969597e-10
36	0x2d3402ef	1.0232467e-11
37	0x2c91a8a8	4.1398725e-12
38	0x2d3a2386	1.0580764e-11
39	0x00000000	0.0
40	0x2c3f852f	2.7216664e-12
41	0x2eda9402	9.939784e-11
42	0x3181e6a0	3.780613e-09
43	0x00000000	0.0
44	0x2e95bd5e	6.809374e-11
45	0x2d18fdc4	8.696547e-12
46	0x2e019d71	2.947104e-11
47	0x00000000	0.0
48	0x00000000	0.0
49	0x2d99acf4	1.7470893e-11
50	0x2f3a5329	1.6946146e-10
51	0x2fa5694c	3.0088143e-10
52	0x00000000	0.0
53	0x00000000	0.0
54	0x00000000	0.0
55	0x314b52ba	2.9587413e-09
56	0x3126da8e	2.4280413e-09
57	0x2905f9b5	2.974852e-14
58	0x2fc42546	3.5678677e-10
59	0x00000000	0.0
60	0x2af55028	4.3576362e-13
61	0x00000000	0.0
62	0x00000000	0.0
63	0x291bbdd2	3.4581557e-14
