data/results/gbwm_8goals_bs4800_lr0.01/final_model.pth (torch, 199283 bytes, 39 tensors)

shared_backbone.0.weight f4 [64, 2]
00000000: 9b8e 3fbe 938f 21be c53a bbbe c496 053e
00000010: 6014 253c fdfa 4ebd 4d40 43be f40f c83d
00000020: 6827 48bd 966a 30be 5bda 89be 7caf 83bd
00000030: 07f8 183d 6e85 92be a5b4 ffbd 79bc ed3d
00000040: 1537 5bbe 2ed2 9fba afd1 04be b4ec 88bd
00000050: b477 39bd eb36 edbd 4d2a 7abe 7f43 233c
00000060: 9197 863c 96e1 c83c c81d c8bd 85f6 e93b
00000070: 1529 1fbe b074 2e3e 7e2f f2bc 61e1 4fbe
00000080: 9efb 4abe 0fb7 b03d 359d 8bbe 801b 92be
00000090: 4295 283f 4591 37be fcf4 06be 2368 95bd
000000a0: 7c45 2abe 842e b4bd 2d0b e7bd e990 34be
000000b0: ab14 3cbe 6527 683d 25db 003c a16a bebd
000000c0: 5efa 243d 5820 ccbe 6b5a 913c 1e08 d2bd
000000d0: e7c6 9dbd 1211 b2bd c96c 80bd 4015 f73d
000000e0: 26a3 303e cb1e 85be 13ad f9bc 79f6 c23c
000000f0: c139 28bd 59c8 3abe 3353 153d a5ad 91be
00000100: d4fb 3fbd 3b51 20be 9317 8bbc e3b4 f1bd
00000110: 0421 89be 8e81 39bc a853 b2bc fa4b 10be
00000120: a6a5 27be 0eb9 e5bd 05a3 dcbd acd3 bfbd
00000130: d712 0c3e b8bb 32be abdd 633e cea9 47be
00000140: f7ad f8bd 5038 9dbd 8f96 00be 1e21 42bb
00000150: 8c46 42be 3fad 4a3d fac7 1bbc a3be 253d
00000160: cfa7 c53d 942a 99be f3dd a03d c949 df3c
00000170: 8b75 9a3c d9e2 12bf 3786 e7bd 8f37 d3bc
00000180: be6b c5bc fa43 3bbd 93d5 fcbc bcf2 0cbd
00000190: 8918 a0be acd0 5a3e 3a8d 96be 6de6 893e
000001a0: cc24 04bd 7ab0 b3bc f5af b5bc 9ac5 4dbe
000001b0: c73a f9bc 4522 a2be 2a7b 443e 4be6 70be
000001c0: 818b fd3c f467 363d 1b42 8cbe 2495 38bc
000001d0: a05a f03b 233c 46bd 0e6a 9d3e 9f9c 67be
000001e0: 4b55 4aba e60f 743d 3d7e 09be b463 89be
000001f0: fda7 983c c5aa 67bc a5c2 f8bd 2d7f 36bc
-0.18706743 -0.15777425 -0.36568275 0.13045794 0.010075659 -0.05053233 -0.19067498 0.09768668
-0.048865706 -0.1722816 -0.26924405 -0.06429955 0.037345912 -0.28617424 -0.12485627 0.11608214
-0.21407731 -0.0012193376 -0.12970613 -0.066857725 -0.045280173 -0.115827404 -0.24430199 0.009964823
0.016429694 0.02452163 -0.09771305 0.007139983 -0.15543015 0.170367 -0.029563662 -0.20300819
-0.19822547 0.08628666 -0.27268377 -0.28536606 0.6585275 -0.1792651 -0.13179392 -0.07295253
-0.16628069 -0.08797935 -0.112814285 -0.17633404 -0.18367259 0.056678195 0.007864748 -0.092976816
0.04027783 -0.39868426 0.01774331 -0.102554545 -0.07703953 -0.08694662 -0.06270749 0.120646
0.17249736 -0.26000056 -0.030478036 0.023799168 -0.041070703 -0.18240489 0.036456298 -0.28452793
-0.04687102 -0.15655987 -0.016979015 -0.118020795 -0.26783 -0.011322392 -0.021768406 -0.14091483
-0.16371784 -0.11216937 -0.10773281 -0.09366545 0.13679062 -0.17454422 0.22252528 -0.19498369
-0.12142556 -0.076767564 -0.12557434 -0.002962179 -0.18972224 0.049481627 -0.009508127 0.04046501
0.096511476 -0.29915297 0.078548335 0.027256863 0.018854877 -0.5737739 -0.11304896 -0.025783328
-0.024099227 -0.045719124 -0.030863559 -0.034411177 -0.3126872 0.21368665 -0.29404622 0.26933613
-0.032261655 -0.021934737 -0.02217863 -0.2009491 -0.030423535 -0.3166677 0.19187608 -0.2352535
0.03095031 0.04453273 -0.27394184 -0.011266027 0.007335022 -0.048397195 0.30744976 -0.2261834
-0.0007718398 0.059585474 -0.13427062 -0.2683388 0.01863479 -0.014139836 -0.121465005 -0.0111387195

shared_backbone.0.bias f4 [64]
00000000: 0000 0000 7f56 4bbd fc64 96bc 2336 8cbd
00000010: 3efb 75bd 0000 0000 c5cd 0cbd c01d 8bbd
00000020: 0000 0000 0000 0000 c48b ffbc a21c 8dbc
00000030: 580a adbd 99fb 75bd 6ec3 25be 0000 0000
00000040: 1d5f bdbc 0000 0000 8079 1dbf 0000 0000
00000050: 0000 0000 0000 0000 15fc 75bd a4ad f9bd
00000060: 88c9 f3bc 774e f6bd 0000 0000 dadf 10be
00000070: 0e5c 2fbe c4a6 1abe 0000 0000 b8b0 05be
00000080: 4a03 5bbd ba5e 7dbd 0000 0000 6251 b4bd
00000090: 0000 0000 0000 0000 d7f3 04be 4aef 6fbe
000000a0: 0000 0000 0000 0000 31f6 8cbd dc12 65bd
000000b0: 0856 b0bd 8e92 fcbd a5f4 1cbc 0000 0000
000000c0: 0000 0000 835f 7fbd 70b1 88bd 127d 83be
000000d0: 50dc bcbd a9af 173c 0dfc 75bd f979 2dbe
000000e0: 1300 dfbd 33f9 75bd e870 13be 61e5 cdbe
000000f0: 1e13 e3bd 0000 0000 11eb 41bd 5ffb 75bd
0.0 -0.049643036 -0.0183587 -0.06846263 -0.060054056 0.0 -0.034375925 -0.06792784
0.0 0.0 -0.031194575 -0.017225567 -0.084492385 -0.060054395 -0.16187832 0.0
-0.023116643 0.0 -0.6151352 0.0 0.0 0.0 -0.060054857 -0.121913224
-0.029759184 -0.12026685 0.0 -0.14147893 -0.1712496 -0.15102679 0.0 -0.13055694
-0.053469934 -0.061857916 0.0 -0.08804585 0.0 0.0 -0.12983643 -0.23431125
0.0 0.0 -0.06882895 -0.05592619 -0.08610159 -0.123326406 -0.009579812 0.0
0.0 -0.062346946 -0.066744685 -0.2568136 -0.09221709 0.009258189 -0.060054827 -0.1694106
-0.10888686 -0.060052108 -0.14398539 -0.40214065 -0.11087631 0.0 -0.047343317 -0.06005418

shared_backbone.2.weight f4 [64, 64]
00000000: 3981 0bbe 984a 0c3e 3bc4 89be 9175 90be
00000010: 987c 863e ee5c 0bbe c893 47be 4e38 36be
00000020: 2854 90be ef13 023e b86a cc3c d05d 0b3e
00000030: 3c2c 243e e46d adbe 17df a43c 58a7 92bd
00000040: a16a 0bbd 225e aa3e 8057 9ebe d26f 32bd
00000050: 8a9c 27be 428a 653e eb39 61be 2450 dc3d
00000060: 905a 3f3d ede0 c43d 19d6 923e 7d7c ccbe
00000070: 27d6 833d efb3 44be ab1f 023e 4960 89bd
00000080: aa7f f43d e2ae 1bbe 6499 f23d 5f9d 5dbd
00000090: 104c 7f3c ebac 24be ec48 ffbd 2ece 14be
000000a0: 0103 833c 30fc 9b3e efe3 133c a44d fd3d
000000b0: 66c1 09be e871 89bc 065c d03d f8f7 ca3c
000000c0: af35 eb3d b71f 1f3c ab02 833e aeb8 0b3d
000000d0: 5db8 783e 568d fcbe c7e8 86bd 85f1 ae3d
000000e0: 2280 e3bd 8697 7c3e 9431 ee3d ac39 41be
000000f0: 8108 563e 9b8d 403d c4f1 9dbb b3c1 733e
00000100: 7875 833d 93c8 483e 033a 003e 1e9c 14be
00000110: 68c4 4bbd 6831 12bd 12c9 88be 5571 a3be
00000120: 5be6 4b3e 3622 38be 278c d1bc d4f7 883e
00000130: 5de1 5ebd 5d2c c63d 095b bcbe f508 93bc
00000140: efb7 07bf b468 b83d b405 0dbe 2ad5 84bd
00000150: 5f15 2b3e fcdb 693e fb45 cc3e 61a9 97be
00000160: 6b19 83be d276 8cbc 61f0 363e 4dfd 96bd
00000170: 674b 9a3e c8e9 59bd c91b b53e b6d4 9dbe
00000180: 1445 703d 6d2f 8a3d 59fd 723e 65a0 48be
00000190: 65c8 053e 8139 52bd 4bd4 a8bd 161d 61be
000001a0: acfa 90bd 72b5 de3c e6f6 4f3d 68d9 56be
000001b0: 9bd0 a43d 41d5 903b 57b0 dd3d 2099 2a3d
000001c0: 2781 bfbd 74d0 33be 8c79 16be 61a5 32bd
000001d0: 6235 1e3e 203a 2a3d 9773 763d c00a f4bd
000001e0: d056 0b3e 5ec5 0cbd 0315 6d3e 1f87 aa3d
000001f0: 4303 dd3c 4992 633d 98fd 1b3e 6f66 12be
00000200: 85dc afbe f683 dcbd 4454 40be 8c59 f9bd
00000210: d5ed 8c3d 56ac 263d 4630 893c 35dd 503e
00000220: 4194 39be d140 14be e3a5 22bc e29d 04bd
00000230: cc92 7c3e 2164 8a3e 8beb 7b3e 3477 aabd
00000240: 4656 75bd 04f4 c8be a385 d7bd 1f32 f03d
00000250: 5427 193d 98ce 1ebe ab18 843d 7b43 9bbe
00000260: 338a a6bd fa87 453e e856 4b3d 60e9 f2bd
00000270: 5b23 59be 17c5 063e 17da a83d d5ab 853d
00000280: 0fb9 c83d 70a1 953d b903 c23d 56fb 193d
00000290: d1c3 bd3c 252f 50bd 727a f13d 02d6 7dbe
000002a0: 51f5 4bbe f2b8 dc3d 842a 2ebe 99ba 73be
000002b0: 6c13 87be 2374 e6bd 8808 343b 96b2 a5bd
000002c0: 286b 14be 9a85 973e ada4 c7bb ed0b 4dbe
000002d0: a21f 143e 816b f8bd 5454 84be f074 82bd
000002e0: b838 b03e bbb8 e9bc db62 013d 8b4a e0be
000002f0: ca8c fa3c 3f79 cabe 19bc debd 1cea 17be
00000300: 957b 96bc 984d 053e 8ed8 113e da7c 473d
00000310: e6e1 11bd f112 363e ed68 80be bd14 303e
00000320: 0142 f93d 82ff 243e ffc1 1dbe 04bd c3bd
00000330: 52fb 43be 1925 4e3c b5e3 0fbe ede2 5e3e
00000340: 545b 07bb 808e 41bd 82a7 75be 6935 773d
00000350: 8b20 1cbd 3455 e6bd d1c5 dd3c 1b32 dbbc
00000360: 4654 8b3d 17ad b4bb 42e6 063f 57b4 153e
00000370: d094 253e 07de 083e c0b1 94be 0d61 c6bd
00000380: ed9b 0a3e 60e7 2fbe 3b8f a8ba dd64 323e
00000390: 79bc 5ebe b070 093d 2b7f bbbd 6b0d 783d
000003a0: 9827 28bd d0e8 a03e da50 9dbd eb91 2dbb
000003b0: 8a2b 07bc 4e93 15bd e094 4b3d 081c b83e
000003c0: ca48 40be b73a b43d ac24 303e 190c 06bf
000003d0: 788d 0abe fa79 b6be 43ec 4ebd 6495 fabe
000003e0: 9b88 2c3c a7e8 293e 651d 0bbd 53bf 853d
000003f0: f3b2 95be e721 2abe 1802 123d abc7 32bc
-0.13623513 0.1370033 -0.26907524 -0.28214696 0.26266932 -0.13609669 -0.19489968 -0.17794916
-0.28189206 0.12702917 0.024953231 0.13610005 0.16032499 -0.33872902 0.020125909 -0.071608245
-0.034037236 0.33274943 -0.30926132 -0.04356367 -0.16368309 0.22416022 -0.2199475 0.10757473
0.046717227 0.09613214 0.2867897 -0.39938727 0.06437331 -0.19209264 0.12707393 -0.06707818
0.119384125 -0.15203431 0.11845663 -0.05410516 0.0155821 -0.16081588 -0.124650806 -0.14531776
0.015992643 0.3046584 0.009026512 0.123683244 -0.13452682 -0.016777948 0.10173802 0.024776444
0.11484849 0.009712151 0.25587973 0.03411167 0.24289079 -0.4932658 -0.065873675 0.0854216
-0.11108424 0.24667177 0.1163055 -0.18869656 0.20901681 0.047010045 -0.0048200805 0.23804359
0.0641889 0.19607763 0.1252213 -0.14512679 -0.049747854 -0.03569165 -0.26715904 -0.31922403
0.19912092 -0.179818 -0.025579525 0.26751578 -0.054414142 0.096764304 -0.36788204 -0.017948607
-0.53015035 0.090043455 -0.13771707 -0.0648597 0.16707371 0.22837824 0.3989714 -0.29621413
-0.2560533 -0.017146502 0.17865135 -0.07372532 0.30135652 -0.053201467 0.3537276 -0.30826348
0.058659628 0.06747327 0.23729457 -0.19592436 0.13064726 -0.05132437 -0.08243617 -0.21983752
-0.07079062 0.02718613 0.05077257 -0.20981371 0.08047601 0.004419953 0.1082465 0.041649938
-0.09350806 -0.17559987 -0.14694804 -0.04361475 0.15450051 0.04155934 0.06016883 -0.11916113
0.13607335 -0.03436791 0.23152547 0.083265536 0.026979094 0.05555943 0.15233457 -0.14296888
-0.3434793 -0.10767357 -0.18782145 -0.12175283 0.068813 0.040691696 0.016746651 0.20396884
-0.1812296 -0.1447785 -0.009927246 -0.03237713 0.24665374 0.27029517 0.24601571 -0.083235174
-0.05989673 -0.3924867 -0.10523536 0.1172831 0.03739102 -0.15508497 0.064500175 -0.3032492
-0.08131828 0.19290152 0.049643427 -0.11860919 -0.21204893 0.13161121 0.08244722 0.06526915
0.09800922 0.073061824 0.09473366 0.03759321 0.023164662 -0.05082621 0.11790933 -0.24788669
-0.199178 0.10777463 -0.17008406 -0.2380165 -0.26382005 -0.1125262 0.0027470905 -0.08090703
-0.14494002 0.29594117 -0.006092629 -0.2002408 0.14465192 -0.1212988 -0.25845587 -0.0636996
0.34418273 -0.02853047 0.031588417 -0.43806872 0.030584712 -0.39545628 -0.108757205 -0.148354
-0.018369475 0.13017881 0.14242765 0.048703052 -0.035615824 0.17780663 -0.25080052 0.17195411
0.12170792 0.16113093 -0.15406035 -0.09557536 -0.1913884 0.012582087 -0.14051707 0.21766253
-0.00206538 -0.04725504 -0.2398968 0.06035367 -0.038116973 -0.1124672 0.027071865 -0.02675729
0.06803183 -0.005513798 0.52695096 0.14619575 0.16170049 0.13365947 -0.29041862 -0.0968648
0.13536043 -0.17178106 -0.0012860069 0.17421289 -0.21751584 0.033554733 -0.09155115 0.06055967
-0.041053385 0.31427622 -0.07681437 -0.002648468 -0.008250127 -0.036517434 0.049702525 0.35958886
-0.18777767 0.088002615 0.17201489 -0.5236221 -0.13530529 -0.35639936 -0.050518285 -0.489421
0.010530616 0.16592656 -0.03396358 0.06530633 -0.2923809 -0.16614495 0.035646528 -0.010911862

shared_backbone.2.bias f4 [64]
00000000: f37c ecbc 2625 79bd bafe 4dbd 0ec6 19be
00000010: 8547 e7bd a367 a5bd e084 e2bd 4c98 bbbd
00000020: 039d 8fbd 0655 cbbd caa4 94bd 322c 53bd
00000030: ee1f b9bc 42a0 2cbd 61e6 47be 670f 2abd
00000040: dcf8 75bd a195 85bd 4aa7 eabd 195d a9bd
00000050: 4f44 0dbe 50d7 39bd 198f 28bd 5025 a9bd
00000060: 0afc 75bd 3bc3 b3bd b4ab 85bc 8462 acbd
00000070: 7c29 aabd a7f7 74bd 4af1 11bd 2315 8ebd
00000080: 1b06 aabd 58db 0ebe d946 0ebd 747a 73bd
00000090: 746f 80bd dec2 2bbd 4030 37bd cf6c b2bd
000000a0: 27e4 82bc 8d59 efbd 0b09 23bd 0786 413f
000000b0: 308d a8bd 3015 08be a257 ddbd ccab adbd
000000c0: acc4 76bd cc97 b5bd b9a0 38bc 299c 8ebd
000000d0: 5a6c b8bd aeb1 e1bd 3e2e cdbd 2a54 cabd
000000e0: a1bd 00bf ab25 b4bd 39c8 9bbd 5a88 59bd
000000f0: 2268 37bd c007 b9bc 34e5 ddbd 196b fabc
-0.028868174 -0.060826443 -0.050291754 -0.15016958 -0.11292938 -0.08076408 -0.110605 -0.09159908
-0.070123695 -0.09928326 -0.072579935 -0.05155582 -0.022598233 -0.04214502 -0.19521476 -0.041518595
-0.060051784 -0.0652268 -0.11457689 -0.0826971 -0.13795589 -0.045371354 -0.041152094 -0.0825907
-0.060054816 -0.08777472 -0.016317226 -0.08417228 -0.08308694 -0.059806492 -0.0356305 -0.06937625
-0.08301946 -0.1395086 -0.034735534 -0.059442952 -0.06271258 -0.041933887 -0.04472375 -0.0871216
-0.015977932 -0.11687002 -0.039803546 0.75595134 -0.082300544 -0.13289332 -0.1080773 -0.08480033
-0.060246155 -0.088668436 -0.011268788 -0.06963379 -0.090050414 -0.11020218 -0.100185856 -0.09879334
-0.5028935 -0.08796247 -0.07606549 -0.05310855 -0.044777043 -0.022586703 -0.10834733 -0.030568646

goal_head.weight f4 [2, 64]
00000000: 3d4f af3e d7bb 883d afcc 41bd 4490 a53d
00000010: c7c2 6dbe 1e04 10bd d3fe 813a e09b 09be
00000020: 9658 fd3d f96d 38bd 2591 18be 1fe2 7e3d
00000030: bae9 71be 22c4 6b3e b2e5 cb3e 851d 70be
00000040: c146 63be 093a 78be 7348 bcbd 8071 d1bc
00000050: 0953 943d 7a05 98be 3d7b 88bd 9087 dc3d
00000060: 35a3 cb3e 7eeb aebd 6f8c 5ebe c80a bd3d
00000070: 58af 233e 589d 93bd 500c 33be d5de 2bbd
00000080: 0d66 b2bc f80c 3cbe f4c9 f5bc 6371 a5bc
00000090: fb59 28bd ef85 113e 6838 0a3c 3bfd 26be
000000a0: 425e 29be e795 53be 9479 a03c 2de5 7ac0
000000b0: 890f ffbd 277e 41bc 82ff 5a3d 8b95 d23e
000000c0: 0757 08be cf80 aabe b6e0 4dbe 64db 0e3e
000000d0: 6b28 e5bc 96b7 7dbe 5028 103e c589 74be
000000e0: a402 223f 76e8 a03e 3aac 193e a08a 0e3e
000000f0: bbb7 2dbe 542d a13c a180 53be ecd2 293e
00000100: 1cad 89bd 1e91 233e 54db f2bd 60ae 1ebe
00000110: 2d9f cdbd 3344 183d a887 3d3e 09cb 7a3e
00000120: 3559 c63e 9c43 8fbd 4603 77bd e42a 373e
00000130: 471e 0cbd aabc 983e 2397 5ebe 2b5a 6b3c
00000140: 0c24 ab3c 4325 063d fdfb b8bd 73c0 88be
00000150: 0dbf d7bc efa2 b2bc 3b80 213e b332 55be
00000160: fba7 d6bd 3fad 4abd c6e3 1e3e 5399 26bd
00000170: 4185 893e 1758 84be 09bb 9dbe f1dc d63d
00000180: a97c 9d3e 48f3 33be 6d3f 7a3d 2134 7d3e
00000190: 80bc 5a3e b827 943e 2b80 463e 11b9 8cbd
000001a0: cace db3e bdef 8a3e a875 df3d c92c 7840
000001b0: 6302 0abe def1 d53d 8a51 e5bc 49f5 1fbe
000001c0: 650f 20be 7292 543e fa2e 973e 852e 733e
000001d0: 965e ea3d 34ad 803d 1c91 87bd e405 b53e
000001e0: f026 3cbf af32 4a3e e619 0abe af10 a53e
000001f0: cc75 9b3d c32f 933e 0870 243e 5161 8e3e
0.34240142 0.066764526 -0.047314342 0.08084157 -0.23218833 -0.035160176 0.0009917862 -0.13438368
0.12370412 -0.045026753 -0.14899118 0.062227365 -0.23624316 0.23024037 0.3982368 -0.23448761
-0.22194959 -0.24240889 -0.09193506 -0.025566816 0.072424 -0.29691678 -0.06664131 0.10768044
0.39772955 -0.0854101 -0.21733259 0.09230572 0.15984857 -0.07207745 -0.17485166 -0.041960556
-0.021777177 -0.18364322 -0.030003525 -0.020195669 -0.041101437 0.14211248 0.0084363 -0.16307537
-0.16539863 -0.20662652 0.019589223 -3.9202378 -0.12454135 -0.011809862 0.053466327 0.41129717
-0.13314448 -0.33301398 -0.20105252 0.13950878 -0.027973374 -0.24777064 0.14077878 -0.2388068
0.6328528 0.31427354 0.15007105 0.13920069 -0.16964619 0.019674934 -0.20654537 0.16584367
-0.06722471 0.15973327 -0.1185824 -0.15496206 -0.10040126 0.037174415 0.1850878 0.24491514
0.38739935 -0.06995317 -0.060305856 0.17887455 -0.034208562 0.2983144 -0.21737342 0.014364759
0.020891212 0.03275038 -0.09032438 -0.26709327 -0.026336217 -0.021806208 0.15771572 -0.20820121
-0.104812585 -0.049481627 0.15516576 -0.040673565 0.26859477 -0.25848457 -0.3080676 0.1049136
0.3075917 -0.17573273 0.061095644 0.24726917 0.2136097 0.28936553 0.1938483 -0.06871236
0.42931205 0.2713603 0.10911113 3.8777335 -0.13477473 0.10446523 -0.027992982 -0.15620913
-0.15630873 0.2075899 0.29528028 0.23748215 0.11443822 0.06283036 -0.06619474 0.35356057
-0.73496914 0.19745897 -0.13486442 0.3223929 0.07590827 0.28747377 0.16058362 0.27808622

goal_head.bias f4 [2]
00000000: 752a 1cc0 752a 1c40
-2.4400914 2.4400914

portfolio_head.weight f4 [15, 64]
00000000: 46e3 6cbe 4cd7 143e 8078 f0bd 5809 30bd
00000010: 49b3 0ebe eaa9 75be 19ca 02be 5750 dbbd
00000020: 062a a43c e8f1 19be e5c5 a1bb 0296 b53d
00000030: 1e42 113e ec38 243e b0ed b33a 5195 883d
00000040: 5158 06bd 6a93 2e3e d81a f63e 1915 77be
00000050: fe4c c83c 56d4 9fbd dd31 773d 8d88 27be
00000060: e975 663e cbdc d5bd 8689 dfbd e954 a1bc
00000070: cc7b 0cbe 35d2 b8bd 6c1f 8ebe 7439 923e
00000080: 7332 ab3d e337 48bd a4a9 0e3e d47a c2be
00000090: 41e7 90be 57da acbe 526f 1abd 8c09 ae3d
000000a0: fd4b c93d a953 b03e db69 27be 48eb d63e
000000b0: 9743 20be 6a57 c23d 1b4a 343d 5000 a43d
000000c0: e343 02be 12b8 c53d c734 463e 1f1a 363e
000000d0: dac7 adbd 0d7b 93bd e334 bbbe 6cf7 96bb
000000e0: fcd3 363c 78c0 8b3e e637 373e 339f b2bd
000000f0: a3e7 edbd 6b89 453d 1ba7 57be 873a 12be
00000100: 6f20 23be 254a a3bd dc84 80be 38e1 d9bd
00000110: ebf0 da3d 2b48 143d 0d61 c5bd 7d34 a2be
00000120: acaa dfbe ae75 413e d105 3a3e bfe3 f53d
00000130: 76ea 0b3d ed8d b5bd 313e eabc 1db8 92bd
00000140: 79f3 d83c 4f21 3a3c beba 6c3e 8533 a53e
00000150: 6b37 b13d 02cb cebc 577b 703e fe76 86be
00000160: 5309 543e e0b2 ff3d d1b2 f6bd e232 2fbc
00000170: bb08 d2ba 4936 9e3d 0361 843d 59e9 97be
00000180: 6d73 253f bf29 c33d 5424 6ebe f954 d23c
00000190: ade7 f0bd eb52 e4b9 1063 d6bd 65b5 cdbd
000001a0: e746 29bd fcf7 e4bc f939 d23e 1883 543f
000001b0: cce9 a73d 30fd 7a3e e295 d03d 2fe0 3d3d
000001c0: e3b2 ddbe 17e4 b2bd f2d7 ea3d dfe4 92bd
000001d0: e216 243e a625 eabd eaee 193d 642b 93bd
000001e0: 1550 643d c74f bc3d f3d0 51bd 31bc 313d
000001f0: 5ac0 6bbe 9f65 2b3e 8816 e2bc ee61 02be
00000200: c237 ebbc 651e f5bd 8d93 76be c97b 043e
00000210: 69ab 82bd 7704 00bd 1d58 2d3e 10e7 cfbc
00000220: 4cb4 513e b6f8 7bbe 5e62 1d3b ae60 373e
00000230: fafe c43a 5c56 913e 036c 983d 9f36 c13d
00000240: 12f1 74be 37c1 0e3e 3f46 9e3d 3e87 90be
00000250: 2b10 413e e93b dfba 2a0a 09bd 5103 23be
00000260: 66d8 90bd ec43 35be 4bf1 223d ae11 813e
00000270: 7d1d 9abd 2b4e 17be afa6 123e 98e9 dd3d
00000280: 674b f33e 5972 e9bc d58e d33e b539 a63e
00000290: 8730 803d 0928 fcbd d183 893e 15f7 893e
000002a0: 5891 0cba 80a4 383d 5c27 b83e 53af e5bd
000002b0: f205 933d 42d4 013e 0950 ac3d 6950 7cbe
000002c0: 8bb2 7bbe 7596 923d 06af 9a3c 0917 34be
000002d0: a332 eabd 7ea9 fc3c 35ca 953d ad38 f93d
000002e0: 09c7 de3d 2a81 5b3e 6799 103e 1efa ac3d
000002f0: 013d 0b3e d2a5 7dbd 6dde 1ebe d6ea 8c3e
00000300: bb6c c2be d43f 163e a68e 61bd 851b db3d
00000310: 53b7 173d 0c9e 16be d8d0 8b3e 377c f23e
00000320: 82ae 663d 5c53 fb3d 8e75 353e 4a8e 37be
00000330: 4ad3 c63c 311f 003e e9ba b73c 81c9 3c3d
00000340: 764d c53c f3a4 743d b078 523e 228a 123e
00000350: 8b97 243e 03f7 1f3d d67a 593e 42e9 19be
00000360: 7503 b23c 2bcc 95bc d8a8 353d b5e8 953c
00000370: 19a8 68bd f67c 823d 5189 e83e cbdb 2f3e
00000380: 35b3 043f 2965 2d3e 34fe 41be 0732 96bd
00000390: e10e 8fbd 0bd2 173e f386 0ebe bde6 21bf
000003a0: af24 d3bc 0961 a63d 315a 18be 3310 9bbe
000003b0: 6912 8e3e 29b1 5abe cc66 b03d 94d3 54be
000003c0: b8ee f2be 681a d7bd a7ee 8fbe b365 913e
000003d0: fa71 6cbe cb1d 593e 6c64 073e 3b23 643e
000003e0: b0f7 de3d ba0f 39be ccb3 84bd a8a8 d73d
000003f0: 8834 233e 238e b5bc bd32 e53d 7b85 cb3d
-0.23133573 0.14535254 -0.117417336 -0.04297766 -0.1393558 -0.23990598 -0.12772407 -0.10708683
0.02003957 -0.15033686 -0.004936921 0.08866502 0.14185378 0.16037339 0.0013727453 0.06669105
-0.03279907 0.17048422 0.48067355 -0.24129142 0.024450775 -0.07804172 0.060350288 -0.16360684
0.22505917 -0.104425035 -0.109149024 -0.019693809 -0.137191 -0.09024469 -0.27758348 0.28559458
0.08359232 -0.048881423 0.139319 -0.37984335 -0.28301433 -0.3376033 -0.03770382 0.08497915
0.09828947 0.34438828 -0.16348974 0.4197638 -0.15650783 0.09489329 0.044015985 0.08007872
-0.12721209 0.09654249 0.1935607 0.17783402 -0.08485384 -0.072012044 -0.36563787 -0.0046071317
0.011158939 0.2729528 0.17892417 -0.08721771 -0.11616447 0.048226755 -0.2105984 -0.14280139
-0.15930341 -0.07973126 -0.25101364 -0.1063866 0.10690483 0.036201637 -0.096376516 -0.3168067
-0.436849 0.18892547 0.18166281 0.1200633 0.034159146 -0.08864961 -0.028594108 -0.07164023
0.026483284 0.01136048 0.23118111 0.3226587 0.08653148 -0.025243286 0.2348455 -0.2626266
0.20706682 0.124852896 -0.12045825 -0.010693284 -0.001602433 0.07725198 0.06463816 -0.29670218
0.6462925 0.09529447 -0.23256046 0.025675284 -0.11762939 -0.00043549328 -0.104681134 -0.10044364
-0.041327383 -0.02795028 0.41059855 0.83012533 0.0819889 0.24510646 0.10184838 0.046356376
-0.43300542 -0.08734911 0.114669695 -0.0717256 0.16024354 -0.11432962 0.03758136 -0.071860105
0.055740435 0.09194904 -0.05122466 0.043392364 -0.23022595 0.16737984 -0.027598634 -0.1273267
-0.02871311 -0.11968688 -0.24079724 0.12937845 -0.0638035 -0.031254258 0.16928144 -0.025378734
0.20478934 -0.24606594 0.002401493 0.17907974 0.0015029602 0.283862 0.074424766 0.09434246
-0.23920086 0.13940893 0.07728242 -0.28228182 0.18853824 -0.0017031404 -0.03345696 -0.15919234
-0.07072525 -0.17701691 0.039780896 0.252088 -0.07525156 -0.14775912 0.14321397 0.1083557
0.47518465 -0.028496908 0.4131991 0.32465902 0.06259256 -0.123123236 0.2685838 0.2694632
-0.0005362234 0.045078754 0.3596753 -0.11215081 0.07178868 0.12678626 0.08413703 -0.24640049
-0.24579827 0.07157604 0.018882286 -0.17586912 -0.114354394 0.030842539 0.073139586 0.12169013
0.10877807 0.21435991 0.14121018 0.084461436 0.1359749 -0.061925717 -0.15514536 0.27522916
-0.3797358 0.14672786 -0.05506768 0.10698608 0.037040066 -0.14708728 0.27307773 0.47360393
0.056318767 0.12271759 0.17720625 -0.17925373 0.024270672 0.12511899 0.022427993 0.046090607
0.024084788 0.05972762 0.20553851 0.14310506 0.16073434 0.039053928 0.21238264 -0.15030387
0.021730164 -0.018285831 0.044350475 0.01829944 -0.056800935 0.06371491 0.45417264 0.17173688
0.5183595 0.16933121 -0.18944627 -0.07333761 -0.0698526 0.14826219 -0.13918667 -0.63242704
-0.025774328 0.08123977 -0.14878155 -0.30285797 0.2774842 -0.21356644 0.08613357 -0.20783836
-0.47447753 -0.105030835 -0.28111765 0.28397903 -0.23090354 0.21202771 0.13221902 0.22279064
0.108870864 -0.18072405 -0.06479606 0.105302155 0.15938008 -0.022162503 0.11191318 0.09937569

portfolio_head.bias f4 [15]
00000000: 73f9 d33e e524 ebbb 8e44 003e bcc2 03bd
00000010: 0b75 d5bd c34a c7bd 8946 1c3d 014d 473e
00000020: e471 623d a76b 0a3e f9f1 a1bd bbfd 36be
00000030: c4b1 3bbe 2714 983e 2e39 033e
0.41401252 -0.007176029 0.12526152 -0.032168135 -0.10422715 -0.097310565 0.038153205 0.19462968
0.055284396 0.13517629 -0.07907481 -0.17870228 -0.18329531 0.29702875 0.12814781

network.0.weight f4 [64, 2]
00000000: 3587 d3bd 5413 4dbd 8121 2abe 352b 263d
00000010: bd0c f4be e99c 103c dce3 a8bc ec7c 76bb
00000020: 92b2 8dbe df68 9c3d 3e86 393e b4f3 8dbd
00000030: 5f1d 90be 1c5f b4be fe19 cabd 4939 1cbe
00000040: 7af9 96be f201 02bd 77fd 52be 0771 47bd
00000050: f2ba 90be 46ca 163e 4cea abbe be6f b3be
00000060: 9f0b 58bf 556b 88bd ab50 27bf 7664 e33b
00000070: 19d5 4abf 2998 32bb 8c9d fabe 760c e23b
00000080: 2ebe 7f3f 8a2e dd3c 3a5a b4bc 07d7 08be
00000090: 06e5 25be f220 8abd 3d0e 76be 27fd 8fbe
000000a0: b0ee 93bd 0f6c 2fbc a61a a2bd 50fe f13b
000000b0: 9903 09be d1a6 f1be 5a26 5ac0 f7bc 523c
000000c0: e8ac 16bf 93d3 c33b 35ed a4be 7d41 d13b
000000d0: 7b5b 26be cd94 99bd a773 6dbd 5bc0 10bd
000000e0: d3fd 28bf 81b7 b43b 3b49 913f 7772 c03d
000000f0: 29f1 0bc0 8e36 adbe 35df 05bf f77a 3b3c
00000100: eb0e 83be 99ec 80ba c8d2 7abe 83b5 5cbe
00000110: 1c2f 49bf 4795 f73d 6586 93bd b9f7 79bd
00000120: 6cfc fc3d c7c4 2bbe ac97 42bf ea5b 623a
00000130: 0cf1 15bf 6502 d13b 3aa0 49bf 69fe dabd
00000140: 7af8 f3bc 53fb 2cbe a1ba c2be fa0a 2cbe
00000150: dfac 06bf 7cfb 043c 9192 72bf 979c 9c3d
00000160: e2e2 91bd e27b 25be 7384 38bf 1f27 0d3b
00000170: d5ab dbbe f890 963b 948c 8d3f d730 963e
00000180: 0175 d63c de5b e1bc c645 23bf 4e59 bd3b
00000190: 4b57 84bd 872d e7bd 91e7 85bf cf3b 31bb
000001a0: 56df 95be 3841 94bb 562f acbd 8df4 61bc
000001b0: c13f 19bd d0d6 adbd 6c83 aebe 2e5c fabc
000001c0: 9392 0ebf 6ac2 d53b 2f15 dbbe cc40 0cbe
000001d0: 194a 793f 7dc8 1dbe bc1e 19be 6725 e0be
000001e0: e65c 11bd 34fe 60be 4f09 1ebf 8e56 5a3b
000001f0: f215 843f be24 c5bd adaf 37bb b33b 9fbe
-0.10328523 -0.05006726 -0.16614343 0.04056855 -0.4766597 0.008826473 -0.020616464 -0.003761108
-0.276753 0.0763719 0.18117616 -0.06931248 -0.28147408 -0.35228813 -0.09868239 -0.15256228
-0.2948721 -0.031740136 -0.20604502 -0.048691776 -0.28267628 0.14725599 -0.33577192 -0.3504619
-0.8439273 -0.06661097 -0.65357465 0.006939466 -0.7923141 -0.002725134 -0.48948324 0.006898458
0.99899566 0.02699973 -0.02201568 -0.13363276 -0.16200647 -0.06744565 -0.24028869 -0.28122827
-0.072232604 -0.0107069155 -0.07915239 0.0073850527 -0.13380279 -0.47197583 -3.4085908 0.012862436
-0.58857584 0.0059761493 -0.32212225 0.0063859806 -0.16245835 -0.074990846 -0.057971623 -0.035339694
-0.66012305 0.0055150394 1.1350473 0.093968324 -2.1865942 -0.33830684 -0.5229371 0.011442891
-0.2559732 -0.0009836137 -0.24494469 -0.21553616 -0.7858751 0.12089019 -0.07203368 -0.061027262
0.12352833 -0.16774283 -0.7601268 0.0008634912 -0.58570933 0.0063784593 -0.7876011 -0.10693056
-0.029781569 -0.16892748 -0.38033012 -0.16801062 -0.5260753 0.008116599 -0.9475489 0.07647055
-0.071233526 -0.16160539 -0.720771 0.002153821 -0.42904535 0.0045949183 1.1058526 0.29334137
0.026178839 -0.027509626 -0.6377834 0.005778468 -0.06461962 -0.112879805 -1.0461293 -0.0027043705
-0.29271954 -0.0045243762 -0.08407466 -0.013791216 -0.037414316 -0.08488238 -0.34084642 -0.030561533
-0.55692405 0.00652342 -0.427896 -0.13696593 0.9737869 -0.15408511 -0.1495313 -0.43778536
-0.035488985 -0.21971971 -0.61732954 0.003331575 1.0319197 -0.09626149 -0.0028028295 -0.31100234

network.0.bias f4 [64]
00000000: 0000 0000 1df7 75bd e255 e63e 0629 76bd
00000010: ddf6 75bd 6d93 8c3d 0000 0000 c271 2e3c
00000020: 0000 0000 0000 0000 e3e1 92bd 0000 0000
00000030: ed9c 643f 0ad4 1d3f 9387 423f 92ad ec3e
00000040: cbba 553e 0000 0000 0000 0000 0000 0000
00000050: 6a70 b0bd 56fb 75bd 34a2 023d 6c64 ce3e
00000060: 7d33 0f3f ef50 9d3e 0000 0000 33fb 75bd
00000070: 5610 1f3f 5eab b83e cff7 7b3e 2220 fe3e
00000080: b5f8 75bd 0000 0000 7930 413f 0000 0000
00000090: 1099 a13d cae1 393f 3e4c 0e3f f920 653f
000000a0: be62 99bd 0000 0000 abd4 013f df32 6e3f
000000b0: 0000 0000 f8fc 2e3f b682 cf3e 35a5 c13e
000000c0: 92b8 75bd f5c8 1b3f 0000 0000 cc81 a73e
000000d0: 4eb5 623e e1f3 75bd c778 9ebd 0000 0000
000000e0: df7b 093f 9e7d 123f a708 533e 6a54 ee3c
000000f0: a4eb 75bd 0263 183f e0ed 873e 0000 0000
0.0 -0.06005012 0.44987398 -0.060097717 -0.06004988 0.06864057 0.0 0.010647239
0.0 0.0 -0.07171991 0.0 0.8930195 0.6165167 0.7598812 0.46226174
0.20872037 0.0 0.0 0.0 -0.08615191 -0.060054146 0.03189297 0.4031099
0.5593794 0.3072581 0.0 -0.060054015 0.621343 0.36068243 0.2460625 0.4963389
-0.06005164 0.0 0.7546459 0.0 0.078905225 0.7261015 0.55585086 0.8950344
-0.07489537 0.0 0.5071513 0.93046373 0.0 0.6835475 0.40529412 0.37821355
-0.059990473 0.6085351 0.0 0.32716215 0.22139475 -0.060047034 -0.0773788 0.0
0.5370464 0.57222927 0.2060877 0.029092986 -0.060039178 0.59526074 0.26548672 0.0

network.2.weight f4 [64, 64]
00000000: 98f0 d2bd 9b4d b2bd 2589 75bd 3368 adbd
00000010: 871f ba3c 312e c9be 5bb0 9abd b28b c33d
00000020: 176c 00be 6b03 4cbe 833c 40be cef4 93ba
00000030: d4e1 27bd bc66 143d 49cc 2f3e c46a 84be
00000040: 9b78 03be 888d 053e 3b41 cf3d ff92 3bbe
00000050: 09f9 d2bd b63e 9cbd 17e5 f33c f918 a93d
00000060: e1b6 0a3d b760 fe3d 42b0 92be 29dd 373e
00000070: c8ee 07be 2803 7fbe 074b 9d3e 4131 4c3e
00000080: bb61 5ebe 36ec 7ebe 8866 153e 7460 64bd
00000090: 42b7 b3be b4a8 c2be 225d 243c 579c c2bd
000000a0: d9f3 8dbe acf9 c6bd da53 b2be 02e4 01bd
000000b0: 0281 4c3e 07bc 033e 843f 9fbd 8b43 92bd
000000c0: b998 b33c 79da 42be d567 573e dbb1 82be
000000d0: a2f9 83be 73bc 713c fea5 ed3d a9ce 8fbe
000000e0: ec2f 5c3e 4d9c 3ebe 6bae ccbd e0da e8bc
000000f0: 314f 1abd 0f57 32be 2186 583e b644 953d
00000100: 8d2d a1be c8f1 abbd 67a6 3abd a5a1 b63c
00000110: 0f5a 20bc e1f3 743d ef50 e7bd 68f5 bdbd
00000120: 722b 3dbe 2c9f 8fbe c7c6 913b 99ff 793e
00000130: 806a 0ebd aa2c 67be 33a2 273e 0c22 88be
00000140: c5df 84be 858a 883d 0e57 7abd b919 9bbe
00000150: fdac afbd 448b 5c3b 9f53 6a3d 6ad9 033e
00000160: 1f6b b7bd bc1b 48be ecbf 2bbe 2edd 783e
00000170: adf5 d6bd 334a 1e3e e417 be3d 5786 46be
00000180: 748f be3d fb5a 243e eaf8 93bd bef6 34be
00000190: 44c4 7ebd 76ca 9b3e b7c9 c13d 005d 8dbc
000001a0: 8440 fc3c 3056 c7be 0a2e 8b3e 73da 4e3e
000001b0: 8b96 8dbe 6f31 28be 8638 58bd a40f 86be
000001c0: e882 3ebd 0aa4 ae3a d066 07bb 6dcf 83be
000001d0: 20c6 a3be 4641 9bbe ebff 42be 5d60 973d
000001e0: 4293 903e 7425 5b3c 20ef 7c3e 9210 383d
000001f0: cb2a e4bd f7ab acbd 302b 1bbe 5d9a b5bd
00000200: 81b0 34be 55b3 703e 0979 d4bd 00d4 643e
00000210: 5b1a b63e c364 063e 43ce 393a 9611 973d
00000220: 9d90 f5bd f5d7 9bbd e7c8 813e e91a 613e
00000230: 5a64 17be 8b37 1dbe 400d c1bb 15a5 8f3d
00000240: 9f8c 05be f828 023d 721d fdbd 63f2 10bd
00000250: 0f97 86be 4efc b2bd 4cc0 ba3d 25de 50be
00000260: d45b 183e d838 023e e8d4 4f3e b46d acbd
00000270: 4f6b 983d 79df 99be fe03 6f3d b9b3 80be
00000280: 6b30 29be e105 e1bd 3bdb babe deaa ba3d
00000290: ccf7 90bc 270b 38be ebe7 8f3d c674 e7bd
000002a0: d5f6 643e 6aec 09be 3049 7cbe 3a10 623e
000002b0: 3ec0 00be 1d1b 9bbe c7c4 a4bb b455 b3bc
000002c0: df4d 36be f73f d5be 8948 123e e5ba 65be
000002d0: df6b 4b3e 8f44 ce3d 07c3 4c3e 6d72 19bc
000002e0: 1269 e93d 3fe7 a23e 65fc c9be 2ea5 89bc
000002f0: 58aa 323e 99de 333e 9913 f43b 7085 13bb
00000300: 428a cd3d 05dc 6f3e 5866 ca3e 1111 bfbc
00000310: 86ca 9f3d 1273 053e 3105 b8be 01da 903d
00000320: 3214 ccbd 560e 523c cb2c f4bd f127 fa3d
00000330: 9ba3 8f3f fa9f 463e 7f3b 363f 437d 473e
00000340: 127b 1f3e 24ed f23b 129e d63e 4535 8dbb
00000350: 1909 373d edfc a53d f3e0 713e fbcd c2bf
00000360: addd 893e cc97 bf3d 8bac b3be c657 c13d
00000370: d198 7f3e ef2a be3d 753a 37bf cc68 473e
00000380: a1e1 8e3d 677b 9bbd 3d33 533f e111 433e
00000390: 0929 1cbc 1bc4 3a3f 44de ee3e 83ee a83f
000003a0: b5cb 1fbd 0a43 773e 03fa f63e 4f10 823f
000003b0: 54d1 f73c b9e7 0b3e 4afb bc3e c90f ab3e
000003c0: 5658 813d 2cb8 f93d b056 733d ee2a 8b3f
000003d0: a0d0 683d fbd0 0a3e 65b9 3f3d cc01 be3e
000003e0: 5ab0 c73e cc0e 893d 131c 2e3e 065e 1e3e
000003f0: 62a7 58bd ffc9 cb3e a127 ac3e a29e 453e
-0.10299796 -0.08706208 -0.059945244 -0.0846714 0.022720112 -0.39293054 -0.075531684 0.09548129
-0.12541233 -0.19923179 -0.18773083 -0.0011288167 -0.04098685 0.036230788 0.17167772 -0.25862706
-0.12838976 0.13042271 0.101198636 -0.18317793 -0.10301406 -0.07629149 0.029772324 0.08256716
0.033865813 0.12420791 -0.286501 0.1795546 -0.13274682 -0.24903548 0.30721304 0.19940664
-0.21716969 -0.24894795 0.14589894 -0.055756047 -0.35100752 -0.38019335 0.01003197 -0.09502476
-0.27725103 -0.0971559 -0.348296 -0.031711586 0.19971088 0.12864695 -0.077757865 -0.07141789
0.02192341 -0.19028653 0.21035703 -0.25526318 -0.25776392 0.014754402 0.11603926 -0.28087357
0.21502656 -0.18614312 -0.09994205 -0.02842468 -0.03767318 -0.17416023 0.21144916 0.07288496
-0.31480065 -0.083957255 -0.04556885 0.022293875 -0.009787097 0.059802894 -0.11294734 -0.09275323
-0.18473604 -0.28051126 0.004448745 0.24413909 -0.034769535 -0.22575632 0.16370468 -0.26588476
-0.25951973 0.066670455 -0.061118178 -0.30293062 -0.08577917 0.0033652345 0.057208654 0.12875906
-0.089559786 -0.1954183 -0.16772431 0.24303123 -0.10496078 0.15457992 0.092819005 -0.19387184
0.09304705 0.16050331 -0.07225211 -0.1767225 -0.062198892 0.30427903 0.09462302 -0.01725626
0.030792482 -0.38932943 0.27183563 0.2020052 -0.27653918 -0.16425107 -0.05278828 -0.26183808
-0.04651156 0.0013324034 -0.0020660646 -0.2574419 -0.31987095 -0.30323237 -0.19042937 0.07391427
0.2823735 0.013375629 0.24700594 0.044937678 -0.111409746 -0.08431237 -0.15153193 -0.08867333
-0.17645456 0.2350591 -0.10374648 0.22346497 0.35566983 0.13124375 0.00070879253 0.07376401
-0.119904734 -0.0760955 0.2534859 0.21982922 -0.14784375 -0.15353219 -0.005891472 0.07013909
-0.13041924 0.031777352 -0.12359132 -0.035387408 -0.26287124 -0.087395296 0.09118709 -0.20397241
0.1487878 0.12716997 0.20296061 -0.08419362 0.074423425 -0.3005331 0.058353417 -0.25137118
-0.16522376 -0.109874494 -0.36495385 0.091146216 -0.017696284 -0.17973004 0.07026657 -0.1130157
0.22359784 -0.13469091 -0.24637294 0.22076502 -0.12573335 -0.30294123 -0.0050283405 -0.021891452
-0.17803143 -0.41650364 0.14285482 -0.22434576 0.19865368 0.1007167 0.19996272 -0.00936566
0.11396994 0.31817052 -0.39450374 -0.016802397 0.17447793 0.17565383 0.0074486253 -0.0022509955
0.10036136 0.23423775 0.39531207 -0.023323568 0.078023 0.13032177 -0.3594146 0.07072831
-0.099647895 0.012820801 -0.11922606 0.122146495 1.1221803 0.19396964 0.71184534 0.19481377
0.15574291 0.0074135233 0.41917473 -0.0043093287 0.04468641 0.081048824 0.23620968 -1.521911
0.26926938 0.09355125 -0.35092577 0.094405696 0.24960639 0.09285533 -0.71573573 0.1947357
0.06976629 -0.075918965 0.8250006 0.19049789 -0.009531268 0.72955483 0.4665395 1.3197788
-0.03901263 0.24146667 0.4823762 1.0161227 0.030251183 0.13662614 0.36910468 0.3341048
0.06315677 0.12193331 0.059408844 1.0872476 0.056839585 0.13556282 0.046807665 0.37110746
0.39001733 0.066922754 0.17002897 0.15465555 -0.052894004 0.39802548 0.33623984 0.19298795

network.2.bias f4 [64]
00000000: 0000 0000 abfb 75bd 35ae 56bd 9b0e 373f
00000010: 3785 78be 0000 0000 d7ef 513f cec8 183f
00000020: 0831 c13e 0000 0000 388e 313f fb89 383f
00000030: 768d 3bbd c311 70bd 8e36 2e3f 08fc 75bd
00000040: cc20 253d 11ac 63bd 627c 3b3f 0926 3e3f
00000050: 1040 323f cace 343f 7161 463f 0887 803f
00000060: 99e6 05be fb34 393f fefb 363f aa31 2b3f
00000070: 5f8c 303f 04fc 75bd 95e7 75bd c37e 423f
00000080: 93ee 75bd 43f1 283f 18a0 373f e36c 353f
00000090: 0000 0000 0000 0000 10fc 75bd 0692 273f
000000a0: 637f 373f ba90 383f 1e12 313f 26b0 9dbe
000000b0: 0bf0 a3bd e330 4e3f b7fb 75bd 153e 78bd
000000c0: dbfa 75bd 77e7 3c3f 0000 0000 2e72 333f
000000d0: 9eb1 303f 09d8 3b3f 5c6e 333f 861c 3c3f
000000e0: e53f 373f b7ad cf3e 2d12 a7bd 0000 0000
000000f0: 94ea 2d3f ed10 3b3f bcbd 1d3f f2e7 3c3f
0.0 -0.060054462 -0.05241223 0.7150666 -0.24269567 0.0 0.8200659 0.59681404
0.3773272 0.0 0.69357634 0.7208554 -0.045789205 -0.05861069 0.68051994 -0.06005481
0.04031448 -0.055584017 0.7323667 0.7427679 0.69629 0.70628035 0.77492434 1.0041208
-0.13076247 0.72346467 0.7147826 0.66872656 0.6896419 -0.060054794 -0.060035307 0.75974673
-0.060041975 0.65993136 0.7172866 0.7086927 0.0 0.0 -0.06005484 0.6545719
0.7167875 0.72095835 0.6916827 -0.30798453 -0.08004769 0.80543345 -0.060054507 -0.06060608
-0.060053688 0.7379069 0.0 0.700961 0.6902102 0.7337652 0.7009027 0.73481023
0.7158187 0.4056222 -0.08157764 0.0 0.6793606 0.730727 0.61617637 0.7379142

network.4.weight f4 [1, 64]
00000000: 1a91 01bc 8d40 5e3d 89b5 8c3d 53c0 ee3e
00000010: 0a56 813e 4317 be3a d20e 233f 3cd6 983e
00000020: 7ce1 913d e83a f1bc 6b3c eb3e ec0a ee3e
00000030: 6f7c 6d3d 4144 8d3d 8ab7 e03e 1589 3e3d
00000040: d0e7 c93c 86b6 463d 9439 023f f862 043f
00000050: 46d3 f73e 34db 013f 1ab8 0a3f 96d4 08c0
00000060: 9c45 cfbd 8c4f 023f 772b f33e b4c9 d53e
00000070: cf61 24c0 c31f 413d eec3 6b3d 41bf f63e
00000080: 5782 673d 30bf d93e 8b02 ed3e aab6 ee3e
00000090: 63e3 eb3b 17bc 85bc 8dfc 163d fd73 db3e
000000a0: 01d5 f33e a51c 003f e056 eb3e 2d85 eaba
000000b0: 030b 8c3d d6ee 083f db27 193d 0e4c 413d
000000c0: 6eca 613d 3f9b 003f 4587 6d3b d95c d43e
000000d0: 407b dc3e 377f ca3e f4fd d43e 37ee 0c3f
000000e0: f23a ff3e 8d6e 363e 5113 fb3c 5078 6abc
000000f0: 36b1 c93e 7677 f93e 9596 ba3e 945c fc3e
-0.00790813 0.05426078 0.068705626 0.46631107 0.25260955 0.0014502782 0.6369449 0.29850948
0.07123086 -0.029447034 0.45944533 0.46492708 0.057979997 0.06897784 0.4389003 0.04651745
0.02464667 0.04851391 0.5086911 0.51713514 0.48403376 0.507251 0.54187167 -2.1379752
-0.10120699 0.5090263 0.474941 0.4175545 -2.5684698 0.04714943 0.0575599 0.4819279
0.056520786 0.42528677 0.46291003 0.46623737 0.0071987375 -0.01632504 0.036861945 0.4286193
0.47623447 0.5004371 0.45964718 -0.0017892473 0.06838038 0.53489435 0.037391525 0.047191672
0.055124693 0.50236887 0.0036243957 0.41477087 0.43062782 0.39550182 0.416 0.55050987
0.4984966 0.1781561 0.03064886 -0.014310911 0.39393014 0.48723954 0.3644301 0.49289382

exp_avg f4 [64, 2]
00000000: 0000 0000 0000 0000 0400 0000 0400 0000
00000010: 0400 0000 0400 0000 0400 0000 0400 0000
00000020: 0400 0000 0400 0000 0000 0000 0000 0000
00000030: 0400 0000 0400 0000 0400 0000 0400 0000
00000040: 0000 0000 0000 0000 0000 0000 0000 0000
00000050: 0400 0000 0400 0000 0400 0000 0400 0000
00000060: 0400 0000 0400 0000 0400 0000 0400 0000
00000070: 0400 0000 0400 0000 0000 0000 0000 0000
00000080: 0400 0000 0400 0000 0000 0000 0000 0000
00000090: 0400 0000 0400 0000 0000 0000 0000 0000
000000a0: 0000 0000 0000 0000 0000 0000 0000 0000
000000b0: 0400 0000 0400 0000 0400 0000 0400 0000
000000c0: 0400 0000 0400 0000 0400 0000 0400 0000
000000d0: 0000 0000 0000 0000 0400 0000 0400 0000
000000e0: 0400 0000 0400 0000 0400 0000 0400 0000
000000f0: 0000 0000 0000 0000 0400 0000 0400 0000
00000100: 0400 0000 0400 0000 0400 0000 0400 0000
00000110: 0000 0000 0000 0000 0400 0000 0400 0000
00000120: 0000 0000 0000 0000 0000 0000 0000 0000
00000130: 0400 0000 0400 0000 0400 0000 0400 0000
00000140: 0000 0000 0000 0000 0000 0000 0000 0000
00000150: 0400 0000 0400 0000 0400 0000 0400 0000
00000160: 0400 0000 0400 0000 0400 0000 0400 0000
00000170: 0400 0000 0400 0000 0000 0000 0000 0000
00000180: 0000 0000 0000 0000 0400 0000 0400 0000
00000190: 0400 0000 0400 0000 0400 0000 0400 0000
000001a0: 0400 0000 0400 0000 0400 0000 0400 0000
000001b0: 0400 0000 0400 0000 576a b0b1 8a3d 81af
000001c0: 0400 0000 0400 0000 0000 0000 0400 0000
000001d0: 0400 0000 0400 0000 0400 0000 0400 0000
000001e0: 0400 0000 0400 0000 0000 0000 0000 0000
000001f0: 0400 0000 0400 0000 0000 0000 0400 0000
0.0 0.0 6e-45 6e-45 6e-45 6e-45 6e-45 6e-45
6e-45 6e-45 0.0 0.0 6e-45 6e-45 6e-45 6e-45
0.0 0.0 0.0 0.0 6e-45 6e-45 6e-45 6e-45
6e-45 6e-45 6e-45 6e-45 6e-45 6e-45 0.0 0.0
6e-45 6e-45 0.0 0.0 6e-45 6e-45 0.0 0.0
0.0 0.0 0.0 0.0 6e-45 6e-45 6e-45 6e-45
6e-45 6e-45 6e-45 6e-45 0.0 0.0 6e-45 6e-45
6e-45 6e-45 6e-45 6e-45 0.0 0.0 6e-45 6e-45
6e-45 6e-45 6e-45 6e-45 0.0 0.0 6e-45 6e-45
0.0 0.0 0.0 0.0 6e-45 6e-45 6e-45 6e-45
0.0 0.0 0.0 0.0 6e-45 6e-45 6e-45 6e-45
6e-45 6e-45 6e-45 6e-45 6e-45 6e-45 0.0 0.0
0.0 0.0 6e-45 6e-45 6e-45 6e-45 6e-45 6e-45
6e-45 6e-45 6e-45 6e-45 6e-45 6e-45 -5.1343636e-09 -2.350869e-10
6e-45 6e-45 0.0 6e-45 6e-45 6e-45 6e-45 6e-45
6e-45 6e-45 0.0 0.0 6e-45 6e-45 0.0 6e-45

exp_avg_sq f4 [64, 2]
00000000: 0000 0000 0000 0000 edd2 fd2a 272b cb29
00000010: e9f2 ad2d b7e8 ad2b 1b2d 8527 2dd9 ad27
00000020: fe25 1628 ce45 a224 0000 0000 0000 0000
00000030: d2c1 b72d 1934 912b abc2 ec29 b18b 9528
00000040: 0000 0000 0000 0000 0000 0000 0000 0000
00000050: a112 6d2c 957c 412a b5b8 9b2b cc40 6c2a
00000060: a84e 0a2d f5e5 ee2a d4b5 4027 7aa4 8326
00000070: 2544 6a2e 7329 212d 0000 0000 0000 0000
00000080: 262a 0f2e 0c2d 522c 0000 0000 0000 0000
00000090: 1838 b735 97ac c433 0000 0000 0000 0000
000000a0: 0000 0000 0000 0000 0000 0000 0000 0000
000000b0: 3aa3 ab26 0022 3227 3cec 8f2c 033b 3a2a
000000c0: 1f80 352c b637 e829 220f 502c 23df 492a
000000d0: 0000 0000 0000 0000 d5b2 b82e 84c7 f92c
000000e0: f441 a92e 4e28 992c 90c7 af2c f127 7d2a
000000f0: 0000 0000 0000 0000 5d8a 8e2c a4f8 222a
00000100: 459e 5529 dfe7 9724 4f24 092d 4030 ef2a
00000110: 0000 0000 0000 0000 570b b72d caf2 8c2b
00000120: 0000 0000 0000 0000 0000 0000 0000 0000
00000130: 3bb7 582e 861b 4a2c 24ab 1d2f 6c59 012d
00000140: 0000 0000 0000 0000 0000 0000 0000 0000
00000150: 479e 4e27 913b cb26 b740 f62d 058e 062c
00000160: 455a a42d b677 972b 4aff 8e2e 4691 952c
00000170: deb5 6a2c 0a38 c529 0000 0000 0000 0000
00000180: 0000 0000 0000 0000 5496 162c 3ac3 4a2a
00000190: 36c4 0926 a275 5826 d9c3 1f2a 8822 9a29
000001a0: 3231 212d 9b47 352b 1c86 652e 46f6 642c
000001b0: 2f43 642a 2b84 0b27 210f 4031 ea46 352f
000001c0: 31a0 832d 9de9 672b 0000 0000 dfaa 2423
000001d0: 8b2b f82c 4043 c52a cc06 1532 4d26 fd2f
000001e0: 0b52 282d 0a6d 1a2b 0000 0000 0000 0000
000001f0: 5bf9 ed2d 4f1f f72b 0000 0000 fc81 ed24
0.0 0.0 4.5088187e-13 9.022497e-14 1.9775697e-11 1.2356981e-12 3.696382e-15 4.825261e-15
8.334911e-15 7.0374555e-17 0.0 0.0 2.0890765e-11 1.031733e-12 1.0514275e-13 1.6602905e-14
0.0 0.0 0.0 0.0 3.3690067e-12 1.7185067e-13 1.1064679e-12 2.0983492e-13
7.861857e-12 4.2436858e-13 2.6743922e-15 9.134532e-16 5.3265965e-11 9.160994e-12 0.0 0.0
3.255187e-11 2.98678e-12 0.0 0.0 1.3650888e-06 9.158355e-08 0.0 0.0
0.0 0.0 0.0 0.0 1.1909751e-15 2.4720894e-15 4.0905317e-12 1.6540592e-13
2.5792769e-12 1.0312534e-13 2.9566978e-12 1.7929802e-13 0.0 0.0 8.399118e-11 7.0991563e-12
7.696946e-11 4.3529963e-12 4.995955e-12 2.2484771e-13 0.0 0.0 4.051244e-12 1.4474755e-13
4.7432778e-14 6.5878616e-17 7.7956105e-12 4.2488409e-13 0.0 0.0 2.0809727e-11 1.0014986e-12
0.0 0.0 0.0 0.0 4.9275455e-11 2.8721205e-12 1.4339868e-10 7.352657e-12
0.0 0.0 0.0 0.0 2.8674045e-15 1.41021e-15 2.7995701e-11 1.9121382e-12
1.8684729e-11 1.0762422e-12 6.502761e-11 4.2509633e-12 3.3354357e-12 8.758279e-14 0.0 0.0
0.0 0.0 2.139973e-12 1.8008937e-13 4.779734e-16 7.5099476e-16 1.4189985e-13 6.844964e-14
9.162714e-12 6.440349e-13 5.2187685e-11 3.2537458e-12 2.0273777e-13 1.9361773e-15 2.7948277e-09 1.6487048e-10
1.4964115e-11 8.239189e-13 0.0 8.926641e-18 7.053418e-12 3.5040894e-13 8.674487e-09 4.6047646e-10
9.567912e-12 5.4863113e-13 0.0 0.0 2.7054517e-11 1.7559095e-12 0.0 1.0300257e-16

exp_avg f4 [64]
00000000: 0000 0000 0400 0000 0400 0000 0400 0000
00000010: 0400 0000 0000 0000 0400 0000 0400 0000
00000020: 0000 0000 0000 0000 0400 0000 0400 0000
00000030: 0400 0000 0400 0000 0400 0000 0000 0000
00000040: 0400 0000 0000 0000 0400 0000 0000 0000
00000050: 0000 0000 0000 0000 0400 0000 0400 0000
00000060: 0400 0000 0400 0000 0000 0000 0400 0000
00000070: 0400 0000 0400 0000 0000 0000 0400 0000
00000080: 0400 0000 0400 0000 0000 0000 0400 0000
00000090: 0000 0000 0000 0000 0400 0000 0400 0000
000000a0: 0000 0000 0000 0000 0400 0000 0400 0000
000000b0: 0400 0000 0400 0000 0400 0000 0000 0000
000000c0: 0000 0000 0400 0000 0400 0000 0400 0000
000000d0: 0400 0000 0400 0000 0400 0000 2d2d bcb1
000000e0: 0400 0000 0400 0000 0400 0000 0400 0000
000000f0: 0400 0000 0000 0000 0400 0000 0400 0000
0.0 6e-45 6e-45 6e-45 6e-45 0.0 6e-45 6e-45
0.0 0.0 6e-45 6e-45 6e-45 6e-45 6e-45 0.0
6e-45 0.0 6e-45 0.0 0.0 0.0 6e-45 6e-45
6e-45 6e-45 0.0 6e-45 6e-45 6e-45 0.0 6e-45
6e-45 6e-45 0.0 6e-45 0.0 0.0 6e-45 6e-45
0.0 0.0 6e-45 6e-45 6e-45 6e-45 6e-45 0.0
0.0 6e-45 6e-45 6e-45 6e-45 6e-45 6e-45 -5.476656e-09
6e-45 6e-45 6e-45 6e-45 6e-45 0.0 6e-45 6e-45

exp_avg_sq f4 [64]
00000000: 0000 0000 e9bd 3a2d 3e58 552e a8d9 652b
00000010: 263a 8d28 0000 0000 6b8d 5b2e 72a4 6a2b
00000020: 0000 0000 0000 0000 e1da f92c dd5f 972d
00000030: 3d77 8e2d fdbf 2529 8710 1b2f 0000 0000
00000040: 0684 592f 0000 0000 5972 fc35 0000 0000
00000050: 0000 0000 0000 0000 ed7f 0b2b 22e2 d82c
00000060: 670f 3a2d 7eac c42c 0000 0000 8d6c 702f
00000070: 0fa7 322f 26fe 402d 0000 0000 2181 a32c
00000080: af0c 7329 bc25 a52d 0000 0000 c912 402e
00000090: 0000 0000 0000 0000 95a6 df2e 517e 932f
000000a0: 0000 0000 0000 0000 4143 532a 64da 982e
000000b0: 311b 312e e7d9 342f f3c1 ad2c 0000 0000
000000c0: 0000 0000 f2ec 6b2c 0fb3 342a 7c5c 1f2b
000000d0: bfac d62d cbc4 242f 423a b22a e771 eb31
000000e0: f25b ec2d f23d 0227 a987 592d 6208 8c32
000000f0: 5cc1 a42d 0000 0000 eda2 a12e 90da bb28
0.0 1.06150444e-11 4.8508968e-11 8.16592e-13 1.5679363e-14 0.0 4.992044e-11 8.3361714e-13
0.0 0.0 7.101306e-12 1.7209284e-11 1.6196483e-11 3.6803883e-14 1.410304e-10 0.0
1.9782939e-10 0.0 1.8808743e-06 0.0 0.0 0.0 4.9560253e-13 6.164195e-12
1.0576296e-11 5.5898055e-12 0.0 2.1866438e-10 1.6248357e-10 1.0970369e-11 0.0 4.647075e-12
5.396784e-14 1.8775086e-11 0.0 4.367243e-11 0.0 0.0 1.0170457e-10 2.6828897e-10
0.0 0.0 1.8763898e-13 6.950954e-11 4.026929e-11 1.6448319e-10 4.9384884e-12 0.0
0.0 3.352704e-12 1.6049335e-13 5.6616495e-13 2.4405698e-11 1.4985628e-10 3.1659576e-13 6.8523494e-09
2.6870926e-11 1.8074705e-15 1.23651445e-11 1.6301957e-08 1.873051e-11 0.0 7.350374e-11 2.0855957e-14

exp_avg f4 [64, 64]
00000000: 0000 0000 0400 0080 0400 0000 0000 0000
00000010: 0000 0000 0000 0000 0400 0000 0000 0000
00000020: 0000 0000 0000 0000 0000 0000 0400 0000
00000030: 0000 0000 0000 0000 0400 0000 0000 0000
00000040: 0400 0000 0000 0000 0400 0000 0000 0000
00000050: 0000 0000 0000 0000 0000 0000 0000 0000
00000060: 0000 0000 0000 0000 0000 0000 0400 0000
00000070: 0400 0000 0000 0000 0000 0000 0000 0000
00000080: 0000 0000 0000 0000 0000 0000 0000 0000
00000090: 0000 0000 0000 0000 0000 0000 0400 0000
000000a0: 0000 0000 0000 0000 0000 0000 0400 0080
000000b0: 0400 0000 0400 0000 0000 0000 0000 0000
000000c0: 0000 0000 0000 0000 0000 0000 0000 0000
000000d0: 0000 0000 0400 0000 0000 0000 0400 0000
000000e0: 0000 0000 0000 0000 0000 0000 0400 0000
000000f0: 0400 0000 0000 0000 0400 0000 0000 0000
00000100: 0000 0000 0000 0000 0400 0000 0400 0000
00000110: 0400 0080 0000 0000 0400 0000 0400 0000
00000120: 0000 0000 0000 0000 0400 0080 0000 0000
00000130: 0400 0000 0400 0000 0400 0000 0000 0000
00000140: 0400 0000 0000 0000 0400 0000 0000 0000
00000150: 0000 0000 0000 0000 0000 0000 0400 0000
00000160: 0400 0080 0400 0000 0000 0000 0400 0000
00000170: 0400 0000 0400 0000 0000 0000 0400 0000
00000180: 0000 0000 0400 0000 0000 0000 0400 0000
00000190: 0000 0000 0000 0000 0400 0000 0400 0000
000001a0: 0000 0000 0000 0000 0000 0000 0400 0000
000001b0: 0400 0000 0400 0000 0400 0080 0000 0000
000001c0: 0000 0000 0400 0000 0000 0000 0400 0000
000001d0: 0400 0000 0400 0000 0400 0080 0400 0000
000001e0: 0400 0000 0000 0000 0400 0000 0400 0000
000001f0: 0400 0000 0000 0000 0400 0000 0000 0000
00000200: 0000 0000 0400 0000 0400 0000 0400 0080
00000210: 0000 0000 0000 0000 0400 0000 0400 0000
00000220: 0000 0000 0000 0000 0000 0000 0400 0000
00000230: 0400 0000 0400 0080 0400 0000 0000 0000
00000240: 0400 0080 0000 0000 0400 0000 0000 0000
00000250: 0000 0000 0000 0000 0400 0000 0400 0000
00000260: 0000 0000 0400 0000 0000 0000 0400 0000
00000270: 0400 0000 0400 0000 0000 0000 0400 0000
00000280: 0000 0000 0400 0000 0000 0000 0400 0000
00000290: 0000 0000 0000 0000 0400 0000 0400 0000
000002a0: 0000 0000 0000 0000 0400 0000 0400 0000
000002b0: 0400 0000 0400 0000 0000 0000 0000 0000
000002c0: 0000 0000 0400 0000 0400 0000 0400 0000
000002d0: 0400 0000 0400 0000 0000 0000 0400 0000
000002e0: 0400 0000 0400 0000 0400 0000 0400 0000
000002f0: 0400 0000 0000 0000 0400 0000 0400 0000
00000300: 0000 0000 0000 0000 0000 0000 0000 0000
00000310: 0000 0000 0000 0000 0000 0000 0000 0000
00000320: 0000 0000 0000 0000 0000 0000 0000 0000
00000330: 0000 0000 0000 0000 0000 0000 0000 0000
00000340: 0000 0000 0000 0000 0400 0000 0000 0000
00000350: 0000 0000 0000 0000 0000 0000 0000 0000
00000360: 0000 0000 0000 0000 0000 0000 0000 0000
00000370: 0000 0000 0000 0000 0000 0000 0000 0000
00000380: 0000 0000 0000 0000 0000 0000 0000 0000
00000390: 0000 0000 0000 0000 0000 0000 0000 0000
000003a0: 0000 0000 0000 0000 0000 0000 0000 0000
000003b0: 0000 0000 0000 0000 0000 0000 0000 0000
000003c0: 0000 0000 0000 0000 0000 0000 0000 0000
000003d0: 0000 0000 0000 0000 0000 0000 0400 0000
000003e0: 0000 0000 0000 0000 0000 0000 0400 0000
000003f0: 0000 0000 0000 0000 0000 0000 0000 0000
0.0 -6e-45 6e-45 0.0 0.0 0.0 6e-45 0.0
0.0 0.0 0.0 6e-45 0.0 0.0 6e-45 0.0
6e-45 0.0 6e-45 0.0 0.0 0.0 0.0 0.0
0.0 0.0 0.0 6e-45 6e-45 0.0 0.0 0.0
0.0 0.0 0.0 0.0 0.0 0.0 0.0 6e-45
0.0 0.0 0.0 -6e-45 6e-45 6e-45 0.0 0.0
0.0 0.0 0.0 0.0 0.0 6e-45 0.0 6e-45
0.0 0.0 0.0 6e-45 6e-45 0.0 6e-45 0.0
0.0 0.0 6e-45 6e-45 -6e-45 0.0 6e-45 6e-45
0.0 0.0 -6e-45 0.0 6e-45 6e-45 6e-45 0.0
6e-45 0.0 6e-45 0.0 0.0 0.0 0.0 6e-45
-6e-45 6e-45 0.0 6e-45 6e-45 6e-45 0.0 6e-45
0.0 6e-45 0.0 6e-45 0.0 0.0 6e-45 6e-45
0.0 0.0 0.0 6e-45 6e-45 6e-45 -6e-45 0.0
0.0 6e-45 0.0 6e-45 6e-45 6e-45 -6e-45 6e-45
6e-45 0.0 6e-45 6e-45 6e-45 0.0 6e-45 0.0
0.0 6e-45 6e-45 -6e-45 0.0 0.0 6e-45 6e-45
0.0 0.0 0.0 6e-45 6e-45 -6e-45 6e-45 0.0
-6e-45 0.0 6e-45 0.0 0.0 0.0 6e-45 6e-45
0.0 6e-45 0.0 6e-45 6e-45 6e-45 0.0 6e-45
0.0 6e-45 0.0 6e-45 0.0 0.0 6e-45 6e-45
0.0 0.0 6e-45 6e-45 6e-45 6e-45 0.0 0.0
0.0 6e-45 6e-45 6e-45 6e-45 6e-45 0.0 6e-45
6e-45 6e-45 6e-45 6e-45 6e-45 0.0 6e-45 6e-45
0.0 0.0 0.0 0.0 0.0 0.0 0.0 0.0
0.0 0.0 0.0 0.0 0.0 0.0 0.0 0.0
0.0 0.0 6e-45 0.0 0.0 0.0 0.0 0.0
0.0 0.0 0.0 0.0 0.0 0.0 0.0 0.0
0.0 0.0 0.0 0.0 0.0 0.0 0.0 0.0
0.0 0.0 0.0 0.0 0.0 0.0 0.0 0.0
0.0 0.0 0.0 0.0 0.0 0.0 0.0 6e-45
0.0 0.0 0.0 6e-45 0.0 0.0 0.0 0.0
