data/results/gbwm_4goals_bs4800_lr0.01_hist/final_model.pth (torch, 198771 bytes, 39 tensors)

shared_backbone.0.weight f4 [64, 2]
-1.1889144 -0.03048663 -0.10493868 -0.22319435 -0.09652628 0.03588452 0.2265313 -0.59688294
-0.10305138 -0.118290365 -0.07556538 -0.22898692 -0.16750264 -0.05327302 -0.08563531 -0.075562015
-0.1702823 -0.028153444 -0.06242186 -0.025731277 -0.05528769 -0.19404605 0.036898524 -0.020057473
-2.0514388 0.19532448 0.1529713 0.060710665 0.1508113 -0.3770113 -0.045572504 0.17377745
-0.11749263 0.04120328 0.018801806 -0.2783458 -0.3955083 0.095490895 -0.0079077035 -0.10652186
-0.16694771 0.14216805 -0.039671544 -0.20121415 -0.16148363 -0.2591606 0.13017333 -0.09329257
-0.012882807 -0.14474797 -0.0054668486 0.14059453 -0.037713356 -0.09478831 0.063599855 0.096449114
0.22333322 -0.2975283 0.16146755 0.0133348545 -0.201141 -0.24639249 0.8382905 -0.2605208
-0.007097459 0.058139253 -0.03051676 -0.09405199 -0.14513709 -0.14358751 0.117356166 -0.110956915
0.049257603 -0.21446209 -0.07156804 -0.124660395 0.07178798 -0.22418366 -0.10683022 -0.1853894
-0.03844224 -0.13214777 -0.03450767 -0.17193428 0.07996474 -0.3825522 -0.07733219 -0.03277582
-0.2772815 -0.2631298 -0.07343564 -0.015604187 -0.21580541 -0.24877355 0.012874359 -0.20256305
-0.037589785 0.14401656 0.12548392 -0.33264053 -0.03687832 -0.04787403 -1.2290967 0.1462368
-0.18138325 -0.24970931 -0.41647846 -0.01456911 -0.15731299 -0.24004284 -0.3735569 0.24906516
0.19989718 0.022145933 0.060822837 -0.04552404 -0.00018384757 0.017255288 -0.088175826 0.122201696
-0.08210529 0.22520214 -0.13247238 0.03793847 -0.078103855 -0.03796204 0.4364297 -0.2610298
00000000: 592e 98bf 19bf f9bc 17ea d6bd 0f8d 64be
00000010: 92af c5bd a5fb 123d d2f7 673e 52cd 18bf
00000020: 9a0c d3bd 3842 f2bd 06c2 9abd 8c7b 6abe
00000030: d085 2bbe cf34 5abd 9161 afbd 42c0 9abd
00000040: 7c5e 2ebe 0da2 e6bc 10ae 7fbd 66ca d2bc
00000050: 5875 62bd 02b4 46be e822 173d 924f a4bc
00000060: c64a 03c0 2403 483e 82a4 1c3e bfab 783d
00000070: 476e 1a3e a007 c1be 3caa 3abd b7f2 313e
00000080: fa9f f0bd c5c4 283d 3f06 9a3c 5783 8ebe
00000090: 1080 cabe bb90 c33d 508f 01bc 2228 dabd
000000a0: 57f4 2abe 8094 113e a17e 22bd 150b 4ebe
000000b0: f75b 25be b3b0 84be 284c 053e 2d10 bfbd
000000c0: 6912 53bc d038 14be 4023 b3bb 03f8 0f3e
000000d0: 5279 1abd 6020 c2bd a440 823d 1d87 c53d
000000e0: 77b1 643e a155 98be c057 253e 6f7a 5a3c
000000f0: e8f7 4dbe 504e 7cbe 359a 563f fb62 85be
00000100: cd91 e8bb 6d23 6e3d 49fe f9bc 549e c0bd
00000110: d19e 14be 9b08 13be 6e58 f03d 613d e3bd
00000120: 57c2 493d f39b 5bbe 4492 92bd f34d ffbd
00000130: 9405 933d 6790 65be cdc9 dabd b8d6 3dbe
00000140: 9c75 1dbd bf51 07be ea57 0dbd 8a0f 30be
00000150: 8ec4 a33d e2dd c3be 5760 9ebd f03f 06bd
00000160: d7f7 8dbe f3b8 86be 6d65 96bd b4a8 7fbc
00000170: 18fc 5cbe 7ebe 7ebe faee 523c b06c 4fbe
00000180: bff7 19bd 1479 133e db7e 003e dc4f aabe
00000190: b90d 17bd 8f17 44bd 0a53 9dbf 1abf 153e
000001a0: 88bc 39be ccb3 7fbe aa3c d5be 47b3 6ebc
000001b0: a816 21be cacd 75be da42 bfbe f00a 7f3e
000001c0: d9b1 4c3e 636b b53c 5e21 793d 6a77 3abd
000001d0: 35c7 40b9 f65a 8d3c 8795 b4bd e244 fa3d
000001e0: d126 a8bd 649b 663e d7a6 07be 5e65 1b3d
000001f0: eaf4 9fbd 167e 1bbd b773 df3e b3a5 85be

shared_backbone.0.bias f4 [64]
-0.01509817 0.0 -0.020758193 -0.2019419 0.0 0.0 0.0 0.0
-0.050149452 -0.011416808 -0.06005381 -0.05703273 0.5273621 -0.1665312 -0.13774717 -0.07969413
-0.060054652 -0.032758597 -0.005323943 -0.034354016 -0.0059454194 -0.0126292 0.0 -0.14716873
-0.073458225 -0.060951293 0.0 -0.12813744 -0.23996669 -0.16120028 0.0 -0.31926078
-0.023140788 0.0 -0.006955579 -0.14593427 -0.06490257 0.0 -0.07093853 0.0
0.0 0.0 -0.07924508 0.0 0.0 -0.060054176 0.0 -0.01916842
-0.013470588 -0.13712792 -0.08655221 -0.07336218 0.0 -0.0067115044 0.0 -0.034283843
-0.21263994 -0.10383912 -0.041880876 -0.028401852 -0.010300425 -0.060054835 -0.060045447 -0.4135743
00000000: 515e 77bc 0000 0000 160d aabc dcc9 4ebe
00000010: 0000 0000 0000 0000 0000 0000 0000 0000
00000020: 8369 4dbd 900d 3bbc fcfa 75bd 279b 69bd
00000030: 3401 073f 2887 2abe 980d 0dbe ad36 a3bd
00000040: defb 75bd e12d 06bd 7974 aebb ccb6 0cbd
00000050: cbd1 c2bb b4ea 4ebc 0000 0000 66b3 16be
00000060: 4471 96bd 10a8 79bd 0000 0000 7636 03be
00000070: d4b9 75be b011 25be 0000 0000 2676 a3be
00000080: c091 bdbc 0000 0000 a0eb e3bb cb6f 15be
00000090: a3eb 84bd 0000 0000 3848 91bd 0000 0000
000000a0: 0000 0000 0000 0000 3f4b a2bd 0000 0000
000000b0: 0000 0000 5efb 75bd 0000 0000 1707 9dbc
000000c0: beb3 5cbc 436b 0cbe 4942 b1bd e93e 96bd
000000d0: 0000 0000 2eec dbbb 0000 0000 376d 0cbd
000000e0: 49be 59be 9ba9 d4bd 488b 2bbd 00ab e8bc
000000f0: 1dc3 28bc 0ffc 75bd 37f2 75bd 03c0 d3be

shared_backbone.2.weight f4 [64, 64]
-0.80163854 -0.114446975 -0.14501727 0.2953545 0.079998 -0.27624276 0.22477777 -0.0025806336
0.017477568 0.0069746412 0.16094308 0.133296 -3.0423894 0.14733411 0.2484083 0.09278231
0.02817895 -0.059482466 -0.07343445 -0.018176237 -0.34172893 -0.005657182 0.03897008 0.038974307
0.18044348 0.050322823 -0.100277044 -0.15679824 -0.4984019 -0.010350569 -0.09817224 0.7348379
0.13772501 0.1665345 -0.22566657 0.41351387 -0.15542689 -0.1573963 0.008770414 -0.00062698586
-0.17166393 -0.1805684 0.11186459 0.24136722 -0.14633337 -0.26376906 -0.2154235 0.12429173
-0.14251904 -0.013634461 -0.021709861 0.068936616 -0.16684647 -0.12538934 0.08326734 -0.24217857
-0.22365169 -0.0144793065 -0.15117115 0.079638384 -0.27162957 0.18658784 0.030994173 -0.41442588
0.33253735 -0.13635111 -0.23802575 -0.074944295 0.119233556 -0.17529634 -0.1668681 -0.25315174
-0.016965112 -0.16626146 0.14319363 -0.23750009 -0.14211738 0.013095639 -0.2551095 0.05538418
0.45746782 -0.18615574 -0.4096587 0.15783903 -0.032072324 0.0030777147 0.15761924 -0.054615144
0.049787316 -0.40752444 0.075557984 -0.05258075 0.096719 0.07802477 0.16393332 -0.21586557
0.46155292 -0.010813373 -0.29574198 -0.039833616 0.0044519575 -0.20417261 -0.13180748 -0.4309984
0.0019787368 0.18765515 -0.056613863 -0.0687663 -0.12131874 0.11814212 0.03830521 -0.055929195
-0.20166223 -0.15350015 -0.017259339 -0.011553709 -0.32950422 0.014192856 -0.19390205 -0.11690879
0.07373856 -0.116263986 -0.10800211 0.010592349 -0.15597461 -0.06532837 0.0004502738 -0.12662497
-0.21553431 -0.09870658 0.08011236 -0.20203112 0.15439576 0.08989238 0.12902239 0.169303
-0.24862388 -0.08794636 0.18123478 -0.0038520736 -0.2435694 -0.026962146 0.08504218 0.074656464
0.21144949 -0.011867838 -0.19169094 0.16339879 -0.2550019 -0.25880307 -0.11374565 0.29883382
0.23111807 -0.39468518 0.24531063 -0.21785906 0.13583763 0.21692188 -0.16184391 0.5213714
-0.11707783 0.091138974 -0.013086834 0.016161663 0.1335813 0.085603096 0.023178242 -0.14363545
0.009636985 0.042384874 0.32697675 0.043260496 -0.032447014 0.2312992 0.19906896 -0.053059887
0.08689238 0.22214313 -0.2048469 -0.072935894 -0.028016135 -0.30312616 0.23008919 -0.06579526
-0.017240455 0.20939507 0.39907372 -0.045313604 0.20033304 0.007583917 -0.09419976 0.21888793
0.11927495 0.21910231 0.12113168 0.16387485 -0.07590287 0.104022175 -0.026549801 -0.21087287
-0.08304761 0.11181998 0.106049165 0.15772325 0.021251608 0.016449483 -0.34756893 -0.08760976
0.23578097 -0.28997925 0.24606211 -0.013802063 -0.47698647 -0.18190975 0.007238261 0.025565509
0.12938502 -0.12678757 -0.18214825 -0.092775755 0.1594324 -0.25282598 0.2020533 0.09737508
-0.01767395 -0.3341139 -0.11172621 -0.3121848 -0.197305 0.08669363 -0.07670298 0.17026734
-0.009036279 -0.14490183 -0.21071891 0.4041619 -0.059818946 -0.046991993 0.26322794 -0.33765697
0.10338148 -0.30000788 0.13498873 0.0926932 -0.06215269 0.2692869 0.2982123 -0.18733276
0.0072106696 -0.024411442 0.08795276 -0.02695664 0.03736237 -0.0047755395 -0.05033542 -0.3563753
00000000: 2f38 4dbf 2d63 eabd 687f 14be b438 973e
00000010: fed5 a33d b16f 8dbe 252c 663e d91f 29bb
00000020: 1e2d 8f3c 888b e43b 43ce 243e bf7e 083e
00000030: 82b6 42c0 c1de 163e bf5e 7e3e a704 be3d
00000040: 8bd7 e63c e3a3 73bd cd64 96bd 55e6 94bc
00000050: 18f7 aebe e25f b9bb 179f 1f3d 86a3 1f3d
00000060: 2dc6 383e 4e1f 4e3d 0d5e cdbd b88f 20be
00000070: 892e ffbe 6f95 29bc 870e c9bd 561e 3c3f
00000080: c907 0d3e 0588 2a3e 2315 67be 17b8 d33e
00000090: 3a28 1fbe 7f2c 21be c8b1 0f3c 4f5c 24ba
000000a0: abc8 2fbe ece6 38be 4319 e53d f828 773e
000000b0: 6ad8 15be bd0c 87be fa97 5cbe aa8c fe3d
000000c0: 83f0 11be 1363 5fbc e1d8 b1bc a42e 8d3d
000000d0: cdd9 2abe 1066 00be 1188 aa3d a9fd 77be
000000e0: f304 65be 9d3a 6dbc 9ccc 1abe 7319 a33d
000000f0: 0813 8bbe e210 3f3e 7ee7 fd3c a12f d4be
00000100: 5642 aa3e a09f 0bbe 06bd 73be 657c 99bd
00000110: b930 f43d e280 33be 79df 2abe 1b9d 81be
00000120: 6bfa 8abc 7240 2abe 5aa1 123e 3933 73be
00000130: 3887 11be 178f 563c b69d 82be 86da 623d
00000140: 3939 ea3e 9c9f 3ebe c9be d1be 8ea0 213e
00000150: 455e 03bd 7cb3 493b f066 213e 21b4 5fbd
00000160: c9ed 4b3d 0ba7 d0be 25be 9a3d ea5e 57bd
00000170: 9c14 c63d 73cb 9f3d 23de 273e dd0b 5dbe
00000180: aa50 ec3e 932a 31bc 7e6b 97be 9328 23bd
00000190: bae1 913b a012 51be 8af8 06be d3ab dcbe
000001a0: b2ad 013b ac28 403e f0e3 67bd 59d5 8cbd
000001b0: f675 f8bd 7ff4 f13d ede5 1c3d 0316 65bd
000001c0: 8b80 4ebe 252f 1dbe 7563 8dbc c54b 3dbc
000001d0: c7b4 a8be 2789 683c 428e 46be e06d efbd
000001e0: 3e04 973d d01b eebd 3630 ddbd 888b 2d3c
000001f0: cfb7 1fbe e1ca 85bd ba12 ec39 faa9 01be
00000200: 07b5 5cbe ad26 cabd f311 a43d 3fe1 4ebe
00000210: ec19 1e3e 7f19 b83d 721e 043e c45d 2d3e
00000220: 4297 7ebe 391d b4bd 9c95 393e 1273 7cbb
00000230: 426a 79be b8df dcbc 982a ae3d 7de5 983d
00000240: 3786 583e 5271 42bc a14a 44be 0352 273e
00000250: 9c8f 82be d681 84be 7bf3 e8bd bf00 993e
00000260: 37aa 6c3e 2d14 cabe b632 7b3e 7216 5fbe
00000270: 0519 0b3e c520 5e3e 69ba 25be 9978 053f
00000280: 80c6 efbd 12a7 ba3d 296a 56bc 7765 843c
00000290: 89c9 083e ad50 af3d 4ce0 bd3c 2c15 13be
000002a0: 72e4 1d3c c39b 2d3d 7f69 a73e eb31 313d
000002b0: 29e7 04bd b3d9 6c3e bcd8 4b3e 5355 59bd
000002c0: a2f4 b13d 7d79 633e 63c3 51be 6a5f 95bd
000002d0: 1882 e5bc 5a33 9bbe 809c 6b3e aabf 86bd
000002e0: db3b 8dbc a96b 563e 6453 cc3e c29a 39bd
000002f0: 1b24 4d3e 8282 f83b ceeb c0bd 2824 603e
00000300: 6d46 f43d 5b5c 603e e313 f83d cfce 273e
00000310: f772 9bbd 9409 d53d f87e d9bc 0fef 57be
00000320: de14 aabd e001 e53d 4e30 d93d 3482 213e
00000330: da17 ae3c 11c1 863c 8ef4 b1be bf6c b3bd
00000340: 9170 713e 2978 94be b5f7 7b3e 0c22 62bc
00000350: 9237 f4be 8d46 3abe ef2e ed3b c26e d13c
00000360: 827d 043e 9ad4 01be 1285 3abe 3701 bebd
00000370: 3f42 233e 6872 81be 0fe7 4e3e 966c c73d
00000380: f6c8 90bc fa10 abbe b6d0 e4bd b0d6 9fbe
00000390: 520a 4abe 6e8c b13d 7416 9dbd 905a 2e3e
000003a0: e70c 14bc 2561 14be b3c6 57be 4fee ce3e
000003b0: b604 75bd ad7a 40bd d0c5 863e 60e1 acbe
000003c0: abb9 d33d a29a 99be 7c3a 0a3e efd5 bd3d
000003d0: d293 7ebd f9df 893e 48af 983e 29d4 3fbe
000003e0: 7b47 ec3b 81fa c7bc 9420 b43d 2cd4 dcbc
000003f0: 4909 193d 217c 9cbb 832c 4ebd d376 b6be

shared_backbone.2.bias f4 [64]
0.32931304 -0.07604454 -0.32369897 -0.16462083 -0.026997652 -0.09210502 0.22394718 0.17716518
-0.040520426 -0.059576485 -0.17627831 -0.009364801 -0.09226081 -0.12568797 -0.03642018 -0.2698321
-0.059282005 -0.034059364 -0.08621188 -0.060054086 -0.084537186 -0.10585957 -0.10594884 -0.040660754
-0.060054928 -0.0852878 -0.062860966 -0.120642975 -0.1329948 -0.0048428127 -0.081725255 -0.14668106
-0.31956986 0.20810026 -0.043805875 -0.099751666 -0.09008083 -0.28181565 -0.060054086 -0.12689254
-0.16722085 -0.052257072 0.4547675 -0.065427825 -0.34695196 -0.1251433 -0.041632522 -0.042193923
0.1263048 -0.0060401103 -0.042953756 0.15339203 0.3000393 -0.09435856 -0.06005492 -0.26404268
-0.15696682 -0.08160486 -0.06561428 -0.117827825 -0.055588704 -0.07665418 -0.006686261 -0.20269728
00000000: b89b a83e 3dbd 9bbd dfbb a5be 5d92 28be
00000010: 2e2a ddbc 8fa1 bcbd 6952 653e ca6a 353e
00000020: bff8 25bd 7906 74bd 4d82 34be d36e 19bc
00000030: 3cf3 bcbd 59b4 00be 542d 15bd 6f27 8abe
00000040: b0d1 72bd d581 0bbd db8f b0bd 46fb 75bd
00000050: d521 adbd e7cc d8bd b5fb d8bd e48b 26bd
00000060: 28fc 75bd 5fab aebd 40bd 80bd aa13 f7bd
00000070: ca2f 08be 75b0 9ebb 925f a7bd 8f33 16be
00000080: a99e a3be 3c18 553e ca6d 33bd 9a4a ccbd
00000090: 4c7c b8bd 244a 90be 46fb 75bd 1ef0 01be
000000a0: f13b 2bbe 830b 56bd 49d7 e83e 06ff 85bd
000000b0: b0a3 b1be 9125 00be dd86 2abd 89d3 2cbd
000000c0: 0c56 013e 1eec c5bb 47f0 2fbd cd12 1d3e
000000d0: c09e 993e 103f c1bd 26fc 75bd 9a30 87be
000000e0: e9bb 20be 7320 a7bd c860 86bd b74f f1bd
000000f0: fbb0 63bd defc 9cbd 6c18 dbbb e08f 4fbe

goal_head.weight f4 [2, 64]
-2.5892045 -0.55793446 0.1292326 0.023674387 -0.33043545 -0.13803595 -1.6742612 -2.5312746
-0.017000824 0.15525609 -0.1760275 -0.507292 0.048511405 0.05589816 -0.13805297 -0.19862202
0.027953891 -0.12340658 0.05694164 0.17864764 0.049572762 -0.18164422 -0.017451026 0.25174418
0.026838027 -0.19843632 -0.13280259 -0.094555326 0.0005637008 -0.29518044 0.102715686 0.04239474
-0.12558895 -1.5743517 -0.1029241 -0.07643116 -0.25174978 -0.0054358845 0.14965583 0.057215516
-0.30061492 -0.081193745 -3.1150713 0.19187944 0.45583156 0.017959628 -0.019437775 -0.235419
-2.2561853 -0.1391037 0.22760278 -2.4670446 -2.6766798 0.07434728 -0.13512959 -0.16261473
-0.077808 0.18308762 -0.026276935 0.09562741 0.07107841 0.05620467 -0.35755137 0.09638779
2.322819 0.039810717 -0.1894064 0.12432921 -0.074878074 -0.07712003 1.7719451 2.5349984
0.051155996 0.064087845 0.26776764 0.684727 -0.3195243 -0.1030055 0.14222494 -0.057620335
-0.14702599 0.28104472 -0.028425956 0.08453107 -0.01575711 0.06331088 0.3509706 0.3190436
-0.028483095 0.059175503 -0.09550329 -0.17720446 0.19864286 0.15460339 0.13935581 0.37960345
0.23190466 1.8170766 0.118083276 -0.45292792 0.06767493 0.034636613 0.20879723 0.00095494406
0.21227539 -0.062582806 3.089245 -0.07582344 0.04817994 -0.0898901 0.014115473 -0.2217696
2.025233 0.07296421 -0.014608451 2.126308 2.3437424 0.04888593 -0.32544622 0.20261362
-0.05331024 0.37779197 -0.16539596 -0.022862922 -0.12457079 0.11988697 0.56697154 -0.47455177
00000000: 87b5 25c0 cbd4 0ebf 8d55 043e caf0 c13c
00000010: d62e a9be 4c59 0dbe 314e d6bf 6700 22c0
00000020: 5045 8bbc 74fb 1e3e 8e40 34be e3dd 01bf
00000030: e5b3 463d 78f5 643d c25d 0dbe 9263 4bbe
00000040: 8fff e43c 97bc fcbd a33b 693d 68ef 363e
00000050: cf0c 4b3d f100 3abe 74f5 8ebc 9de4 803e
00000060: 6cdb db3c e432 4bbe 67fd 07be 39a6 c1bd
00000070: 52c5 133a e421 97be 9a5c d23d 1ba6 2d3d
00000080: 649a 00be 5b84 c9bf dfc9 d2bd f187 9cbd
00000090: 59e5 80be 811f b2bb 613f 193e d15a 6a3d
000000a0: 33ea 99be e848 a6bd 545d 47c0 0b7c 443e
000000b0: c162 e93e 1220 933c f83b 9fbc ae11 71be
000000c0: 5765 10c0 3371 0ebe b410 693e 0fe4 1dc0
000000d0: b94e 2bc0 6343 983d 695f 0abe 7a84 26be
000000e0: cd59 9fbd 527b 3b3e ba42 d7bc 4ed8 c33d
000000f0: 8f91 913d de36 663d f910 b7be f666 c53d
00000100: 11a9 1440 9010 233d c0f3 41be 50a0 fe3d
00000110: ad59 99bd 1bf1 9dbd 19cf e23f 6a3d 2240
00000120: f388 513d 7d40 833d d718 893e 454a 2f3f
00000130: b098 a3be 8cf4 d2bd 6aa3 113e 4d03 6cbd
00000140: fb8d 16be 18e5 8f3e 8ddd e8bc a01e ad3d
00000150: 0e15 81bc 22a9 813d 6bb2 b33e af59 a33e
00000160: 6155 e9bc 0362 723d 3b97 c3bd 1675 35be
00000170: 0969 4b3e 5a50 1e3e 4ab3 0e3e 625b c23e
00000180: 6a78 6d3e f795 e83f a5d5 f13d 2be6 e7be
00000190: 2799 8a3d 1fdf 0d3d f1ce 553e 3655 7a3a
000001a0: b85e 593e 6a2b 80bd 31b6 4540 5249 9bbd
000001b0: 5458 453d 4d18 b8bd 9644 673c 9217 63be
000001c0: 6b9d 0140 426e 953d 4958 6fbc 6e15 0840
000001d0: e0ff 1540 9d3c 483d e3a0 a6be f279 4f3e
000001e0: d75b 5abd f36d c13e 8f5d 29be 064b bbbc
000001f0: f81e ffbd 4d87 f53d 0c25 113f 73f8 f2be

goal_head.bias f4 [2]
-0.1704841 0.17048419
00000000: 6293 2ebe 6893 2e3e

portfolio_head.weight f4 [15, 64]
-0.2940037 0.37043688 0.1992568 0.1767566 -0.16039525 0.11207892 0.17287697 0.013914292
-0.0409643 0.07623458 -0.07557541 0.15102449 -0.38448223 0.29577094 0.14330332 0.01518249
0.12468051 -0.027814735 0.16729698 0.035189793 -0.054646533 -0.31387234 0.36933365 0.36813405
0.1551131 0.14945492 0.00027495314 0.06590469 0.2731267 -0.26975456 -0.12342401 0.17370562
0.22803967 1.1605142 -0.3178484 0.36587918 -0.103066586 -0.1905785 0.16306984 -0.13491194
-0.27560866 0.096882574 0.07957526 -0.090501875 -0.034159925 -0.25120744 -0.06550482 -0.16342995
-0.1563714 -0.04436028 -0.046078045 -0.010628941 -0.08401005 0.12260672 -0.17423746 -0.34116265
0.17868687 0.11837633 0.105608076 0.07781327 0.032035954 -0.030981472 0.11057002 0.24574131
0.6323181 -0.057645172 0.30874613 0.047491703 -0.06452314 -0.12133304 0.25629058 0.30196068
0.20545979 -0.19362271 -0.15490377 0.04902082 -0.28102127 -0.061283056 -0.07141052 0.077016555
0.1381549 0.11468564 -0.24041829 0.07983098 -0.19052202 0.29415196 -0.016055692 0.3940523
-0.41178864 0.19041578 0.08917993 -0.32663834 -0.07640741 0.08489 -0.010948232 0.20131494
-0.5967605 -0.71571314 0.13339956 -0.2891587 0.1450634 0.16741118 -0.15395603 0.005145561
-0.13545801 0.07293512 0.24577814 0.06705345 -0.2908277 -0.014604674 0.00967216 0.07648589
0.38411132 0.15177946 0.022375934 0.3860001 0.3905137 -0.054237455 -0.049484532 -0.033810798
0.105583094 -0.020766199 -0.16474667 -0.07215944 -0.1959226 -0.08309292 0.04953718 0.32455528
0.040381603 -0.39897236 -0.28710708 0.06893395 0.09032344 -0.22193745 -0.10159358 -0.030952338
-0.20373039 -0.028316716 -0.053330354 0.13028693 0.047550365 -0.15379377 0.07288663 0.087954774
-0.22600242 -0.09332848 -0.0982949 -0.14568461 -0.028048316 -0.10386531 -0.09569921 0.11173552
-0.4296832 0.15692244 0.21538936 0.045939043 -0.024455298 -0.13414857 -0.07961468 0.05154124
0.5100166 -0.5152432 0.039632615 -0.23331517 -0.2980024 -0.2504086 0.22382121 0.08218869
-0.018608706 0.24557441 0.009796008 -0.09517151 -0.0018113243 -0.2728434 -0.16444738 0.014244311
-0.033866413 -0.021495666 0.15087861 0.07208726 0.032881394 -0.09721951 0.22355668 0.04564049
0.03979281 -0.1542675 0.013837074 0.018835487 -0.13089171 0.124002956 0.102771096 0.07221092
0.052205827 -0.30730817 0.44333908 0.1272628 -0.08694873 -0.15699598 0.25851288 0.02795325
0.045618866 0.09832143 -0.31213757 0.022592543 0.38827878 -0.15150304 0.110713825 0.18066768
-0.05319281 -0.055076122 -0.043403406 -0.04135802 -0.11093975 0.015869668 0.362166 0.08428333
0.08023157 0.028869705 -0.2635454 -0.56640893 -0.074226655 -0.0836817 -0.4255705 -0.12326248
-0.12595233 0.27798983 -0.102587715 -0.04891328 -0.008721486 -0.50442904 0.16259497 0.3342483
0.6169815 0.04333788 0.26135677 0.16900025 0.120831646 0.16808276 0.09231717 0.09075357
0.0035053443 -0.15365478 0.26821163 0.021443224 0.27510363 -0.055286217 -0.2961505 -0.27242163
0.023831964 0.19591956 -0.13071747 -0.2859243 -0.040931195 0.20881775 0.20164353 -0.3517154
00000000: a787 96be e7a9 bd3e f909 4c3e afff 343e
00000010: a73e 24be a289 e53d a906 313e c5f8 633c
00000020: 2fca 27bd e020 9c3d 48c7 9abd 2aa6 1a3e
00000030: dbda c4be 4a6f 973e 1bbe 123e fbbf 783c
00000040: 7f58 ff3d badb e3bc e64f 2b3e 2c23 103d
00000050: 0bd5 5fbd e0b3 a0be 4d19 bd3e 117c bc3e
00000060: f8d5 1e3e b60a 193e 9627 9039 0af9 863d
00000070: 43d7 8b3e 451d 8abe bac5 fcbd e3df 313e
00000080: 3b83 693e bb8b 943f 07bd a2be 8454 bb3e
00000090: 9314 d3bd 0327 43be c8fb 263e 5b26 0abe
000000a0: 941c 8dbe 5f6a c63d 5bf8 a23d 0c59 b9bd
000000b0: 47eb 0bbd 439e 80be 6427 86bd 2e5a 27be
000000c0: d31f 20be 20b3 35bd 55bc 3cbd 0225 2ebc
000000d0: 760d acbd 3b19 fb3d 4e6b 32be dfac aebe
000000e0: b1f9 363e 4a6f f23d 0c49 d83d 905c 9f3d
000000f0: 2238 033d dbcc fdbc 8972 e23d 9ca3 7b3e
00000100: 99df 213f 581d 6cbd f913 9e3e a986 423d
00000110: b524 84bd 757d f8bd 8538 833e 979a 9a3e
00000120: 0d64 523e 0845 46be 189f 1ebe 0eca 483d
00000130: 05e2 8fbe f103 7bbd ae3f 92bd dbba 9d3d
00000140: 7a78 0d3e 4ee0 ea3d 3630 76be 6d7e a33d
00000150: 3418 43be 169b 963e 3a87 83bc 39c1 c93e
00000160: f6d5 d2be 5bfc 423e f8a3 b63d 243d a7be
00000170: 7d7b 9cbd cfda ad3d 3760 33bc 8125 4e3e
00000180: 4cc5 18bf fa38 37bf e599 083e 9c0c 94be
00000190: 808b 143e d66d 2b3e a6a6 1dbe 189c a83b
000001a0: 81b5 0abe 025f 953d 44ad 7b3e 5253 893d
000001b0: 5ee7 94be 7148 6fbc fb77 1e3c a2a4 9c3d
000001c0: 3daa c43e 136c 1b3e bc4d b73c cea1 c53e
000001d0: 69f1 c73e 1828 5ebd 4bb0 4abd 317d 0abd
000001e0: f33b d83d e01d aabc 5ab3 28be 54c8 93bd
000001f0: ef9f 48be 9f2c aabd 80e7 4a3d 1c2c a63e
00000200: 2e67 253d 1b46 ccbe b3ff 92be 3e2d 8d3d
00000210: 7ffb b83d 9243 63be 4b10 d0bd c28f fdbc
00000220: b39e 50be 75f8 e7bc ee70 5abd f069 053e
00000230: 2cc4 423d 1d7c 1dbe 9645 953d a221 b43d
00000240: 2e6d 67be 0123 bfbd d64e c9bd 592e 15be
00000250: 95c5 e5bc 56b7 d4bd f3fd c3bd 98d5 e43d
00000260: 70ff dbbe 47b0 203e 078f 5c3e 942a 3c3d
00000270: 7a56 c8bc 3e5e 09be 050d a3bd e81c 533d
00000280: 7390 023f fae6 03bf cf55 223d 2cea 6ebe
00000290: c593 98be 8e35 80be 6331 653e 8b52 a83d
000002a0: 4971 98bc dc77 7b3e 6f7f 203c 48e9 c2bd
000002b0: f569 edba 21b2 8bbe e564 28be f860 693c
000002c0: 82b7 0abd ae17 b0bc ec7f 1a3e 7ca2 933d
000002d0: a4ae 063d 061b c7bd 0bec 643e 86f1 3a3d
000002e0: c9fd 223d 4df8 1dbe e5b4 623c e14c 9a3c
000002f0: 7a08 06be 43f5 fd3d a779 d23d 52e3 933d
00000300: c7d5 553d 7f57 9dbe 57fd e23e 2e51 023e
00000310: 2d12 b2bd 8ec3 20be cd5b 843e 37fe e43c
00000320: d9da 3a3d bf5c c93d 7fd0 9fbe ff13 b93c
00000330: 7acc c63e 9d23 1bbe eebd e23d f300 393e
00000340: b4e0 59bd 8097 61bd c5c7 31bd 0767 29bd
00000350: 6134 e3bd 1b01 823c d26d b93e bd9c ac3d
00000360: 7350 a43d 2980 ec3c 6cef 86be 2d00 11bf
00000370: 2504 98bd 5061 abbd 60e4 d9be 0a71 fcbd
00000380: a6f9 00be af54 8e3e 8219 d2bd 4b59 48bd
00000390: 90e4 0ebc 4322 01bf 4c7f 263e 9822 ab3e
000003a0: 80f2 1d3f 1083 313d 8ed0 853e 670e 2d3e
000003b0: 9576 f73d e31d 2c3e c910 bd3d 02dd b93d
000003c0: ebb9 653b ae57 1dbe 0953 893e b3a9 af3c
000003d0: 62da 8c3e cd73 62bd 0aa1 97be d97a 8bbe
000003e0: 403b c33c 239f 483e cdda 05be ab64 92be
000003f0: 78a7 27bd 52d4 553e a47b 4e3e 0a14 b4be

portfolio_head.bias f4 [15]
-0.34193963 0.22292542 0.13036019 -0.26698026 0.0012631882 0.20327963 0.054249223 0.011844704
0.3637565 0.23764479 0.03739155 0.24238746 -0.22849183 -0.15528901 0.24445379
00000000: b612 afbe 9046 643e 247d 053e a3b1 88be
00000010: 9091 a53a 8928 503e 6f34 5e3d 4a10 423c
00000020: 4b3e ba3e 2859 733e e227 193d 6b34 783e
00000030: c3f9 69be 1504 1fbe 1852 7a3e

network.0.weight f4 [64, 2]
1.1600422 0.023892296 0.75165665 -0.14169832 -0.045525413 -0.275191 -0.52027327 0.0037557702
-0.24303102 -0.12091308 1.1229788 0.120049365 -0.7029403 0.004440082 -0.23145631 0.19439735
-0.7196126 0.004780135 1.10942 0.17157315 0.038726896 -0.1694547 0.9628399 -0.52908605
-0.4666279 -0.11784797 -0.08973258 -0.38241854 0.005810595 -0.52671015 1.2609206 0.11358988
-0.2208368 -0.07022771 -0.8996979 0.0048478898 -0.032847695 -0.28654438 -0.04945359 -0.018424861
0.15044287 -0.12528603 -0.6068761 0.004768172 -0.33892244 -0.21308492 -0.10987167 -0.22833803
-0.03027186 -0.33916858 -0.009621575 -0.3114432 -0.140006 -0.093058795 -0.07395094 0.25051507
-0.011046033 -0.0517415 -0.110285506 0.062215194 -0.81089073 0.0041729836 -0.31630167 -0.008812952
-0.039909884 -0.021465885 -0.17031851 0.10967554 -0.10838198 -0.1959851 0.94327044 0.05936221
-0.8167211 0.0044572162 1.1559746 0.04208029 -0.1696323 0.2482 -0.014537523 -0.08698269
-0.10120327 0.25749037 0.6930905 -0.20944548 -0.8565819 0.0045290585 -0.0039952085 -0.15546337
-0.045626823 -0.08052957 -0.34253722 -0.24684352 -0.03664927 -0.029283166 -0.08272456 -0.32310152
2.1422062 0.055692177 -0.59855974 0.004409685 -0.8250978 0.0046177735 1.0241674 0.09288927
-0.861669 0.004208425 -0.58868337 0.14254685 -0.014666611 -0.057733595 -0.10592755 -0.22409883
-0.45739037 0.10661507 -0.8330865 0.0047646165 -0.13280834 0.19128372 0.027648717 -0.51654774
0.9466271 -0.06421474 -1.669017 0.0004883545 -0.81767875 0.0046823733 -0.053741172 -0.13389738
00000000: 437c 943f c7b9 c33c 926c 403f 5d19 11be
00000010: db78 3abd d6e5 8cbe a130 05bf 5e23 763b
00000020: 20dd 78be 47a1 f7bd c5bd 8f3f 71dc f53d
00000030: e5f3 33bf 1b7e 913b e202 6dbe 1910 473e
00000040: 8838 38bf aea2 9c3b 7901 8e3f dfb0 2f3e
00000050: 18a0 1e3d 8885 2dbe ad7c 763f 2f72 07bf
00000060: dae9 eebe 475a f1bd b7c5 b7bd 5dcc c3be
00000070: ce66 be3b 7ad6 06bf d965 a13f d0a1 e83d
00000080: 0b23 62be 8cd3 8fbd 9a52 66bf 0cdb 9e3b
00000090: 4e8b 06bd f2b5 92be d98f 4abd bcef 96bc
000000a0: b20d 1a3e fb4a 00be 3b5c 1bbf 533e 9c3b
000000b0: 3e87 adbe ef32 5abe 6604 e1bd 72d1 69be
000000c0: b1fc f7bc 81a7 adbe cfa3 1dbc 7c75 9fbe
000000d0: bc5d 0fbe 9c95 bebd 9773 97bd 8343 803e
000000e0: 6cfa 34bc e5ee 53bd 5edd e1bd 5cd5 7e3d
000000f0: 8996 4fbf 86bd 883b 4bf2 a1be 3364 10bc
00000100: 8c78 23bd 39d9 afbc fa67 2ebe 929d e03d
00000110: 5ff7 ddbd 51b0 48be 2c7a 713f ca25 733d
00000120: a214 51bf d70d 923b faf6 933f 625c 2c3d
00000130: 17b4 2dbe 2428 7e3e ca2e 6ebc fb23 b2bd
00000140: a943 cfbd c7d5 833e 616e 313f e078 56be
00000150: f448 5bbf 7f68 943b 3dea 82bb ca31 1fbe
00000160: 31e3 3abd b0ec a4bd 0a61 afbe 8cc4 7cbe
00000170: 8c1d 16bd 40e3 efbc 7e6b a9bd 906d a5be
00000180: e819 0940 7b1d 643d 363b 19bf 1e7f 903b
00000190: 9c39 53bf b150 973b eb17 833f bb3c be3d
000001a0: 5796 5cbf d4e6 893b f4b3 16bf cdf7 113e
000001b0: 3a4c 70bc 107a 6cbd 8bf0 d8bd 2a7a 65be
000001c0: 122f eabe 0059 da3d 2845 55bf 8020 9c3b
000001d0: e9fe 07be e1df 433e 907f e23c 793c 04bf
000001e0: 2756 723f 0583 83bd 59a2 d5bf ea04 003a
000001f0: 6553 51bf 986e 993b b41f 5cbd 651c 09be

network.0.bias f4 [64]
-0.3137814 0.06963745 0.3468186 0.4240619 -0.0305478 0.029414508 0.5711407 -0.08189048
0.584999 -0.12630011 -0.035982233 -0.24896042 0.0 0.0 0.0035794806 0.11232326
0.0 0.73180974 -0.07039114 0.0 0.31451702 0.4939122 0.0 0.0
-0.061528593 -0.065218516 0.0 0.6015323 0.0 -0.060053516 0.65955377 -0.06004568
0.0 -0.06005208 0.0 -0.12077764 0.66375536 0.2686377 -0.054421254 0.0
-0.04281907 -0.036358826 0.69641703 0.0 -0.060054395 0.48367366 0.0 0.0
-0.5334508 0.4864648 0.6702748 -0.13268138 0.7006004 0.76253194 0.0 0.0
0.55875486 0.67774564 0.40826392 -0.036859598 0.0064444537 1.2516583 0.6649052 0.0
00000000: f5a7 a0be 149e 8e3d 3592 b13e a41e d93e
00000010: 613f fabc b2f6 f03c 4736 123f 32b6 a7bd
00000020: 7fc2 153f d154 01be 1b62 13bd 7bef 7ebe
00000030: 0000 0000 0000 0000 b895 6a3b bd09 e63d
00000040: 0000 0000 e257 3b3f 3b29 90bd 0000 0000
00000050: 6008 a13e 0fe2 fc3e 0000 0000 0000 0000
00000060: 6805 7cbd 4991 85bd 0000 0000 05fe 193f
00000070: 0000 0000 adfa 75bd 84d8 283f 75f2 75bd
00000080: 0000 0000 2bf9 75bd 0000 0000 445a f7bd
00000090: dfeb 293f e18a 893e d2e8 5ebd 0000 0000
000000a0: 0d63 2fbd feec 14bd 6348 323f 0000 0000
000000b0: 99fb 75bd 13a4 f73e 0000 0000 0000 0000
000000c0: 3b90 08bf ea11 f93e 2197 2b3f a1dd 07be
000000d0: 8c5a 333f 4b35 433f 0000 0000 0000 0000
000000e0: 8f0a 0f3f bd80 2d3f f807 d13e 17fa 16bd
000000f0: ff2b d33b 5736 a03f 3a37 2a3f 0000 0000

network.2.weight f4 [64, 64]
0.57200813 0.3002364 0.10528657 0.3617615 -0.10759179 0.3968191 0.53734726 0.30881768
0.31576738 0.33570117 0.6988066 0.32770994 -0.26451072 -0.065375455 -0.31937346 0.5926884
-0.08221402 0.4390044 0.18311828 -0.36071372 -0.14256951 0.3184517 -0.08413934 -0.04304313
0.21060295 -0.027570788 0.013543155 0.29159155 0.2613908 0.18004952 0.49982038 0.050670814
-0.31816486 -0.19049641 0.25142464 0.37638617 0.49328312 0.680222 -0.05932084 -0.06848991
0.0876958 0.22717932 0.8019949 0.040737532 0.2902124 -0.46087217 -0.07596152 0.22135754
-2.3666337 0.23373024 0.4378936 0.2786688 0.9143747 -0.82162714 -0.13594706 -0.116543114
-0.55181956 0.38289908 0.24712986 0.033432547 0.4131267 -3.1929092 0.66577077 -0.03159291
0.7975433 0.2926905 -0.13851403 0.22208905 -0.12150319 0.63418907 0.34342015 -0.09746363
0.20992543 0.6927056 -0.18018933 0.28248343 0.074174635 -0.15118025 0.03603389 0.5054588
0.067818835 0.3971556 -0.1292585 -0.19836614 -0.12292566 0.5394862 0.25241452 0.02467876
0.3009596 -0.049817406 -0.10693043 0.23313728 -0.23431517 -0.214869 0.56218857 0.25598854
-0.12090576 -0.28762347 0.17368758 0.35757387 0.22891623 0.3205851 0.08564118 0.040076885
0.12032136 0.36528838 0.6306734 0.06676557 0.25251684 -0.4231465 -0.104763016 -0.0249545
-2.021229 0.5621965 0.47691473 0.35114855 0.70434165 -0.7420588 0.32018808 -0.013530611
-0.154415 0.893799 -0.012510495 -0.30941173 0.2893156 -3.074416 0.6619679 0.21896397
-0.09656581 0.1823301 0.6721848 -0.033279378 -0.12484507 0.16342993 0.26788676 -0.16592008
-0.041901417 0.29497126 -0.13719045 -0.14193973 -0.0711852 0.1232739 -0.115369245 0.42517224
0.21480402 0.53381807 0.015574922 0.24869983 0.39759597 0.0984553 -0.08560367 -0.15504342
0.16237225 -0.34105715 -0.16793792 0.68933934 0.042360228 0.43415043 0.24245371 0.10922283
0.011012282 -0.21921887 -0.08086851 0.14337967 0.4747967 0.36019823 -0.27767134 -0.19830735
-0.24650863 -0.057477858 0.5206729 -0.012612665 -0.090546496 0.3943437 0.4829698 -0.17122734
-2.9949791 0.09933671 0.38064602 -0.08540874 0.593431 0.48842672 0.01987592 -0.37914437
0.51892036 0.43454295 0.21329856 0.053076558 0.44927874 -3.3087287 0.3560031 0.031403877
0.35154536 0.23084086 0.17291823 0.5679976 -0.09823629 0.52487594 0.2088778 0.19475134
0.30940473 0.4825022 -0.13433146 0.6071492 -0.034410466 0.1979318 0.24425812 0.42006776
0.12837288 0.71387786 0.1633034 -0.052422795 0.010228071 0.15836726 -0.14994177 -0.14770454
0.02606992 0.105079286 -0.131846 0.44974604 -0.096314006 -0.098307244 0.24712506 -0.15635829
0.057150703 -0.037920125 0.03293082 0.58719933 0.7377157 0.41187182 0.00891125 0.4181084
-0.032163456 0.4930707 0.7348781 -0.08222602 -0.02482121 -0.31994826 -0.061482985 0.12722616
-2.5480843 0.2192041 0.20184562 0.44084194 0.3401186 -0.5159882 -0.16355237 -0.16848622
-0.18677504 0.52801436 0.29418075 0.21436724 0.41995636 -3.0612864 0.80950147 0.14362668
00000000: 206f 123f 96b8 993e 7ca0 d73d ce38 b93e
00000010: 1659 dcbd e02b cb3e 978f 093f 5a1d 9e3e
00000020: 43ac a13e 06e1 ab3e fde4 323f 99c9 a73e
00000030: f36d 87be 91e3 85bd eb84 a3be 6dba 173f
00000040: d35f a8bd 2fc5 e03e 5c83 3b3e 78af b8be
00000050: befd 11be 1a0c a33e 3f51 acbd fe4d 30bd
00000060: 4da8 573e 22dc e1bc 1ce4 5d3c 7d4b 953e
00000070: 04d5 853e e75e 383e 75e8 ff3e 338c 4f3d
00000080: 81e6 a2be 7e11 43be bbba 803e b0b5 c03e
00000090: 9b8f fc3e 0723 2e3f 69fa 72bd 7044 8cbd
000000a0: db99 b33d b2a1 683e 8a4f 4d3f 66dc 263d
000000b0: b896 943e 70f7 ebbe b791 9bbd 8dab 623e
000000c0: ed76 17c0 fb56 6f3e 9733 e03e adad 8e3e
000000d0: 7614 6a3f 2856 52bf b535 0bbe 28ae eebd
000000e0: 0c44 0dbf 590b c43e 9c0f 7d3e 91f0 083d
000000f0: 5885 d33e a058 4cc0 f46f 2a3f 9167 01bd
00000100: cc2b 4c3f 87db 953e 9fd6 0dbe 506b 633e
00000110: aad6 f8bd 375a 223f c4d4 af3e 039b c7bd
00000120: b1f6 563e 2755 313f 8d83 38be aba1 903e
00000130: dfe8 973d ffce 1abe 4698 133d bf65 013f
00000140: 9ae4 8a3d fb57 cb3e 575c 04be 7e20 4bbe
00000150: 73c0 fbbd c51b 0a3f 7a3c 813e 1c2b ca3c
00000160: 6017 9a3e 560d 4cbd 57fe dabd 8abb 6e3e
00000170: 51f0 6fbe 9e06 5cbe 97eb 0f3f ee10 833e
00000180: 709d f7bd 6243 93be 28db 313e ec13 b73e
00000190: 0469 6a3e bb23 a43e a564 af3d a927 243d
000001a0: 0c6b f63d 1407 bb3e d073 213f 63bc 883d
000001b0: e349 813e a8a6 d8be fe8d d6bd 616d ccbc
000001c0: d15b 01c0 1cec 0f3f 2b2e f43e bec9 b33e
000001d0: bc4f 343f 91f7 3dbf b1ef a33e 7faf 5dbc
000001e0: f71e 1ebe 03d0 643f d2f8 4cbc 376b 9ebe
000001f0: 2d21 943e 3bc3 44c0 ba76 293f 1738 603e
00000200: 4cc4 c5bd beb4 3a3e 4e14 2c3f f54f 08bd
00000210: c6ae ffbd 2d5a 273e 7428 893e f4e6 29be
00000220: d2a0 2bbd 7906 973e a77b 0cbe a658 11be
00000230: 8cc9 91bd 0777 fc3d b646 ecbd 2db0 d93e
00000240: 96f5 5b3e 4da8 083f f52d 7f3c 2bab 7e3e
00000250: b391 cb3e efa2 c93d fa50 afbd b4c3 1ebe
00000260: e944 263e 0b9f aebe ebf7 2bbe 8b78 303f
00000270: eb81 2d3d f748 de3e c945 783e 38b0 df3d
00000280: dc6c 343c e97a 60be 649e a5bd 1fd2 123e
00000290: 8e18 f33e e76b b83e f02a 8ebe 1511 4bbe
000002a0: c26c 7cbe e76d 6bbd d24a 053f 5aa5 4ebc
000002b0: 7170 b9bd 6be7 c93e d147 f73e 3856 2fbe
000002c0: bdad 3fc0 0c71 cb3d 09e4 c23e c7ea aebd
000002d0: 18eb 173f 1113 fa3e d3d2 a23c 361f c2be
000002e0: f7d7 043f 6a7c de3e f06a 5a3e ce66 593d
000002f0: dd07 e63e 36c2 53c0 0a46 b63e 5aa1 003d
00000300: c1fd b33e 8c61 6c3e 7a11 313e 4a68 113f
00000310: 1c30 c9bd 455e 063f 10e4 553e e56c 473e
00000320: 4c6a 9e3e 870a f73e 308e 09be 216e 1b3f
00000330: fdf1 0cbd a2ae 4a3e cd1e 7a3e 1f13 d73e
00000340: 2e74 033e b3c0 363f 0239 273e 49b9 56bd
00000350: a493 273c 072b 223e 568a 19be dc3f 17be
00000360: 9690 d53c cf33 d73d a302 07be 1d45 e63e
00000370: 4740 c5bd 4f55 c9bd 5a0e 7d3e 631c 20be
00000380: db16 6a3d 2252 1bbd 78e2 063d b252 163f
00000390: f0da 3c3f dde0 d23e 7e00 123c 4e12 d63e
000003a0: d4bd 03bd c373 fc3e f920 3c3f 1e66 a8bd
000003b0: da55 cbbc 42d0 a3be 95d5 7bbd 9347 023e
000003c0: d013 23c0 0a77 603e 9eb0 4e3e 09b6 e13e
000003d0: 0624 ae3e cd17 04bf 467a 27be a787 2cbe
000003e0: f541 3fbe f32b 073f dc9e 963e 1683 5b3e
000003f0: 8504 d73e 1eec 43c0 7d3b 4f3f df12 133e

network.2.bias f4 [64]
0.48404524 0.37839302 0.8462908 0.41046685 0.39147714 -0.24217005 -0.05108598 -0.08080424
-0.10891737 -0.060052633 -0.06039487 0.36683556 -0.07388843 -0.18802989 0.0 -0.06004985
-0.06005322 0.3975188 -0.060054272 -0.090959996 0.92812014 0.0 0.3718612 -0.17081672
0.0 0.0 -0.08249341 -0.060052764 0.40621156 0.41530424 0.40805203 0.5963976
-0.06005182 0.401095 -0.018781694 0.39288384 0.35732692 -0.060054053 0.40253672 -0.060046714
0.55386686 0.44626924 0.40120867 0.38397145 -0.09563997 -0.086373076 0.4565673 0.8934952
0.0 -0.23403934 -0.071950674 -0.073327325 0.0 0.4084075 -0.060054615 -0.060050078
-0.08616653 0.88866293 -0.06113833 -0.060054846 -0.060050976 0.52445513 0.37706354 0.40692878
00000000: c7d4 f73e bbbc c13e 84a6 583f b628 d23e
00000010: b16f c83e 6dfb 77be 883f 51bd b27c a5bd
00000020: 1210 dfbd c0f9 75bd 9c60 77bd dfd1 bb3e
00000030: d152 97bd e88a 40be 0000 0000 d5f6 75bd
00000040: 5dfa 75bd 9687 cb3e 78fb 75bd 3c49 babd
00000050: 4899 6d3f 0000 0000 9764 be3e 94ea 2ebe
00000060: 0000 0000 0000 0000 4ef2 a8bd e3f9 75bd
00000070: f6fa cf3e c2a2 d43e 32ec d03e 83ad 183f
00000080: e6f8 75bd 535c cd3e 11dc 99bc 1228 c93e
00000090: 8ef3 b63e 3dfb 75bd 4b19 ce3e 8bf3 75bd
000000a0: 38ca 0d3f 677d e43e 396b cd3e e897 c43e
000000b0: e3de c3bd 5ee4 b0bd 30c3 e93e 1abc 643f
000000c0: 0000 0000 02a8 6fbe e05a 93bd a32c 96bd
000000d0: 0000 0000 ca1a d13e d4fb 75bd 12f7 75bd
000000e0: 1478 b0bd 6a7f 633f 2f6c 7abd 12fc 75bd
000000f0: 03f8 75bd b142 063f 790e c13e f858 d03e

network.4.weight f4 [1, 64]
1.0919479 1.0255839 1.9473683 0.9241839 0.8942306 0.22651717 -0.015598353 0.061486274
4.414492 0.045150436 0.047492635 0.938965 0.050726973 -0.041217394 0.002972246 0.05305737
0.056005273 1.0003759 0.0467781 0.0629524 2.100083 -0.0025247727 0.8667377 -0.04410664
0.016729085 -0.010351477 -0.054457836 0.0571562 1.0762402 0.9368554 0.8839213 0.92791975
0.059003863 0.85712254 -0.3086419 0.9297674 1.0391369 0.056691956 0.9813873 0.055691257
0.9342517 1.128376 0.93403697 0.9610756 0.013786617 -0.068802245 0.90385425 2.0331686
0.024906207 0.27499306 0.04284245 0.029529832 -0.0018292506 1.0149273 0.052307937 0.05682758
-0.069990985 -3.2334955 0.0476758 0.03328386 0.037340134 0.9288827 1.2082115 0.99664176
00000000: f3c4 8b3f 5546 833f 5d43 f93f 5197 6c3f
00000010: 4cec 643f 1ef4 673e 3c90 7fbc 08d9 7b3d
00000020: 8543 8d40 aaef 383d a387 423d 0360 703f
00000030: 16c7 4f3d 92d3 28bd 03ca 423b af52 593d
00000040: c965 653d 510c 803f 659a 3f3d 30ed 803d
00000050: c367 0640 a876 25bb 86e2 5d3f 2aa9 34bd
00000060: 6f0b 893c 3e99 29bc 2e0f 5fbd 9f1c 6a3d
00000070: 3dc2 893f c1d5 6f3f ab48 623f 268c 6d3f
00000080: 09ae 713d 626c 5b3f 5006 9ebe 3c05 6e3f
00000090: 7002 853f d335 683d 333c 7b3f 841c 643d
000000a0: 1f2b 6f3f a06e 903f 0c1d 6f3f 0d09 763f
000000b0: 43e1 613c 31e8 8cbd fe62 673f 6f1f 0240
000000c0: 1a08 cc3c e4cb 8c3e 917b 2f3d 8ce8 f13c
000000d0: 77c3 efba 23e9 813f d940 563d 09c4 683d
000000e0: 6f57 8fbd 97f1 4ec0 b347 433d a854 083d
000000f0: f8f1 183d 42cb 6d3f ada6 9a3f ea23 7f3f

exp_avg f4 [64, 2]
6e-45 6e-45 0.0 0.0 6e-45 6e-45 3.1515846e-25 6.025145e-27
0.0 0.0 0.0 0.0 0.0 0.0 0.0 0.0
6e-45 6e-45 6e-45 6e-45 6e-45 6e-45 6e-45 6e-45
0.00026119687 4.1975534e-05 6e-45 6e-45 6e-45 6e-45 6e-45 6e-45
0.0 6e-45 6e-45 6e-45 6e-45 6e-45 6e-45 6e-45
6e-45 6e-45 6e-45 6e-45 0.0 0.0 6e-45 6e-45
6e-45 6e-45 6e-45 6e-45 0.0 0.0 6e-45 6e-45
6e-45 6e-45 6e-45 -6e-45 0.0 0.0 -0.00685174 -0.00067553355
6e-45 6e-45 0.0 0.0 6e-45 6e-45 6e-45 6e-45
6e-45 6e-45 0.0 0.0 6e-45 6e-45 0.0 0.0
0.0 0.0 0.0 0.0 6e-45 6e-45 0.0 0.0
0.0 0.0 0.0 6e-45 0.0 0.0 6e-45 6e-45
6e-45 6e-45 6e-45 6e-45 6e-45 6e-45 6e-45 6e-45
0.0 0.0 6e-45 6e-45 0.0 0.0 0.0 6e-45
6e-45 6e-45 6e-45 6e-45 6e-45 6e-45 -6e-45 6e-45
6e-45 6e-45 6e-45 6e-45 0.0 6e-45 6e-45 6e-45
00000000: 0400 0000 0400 0000 0000 0000 0000 0000
00000010: 0400 0000 0400 0000 da12 c316 3bae ee13
00000020: 0000 0000 0000 0000 0000 0000 0000 0000
00000030: 0000 0000 0000 0000 0000 0000 0000 0000
00000040: 0400 0000 0400 0000 0400 0000 0400 0000
00000050: 0400 0000 0400 0000 0400 0000 0400 0000
00000060: 40f1 8839 e30e 3038 0400 0000 0400 0000
00000070: 0400 0000 0400 0000 0400 0000 0400 0000
00000080: 0000 0000 0400 0000 0400 0000 0400 0000
00000090: 0400 0000 0400 0000 0400 0000 0400 0000
000000a0: 0400 0000 0400 0000 0400 0000 0400 0000
000000b0: 0000 0000 0000 0000 0400 0000 0400 0000
000000c0: 0400 0000 0400 0000 0400 0000 0400 0000
000000d0: 0000 0000 0000 0000 0400 0000 0400 0000
000000e0: 0400 0000 0400 0000 0400 0000 0400 0080
000000f0: 0000 0000 0000 0000 9084 e0bb 4a16 31ba
00000100: 0400 0000 0400 0000 0000 0000 0000 0000
00000110: 0400 0000 0400 0000 0400 0000 0400 0000
00000120: 0400 0000 0400 0000 0000 0000 0000 0000
00000130: 0400 0000 0400 0000 0000 0000 0000 0000
00000140: 0000 0000 0000 0000 0000 0000 0000 0000
00000150: 0400 0000 0400 0000 0000 0000 0000 0000
00000160: 0000 0000 0000 0000 0000 0000 0400 0000
00000170: 0000 0000 0000 0000 0400 0000 0400 0000
00000180: 0400 0000 0400 0000 0400 0000 0400 0000
00000190: 0400 0000 0400 0000 0400 0000 0400 0000
000001a0: 0000 0000 0000 0000 0400 0000 0400 0000
000001b0: 0000 0000 0000 0000 0000 0000 0400 0000
000001c0: 0400 0000 0400 0000 0400 0000 0400 0000
000001d0: 0400 0000 0400 0000 0400 0080 0400 0000
000001e0: 0400 0000 0400 0000 0400 0000 0400 0000
000001f0: 0000 0000 0400 0000 0400 0000 0400 0000

exp_avg_sq f4 [64, 2]
1.6160229e-10 1.0719351e-11 0.0 0.0 7.148918e-14 1.9782577e-15 1.0411517e-09 5.441756e-12
0.0 0.0 0.0 0.0 0.0 0.0 0.0 0.0
1.9988129e-16 4.6127106e-16 2.584833e-11 2.2957455e-13 1.1652016e-14 9.178408e-18 3.1774982e-11 1.690553e-13
9.50591e-06 3.728635e-07 1.2931003e-09 7.332401e-12 7.2597234e-10 4.158874e-12 1.0948858e-12 8.577673e-15
0.0 1.5382347e-16 1.5053306e-11 6.774113e-14 2.612466e-13 2.5583392e-14 7.363284e-12 4.098158e-14
3.508852e-10 2.539179e-12 1.7540233e-11 1.2435308e-13 0.0 0.0 5.494022e-11 2.5399173e-13
1.7289154e-12 1.5339546e-14 8.457452e-12 6.4967976e-14 0.0 0.0 3.847104e-11 2.3780356e-13
8.967392e-11 3.6312595e-13 1.0587247e-10 4.1402832e-13 0.0 0.0 0.00025912852 1.8820954e-06
1.5892695e-11 8.692195e-14 0.0 0.0 1.243051e-10 1.0390285e-12 1.4454966e-10 7.532446e-13
4.3537077e-11 2.9267146e-13 0.0 0.0 3.6235216e-11 1.6368763e-13 0.0 0.0
0.0 0.0 0.0 0.0 2.2749487e-10 1.3844091e-12 0.0 0.0
0.0 0.0 0.0 3.0555562e-17 0.0 0.0 1.3093177e-11 7.5914454e-14
4.998211e-11 3.7042396e-13 4.8612073e-11 2.0683734e-13 6.858939e-12 3.382556e-14 1.0701908e-10 5.4750527e-12
0.0 0.0 8.227036e-12 3.145675e-13 0.0 0.0 0.0 6.202354e-17
3.439649e-10 1.2932185e-12 3.658583e-12 1.8236111e-14 1.0849234e-11 7.2560224e-14 3.3156071e-15 9.236884e-16
1.11041794e-10 8.3756065e-13 1.0826268e-18 4.9829413e-16 0.0 2.598666e-19 4.1712287e-09 1.4676121e-11
00000000: 00af 312f aa93 3c2d 0000 0000 0000 0000
00000010: b5fa a029 6a8c 0e27 4518 8f30 fb76 bf2c
00000020: 0000 0000 0000 0000 0000 0000 0000 0000
00000030: 0000 0000 0000 0000 0000 0000 0000 0000
00000040: 8b72 6625 ccf3 0426 445d e32d 2e3d 812a
00000050: 70e7 5128 ce4f 2923 73bf 0b2e df56 3e2a
00000060: 937b 1f37 f82d c834 ecb8 b130 33fe 002d
00000070: c38d 4730 cf53 922c 6b17 9a2b 8985 1a28
00000080: 0000 0000 ad58 3125 0869 842d 1a8a 9829
00000090: 9a11 932a 496f e628 4889 012d 8b90 3829
000000a0: b4e6 c02f c8ad 322c 1849 9a2d 5602 0c2a
000000b0: 0000 0000 0000 0000 30a1 712e 11fc 8e2a
000000c0: be52 f32b 962a 8a28 fac8 142d 7d4b 9229
000000d0: 0000 0000 0000 0000 8a32 292e 1bdf 852a
000000e0: ee31 c52e f76b cc2a e7d0 e82e c513 e92a
000000f0: 0000 0000 0000 0000 a4db 8739 4e9c fc35
00000100: 2bcb 8b2d 18bb c329 0000 0000 0000 0000
00000110: c6ac 082f f23a 922b 1def 1e2f fe04 542b
00000120: 647a 3f2e 67c2 a42a 0000 0000 0000 0000
00000130: 3a5d 1f2e bf4b 382a 0000 0000 0000 0000
00000140: 0000 0000 0000 0000 0000 0000 0000 0000
00000150: 1d22 7a2f 98d6 c22b 0000 0000 0000 0000
00000160: 0000 0000 0000 0000 0000 0000 a4e9 0c24
00000170: 0000 0000 0000 0000 6d56 662d b4f1 aa29
00000180: dad2 5b2e b887 d02a 54cc 552e cee0 682a
00000190: d553 f12c 3756 1829 6356 eb2e e4a2 c02c
000001a0: 0000 0000 0000 0000 47bb 102d f415 b12a
000001b0: 0000 0000 0000 0000 0000 0000 3c04 8f24
000001c0: c218 bd2f 1b01 b62b 96b9 802c 9c41 a428
000001d0: 9bdc 3e2d 1f64 a329 28ea 6e27 161e 8526
000001e0: f92e f42e 9bc0 6b2b 7cc4 9f21 9e9f 0f26
000001f0: 0000 0000 ee65 9920 8452 8f31 b017 812d

exp_avg f4 [64]
6e-45 0.0 6e-45 3.3616908e-25 0.0 0.0 0.0 0.0
6e-45 6e-45 6e-45 6e-45 0.001371153 6e-45 6e-45 6e-45
6e-45 6e-45 6e-45 6e-45 6e-45 6e-45 0.0 6e-45
6e-45 6e-45 0.0 6e-45 6e-45 6e-45 0.0 -0.012756718
6e-45 0.0 6e-45 6e-45 6e-45 0.0 6e-45 0.0
0.0 0.0 6e-45 0.0 0.0 6e-45 0.0 6e-45
6e-45 6e-45 6e-45 6e-45 0.0 6e-45 0.0 6e-45
6e-45 6e-45 6e-45 6e-45 6e-45 6e-45 6e-45 6e-45
00000000: 0400 0000 0000 0000 0400 0000 1e14 d016
00000010: 0000 0000 0000 0000 0000 0000 0000 0000
00000020: 0400 0000 0400 0000 0400 0000 0400 0000
00000030: 43b8 b33a 0400 0000 0400 0000 0400 0000
00000040: 0400 0000 0400 0000 0400 0000 0400 0000
00000050: 0400 0000 0400 0000 0000 0000 0400 0000
00000060: 0400 0000 0400 0000 0000 0000 0400 0000
00000070: 0400 0000 0400 0000 0000 0000 8e01 51bc
00000080: 0400 0000 0000 0000 0400 0000 0400 0000
00000090: 0400 0000 0000 0000 0400 0000 0000 0000
000000a0: 0000 0000 0000 0000 0400 0000 0000 0000
000000b0: 0000 0000 0400 0000 0000 0000 0400 0000
000000c0: 0400 0000 0400 0000 0400 0000 0400 0000
000000d0: 0000 0000 0400 0000 0000 0000 0400 0000
000000e0: 0400 0000 0400 0000 0400 0000 0400 0000
000000f0: 0400 0000 0400 0000 0400 0000 0400 0000

exp_avg_sq f4 [64]
6.8703057e-09 0.0 1.472636e-12 2.3882005e-09 0.0 0.0 0.0 0.0
2.9685952e-13 1.12812426e-10 1.01587745e-14 7.929143e-11 0.00020467179 3.3708016e-09 1.944806e-09 4.447847e-12
1.0119481e-13 3.3900743e-11 1.6343376e-11 1.8384218e-11 1.2741201e-09 6.8021394e-11 0.0 1.1670477e-10
5.3225796e-12 3.2971268e-11 0.0 1.1333383e-10 1.5188505e-10 1.7047921e-10 0.0 0.0007899316
4.348881e-11 0.0 5.281333e-10 3.4087055e-10 1.4539701e-10 0.0 7.408303e-11 0.0
0.0 0.0 6.773804e-10 0.0 0.0 2.0101342e-14 0.0 3.554552e-11
1.790649e-10 9.454551e-11 1.763747e-11 3.2772918e-09 0.0 1.8384153e-10 0.0 4.0803007e-14
5.720059e-10 6.7504596e-12 3.727867e-11 5.6270987e-13 4.238241e-10 3.2380416e-13 1.7095461e-16 6.0044623e-09
00000000: d90f ec31 0000 0000 4e41 cf2b ab1d 2431
00000010: 0000 0000 0000 0000 0000 0000 0000 0000
00000020: f71d a72a c013 f82e 1401 3728 1b5d ae2e
00000030: 2a9d 5639 c5a3 6731 64a5 0531 a57e 9c2c
00000040: d6de e329 d818 152e 03c2 8f2d 94b5 a12d
00000050: 1e1d af30 a494 952e 0000 0000 7951 002f
00000060: 8945 bb2c 5902 112e 0000 0000 4639 f92e
00000070: d7ff 262f a271 3b2f 0000 0000 6a13 4f3a
00000080: 0c44 3f2e 0000 0000 142c 1130 4465 bb2f
00000090: 9fdd 1f2f 0000 0000 0ae9 a22e 0000 0000
000000a0: 0000 0000 0000 0000 6832 3a30 0000 0000
000000b0: 0000 0000 8a0e b528 0000 0000 b354 1c2e
000000c0: 4ae2 442f 64e8 cf2e 0d24 9b2d ba36 6131
000000d0: 0000 0000 ca22 4a2f 0000 0000 aac2 3729
000000e0: 563b 1d30 bc82 ed2c 0df4 232e 8563 1e2b
000000f0: f0ff e82f 1949 b62a e518 4525 cf4f ce31

exp_avg f4 [64, 64]
6e-45 0.0 -6e-45 -1.0497629e-29 0.0 0.0 0.0 0.0
-6e-45 -6e-45 6e-45 6e-45 -3.7036427e-06 -6e-45 6e-45 -6e-45
0.0 -6e-45 6e-45 6e-45 -6e-45 6e-45 0.0 -6e-45
-6e-45 6e-45 0.0 6e-45 6e-45 6e-45 0.0 0.00015363924
-6e-45 0.0 -6e-45 6e-45 -6e-45 0.0 6e-45 0.0
0.0 0.0 6e-45 0.0 0.0 0.0 0.0 6e-45
6e-45 6e-45 6e-45 -6e-45 0.0 -6e-45 0.0 0.0
-6e-45 6e-45 6e-45 -6e-45 -6e-45 6e-45 0.0 -6e-45
6e-45 0.0 0.0 0.0 0.0 0.0 0.0 0.0
0.0 6e-45 0.0 6e-45 6e-45 6e-45 6e-45 0.0
0.0 0.0 6e-45 0.0 6e-45 6e-45 0.0 0.0
0.0 0.0 0.0 0.0 0.0 0.0 0.0 6e-45
0.0 0.0 6e-45 0.0 6e-45 0.0 0.0 0.0
0.0 0.0 6e-45 0.0 0.0 0.0 0.0 0.0
6e-45 0.0 0.0 6e-45 0.0 6e-45 0.0 0.0
0.0 0.0 0.0 0.0 6e-45 0.0 0.0 0.0
6e-45 0.0 -6e-45 6e-45 0.0 0.0 0.0 0.0
0.0 6e-45 -6e-45 6e-45 -6e-45 6e-45 6e-45 6e-45
0.0 -6e-45 6e-45 6e-45 6e-45 6e-45 0.0 6e-45
6e-45 6e-45 0.0 6e-45 6e-45 6e-45 0.0 6e-45
6e-45 0.0 6e-45 6e-45 6e-45 0.0 -6e-45 0.0
0.0 0.0 6e-45 0.0 0.0 0.0 0.0 6e-45
6e-45 -6e-45 6e-45 -6e-45 0.0 6e-45 0.0 0.0
6e-45 6e-45 6e-45 6e-45 6e-45 6e-45 0.0 6e-45
-6e-45 0.0 -6e-45 6e-45 0.0 0.0 0.0 0.0
-6e-45 6e-45 -6e-45 6e-45 -6e-45 6e-45 6e-45 -6e-45
0.0 6e-45 -6e-45 6e-45 6e-45 6e-45 0.0 6e-45
-6e-45 6e-45 0.0 6e-45 6e-45 6e-45 0.0 6e-45
6e-45 0.0 6e-45 6e-45 6e-45 0.0 6e-45 0.0
0.0 0.0 6e-45 0.0 0.0 0.0 0.0 6e-45
6e-45 6e-45 6e-45 -6e-45 0.0 -6e-45 0.0 6e-45
6e-45 6e-45 6e-45 -6e-45 6e-45 6e-45 0.0 6e-45
00000000: 0400 0000 0000 0000 0400 0080 ceea 548f
00000010: 0000 0000 0000 0000 0000 0000 0000 0000
00000020: 0400 0080 0400 0080 0400 0000 0400 0000
00000030: 198c 78b6 0400 0080 0400 0000 0400 0080
00000040: 0000 0000 0400 0080 0400 0000 0400 0000
00000050: 0400 0080 0400 0000 0000 0000 0400 0080
00000060: 0400 0080 0400 0000 0000 0000 0400 0000
00000070: 0400 0000 0400 0000 0000 0000 381a 2139
00000080: 0400 0080 0000 0000 0400 0080 0400 0000
00000090: 0400 0080 0000 0000 0400 0000 0000 0000
000000a0: 0000 0000 0000 0000 0400 0000 0000 0000
000000b0: 0000 0000 0000 0000 0000 0000 0400 0000
000000c0: 0400 0000 0400 0000 0400 0000 0400 0080
000000d0: 0000 0000 0400 0080 0000 0000 0000 0000
000000e0: 0400 0080 0400 0000 0400 0000 0400 0080
000000f0: 0400 0080 0400 0000 0000 0000 0400 0080
00000100: 0400 0000 0000 0000 0000 0000 0000 0000
00000110: 0000 0000 0000 0000 0000 0000 0000 0000
00000120: 0000 0000 0400 0000 0000 0000 0400 0000
00000130: 0400 0000 0400 0000 0400 0000 0000 0000
00000140: 0000 0000 0000 0000 0400 0000 0000 0000
00000150: 0400 0000 0400 0000 0000 0000 0000 0000
00000160: 0000 0000 0000 0000 0000 0000 0000 0000
00000170: 0000 0000 0000 0000 0000 0000 0400 0000
00000180: 0000 0000 0000 0000 0400 0000 0000 0000
00000190: 0400 0000 0000 0000 0000 0000 0000 0000
000001a0: 0000 0000 0000 0000 0400 0000 0000 0000
000001b0: 0000 0000 0000 0000 0000 0000 0000 0000
000001c0: 0400 0000 0000 0000 0000 0000 0400 0000
000001d0: 0000 0000 0400 0000 0000 0000 0000 0000
000001e0: 0000 0000 0000 0000 0000 0000 0000 0000
000001f0: 0400 0000 0000 0000 0000 0000 0000 0000
00000200: 0400 0000 0000 0000 0400 0080 0400 0000
00000210: 0000 0000 0000 0000 0000 0000 0000 0000
00000220: 0000 0000 0400 0000 0400 0080 0400 0000
00000230: 0400 0080 0400 0000 0400 0000 0400 0000
00000240: 0000 0000 0400 0080 0400 0000 0400 0000
00000250: 0400 0000 0400 0000 0000 0000 0400 0000
00000260: 0400 0000 0400 0000 0000 0000 0400 0000
00000270: 0400 0000 0400 0000 0000 0000 0400 0000
00000280: 0400 0000 0000 0000 0400 0000 0400 0000
00000290: 0400 0000 0000 0000 0400 0080 0000 0000
000002a0: 0000 0000 0000 0000 0400 0000 0000 0000
000002b0: 0000 0000 0000 0000 0000 0000 0400 0000
000002c0: 0400 0000 0400 0080 0400 0000 0400 0080
000002d0: 0000 0000 0400 0000 0000 0000 0000 0000
000002e0: 0400 0000 0400 0000 0400 0000 0400 0000
000002f0: 0400 0000 0400 0000 0000 0000 0400 0000
00000300: 0400 0080 0000 0000 0400 0080 0400 0000
00000310: 0000 0000 0000 0000 0000 0000 0000 0000
00000320: 0400 0080 0400 0000 0400 0080 0400 0000
00000330: 0400 0080 0400 0000 0400 0000 0400 0080
00000340: 0000 0000 0400 0000 0400 0080 0400 0000
00000350: 0400 0000 0400 0000 0000 0000 0400 0000
00000360: 0400 0080 0400 0000 0000 0000 0400 0000
00000370: 0400 0000 0400 0000 0000 0000 0400 0000
00000380: 0400 0000 0000 0000 0400 0000 0400 0000
00000390: 0400 0000 0000 0000 0400 0000 0000 0000
000003a0: 0000 0000 0000 0000 0400 0000 0000 0000
000003b0: 0000 0000 0000 0000 0000 0000 0400 0000
000003c0: 0400 0000 0400 0000 0400 0000 0400 0080
000003d0: 0000 0000 0400 0080 0000 0000 0400 0000
000003e0: 0400 0000 0400 0000 0400 0000 0400 0080
000003f0: 0400 0000 0400 0000 0000 0000 0400 0000
