data/results/test_historical/checkpoints/checkpoint_0000.pth (torch, 198315 bytes, 39 tensors)

shared_backbone.0.weight f4 [64, 2]
00000000: f12d 8dbe 0c39 8e3e 73df 0cbe edca 2ebe
00000010: 91cd b9bd dfdd 9c3d 809a aa3b b9d4 72be
00000020: 850e f3bc 400a b7bd 5f40 263e a77a cabd
00000030: 49a0 8a3e 5cbf 9b3d 4d8d c83e d082 b7bb
00000040: 0963 69bd 81da 6e3e 00a4 19be 2405 c4bd
00000050: 6b78 333e e75f 003e de5b 413e e527 8f3d
00000060: 071d 55bc cdfc f9be b990 54bd d915 263e
00000070: ff1e bf3d 068b c83c 5054 a3be b3d7 8c3e
00000080: 470c 1bbe 3905 043e d3d3 fb3d 06b0 a13d
00000090: ed20 cdbd e11b ac3d 762f 463e f65a f33d
000000a0: 1099 00bd 7182 b0bd d228 4fbd d23c 1dbe
000000b0: 6c5a 3bbd 5e6b c0bd f315 36bd a5af d93d
000000c0: ab41 3fbd 48fd 3d3d 340b aebd 91e1 59bd
000000d0: f3ff 6abe 5fe9 c2bd dc19 8e3d b35d 503e
000000e0: 20bd 823d e531 5abd acef 9abe af49 fabd
000000f0: 5f93 c03d bbb7 27bd c37b f33c be2b 41be
00000100: 97ac 9e3c e0e6 b83e 9738 edbe b70f 603e
00000110: 8304 a13d 585b d5bd dc3c 0e3e 019e 9abd
00000120: c976 7ebe bcc2 37be 6e1c 2d3d 00a8 41be
00000130: a497 8dbe 3efe d9ba 56af 33be b47b 21be
00000140: 85cc be3d 71fd 613d f64b 25be 9e91 aabe
00000150: d745 893c 5a64 53be 8349 363c e2f1 7f3d
00000160: ee97 ce3d d90f 003e a198 00be ce7a 593d
00000170: 37bf 513e 9245 4dbe 9b94 c6bd 7665 233e
00000180: fc8f e23d aeda 73bd ac3c 70be 6c27 ee3d
00000190: 6f94 823d e33c d13e eaaa aa3b 3ab7 0bbf
000001a0: 5ed9 85bc 21a7 bebc 2309 b7be 4016 6f3c
000001b0: 3217 f7bc 8d36 ecbd 5cd3 423e 46f3 8abe
000001c0: 68bf 8cbd 8e58 2dbe 2ae0 b1be bb1a 4abe
000001d0: bff9 aa3d 2628 edbc 234a e7bd 355d c3ba
000001e0: 58ba 5dbe ff73 33be d437 09bd 2084 4cbe
000001f0: 807a 56bd 8ad5 1c3e 42fd 833d 9b8a 8c3e
-0.27574113 0.27777898 -0.13757114 -0.17069598 -0.09072412 0.07659506 0.005206406 -0.2371396
-0.02967001 -0.08937502 0.16235493 -0.09886675 0.27075413 0.07604858 0.39170304 -0.005600311
-0.056979213 0.2332554 -0.15003967 -0.09571293 0.17526405 0.12536584 0.18882701 0.06990031
-0.013007409 -0.48825684 -0.05189583 0.16219272 0.09332084 0.024480354 -0.31900263 0.27508315
-0.15141402 0.12892617 0.12296262 0.07894902 -0.10016046 0.08403755 0.19354042 0.11882584
-0.03139597 -0.0861863 -0.05057604 -0.15355232 -0.04574053 -0.09395479 -0.044454526 0.10629205
-0.046693485 0.046384126 -0.084982306 -0.053193633 -0.229492 -0.09517168 0.06938526 0.20348243
0.06383729 -0.05327024 -0.3026098 -0.12221085 0.09403109 -0.040946703 0.0297221 -0.18864343
0.019369407 0.36113644 -0.46332237 0.21880995 0.07862189 -0.10417813 0.13890404 -0.07549668
-0.2485 -0.17945379 0.04226344 -0.18911743 -0.27654755 -0.0016631556 -0.17547354 -0.15769845
0.09316353 0.05517334 -0.16142258 -0.33314222 0.016756935 -0.2064375 0.011125925 0.062486537
0.10087572 0.12506045 -0.12558223 0.05309563 0.20483099 -0.2004607 -0.09696313 0.15956673
0.11062619 -0.05953472 -0.23460644 0.11628613 0.06375968 0.40866765 0.005208363 -0.54576457
-0.016339 -0.023273053 -0.35749158 0.014592707 -0.030162428 -0.11533842 0.1902594 -0.27138728
-0.06872445 -0.16928312 -0.34741336 -0.1973676 0.083484165 -0.028949808 -0.11293437 -0.0014905097
-0.21653116 -0.17524718 -0.033500507 -0.19972277 -0.05236292 0.15315834 0.064447895 0.27449498

shared_backbone.0.bias f4 [64]
00000000: 346d d13d 0000 0000 4533 a73d 0000 0000
00000010: 5961 75bd de41 733d c252 58bd 8c95 803d
00000020: 3c7e 9cbd 0000 0000 1fa6 003d 965f 23bd
00000030: dd09 94bd c92b 77bd 7ff3 453d a55a 893d
00000040: 4838 59bd f31f 493d b62d 59bd f722 8e3d
00000050: 7339 59bd 0000 0000 0000 0000 be50 6f3d
00000060: 6d39 59bd 0000 0000 0000 0000 513e aebd
00000070: 9ab1 d33d 0000 0000 64c2 ab3d 0f01 cabd
00000080: 5a27 883d de69 df3c 2f46 5f3c 912b c8bc
00000090: 0000 0000 a4ad aabd 0000 0000 0000 0000
000000a0: e238 f23c 0000 0000 e175 a9bd a44a 503b
000000b0: 5af8 513d 2a38 59bd 981a a0bd 736c 7a3d
000000c0: f275 bfbd 8b9c 8dbd 0316 723d 0000 0000
000000d0: 0000 0000 d1e4 37bd 0000 0000 76cc 9b3b
000000e0: 0000 0000 0000 0000 c6bb d33c 0000 0000
000000f0: 0000 0000 0000 0000 5609 6bbd 8494 1e3d
0.10225907 0.0 0.08164076 0.0 -0.05990729 0.059388988 -0.0528133 0.06278524
-0.07641265 0.0 0.031408425 -0.03988608 -0.07228444 -0.06034449 0.04832792 0.06706742
-0.05303219 0.049102735 -0.05302211 0.06940263 -0.053033303 0.0 0.0 0.05842661
-0.05303328 0.0 0.0 -0.0850798 0.10336609 0.0 0.083866864 -0.09863483
0.06648131 0.027272161 0.013627573 -0.024434837 0.0 -0.083339006 0.0 0.0
0.02956814 0.0 -0.08274437 0.003178277 0.051262237 -0.053032078 -0.07817572 0.06113858
-0.09348668 -0.06914624 0.059103023 0.0 0.0 -0.04489595 0.0 0.0047545983
0.0 0.0 0.025846373 0.0 0.0 0.0 -0.05738195 0.038715854

shared_backbone.2.weight f4 [64, 64]
00000000: eb73 ca3d 894f e23e f9e4 f3bd 9395 363d
00000010: 35cb 55bc 7483 90bd f473 0ebe e7e8 31be
00000020: 2dfc 373e 99e1 8c3e 73b7 b0be 835d eabd
00000030: 89fa 72be e54c 8d3d 0f99 f9bc df58 63bd
00000040: 2c39 89bd e1af fa3d 9876 4e3a d572 51be
00000050: 22f8 a4bd 1d56 df3d 28da e7bd 3052 a7bb
00000060: 302c 053e 16aa 87be 4acd 1ebc 8ecb 80bd
00000070: 94f8 21be 7c61 013e 747c b7bd dde2 9cbe
00000080: d202 41be a904 abbe bd51 433e 82da 873c
00000090: 4e60 1d3d af0a 1a3e 3f7a c8bd 0c55 d13e
000000a0: 45cf 7dbd 3f48 a53e 98b9 87be fe7d 4a3e
000000b0: 9be4 353d 52ff d8bc 1d9e 483d 8946 2e3e
000000c0: 84e6 c5bd 456b 983e 18dc f63c 97a7 78be
000000d0: f622 21bb ca51 7f3d d0f7 a43d eb51 b43e
000000e0: 1f24 bfbd 642a 293d b275 77be 32ee 38be
000000f0: 3a5c a0bc adf8 cf3c 4b63 2dbd 8522 723e
00000100: 064c 193c 7c6f c3bc f9a6 d13d 02b3 753d
00000110: 2678 febd eafd 28be c3fa adbd e201 933d
00000120: 4f8c 2abd dd46 8c3e b70d 393e 8646 08be
00000130: ca5b cf3b 2b66 edbd 7282 a5bd d7bc 333e
00000140: f8f4 e53c 8338 463e 9f24 30be 138a cebe
00000150: 077c 623c b769 2a3c a150 3d3d 5a6f 993c
00000160: c983 5dbe 0fc8 dcbe 7565 53be e11d adbe
00000170: aa05 d7bc 100c 893d 5b37 d5be c077 f2bc
00000180: 4932 4bbe 1bab 4fbe 9b70 363e 047c e9bd
00000190: c533 933d a5d3 ae3c 3c14 87be ce33 f0be
000001a0: 8793 33be 41ce f0bd ebfa 2a3e a7f0 1cbe
000001b0: 5bac a6be 1bc2 c5ba c623 803e 99e9 6e3d
000001c0: 7166 83bc 596e 013e 8f80 073e cd9f 723e
000001d0: 605b 9f3d 9214 5cbe e24b b6be 2f68 9bbd
000001e0: 102e 173d 7d45 0a3d ba7f 0abe fe67 35bd
000001f0: cca5 923e daa8 7ebc f26c c73d 49a9 20bd
00000200: e20d dfbc 51c6 f0bc fdb5 64be 5155 a939
00000210: 0637 b53c 1140 f6bd 0416 95be 0e41 213e
00000220: 39d6 fa3c d430 f43d 55d4 12be 547d 5bbe
00000230: 40bc 093e 2c62 a23d e673 7e3e 1218 17bd
00000240: cec1 cbbd 3fc0 6d3d 2a7a 353e e4eb bebd
00000250: 6a23 853e b293 5e3e c1b1 74be ad09 853e
00000260: 1cb1 c9bd d9c9 3b3e 758a 6dbe 190b eabd
00000270: 4f8a f8bd 2338 e3bc 469e a4be 2cbf cebe
00000280: 8139 f93c 6647 6ebd 0897 39be 0bfb 71be
00000290: 051b 4fbd 2193 843d af56 15be 02dd 993e
000002a0: 395b 08bd 6a18 d6be cb59 af3d dfce 88bd
000002b0: 40f2 2e3e e4ea 04be 825c f5bd 8bc1 3dbe
000002c0: 6714 b2be ffc8 693d 3608 dabd 311c 0f3e
000002d0: 6749 ebbd 854a 033e db44 debd 5404 7bbe
000002e0: a6b5 c63e 46d7 33be 9ea9 0fbd 72e5 653e
000002f0: 6f20 853d d206 963d 90e0 84bd 547e 8d3d
00000300: d402 b53e 2103 113e 1113 eb3c 064a 983d
00000310: 3b8a 293e 731a 94be 60b4 793d 12b6 8e3d
00000320: 5859 9e3e 1864 493e 11cd e43e cbfa 94be
00000330: 8021 63be a519 2dbe 945b 933c 5cd5 a93d
00000340: 6ece 863d 2018 c0be d8db 31be a197 973c
00000350: 182b 4d3e e188 47bd 8952 15bd de6f 1a3e
00000360: 4e4b 2c3e 7985 fb3d 9731 dd3d 9fd7 0b3e
00000370: 2e24 9b3d 86ec bd3d 0168 edbd dbc4 58be
00000380: ebc1 2a3e b480 58bd 006a 6bb7 d872 24be
00000390: 4ba7 33be 71d1 64be 36fa 2abd 99ab 0f3e
000003a0: afdf 343e 5a44 f2bd 6e30 753d fee4 9dbe
000003b0: 455d 94be 39c8 a63d 160f 7ebd bf0e 1c3d
000003c0: d568 af3d dd09 d7bd 95bc 793e d932 28bc
000003d0: a14a 06be 84af 963d 39cf 8fbd b421 5e3e
000003e0: caaa 20bd 3e68 293e a686 b53e ca53 04be
000003f0: 90af 38be 7dbd 5b3e edf8 2bbe c60b b7bb
0.09885391 0.44201306 -0.119089074 0.04457624 -0.013048937 -0.07056323 -0.1391142 -0.17374001
0.17967291 0.27515867 -0.3451496 -0.11443617 -0.23728384 0.06899432 -0.030468492 -0.055504676
-0.06700358 0.122405775 0.0007875948 -0.20453961 -0.0805514 0.10905097 -0.11320907 -0.005106233
0.13005137 -0.26496953 -0.009692499 -0.06288825 -0.15817481 0.12634844 -0.089592844 -0.30641833
-0.18848732 -0.33401993 0.1907415 0.016583685 0.03842192 0.15043138 -0.097889416 0.40885198
-0.061965246 0.32281682 -0.26508784 0.19774625 0.04440747 -0.026488934 0.048978914 0.17019095
-0.09663108 0.2976934 0.030134246 -0.2428268 -0.0024587489 0.06233386 0.08055079 0.35218748
-0.093330614 0.041300192 -0.24165991 -0.18059614 -0.019575227 0.025387133 -0.04233102 0.2364598
0.009356504 -0.02385687 0.10236926 0.05998517 -0.1242526 -0.1650311 -0.084950946 0.071780935
-0.041637715 0.27397814 0.18071638 -0.13308153 0.006328081 -0.115917526 -0.08081521 0.17552505
0.028070912 0.19357495 -0.1720147 -0.40339717 0.013823516 0.010401181 0.04621947 0.018729854
-0.21632303 -0.43121383 -0.20644172 -0.33811858 -0.026247818 0.06691754 -0.41643795 -0.029598117
-0.19843401 -0.20280115 0.17816393 -0.11400607 0.07187609 0.021341154 -0.26382625 -0.46914524
-0.17536746 -0.1175809 0.1669728 -0.15326177 -0.32553372 -0.0015087755 0.25027293 0.058328245
-0.016040059 0.1263975 0.13232635 0.23693772 0.077811 -0.21492222 -0.3560477 -0.07588231
0.036909163 0.033757675 -0.13525286 -0.044288628 0.28642118 -0.015543187 0.097375765 -0.039223943
-0.0272283 -0.02939144 -0.22335048 0.00032297758 0.022120964 -0.120239384 -0.2911836 0.15747473
0.030619727 0.11923376 -0.1433881 -0.21434528 0.13450718 0.07928881 0.24848899 -0.03688819
-0.09949075 0.05804467 0.17722383 -0.09322336 0.2600358 0.21736029 -0.23895933 0.25983945
-0.09848234 0.18338718 -0.23197348 -0.11427898 -0.12135755 -0.027736729 -0.32152003 -0.40380228
0.030422928 -0.05817356 -0.1812402 -0.23630922 -0.050562877 0.06473375 -0.14583848 0.30051428
-0.03329012 -0.418155 0.085620485 -0.066800825 0.17084599 -0.12980229 -0.11980535 -0.18530862
-0.3478119 0.05707645 -0.10646097 0.13975598 -0.1148861 0.12821396 -0.10852977 -0.2451337
0.38810462 -0.17562589 -0.03507387 0.22450808 0.06500327 0.073255196 -0.064881444 0.06908861
0.3535372 0.1416135 0.028695615 0.07435994 0.16556637 -0.2892643 0.060963035 0.06968321
0.3092754 0.19667089 0.44687703 -0.2909759 -0.22180748 -0.16904314 0.017988004 0.08292648
0.06582342 -0.37518406 -0.1736902 0.01850492 0.2003597 -0.048714522 -0.036455665 0.15081736
0.16825601 0.12281317 0.10800474 0.13656472 0.0757526 0.09273629 -0.11592103 -0.21168844
0.16675536 -0.052857116 -1.4031772e-05 -0.16059434 -0.17544286 -0.2234552 -0.041742526 0.14030303
0.17663454 -0.11829443 0.05986064 -0.3083877 -0.2897741 0.08143658 -0.062026106 0.0381
0.08564917 -0.10499928 0.24388345 -0.010266029 -0.13114406 0.07357696 -0.070219465 0.21692544
-0.039225377 0.16543671 0.3545429 -0.12922588 -0.18035722 0.21459003 -0.16794176 -0.0055861203

shared_backbone.2.bias f4 [64]
00000000: 0e93 80bd 6e39 59bd a144 8ebd 8af3 743d
00000010: 5f08 8cbd 87da 64bc 0000 0000 6f39 59bd
00000020: 168b 5abd ff7c 4ebd 0000 0000 ab38 59bd
00000030: 2ad0 913d dfc6 22bd 7aa8 903d 4eb9 43bd
00000040: 156d 89bd fe38 59bd 15e5 04bd 05cb 23bd
00000050: 0000 0000 21bf 43bd 344c f33c 5f66 673b
00000060: 0000 0000 6c70 1cbd 566b 1c3d e1de 94bd
00000070: 0000 0000 b437 59bd 810e 943c e92a 91bc
00000080: 3d51 08bd 8cc5 0dbd fe1b 95bd 2e33 9e3d
00000090: 9de0 153d 5094 373d 457c 67bd 7139 59bd
000000a0: 0000 0000 2739 59bd 9a17 473d 3808 58bd
000000b0: 446e bc3c 460b 4fbd d1bf 43bd 6b39 59bd
000000c0: c568 9c3d 6c39 59bd 86ca 9cbc faa0 003d
000000d0: f62a b1bc 0000 0000 6c38 59bd 74b9 353d
000000e0: 44d0 ca3d 007a 90bd 2cd9 1f3c 64d6 bb3d
000000f0: 10c0 43bd 0000 0000 97e1 b0bd c941 403b
-0.062780485 -0.053033285 -0.06946684 0.05980257 -0.06837534 -0.013968117 0.0 -0.05303329
-0.0533553 -0.050412174 0.0 -0.05303256 0.07119782 -0.03974044 0.07063384 -0.047784142
-0.06710259 -0.053032868 -0.032445032 -0.039988536 0.0 -0.047789697 0.029699422 0.003530882
0.0 -0.03819315 0.0381883 -0.07269073 0.0 -0.05303164 0.018073322 -0.017720656
-0.0332806 -0.034612224 -0.0728073 0.077246055 0.03659116 0.044819176 -0.056514997 -0.053033296
0.0 -0.05303302 0.048606493 -0.052742213 0.023001797 -0.05054786 -0.047790352 -0.053033274
0.07637171 -0.053033277 -0.01913954 0.03140352 -0.02162693 0.0 -0.053032324 0.044366315
0.09903005 -0.0705452 0.009756368 0.09171751 -0.047790587 0.0 -0.08636778 0.0029336086

goal_head.weight f4 [2, 64]
00000000: 2b9e 0b3d 07b9 78be a859 26bd ddf8 f0bc
00000010: 74a1 87bd e2be ab3e d10d 0fbe d2fb b6bc
00000020: 0d55 07bc 5496 0b3d 9956 a63e 9943 043e
00000030: 6e48 71be 6601 86be 51e8 f4be 619e e13d
00000040: 7247 b3bd fb53 183e 8238 083d b7e7 ef3c
00000050: ef42 05bd 9c93 ae3d 9b22 c6bd 9858 d2bc
00000060: 43b7 223e f5d5 163e ff3f dbbd 89e5 a0bd
00000070: c232 b6bd f2a6 063d a52b 71be 9d2c 633d
00000080: 6c85 a53e bf39 e9bc 7aaf 183d 730a 273d
00000090: 3dce 773d d971 52be b547 6e3e cd5f 643a
000000a0: 3440 053d dc09 8f3e a620 d1bd 8c03 29bd
000000b0: 635c 333e 7358 1dbe d1c3 323b b077 9d3c
000000c0: 361a bdbe 1ed7 cf3d fd53 dcbd 622e f33d
000000d0: df71 8bbe 2bba 503e 637a a83c 8449 25be
000000e0: dddb f1be 35c3 313e 20bd e63d 6a44 d4be
000000f0: 3abd 9d3c 45c0 42be 2e61 863e c826 203e
00000100: cd3f 933d 5dba b7be 759c 863b 42e4 fb3d
00000110: e65c 34bd 4d70 34bd d8bb 86be 5412 27be
00000120: e857 943d 6133 cc3d 0000 37be ec94 963d
00000130: bccb f93d 988f 213e 52cc d23c b5b6 98be
00000140: 78f4 83be df61 9a3e 65eb 28be 92f0 d53c
00000150: cd02 f2bd d7b5 453e 2827 08b8 bc99 33bd
00000160: 264a a23e 6059 4e3e 89a3 803d 0c06 9fbe
00000170: 74dc b63d 8d6a 183e c401 a7bd 0316 3f3c
00000180: 3bb8 1c3d c0ca 743c aa18 0bbd b566 b43e
00000190: d829 733e 3380 0b3d 14c0 95bd 89a0 08be
000001a0: 2d94 3f3e 25c0 01bb 7426 713e bd07 54bd
000001b0: 34c8 dcbc cf7c 3bbe 0aac e5bd 238a 853d
000001c0: 6de4 d03c d240 413e 91e2 9ebc 2d14 473e
000001d0: 6c18 68be e459 8dbe 4378 b03d 5c58 96be
000001e0: bdb9 a33c 0570 21bd 5234 593d 7ce2 703e
000001f0: 1de8 12be 61bc b13d 36ac 69be baad c63b
0.034086388 -0.24289332 -0.040612847 -0.029415542 -0.066225916 0.3354407 -0.13970114 -0.022336874
-0.008260024 0.03407891 0.32487944 0.12916411 -0.23562786 -0.26172942 -0.47833493 0.110165365
-0.087538615 0.14875786 0.033257015 0.029285295 -0.032534536 0.08524248 -0.09674569 -0.02567701
0.15890221 0.14730056 -0.10705566 -0.0785628 -0.088964 0.032874055 -0.23551805 0.05546247
0.32328355 -0.028469918 0.037276722 0.04078145 0.06049942 -0.20551242 0.23269542 0.0008711785
0.032531932 0.2793721 -0.10211305 -0.04126315 0.17515711 -0.15365772 0.002727736 0.01922211
-0.3693406 0.10148452 -0.10758207 0.11874081 -0.27235314 0.20383517 0.020566171 -0.16141325
-0.47238055 0.17359622 0.112665415 -0.41458446 0.01925527 -0.19018658 0.26246017 0.15639794
0.071899034 -0.3588437 0.0041080066 0.12299396 -0.044033907 -0.04405241 -0.26315188 -0.16315585
0.07243329 0.09970737 -0.17871094 0.07352623 0.121970624 0.15777433 0.025732193 -0.29826894
-0.25772452 0.30152795 -0.16496046 0.02611569 -0.118169405 0.19307648 -3.2461394e-05 -0.043847784
0.31697196 0.20151281 0.06281192 -0.310593 0.08928767 0.14884396 -0.08154634 0.011662963
0.038261633 0.0149409175 -0.03395907 0.3523461 0.23746431 0.034057807 -0.073120266 -0.1334249
0.18708868 -0.0019798365 0.23549825 -0.051765192 -0.026950933 -0.1830933 -0.112144545 0.06520488
0.025499547 0.18872383 -0.019395145 0.1944129 -0.22665566 -0.27607644 0.08616688 -0.29364288
0.019986028 -0.03941347 0.053028412 0.23523897 -0.14346357 0.086785085 -0.228196 0.0060631903

goal_head.bias f4 [2]
00000000: d7d7 d3bd d7d7 d33d
-0.103439026 0.103439026

portfolio_head.weight f4 [15, 64]
00000000: aaa4 853e 1e4b ddbc 5bc7 a83e bba6 443e
00000010: 2175 f73d cabe d33d fc44 d3bc 40e2 1c3d
00000020: 968e cb3b 8636 97bd 37b9 65be c13c 863e
00000030: 4d86 ec3d e62e 0b3e fe13 363e 5c62 893e
00000040: 8cd3 83bd 5a4c a1be f120 44bd 80cd 8f3e
00000050: 6430 073d 23d0 40be 71df 9abe 859c 263d
00000060: f961 913d b5cd 45be ceb9 393e f2b8 aa3b
00000070: f8a0 e23d 9f2c 10bd 50c7 9bbe 183a a73d
00000080: 42fe b8bd c32e 7bbd 91f1 9a3e 8f5c d33e
00000090: 199a 2e3e 6d70 d2bc 7f9a 8f3e e6cf 9f3d
000000a0: 2889 11bb 9786 8fbd b404 76be 2049 3f3e
000000b0: cf76 12be 1b0c 07bc 98d5 7f3e b67e 35be
000000c0: ef11 843e 8aac 38bc 6415 5d3d f5a9 bb3d
000000d0: 0749 6e3d 9493 b2be 15e9 943e bb7d 143e
000000e0: a535 d3bd debf 0bbe a803 593e f167 f6bd
000000f0: 52c5 17be 308c 1f3e 0698 883c e98f f7bc
00000100: d472 b53d f914 86be 6937 7d3d 323c a5be
00000110: 9dc6 f4bd 8ccc 62bd d660 143d 97c9 a0bd
00000120: a031 e33d 2193 8a3d 193b 293e 7a6d 6cbe
00000130: 2a1f 6c3b f679 49be 3363 433e 3816 62bd
00000140: 650e 88be d041 943e d8f6 bfbe 044d b4bd
00000150: cb3b 263e 99a3 eb3c 83f3 aa3d 2e3e 063e
00000160: 2228 88bd f444 d9be 77c6 8e3c a881 7e3c
00000170: 8529 4d3e 750e 313e e958 c6bd 1b9b a33d
00000180: d820 73be 6381 93be dcd7 b03e 070f fd3d
00000190: 07b0 103e 917d c1bd 89e8 393d 8b95 a8bd
000001a0: 285d 983d 2202 b73e f9fa 3a3d a29c 30bd
000001b0: 8f1f 42be fbc8 8fbe c606 003e 2365 3ebd
000001c0: a500 413e d4ee 063d c38d 6dbc f529 e3bd
000001d0: 632c 7c3e 9bd1 f23e 0b0e 65be 2f0e 3ebe
000001e0: 171d 2b3e 6230 b4be 6d8d e9bd a93c 7e3d
000001f0: 42a4 13be 7648 96bd 289f 60bd 4b74 2ebd
00000200: 05a9 83bc 2468 80bd 42a7 3c3e dbbf 78bc
00000210: a711 083d 79ae a1bd ae0b 5fbe 12a1 b23e
00000220: e5a5 8e3e 7739 f93d 6340 a4ba b947 de3d
00000230: fc27 bb3e 69d5 103e 5453 323e 79f1 ef3d
00000240: 4894 1abd f8fa 9abc 13a8 11bd 47e2 a93c
00000250: 1bfc 623e c28e f83d b765 303e 3470 61be
00000260: 512f 41bd eb99 8e3e 992e 0a3e a0a2 23bb
00000270: 4a1f 363e ef8d 29be 4aa0 6c3e ca2e bdbd
00000280: 5fc2 fa3c 6e06 913c ac52 9d3d 4754 04be
00000290: 3ad0 5c3d b740 c2be 39a2 bbbd 25b3 07bd
000002a0: 3d59 a63d e596 6d3e 7c28 83be 1962 363e
000002b0: 85fb 303e 7925 7ebe 7630 2c3e 5187 5abe
000002c0: 3ba4 4dbe c7ff 493d 0b3d 17be 36ea a53e
000002d0: 6942 e9bd 5914 523e 44ad e6bd 6d16 9cbd
000002e0: 24c8 f1bd 527f f43d 17ec a93d 06db 71be
000002f0: 0891 b93e b54c b03e 5d79 f33a a69f b43e
00000300: 1243 b63e 26c9 8a3d b1ef 24be 1f44 833e
00000310: 0e61 133d 4c02 153e b709 84be e0b4 043e
00000320: 5e27 40bd e75f 7abe 8130 273e f8d2 813d
00000330: 14b9 b63d 09a1 16be c03a 353d b4ff fabd
00000340: 602b c7be de3d 82be 5c8a f83c 5b41 c6bd
00000350: a34d 68bd 0f0a 1a3e fc10 4f3c 6608 fd3d
00000360: a32b 003e a9af 2b3d f7a5 863e a498 2a3e
00000370: 1c07 5e3e c2cb fbbd 5a10 24be 23bd 06be
00000380: b79a 063e 23d7 1ebe 5601 9ebe 64d1 7cbd
00000390: cfc3 893d db32 af3d 71ca 8f3d 1765 583d
000003a0: b251 123e 6524 29bd c096 743e 1fb8 a23e
000003b0: f9ce 2b3e 9c3a fd3d 5701 3c3d 50f5 ad3c
000003c0: b87d 763e ed7f 7cbd 0e63 933d 07d7 4b3e
000003d0: 12b7 72be 7966 0b3e 23d6 bdbd 73bc 833e
000003e0: 9092 d6bd 779b 0bbe 4d00 c1bd 515a 573e
000003f0: a088 de3d 79e8 b3be 730d a8be 8a59 4f3e
0.2610219 -0.027013358 0.32964596 0.19204228 0.120828874 0.103391245 -0.02578973 0.038301706
0.006212066 -0.073834464 -0.22433935 0.26218227 0.11549053 0.13592109 0.17781064 0.26832855
-0.06436834 -0.31503564 -0.047882978 0.28086472 0.033005133 -0.18829398 -0.30248597 0.040676612
0.07098765 -0.19316752 0.18137285 0.0052100355 0.110658586 -0.035198804 -0.304255 0.081653774
-0.09032871 -0.061323892 0.30262426 0.41281554 0.17050971 -0.025688374 0.2804756 0.07803325
-0.0022206996 -0.07008093 -0.24025232 0.18680239 -0.14303134 -0.008242632 0.24983823 -0.17724118
0.25794932 -0.011271605 0.053975478 0.09163276 0.058175113 -0.34878218 0.29084077 0.14501087
-0.10312966 -0.1364741 0.21192801 -0.12031544 -0.14821365 0.15580821 0.016674053 -0.030219989
0.08859792 -0.26187876 0.06182042 -0.32272488 -0.11951945 -0.055370852 0.036225162 -0.0785095
0.110934496 0.06766344 0.1652645 -0.23088637 0.0036029317 -0.1967543 0.1908081 -0.05519697
-0.26573482 0.2895646 -0.37493014 -0.08803752 0.16233747 0.028764533 0.083472274 0.13109657
-0.0664828 -0.4243542 0.01742862 0.015533842 0.2003537 0.17290671 -0.09684927 0.079885684
-0.23742998 -0.28809652 0.34539688 0.12356382 0.14129649 -0.09447778 0.04538778 -0.08231648
0.07439643 0.35743815 0.045649502 -0.043118127 -0.18957351 -0.28083023 0.12502584 -0.04648317
0.18847902 0.032942608 -0.014499131 -0.11091987 0.24626307 0.4742554 -0.22368638 -0.18560098
0.16710316 -0.35193163 -0.11403928 0.06206957 -0.14418128 -0.073380396 -0.054839283 -0.042591374
-0.016071806 -0.06269863 0.18423179 -0.015182461 0.03321996 -0.07894606 -0.21781799 0.34888512
0.27860942 0.12169164 -0.0012531396 0.10853524 0.36553943 0.1414391 0.174146 0.11715979
-0.03773907 -0.0189185 -0.03556068 0.02073778 0.22166483 0.12136604 0.17226301 -0.22015458
-0.047164265 0.27851805 0.13494338 -0.0024968758 0.17785373 -0.1655805 0.2310802 -0.0923744
0.030610261 0.017703261 0.07681784 -0.12922774 0.053909518 -0.37939999 -0.09161801 -0.03312983
0.081224896 0.23202093 -0.25616825 0.17810859 0.17283447 -0.24818982 0.16815361 -0.21340682
-0.2008218 0.049316194 -0.1476938 0.3240525 -0.1138962 0.20515575 -0.112635165 -0.07621465
-0.11805752 0.11938347 0.08296984 -0.23618707 0.36243463 0.34433523 0.0018575598 0.35278052
0.35598046 0.06776647 -0.1610706 0.2563791 0.03598123 0.14551657 -0.25788662 0.12959623
-0.046912543 -0.24450646 0.16327097 0.06339067 0.089220196 -0.14709868 0.04424548 -0.12255803
-0.3890028 -0.25437826 0.030339412 -0.09680434 -0.056714665 0.150429 0.012638327 0.123551175
0.12516646 0.04191557 0.26298496 0.1665979 0.216824 -0.12294723 -0.16021863 -0.13158087
0.13144957 -0.15511756 -0.30860394 -0.061723128 0.06726801 0.08554622 0.070210345 0.05283078
0.14288977 -0.041294474 0.23885632 0.31781098 0.16778173 0.123646945 0.045899715 0.021235138
0.24071395 -0.061645437 0.071966276 0.19906245 -0.23702648 0.13613309 -0.09269359 0.25729713
-0.10477173 -0.13633524 -0.094238855 0.21030547 0.10865903 -0.351383 -0.3282276 0.20249

portfolio_head.bias f4 [15]
00000000: 4b07 633d c958 f03b 0aad fa3c a6b0 0ebd
00000010: 3420 7c3c 1bd0 00bc 4519 813d c6ce 2b3b
00000020: 782e f0bc c0ca 27ba fb56 e3bc 5a34 04bd
00000030: 1752 593d 0cd4 d0bd 2d14 103d
0.055426877 0.0073348028 0.03060009 -0.034836434 0.015388537 -0.007862116 0.06303648 0.0026215776
-0.029319033 -0.00064007565 -0.027751436 -0.03227649 0.053056803 -0.10196695 0.03517549

network.0.weight f4 [64, 2]
00000000: 8a77 503b c537 8cbe aaab 43be bdfa 19be
00000010: 0356 9dbe 9487 7bbe 6cfa 84be 080f e1bd
00000020: 8979 293c 5346 e7bc 29b2 563e 9cb8 a73e
00000030: 9c20 30be ec3f 933e 1a0a 983e 5368 093e
00000040: d94a 223f 1029 07be c16e e6bd 5c5c a6be
00000050: c973 1d3f 4283 2f3e 51cc 3abd 431f d7bd
00000060: b88d 1bbe 96c1 35be 44bd 7f3e 10f6 883e
00000070: 270f 073e 505f 843e 5379 3dbd a8f4 7b3d
00000080: cd34 3b3e db0d 5c3e 0a97 f23e 9a52 903e
00000090: ffee aebc 05e2 953e 1764 20be 8c69 043d
000000a0: 6453 803e acfa 123e 8610 65bc df65 65be
000000b0: e15d e43e 7ee6 8a3e ce53 943e 4035 bf3e
000000c0: 18f3 893e 8fec 983e 0efe bb3d e42c ca3e
000000d0: 7192 4b3e ff52 c13e 29e2 9fbc 8b10 d73d
000000e0: 712f c73c 758e cebe 7e48 13be 0685 aa3e
000000f0: a6b1 a4be 04aa 6d3d ccee 373e 2b76 933e
00000100: 7e20 a8bd 75cc 49be 2398 1dbe 9839 93be
00000110: 90b3 33be 1a86 f6bc 8e89 743e dd65 163e
00000120: 7323 973e 156e bd3d 4d54 4d3e b95e f93d
00000130: b0b5 33be d5d4 713e 7bb8 4e3e b95d 913d
00000140: 71a1 8d3e d087 5dbb 3a07 70be dd36 4cbe
00000150: a65d 40bd 6eed aebd a872 8bbd 0e39 bb3e
00000160: 9ee2 f7bd 1f32 62be a524 b53e ccb0 ee3e
00000170: e479 7a3e 7730 733d 9cdb 8d3e 497e 723d
00000180: 799f 83be 76c0 263d f41d f1bd 0e91 d63c
00000190: 558f 73be 246b 98bd 7ca9 22be 7af7 16be
000001a0: 695a d9bd 2298 e1bb 422a 153e 637f 113f
000001b0: 0e6c ac3e 1798 993e 3413 933e 7df0 943e
000001c0: 9c4f 6e3d 0dbf c43e 8464 983e 7ab4 013d
000001d0: c289 83be fa89 eebe bc52 c33e 70c0 ce3d
000001e0: 33fd bdbd 7659 8c3e b3af 843e 6f61 693e
000001f0: 4ed4 753e 5bee 5dbe dbe4 bdbd b714 533e
0.0031809532 -0.273863 -0.19108453 -0.15037055 -0.30729684 -0.24563438 -0.25972307 -0.10989195
0.010343918 -0.028231775 0.209664 0.32758033 -0.1719994 0.28759706 0.29695207 0.13418703
0.6339546 -0.13199258 -0.112515934 -0.3249234 0.615048 0.17139915 -0.045605008 -0.105040096
-0.1519078 -0.17749628 0.24974543 0.2675023 0.13189374 0.25853968 -0.046258282 0.06151262
0.1828186 0.2148966 0.4738086 0.2818802 -0.021354197 0.29274002 -0.15663181 0.03232722
0.25063622 0.14353436 -0.01398099 -0.22402142 0.44602874 0.27128977 0.28970188 0.37345314
0.26943278 0.2986798 0.091793165 0.39487374 0.19880082 0.37758633 -0.019517021 0.10501202
0.024314614 -0.4034306 -0.14383122 0.33304614 -0.32166785 0.058023468 0.17962188 0.28801093
-0.082093224 -0.197069 -0.15390067 -0.28754878 -0.17548966 -0.030093241 0.23880598 0.14687295
0.29519233 0.09249512 0.2005169 0.1217627 -0.17549777 0.23616345 0.20187561 0.07097954
0.27662233 -0.0033802874 -0.23440257 -0.19942804 -0.04696431 -0.0854138 -0.06808978 0.36566967
-0.12103771 -0.22089432 0.3537952 0.4661926 0.2446056 0.05937239 0.2770661 0.059202466
-0.25707605 0.04071089 -0.11773291 0.026192214 -0.23785146 -0.074423105 -0.15884966 -0.14742842
-0.106129475 -0.0068845907 0.14566901 0.56835 0.3367619 0.29998848 0.28725588 0.29089728
0.05818139 0.3842701 0.29764187 0.031666256 -0.25691038 -0.46589643 0.3814906 0.10095298
-0.092768095 0.27412003 0.25915298 0.22791074 0.24006769 -0.21672957 -0.09272166 0.20613371

network.0.bias f4 [64]
00000000: ecd4 88bd 0000 0000 0000 0000 0000 0000
00000010: bcc3 78bd f632 4f3e 92ee 463e 1b24 333e
00000020: 5cbd 383e 0000 0000 7bb5 233e d938 59bd
00000030: 0000 0000 9722 4e3e d20d 4d3e 5239 59bd
00000040: d454 073e 1a94 4f3e 16ac 4b3e 5d5d 5cbd
00000050: 3992 153e 5aa0 4dbd 0f1b 223e 31f9 513e
00000060: 7614 4f3e 3e78 4a3e 1f19 543e 9aab a8bd
00000070: fc37 93bd 61e5 4a3e 0f0f 59bd b430 533e
00000080: 0000 0000 0000 0000 0000 0000 41c8 113e
00000090: fd6b 4f3e 1962 4e3e b882 97bd d7ba 503e
000000a0: bcea 053e 0000 0000 0000 0000 a5e6 483e
000000b0: 0000 0000 1fa4 513e 01dc 263e 6895 523e
000000c0: 2a37 59bd 0dc9 48bd 0000 0000 0000 0000
000000d0: 0000 0000 0989 4b3e fe2d 523e a6bb 4e3e
000000e0: f096 4c3e dc08 533e 0000 0000 e71e 4e3e
000000f0: 6678 a6bc fbde 543e 8725 693d e436 59bd
-0.066812366 0.0 0.0 0.0 -0.06073354 0.20234284 0.19426945 0.17494242
0.18040985 0.0 0.15987198 -0.05303273 0.0 0.20130382 0.20024803 -0.05303318
0.13215953 0.2027134 0.19889864 -0.053799976 0.14606561 -0.05020175 0.15830635 0.20505215
0.20222649 0.19772431 0.20712708 -0.082358554 -0.071884125 0.19814064 -0.052992877 0.20624048
0.0 0.0 0.0 0.14236547 0.20256038 0.20154609 -0.073979795 0.20383774
0.13077825 0.0 0.0 0.19619234 0.0 0.20472763 0.16294862 0.20564806
-0.053031124 -0.049019862 0.0 0.0 0.0 0.19876494 0.20525357 0.2018877
0.19979453 0.20608848 0.0 0.20128976 -0.020321082 0.20788185 0.056920554 -0.053030863

network.2.weight f4 [64, 64]
00000000: 70f7 ff3c 0437 af3d 5a0b cf3d 8373 583c
00000010: 7164 1bbe afea abbe a57a 833d bf23 073e
00000020: 1f60 11bd 3939 573e 83a3 8cbe 436e 5dbc
00000030: b346 1a3e 92d0 00be 2772 eb3d e8da 29be
00000040: 92c9 f7bc a2b3 363e 5fd2 2bbd 0234 103e
00000050: 8e05 573c 216c debd 9c4b 293e 4b62 4bbe
00000060: cb12 363e efaf e3bd 5a29 acbe 154a 02bf
00000070: bbf6 a63c 79c2 e73c 9069 e13d a7a2 273e
00000080: aedc b63e b582 64be 7f8f 9ebd 3be1 393d
00000090: 78b1 07be 99eb a63d 470e 0cb9 8192 203e
000000a0: 9548 17be 63c3 4d3e e70f 7a3e 4404 28be
000000b0: 0caf 433d 5a00 2fbe 2e78 083e 8a4b cebd
000000c0: c12d f73e 0582 36be a147 9ebd e13d 893e
000000d0: a398 12bc 52a9 95bd 67bb 2c3e bc78 abbe
000000e0: f330 b13e 2e52 033e 193b dfbd 1d9f 36bc
000000f0: 6a61 913c b0ee 26bd 45c4 62be e092 cabd
00000100: 6af1 78be f1f6 773e 6aac cabc 0bbb 97bd
00000110: ee3b 433e d498 003e e328 b53c 5104 833e
00000120: 8818 583e 34d6 61bd 7c35 143f 421f a23d
00000130: c60f bd3d 9f49 4cbe c02c c23e eb78 483e
00000140: b8da b83e 1299 163f 4f3f cc3e 3704 7f3d
00000150: cd0b 66be 3076 c0bb 6420 ae3e 55c6 273e
00000160: 9c0b 243e 64e1 ce3e 422c e7bd a434 763e
00000170: 02dd 263e 075f d8bc 171a 4f3e e2cd ac3d
00000180: 2768 b33c ffd1 903c d23e 033e 3f14 033e
00000190: c1c7 e13e 14c0 f83e 78c9 2abe d472 353e
000001a0: 512b 6c3e 8171 573e d3ab 68be e4f7 893e
000001b0: c8b7 363e 5510 333e 189c 1a3e bc1d 5e3e
000001c0: 882c 08be ce5e b3bc 118b c03d 4ff3 a7bd
000001d0: 7f4e 123e 0b53 8b3e 645d 8e3e 5bce b4bd
000001e0: 6651 2f3e f2fb df3e 0aef 453e 5741 21bd
000001f0: 8bd4 4e3e 9c1b 5a3e d1f2 fb3d 0409 403e
00000200: a386 c2be b0f3 333e b869 15be 4008 583e
00000210: 49a7 06be b734 42bb 2baa 473e 3ef3 293e
00000220: b744 f0bd c5d7 3fbe 2048 01be 3bb2 69be
00000230: 7499 e03d 2da4 983a 2128 4e3d 581b 193e
00000240: 58ac 3c3e 0c7c e23b a885 27bd fb17 49be
00000250: 0fe3 3d3d 44d5 4b3d e0fa a4be f03f 613e
00000260: 8251 28be ab73 7dbe 9829 d3be d4ea 31be
00000270: 41b3 bc3d 661c 1b3e 497b 6f3d db1b 50be
00000280: 4502 a9bd 05a6 6d3c 5c04 e83d 84a4 e3bd
00000290: d0e9 6bbd 813b eebd 3661 0cbe 624e 033e
000002a0: 3410 5dbe db0d 713e 816d d23d 4c31 2b3e
000002b0: 2f07 773e 3cc9 4e3d cea1 833e 2e79 233e
000002c0: 35ed 293b 52a9 2b3e f2a9 513e c7cd 263e
000002d0: 6a8d 97be 0d1f 433e 0ce7 f33c 99af 2a3e
000002e0: ec92 2cbe ebce 98bd 6b36 25be 86b9 3a3e
000002f0: c1bf 75be bd67 a9be 96f2 fd3c 3dff 493e
00000300: c631 1ebd 0c3e 2abe d5ee e2bd 5764 3e3d
00000310: 2325 933d 0182 54be 2ad6 c9bb 8fc2 9fbc
00000320: df8b b1bb 4e66 963d 8f45 3cbd 9293 df3d
00000330: 5bfb 13bd 410c 8cbe 7777 4fbe cd8e 7c3e
00000340: 562d 16be 9eae 303e cebd 4dbb fc68 b63d
00000350: 4e1a 313e 9a32 263e 067f 843d 2d5c bdbd
00000360: 4540 fb3c 6b92 a3be 0237 9f3e 113a 25be
00000370: b637 a1bd 8802 8abd 042d 253e adb2 6cbe
00000380: ac09 39bd 8bde aa3e ec25 95be f593 38be
00000390: 4655 bf3e 603f 253e 24e9 4ebd 03ed 163d
000003a0: f128 29be 328a 893d 922a 4abe e954 453e
000003b0: c430 bf39 bfe2 69bd 93d7 683e 4b56 90be
000003c0: 6cc0 3a3e 73be 8abd d48a 423b 2881 44be
000003d0: 0aad b2bb f77e 883e 4218 9dbe 93c7 03bd
000003e0: df25 e6bd ccd7 983c 5543 afbd cfb9 88bb
000003f0: 4646 ffbe db3a 6e3e 1ebc 11be 74ce 4abe
0.031245917 0.08555415 0.10109587 0.013211134 -0.15175034 -0.33577487 0.06419877 0.1319723
-0.03549206 0.21017922 -0.274685 -0.013515058 0.15066032 -0.12579563 0.11496382 -0.16587412
-0.030247483 0.17841962 -0.041948672 0.1408234 0.013123883 -0.10860468 0.16532749 -0.19861715
0.17780606 -0.11117541 -0.336253 -0.5089429 0.020381322 0.028290974 0.110064626 0.1637064
0.3571524 -0.22315486 -0.077422135 0.045380812 -0.13251293 0.081504054 -0.00013356759 0.15680887
-0.14773782 0.20094065 0.24420129 -0.16407877 0.04777436 -0.17089978 0.13327095 -0.10073002
0.48277095 -0.17823036 -0.07728506 0.26805022 -0.008947524 -0.07307686 0.16868363 -0.3349055
0.34607658 0.12824318 -0.10899944 -0.011146334 0.017746646 -0.040754974 -0.22145183 -0.098912954
-0.24310842 0.24215294 -0.024740417 -0.074087225 0.1906583 0.125583 0.022114223 0.2558923
0.21103108 -0.05513592 0.5789411 0.07916118 0.09231524 -0.19949959 0.37924767 0.19577377
0.3610437 0.58827317 0.3989205 0.06225988 -0.22465439 -0.005873464 0.34009087 0.16384251
0.16020054 0.40406334 -0.112877384 0.24043518 0.16295245 -0.0264125 0.20224796 0.084377065
0.02190025 0.017678259 0.12816933 0.12800692 0.44097713 0.48584044 -0.16678417 0.17719585
0.23063399 0.21039392 -0.22721796 0.26946938 0.17843544 0.17486699 0.15098608 0.2169103
-0.13298237 -0.021895792 0.09401525 -0.08200704 0.14287756 0.27211794 0.27805626 -0.08828422
0.17120895 0.43746907 0.19329467 -0.039368954 0.20198266 0.21299595 0.12302173 0.18753439
-0.37993345 0.17573428 -0.1459111 0.21096897 -0.13149752 -0.0029633471 0.19498508 0.16596696
-0.11731856 -0.18734653 -0.1262517 -0.22821896 0.10966769 0.0011645608 0.05033124 0.14951837
0.18425119 0.00691176 -0.04089895 -0.19638054 0.046359118 0.049763933 -0.32222652 0.21997046
-0.16437343 -0.24751155 -0.4124267 -0.17374736 0.092138775 0.15147552 0.058467183 -0.20323126
-0.08252386 0.014504914 0.113289565 -0.11115363 -0.057596028 -0.11632443 -0.13708958 0.1282287
-0.21588212 0.23540442 0.102747925 0.16718024 0.24123834 0.05048488 0.25709385 0.15964195
0.002592874 0.1676381 0.20474985 0.16289435 -0.29600078 0.19054814 0.029773258 0.16668548
-0.16852921 -0.074613415 -0.1613404 0.18234834 -0.2399893 -0.3308696 0.030999463 0.19726272
-0.038621686 -0.16625232 -0.1108071 0.04648241 0.07184818 -0.20752718 -0.0061595635 -0.019501952
-0.0054182853 0.07343732 -0.045964774 0.10916819 -0.036128383 -0.273531 -0.20260416 0.24663849
-0.14665732 0.17254111 -0.003139365 0.08906743 0.1729519 0.1623024 0.0646954 -0.09246097
0.030670295 -0.31947646 0.31096655 -0.16135432 -0.07871954 -0.06738764 0.16130453 -0.23115034
-0.04517524 0.33372912 -0.29130495 -0.18025191 0.37369746 0.16137457 -0.05051531 0.036847126
-0.16519524 0.06715812 -0.19742802 0.19270672 0.00036466692 -0.057101008 0.22738485 -0.28190836
0.18237466 -0.067746066 0.0029684799 -0.19189894 -0.005452757 0.26659366 -0.3068257 -0.03217275
-0.11237692 0.018657587 -0.085577644 -0.0041725407 -0.49858302 0.23264639 -0.14231917 -0.19805318

network.2.bias f4 [64]
00000000: e436 59bd b73f 483e 0000 0000 0000 0000
00000010: 2401 463e d4dc 403e 926a 15bd 3839 59bd
00000020: a936 59bd a71e 59bd 758a 433e 0000 0000
00000030: 044d a3bd 9870 453e 0000 0000 9d5f 1fbd
00000040: 0000 0000 7750 483e 03dc 6dbd 6f6a 433e
00000050: e019 273e 3344 0b3e 0000 0000 bf4f 483e
00000060: 1ba9 433e 8c99 483e 0000 0000 b237 59bd
00000070: 27aa 94bd 9b49 443e 6943 483e 0000 0000
00000080: 5539 59bd b5f9 2d3e 0000 0000 caa3 443e
00000090: cff1 473e 5c5d 483e b2c7 443e cae5 293e
000000a0: 0000 0000 f130 413e 3e39 59bd 0000 0000
000000b0: 2be1 403e 5b50 363e 5337 473e 5639 59bd
000000c0: 6fef 58bd 0000 0000 0000 0000 6f36 59bd
000000d0: 01d2 473e ebde 473e 13db 4cbd c5be 43bd
000000e0: 1ae2 463e 2037 59bd 0000 0000 0000 0000
000000f0: 0000 0000 0000 0000 9e30 443e 4a08 443e
-0.053030863 0.19555555 0.0 0.0 0.19336373 0.18834239 -0.036478586 -0.053033084
-0.053030644 -0.053007748 0.19095786 0.0 -0.07973674 0.19281232 0.0 -0.038909543
0.0 0.19561945 -0.058071148 0.1908357 0.16318464 0.13600235 0.0 0.1956167
0.19107477 0.19589823 0.0 -0.05303163 -0.072590165 0.19168703 0.19556965 0.0
-0.05303319 0.16989787 0.0 0.19203106 0.19525836 0.19566864 0.19216803 0.16591564
0.0 0.18866326 -0.053033106 0.0 0.18835895 0.1780409 0.19454698 -0.053033195
-0.052962717 0.0 0.0 -0.053030428 0.19513704 0.1951863 -0.050013613 -0.047789354
0.19422188 -0.053031087 0.0 0.0 0.0 0.0 0.19159171 0.19143787

network.4.weight f4 [1, 64]
00000000: a8c5 423d 4f1c 573e d7ad a3bb 17a4 04bb
00000010: 468b 593e 1905 4d3e c2ce 143d b442 263d
00000020: f7ad 2a3d f4b4 103d bfc2 513e c5d5 e03b
00000030: 03eb 343d 458e 493e 833c c9bb 89d0 4b3d
00000040: 8504 ecba 5170 563e 6862 303d ae9c 453e
00000050: 2fa8 433e fd8c 443e 3583 10bc a42e 593e
00000060: fb91 493e b053 583e 2788 0ebc f2a8 0f3d
00000070: 96c2 673d 5542 503e fe97 553e 6f99 8cbc
00000080: 56ff 093d dfe3 4e3e 79b5 0ebc a638 4e3e
00000090: a5ae 5c3e 3f63 543e 400c 473e 6032 343e
000000a0: 0b46 9dbc ff9a 4f3e 9532 113d 5a8c c63b
000000b0: c3fe 453e 8fc9 3e3e 148d 4a3e cd63 073d
000000c0: c5b6 4f3d 2501 1bbc f220 2e3a 2d0d 2e3d
000000d0: eea4 533e 3e86 5b3e 497e 3e3d 8129 0a3d
000000e0: 40ab 5c3e 9daa 213d bf14 3bbc cec9 83bc
000000f0: b360 01bc 2727 af3c c940 6c3e 802a 483e
0.04755178 0.21006893 -0.0049950886 -0.0020239407 0.21244535 0.20021476 0.036329992 0.040590957
0.041669812 0.03532882 0.20484446 0.006861421 0.044169437 0.19683178 -0.0061412468 0.04975942
-0.0018006718 0.20941283 0.043062598 0.1929805 0.19107126 0.19194408 -0.008820345 0.21209198
0.19684593 0.21125674 -0.008699453 0.03507323 0.056582056 0.20337804 0.20858762 -0.017163007
0.033690773 0.20204113 -0.008710259 0.20138797 0.21550997 0.20740984 0.19438267 0.17597342
-0.019198438 0.2027397 0.03544863 0.0060592117 0.19335465 0.18631576 0.1978038 0.03305416
0.050711412 -0.009460722 0.00066424825 0.042493034 0.20668384 0.21437928 0.046507154 0.033730987
0.21549702 0.03946935 -0.0114185205 -0.016087439 -0.00789659 0.021380974 0.23071589 0.19547462

exp_avg f4 [64, 2]
00000000: e334 2ab9 de67 1fb9 0000 0000 0000 0000
00000010: d262 8838 6eb0 2fb9 0000 0000 0000 0000
00000020: 4f97 383b c677 1a39 521d 803a 4b6d ecb8
00000030: a320 643a e9ae 41b8 3aff ab3a e024 4ab8
00000040: a1ff 1139 768c e836 0000 0000 0000 0000
00000050: d184 2e3b a046 d5b7 63c5 fbba 69b6 33b8
00000060: 699a 6639 0c54 3d37 ff83 b139 e891 d537
00000070: 2529 393b edc9 bdb8 99af b8b8 b980 b0b8
00000080: 0000 0000 6717 1435 e83a d63a 9f7a 39b9
00000090: 0000 0000 5f9b 7433 8867 1c3b 3883 00b9
000000a0: 5ca4 6539 980e c537 0000 0000 0000 0000
000000b0: 0000 0000 0000 0000 6f0c 35b8 d019 08b8
000000c0: 1a85 0239 1fdb 2837 0000 0000 0000 0000
000000d0: 0000 0000 0000 0000 fa83 2a3b 6f14 4239
000000e0: baba bf3a cb46 02b9 0000 0000 0000 0000
000000f0: e4d7 dc3a 510d c2b8 a3de 463a 66f4 6938
00000100: 03c5 373b ff51 b8b8 85da 1238 7aa9 a7b7
00000110: c2aa 163b 2317 a238 9b9b d8b9 4e68 56b8
00000120: 0000 0000 0000 0000 5a19 a63a b47a bb38
00000130: 0000 0000 0000 0000 0000 0000 0000 0000
00000140: cee0 cb3a 9565 b236 0000 0000 0000 0000
00000150: 5213 283a 4db6 2938 97b1 c739 7544 7e38
00000160: e974 bd3a 7ac9 d6b8 0000 0000 cc4e 0835
00000170: 9810 5e39 a6e1 0b38 2dae 77b9 eb91 c4b8
00000180: 2968 e837 cd10 d935 dfbe 0935 9119 0636
00000190: b92f 2f3b 5d43 4238 0000 0000 0000 0000
000001a0: 0000 0000 0000 0000 0000 0000 9f0d b336
000001b0: 0000 0000 0000 0000 f4f3 1a3b 2d5e a5b7
000001c0: 0000 0000 0000 0000 0000 0000 0000 0000
000001d0: 3fc1 0b3b 1161 8738 0000 0000 0000 0000
000001e0: 0000 0000 0000 0000 0000 0000 0000 0000
000001f0: 40b1 6b39 3785 8c37 a920 263b c14a e7b8
-0.00016232165 -0.00015202115 0.0 0.0 6.503392e-05 -0.00016755026 0.0 0.0
0.0028166359 0.00014731204 0.0009774363 -0.00011273714 0.0008702373 -4.6177684e-05 0.0013122328 -4.8194895e-05
0.00013923507 6.9304906e-06 0.0 0.0 0.0026629458 -2.5424466e-05 -0.0019208606 -4.284681e-05
0.00021992032 1.1284847e-05 0.00033858416 2.5459522e-05 0.0028253284 -9.049834e-05 -8.806511e-05 -8.4163104e-05
0.0 5.516835e-07 0.001634446 -0.00017688655 0.0 5.6951986e-08 0.002386542 -0.00012255914
0.0002190037 2.3491026e-05 0.0 0.0 0.0 0.0 -4.3165343e-05 -3.2448967e-05
0.0001244735 1.0064598e-05 0.0 0.0 0.0 0.0 0.0026018606 0.00018508894
0.0014627792 -0.00012424139 0.0 0.0 0.0016849008 -9.253121e-05 0.0007586276 5.5779143e-05
0.0028041012 -8.789077e-05 3.5012625e-05 -1.998687e-05 0.0022989963 7.7290715e-05 -0.00041314666 -5.1118717e-05
0.0 0.0 0.001267235 8.93971e-05 0.0 0.0 0.0 0.0
0.0015554668 5.316639e-06 0.0 0.0 0.00064115704 4.046252e-05 0.00038088553 6.0622075e-05
0.0014454398 -0.00010241843 0.0 5.077861e-07 0.00021177751 3.3350334e-05 -0.00023620641 -9.373188e-05
2.7705059e-05 1.617265e-06 5.131423e-07 1.9982438e-06 0.0026731326 4.631594e-05 0.0 0.0
0.0 0.0 0.0 5.3362014e-06 0.0 0.0 0.0023643943 -1.9713387e-05
0.0 0.0 0.0 0.0 0.00213249 6.455382e-05 0.0 0.0
0.0 0.0 0.0 0.0 0.00022477377 1.6751334e-05 0.0025349057 -0.00011028862

exp_avg_sq f4 [64, 2]
00000000: 4815 8932 76bd 0b31 0000 0000 0000 0000
00000010: fd9a c334 ecbe 8031 0000 0000 0000 0000
00000020: a2de c535 2e27 ab31 7485 f335 9da4 4632
00000030: 0283 5735 58d7 d431 2b2d e635 f8c8 4832
00000040: b695 0233 fbde 0e2f 0000 0000 0000 0000
00000050: 706a d935 5218 2032 f408 a035 05e2 c131
00000060: 9ad7 f233 6f64 0d30 d88c e434 5eb6 2431
00000070: 1ea3 3036 2c25 8332 4cd7 8630 46a5 1230
00000080: 0000 0000 3550 e62b 78eb 9236 b0d9 e732
00000090: 0000 0000 f115 9d28 247f 9036 3d19 de32
000000a0: f073 8a34 e0e5 4b31 0000 0000 0000 0000
000000b0: 0000 0000 0000 0000 1897 6034 aae8 3a31
000000c0: a9e6 b233 bcb6 1530 0000 0000 0000 0000
000000d0: 0000 0000 0000 0000 5c29 e235 159e 1a32
000000e0: 7dd2 cc35 6eca 2a32 0000 0000 0000 0000
000000f0: d3a8 3935 a3ca 8e31 6b3b 1f35 cb78 4d31
00000100: 9115 fa35 81ee 2b32 4608 0830 72ff d12f
00000110: d4e4 5d35 5970 ab31 764e 7035 27fe ba31
00000120: 0000 0000 0000 0000 421f 7935 591f 0432
00000130: 0000 0000 0000 0000 0000 0000 0000 0000
00000140: 0b1a 7635 85c5 ca31 0000 0000 0000 0000
00000150: 04a6 e934 bffa d030 149f 4935 9abe 8c31
00000160: f66a 1e36 9c07 6232 0000 0000 931e c32b
00000170: 062f 8835 aed2 aa31 f8a6 2733 85ef bd30
00000180: f732 8634 89a8 a230 cb93 282b e770 af2c
00000190: 175a 0b36 629d 3732 0000 0000 0000 0000
000001a0: 0000 0000 0000 0000 0000 0000 b818 852e
000001b0: 0000 0000 0000 0000 a8d6 d135 e242 1132
000001c0: 0000 0000 0000 0000 0000 0000 0000 0000
000001d0: 2057 4c35 77e0 9031 0000 0000 0000 0000
000001e0: 0000 0000 0000 0000 0000 0000 0000 0000
000001f0: f65a 2634 f45c 8d30 8f36 ad36 e639 0033
1.5958577e-08 2.0334858e-09 0.0 0.0 3.643435e-07 3.7469956e-09 0.0 0.0
1.4742438e-06 4.9812092e-09 1.8143751e-06 1.1562546e-08 8.0284383e-07 6.194494e-09 1.7149481e-06 1.1687227e-08
3.0404145e-08 1.2994043e-10 0.0 0.0 1.6198737e-06 9.3187555e-09 1.1923535e-06 5.6427347e-09
1.1308221e-07 5.1438226e-10 4.2570787e-07 2.3968805e-09 2.632099e-06 1.5267311e-08 9.810974e-10 5.334936e-10
0.0 1.6364745e-12 4.3785512e-06 2.6990932e-08 0.0 1.7440017e-14 4.3063355e-06 2.5855678e-08
2.578886e-07 2.9671057e-09 0.0 0.0 0.0 0.0 2.0916593e-07 2.7198817e-09
8.330728e-08 5.4465565e-10 0.0 0.0 0.0 0.0 1.6850349e-06 8.9999235e-09
1.5260445e-06 9.9413295e-09 0.0 0.0 6.916354e-07 4.155781e-09 5.931858e-07 2.990009e-09
1.8632728e-06 1.00077395e-08 4.948827e-10 3.8198383e-10 8.2661904e-07 4.9895275e-09 8.9521143e-07 5.4422062e-09
0.0 0.0 9.2805215e-07 7.690539e-09 0.0 0.0 0.0 0.0
9.168004e-07 5.901429e-09 0.0 0.0 4.3520424e-07 1.5205258e-09 7.5109824e-07 4.096205e-09
2.3606094e-06 1.31566615e-08 0.0 1.3864069e-12 1.0146475e-06 4.9716027e-09 3.9034575e-08 1.3819635e-09
2.4996527e-07 1.1834952e-09 5.9890694e-13 4.986334e-12 2.0765053e-06 1.0687787e-08 0.0 0.0
0.0 0.0 0.0 6.052531e-11 0.0 0.0 1.5634187e-06 8.455318e-09
0.0 0.0 0.0 0.0 7.6122706e-07 4.2164703e-09 0.0 0.0
0.0 0.0 0.0 0.0 1.5493046e-07 1.0285519e-09 5.1621532e-06 2.985498e-08

exp_avg f4 [64]
00000000: 9884 7dbb 0000 0000 987b 9bbb 0000 0000
00000010: c74f 653b 7446 3abb d730 b3ba a8e8 c3ba
00000020: a6ff 4e39 0000 0000 3717 aeba 1921 453a
00000030: 18c8 9539 79ca 193a cf60 37bb bf86 15bb
00000040: ff65 6d37 daa8 85bb 130f c435 a8ce 74bb
00000050: 2e89 153a 0000 0000 0000 0000 b4d1 d3ba
00000060: 39c4 9039 0000 0000 0000 0000 ba0e 7a3b
00000070: 82ae 81bb 0000 0000 8f30 0ebb 7a93 b03a
00000080: ee45 3fbb 9d00 edb9 8f43 913a aa0d 0cbb
00000090: 0000 0000 6b63 003b 0000 0000 0000 0000
000000a0: de92 c2b9 0000 0000 7c39 783a accb 593a
000000b0: 7f93 0ebb 3782 5a37 3ae4 083a 15fa 1cbb
000000c0: be15 2438 d9d8 6038 780a ad37 0000 0000
000000d0: 0000 0000 1084 0f39 0000 0000 4bc4 9dba
000000e0: 0000 0000 0000 0000 85b4 7eb9 0000 0000
000000f0: 0000 0000 0000 0000 eaeb e339 fb14 3ebb
-0.0038683768 0.0 -0.004744958 0.0 0.0034990178 -0.002842334 -0.0013671172 -0.0014946656
0.00019740927 0.0 -0.0013282065 0.00075198855 0.00028568576 0.00058666576 -0.0027981286 -0.002281591
1.4150049e-05 -0.0040789666 1.4607525e-06 -0.0037354622 0.00057043403 0.0 0.0 -0.0016160519
0.00027612018 0.0 0.0 0.003815575 -0.0039575705 0.0 -0.0021696424 0.0013471686
-0.0029185968 -0.0004520462 0.0011082756 -0.002137045 0.0 0.0019590508 0.0 0.0
-0.00037111988 0.0 0.0009469015 0.00083082425 -0.0021755395 1.3024131e-05 0.00052219967 -0.0023952771
3.9120896e-05 5.3607717e-05 2.0628082e-05 0.0 0.0 0.0001368674 0.0 -0.0012036649
0.0 0.0 -0.00024290576 0.0 0.0 0.0 0.00043472584 -0.0029004205

exp_avg_sq f4 [64]
00000000: ff75 ab35 0000 0000 b911 0636 0000 0000
00000010: 9478 4e36 46a0 de36 6d8e 7036 1f64 d836
00000020: 589b ba33 0000 0000 193f a836 a954 4836
00000030: cec3 5634 977a b535 fa54 0b37 b8da be34
00000040: a8f6 9330 e264 8137 72d6 492d 95bb 7d37
00000050: f4d3 ea35 0000 0000 0000 0000 ebb9 e035
00000060: 6616 dc34 0000 0000 0000 0000 47b4 9c36
00000070: dd62 b836 0000 0000 5ede 0a36 4f79 ed35
00000080: d663 be36 271a 8d34 3544 3136 c8b6 5e36
00000090: 0000 0000 fa00 7f36 0000 0000 0000 0000
000000a0: 142a 4b36 0000 0000 fbe3 6b35 bdec 2036
000000b0: e709 eb36 f8b4 7a30 f818 2636 04ad 7135
000000c0: 6092 0335 509f 7b31 7405 b936 0000 0000
000000d0: 0000 0000 a903 2b33 0000 0000 cb5d 9d36
000000e0: 0000 0000 0000 0000 6199 1936 0000 0000
000000f0: 0000 0000 0000 0000 1800 6135 b09c 8f37
1.2774834e-06 0.0 1.9977872e-06 0.0 3.0766578e-06 6.634774e-06 3.584569e-06 6.4489573e-06
8.689557e-08 0.0 5.0141357e-06 2.98516e-06 2.0001536e-07 1.3521229e-06 8.304831e-06 3.5549397e-07
1.0765762e-09 1.5424976e-05 1.1473144e-11 1.512365e-05 1.7496045e-06 0.0 0.0 1.674341e-06
4.099449e-07 0.0 0.0 4.6701493e-06 5.4951365e-06 0.0 2.0693037e-06 1.7693181e-06
5.6740637e-06 2.6282325e-07 2.6414757e-06 3.318697e-06 0.0 3.799853e-06 0.0 0.0
3.027385e-06 0.0 8.787608e-07 2.3979658e-06 7.0046985e-06 9.120664e-10 2.4750461e-06 9.0031267e-07
4.9014307e-07 3.6615866e-09 5.5140645e-06 0.0 0.0 3.981737e-08 0.0 4.6898836e-06
0.0 0.0 2.2888055e-06 0.0 0.0 0.0 8.381917e-07 1.7119892e-05
