data/results/sentiment_gbwm_20251203_222440/final_model_safe.pth (torch, 495429 bytes, 81 tensors)

state_encoder.time_encoder.0.weight f4 [16, 1]
000000 c8 c0 8f 3e e8 45 b1 be 76 b6 07 be 72 da aa 3e
       0.28076768 -0.34623647 -0.13253197 0.33369786
000010 a0 c8 9e be 1c b3 d2 3e 5f 81 3d be 04 d8 89 be
       -0.3101244 0.41152275 -0.18506382 -0.2692262
000020 6e db 9a 3e a3 29 65 3e 68 c9 9a 3e 00 a2 11 be
       0.30245537 0.22379164 0.30231786 -0.14221954
000030 26 af 36 3e 67 4c 6b 3e 5c bf 16 be 6e ac 71 3e
       0.17840251 0.22978364 -0.14721435 0.23600933

state_encoder.time_encoder.0.bias f4 [16]
000000 d9 ed c6 bd 5e a5 f7 3d e5 e5 ce 3d 52 b1 eb bd
       -0.097133346 0.12092088 0.10102443 -0.115084305
000010 72 f7 d2 3d 50 58 0c be 04 83 b6 3d 6a aa d8 3d
       0.10301103 -0.13705564 0.08911708 0.10579379
000020 70 0a dd bd d8 66 bf bd d5 f7 d5 bd 32 66 19 3e
       -0.107930064 -0.09345788 -0.10447661 0.1498039
000030 13 e9 ab bd 57 37 b9 bd 8f 7d bc 3d fe c0 bd bd
       -0.08394065 -0.09043758 0.09203636 -0.09265326

state_encoder.wealth_encoder.0.weight f4 [32, 1]
000000 75 fb 00 3d 78 4d 64 bd 60 fc 69 3d 65 44 a2 3d
       0.031489808 -0.055737942 0.05712545 0.079232015
000010 73 43 46 bd e9 83 62 3e 8c 56 14 3d e8 d2 ee bd
       -0.04840417 0.22120632 0.03621535 -0.11661321
000020 bf 9f 86 3d 1f 75 35 3c 37 64 07 3e 29 24 99 bd
       0.06573438 0.011075287 0.13221823 -0.074776
000030 71 6f 6f bd ba 16 97 bc ce e7 d1 3c a4 7b f6 bd
       -0.05845589 -0.018443454 0.025623228 -0.12035301
000040 a5 b5 76 3c 85 10 80 bd b0 7a 0d be 04 f5 60 3d
       0.015057956 -0.06253151 -0.13816333 0.054921165
000050 b4 7d 1b bb f1 c4 8e bd 5f 43 28 3d 93 ae f3 bc
       -0.0023726048 -0.06971157 0.041079875 -0.02974633
000060 ad de 12 be dd db 71 bd 54 2a 73 bc b2 3d 90 3d
       -0.14342757 -0.05904757 -0.014841635 0.070430174
000070 e5 86 c3 3d 64 8b af bc 80 31 a3 bd f7 1c a6 bc
       0.095472135 -0.021428771 -0.07968426 -0.020277483

state_encoder.wealth_encoder.0.bias f4 [32]
000000 5f 0a e1 ba 24 43 a6 3b b8 95 62 bb 14 6d 12 bc
       -0.0017169229 0.0050739218 -0.0034574103 -0.008937139
000010 13 f3 8e 3b 28 f5 87 bc 3b 6c 0c bc 74 49 4d 3c
       0.004362473 -0.016596392 -0.008570726 0.01252972
000020 a8 5d f8 bb 3b 98 a5 b9 78 76 4f bc 4e 3b fc 3b
       -0.007579524 -0.00031584673 -0.0126625225 0.0076974994
000030 c5 8f 29 3b 5b 01 49 3b a3 c5 64 bb 2b 88 5c 3c
       0.0025873047 0.0030670974 -0.003490784 0.013460199
000040 83 5d 04 3b 68 76 2a 3b aa 6e 55 3c ec 46 65 3a
       0.002019734 0.0026010517 0.013026873 0.0008746225
000050 64 96 b8 3a 7d d2 c4 3b cc 3a 3c bb ee cc b3 3b
       0.0014082906 0.0060065375 -0.002872157 0.005487076
000060 d2 22 55 3c 4b fa 86 3b b2 66 e4 b9 3c f7 57 bb
       0.01300879 0.0041191927 -0.00043564063 -0.003295376
000070 b6 7d 01 bc b2 00 bc 3b f6 f2 22 3c 32 82 2a 3b
       -0.007903507 0.0057373876 0.009945622 0.0026017544

state_encoder.sentiment_encoder.0.weight f4 [16, 2]
000000 b7 d3 f2 3e 03 71 4d be 82 1a d7 3e 9e e0 a7 be
       0.4742715 -0.20062642 0.4201241 -0.32788557
000010 a9 55 e5 bf 33 a5 9b bf 3d 8a 5f 3c 3f 03 03 bd
       -1.7916766 -1.215979 0.013643798 -0.031985518
000020 4b 06 dd 3f 39 9a a3 3f bb 2b e4 3e ec 7e 3f be
       1.7267545 1.278144 0.44564614 -0.1870076
000030 36 e1 92 3e 97 17 27 be 58 42 2f 3d e1 e9 8d 3d
       0.28687447 -0.16317593 0.04278788 0.069293745
000040 b2 97 ea be 48 ac 48 3e 3b 1a 2a bd 2f 4b a9 3c
       -0.4581886 0.1959697 -0.04152892 0.020665733
000050 c8 b0 fb be 15 fe 64 3e 9d 09 f3 be 76 77 aa 3e
       -0.4915831 0.2236255 -0.47468272 0.33294266
000060 2f af 24 3e a6 92 16 3d 88 8b 13 bf 98 01 59 3e
       0.16082452 0.03676095 -0.5763478 0.21192014
000070 e3 b7 1d 3e 14 ec 03 bd fa 69 a8 3e 9e 34 03 bc
       0.15402178 -0.032207564 0.32893354 -0.00800815

state_encoder.sentiment_encoder.0.bias f4 [16]
000000 c3 fc dd bc b1 13 8d bc 3a 6c 9a bd 92 3d e7 ba
       -0.027098065 -0.017221304 -0.07540174 -0.0017642251
000010 9d 12 85 3d 3f eb d7 bc 7b 3b bb bc 16 2c 17 3c
       0.06497691 -0.026357291 -0.022855511 0.0092268195
000020 0c 5c d4 3c cc ac fa ba 47 00 c6 3c 6c cd be 3c
       0.025922798 -0.0019124984 0.024170054 0.023291312
000030 20 38 00 3c 87 cc f5 3c 0f 4a 84 bb a8 66 d5 bc
       0.007825881 0.030004753 -0.004037149 -0.026049927

state_encoder.fusion.0.weight f4 [64, 64]
000000 8c da 18 3b 56 12 d2 bd ec 19 f6 bc 4e 19 69 3d
       0.0023323623 -0.102574036 -0.030041657 0.056908898
000010 a5 f2 cf bb a2 e2 32 3e 75 16 97 3c 08 48 05 bc
       -0.006346064 0.17469266 0.018443326 -0.008134849
000020 6b 63 86 3c 63 4b 71 bc bc f4 d9 3c 61 34 0f 3d
       0.016404828 -0.014727446 0.026605956 0.03496206
000030 a1 a1 cd bd 4d ab 20 bd 8f 10 8f bc 65 bc 3c bd
       -0.10040594 -0.039225865 -0.01746395 -0.046078105
000040 98 16 8d bd 9d 9b 3e 3a c4 88 f4 3d ba 50 d5 3c
       -0.06889075 0.0007271113 0.119401485 0.02603947
000050 2f ec 47 3d 87 77 c2 ba 53 7d 03 bd 9a 08 98 3c
       0.048809227 -0.0014836647 -0.03210194 0.018558789
000060 a3 0b d6 bc 4b a9 b5 3d 2a ec 05 bd 58 7f 51 3d
       -0.026128596 0.08870181 -0.032695927 0.051146835
000070 a6 c8 08 3e 78 e0 bc bc db 01 ad bc 71 a8 2a 3d
       0.13357791 -0.023056254 -0.021119049 0.041664544
000080 ba 9f 31 3c d1 21 d7 bd 2e ea b6 3b 1c f1 01 3e
       0.010841304 -0.10504497 0.0055821156 0.12689632
000090 27 50 40 bd d7 77 d8 bc bd a1 57 bd ce bc 01 3e
       -0.04695144 -0.026424332 -0.05264448 0.1266968
0000a0 85 b2 24 bc 34 25 98 bd e9 eb 0c 3b c8 10 2f 3d
       -0.010052328 -0.07428971 0.0021502918 0.042740613
0000b0 63 5b 50 3d 19 ac 09 3e 98 e9 0d 3e 70 08 c8 bc
       0.050868403 0.13444556 0.1385864 -0.024418086
0000c0 55 a7 4b be 1c 67 75 be 7e b0 d8 3c c5 14 14 bd
       -0.19888051 -0.23965114 0.026451346 -0.03615262
0000d0 4b 7d 30 be ac 07 66 be 11 3f 26 be c0 44 48 3d
       -0.17235295 -0.22463864 -0.16234995 0.04889369
0000e0 71 ba 29 3e 12 8c a0 bd 34 ce 98 3e 0d f2 9d 3e
       0.16575028 -0.07839216 0.2984482 0.30848733
0000f0 16 b4 1c 3d 3c 8d c1 3e 2f 43 7a bd fd 50 0f bd
       0.03825768 0.37803066 -0.061099228 -0.034989346
000100 da 6c 8c 3a 74 80 16 be 9f 49 4e bb 6a 45 e4 3d
       0.0010713593 -0.14697438 -0.0031476987 0.11146052
000110 e9 82 a5 bd 04 cd 3a 3e 10 58 3c bc bf a5 88 bd
       -0.0808161 0.1824227 -0.011495605 -0.066722386
000120 f2 ef 14 3e 58 83 63 3c 83 6f 70 3d 4f a6 01 3c
       0.14544657 0.013886295 0.058700096 0.007913186
000130 3e 20 19 3d 2a d1 be bc f1 8b ce 3d 2c 66 d2 38
       0.037384264 -0.023293097 0.100852855 0.00010032611
000140 19 4f 80 3d 24 68 9c bc fd e4 b8 bd 37 5f 88 3b
       0.06265087 -0.019092627 -0.09028051 0.004161741
000150 9b d6 9a bd 3c 22 9e bd e5 52 03 3d fb 57 a6 bd
       -0.07560464 -0.077213734 0.032061476 -0.0812225
000160 d1 e2 5d 3c 57 a5 fd bc 00 c6 7f 3c c4 76 8b bd
       0.013542847 -0.03096263 0.015611172 -0.06809762
000170 df 97 5e bc 40 96 96 bd 3c 3e 73 3c 96 fd e6 bc
       -0.013586014 -0.07352877 0.014846381 -0.028197091
000180 2e 62 9a bd 5e b2 25 bd 8b a1 5b bc 6f 96 48 bd
       -0.075382575 -0.040453307 -0.013405214 -0.04897159
000190 ff 78 39 3d b8 4e 1d 3d 63 c9 5d 3d 1a 44 fd bc
       0.045281406 0.03840515 0.054147135 -0.030916262
0001a0 c9 c2 3d 3d c4 a8 86 3d 24 62 53 bd 87 9a ea 3d
       0.04632834 0.06575158 -0.051607266 0.11455255
0001b0 ca f4 56 bc 15 38 8e bd 93 c1 07 bd 64 59 17 bd
       -0.013119886 -0.069442905 -0.03314359 -0.036950484
0001c0 01 24 f8 bd 51 cc 2a bd 82 fd 37 3c 74 cb 5d bb
       -0.12116242 -0.041698758 0.011229875 -0.0033843191
0001d0 fd 9b 45 3d d3 a9 b7 bd 40 1e 38 bd c6 08 63 bd
       0.048244465 -0.08967938 -0.044950724 -0.05542829
0001e0 f9 3b f9 3d ec 0e d4 3c a0 d4 51 3e 41 fc 63 3d
       0.12169642 0.025886022 0.20491266 0.05566049
0001f0 08 28 bb bd bc ea 36 3e 20 ab 89 bd 26 5e 42 bd
       -0.09138495 0.17862982 -0.06722093 -0.04745307
000200 c8 15 fa be 04 e5 1f 3f a0 c1 8d bb c0 f7 11 bf
       -0.48844743 0.62458825 -0.0043260604 -0.5701866
000210 9f d9 02 3f a4 cc 18 bf 40 4e 77 3e e2 c1 e3 3e
       0.51113313 -0.59687257 0.24150944 0.44483858
000220 1e 83 0b bf bf 3f 8f be fb f5 02 bf c2 02 a3 3c
       -0.54496944 -0.27978322 -0.51156586 0.019898776
000230 37 ff 0f be 18 ed c3 be 43 79 56 bd b3 fc c8 be
       -0.140622 -0.38266826 -0.052361738 -0.39255294
000240 4d d6 45 3c 67 d7 41 3d 80 c1 39 3d 89 30 57 bd
       0.012075019 0.047324564 0.04535055 -0.05253652
000250 63 6b 55 3c 9b 27 ed 3d 12 e6 f1 bc a4 7e 5e 3d
       0.013026091 0.1157982 -0.029528651 0.054319993
000260 7d 56 ae bc 09 ca 9f 3d eb 3b e2 bc 84 d5 e4 3b
       -0.021281475 0.07802207 -0.027616462 0.006983461
000270 62 00 10 3d 59 23 27 3c 59 45 84 3c cc 00 a7 bc
       0.035156615 0.010201299 0.016146349 -0.020386122
000280 1d 7d 57 3d c0 9f 5f bd 78 2e b4 bc 1f 65 ae 3d
       0.05260955 -0.05459571 -0.021994814 0.08515381
000290 b9 52 34 3d 7b 9c 36 3d 8c 0c 8c 3d 91 21 38 3d
       0.044024203 0.044582825 0.068383306 0.044953886
0002a0 79 7d fd 3c b4 cf fa bb 94 bb 63 bc 29 7b 4b bc
       0.03094362 -0.0076541547 -0.013899703 -0.0124195
0002b0 0c de 4b 3d 60 28 a3 3d 0f 26 33 3c a6 54 59 3d
       0.049772307 0.07966685 0.010934367 0.053059243
0002c0 2a 82 c5 3d c0 58 33 3d 18 03 e2 bf 7e 7c 6e 3d
       0.096439674 0.04378581 -1.7657194 0.058224194
0002d0 09 68 cc 3f d8 97 a1 3d 74 27 ef bc de 75 5b 3d
       1.5969249 0.0789029 -0.029193617 0.053579204
0002e0 ea 9f a2 bc ca 59 5f 3c ac 6e 49 bd 8a 93 a0 bb
       -0.019851644 0.013632247 -0.04917781 -0.0049004005
0002f0 66 d1 38 3b f0 9a 6e be 69 bf 28 3d ab 68 fb 3d
       0.0028200983 -0.23301291 0.041198168 0.12275823
000300 79 63 48 3d d0 e0 42 be 02 7e de 3d e5 bd 2a 3d
       0.04892299 -0.19031072 0.10863878 0.041685004
000310 2c 35 93 bc a2 0a 8f 3e df 33 56 3d 8e c8 5b bd
       -0.01796969 0.279378 0.052295562 -0.05365806
000320 43 a2 9a 3d 0e 6a 42 3d 24 bf b4 3d e8 b7 c4 3d
       0.0755048 0.047464423 0.0882552 0.0960539
000330 31 07 27 3c a3 f3 e7 3a 26 45 2e 3d fc e3 1f 3d
       0.010194586 0.0017696511 0.042546414 0.039035782
000340 51 ed c9 3d ba aa 3e 3d ee 66 ab bd 2c ac f5 bc
       0.09859718 0.046549536 -0.08369242 -0.029989325
000350 77 17 80 3a 16 99 46 3c 9d 82 29 3d c2 43 ce 3c
       0.0009772618 0.0121214595 0.04138433 0.025178794
000360 d8 4b df bc a0 5a 88 3c e6 bf f2 bc fd 6e af 3c
       -0.027257845 0.016644776 -0.02963252 0.021415228
000370 99 05 55 bd d0 22 e3 3d 68 7b a8 bc 93 e6 04 be
       -0.05200729 0.11090624 -0.020566657 -0.12978582
000380 7b 6d 87 bd 53 d8 89 3d 11 50 20 bd 70 cc c4 bc
       -0.066126786 0.06730714 -0.039138857 -0.024023265
000390 a6 1a 65 bd ee 65 21 3d 0d 54 cb 3b 92 78 84 3c
       -0.055933617 0.03940385 0.006205088 0.016170774
0003a0 f7 1d 19 3d 3f 3e 4f bc 4d 0c bf bc 20 1c 63 bd
       0.037382092 -0.012649118 -0.023321295 -0.055446744
0003b0 98 9b 8f bc 0f 99 8e bd e0 fa e7 3b 73 b5 6c bd
       -0.017530248 -0.06962787 0.007079467 -0.05779023
0003c0 40 80 64 be d1 da ec bd 0e 94 59 3d 28 c5 95 3d
       -0.22314548 -0.115651734 0.05311971 0.07312995
0003d0 d0 46 a0 3d a6 b2 59 be f7 6c ce bc 7d 3b 9b bd
       0.078260064 -0.21259555 -0.025198443 -0.07579706
0003e0 3f 8b 12 3e 5f 60 9d 3d ab 25 30 3e d3 47 14 3e
       0.1431093 0.07684397 0.17201869 0.14480524
0003f0 0f 5f f8 bd 73 7a 58 3e c9 3a 9b bc 11 26 5a be
       -0.12127506 0.2114046 -0.01894893 -0.21303584

state_encoder.fusion.0.bias f4 [64]
000000 ae b3 cb bc 4c d3 86 bd 3f 3c 47 bc 2c 82 25 bd
       -0.024865951 -0.065832704 -0.01216036 -0.040407345
000010 8b c2 80 3d e2 33 99 3d 35 f1 8c 3c cf eb 6d bd
       0.06287106 0.07480599 0.01720486 -0.058086213
000020 ba b3 8e 3d c1 70 a0 3d 18 9d 64 bd 48 6d 50 3d
       0.06967874 0.07834006 -0.05581388 0.05088547
000030 ce 7a 32 3d a9 71 b9 bc 21 59 3a 3a 4f 95 24 3d
       0.043574147 -0.022637205 0.0007108618 0.040181454
000040 b7 0a 66 bd c4 34 b4 3d 55 40 25 bd 40 1d 82 bd
       -0.056162562 0.08799127 -0.040344555 -0.06353235
000050 7c f7 05 3d 0e 63 57 3c 8c e4 40 3d c9 43 1c bd
       0.032706723 0.013146175 0.04709296 -0.038150582
000060 b2 5a 67 3c 96 27 56 3d f2 96 09 3d 96 62 93 3d
       0.014120745 0.052283846 0.03359122 0.07196538
000070 76 22 d4 bd f7 70 a2 3d f3 36 0b 3d 46 8a 96 3d
       -0.103581354 0.079317026 0.03398795 0.07350592
000080 c3 ed a3 bd 1e c3 c5 3d ef b9 ef bc 8a 59 a5 bc
       -0.08004334 0.09656356 -0.029263465 -0.020184297
000090 85 63 d8 bd ef dc 5b bc f1 a7 b9 3d 37 63 7d bd
       -0.10565857 -0.013419374 0.090652354 -0.061862197
0000a0 41 4b 42 3d 0a a3 ea bc ef 80 74 3c d9 c5 00 bd
       0.04743505 -0.028642196 0.014923318 -0.031438682
0000b0 0c ad f8 bc 9d 3d d4 3d a7 db 98 3d 1b 76 8b 3d
       -0.030355953 0.10363314 0.0746377 0.06809636
0000c0 fd f1 94 3d 86 87 46 3c de 06 3c bd 9d cd 24 3d
       0.07272718 0.012117272 -0.045904987 0.04023515
0000d0 82 f2 86 bd 7c e8 b2 bc 7f 69 4e bd 56 72 ac 3d
       -0.065892234 -0.021839373 -0.050393578 0.08420245
0000e0 bd 94 99 bd a9 10 12 bd 28 b5 ad 3d 90 fe ce 3d
       -0.07499073 -0.03566042 0.084818184 0.10107148
0000f0 4d 1b 1c 3d 3b 44 c7 3c 60 5f e1 bd 83 b0 a1 bd
       0.038111974 0.024324527 -0.110045195 -0.07894995

shared_layers.0.weight f4 [64, 64]
000000 5a d5 04 be 18 42 5e bd b0 0b c7 bc d0 27 f4 bc
       -0.12972012 -0.05426225 -0.024297565 -0.02980414
000010 81 44 3e bd 06 9a 8e 3d 54 15 53 3a 7b c0 b6 bd
       -0.04645205 0.069629714 0.00080521894 -0.089234315
000020 5c c2 09 bc 70 0a f0 3d 60 b6 23 3c 42 78 18 3d
       -0.008408155 0.11720741 0.009992212 0.03722406
000030 e2 8c 33 3e d9 a2 7e 3d 22 bb 00 3d a4 f9 82 3d
       0.17534211 0.062167022 0.031428464 0.063952714
000040 ae b3 10 bd ce 22 86 bd ca ee 14 be b6 68 bd bc
       -0.035327606 -0.06549607 -0.14544216 -0.02312122
000050 32 98 e6 3d 1a f5 c6 bd e1 bd 33 bd e5 fb 35 be
       0.11259498 -0.09714718 -0.043882255 -0.17771871
000060 e7 13 cc 3d 9a d6 a8 bd d0 75 9e 3d ef 56 b4 3c
       0.099647336 -0.08244057 0.07737315 0.02201411
000070 af c2 89 bd ef 93 30 3d 90 fa fd 3c de 20 cb 3d
       -0.06726586 0.04310983 0.031003267 0.09918378
000080 ff 33 5e bd 99 e7 d3 bc 12 8a 37 be 9e 15 bd bc
       -0.054248806 -0.02586727 -0.17923763 -0.023081597
000090 2d 1a 3e bd 9d 6f a6 3d 4c 2d 0b 3d 8e dc ff bd
       -0.046411682 0.08126757 0.033978745 -0.12493239
0000a0 a4 41 46 3c c2 ac 8b 3d 7c c9 3c 3d b4 35 b7 3d
       0.012100611 0.0682006 0.046090588 0.0894579
0000b0 f6 7a e9 3c a1 4d 45 bd f6 be 8e bd 37 b6 5b bd
       0.028501015 -0.048169736 -0.06970017 -0.05364057
0000c0 a1 0c 1c bc 99 55 80 3d 32 5f 8a 3d 93 15 c8 3c
       -0.009524495 0.062663265 0.06756438 0.02442435
0000d0 ae 8a 7f bd 1f 83 17 3d 57 8e 44 bd ee d7 8b 3c
       -0.062388115 0.03699028 -0.04798731 0.017070737
0000e0 f5 d1 8a bd 94 bf 92 bd a7 89 46 3d 4a 48 2f bd
       -0.067783274 -0.07165447 0.04847112 -0.04279355
0000f0 58 20 c0 bb e1 a2 af 3d 7a 04 70 3b 66 da dd bc
       -0.0058632307 0.085759886 0.0036623762 -0.02708168
000100 4f 37 1b bd e0 4f 56 3d 40 7b 0e 3e 27 d0 96 bd
       -0.037894543 0.05232227 0.13914204 -0.07363921
000110 32 ee db 3c 17 e9 6f 3d 08 5e 2e bd ea 9c b7 3c
       0.026846979 0.0585719 -0.042570144 0.02241369
000120 db 3e ab bc c2 f9 9c 3c 6b 8a bc 3c 1e 7a 13 bd
       -0.020903995 0.019162063 0.023015222 -0.036005132
000130 90 46 c6 3d 13 74 e7 3d 4e f1 f5 3d df 9d 70 bd
       0.096814275 0.11301436 0.12008916 -0.058744308
000140 23 57 5c bd 5a 2b 0d bd 27 3c fe bc 48 50 d0 bd
       -0.053794038 -0.03446517 -0.031034542 -0.101715624
000150 ec b5 02 3e ad e4 15 bd c0 6f a8 bb 8a a3 78 bc
       0.1276471 -0.036595035 -0.0051402748 -0.0151757095
000160 45 e6 0f bd a0 6f 9d bd fd a2 b1 3d ba 32 3d bc
       -0.03513171 -0.076873064 0.08673666 -0.011547739
000170 47 53 7b 3d 6d d7 81 3d 53 74 94 bd 7c ab fa 3c
       0.061358716 0.06339917 -0.072487496 0.030599348
000180 7a fc 1b 3a bd 0b c1 bd 48 8e 15 bd d2 f0 a3 bb
       0.00059504027 -0.09426067 -0.036512643 -0.0050030733
000190 10 11 53 3c 72 f3 3f 3d e4 bf 9b 3d 4b 4c e9 3d
       0.012882486 0.046863027 0.076049596 0.11391505
0001a0 3a 7f 85 bd 0a 58 01 3e b5 0b 4e 3d 16 84 37 3e
       -0.06518407 0.1263124 0.050304133 0.1792148
0001b0 8d a0 11 be 4d 7c 92 bd 0e 72 08 be 55 9a d3 bd
       -0.14221402 -0.07152615 -0.13324758 -0.10332171
0001c0 eb 4a 16 be 4b 1e 49 3d de 3b d7 bd 93 0d 05 3d
       -0.14677016 0.049101155 -0.10509466 0.03248365
0001d0 d1 2a 12 bc 82 bf 8d bd c7 26 ef bc e8 2f 03 3d
       -0.008921341 -0.06921293 -0.029193295 0.03202811
0001e0 50 11 a1 3c db 1e 9d bd 16 fb 3f bd 20 d1 59 be
       0.019661576 -0.07671901 -0.046870314 -0.21271181
0001f0 03 02 2a bd 2c 51 bb 3d df 3c 0c 3e 92 b9 e8 3b
       -0.041505825 0.09146342 0.13695095 0.0071022
000200 75 3a 00 3c 74 ad 81 bc 43 da c4 bd 2e e0 15 3d
       0.007826437 -0.01582978 -0.096119426 0.036590748
000210 f2 00 ad bc 4f 48 3d bd a2 a1 bb 3b 68 5d ab bd
       -0.021118615 -0.046211537 0.0057260552 -0.08367425
000220 cb 0c 11 3e 28 56 ca 3c 3e bc a8 bd ac 87 65 3e
       0.14165036 0.024699286 -0.08239029 0.22415036
000230 03 89 bb bc e0 67 05 be 94 1e 77 3d a7 f1 cb 3d
       -0.02289248 -0.13027906 0.060331896 0.09958201
000240 07 18 8e 3d c1 63 21 3e 9d b1 79 3d ee e5 27 3c
       0.069381766 0.1576071 0.0609604 0.010247691
000250 4d f9 b8 bd 1a 28 52 bd f3 05 ca 3c 8b b6 ac bd
       -0.09031925 -0.051307775 0.02466104 -0.08433255
000260 4c 4f 08 3e 52 45 36 3d ee 67 34 bc b5 46 80 3d
       0.133115 0.044499703 -0.011011107 0.06263486
000270 fa 7f 04 be 74 ac ea 3b 33 57 12 3b d8 0d 74 3d
       -0.12939444 0.0071616713 0.0022329807 0.059583515
000280 f3 a5 0f be 36 4c b2 3d 55 39 39 3d ba 54 14 3d
       -0.14028148 0.08705942 0.04522069 0.036213614
000290 6d 4a 82 bd 56 8a dd 3c dc 36 81 bc 49 cb 63 bd
       -0.06361852 0.027043503 -0.01577323 -0.05561379
0002a0 b1 58 b8 bc 78 70 ea 3c 9f 47 6d bd b7 cd af bc
       -0.022503229 0.028618082 -0.05792963 -0.021460397
0002b0 ea a6 a7 3c e8 47 44 3d d5 2b 8e 3d 77 bb 1f 3d
       0.020465333 0.047920138 0.06941954 0.03899714
0002c0 20 b7 1b 3b 2a ad 33 3c 2b 49 28 3d 20 d9 18 3d
       0.0023760274 0.0109665785 0.041085403 0.03731644
0002d0 f2 42 a4 3a 12 1f 57 bd 2b be a3 bc 56 96 0a 3e
       0.0012532158 -0.052519865 -0.01998814 0.13533911
0002e0 66 9e e1 bd 2d 6c dd bd 33 c5 46 3d 53 e7 8a 3c
       -0.1101654 -0.108116485 0.048527908 0.016956007
0002f0 ca 11 e2 3d b0 2d 74 bd ae 4e 93 bd 0a 32 13 bc
       0.11038549 -0.059613883 -0.07192741 -0.008984098
000300 93 cd 36 3d 9e 18 95 bd 7e 14 4a 3d 27 66 52 bd
       0.044629645 -0.07280086 0.04933595 -0.05136695
000310 70 be 51 3d 09 9f a5 3d bd f2 5b bc 6f 70 9d bd
       0.051207006 0.08086974 -0.013424573 -0.07687461
000320 e5 46 2d bd 28 1d 96 bc c9 ea bc bd d1 c1 b7 3d
       -0.04230394 -0.01832445 -0.09224469 0.089725144
000330 31 70 a6 3d c2 06 b9 3c 20 90 ab 3c e1 ee 5a bd
       0.081268676 0.02258623 0.020942748 -0.05345047
000340 9a e8 92 bc 78 f7 c0 bd 48 b5 aa bd 85 a6 a0 bd
       -0.017933179 -0.09422201 -0.08335358 -0.07844261
000350 e7 9d aa bc 86 b1 07 ba 33 24 3f bc d3 f2 2b bd
       -0.020827247 -0.00051762944 -0.011666345 -0.041979622
000360 1b d6 03 3c 20 64 2a bc 1f 1b 4f 3d 4e 00 84 3d
       0.008046652 -0.010399848 0.050562974 0.064453706
000370 df 59 25 3d 1e a2 7b 3d 5d 7a e2 bd f4 cf 59 3c
       0.04036891 0.061433904 -0.11058495 0.013294209
000380 e3 a9 d4 bd 02 35 0a 3d 97 0f 0f 3d c5 7e c3 bd
       -0.10383966 0.03374196 0.034926977 -0.09545664
000390 2a f4 35 3c 6a 5c e1 bc 5e f3 58 3c 71 82 d6 bd
       0.0111055765 -0.027509887 0.013241617 -0.104740985
0003a0 7f 4c 14 3d 1a f2 25 bc d9 18 2a bd be 95 8b bd
       0.036205765 -0.010128522 -0.041527603 -0.068156704
0003b0 fb 46 d4 bd 12 e6 25 3d 5d c1 9f bd 2d 4f b1 3d
       -0.10365101 0.040502615 -0.07800553 0.0865768
0003c0 ff 33 8e 3e d1 70 8e 3d c2 af f2 bc 37 98 40 3d
       0.27774045 0.06955112 -0.029624823 0.047020163
0003d0 ff 13 83 bd 71 89 ac bc 32 db 81 bd 0c 8b ad 3c
       -0.06400298 -0.02106163 -0.06340636 0.021184467
0003e0 81 a6 d2 bd ae 7b 36 3d b4 f1 82 3d f4 c5 b3 3c
       -0.10285664 0.044551544 0.063937575 0.021944977
0003f0 c9 48 4d bd 02 a4 28 3a 14 77 fc bc 33 e8 ca bd
       -0.05011824 0.00064331305 -0.0308185 -0.0990757

shared_layers.0.bias f4 [64]
000000 65 fa a9 bc 16 f4 91 bd 94 86 47 3d cd c1 68 3d
       -0.02074928 -0.07126634 0.048712328 0.056825448
000010 3b 32 02 3e 56 9e 2a 3e f2 ec 1c 3e 3d cf 29 3d
       0.12714474 0.16661963 0.15324762 0.041457403
000020 05 55 4d 3e eb 25 92 3d 2c be fc bd 2c 2f 1c bd
       0.20051964 0.071361385 -0.1234096 -0.038130924
000030 28 dc 61 3b 1a ff 7b bd f1 c9 03 be ee e6 2e bb
       0.0034463499 -0.06152258 -0.12870003 -0.0026687938
000040 3c 12 c7 bc d5 34 c9 bd 89 2b a4 3b 95 08 6b 3e
       -0.024300687 -0.0982453 0.0050100726 0.22952493
000050 2b 09 46 be 9b 50 fe 3d 54 b6 cf 3b 3e d3 dd 3c
       -0.19339435 0.12417718 0.006338874 0.027078267
000060 a6 c0 39 bd bd fd ad 3c ca e3 8a 3c 01 db 95 bb
       -0.04534974 0.021239156 0.016954321 -0.0045732264
000070 0f aa 12 3f 52 0e 2f 3e b9 6d 47 3e 44 8f 2a be
       0.5729074 0.17095307 0.1947545 -0.16656214
000080 6c e6 14 bc 7c ef 33 3d 7b 23 db 3d 4d ae 09 3d
       -0.00908814 0.043929562 0.10700127 0.03361349
000090 e3 bf db 3b 34 15 4a bd 61 71 28 3d 82 8b 15 bc
       0.0067062243 -0.049336627 0.04112375 -0.0091275
0000a0 71 15 9e be 39 92 16 3d 95 3a 5c 3d 87 d1 9f 3d
       -0.30875733 0.036760543 0.053766806 0.07803636
0000b0 24 1e 2b 3e 7c 84 54 3c 61 9a 15 be bc 32 9a bd
       0.16710716 0.01297104 -0.14609672 -0.07529208
0000c0 72 e1 49 bd 13 db 36 bd b3 5f c3 3b b6 98 b6 3b
       -0.049287267 -0.04464252 0.005962336 0.005572404
0000d0 3a 37 fc 3d df 91 16 3c 5e dc 47 bd e3 d2 12 3d
       0.12315221 0.009190052 -0.048794143 0.03584565
0000e0 e0 7c 2a 3c fb b0 8a 3d 83 b6 9f 3d 66 07 7a bd
       0.010405749 0.067720376 0.07798483 -0.061042212
0000f0 6d 94 96 3e 08 6b 25 3e 55 8f 55 3d cd fa ce 3d
       0.29410115 0.1615411 0.052138645 0.1010643

goal_head.weight f4 [2, 64]
000000 6f e1 fd bd 47 42 2d be bf 54 e6 3d b6 a9 4b 3d
       -0.12396514 -0.16919814 0.11246633 0.049722396
000010 46 1c 54 3e 80 45 c6 3d 17 61 82 bd 41 9e 8f 3c
       0.2071391 0.09681225 -0.06366175 0.017531516
000020 5e f7 22 bd 9d 84 a4 3e 0c b2 99 3d 8c 79 d1 bd
       -0.03978669 0.32132426 0.07504663 -0.10228261
000030 a6 16 d8 bd 19 09 0f be b8 99 da bc b7 d3 ae bd
       -0.10551195 -0.13968314 -0.026684627 -0.08536475
000040 25 86 32 bd bb 29 48 3d 0a 0e 65 bd c7 3d 19 be
       -0.04358496 0.048867922 -0.05592159 -0.14964972
000050 20 a4 12 3d 92 45 d4 3d 21 8f 0f 3d d7 0d 44 be
       0.035801053 0.10364832 0.035048608 -0.19145904
000060 5e 90 c6 bd 96 f5 71 3d aa 43 0b be bc 2b b4 bd
       -0.096955046 0.0590721 -0.1360003 -0.08797404
000070 e7 bd 13 c0 40 65 01 be 38 86 bf bd 5e ff 65 3d
       -2.3084657 -0.1263628 -0.09351772 0.05615174
000080 6b 17 62 3e e0 8b f5 3d 92 c7 1a 3d 3b ac d6 bd
       0.22079246 0.1198957 0.03778798 -0.10482069
000090 76 a1 f8 3d 99 79 74 be 76 ae b0 3d 3a c1 95 bc
       0.12140171 -0.23874511 0.08627026 -0.018280614
0000a0 a3 eb 76 be f3 91 b5 3c f0 7a d8 3d e3 6a b4 bd
       -0.24113326 0.02216432 0.105703235 -0.088094495
0000b0 51 8f e7 3e 22 55 92 bd d6 d8 ef ba 05 d8 a7 bb
       0.4522653 -0.07145144 -0.0018298875 -0.005122187
0000c0 ed af e1 bd 79 bd db bd d6 13 a0 bc b7 e5 28 bd
       -0.11019883 -0.107294984 -0.019540709 -0.0412347
0000d0 c0 8a d5 3d e0 fa 07 be 7e 18 03 3e 08 72 81 bd
       0.10426855 -0.13279295 0.12802312 -0.06320578
0000e0 29 30 02 3e f0 83 c4 be be 7c dd 3d 4b 69 9a bc
       0.12713684 -0.3838191 0.10814808 -0.018849036
0000f0 c0 55 02 be 9b ae d7 3d 52 7b 02 be 79 c3 4e 3e
       -0.12728024 0.1053135 -0.12742355 0.20191754
000100 cc 12 fd 3d 58 5d 30 3e 24 63 eb bd 5b 2f 3c bd
       0.12357101 0.17223108 -0.11493519 -0.0459436
000110 49 92 54 be 45 8f c1 bd bd 18 8a 3d 41 af 97 bc
       -0.20758928 -0.094511546 0.06743 -0.018516185
000120 68 9d 19 3d fa a4 a3 be bf 8e 9a bd fb 64 cf 3d
       0.03750363 -0.31961805 -0.07546758 0.10126682
000130 5b 43 d7 3d a5 b0 10 3e 4b 0a cf 3c e5 2e ac 3d
       0.10510894 0.14129885 0.025273463 0.08407382
000140 33 87 2a 3d 57 8b 47 bd 3a 56 64 3d d1 96 1a 3e
       0.041632842 -0.04871687 0.055746295 0.15096594
000150 76 d1 0b bd d6 4b db bd 0a 02 0b bd 78 35 41 3e
       -0.034135304 -0.10707824 -0.03393749 0.18868053
000160 df 9c c7 3d c2 e9 6b bd 5f be 07 3e e1 4d b4 3d
       0.09746718 -0.057595976 0.13256215 0.08803917
000170 3c a7 13 40 eb ae 00 3e cc f9 bd 3d 83 cc 61 bd
       2.3070822 0.12566726 0.092761606 -0.05512668
000180 68 ba 5f be a0 7e f3 bd 42 83 18 bd 62 cb de 3d
       -0.21848452 -0.11889386 -0.037234552 0.10878636
000190 3f 4c fa bd af d9 76 3e 84 7e b5 bd 53 e3 96 3c
       -0.12221574 0.24106477 -0.088620216 0.018418944
0001a0 77 27 74 3e e7 46 c1 bc 3e 01 d6 bd 88 a8 b5 3d
       0.2384318 -0.02359338 -0.10449456 0.088700354
0001b0 63 09 e7 be fe ef 8e 3d 4f 83 dd 3a 3d 8d a2 3b
       -0.4512435 0.069793686 0.0016900095 0.0049606846
0001c0 a7 84 de 3d 52 a9 dd 3d 88 8e ba 3c a3 fd 2b 3d
       0.10865145 0.10823311 0.022773042 0.041989934
0001d0 ac cb d4 bd a6 bc 08 3e 50 97 05 be 09 1c 7e 3d
       -0.1039041 0.13353214 -0.13046002 0.062038455
0001e0 fb 68 02 be f7 60 c4 3e f6 59 da bd 37 35 af 3c
       -0.1273536 0.38355228 -0.1066169 0.02138768
0001f0 71 aa 01 3e a9 a4 d9 bd 0d 27 01 3e 00 e7 4c be
       0.12662674 -0.106271096 0.12612553 -0.20009995

goal_head.bias f4 [2]
000000 9f 52 10 c0 a7 52 10 40
       -2.2550428 2.2550447

portfolio_head.weight f4 [15, 64]
000000 29 47 97 bd 6f 5d 24 be 47 10 0b bc 07 cf 17 be
       -0.073866196 -0.16051267 -0.008487768 -0.14825068
000010 8d 47 08 3e 19 a0 33 3d 94 87 c1 3d a8 6f d6 3d
       0.13308544 0.043853853 0.094496876 0.104705155
000020 77 f0 71 bd 20 ce dc bd ec e6 5f 3e 68 31 a0 bd
       -0.059067216 -0.10781503 0.21865433 -0.078219235
000030 02 95 41 be 6f c4 e1 3d 5c 04 92 3d 9b 08 9e bd
       -0.18904498 0.11023795 0.07129738 -0.07716485
000040 c7 e1 bc bd dc ac ad 3d 6d af 7a 3c 1b 48 08 3d
       -0.09222751 0.08480236 0.015300614 0.03327189
000050 ab 0c 83 bd f2 94 df bd c2 8b 1e 3e ac 1f 3f be
       -0.063989006 -0.10917081 0.15483001 -0.18664426
000060 e5 58 47 bd 0b bd 03 3e 0b 7d 01 bd 89 97 17 be
       -0.04866876 0.12865083 -0.03161339 -0.148039
000070 37 42 1c 3e 97 e3 f8 3c 8d e1 97 bd 2e 55 e4 bd
       0.15259634 0.03038196 -0.07416067 -0.11149059
000080 70 98 7d 3d d9 f0 f0 bc 6c 0f e8 3c 9a e8 6a bc
       0.061912954 -0.02941172 0.028327666 -0.014337683
000090 a5 fd 1f 3e ca bf c8 3d 8f 4a fa bd 8c 74 82 bd
       0.15624101 0.09802206 -0.12221252 -0.06369886
0000a0 1b 34 d2 3c 79 39 1c be fd f8 c4 3d 1a 6e 3d be
       0.025659611 -0.15256299 0.09617803 -0.18499032
0000b0 14 b6 0a bd 23 ae d1 bd 64 a7 02 be f9 5f c2 bd
       -0.03386505 -0.10238292 -0.12759167 -0.094909616
0000c0 b4 90 30 bd f8 64 29 bd 91 7b 43 be 3c d3 b2 3c
       -0.04310675 -0.041356057 -0.19090106 0.02182924
0000d0 23 ff ec bc 97 15 09 be eb d3 2b 3e 2e 95 78 3c
       -0.028930252 -0.13387142 0.16780059 0.015172286
0000e0 e6 83 10 3e ba ce 6a be 58 49 d1 3d bb 91 55 3e
       0.14112815 -0.22930422 0.10219067 0.20856373
0000f0 4d c3 4d be 2a 19 d2 bd 81 98 34 be 27 c5 3d be
       -0.20094033 -0.10258706 -0.176363 -0.18532239
000100 db 6e be bd 43 00 d8 bc bc 09 0b ba 08 2a 45 3d
       -0.09298488 -0.026367312 -0.000530388 0.048135787
000110 83 9f ab 3c 5c 37 c5 bc 76 88 9a 3d a3 1a dd 3d
       0.020950085 -0.024074249 0.07545559 0.10796096
000120 93 cc 1d 3e 19 48 d1 bc 81 a4 8d bd e8 47 ff bc
       0.1541007 -0.025547074 -0.06916142 -0.031162217
000130 86 e4 8e 3d ab 9f e6 3d 6f df 2a be ac f8 34 3d
       0.06977181 0.11260923 -0.16686796 0.044182464
000140 fa 8d 97 bd a6 7a c7 bc 96 a7 88 3d be 15 dc 3c
       -0.07400127 -0.024350476 0.066725895 0.026865836
000150 96 33 1f 3d 48 b0 26 3e 28 94 9b 3d 20 02 d0 bd
       0.038867556 0.16278183 0.07596618 -0.10156655
000160 88 8a e7 bc d2 c0 36 3d 2e d2 2d be a6 45 1a 3d
       -0.028264299 0.04461748 -0.16974708 0.03766408
000170 76 b0 e1 3e 1b d9 75 3c d5 bb 8d 3d 2a c9 de 3d
       0.44079942 0.015005375 0.06920592 0.10878213
000180 f5 6e d0 3c b2 c0 92 3d 22 f3 a9 3d 35 8c a2 3d
       0.025443533 0.0716566 0.08298327 0.079368986
000190 2a ff ce bb d3 3c 01 3d 5f 6e 6b bd 68 74 7b bd
       -0.006317039 0.031552147 -0.057478305 -0.06139031
0001a0 c7 df 35 3e ab 3e 88 bc 9d f2 86 bd 58 ba a4 3d
       0.17761146 -0.016631445 -0.065892436 0.08043355
0001b0 5f 6b b5 be 04 d9 8e 3d 57 0d 36 3d 1d cc 53 bd
       -0.3543348 0.06974986 0.044446316 -0.05170833
0001c0 50 0f 00 3e 21 fa 46 bc 6a 29 7a 38 fd 69 8b 3c
       0.12505841 -0.012144596 5.9643215e-05 0.017018313
0001d0 cb 12 96 3d 2c 77 b2 3a 4d fe 87 3c 88 0e 54 bd
       0.07327803 0.0013615838 0.016600752 -0.05177167
0001e0 d0 91 b2 3c f9 66 6c 3e f0 bb 02 bd 6a 13 32 bc
       0.021798044 0.23086156 -0.031917512 -0.0108688865
0001f0 d3 7d 91 3e d8 fb 26 3d 18 27 f8 bc ee 26 79 3c
       0.2841631 0.04076752 -0.030292079 0.0152070355
000200 c4 85 1e 3e ba 26 75 bd 1d c2 3f 3e fa 9c 9c bd
       0.15480715 -0.059851386 0.18726392 -0.076471284
000210 79 0d ae bc 77 5d 8f 3d b8 b0 6e be a3 f1 58 3d
       -0.021246659 0.07000249 -0.233096 0.052964818
000220 3b d2 19 3d 3b e3 49 3d 84 6c 2a 3d 82 a2 6b be
       0.037554007 0.04928897 0.041607395 -0.2301121
000230 80 85 0c bb 13 e5 2b be dd 08 3a 3d 7a eb 92 3d
       -0.0021441877 -0.16786604 0.04541861 0.0717382
000240 0b 5e 8e 3e 33 2d 49 be 83 f5 3f be b2 1c 2e be
       0.27806124 -0.19646148 -0.18745999 -0.17003134
000250 de d8 8f 3d bf 47 b6 3c 75 48 57 3e d6 17 a5 3d
       0.07023786 0.022251008 0.21023734 0.08061187
000260 7a 43 6d be 05 f1 5a 3e f2 3f ec bd 22 8f 2d bd
       -0.23170272 0.21381004 -0.11535634 -0.04237283
000270 dc 72 51 bf 79 2f 85 3d 59 a2 db 3c 57 3a 32 3e
       -0.81815886 0.06503195 0.026810812 0.17405067
000280 49 f3 07 be 81 79 6a be 92 1a 92 be 99 31 c4 3b
       -0.132764 -0.22897913 -0.28535897 0.005987358
000290 9d 86 ce 3c 48 44 cf bd 50 20 8e 3e 74 75 6f 3e
       0.025210673 -0.101204455 0.27759027 0.23384649
0002a0 ae 3e 1c 3e 36 3e 52 be 9f 84 96 3d 34 6f 50 bd
       0.15258285 -0.20531544 0.07349514 -0.0508873
0002b0 90 dd 04 3e a7 15 99 bd 8c c9 ed bd 77 00 fa bc
       0.12975144 -0.07474833 -0.11610708 -0.0305178
0002c0 6d a4 25 3e ed 77 8c 3e 10 7b 3e bd 45 26 54 be
       0.16176005 0.27435246 -0.04650408 -0.20717724
0002d0 6d e0 ff bc 52 e2 45 bd 14 bb 62 be dd 54 6e 3e
       -0.031234944 -0.04831154 -0.22141677 0.2327456
0002e0 70 88 ee 3d 20 f7 8e 3e 12 f8 d2 3d a6 2b 26 3d
       0.11647117 0.27922916 0.10301222 0.04056897
0002f0 f1 ca 81 be d1 6a 7a bd 8f 4c 76 bd a5 df 3e bc
       -0.25350145 -0.061137024 -0.060131606 -0.011650001
000300 db 0d f5 bd b1 bf 07 be 77 71 d5 3c 31 52 57 bd
       -0.11965533 -0.13256718 0.02605508 -0.05256862
000310 ac 7b 39 3e 1c b9 db 3d 43 6b 55 3e 91 87 21 3e
       0.18113583 0.10728666 0.20841698 0.1577437
000320 26 0a 74 3e 71 12 a6 bd bb 84 10 be 11 f2 ae bd
       0.23831996 -0.08108986 -0.14113133 -0.08542264
000330 bd 14 b9 3c 4c 93 fe 3d ba 48 3f be 6d 80 10 be
       0.022592897 0.124304384 -0.18680087 -0.1411149
000340 7f 92 98 bd 3a 3e 2a bd 1e 23 4e 3d 95 bc 84 3e
       -0.07449817 -0.04156325 0.05032646 0.25925127
000350 31 f3 63 be e5 00 f0 3d 0d c1 38 3d 0f 95 4f bd
       -0.22260739 0.117189206 0.045105983 -0.050679263
000360 2b 3f d9 bc c1 cb 94 3b bd 4c 89 3c b5 90 2f bc
       -0.026519379 0.004540891 0.016760224 -0.010715653
000370 77 eb ef 3e 81 13 54 3e 0c 6c 45 3e 6e b7 58 be
       0.46859333 0.20710565 0.19279498 -0.21163723
000380 6d ba f2 bb 7e ba 93 3d 2b a4 4c 3e 3d fb 05 3e
       -0.0074074776 0.07213305 0.199845 0.13084121
000390 f5 9b f5 3d ee 4d a6 3d 3a 88 96 bd 19 d5 02 be
       0.11992637 0.08120333 -0.07350202 -0.12776603
0003a0 b1 11 10 be 22 5d 76 3d 39 ec ee 3d 87 23 92 3d
       -0.14069249 0.060147412 0.1166615 0.071356826
0003b0 51 e8 2a bd 9d ac 91 bd 11 e2 4c be 42 e5 44 be
       -0.04172546 -0.071130015 -0.20008112 -0.1922808
0003c0 c4 ef 5a bd 1f 32 ef bd dc 93 e9 bd cc bc 22 3d
       -0.053451315 -0.11679482 -0.11405155 0.039730832
0003d0 ff 20 f3 3d dc 5a cd 38 68 85 ee 3b 0a 7f 9e 3d
       0.11871528 9.7920856e-05 0.007279087 0.077390745
0003e0 2d 54 8d 3d db ae f8 bb 9f 98 f5 3d de 5f 5a 3d
       0.06900821 -0.007589204 0.11992001 0.053314082
0003f0 b8 3c 8c 3e ed 85 e7 3c a0 87 f9 bc c2 55 89 bd
       0.27390075 0.028262103 -0.030460179 -0.0670581

portfolio_head.bias f4 [15]
000000 c2 9c b6 bd cf a4 0d be a7 b6 18 3e 7e e1 58 3e
       -0.08916618 -0.138324 0.14913426 0.21179768
000010 4d e6 e0 3e 75 af 06 be 25 a7 41 3e f4 ac 6a bc
       0.43925706 -0.13152869 0.18911417 -0.014323462
000020 08 75 1a 3e ed 31 b5 3e 48 45 49 be a4 62 1b 3e
       0.15083706 0.35389653 -0.19655335 0.15174347
000030 37 63 9b be d5 46 5c 3e 8b 0e 6a be
       -0.30349132 0.21511395 -0.2285711

state_encoder.time_encoder.0.weight f4 [16, 1]
000000 e0 b8 63 bf dc e3 69 3f ce e2 9a 3f 54 70 6d bf
       -0.8895397 0.9136331 1.2100465 -0.92749524
000010 66 b5 37 bf 6c 62 2f 3f 60 a7 21 3f 8a bf 46 bf
       -0.7176117 0.68509555 0.6314602 -0.77636015
000020 12 0a 6e bf 90 3b 73 3f e3 63 72 bf 0b ef 9b bf
       -0.92984116 0.9501276 -0.94683665 -1.2182325
000030 55 d3 49 bf 97 93 7d bf 3d c0 7c 3d 93 6a 5b bf
       -0.7883809 -0.9905333 0.06170677 -0.85709494

state_encoder.time_encoder.0.bias f4 [16]
000000 d9 54 70 3e 26 88 70 be 2e ed dc be a9 85 aa 3e
       0.23469867 -0.23489437 -0.43149704 0.333051
000010 b4 a5 2c 3e 0f 76 95 be 60 7a 86 be bb 56 81 3e
       0.16860086 -0.29191634 -0.2626524 0.25261483
000020 c9 74 02 3f 9f 2a 77 be 3a d3 8f 3e bc a1 9e 3e
       0.5095945 -0.24137352 0.2809084 0.3098277
000030 a5 1e 1b 3f d6 c2 98 3e 57 ba 85 bd 78 25 93 3e
       0.60593635 0.29836148 -0.06529682 0.28739524

state_encoder.wealth_encoder.0.weight f4 [32, 1]
000000 5e 19 cf 3d 23 ca 8a 3e 35 bd ef 3b fe e5 03 be
       0.1011226 0.27107343 0.0073162564 -0.12880704
000010 63 5c b9 3e 56 8d 49 be a8 a9 1a 3e f6 7f 66 3d
       0.36203298 -0.19682822 0.15103781 0.056274377
000020 59 ac 57 bc ab ca 6a 3d ad 65 07 be 29 e2 89 bc
       -0.0131636495 0.057322185 -0.1322238 -0.016831474
000030 c7 ae 66 3e cb d5 23 be d1 72 93 3b 53 98 a2 3d
       0.2252761 -0.15999524 0.004499771 0.0793921
000040 39 c0 55 be 66 08 90 be ef 41 a6 be 54 0a a7 3d
       -0.20874108 -0.28131407 -0.32472178 0.08156267
000050 53 89 eb 3d d5 74 97 bb d7 5f 2c 3d b1 13 33 3d
       0.11500802 -0.0046220818 0.042083587 0.04371995
000060 67 93 bb be 31 3c 66 bd be e0 e1 bd 74 47 cc 3b
       -0.36635897 -0.056209747 -0.11029194 0.006234104
000070 de ff 8f be 8d f0 31 3e 6c 6f 4a 3d 60 da ad be
       -0.281249 0.17376919 0.049422666 -0.3395567

state_encoder.wealth_encoder.0.bias f4 [32]
000000 b5 0c cc 3d 5f be 4a be e3 74 92 bc 9d 0b 93 bd
       0.09963361 -0.19799183 -0.017878002 -0.071799494
000010 a9 d6 4f bb 0a 3c 04 3e 83 0c c0 3e d1 85 10 3d
       -0.003171364 0.12913528 0.37509546 0.035283867
000020 79 83 e9 3d 27 a1 13 3d c8 48 93 3e 60 67 f5 bb
       0.114020295 0.03604236 0.28766465 -0.00748913
000030 dd 3d 7d bd 75 1f d6 bc c7 92 13 be 68 92 29 bc
       -0.061826576 -0.026138047 -0.1441146 -0.010349847
000040 50 1a 0d 3e c4 f1 b9 3d dd af 8f be 4e 2b 59 3d
       0.13779569 0.09079316 -0.2806386 0.053019814
000050 da b9 91 3d 51 d3 96 bc c9 ca 97 bd d6 ce 75 bd
       0.071155265 -0.01841131 -0.07411725 -0.060011707
000060 77 d7 5c 3c 31 e0 90 be 0f 28 8a bd 3f 3b b0 bd
       0.013479105 -0.28296044 -0.06745922 -0.0860505
000070 7f 4a 16 3e ce 9f 97 bd 7b 43 be 3b 44 b5 4d 3b
       0.14676856 -0.07403527 0.005806384 0.003138856

state_encoder.sentiment_encoder.0.weight f4 [16, 2]
000000 e4 12 03 bf 2b 78 17 be 66 41 0e bf da 75 33 3c
       -0.512007 -0.14791934 -0.5556854 0.010953391
000010 83 14 9b 3e 7c 80 91 3e e1 d6 0b c0 13 68 29 3f
       0.30289087 0.28418338 -2.1849902 0.6617443
000020 f2 83 1c 3e 57 01 8b bd aa 42 80 bf f8 75 0b 3f
       0.15284708 -0.06787365 -1.0020344 0.5447688
000030 b2 e2 8e be 28 17 21 3e a2 ed 71 bf 41 97 8d be
       -0.2790733 0.1573149 -0.94503224 -0.2765446
000040 22 b0 86 3e e1 8b 18 3e 02 7a db 3e 2c 50 67 3e
       0.26306254 0.1489711 0.42866522 0.22589177
000050 3d f6 f6 3f 68 4d a0 be ff 7a 43 bf 67 69 39 3e
       1.9293896 -0.31309056 -0.7635955 0.18106614
000060 0f 9c 14 bf 1d 41 d6 be d7 99 9d 3f 5b 79 97 bf
       -0.58050627 -0.41846552 1.2312573 -1.183391
000070 09 1e 6e bf 66 68 f8 be 3d 3e a2 be fa 11 38 3f
       -0.9301458 -0.4851715 -0.3168811 0.7190243

state_encoder.sentiment_encoder.0.bias f4 [16]
000000 24 c9 83 3d 9f cf 02 be 68 5d 91 3d c2 7f 56 be
       0.06434849 -0.12774514 0.07097894 -0.20947173
000010 b0 a2 e4 3b 50 7a a9 bd 7d dd 04 3e b6 b7 5e bd
       0.0069774017 -0.082752824 0.12975116 -0.05437442
000020 b7 47 3b 3d 01 5b 22 3c 8a f0 a7 3e e8 33 59 be
       0.04572269 0.009909392 0.32800704 -0.21211207
000030 1a cf c5 bd f1 fa 2d 3d 69 6f 19 bd 35 77 db 3d
       -0.09658642 0.042475644 -0.037459765 0.10716096

state_encoder.fusion.0.weight f4 [64, 64]
000000 df cc 9b 3e 7c 70 cc be ff c8 06 bf 05 d7 d2 3e
       0.30429742 -0.3992957 -0.52650446 0.41179672
000010 de f8 77 3e 30 ac b3 be 38 4a 18 be 6a ff bb 3e
       0.24216029 -0.35092306 -0.14872062 0.36718303
000020 78 af 38 3f f9 04 c9 be 31 d1 28 3f a3 f5 b9 3e
       0.72142744 -0.39261606 0.659442 0.36320218
000030 db a1 5c 3f 1f 09 43 3e 70 4e 46 bc c5 91 0f 3f
       0.8618447 0.19046448 -0.012103662 0.560818
000040 a1 d4 13 be dd a3 c7 be d2 4a fc 3d 63 eb 39 be
       -0.1443658 -0.38992205 0.12318958 -0.18156199
000050 dc eb 59 bd 8a 7a a4 3a 22 6b 76 bd 98 3e fa bd
       -0.05320345 0.0012548727 -0.060160764 -0.1221897
000060 c3 01 82 bc 64 80 3b 3e a8 b4 00 3e b0 e7 07 bd
       -0.01586998 0.18310696 0.12568915 -0.03317994
000070 1f a5 71 bc 04 d7 a5 bd bd 5b e2 bc cc 4e ac bd
       -0.014748841 -0.080976516 -0.027631635 -0.08413467
000080 6c b7 27 3e 4e f7 10 3b 2c dc 82 be 01 8c 08 bd
       0.16378564 0.0022120061 -0.25558603 -0.033336643
000090 3d 03 2c be e5 e9 9a 3d 49 8b 08 be 81 a2 bc bd
       -0.1679811 0.07564143 -0.13334383 -0.09210683
0000a0 ad a5 91 3c a8 fd 5a be 9f 70 83 38 a7 87 0c be
       0.017779196 -0.21385825 6.267544e-05 -0.13723622
0000b0 8a 5c e1 3d 78 7c 77 bd d6 c7 8d bd ea 66 36 bd
       0.110039786 -0.060421437 -0.06922881 -0.04453174
0000c0 12 3f 3c bd da f7 70 be 2d ba aa bd f2 87 9f bf
       -0.045958586 -0.23532048 -0.083362915 -1.2463362
0000d0 aa 1d f1 be e5 44 13 bf 13 a6 ea bc d2 5f d8 3d
       -0.47092944 -0.57527 -0.028643643 0.10565151
0000e0 a2 1f dc 3e d8 2c 6e bd 43 72 94 3f 28 a8 e9 be
       0.42992884 -0.058148235 1.159737 -0.45636106
0000f0 76 c2 a4 be 9a 19 23 3f 83 bf b3 3e 3d 9c e3 3b
       -0.32179612 0.6371094 0.3510705 0.0069461153
000100 a8 6f 86 3e 2c 68 14 bf a5 50 6a bf 7b 65 26 3f
       0.26257062 -0.57971454 -0.91529304 0.64998597
000110 ef 75 6d 3d c5 e2 a1 be d9 91 80 be 4c 66 12 3f
       0.0579738 -0.31618324 -0.25111273 0.5718734
000120 95 7f 86 3f 26 97 d2 be 2c a9 6a 3e eb af a3 3e
       1.0507685 -0.41130942 0.22916096 0.31970152
000130 f7 b1 69 3f 44 d7 e1 3e 67 0e 68 b9 19 21 9e 3e
       0.9128718 0.44109547 -0.0002213061 0.30884627
000140 1f 48 4d bd 63 50 19 3d 6c ea d9 bc e7 69 e9 bc
       -0.05011761 0.03743018 -0.026601039 -0.028492881
000150 b4 a7 bb be b6 7f 72 3e 0c 8e 9c 3d a7 94 89 3e
       -0.36651385 0.2368153 0.07644281 0.26871225
000160 94 c6 74 be 81 2d d8 3b b6 3d 91 3e a4 9b 92 3e
       -0.23903877 0.0065972214 0.28367394 0.2863437
000170 e6 95 dd 3d aa 95 cb 3d 73 3d 10 3e 42 fb 2c be
       0.108196065 0.099406555 0.14085941 -0.16892722
000180 dc 63 97 bd c1 51 2a be 92 e3 00 be b1 42 cf 3c
       -0.073920935 -0.16632749 -0.12586811 0.025300356
000190 92 a2 63 3d 29 82 94 be 20 3d 25 be ce 16 31 be
       0.05557496 -0.29005554 -0.16136599 -0.17293856
0001a0 25 d7 74 bd b1 a9 78 3e 8b df 8f 3e c7 eb b2 bd
       -0.05977549 0.24283482 0.28100237 -0.08736377
0001b0 b3 74 29 3e 1c 87 97 be b1 fb 66 3d 2b 2e 69 be
       0.16548423 -0.29595268 0.056392375 -0.22771518
0001c0 bf a0 69 be a3 34 c0 bd d2 1a 1c be 94 8c 86 bf
       -0.22815226 -0.0938504 -0.15244606 -1.0511651
0001d0 28 88 a9 bd df a5 df be e6 e3 9d 3e 8e a3 c4 3e
       -0.08277923 -0.43681237 0.30837935 0.38406032
0001e0 68 e3 c9 3d da 2c dd bd a4 d0 b5 3e 37 15 64 be
       0.098578274 -0.107995704 0.35510743 -0.22273718
0001f0 30 3e 23 3d c5 93 f7 3e 58 99 43 3e 92 1f b3 bd
       0.03985423 0.48354927 0.19101465 -0.08746256
000200 27 5c 95 3e f9 83 ae be cd ee 52 bf 7a f5 0c 3f
       0.2917187 -0.34085062 -0.8239563 0.5506207
000210 b4 24 0d 3e fd de ea be c9 8b 90 be 3e 7d 61 3e
       0.13783532 -0.45873252 -0.28231648 0.22020432
000220 a6 c1 b6 3f eb a9 af be b5 4b 9c 3e 06 b1 13 3f
       1.4277847 -0.34309325 0.3052651 0.5769199
000230 46 4b 1a 40 31 85 9a 3e 3b 54 60 be fc 01 09 3f
       2.4108443 0.30179742 -0.21907131 0.5351865
000240 03 ef c3 3e 88 22 90 be fe 14 34 3d 3b b5 86 3e
       0.3826829 -0.28151345 0.043965332 0.26310143
000250 3b 3b 55 3e cc 14 a9 bd f4 24 cb 3e 58 15 75 be
       0.20823376 -0.0825592 0.3967663 -0.23933923
000260 2f d3 2e 3e aa 71 24 be 2f f1 db 3e b3 31 b8 3d
       0.17072748 -0.16058984 0.42957446 0.089938544
000270 ce bb 85 3e 1d cf 6d 3e d9 96 4f be 3f 5d 52 bb
       0.26119846 0.23223539 -0.20272388 -0.0032099036
000280 90 c3 37 bd 32 66 93 3e c8 af 3a be 34 8d 25 3d
       -0.044864237 0.28788906 -0.18231118 0.040417865
000290 b4 cf d9 bd 02 a3 7c 3d e3 0b a3 be 70 10 7a be
       -0.10635319 0.061678894 -0.31845006 -0.24420333
0002a0 1d 0c 54 3d 6b 31 d7 bd 30 da b2 3c eb 6d ef bd
       0.051769365 -0.105074726 0.021832556 -0.11690887
0002b0 bc d0 52 3d fb 80 bf bd 76 94 25 3e 91 11 54 3d
       0.051468596 -0.09350773 0.16169915 0.051774565
0002c0 93 49 c1 bc 09 0b 12 be 65 d9 2f 3e d8 6d 45 bf
       -0.023594653 -0.14262022 0.17172773 -0.77120733
0002d0 76 61 4a be 1b 02 29 be c1 7a 98 bd aa fc 08 be
       -0.19763741 -0.1650471 -0.074452884 -0.13377634
0002e0 1c e7 c6 bd 74 92 da 3a 30 f8 3b 3f fe 15 bb be
       -0.09712049 0.0016675727 0.7342558 -0.36540216
0002f0 7c 9b ec bd d0 48 16 bd ca c5 a4 be 49 d7 47 bd
       -0.11553094 -0.036690533 -0.3218215 -0.048789296
000300 d3 4b d4 be 33 8f 09 3f f0 2e 10 3f 76 22 09 bf
       -0.414641 0.5373413 0.5632162 -0.5356821
000310 23 3f be be 42 b6 ce 3e 4d 86 91 3e f6 0c 02 bf
       -0.37157544 0.40373427 0.28422776 -0.50801027
000320 1e cd 82 bf e8 b1 a6 3e 15 b5 31 bf 69 41 04 bf
       -1.0218847 0.32557607 -0.69416934 -0.5166231
000330 62 cc 1d c0 a3 0f e5 be 54 1d 96 bc 30 56 45 bf
       -2.4655995 -0.44738492 -0.018324532 -0.77084637
000340 7d eb 97 bd 95 58 40 be 28 77 6c bd b2 d8 0d 3e
       -0.07417963 -0.18783791 -0.057730824 0.13852194
000350 51 02 82 3d 11 60 ac be d8 2e 04 bf 65 3f 54 be
       0.06348098 -0.33667043 -0.5163398 -0.20727308
000360 1e e3 53 3d 4c 4c 1b 3d bb 45 63 be 98 92 98 bd
       0.051730268 0.03791456 -0.22194569 -0.074498355
000370 8c 32 1f be f4 0a ce 3e e3 fe 80 bd c3 8c ea bd
       -0.15546626 0.40242732 -0.06298616 -0.114526294
000380 bb 13 5c bd 8c e7 b8 bc 61 72 84 3e 45 64 27 be
       -0.053729754 -0.022571348 0.25868514 -0.16346844
000390 64 5b 2f be e8 ba 2a be da 83 db 3e 88 bd 4a be
       -0.17124707 -0.16672862 0.42874032 -0.19798863
0003a0 ec 81 45 bd 13 39 b8 3d a1 0c 83 be 6c ce a3 3d
       -0.048219606 0.08995261 -0.25595573 0.07998356
0003b0 d6 b2 ea bc d4 e9 7e 3e 58 b5 89 3e 46 ed 9f 3d
       -0.028649729 0.24893886 0.26896167 0.07808928
0003c0 95 bd e2 3d f9 48 39 3e 1d c0 f2 be 35 58 5e 3f
       0.11071316 0.18094243 -0.47412196 0.86853343
0003d0 f5 91 70 be 16 64 32 3c 4c b0 90 bd 0d f1 05 3f
       -0.23493178 0.01088812 -0.07064876 0.5232094
0003e0 12 bc 15 bd 96 9d 20 bd d5 76 84 bf 94 77 3d 3f
       -0.03655631 -0.039212786 -1.0348765 0.74010587
0003f0 bf c3 68 3e ca 22 c7 be 55 14 12 3f 08 0f 82 bc
       0.22730921 -0.3889373 0.57062274 -0.015876308

state_encoder.fusion.0.bias f4 [64]
000000 a0 e5 84 3e 94 db 94 3e 1e 12 25 3f 4e 90 10 bf
       0.2595644 0.29073775 0.6448077 -0.5647019
000010 47 0c 13 3d 04 42 0a 3f a9 89 f4 3e 7d bb 02 bf
       0.03590038 0.5400698 0.47761276 -0.51067334
000020 c3 9d e1 3e 89 b3 1b 3f 3a 81 ef be a5 5a 1c 3f
       0.44065675 0.60820824 -0.4677828 0.6107581
000030 12 2a 3c 3e 7d aa da 3e 6a ba e6 be a0 62 81 be
       0.18375424 0.42708197 -0.45064098 -0.25270557
000040 87 e3 0c bf 3b ae 65 3e e6 cd e7 3e 23 60 91 be
       -0.5503468 0.22429745 0.45274276 -0.2839366
000050 5d 86 f3 be 54 ba e2 be 3f bf da be db e4 e6 be
       -0.4756345 -0.44282782 -0.42724034 -0.45096478
000060 c0 ad ed 3e d0 71 66 3e e6 a8 4c bf 6e 1d 2f bf
       0.46421623 0.22504354 -0.7994522 -0.6840428
000070 40 4e 00 3d 37 fb a2 be 76 14 d8 3e 2f d2 f5 3c
       0.031324625 -0.31832287 0.4220311 0.03000745
000080 b2 36 96 3e f7 5e 07 bf 6c 75 04 3f b2 5e 3f be
       0.29338604 -0.5287928 0.5174167 -0.18688467
000090 ac 2d 6b 3f 7a ca 12 3f f7 4c 56 3f 43 e9 12 3f
       0.91866565 0.57340205 0.8371119 0.5738718
0000a0 df 4c 29 3f 93 24 67 bf 85 bc 3f bf 16 da 0b bf
       0.6613292 -0.9029018 -0.7489703 -0.5462965
0000b0 c2 db ec 3e 17 8a 16 3f d0 7a ca be 67 ef 02 bf
       0.46261412 0.5880446 -0.39546824 -0.5114655
0000c0 6f cc 33 bf 9b b3 38 3f cf d1 fc 3e 77 47 76 be
       -0.70233816 0.72149056 0.4937882 -0.24050699
0000d0 72 e5 cd be 52 80 73 bf 10 6f d3 be 35 54 e6 3e
       -0.40214115 -0.95117676 -0.4129567 0.4498612
0000e0 73 03 c0 3d ce c6 ce 3e cf fd 05 3e 81 af 04 3f
       0.09375658 0.4038605 0.13085102 0.518303
0000f0 30 54 f7 be 88 15 0c 3f c8 b1 34 bf 7c de ed be
       -0.48306417 0.54720354 -0.7058377 -0.46458805
