data/results/sentiment_final_test/final_model_safe.pth (torch, 493893 bytes, 81 tensors)

state_encoder.time_encoder.0.weight f4 [16, 1]
000000 5a f4 91 3c 36 93 7b 3b 37 bd cf 3d 61 dd c8 bc
       0.017816711 0.0038387305 0.10143512 -0.024519624
000010 6b bb b4 bc 98 52 09 bc 1c 79 8f bc fb 80 0f 3d
       -0.022062024 -0.008381508 -0.017513804 0.035035115
000020 95 c1 28 3d 76 42 ce be e6 54 c8 3b f7 e7 08 3d
       0.04120024 -0.4028508 0.0061136363 0.033424344
000030 15 b6 45 3e f7 c1 13 bc 64 0c 97 bd b0 7d 4b 3d
       0.1930774 -0.009018413 -0.0737541 0.04968041

state_encoder.time_encoder.0.bias f4 [16]
000000 e7 2a 26 3c c7 e1 1e bc eb c0 96 bd 38 36 b4 3a
       0.010142065 -0.009697384 -0.07361015 0.0013749069
000010 83 9f 60 3c be 93 00 bc 78 92 f6 3b 6a 9d c2 bc
       0.013709906 -0.0078477245 0.0075247847 -0.023756701
000020 77 99 e4 bc a8 00 2e 3e 29 d5 25 bc cc 80 9e 3b
       -0.027905209 0.16992438 -0.010121622 0.004837131
000030 45 88 e6 bd 39 1f d3 bb 63 d6 63 3d 97 d1 03 bd
       -0.1125646 -0.006442931 0.055624377 -0.032182302

state_encoder.wealth_encoder.0.weight f4 [32, 1]
000000 bc 2b e3 bd 77 42 fb 3d 57 75 2c be d0 2a 6f 3e
       -0.11092326 0.122685365 -0.16841637 0.23356175
000010 e1 24 8e bd 41 c7 86 3e 59 40 90 bd b8 f8 38 3d
       -0.06940628 0.26323894 -0.07043523 0.04515907
000020 b2 9f 13 be d2 12 bb 3c 52 ac 27 be 9d 58 7b bd
       -0.14416388 0.022836123 -0.16374329 -0.061363805
000030 18 3d 88 3d 89 55 a7 bc cf f5 2f 3d 16 ee af 3d
       0.06652278 -0.020426529 0.04295903 0.08590333
000040 81 2f 5e bb a1 4f 82 3d d4 6c 36 bb 5b 2c 03 bc
       -0.0033902826 0.06362844 -0.0027835863 -0.008006181
000050 81 c8 05 3e 77 95 45 3e 96 6e 77 bd 02 ee 54 bd
       0.13064767 0.19295298 -0.060408197 -0.051984794
000060 e9 43 b1 bd a1 00 5b bc 7f 47 cc 3c 90 de e1 bd
       -0.08655531 -0.013366849 0.024936436 -0.110287786
000070 e7 04 2d 3e 05 02 2a be 3b 91 78 3e dc 65 5a bd
       0.16896401 -0.16602333 0.24274151 -0.053319797

state_encoder.wealth_encoder.0.bias f4 [32]
000000 a7 42 b1 3b ba 22 ae bc b6 18 cc 3b 39 35 8d ba
       0.005409557 -0.021256793 0.0062285317 -0.0010773308
000010 78 5b 03 3c 6f 63 02 bd 6e 75 bf 3b 86 82 b5 3b
       0.008017413 -0.03183311 0.005842856 0.0055392412
000020 db cc 1b 3c f8 b2 21 3b 2e 1b 56 3b 78 d7 a3 bc
       0.009509291 0.0024673324 0.003267001 -0.020000204
000030 ce cd f6 3b 03 62 ee ba 9d fa 75 bb de b2 19 bb
       0.007531858 -0.0018187169 -0.003753341 -0.002345256
000040 52 a0 93 bc e2 b4 f8 b9 92 7b 80 3b 96 56 32 3a
       -0.018020783 -0.00047437014 0.0039209807 0.00068030634
000050 f2 d4 41 3c 77 37 03 bc d7 cf a4 3b 7d fa 4c 3c
       0.011830555 -0.008008829 0.0050296593 0.012510893
000060 f1 d9 12 bc e0 17 b2 b9 53 4d 14 3c 4c 3a 7c 3c
       -0.008963094 -0.00033968594 0.009051639 0.015394758
000070 78 2d 11 bc 65 ae 69 3c 22 6a fb bc e7 5d ea bb
       -0.008860938 0.01426277 -0.030690257 -0.0071523073

state_encoder.sentiment_encoder.0.weight f4 [16, 2]
000000 d5 a3 c2 3d 4b eb 76 3d 88 04 1e bf c5 ee 88 be
       0.09503905 0.060282987 -0.61725664 -0.26744667
000010 35 d8 7f bf a5 da dd be 87 28 eb bd 26 4f 90 bd
       -0.9993928 -0.43330875 -0.11482339 -0.07046346
000020 49 6f 82 3f 25 fc f6 3e 33 51 ab 3d 3a f5 08 3d
       1.0190212 0.48239246 0.08365097 0.03343699
000030 9c e0 09 3f 76 6a 95 3e b0 a7 e5 bd a6 c2 f9 bc
       0.5385835 0.29182786 -0.112136245 -0.030488323
000040 ca 53 ff 3e b4 8b 60 3e 65 73 e6 3e 50 73 53 3e
       0.49868613 0.21928293 0.45009914 0.20649457
000050 09 ab f1 be 5a ab 71 be 36 36 4f 3e 86 60 0a 3e
       -0.47200802 -0.23600522 0.20235524 0.13513383
000060 30 ae de 3d 3f 0f 1e 3d d0 a9 16 3f 96 24 86 3e
       0.108730674 0.03858876 0.58852863 0.26199788
000070 b1 2b 03 bf 16 bc 8b be 16 af 2e bf 9f 44 ce be
       -0.5123854 -0.27291936 -0.6823591 -0.4028673

state_encoder.sentiment_encoder.0.bias f4 [16]
000000 56 9e 39 ba 3c 83 0a bd 2a d7 46 bd 27 f9 f1 bb
       -0.0007080784 -0.03381656 -0.04854504 -0.0073844376
000010 88 7b 59 3d 1e 02 bc ba 90 99 f9 3c 52 d0 93 bb
       0.053096324 -0.0014343893 0.030468732 -0.0045109177
000020 2b a8 e1 3c 41 e6 c5 3c f7 8c ed bc 2d 56 51 3c
       0.027546009 0.024157645 -0.028997881 0.012776894
000030 16 a0 ae 3c 53 dd e9 3c 9e 8e 05 bd 34 14 42 bd
       0.02131657 0.028547918 -0.032606713 -0.04738255

state_encoder.fusion.0.weight f4 [64, 64]
000000 b0 a5 c8 3b ca 0b be 3c 69 67 0c be f6 f9 2d bd
       0.006123267 0.02319898 -0.13711323 -0.04247471
000010 f9 e4 48 3e 4d 09 50 3d 13 dc d4 bd cc 51 a2 3c
       0.19618596 0.05079012 -0.10393538 0.019814394
000020 49 9b 3a be f0 f8 dc 3b fa c2 a3 3d 8c 1b 37 bc
       -0.18223299 0.006743543 0.07996173 -0.011176001
000030 14 51 57 3d ea ad c6 3c 5b c1 07 3e 4e 46 93 bc
       0.052567557 0.02425285 0.13257353 -0.01797786
000040 7d 37 2e 3c ba a6 18 3d b8 3f 28 3e 26 0e ab bd
       0.010633347 0.037268378 0.16430557 -0.08352308
000050 78 50 7e bd 27 5b 5f bd 76 a8 5b bd 25 0b 8e 3d
       -0.06208846 -0.05453029 -0.053627454 0.069357194
000060 c0 ae 13 3e 7a 31 c4 bc 66 06 c0 bd 3d 19 75 3d
       0.1442213 -0.023949374 -0.093762204 0.059838522
000070 76 c5 9b bd 0a 2b 3e be 7a ca 22 be cd c3 91 3d
       -0.07606022 -0.18571106 -0.15897551 0.07117424
000080 35 76 a0 3d 3d ed c4 bd eb b0 c9 bd 34 2f cc 3a
       0.07835046 -0.09615562 -0.098481975 0.0015578032
000090 22 f1 16 bd af 38 a8 3d f1 b4 43 3d a9 d1 b6 3d
       -0.036851056 0.082139365 0.04777998 0.08926708
0000a0 37 b1 a0 bb ce a8 bc bc cc e1 cc 3d 0f 09 fc ba
       -0.004903938 -0.023029711 0.10004005 -0.0019228774
0000b0 fe 7d 7e bc 44 25 61 bd 75 79 28 be f3 e5 0d be
       -0.015532969 -0.05496718 -0.16452582 -0.1385725
0000c0 e7 fe 6b 3d fa 33 46 bd 52 aa 69 be 49 67 55 bd
       0.05761614 -0.048389412 -0.22818878 -0.052100454
0000d0 56 6e 42 bc b8 1e 0b 3e 27 d2 65 3e db 3b cf bd
       -0.011867126 0.13585937 0.22443448 -0.101188384
0000e0 64 cb 4c 3d 16 c4 17 be 3e 17 6f 3d c4 05 b6 3d
       0.049998656 -0.14820895 0.058371775 0.088878185
0000f0 ff 90 19 bd f4 45 b9 ba 5b 4d ac be 56 6b f5 bd
       -0.037491795 -0.0014135228 -0.33652768 -0.11983363
000100 34 bc bc bd 55 a8 06 bd d5 15 95 bc e5 f6 c5 3d
       -0.092155844 -0.032875378 -0.018198887 0.09666232
000110 98 a8 83 bd 9c f1 c4 3d 26 72 48 3d 36 44 29 bc
       -0.06428641 0.09616396 0.048936985 -0.010331204
000120 ec 5b 8d bc e3 8c 2f bc 2e da 09 bc 02 45 15 3d
       -0.017255746 -0.010714742 -0.0084138345 0.036442764
000130 f8 94 f2 3c 00 08 83 bd 3b e8 17 3e 3f 30 04 bd
       0.02961205 -0.0639801 0.14834683 -0.032272574
000140 41 6c ef 3c 48 26 07 be 0d da 4f bd 68 75 85 bd
       0.029226424 -0.13198197 -0.05074506 -0.06516534
000150 d9 2e 84 bd bf 2a 8a bc 86 7a 89 3d b4 1c 17 be
       -0.06454248 -0.016866086 0.067128226 -0.14757043
000160 fe 7f b3 3d 3e de 1c bd 5f 28 c1 bd 0c 06 98 3d
       0.08764647 -0.038297884 -0.09431528 0.07423028
000170 96 18 48 3e 21 6a 9a bc 09 85 a7 3c f3 de fa 3d
       0.19540629 -0.018849434 0.020449178 0.122495554
000180 6d 3c 63 bd e5 c6 cb bc c1 0e 05 3d 94 7e e3 bc
       -0.05547755 -0.024875114 0.032484774 -0.027770318
000190 52 96 d6 bc 35 71 74 bd 9f 2a 23 3c f9 79 6b 3d
       -0.026194725 -0.059678275 0.009958892 0.05748937
0001a0 dc 23 9e 3d 9a b3 57 3d c8 47 bd b7 07 2e 3f bd
       0.077216834 0.052661516 -2.2563981e-05 -0.046674754
0001b0 38 d3 88 ba 44 a3 56 bc bd df 1c be cc 95 11 3e
       -0.0010438925 -0.013100449 -0.15319724 0.14217299
0001c0 76 10 86 3d e5 91 1c 3e 45 3a e8 bd 44 e6 c8 bd
       0.065461084 0.1529003 -0.11339239 -0.09809545
0001d0 3a ac 8d 3e 91 d3 2f be b6 0e cc bd 0c 74 1a bc
       0.2767046 -0.1717055 -0.099637434 -0.009427082
0001e0 d6 22 5a 3d 7d 6c 23 3d a6 15 a9 3e fe fc af 3d
       0.05325588 0.039898384 0.3302433 0.08593176
0001f0 ce 76 48 3c b7 a5 ce bd 7b 34 9c bd 46 2e 42 3b
       0.0122353565 -0.10090201 -0.07627197 0.0029629632
000200 0c 4c 83 3d 33 b0 23 3d eb a6 42 3d 9e c2 99 bd
       0.06410989 0.03996296 0.047522467 -0.075078234
000210 86 03 4e bb 0a 3d ee 3d df 7d b0 bd 93 36 db bc
       -0.0031435206 0.11632736 -0.08617758 -0.026759421
000220 c1 6d e8 3d 6d ff 34 3e c4 2f 20 3d 85 93 fc 3d
       0.11349059 0.17675562 0.039108053 0.123328246
000230 00 46 e1 3d fb ad f7 3d ec 77 8f bd 7a 28 4f be
       0.109996796 0.12093731 -0.07005295 -0.20230284
000240 ac b1 64 bc 8b 18 f8 3d a5 94 b9 3c ee 81 a9 bd
       -0.013958376 0.12114056 0.022653887 -0.08276735
000250 8c 16 62 bd 91 ed 30 3e ae 39 73 bd c1 3d dd 3b
       -0.055197284 0.17278124 -0.05938118 0.0067517464
000260 40 eb 58 bc 28 8b 25 3e 01 26 11 bc 22 c5 97 be
       -0.013239682 0.16166365 -0.0088591585 -0.29642588
000270 70 8d b2 bb 9f c8 8d bd c3 cf b6 3c f8 04 85 bd
       -0.0054489896 -0.06923031 0.022315865 -0.06495088
000280 26 19 3e bd c9 32 87 bd 79 73 4d bd 8c 74 86 bd
       -0.046410702 -0.066014834 -0.05015895 -0.06565198
000290 a0 bd 35 3e 1e e6 48 3c b0 76 41 3e 4d 68 e2 3d
       0.17748117 0.012261895 0.18892932 0.1105505
0002a0 5e 5a 0f be 2b 1a ea bd 4d aa b9 bd d4 be 97 39
       -0.13999316 -0.114307724 -0.090656854 0.00028943142
0002b0 44 af cf 3d 68 74 31 3e 1d 75 f3 bd 9f 9a 98 3d
       0.10140851 0.17329562 -0.11887572 0.07451367
0002c0 69 54 a1 3d 68 b3 a3 be a9 14 34 bf 81 b5 7f 3d
       0.07877428 -0.31972814 -0.70344025 0.062428955
0002d0 59 6f 06 3f 75 cd 7e bd 66 33 52 bd 92 76 4f 3d
       0.52513653 -0.062207658 -0.05131855 0.050650187
0002e0 e3 30 86 3e bb fe 34 bd f5 29 95 be 15 ea 0b 3e
       0.26209173 -0.044188242 -0.29133573 0.13663514
0002f0 0e 42 8c 3d ba 1f 05 3e 6e cb 84 bd 96 94 65 be
       0.068485364 0.13000384 -0.06484114 -0.22419962
000300 84 a6 ef 3c 45 69 56 3d 75 f2 e8 bc 53 2b 66 bd
       0.029254206 0.052346487 -0.028435925 -0.05619366
000310 da 63 0c bd 86 2a 1a be 03 0b 4b 3e 25 57 0b bc
       -0.034274913 -0.15055284 0.1982842 -0.008504664
000320 e3 80 c9 bc 4d a5 72 3d d8 9b 14 bc a9 13 44 3d
       -0.02459759 0.059239674 -0.009070359 0.047870312
000330 99 48 ee 3d 14 45 49 bd 9f 5b 10 be 45 2e 54 b9
       0.11634941 -0.049138144 -0.1409745 -0.00020235132
000340 21 fe d0 bd a5 ab e6 bd 8d 54 e1 bd 74 8d 22 3e
       -0.10204721 -0.11263207 -0.11002455 0.15874273
000350 77 f0 be bd 20 ae 34 39 75 21 76 bc 77 f0 e0 3a
       -0.09323209 0.00017231004 -0.015022625 0.0017161508
000360 b8 3f 59 3c b3 89 52 3d da db 78 3b 21 01 2f 3d
       0.013259821 0.05140085 0.0037972839 0.042725686
000370 70 0a e3 3d 1b ef a6 3d ad d8 85 3d c3 24 16 3e
       0.11085975 0.081510745 0.06535468 0.14662461
000380 b2 b8 18 bd 43 c4 41 3d ad ff 17 be b1 61 84 bd
       -0.037285514 0.04730631 -0.14843626 -0.06463946
000390 97 6d f4 3d ec 94 24 3e dd 93 a5 3d 4d 1f 94 3d
       0.11934965 0.16072434 0.08084843 0.07232533
0003a0 96 d7 34 bd 9e fe b7 bd a0 e6 47 3d e1 79 5f 3d
       -0.04415091 -0.08984111 0.048803926 0.054559592
0003b0 94 c5 b0 3d ef f6 bf bd e2 87 08 be 27 ac 58 bd
       0.08631435 -0.09373271 -0.13333085 -0.052898552
0003c0 b3 ba 84 bd 52 5d c1 3b d6 20 45 bb 2c ed 0f 3e
       -0.064809225 0.005901017 -0.0030079386 0.14055318
0003d0 b9 92 d5 3a 5f 45 1b 3c 19 41 97 3d 35 38 38 bd
       0.0016294337 0.009476989 0.07385463 -0.04497548
0003e0 70 56 50 3d 1a fc 54 3e 46 71 0d bd ca 06 52 3c
       0.050863683 0.20799294 -0.034531854 0.012819001
0003f0 ae 65 57 bd e7 51 c3 3d 83 cf 0c bd 6a 2c 17 be
       -0.052587204 0.09537106 -0.034377586 -0.14763036

state_encoder.fusion.0.bias f4 [64]
000000 df 94 e4 3a 6b c2 b6 3b 91 d8 b3 3c 37 b0 77 3c
       0.0017439387 0.0055773756 0.021953853 0.0151176965
000010 e6 8c a2 3a ce 41 2b 3b 9c a9 05 ba 6b 3c 62 3b
       0.001240161 0.0026131752 -0.0005098821 0.0034520875
000020 d8 df 18 bb 9c b9 95 ba 2a 3d 31 3c a0 97 c1 3a
       -0.002332678 -0.0011423114 0.010817805 0.0014769919
000030 af 89 9d 3c 07 96 92 3a b9 27 39 bb be 32 50 bc
       0.019230692 0.0011183628 -0.0028252436 -0.01270741
000040 e4 4d 54 3a 31 9b 19 3c db fe 11 bc d4 1e d9 b9
       0.0008098765 0.009375379 -0.00891086 -0.00041412434
000050 3a 47 10 bc f3 6d d5 3b 51 55 42 3b 84 27 48 bb
       -0.008806044 0.006513351 0.0029652903 -0.0030541131
000060 e8 d5 10 ba 50 d2 59 3c 8a a8 70 bc 06 a5 d9 3b
       -0.00055250386 0.013294771 -0.01468862 0.006641987
000070 4f 31 6b 3b 11 46 8c bc 9f c6 40 bc 54 0a f6 b9
       0.0035887545 -0.017123254 -0.011766105 -0.0004692847
000080 4c 7f 17 bc 89 ae 37 bc 34 1b f7 bb 75 8e 50 ba
       -0.0092466585 -0.011211046 -0.0075410847 -0.0007955798
000090 20 35 77 b9 23 e5 52 3b 42 e7 0d 3c e6 23 f4 3b
       -0.00023575546 0.0032180033 0.008661093 0.0074505685
0000a0 a9 dd 49 3b 78 95 62 bc b9 7e 01 3b cf 01 4a bc
       0.0030802286 -0.013829581 0.001975937 -0.012329533
0000b0 f7 ee ec bb a4 cd 31 bc 15 00 0b bc e7 34 74 bc
       -0.0072306353 -0.010852251 -0.008483906 -0.014905191
0000c0 a0 d8 15 bc 2c ae 45 bb a6 33 0f bc 90 ec cf 38
       -0.009145886 -0.003016363 -0.008740341 9.9145924e-05
0000d0 8e 02 1a bc a1 9e 58 ba 43 6f 71 bb 40 8a 41 3c
       -0.009400023 -0.00082633836 -0.0036839999 0.0118127465
0000e0 25 ab 2e bb c8 12 e9 ba c4 b7 37 3c 01 20 94 3c
       -0.0026652303 -0.0017782087 0.011213247 0.018081667
0000f0 70 22 4d bb 56 22 7d bb 51 f1 b8 3a a3 15 7c 3b
       -0.0031301044 -0.0038625202 0.0014110004 0.0038465045

shared_layers.0.weight f4 [64, 64]
000000 36 a1 fc 3c 47 50 6c bd 33 fa 37 3d 4a 3d 93 bd
       0.03083859 -0.057693746 0.044916343 -0.07189424
000010 45 2b 36 3c b5 0e 04 3e 72 0f c7 3d 01 54 90 3d
       0.011118715 0.12896235 0.09719743 0.070472725
000020 32 e2 f8 3c 10 0e 44 bd c8 9e fe bd 14 12 7b 3d
       0.030381296 -0.047864974 -0.12432629 0.061296538
000030 eb e3 34 3d a8 0e 5b 3d df 11 69 bd 72 d8 d7 bb
       0.044162672 0.053480774 -0.05690181 -0.0065870816
000040 ca 1b 90 bd ab 79 ff bd 49 26 a7 3d b1 df 92 3d
       -0.0703655 -0.12474378 0.08161599 0.07171572
000050 15 ff e3 bd 24 83 be 3c 3e 4e 9f bd 31 d4 c6 3d
       -0.111326374 0.023255892 -0.077785954 0.09708441
000060 c3 5b 01 3e 26 8a 6b 3d a0 3f d8 3c 40 d2 18 bd
       0.1263266 0.057504795 0.026397526 -0.037309885
000070 f1 52 94 bc 42 5c 3f bd 14 23 8a bc 1e 1f cc bd
       -0.018105956 -0.046718843 -0.01686243 -0.09966873
000080 7d 01 5d 3d 82 2c 71 3d 5b de 28 be 10 2a 6b 3e
       0.053956497 0.058880337 -0.16491072 0.22965264
000090 75 75 b0 bd ca c4 1f be ea 18 f8 3c d4 b1 fd bd
       -0.08616153 -0.15602413 0.030285317 -0.12387434
0000a0 f1 b6 9e bd 14 f5 7e 3d a9 fa ad 3d f3 6a db bd
       -0.07749737 0.062245443 0.08495075 -0.10713758
0000b0 34 4e a3 bc e4 cd 80 3d 7f b2 72 3c d2 b4 21 3d
       -0.019934751 0.062892705 0.014813065 0.039479084
0000c0 ec a6 0c be d8 7c e8 bb 59 1c e3 3d ff 1d 7d bc
       -0.1373555 -0.0070949607 0.11089391 -0.015449046
0000d0 5d 5e a7 bc 10 b3 0f bd fb 99 42 3c ff 16 03 bd
       -0.020430738 -0.035082877 0.011877532 -0.032004353
0000e0 3b 67 5e bd fe 66 65 bd e9 8e c3 3c 34 bc b1 3b
       -0.054297667 -0.056006424 0.023871856 0.005424047
0000f0 e6 fb a0 bd d6 64 33 bd c0 2d c6 bd bb ac 29 3e
       -0.07860546 -0.043797337 -0.09676695 0.16569798
000100 f7 ac 31 be 32 ae 73 bd 10 39 8c 3c e4 7b db 3a
       -0.17351137 -0.059492297 0.017117053 0.0016745296
000110 52 98 a8 bb 30 47 5a 3c 77 43 e5 bd 16 07 be bd
       -0.005145111 0.0133226365 -0.111945085 -0.09278695
000120 ba 88 38 be 9f c7 82 bc 7b 6c 48 3d 12 d7 16 be
       -0.18020907 -0.015964327 0.04893158 -0.1473048
000130 70 c7 04 be c6 b1 cc 3d 11 f7 13 3d d4 62 f0 3d
       -0.12966704 0.09994845 0.036124293 0.117376
000140 15 33 a2 bd 4d bf 97 bd 73 c3 a6 bd ca 98 af bc
       -0.079198994 -0.074095346 -0.08142748 -0.02143516
000150 00 95 9d bd 7f c8 dd bd 9b c5 84 3c f5 5f 8d bc
       -0.07694435 -0.10829257 0.016207507 -0.01725767
000160 d8 8e fa 3b db bb 16 3e 6d c4 cc bb f4 64 47 3c
       0.007646423 0.14720099 -0.0062490017 0.012170065
000170 3e 1c a1 bd d3 08 c9 3d 83 88 ea bc 46 43 c1 bd
       -0.07866715 0.09816136 -0.028629547 -0.094366595
000180 a2 28 99 bd b8 aa e3 3c 57 96 34 3c e2 5a 4b bc
       -0.07478453 0.027791366 0.011022172 -0.012411805
000190 17 bf 53 3d 5e a5 3a 3e 08 81 17 3e 40 c1 ab 3d
       0.05169591 0.18227145 0.14795315 0.08386469
0001a0 04 7a 52 bd a8 67 b2 bd 9f 59 8f ba 70 b3 1d bd
       -0.051385894 -0.08711177 -0.0010936743 -0.038501203
0001b0 0b 09 bc bd 1e f5 37 3c 10 c8 1e 3e a8 f0 a4 3d
       -0.09181412 0.011227874 0.15506005 0.08053714
0001c0 62 62 c6 bd f7 4f 09 bd ae 7d c7 3b ad c2 9d bd
       -0.09686734 -0.033523526 0.0060879802 -0.07703147
0001d0 97 51 f7 3d 08 0d b0 bd ff ec 75 3c 2f 7f 04 be
       0.12076109 -0.085962355 0.015010118 -0.12939142
0001e0 72 3d 1e bd f1 50 03 be 2a 6a a2 bc e2 54 bd 3c
       -0.038632818 -0.12823845 -0.019826014 0.023111764
0001f0 63 ca ec bc 1d dc 7b 3d 01 f5 a4 bd 35 7d 02 3d
       -0.0289051 0.061489213 -0.08054543 0.031857688
000200 42 12 03 3e f2 0d e5 3c d4 4c 88 be c1 46 42 3d
       0.12799934 0.027960751 -0.26621115 0.047430757
000210 07 d7 12 bd 5d 46 f1 3d 13 bc 00 be 7c 2d 54 3e
       -0.035849597 0.11780999 -0.12571745 0.20720476
000220 3c 0d 5d be 83 a3 20 3d 06 ac 5f be af 56 b0 3d
       -0.2158708 0.039218437 -0.21842965 0.086102836
000230 7c 14 84 3d 9d 06 3b 3d fb 28 ff 3d 0a 90 5a 3d
       0.064492196 0.045660604 0.12458988 0.053360023
000240 5e 61 02 3d 76 98 2b 3e 90 5e 4f be e3 1a bc bd
       0.031831138 0.16757378 -0.20250916 -0.09184816
000250 43 32 c6 3c c9 44 e4 bd 26 fb 8d be ca f2 3d be
       0.024193889 -0.11145932 -0.27730674 -0.18549648
000260 ae 7c 8e 3e 6d c0 3d 3e 00 93 98 3d 3b 4d a3 be
       0.27829498 0.18530436 0.07449913 -0.3189486
000270 8f 6e 67 3d 6e b8 07 3e d3 03 8c 3c 37 71 40 3e
       0.05650192 0.13253948 0.017091667 0.18793188
000280 2e ae da bc 4d 6c 56 be f5 10 6a 3e 47 f1 59 bd
       -0.026694383 -0.20939751 0.22858031 -0.053208616
000290 dd da 4a 3e 68 25 d5 bc 98 cd 75 bd fb fb 68 bb
       0.19810052 -0.026018813 -0.060010523 -0.0035550583
0002a0 19 07 e9 bd 0c 21 af bd a6 e3 2d bd 39 72 cb bd
       -0.11378307 -0.08551225 -0.04245343 -0.099338956
0002b0 22 7d 30 be 10 09 e4 3d db 0d 36 3c 1d 1d fa bb
       -0.17235234 0.11134541 0.011111702 -0.007632865
0002c0 b6 63 c8 3d a7 6b b6 bd 86 4c 01 3e 98 09 60 bc
       0.09784643 -0.08907252 0.12626848 -0.013674162
0002d0 ae 82 18 3e 20 1a 8c 3d c0 93 98 3d 46 43 70 3e
       0.148936 0.068409204 0.07450056 0.23463163
0002e0 d4 ae a7 be e3 e8 df 3d 1e f9 1e 3d 95 d9 90 bd
       -0.3275057 0.109330915 0.038811795 -0.070727505
0002f0 46 78 16 be 34 04 cd bb a1 f0 d9 3d db 77 94 bd
       -0.14694318 -0.0062566046 0.106415994 -0.07249423
000300 98 43 20 3d e1 38 cc 3d e4 ac bc bd 28 45 8a 3e
       0.039126962 0.09971786 -0.09212664 0.27005887
000310 2e 8f 15 bd 34 84 29 bc f5 47 37 3e 47 3b 07 be
       -0.0365135 -0.010346461 0.17898543 -0.13206206
000320 3c c4 20 bd 02 5f 38 be 08 e8 a0 bd e0 8b b6 3c
       -0.039249644 -0.18004993 -0.078567564 0.022283494
000330 82 d5 19 bd 99 90 4f bd f9 d5 55 bd eb 55 17 be
       -0.037557133 -0.05067501 -0.052206013 -0.14778869
000340 f2 41 24 3e 93 83 b9 bd 5b dc 3f 3d 7a 53 42 3b
       0.16040781 -0.09058299 0.046841007 0.0029651807
000350 14 73 c4 bc bc df f8 3c 05 59 e9 ba e7 fc d2 bd
       -0.023980655 0.030380122 -0.0017803019 -0.103021435
000360 8c 0d c8 3c 47 d4 40 3d f9 7b 12 3c 69 f5 80 3d
       0.024420522 0.047077443 0.00894069 0.06296808
000370 1f c8 1f 3e 3c bd ed bd ed 74 e6 bd 63 52 6f bc
       0.15603684 -0.11608359 -0.112527706 -0.014607045
000380 6f 4a da bd 00 13 a8 3c c8 c3 83 b8 11 5b b4 bd
       -0.10658728 0.020516872 -6.283034e-05 -0.08806432
000390 48 4e 0c bd 8d a4 61 bd 37 19 8e bd cb c3 9b 3c
       -0.034254342 -0.05508857 -0.06938403 0.01901426
0003a0 9a 27 91 bd 48 81 4f 3a fc 3b 19 be 14 5e 23 3d
       -0.070876315 0.0007915688 -0.14964288 0.03988464
0003b0 89 c0 5d bd 75 39 fa bd 81 cf 13 bd 3f e9 57 be
       -0.054138694 -0.1221799 -0.036086563 -0.2108507
0003c0 98 e7 90 be 23 98 48 3d 6c 41 e1 ba fe 26 5b 3c
       -0.28301692 0.048973214 -0.0017185635 0.013375996
0003d0 f0 98 c6 3c 67 d5 41 bd d8 76 40 bd e8 fa 5e 3d
       0.024242848 -0.047322657 -0.04698834 0.0544385
0003e0 8f 66 df bd e4 43 fa 3c bd 59 92 bd ec e0 0e 3e
       -0.109082334 0.03054995 -0.071460225 0.13952988
0003f0 62 80 8e 3b d5 97 8f bc ef 6d ce 3c e7 82 b8 bd
       0.0043488005 -0.017528454 0.025198905 -0.09009343

shared_layers.0.bias f4 [64]
000000 47 cf 41 bb 09 7d 42 bb 21 01 2c 3c 00 42 de 37
       -0.002957301 -0.0029676578 0.010498316 2.6495196e-05
000010 91 5a 0b ba 18 a5 f0 bb 8c 5d 04 3c 8c 2b f8 3b
       -0.00053159246 -0.0073438995 0.008078944 0.0075735506
000020 44 01 74 bb 90 db 04 bb c6 ab 03 ba 99 65 1e bc
       -0.00372322 -0.002027247 -0.00050228497 -0.009667777
000030 96 88 e5 3b 0c 85 cd 3a 62 f7 bf ba 8d bf 8e bb
       0.0070048077 0.001567991 -0.0014645869 -0.0043563307
000040 ba 25 b5 bb 71 76 8b 3c e6 e6 00 3c 24 c7 c8 3b
       -0.005528179 0.01702425 0.0078675505 0.006127255
000050 70 90 7a bc b6 f9 49 3c 7c fc 11 bb 4d 5c 6b bc
       -0.015293226 0.012327602 -0.0022275737 -0.014365268
000060 e2 62 8a bb 92 85 c0 3b 4e c5 e0 39 0a 8f 8d ba
       -0.0042232135 0.005875298 0.00042871613 -0.0010800075
000070 1c 6a 0a 3d f3 b9 67 bc 3a 66 f6 bb ac 2c 43 3c
       0.0337926 -0.014143455 -0.0075195106 0.011912506
000080 7b 2a 4a 3c c4 75 02 3c 9c b1 d2 3c 34 6d 39 bc
       0.01233923 0.007962648 0.025719456 -0.01131754
000090 94 0f b9 bb 25 b1 8e bb db 25 21 3c 9a e2 31 bb
       -0.005647609 -0.0043546134 0.009835686 -0.0027143122
0000a0 ea 3a aa bc 97 1e 3b 3c 94 16 6e 3a ed 13 85 3b
       -0.020780046 0.011420867 0.0009082344 0.004061213
0000b0 8d 02 72 3c 6e f6 57 3b 41 7b 64 bb 97 03 92 3b
       0.014771116 0.003295328 -0.0034863504 0.0044559943
0000c0 e2 85 1a 3c 32 42 a0 3b df b2 a7 3c 39 d5 98 bb
       0.009431334 0.0048907036 0.020471035 -0.00466409
0000d0 3e 35 9a bb 80 ae e0 3a e6 af 5d 3a a8 9f e6 3a
       -0.004706054 0.0017141849 0.0008456692 0.0017595189
0000e0 55 e5 cc ba ce 72 98 3b fc 60 0b 3b fd d0 81 bc
       -0.0015632311 0.0046523577 0.0021267524 -0.015846724
0000f0 a7 72 11 3b 6c 1f 6f 3c 88 41 cb bc ac 6b 43 ba
       0.0022193582 0.014594894 -0.024811521 -0.0007454704

goal_head.weight f4 [2, 64]
000000 bb a6 96 bc a5 1c a7 3a 10 29 44 bd 16 fe 27 3c
       -0.01839005 0.0012749626 -0.047890723 0.01025345
000010 00 ec 5a bb 54 4f f6 ba e0 92 ef bc 86 c1 31 bd
       -0.0033404827 -0.0018791952 -0.02924484 -0.04339745
000020 6f 1f 9b 3b 84 c4 ee ba a1 1d 59 3c 82 ba e6 3b
       0.004733972 -0.0018216525 0.013251693 0.0070412764
000030 78 23 24 3c 1a 37 78 3b 48 82 c8 3b 63 84 a2 3b
       0.010018222 0.003787464 0.0061190464 0.0049596294
000040 8a ad 90 3b ce 14 8f bb 1e 51 d0 bb 0f 8b 97 bb
       0.0044152187 -0.004366494 -0.006357326 -0.0046247314
000050 e9 27 da 3b 91 47 35 bb c3 24 98 bc b6 c9 39 3a
       0.0066575897 -0.0027661065 -0.018572217 0.0007087247
000060 1c 9b 1a bc 9a 5b 86 bb 71 6d f7 ba dc d9 99 bb
       -0.009436395 -0.004100275 -0.001887722 -0.0046951603
000070 86 a5 05 be a8 0b 14 3c 08 5c c6 3c d2 a2 4f bd
       -0.13051423 0.009035982 0.024213806 -0.050692387
000080 90 0f fa 3b 30 92 a9 bb e2 05 e7 bd b0 a8 40 bb
       0.0076312497 -0.0051748976 -0.11280419 -0.002939742
000090 61 ae c8 3b af e8 c0 bc 8b f2 29 3b e3 e7 c8 3b
       0.006124303 -0.023548452 0.002593192 0.0061311587
0000a0 31 f9 92 3d 1c a1 9e 3c 2e 0b 9f 3b 4e 56 2a ba
       0.07176436 0.019363932 0.0048536276 -0.0006497846
0000b0 3a 59 0a bb 2c 18 8b bb e5 78 42 3b 5e c9 3a bc
       -0.0021110312 -0.004244825 0.002967411 -0.011400549
0000c0 37 e9 f7 3b 17 9c 84 bc 67 01 97 bd 4b 38 2d 3c
       0.007565643 -0.01618771 -0.07373314 0.010572503
0000d0 bd 60 e8 3c 08 99 7b 3c ad 04 78 bc ca 6b 97 3b
       0.02836644 0.01535631 -0.015137834 0.0046210038
0000e0 16 2b 36 3b a3 4b 8c 3c e4 40 ad ba b4 d5 3e 3c
       0.0027796677 0.01712591 -0.0013218191 0.0116476305
0000f0 b5 c0 a5 bb 39 29 6e bd 21 dc aa 3d 87 d6 66 3c
       -0.005058373 -0.05814478 0.083427675 0.014089233
000100 1d 6c 93 3c de 63 e6 3a 36 0c 3a 3d 41 2a d4 bb
       0.017995888 0.001757737 0.0454218 -0.0064747636
000110 e0 69 3d 3b e4 f7 88 3b d3 38 07 3d 2e b9 2d 3d
       0.0028902218 0.0041799415 0.033013176 0.04241293
000120 bb ef e5 bb 56 33 67 3b 46 03 60 bc 42 01 04 bc
       -0.0070171035 0.0035278401 -0.013672655 -0.0080569405
000130 fd bd 2a bc c2 54 0e bb 76 c0 f6 bb 83 d0 cc bb
       -0.010421273 -0.0021718 -0.0075302674 -0.0062504425
000140 14 a5 d0 bb 74 09 94 3b 98 92 ca 3b 91 a9 c2 3b
       -0.006367335 0.0045177285 0.006182026 0.005940624
000150 90 92 a3 bb d4 12 2e ba fc 3e a1 3c cf 8c 64 bb
       -0.004991837 -0.0006640379 0.019683354 -0.0034873968
000160 b1 fe 22 3c 5a ba b6 3b 68 32 cb ba 72 fa 9b 3b
       0.0099484185 0.005576414 -0.0015502693 0.00476008
000170 c2 3a 04 3e 73 70 1f bc 9f 8d cc bc 80 d5 53 3d
       0.1291304 -0.0097314 -0.024969874 0.05171728
000180 77 6f ae bb 41 65 ca 3b 1a 28 e8 3d 29 45 e2 3b
       -0.0053233462 0.006176621 0.11335774 0.006905217
000190 a3 59 e3 bb a6 e9 d3 3c 7c fb a1 bb bd 5f c4 bb
       -0.0069381758 0.025868248 -0.0049433094 -0.005992858
0001a0 92 81 98 bd 19 56 aa bc e2 db 6e bb 8a 98 a4 3a
       -0.074465886 -0.020793008 -0.0036446978 0.0012557667
0001b0 ba 4f 4d 3b ea 87 29 3b 20 a1 4b bb ea 23 38 3c
       0.0031328038 0.0025868365 -0.003107138 0.011239031
0001c0 4d 4e 15 bc a1 4b 8c 3c 1a a0 9d 3d 01 d9 20 bc
       -0.009112907 0.017125906 0.076965526 -0.009817363
0001d0 64 64 e5 bc 6a 7c 6f bc 07 18 50 3c f6 ab bd bb
       -0.028001972 -0.014617065 0.012701041 -0.0057883216
0001e0 82 60 44 bb 5a 7b 8e bc 46 f8 3a 3b 90 3d 15 bc
       -0.002996475 -0.017392803 0.002852933 -0.009108916
0001f0 e4 55 90 3b 27 3d 6a 3d 87 84 ad bd df 0f 49 bc
       0.00440477 0.057187226 -0.08472543 -0.01227185

goal_head.bias f4 [2]
000000 73 f5 05 bf 76 f5 05 3f
       -0.5232765 0.5232767

portfolio_head.weight f4 [15, 64]
000000 b1 97 25 3d d1 5d 80 3b a3 89 a9 3c 38 d3 8d 3d
       0.040427867 0.003917434 0.020695513 0.069250524
000010 3a e2 8b bb 69 ec a4 3c 79 6d ac 3b 62 c8 b4 bc
       -0.0042689117 0.02013226 0.0052620736 -0.022068206
000020 01 45 63 3c 04 b0 b9 3b 33 0b 7a 3c 0e f4 7b 3c
       0.013871432 0.0056667347 0.015261459 0.015378011
000030 29 44 b9 bc 5e 7a 3d 3b 5b 3e da 3c e1 a3 b6 3b
       -0.02261551 0.0028912048 0.026641062 0.005573735
000040 81 84 16 3c b4 a2 cd 3b b7 49 d5 3c 23 20 83 3c
       0.009186865 0.0062754992 0.026036127 0.016006535
000050 30 e1 0b 3d 02 0a 99 bb 6e 5a 02 bd 43 5d 65 3d
       0.034150302 -0.0046703825 -0.03182452 0.055997144
000060 0c 84 d3 bb 31 c9 1c ba 79 07 24 bd 36 6e ca 3c
       -0.00645495 -0.00059809076 -0.04004619 0.024710756
000070 d0 a4 80 bd 14 28 50 bc f5 aa a9 3d 90 cb cc bc
       -0.062814355 -0.012704868 0.082845606 -0.02499941
000080 82 61 a0 bc 9c ba bd bc b1 18 f3 bc 04 25 d8 3c
       -0.019577745 -0.023160271 -0.02967486 0.026384838
000090 13 7d 83 bc b0 a8 9f bc 28 26 53 bd 1c 8e 85 3b
       -0.016050851 -0.019489616 -0.05155006 0.0040757786
0000a0 64 91 92 3c cb 86 d6 bc 52 78 93 3d 7e 28 dc bc
       0.017891593 -0.026187321 0.07200684 -0.026874777
0000b0 c9 06 81 bd 4e f2 9b bc 67 b2 aa 3b d3 7e 1a 3c
       -0.06300122 -0.019036438 0.0052092555 0.009429651
0000c0 b8 fa 69 3c ae fd f2 3c 27 26 ae bc 4b d3 d4 bc
       0.014280967 0.02966198 -0.021258427 -0.025979659
0000d0 9c 68 0b 3c 45 17 a7 bc b5 0a bb bc ef c1 0f 3d
       0.008508828 -0.020396838 -0.022832254 0.03509706
0000e0 2d 26 89 bc c5 57 93 3c cf 35 ae 3c ed 10 58 3d
       -0.016741836 0.017986188 0.021265892 0.052750517
0000f0 56 20 39 bd fd 6e d9 bc 12 f7 16 3d 67 55 58 bd
       -0.045196854 -0.026542181 0.03685672 -0.05281582
000100 85 8c 7f bb 3b 59 70 bb 44 2a 52 bb cc 20 6d bd
       -0.0038993668 -0.003667428 -0.003206865 -0.057892606
000110 8a e8 65 bc 97 a3 2b 3d bb ad eb 3b b0 cd c4 bc
       -0.014032492 0.04190406 0.007192341 -0.02402386
000120 4b 0b 04 bc 35 da 8f 3c cd 8c e4 3c 44 28 6a bd
       -0.008059333 0.017560104 0.02789917 -0.057167307
000130 14 97 8f 3c 44 44 1f 3d 0d 83 94 bc 5a da 7d 3c
       0.017528094 0.038883463 -0.018128896 0.015493954
000140 70 4f a2 bb ea db 3e 3d a1 79 12 3d 55 4e ad 3c
       -0.0049533173 0.046596445 0.035760526 0.021155516
000150 85 74 0f bc 99 72 ac 3c c7 08 19 3c d1 04 8c 3c
       -0.008755808 0.021050738 0.009340472 0.01709214
000160 89 ed 24 3d b0 c0 82 3c ab b1 87 bb 94 ee 1e 3b
       0.040265594 0.015961021 -0.0041410527 0.002425109
000170 8d 40 b4 bc 47 ec 25 bb 3b 68 28 bd c6 cf 73 bb
       -0.022003436 -0.0025317834 -0.041115027 -0.00372027
000180 bc cb 10 bd ed ee 3f 3d f9 a0 a0 ba de 23 42 3c
       -0.035350546 0.046858717 -0.0012255005 0.011849372
000190 2e df 63 bd 8f 9e 1f 3d 6d fb 8a bc 0c cf 70 bc
       -0.055632763 0.038969573 -0.016965592 -0.014697801
0001a0 e8 7a 79 bc 93 7b b7 bc 50 d9 8a 3c 67 4a 84 3c
       -0.015227057 -0.022397792 0.016949326 0.016148759
0001b0 8c 87 91 bb 3d 15 f0 3c 7a 50 cd bc b0 7a af 3b
       -0.0044412073 0.029307002 -0.025062788 0.0053552017
0001c0 83 90 44 3d de a7 8a 3c e4 28 34 bb 96 dc 4a bd
       0.04798938 0.016925748 -0.0027490193 -0.049526773
0001d0 9c f4 03 3c 8b 96 39 bd e4 0b be 3c 21 99 56 3d
       0.008053925 -0.045309585 0.02319903 0.05239213
0001e0 66 32 1f 3c 39 41 be 3b 3c e8 6d 3b 12 79 c2 3c
       0.009716606 0.005806115 0.0036301753 0.023739371
0001f0 3f 7f 27 ba ab d7 5e 3c c1 6f 8d bc 9d af 03 bd
       -0.00063895056 0.013601224 -0.017265202 -0.0321499
000200 24 71 93 3c 5c 4e a5 3c 8b 6c 87 3c 16 24 8b 3a
       0.017998286 0.020178966 0.01653125 0.0010615613
000210 b5 86 d8 3c 14 88 bc bc d5 f4 19 bd ee bd 8a bc
       0.02643142 -0.023014106 -0.037587006 -0.016936269
000220 7e 26 09 3c fe 3f 07 3c 43 48 8a 3c dd 4c 51 bc
       0.008370994 0.008255003 0.01688016 -0.012774673
000230 a7 23 51 3c 12 9c f3 3c 10 fb 55 3c eb 80 db 3c
       0.012764848 0.029737506 0.013060346 0.026794871
000240 f4 bd 94 bb f3 11 76 3d 89 bc 45 3d 67 44 b1 3b
       -0.0045392457 0.06007571 0.048275504 0.0054097655
000250 fd 66 e7 bc 22 77 bf 3b 4f be d6 bc 16 c8 f1 bc
       -0.02824735 0.005843059 -0.026213793 -0.029514354
000260 a8 71 d0 bc ce 38 2a 3d b8 8c ff bc 52 2f 4b 3d
       -0.02544482 0.04155808 -0.03119503 0.049605675
000270 fe 9f 27 bd 55 78 f4 bc 52 0f d1 3a 15 44 e9 bc
       -0.040924065 -0.029842535 0.001595 -0.028474847
000280 64 28 c2 3c 49 3a ab 3b 79 58 56 3c 80 49 89 ba
       0.0237009 0.005225454 0.013082617 -0.0010474175
000290 b9 69 0f bc 25 d8 31 bd df 11 8a bb e4 aa 10 bc
       -0.008753234 -0.043419022 -0.004213556 -0.008829806
0002a0 91 6b 38 bc d5 bb 35 3d 75 74 71 3d 0e 95 29 bc
       -0.011256115 0.044368584 0.058948953 -0.010350479
0002b0 fc 1c 67 3c e1 38 a6 bb ab 74 bd bb dc 10 86 3d
       0.0141060315 -0.0050726985 -0.00578173 0.065461844
0002c0 1f b4 1c 3d 99 06 c9 3c 77 cc f4 bc 24 48 77 3b
       0.038257714 0.024539279 -0.029882653 0.0037732208
0002d0 96 3d 09 ba 07 46 d0 bc e8 f8 a1 bc f3 b5 7f 3d
       -0.0005235312 -0.025424017 -0.019772008 0.06242938
0002e0 46 ce a5 3c 02 64 2d 3c 53 10 80 3c 49 fa 86 bc
       0.02023996 0.010582926 0.015632784 -0.016476767
0002f0 f8 85 92 bc 0b 83 a0 bb d3 52 19 bd de f7 93 bc
       -0.017886147 -0.004898434 -0.037432503 -0.018062528
000300 07 c9 66 3c c0 80 33 3d aa 4a 26 bd f7 ac b1 bc
       0.014086015 0.043823957 -0.04059855 -0.021688921
000310 d5 c0 0a bc 6d b2 87 3c 50 50 64 bb 84 54 77 bd
       -0.008468826 0.016564572 -0.003483791 -0.060383335
000320 85 5d d6 3b fd ad e6 3c 24 a5 78 bc 0a aa 4c bd
       0.00654191 0.028159136 -0.015176091 -0.04996685
000330 4f 54 74 bc 2b 09 50 3c e4 86 7d bd 48 91 2b 3c
       -0.014912679 0.012697498 -0.06189622 0.0104716495
000340 ec 3d 6e bb b1 50 af 3c 07 71 83 3b 7f e2 66 3c
       -0.0036352826 0.021400781 0.0040112766 0.014092087
000350 ec 09 10 3d e4 6c 25 bd 2f e8 6f 3d f8 e0 4c 3c
       0.035165712 -0.04038705 0.058571037 0.012504809
000360 9f b2 0d 3d ed 8e fc 3c ef dc 08 bd f0 09 fa 3b
       0.034594174 0.030829871 -0.033413824 0.007630579
000370 7e 61 a1 bd 44 ad 57 3b 52 1c 70 3c 6c 4f b2 bc
       -0.07879923 0.003290967 0.01465519 -0.021766387
000380 e1 d1 20 bd 51 aa fe 3c 88 0e 7b bd de a9 81 3c
       -0.039262656 0.031087073 -0.061293155 0.01582807
000390 6c ba 3b 3c 35 51 76 3d c4 76 63 bc 80 ee 9c 3c
       0.011458021 0.06013604 -0.013883296 0.019156694
0003a0 8d 93 15 3d 2a f7 d7 bc 28 f6 54 bd 0e 9f 28 3d
       0.03651767 -0.026362974 -0.051992565 0.04116731
0003b0 05 e5 89 bd e1 fe df 3b 38 84 31 3b af 18 4e bd
       -0.06733135 0.006835804 0.0027086865 -0.05031651
0003c0 92 9f 10 bd 94 59 82 bc de 62 10 bd 41 74 49 bb
       -0.035308428 -0.015911855 -0.035250537 -0.0030739459
0003d0 60 94 b6 3c ce 2d 1e bc 81 2d 11 3d c4 a1 88 3c
       0.022287548 -0.009654475 0.035443787 0.016678698
0003e0 83 c7 d3 3c 28 8b ce bc fe b2 3f bc cf 31 12 3c
       0.02585197 -0.02521284 -0.01170039 0.008923008
0003f0 aa 14 92 3b 2c cf 1a bc 8b 1e 7d 3c 19 42 8a bc
       0.0044580298 -0.009448808 0.015449177 -0.016877221

portfolio_head.bias f4 [15]
000000 23 b3 89 3b 6e 39 0f 3c 3e 1e 91 3c a8 42 62 b9
       0.004202263 0.00874172 0.017714616 -0.00021577871
000010 49 67 10 bc 1e 69 06 3c 40 0e 39 bc d8 40 6b 3b
       -0.008813688 0.008203773 -0.011294901 0.0035896804
000020 93 4c 2e 3b df cf 27 bb 71 9a a3 3b 4a 23 7c 3b
       0.0026595935 -0.0025606079 0.004992776 0.0038473182
000030 24 dd 96 bb 73 bb 85 bb 0a eb 7b ba
       -0.0046039987 -0.0040811836 -0.00096099137

state_encoder.time_encoder.0.weight f4 [16, 1]
000000 55 f1 13 bf 05 89 1f 3f c8 22 7c 3f 17 ad 2b bf
       -0.5779012 0.6231845 0.9849057 -0.6706099
000010 ff 5d da be 9e e8 e3 3e be 49 c7 3e 8e 94 fb be
       -0.42649838 0.4451341 0.38923448 -0.49136776
000020 5b 0e 37 bf d6 c9 22 3f 4f 79 27 bf d4 59 6c bf
       -0.7150628 0.6358923 -0.6541948 -0.92324567
000030 15 42 11 bf 1a 55 37 bf af 65 6a 3e 88 46 10 bf
       -0.5674146 -0.7161423 0.22890352 -0.5635762

state_encoder.time_encoder.0.bias f4 [16]
000000 ac eb 4c 3e 73 22 41 be 91 8f ae be 5d 63 80 3e
       0.20011777 -0.18860798 -0.34093907 0.25075808
000010 c8 bd 05 3e 10 06 4d be 39 d7 3a be d3 d5 47 3e
       0.13060677 -0.20021844 -0.18246163 0.19515161
000020 ad bc af 3e 42 df 47 be 73 04 64 3e dd fe 88 3e
       0.34323636 -0.1951876 0.22267322 0.26756945
000030 b6 fc bc 3e db d7 74 3e a6 29 12 be f4 70 5f 3e
       0.36911553 0.23910467 -0.142737 0.21820432

state_encoder.wealth_encoder.0.weight f4 [32, 1]
000000 ea cc 83 3d c2 28 b4 3e 5b 0d 9e bd 59 6d a3 bd
       0.06435569 0.35187346 -0.07717391 -0.07979841
000010 32 f8 0d 3f 60 9b 37 bd 42 28 19 3e 2e fe 35 3e
       0.5545684 -0.04482591 0.14956763 0.17772743
000020 b4 c1 37 3e da b5 4c bb 43 59 c3 bd 24 87 cb be
       0.17944986 -0.0031236322 -0.0953851 -0.39751542
000030 12 d8 d0 3e a2 02 e8 bc ff b9 23 be 9b 21 a2 3e
       0.4078985 -0.028321568 -0.1598892 0.31666264
000040 bc 5c 8a bd c9 62 aa be 9e 47 cc be 8f 16 e7 3c
       -0.06755969 -0.33278492 -0.3989839 0.028208999
000050 2c 41 a9 3e d6 d0 83 bd 6e 5a 7a bc a6 63 a3 3c
       0.33057535 -0.06436317 -0.015280349 0.019944977
000060 ea d5 c2 be 28 68 02 be e1 4c a8 be 17 d7 3f 3e
       -0.38053828 -0.12735045 -0.32871154 0.18734394
000070 d3 4a 1b be 6d 9e e2 bc 97 89 2f 3e 1b 08 3a be
       -0.15165262 -0.027663434 0.1714233 -0.18167154

state_encoder.wealth_encoder.0.bias f4 [32]
000000 36 11 bb 3c 31 7d c0 bd 7e f2 39 bc 9d be 05 3d
       0.022835355 -0.09398878 -0.011349319 0.032652486
000010 8f 85 56 bd 47 57 21 3e 7f 58 64 3e 04 cd bf bc
       -0.052373465 0.1575595 0.22299384 -0.023413189
000020 ef a9 1e 3e 5c 29 2c 3c ef 94 4e 3e d0 f8 d5 3c
       0.15494512 0.010507908 0.20174001 0.02611962
000030 4a 75 36 bd 3d e1 9f 3d 70 53 2e be 9c d7 b9 bc
       -0.04454545 0.07806633 -0.17024016 -0.022685818
000040 a6 ec 1a 3e 17 e8 b7 3d 9d 51 3b be 9a 27 ba bb
       0.15129337 0.089798145 -0.18292852 -0.0056809904
000050 f1 18 f9 3d 54 81 a1 3b f9 52 6a bd dc f4 31 bd
       0.1216296 0.004928747 -0.057208035 -0.043446407
000060 03 ee a4 3d d6 35 47 be 74 82 3c 3c 38 d9 2c bc
       0.0805321 -0.1945413 0.011505712 -0.010549836
000070 b1 29 2a 3e c1 06 12 be e3 f9 a3 bb 20 d3 f3 3d
       0.16617467 -0.14260389 -0.005004154 0.11905503

state_encoder.sentiment_encoder.0.weight f4 [16, 2]
000000 bc e0 3f be 3c 2e ad bb 44 d2 57 be 99 ff 13 3e
       -0.18738073 -0.0052850526 -0.21076304 0.14452972
000010 4c c1 49 3e 51 f2 8a 3d d3 5d 95 bf a1 66 ab 3e
       0.19702643 0.067844994 -1.1669258 0.33476737
000020 e7 93 0b 3e 20 12 ba bb 4d 0b 99 be 74 d9 e9 3e
       0.13630639 -0.00567843 -0.29891434 0.45673716
000030 a9 2a 52 be 56 03 14 bd 32 ca 07 bf ed 87 44 be
       -0.20524086 -0.036135994 -0.530429 -0.19192477
000040 5d 59 8d 3d a6 45 e6 3b e8 c4 82 3e 1f 54 d6 3d
       0.0690181 0.0070273457 0.25540853 0.104652636
000050 2e 57 88 3f aa ce 80 bd eb a3 56 be fd 94 dd 3d
       1.0651605 -0.06289418 -0.20960967 0.10819433
000060 b2 2e af be 81 d0 63 be da 1b c1 3e c0 35 69 bf
       -0.34215313 -0.22247507 0.37716562 -0.9109764
000070 d4 2d 1b bf e0 b3 8d be 3e a0 ff 3c 1c fb 24 3f
       -0.60616803 -0.27676296 0.03120434 0.6444566

state_encoder.sentiment_encoder.0.bias f4 [16]
000000 6f 12 f5 bd 25 22 ea bd 01 57 4b 3c a4 33 db bd
       -0.119664066 -0.11432294 0.01241088 -0.10703209
000010 99 8f 03 be f7 b0 c0 bc b3 7e 3b 3e ef 72 b7 3d
       -0.12847747 -0.023521883 0.1831005 0.08957469
000020 10 d7 c8 3d 29 aa 3d 3c 36 f0 33 3e 8d af 2d be
       0.09806645 0.011576214 0.17572102 -0.16961499
000030 1b c6 dd bd 5e ac 17 bd 50 45 49 bd 7d 5e 1d 3e
       -0.10828801 -0.037029617 -0.049138367 0.15368076

state_encoder.fusion.0.weight f4 [64, 64]
000000 04 4f 9c 3e 26 a5 d4 be 91 09 e6 be df 2c b6 3e
       0.30529034 -0.41532248 -0.44929174 0.3558111
000010 97 34 af 3e ae c8 b1 be 9b 84 03 be cd 46 c1 3e
       0.3421981 -0.3472342 -0.12843554 0.3774933
000020 62 8e d6 3e 05 e9 cd be df 0d 26 3f 01 35 b0 3e
       0.41905504 -0.40216842 0.64864916 0.3441544
000030 e1 6a 02 3f 9a 1f 28 3e 8b 5f a7 3d 7f 33 08 3f
       0.50944334 0.16418305 0.0817252 0.53203577
000040 6c 5a 3a be 75 68 c8 be 3e 81 6a 3d 49 fa ec bd
       -0.18198556 -0.39142194 0.05725216 -0.115711756
000050 ce 58 d9 bd 36 2e ec bc 0d 4e 20 be 68 45 55 bd
       -0.10612641 -0.028830629 -0.15654774 -0.052068144
000060 36 b8 c1 bd fd 7a 3f 3e b6 b1 8f 3d ba 79 31 bc
       -0.094589636 0.1869926 0.070163175 -0.0108322445
000070 b9 55 83 bd 1c 5c 9e bd 95 19 12 3d 71 4f 78 bd
       -0.06412835 -0.07732412 0.03566893 -0.060622636
000080 36 a9 e6 3d a9 84 96 3d 65 79 0c be df cd ae bd
       0.11262743 0.07349522 -0.13718183 -0.085353605
000090 c0 af 62 be f4 d1 8e 3d dc ee 0d be fd 6a 5d bd
       -0.22137356 0.06973639 -0.13860649 -0.05405711
0000a0 bd 1e 9c 3d db 56 06 be 6b f0 47 3d e7 1e db bd
       0.0762305 -0.1311907 0.048813265 -0.106992535
0000b0 40 15 ac 3d 2f 11 06 bd 2b 1c d1 bd b6 c0 d9 bb
       0.084024906 -0.03273123 -0.10210451 -0.0066452874
0000c0 fa cc 66 bc cd b8 12 be b2 6a 98 bd c7 b0 03 bf
       -0.014086956 -0.14328308 -0.074422255 -0.51441616
0000d0 0d 06 ea be 2e 36 9e be dc 66 86 bd 06 85 41 3e
       -0.4570774 -0.3090071 -0.065625876 0.188984
0000e0 a0 32 de 3e 9d 18 08 be 69 4c 28 3f 37 4e 86 be
       0.43398 -0.13290639 0.6574159 -0.26231548
0000f0 c2 1a a3 be d0 ba 2b 3e d3 d5 02 3f 19 45 68 3c
       -0.31856352 0.16770482 0.5110752 0.01417663
000100 47 7a 10 3e a2 4d f5 be 74 10 34 bf 29 1c e8 3e
       0.14109145 -0.47910792 -0.70337605 0.45333984
000110 14 f3 40 3d 4f 07 22 be f5 9d 93 bd e6 05 e3 3e
       0.047106817 -0.158231 -0.07207862 0.44340438
000120 fa 98 20 3f fb 0d 9d be ec 47 bd 3d 05 08 41 3e
       0.62733424 -0.3067473 0.09242234 0.18850715
000130 de 67 f8 3e 02 28 94 3e a8 40 a8 3d 47 4f 10 3e
       0.48516744 0.28936774 0.08215457 0.14092742
000140 3d f6 a7 bd 12 e2 6f 3b 92 40 cc bc 71 08 ea bc
       -0.08201263 0.0036603254 -0.024933133 -0.028568478
000150 55 26 ed be 36 80 69 3e d4 ff 14 3a 83 8e 9d 3e
       -0.46318308 0.22802815 0.00056838733 0.3077279
000160 d1 2b 98 be 7f 99 7d bd 1b d0 80 3e 3f a8 97 3e
       -0.2972093 -0.061913963 0.25158772 0.2962055
000170 93 99 cb 3c 9f ac fb 3d d4 5f 3d 3e f3 be 53 be
       0.024853503 0.12288784 0.18493587 -0.2067831
000180 f0 68 d3 bd f4 b5 9e bd 29 a6 dc bc a9 82 c2 ba
       -0.103227496 -0.077495486 -0.0269347 -0.0014839965
000190 cf c2 4d 3c 5b 5a 90 be 64 4d 2c be 27 90 30 be
       0.012558653 -0.28193936 -0.16826397 -0.1724249
0001a0 6f 1e 40 bc 2b d5 9a 3e f2 77 a8 3e 25 6e a6 bd
       -0.011726006 0.3024076 0.3290401 -0.08126477
0001b0 f1 f3 28 3e 2f 6c 8e be 48 08 4b 3d ad 11 64 be
       0.16499306 -0.27816913 0.049568444 -0.22272368
0001c0 6f f4 97 be d3 15 dd bd d5 ce a7 bd e8 b9 1e bf
       -0.29678676 -0.10795178 -0.08193747 -0.6200242
0001d0 93 34 fe bc cf 24 c6 be 3c d7 91 3e 78 e9 ac 3e
       -0.031030929 -0.38699958 0.28484523 0.33771873
0001e0 09 3c 18 3e c7 22 94 bd d5 fe 38 3c 33 bf de bd
       0.14866652 -0.07233196 0.011291225 -0.10876312
0001f0 9a 7b 85 bd 5c 21 75 3e 40 cd 0c 3e 4c 00 dc bd
       -0.06517716 0.23938507 0.13750172 -0.10742244
000200 56 1f 1c 3e 1b fb 5e be 20 b0 1d bf ab 92 ad 3e
       0.15246329 -0.21775477 -0.6159687 0.3390096
000210 1d 2c 83 3d ec 87 90 be 70 7f 10 be d9 6b 87 3d
       0.06404898 -0.282287 -0.14111114 0.06612367
000220 d0 05 75 3f 93 72 62 be fa 60 1a 3e ed 00 e6 3e
       0.95711994 -0.22114019 0.15076056 0.4492258
000230 10 07 91 3f b8 0e 0e 3e 86 79 a9 be 13 90 b2 3e
       1.133028 0.13872802 -0.33100528 0.34875545
000240 71 b7 a8 3e ff 98 de be c4 4c 46 3d f5 60 ad 3e
       0.32952455 -0.43476102 0.048413053 0.33863035
000250 54 83 c7 3d 9b f4 6d bd f1 4d 78 3e e3 b5 88 be
       0.09741846 -0.058094602 0.24248482 -0.2670127
000260 4c 7c 24 3e b2 88 47 be 54 6d a7 3e 44 e6 12 3e
       0.1606304 -0.19485739 0.32700598 0.14345652
000270 e0 84 3c 3e 51 db c1 3e 3d 0a 22 be 07 be 19 bc
       0.18410063 0.37862638 -0.15824218 -0.009383685
000280 80 f9 29 bd 95 b0 de 3e 90 39 5e bd 0e c7 58 3c
       -0.041497707 0.43494096 -0.054254115 0.013231052
000290 b2 97 8e bd c4 bd 96 3d bd ff d4 be 58 23 9d be
       -0.06962527 0.07360414 -0.41601363 -0.30691028
0002a0 ed 39 61 3e 26 97 0a bb 41 b3 6b 3c 53 f9 d8 bd
       0.21994753 -0.002114722 0.014385999 -0.1059443
0002b0 f3 1a 4e 3d 85 f7 32 be 02 bf 37 3e d6 8c 7b 3e
       0.05031867 -0.17477234 0.17943957 0.24565443
0002c0 56 c5 c2 bd 09 57 22 be 1b 57 0e 3e 68 e9 d4 be
       -0.09510295 -0.15853514 0.13900416 -0.41584325
0002d0 d9 17 9f be e8 8a cb bd ce f8 71 bc d6 56 01 bb
       -0.31072882 -0.09938604 -0.014768792 -0.0019735596
0002e0 31 56 05 bd 60 fd c0 bd 82 08 c1 3e b9 26 67 be
       -0.0325529 -0.094233274 0.37701803 -0.22573365
0002f0 7b 8a 34 be 09 fe 32 be 10 ee 94 be 8d ab 40 bd
       -0.17630951 -0.17479719 -0.29087877 -0.047038604
000300 8c c3 8d be 10 33 d4 3e e2 f6 b7 3e 94 59 ab be
       -0.27688253 0.41445208 0.35930544 -0.3346678
000310 3b 4b 98 be 71 cf 82 3e db 1e 30 3e 01 ce ba be
       -0.29744896 0.2554889 0.1719927 -0.36485294
000320 70 aa 18 bf 66 78 4d 3e 85 d9 0a bf 1d b7 c4 be
       -0.59635067 0.2006546 -0.5423816 -0.38420954
000330 4b ff b6 bf 45 fd 92 be 84 84 ec 3d 49 bd 17 bf
       -1.4296659 -0.28708854 0.11548713 -0.592732
000340 9c dc d8 bd 44 91 02 bd de 9f d1 bc 50 89 8f 3d
       -0.10588953 -0.031876817 -0.025588926 0.07008612
000350 42 4d f7 3d 14 f9 cd be 25 30 d4 be 1a d0 36 be
       0.12075283 -0.40229094 -0.4144298 -0.17852822
000360 d3 bb aa 3c c5 40 8e 3d a6 1e 2f be 9c 1d 9f bd
       0.020841515 0.069459476 -0.17101535 -0.077693194
000370 c7 a0 eb bd d4 31 87 3e 6b 36 83 bd 61 6d 1d be
       -0.11505275 0.26405203 -0.06406864 -0.15373756
000380 c6 9a d0 bd 80 aa 43 be 24 c3 37 3e de 61 54 be
       -0.10185771 -0.1910801 0.17945534 -0.20740458
000390 58 26 81 be fc c7 3d be 3c c0 06 3f 86 f2 14 be
       -0.25224566 -0.18533319 0.52637076 -0.1454564
0003a0 76 0a 51 be 69 9d 13 3d eb 12 75 be 07 1d c1 3d
       -0.20414147 0.03603879 -0.23932998 0.09429365
0003b0 dc 0a 96 bd c6 0e ba 3e af 00 64 3e d3 d6 07 be
       -0.0732629 0.36339396 0.22265886 -0.13265543
0003c0 26 d2 0e 3e 59 6e 28 3e e6 48 b9 be 2b af db 3e
       0.13947353 0.16448344 -0.3618843 0.4290708
0003d0 72 f4 bc bd 7b 63 0a be 2f da 37 be f1 a9 87 3e
       -0.09226312 -0.13514511 -0.17954324 0.26496843
0003e0 00 c6 ad bd 88 69 c5 3d 82 da 20 bf eb e9 16 3f
       -0.08485031 0.09639269 -0.62833416 0.5895068
0003f0 14 03 5d 3e 68 08 1b be 6c 71 bd 3e 86 71 f0 bd
       0.21583205 -0.15139925 0.37000597 -0.11740403

state_encoder.fusion.0.bias f4 [64]
000000 dd 35 ec 3d f9 8d 2b 3e cb 94 ab 3e 2d cb 98 be
       0.11533711 0.16753377 0.33511958 -0.2984251
000010 6c 87 95 3d 5d f7 ac 3e 82 a9 72 3e b3 e2 8c be
       0.0730122 0.33782473 0.23697475 -0.27516708
000020 f5 f6 56 3e b8 11 a2 3e 5f 11 ee bd ef 0d 99 3e
       0.20992644 0.31654143 -0.11624407 0.29893443
000030 bc e8 c1 bc 17 aa 70 3e a4 bb 6b be 21 5c 97 bd
       -0.023670547 0.23502384 -0.23020798 -0.07390619
000040 fb 2f 86 be 81 2b 05 3e 01 56 1a 3e dd da 19 3d
       -0.2620848 0.13004877 0.1507187 0.03756224
000050 bd 24 4a be 77 1b 61 be 37 b1 00 be 5d ff 70 be
       -0.19740577 -0.21983133 -0.12567602 -0.23534913
000060 eb ba 78 3e 1d 34 b1 3d 39 8d 48 be e8 75 80 be
       0.24290054 0.08652518 -0.19585122 -0.25089955
000070 d0 a2 c5 bd ce 7c 1f be f5 73 49 3d 8f 6e c8 3c
       -0.09650195 -0.15574953 0.04918285 0.024466781
000080 63 73 2c 3e 6b b8 62 be 87 f7 8d 3e e0 52 04 3d
       0.16840892 -0.22140662 0.2772791 0.0323056
000090 fc 27 7c 3e f6 cd 94 3e 78 7f d1 3e 98 4d a2 3e
       0.24624628 0.29063386 0.40917563 0.31699824
0000a0 41 af 86 3e b3 26 36 be 91 03 b1 be d1 e8 a4 be
       0.26305583 -0.177882 -0.34573033 -0.32208875
0000b0 2a 84 50 3e 47 1f 8e 3e 94 40 2c bd 04 c7 9c be
       0.20362917 0.27758238 -0.042053774 -0.30620587
0000c0 a2 ab b6 be 1d f4 ae 3e c2 46 87 3e 54 e8 9c bd
       -0.3567782 0.3417062 0.2642117 -0.076615006
0000d0 30 c5 28 be 60 80 b3 be cd ce 12 be 0e 08 3e 3e
       -0.16481471 -0.3505888 -0.143367 0.1855776
0000e0 b7 f3 3c bd 24 72 61 3e 1b c6 d1 3d 8f 8e 41 3e
       -0.046130862 0.22016197 0.10242864 0.18902038
0000f0 d4 c1 71 be 59 2c a5 3e d8 aa c0 be 28 69 92 be
       -0.23609096 0.32260397 -0.37630343 -0.28595853
