data/results/test_training/checkpoints/checkpoint_0000.pth (torch, 198635 bytes, 39 tensors)

shared_backbone.0.weight f4 [64, 2]
00000000: 0359 b8bc 7186 e9bd 942c 9d3c d9c3 a43d
00000010: a68a 02be 2aa2 5c3e 21a3 ecbd 67ec 4b3e
00000020: dd46 8cba 6fcc 2abe 125f 563e 2a62 d33d
00000030: 331b e03d 37ec 54bc bde2 cf3d db9e 003e
00000040: a749 fdbe cf41 9dbe f8e0 0abe 3c6b 59bc
00000050: bdce febd ef61 56be 375b 59bd 7258 18bd
00000060: 7631 673c 5992 033e 3154 5ebe 8ecc d9be
00000070: e486 a2be 391b 9ebd 3fdd 04bf c9f1 713c
00000080: 9f85 243e b4cd 02be a045 1a3e 61aa 34be
00000090: c5b2 0b3e d6e7 70be 60c8 45be 68de 593d
000000a0: 5e4b b13e b0f5 1fbe d7f0 1a3d f289 e1be
000000b0: e4a1 42bd 22c1 5dbe 81a1 863d e3e0 c4be
000000c0: 0fdc 893e ffe3 08be c5ee dd3d d6bb 99bc
000000d0: f443 bfbb 0364 1e3e a532 49bd bb7c c2bd
000000e0: 938d 5c3d 04a2 8c3d abbc 35bd a164 00be
000000f0: cd3e 53bd 2d24 dcbc 37d4 27bb ca7a 75be
00000100: 431c f0bd 6216 ddbd 406a babd 6bca d83b
00000110: e477 8c3e b1a7 0cbe 60e0 38bd 41a5 133d
00000120: 1d0c a4bc 3718 01be 7895 743c 5cef bdbe
00000130: e143 f7bd c429 23be adb4 713e a92a 73be
00000140: 4bed d13d 7ca7 a13c ac87 e83d 5d8c c1bd
00000150: 9729 15be 5e87 483d 6438 2ebb 4361 2ebe
00000160: cbac 9a3d d806 bbbe b8b4 ac3c 95e1 c3be
00000170: deac 32bd 93b3 57bd 187b 723e a838 a83d
00000180: 46dc ccbc 1c0b ec3d e81f a0bd 41bf 7e3c
00000190: 8525 8b3e e467 28bc 5e8c 1dbc 0f5f 8bbd
000001a0: aa73 4a3e ab56 14bd 614c debe fa7e d0bc
000001b0: 7b13 08be 2b5a 243d 7147 743e 63ef e33d
000001c0: 583f aebe 4856 0b3e c4c7 18be d7d4 f0bc
000001d0: 6648 67bd 8143 10bd b9fd 04bd a737 f5bc
000001e0: 8301 2bbc 30f9 98bd 3df9 ab3d 596c 28be
000001f0: 4885 3a3c 2502 cfbe ad84 4f3d 3357 513e
-0.022503382 -0.11402596 0.019186296 0.080451675 -0.12748203 0.21546236 -0.11554552 0.19914399
-0.0010702271 -0.16679548 0.20934704 0.10321458 0.10942688 -0.012995771 0.10150669 0.12560599
-0.49470255 -0.3071427 -0.13562381 -0.013270196 -0.12441776 -0.20935796 -0.053065505 -0.037193723
0.0141109135 0.12848796 -0.21711804 -0.42538875 -0.31743538 -0.07720036 -0.51900095 0.014767119
0.16066597 -0.12773782 0.15065622 -0.1764312 0.13642414 -0.23525938 -0.19314718 0.05319062
0.34627813 -0.15621066 0.03782734 -0.44050556 -0.047517672 -0.21655706 0.06573773 -0.38452825
0.26925704 -0.13368224 0.10836557 -0.018766325 -0.005836958 0.15467839 -0.049120564 -0.09496447
0.053845953 0.068668395 -0.04436938 -0.12538387 -0.051573563 -0.026872719 -0.0025608668 -0.23972622
-0.117241405 -0.10795285 -0.09102297 0.006615927 0.2743522 -0.13735844 -0.045135856 0.03604627
-0.020025307 -0.12606893 0.014928214 -0.3709668 -0.12073494 -0.15933901 0.23604079 -0.23746742
0.10250338 0.019733183 0.11354002 -0.094506 -0.14566647 0.04895722 -0.0026583904 -0.1702929
0.07552489 -0.3652866 0.021082267 -0.38258043 -0.04362189 -0.05266149 0.23679769 0.08213931
-0.025007378 0.115255564 -0.07818586 0.015548528 0.27177063 -0.010278676 -0.009615986 -0.0680524
0.19770685 -0.036215466 -0.43417647 -0.025451172 -0.13288681 0.040125053 0.23855378 0.11129644
-0.34032702 0.13607132 -0.14919955 -0.029398365 -0.05646553 -0.035220627 -0.03246853 -0.029933764
-0.010437372 -0.07469404 0.08397148 -0.16447581 0.011384316 -0.40431324 0.05066364 0.2044342

shared_backbone.0.bias f4 [64]
00000000: 0000 0000 3022 c03c 601d 8dbc 7325 01bd
00000010: ec97 52bd 69d0 e5bd e79f f03c e9bb a6bd
00000020: 0000 0000 f49d 74bd 0000 0000 dc92 74bd
00000030: 2bb2 d13d 0000 0000 0000 0000 9d1d 1abd
00000040: 0e4d 76ba 7177 61bc b5da e93c eac2 50bc
00000050: fd11 bdbd 494e a6bc c39c 74bd 1aa4 d13c
00000060: 3cf3 adbd da64 33bd 5ed9 a2bd 0000 0000
00000070: 11c6 2e3c 0000 0000 0000 0000 0000 0000
00000080: 0000 0000 7e5a 2fbd d094 623b 4f30 c3bd
00000090: bad3 bcbd 9491 6fbc 0000 0000 9650 e6bc
000000a0: 8af1 263d 958e 9a3d 8e41 01bd cc26 043d
000000b0: 4462 993d 2852 b1bd 449e 74bd 8c5b 173c
000000c0: 0994 9bbd 4a9e 74bd 18a3 a5bd 1cad fdbc
000000d0: 568f 143d 0000 0000 4a9e 74bd acc4 5a3d
000000e0: 229d 74bd 0000 0000 689e 74bd 0000 0000
000000f0: 0000 0000 99eb 643d 0000 0000 6a40 883d
0.0 0.023453802 -0.017225921 -0.031529855 -0.051414415 -0.11221392 0.029373122 -0.0814131
0.0 -0.05972095 0.0 -0.05971037 0.10239061 0.0 0.0 -0.037625898
-0.00093956373 -0.013761387 0.02854667 -0.012741784 -0.092319466 -0.020301001 -0.059719812 0.025590945
-0.08493659 -0.04379735 -0.07951616 0.0 0.01066734 0.0 0.0 0.0
0.0 -0.04281091 0.0034573562 -0.095306985 -0.09220071 -0.014622111 0.0 -0.028114598
0.040757693 0.075467266 -0.03155666 0.032263562 0.07489446 -0.08658248 -0.059721246 0.009238135
-0.07596595 -0.05972127 -0.08087748 -0.030966334 0.03626951 0.0 -0.05972127 0.053410217
-0.059720166 0.0 -0.05972138 0.0 0.0 0.055888746 0.0 0.06652911

shared_backbone.2.weight f4 [64, 64]
00000000: 04de e6bd 69d3 553e cda3 88be f90a e13e
00000010: 4c7e 283c 4140 98bd adfa b7bd a93e 4ebe
00000020: a503 9e3c 6041 5dbd 7225 4ebd 5253 893d
00000030: ef63 8abe b1f3 42be a4b0 ff3d b36f d33d
00000040: 297b aa3e 9d11 133e 4c11 50bd 98a5 0ebe
00000050: fe8e 06bd c4a0 02bf 55a5 843d 27a1 88be
00000060: 06d4 60be 33ac 6f3e 1ea0 f0bd 7e51 96be
00000070: 2d33 a7bc 8c7a 773e 3f8d fc3d fe12 b9bd
00000080: 8acc 34be 0ab9 52bd 95a5 403e 95c7 a9be
00000090: 2471 89be b962 66bc 179e 793e 7682 debd
000000a0: 094d 61bd 6f2c 0fbe 12ab 20be 85cb 853d
000000b0: fd87 24be d09a 8abd 4273 e7bd 15a1 b6be
000000c0: 07fa e1bd 5220 0d3e ec87 7abe 7609 7f3d
000000d0: bf52 10bc 41c5 2fbb c4f4 69be 3fcf 45bd
000000e0: 4833 efbd 26c6 533e fafd 103e 32e2 aa3e
000000f0: 2503 7abc 6294 c6bd c425 813e 2532 aebd
00000100: d02f 07ba 6d0c 59be 1528 8e3d efcc ba3e
00000110: e312 9fbe 3458 033c c2ee 6ebe 470d 47be
00000120: ffc6 3c3e 4c39 abbe 60bf a03e 7391 e6bd
00000130: 182e 203e 630f 21be 0d8a df3d a2db 9b3c
00000140: 5df5 843d 8add 7e3e df91 5f3e 4290 563e
00000150: 2930 743d 6f6f 3bbe d9e9 3d3e a4bb fa3d
00000160: ec54 1abd d93f 46bd 0ca0 83be d19f 5d3c
00000170: e745 4bbe a138 a6bd e790 fbbd 1beb 7b3e
00000180: 36c3 643d 838a b8bd 56f5 c1bd a403 ccbd
00000190: 7427 9a3d 60ed df3d 6781 40be 911e 77bd
000001a0: 82c8 dbbe 4436 8fbe 93bf ecbd e3b2 96be
000001b0: c70c 07be 0f76 92be 176d 05be d6c8 26bd
000001c0: bcc7 90be b3e7 1f3d ecaa c0be d553 17bd
000001d0: fd63 8bbd 9704 843e b841 8dbd 2d4a 7d3e
000001e0: cc79 0cbd 5bd1 87be 2cef f0bd 7768 91be
000001f0: a979 0f3c b1a2 07be 6f9a eabd 340d 18be
00000200: 7db3 a1bd 786e ca3d dd7e debd 79e0 01be
00000210: 5cf3 2dbe 7081 73be 7a6b 25bd fc03 4ebe
00000220: 9f2b 23be 480b 48bd ada3 653c d904 a73d
00000230: c20e b83e 3d5d 8cbe cde6 b9bd 6531 473e
00000240: 6268 fd3d 1266 de3d 4c70 d2bd 5cd9 843d
00000250: b43a ab3b b5a7 4f3e 16cc 84bd af94 e5bd
00000260: 1398 a73e 3837 603e 53d4 a2bd 03ed 07be
00000270: e19b dabe 5edc 9fbc 7781 0b3c 1632 bebd
00000280: 5095 57be 891a 62bd 7209 93be 77b7 07be
00000290: 9bc0 d4bd 755f 28be 8fdb c33c 4dcb a3be
000002a0: af12 f4bd 2ef1 2cbe 2aa9 5a3e 02c2 18bd
000002b0: 401b 20be c84e ef3d 1ea9 d43c dabb 8ebd
000002c0: 1e58 f73c 5c07 28be 0814 4f3d 1eee 19be
000002d0: c27d dfbe 08c6 0bbe 1a09 d63e 118e cfbd
000002e0: 77e3 eebd 331a 653e e974 59bd f01d 853d
000002f0: 2bbd 643e e5e1 c5be 2ef9 b4bd eba4 f9bd
00000300: e918 0abc 6122 43bd 00e4 16be 7086 c53d
00000310: 8b87 923c 817e 673e 2228 e03d fd14 edbd
00000320: 3ad0 903e 27d3 9e3e b070 11be d2be 803e
00000330: 809b 3ebe b741 fc3d 95e5 4e3e 9b68 0d3d
00000340: a43a 45be c5c0 a13c bac0 433e 577e 65bd
00000350: 783c 063e 8559 14be 3262 ad3c 5fc6 be3d
00000360: f0e6 7d3e 2714 46be 3dea 28be 55d7 98bb
00000370: fecb fcbe 04b7 22be 33ef 53bd 804b 923c
00000380: 0e9f 23bd a37d d9bb 8cf8 f3bd f573 27bd
00000390: 1f2d a33e d43a 843e 3cbb 5c3e 571d 0bbe
000003a0: d684 26bc 488e 7b3e a5c5 57be d21c bf3d
000003b0: 92d8 4a3e 152f f6bd 67e2 26be a179 99be
000003c0: e523 893e 7b84 873e 0672 083e e9d4 d83d
000003d0: 4284 61be fd8a 35be 3623 4abd a97a 59be
000003e0: 7209 2cbe da56 a13d f1bb b5be bbf1 4dbe
000003f0: 18e5 243e dc35 eebd f112 213e d6f9 f7bd
-0.11272815 0.20881428 -0.2668747 0.43953684 0.010284018 -0.074341305 -0.089833595 -0.2014109
0.019288847 -0.054017425 -0.05032868 0.06705345 -0.27029368 -0.19038273 0.124848634 0.10324039
0.3329709 0.14362188 -0.050797746 -0.13930357 -0.03285121 -0.5102656 0.06476847 -0.2668545
-0.2195588 0.23405533 -0.1174929 -0.2935905 -0.020410145 0.24167842 0.12331628 -0.090368256
-0.1765615 -0.051446 0.18813165 -0.33160082 -0.26844132 -0.014061623 0.24376713 -0.10864727
-0.055005107 -0.13981794 -0.15690258 0.06532959 -0.160675 -0.067678094 -0.113012806 -0.3566977
-0.11034017 0.1378186 -0.24465913 0.062264882 -0.008808791 -0.0026820453 -0.22847277 -0.04829335
-0.11679703 0.20681056 0.14159384 0.33375698 -0.015259539 -0.096962705 0.25224125 -0.08505658
-0.0005156966 -0.21196146 0.06941239 0.36484477 -0.31069097 0.008016635 -0.23333266 -0.19438659
0.18435286 -0.33442152 0.31396008 -0.11258211 0.15642583 -0.15728526 0.10915003 0.019025628
0.06492112 0.24889198 0.21832989 0.20953467 0.05961624 -0.18304227 0.18546237 0.12242821
-0.037678644 -0.048400734 -0.25708044 0.013526873 -0.19850884 -0.0811627 -0.12283497 0.24601404
0.05585023 -0.09010794 -0.09470622 -0.09961632 0.07527056 0.109339476 -0.18799363 -0.060331885
-0.42926413 -0.2797109 -0.115599774 -0.29433355 -0.13188468 -0.28605697 -0.13029896 -0.040718876
-0.28277385 0.039039325 -0.37630403 -0.036945183 -0.068061806 0.25784752 -0.068973005 0.24735327
-0.034295842 -0.26526913 -0.117643684 -0.28400013 0.008757033 -0.13245656 -0.11455237 -0.14848787
-0.07895563 0.098843515 -0.10864041 -0.12683286 -0.16987365 -0.23779845 -0.0403857 -0.20118707
-0.15934609 -0.048838884 0.014016074 0.081552215 0.3594876 -0.27414885 -0.09077225 0.19452436
0.12373425 0.10859312 -0.10275325 0.064867705 0.005225504 0.20278819 -0.06484239 -0.1121
0.3273321 0.21896064 -0.07950654 -0.13274007 -0.4269705 -0.019514259 0.008514754 -0.09286897
-0.21053052 -0.055201087 -0.28718144 -0.1325358 -0.10388299 -0.16442664 0.023908405 -0.31991044
-0.11917626 -0.16888878 0.21353593 -0.037294395 -0.15635395 0.11684948 0.025959548 -0.069694236
0.030193385 -0.16409057 0.050556213 -0.15032241 -0.43650633 -0.13649762 0.4180382 -0.10134519
-0.11664479 0.22373275 -0.05309001 0.06499851 0.22337787 -0.38648906 -0.0883659 -0.12189659
-0.008428791 -0.04764021 -0.14735413 0.096447825 0.017886898 0.22606851 0.10945155 -0.11576269
0.28283864 0.3102047 -0.14203143 0.25145584 -0.18614006 0.123172216 0.20204766 0.034523588
-0.19260651 0.01974524 0.19116488 -0.05602869 0.13109004 -0.14487274 0.021164987 0.0931518
0.24795127 -0.19343625 -0.16495605 -0.0046643415 -0.49374384 -0.15890127 -0.05174179 0.017858267
-0.03994661 -0.0066372915 -0.11912641 -0.04088207 0.31870362 0.25826132 0.21555799 -0.13585411
-0.0101635065 0.24565995 -0.21071489 0.09331669 0.19809178 -0.12020699 -0.16297303 -0.29975608
0.26785198 0.26468262 0.13324746 0.105874844 -0.22023109 -0.17728801 -0.049349986 -0.21238197
-0.16800478 0.07877894 -0.3549495 -0.20111744 0.16103017 -0.116313666 0.15729882 -0.12108199

shared_backbone.2.bias f4 [64]
00000000: 4d9e 74bd 782c 62bd 64bc 18bd a7eb cfbc
00000010: 0000 0000 0000 0000 0000 0000 89b6 d73d
00000020: df9c 74bd b7bd f43b 4fdf 8c3d 3e6a 373d
00000030: 78fb 813c 81db 0a3d 2736 9a3d 0000 0000
00000040: aa82 67bd e5d4 90bc 9844 59bd 27c1 6a3d
00000050: f99d 74bd e2a5 873d e09d 74bd fd9c 74bd
00000060: 2fd8 2e3d 0b81 093c ae8f 74bd a3a1 de3d
00000070: 5b4b 843c 1d6c b0bd 01fd 813d 0000 0000
00000080: 0000 0000 299e 74bd a958 7abd 27f0 89bd
00000090: 0000 0000 7295 3a3c 0000 0000 0c54 59bd
000000a0: d0ab 913d 859c 74bd 6f24 9fbd 4b86 1f3d
000000b0: be97 5cbd 339c 74bd 9767 8fbc d157 68bd
000000c0: 3aa9 60bc 5f59 54bd 0000 0000 f9bf f53d
000000d0: c6e1 c13a 07b3 54bc 6989 a43b 0000 0000
000000e0: cb8f 1fbd e29c 74bd f999 74bd 4364 993d
000000f0: 9207 98bd 4487 d6bd 0000 0000 bcd1 b7bd
-0.05972128 -0.05521819 -0.03728904 -0.025380922 0.0 0.0 0.0 0.10532863
-0.059719916 0.007468905 0.0687853 0.044779055 0.01586698 0.03390074 0.0752986 0.0
-0.056521095 -0.017679641 -0.05304393 0.05731311 -0.059720967 0.066234365 -0.059720874 -0.05972003
0.042686637 0.008392583 -0.059707336 0.108706735 0.016149214 -0.08614371 0.06347085 0.0
0.0 -0.059721146 -0.06111971 -0.067352585 0.0 0.01138817 0.0 -0.05305867
0.07112849 -0.05971958 -0.07770621 0.03894643 -0.05385565 -0.059719276 -0.01750545 -0.056724373
-0.013712222 -0.051843043 0.0 0.119995065 0.0014792017 -0.012982137 0.0050212634 0.0
-0.03895549 -0.059719928 -0.059717152 0.074898265 -0.07423319 -0.104750186 0.0 -0.089755505

goal_head.weight f4 [2, 64]
00000000: 0c15 80bd 5228 a4bd 4cd1 7d3b d9a2 89bc
00000010: 3979 9abc 2320 153d 08c5 9d3e f3d0 babe
00000020: 7ae9 f0bd b16d afbc b7d0 8dbe ee70 bebd
00000030: 7eb6 293d 6c12 5abe 26c1 3dbe 0a0b ce3d
00000040: 4bc2 72bc 1ac4 9c3d 883f e6bd 1a01 d13d
00000050: dede d8bd 3312 8ebe 61e4 4c3d 7322 cc3d
00000060: 90f9 c3bd ec53 893e ff4a 9bbd e8ee c8be
00000070: b156 8e3d efdb 20be dfd5 a83e f0f2 a13e
00000080: 9333 ce3c e8dc b83d e2c0 3abe 559f b6bd
00000090: 4a0b 70bd eb17 92bd ad2a 843e f5bc 06be
000000a0: 002f 92be 68b9 143e 1747 9d3e b36e 193e
000000b0: a7c1 2abd 3013 923e 5aa6 36bc 6f04 ad3e
000000c0: 65b3 863d 4387 6fbe 33a6 e23d 7f3c d3be
000000d0: 0c68 6fbd a306 a83e c081 4f3d 7009 313e
000000e0: a355 293e db58 903e e5fd a33d c657 ffbe
000000f0: 34f7 38be 0c29 743d 8169 60be 86e9 7a3d
00000100: f7c4 6d3e 8dc3 9abe 9354 a03d a50f c9bb
00000110: bd07 403e 6940 9ebd 1c98 47be c76e 2a3e
00000120: 7fad 19be 8c22 0d3e 8ed5 5b3c 7005 1f3e
00000130: 5ee5 c43d 0f6f 72bc 65f0 8d3e 4f8e ed3c
00000140: 560e 1dbe 284a 983d f203 a5bb 483f e83e
00000150: face 99bd c883 4e3d 5174 e03d 258a 7cbe
00000160: 2fbc 6d3e dec0 253e 1603 30bd afd7 ca3e
00000170: 7a51 b5be 5fbf 13be c3bf f5bd dc84 043e
00000180: 3c87 45be 99a9 803d 5529 91be 95e0 89bd
00000190: 83da 9a3c 64bc 763d 6325 16be 75d5 013c
000001a0: 192d 5c3e 8e5b b83d 16a5 2d3e bbe8 9d3e
000001b0: c609 363d 2071 3ebe 2f91 423e e438 6cbe
000001c0: df1a 843d 2a10 dbbd 09d1 b43d f826 873e
000001d0: aab4 ffbd 8f6d 90be 113d 923d 9376 3cbd
000001e0: dc5b de3d 384f 733e 82b3 85be 098e 0c3d
000001f0: bc71 dbbe a5eb 703d 5478 7cbe e156 573d
-0.062540144 -0.08015503 0.0038729487 -0.016801285 -0.018856632 0.0364076 0.30814385 -0.3648754
-0.11763282 -0.02141461 -0.276983 -0.092988834 0.041433804 -0.2129609 -0.18530712 0.10060699
-0.014816831 0.07654591 -0.112425864 0.10205288 -0.105893835 -0.2774826 0.050022487 0.09967508
-0.09569085 0.2682184 -0.07582664 -0.3924477 0.06950129 -0.15708898 0.3297567 0.3163066
0.025171077 0.090265095 -0.18237641 -0.08917109 -0.058604516 -0.07133468 0.2581381 -0.13158019
-0.28551483 0.14523852 0.307183 0.14983635 -0.041688588 0.28530264 -0.01114806 0.33792445
0.065771855 -0.23391442 0.11066856 -0.41257092 -0.058448836 0.32817563 0.05066085 0.17288756
0.16536574 0.2819279 0.08007411 -0.49871653 -0.1806305 0.059609458 -0.21915247 0.06125786
0.23219667 -0.30227318 0.07828631 -0.006135898 0.18752952 -0.07727129 -0.19491619 0.1664382
-0.1500759 0.1378271 0.013417615 0.15529418 0.09614061 -0.014796986 0.2772247 0.028998522
-0.153375 0.07436019 -0.0050358707 0.4536078 -0.07510181 0.050418645 0.109596856 -0.24662073
0.23216318 0.16186854 -0.042971693 0.3961768 -0.35413724 -0.14428471 -0.11999466 0.12941307
-0.19289869 0.06282348 -0.28351846 -0.06732289 0.018903023 0.060238257 -0.146627 0.007924427
0.21501578 0.09001838 0.16957507 0.30841622 0.044442914 -0.18597841 0.19000696 -0.23068577
0.06450438 -0.106964424 0.08828933 0.26396918 -0.12485631 -0.28208587 0.07140554 -0.04601152
0.108573645 0.23760688 -0.26113516 0.034315143 -0.4286021 0.058818478 -0.24655277 0.05257309

goal_head.bias f4 [2]
00000000: d3f1 1ebe d5f1 1e3e
-0.15521936 0.15521939

portfolio_head.weight f4 [15, 64]
00000000: a569 83bd d6fd 96be 13f4 2bbe 38d5 94bd
00000010: 60fe 03be f8d7 293e 5989 d93d 8647 a5be
00000020: 1a75 193d f59a 1f3e 1691 c03d cd68 3b3e
00000030: 2a67 34be 3097 213e b368 0bbd b61f d8bd
00000040: 649a 3bbe 6e72 b43d f1a0 90bd de8d b8bd
00000050: d017 e43e e147 003f 7342 653e 0e20 843d
00000060: 6b6d 2b3e c2c1 00be 6895 9e3d c347 763e
00000070: 055f fb3d 75b6 aebe 216e 913e 100b 953d
00000080: a3d5 c3bc 863a 62be 49ff 2d3e c7a8 13bc
00000090: 691c a73d 89fa 33bd d21f 78ba f9b9 973d
000000a0: cb8a 68be f50e 5b3e e350 91be 8f1b 4dbd
000000b0: 770f 01be f9a0 ee3d d3f7 2bbe cbff 8f3d
000000c0: a61a 91be 04f9 e23d a0c9 c83d 73ed 9cbd
000000d0: 3859 463c f30a 953d f8f3 a53d 27ee 7e3e
000000e0: fc11 1bbe 8515 f13e 0a0f 403e 3436 8c3c
000000f0: c3c1 93bd e31e 73bd f758 9cbd 78aa b93e
00000100: 0be7 19bc 4eea a7bd 6831 853d 1943 943e
00000110: 500e efbd 7c3a 733e 9a57 f0bd fe49 303e
00000120: a3ed 33be 036a 3ebe d313 44be 3c8e e7bc
00000130: adeb ee3d 5ece 233d 175f debd 8db6 3abe
00000140: ba64 d93d 39f2 a63d e899 6d3e 9a48 403e
00000150: 55f6 be3d f995 1c3d 6453 43be da2a 383e
00000160: bd71 a03d 2285 c3bc 8d4c 85be 2da0 70be
00000170: b6b7 9f3c bc89 8e3d d27d 6d3e b155 09be
00000180: 9cd6 3e3e b892 edbd 7cb1 97bd 60aa 0abe
00000190: 0aea 05be 9c3c 86bd 19eb 173e 45c0 a5be
000001a0: 9096 3e3e ac47 e93e 3e81 acbe 47f5 1ebe
000001b0: b728 273e a6f9 b23d de6b 2a3e 529a 56be
000001c0: 4e85 1a3d bcd5 413e 7993 43bd f2cc 15be
000001d0: 73d9 1fbe a455 b13e 2fc9 08be 8258 34be
000001e0: a173 f6bd 5357 3f3e bfcb 2bbe 884d c5bd
000001f0: dacc 9d3e 7510 9dbd 7a49 1e3e b2aa d83d
00000200: 2973 bd3d 07a9 d33d 7fbf 263d 4496 f8bd
00000210: 5974 553e 0009 403e 80e0 f23d e9bc 09bd
00000220: d935 0d3e 2815 dc3d c984 083e 9edb c43e
00000230: 6e84 d63c cd37 bbbd 0e2e 1e3e d47b 04be
00000240: 45f1 15bd 306b 18be 1b79 c0bd fbf8 3d3d
00000250: 0acb e1bd fb95 aa3d e67b 353e dddf 8dbe
00000260: a70e 2b3d 578b 82be 4b2d 78bc 2d58 eebd
00000270: d1b7 42be 4ab2 d03d 308b 3cbe 695a 4ebe
00000280: 88b3 91be 0a34 1fbe 1a66 963d 67cf 13be
00000290: 1bdc 8cbe 82f7 c23d 32b6 63bc 5907 92bb
000002a0: 0c85 fb3d 364b 5d3d f0ec f23e ee55 9fbe
000002b0: 50a7 0b3e 4281 2ebe 8d0e 253d 3cf6 d7bc
000002c0: 7833 82be 2b0a 093e 6650 be3d 4979 e2be
000002d0: 1c27 fcbe c3f0 d7b9 a1da c4bd 330b 333d
000002e0: 1dcd aebd e72c 203d 370a 48bd 3202 5f3d
000002f0: b48b 153e 134d 28bd 217c 353c 4d1a 8ebe
00000300: 3fa3 86be 4c0b a0be 9584 d63d b0d0 74be
00000310: f551 c93d ee52 783e 4613 0abe eb5e 09be
00000320: d205 cc3d d2ff 2ebe 3843 70bd 4bb6 e4bc
00000330: 1b79 93be f458 be3d 9d6f 0b3e f716 823e
00000340: cfbc 763d d3de 0ebf d994 3e3e 272e 77be
00000350: 642a 2dbd 4f58 11be 34e7 5bbe 1f16 bd3d
00000360: 99ba fa3c 888c cd3d 7c1f 70be d6d9 08bb
00000370: 9451 d23d 603f a4be d8e6 0dbd a94f 80bd
00000380: cebb 8f3c 99a5 253e bbf7 3fbe 658b 55be
00000390: 79f8 08be 7ce5 89be fed8 e9bc 32ef 503e
000003a0: 2f4f 9dbe d383 42be c8a0 b9be f87b 183c
000003b0: 863c 82bc 76a2 84be 7a86 573d f70f af3d
000003c0: 52c8 36be e409 c03d 8303 9c3e 7c5c 4f3c
000003d0: 6b50 6bbc fa92 9a3d 9493 fd3d 4a4a 61be
000003e0: 74c2 97bb f0a9 25be 35e1 9a3e c5dd 413d
000003f0: ac96 cdbd 06ad 09be bdbf 3e3e c1f3 a8be
-0.064166345 -0.29490536 -0.16792326 -0.07267231 -0.12890005 0.16586292 0.106219 -0.3228113
0.037465192 0.15586455 0.09402673 0.18301697 -0.17617479 0.1578033 -0.034035396 -0.105529234
-0.18320614 0.08810888 -0.07061947 -0.09011434 0.44549417 0.5010968 0.2238863 0.064514264
0.16740958 -0.12573913 0.07743341 0.24050812 0.12273983 -0.3412358 0.28404334 0.07277501
-0.02390558 -0.22092637 0.16991915 -0.009012408 0.08159716 -0.0439401 -0.0009465191 0.07408518
-0.22709195 0.21392424 -0.28382024 -0.05007511 -0.12603556 0.11651797 -0.16793756 0.070312105
-0.28340644 0.11082652 0.09804082 -0.07662477 0.012106232 0.07277479 0.08103174 0.24895535
-0.15143579 0.4708673 0.18755737 0.01711569 -0.072146915 -0.059355628 -0.07634156 0.3626287
-0.009393464 -0.08198987 0.06503564 0.2895744 -0.11672652 0.23752779 -0.11735459 0.17215726
-0.1757112 -0.18595128 -0.19148187 -0.028266065 0.11666045 0.03999173 -0.10857981 -0.182337
0.10614915 0.08151669 0.23203242 0.18777695 0.09324328 0.038228963 -0.1907478 0.17985097
0.07834194 -0.023867194 -0.26034966 -0.23498602 0.01949678 0.069598645 0.23192528 -0.13411595
0.18636554 -0.1160025 -0.07406899 -0.13541555 -0.1307756 -0.06554529 0.14835776 -0.32373253
0.18612123 0.45562494 -0.33692354 -0.15523253 0.16324125 0.08739023 0.1664271 -0.20957306
0.037724786 0.1892919 -0.047748063 -0.14628962 -0.15610294 0.3463565 -0.13357995 -0.17611888
-0.12033773 0.18685655 -0.16776942 -0.096339285 0.30820352 -0.076691546 0.15457717 0.105794325
0.09250481 0.10334974 0.04070997 -0.12138036 0.20845164 0.18753433 0.11859226 -0.033627424
0.13790073 0.10746223 0.13331904 0.38448805 0.026186194 -0.091415025 0.15447256 -0.12937862
-0.036607046 -0.14884639 -0.09398099 0.046380024 -0.11025055 0.08329388 0.17723045 -0.27709857
0.04176202 -0.25496933 -0.015147517 -0.11637912 -0.19015433 0.10190256 -0.18412471 -0.20151676
-0.28457284 -0.15547195 0.07343693 -0.14434586 -0.27511677 0.095198646 -0.013898419 -0.0044564423
0.12281236 0.054026805 0.47446394 -0.31120247 0.13638043 -0.17041495 0.04029708 -0.02636253
-0.25429893 0.13382785 0.092926785 -0.44233158 -0.49248588 -0.00041187377 -0.09612013 0.043711852
-0.08535216 0.039105322 -0.048837867 0.054445453 0.14604074 -0.04108913 0.011076958 -0.2775444
-0.26296422 -0.3125862 0.10474507 -0.23907733 0.09830085 0.24250385 -0.13483915 -0.13415115
0.09962048 -0.17089775 -0.058657855 -0.027918955 -0.28803334 0.0929431 0.13616796 0.25408146
0.060238656 -0.5580875 0.18611468 -0.241387 -0.042276755 -0.14193843 -0.21474916 0.09232735
0.030606555 0.1003657 -0.2344951 -0.0020881793 0.10269466 -0.320796 -0.034643978 -0.06265194
0.017545607 0.16176452 -0.18746845 -0.20853956 -0.13376035 -0.26932895 -0.028545853 0.20403746
-0.30724475 -0.189956 -0.3625548 0.0093069 -0.015898 -0.25905198 0.05261848 0.08547967
-0.17849854 0.093768865 0.3047143 0.012656327 -0.014362435 0.07547565 0.12381664 -0.22000995
-0.004631335 -0.16178107 0.30249944 0.047330637 -0.10038504 -0.1344491 0.1862783 -0.3299847

portfolio_head.bias f4 [15]
00000000: 2468 023d 8a43 d13c 3bde b2bc c5e5 53bc
00000010: 7f48 163d 9ba0 55bd b590 883c 8776 26bd
00000020: 8a6e 003c 420d 2cbc b2e8 ecbc 64b1 02bd
00000030: b514 633d 65ec 403d 969f d3bb
0.031837597 0.0255449 -0.021834483 -0.012933199 0.03669023 -0.05215512 0.016670564 -0.04064038
0.007838855 -0.010501208 -0.028919552 -0.031907454 0.05543967 0.047100443 -0.006458233

network.0.weight f4 [64, 2]
00000000: 099c 54bd 0225 863b 43ea 763e 383b 693e
00000010: ac4f 4cbd bb74 0cbe 3e07 3abe 4cf0 41be
00000020: b114 78be 4fc0 1fbb 0eb7 22be 5ec8 44be
00000030: cc1c eabc 0aa3 12be 1750 82be ea55 c73d
00000040: d153 89bd 4cbc aebe fe71 62be 4ab0 0a3e
00000050: 4d44 01bf d3c6 5a3e 83e3 98bd 585e e7bd
00000060: bb09 673c e727 aabe 6c87 21be ba51 863d
00000070: 11f9 8abd b1e5 dcbd 3fe5 92bd 10b5 82bc
00000080: 558d 11bd ef21 f2bd 5f53 0fbd b100 ddbc
00000090: b6fe d5bd 613e b5bd 576f 33bd fc53 41bd
000000a0: c59b 02be b6eb 4b3e 3d0d 243e 37c0 223e
000000b0: d8bb c9bd afbe 6d3e 4239 ee3c 82b6 27bc
000000c0: 884c 2ebe e4ed 6fbe d554 a83e 1c7c 00be
000000d0: 7d69 a3bd 08e9 78be d2e3 093c dac7 c2bd
000000e0: ed1c 4bbd 9ea2 fd3d acae 513e 20c4 e13b
000000f0: 45ee d7be 03ee b4bc cf4b 9fbd 2371 713e
00000100: 16d8 88bd 4943 0abe f735 38be 5cf3 a0bb
00000110: b800 01be c3f2 54be 7de9 1abd a033 f1bd
00000120: 3160 d4be cf04 9d3d 7c1d 2cbc 4ec2 8b3c
00000130: f2e3 bb3b 84a7 c43c c793 5abe 7e0c 82bd
00000140: e3cb bb3a c1b1 07bf 95f2 28be 18c9 513e
00000150: 11d2 a5bd 22aa 43be 50a4 ccbd 2114 ddbd
00000160: 5a58 0ebe fd60 423d 14d8 71bb 22ec a63c
00000170: 08f4 7dbd 1cb0 243c c645 3cba bdfa d7bc
00000180: def8 e1bc a2a3 7dbd 1234 2c3c 5177 ecbd
00000190: c39f d8bd 4573 953e d86f bdbd 152c 87bd
000001a0: cd4f 32be 17a5 4ebd fe74 45be e768 4fbd
000001b0: add0 01bf 234b 3d3e e735 d8bd bb13 523e
000001c0: 7db9 98be 9be2 053e 37f2 80bb ba83 093e
000001d0: f0dd 8cbd 5c90 c23d 5004 9abc 5056 633d
000001e0: 68c2 dabe 24ce f0bb 624a a83d 107c 34be
000001f0: 2529 893e b0bd 13ba e6e1 e8bd 3202 c73e
-0.05190662 0.004093767 0.24112801 0.22776496 -0.04988067 -0.13716404 -0.18166825 -0.18939322
-0.24226643 -0.00243761 -0.15890142 -0.19217059 -0.028578185 -0.14320007 -0.2545173 0.09733184
-0.0670544 -0.34128034 -0.22113797 0.13543811 -0.50494844 0.21364908 -0.074652694 -0.112972915
0.014101441 -0.33233568 -0.15774316 0.06558557 -0.06785787 -0.10785998 -0.071726315 -0.015955478
-0.035535175 -0.118228786 -0.03499162 -0.026977869 -0.10448973 -0.088497885 -0.043807354 -0.047199234
-0.12754734 0.19914135 0.16020675 0.15893637 -0.098502815 0.23217271 0.029080037 -0.010236384
-0.17021382 -0.23430592 0.32877222 -0.12547344 -0.07979105 -0.24307644 0.008416133 -0.09510775
-0.049588133 0.123845324 0.20476788 0.006889835 -0.42173973 -0.02208615 -0.07778131 0.23578314
-0.0668184 -0.1350223 -0.17989336 -0.004911823 -0.1259793 -0.20795731 -0.037820328 -0.11777425
-0.41479638 0.07666933 -0.0105050765 0.017060425 0.0057339603 0.024005659 -0.21345435 -0.06350039
0.0014327731 -0.53005606 -0.16498788 0.20486867 -0.080967076 -0.1910787 -0.099922776 -0.10794855
-0.13900891 0.047455776 -0.0036902474 0.020376269 -0.062000304 0.010051753 -0.0007182028 -0.026364679
-0.02758449 -0.06192363 0.010510461 -0.11546195 -0.10577347 0.29189506 -0.09249848 -0.06600205
-0.17413254 -0.05045041 -0.1928291 -0.050637152 -0.5070904 0.18485694 -0.10557156 0.20515339
-0.29829016 0.13074724 -0.0039351243 0.13429156 -0.06878269 0.095001906 -0.018800884 0.055502236
-0.42726445 -0.0073487926 0.082173124 -0.17625451 0.26789203 -0.00056358706 -0.11371212 0.38868862

network.0.bias f4 [64]
00000000: c595 b2bd e697 8c3e 8f9b 74bd 0000 0000
00000010: 1b7b 56bd 373f b03e bc8c 853e 7aac 753e
00000020: 0df2 9f3e 508e 74bd f6c9 d03e 8849 b33e
00000030: bdd5 6b3e e2ff 913e 0000 0000 0000 0000
00000040: 6a5d a7bd 0000 0000 0000 0000 4f9e 74bd
00000050: f332 a53e ee3b ab3e 2cff af3e e88b 943e
00000060: 0000 0000 88a1 a93e 0000 0000 9c99 9d3e
00000070: 9e96 74bd 6d7c ad3e 251b ba3e f858 9f3e
00000080: 6d2a b33e 7870 8c3e 0000 0000 ad9d 74bd
00000090: 7482 74bd f087 af3e 5fe9 943e 0000 0000
000000a0: 0000 0000 5b9d 74bd 68b3 b03e 0000 0000
000000b0: 6187 a63e 2660 863e 1cf8 913e 0000 0000
000000c0: 0000 0000 67a6 f3bd f73f b13e ff90 af3e
000000d0: 0000 0000 609c 74bd a416 d53e e26b aabd
000000e0: eefd b43e 9fd6 03be 185c af3e 39f9 9e3e
000000f0: 01af ba3e 6bd5 ae3e c421 ad3e de3f b53e
-0.087199725 0.2745964 -0.059718665 0.0 -0.052363496 0.3442323 0.26083934 0.23991576
0.31239358 -0.059706032 0.40779084 0.35017037 0.23030753 0.28515536 0.0 0.0
-0.08172114 0.0 0.0 -0.059721287 0.32265434 0.3344416 0.34374368 0.2901299
0.0 0.3313105 0.0 0.30781257 -0.059713952 0.33883992 0.36348835 0.31122565
0.34993306 0.27429557 0.0 -0.059720684 -0.059694722 0.342834 0.29084298 0.0
0.0 -0.05972038 0.34511876 0.0 0.3252516 0.2624523 0.28509605 0.0
0.0 -0.11896973 0.34619114 0.3429031 0.0 -0.059719443 0.41618836 -0.08321358
0.35349983 -0.1287484 0.3424995 0.31049517 0.36461642 0.341472 0.33814824 0.3540029

network.2.weight f4 [64, 64]
00000000: 6706 33be 8531 3b3d 87be 143b 7dce adbe
00000010: fe01 95be 7f0a 0b3f c315 05be 800d 9f3d
00000020: 1b6f 083f 9e2d d43e 0447 453f c2aa f13d
00000030: fc11 9f3e fc41 cf3e 5887 053e 6291 793e
00000040: 7e79 c93c ca60 85be f454 0e3e f7f8 83bd
00000050: 45f6 703e 5488 143e 5ed5 e4bd ac50 043e
00000060: 6e9b efbc 7c2b 8bbd 047a 0abe aaff 143e
00000070: e9bb 043e 2290 49be 32bd 953e 2a2c 8b3c
00000080: 140d 803e 2693 82bc af33 2abe b247 2b3e
00000090: 6907 213e b7ce ad3e 88d7 983d 5c22 f33d
000000a0: 7515 043e f2c2 8dbd c664 5d3e 9e76 033e
000000b0: ae57 1bbc f8ac dcbc 6de1 3e3e 438c 0abe
000000c0: e036 c0bd 1220 05bd 159f 2c3e 0d9b 803e
000000d0: 51c0 ddbd d45b e2bd 70c5 1e3f b3b4 1f3d
000000e0: 4755 063e 6765 c43e de0d 293d 79a4 a43e
000000f0: f3fd b03e 1df8 34bd 0fb1 b6bd 003d 2a3d
00000100: 5370 083e 7588 96bd 8935 713d 9e69 94be
00000110: dc01 9b3d 2019 023f 809a cb3b 0108 b63e
00000120: 0931 1fbe 185a b83d a5a4 023f 7dd2 7d3e
00000130: 2fa2 423e ec38 0f3e 6748 533d d7d0 cbbd
00000140: 1174 2ebe 0556 b63c 4a15 973e 8cf3 b2bc
00000150: 9369 4b3e 02d7 513e 11b0 8e3e efd7 3d3e
00000160: 2fe8 c6bd a7cd 4bbe ffb0 c3be cdb4 373e
00000170: beb0 aa3e e360 84be 0d27 053f 23a8 8d3e
00000180: 83ad 83bd b8d7 8b3e bc11 0c3d e251 e6be
00000190: 5945 efbc 8563 11bd ec6b a1bc c149 ee3d
000001a0: 2f79 793e 3d6e 58be 902e 263e d1bd aabe
000001b0: e5e0 443e 5894 133c 45e4 8d3e 2026 d23d
000001c0: b961 27bd 1da9 00bd 9433 873e 62f0 a93e
000001d0: aec4 813d f5b7 6d3e f95d d43e 3783 ae3d
000001e0: f9c7 143f e308 babc dc4d f6bd e89c 26be
000001f0: 68e7 213f 6f36 2b3d 2bb9 febe 0a1f e83d
00000200: 8a14 a33d 25cb 553d 9ae3 59bd 8016 07be
00000210: 338b 42be 59ee fc3e 229f 203f fe0f 733e
00000220: a565 8a3d 4b21 a2be b9e2 9f3e 0fa8 a43d
00000230: b29c 11bd 6252 1e3f 7cbb 83bd a0c4 c8bd
00000240: 3bc2 a9bd 522c 4ebe f30b f4bc 1b6a 8ebe
00000250: d60c 3a3e a66d 953d 9a87 04bc 861f c7bd
00000260: 87ca 7bbe 58fb 34be 2d6a f33d 903a 44be
00000270: d9ba 14be f6fa f53d 3f72 1d3f 77f0 573e
00000280: 83b0 e1bb adb0 87bd 1bc7 35be 3213 e33c
00000290: e85e d9bd 6ad7 d7bc 9c4f 623e ddaa 863d
000002a0: 8715 37bd 525d cebe ae03 273e 26bc 143e
000002b0: 5ac5 723d b242 4c3e d3b5 c33e 0b4d 43be
000002c0: 48a8 23bd 1395 64be c31a e83d fd79 013e
000002d0: 1210 bdbb c567 04be f711 de3e f6a6 59bd
000002e0: 5e09 083e 7b86 b93c 7cb8 a73c 79c3 6d3e
000002f0: 1e52 463f 0d0a 3f3e dac9 f93b b17d c03e
00000300: d259 a13d 339f 34be 0ce1 623c 94b6 aabd
00000310: f453 fb3c dde5 543e e087 193c 5088 adbe
00000320: 0162 2fbd 03fc 10bd 9be5 9bbd 4035 0a3e
00000330: 9c9f bf3d de8b 4a3e f050 65be d93c 98bd
00000340: 025a 01be ca80 0abe f2d6 e83d d598 bcbc
00000350: 1ae4 38be 1023 a7bd efaa 613e 5186 923e
00000360: ff03 123c 9499 d2bd 00c3 483e a020 473c
00000370: 23a3 a73e eb66 2fbe 2581 02be 22e7 32bd
00000380: f43a 41bd 8d41 cd3d 3d98 473d 720a daba
00000390: 6f28 e13c 374f 1c3d a713 ffbe f592 c83d
000003a0: f841 71be 98d7 033d 5299 1b3d c3ae 143e
000003b0: d2ce 853e 11e9 58bc 8618 75bd 1e4a 5a3e
000003c0: d00e 28bc 84f0 38be aa9e c1be 5dbf 6cbe
000003d0: f311 5d3e b78c e23c d10a 063e 261a 04bf
000003e0: 627b b4be dba9 17be 3276 cb3d 13ca 3a3e
000003f0: 2144 34bd 1f44 003e e960 fd3b a2ed a0bd
-0.17482911 0.045701522 0.002269657 -0.339466 -0.29103082 0.5431289 -0.12996583 0.07766247
0.53294533 0.41441053 0.77061486 0.118001476 0.31068408 0.4048003 0.13039911 0.24371865
0.024594065 -0.26050407 0.13899595 -0.06443971 0.23531444 0.1450513 -0.11173509 0.12921399
-0.02924892 -0.06795403 -0.13523108 0.14550653 0.12962307 -0.19683889 0.29245907 0.016988833
0.25009978 -0.015939306 -0.16621278 0.16726568 0.15725483 0.33946773 0.07462984 0.11871788
0.1289881 -0.069219485 0.21620473 0.12838218 -0.009481354 -0.026937947 0.1864068 -0.13530068
-0.093854666 -0.032501288 0.1685756 0.25118294 -0.10827697 -0.11052671 0.62020016 0.038990688
0.13118468 0.38358614 0.04127299 0.32156733 0.34568748 -0.04418193 -0.0892049 0.04156208
0.13324098 -0.07350246 0.058888946 -0.2898683 0.07568714 0.5081959 0.006213486 0.35552981
-0.15546049 0.09001559 0.5103248 0.24787326 0.1900718 0.13986558 0.05158272 -0.099519424
-0.17036463 0.022257814 0.2950843 -0.021844648 0.19864492 0.20492175 0.27868703 0.18539403
-0.09712254 -0.19902669 -0.38220975 0.17940064 0.3333797 -0.2585517 0.5201271 0.2766734
-0.06429579 0.27313018 0.0341966 -0.44984347 -0.029207872 -0.0354953 -0.019704781 0.11635161
0.24362634 -0.21135803 0.162287 -0.33347943 0.19226415 0.009007536 0.27713218 0.10261178
-0.04086468 -0.03141128 0.26406538 0.3319121 0.06336342 0.23214705 0.41477945 0.08521121
0.58117634 -0.022709316 -0.12026569 -0.16270792 0.6324372 0.04179996 -0.49750647 0.11334045
0.07962902 0.052195687 -0.053195573 -0.13192177 -0.18998413 0.49400595 0.6274282 0.2373657
0.067576684 -0.31666026 0.31227663 0.08039867 -0.035549827 0.61844456 -0.06432244 -0.09803128
-0.08289 -0.20134094 -0.029790854 -0.27815327 0.18168959 0.072963044 -0.008088971 -0.097228095
-0.24588977 -0.17674005 0.11885486 -0.19162965 -0.14524402 0.120107576 0.6150245 0.21087824
-0.006887497 -0.06625495 -0.17751734 0.027719114 -0.10613805 -0.026347835 0.22100681 0.06575558
-0.044698264 -0.40305573 0.16309997 0.14524898 0.05927024 0.19947317 0.38224658 -0.19072358
-0.039955407 -0.22322492 0.113332294 0.12644191 -0.005769738 -0.1293021 0.4337308 -0.053137742
0.13284823 0.022647133 0.020473711 0.23219098 0.7746905 0.18656178 0.0076229395 0.37595895
0.0787846 -0.17638855 0.013847601 -0.08335605 0.03067968 0.20790811 0.009370774 -0.3389306
-0.042818073 -0.035396587 -0.07612153 0.13496876 0.09356615 0.19779918 -0.22394156 -0.07433481
-0.12631992 -0.13525692 0.113691226 -0.023022095 -0.18055764 -0.081609845 0.22037862 0.286181
0.008912086 -0.10283199 0.19605637 0.0121537745 0.3274165 -0.17129104 -0.12744577 -0.043677457
-0.047175363 0.100222684 0.04872917 -0.0016635193 0.0274851 0.038161483 -0.4981968 0.09793655
-0.23560321 0.032188028 0.037988015 0.14519791 0.26134354 -0.013239161 -0.05983784 0.21317336
-0.010257438 -0.180605 -0.37816364 -0.23119874 0.21588878 0.027654989 0.13090064 -0.516024
-0.35250384 -0.14810888 0.09934653 0.18241148 -0.044010285 0.12525986 0.0077325 -0.07857825

network.2.bias f4 [64]
00000000: 622b 933e 933d a73e 92b8 8f3e 0000 0000
00000010: 0977 a43e 0000 0000 f60a a33e 8a9d 74bd
00000020: 0000 0000 04b7 983e 2b9e 74bd 589d 74bd
00000030: 0000 0000 6704 993e c232 56bd 299d 74bd
00000040: bd32 9f3e 8398 a33e 0000 0000 c99f a43e
00000050: 0000 0000 0000 0000 516e a53e c1fd 2abd
00000060: 409d 74bd e978 973e 0000 0000 799a 74bd
00000070: c4f6 983e 8b7b 923e 966b a43e 17b9 a33e
00000080: 182b 973e 013d a43e da16 a33e 045d 803e
00000090: 7982 8bbd 88df 9f3e 6298 74bd 452a 833e
000000a0: c4b5 933e 2c9c 74bd d143 98bd 7613 a23e
000000b0: bc75 a33e a464 853e 5777 7fbd d982 9f3e
000000c0: 2b7c a63e 7362 963e c54a 7abd a7e1 9d3e
000000d0: 0000 0000 0000 0000 df89 a43e 0000 0000
000000e0: 0000 0000 0000 0000 0000 0000 0000 0000
000000f0: 0000 0000 9758 983e 33a1 a13e d274 a23e
0.28744036 0.32664165 0.28070503 0.0 0.32122067 0.0 0.318443 -0.059720553
0.0 0.2982713 -0.059721153 -0.059720367 0.0 0.2988617 -0.0522945 -0.059720192
0.31093398 0.31952295 0.0 0.32153156 0.0 0.0 0.32310727 -0.041745905
-0.059720278 0.29584435 0.0 -0.05971763 0.29875767 0.2860988 0.32113332 0.3197715
0.29525065 0.32077792 0.31853372 0.25070965 -0.06811995 0.31225228 -0.059715636 0.25618187
0.28849614 -0.05971925 -0.0743481 0.31655473 0.31925762 0.26053345 -0.06236967 0.31154516
0.32516608 0.29371986 -0.061106462 0.30836222 0.0 0.0 0.32136437 0.0
0.0 0.0 0.0 0.0 0.0 0.2975509 0.31568298 0.31729752

network.4.weight f4 [1, 64]
00000000: e673 623e 1456 933e eb7f 5c3e bf34 2b3c
00000010: d499 813e 9c11 8fbb d1c5 613e 3130 c93c
00000020: a3bf a7bc 27bc 7e3e 0ff3 483d 0187 1b3d
00000030: 00a2 79bc 6d1e 823e f383 663d 3574 553d
00000040: 95b9 6f3e 7de3 5f3e 9b08 113c c6cd 913e
00000050: 6f90 623c 9074 babc 6829 8a3e 2396 6c3d
00000060: c282 5b3d 70ac 5c3e c3be ac3c 9e27 4c3d
00000070: 348f 783e 7612 723e 149d 783e 2c24 853e
00000080: 838c 4c3e eeb3 813e b470 853e 36d4 b53d
00000090: f2f9 323d 3272 823e a306 5a3d 56dd 393e
000000a0: 7c4d 493e 23c0 523d 60de 263d 25b1 8d3e
000000b0: 058e 583e 1be0 623e 0759 513d c16c 823e
000000c0: efd2 833e d423 763e 9d23 593d 8ae5 633e
000000d0: 7356 ab3b e5b2 4dbb 331c 853e 0fcd a63b
000000e0: dfd9 423b 7cd3 b63c d3e7 99bb 6a80 ebbc
000000f0: be94 ba3b c7e5 603e 0c98 853e 58ff 823e
0.22114524 0.2877661 0.21533172 0.010449587 0.25312674 -0.004366113 0.22048117 0.024559112
-0.020477122 0.24876462 0.049059924 0.037970547 -0.015236378 0.25413838 0.05627818 0.052112777
0.23410638 0.21864124 0.008852149 0.28477305 0.013828381 -0.02276066 0.26984715 0.05776037
0.053591497 0.21550155 0.021087056 0.04984247 0.24273378 0.23639855 0.2427867 0.2600416
0.19975476 0.25332588 0.26062548 0.08878367 0.043695398 0.2547775 0.053228986 0.18150839
0.19658464 0.051452767 0.040739417 0.27674213 0.21147926 0.22155802 0.051110294 0.25473598
0.25746867 0.24037105 0.05301248 0.22255531 0.0052288114 -0.0031387147 0.25998077 0.005090363
0.0029731912 0.02231764 -0.004696825 -0.028747756 0.005694001 0.21962653 0.26092565 0.25585437

exp_avg f4 [64, 2]
00000000: 0000 0000 0000 0000 49ea 5d3a 426c 7d39
00000010: c8f1 db37 2e6d fa36 721f f735 e6c1 9234
00000020: 601e 9c36 c53b 0a35 9a8c a038 9c14 d5b8
00000030: 426d dbba 3fc5 19b9 a4af 0c3a 06fc 94b7
00000040: 0000 0000 0000 0000 0000 0000 0cb7 6f33
00000050: 0000 0000 0000 0000 ac56 a735 6dbb f634
00000060: 9346 2bba 90f1 2639 0000 0000 0000 0000
00000070: 0000 0000 0000 0000 0462 9c35 df0d a935
00000080: 55c0 a7b9 b16a 8338 04f1 5539 dbcb a838
00000090: f3a4 8eba 1d80 03b9 ef10 4a37 5c31 b336
000000a0: 8163 7eba aa09 52b9 fadb b338 5c16 8f37
000000b0: 05a1 d634 cb53 e232 3593 12b9 bb15 9538
000000c0: d431 bd39 019f fcb7 aeab 293a d754 8938
000000d0: 246e d237 da88 f535 0000 0000 0000 0000
000000e0: 3405 e939 edf4 f338 0000 0000 0000 0000
000000f0: 0000 0000 0000 0000 0000 0000 0000 0000
00000100: 0000 0000 0000 0000 fc40 3935 72bf 9c34
00000110: b1be f4ba 39b6 6bb9 7434 8837 ff8f 0d36
00000120: 8c26 2537 b4c9 2535 fcd7 a138 ebdb d236
00000130: 0000 0000 0000 0000 f32d c038 ea71 23b6
00000140: a4c0 84ba b8cf 5b38 4d93 8e3a 8f06 b839
00000150: e385 9236 9f17 7935 d186 8eba 34f8 aab8
00000160: 3153 05ba d397 f938 c209 bd37 e8a2 e035
00000170: f814 9a34 816d 4834 0c13 c3ba cca7 00b9
00000180: 2938 1e37 9135 6235 25d9 9735 5621 a734
00000190: 54c5 a5ba ae68 79b9 c6cf a935 340e a532
000001a0: 9d91 1abb cb9b 18b9 0000 0000 0000 0000
000001b0: ba3a 5f33 2986 3134 fe27 68ba 61df 0a39
000001c0: 0000 0000 2ec9 bd32 0000 0000 0000 0000
000001d0: 79cb a536 9504 3b35 0000 0000 0000 0000
000001e0: 0000 0000 0000 0000 164f 023a f59f 5639
000001f0: 0000 0000 0000 0000 6837 69ba 30e9 b137
0.0 0.0 0.0008465392 0.0002416829 2.6219423e-05 7.463291e-06 1.8412086e-06 2.73357e-07
4.6526984e-06 5.149598e-07 7.6555836e-05 -0.0001016047 -0.0016740935 -0.00014664697 0.00053667487 -1.7760332e-05
0.0 0.0 0.0 5.5813004e-08 0.0 0.0 1.2467694e-06 4.595744e-07
-0.00065336487 0.00015920983 0.0 0.0 0.0 0.0 1.1651432e-06 1.2595518e-06
-0.0003199602 6.2664396e-05 0.00020403048 8.048835e-05 -0.0010882899 -0.0001254086 1.2044081e-05 5.340362e-06
-0.00097041583 -0.00020030761 8.576359e-05 1.705734e-05 3.9977763e-07 2.6347967e-08 -0.00013978484 7.108921e-05
0.00036086014 -3.0114783e-05 0.00064724206 6.548472e-05 2.5085239e-05 1.8293752e-06 0.0 0.0
0.000444451 0.00011632764 0.0 0.0 0.0 0.0 0.0 0.0
0.0 0.0 6.9012435e-07 2.919656e-07 -0.0018672553 -0.0002247923 1.6236889e-05 2.1094454e-06
9.843741e-06 6.1760807e-07 7.7173085e-05 6.2840895e-06 0.0 0.0 9.163832e-05 -2.43552e-06
-0.0010128212 5.2407122e-05 0.0010877639 0.000351001 4.3667255e-06 9.27941e-07 -0.0010873919 -8.152463e-05
-0.0005085944 0.00011901525 2.25351e-05 1.6736712e-06 2.8699992e-07 1.8666289e-07 -0.0014882996 -0.0001226954
9.43061e-06 8.426951e-07 1.1313574e-06 3.113043e-07 -0.0012647309 -0.00023785487 1.2651951e-06 1.9214987e-08
-0.0023585327 -0.00014553887 0.0 0.0 5.1974645e-08 1.6533217e-07 -0.0008856057 0.0001324392
0.0 2.2093982e-08 0.0 0.0 4.9410705e-06 6.9669596e-07 0.0 0.0
0.0 0.0 0.0004970891 0.00020468219 0.0 0.0 -0.0008896501 2.120863e-05

exp_avg_sq f4 [64, 2]
00000000: 0000 0000 0000 0000 6fc0 fc35 2c3b 4533
00000010: e0c0 0835 965f 8532 9abc 0b32 f796 9430
00000020: 2330 0634 eeb8 1331 8531 d836 91fa e333
00000030: 5446 a836 cd47 e033 c5bf 5036 6bd3 7233
00000040: 0000 0000 0000 0000 0000 0000 590b 722d
00000050: 0000 0000 0000 0000 38e6 eb31 1036 8030
00000060: 9186 cf36 5d50 0c34 0000 0000 0000 0000
00000070: 0000 0000 0000 0000 a917 4e2f 71a6 d92f
00000080: ee96 2c36 fecb 5333 867f c935 112f ee32
00000090: 79b9 ea35 a608 1533 d9d5 aa33 83bd 7431
000000a0: bde2 db35 2c9e 0e33 9099 8435 10a6 9732
000000b0: 2409 4230 89c3 572c 3f04 4f36 9f9d 7f33
000000c0: bbc1 7d36 ad78 9b33 6869 9235 a965 be32
000000d0: beb9 2a35 b6cc 2c32 0000 0000 0000 0000
000000e0: b138 c635 7069 ce32 0000 0000 0000 0000
000000f0: 0000 0000 0000 0000 0000 0000 0000 0000
00000100: 0000 0000 0000 0000 4674 d230 39aa 142f
00000110: b9d4 6536 96f7 a233 55b1 3d34 e94e 6c31
00000120: 384f a833 57de c430 c370 2e35 418b 5132
00000130: 0000 0000 0000 0000 1cb2 9435 6204 c132
00000140: 83d0 7736 6092 a433 c78b ff36 dafb 1d34
00000150: af07 b332 333e d930 8d17 1936 bb32 2833
00000160: 4f35 9236 108b dc33 ac95 9f34 44ed 9831
00000170: e300 c82f 2e35 292f 33f9 8636 6cbf c233
00000180: e525 e334 568b fb31 303f c231 e84f eb2f
00000190: 487a 5136 b57c 6c33 b384 9a32 76a5 632f
000001a0: 550b bb36 9eaa db33 0000 0000 0000 0000
000001b0: c0e5 512d c9be 042f 0379 1637 4abc 3834
000001c0: 0000 0000 61b7 172c 0000 0000 0000 0000
000001d0: 1591 e733 b452 1331 0000 0000 0000 0000
000001e0: 0000 0000 0000 0000 f171 6836 151e a033
000001f0: 0000 0000 0000 0000 3866 a136 44d3 de33
0.0 0.0 1.8831469e-06 4.5921453e-08 5.094462e-07 1.5526705e-08 8.133748e-09 1.0811324e-09
1.2497235e-07 2.1496436e-09 6.4430665e-06 1.0616089e-07 5.0149774e-06 1.0443873e-07 3.110604e-06 5.65373e-08
0.0 0.0 0.0 1.3758627e-11 0.0 0.0 6.865573e-09 9.328591e-10
6.1847463e-06 1.3067752e-07 0.0 0.0 0.0 0.0 1.8743997e-10 3.9590334e-10
2.571785e-06 4.9312796e-08 1.5012781e-06 2.772825e-08 1.7488338e-06 3.469963e-08 7.9551405e-08 3.5614398e-09
1.6382761e-06 3.3205808e-08 9.879459e-07 1.765423e-08 7.058978e-10 3.0661881e-12 3.0847875e-06 5.951517e-08
3.7812704e-06 7.239701e-08 1.0908525e-06 2.216514e-08 6.3600226e-07 1.00582636e-08 0.0 0.0
1.4768649e-06 2.4029504e-08 0.0 0.0 0.0 0.0 0.0 0.0
0.0 0.0 1.5312558e-09 1.3520997e-10 3.424748e-06 7.5887485e-08 1.766651e-07 3.4387375e-09
7.8375194e-08 1.432407e-09 6.498414e-07 1.2197064e-08 0.0 0.0 1.1078696e-06 2.247015e-08
3.6927238e-06 7.6634706e-08 7.6158644e-06 1.4713387e-07 2.0841837e-08 1.5806506e-09 2.2812485e-06 3.9161687e-08
4.357345e-06 1.02698436e-07 2.9724958e-07 4.450756e-09 3.6380418e-10 1.5389354e-10 4.022522e-06 9.0686484e-08
4.2309617e-07 7.320902e-09 5.6533267e-09 4.2803028e-10 3.1214604e-06 5.5061452e-08 1.7988304e-08 2.0704313e-10
5.5743535e-06 1.0229017e-07 0.0 0.0 1.1931289e-11 1.207311e-10 8.968872e-06 1.7204835e-07
0.0 2.1560186e-12 0.0 0.0 1.0783166e-07 2.1438327e-09 0.0 0.0
0.0 0.0 3.4637017e-06 7.4560525e-08 0.0 0.0 4.8100737e-06 1.03761096e-07

exp_avg f4 [64]
00000000: 0000 0000 8efb 093b 4220 b138 b5fe 1537
00000010: 7b16 0037 0d4c e53a 186f 4ebb 6405 be3a
00000020: 0000 0000 4c23 c035 0000 0000 52ba 8d33
00000030: 3b5c 11ba 0000 0000 0000 0000 2e1e 0038
00000040: 4b8b 7139 fb96 0739 601b 0dbb 55d7 fe38
00000050: ba21 13ba edf2 3239 2e67 ef34 3186 a939
00000060: 46e4 c63a 96e2 1e3b 6752 0038 0000 0000
00000070: 80fb ed3a 0000 0000 0000 0000 0000 0000
00000080: 0000 0000 db3b de36 98bc 86bb b04b 1638
00000090: 4539 7d37 8bc5 3538 0000 0000 3247 5eb7
000000a0: c51e ea39 484a 4f3a 83e5 a037 6db1 00bb
000000b0: b1d3 82ba 75bd 1138 cd70 5436 8c86 b2ba
000000c0: b710 c037 bd3b 8236 05d1 69ba e384 9c35
000000d0: 843c 5abb 0000 0000 8e0f 8636 3328 daba
000000e0: 4c1e 1835 0000 0000 243e 0e37 0000 0000
000000f0: 0000 0000 d516 f63a 0000 0000 b606 ea38
0.0 0.002105448 8.446026e-05 8.940396e-06 7.634629e-06 0.0017493978 -0.0031499323 0.0014497456
0.0 1.4315387e-06 0.0 6.5997156e-08 -0.00055450544 0.0 0.0 3.0545685e-05
0.00023035442 0.00012930848 -0.002153121 0.000121517725 -0.00056126306 0.000170659 4.4592292e-07 0.00032334172
0.0015174232 0.0024243942 3.059432e-05 0.0 0.0018156618 0.0 0.0 0.0
0.0 6.6230837e-06 -0.0041118376 3.5833276e-05 1.5093309e-05 4.333774e-05 0.0 -1.3248808e-05
0.00044654883 0.0007907492 1.9180361e-05 -0.0019637004 -0.0009981302 3.474714e-05 3.165612e-06 -0.001362042
2.2895967e-05 3.8812564e-06 -0.0008919391 1.1661581e-06 -0.003330023 0.0 3.995322e-06 -0.001664406
5.66685e-07 0.0 8.478328e-06 0.0 0.0 0.0018775115 0.0 0.000111592395

exp_avg_sq f4 [64]
00000000: 0000 0000 c716 fc36 f273 f835 8b07 8534
00000010: a6d1 ce34 e5fa 6737 835e 8537 fcb3 db36
00000020: 0000 0000 0380 1b32 0000 0000 a437 a92d
00000030: f11c ae37 0000 0000 0000 0000 1340 7334
00000040: b6ff 2537 f2e4 9036 2042 ba36 e33c 9b35
00000050: 7990 9d36 2c9d 6836 356a 7130 7564 0637
00000060: 329f 0e37 028c 7336 a377 b335 0000 0000
00000070: b4b1 a236 0000 0000 0000 0000 0000 0000
00000080: 0000 0000 825e 7833 344e 2f37 6763 6f35
00000090: 0c8a 8f34 f21b c635 0000 0000 5317 9836
000000a0: b24c 3e37 e9b9 be37 30c0 2c35 23d0 e336
000000b0: 144f 8d37 0298 6335 5119 3e33 10b8 4a37
000000c0: 0e7d bd35 e9e1 8e33 4404 e536 4372 e732
000000d0: bd47 8e37 0000 0000 7967 9733 758b cf37
000000e0: 47f0 c230 0000 0000 f272 aa34 0000 0000
000000f0: 0000 0000 bf30 4737 0000 0000 bc11 8637
0.0 7.512837e-06 1.8511184e-06 2.477867e-07 3.852303e-07 1.3827089e-05 1.5898846e-05 6.5476615e-06
0.0 9.051294e-09 0.0 1.9237785e-11 2.0755893e-05 0.0 0.0 2.2654449e-07
9.894304e-06 4.318187e-06 5.55093e-06 1.156612e-06 4.6957834e-06 3.466218e-06 8.782622e-10 8.010412e-06
8.500925e-06 3.6291317e-06 1.3371358e-06 0.0 4.8486636e-06 0.0 0.0 0.0
0.0 5.7827954e-08 1.0449021e-05 8.917909e-07 2.6736268e-07 1.4760283e-06 0.0 4.5326683e-06
1.13427395e-05 2.2736336e-05 6.435466e-07 6.7893575e-06 1.6845333e-05 8.478529e-07 4.4260847e-08 1.2082994e-05
1.4117993e-06 6.653483e-08 6.8252284e-06 2.69439e-08 1.6961125e-05 0.0 7.050307e-08 2.4741263e-05
1.4183649e-09 0.0 3.17486e-07 0.0 0.0 1.1872674e-05 0.0 1.5982303e-05
