data/results/test_fixed_historical/checkpoints/checkpoint_0000.pth (torch, 197261 bytes, 39 tensors)

shared_backbone.0.weight f4 [64, 2]
00000000: 58d2 56bd 8a34 dabc 096e adb8 8a5d 60be
00000010: 1874 00be fdf7 dcbd ce1c 27be 312a 5d3e
00000020: 865a 47bc b9d7 f7bd 3da0 503e 29ab 41be
00000030: 9af9 eabd ef95 c83b 4268 d33c b338 a63d
00000040: 4d57 73be 6a6b 3ebe 33ad cfbe d520 1f3e
00000050: 945c d4bd 7a9d 18be f642 babe 8e00 f63d
00000060: aea8 9cbe 0665 6a3e ae8e 9dbd 5306 f5bd
00000070: 3d57 94bc 9a13 8fbe 1c3f e1bd 1ace 62be
00000080: 7bc1 08bd d9b4 1abe 0a3a a4bd 7582 85be
00000090: 2c9b 30bd 7d94 81bd 22cc 0d3e df2a 08be
000000a0: 4053 b53d c79b cbbc 90fc 14be 4435 35bd
000000b0: e805 2bbe da24 a5be ea9a 84bc 40e1 b1bb
000000c0: a8bc b23d 6f4b 843d 8dc5 cc3d ef14 8e3d
000000d0: 288a 273e 5b39 c23c ec63 2fbe a1aa 123e
000000e0: 450b 80bd 88ff 64bc 4ee9 923c 6011 a3be
000000f0: bcdf 513c 9204 2fbe e3e7 24bc b054 9bbe
00000100: 5f98 9abd 3b0c 3abd 6e5a 33be d2e1 233d
00000110: e0b1 3b3d 68bd 0cbd 1823 6d3d 8fa7 a0bc
00000120: e28d d23d 1a29 d43b 5126 00be d146 8bbd
00000130: 71fe 723d 83ae 9dbc 12ba e6be d95b 8cbd
00000140: ac39 313f 8af9 09be 6960 32bd cccf 293e
00000150: c7a7 91be 301e 04be 108e ac3e 974f 843e
00000160: a224 a13d 4bad 9bbd 570a 8a3d f37c 2ebe
00000170: e514 a5bd c7c3 f5bb fe57 393c 7215 eebd
00000180: 475e f7be 462e 66bd b17f e83e 0db8 6cbe
00000190: d1bb 0bbe 7f1c 863b ebd7 783c 51c5 a3be
000001a0: f050 43bc e1cb b5be 2d45 303b 2562 0abe
000001b0: ae89 a0be ba04 8dbe 6d65 c6bd 7378 c7bd
000001c0: 614a 083f d450 5abe 5c2d 89bd 368a b03e
000001d0: d0bf 573d c8a3 3bbd ec07 45be 8f39 473c
000001e0: 2981 e23b 0710 7bbb 34d5 0fbe 2609 60be
000001f0: b857 873b 3347 48be 906a 49bd 6dfc 09be
-0.052446693 -0.02663638 -8.2697785e-05 -0.21910682 -0.12544286 -0.107894875 -0.16319582 0.21598126
-0.012167579 -0.12101693 0.20373626 -0.18912949 -0.11473389 0.006121389 0.02580655 0.08116283
-0.23763771 -0.18595663 -0.40561828 0.15539868 -0.103692204 -0.14903823 -0.36379212 0.120118245
-0.30597442 0.228901 -0.076932296 -0.11964097 -0.018108005 -0.27944642 -0.10998365 -0.22148934
-0.033387642 -0.1510805 -0.080188826 -0.26076093 -0.043116733 -0.0632715 0.13847402 -0.13297604
0.08853769 -0.024854554 -0.1454947 -0.04424025 -0.16701472 -0.32254678 -0.01618715 -0.005428463
0.087273896 0.064597 0.09998617 0.069375865 0.16361296 0.02370899 -0.17127961 0.14322902
-0.062521495 -0.013976939 0.017933514 -0.31849194 0.01280969 -0.17091587 -0.010065052 -0.3033805
-0.07548594 -0.04542182 -0.17514965 0.04001028 0.04582393 -0.03436032 0.057894796 -0.019611148
0.10280968 0.0064746263 -0.12514617 -0.068006165 0.059324685 -0.019248253 -0.45063835 -0.06853456
0.69228625 -0.13474098 -0.043548975 0.16583174 -0.28448316 -0.1290214 0.33702135 0.25841972
0.07868315 -0.076014124 0.067402534 -0.17039852 -0.08060626 -0.007500145 0.011312483 -0.11625184
-0.48314115 -0.056196474 0.4540992 -0.23117085 -0.13645865 0.0040927525 0.015188198 -0.31986478
-0.0119211525 -0.3550711 0.00268967 -0.13514002 -0.3135504 -0.2754267 -0.09687314 -0.09739771
0.53238493 -0.21319896 -0.06698105 0.34480447 0.05267316 -0.04581049 -0.19241303 0.012159719
0.0069123697 -0.0038309114 -0.14046174 -0.2187849 0.00413033 -0.1955841 -0.04917389 -0.13475199

shared_backbone.0.bias f4 [64]
00000000: 0000 0000 ffbf 07bd 0000 0000 14ba 4abd
00000010: 0000 0000 2c94 dfbd f8fa 75bd b179 61bd
00000020: 0000 0000 53d5 21bd 0000 0000 81f6 24bd
00000030: 63b6 90bd 0000 0000 0000 0000 0000 0000
00000040: 0000 0000 0000 0000 a373 bebd 74c5 1dbe
00000050: b514 32bb bcfb 75bd 0000 0000 1a9c 1fbd
00000060: 73d4 0dbe 03bd 53be a9c0 8cbe 08f9 75bd
00000070: 1c21 61bd 0687 e0bd 3c89 6ebd 36a1 96bd
00000080: a158 74bd 7bfb 75bd fe48 3dbd 97bc b6bd
00000090: 1e05 363d 0000 0000 fdec febd 0000 0000
000000a0: c240 c73c 00a0 3bbd 0000 0000 ad92 193a
000000b0: 5d50 f7bd 8b0b 8bbd 628d 1fbd 41eb 50bd
000000c0: 0000 0000 37ae c3bd e844 d8bc dc60 d1bd
000000d0: 0000 0000 5450 35bd 0000 0000 0000 0000
000000e0: 5786 66be cf7c 6dbd c9bc c0bd 3c08 24bd
000000f0: 57d2 73bd 0000 0000 d1fc 2fbd 0000 0000
0.0 -0.033142086 0.0 -0.049493864 0.0 -0.109169334 -0.060053796 -0.055047695
0.0 -0.039510082 0.0 -0.040274147 -0.070660375 0.0 0.0 0.0
0.0 0.0 -0.092994 -0.15407354 -0.0027172987 -0.060054526 0.0 -0.03896723
-0.13850574 -0.20677571 -0.27490738 -0.060051948 -0.054963216 -0.10963254 -0.058236346 -0.07354967
-0.059654836 -0.060054284 -0.04621219 -0.089226894 0.044438474 0.0 -0.12447546 0.0
0.024322871 -0.045806885 0.0 0.0005858343 -0.12075875 -0.06789311 -0.038953193 -0.051005606
0.0 -0.09554713 -0.026400045 -0.102235526 0.0 -0.04426606 0.0 0.0
-0.22512184 -0.057980355 -0.09411008 -0.040046915 -0.059526768 0.0 -0.042965714 0.0

shared_backbone.2.weight f4 [64, 64]
00000000: b05e c13e 41f6 9d3c 2e1e 1fbe e4ed a9be
00000010: 0d51 2f3c 259c 44be 2323 44bd 5b61 8b3e
00000020: fc73 8cbd c7d9 253e a8bd 40bd e436 62be
00000030: ec2b 2dbd c75e a73d 9f25 53be 28d2 3ebc
00000040: 4bee ee3c 1988 ac3d 68d9 cd3e 27bf 53be
00000050: 34c1 82bd 216f 0dbe b217 13be 115d 17be
00000060: 8321 d9bd 27dc 90be f0e3 dd3d d1d4 62be
00000070: 263c 913e e88d ecbb 6a7d 9f3e 5401 3e3d
00000080: 3345 093e 708b 92bb 2d43 9abe 28e2 8abd
00000090: b212 a6be 779a 02be 2ce1 313e 431c b1be
000000a0: 8213 f43d df4e 0c3e 4cc2 81bd ce0f 14be
000000b0: b410 adbe 66ee 723c 5cf1 83bc 9e12 4cbb
000000c0: 7615 0e3e d588 a7be 1759 bfbd 36ef e1bd
000000d0: 6f4b 19bc 0bcf 80bd 2fce 04be 7751 293e
000000e0: 4c5c 9c3d 0af7 a8be bf48 3d3d 5378 98bd
000000f0: 6da0 99be b4c4 f93b 98e6 383e 2fc8 8dbd
00000100: 6a36 6f3e 7a1c b2bd 0308 7bbe 8549 8b3d
00000110: 1108 813e 1ac7 8fbe 228b 30bd 9378 c13c
00000120: e0cd febd c825 773d 84b6 c6be 6158 d53d
00000130: 07a7 aabd 2c5c 233d e1ce 2ebe fb30 2fbe
00000140: 8818 35be 8cc8 5abd aa06 d13d bad3 57bd
00000150: ff52 ec3d 7ea7 6f3c d0b9 46be 31f2 ba3d
00000160: b9c7 07be 5d9f 6d3d f0bd a1be 820f e93d
00000170: 3035 913e 8b9d abbe b29b 023e 7afd 29be
00000180: 1268 433d 477e 0e3e 633d 813e f918 25ba
00000190: 1a79 2ebd 1ad3 afbd 3867 6bbe 967b 143e
000001a0: 1bf7 a93e 64ae 42be ea93 a3be 9f75 603e
000001b0: 12cd 633d 031e 27be 6a67 14be 4431 493d
000001c0: 2880 043e e0ff 1a3d e562 9c3d bc83 d1bc
000001d0: 3e8c 483e b068 81be df18 703c d9b2 443d
000001e0: a7b1 38bf 3951 133e 553f bb3c 6cea 7c3e
000001f0: fe39 603c 2ae0 703e f10a 673b 285d 013e
00000200: 2b3c 49be a56d 89be 7946 303e f3a4 643c
00000210: b556 723e a95e 02bd 59a9 13be b5cc f3bd
00000220: 4d63 91be e426 0d3f 946a 8e3d 9f41 70bc
00000230: 944c aabe 766c 103e e0b4 9d3e 1b75 c1bd
00000240: e20e 823d ba16 883d a5c8 79be 8870 38be
00000250: cdba 93be e309 ef3c 4823 efbd c370 98bd
00000260: 2dfc 0cbe 7c66 563c ca49 84be 302a 013e
00000270: 54fc 393e cfdf 023e 5b5c 2bbe fb39 57be
00000280: 6fde 8d3b 760f c3bd 87a1 4abd 3709 3e3e
00000290: cca0 003d e673 cbbc fbd5 56bd 7d0b 95be
000002a0: fc09 893e 84d8 3abe 2f00 97bd 7406 d2be
000002b0: 984f 98bd 1394 37be 796b 823e 42ee 47be
000002c0: 1aa2 bbbd 4e2a 9dbd 5338 153e 1b57 23be
000002d0: c2b9 38bc 889a 51bd 0906 67bd 4af5 e63d
000002e0: 1d28 2cbe c37c 2bbd 7fd9 a13d 8202 4dbe
000002f0: 04cc 12be cd7c e33c 2672 82be 1af6 cc3e
00000300: a3a8 97be e54e d93c 9861 423e 00e4 3d3e
00000310: 51c1 cdbe b122 503d 2894 89be 4d22 1abe
00000320: 0b31 9e3c 10a2 2a3e b0e0 d6bc 75d4 e63c
00000330: b255 f23e 8265 043e 1eba cabc 5e51 f9bc
00000340: 0866 81bd 310d 1abd 7ae9 bf3d 2c54 57be
00000350: deaa 4bbd 9c36 9fbc 703b 0ebe f9b3 313e
00000360: 12de 22be 3241 d0be 888d 19bf 6bc6 b5bd
00000370: e7c3 183e 3eea 4bbd 6b63 9bbe c324 283d
00000380: bd9c c1bd fb2f 16be 8732 30be c3da 1dbe
00000390: f98d 0bbd ed99 29be 2f09 3dbd 369f b9bd
000003a0: ab0d 8abc 8e7d 40be 7be0 62be 602f bd3e
000003b0: fa83 d2bd 90b3 aabd 31b5 973e 3ed0 d3bd
000003c0: 2494 8a3e 04b6 1abe 6040 003e dc59 51bc
000003d0: 22bc 9d3d 0e71 99bc 4505 1dbe 9cdf fc3d
000003e0: a634 e3be 4396 783e cf76 233e e0aa 053e
000003f0: 637c 62be 971f b3bd cc8d 6b3c b996 10be
0.37767553 0.019282462 -0.15538856 -0.3318931 0.010700476 -0.1920019 -0.04788507 0.27222714
-0.0685806 0.16196357 -0.04705587 -0.22091252 -0.042278215 0.08172374 -0.2061982 -0.011646785
0.029166361 0.08424396 0.4020493 -0.20678388 -0.06384507 -0.13811924 -0.14364508 -0.14781596
-0.10602095 -0.28292963 0.10834491 -0.22151496 0.28366202 -0.007219065 0.3115037 0.046387985
0.13405304 -0.0044721887 -0.30129376 -0.06781417 -0.32436138 -0.12754236 0.17371053 -0.34591874
0.11917783 0.13701962 -0.06335887 -0.14459154 -0.33801806 0.014827346 -0.0161063 -0.0031139026
0.13875374 -0.32721582 -0.093431644 -0.11031954 -0.009356364 -0.0628949 -0.12969278 0.16534983
0.07634792 -0.33000976 0.046211954 -0.07444825 -0.30005208 0.007622326 0.18056715 -0.069229476
0.23360601 -0.08696838 -0.24514775 0.06801132 0.25201467 -0.2808159 -0.043101437 0.023617065
-0.12441611 0.060338765 -0.38811123 0.104172476 -0.08332639 0.039882824 -0.17071106 -0.17108528
-0.17685139 -0.053413913 0.10206349 -0.052692153 0.11539268 0.014627336 -0.1940682 0.091282256
-0.13259782 0.05801331 -0.31590223 0.11379911 0.2836089 -0.33518633 0.12754706 -0.166006
0.04770667 0.13915358 0.25242147 -0.00062979717 -0.04259596 -0.08585186 -0.22988594 0.1450027
0.3319634 -0.19011837 -0.31948787 0.21919869 0.055615492 -0.16320042 -0.14492574 0.04911925
0.12939513 0.037841678 0.0763605 -0.025575511 0.19584748 -0.25275183 0.014654367 0.048022125
-0.72146076 0.14386453 0.022857348 0.246988 0.013685701 0.23523012 0.0035254324 0.12633193
-0.19651859 -0.26841465 0.17214383 0.013955343 0.23665889 -0.031828556 -0.1442007 -0.11904279
-0.28396073 0.5513747 0.06953922 -0.014664083 -0.3326155 0.14103875 0.3080206 -0.09446164
0.06350495 0.0664496 -0.24392946 -0.18011677 -0.28853455 0.029179519 -0.11676651 -0.074433826
-0.13768072 0.013085958 -0.25837547 0.1261375 0.18162662 0.12780689 -0.1673445 -0.21018212
0.0043294947 -0.09524433 -0.04947045 0.18558203 0.031403348 -0.024835538 -0.05245016 -0.29110327
0.2676543 -0.18246657 -0.07373082 -0.41020548 -0.07437056 -0.1792758 0.2547262 -0.19524482
-0.09161778 -0.076740846 0.14572267 -0.15951197 -0.011274757 -0.051172763 -0.05640224 0.11277254
-0.16812177 -0.04186703 0.07902812 -0.20020488 -0.14335638 0.02776947 -0.25477713 0.4003151
-0.29620847 0.026526878 0.18982542 0.18544006 -0.4018655 0.050814334 -0.26870847 -0.15052147
0.019310495 0.16663384 -0.026230186 0.02817748 0.47331005 0.12929347 -0.02474695 -0.030434307
-0.06318289 -0.037610237 0.09370704 -0.21028203 -0.0497235 -0.01943522 -0.13889861 0.1735381
-0.15905026 -0.4067474 -0.59981585 -0.08875736 0.14918481 -0.049783938 -0.30349287 0.041050684
-0.094537236 -0.1466674 -0.17206775 -0.15415482 -0.034070943 -0.16562624 -0.046151336 -0.0906357
-0.01685222 -0.18797895 -0.22155945 0.36950207 -0.10279079 -0.0833503 0.29630426 -0.103424534
0.27066147 -0.15108496 0.12524557 -0.012777772 0.07701899 -0.018730666 -0.15334041 0.123473376
-0.44376105 0.2427607 0.1596329 0.13053465 -0.22117762 -0.0874626 0.014377069 -0.14119996

shared_backbone.2.bias f4 [64]
00000000: fcde fabc 0601 143c 6c3b a9bd 2cc1 5a3d
00000010: 12a1 203d 6df8 75bd 327f 0fbc c80f b5bd
00000020: 35fc 75bd 36fc 8fbd 20eb 73bd 278d 95bd
00000030: b574 5cbd 39f3 c6bc 644c 06be e6b0 63bd
00000040: 79a3 5a3e 81c2 17bc e9af 07bd ea78 92bd
00000050: 51f6 78bd bc48 b8bd 89ad eabc ecaf 80be
00000060: 9d1d 99bd 290c 8fbd af1b fabd f998 c4bd
00000070: 8307 56bd acbe 34bc 6f3f 00be bff8 2abd
00000080: bea9 33be 9b48 bcbd 2ef8 c3bc a0f6 75bd
00000090: 8c7d 19bc e030 7dbd c97a 42ba 5c12 e7bd
000000a0: e236 2abd cffb 75bd 16fc 75bd ca6a 89bd
000000b0: 59a9 33be 5cf4 14bd ecb1 52bd a412 94bd
000000c0: f61a 62be 9b0a debd b0b3 8bbd 4b55 abbd
000000d0: 01ad 27bd 2755 afbc d07e 51bd 0000 0000
000000e0: 74fe fcbc 0000 0000 af77 b3bd 35fc 75bd
000000f0: 68bc 383c dbdd 90bd 80fa 8bbd 933e 09bd
-0.030623905 0.009033447 -0.08263287 0.05340688 0.03921611 -0.06005137 -0.008758353 -0.08840901
-0.060054976 -0.07030527 -0.059550405 -0.07302313 -0.053822238 -0.0242859 -0.13115078 -0.055588625
0.21351422 -0.009262682 -0.033126745 -0.07151969 -0.06078178 -0.08998248 -0.028647201 -0.25134218
-0.074763514 -0.06984741 -0.122123115 -0.0959949 -0.052253257 -0.011031788 -0.12524198 -0.04174113
-0.1754522 -0.09193536 -0.023922052 -0.060049653 -0.009368312 -0.06181419 -0.0007418809 -0.11282799
-0.041556247 -0.060054597 -0.06005486 -0.067098215 -0.1754507 -0.03636585 -0.05143921 -0.07230118
-0.22080597 -0.108418666 -0.06821382 -0.08365878 -0.040936474 -0.021402908 -0.05114633 0.0
-0.030883051 0.0 -0.08763062 -0.060054976 0.011275388 -0.070735656 -0.068348885 -0.03350694

goal_head.weight f4 [2, 64]
00000000: 907b 25be aa17 f5be be9f 8bbd 98f3 8abe
00000010: e8d2 9ebe 8277 8abe 1b6a 09be 3810 833d
00000020: 8ef1 963d 312d b5be 447b 0cbe 1b29 493e
00000030: ba2b 1cbe 0b30 9c3b 0ead 433e fce4 e43d
00000040: ee5b 853f add6 9fbd 8613 34bd e5bc 2ebc
00000050: 761f 313e 3c5d 47bd fa28 dd3c f57a a63d
00000060: 2c0a 653d 7d77 343e 8310 dbbd b3e4 66be
00000070: 4459 cf3d 5a7f 9abd 4975 a53d bb70 cbbe
00000080: 17fb f03d dbe3 f33d 6706 56be fc70 8d3e
00000090: 065f ddbd 30d0 71bd 45a4 e5bd ac52 583e
000000a0: c5ef 38be 249f 1d3e d6f3 06bd 4e77 343d
000000b0: e7c3 c13e d506 52be 7506 893b 52b3 2dbd
000000c0: 2949 b53e af5e 663e 4461 b8be df2c bc3d
000000d0: fbb4 2dbd bacd 263e 719a 803d d27f ec3c
000000e0: 003f 9bbd 40b6 163e eb64 83bd 3d64 e43c
000000f0: a159 1abe 7cbb b4bd e68c 223c e894 e9bd
00000100: 01a7 673c e4e4 603e ff3a 953d 26a2 b83e
00000110: 79a7 373e 46ea 4cbe c05f 8f3e 4057 5ebe
00000120: a90a 1bbe b55d e43d 277f c33c e5e5 603e
00000130: 8628 573e a87e 783e a5bf 97be 16e0 b13e
00000140: 127c a2bf 29e5 1f3e 2372 8f3e 200e 1ebe
00000150: 5f8f 013e 0874 2e3e 3d7d 873e 4317 403b
00000160: a9fa 7e3c 4d67 df3e 3830 43be 994d f03d
00000170: c742 34be 814e f73d b22e ed3d 3b17 523d
00000180: f5d4 023e 7977 ab3d c5e2 da3d bb6b 5e3e
00000190: 090c 163d b366 9f3e fdec 0c3d 9390 5dbb
000001a0: fc8a 2c3d 390f 723e f5ef 20be 14e3 b93d
000001b0: b288 15be 8864 37be 8c52 823d 19f2 953e
000001c0: 9f8d c03d cddc 613e 8dbc 8dbe 4e87 02be
000001d0: 20df cc3d d67e 0ebe 9af1 c63d bae0 713e
000001e0: 2736 00bd aa35 603e 34e5 773d c39d 733e
000001f0: 361f e03d e34f 853c 6608 993c 9eba 0b3e
-0.16160417 -0.47869617 -0.06817578 -0.27138972 -0.31020284 -0.27044302 -0.13419382 0.06399578
0.07370292 -0.3538604 -0.13718897 0.19644587 -0.15251055 0.0047664694 0.19108984 0.11176488
1.041868 -0.07804618 -0.04396393 -0.010665153 0.17297158 -0.0486729 0.026997078 0.08128921
0.055917904 0.17623706 -0.10696509 -0.2254818 0.10124448 -0.07543822 0.08079011 -0.39734444
0.117666416 0.11908694 -0.2090088 0.27625263 -0.1080914 -0.059036434 -0.112129726 0.21125287
-0.18060215 0.15392739 -0.032947384 0.04405909 0.37844774 -0.20510419 0.004181678 -0.04240734
0.3540738 0.22497056 -0.36011708 0.09188246 -0.042408925 0.16289416 0.06279457 0.028869543
-0.07580376 0.1471796 -0.06415733 0.027879829 -0.15073253 -0.08824822 0.009921288 -0.11405355
0.014138938 0.21962315 0.07286643 0.3606121 0.1793498 -0.20011243 0.2800274 -0.2171297
-0.15140785 0.11150686 0.023864342 0.21962698 0.21011552 0.24267066 -0.296384 0.34741277
-1.2694113 0.15614761 0.28016767 -0.15435076 0.12652348 0.1703645 0.26462737 0.002931074
0.015562692 0.436335 -0.19061363 0.117335506 -0.17603599 0.1207552 0.11581172 0.051291686
0.12776549 0.08372397 0.10687784 0.21720783 0.03663257 0.3113304 0.034405697 -0.0033808097
0.042124733 0.2363862 -0.15716536 0.09076515 -0.14602926 -0.17909443 0.06363401 0.29286268
0.09402012 0.22056885 -0.27682915 -0.12746927 0.10003495 -0.13915572 0.097140506 0.23620883
-0.031301644 0.21895471 0.06052132 0.2379065 0.10943453 0.016273445 0.018680762 0.13645408

goal_head.bias f4 [2]
00000000: e589 02bf e789 023f
-0.5099166 0.5099167

portfolio_head.weight f4 [15, 64]
00000000: 4c76 303d d6b5 3fbe 366e 3bbe 9045 aabe
00000010: f007 103e 6c40 02be 05d2 90bc 806d ea3c
00000020: 96e0 d4bd 6ae9 dbbc bc12 fd3c eaa3 e93d
00000030: 6bf7 93bd 1b2b dcbe 3206 01be 5a0c 03be
00000040: 815f 453f 9992 4abe c023 883d d7b5 333e
00000050: dc72 2c3e c950 cebd 7597 8b3d 98c6 2c3e
00000060: 422d c83d f6af a6be 0894 873e d817 9c3d
00000070: 7fc3 f23e eb98 23be 9de7 86bd 84b3 203c
00000080: d9c6 873d 06ed 0dbf b949 183e f57a a13d
00000090: 695f 15bd 833a aabd 0474 403e 29f4 8d3e
000000a0: 33b2 36be 5228 8e3d c0b3 153e 7e9c 2cbe
000000b0: 0b1f 443d b5da 583e 21c3 c3be b01a 84bd
000000c0: 9439 35be 94fe 93be c42b 543e 36c5 32bd
000000d0: 6465 843e e2c3 70be 6494 c63d 06fe bdbd
000000e0: ca10 393d 99f3 073e 6b7f 273c 72ad 293e
000000f0: a719 2f3e c600 223e 0718 96bd e977 43be
00000100: 366a bdbd b39f 0a3e 8526 d5bc 4c65 0b3d
00000110: b7e9 d83d ebfb d93d 18ac 05be 39cf 813d
00000120: 1a53 c33b bf27 afbd b85c 9e3d e0ea 83be
00000130: b0ab d73c 090a 07bd 644a 193d 2b53 733e
00000140: 5c0d d73c 761f 85bd 63c2 d33d 9efe 323d
00000150: 86d3 b83d b25c 08be 4176 cebd 4b12 04be
00000160: 68ad 9e3e ffc4 41be 89a3 d8bd 3fea 763d
00000170: d7e5 713e dbda 76be 75a2 98be 9ee3 443e
00000180: 37b7 2bbd a7a0 07be acb7 c5bd b2dc 73bd
00000190: 032c 993d b9ad 37be 5996 7abe 294c f93c
000001a0: 8ade 4b3e c0ee 87bd d209 f4bb a443 023e
000001b0: 8dc6 a63e 6cbf 2ebe 6e0f 153e 9522 b93e
000001c0: 16a8 d1bd 47fb b8be 437f 3fbe 7e6f 67be
000001d0: de4e 9e3e 7515 763e ad33 73be 4aef 493e
000001e0: 3474 52bd cdf1 9bbd 91c3 603d 1265 e73c
000001f0: e66d a33d e79c c0be b031 c1bd 29b8 1c3d
00000200: 3f30 a83e edbf eabd 7ab8 70be ceb0 253d
00000210: ea24 323e b7a9 dabd af3b de3d cefe 553e
00000220: 37a5 30bb f8eb 2e3e 4546 4abe 2755 ef3e
00000230: 71ac 273c 33fc 41be 4eb9 e3be 872e 69be
00000240: 2061 243f ae97 043d 73e9 053e b069 9ebc
00000250: 75ce 4b3e f6c7 f43d acdb 81be e94b 9fbd
00000260: 3829 3d3e 58b1 0cbe 388e 833d 0905 c63d
00000270: 5b02 d4bd 2d29 b83d 91d6 763e abc2 2c3e
00000280: 6d89 c4bc 4455 d43d 3d66 d7bc 0c31 0f3e
00000290: 81b4 9b3d 66d1 54be 0b96 3c3e ecd2 843e
000002a0: d6a5 863e d4b3 e3ba d7c9 5bbe 879d e13d
000002b0: d75d 733e ca4c f93d 16f2 91be 15f5 15be
000002c0: dec1 61be fa5b d1bd da47 4ebe a5ce 783e
000002d0: d007 ecbd 5b6a 17bd 074d 78be 017d fc3d
000002e0: 4ee0 343e edad aebd fdb2 133e 5886 59be
000002f0: bd34 48bd 5285 77be 4eaa a63d e1ab 6fbd
00000300: e6bd c73c 1769 803e 5e37 b93c ad46 05bd
00000310: 9c42 e7bd 9dd0 213e 70fe 0b3d e078 da3c
00000320: d7ff d9bd 33c4 93be 8660 3c3e cfa9 5b3e
00000330: 2f72 fabd ff6a e93e c469 b7be a058 21be
00000340: 5cc0 08bf 6c8f 783e eafb 8e3d 013f 83be
00000350: dc58 0d3e a9e8 df3c 091d 86be 6ad5 0e3d
00000360: eefc 18be d564 38be afc7 213d 54bf f9bd
00000370: 6b06 92be 39c1 52bd c0d4 9dbe 4094 e8bd
00000380: 5e9d 1ebd bafb e53d a8c4 0cbe eedd 953d
00000390: 7615 ddbc 6738 023d 4c5c 44bd ccd8 08be
000003a0: b79e 9ebe 16b5 4b3e 889c 723e 9385 013e
000003b0: 2ab4 53bd aa91 843e f1a6 a93e 243e 08be
000003c0: 8eef 223e 164b edbd f818 64be 6ff4 e43d
000003d0: 24ab 0c3e 9300 dcbd ca6d 283d 5ca5 1fbe
000003e0: cb4d e73d 1777 81be 3cd4 80be f39f 5f3e
000003f0: b6f5 9d3d ed9b 0b3d d957 d83c eb4b 7a3d
0.043081567 -0.18721709 -0.18303761 -0.33256197 0.14065528 -0.12719887 -0.01767827 0.028616667
-0.10394399 -0.026844699 0.030892722 0.11408217 -0.072249256 -0.43001637 -0.1260002 -0.1279768
0.7709885 -0.19782485 0.06647444 0.17549835 0.1684069 -0.10074002 0.068159975 0.16872633
0.09774257 -0.32556123 0.26480126 0.07621735 0.47414777 -0.15976302 -0.065871455 0.009808425
0.06629724 -0.55439794 0.14871873 0.0788478 -0.036467943 -0.083119415 0.18794256 0.27725342
-0.17841415 0.06941284 0.1461935 -0.16856572 0.047881167 0.2117718 -0.3823481 -0.06450403
-0.17697746 -0.28905165 0.2071982 -0.043645106 0.25858605 -0.23512223 0.09696272 -0.09276967
0.045182027 0.13276519 0.01022325 0.1657007 0.1709963 0.15820608 -0.073288016 -0.19088711
-0.09248774 0.13537483 -0.026019344 0.03403215 0.105914526 0.10643753 -0.1305393 0.06338353
0.005960834 -0.08552503 0.077325284 -0.25765133 0.026326984 -0.032968555 0.03742446 0.23762195
0.026251487 -0.06500141 0.10339811 0.043699853 0.0902472 -0.1331661 -0.10081149 -0.12897603
0.30991673 -0.18922804 -0.10578067 0.06028199 0.23622833 -0.24106924 -0.29811445 0.19227454
-0.041922774 -0.13244878 -0.09654173 -0.059536643 0.07479098 -0.17937364 -0.24471416 0.030431824
0.1990911 -0.06637335 -0.0074474597 0.12721115 0.32573357 -0.17065209 0.14556667 0.36159196
-0.10237138 -0.3612921 -0.1870089 -0.22601125 0.30919546 0.24031623 -0.23750181 0.19720188
-0.05138035 -0.07614479 0.054874007 0.028246436 0.07979946 -0.37619707 -0.09433305 0.038261566
0.3284931 -0.11462388 -0.23507872 0.040451817 0.17396894 -0.10676902 0.108512275 0.20897982
-0.0026953944 0.17082202 -0.19753368 0.46744654 0.010233984 -0.18943863 -0.44477314 -0.22771655
0.642107 0.032371216 0.13077335 -0.019337505 0.19902976 0.11952202 -0.2536291 -0.077781506
0.18472755 -0.13739526 0.064236104 0.09668929 -0.10352012 0.08992229 0.24105288 0.16871135
-0.023991311 0.103678256 -0.026293868 0.13983554 0.07602788 -0.20783004 0.18416612 0.2594217
0.26298398 -0.0017372319 -0.21463715 0.11016374 0.23766266 0.121728495 -0.2850501 -0.14644273
-0.2204661 -0.10222621 -0.20144597 0.24297579 -0.115249276 -0.036966663 -0.24248134 0.1232853
0.1766369 -0.085292675 0.14423747 -0.21242654 -0.04887842 -0.24171951 0.08137952 -0.058513526
0.024382543 0.25080177 0.022609409 -0.032538105 -0.112920016 0.15802236 0.034178197 0.026668966
-0.10644501 -0.28860626 0.18396196 0.21451496 -0.1222881 0.45589444 -0.3582288 -0.15756464
-0.5341852 0.24273461 0.069816425 -0.25634006 0.13803428 0.02733262 -0.26194027 0.034871496
-0.14940235 -0.18007214 0.039497074 -0.12194696 -0.28520522 -0.051453803 -0.30826378 -0.113564014
-0.038724296 0.11229654 -0.13746893 0.0731772 -0.026987772 0.03179207 -0.047939584 -0.13363951
-0.30980465 0.19893298 0.23692524 0.12648611 -0.05168549 0.25892383 0.3313518 -0.13304955
0.15911695 -0.11586587 -0.2227515 0.111794345 0.1373716 -0.10742297 0.041120328 -0.15590423
0.11294135 -0.2528617 -0.25161922 0.2183836 0.07712881 0.03408425 0.026409077 0.061107557

portfolio_head.bias f4 [15]
00000000: 1cd8 64bb dcd3 ff39 1fa0 cd3b 03ac 793d
00000010: 4a65 263c d354 babc 1a51 da3c 087e 393d
00000020: 37fc 2abd 93ba 15bc dc05 173d d6fb cc3c
00000030: 3ff9 56bd c096 073d ef81 ac3b
-0.003491885 0.00048795238 0.0062751914 0.06095506 0.010155985 -0.022745525 0.02665 0.04528621
-0.041744437 -0.009138721 0.036870822 0.025022428 -0.052483793 0.03310275 0.0052645127

network.0.weight f4 [64, 2]
00000000: 8403 fd3e 4df8 3ebd ed72 a23d 26df d63c
00000010: b02b cdbe 0d04 963c f68f 97bd ea64 23be
00000020: 8cc5 b53d bceb 21be 0da5 91be 03aa 37bd
00000030: f0f2 3c3b 64ac cabd 15e3 a3bc ce76 ccbd
00000040: 9a43 f2bd 35e9 4bbe c55b c5be 9e3a d6bc
00000050: 368a d7be a34e b2bd eb1b cbbe d9d1 bdbd
00000060: 21c3 17bd f9d2 0d3e b5cb 93be 5a9c bebd
00000070: c9ee 013f 79b5 a93d 6079 cf3e ba06 603b
00000080: 0411 8dbe 4596 72bd 2fa1 00bd d901 87be
00000090: d12c d6be df87 f1bc cb48 8bbe 36c2 fc3c
000000a0: 1b58 95bd f30b 10be 9a28 cfbe dd6a 7a3d
000000b0: f03b 1a3c eb5c c53d a456 01bf 032b 343e
000000c0: c57e 393d 5411 ccbe 1ac1 d7bd 3a46 703d
000000d0: 8f79 b7be 6b4b d73d dc69 c0be 0ece da3d
000000e0: 3956 95be 9b2a 1bbe 6367 0fbd efd3 f5bc
000000f0: d158 5e3f 6afa 293e db45 0abf bbd3 e6bc
00000100: ac5c cabe 6899 e5be b5fc c1be e98b 70be
00000110: 4855 d9be 4bac 493e c9aa 153f f8b5 933d
00000120: 80e9 303e 9eb7 8b3c 2580 ecbe 6da0 b23e
00000130: 2f70 2abd e411 52bd 2ec5 dcbe be24 4bbe
00000140: 74bf 06bf 016b 123e 39ca 0b3f 8d10 06be
00000150: c7bf abbc ee97 3fbe a4fe e2be 2172 3cbd
00000160: 46ff 45be 9a1b 40be e422 37be 3aeb 0b3e
00000170: 99f2 523e e0a5 09be bcb4 90be 7c73 7ebe
00000180: 43c6 833e 4858 a0be 5676 c0be 2d81 2fbe
00000190: 479c 1cbe b9bd c6bb d687 f6bd 441e acbe
000001a0: e693 42bd d07d 70be 4ae4 b1bd 5fc1 1bbe
000001b0: 4cf3 e6be e45f 32bd 3e73 27be f705 253d
000001c0: ff6f c0be 490f b23d 9713 2dbd 3cf6 bfbe
000001d0: fe86 ecbe 656f 2a3e 2456 87be 52ce e1bc
000001e0: e5ed 2f3f e511 e63d b3ce 90bd e60c 7bbc
000001f0: dc64 88be 32ee 083c 5d4d 64be 2c7f 2bbe
0.49416745 -0.046623517 0.079320766 0.026229452 -0.40072393 0.018312478 -0.07400505 -0.15956464
0.0887557 -0.15812582 -0.28446236 -0.04483987 0.0028831325 -0.09896162 -0.020005742 -0.09983598
-0.118293 -0.1991318 -0.38546577 -0.026150998 -0.42097634 -0.08706405 -0.39669737 -0.09268541
-0.037051324 0.13850011 -0.28866354 -0.093071654 0.5075498 0.08286566 0.4052229 0.0034183697
-0.27552044 -0.05922534 -0.031403717 -0.26368597 -0.41831067 -0.029483734 -0.27203974 0.030854326
-0.072921954 -0.14067058 -0.40460664 0.06113707 0.009413704 0.09636863 -0.5052283 0.17594533
0.045286912 -0.3985697 -0.10534878 0.058660723 -0.3583493 0.10512432 -0.37580764 0.10683833
-0.29167345 -0.15152971 -0.035010707 -0.030008284 0.86854273 0.16599432 -0.5401284 -0.028177133
-0.39523828 -0.44843602 -0.37888113 -0.23490871 -0.42447877 0.19694631 0.5846372 0.07212442
0.17276573 0.017055329 -0.46191517 0.3488802 -0.041610893 -0.051286593 -0.43119186 -0.19838235
-0.52635884 0.14298631 0.5460544 -0.13092251 -0.02096547 -0.187103 -0.443349 -0.04600728
-0.1933566 -0.18760529 -0.17884403 0.1366395 0.20600356 -0.13442183 -0.2826289 -0.24848741
0.257372 -0.31317353 -0.37590283 -0.1713912 -0.1529399 -0.006065097 -0.120376274 -0.3361684
-0.04750433 -0.23485494 -0.08686121 -0.15210484 -0.45107496 -0.04354848 -0.16352555 0.04028889
-0.37585446 0.08694322 -0.04225501 -0.3749255 -0.4619674 0.16644056 -0.26432908 -0.027564202
0.68722373 0.11233882 -0.07070675 -0.015322899 -0.2663945 0.008357571 -0.22295137 -0.16747731

network.0.bias f4 [64]
00000000: 0c95 943e 7bb1 b13e 6257 c53e 0000 0000
00000010: fb7f 123e 1eb3 883e 0000 0000 0000 0000
00000020: 0000 0000 cb56 b53e 7ab4 c63e 21d0 c33e
00000030: 99f5 75bd 0000 0000 8e25 9a3e 2503 5e3e
00000040: 0000 0000 0000 0000 28f0 c63e 0ba8 783e
00000050: 0000 0000 44cd bb3e 5e3f 92bc 1841 0c3f
00000060: 03b0 10be bdfa 75bd a446 9f3e 627f b03e
00000070: 09ab 893e 35f8 75bd ce02 453e e5a3 f93e
00000080: 4260 d03e aab2 ba3e 7661 1b3f 3d52 ec3d
00000090: caeb 273e a301 c43e 4037 38bd a6ea d23e
000000a0: a990 ec3e 96cc 773e 0000 0000 15d8 d23e
000000b0: 0000 0000 565b 0c3e 4141 0d3d 8c1f 903e
000000c0: c0ff 433e 467d ba3e 1745 e73e 6ba4 273e
000000d0: 0000 0000 0000 0000 7dce d63e 12f8 75bd
000000e0: b841 ac3e 0c95 203d 07e7 203f 0000 0000
000000f0: 656c 043e 54f8 75bd 21fa 75bd 0000 0000
0.29019964 0.3470572 0.3854323 0.0 0.14306633 0.26699156 0.0 0.0
0.0 0.3541778 0.38809568 0.38244727 -0.060048673 0.0 0.30106777 0.21680887
0.0 0.0 0.388551 0.24282853 0.0 0.36680043 -0.017852481 0.54786825
-0.14129643 -0.060053576 0.31108582 0.34472185 0.26888302 -0.06005116 0.19239351 0.48757854
0.4069844 0.36464435 0.6069559 0.11539123 0.1639854 0.382825 -0.044974566 0.41194648
0.46204117 0.24199137 0.0 0.41180483 0.0 0.13706717 0.03448606 0.28149068
0.1914053 0.364237 0.451699 0.16371314 0.0 0.0 0.41954413 -0.06005103
0.3364389 0.039204642 0.6285252 0.0 0.12931974 -0.060051277 -0.060052995 0.0

network.2.weight f4 [64, 64]
00000000: ae65 153e 7ec5 d33d 87f7 063e 84ff aebb
00000010: b080 18bd df9b 0f3e 9849 b93d df53 843d
00000020: 3c20 99bd 1bfc 9f3e cff4 373f 87e3 c0bc
00000030: 2b11 24be 44ea 93be f2d4 b23e a61d 1ebe
00000040: 5f37 3bbd 00d2 463e 1772 183c 415b c93e
00000050: 6a62 23be 51e0 02bd 39d8 05be 4cd7 c93e
00000060: 9cb3 0d3d 193f b13e a655 c8bd 71f9 2e3e
00000070: c1ed d43d 058d 5e3d 84db f4bd 47fd fc3e
00000080: 0db8 7d3e ff7f 913e 2fc8 6f3f 73d4 7f3d
00000090: 3f17 113e 618d fb3e af09 00be c4b8 643d
000000a0: 188a 263f a67a eebd b17d 1bbd be89 0bbc
000000b0: 3866 933d 6cc0 95be 2fd6 0b3e eff0 113e
000000c0: 786f 8fbc 27a8 133e 23e4 013f 6304 963d
000000d0: 052a 41be 416f 0dbe 68e3 863e 9cdf 5d3e
000000e0: 606d 033f ea4a 75bd 56f3 3c3f b9d3 573d
000000f0: 4398 053e a180 f5bd ae08 71bd c42e 303e
00000100: 23bd 0bbe f11c 303d ece4 c73e 35cd 9a3b
00000110: 6f3a c93e fccd d83e 2b8d cdba 3c3f ab3d
00000120: 4c1e 0abd c94f a73e f359 b13e ff4e 293c
00000130: 77f3 983d 3802 70be f0ed 88be e410 3a3d
00000140: 6658 623e 4d95 1b3d ef6a 843e 44cf a13e
00000150: 5279 aebc df40 663d 767d ce3d 6a8b 3a3f
00000160: 77f6 393e bb42 8c3e 6b11 103f 0cb3 70be
00000170: c30c 8d3d 4d8f a83e eafe 86be ff88 283f
00000180: 029e 353e ccda 593e 6a6f 263f 1f57 dd3d
00000190: 35dd 643e f78f ed3e 5889 30be 764d d53e
000001a0: cfa7 c83e 5674 f3bc 6d78 95be ebbf 483e
000001b0: 69b1 6ebd a7cc ec3e 5329 51be 7264 553d
000001c0: 38ee 3d3e d937 8f3e 8627 c33e 6b78 9cbd
000001d0: 0222 e33d 1940 f03c 613c 493e 3235 e6bd
000001e0: d33d 203e 75a2 d5bc 5761 2b3f eea4 fc3d
000001f0: 3ee3 2b3e 5ad4 393c 8dbf 9abe d3f4 a43d
00000200: 9724 c8be 6c7a 0b3e b80d d83c 9f81 863d
00000210: 27ad 0cbd 69bf 2e3e 6868 00bc 29f2 35bd
00000220: c593 67be b7de ba3d 0387 39be 8898 3c3c
00000230: df0a 78be 1b11 b13d 415c 64bd 97b7 9abd
00000240: 39d4 1c3e 246d 1bbe fa92 4fbe e046 d4bc
00000250: f6a4 643e 5c87 b9be bd22 ba3c 84fd d0bb
00000260: 5670 26be 14ea 5f3a 03d3 66be 56cd 8e3b
00000270: 1867 90be 60f0 403e 382b a83d aeb7 8b3d
00000280: 832b 143e d608 5ebe e6e4 4c3e 88fc 53bd
00000290: 5624 b7bd de4a b6bc 7273 ab3d 419d e5bd
000002a0: a86f 16bf 5cb7 f93d 0c4c 36bd 8f16 253e
000002b0: 34bd 6d3e 3e58 04be 07e8 41be 0e7a 97be
000002c0: c3f9 ad3d 8795 8ebe 8c8e 853d c549 803e
000002d0: 92ac 233e db57 883e 6366 8fbe aeae 063e
000002e0: 93f6 703e c421 8f3c 65f1 1fbe 3db4 67bd
000002f0: 62dc 6abd b244 73be 58d6 963e c2b4 743e
00000300: 8175 96bf 31c9 3abf 20b5 283f ce91 bd3b
00000310: b2c9 cfbe 3050 003f 8e94 a9bd bb2e fa3d
00000320: 9641 17bd 3dbf 433f 996d 1c3f 6cd8 563f
00000330: 267a f2bd f1dc ab3d 3d4c 91bf 388a 83bf
00000340: 3a8c 743e b601 843e 09c0 2b3f d64c eb3d
00000350: 2b24 803b 2bca 7d3f b4cc 53be 49c5 1a3f
00000360: f861 323d d42b 1d3d 8b62 a63e 124e 333f
00000370: d9fa 183f 2cec 25be 4386 08c0 23d4 833f
00000380: d5f1 1e3f 467a bd3e 515f e03d 6e04 c6bf
00000390: 5275 16bf d2ac 183f 4eba 493e c761 013f
000003a0: 615d 303f 0a4d 8dbf eb0e 2dbe b8f0 573f
000003b0: f5ce 823e 892d 7b3e 598e 1bbf 0191 1c3f
000003c0: 3605 31bf e0ee 233f 928b 13bd 78fb 14be
000003d0: cc05 edbd f919 42be be06 e53e b98f 41bd
000003e0: 7502 c63e 05fe 85bd 77cc 4d3e c27d e73e
000003f0: ec3c 19c0 ddc0 e1bd 26c6 b43d 4293 8f3d
0.14589569 0.10340403 0.13180362 -0.0053405184 -0.0372321 0.14024304 0.0904724 0.0646131
-0.07476851 0.3124703 0.71857923 -0.023545993 -0.16022174 -0.28889668 0.3492809 -0.15440997
-0.045707103 0.19416046 0.009304545 0.39327434 -0.1595551 -0.031952206 -0.13070764 0.3942207
0.034595117 0.34618452 -0.09781961 0.17087342 0.103969105 0.054333705 -0.11955932 0.49411985
0.24777241 0.28417966 0.9366483 0.062458467 0.14169024 0.491313 -0.12503694 0.05584027
0.65054464 -0.11644487 -0.037961666 -0.008516727 0.07197231 -0.2924837 0.13655923 0.14252065
-0.017509207 0.14419614 0.50738734 0.073250555 -0.18863685 -0.13811971 0.26345372 0.21667331
0.5133877 -0.059885897 0.738088 0.05269215 0.13046364 -0.11987425 -0.05884617 0.1720534
-0.13646369 0.04299635 0.3904184 0.0047241696 0.39302394 0.42344654 -0.001568233 0.083616704
-0.0337203 0.3267806 0.34638938 0.010333776 0.07468312 -0.23438346 -0.26744032 0.045426264
0.22104034 0.03798418 0.25862834 0.31603444 -0.021298084 0.05621421 0.100825235 0.7286898
0.18160425 0.2739466 0.5627658 -0.23505801 0.068872 0.3292183 -0.2636636 0.6583404
0.17736056 0.2127487 0.65013754 0.10807633 0.22350009 0.463989 -0.17239892 0.4166066
0.39190528 -0.02971856 -0.2919344 0.19604461 -0.05827466 0.46249887 -0.2042592 0.052097745
0.18547904 0.27972296 0.3811609 -0.076401554 0.11090471 0.02932744 0.19651939 -0.11240615
0.15648584 -0.026078442 0.66945404 0.12336145 0.16785905 0.011342132 -0.30224267 0.08054509
-0.39090416 0.13620919 0.02637373 0.06567692 -0.03434482 0.17065205 -0.007837392 -0.044420395
-0.22614963 0.09124511 -0.18117909 0.011510976 -0.24222897 0.08645841 -0.055752043 -0.07554548
0.15315332 -0.15178353 -0.20270911 -0.025912702 0.22328553 -0.36236084 0.022721643 -0.0063778777
-0.1625379 0.0008541655 -0.22541432 0.004357974 -0.28203654 0.18841696 0.08211368 0.068221435
0.14469723 -0.21683058 0.20009193 -0.051754504 -0.089424774 -0.022252496 0.08371629 -0.112116344
-0.58764124 0.12193176 -0.044506118 0.16121887 0.23216707 -0.12924287 -0.18936168 -0.29585308
0.08494904 -0.27848455 0.06521329 0.25056282 0.15983799 0.26629528 -0.28007802 0.13152573
0.2353156 0.017472155 -0.15619428 -0.056568373 -0.05733908 -0.23756674 0.29460406 0.23897079
-1.1754609 -0.72963244 0.65901375 0.0057852035 -0.4058357 0.50122356 -0.08280288 0.122159444
-0.036927782 0.7646368 0.6110473 0.83923984 -0.11839704 0.083917506 -1.1351391 -1.0276556
0.23881617 0.25782555 0.670899 0.11489265 0.0039105616 0.9913661 -0.20683557 0.60457283
0.04355046 0.038371876 0.32497057 0.70041 0.59757763 -0.16203374 -2.1331947 1.0299114
0.62087756 0.3700735 0.1095568 -1.5470102 -0.58772767 0.596387 0.19699976 0.5053982
0.68892485 -1.1039135 -0.16900222 0.8435168 0.2554852 0.24529089 -0.6076408 0.6115876
-0.69148576 0.6403637 -0.036021776 -0.14549053 -0.11573371 -0.1895522 0.44731706 -0.047256205
0.3867375 -0.06542591 0.20097528 0.45213133 -2.3943434 -0.11023114 0.08826856 0.07010509

network.2.bias f4 [64]
00000000: a6e4 0f3f 0afd de3e 969f 7abd b886 0ebf
00000010: f1e4 253f c191 62bd cf33 b33e 08b0 63bd
00000020: e966 ed3e 3222 76bd 0948 e03e e30f f63e
00000030: 40fa 5abd b5ca d53e 7211 bc3e 7acf c43e
00000040: 0000 0000 78ac 63bd 0000 0000 6b92 4b3e
00000050: 34f1 3a3e 4377 c93e e4e9 dd3e ce25 f53e
00000060: c16f 39be 6777 d73e 0000 0000 5674 ed3e
00000070: f280 cd3e 4aac 63bd 3f78 c83e 94cd d53e
00000080: a1c8 fb3e 1067 c63e bcb8 0b3f 0000 0000
00000090: 9f85 ce3e 0000 0000 0d73 54bd 2631 d53e
000000a0: bb59 903e 56b0 bd3e 53f8 75bd 6207 bb3e
000000b0: 0000 0000 8a88 8cbd d293 be3e 2a0d c33e
000000c0: 0000 0000 68f6 75bd b3f9 75bd 30fb 75bd
000000d0: 4cc1 91bd d404 c93e 3d78 f73e a8eb 75bd
000000e0: 1389 e13e 23c9 023f e31e c13e 7902 ab3e
000000f0: 1590 c73e 9340 e13e b906 c53e b3e3 75bd
0.56208265 0.43552428 -0.06118735 -0.55674314 0.6480246 -0.055314783 0.35000464 -0.0555878
0.46367577 -0.060091205 0.43804958 0.48058996 -0.053461313 0.41756216 0.3673206 0.38439542
0.0 -0.0555844 0.0 0.19880073 0.18256074 0.39348802 0.43342507 0.47880405
-0.18109037 0.42083284 0.0 0.4637782 0.4013744 -0.05558423 0.3915424 0.41758406
0.49176505 0.38750505 0.5457876 0.0 0.4033632 0.0 -0.051867533 0.4163906
0.2819346 0.37048596 -0.060051274 0.3652907 0.0 -0.0686198 0.37222153 0.3809598
0.0 -0.060049444 -0.060052585 -0.060054004 -0.071169466 0.39261496 0.48333922 -0.060039192
0.44049892 0.5108816 0.37718877 0.33400324 0.38977113 0.4399458 0.3848169 -0.060031604

network.4.weight f4 [1, 64]
00000000: c652 aa3e 868d 773e 3865 5b3d a3ae ccbf
00000010: 001a cd3e 85c7 2a3d 2e06 103e 7b07 353d
00000020: f133 8f3e 331c 463d b2d2 2d3e 8da4 a63e
00000030: 23bf 4a3d 4c27 633e 4cde 1d3e ed3c 423e
00000040: 51bc bcbb 9711 4b3d 8a0d 87bb 4989 c13b
00000050: 30b7 333b e25b 5d3e 0eab 8d3e a05b 563e
00000060: 84bd 903b 7b57 5e3e 4fe3 f83b e6f1 633e
00000070: 75bc 843e 26e8 4b3d c41c 513e d6ad 7b3e
00000080: dc1f 833e 26df 6d3e ff2e d4bf 6d3e 8f3c
00000090: 7fa4 573e 6d25 4c3c e433 f03c 4f72 543e
000000a0: 54dd b43d 194e 373e 43d9 493d 1bbb e33d
000000b0: 0dba 7cbc 2a3d 433d d685 2a3e ddaa 163e
000000c0: 6045 663c c4a7 553d fd51 493d 8291 323d
000000d0: 24ea 7e3d fd8d 3a3e f2ef 653e 76c0 3c3d
000000e0: f40e 673e 1c89 843e 35c9 4c3e a21e 173e
000000f0: 90c7 883e 5aa7 7a3e 623e 493e 1fa3 723d
0.33266276 0.2417508 0.053563327 -1.5990795 0.400589 0.041694183 0.14064857 0.044196587
0.27969316 0.048366737 0.16974905 0.32547417 0.04949869 0.2218296 0.15416831 0.18968554
-0.0057597538 0.04957732 -0.004121487 0.0059062582 0.002742242 0.21617082 0.27669567 0.2093339
0.0044171233 0.21713059 0.0075954567 0.22260246 0.2592503 0.04978194 0.2042113 0.24578032
0.25610244 0.23229656 -1.6576842 0.017485822 0.21058844 0.012460095 0.029321618 0.2074673
0.088312775 0.17900886 0.049279463 0.11119672 -0.015425217 0.047665752 0.16652617 0.14713617
0.014054626 0.052161947 0.049150456 0.0435958 0.062235013 0.18218227 0.22454813 0.046081983
0.22564298 0.25885856 0.1999863 0.14757779 0.26714754 0.24477902 0.19652703 0.059237596

exp_avg f4 [64, 2]
00000000: 0000 0000 0000 0000 0400 0000 0400 0000
00000010: 0000 0000 0000 0000 0400 0000 0400 0000
00000020: 0000 0000 0000 0000 7b4e 40ba 9127 9fb8
00000030: 0000 0000 0400 0000 e108 0000 1701 0000
00000040: 0000 0000 0000 0000 0400 0000 0400 0000
00000050: 0000 0000 0000 0000 0400 0000 0400 0000
00000060: 0000 0000 0400 0000 0000 0000 0000 0000
00000070: 0000 0000 0000 0000 0000 0000 0000 0000
00000080: 0000 0000 0000 0000 0000 0000 0000 0000
00000090: 0400 0000 0400 0000 0400 0000 0400 0000
000000a0: 61e1 7339 caac 1336 0000 0000 0400 0000
000000b0: 0000 0000 0000 0000 0400 0000 0400 0000
000000c0: 0400 0000 0400 0000 0400 0000 0400 0000
000000d0: 0400 0000 0400 0000 0400 0000 0400 0000
000000e0: 0400 0000 0400 0000 0400 0000 0400 0000
000000f0: 0400 0000 0400 0000 0400 0000 0400 0000
00000100: 0400 0000 0400 0000 0000 0000 0400 0000
00000110: ed51 1e00 11fa 0400 0400 0000 0400 0000
00000120: 9347 8eb9 8c21 99b8 0000 0000 0000 0000
00000130: 0400 0000 0400 0000 0000 0000 0000 0000
00000140: 80dc b7ba 0251 14b9 0400 0000 0400 0000
00000150: 0000 0000 0000 0000 3976 8aba 38bb f1b8
00000160: 0400 0000 0400 0000 0400 0000 0400 0000
00000170: 0400 0000 0400 0000 0400 0000 0400 0000
00000180: 0000 0000 0000 0000 d80e d0b9 c2db 8fb7
00000190: 0400 0000 0400 0000 0400 0000 0400 0000
000001a0: 0000 0000 0000 0000 0400 0000 0400 0000
000001b0: 0000 0000 0000 0000 0000 0000 0000 0000
000001c0: a895 003b fe0b 9e39 0400 0000 0400 0000
000001d0: 3201 c502 3e7f 5201 0400 0000 0400 0000
000001e0: 0400 0000 0400 0000 0000 0000 0000 0000
000001f0: 0400 0000 0400 0000 0000 0000 0000 0000
0.0 0.0 6e-45 6e-45 0.0 0.0 6e-45 6e-45
0.0 0.0 -0.0007335913 -7.5890806e-05 0.0 6e-45 3.185e-42 3.91e-43
0.0 0.0 6e-45 6e-45 0.0 0.0 6e-45 6e-45
0.0 6e-45 0.0 0.0 0.0 0.0 0.0 0.0
0.0 0.0 0.0 0.0 6e-45 6e-45 6e-45 6e-45
0.00023258246 2.2005283e-06 0.0 6e-45 0.0 0.0 6e-45 6e-45
6e-45 6e-45 6e-45 6e-45 6e-45 6e-45 6e-45 6e-45
6e-45 6e-45 6e-45 6e-45 6e-45 6e-45 6e-45 6e-45
6e-45 6e-45 0.0 6e-45 2.784454e-39 4.57049e-40 6e-45 6e-45
-0.00027137678 -7.301857e-05 0.0 0.0 6e-45 6e-45 0.0 0.0
-0.0014027506 -0.00014144558 6e-45 6e-45 0.0 0.0 -0.0010563798 -0.00011526648
6e-45 6e-45 6e-45 6e-45 6e-45 6e-45 6e-45 6e-45
0.0 0.0 -0.0003968391 -1.7149261e-05 6e-45 6e-45 6e-45 6e-45
0.0 0.0 6e-45 6e-45 0.0 0.0 0.0 0.0
0.0019620452 0.00030145043 6e-45 6e-45 2.8947234e-37 3.86622e-38 6e-45 6e-45
6e-45 6e-45 0.0 0.0 6e-45 6e-45 0.0 0.0

exp_avg_sq f4 [64, 2]
00000000: 0000 0000 0000 0000 d469 0735 e6ed 3832
00000010: 0000 0000 0000 0000 44d3 942e 2085 872d
00000020: 0000 0000 0000 0000 459d 6738 49ce a235
00000030: 0000 0000 2ab9 502b cb97 9236 343f c233
00000040: 0000 0000 0000 0000 29ab a42b 9ec9 1c2e
00000050: 0000 0000 0000 0000 4a98 d72c 4603 0e2e
00000060: 0000 0000 c358 f729 0000 0000 0000 0000
00000070: 0000 0000 0000 0000 0000 0000 0000 0000
00000080: 0000 0000 0000 0000 0000 0000 0000 0000
00000090: 4893 ba33 c6a2 a730 1a76 d635 6996 d032
000000a0: 7689 2238 72c8 4e35 0000 0000 182c a12c
000000b0: 0000 0000 0000 0000 2f6b e333 7329 1a31
000000c0: 489d 0636 bc15 2433 1bc0 2136 fb4b 3533
000000d0: c9bf 9237 8f1d 9934 6fda 132d 02e4 ca2a
000000e0: dcd5 4f33 cbee 5d30 7921 7534 c568 6d31
000000f0: 907d 9835 050d cf32 c9a0 9633 ad8e 8730
00000100: a07f 1a32 4efa b32f 0000 0000 2911 152c
00000110: 3c9e c936 da39 f633 42b8 6836 63cc 9a33
00000120: afdc b837 e0fd f634 0000 0000 0000 0000
00000130: 27ad d035 af3b 0633 0000 0000 0000 0000
00000140: 598d 5038 cb73 0336 d45f 6c35 7896 a532
00000150: 0000 0000 0000 0000 a611 c138 664c 0c36
00000160: 07dd a733 a95d c930 933b c535 e114 e932
00000170: 0186 e430 1a26 a52e 0b44 a934 8ce8 b431
00000180: 0000 0000 0000 0000 91fd c737 0f17 3835
00000190: 0156 7d33 610a 4331 2180 7234 c8fb 8931
000001a0: 0000 0000 0000 0000 5341 a134 1063 c931
000001b0: 0000 0000 0000 0000 0000 0000 0000 0000
000001c0: 9579 2839 e667 3136 2442 1433 e314 6330
000001d0: dcb7 5436 7f1a 8a33 990d 3431 ce54 d32f
000001e0: b1a4 3534 e990 5631 0000 0000 0000 0000
000001f0: 9c2d 8133 3e11 8030 0000 0000 0000 0000
0.0 0.0 5.044542e-07 1.07643015e-08 0.0 0.0 6.767789e-11 1.5406842e-11
0.0 0.0 5.522116e-05 1.2129977e-06 0.0 7.415341e-13 4.36881e-06 9.0453256e-08
0.0 0.0 1.1700407e-12 3.5649365e-11 0.0 0.0 6.127575e-12 3.228997e-11
0.0 1.0984401e-13 0.0 0.0 0.0 0.0 0.0 0.0
0.0 0.0 0.0 0.0 8.68809e-08 1.2197112e-09 1.5978615e-06 2.4282786e-08
3.875183e-05 7.7032666e-07 0.0 4.5807906e-12 0.0 0.0 1.0590008e-07 2.243351e-09
2.0059106e-06 3.8203993e-08 2.410269e-06 4.221145e-08 1.7493863e-05 2.8519977e-07 8.404485e-12 3.604062e-13
4.8390447e-08 8.0738677e-10 2.282958e-07 3.4547594e-09 1.1361426e-06 2.4103892e-08 7.014166e-08 9.863094e-10
8.992998e-09 3.2737763e-10 0.0 2.11837e-12 6.0086877e-06 1.1465791e-07 3.4677946e-06 7.2083616e-08
2.2037273e-05 4.600579e-07 0.0 0.0 1.5547602e-06 3.1253588e-08 0.0 0.0
4.9722705e-05 1.9587922e-06 8.80563e-07 1.9276953e-08 0.0 0.0 9.2062444e-05 2.0906095e-06
7.816748e-08 1.4651295e-09 1.4694982e-06 2.7134265e-08 1.662727e-09 7.5100995e-11 3.152821e-07 5.265127e-09
0.0 0.0 2.3840725e-05 6.8578896e-07 5.8984373e-08 2.8382134e-09 2.258462e-07 4.015849e-09
0.0 0.0 3.0036117e-07 5.861132e-09 0.0 0.0 0.0 0.0
0.00016067021 2.6435532e-06 3.451909e-08 8.26118e-10 3.1697482e-06 6.4309454e-08 2.6201177e-09 3.8440934e-10
1.6916853e-07 3.122347e-09 0.0 0.0 6.015327e-08 9.318126e-10 0.0 0.0

exp_avg f4 [64]
00000000: 0000 0000 0400 0000 0000 0000 0400 0000
00000010: 0000 0000 7eeb 54ba 0400 0000 6d0b 0000
00000020: 0000 0000 0400 0000 0000 0000 0400 0000
00000030: 0400 0000 0000 0000 0000 0000 0000 0000
00000040: 0000 0000 0000 0000 0400 0000 0400 0000
00000050: 2aae 5fb7 0400 0000 0000 0000 0400 0000
00000060: 0400 0000 0400 0000 0400 0000 0400 0000
00000070: 0400 0000 0400 0000 0400 0000 0400 0000
00000080: 0400 0000 0400 0000 0cef 2900 0400 0000
00000090: 04eb d5ba 0000 0000 0400 0000 0000 0000
000000a0: 64cb 86ba 0400 0000 0000 0000 da36 c939
000000b0: 0400 0000 0400 0000 0400 0000 0400 0000
000000c0: 0000 0000 f313 0238 0400 0000 0400 0000
000000d0: 0000 0000 0400 0000 0000 0000 0000 0000
000000e0: d498 503b 0400 0000 e654 0e03 0400 0000
000000f0: 0400 0000 0000 0000 0400 0000 0000 0000
0.0 6e-45 0.0 6e-45 0.0 -0.0008122249 6e-45 4.099e-42
0.0 6e-45 0.0 6e-45 6e-45 0.0 0.0 0.0
0.0 0.0 6e-45 6e-45 -1.33323865e-05 6e-45 0.0 6e-45
6e-45 6e-45 6e-45 6e-45 6e-45 6e-45 6e-45 6e-45
6e-45 6e-45 3.851009e-39 6e-45 -0.001632065 0.0 6e-45 0.0
-0.0010284004 6e-45 0.0 0.00038378575 6e-45 6e-45 6e-45 6e-45
0.0 3.1012994e-05 6e-45 6e-45 0.0 6e-45 0.0 0.0
0.0031829374 6e-45 4.182751e-37 6e-45 6e-45 0.0 6e-45 0.0

exp_avg_sq f4 [64]
00000000: 0000 0000 189e ca35 0000 0000 ffad 0932
00000010: 0000 0000 b8f6 7d39 d317 0630 48cd 8537
00000020: 0000 0000 a006 c632 0000 0000 593c aa32
00000030: 19e8 9e2e 0000 0000 0000 0000 0000 0000
00000040: 0000 0000 0000 0000 f81c 0b34 3f2c 3136
00000050: 9d9c 0839 9d16 4f31 0000 0000 0a8c 9e34
00000060: 431c 9236 1dfd ab36 20ac db37 0f99 b22e
00000070: a0f8 bc33 628a 0c35 b818 6536 0957 4334
00000080: 8e96 f633 eb88 bf30 5624 9437 a46a 4837
00000090: 8121 ae38 0000 0000 e3dd 7036 0000 0000
000000a0: 73dd 303a bbfe 4e36 0000 0000 25cf e439
000000b0: 2d59 3034 4db1 5936 0983 0233 3c78 3135
000000c0: 0000 0000 8bef 4739 41ef 8435 11e3 0735
000000d0: 0000 0000 0859 4035 0000 0000 0000 0000
000000e0: 7711 9939 414b e533 3312 3937 152d 5434
000000f0: f0c9 c034 0000 0000 c149 c033 0000 0000
0.0 1.5096184e-06 0.0 8.014012e-09 0.0 0.0002421987 4.878277e-10 1.5950427e-05
0.0 2.3053246e-08 0.0 1.9818048e-08 7.226237e-11 0.0 0.0 0.0
0.0 0.0 1.2955923e-07 2.640081e-06 0.00013028314 3.0135319e-09 0.0 2.9531685e-07
4.354429e-06 5.1256634e-06 2.6186986e-05 8.1216915e-11 8.799657e-08 5.235544e-07 3.4138047e-06 1.8192453e-07
1.14826534e-07 1.3935993e-09 1.7659895e-05 1.1945758e-05 8.303207e-05 0.0 3.5891942e-06 0.0
0.00067468657 3.0844665e-06 0.0 0.00043641884 1.6423719e-07 3.2438722e-06 3.038716e-08 6.61126e-07
0.0 0.00019067356 9.904398e-07 5.0621844e-07 0.0 7.165513e-07 0.0 0.0
0.00029195446 1.0677332e-07 1.1031097e-05 1.976044e-07 3.5909716e-07 0.0 8.9541125e-08 0.0

exp_avg f4 [64, 64]
00000000: 0000 0000 0400 0000 0000 0000 0400 0080
00000010: 0000 0000 0400 0000 0000 0000 0400 0000
00000020: 0000 0000 0400 0000 0000 0000 0400 0000
00000030: 0400 0080 0000 0000 0000 0000 0000 0000
00000040: 0000 0000 0000 0000 0000 0000 0400 0000
00000050: 0400 0000 0000 0000 0000 0000 0400 0000
00000060: 0400 0000 0400 0000 0400 0000 0000 0000
00000070: 0400 0080 0400 0000 0400 0000 0000 0000
00000080: 0400 0000 0000 0000 0400 0000 0400 0000
00000090: 0400 0000 0000 0000 0400 0000 0000 0000
000000a0: 0400 0000 0400 0000 0000 0000 0400 0000
000000b0: 0400 0000 0400 0000 0400 0000 0400 0000
000000c0: 0000 0000 0400 0000 0400 0000 0400 0080
000000d0: 0000 0000 0400 0000 0000 0000 0000 0000
000000e0: 0400 0000 0400 0000 0400 0000 0400 0000
000000f0: 0400 0000 0000 0000 0400 0080 0000 0000
00000100: 0000 0000 0400 0000 0000 0000 0400 0080
00000110: 0000 0000 0c6e c3b7 0400 0080 0400 0080
00000120: 0000 0000 0400 0080 0000 0000 0400 0080
00000130: 0400 0080 0000 0000 0000 0000 0000 0000
00000140: 0000 0000 0000 0000 0400 0000 0400 0000
00000150: 63d5 4738 0400 0080 0000 0000 0400 0000
00000160: 0400 0080 0400 0080 0400 0080 0400 0080
00000170: 0400 0080 0400 0000 0400 0080 0400 0000
00000180: 0400 0000 0400 0080 22bc 0100 0400 0000
00000190: 5c96 8739 0000 0000 0400 0080 0000 0000
000001a0: 8137 0e3a 0400 0080 0000 0000 da35 9339
000001b0: 0400 0000 0400 0080 0400 0000 0400 0000
000001c0: 0000 0000 ef2f 8fb8 0400 0000 0400 0000
000001d0: 0000 0000 0400 0080 0000 0000 0000 0000
000001e0: 9e6d afb9 0400 0000 8250 0300 0400 0080
000001f0: 0400 0000 0000 0000 0400 0000 0000 0000
00000200: 0000 0000 0400 0000 0000 0000 0400 0080
00000210: 0000 0000 0400 0000 0000 0000 0400 0000
00000220: 0000 0000 0000 0000 0000 0000 0000 0000
00000230: 0000 0000 0000 0000 0000 0000 0000 0000
00000240: 0000 0000 0000 0000 0400 0000 0400 0000
00000250: 0400 0000 0000 0000 0000 0000 0400 0000
00000260: 0400 0000 0400 0000 0400 0000 0400 0000
00000270: 0400 0000 0400 0000 0400 0000 0400 0000
00000280: 0400 0000 0000 0000 0400 0000 0400 0000
00000290: 0400 0000 0000 0000 0400 0000 0000 0000
000002a0: 0400 0000 0400 0000 0000 0000 0400 0000
000002b0: 0400 0000 0400 0000 0400 0000 0400 0000
000002c0: 0000 0000 0400 0000 0000 0000 0400 0000
000002d0: 0000 0000 0400 0000 0000 0000 0000 0000
000002e0: 0400 0000 0400 0000 0400 0000 0000 0000
000002f0: 0400 0000 0000 0000 0400 0000 0000 0000
00000300: 0000 0000 0400 0000 0000 0000 0400 0080
00000310: 0000 0000 184a 9db8 0400 0080 3100 0000
00000320: 0000 0000 0400 0000 0000 0000 0400 0000
00000330: 0400 0080 0000 0000 0000 0000 0000 0000
00000340: 0000 0000 0000 0000 0400 0000 0400 0000
00000350: e8e2 91b8 0400 0080 0000 0000 0400 0000
00000360: 0400 0000 0400 0080 0400 0080 0400 0080
00000370: 0400 0080 0400 0000 0400 0000 0000 0000
00000380: 0400 0080 0400 0080 8ab5 0080 0400 0080
00000390: d9a9 8ab6 0000 0000 0400 0000 0000 0000
000003a0: ffbb e9b9 0400 0080 0000 0000 bc5c 86b9
000003b0: 0400 0000 0400 0000 0400 0080 0400 0000
000003c0: 0000 0000 0f86 d9b9 0400 0000 0400 0000
000003d0: 0000 0000 0400 0000 0000 0000 0000 0000
000003e0: 3508 07ba 0400 0000 92e1 3a00 0400 0080
000003f0: 0400 0000 0000 0000 0400 0000 0000 0000
0.0 6e-45 0.0 -6e-45 0.0 6e-45 0.0 6e-45
0.0 6e-45 0.0 6e-45 -6e-45 0.0 0.0 0.0
0.0 0.0 0.0 6e-45 6e-45 0.0 0.0 6e-45
6e-45 6e-45 6e-45 0.0 -6e-45 6e-45 6e-45 0.0
6e-45 0.0 6e-45 6e-45 6e-45 0.0 6e-45 0.0
6e-45 6e-45 0.0 6e-45 6e-45 6e-45 6e-45 6e-45
0.0 6e-45 6e-45 -6e-45 0.0 6e-45 0.0 0.0
6e-45 6e-45 6e-45 6e-45 6e-45 0.0 -6e-45 0.0
0.0 6e-45 0.0 -6e-45 0.0 -2.3297056e-05 -6e-45 -6e-45
0.0 -6e-45 0.0 -6e-45 -6e-45 0.0 0.0 0.0
0.0 0.0 6e-45 6e-45 4.764403e-05 -6e-45 0.0 6e-45
-6e-45 -6e-45 -6e-45 -6e-45 -6e-45 6e-45 -6e-45 6e-45
6e-45 -6e-45 1.59325e-40 6e-45 0.00025861233 0.0 -6e-45 0.0
0.0005425141 -6e-45 0.0 0.00028078147 6e-45 -6e-45 6e-45 6e-45
0.0 -6.8277e-05 6e-45 6e-45 0.0 -6e-45 0.0 0.0
-0.00033460272 6e-45 3.04387e-40 -6e-45 6e-45 0.0 6e-45 0.0
0.0 6e-45 0.0 -6e-45 0.0 6e-45 0.0 6e-45
0.0 0.0 0.0 0.0 0.0 0.0 0.0 0.0
0.0 0.0 6e-45 6e-45 6e-45 0.0 0.0 6e-45
6e-45 6e-45 6e-45 6e-45 6e-45 6e-45 6e-45 6e-45
6e-45 0.0 6e-45 6e-45 6e-45 0.0 6e-45 0.0
6e-45 6e-45 0.0 6e-45 6e-45 6e-45 6e-45 6e-45
0.0 6e-45 0.0 6e-45 0.0 6e-45 0.0 0.0
6e-45 6e-45 6e-45 0.0 6e-45 0.0 6e-45 0.0
0.0 6e-45 0.0 -6e-45 0.0 -7.5001444e-05 -6e-45 6.9e-44
0.0 6e-45 0.0 6e-45 -6e-45 0.0 0.0 0.0
0.0 0.0 6e-45 6e-45 -6.9564034e-05 -6e-45 0.0 6e-45
6e-45 -6e-45 -6e-45 -6e-45 -6e-45 6e-45 6e-45 0.0
-6e-45 -6e-45 -6.5124e-41 -6e-45 -4.1324934e-06 0.0 6e-45 0.0
-0.0004458129 -6e-45 0.0 -0.00025627564 6e-45 6e-45 -6e-45 6e-45
0.0 -0.00041489347 6e-45 6e-45 0.0 6e-45 0.0 0.0
-0.0005151064 6e-45 5.407378e-39 -6e-45 6e-45 0.0 6e-45 0.0
