data/models/production/gbwm_8goals_bs4800_lr0.01_sim.pth (torch, 199027 bytes, 39 tensors)

shared_backbone.0.weight f4 [64, 2]
0	0x3c459f34	0.012061883
1	0xbbb65275	-0.005564029
2	0x3f2ae6f9	0.66758686
3	0xbc601a36	-0.013678124
4	0xbebaa4d4	-0.3645388
5	0x3e8da6a3	0.27666196
6	0x3e09f352	0.13471726
7	0xbe1fc923	-0.15604071
8	0x3bdba265	0.0067027085
9	0xbe4440d2	-0.19165352
10	0xbdc40419	-0.09571094
11	0xbcfe2334	-0.031022646
12	0xbe8058a4	-0.25067627
13	0xbebab100	-0.36463165
14	0xbdabcabc	-0.08388278
15	0xbbeb7709	-0.007185821
16	0xbdfa77dc	-0.122298926
17	0x3cade1b2	0.021225784
18	0x3ddf4e70	0.10903633
19	0xbe87a1db	-0.26490673
20	0x3cda3a7f	0.026639221
21	0xbddf87b0	-0.10914552
22	0x3db50b7e	0.088400826
23	0xbf214c44	-0.63007
24	0x3e1328f6	0.14371094
25	0xbeb4ac01	-0.3528748
26	0xbd00605f	-0.031341907
27	0xbe271384	-0.16316038
28	0xbcdecfd2	-0.027198706
29	0xbeba4457	-0.36380264
30	0xbd94bb2b	-0.07262262
31	0x3c79e6f6	0.015252819
32	0xbd9b1e7a	-0.07574172
33	0xbd0f805f	-0.035034534
34	0x3f0e0c97	0.5548796
35	0xbe9b38cb	-0.30316767
36	0xbb629d47	-0.0034578608
37	0xbe1c36ac	-0.1525523
38	0x3debbb8b	0.1151038
39	0xbde4142b	-0.11136659
40	0xbe45fe2d	-0.19335242
41	0xbd43bd63	-0.047788035
42	0xbe1c24f3	-0.1524847
43	0xbc8ee940	-0.017445207
44	0x3d15e199	0.0365921
45	0xbddd214e	-0.10797368
46	0xbd823203	-0.06357195
47	0xbcc419ed	-0.023938144
48	0x3e476444	0.19471842
49	0x3fb33749	1.4001247
50	0xbe0383ed	-0.12843294
51	0xbd25330f	-0.040331896
52	0xbd380c01	-0.044933323
53	0xbe5808c4	-0.21097094
54	0xbd5efd81	-0.05444098
55	0xbde588a1	-0.112077005
56	0xbe08db9e	-0.13365027
57	0xbcf60ca5	-0.030035326
58	0xbe8fc3db	-0.28079113
59	0xbce08961	-0.027409257
60	0xbda0caef	-0.078512065
61	0xbdf1857a	-0.11793037
62	0xbd37d6d7	-0.04488262
63	0xbe8d40a4	-0.2758838
64	0x3c3d0b85	0.011538391
65	0xbedf4682	-0.4360848
66	0x3e48f150	0.19623303
67	0xbe6c8595	-0.23097833
68	0xbdc6f9e9	-0.09715635
69	0xbe6a00b7	-0.22851835
70	0xbdff7c39	-0.124748655
71	0xbe577a82	-0.21042827
72	0xbdef1603	-0.1167412
73	0xbe13ca2e	-0.14432594
74	0xbc70cd2a	-0.014697352
75	0xbe864a94	-0.26228774
76	0x3e884903	0.26618204
77	0x3c9052e9	0.01761766
78	0x3e672c16	0.22575411
79	0xbe4f8760	-0.20266485
80	0xbc336701	-0.010949851
81	0xbd54c093	-0.051941466
82	0xbebfc8e5	-0.37457958
83	0x3e4b5b43	0.19859032
84	0xbcd5b1f8	-0.026085839
85	0xbe91c05c	-0.2846707
86	0xbeb398ac	-0.35077417
87	0x3ec01810	0.37518358
88	0xbdeb13c2	-0.11478378
89	0xbdd900f6	-0.105958864
90	0xbe905781	-0.2819176
91	0xbcbbaad7	-0.022908611
92	0xbef2dab1	-0.47432473
93	0x3da48073	0.08032312
94	0x3d0e3c77	0.034725633
95	0xbea4005c	-0.32031524
96	0xbe0dd809	-0.13851942
97	0xbd18a468	-0.037266165
98	0x3e557368	0.20844805
99	0xbdc579a9	-0.096423455
100	0xbd629e0b	-0.055326503
101	0xbc3d27cf	-0.011545136
102	0xbcfeda57	-0.031109972
103	0xbdc86153	-0.09784188
104	0xbe5b739e	-0.21430823
105	0xbd8b9dcc	-0.06817207
106	0xc04d79e6	-3.210565
107	0x3de38cd9	0.11110849
108	0xbda767f2	-0.08174123
109	0xbca5ca24	-0.02023799
110	0xbe0990eb	-0.13434188
111	0xbd04bddc	-0.032407627
112	0xbe31c314	-0.17359573
113	0xbd06b9ff	-0.032892223
114	0xbd63f9aa	-0.05565802
115	0xbe8dc5c5	-0.2768995
116	0xbe907cac	-0.28220117
117	0x39c94fab	0.00038397065
118	0xbd23f8dc	-0.040032253
119	0xbdcfd902	-0.10148813
120	0xbe92d3ab	-0.28677115
121	0x3e49e118	0.19714773
122	0xbdcff705	-0.10154537
123	0xbda7fada	-0.08202143
124	0xbdefe9d4	-0.11714521
125	0xbe1081f1	-0.14112069
126	0x3d00d320	0.031451344
127	0xbe26a056	-0.16272101

shared_backbone.0.bias f4 [64]
0	0xbe0649d4	-0.131141
1	0xbee41c6b	-0.4455293
2	0xbee5b41b	-0.44863972
3	0xbe034d97	-0.12822567
4	0xbdb4cae7	-0.08827763
5	0xbd905bce	-0.0704876
6	0x00000000	0.0
7	0x00000000	0.0
8	0xbd75f77f	-0.060050484
9	0xbdda1870	-0.10649192
10	0xbd221085	-0.039566536
11	0xbd946b78	-0.072470605
12	0xbe09c15a	-0.13452664
13	0x00000000	0.0
14	0xbdd871f9	-0.105686136
15	0xbcaf3a3d	-0.021390075
16	0x00000000	0.0
17	0xbf033402	-0.5125123
18	0xbbd6e912	-0.006558546
19	0xbdd92871	-0.10603417
20	0x00000000	0.0
21	0xbd75f834	-0.060051158
22	0xbdb8185b	-0.089890204
23	0xbdaa64a5	-0.08319978
24	0xbe7cc406	-0.24684152
25	0x00000000	0.0
26	0x00000000	0.0
27	0x00000000	0.0
28	0x00000000	0.0
29	0xbd75fb61	-0.060054187
30	0x00000000	0.0
31	0x00000000	0.0
32	0xbaab919a	-0.0013089657
33	0xbe36b42f	-0.17842172
34	0x00000000	0.0
35	0x00000000	0.0
36	0x00000000	0.0
37	0xbd19a753	-0.03751309
38	0xbea6b19a	-0.32557374
39	0xbe58d021	-0.21173145
40	0xbe004a9d	-0.12528463
41	0xbd83bb42	-0.06432201
42	0xbd62f257	-0.055406895
43	0xbecea33c	-0.40358913
44	0x00000000	0.0
45	0xbd75fa8f	-0.060053404
46	0xbc732207	-0.014839656
47	0xbdd4929e	-0.103795275
48	0xbb758203	-0.0037461526
49	0xbe6c4e36	-0.2307671
50	0xbd88ae04	-0.06673816
51	0x00000000	0.0
52	0x00000000	0.0
53	0x3ee12dd4	0.43980277
54	0x00000000	0.0
55	0x00000000	0.0
56	0xbe142220	-0.14466143
57	0x00000000	0.0
58	0xbc6569c9	-0.014002272
59	0xbc8b86e5	-0.017032096
60	0xbe9cf703	-0.30657205
61	0x00000000	0.0
62	0x00000000	0.0
63	0xbd6edaf3	-0.058314275

shared_backbone.2.weight f4 [64, 64]
0	0xbeba1dbc	-0.3635081
1	0xbd924037	-0.07141154
2	0xbddf9952	-0.109179154
3	0x3e935afa	0.28780347
4	0xbcc2f78f	-0.023799686
5	0xbe281e03	-0.16417699
6	0x3e99d597	0.3004577
7	0x3cdbba51	0.026822241
8	0x3de62fb0	0.112395644
9	0xbe39cfad	-0.18145628
10	0xbe6e32f0	-0.23261619
11	0xbdff7ded	-0.1247519
12	0x3c974c88	0.01846911
13	0xbd120de4	-0.03565778
14	0xbe1dad12	-0.15398052
15	0xbd1d5617	-0.03841218
16	0xbca0b796	-0.01961879
17	0x3eaf6b67	0.3426163
18	0x3e6688e5	0.22513159
19	0x3e272d62	0.16325906
20	0x3e8218be	0.25409502
21	0xbc149653	-0.009069043
22	0x3e9cb9a7	0.30610391
23	0x3d28be74	0.041197255
24	0xbeae9c94	-0.34103835
25	0x3b8fa880	0.0043841004
26	0xbec61633	-0.38688812
27	0xbd8eda01	-0.06975175
28	0xbdcf71bf	-0.10129117
29	0xbcd91245	-0.02649797
30	0xbc8509b9	-0.016239988
31	0x3da726a1	0.08161665
32	0xbee7b84f	-0.45257804
33	0xbe923b5e	-0.2856092
34	0x3de13e68	0.10998231
35	0xbe496ae6	-0.19669685
36	0x3e38c5be	0.18044183
37	0xbea039b0	-0.31294012
38	0xbd896198	-0.06708068
39	0xbe576ccc	-0.21037596
40	0xbd19b9af	-0.037530597
41	0xba80549b	-0.0009790839
42	0xbe945528	-0.2897122
43	0x3e20575a	0.15658322
44	0xbce8ba08	-0.02840902
45	0xbe10790b	-0.14108674
46	0x3e9373ff	0.28799435
47	0x3d6377b5	0.055534083
48	0x3e4b9b3a	0.19883433
49	0xbe969340	-0.29409218
50	0x3e5d5846	0.21615705
51	0xbe0b8b2f	-0.13627313
52	0x3c3e8038	0.011627249
53	0xbe7c04a1	-0.24611141
54	0x3e113c25	0.141831
55	0x3d7b3be1	0.0613364
56	0xbe46403e	-0.19360444
57	0xbdb140ca	-0.08654936
58	0xbe708aa7	-0.23490392
59	0x3d83d425	0.06436948
60	0x3d59d186	0.053178333
61	0x3d69755b	0.056996685
62	0xbe415b3e	-0.18882462
63	0xbc5865ad	-0.013207835
64	0x3d91caca	0.07118757
65	0xbeebc0c8	-0.46045518
66	0x3e604cf4	0.21904355
67	0xbeb0ac01	-0.3450623
68	0xbe97bc81	-0.29636005
69	0xbdc58453	-0.096443795
70	0x3d2ccc03	0.04218675
71	0x3e86aec5	0.26305214
72	0xbe3b4a48	-0.18290055
73	0x3d26e87c	0.040749058
74	0xbd6b0c04	-0.057384506
75	0xbe7c12e3	-0.2461658
76	0xbec4cfea	-0.38439876
77	0xbedb2a55	-0.42805734
78	0x3e9e9bbe	0.30978197
79	0xbdefb802	-0.117050186
80	0x3e113a2d	0.14182349
81	0xbf091809	-0.535523
82	0xbe668f54	-0.22515613
83	0xbf0f85e1	-0.5606366
84	0x3daeb780	0.085310936
85	0x3d38bccf	0.045101937
86	0xbe01fce2	-0.12694123
87	0x3c71d11a	0.014759326
88	0x3e440498	0.19142377
89	0xbe395ee7	-0.18102609
90	0x3bcbee69	0.006223489
91	0xbe3da99e	-0.18521735
92	0x3e3da28b	0.18519036
93	0xbd67aa09	-0.056558643
94	0xbd8e72a8	-0.06955463
95	0xbb17006e	-0.0023041028
96	0xbecde9f6	-0.4021756
97	0xbededdb6	-0.43528527
98	0xbe10bdee	-0.14134952
99	0x3e1e38ab	0.15451305
100	0xbd3dd3ff	-0.046344753
101	0xbe603b05	-0.21897514
102	0xbde25863	-0.11052015
103	0xbe6bdc67	-0.23033296
104	0xbd4dc590	-0.05023724
105	0x3e96451c	0.293496
106	0x3d7c9bd0	0.061672032
107	0x3f66712e	0.9001645
108	0x3e4f893b	0.20267193
109	0xbea753f3	-0.32681236
110	0x3e8912b2	0.26772076
111	0xbdd81fe9	-0.105529614
112	0x3bf4da78	0.0074723326
113	0xbe94ce5a	-0.29063684
114	0x3e09dee2	0.1346393
115	0xbe0c3f31	-0.1369598
116	0xbe87db4e	-0.26534504
117	0x3f0f6dcc	0.5602691
118	0xbcad69ce	-0.021168616
119	0x3daddf55	0.08489863
120	0x3daad2c2	0.0834098
121	0x3dd700a1	0.10498167
122	0xbd0383ff	-0.032108303
123	0x3c2707a4	0.010194693
124	0x3f079e8f	0.52976316
125	0xbe110f04	-0.14165884
126	0xbe8d0826	-0.2754528
127	0xbdd45475	-0.103676714
128	0x3d172a7a	0.036905743
129	0xbdf80501	-0.121103294
130	0xbeb0079c	-0.34380805
131	0x3df685b1	0.12037218
132	0x3c88d8ba	0.016704906
133	0xbef51526	-0.47867697
134	0xbe3c48d4	-0.18387157
135	0xbd732a58	-0.059366554
136	0xbd524c01	-0.051342014
137	0x3d709308	0.05873397
138	0xb78549fd	-1.5889289e-05
139	0xbd81854a	-0.06324251
140	0xbe23d93a	-0.16000834
141	0x3d099eba	0.03359864
142	0xbe2335e3	-0.15938525
143	0x3e13f594	0.1444915
144	0xbe71113c	-0.2354173
145	0xbdc30249	-0.0952192
146	0xbde26812	-0.11055006
147	0xbc63cfd4	-0.013904531
148	0xbe42f4c9	-0.1903869
149	0xbe92ffb1	-0.28710702
150	0xbe054d6d	-0.13017817
151	0xbd19615e	-0.037446372
152	0xbe69d559	-0.22835292
153	0xbe2a9082	-0.16656688
154	0x3c824ee9	0.015906768
155	0x3d20bc9d	0.039242376
156	0xbe872753	-0.2639719
157	0xbd90a0e2	-0.07061936
158	0xbd5ec93e	-0.05439114
159	0xbe8a4ad7	-0.27010223
160	0xbedd8b78	-0.4327047
161	0xbdc7f4a5	-0.09763459
162	0x3ce737f4	0.028224923
163	0x3d4cc8ad	0.049996067
164	0xbe7c30aa	-0.24627939
165	0x3dce155d	0.100626685
166	0x3d901dd7	0.070369415
167	0xbe36ba46	-0.17844495
168	0xbe9feb20	-0.31234074
169	0xbd9a19d3	-0.07524457
170	0xbd8ba15a	-0.06817885
171	0x3d1162f5	0.035494763
172	0x3e0f58f2	0.13998774
173	0xbe0a9aa7	-0.13535558
174	0xbd50d974	-0.05098863
175	0xbed9d102	-0.42542273
176	0x3e2b5e15	0.16735108
177	0xbcceae90	-0.025229722
178	0x3e2e0ed4	0.16997844
179	0x3e4e5495	0.20149453
180	0xbd0dd4a4	-0.034626618
181	0xbdc493e3	-0.0959852
182	0x3ddafe85	0.10693077
183	0x3d7b3e39	0.061338637
184	0x3e5cc1c5	0.21558292
185	0x3e39b73e	0.18136308
186	0xbecc9fc5	-0.39965644
187	0xbe7c015e	-0.24609897
188	0xbe55dae6	-0.20884284
189	0xbd613b40	-0.054988146
190	0x3e2426f3	0.16030483
191	0x3e35e713	0.17763929
192	0x3d05f563	0.032704722
193	0xbd487ccb	-0.048947137
194	0x3d729ae0	0.05922973
195	0x3e0a3c78	0.1349963
196	0xbea17fc2	-0.31542784
197	0xbe34c0a0	-0.17651606
198	0x3e5c1f13	0.21496229
199	0xbd703220	-0.058641553
200	0xbea47a91	-0.3212476
201	0xbe332302	-0.17493823
202	0xbcecc0e5	-0.028900573
203	0xbe7c28b4	-0.24624902
204	0xbe8e0231	-0.27736047
205	0x3e161e13	0.1465991
206	0xbd1c250d	-0.038121272
207	0xbe4b205e	-0.19836566
208	0x3b6ea721	0.0036415535
209	0xbd9d6628	-0.076855004
210	0xbe158b58	-0.14603937
211	0x3e55adb2	0.20867041
212	0x3d0e4208	0.03473094
213	0xbe6778c0	-0.22604656
214	0x3e7e5ccf	0.24840091
215	0x3e3c3708	0.18380368
216	0xbe1b2861	-0.15152122
217	0xbde6bd13	-0.11266532
218	0x3d66d306	0.05635359
219	0x3e100e0a	0.14067855
220	0xbdb65747	-0.089033656
221	0x3e7ccb48	0.2468692
222	0x3e090f1a	0.13384667
223	0x3c9e3533	0.019312477
224	0xbd15598c	-0.03646235
225	0xbd2f0c51	-0.042736355
226	0xbda39c4d	-0.079887964
227	0xbe0ddb40	-0.13853168
228	0x3e6098ff	0.21933363
229	0x3e865ede	0.26244253
230	0xbec124ef	-0.3772349
231	0xbea49d8c	-0.3215145
232	0x3d94224d	0.07233105
233	0x3e8e41e5	0.2778465
234	0x3e980b6a	0.29696208
235	0xbe8415d7	-0.25797912
236	0x3d34e932	0.044167705
237	0x3d9ea162	0.07745625
238	0xbe2ba9c7	-0.16763984
239	0xbdcf46be	-0.10120915
240	0x3dc38b36	0.09548037
241	0x3b034904	0.0020032534
242	0xbe8dcecc	-0.27696836
243	0x3ec9b9c2	0.39399534
244	0xbe2a27e5	-0.16616781
245	0xbdf9bf34	-0.12194672
246	0xbcaf1cc7	-0.021376027
247	0xbe4d1b0e	-0.20029852
248	0xbe941fa0	-0.28930378
249	0x3da6ff32	0.081541434
250	0x3da24cc3	0.079247974
251	0x3e35c8f4	0.17752439
252	0xbd0135a7	-0.031545307
253	0x3e0b6bf8	0.13615406
254	0x3e8471ae	0.2586798
255	0xbdce6bc6	-0.1007915

shared_backbone.2.bias f4 [64]
0	0xbe826389	-0.25466564
1	0xbeca8c4d	-0.39560166
2	0xbd75fc0d	-0.060054827
3	0xbdd635d1	-0.104594834
4	0xbe3bb3e3	-0.1833034
5	0xbe23f25f	-0.16010426
6	0xbe4334fb	-0.19063179
7	0xbd75fa17	-0.060052957
8	0xbe113941	-0.14181997
9	0xbd0f93a5	-0.035052914
10	0xbe4c8eef	-0.199764
11	0x3d5462ed	0.051852155
12	0xbe1a9019	-0.15094031
13	0xbe8c7a0c	-0.27436864
14	0xbe3c3802	-0.1838074
15	0xbd63af70	-0.055587232
16	0xbd8f1a5a	-0.06987448
17	0x3ebad56c	0.36490953
18	0xbda70649	-0.08155496
19	0xbdd5c890	-0.10438645
20	0xbe21b7e2	-0.15792802
21	0xbe344ede	-0.1760821
22	0xbe87fa84	-0.26558316
23	0xbdd80b66	-0.10549049
24	0xbdab64c1	-0.08368827
25	0xbdcbfa84	-0.099598914
26	0xbe014896	-0.12625346
27	0xbd738da4	-0.05946125
28	0xbdc42e52	-0.095791474
29	0x3e490763	0.19631724
30	0xbd6bdd3c	-0.057584032
31	0xbe61d45e	-0.22053668
32	0xbe204c97	-0.15654217
33	0xbe3af84f	-0.18258785
34	0xbe165458	-0.14680612
35	0xbe1bc289	-0.15210928
36	0xbd3a665e	-0.04550778
37	0xbe1ba6eb	-0.15200393
38	0xbe48b6b4	-0.19600946
39	0xbe69c818	-0.22830236
40	0xbd75fb5c	-0.060054168
41	0xbd56296d	-0.0522856
42	0xbda622a3	-0.08112075
43	0x3e216ba2	0.15763715
44	0xbb00c11d	-0.0019646354
45	0xbdb50c06	-0.08840184
46	0xbe41ea0d	-0.1893694
47	0xbe443f0c	-0.19164675
48	0xbe61055b	-0.21974699
49	0xbdbe9f56	-0.09307735
50	0xbe5ee21d	-0.21765943
51	0xbe309f52	-0.17248276
52	0xbdb9395c	-0.090441436
53	0xbd856c7c	-0.065148324
54	0xbe2e7333	-0.17036133
55	0xbd6c43a4	-0.057681695
56	0xbcbb99b6	-0.022900444
57	0xbdb1cdc9	-0.086818285
58	0x3d5cae50	0.053877175
59	0xbd8f75d9	-0.070048995
60	0xbd92f8ed	-0.07176385
61	0xbb95f5ec	-0.0045764353
62	0xbe804d6c	-0.25059068
63	0x3f0f3e3d	0.55954343

goal_head.weight f4 [2, 64]
0	0xbe2e0168	-0.16992724
1	0xbd8f2929	-0.069902726
2	0x3e55eacf	0.20890354
3	0x3e0b3d0a	0.13597503
4	0xbdf2879d	-0.118422724
5	0x3d113145	0.035447378
6	0x3ea85387	0.32876226
7	0x3dd3a428	0.10334045
8	0xbe48cec6	-0.19610128
9	0x3d892407	0.06696325
10	0xbdb19827	-0.08671599
11	0xbfbf513c	-1.4946666
12	0x3ea2f043	0.3182393
13	0x3e223a29	0.15842499
14	0xbcee9fed	-0.029128993
15	0x3e873169	0.26404884
16	0xbd0ad9d5	-0.033899147
17	0xc0620115	-3.531316
18	0x3e0768bd	0.13223548
19	0x3d475efb	0.048674565
20	0xbe096cfc	-0.1342048
21	0x3e513d78	0.20433605
22	0x3e657c83	0.22410779
23	0xbe847d4c	-0.25876844
24	0xbe2bec81	-0.16789438
25	0xbd1793cc	-0.037006184
26	0xbd88f825	-0.06687955
27	0xbe4e7163	-0.20160441
28	0xbcaba832	-0.020954225
29	0xc050224e	-3.2520938
30	0x3e23fcad	0.16014357
31	0x3d1fd4b1	0.039021198
32	0x3e3a31c5	0.18183048
33	0xbe405254	-0.18781406
34	0x3d1e7ca1	0.038693074
35	0xbc8395e0	-0.016062677
36	0x3de667dc	0.11250278
37	0x3d158184	0.03650047
38	0x3e2fa283	0.17151837
39	0xbe952634	-0.2913071
40	0xbec2e8af	-0.38068148
41	0x3d8fafa3	0.07015922
42	0xbd6f8e4d	-0.058485318
43	0xbfd41f9b	-1.6572145
44	0xbf87a3f4	-1.059691
45	0xbe932a03	-0.2874299
46	0xbcec0b30	-0.028813928
47	0xbdeee8ba	-0.11665483
48	0x3e185250	0.1487515
49	0x3e555274	0.20832235
50	0x3f0ba9d2	0.54556
51	0x3d8dc380	0.06922054
52	0xbe45431a	-0.19263878
53	0x3c7c9e44	0.015418593
54	0x3e2c8494	0.1684745
55	0xbdf9a336	-0.12189333
56	0x3f91b8aa	1.138448
57	0x3d51abd5	0.051189262
58	0x3ea5a6a1	0.3235369
59	0x3d7537a8	0.05986753
60	0x3d3431e5	0.043992896
61	0xbd1416d2	-0.036154576
62	0x3a0ff70f	0.00054918317
63	0xc07f6a71	-3.9908717
64	0x3e67a3bb	0.22621052
65	0xbd90e923	-0.07075717
66	0xbe0ca234	-0.1373375
67	0x3d3efc77	0.046627488
68	0xbe1d382d	-0.1535346
69	0xbd274619	-0.040838335
70	0xbf4041a7	-0.7510018
71	0x3e92a19e	0.2863893
72	0xbd1f0bb5	-0.038829524
73	0x3ea75168	0.32679296
74	0x3eb5c79f	0.3550386
75	0x3fe63930	1.7986202
76	0xbe364c55	-0.17802556
77	0x3ca777a6	0.020442795
78	0x3e97d387	0.2965357
79	0x3e13786d	0.14401408
80	0x3dbff4ad	0.0937284
81	0x4068cb1e	3.6373973
82	0x3ef2e7fc	0.47442615
83	0xbd332f63	-0.043746363
84	0xbe18ef0c	-0.14934939
85	0xbd8efa60	-0.06981349
86	0xbe7494e9	-0.2388493
87	0xbdec154f	-0.11527502
88	0xbd9d4daf	-0.076808326
89	0xbe382a46	-0.17984876
90	0x3ced1c29	0.028944092
91	0xbdc9ce4e	-0.098538026
92	0xbd94d533	-0.07267227
93	0x403777c4	2.866685
94	0x3e5e3b90	0.21702409
95	0x3e352f99	0.17693938
96	0x3d80355b	0.06260177
97	0xbdc48e7a	-0.09597488
98	0x3edda85e	0.43292516
99	0x3e5a39e2	0.21311143
100	0xbe4177c8	-0.18893349
101	0xbc9543a0	-0.018220723
102	0x3ce2d000	0.027687073
103	0x3e7269c4	0.23673159
104	0xbb0f79bd	-0.002189263
105	0x3ae51537	0.0017477636
106	0xbd56efb7	-0.052474704
107	0x400f7c48	2.2419605
108	0x3f5718ea	0.8402239
109	0xbe378a8d	-0.17923947
110	0x3e0def45	0.13860805
111	0xbd265742	-0.04061056
112	0x3c32365d	0.010877219
113	0x3d80d2e7	0.062902264
114	0xbed91056	-0.42395276
115	0x3d869a9a	0.06572457
116	0xbd91e12b	-0.071230255
117	0xbe460890	-0.19339204
118	0x3dbba0b4	0.09161511
119	0xbda94162	-0.08264424
120	0xbf9ed2f6	-1.240813
121	0xbc98867f	-0.01861882
122	0xbef2c733	-0.47417602
123	0xbcdeaf7e	-0.02718329
124	0x3d02b640	0.03191209
125	0x3d594249	0.05304173
126	0x3e171822	0.147553
127	0x40860217	4.187755

goal_head.bias f4 [2]
0	0xbf6e84c4	-0.93171334
1	0x3f6e84c5	0.9317134

portfolio_head.weight f4 [15, 64]
0	0x3e382aec	0.17985123
1	0x3ea00a73	0.31257972
2	0xbe782e50	-0.24236417
3	0x3ea431a6	0.3206913
4	0x3ec8d48c	0.3922466
5	0x3e6b38de	0.22970912
6	0x3cd45fed	0.025924647
7	0xbe30612f	-0.17224573
8	0x3ceddfdb	0.029037407
9	0x3e0a22fc	0.13489908
10	0x3f36f352	0.7146503
11	0xbee91b7e	-0.45528787
12	0x3afb0d4d	0.0019153744
13	0xbf734a18	-0.95034933
14	0xbe210b9c	-0.15727085
15	0x3dcc73b1	0.09983004
16	0xbe2f3544	-0.17110163
17	0xbe95dc5c	-0.29269683
18	0x3d86e802	0.06587221
19	0x3e6a95af	0.22908662
20	0xbca082da	-0.019593645
21	0xbe8b0500	-0.27152252
22	0xbebba74a	-0.3665107
23	0x3e1db1cd	0.15399857
24	0xbcb7a9dc	-0.022419862
25	0x3e1eac05	0.15495308
26	0xbe8862e6	-0.26637954
27	0xbd217072	-0.039413877
28	0xbdd65799	-0.10465927
29	0xbe90c52d	-0.28275433
30	0xbda2c52d	-0.079477645
31	0xbcb5206b	-0.022110185
32	0x3cc508c0	0.024052024
33	0x3e5a37d7	0.21310364
34	0xbf602701	-0.87559515
35	0xbd149a97	-0.03628024
36	0x3d438210	0.04773146
37	0x3c360387	0.011109239
38	0xbd9cd90e	-0.076585874
39	0x3ce1422f	0.02749738
40	0xbe1eb380	-0.15498161
41	0xbd2ba262	-0.041902907
42	0x3e4c0819	0.19924964
43	0xbe78b57a	-0.24287978
44	0x3ed379e6	0.4130394
45	0xbd9bca9e	-0.076070055
46	0x3d423432	0.04741306
47	0xbdd64896	-0.104630634
48	0xbed65d10	-0.41867876
49	0xbd22d550	-0.039754212
50	0x3bb790b5	0.005601967
51	0x3d9ed7a1	0.07755972
52	0x3cc0ceb5	0.023536066
53	0xbe970342	-0.29494673
54	0xbde405f8	-0.11133951
55	0xbe73afa9	-0.23797478
56	0x3f20f325	0.6287101
57	0x3e96fcd3	0.29489765
58	0x3de0ad73	0.10970583
59	0xbc433274	-0.011913884
60	0xbdc6d7a1	-0.09709097
61	0x3ebb902c	0.36633432
62	0xbe478fa6	-0.19488391
63	0xbd846e5b	-0.06466361
64	0x3f08ddf4	0.53463674
65	0xbd6a2fc5	-0.057174463
66	0x3d27c60e	0.040960364
67	0xbd7c1324	-0.06154169
68	0x3e451238	0.19245231
69	0xbde115db	-0.10990497
70	0xbddd5f49	-0.1080919
71	0x3dec3fa1	0.11535574
72	0xbd0fc92d	-0.035103966
73	0xbc1ddd85	-0.009635334
74	0xbde43e2d	-0.111446716
75	0xbe51f8bd	-0.20505042
76	0xbe95bfb5	-0.29247823
77	0x3d2dc3fe	0.04242324
78	0x3e89b580	0.26896286
79	0x3b000f7a	0.0019540475
80	0x3c6690b4	0.014072586
81	0x3e46cf6c	0.19415063
82	0xbf04b980	-0.5184555
83	0xbe9b6946	-0.30353755
84	0xbe4c9266	-0.19977722
85	0xbd911001	-0.07083131
86	0xbe70919f	-0.2349305
87	0xbe3ab4e4	-0.18233067
88	0xbedb86df	-0.42876336
89	0x3cc2e574	0.023791052
90	0x3d464574	0.04840608
91	0x3e5eeb36	0.21769413
92	0xbe7d6ad5	-0.24747784
93	0xbe5d09ce	-0.21585771
94	0x3de5f0d4	0.11227575
95	0x3d2eb2ac	0.042650864
96	0xbea5c089	-0.32373455
97	0x3e1ab13e	0.15106675
98	0xbf2db71c	-0.6785753
99	0x3ceca0b9	0.028885232
100	0xbe15674a	-0.14590183
101	0xbea5c382	-0.32375723
102	0x3d106048	0.03524807
103	0x3eceeb3d	0.40413848
104	0xbe4840fc	-0.1955604
105	0x3e1fcd5f	0.15605687
106	0xbe14aa15	-0.14518006
107	0x3e19fda6	0.15038165
108	0xbe2781e0	-0.16358137
109	0xbdf122d3	-0.1177422
110	0xbebe0af0	-0.3711772
111	0xbeab5481	-0.3346291
112	0xbdff5853	-0.124680184
113	0xbe63c27a	-0.22242156
114	0x3ee229a4	0.44172394
115	0x3cf45ae8	0.029828504
116	0x3d820dff	0.06350326
117	0xbe67a814	-0.2262271
118	0x3cda067f	0.026614426
119	0xbd25806b	-0.040405672
120	0x3ed08f55	0.40734354
121	0xbe10558c	-0.14095134
122	0x3eca7cd4	0.3954836
123	0xbe5fcea7	-0.21856175
124	0x3e0370da	0.12836018
125	0x3e480fef	0.19537328
126	0xbf590b83	-0.8478319
127	0x3e86501f	0.26233003
128	0x3d6aba3c	0.057306513
129	0xbc98f086	-0.018669378
130	0x3d220110	0.039551795
131	0xbe5150eb	-0.20441024
132	0x3eb677bf	0.35638234
133	0xbe9f1944	-0.31073964
134	0x3eb33196	0.3499877
135	0xbcbc54e6	-0.022989701
136	0xbda8ab86	-0.082358405
137	0xbdc2c729	-0.09510643
138	0x3e9d51f7	0.30726597
139	0x3e6ef93e	0.23337266
140	0x3e7e6615	0.24843629
141	0x3e780fd5	0.2422479
142	0xbe2063e1	-0.15663101
143	0xbe500f5d	-0.2031836
144	0x3e3d1978	0.18466747
145	0x3deb21b6	0.11481039
146	0xbe1064ef	-0.14101003
147	0x3e52be79	0.20580472
148	0x3e832dda	0.2562092
149	0xbed88476	-0.4228856
150	0x3e3f2f49	0.18670382
151	0x3d65fd42	0.05614973
152	0xbed2f5f9	-0.41203287
153	0xbe6e6a08	-0.23282635
154	0xbc14cd0b	-0.009082089
155	0x3e08d298	0.13361585
156	0xbc2230d2	-0.009899335
157	0x3e39ba22	0.1813741
158	0xbe13c63e	-0.14431092
159	0xbda11747	-0.07865768
160	0x3ef07bf1	0.4696956
161	0xbd97fd03	-0.07421305
162	0x3e8f4ae4	0.27986825
163	0xbe14bb46	-0.14524564
164	0x3dcefe10	0.10107052
165	0x3e33565d	0.17513414
166	0x3db5edee	0.08883272
167	0xbd70beee	-0.058775835
168	0xbdfd4498	-0.12366599
169	0x3e64ebb1	0.22355534
170	0xba61d9a2	-0.00086154987
171	0xbe8627d5	-0.26202264
172	0xbddf39ca	-0.10899694
173	0x3cf1f975	0.029537896
174	0xbe5be51d	-0.21474119
175	0x3d83cd2d	0.064356185
176	0x3dc1bbc9	0.09459645
177	0xbe0daac5	-0.13834675
178	0x3f11d676	0.56967866
179	0xbcc189ad	-0.02362522
180	0xbe8b8974	-0.27253306
181	0x3f5651bf	0.83718485
182	0x3e4fd639	0.20296563
183	0x3df27b83	0.11839964
184	0x3c5f7544	0.013638798
185	0xbde6ef7d	-0.112761475
186	0xbe8f3664	-0.27971184
187	0x3ee4eaec	0.4471048
188	0x3db11874	0.08647242
189	0xbd0020d3	-0.031281304
190	0x3f05ca03	0.5226137
191	0x3c4b0859	0.012392127
192	0x3f2a39f7	0.664947
193	0x3f689d09	0.90864617
194	0x3e2b10e9	0.1670567
195	0xbe409758	-0.18807733
196	0xbe73cc60	-0.23808432
197	0x3d7ff1f0	0.06248659
198	0x3e695953	0.2278798
199	0x3e1f4b67	0.15556107
200	0x3e798f6c	0.24371117
201	0x3e06f951	0.13181044
202	0x3e877a4d	0.26460496
203	0x3ea62ec2	0.32457548
204	0x3c85460d	0.016268754
205	0xbe87891f	-0.26471803
206	0xbe040677	-0.12893091
207	0xbd6f9a33	-0.058496665
208	0xbdc1986f	-0.094529025
209	0xbde92409	-0.11383826
210	0x3e02d1dd	0.12775369
211	0xbd35d5a6	-0.044393204
212	0x3ea36cad	0.3191885
213	0x3e1868bf	0.14883707
214	0x3efce906	0.49396533
215	0xbe13a70c	-0.14419192
216	0x3d1099d0	0.035302937
217	0x3d91919d	0.07107852
218	0x3d930621	0.07178903
219	0x3d717a91	0.05895478
220	0xbe3b0fc4	-0.18267733
221	0xbda4a466	-0.08039169
222	0xbec22893	-0.3792158
223	0x3e19eb4e	0.15031168
224	0xbe87432d	-0.2641844
225	0x3e52087e	0.20511052
226	0x3f3b3926	0.73134077
227	0xbdec2fc9	-0.11532552
228	0x3dfaf09a	0.12252922
229	0xbe6c966b	-0.23104255
230	0xbe3dcc55	-0.18534978
231	0x3e0a6e86	0.13518724
232	0x3e553baa	0.20823541
233	0xbe9f5594	-0.31119978
234	0xbe6cb038	-0.23114097
235	0xbf0a17ac	-0.5394237
236	0x3e2e9885	0.17050369
237	0xbe0c9f34	-0.13732606
238	0x3e37c476	0.17946038
239	0xbe4faf7a	-0.20281783
240	0x3e4c5dd2	0.19957665
241	0xbe802904	-0.25031292
242	0x3ecf8c15	0.40536562
243	0x3e0ce92d	0.13760825
244	0xbe795b73	-0.24351291
245	0xbdcb5aaa	-0.09929402
246	0xbe4b997a	-0.19882765
247	0xbe0a1e5a	-0.1348814
248	0x3df77a08	0.120838225
249	0x3e3ce197	0.1844543
250	0xbdce3262	-0.100682035
251	0xbe1deb70	-0.15421844
252	0x3de8a563	0.1135967
253	0x3d8013d4	0.06253782
254	0x3e43dccf	0.191272
255	0xbf3406db	-0.7032296

portfolio_head.bias f4 [15]
0	0xbe83ae32	-0.25718838
1	0xbdcf2b3b	-0.101156674
2	0x3e96efe0	0.29479885
3	0x3e534373	0.20631199
4	0x3e69125a	0.22760907
5	0xbc9491b2	-0.01813588
6	0xbe16ffdc	-0.1474604
7	0x3e95b078	0.29236197
8	0xbd4043e1	-0.046939734
9	0xbd70655b	-0.05869041
10	0x3dc562dc	0.096379966
11	0x3e2313d6	0.15925536
12	0x3e4c19bb	0.1993169
13	0xbdb7c40d	-0.089729406
14	0xbe8a30b3	-0.2699028

network.0.weight f4 [64, 2]
0	0xbd9a81b2	-0.07544269
1	0xbe25a95b	-0.16177885
2	0x3f10d09b	0.56568307
3	0xbe08d0e7	-0.1336094
4	0xbeb58932	-0.35456234
5	0xbe5ec03d	-0.2175302
6	0xbe39b367	-0.18134843
7	0xbe0e2c80	-0.13884163
8	0x3cadadad	0.02120098
9	0xbd8460d3	-0.0646378
10	0xbf3d6543	-0.7398264
11	0x3ad68a12	0.0016368052
12	0xbe51cea4	-0.20488983
13	0xbc60950d	-0.0137074115
14	0xbf05619b	-0.5210206
15	0x3b4d5be4	0.0031335289
16	0xc02277c9	-2.538561
17	0x3bcbcfa3	0.0062198206
18	0xbe5da8a9	-0.2164637
19	0x3c35c548	0.011094399
20	0xbfd405ad	-1.6564232
21	0xbba749eb	-0.0051052473
22	0xbf49b186	-0.78786504
23	0x3b3f9186	0.0029231026
24	0xbfd0fe75	-1.6327654
25	0xbde088ad	-0.10963569
26	0xbf240fd2	-0.6408664
27	0x3b5ee0cb	0.0034008499
28	0xbf2bd22c	-0.6711757
29	0x3b13b3c9	0.002253758
30	0xbe58399d	-0.21115728
31	0xbd0f1030	-0.034927547
32	0xbf3f5c6e	-0.7475041
33	0x3b2bb1a8	0.002619842
34	0xbfc3211b	-1.5244478
35	0xbdce0388	-0.10059267
36	0x3f32e771	0.698844
37	0x3e997a10	0.2997594
38	0xbe2171ff	-0.15766142
39	0xbec5e170	-0.38648558
40	0x3d8d3c9c	0.06896326
41	0xbef6c28e	-0.48195308
42	0xbecae485	-0.39627472
43	0x3bba0abe	0.00567755
44	0xbcd7b5aa	-0.026331741
45	0xbe2d4846	-0.16922101
46	0xbe112fee	-0.1417844
47	0xbf331d6e	-0.6996678
48	0xbdda7a91	-0.10667909
49	0xbd7bbacd	-0.061457444
50	0xbe103add	-0.14084955
51	0x3a61f3a3	0.00086193735
52	0xbfb56002	-1.4169924
53	0xbc566bf6	-0.013087263
54	0xbe71e7b6	-0.23623547
55	0xbe9d5879	-0.30731562
56	0xbe8b1684	-0.27165616
57	0xbe5a6b24	-0.21329933
58	0xbedfca8e	-0.43709224
59	0x3b62b6ea	0.0034593889
60	0x3e05397c	0.1301021
61	0xbe5a3d91	-0.21312548
62	0xbdcde823	-0.10054042
63	0xbdb9f93f	-0.09080743
64	0xbec0f629	-0.37687805
65	0xbc832983	-0.016011005
66	0xbe2ea099	-0.1705345
67	0x3a545157	0.0008099279
68	0xc04f6191	-3.24033
69	0xbe59cd9d	-0.21269841
70	0x3c576b0d	0.0131480815
71	0xbe6836da	-0.22677174
72	0xbf49fb8c	-0.78899455
73	0xbb914908	-0.004433755
74	0xbe0c7fcf	-0.1372063
75	0xbd761e38	-0.060087413
76	0xbf6f5f45	-0.93504745
77	0x3c12d0f0	0.008960947
78	0xbe6e867f	-0.23293494
79	0xbe6b45aa	-0.22975793
80	0xbf065bd2	-0.52483857
81	0xbce1b094	-0.02755002
82	0xbe2315d9	-0.15926303
83	0xbd9254ed	-0.071451046
84	0xbeabfcaa	-0.33591205
85	0xbec79bdf	-0.38986108
86	0xbe0b3e9c	-0.13598102
87	0x3b8d8432	0.0043187374
88	0xbd20b912	-0.039238997
89	0xbe83d6df	-0.2574987
90	0xbeb1fc8a	-0.34762985
91	0x3e12267f	0.14272498
92	0xbd185813	-0.03719337
93	0xbe84321c	-0.2581948
94	0xbf345062	-0.70435154
95	0x3b1eca2e	0.0024229395
96	0xbf457bd0	-0.7714205
97	0x3b11fd92	0.0022276384
98	0xbf590aad	-0.84781915
99	0xbc14f734	-0.009092141
100	0xbf13048c	-0.57428813
101	0x3ad11b97	0.0015953657
102	0xbde9a3d0	-0.11408198
103	0xbdf94e9b	-0.12173196
104	0xbf20aed7	-0.62766784
105	0x3b516833	0.0031952977
106	0xbced69fc	-0.028981201
107	0xbe13ca16	-0.14432558
108	0xbf3a3d89	-0.72750145
109	0x3b431eb9	0.002977295
110	0xc051afc6	-3.2763534
111	0x3c0df9a1	0.008665473
112	0xbd8fc167	-0.070193104
113	0x3d1e27a6	0.03861203
114	0xbdae79fc	-0.085193604
115	0xbdc88555	-0.09791056
116	0xbdb4f0bf	-0.08834981
117	0xbd8ab626	-0.06773023
118	0xbe625573	-0.22102909
119	0xbe131f76	-0.1436747
120	0xbe2fc21e	-0.17163894
121	0xbc01b62d	-0.007916969
122	0xbd0b2914	-0.033974722
123	0xbe2a8195	-0.16650994
124	0xbf58849c	-0.84577346
125	0x3b42763c	0.0029672524
126	0xbf17783d	-0.59167844
127	0x3b2ba580	0.0026191175

network.0.bias f4 [64]
0	0x00000000	0.0
1	0x3de1f9fa	0.11034007
2	0x00000000	0.0
3	0x00000000	0.0
4	0xbd8ee5c9	-0.06977422
5	0x3f32c760	0.6983547
6	0x00000000	0.0
7	0x3efb91db	0.49134716
8	0x3f73d255	0.95242816
9	0xbd952f9c	-0.072844714
10	0x3f04eb21	0.5192128
11	0x3f3e3ed8	0.7431464
12	0x3e9aa5f5	0.3020474
13	0x3f1b02ec	0.60551333
14	0x3f22384c	0.6336715
15	0x3c6fdc94	0.014639992
16	0x3f34eb0a	0.7067114
17	0x3e8edec2	0.27904326
18	0x3df17ed6	0.1179177
19	0x00000000	0.0
20	0xbd9b9dbc	-0.07598445
21	0x3ec0545f	0.3756437
22	0xbdb4a6fa	-0.08820911
23	0x3cf64520	0.030062258
24	0x00000000	0.0
25	0x3e0898ea	0.13339582
26	0x3e805ac7	0.25069258
27	0x3c325844	0.010885302
28	0x00000000	0.0
29	0x3ed369bb	0.41291603
30	0x3ec2adb5	0.38023153
31	0x00000000	0.0
32	0xbd75f5c6	-0.06004884
33	0x3e25e651	0.1620114
34	0x3ed89c8c	0.42306936
35	0xbdeece91	-0.11660493
36	0x3f4170eb	0.75562924
37	0x00000000	0.0
38	0x3f616804	0.8804934
39	0x00000000	0.0
40	0x3f05237e	0.5200728
41	0x00000000	0.0
42	0x3cc2f956	0.023800533
43	0xbd75f970	-0.060052335
44	0xbd62e434	-0.055393413
45	0xbd46849f	-0.04846632
46	0x00000000	0.0
47	0x3f2a0e46	0.6642803
48	0x3f3a482e	0.7276639
49	0x3f5125f5	0.8169854
50	0x3f0abd40	0.5419502
51	0x00000000	0.0
52	0x3f17d408	0.5930791
53	0xbd753533	-0.059865188
54	0x3f2ff327	0.68730396
55	0x3ed0413b	0.40674767
56	0xbdb48cff	-0.08815955
57	0x00000000	0.0
58	0x00000000	0.0
59	0x00000000	0.0
60	0x3d5ae78d	0.05344348
61	0xbd75fb63	-0.060054194
62	0x3f4c250c	0.7974403
63	0x3f0ef301	0.55839545

network.2.weight f4 [64, 64]
0	0x3d95d9f5	0.07316963
1	0x3d1a86e8	0.037726313
2	0xbe838df9	-0.25694254
3	0x3eab4137	0.33448192
4	0x3da57ffe	0.08081053
5	0x3e45a5b7	0.19301496
6	0xbddf7871	-0.10911644
7	0xbe38e04e	-0.18054315
8	0x3dfc11b9	0.12308068
9	0xbdbcdb15	-0.09221474
10	0xbd11a188	-0.03555444
11	0xbdbee612	-0.09321226
12	0x3cd3565c	0.025798015
13	0x3e56b7f5	0.20968612
14	0xbe92c6ad	-0.28667203
15	0xbe6cdc7a	-0.2313098
16	0x3d968447	0.07349449
17	0xbc85ee3a	-0.016348947
18	0xbe5ab511	-0.21358134
19	0x3e115936	0.14194188
20	0x3e2bcb65	0.16776808
21	0xbed9dab0	-0.42549658
22	0xbe79d11f	-0.2439618
23	0x3e31e6ac	0.1737315
24	0xbd23ad46	-0.03996017
25	0xbbc84320	-0.0061115175
26	0x3dc0da01	0.09416581
27	0xbe478af4	-0.194866
28	0x3e2697c4	0.16268831
29	0x3b8caa86	0.004292789
30	0xbe0d0f4f	-0.13775371
31	0x3c6ab736	0.014325907
32	0xbe4485ab	-0.19191615
33	0xbe9ab75c	-0.30218017
34	0xbe203fd8	-0.15649354
35	0xbda0f6f6	-0.07859604
36	0xbe8561df	-0.26051232
37	0x3deb8ffb	0.115020715
38	0xbd146eee	-0.036238603
39	0x3dafaa63	0.085774206
40	0x3d867233	0.065647505
41	0xbec2eb8b	-0.3807033
42	0xbe8c8fa5	-0.27453342
43	0xbe0737f2	-0.13204935
44	0xbeb80cfa	-0.359474
45	0x3e08827b	0.13331024
46	0xbe8501a5	-0.25977817
47	0xbd1bf7ab	-0.03807799
48	0xbdf52a08	-0.119709074
49	0x3e048954	0.12943012
50	0xbd4c1f44	-0.049834505
51	0xbe692075	-0.22766288
52	0xbe83f5f3	-0.25773582
53	0xbdb9b6e7	-0.09068089
54	0xbd8a5def	-0.06756198
55	0x3d5acd7a	0.053418614
56	0xbe762d89	-0.24040808
57	0xbda39b97	-0.07988661
58	0x3eed817b	0.46387848
59	0x3e4b3ed8	0.19848192
60	0xbc1660ba	-0.009178335
61	0x3dcbc0fe	0.0994892
62	0xbde484b1	-0.111581214
63	0xbdca4732	-0.09876861
64	0xbe6e2e26	-0.23259792
65	0xbde27608	-0.11057669
66	0xbd53912e	-0.051652126
67	0x3e0c8605	0.13723
68	0xbdf53ce5	-0.11974505
69	0xbd9ec6dd	-0.07752774
70	0x3dbb5b7c	0.09148309
71	0x3d44e1a7	0.04806676
72	0xbced295d	-0.028950388
73	0xbe22ae56	-0.15886816
74	0x3dceceab	0.100980125
75	0xbe8d659e	-0.2761659
76	0xbebf13cd	-0.37319794
77	0x3bb6eb7b	0.0055822707
78	0xbcf88a06	-0.030339252
79	0xbe64c17f	-0.22339438
80	0x3d991cf1	0.07476223
81	0x3e8adcc1	0.27121547
82	0xbd5cf977	-0.053948846
83	0xbd987a9b	-0.0744526
84	0xbec94885	-0.3931314
85	0xbe465fbc	-0.19372457
86	0x3e5e8fd9	0.21734561
87	0x39e1fcf2	0.00043103803
88	0x3e9800d9	0.29688147
89	0x3e85ba0e	0.2611851
90	0xbef69465	-0.4816009
91	0xbcefea93	-0.029286658
92	0xbc8bc610	-0.017062217
93	0x3cbccb89	0.023046272
94	0x3b057cf2	0.0020368663
95	0xbd84abd0	-0.06478083
96	0xbe175fa2	-0.14782575
97	0xbea67ce8	-0.3251717
98	0xbe8603db	-0.26174816
99	0xbdb5c4bf	-0.08875417
100	0xbe9ee389	-0.3103297
101	0x3dd081d7	0.10181015
102	0x3ebcb5e4	0.36857522
103	0xbce17237	-0.027520282
104	0x3eded86e	0.43524498
105	0x3dd60110	0.104494214
106	0x3e4df835	0.20114215
107	0x3dded9d7	0.108813934
108	0x3dc8a951	0.097979195
109	0x3e38ce74	0.18047506
110	0xbe064954	-0.1311391
111	0xbe629648	-0.2212764
112	0xbd9115db	-0.07084247
113	0xbe22d1d3	-0.15900354
114	0xbd023471	-0.031788293
115	0xbd159028	-0.03651443
116	0xbe3fc014	-0.18725616
117	0xbde027b8	-0.10945076
118	0xbe59cba6	-0.21269092
119	0x3d9d1993	0.076708935
120	0x3e6a6a3d	0.22892089
121	0x3d8fe966	0.07026939
122	0xbcbe632b	-0.023240646
123	0xbd42f2c0	-0.047594786
124	0x3c822d22	0.015890662
125	0xbd781edb	-0.0605763
126	0x3e053f9b	0.13012545
127	0xbe134e95	-0.14385445
128	0x3c4c4eba	0.012469942
129	0x3bc2c61d	0.005944027
130	0x3e946b66	0.28988189
131	0x3cc90eb9	0.024543153
132	0x3e4e5fb2	0.20153692
133	0xbc223dc8	-0.009902425
134	0xbe0481d6	-0.12940153
135	0xbe47d6a3	-0.19515471
136	0x3d314ccd	0.043286134
137	0xbea23b99	-0.31686094
138	0xbe2c168b	-0.16805474
139	0xbe9f9bd5	-0.31173578
140	0x3d6569b9	0.056009028
141	0xbf270b0f	-0.6525125
142	0xbe521b73	-0.20518284
143	0xbe9265cb	-0.28593287
144	0xbe497779	-0.19674481
145	0x3d081600	0.033224106
146	0xbd158c92	-0.03651101
147	0x3da50205	0.08057026
148	0xbe1c770c	-0.15279788
149	0xbf0c89e5	-0.5489791
150	0xbeb1f3a2	-0.3475619
151	0x3da09d1a	0.07842465
152	0x3e01f50e	0.12691137
153	0xbe064a4d	-0.13114281
154	0xbe5dce24	-0.21660668
155	0x3debc301	0.115118034
156	0xbe2c7bd1	-0.16844107
157	0xbeafcc01	-0.3433533
158	0xbe4efbd5	-0.20213254
159	0xbe936f78	-0.2879598
160	0x3e4944db	0.19655173
161	0xbe74b464	-0.23896939
162	0xbd8a1050	-0.067413926
163	0xbe3f2c4a	-0.18669239
164	0xbd4603f7	-0.048343625
165	0x3e2f5fef	0.1712644
166	0x3ccb1c70	0.024793833
167	0x3cd21fac	0.025649868
168	0xbe959cca	-0.29221183
169	0xbc11058a	-0.008851418
170	0xbe5ccd97	-0.21562801
171	0xbe507ee2	-0.20360902
172	0xbc21fc4e	-0.009886814
173	0xbf0209ef	-0.5079641
174	0x3e4a5b41	0.19761373
175	0xbe805084	-0.2506143
176	0xbda77939	-0.08177418
177	0xbe704c66	-0.23466644
178	0xbd1e9b5b	-0.038722377
179	0xbd341f2f	-0.04397505
180	0xbf1a568f	-0.6028833
181	0x3e1efbcd	0.15525742
182	0xbd49412c	-0.04913442
183	0xbe926d7d	-0.28599158
184	0xbe033e9b	-0.12816851
185	0xbd0bc7f8	-0.034126252
186	0xbe2756ad	-0.16341658
187	0x3d62b07f	0.0553441
188	0x3c62b35f	0.013836711
189	0xbd8ae3b7	-0.067817144
190	0xbe14fc3d	-0.14549346
191	0xbf05423a	-0.5205418
192	0x3e8ae27b	0.27125916
193	0x3ec03b0a	0.37545043
194	0x3e3ab475	0.18232901
195	0xbe2fc6cd	-0.1716568
196	0x3e2bec51	0.16789366
197	0x3ea38757	0.31939194
198	0xbdf564f2	-0.119821444
199	0x3db1fe44	0.086910754
200	0xbfc09daa	-1.5048115
201	0x3d16448d	0.03668647
202	0x3fa0528b	1.252519
203	0x3f09fa68	0.53897715
204	0x3f650574	0.89461446
205	0x3f132fa3	0.5749456
206	0x3ee6eaaa	0.4510091
207	0x3e8418a2	0.25800043
208	0x3f29da0d	0.66348344
209	0x3ebe06f6	0.37114686
210	0x3ea089ef	0.31355235
211	0x3d314721	0.043280724
212	0x3ea49e2a	0.3215192
213	0xbd7bc914	-0.06147106
214	0xbdd7ab65	-0.10530738
215	0xbe838d68	-0.25693822
216	0x3e0e27de	0.13882396
217	0x3e8de280	0.27711868
218	0x3f01fa51	0.5077258
219	0xbeac8452	-0.33694702
220	0xbe9b9115	-0.30384126
221	0x3da555ac	0.08072981
222	0x3f0353b1	0.5129958
223	0x3d86220d	0.065494634
224	0xbd9fd366	-0.07803993
225	0xbdb2a30c	-0.08722505
226	0xbfaa3ea1	-1.3300363
227	0x3da4f843	0.08055165
228	0x3f31ae4e	0.6940659
229	0x3d06a6f4	0.032874063
230	0x3f883d99	1.0643798
231	0x3df6b98e	0.120471105
232	0x3e9f3758	0.3109691
233	0x3e03965b	0.12850325
234	0x3e274960	0.16336584
235	0xbcaba56b	-0.0209529
236	0x3e3c5786	0.18392763
237	0x3df68c58	0.12038487
238	0xbe7f68ed	-0.2494237
239	0x3f2f5d1f	0.68501467
240	0x3f289747	0.6585583
241	0x3f74c874	0.9561837
242	0x3e0bd381	0.13654901
243	0xbd662087	-0.056183364
244	0x3e6695e6	0.22518119
245	0xbd3293d7	-0.043598022
246	0x3ec101c7	0.37696669
247	0xbfc2a563	-1.5206722
248	0x3e29a851	0.16568114
249	0xbea5b007	-0.3236086
250	0x3de25683	0.11051657
251	0xbe8f85a4	-0.28031647
252	0x3e0786e8	0.13235056
253	0x3d228ce3	0.03968514
254	0x3f28c780	0.6592941
255	0x3d75deb7	0.06002685

network.2.bias f4 [64]
0	0xbd75f6fc	-0.060049996
1	0xbd75fa80	-0.06005335
2	0xbdaad071	-0.08340538
3	0x3f01a4f4	0.50642323
4	0xbd16a9a2	-0.03678287
5	0x3f1761de	0.5913371
6	0x3f1253ee	0.57159317
7	0xbe5851cd	-0.21124955
8	0xbd5e7d91	-0.05431897
9	0x3f1c47e2	0.61047184
10	0xbd5a22a3	-0.05325569
11	0xbde06ed2	-0.10958637
12	0xbd8f859e	-0.07007907
13	0xbe2db5b4	-0.16963845
14	0x3f0b97f1	0.5452872
15	0xbe261fcd	-0.16223069
16	0xbd194a88	-0.037424594
17	0x3f0f0867	0.55872196
18	0xbe1fc985	-0.15604217
19	0x3f12fbc2	0.574154
20	0x00000000	0.0
21	0x3efd58cf	0.49481818
22	0xbe311035	-0.17291339
23	0x3f13add7	0.57687134
24	0xbd4f0a03	-0.050546657
25	0x3f10367b	0.5633313
26	0x3f0325dd	0.5122965
27	0xbd75f945	-0.060052175
28	0x3f114f5b	0.5676171
29	0x3f0c6716	0.54844797
30	0x3f0d3e68	0.5517335
31	0x3f0a23d3	0.53960913
32	0x3f0eeea6	0.558329
33	0xbd75fa87	-0.060053375
34	0x3f060b96	0.5236143
35	0xbe81396a	-0.25239116
36	0x3f10cbd8	0.5656104
37	0x3f153aea	0.5829302
38	0x3f139313	0.5764629
39	0x3f12328f	0.57108396
40	0xbee47a3e	-0.44624513
41	0x3f0bba18	0.5458083
42	0x3f129b32	0.5726806
43	0x3f07c0e0	0.5302868
44	0x3f0a0175	0.53908473
45	0x3f106da0	0.56417274
46	0x3f1039b1	0.5633803
47	0x3f234ed2	0.63792145
48	0xbe660829	-0.2246405
49	0xbe73abaf	-0.23795961
50	0xbe5e33fd	-0.2169952
51	0x00000000	0.0
52	0x3f13b532	0.5769836
53	0xbd959b01	-0.07304955
54	0xbd7b54f7	-0.061360326
55	0xbdd080de	-0.101808295
56	0xbdbe0e25	-0.092800416
57	0xbe72509c	-0.23663563
58	0x3f17b17c	0.59255195
59	0x3f0f6e3d	0.56027585
60	0xbe18d701	-0.14925767
61	0x00000000	0.0
62	0x3ef4acde	0.47788137
63	0x3ff827ff	1.9387206

network.4.weight f4 [1, 64]
0	0x3d58759e	0.052846543
1	0x3d1efc93	0.038815092
2	0x3d164961	0.036691073
3	0x3eeb54f5	0.45963255
4	0xbc43cbdf	-0.011950462
5	0x3f338542	0.7012521
6	0x3f1820f8	0.59425306
7	0x3e941741	0.2892399
8	0x3d5818eb	0.05275814
9	0x3f25ee78	0.64817
10	0xbe1abfae	-0.15112182
11	0x3d5bfd7e	0.053708546
12	0x3d61f5e7	0.05516615
13	0x3d693233	0.05693264
14	0x3f075df1	0.5287772
15	0x3e291289	0.16510977
16	0x3e3f9cda	0.18712178
17	0x3f027358	0.5095725
18	0x3e0c7b63	0.13718943
19	0x3f150b4b	0.58220357
20	0xbca85223	-0.020546978
21	0x3f01ae49	0.50656563
22	0x3d68f7d7	0.056876983
23	0x3f24d578	0.6438823
24	0xbc86cd71	-0.016455384
25	0x3f0b40b7	0.5439562
26	0x3efd330e	0.49453014
27	0x3d419de1	0.047269706
28	0x3f182eb9	0.59446293
29	0x3f164a6f	0.58707327
30	0x3f0ae3c8	0.54253817
31	0x3f137a9c	0.5760896
32	0x3f0815be	0.53158176
33	0x3d5223a8	0.051303536
34	0x3f01e7b7	0.50744194
35	0xbe35bddb	-0.17748205
36	0x3f1a26b3	0.602153
37	0x3f22259e	0.6333865
38	0x3f191b80	0.59807587
39	0x3f001e48	0.50046206
40	0xbc99f4ea	-0.018793542
41	0x3f00d655	0.50327045
42	0x3f1e9936	0.6195253
43	0x3f12c584	0.57332635
44	0x3ef2925a	0.47377282
45	0x3f10a11b	0.5649583
46	0x3f1ec01b	0.6201188
47	0x3f2d9e11	0.67819315
48	0x3dc9c318	0.09851664
49	0x3e6b5b7e	0.2298412
50	0x3d8128c3	0.06306603
51	0x3c85acbb	0.016317716
52	0x3ef0feaf	0.47069308
53	0x3d76cb8b	0.060252707
54	0x3d09a4d5	0.03360446
55	0x3d61d857	0.05513796
56	0x3d4f38b4	0.050591186
57	0xbe6f5781	-0.23373224
58	0x3f1ab22a	0.60428107
59	0x3f16f7a4	0.5897162
60	0x3e2f9332	0.17145994
61	0x3c72660a	0.014794836
62	0x3ee21b23	0.4416133
63	0xc03698ba	-2.8530717

exp_avg f4 [64, 2]
0	0x00000004	6e-45
1	0x00000004	6e-45
2	0xbc10127a	-0.008793468
3	0xbaece427	-0.0018073366
4	0x00000004	6e-45
5	0x00000004	6e-45
6	0x00000004	6e-45
7	0x00000004	6e-45
8	0x00000004	6e-45
9	0x00000004	6e-45
10	0x00000004	6e-45
11	0x00000004	6e-45
12	0x00000000	0.0
13	0x00000000	0.0
14	0x00000000	0.0
15	0x00000000	0.0
16	0x00000004	6e-45
17	0x00000004	6e-45
18	0x00000004	6e-45
19	0x00000004	6e-45
20	0x00000004	6e-45
21	0x00000004	6e-45
22	0x00000004	6e-45
23	0x00000004	6e-45
24	0x00000004	6e-45
25	0x00000004	6e-45
26	0x00000000	0.0
27	0x00000000	0.0
28	0x00000004	6e-45
29	0x00000004	6e-45
30	0x00000004	6e-45
31	0x00000004	6e-45
32	0x00000000	0.0
33	0x00000000	0.0
34	0x00000004	6e-45
35	0x00000004	6e-45
36	0x00000004	6e-45
37	0x00000004	6e-45
38	0x00000004	6e-45
39	0x00000004	6e-45
40	0x00000000	0.0
41	0x00000000	0.0
42	0x00000000	0.0
43	0x00000004	6e-45
44	0x00000004	6e-45
45	0x00000004	6e-45
46	0x00000004	6e-45
47	0x00000004	6e-45
48	0x3bd778a4	0.006575661
49	0x3b16e6aa	0.002302567
50	0x00000000	0.0
51	0x00000000	0.0
52	0x00000000	0.0
53	0x00000000	0.0
54	0x00000000	0.0
55	0x00000000	0.0
56	0x00000000	0.0
57	0x00000000	0.0
58	0x00000000	0.0
59	0x00000004	6e-45
60	0x00000000	0.0
61	0x00000000	0.0
62	0x00000000	0.0
63	0x00000000	0.0
64	0x00000004	6e-45
65	0x00000004	6e-45
66	0x00000004	6e-45
67	0x00000004	6e-45
68	0x00000000	0.0
69	0x00000000	0.0
70	0x00000000	0.0
71	0x00000000	0.0
72	0x00000000	0.0
73	0x00000000	0.0
74	0x00000004	6e-45
75	0x00000004	6e-45
76	0x00000004	6e-45
77	0x00000004	6e-45
78	0x00000004	6e-45
79	0x00000004	6e-45
80	0x00000004	6e-45
81	0x00000004	6e-45
82	0x00000004	6e-45
83	0x00000004	6e-45
84	0x00000004	6e-45
85	0x00000004	6e-45
86	0x00000004	6e-45
87	0x00000004	6e-45
88	0x00000000	0.0
89	0x00000000	0.0
90	0x00000000	0.0
91	0x00000004	6e-45
92	0x00000004	6e-45
93	0x00000004	6e-45
94	0x00000004	6e-45
95	0x00000004	6e-45
96	0x00000004	6e-45
97	0x00000004	6e-45
98	0x00000004	6e-45
99	0x00000004	6e-45
100	0x00000004	6e-45
101	0x00000004	6e-45
102	0x00000000	0.0
103	0x00000000	0.0
104	0x00000000	0.0
105	0x00000000	0.0
106	0xb8d02985	-9.9259465e-05
107	0xb8bee1d5	-9.1019705e-05
108	0x00000000	0.0
109	0x00000000	0.0
110	0x00000000	0.0
111	0x00000000	0.0
112	0x00000004	6e-45
113	0x00000004	6e-45
114	0x00000000	0.0
115	0x00000000	0.0
116	0x00000004	6e-45
117	0x00000004	6e-45
118	0x00000004	6e-45
119	0x00000004	6e-45
120	0x00000004	6e-45
121	0x00000004	6e-45
122	0x00000000	0.0
123	0x00000000	0.0
124	0x00000000	0.0
125	0x00000000	0.0
126	0x00000004	6e-45
127	0x00000004	6e-45

exp_avg_sq f4 [64, 2]
0	0x2c0b71a5	1.9816173e-12
1	0x2a1f2681	1.4135396e-13
2	0x39d0bb19	0.0003981225
3	0x37bfd469	2.2867885e-05
4	0x2c0db505	2.0137791e-12
5	0x2b269034	5.917517e-13
6	0x2ccd030b	5.8267883e-12
7	0x2aee7ee1	4.2365333e-13
8	0x2c8bb935	3.9711797e-12
9	0x2a9fc7ad	2.8382627e-13
10	0x2cfe710a	7.231664e-12
11	0x2b0e8611	5.063459e-13
12	0x00000000	0.0
13	0x00000000	0.0
14	0x00000000	0.0
15	0x00000000	0.0
16	0x226578cd	3.1099239e-18
17	0x234e2efd	1.11772325e-17
18	0x2e2b8d55	3.9006427e-11
19	0x2c24c4cf	2.3415052e-12
20	0x2e3215f4	4.0492013e-11
21	0x2c3b28ce	2.659695e-12
22	0x2feb74dc	4.2829285e-10
23	0x2db91e26	2.1045454e-11
24	0x2be997c2	1.6597767e-12
25	0x29b19b90	7.887365e-14
26	0x00000000	0.0
27	0x00000000	0.0
28	0x29db0154	9.725784e-14
29	0x275b70c5	3.0453488e-15
30	0x2f03623a	1.1949278e-10
31	0x2d087ae6	7.757994e-12
32	0x00000000	0.0
33	0x00000000	0.0
34	0x3407aae2	1.2635022e-07
35	0x3209c3e7	8.018993e-09
36	0x2e878468	6.162609e-11
37	0x2c8c5e64	3.989519e-12
38	0x2f17da07	1.3810829e-10
39	0x2d162c8a	8.5364025e-12
40	0x00000000	0.0
41	0x00000000	0.0
42	0x00000000	0.0
43	0x22bcca6a	5.1171816e-18
44	0x2c02edca	1.860611e-12
45	0x29f707f2	1.0970382e-13
46	0x2b994188	1.0889492e-12
47	0x2982b91b	5.8052704e-14
48	0x3a04c127	0.00050641823
49	0x383e8de0	4.543166e-05
50	0x00000000	0.0
51	0x00000000	0.0
52	0x00000000	0.0
53	0x00000000	0.0
54	0x00000000	0.0
55	0x00000000	0.0
56	0x00000000	0.0
57	0x00000000	0.0
58	0x00000000	0.0
59	0x24ef9f9a	1.039201e-16
60	0x00000000	0.0
61	0x00000000	0.0
62	0x00000000	0.0
63	0x00000000	0.0
64	0x3087b5cb	9.874211e-10
65	0x2e67e118	5.2723242e-11
66	0x31bab15f	5.4334772e-09
67	0x2fb58158	3.3015612e-10
68	0x00000000	0.0
69	0x00000000	0.0
70	0x00000000	0.0
71	0x00000000	0.0
72	0x00000000	0.0
73	0x00000000	0.0
74	0x2ac02271	3.412995e-13
75	0x28493cd5	1.1170932e-14
76	0x3093f21e	1.0764472e-09
77	0x2e838824	5.981374e-11
78	0x2f6ccc51	2.1536663e-10
79	0x2d50cfeb	1.1869598e-11
80	0x2d426fee	1.1052477e-11
81	0x2b5d2ecb	7.857991e-13
82	0x274d7195	2.8511038e-15
83	0x27aa46b8	4.726115e-15
84	0x2b927f85	1.0409318e-12
85	0x2944c964	4.369542e-14
86	0x30075d7d	4.924557e-10
87	0x2f9ce18d	2.8536498e-10
88	0x00000000	0.0
89	0x00000000	0.0
90	0x00000000	0.0
91	0x240339db	2.8455102e-17
92	0x2e1c9cd3	3.560958e-11
93	0x2c9da44e	4.48045e-12
94	0x2bf34f4e	1.72882e-12
95	0x29902d6d	6.402765e-14
96	0x2a1e9839	1.4086032e-13
97	0x28dd5fa0	2.45774e-14
98	0x2f01966d	1.1785924e-10
99	0x2cd40bd5	6.026716e-12
100	0x2d1602c8	8.52713e-12
101	0x2b05de9d	4.756003e-13
102	0x00000000	0.0
103	0x00000000	0.0
104	0x00000000	0.0
105	0x00000000	0.0
106	0x369f0f06	4.740318e-06
107	0x3618c6bc	2.2765444e-06
108	0x00000000	0.0
109	0x00000000	0.0
110	0x00000000	0.0
111	0x00000000	0.0
112	0x2b16cb9f	5.3573286e-13
113	0x2aa2681a	2.8849216e-13
114	0x00000000	0.0
115	0x00000000	0.0
116	0x27b28adc	4.9555476e-15
117	0x281d61c6	8.736452e-15
118	0x2c87abfc	3.856025e-12
119	0x2a8dea02	2.5209007e-13
120	0x2f3c4576	1.7123178e-10
121	0x2e6d2b4b	5.3926013e-11
122	0x00000000	0.0
123	0x00000000	0.0
124	0x00000000	0.0
125	0x00000000	0.0
126	0x2ad484b5	3.775085e-13
127	0x28c7c8d4	2.2180534e-14

exp_avg f4 [64]
0	0x00000004	6e-45
1	0xbc330474	-0.010926355
2	0x00000004	6e-45
3	0x00000004	6e-45
4	0x00000004	6e-45
5	0x00000004	6e-45
6	0x00000000	0.0
7	0x00000000	0.0
8	0x00000004	6e-45
9	0x00000004	6e-45
10	0x00000004	6e-45
11	0x00000004	6e-45
12	0x00000004	6e-45
13	0x00000000	0.0
14	0x00000004	6e-45
15	0x00000004	6e-45
16	0x00000000	0.0
17	0x00000004	6e-45
18	0x00000004	6e-45
19	0x00000004	6e-45
20	0x00000000	0.0
21	0x00000004	6e-45
22	0x00000004	6e-45
23	0x00000004	6e-45
24	0x3c209dce	0.009803249
25	0x00000000	0.0
26	0x00000000	0.0
27	0x00000000	0.0
28	0x00000000	0.0
29	0x00000004	6e-45
30	0x00000000	0.0
31	0x00000000	0.0
32	0x00000004	6e-45
33	0x00000004	6e-45
34	0x00000000	0.0
35	0x00000000	0.0
36	0x00000000	0.0
37	0x00000004	6e-45
38	0x00000004	6e-45
39	0x00000004	6e-45
40	0x00000004	6e-45
41	0x00000004	6e-45
42	0x00000004	6e-45
43	0x00000004	6e-45
44	0x00000000	0.0
45	0x00000004	6e-45
46	0x00000004	6e-45
47	0x00000004	6e-45
48	0x00000004	6e-45
49	0x00000004	6e-45
50	0x00000004	6e-45
51	0x00000000	0.0
52	0x00000000	0.0
53	0xba91cc64	-0.0011123535
54	0x00000000	0.0
55	0x00000000	0.0
56	0x00000004	6e-45
57	0x00000000	0.0
58	0x00000004	6e-45
59	0x00000004	6e-45
60	0x00000004	6e-45
61	0x00000000	0.0
62	0x00000000	0.0
63	0x00000004	6e-45

exp_avg_sq f4 [64]
0	0x2d3aee87	1.062584e-11
1	0x3a283fbb	0.0006418188
2	0x2c84d46b	3.7752488e-12
3	0x2d4cadae	1.1634622e-11
4	0x2d02cfcd	7.4357855e-12
5	0x2dfc62fe	2.8693044e-11
6	0x00000000	0.0
7	0x00000000	0.0
8	0x2659357b	7.535948e-16
9	0x2ec65f43	9.0209194e-11
10	0x2f137c6c	1.3413776e-10
11	0x309a7e29	1.1240832e-09
12	0x2c25b998	2.3550936e-12
13	0x00000000	0.0
14	0x29dbb5b9	9.7570776e-14
15	0x2fc5c44b	3.5973566e-10
16	0x00000000	0.0
17	0x349b3dba	2.8915912e-07
18	0x2f4aa9bd	1.8432096e-10
19	0x2fdd3727	4.0238854e-10
20	0x00000000	0.0
21	0x2695527e	1.0361311e-15
22	0x2ca32962	4.637333e-12
23	0x2c9bee88	4.4318473e-12
24	0x3a4d779b	0.0007837952
25	0x00000000	0.0
26	0x00000000	0.0
27	0x00000000	0.0
28	0x00000000	0.0
29	0x28bd875f	2.1041923e-14
30	0x00000000	0.0
31	0x00000000	0.0
32	0x313e80e5	2.7721907e-09
33	0x3283cbd7	1.5343103e-08
34	0x00000000	0.0
35	0x00000000	0.0
36	0x00000000	0.0
37	0x2b9cbf7e	1.1137616e-12
38	0x30d4e121	1.5489016e-09
39	0x2fde6ad8	4.0457482e-10
40	0x2e05aad5	3.0392428e-11
41	0x2b4badec	7.2361453e-13
42	0x2c72eb9d	3.452106e-12
43	0x30b1cda5	1.2936893e-09
44	0x00000000	0.0
45	0x27cf9586	5.7616155e-15
46	0x2fca09ea	3.675063e-10
47	0x2c6e6e9a	3.388323e-12
48	0x2c4ae158	2.8831017e-12
49	0x2f405c42	1.7495075e-10
50	0x2d7e8571	1.4467858e-11
51	0x00000000	0.0
52	0x00000000	0.0
53	0x39af9c07	0.0003349485
54	0x00000000	0.0
55	0x00000000	0.0
56	0x2c00b0de	1.8288075e-12
57	0x00000000	0.0
58	0x2be109a0	1.5989883e-12
59	0x2d4ccf0e	1.1642033e-11
60	0x2fd2b9c5	3.8330775e-10
61	0x00000000	0.0
62	0x00000000	0.0
63	0x2b18b2b0	5.4249227e-13
