data/models/production/gbwm_4goals_bs4800_lr0.01.pth (torch, 199347 bytes, 39 tensors)

shared_backbone.0.weight f4 [64, 2]
000000 e0 71 7b bd 97 3a 9b bb d1 93 24 3d b4 5e e2 bc
       -0.061387897 -0.004737209 0.04018003 -0.027633049
000010 fb 68 99 bd ea 49 92 be db a6 ce 3d 02 40 89 3e
       -0.074907266 -0.28572017 0.10090419 0.26806647
000020 6c fc 0d be 41 da 60 bd f4 18 53 3e ae 54 1f bd
       -0.13865823 -0.054895643 0.20614988 -0.038899116
000030 5f 30 9e 3d ec 73 23 3e 44 10 dc 3c b4 a7 ec bd
       0.0772407 0.1596219 0.026863225 -0.11555424
000040 6d 3b 06 bd c0 36 b5 3e 8c b4 87 bc b5 5e 44 bb
       -0.032771517 0.35393333 -0.016565584 -0.0029963676
000050 df fc 15 be 8e 83 b0 be 3a 8e 81 3f d0 18 ae 3e
       -0.14647244 -0.34475368 1.0121529 0.34003305
000060 e3 ef 2a be e3 b2 9c 3d e3 e4 90 bd 94 cb da bc
       -0.16693072 0.076513074 -0.07074907 -0.026708402
000070 fe 19 e4 bd d2 43 56 bd 8e cf 64 3e 3f 25 ee bd
       -0.1113777 -0.052310772 0.22344801 -0.11628198
000080 a5 8a c0 3d ed b6 c1 be a3 80 e4 bd f6 e5 69 3c
       0.09401444 -0.37834874 -0.11157348 0.014276018
000090 be 23 26 bd ff 24 27 be 2b 5f 88 be bb c4 2d be
       -0.04056143 -0.16322707 -0.26635107 -0.16969578
0000a0 4d cc 28 3e 1a 7a 97 bd 16 84 b6 bd 13 1f 2a be
       0.16484185 -0.07396336 -0.08911912 -0.16613416
0000b0 b8 e5 3f be a0 08 cc bd 3b 6d 40 bf 88 ce 73 3e
       -0.18739974 -0.099625826 -0.7516667 0.23809254
0000c0 33 25 95 bd ca 20 61 3e 03 d5 5d bd dc c7 87 bc
       -0.07282486 0.21985164 -0.054158222 -0.016574793
0000d0 77 23 18 be 8b fb 89 3e 4c 4b 1a bd 2e a8 b1 bc
       -0.14857279 0.26949725 -0.037669465 -0.02168664
0000e0 19 a3 c6 3f 42 62 ee 3e 43 77 6c bd fc d7 f7 bd
       1.5518523 0.4655934 -0.057730924 -0.121017426
0000f0 8a 00 21 be 37 5d 55 be 27 7d 89 bd 03 da 4c be
       -0.15722862 -0.2083634 -0.06713324 -0.2000504
000100 1f 21 d8 bb 33 10 82 3d e2 21 d9 bd 47 41 75 3d
       -0.006595745 0.06350746 -0.10602166 0.059876706
000110 3d 51 27 be 37 94 c3 bd d5 6b ae bd fa e5 a8 3e
       -0.16339584 -0.09549754 -0.08516661 0.32987958
000120 88 72 e0 3d 78 0e df bd 38 30 99 3f 73 fd 75 3c
       0.10959345 -0.108914316 1.196784 0.01501404
000130 23 cf 9f bd 6c a0 b1 bd a1 0a 47 be a4 12 61 be
       -0.0780318 -0.08673176 -0.19437648 -0.21979767
000140 b0 fa 2d ba bd cf a4 be 17 21 6f be 8f 1b de bc
       -0.00066367816 -0.32189742 -0.23352467 -0.02711275
000150 8a aa 77 3e f8 4a d9 be dc 62 42 bd 1c 6e 6c 3d
       0.24186149 -0.4244001 -0.04745756 0.057722196
000160 80 ad a1 bd 23 eb c4 3d 12 ed 2e be 3c 59 51 be
       -0.078944206 0.09615161 -0.17082623 -0.20444196
000170 51 63 5e 3d 1a 46 09 be 28 2d a4 3c 4a 13 a4 bd
       0.054293934 -0.13405648 0.020041063 -0.080114916
000180 82 4f 62 3e 74 d6 02 3f e1 b2 50 be 2a e7 f5 3d
       0.22100642 0.5110848 -0.20380737 0.12006982
000190 f9 76 9f bd c6 34 7f 3d 5a b3 4d bd a1 be 89 be
       -0.07786364 0.062306188 -0.05021987 -0.2690325
0001a0 7b 6b 16 be 24 bb 37 3d 47 77 6f bd 1b e0 fb bd
       -0.14689438 0.044856206 -0.05846336 -0.12298604
0001b0 bc 25 a1 be 5b f2 bd be 4d f8 a1 bd 7f f1 9e bc
       -0.31474102 -0.37098965 -0.07908688 -0.019402264
0001c0 e6 e7 c9 b9 1f bb 5c be 41 a1 00 3d 92 71 a7 be
       -0.00038510485 -0.21555756 0.031403784 -0.32703835
0001d0 95 71 e3 3d 4a f3 0b be a4 4a 64 3e a8 6f 1f bf
       0.111056484 -0.13667026 0.22294098 -0.6227975
0001e0 92 74 ab bc a1 49 2a be 38 4d ab be 18 1d 0a 3c
       -0.020929608 -0.1662965 -0.3345735 0.008429788
0001f0 e0 8c 2c be 85 35 18 be 58 35 be be ac 56 2c 3e
       -0.16850615 -0.14864166 -0.37150073 0.16829938

shared_backbone.0.bias f4 [64]
000000 00 00 00 00 78 5f 8d bd 00 00 00 00 08 33 54 be
       0.0 -0.06902975 0.0 -0.20722592
000010 00 00 00 00 f4 ad 47 be a7 b2 31 be fd 76 41 bd
       0.0 -0.19499952 -0.17353307 -0.047232617
000020 1e 39 26 be 64 bd 58 bd 00 00 00 00 1d dc 28 be
       -0.16232726 -0.052914992 0.0 -0.16490217
000030 fc 7c 75 bd 57 23 ba bc 42 c0 ad bc 96 12 5c be
       -0.059933648 -0.02272193 -0.02120984 -0.21491465
000040 9e 5e b0 bd a5 fb 75 bd 33 fc 75 bd ed f8 5a be
       -0.08611797 -0.06005444 -0.06005497 -0.2138402
000050 0b 14 4b be 00 00 00 00 00 00 00 00 e3 fb f5 bc
       -0.19831865 0.0 0.0 -0.030027336
000060 37 71 a7 bd 1c 01 2d be 87 c6 d6 bd cd 96 79 bd
       -0.08175891 -0.16894954 -0.10487085 -0.06093483
000070 a0 82 19 be 00 00 00 00 00 00 00 00 00 00 00 00
       -0.14991236 0.0 0.0 0.0
000080 f2 c1 dd bd 61 f5 75 bd 00 00 00 00 ec 59 85 bd
       -0.10828008 -0.060048465 0.0 -0.06511292
000090 8b 61 e8 bd 6a 47 4f bf 00 00 00 00 00 00 00 00
       -0.1134673 -0.80968344 0.0 0.0
0000a0 62 68 ef bd 00 00 00 00 51 4c 60 be c2 5b 77 bd
       -0.11689831 0.0 -0.21904112 -0.06039024
0000b0 8a f8 ca bd 00 00 00 00 4b 05 6a bd 65 36 80 bd
       -0.09910686 0.0 -0.057133954 -0.06260375
0000c0 2b ef 32 bd 20 f9 75 bd b5 6c a6 bd 06 01 81 bd
       -0.04368512 -0.060052037 -0.08126203 -0.06299023
0000d0 af 5d 9a bc 00 00 00 00 00 00 00 00 e5 fb 75 bd
       -0.0188435 0.0 0.0 -0.06005468
0000e0 00 00 00 00 bd ff 8c bd 84 ac e1 bd c7 ab 4d be
       0.0 -0.06884716 -0.11019233 -0.20085059
0000f0 58 68 96 bd 04 fb 75 bd 00 00 00 00 ee 77 92 bc
       -0.07344121 -0.06005384 0.0 -0.017879453

shared_backbone.2.weight f4 [64, 64]
000000 50 ec ab 3e b9 49 8e bd e2 d0 43 3e ed 46 c8 bd
       0.3357873 -0.06947655 0.19122651 -0.09779153
000010 30 3e f1 3c 0f 39 44 3e 46 b1 ff be 67 b8 cf 3d
       0.029448599 0.19162391 -0.49939936 0.10142594
000020 ff 19 86 3d 66 63 6d bd d9 cc eb 3d 96 6d 43 3e
       0.06547927 -0.05795612 0.11513681 0.19084772
000030 93 8f a2 be a8 63 12 3e 93 e4 7f be 6e 13 a2 3d
       -0.31750163 0.14295828 -0.24989538 0.07913862
000040 33 6e d8 3b cd 84 46 bd df 08 b9 bd db 31 39 be
       0.0066049336 -0.048466492 -0.09034895 -0.18085425
000050 32 1d aa be 4b ef d3 3d 1f ad 21 3e 80 d8 4c 3e
       -0.332254 0.10348376 0.15788697 0.20004463
000060 12 86 24 be c0 72 92 3e ad cf 1b be 66 b3 93 bd
       -0.16066769 0.28603172 -0.15215941 -0.07211952
000070 39 63 54 bd f2 16 45 be db c9 7d be 8a 11 64 3e
       -0.05185244 -0.19247034 -0.24784033 0.22272316
000080 c3 0f 81 3d fa c2 0b 3e f8 17 60 bd 84 d3 10 be
       0.063018344 0.13648596 -0.05471036 -0.14143187
000090 21 5e 81 be e2 d9 e9 bd 8b c9 08 bd 96 4f c7 bd
       -0.25267127 -0.11418511 -0.03339533 -0.09731977
0000a0 0d ee d2 bd dc 4f 34 3e d9 a6 31 bd e7 a0 98 3d
       -0.10299311 0.17608589 -0.04337201 0.07452565
0000b0 73 78 95 be 62 b5 25 3e c9 33 84 3e 8c 2e 83 bc
       -0.29193458 0.16182473 0.2582076 -0.016013406
0000c0 74 e2 0b be 76 48 87 bd fb 24 88 be 5b 81 e6 bc
       -0.13660604 -0.06605618 -0.26590714 -0.028137853
0000d0 3f 20 5f 3e 14 f1 77 be d4 1e 23 3e 97 5d 5d bc
       0.21789645 -0.24213058 0.15929729 -0.013511083
0000e0 72 da 39 3c 13 3d 0b bc 87 85 18 bd 0d 36 ff 3d
       0.011343585 -0.008498448 -0.037236717 0.12461481
0000f0 e3 7a 4a be af 03 45 be a0 48 92 bd 9c 60 83 be
       -0.1977344 -0.19239686 -0.07142758 -0.25659645
000100 37 13 2d 3e 7e 85 ab bd b2 e5 d4 bd de ff 7b be
       0.16901861 -0.08375071 -0.103953734 -0.24609324
000110 f3 a4 b3 bd e9 41 b0 bd f8 5e 37 3b 42 8c 9d 3d
       -0.08771696 -0.08606321 0.002798019 0.07692768
000120 d3 b7 a6 be d7 bb 2a bd 71 58 c0 bd 0c c6 09 be
       -0.32562122 -0.041683044 -0.09391869 -0.13454455
000130 17 1c 8f bc 35 1f 5d 3e af dd 4d 3e 64 e2 1b 3e
       -0.017469449 0.21593936 0.20104097 0.1522308
000140 b6 2b 0a be 27 92 4a be 93 6f 3e be 1e 91 48 bc
       -0.13493237 -0.19782315 -0.1859725 -0.01224163
000150 63 51 78 bd 96 d0 39 3c ba 06 ca 3e 52 99 7c be
       -0.06062449 0.011341235 0.39458257 -0.24667862
000160 eb 85 a8 bd 74 19 2b bc e9 2f 50 be fd 52 fe bd
       -0.08228668 -0.01044308 -0.20330776 -0.124181725
000170 73 9d 9c be 4d 8e 10 3e 51 42 c3 bd a8 0c 48 bd
       -0.30588874 0.14116783 -0.09534133 -0.048840195
000180 51 36 23 3e e3 2b 27 3e 55 ea 4a 3e 03 9e 66 be
       0.15938689 0.16325335 0.19815953 -0.22521214
000190 b4 12 07 3e 75 55 bf 3d 88 37 6a be bd 16 9b bc
       0.13190728 0.093424715 -0.22872746 -0.01893174
0001a0 fb 5f ad 3d 9c 83 cd bd dd 9f a1 bd f8 f6 38 3e
       0.084655724 -0.10034868 -0.078918196 0.18062961
0001b0 d3 00 6b bc 80 5a 80 be 20 b3 8c be 91 fd 38 be
       -0.014343458 -0.25069046 -0.27480412 -0.18065478
0001c0 ec 61 b6 3d dd 3a 32 3e ef b2 45 bd 3a a6 90 3e
       0.08905396 0.17405267 -0.048266347 0.2825182
0001d0 fa a1 53 be af e0 4a bd 87 ce e5 bd fa d5 27 be
       -0.20667258 -0.04953068 -0.112210326 -0.1639022
0001e0 1c 82 f9 bd b6 29 71 3e 8f 88 06 3e 07 68 9d be
       -0.121830195 0.23551068 0.1313803 -0.3074343
0001f0 c6 d2 18 be 58 85 87 be 0f b5 ac 3e 0c f3 13 be
       -0.14924154 -0.2646892 0.33731887 -0.14448184
000200 a1 6d b7 3c c1 7f d5 3d d1 ba 03 3f 7b f3 7d 3c
       0.022391142 0.10424758 0.51456934 0.015499945
000210 62 2d 83 3d d3 0a 6a bd bc 7d 4c bc e6 be 38 be
       0.064051405 -0.05713923 -0.012481149 -0.18041572
000220 3b f6 2b 3d fa eb 37 3e 30 c0 23 bd 15 bd bd be
       0.04198287 0.17961112 -0.039978206 -0.3705832
000230 5a 25 d1 3d a3 37 50 be 5a 1c 2d 3d 00 36 26 be
       0.10212202 -0.20333724 0.042263366 -0.16231537
000240 d7 67 3d be e2 d3 86 be 35 74 4c bd 85 b1 28 3d
       -0.18496643 -0.2633353 -0.04991551 0.04118492
000250 f7 04 82 be 12 ab 8e bd a1 10 54 be cb a1 59 bd
       -0.25394413 -0.06966223 -0.20709468 -0.053132813
000260 1a 77 54 be ce 78 09 bd 01 a1 72 bc ae 6e 68 be
       -0.20748559 -0.033562474 -0.014808894 -0.22698471
000270 9d f1 b2 bd 5b cc f9 bd e0 85 31 be e3 81 00 bf
       -0.0873749 -0.12197181 -0.17336226 -0.5019819
000280 bb b3 05 bd 12 ca d0 3d 28 f7 46 3e 50 7c 31 bb
       -0.032642107 0.10194792 0.1943022 -0.0027082153
000290 2b a3 23 bd d2 88 cc be 91 82 bb 3c d5 87 7d 3d
       -0.03995053 -0.39948136 0.022889407 0.061897118
0002a0 f7 c1 6b be e8 50 5d be 04 ed 4d be 32 d9 a2 3e
       -0.2302321 -0.21612895 -0.20109946 0.31806332
0002b0 c9 8d 99 bd 54 6c bd 3d 46 7a 95 be 28 49 2d bd
       -0.074977465 0.092491776 -0.2919485 -0.042306095
0002c0 03 91 82 3d 72 94 45 3e ed 54 4a be d0 0d 0e bc
       0.06375315 0.19294909 -0.19758959 -0.008670285
0002d0 96 20 9a 3e 62 b3 4c 3e 55 17 42 bd 2c e3 9d 3e
       0.30102986 0.19990304 -0.047385532 0.3083738
0002e0 d1 5a 6b bd e6 78 9e 3b 7b d5 18 3e 72 50 77 be
       -0.057459656 0.0048361896 0.14925186 -0.24151781
0002f0 27 b2 7b bd 86 cd 4f be 16 76 4d be b9 3c d8 3d
       -0.061449196 -0.20293245 -0.20064577 0.10558457
000300 7f 14 79 be b2 e5 50 3e bb e6 3f be 92 cc 68 3d
       -0.24324225 0.20400122 -0.1874036 0.05683572
000310 cf cf b8 be 41 31 90 be 6a 8d 75 3e 8b d5 df bd
       -0.36096045 -0.28162578 0.23979726 -0.10929402
000320 de 54 98 be ff 86 1e be 69 aa d4 3b a1 d2 6d bd
       -0.2975225 -0.15481184 0.006490041 -0.0580622
000330 ed 61 d0 3d b4 75 7c 3e f8 6f 9a 3d 9b ac 3b 3d
       0.10174928 0.24654275 0.075408876 0.045818906
000340 bf 5b e7 bd b8 f7 cc bd 9d 8b 4e 3d 97 29 1f 3d
       -0.11296796 -0.10008186 0.050426114 0.038858023
000350 18 99 03 be 41 31 75 3e 61 d6 af bd 80 9f 60 3d
       -0.1285137 0.2394457 -0.085858114 0.05483961
000360 39 14 78 bd 70 c4 b4 3c 2d 84 d1 3d 00 89 be bd
       -0.06056616 0.022066325 0.10230289 -0.093034744
000370 c3 1c 98 bc c6 eb 0c be ee 44 8a be 08 be fa 3d
       -0.018568402 -0.13761815 -0.27005714 0.12243277
000380 40 48 c1 bd 96 a5 8c 3d 79 96 0b 3e dd ba 5f be
       -0.09437609 0.068675205 0.1363162 -0.21848626
000390 16 e1 4a be 13 8a 44 bf 51 26 a1 3e 75 cf 1a 3e
       -0.19812426 -0.76773185 0.31474546 0.15118201
0003a0 d8 10 fb 3b 3a 34 d9 bd 30 80 41 bc f5 3d 52 3e
       0.00766192 -0.106056646 -0.011810347 0.20531447
0003b0 5a 4e 92 3d 70 36 2d be 72 50 59 3e be 22 bc bd
       0.071438506 -0.16915298 0.21222094 -0.09186314
0003c0 6b de e1 bd 4a 29 29 3e b0 95 5f be 56 c4 fb 3d
       -0.11028751 0.16519657 -0.21834445 0.122933075
0003d0 af 73 b4 be 18 9d 39 be 29 95 75 3e bb b4 a0 3e
       -0.3524451 -0.18126333 0.23982681 0.31387886
0003e0 e0 43 20 3c 70 86 53 3d b8 98 4f 3d 1e 96 62 3e
       0.009781808 0.05164188 0.050682753 0.22127578
0003f0 9c b6 09 be 87 5a 14 3e a5 d1 6d be 7f 4a 09 3d
       -0.13448566 0.14487658 -0.23224504 0.03351831

shared_backbone.2.bias f4 [64]
000000 b8 8e b0 be 11 bc db bd fc 99 83 bc f6 d2 41 bd
       -0.34483886 -0.1072923 -0.016064636 -0.04732033
000010 2d 0a 4c be 1e 49 61 bd 5f fa bb bd 37 f3 6e bd
       -0.19925757 -0.05500137 -0.09178614 -0.058337416
000020 a3 7a 8c be e6 7b 9a bd bc 18 2f bd c9 35 db bc
       -0.27437314 -0.07543163 -0.042748198 -0.026759045
000030 8d 1d b9 bc 10 cf 98 bd 14 e3 7e bd 2b c1 14 be
       -0.022597099 -0.07461369 -0.062228277 -0.14526813
000040 d6 a7 ba bd c9 a1 8e bd 5c 7d 95 bd 3a 98 e0 bd
       -0.091140434 -0.06964452 -0.07299301 -0.10966535
000050 40 fc 75 bd 62 df 85 be 2c c9 72 bd 9c 01 08 be
       -0.060055017 -0.2614699 -0.059273884 -0.13281864
000060 ea 50 25 bc 43 64 51 bd ed ed 06 be d1 cb 5b be
       -0.010090092 -0.051121008 -0.13176699 -0.21464469
000070 fa 92 c9 bd 1c fc 02 be de 2d 76 bd 37 46 e1 bc
       -0.09842487 -0.12791485 -0.060102336 -0.027499301
000080 ed fb 94 bd 8c bc a3 bd ce 99 86 bd 4c df 2e bd
       -0.072746135 -0.07994947 -0.06572305 -0.04269342
000090 b8 ba df bc d5 62 e6 bc f7 fb 75 bd b6 67 93 be
       -0.027310714 -0.028123299 -0.060054746 -0.28790063
0000a0 05 5a 8d be 45 d7 97 bc 3c 82 6e be c4 9e dd bc
       -0.27607742 -0.018535266 -0.23291868 -0.027053244
0000b0 79 96 8d 3f b1 85 6a bd 7e 86 db bd a3 7e 6f bd
       1.1061546 -0.057256404 -0.10719012 -0.05847038
0000c0 0d 00 04 be e6 43 df be 80 07 1e 3f 77 75 5c bd
       -0.12890644 -0.4360649 0.61730194 -0.05382296
0000d0 ea 7e 71 bd 8c fc a0 bd 1c 09 c7 bd 0c 29 e4 bd
       -0.058958925 -0.078606695 -0.09718534 -0.111406416
0000e0 a2 a5 e6 bd bc e3 79 bd 62 5a d0 3e 50 43 6a be
       -0.11262061 -0.0610082 0.40693957 -0.2287724
0000f0 2a cd 15 be 12 b7 c1 bd 70 b0 63 bd 40 fc 75 bd
       -0.14629045 -0.09458746 -0.055588186 -0.060055017

goal_head.weight f4 [2, 64]
000000 ff 5d 8e 3e d4 23 7f be f1 a2 a8 bc 51 f6 83 be
       0.27806088 -0.24916011 -0.020585509 -0.25773862
000010 58 fc 55 3e 17 3a 42 bd cd d8 02 be e2 2a 19 3d
       0.20897043 -0.04741868 -0.12778015 0.03739441
000020 15 f7 ab 3d 60 88 d7 bb 03 2b 33 bf da 0b 02 3c
       0.083967365 -0.0065775365 -0.69987506 0.007937396
000030 09 5b 4b be 11 7e bb ba 13 86 81 3d 03 2f 16 3e
       -0.19858946 -0.0014304538 0.06324401 0.14666371
000040 c5 ca 2b 3d 80 11 a8 bd 18 73 38 be 92 59 6a bd
       0.041941423 -0.08206463 -0.18012655 -0.057214327
000050 70 12 83 3e ad f1 95 bd f6 53 32 3e 60 57 24 3e
       0.25600004 -0.073214866 0.17414841 0.16048956
000060 c0 b1 db bd 97 f7 ab bd 37 40 16 3d 99 36 42 be
       -0.107272625 -0.083968334 0.036682334 -0.1896614
000070 18 6c 63 bc 34 c5 dc ba f5 2e 1d 3d 08 c5 67 be
       -0.013880752 -0.0016843439 0.03837486 -0.22633755
000080 8b da 04 be 0e 47 94 3d 06 c6 12 be 5f a0 a5 be
       -0.12973993 0.07240115 -0.14333352 -0.32348916
000090 34 04 76 3e ff 3a 06 bc 06 f5 79 bc 12 1f 16 3f
       0.24025041 -0.008192777 -0.015256172 0.5864116
0000a0 10 84 85 3e 28 a3 0a bf e0 27 06 be a6 75 fe be
       0.26077318 -0.54155207 -0.13101149 -0.49699134
0000b0 d0 85 49 40 2b 4a 50 be 34 01 92 bd fd 14 73 be
       3.1487923 -0.20340793 -0.07129136 -0.23738475
0000c0 f8 52 99 3d f9 e3 d0 bd fa 27 3b c0 81 11 d2 bd
       0.07486528 -0.10199732 -2.924315 -0.10257245
0000d0 50 2c 96 bd 04 6a 96 3d 92 7e b6 bd b9 0b 0b be
       -0.07332671 0.073444396 -0.0891086 -0.1357869
0000e0 18 16 f5 bd ae f0 23 bc 0a 74 f8 bf 21 f8 85 3e
       -0.11967105 -0.010006113 -1.9410412 0.2616587
0000f0 36 cc 0f 3d 1e ba 6d be 27 ee 92 bc ed 1c 03 3e
       0.03510686 -0.2321553 -0.017935826 0.12804003
000100 7f 99 0d 3d 43 62 51 3e 03 63 19 3d 4c f7 d2 3e
       0.034570213 0.2044764 0.03744794 0.41204298
000110 99 0e b7 be 55 60 8b bb 63 25 26 3d 9d e2 47 3e
       -0.35753325 -0.004253427 0.040563 0.1952004
000120 e7 42 9f bc 34 01 64 bd 0e 0b 51 3f 46 2a 78 3e
       -0.019441081 -0.05566521 0.81657493 0.24234876
000130 6a 23 3e 3d b1 67 cb 3d 98 9d a4 3d fd 73 86 3d
       0.046420492 0.09931887 0.08037871 0.06565092
000140 b2 c1 2d be b3 b0 38 be f1 fd d1 bd 74 41 7a be
       -0.1696842 -0.18036155 -0.102535136 -0.24439031
000150 59 55 c7 3c c9 9a f5 be 22 7e 1f be 83 9d 3f 3e
       0.02433269 -0.47969654 -0.1557546 0.1871243
000160 6e bb 96 3d 13 06 45 bd 75 09 12 be 0b 35 bf bd
       0.07359968 -0.048101496 -0.1426142 -0.09336289
000170 ab 36 40 3c 0e d2 89 bc 52 ee ed bd 91 76 d4 3d
       0.011731784 -0.016823795 -0.116177216 0.10374177
000180 d4 a6 64 3c 84 e1 ac 3d a5 b8 e0 bd 52 e4 1d 3e
       0.013955791 0.08441451 -0.10972718 0.15419129
000190 37 91 3b 3d f4 02 ac 3e cb 3f ce bc 42 3a 0f 3e
       0.045792785 0.33596003 -0.025176903 0.13987067
0001a0 21 2d a9 bd 75 7d e0 3e 42 17 4f 3d c9 ad 3e bd
       -0.08260561 0.43845716 0.05055929 -0.046552453
0001b0 f7 59 5b c0 35 50 27 bc d1 de 55 3e b7 06 82 be
       -3.427366 -0.010211994 0.20885779 -0.25395748
0001c0 1a 28 80 bd 97 91 ab 3d 81 61 11 40 e3 53 57 3e
       -0.06257649 0.083773784 2.2715762 0.21028094
0001d0 06 9e 06 be 55 e3 67 3e 25 f3 ee bd c4 10 dc 3d
       -0.13146219 0.22645314 -0.1166747 0.10745385
0001e0 dc f8 30 3e d5 26 fb bc 84 58 23 40 f7 ab 29 bd
       0.17282432 -0.030658165 2.5522776 -0.041423764
0001f0 19 63 b4 3c e2 36 7c bd 7a d7 60 3d 11 c8 55 be
       0.02201991 -0.061575778 0.054892994 -0.208771

goal_head.bias f4 [2]
000000 1b 36 af bf 1a 36 af 3f
       -1.3688387 1.3688385

portfolio_head.weight f4 [15, 64]
000000 76 ee bf 3e 11 9e aa bb 48 26 8b bd 2b d6 2d be
       0.3748662 -0.0052068313 -0.06794411 -0.1697623
000010 a8 99 2a 3e f9 6c 2d bd 6b 34 f9 bd 02 05 50 bd
       0.16660178 -0.042340253 -0.12168201 -0.050786026
000020 2e 8c 53 bd 39 aa a2 bc 4e 6f a1 be 0f a7 94 3e
       -0.051647358 -0.01985656 -0.3153023 0.29033706
000030 23 c6 6b bc 12 d0 6a 3e 09 0b 4d be d0 e9 78 be
       -0.014390501 0.22930935 -0.20023741 -0.24307942
000040 3d d7 40 be 29 e1 3e be 16 d6 c8 3a 58 9b bd 3d
       -0.18832107 -0.1864058 0.0015322592 0.09258145
000050 7e 31 9b bd 9f 85 9f be 3c 2d 93 3c 85 28 66 bd
       -0.07577799 -0.31156632 0.017965905 -0.056190986
000060 3e 32 63 3d c4 0b 4b 3e 27 4e 99 3d 92 fb de 3e
       0.055467837 0.19828707 0.074856095 0.43551308
000070 3f ab a8 3d 29 cc 0f be 3c 54 9c 3d 31 77 a7 3d
       0.082357876 -0.14042725 0.07633254 0.08177031
000080 0b 14 4d 3e c8 4e 40 be ae 40 ee bd 6f a9 d5 3d
       0.20027177 -0.18780053 -0.116334304 0.104327075
000090 73 42 37 bd 9d e7 6b bd db 21 c9 bd 05 51 5b 3e
       -0.044741105 -0.05759393 -0.098209105 0.21417625
0000a0 73 4c 8e 3e 05 49 74 be 91 c7 0a be 4d 6f 04 3d
       0.277927 -0.2385598 -0.13552691 0.032332707
0000b0 14 eb f9 3e 27 84 db bc da c2 8b 3e 55 df 6b 3d
       0.48812163 -0.026796414 0.27297097 0.057586033
0000c0 a0 65 8a be 50 bb 74 be 59 a0 68 be ce e0 69 bd
       -0.2703066 -0.23899579 -0.22717418 -0.057099156
0000d0 5f ff 30 3e 6c ca 5e be 7c 44 0b be ca 34 ce bc
       0.17284916 -0.21756905 -0.13600343 -0.025171656
0000e0 1d c1 8c 3d d5 d1 df 3d 9c af 9a bd 95 76 19 be
       0.06872771 0.10928694 -0.07553026 -0.14986642
0000f0 d7 49 c0 bd b3 35 95 bd 00 2e 20 bf bf cc 2f be
       -0.09389084 -0.07285633 -0.6257019 -0.17167948
000100 9e b8 b2 3e 1e 6f f7 3e b9 ef 6c bc 45 82 f9 bd
       0.34906477 0.48326963 -0.014461451 -0.1218305
000110 8f 31 f3 bd a9 54 91 bd a7 49 aa bd b5 85 f2 bd
       -0.11874687 -0.07096226 -0.08314829 -0.11841909
000120 d9 02 9a 3e b7 4d 14 bd e5 88 c6 3e 19 f4 af 3d
       0.30080298 -0.036206927 0.38776317 0.0859148
000130 d7 85 0f 3d 60 76 98 be 5b 8d 62 3e 24 c6 68 bd
       0.03503975 -0.29777813 0.22124235 -0.056829587
000140 c4 86 06 bc 7b 90 66 bb 80 93 a6 bc 24 da 5f bd
       -0.008210842 -0.0035181332 -0.020334005 -0.054651394
000150 bb 09 54 3e 06 03 29 3e 68 dd 51 3e e8 2e c1 3e
       0.20706837 0.1650506 0.20494616 0.377311
000160 81 52 3f 3e b3 0b 8a 3e d3 f9 0c 3d 6d 74 36 3e
       0.18683816 0.2696205 0.03441794 0.1781785
000170 cd 46 a7 3e a2 e6 68 be 4a 84 8f be 6e ca 93 bd
       0.32671204 -0.2274423 -0.28030616 -0.07216345
000180 f6 67 d7 3d 94 eb 7a 3e 1a e8 d0 3d bd 34 1d 3e
       0.10517876 0.24503928 0.1020052 0.1535215
000190 dd 44 68 be 52 d3 7b bd b1 9e dd bc 59 fb f7 bd
       -0.2268252 -0.061480828 -0.027053209 -0.12108488
0001a0 1d 4a 0d 3e 24 bd cc be 58 a0 08 3e 4d 2e b5 3d
       0.13797803 -0.39988053 0.13342416 0.08846722
0001b0 fd 15 95 3e be 54 98 3e 20 18 46 3d 4f 10 25 be
       0.29118338 0.29752153 0.04836285 -0.16119502
0001c0 0a 9f c9 3d 61 2a aa 3d 0d d8 90 be 6c ea 6e bd
       0.098447874 0.083088644 -0.28289834 -0.05832903
0001d0 29 71 bf 3e d0 ce 48 be bc 36 d9 3c 96 5b 90 3d
       0.37391022 -0.19610143 0.026515357 0.07048719
0001e0 67 9d 63 3e f5 d8 90 3d 07 f6 b2 be df fd 28 3d
       0.22228013 0.07072631 -0.3495333 0.041257735
0001f0 0e 26 97 be 11 0e 37 be bb e3 28 3c 80 32 db bd
       -0.2952122 -0.1787646 0.010308201 -0.107029915
000200 8b 53 da 3e 4c fe 59 be 56 f3 59 bc 4a 66 08 3e
       0.42641863 -0.21288413 -0.013302645 0.1332027
000210 cf e2 e2 3d 38 4f 9d 3e c2 f5 46 3d c1 4f 59 3d
       0.110784166 0.30724502 0.048574217 0.053054575
000220 e2 13 c4 3e 66 ac ad be 5a a5 02 3e 1a 2e 2f 3e
       0.3829642 -0.33920592 0.12758389 0.1710743
000230 1b 23 61 3d 9f 3e 81 be d5 e0 2c be 69 44 6a 3c
       0.05496512 -0.2524309 -0.16882642 0.014298537
000240 be b0 82 3e 13 67 23 bc 31 d6 b5 3d 8b de 9e bd
       0.2552547 -0.009973305 0.088787444 -0.077572905
000250 08 ab 47 3e 03 90 20 3e fe 7a 2e 3e aa 73 ac be
       0.19498837 0.15679936 0.17039105 -0.33681995
000260 bd d9 5b ba 72 cd 2d bd 7b 92 cd 3c 86 1e 51 3e
       -0.00083866325 -0.042432256 0.025094261 0.204218
000270 0a d4 89 3c f4 ce e7 3b bf e3 ca 3c e3 ee a7 bc
       0.01682474 0.0070742313 0.0247668 -0.020499652
000280 f4 99 4d 3d 79 9d 13 be d8 f1 97 bc bd 24 76 bd
       0.05019565 -0.1441554 -0.018547937 -0.06009363
000290 71 65 d6 3e 59 81 ae 3d 8f 96 f3 bd cf 7c 86 be
       0.4187427 0.08520765 -0.11893951 -0.26267096
0002a0 08 98 e7 be 29 49 43 3e e9 c0 2c bc e2 7b ab bd
       -0.45233178 0.19070877 -0.01054404 -0.08373238
0002b0 76 66 c5 bb b6 48 8f bc 6c d4 d3 bb 04 a7 78 3c
       -0.006024177 -0.017490726 -0.0064645316 0.015176538
0002c0 0e 9e cf 3d 14 a9 50 3e 6b c8 dc 3e 56 3d 24 bd
       0.101375684 0.20376998 0.43121657 -0.040097557
0002d0 e9 61 80 bd 42 a0 8d be 0c b5 59 be 4f 4a b9 bd
       -0.06268675 -0.2766133 -0.2126047 -0.09047376
0002e0 6c 1b c0 3d 9c 7f e3 bd e3 ab 00 3e 03 6b be bb
       0.0938023 -0.11108324 0.1256557 -0.0058110966
0002f0 18 1f 81 bd 3a 0f 2f 3c e2 0d 65 3d de 70 33 be
       -0.06304759 0.010684783 0.055921443 -0.17523524
000300 50 fe c9 be 79 06 5d 3c 26 bd 9a be 43 4b 7d 3e
       -0.39451838 0.013490313 -0.30222434 0.24735741
000310 d3 6d af be cc 7a 1c 3e 5b f8 67 be 65 b9 3d 3c
       -0.34263477 0.15281218 -0.22653334 0.011579846
000320 df 4c 8b 3e 8f 80 82 3e 24 63 a4 bd 96 e7 58 3d
       0.27207085 0.25488707 -0.08026722 0.052955233
000330 1f 19 98 3e 6f e0 27 be 8d b6 17 be c0 58 83 3e
       0.29706666 -0.16394208 -0.14815731 0.25653648
000340 36 94 f5 3d 23 20 7c 3e 04 42 13 3e de 68 0a 3e
       0.119911596 0.24621634 0.14380652 0.13516566
000350 99 c3 32 3d e7 45 17 3e 5b 2a 83 be be 2d 38 be
       0.043643568 0.1477276 -0.25618252 -0.179862
000360 2f 50 98 be f8 1c 0a 3e 51 54 41 3e 8b d9 43 bc
       -0.29748675 0.13487613 0.1887982 -0.011953722
000370 f1 03 ce 3d 62 23 78 3e 50 16 20 3e b0 d4 a2 bb
       0.100593455 0.24232247 0.15633512 -0.004969202
000380 95 3a 09 be 8b 1a 0c 3e 01 f8 d2 3d e5 5d 28 bd
       -0.13401254 0.13682 0.10301209 -0.04110517
000390 27 d3 2e be 77 81 13 3e 56 93 a3 be bc a6 bc be
       -0.17072736 0.14404856 -0.31948346 -0.36845958
0003a0 86 a9 3c bd ee 25 19 3e 00 51 4a 3e 87 fa 0e be
       -0.046060108 0.14955875 0.19757462 -0.13962756
0003b0 ab 91 1f be ef c6 ec 3d 74 ad 5b be 3c 8c 03 bd
       -0.15582912 0.11561381 -0.21452886 -0.03211616
0003c0 a8 28 64 be 9f c1 76 3d 86 4e 92 3e ab d2 0a bd
       -0.22281134 0.060243245 0.28575534 -0.033892315
0003d0 12 4e a8 3d 93 6b 37 3e 06 ab 66 be e8 1a 03 be
       0.08218016 0.1791213 -0.22526178 -0.12803233
0003e0 c3 21 96 3e a7 a4 0c 3e 97 50 b1 3d 5e 11 85 3e
       0.29322633 0.13734685 0.086579494 0.25989813
0003f0 83 4b 0c 3d cb b6 1f bd 30 24 7d be d2 c7 cd ba
       0.0342517 -0.038992684 -0.24720836 -0.001569981

portfolio_head.bias f4 [15]
000000 9f d7 c8 be 2f a4 c1 3b 06 b2 c7 3e 0a 2a 9d 3e
       -0.39227006 0.005909465 0.3900301 0.30696136
000010 1e ff 75 bd d0 a1 0c bd 79 90 3e 3e b5 f7 2e 3e
       -0.06005775 -0.034334004 0.186098 0.1708668
000020 72 89 91 bc d7 3a 2b be bc 88 b0 bd f9 97 47 3e
       -0.017765734 -0.16721664 -0.0861983 0.19491567
000030 0e 8e 63 bd a1 62 87 3d 76 ee 23 3e
       -0.055555396 0.06610609 0.16008934

network.0.weight f4 [64, 2]
000000 2d 72 31 be 09 35 5a be b3 98 d0 be cf cb 19 3e
       -0.17328711 -0.21309294 -0.407415 0.15019153
000010 15 54 93 be ea a4 f7 bc be 8b 97 be 96 90 4c be
       -0.28775087 -0.030230004 -0.29598802 -0.1997703
000020 8e ff 61 bd 94 e3 1d bd 34 6f 56 bf 78 71 be 37
       -0.055175357 -0.038547114 -0.8376343 2.2702603e-05
000030 94 7f 57 bf 46 41 62 ba 51 78 6e bf 8c 72 78 b8
       -0.84179044 -0.00086309423 -0.9315234 -5.9234488e-05
000040 b7 b9 00 bd b1 09 8e be 07 b7 16 be 0a 37 b8 bd
       -0.03142711 -0.2774177 -0.14718257 -0.08994873
000050 88 e9 69 bf dc b2 e2 b9 ba b9 3b bf 24 09 b0 be
       -0.91371965 -0.0004323934 -0.7333027 -0.34381974
000060 0d 54 df bf 09 60 8c 39 3a a9 23 bd c2 f6 88 be
       -1.7447525 0.00026774433 -0.03995631 -0.2675076
000070 6e cc 9a bd 1e fb ce 3c e0 5a 4b bf e8 77 a2 ba
       -0.07558523 0.025266226 -0.7943554 -0.0012395354
000080 96 17 e7 bf 34 d2 ea bb a2 71 17 40 0e 42 9b 3e
       -1.8054073 -0.0071661714 2.3663106 0.30323833
000090 b4 ed 59 bf fa 61 ee b9 0e 77 dd be 77 94 1e be
       -0.8512833 -0.00045467896 -0.43254894 -0.15486322
0000a0 e5 c0 05 40 a5 a9 d4 bd 32 2d 2e be 0a 4f 0f 3e
       2.0898983 -0.103839196 -0.17009428 0.13994995
0000b0 50 3d fa 3f d7 5d 83 bd 62 d1 f1 bf 39 df 04 bd
       1.9549961 -0.06414383 -1.8892024 -0.032439444
0000c0 eb 45 5e bf 28 bc 84 3a 94 5b 89 bd cc 0b 3c be
       -0.86825436 0.0010126876 -0.0670692 -0.18363875
0000d0 da a1 61 bf c0 c7 17 39 49 2d ef 3f d2 4d b2 bd
       -0.8813759 0.00014474895 1.8685695 -0.08706249
0000e0 a3 56 71 bf cc de 9e bd 75 ef 74 be f0 39 9a bc
       -0.9427282 -0.07757339 -0.2391947 -0.018826455
0000f0 04 58 5b bc 3b 9d 49 be d0 e9 31 be 45 32 de 3d
       -0.013387684 -0.19688885 -0.17374349 0.10849432
000100 55 c5 64 bf f7 09 31 3a 49 8d 43 bf b8 ae 17 bf
       -0.89363605 0.0006753499 -0.7638746 -0.59250975
000110 a5 e3 d4 be 3a 1e 94 be 99 d3 53 bd c1 eb a5 be
       -0.4157993 -0.2892931 -0.051715467 -0.32406428
000120 81 8e 94 3f 3f 89 20 be 6d 71 09 bf f2 8c 9b bd
       1.1605989 -0.15677355 -0.536887 -0.075952426
000130 f6 73 34 be 7e 90 28 3e b0 0c 61 bf 7f 1f a4 ba
       -0.1762236 0.1646137 -0.87909985 -0.0012521594
000140 70 94 0d c0 c5 32 1f 3a 83 bf 53 bf 6b 9c 77 ba
       -2.212185 0.0006072934 -0.827141 -0.00094456103
000150 d2 a5 41 be 40 ee 45 3e b0 e8 37 be 33 a6 4b bd
       -0.18910912 0.19329166 -0.17959857 -0.049719047
000160 81 7b b8 3f 44 45 54 3d 0e 2d 54 be b4 f8 89 bd
       1.441269 0.05182387 -0.20720312 -0.067368895
000170 d5 b6 08 be 04 3b 9f bb bf f2 f5 bd f1 70 ed be
       -0.13350995 -0.00485933 -0.12009191 -0.4637523
000180 88 c0 f3 bf d0 c5 58 3d 6e e5 50 bf 59 91 af ba
       -1.9043131 0.052923024 -0.8160008 -0.0013394757
000190 c9 93 f5 bd 2b 05 da bc 38 c4 65 bf 35 e0 0b 3a
       -0.119910784 -0.026613792 -0.8975253 0.00053358387
0001a0 b3 a1 44 c0 2b a6 44 bc 1b f6 90 ba 88 b4 0f be
       -3.0723693 -0.012002508 -0.0011059673 -0.14033711
0001b0 5d 25 2a bf 54 cc 6d bb 4e c4 45 bb d5 bf 11 be
       -0.6646326 -0.003628512 -0.0030176821 -0.14233334
0001c0 fa f7 6c bf 40 13 e1 b9 fe d1 5e bf 16 8c 54 38
       -0.9256588 -0.00042929687 -0.8703917 5.0675204e-05
0001d0 0b 32 30 be c7 29 9f 3d 48 94 f1 bd f1 99 bd be
       -0.1720659 0.0777164 -0.117958605 -0.3703151
0001e0 81 b5 63 bf e3 db ce 3a c2 28 95 bd 3a 0f 9a bd
       -0.8894883 0.0015782084 -0.072831646 -0.075224355
0001f0 bd b1 64 bf 56 55 c0 3a d0 55 9b be 97 50 ea 3d
       -0.8933371 0.001467387 -0.30338907 0.114411525

network.0.bias f4 [64]
000000 00 00 00 00 a6 f8 75 bd 2c f7 75 bd bd 59 12 bc
       0.0 -0.060051583 -0.060050175 -0.008932528
000010 00 00 00 00 63 40 2e 3f 40 1b 2f 3f de 95 41 3f
       0.0 0.68066996 0.68400955 0.75619304
000020 00 00 00 00 00 00 00 00 7a f4 3d 3f cf 1d da 3d
       0.0 0.0 0.74201167 0.10650217
000030 d3 81 a7 3f 1e f6 75 bd f3 ee 75 bd 03 37 25 3f
       1.3086494 -0.06004917 -0.060042333 0.64537066
000040 e6 80 e2 3e c3 8a 03 3c a6 17 31 3f 00 00 00 00
       0.44238967 0.008028689 0.6917671 0.0
000050 b2 a2 34 3c 4c f8 75 bd 1d 78 a3 bc 74 ce ef 3e
       0.011025118 -0.060051247 -0.019954735 0.468372
000060 77 67 34 3f 00 00 00 00 b9 2c 37 3f e8 66 8c 3d
       0.70470375 0.0 0.71552616 0.06855565
000070 a4 cc 60 3e b8 cc 67 bd 00 00 00 00 9e f8 75 bd
       0.21953064 -0.05659172 0.0 -0.060051553
000080 1a e6 39 3f b2 57 fa 3d 73 0b 3d bc 00 00 00 00
       0.7261673 0.12223758 -0.011538374 0.0
000090 1f b1 65 3e 00 00 00 00 46 3a 56 be 36 d5 36 3f
       0.22430848 0.0 -0.20920667 0.71419084
0000a0 e5 c4 09 3f 4a 0a 2c 3f 02 fa 75 bd 00 00 00 00
       0.5381606 0.672032 -0.06005288 0.0
0000b0 5b 88 24 3e 00 00 00 00 f6 4b 6a bd 00 00 00 00
       0.1606764 0.0 -0.05720135 0.0
0000c0 8e c5 ec 3e 45 b6 29 3f 00 00 00 00 67 8c 3a 3f
       0.46244472 0.66293746 0.0 0.72870487
0000d0 85 02 64 3f 00 00 00 00 5b 47 0a 3f 00 00 00 00
       0.89066344 0.0 0.5401513 0.0
0000e0 b3 5a 40 3f 0b 05 35 3f a0 f8 75 bd 00 00 00 00
       0.75138396 0.7071082 -0.06005156 0.0
0000f0 89 09 39 3f 00 00 00 00 7f d9 39 3f db bb 75 bd
       0.72280174 0.0 0.725975 -0.059993606

network.2.weight f4 [64, 64]
000000 38 d1 3d be 46 9e 9c bc 0b 9b 88 bd 20 d6 a0 3d
       -0.18536842 -0.01911844 -0.06670197 0.07853341
000010 3b fe 5e 3e 4f f4 cc 3e ce a4 bf 3e 2f 60 61 3e
       0.21776669 0.40030143 0.37430423 0.22009347
000020 ec b4 2d be 63 cc 2c be b5 10 ba 3e 2c 6f 5f bd
       -0.16963547 -0.16874842 0.3634087 -0.05454938
000030 ec f0 82 c0 41 01 56 be 3f 02 93 be ba 95 3f 3f
       -4.0919094 -0.20898916 -0.2871265 0.7483784
000040 3d 1e 9c bf 6d 52 93 3e 43 68 99 3e db 1e c1 3d
       -1.2196728 0.28773823 0.29962358 0.09429713
000050 76 f7 1e 3d a5 88 2b be d8 f0 a3 3c 6c b5 b2 bf
       0.038810216 -0.16751345 0.020012304 -1.3961616
000060 9b 9e 0f bd ee 9d 06 bf f4 ae aa 3e be bf 0e 3e
       -0.035063367 -0.5258473 0.33336604 0.13940331
000070 25 82 c6 be 66 6e 92 3c 36 19 2f be af f6 b8 3d
       -0.38771167 0.017874908 -0.17099461 0.09031426
000080 7c b3 c9 3e 0d 4c 58 be 3d 8b f1 3c f5 4b 21 be
       0.39394748 -0.21122761 0.02948534 -0.15751632
000090 d9 a9 0e 3d 7c 64 0d be c4 bc 3a be a6 75 29 3f
       0.034829948 -0.13807863 -0.18236071 0.6619514
0000a0 3f 94 b0 bf c0 00 54 3f 31 4a a0 bd 8e 25 8d 3e
       -1.3795241 0.82813644 -0.07826651 0.27567714
0000b0 5c 85 7e be fe b9 7d be 0d 16 d4 bd 0d 3d 65 3d
       -0.2485556 -0.24777982 -0.10355768 0.055966426
0000c0 b3 7c bb bf 14 8f f0 3e e6 e2 fa 3e b5 1a 04 bd
       -1.464743 0.4698416 0.49001235 -0.032252032
0000d0 7c 32 23 40 a5 5e 45 3c de fd f6 3e a3 d2 2b be
       2.5499563 0.012046491 0.4824056 -0.1677957
0000e0 8e df bd 3e 82 ac 7c 3e 0a 09 93 bc 29 0f 99 ba
       0.3708462 0.24675182 -0.017948646 -0.0011677492
0000f0 22 3b cb 3d 19 07 33 bd fb 16 b3 3e dc f3 5f 3d
       0.09923388 -0.04370794 0.3497847 0.05467592
000100 d1 57 7e ba c0 95 2f 3e 84 31 42 bc 28 bc 6b be
       -0.0009702417 0.17146969 -0.011852626 -0.23020995
000110 cf 30 11 3e 99 02 b1 bd a0 1e c0 be 74 bf 5f be
       0.14178775 -0.086430736 -0.37523365 -0.21850377
000120 e3 20 9b 3e 08 45 b5 3d b8 fb 08 be d0 f9 15 3d
       0.30298528 0.08851057 -0.13377273 0.036615193
000130 d4 87 4d be cb 24 eb 3b 3c 64 a2 bc 79 60 23 be
       -0.20071346 0.007176017 -0.019823186 -0.1595477
000140 57 ec 5a be 9c b5 31 be c5 6d 30 be 83 e0 1c be
       -0.21379219 -0.17354435 -0.17229374 -0.1532002
000150 da cb b1 3d 7e 26 8b bd de 7f 36 be fc 0c ac 3d
       0.0868146 -0.06794451 -0.17822215 0.08400914
000160 08 88 90 3e 14 d2 4e 3d b3 32 c8 bd 54 43 91 3e
       0.28228784 0.050493315 -0.09775295 0.2837168
000170 ed 6d 96 be 7e 89 2f be 53 64 c1 3d 26 19 6e bd
       -0.29380742 -0.17142293 0.094429635 -0.058129452
000180 75 94 80 3e b9 9d e3 bc 0d 19 f4 bd 65 d7 ab bd
       0.25113264 -0.027785169 -0.119188406 -0.083906926
000190 66 b3 ae bd 77 67 01 be fd 14 b5 3e 21 1a cc be
       -0.08530311 -0.12637125 0.35367575 -0.39863685
0001a0 a4 69 88 bd 9d 4b 11 3e 58 eb 93 3d 14 fa 9c be
       -0.06660774 0.14189 0.07222623 -0.30659544
0001b0 95 0f e8 bd 8f 8d ee bd c8 a1 5f 3e f0 d9 c7 be
       -0.11331097 -0.11648094 0.21839058 -0.3903346
0001c0 dc ca 23 3d 44 b8 01 bf 44 1b 29 3e 0f c4 a7 3c
       0.039988384 -0.5067179 0.16514307 0.02047923
0001d0 19 a2 39 3b b3 4e 60 be 09 68 10 be 4c 38 c2 bd
       0.0028325377 -0.21905021 -0.14102186 -0.09483394
0001e0 78 65 95 be e8 8a 81 be 76 a1 a6 3d 81 f3 3a bd
       -0.29178977 -0.2530129 0.08136265 -0.04564238
0001f0 cf 18 12 3d a7 6d 2e 3e 6e 5c 42 be c9 d1 44 3e
       0.03566819 0.17034017 -0.18980572 0.19220652
000200 08 74 1a be e6 c9 4a bd 17 61 09 bd a6 8d cc 3e
       -0.15083325 -0.04950895 -0.033539858 0.3995182
000210 06 e0 e9 bd c2 0b df 3e 98 a0 2f 3f a6 eb 5b 3e
       -0.11419682 0.43563658 0.6860442 0.21476611
000220 84 20 38 be 61 f3 d3 3c 71 9a 77 3e 0a 5e 23 be
       -0.17981154 0.025872888 0.24180008 -0.15953842
000230 fd 05 34 c0 7c 71 86 3e 1a 3e 19 3d 5b 47 27 3f
       -2.8128655 0.26258457 0.03741274 0.65343255
000240 25 ea 46 bf 7a ed 24 be c1 bc 0a 3f 0d b3 c9 bd
       -0.77701026 -0.16106215 0.54194266 -0.09848604
000250 9b 2d a7 3e 0c 31 a3 3d 87 0d 15 3e 77 00 78 bf
       0.32651982 0.07968339 0.14555942 -0.9687571
000260 dd 99 04 3e c3 23 1b be f9 b3 15 3e b0 e6 a5 3d
       0.12949319 -0.15150361 0.14619435 0.08100641
000270 4a 8c c2 bd 48 28 11 bd 89 4a af 3d ac 62 0f 3e
       -0.09499414 -0.035438806 0.08559138 0.14002484
000280 3b 30 e8 3d 09 6b 2f 3d ce 90 96 bd 96 c7 dd 3c
       0.11337324 0.042826686 -0.07351838 0.027072709
000290 9c da ad 3e 91 00 46 3c 2f 6d ea 3e 03 10 4a 3f
       0.33955848 0.012085096 0.45786425 0.7893068
0002a0 b5 19 c9 bf 4d 7e 65 3f 51 be 46 3e e2 e8 e0 3c
       -1.571097 0.89645845 0.19408537 0.027454797
0002b0 b0 fc 10 3c 56 f1 9f be 57 39 ca 3d 8f 90 21 be
       0.008849308 -0.31238812 0.09874218 -0.15777801
0002c0 38 27 df bf e7 82 3e 3f 72 5c 9f 3b da 4d aa 3e
       -1.7433844 0.7441849 0.0048633153 0.3326252
0002d0 4d d3 22 40 90 54 a5 3e a3 99 49 3f bb 7a 2f 3e
       2.5441468 0.3229108 0.78750056 0.17136662
0002e0 49 8a c2 3e aa e8 20 3f 2f dc a7 be bc 15 01 3e
       0.37996128 0.6285502 -0.32785174 0.12605947
0002f0 14 77 e0 bd e4 ae d0 3d 54 76 50 3d 8a f9 76 3d
       -0.10960212 0.10189608 0.050894096 0.060296573
000300 3f 7d 0b be 2f 8a 5c be 1b 53 19 bd bc a0 d7 3c
       -0.13621996 -0.21537088 -0.03743277 0.026321761
000310 8d 8f 01 bd 2b 87 e2 3e 4f c8 85 3e 1a ac be 3e
       -0.03163104 0.4424375 0.26129386 0.37240678
000320 69 b9 1d 3d 6f 8f 0d be 1f 33 2e be e4 9f 41 be
       0.0385069 -0.13824247 -0.17011689 -0.1890865
000330 67 21 20 c0 97 b2 1a 3d 25 f7 02 be 53 38 00 3f
       -2.5020387 0.037767973 -0.1278959 0.50085944
000340 1d 64 3d bf 46 71 15 3e 78 7a 33 3f 7d e5 20 3e
       -0.73980886 0.14593992 0.7010875 0.15712543
000350 fb 3f 0b 3e 49 9c 58 3d 7c 09 5f bd 83 5d 74 bf
       0.13598625 0.05288342 -0.054452404 -0.9545519
000360 e3 d6 4c 3e b1 6c 08 be 27 c0 9f 3e 40 a1 9c 3e
       0.20003848 -0.13322712 0.31201288 0.30591774
000370 39 b9 ac be b7 07 cd 3d 4b ba 17 be 64 e9 b7 be
       -0.33735064 0.10011237 -0.14817159 -0.3592025
000380 19 9e 6e 3e 9d d4 ce 3d 65 ee 3a 3e e6 34 a9 bd
       0.23302497 0.100991465 0.18255003 -0.08262043
000390 ab 7e 87 bd 90 29 26 be 82 0a 93 bc a9 ef 4d 3f
       -0.06615957 -0.16226792 -0.017949346 0.8044382
0003a0 6b 06 c0 bf 3f f0 1f 3f fb df e7 3c 62 06 89 be
       -1.5001959 0.6247596 0.028305044 -0.26762682
0003b0 d6 ca c8 be a5 cd d9 bd 18 0e 48 be 83 ea 3b be
       -0.39217252 -0.10634927 -0.19536626 -0.18351178
0003c0 b7 df af bf b9 15 26 3f 92 f1 93 be c6 bb cb 3e
       -1.3740147 0.64876896 -0.2889524 0.39791697
0003d0 7e c4 34 40 e4 3c 05 be 3a e9 f0 3e c5 68 54 be
       2.824493 -0.13011509 0.47052938 -0.20743091
0003e0 5a f5 65 3e df b0 16 3f 7d 0e 3e 3e b3 9e 68 be
       0.22456875 0.58863634 0.18560214 -0.22716789
0003f0 7f c6 07 3e 53 5c 8a be 31 35 23 3e f7 86 00 be
       0.13259314 -0.27023563 0.1593826 -0.12551485

network.2.bias f4 [64]
000000 e7 8c fd 3d a5 7f ad bd e7 e4 68 3e d1 a0 7f 3e
       0.123803906 -0.08471612 0.2274357 0.2496369
000010 bd d9 7c bd 0c 8b d2 3d a3 1a a6 3e 01 0b 42 3e
       -0.06173109 0.10280427 0.32442197 0.1894951
000020 34 5f 56 3e 30 ed 47 3e fa 49 86 bc 74 39 7a 3e
       0.20934755 0.19524074 -0.016392697 0.24435979
000030 cd 8c 5d 3e 00 00 00 00 02 37 d4 3e 05 fa 75 bd
       0.21635742 0.0 0.41448218 -0.06005289
000040 62 09 19 be 00 00 00 00 21 fb b2 3e 48 f9 75 bd
       -0.14944986 0.0 0.3495722 -0.060052186
000050 10 f2 ed 3d 84 e0 53 3e 3b 2c c3 bd c6 d3 92 3e
       0.116184354 0.20691115 -0.09529921 0.28677195
000060 6d de 89 3e 41 75 32 3e 1d d9 28 be e5 fc 8a 3e
       0.2692751 0.17427541 -0.16489072 0.27146068
000070 61 fb 75 bd 43 26 85 bd 88 f5 75 bd bf 3a 26 3e
       -0.060054187 -0.065014385 -0.06004861 0.16233347
000080 a5 a8 a3 3e 10 bf 09 3e 6e 8d 8c 3e 11 99 9d 3e
       0.31964603 0.13451791 0.27451652 0.30780843
000090 a6 b0 63 bd ac 63 0a 3e 2b 24 c1 3e f1 e2 05 bd
       -0.055588387 0.13514584 0.37722906 -0.03268713
0000a0 68 ee 24 3e 00 00 00 00 a1 ec 8b 3e df a8 01 3e
       0.1610657 0.0 0.2732897 0.12662075
0000b0 bb 0c 18 3e 65 a2 37 be 7f 83 69 3e ce b3 9a 3e
       0.14848606 -0.17933042 0.22804068 0.30215305
0000c0 d9 ac b8 3f 45 27 13 3e 91 cb 6b 3e ec 01 8b 3e
       1.4427749 0.14370449 0.23026873 0.27149904
0000d0 e0 40 7a bd 44 ab 5f 3e 20 96 05 3e 5e c5 5e 3e
       -0.061097026 0.21842676 0.1304555 0.21754977
0000e0 bf f7 75 bd 6f b9 91 bd 28 23 81 3e 62 3b f9 bd
       -0.060050722 -0.07115447 0.25222135 -0.121695295
0000f0 be ac 63 bd c1 0d 1b be 58 ee 75 bd f5 96 49 3e
       -0.05558466 -0.15141965 -0.060041755 0.19686492

network.4.weight f4 [1, 64]
000000 9a 6e ed 3f 77 3e 54 3d 49 f3 70 3f 43 4b 67 3f
       1.8549378 0.051817384 0.94121224 0.90349215
000010 90 93 2d 3d 6c 40 9e 3f a3 7d 73 3f 95 8c 8a 3f
       0.042377055 1.236341 0.9511358 1.0824152
000020 2e 34 8e 3f 70 79 7f 3f 72 bf 27 3c 25 43 7d 3f
       1.1109674 0.99794674 0.010238515 0.9893058
000030 3e 5c 6b 3f 88 79 1d 3b d6 ed ce 3f 56 a0 1e 3d
       0.91937625 0.0024028737 1.6166332 0.038727127
000040 24 c3 20 3d 4f f4 73 3c fc 9f 5a 3f 8a 3d 31 3d
       0.0392486 0.014889791 0.85400367 0.04327158
000050 98 74 84 3f 62 89 62 3f f0 20 ab 3d a3 4c 88 3f
       1.0348082 0.8849088 0.08355892 1.0648388
000060 ea 5a 6d 3f 1a c6 90 3f cd a1 ce bd 30 c0 8a 3f
       0.9271685 1.1310456 -0.10089455 1.0839901
000070 e0 e9 5e 3d 51 87 65 3d 8d 6d 58 3d 8a eb 6f 3f
       0.05442226 0.05603725 0.05283885 0.9371878
000080 86 0a 5d 3f 04 7a ba 3f 2a e7 50 3f eb 95 58 3f
       0.8634418 1.4568486 0.8160273 0.84603757
000090 0f c8 34 3d c4 71 37 40 f4 d7 bc 40 63 e6 11 bc
       0.044136103 2.8663187 5.9013615 -0.008905026
0000a0 84 17 89 3f ba d3 47 3c 9f 9d 78 3f a1 76 ba 3f
       1.0710301 0.012196476 0.9711551 1.4567453
0000b0 b3 32 b5 3f 0a 23 20 be 6a 1a 65 3f 3d 67 67 3f
       1.4156097 -0.15638366 0.8949343 0.90391904
0000c0 b1 4f a4 c0 dc 04 b3 3f d9 6b 54 3f 1e fa 84 3f
       -5.134728 1.3985858 0.8297706 1.038883
0000d0 73 50 61 3d bc 14 80 3f 0b 31 b5 3f 63 85 59 3f
       0.055008363 1.0006328 1.4155592 0.84969157
0000e0 d5 16 4a 3d 73 4d 7f 3d aa dc 69 3f 64 c7 fe 3d
       0.04933818 0.06232972 0.9135233 0.124403745
0000f0 0f f4 56 3d 2f aa c1 bd 6d b4 67 3d 16 71 68 3f
       0.052478846 -0.09456288 0.05656855 0.90797555

exp_avg f4 [64, 2]
000000 00 00 00 00 00 00 00 00 04 00 00 00 04 00 00 00
       0.0 0.0 6e-45 6e-45
000010 00 00 00 00 00 00 00 00 29 9e 5e b6 8a d3 49 b6
       0.0 0.0 -3.317264e-06 -3.0074466e-06
000020 00 00 00 00 00 00 00 00 04 00 00 80 04 00 00 00
       0.0 0.0 -6e-45 6e-45
000030 04 00 00 80 04 00 00 80 04 00 00 00 04 00 00 00
       -6e-45 -6e-45 6e-45 6e-45
000040 1c df 88 36 6a 30 77 36 04 00 00 00 04 00 00 00
       4.079089e-06 3.6834049e-06 6e-45 6e-45
000050 00 00 00 00 00 00 00 00 e2 0c da b9 92 d1 96 b8
       0.0 0.0 -0.000415898 -7.191593e-05
000060 00 00 00 00 04 00 00 00 04 00 00 00 04 00 00 00
       0.0 6e-45 6e-45 6e-45
000070 04 00 00 00 04 00 00 00 04 00 00 00 04 00 00 00
       6e-45 6e-45 6e-45 6e-45
000080 04 00 00 00 04 00 00 00 04 00 00 00 04 00 00 00
       6e-45 6e-45 6e-45 6e-45
000090 04 00 00 00 04 00 00 00 04 00 00 00 04 00 00 00
       6e-45 6e-45 6e-45 6e-45
0000a0 04 00 00 00 04 00 00 00 00 00 00 00 00 00 00 00
       6e-45 6e-45 0.0 0.0
0000b0 00 00 00 00 00 00 00 00 04 00 00 00 04 00 00 00
       0.0 0.0 6e-45 6e-45
0000c0 ed 77 e2 b6 64 f8 cd b6 04 00 00 00 04 00 00 00
       -6.749286e-06 -6.1383926e-06 6e-45 6e-45
0000d0 04 00 00 80 04 00 00 80 04 00 00 00 04 00 00 00
       -6e-45 -6e-45 6e-45 6e-45
0000e0 b9 0c 6b ba 24 9e 7c b9 00 00 00 00 00 00 00 00
       -0.00089664344 -0.00024091505 0.0 0.0
0000f0 00 00 00 00 00 00 00 00 00 00 00 00 00 00 00 00
       0.0 0.0 0.0 0.0
000100 04 00 00 00 04 00 00 00 04 00 00 00 04 00 00 00
       6e-45 6e-45 6e-45 6e-45
000110 00 00 00 00 00 00 00 00 fc 97 5c 36 6c 73 65 36
       0.0 0.0 3.2871021e-06 3.4190844e-06
000120 04 00 00 00 04 00 00 00 8f ed 1d 3c 65 f7 ec 3a
       6e-45 6e-45 0.009639158 0.00180791
000130 00 00 00 00 00 00 00 00 00 00 00 00 00 00 00 00
       0.0 0.0 0.0 0.0
000140 04 00 00 00 04 00 00 00 00 00 00 00 00 00 00 00
       6e-45 6e-45 0.0 0.0
000150 04 00 00 80 04 00 00 80 04 00 00 00 04 00 00 00
       -6e-45 -6e-45 6e-45 6e-45
000160 04 00 00 00 04 00 00 00 00 00 00 00 00 00 00 00
       6e-45 6e-45 0.0 0.0
000170 04 00 00 00 04 00 00 00 04 00 00 00 04 00 00 00
       6e-45 6e-45 6e-45 6e-45
000180 00 b2 ac 39 50 0c 95 38 00 00 00 00 04 00 00 00
       0.00032939017 7.107167e-05 0.0 6e-45
000190 04 00 00 00 04 00 00 00 04 00 00 00 04 00 00 00
       6e-45 6e-45 6e-45 6e-45
0001a0 04 00 00 00 04 00 00 00 00 00 00 00 00 00 00 00
       6e-45 6e-45 0.0 0.0
0001b0 00 00 00 00 00 00 00 00 04 00 00 00 04 00 00 00
       0.0 0.0 6e-45 6e-45
0001c0 00 00 00 00 00 00 00 00 04 00 00 00 04 00 00 00
       0.0 0.0 6e-45 6e-45
0001d0 04 00 00 00 04 00 00 00 04 00 00 00 04 00 00 00
       6e-45 6e-45 6e-45 6e-45
0001e0 04 00 00 00 04 00 00 00 00 00 00 00 04 00 00 00
       6e-45 6e-45 0.0 6e-45
0001f0 00 00 00 00 00 00 00 00 04 00 00 00 04 00 00 00
       0.0 0.0 6e-45 6e-45

exp_avg_sq f4 [64, 2]
000000 00 00 00 00 00 00 00 00 73 d9 34 2e cb b1 69 2b
       0.0 0.0 4.1120395e-11 8.3024966e-13
000010 00 00 00 00 00 00 00 00 2d 07 9e 30 4a 80 8b 2e
       0.0 0.0 1.1498053e-09 6.343777e-11
000020 00 00 00 00 00 00 00 00 11 36 26 2f 1b 05 27 2c
       0.0 0.0 1.511682e-10 2.3734961e-12
000030 f6 50 e6 2d 62 17 3d 2b b3 4c 86 2c 02 dc 77 29
       2.6183927e-11 6.717874e-13 3.8170244e-12 5.5035844e-14
000040 28 af 85 30 90 4f 83 2e 29 bd e7 2c 11 ea e2 29
       9.726806e-10 5.9713234e-11 6.586416e-12 1.007702e-13
000050 00 00 00 00 00 00 00 00 aa a9 64 37 5a 7f 23 35
       0.0 0.0 1.3629362e-05 6.090755e-07
000060 00 00 00 00 a9 12 f4 1c 91 e6 00 2d f5 69 36 2a
       0.0 1.6151389e-21 7.327154e-12 1.6201608e-13
000070 49 87 8c 2d ca af da 2a 4a ff 08 2f 53 72 15 2c
       1.5976236e-11 3.8846557e-13 1.2459825e-10 2.1237636e-12
000080 41 2f a9 2d 5d db de 2a 11 00 ef 24 1e ac aa 24
       1.923406e-11 3.9587336e-13 1.0364984e-16 7.4017326e-17
000090 23 f1 a6 2b 07 ac 8f 28 22 b3 f8 2e cd 52 b2 2c
       1.1861938e-12 1.5950794e-14 1.1309555e-10 5.068257e-12
0000a0 90 da 3b 2f 2e 8d 31 2c 00 00 00 00 00 00 00 00
       1.70852e-10 2.5231583e-12 0.0 0.0
0000b0 00 00 00 00 00 00 00 00 37 51 e3 2c a1 ab 7d 2b
       0.0 0.0 6.4607447e-12 9.012184e-13
0000c0 53 8b 8e 30 f2 cb 0a 2f e9 7a fd 2e da a2 2e 2c
       1.0371458e-09 1.2623483e-10 1.1526941e-10 2.4817288e-12
0000d0 37 e2 41 32 13 83 5e 2f d0 47 b1 25 48 10 fd 25
       1.1285514e-08 2.0237349e-10 3.0753268e-16 4.3899537e-16
0000e0 0f 26 d3 38 8d 87 1d 37 00 00 00 00 00 00 00 00
       0.00010068353 9.38949e-06 0.0 0.0
0000f0 00 00 00 00 00 00 00 00 00 00 00 00 00 00 00 00
       0.0 0.0 0.0 0.0
000100 c3 78 e0 2c ac 96 2a 2a 53 91 93 23 58 d3 d5 23
       6.37987e-12 1.5151308e-13 1.5999319e-17 2.3183014e-17
000110 00 00 00 00 00 00 00 00 00 06 ee 2f cc 0f bd 2e
       0.0 0.0 4.329621e-10 8.597531e-11
000120 fd 4a 3c 2e 31 85 5f 2b 6d aa 83 3b c9 cb 93 38
       4.2812854e-11 7.9410355e-13 0.004018119 7.047464e-05
000130 00 00 00 00 00 00 00 00 00 00 00 00 00 00 00 00
       0.0 0.0 0.0 0.0
000140 b8 d6 d5 2b ac df 21 29 00 00 00 00 00 00 00 00
       1.5194157e-12 3.5943186e-14 0.0 0.0
000150 60 cc 8a 2f 92 8b 89 2c 40 77 f0 2a b7 55 0b 28
       2.524727e-10 3.9092696e-12 4.271531e-13 7.7346365e-15
000160 39 ac f3 2e 91 a5 d2 2c 00 00 00 00 00 00 00 00
       1.10809535e-10 5.9869405e-12 0.0 0.0
000170 85 5a 97 2d 39 80 a9 2a af 7a 1e 2e f3 a4 41 2b
       1.7206911e-11 3.0109403e-13 3.6034006e-11 6.8796287e-13
000180 67 0e 1d 37 44 bf 61 34 00 00 00 00 a8 7f 41 22
       9.3612825e-06 2.102434e-07 0.0 2.6223958e-18
000190 74 d5 c3 2b 21 58 00 2a fd dc 0b 2b c1 73 53 28
       1.3914828e-12 1.139926e-13 4.9689403e-13 1.1737953e-14
0001a0 0e ab 90 29 a4 86 ac 27 00 00 00 00 00 00 00 00
       6.424558e-14 4.7885568e-15 0.0 0.0
0001b0 00 00 00 00 00 00 00 00 a3 d3 48 27 b7 10 ef 25
       0.0 0.0 2.7870304e-15 4.1471217e-16
0001c0 00 00 00 00 00 00 00 00 b2 31 81 2c 60 f1 9c 29
       0.0 0.0 3.671918e-12 6.9696636e-14
0001d0 82 34 e2 2e 71 46 fb 2b dd 8e 8c 30 70 26 93 2d
       1.02866174e-10 1.7854174e-12 1.0226945e-09 1.6729035e-11
0001e0 d5 08 20 2b 0a 11 bf 28 00 00 00 00 35 5d 93 23
       5.6855676e-13 2.121265e-14 0.0 1.5977247e-17
0001f0 00 00 00 00 00 00 00 00 0a 54 8f 29 b6 fb 93 29
       0.0 0.0 6.365054e-14 6.571776e-14

exp_avg f4 [64]
000000 00 00 00 00 04 00 00 00 00 00 00 00 6e 8a 94 b6
       0.0 6e-45 0.0 -4.426859e-06
000010 00 00 00 00 04 00 00 00 04 00 00 80 04 00 00 00
       0.0 6e-45 -6e-45 6e-45
000020 22 1b b8 36 04 00 00 00 00 00 00 00 7c 20 a1 ba
       5.486786e-06 6e-45 0.0 -0.0012293006
000030 04 00 00 00 04 00 00 00 04 00 00 00 04 00 00 00
       6e-45 6e-45 6e-45 6e-45
000040 04 00 00 00 04 00 00 00 04 00 00 00 04 00 00 00
       6e-45 6e-45 6e-45 6e-45
000050 04 00 00 00 00 00 00 00 00 00 00 00 04 00 00 00
       6e-45 0.0 0.0 6e-45
000060 9f fa 16 b7 04 00 00 00 04 00 00 80 04 00 00 00
       -8.999049e-06 6e-45 -6e-45 6e-45
000070 05 43 74 bb 00 00 00 00 00 00 00 00 00 00 00 00
       -0.0037271392 0.0 0.0 0.0
000080 04 00 00 00 04 00 00 00 00 00 00 00 b1 60 96 36
       6e-45 6e-45 0.0 4.4816047e-06
000090 04 00 00 00 75 72 4c 3c 00 00 00 00 00 00 00 00
       6e-45 0.012478461 0.0 0.0
0000a0 04 00 00 00 00 00 00 00 04 00 00 80 04 00 00 00
       6e-45 0.0 -6e-45 6e-45
0000b0 04 00 00 00 00 00 00 00 04 00 00 00 04 00 00 00
       6e-45 0.0 6e-45 6e-45
0000c0 3b 57 39 3a 04 00 00 00 04 00 00 00 04 00 00 00
       0.00070701883 6e-45 6e-45 6e-45
0000d0 04 00 00 00 00 00 00 00 00 00 00 00 04 00 00 00
       6e-45 0.0 0.0 6e-45
0000e0 00 00 00 00 04 00 00 00 04 00 00 00 04 00 00 00
       0.0 6e-45 6e-45 6e-45
0000f0 04 00 00 00 04 00 00 00 00 00 00 00 04 00 00 00
       6e-45 6e-45 0.0 6e-45

exp_avg_sq f4 [64]
000000 00 00 00 00 67 0f 06 2f 00 00 00 00 4e b2 64 31
       0.0 1.2192701e-10 0.0 3.3279721e-09
000010 00 00 00 00 30 30 78 2f 0d 0a 7a 2e 35 df 48 2d
       0.0 2.2572588e-10 5.6852346e-11 1.1418246e-11
000020 c4 f4 17 31 52 2f 6c 2d 00 00 00 00 a8 aa 86 39
       2.2112525e-09 1.3425554e-11 0.0 0.0002568562
000030 9b cd 9c 21 91 84 ec 2d 28 30 6e 2e 7b ec 85 2f
       1.0625394e-18 2.6888965e-11 5.4157706e-11 2.4360589e-10
000040 72 7e 5e 2e 58 e7 35 29 33 e0 45 2c b5 2e 1c 31
       5.0589262e-11 4.0390732e-14 2.811984e-12 2.2727538e-09
000050 94 03 9a 2f 00 00 00 00 00 00 00 00 c8 50 ee 2f
       2.801498e-10 0.0 0.0 4.3349346e-10
000060 84 3c 66 31 2f 48 d6 2f 99 16 12 33 72 91 43 29
       3.3503804e-09 3.8977663e-10 3.4013826e-08 4.342485e-14
000070 3d 8e 97 3b 00 00 00 00 00 00 00 00 00 00 00 00
       0.0046251104 0.0 0.0 0.0
000080 29 bf 81 2d a5 bd d1 25 00 00 00 00 f8 e1 94 30
       1.4750494e-11 3.638423e-16 0.0 1.0832641e-09
000090 d9 38 d8 2e 1b 8b e8 3b 00 00 00 00 00 00 00 00
       9.832641e-11 0.007096661 0.0 0.0
0000a0 8c 8c 79 2c 00 00 00 00 f9 dc 2c 30 10 79 9a 2b
       3.5463047e-12 0.0 6.2887257e-10 1.097596e-12
0000b0 17 e3 af 2f 00 00 00 00 5f d6 3a 2e 99 29 e3 2e
       3.1993672e-10 0.0 4.2481903e-11 1.0330154e-10
0000c0 d4 f3 16 38 f8 9f f8 26 35 e1 c7 2c 48 ec 5f 2c
       3.598987e-05 1.7251816e-15 5.680923e-12 3.1821368e-12
0000d0 2e c1 09 2c 00 00 00 00 00 00 00 00 13 d0 02 2a
       1.9576107e-12 0.0 0.0 1.161851e-13
0000e0 00 00 00 00 6b 71 0f 2d 62 83 66 2f 91 43 47 31
       0.0 8.153793e-12 2.0965055e-10 2.8996718e-09
0000f0 ea 0a 94 2b 8e 58 3d 28 00 00 00 00 7f 92 1f 2e
       1.0519062e-12 1.051081e-14 0.0 3.628253e-11
