data/models/production/paper_replication.pth (torch, 198771 bytes, 39 tensors)

shared_backbone.0.weight f4 [64, 2]
0.22451629 -0.05316001 -0.029375097 -0.1456627 -1.5910206 -0.00037733564 -0.0367699 -0.2318159
-0.058241762 0.023447247 1.2294722 -0.077762656 -0.15759906 -0.12587759 0.10274643 -0.46995404
0.07857663 -0.005298687 0.0029137325 0.25367016 0.20152877 -0.0035184072 -0.2105997 0.37344784
-0.04569905 0.008359492 -0.032788232 -0.31028995 -0.07946756 0.0068760267 -0.050614797 -0.25278264
-0.04384837 -0.09333846 0.043900214 -0.35337895 -0.21243401 0.077237666 -0.3789309 -0.0117035275
-0.15619443 0.24850675 -0.015030418 -0.019189013 -0.33831266 -0.026340077 0.008057789 -0.11328717
-0.28566512 -0.4404523 0.03062858 -0.040804107 0.17576888 -0.05657308 -0.04557001 0.023597226
0.035240892 -0.15433587 -0.3782098 -0.041527588 -0.017006839 -0.09430942 -0.12297426 -0.007708131
-1.2337029 0.52077883 -0.019555835 -0.2012396 -0.008962085 -0.1964451 0.16260156 -0.43234366
-0.20391043 0.06165973 -0.15257296 0.1774551 -0.09049168 0.08907315 0.017248238 -0.10447303
-0.4052371 -0.008670888 -0.10541788 0.049883932 0.12331555 0.17025314 0.08362821 -0.34912375
-0.039571363 0.12123998 -0.12692197 0.11620006 0.055544145 -0.40534005 -0.06945094 0.059073485
-0.18765388 0.025691643 -0.052540675 -0.1609369 -0.053618446 -0.0555845 -0.49672937 -0.029748201
-0.2644442 -0.0012999005 0.1547779 0.0426135 -0.04369039 0.10540706 0.08716585 -0.20043798
-0.46119803 -0.043196544 0.15766525 -0.19894248 0.12873152 -0.0113325715 -0.008545973 -0.1418861
0.03460207 -0.2368205 -0.0134896925 0.039575916 0.10903659 -0.10777719 -0.19257215 -0.13510868
00000000: 99e7 653e 50be 59bd 0ba4 f0bc 9a28 15be
00000010: 90a6 cbbf 22d5 c5b9 099c 16bd 2661 6dbe
00000020: ea8e 6ebd 7114 c03c 585f 9d3f 0742 9fbd
00000030: a661 21be 0ee6 00be b86c d23d d19d f0be
00000040: c9ec a03d 9ca0 adbb 52f4 3e3b 0ee1 813e
00000050: 8f5d 4e3e 1495 66bb 73a7 57be 8e34 bf3e
00000060: ed2e 3bbd 40f6 083c f44c 06bd 53de 9ebe
00000070: e3bf a2bd 4b50 e13b 7651 4fbd ba6c 81be
00000080: 599a 33bd 3c28 bfbd b6d0 333d 16ee b4be
00000090: 4d88 59be c82e 9e3d 3b03 c2be 27c0 3fbc
000000a0: 6ff1 1fbe 8e78 7e3e 2442 76bc 4732 9dbc
000000b0: 5137 adbe 25c7 d7bc d104 043c 1b03 e8bd
000000c0: b342 92be f782 e1be cae8 fa3c 3522 27bd
000000d0: c2fc 333e 2db9 67bd 9ea7 3abd f84e c13c
000000e0: c158 103d 390a 1ebe b7a4 c1be d518 2abd
000000f0: ed51 8bbc 4c25 c1bd eed9 fbbd 7d94 fcbb
00000100: fae9 9dbf c351 053f 8f33 a0bc c111 4ebe
00000110: b5d5 12bc e728 49be 0681 263e 265c ddbe
00000120: e5cd 50be ea8e 7c3d 163c 1cbe cab6 353e
00000130: b453 b9bd fc6b b63d 2d4c 8d3c f5f5 d5bd
00000140: 3d7b cfbe 5710 0ebc 54e5 d7bd 1853 4c3d
00000150: dd8c fc3d d756 2e3e 4445 ab3d 59c0 b2be
00000160: 9515 22bd ab4c f83d d5f7 01be 4cfa ed3d
00000170: 4282 633d bb88 cfbe 4b3c 8ebd 0af7 713d
00000180: 5728 40be 4877 d23c e434 57bd a5cc 24be
00000190: 049f 5bbd 93ac 63bd 5053 febe 80b2 f3bc
000001a0: 3b65 87be 6c61 aaba 197e 1e3e 7e8b 2e3d
000001b0: b2f4 32bd a8df d73d 0284 b23d 9d3f 4dbe
000001c0: 2622 ecbe dcee 30bd 0073 213e 94b7 4bbe
000001d0: 32d2 033e 40ac 39bc 6904 0cbc 974a 11be
000001e0: e6ba 0d3d 1381 72be df03 5dbc 5b1a 223d
000001f0: 934e df3d 4aba dcbd a231 45be ee59 0abe

shared_backbone.0.bias f4 [64]
-0.2378509 0.0 0.3945488 0.0 -0.0033464022 -0.8453626 0.0 -0.09205185
-0.11542943 -0.18492296 -0.20938724 -0.13192989 -0.068641886 0.0 -0.06005445 -0.06005322
-0.0922238 -0.03294624 -0.021644192 -0.060053084 -0.10863932 -0.089205585 -0.060038082 -0.013567335
0.0 -0.06930881 -0.18076931 -0.090319075 -0.07368507 0.0 -0.065654226 -0.08080009
0.87870604 -0.07086675 0.0 -0.14252424 -0.037898723 -0.07571801 -0.044028323 -0.04818068
-0.044663936 -0.009855807 -0.22552569 -0.09946969 -0.07532838 -0.030532531 -0.117138684 -0.039888937
-0.025650863 0.0 0.0 -0.02491845 -0.018562306 -0.20614733 -0.07372947 -0.10288228
-0.011694093 -0.1602387 -0.14514929 -0.041189093 -0.037848003 -0.06707647 -0.12746723 0.0
00000000: 308f 73be 0000 0000 4d02 ca3e 0000 0000
00000010: 504f 5bbb af69 58bf 0000 0000 ae85 bcbd
00000020: 4466 ecbd 725c 3dbe 9c69 56be a118 07be
00000030: 1e94 8cbd 0000 0000 a8fb 75bd 5dfa 75bd
00000040: d5df bcbd a3f2 06bd 294f b1bc 39fa 75bd
00000050: 4b7e debd 6bb1 b6bd 7eea 75bd 8749 5ebc
00000060: 0000 0000 c7f1 8dbd 971b 39be 35f9 b8bd
00000070: 33e8 96bd 0000 0000 b975 86bd 857a a5bd
00000080: e1f2 603f 9622 91bd 0000 0000 e0f1 11be
00000090: b13b 1bbd 0b12 9bbd 0b57 34bd 1b59 45bd
000000a0: 88f1 36bd 407a 21bc 35f0 66be c4b6 cbbd
000000b0: c445 9abd 5c1f fabc 68e6 efbd 9562 23bd
000000c0: c221 d2bc 0000 0000 0000 0000 c721 ccbc
000000d0: fa0f 98bc 4918 53be 7aff 96bd f2b3 d2bd
000000e0: 9598 3fbc 9d15 24be 04a2 14be e5b5 28bd
000000f0: 8206 1bbd 635f 89bd c586 02be 0000 0000

shared_backbone.2.weight f4 [64, 64]
0.082730055 0.09012596 0.043168724 0.070071496 -0.021540655 -0.08222525 0.08688986 0.00014322865
-0.3380923 -0.28798074 -0.007877256 -0.19756123 0.04682473 0.11533098 0.037294377 -0.08869973
0.13388291 -0.045838278 0.298191 -0.10683315 0.074110925 0.060736172 0.17872038 0.17661646
-0.16726741 0.08251289 -0.07531741 0.16672637 -0.042830113 -0.0945742 -0.21761483 0.35747528
-0.10384515 0.07823205 -0.52333295 -0.14229967 0.021613136 -0.22183554 0.18049473 -0.13220756
0.119506985 -0.22323112 -0.18526664 0.20293175 -0.24869533 1.6139651e-06 0.046713773 0.10042262
-0.11576248 -0.12510324 -0.41483232 0.04383089 -0.030596985 -0.1437132 -0.39624617 0.2466875
-0.125436 -0.060119323 -0.12621988 0.022512374 0.030535445 0.2250457 -0.02914099 0.1222352
-0.086623766 -0.13494515 0.1873072 0.16487628 -0.05167489 -0.062182978 0.08487213 0.0022067423
0.17299405 -0.39508584 -0.2345928 -0.3274196 0.46981192 0.0012856848 0.3216758 0.22442402
0.19807014 -0.08483356 0.21965712 0.041644894 -0.010412696 -0.08226377 -0.31577864 -0.28210992
-0.11247694 -0.18557754 -0.14683858 0.2701486 -0.18092282 0.06987475 0.052219123 0.16883484
-0.23449354 -0.0125428075 0.15833157 -0.050085273 0.052034404 0.09997721 0.057539184 0.15779641
0.12510435 -0.043397788 -0.13066833 -0.13245054 0.21163255 -0.1451682 -0.26958883 -0.1796132
0.073043786 0.14431545 -0.22063491 -0.08870215 0.23299663 0.057817202 0.15713786 0.054343708
-0.15599436 -0.26705125 0.016764376 -0.3348258 0.14267105 -0.22808911 0.061728325 0.14968996
-0.09872286 0.009678428 0.14275283 -0.042237464 -0.25077644 0.1423427 -0.07435951 0.29937956
-0.11151815 -0.027370984 -0.27013093 0.05637033 0.03746387 -0.18939428 -0.14572342 0.0060817422
-0.060549885 0.26077932 0.015279432 -0.008862146 -0.23226188 -0.14940658 -0.09034765 -0.11394094
-0.0052119484 -0.16842145 -0.20997407 0.37829918 -0.11618257 -0.045751974 0.1230618 -0.22465654
-0.03863322 0.11951894 -0.13495158 -0.05446915 0.25063315 0.2710191 0.20528412 -0.36272013
0.08157426 -0.15924312 -0.35260025 -0.041469958 -0.09106048 0.20149367 0.23528105 0.24032931
0.22279537 0.17592084 0.07079498 0.1522821 0.114724815 0.054780323 0.2934229 0.060594928
-0.15846156 -0.09819856 -0.33165285 -0.017164916 -0.054728165 0.3963822 -0.1106981 -0.057941794
0.108999684 0.28824967 0.077352844 -0.012166916 0.05940307 0.091368854 -0.08189096 0.14523555
0.02207809 -0.12998317 -0.18235047 0.2387916 0.18331915 -0.12661871 -0.2320535 0.05958381
0.14072393 0.16420127 0.057178695 0.08694052 -0.046995584 -0.30243617 0.12176521 -0.17592081
-0.28822038 0.41560832 -0.23257056 -0.063021354 0.010688503 -0.18902981 -0.07524347 0.16428591
-0.06975272 0.11434678 0.07990161 -0.17811659 -0.019034054 -0.15206698 0.20759168 -0.110226944
-0.2409028 -0.04679395 0.06049872 -0.14186724 -0.095809706 -0.04757018 0.3416049 -0.49700412
-0.30109122 -0.054429676 0.12510763 0.18863092 0.12080991 -0.13780035 0.28279185 -0.06098255
0.020327603 -0.05543181 0.042700656 -0.26547003 -0.19209827 -0.1897325 0.21379118 0.21998495
00000000: 606e a93d f693 b83d b0d1 303d a581 8f3d
00000010: 0776 b0bc b665 a8bd 50f3 b13d a62f 1639
00000020: 6f1a adbe 3672 93be 9b0f 01bc 7e4d 4abe
00000030: 4acb 3f3d a632 ec3d fdc1 183d 34a8 b5bd
00000040: 9a18 093e ebc0 3bbd 7eac 983e 57cb dabd
00000050: 78c7 973d 7ec6 783d 7a02 373e f2da 343e
00000060: 2648 2bbe 85fc a83d 0440 9abd 51ba 2a3e
00000070: a16e 2fbd 1eb0 c1bd 6cd6 5ebe 0007 b73e
00000080: c4ac d4bd 2038 a03d 26f9 05bf 01b7 11be
00000090: 080e b13c db28 63be 9cd3 383e 6b61 07be
000000a0: 14c0 f43d b396 64be 8ab6 3dbe 57cd 4f3e
000000b0: fda9 7ebe 6b9f d835 f156 3f3d 60aa cd3d
000000c0: e114 edbd 101b 00be e764 d4be 0588 333d
000000d0: 87a6 fabc 8e29 13be c7e0 cabe a69b 7c3e
000000e0: 4b72 00be ae3f 76bd c93f 01be df6b b83c
000000f0: 7825 fa3c 6172 663e 16b9 eebc 7356 fa3d
00000100: cd67 b1bd 102f 0abe 75cd 3f3e 54d5 283e
00000110: 0da9 53bd 94b3 7ebd 70d1 ad3d fe9e 103b
00000120: 5a25 313e b148 cabe 1839 70be 8ba3 a7be
00000130: 308b f03e 6c84 a83a b1b2 a43e 69cf 653e
00000140: e6d2 4a3e 38bd adbd cced 603e d693 2a3d
00000150: 039a 2abc e879 a8bd bdad a1be b670 90be
00000160: 4f5a e6bd 0a08 3ebe da5c 16be eb50 8a3e
00000170: d543 39be 7e1a 8f3d b8e3 553d 0ae3 2c3e
00000180: 131f 70be 5980 4dbc ac21 223e 3726 4dbd
00000190: 0722 553d dac0 cc3d 35ae 6b3d 6295 213e
000001a0: 5b1b 003e e1c1 31bd ebcd 05be 1da1 07be
000001b0: 34b6 583e f9a6 14be 8c07 8abe 86ec 37be
000001c0: fb97 953d 6ec7 133e 1eee 61be 79a9 b5bd
000001d0: ab96 6e3e bbd1 6c3d bfe8 203e 8297 5e3d
000001e0: fcbc 1fbe f1ba 88be 7255 893c 4a6e abbe
000001f0: 5c18 123e 3190 69be d7d6 7c3d 5348 193e
00000200: 362f cabd 4592 1e3c cc2d 123e 3101 2dbd
00000210: c565 80be 49c2 113e cc49 98bd 4748 993e
00000220: a163 e4bd 1d39 e0bc 9a4e 8abe 93e4 663d
00000230: b773 193d 93f0 41be 8538 15be 5a49 c73b
00000240: 2803 78bd de84 853e 9556 7a3c 8932 11bc
00000250: 0fd6 6dbe 0afe 18be 3008 b9bd de59 e9bd
00000260: fec8 aabb ac76 2cbe 7103 57be 6eb0 c13e
00000270: 21f1 edbd 6c66 3bbd d307 fc3d 5d0c 66be
00000280: de3d 1ebd 59c6 f43d bf30 0abe 0b1b 5fbd
00000290: fd52 803e 04c3 8a3e 0036 523e 74b6 b9be
000002a0: 6810 a73d a110 23be 0588 b4be 67dc 29bd
000002b0: eb7d babd 5b54 4e3e 84ed 703e e318 763e
000002c0: 7824 643e 9824 343e f5fc 903d d7ef 1b3e
000002d0: d8f4 ea3d 5561 603d 873b 963e 6332 783d
000002e0: bf43 22be 541c c9bd 67ce a9be 709d 8cbc
000002f0: a42a 60bd 9cf2 ca3e afb5 e2bd 6054 6dbd
00000300: 3a3b df3d 7695 933e 2b6b 9e3d bf57 47bc
00000310: a250 733d 981f bb3d 73b6 a7bd a1b8 143e
00000320: 1cdd b43c 4f1a 05be 15ba 3abe c985 743e
00000330: 04b8 3b3e 56a8 01be 6f9f 6dbe 270e 743d
00000340: ef19 103e 6124 283e 3534 6a3d df0d b23d
00000350: 717e 40bd ead8 9abe 0a60 f93d 9624 34be
00000360: 9f91 93be 9dca d43e fa26 6ebe 5711 81bd
00000370: d51e 2f3c 0891 41be 4019 9abd 913a 283e
00000380: 84da 8ebd a52e ea3d 75a3 a33d 3264 36be
00000390: 4eed 9bbc 72b7 1bbe ea92 543e aabe e1bd
000003a0: 39af 76be 03ab 3fbd 81cd 773d a545 11be
000003b0: e137 c4bd f3d8 42bd d6e6 ae3e 5377 febe
000003c0: a128 9abe a7f1 5ebd 371c 003e 7728 413e
000003d0: 306b f73d 891b 0dbe 18ca 903e d7c8 79bd
000003e0: 1386 a63c 770c 63bd e2e6 2e3d b0eb 87be
000003f0: 69b5 44be 3d49 42be 13ec 5a3e bc43 613e

shared_backbone.2.bias f4 [64]
-0.01800948 -0.098383725 -0.0449483 -0.07125803 -0.03421047 -0.07197224 -0.11353266 -0.17956978
-0.11717652 -0.31948376 -0.16242997 -0.059044905 -0.09890421 0.11273833 -0.07931618 -0.060054976
-0.17858127 -0.10519406 -0.028910216 -0.055588614 -0.16709596 -0.13358575 -0.20925993 0.03623799
-0.07948712 -0.078770466 -0.08301255 -0.07567776 0.1217651 -0.11482922 -0.060054973 -0.12035418
-0.12621868 -0.06005413 -0.052287422 -0.08556209 -0.149331 -0.041436203 -0.38947356 -0.040119722
-0.16774979 -0.09844623 -0.11314073 -0.06005422 -0.094108716 -0.17199408 -0.12393301 -0.23463692
-0.06471782 -0.05113147 -0.04484754 -0.060054816 -0.0143648125 -0.20303708 0.0899603 -0.06970382
-0.025893394 0.17237286 0.06486499 -0.04170428 -0.036350373 -0.056730624 -0.027723074 -0.060054976
00000000: 9e88 93bc 687d c9bd b51b 38bd bbef 91bd
00000010: 4720 0cbd 2f66 93bd d083 e8bd 24e1 37be
00000020: 3efa efbd 6093 a3be 0b54 26be 12d9 71bd
00000030: 4a8e cabd 5be3 e63d 8570 a2bd 35fc 75bd
00000040: 02de 36be fc6f d7bd 1ed5 ecbc e3b0 63bd
00000050: 341b 2bbe b4ca 08be 3c48 56be 496e 143d
00000060: 25ca a2bd 6952 a1bd 7c02 aabd f1fc 9abd
00000070: fb5f f93d 952b ebbd 34fc 75bd 417c f6bd
00000080: 783f 01be 52fb 75bd 562b 56bd 2d3b afbd
00000090: 3aea 18be 02b9 29bd 1469 c7be 9454 24bd
000000a0: 9ac6 2bbe 2d9e c9bd 54b6 e7bd 6afb 75bd
000000b0: 12bc c0bd 371f 30be 97d0 fdbd a944 70be
000000c0: c78a 84bd 3b6f 51bd 0eb2 37bd 0afc 75bd
000000d0: 645a 6bbc f4e8 4fbe 1b3d b83d e0c0 8ebd
000000e0: 621e d4bc 8382 303e f0d7 843d 1bd2 2abd
000000f0: 21e4 14bd 5f5e 68bd 801b e3bc 35fc 75bd

goal_head.weight f4 [2, 64]
-0.10529556 0.38409108 -0.260857 -0.048138563 -0.049957804 0.1468237 0.041237146 -0.2850138
-0.11787584 0.28557178 0.110792786 0.06936235 -0.31228155 -3.4560044 0.09203003 0.22479795
0.17833772 0.27714115 -0.13096136 -0.21073462 -0.038707193 -0.041231196 -0.40359953 -2.3294506
-0.014234252 -0.07044616 0.100842185 0.18913114 -3.611047 -0.048182834 -0.07948838 -0.30553412
-0.27826124 -0.10849853 0.1822024 0.24840005 0.083731525 -0.38821048 1.3915129 -0.06411694
0.20717826 -0.22690813 -0.024441212 -0.10393272 -0.3005298 0.027201556 0.13405053 0.23951076
0.21034448 0.15569752 0.10219204 0.059673276 -0.032659706 0.15479669 -2.995912 -0.104865424
-0.030981986 -4.3939686 -2.9755633 -0.044808682 -0.27177384 -0.029437529 -0.55948037 0.20453964
0.10165979 0.36199456 -0.07713819 -0.029685332 0.13342021 -0.32633284 -0.05691951 -0.1665011
-0.11306775 -0.37954363 -0.08935372 0.10253657 -0.1594607 3.5064876 0.12778097 0.08080993
-0.034540053 0.09034986 0.24007766 -0.039538056 0.009148024 -0.08553621 0.27771357 2.2572246
0.11519152 0.099303156 0.13624477 0.0062178657 3.6251347 0.0457022 -0.037579436 -0.13261795
0.094034694 -0.245836 0.08574473 0.16140355 -0.4295907 -0.15078172 -1.3316567 0.01688457
0.067977466 -0.12076944 0.076040976 -0.047542367 -0.10824042 0.1322978 0.088622734 0.011596719
0.21294525 -0.25958318 0.22953668 0.071441814 0.06564309 0.041177455 3.1440814 0.07429634
0.055990495 4.679957 2.6367984 0.22511028 0.553419 0.056982383 0.55588526 -0.1080925
00000000: 33a5 d7bd 96a7 c43e 0c8f 85be f12c 45bd
00000010: 8ea0 4cbd f458 163e 48e8 283d 54ed 91be
00000020: e368 f1bd 7736 923e 54e7 e23d d90d 8e3d
00000030: 5ee3 9fbe 2d2f 5dc0 3e7a bc3d 6f31 663e
00000040: 2a9e 363e 72e5 8d3e bc1a 06be d1ca 57be
00000050: 6f8b 1ebd 0be2 28bd 99a4 cebe b815 15c0
00000060: c836 69bc 1446 90bd 5986 ce3d 98ab 413e
00000070: 651b 67c0 5d5b 45bd ceca a2bd f86e 9cbe
00000080: 4278 8ebe 7a34 debd 4493 3a3e 955c 7e3e
00000090: 6f7b ab3d 86c3 c6be 181d b23f be4f 83bd
000000a0: 8a26 543e 9b5a 68be f038 c8bc aeda d4bd
000000b0: 0bdf 99be ccd5 de3c 8b44 093e 4f42 753e
000000c0: 8b64 573e 2c6f 1f3e 0f4a d13d f76b 743d
000000d0: 2fc6 05bd 0683 1e3e 06bd 3fc0 afc3 d6bd
000000e0: efcd fdbc 649b 8cc0 a16f 3ec0 4f89 37bd
000000f0: f125 8bbe f926 f1bc 1b3a 0fbf d772 513e
00000100: 0233 d03d 5a57 b93e a1fa 9dbd a72e f3bc
00000110: 4f9f 083e 1915 a7be 6f24 69bd 447f 2abe
00000120: 1190 e7bd 8b53 c2be 15ff b6bd b1fe d13d
00000130: aa49 23be 4b6a 6040 04d9 023e ad7f a53d
00000140: df79 0dbd 5909 b93d ebd6 753e a8f2 21bd
00000150: 98e1 153c 9c2d afbd 7930 8e3e 5e76 1040
00000160: 88e9 eb3d 745f cb3d c083 0b3e 3dbf cb3b
00000170: 3502 6840 3b32 3b3d e5ec 19bd 00cd 07be
00000180: 4395 c03d 6fbc 7bbe ef9a af3d f946 253e
00000190: 50f3 dbbe 8666 1abe ba73 aabf 8251 8a3c
000001a0: c537 8b3d f855 f7bd 5fbb 9b3d c9bb 42bd
000001b0: 27ad ddbd 1379 073e d67f b53d 2a00 3e3c
000001c0: 520e 5a3e 16e8 84be aa0b 6b3e 1650 923d
000001d0: e26f 863d b1a9 283d a138 4940 ae28 983d
000001e0: 4a56 653d 35c2 9540 4ec1 2840 4f83 663e
000001f0: deac 0d3f 5c66 693d 7f4e 0e3f 9a5f ddbd

goal_head.bias f4 [2]
-1.9682634 1.9682635
00000000: 0ef0 fbbf 0ff0 fb3f

portfolio_head.weight f4 [15, 64]
0.028475825 -0.0357525 -0.1204229 0.2670288 0.36121362 0.023661276 0.39147025 -0.01863798
0.104300745 0.018730048 0.11817645 0.065437324 0.47687042 -0.24491774 -0.117537685 -0.101771615
0.23422655 -0.20149545 -0.099331744 -0.26838225 0.21143687 0.12310033 0.23675045 0.117863506
0.12353781 0.12647703 -0.13560441 -0.013722872 -0.019300643 0.32416824 -0.16448905 0.255117
0.1959395 -0.26752236 0.05230539 0.027850043 0.22427694 -0.153335 0.1121388 0.34646603
0.11059474 0.3951602 0.14916691 0.008422654 0.28411376 0.1906532 -0.42165557 -0.024304925
-0.0905427 -0.21200834 0.1560308 0.023686834 -0.15266615 0.08042436 -0.0051687076 0.075106196
-0.18709944 -0.0329143 0.17254302 -0.22255777 -0.10476397 0.17572023 0.37258813 -0.008664508
0.11486438 0.19833979 0.23218952 -0.09781506 0.091818705 0.052906975 -0.087792434 -0.24320002
-0.053412873 0.2591701 0.1541259 0.10593083 0.40317217 0.3508268 0.029177485 0.12300712
0.22131369 0.1532915 0.09451434 0.02239098 0.12854151 0.13497339 -0.08581758 -0.038281176
0.31606507 0.14841138 -0.038143273 0.104658596 0.119627565 0.06977597 0.197115 0.107347846
-0.12898754 0.23496413 -0.05667771 0.13750686 0.31660116 -0.35503733 0.011721984 -0.29843667
0.04516228 -0.029250687 -0.11485358 -0.16026844 0.05705937 0.099958286 -0.015647 0.18280339
-0.095875524 0.12263104 0.052783735 0.19310685 0.10169952 0.010354656 -0.07224613 0.062437315
0.21955322 0.16620448 0.23064154 -0.092027165 0.08063066 -0.032208838 0.13687097 -0.15792471
0.108144686 -0.093486294 0.24260512 -0.24680544 0.08130134 -0.06328491 0.046958588 0.26119164
-0.010603838 0.0067656958 -0.24205641 0.06242941 -0.27120498 0.25783202 -0.010113142 0.06712941
0.14831619 -0.07764518 -0.13054988 0.036815766 -0.080004 -0.21651296 -0.17170967 0.22115347
-0.16935965 0.33280236 -0.13184999 -0.18188892 0.38645697 0.07812171 0.32039854 -0.11011976
0.1322625 -0.028745085 -0.009326662 0.16591352 -0.055154085 -0.023187796 0.1853075 0.12229119
-0.09226278 0.19489262 0.15826459 -0.16705664 0.198117 -0.035095807 -0.111388095 -0.1824046
-0.059474327 -0.14850704 0.0931376 -0.3669146 0.09215173 0.07383482 0.2912262 0.039546203
0.07325198 0.47324428 0.5258621 0.09393919 0.07337065 0.07734594 0.15293126 0.014735497
0.04940127 0.10518928 0.017893389 0.024620984 -0.1029381 -0.2547125 0.06529026 0.0023803355
0.027199304 0.18312001 -0.08320791 -0.21565434 -0.2624116 0.05342266 -0.031690475 0.031688586
0.00051802373 -0.11506557 -0.13804698 -0.14077131 -0.10583082 0.029321058 0.008633626 -0.12256589
0.16836713 0.14485505 -0.25459462 0.20880502 0.13344958 0.22062747 -0.2253855 -0.057228383
-0.1679964 -0.2430984 -0.19167472 0.050949167 -0.16948019 -0.035899468 -0.1487688 -0.27408245
-0.010633107 -0.26784855 -0.23860893 -0.1579069 0.11434107 0.17898297 0.24111383 -0.21470995
0.052817777 -0.0019933293 -0.26845497 0.31209332 -0.13881 0.23980969 -0.1922056 -0.057314124
-0.35601777 -0.06002857 -0.1912355 0.13983795 0.053892918 -0.23938496 -0.15857978 -0.14184064
00000000: 2246 e93c 3771 12bd 48a0 f6bd 00b8 883e
00000010: fef0 b83e 4bd5 c13c ca6e c83e adae 98bc
00000020: a19b d53d c26f 993c 7f06 f23d 0104 863d
00000030: 5c28 f43e b7cb 7abe 99b7 f0bd a36d d0bd
00000040: 16d9 6f3e d354 4ebe 716e cbbd 6669 89be
00000050: e882 583e 071c fc3d b66e 723e 6c62 f13d
00000060: 6401 fd3d 3283 013e e2db 0abe e6d5 60bc
00000070: 621c 9ebc 61f9 a53e d16f 28be b29e 823e
00000080: 5da4 483e b1f8 88be 2d3e 563d c625 e43c
00000090: dba8 653e da03 1dbe 07a9 e53d ff63 b13e
000000a0: 7f7f e23d 7052 ca3e 36bf 183e 2cff 093c
000000b0: 5c77 913e 983a 433e 3de3 d7be 1f1b c7bc
000000c0: 736e b9bd b718 59be 8ac6 1f3e e40a c23c
000000d0: 8454 1cbe 87b5 a43d 435e a9bb 47d1 993d
000000e0: ff96 3fbe 25d1 06bd 1eaf 303e 2fe6 63be
000000f0: 7e8e d6bd 01f0 333e dfc3 be3e 95f5 0dbc
00000100: 043e eb3d 9619 4b3e 17c3 6d3e 4353 c8bd
00000110: 720b bc3d fcb4 583d 85cc b3bd 6d09 79be
00000120: 75c7 5abd f1b1 843e 2ed3 1d3e 43f2 d83d
00000130: 956c ce3e 929f b33e 9f05 ef3c 28eb fb3d
00000140: 0ea0 623e 72f8 1c3e bc90 c13d 4a6d b73c
00000150: 63a0 033e 7736 0a3e 21c1 afbd b9cc 1cbd
00000160: 48d3 a13e 27f9 173e 1f3c 1cbd 3f57 d63d
00000170: 4cff f43d b4e6 8e3d 84d8 493e 30d9 db3d
00000180: 4f15 04be 709a 703e e326 68bd 99ce 0c3e
00000190: 8c19 a23e 74c7 b5be 900d 403c b1cc 98be
000001a0: 15fc 383d 239f efbc 5b38 ebbd 691d 24be
000001b0: 16b7 693d eeb6 cc3d 232e 80bc d030 3b3e
000001c0: 635a c4bd fc25 fb3d c233 583d cdbd 453e
000001d0: d747 d03d 93a6 293c c7f5 93bd 45be 7f3d
000001e0: 8fd2 603e 8231 2a3e 4c2d 6c3e bd78 bcbd
000001f0: b021 a53d 6aed 03bd e727 0c3e 04b7 21be
00000200: f67a dd3d be75 bfbd 7a6d 783e 91ba 7cbe
00000210: 5181 a63d 859b 81bd a657 403d e9ba 853e
00000220: b8bb 2dbc c5b2 dd3b a3dd 77be fbb5 7f3d
00000230: 61db 8abe 8f02 843e 98b1 25bc 257b 893d
00000240: 33e0 173e 7004 9fbd deae 05be 21cc 163d
00000250: 23d9 a3bd 93b5 5dbe a9d4 2fbe 0e76 623e
00000260: 9e6c 2dbe 1265 aa3e af03 07be 1741 3abe
00000270: b0dd c53e 46fe 9f3d 470b a43e 7886 e1bd
00000280: d26f 073e d07a ebbc dbce 18bc 3ce5 293e
00000290: 40e9 61bd 55f4 bdbc 40c1 3d3e ce73 fa3d
000002a0: 45f4 bcbd ee91 473e 1d10 223e e510 2bbe
000002b0: 2fdf 4a3e 9fc0 0fbd 711f e4bd 45c8 3abe
000002c0: 5a9b 73bd 3b12 18be edbe be3d 3bdc bbbe
000002d0: 0cba bc3d b636 973d 9a1b 953e 33fb 213d
000002e0: 2205 963d 134d f23e e69e 063f 3163 c03d
000002f0: 5a43 963d 8c67 9e3d 039a 1c3e 276d 713c
00000300: fc58 4a3d 7a6d d73d 2895 923c f2b1 c93c
00000310: 36d1 d2bd ad69 82be e6b6 853d 67ff 1b3b
00000320: 13d1 de3c d083 3b3e e968 aabd 7ed4 5cbe
00000330: d05a 86be b8d1 5a3d dfcd 01bd e4cb 013d
00000340: fccb 073a 7fa7 ebbd 305c 0dbe 5b26 10be
00000350: d4bd d8bd b732 f03c 0d74 0d3c d303 fbbd
00000360: 6f68 2c3e e254 143e 3a5a 82be fcd0 553e
00000370: 02a7 083e 2bec 613e 75cb 66be 4f68 6abd
00000380: 4007 2cbe c9ee 78be 6146 44be 13b0 503d
00000390: 378c 2dbe 520b 13bd d956 18be 8954 8cbe
000003a0: 7c36 2ebc 7223 89be e655 74be 59b2 21be
000003b0: a72b ea3d 5047 373e 8be6 763e eddc 5bbe
000003c0: 7457 583d 84a2 02bb ee72 89be b2ca 9f3e
000003d0: 3524 0ebe ac90 753e 8bd1 44be 37c2 6abd
000003e0: f647 b6be 85e0 75bd 3dd3 43be ae31 0f3e
000003f0: d2be 5c3d 5521 75be bd62 22be ac3e 11be

portfolio_head.bias f4 [15]
-0.11330157 -0.002676104 0.2852378 -0.07219147 0.20424515 0.1910979 -0.062939726 -0.17740498
-0.114497386 0.07293273 0.4738428 -0.10034232 0.09014737 -0.0024276474 -0.06297061
00000000: a70a e8bd 9361 2fbb b00a 923e 1fd9 93bd
00000010: a425 513e 2baf 433e 8be6 80bd a7a9 35be
00000020: 9b7d eabd c15d 953d 869b f23e 4680 cdbd
00000030: 2f9f b83d 2a19 1fbb bcf6 80bd

network.0.weight f4 [64, 2]
-0.10745676 -0.079186305 -0.7471414 0.011063632 -0.6638316 -0.0010820357 -2.0600123 0.007731826
0.04289078 -0.41921672 -0.35879198 0.011333494 -0.18414456 -0.22224739 -0.020645356 -0.030869806
-0.87223065 -0.017552651 -0.24167228 -0.2812216 -0.40144458 -0.3005327 -0.9274625 -0.013027954
-0.09484614 0.021565692 1.4831759 -0.030758537 -0.018753223 0.017459678 -0.7498261 0.01327125
-0.6084711 -0.0040161954 -0.119049735 -0.03562247 -0.56399584 -0.004255168 -2.2052658 -0.055578347
-2.090086 0.0046662795 -0.15012437 -0.2965155 -0.052143678 -0.23033726 -0.0735411 -0.36805716
-0.75570166 -0.017830364 1.6777872 0.08458711 -1.9055904 -0.03093599 -0.18193793 -0.11327129
1.371081 -0.07931484 -0.72482526 -0.004747488 1.3012761 0.02271342 -3.3248243 -0.09982255
-0.29260156 0.13349462 -0.024400802 -0.12152805 0.002741124 -0.128298 0.005601443 0.012576298
-0.06384182 -0.10231421 -0.6998096 -0.0056443033 -0.75591725 -0.015005883 -0.82697475 -0.0017477436
-0.8650473 -0.005985278 -0.0056328457 -0.1928101 -0.6795073 0.0013504183 -0.6642019 0.007625699
1.1904867 0.087456346 -0.10709745 -0.043201536 -0.30861843 -0.050875954 -0.12554565 -0.06415253
-0.06221931 -0.07648708 -0.17563188 -0.7978718 -0.74508995 -0.004657744 -0.7044239 0.0025719109
-0.7176069 0.040900428 1.32944 0.11488484 -0.15716255 -0.09722697 -0.3004294 -0.103755236
-0.03036096 -0.14055991 -0.629091 9.520259e-05 -0.70521474 0.0043616085 -0.721951 -0.0046739615
-0.116658606 -0.13143975 2.0240154 -0.014889967 -0.69539726 0.0036511284 0.15516579 -0.041379593
00000000: 4a12 dcbd 6e2c a2bd a944 3fbf 3c44 353c
00000010: def0 29bf 18d3 8dba 3ed7 03c0 425b fd3b
00000020: 3eae 2f3d 93a3 d6be 95b3 b7be 1fb0 393c
00000030: 6490 3cbe d294 63be 7320 a9bc ade2 fcbc
00000040: 824a 5fbf 94ca 8fbc f078 77be 47fc 8fbe
00000050: 258a cdbe 6cdf 99be 2f6e 6dbf 3373 55bc
00000060: b13e c2bd 89aa b03c b5d8 bd3f 54f9 fbbc
00000070: 5ca0 99bc 9907 8f3c 9af4 3fbf a86f 593c
00000080: c3c4 1bbf 4a9a 83bb 59d0 f3bd dee8 11bd
00000090: 0862 10bf f06e 8bbb 1323 0dc0 1fa6 63bd
000000a0: f8c3 05c0 97e7 983b 34ba 19be e1d0 97be
000000b0: 9c94 55bd 88dd 6bbe b79c 96bd fd71 bcbe
000000c0: aa75 41bf fc10 92bc bbc1 d63f 023c ad3d
000000d0: 63ea f3bf 796d fdbc f04d 3abe c7fa e7bd
000000e0: 957f af3f d26f a2bd 268e 39bf d190 9bbb
000000f0: 3790 a63f 7f11 ba3c ecc9 54c0 c46f ccbd
00000100: dfcf 95be d0b2 083e 31e4 c7bc b3e3 f8bd
00000110: 6ea4 333b 8d60 03be 4f8c b73b d10c 4e3c
00000120: 80bf 82bd 1d8a d1bd b926 33bf d9f3 b8bb
00000130: cb83 41bf 3cdb 75bc 9eb4 53bf 8b14 e5ba
00000140: bd73 5dbf 2720 c4bb bc93 b8bb 0370 45be
00000150: 31f4 2dbf 8500 b13a 2309 2abf 00e1 f93b
00000160: de61 983f 501c b33d e855 dbbd 18f4 30bd
00000170: 3c03 9ebe 4e63 50bd 0a8f 00be 6762 83bd
00000180: add9 7ebd 42a5 9cbd d8d8 33be 5441 4cbf
00000190: 37be 3ebf fd9f 98bb 2055 34bf 818d 283b
000001a0: 16b5 37bf 3587 273d 172b aa3f be48 eb3d
000001b0: 38ef 20be ef1e c7bd e2d1 99be a07d d4bd
000001c0: 8cb7 f8bc f0ee 0fbe 1c0c 21bf 80a7 c738
000001d0: f488 34bf d3eb 8e3b c8d1 38bf 0828 99bb
000001e0: b5ea eebd 2498 06be 7889 0140 0cf5 73bc
000001f0: 8e05 32bf c547 6f3b c8e3 1e3e a67d 29bd

network.0.bias f4 [64]
0.0 0.60814965 0.5413334 1.161079 -0.12816234 0.2435473 0.0 0.0
0.7206699 -0.008235227 0.0 0.7782138 -0.060053688 -0.3989999 -0.060039297 0.6089086
0.49528322 0.0 0.45621774 0.61932737 1.5648621 0.0 0.0 0.0
0.61649 -0.2288562 0.52136314 0.0 -0.42047647 0.5908727 -0.4098634 0.83401334
-0.05901384 -0.11497 -0.11865153 -0.06674894 0.0 0.56940264 0.61597383 0.67258924
0.7193282 -0.07423112 0.5527059 0.54042095 -0.37908503 -0.060042743 0.0 0.0
0.0 0.026081253 0.60666025 0.5738387 0.58021754 -0.4296029 0.0 0.0
0.0 0.51174486 0.5736253 0.5880101 0.0 -0.6105953 0.56751114 -0.15196021
00000000: 0000 0000 b2af 1b3f d394 0a3f 3d9e 943f
00000010: fd3c 03be 7764 793e 0000 0000 0000 0000
00000020: d37d 383f 0ced 06bc 0000 0000 0539 473f
00000030: dbfa 75bd b749 ccbe c4eb 75bd 6fe1 1b3f
00000040: c395 fd3e 0000 0000 5f95 e93e 3d8c 1e3f
00000050: 674d c83f 0000 0000 0000 0000 0000 0000
00000060: 4ad2 1d3f 4859 6abe 0e78 053f 0000 0000
00000070: b148 d7be 6f43 173f 9ed9 d1be e681 553f
00000080: 7fb8 71bd 6475 ebbd 93ff f2bd abb3 88bd
00000090: 0000 0000 5fc4 113f 76b0 1d3f cf2e 2c3f
000000a0: e525 383f 7c06 98bd 227e 0d3f 0759 0a3f
000000b0: 6f17 c2be 61ef 75bd 0000 0000 0000 0000
000000c0: 0000 0000 5aa8 d53c 164e 1b3f 18e7 123f
000000d0: 2389 143f e9f4 dbbe 0000 0000 0000 0000
000000e0: 0000 0000 b601 033f 1cd9 123f d487 163f
000000f0: 0000 0000 f94f 1cbf 6948 113f 759b 1bbe

network.2.weight f4 [64, 64]
0.13150676 0.16120604 0.28619516 2.7411094 0.23559688 0.20031217 -0.04009709 -0.02108895
0.72817075 0.07304934 0.06247256 0.9627437 -0.06680577 -0.32721004 0.2834438 0.39089695
-0.13127874 0.05635583 0.3778273 1.3686076 -3.3302372 -0.023860438 0.27714542 -0.11370719
0.5257526 -0.07373361 1.3373626 -0.059233095 0.065954685 0.5705693 -0.2212235 -2.4306562
-0.034312464 0.21730518 -0.0046531796 -0.09815329 0.27834234 0.473956 0.5820971 0.89162797
0.8254658 -0.14758997 0.42038795 -0.2563731 -0.23325868 0.12600936 0.052253656 0.05410169
-0.18423565 -0.34673575 0.44866392 0.16161111 0.5041564 -0.26747966 -0.121962875 0.20336752
0.2947911 -0.013772171 0.19457941 0.29249832 0.3924611 0.17922184 0.7774848 0.27502036
-0.28120163 0.38945824 -0.13859893 -0.037403215 -0.2868863 -0.26273105 0.07247937 0.060815535
-0.01622385 0.08390772 0.16518164 0.21242167 0.06540302 0.14807455 -0.17988552 -0.04076307
-0.12430065 0.42143753 0.17493914 -0.011838093 0.0061570522 0.018040158 -0.030741818 0.20911476
-0.023064123 -0.03780786 -0.11950633 -0.0357072 0.13230747 -0.07224006 0.024705544 -0.43985212
0.04512057 -0.09003425 -0.059203576 0.24411318 -0.19821055 0.17993562 0.13883881 -0.1636527
-0.17014487 0.03551363 0.13603215 -0.2708746 -0.1253652 -0.0065811886 0.009675148 0.092513785
0.41882512 -0.0088599725 0.0097368425 0.18142866 -0.15698525 -0.33554584 -0.10881786 -0.19867182
0.30064964 -0.30469498 -0.07289533 -0.17295729 -0.03696636 -0.048822425 -0.06660293 0.19341521
-0.0683771 0.3449869 0.29216534 2.8438854 -0.22634225 0.18039915 -0.3069695 0.020880613
0.7828306 0.082398064 0.13977163 0.84070367 -0.05187885 -0.25436082 -0.0003616246 0.46244785
0.053489693 -0.06911539 0.250371 1.3040898 -3.3407552 -0.01589979 0.08619619 -0.009872684
0.80597955 -0.31066632 1.1010662 0.017974932 0.029542688 0.3782913 -0.05881503 -2.2989712
0.087647274 0.20591316 -0.043944255 -0.13819362 -0.37682214 0.6648649 0.34799513 0.55472755
0.74553275 0.28400782 0.25552267 0.16936107 0.19997497 0.21815321 -0.16818178 -0.086005956
0.13423432 -0.0697634 0.4879723 -0.24083671 0.55650413 -0.20525973 -0.014200385 0.37188634
-0.2636676 0.37224787 0.22460788 -0.04979415 -0.06722215 0.02084393 0.0042112665 0.019201111
-0.1580936 -0.13594352 0.016859503 -0.02172492 0.070156425 -0.12556031 0.21507978 -0.08911575
0.13487262 0.24487352 0.086366735 -0.0264719 0.0959755 -0.1745141 -0.20822997 -0.108364016
-0.12840013 -0.10521263 -0.19488887 -0.36849764 -0.08710411 -0.067042425 -0.011871297 -0.48472422
-0.0020639757 -0.012719805 0.23109765 -0.119397745 0.079732515 0.0021970307 0.120018944 -0.17622508
-0.13498716 -0.25664425 0.06910387 0.07986986 -0.11705408 -0.25657004 -0.1780416 -0.4193008
0.3030809 -0.012324012 0.06909739 0.095992826 -0.2058039 0.15981801 0.14752267 0.10020383
0.18353614 -0.1668048 0.23446944 -0.062020462 -0.073263444 -0.06854199 0.11799315 0.36435658
0.21649162 0.093239754 -0.3080574 0.22200842 -0.13955003 -0.17230153 0.060983844 -0.11811082
00000000: b5a9 063e 3213 253e 2c88 923e 566e 2f40
00000010: 4f40 713e a21e 4d3e d93c 24bd bcc2 acbc
00000020: 6669 3a3f e49a 953d 3ae3 7f3d 5f76 763f
00000030: 77d1 88bd 1388 a7be 8c1f 913e a523 c83e
00000040: ef6d 06be 5fd5 663d 9472 c13e 892e af3f
00000050: 9b22 55c0 f776 c3bc 01e6 8d3e 51df e8bd
00000060: b997 063f a601 97bd b32e ab3f 679e 72bd
00000070: 4013 873d d410 123f 6a88 62be df8f 1bc0
00000080: 3a8b 0cbd 4085 5e3e b379 98bb 9804 c9bd
00000090: e382 8e3e 5caa f23e 5104 153f bb41 643f
000000a0: ba51 533f d321 17be 173d d73e 5643 83be
000000b0: 5ddb 6ebe 9908 013e ee07 563d bc99 5d3d
000000c0: 45a8 3cbe 5987 b1be 47b7 e53e 627d 253e
000000d0: 6510 013f 18f3 88be acc7 f9bd 933f 503e
000000e0: dcee 963e aca4 61bc d33f 473e 57c2 953e
000000f0: a9f0 c83e ee85 373e 3e09 473f 78cf 8c3e
00000100: a9f9 8fbe 1267 c73e e1ec 0dbe 1d34 19bd
00000110: c3e2 92be af84 86be 1070 943d b619 793d
00000120: e1e7 84bc d0d7 ab3d 6025 293e 1185 593e
00000130: 05f2 853d dba0 173e e933 38be 2df7 26bd
00000140: 5791 febd a9c6 d73e 3f23 333e 90f4 41bc
00000150: 19c1 c93b f4c8 933c 44d6 fbbc 2e22 563e
00000160: f9f0 bcbc 6adc 1abd bcbf f4bd b741 12bd
00000170: 9c7b 073e 99f2 93bd 4863 ca3c 4c34 e1be
00000180: 59d0 383d e063 b8bd 737f 72bd cef8 793e
00000190: b5f7 4abe 0b41 383e c32b 0e3e 9394 27be
000001a0: 753a 2ebe bd76 113d 034c 0b3e 13b0 8abe
000001b0: bc5f 00be 03a7 d7bb 8384 1e3c de77 bd3d
000001c0: 3f70 d63e 6b29 11bc 4787 1f3c 6fc8 393e
000001d0: bec0 20be aacc abbe e6db debd a070 4bbe
000001e0: c0ee 993e fb00 9cbe 264a 95bd b71b 31be
000001f0: 0a6a 17bd 06fa 47bd 1e67 88bd a30e 463e
00000200: 4b09 8cbd 1fa2 b03e b296 953e 3802 3640
00000210: 43c6 67be 8eba 383e 1b2b 9dbe d20d ab3c
00000220: 9667 483f 51c0 a83d 4b20 0f3e 5b38 573f
00000230: eb7e 54bd 953b 82be 6f98 bdb9 f7c5 ec3e
00000240: 0218 5b3d 5f8c 8dbd a130 803e 6aec a63f
00000250: efce 55c0 4740 82bc a187 b03d 0ac1 21bc
00000260: ad54 4e3f a80f 9fbe bdef 8c3f 2a40 933c
00000270: 8203 f23c 66af c13e 07e8 70bd 5822 13c0
00000280: 6a80 b33d e6da 523e e4fe 33bd a182 0dbe
00000290: d5ee c0be 9634 2a3f 6b2c b23e a002 0e3f
000002a0: 3cdb 3e3f 7969 913e ded3 823e fd6c 2d3e
000002b0: 3dc6 4c3e 8e63 5f3e d837 2cbe e423 b0bd
000002c0: b974 093e 1de0 8ebd 81d7 f93e e69d 76be
000002d0: 0e77 0e3f 9b2f 52be bba8 68bc e367 be3e
000002e0: 71ff 86be 4697 be3e 9cff 653e f3f4 4bbd
000002f0: c4ab 89bd e4c0 aa3c aafe 893b a64b 9d3c
00000300: 4ae3 21be c734 0bbe f11c 8a3c 76f8 b1bc
00000310: 2cae 8f3d e292 00be e03d 5c3e 5182 b6bd
00000320: 0c1c 0a3e 20c0 7a3e 0be1 b03d 99db d8bc
00000330: ce8e c43d d3b3 32be 3d3a 55be f4ed ddbd
00000340: 537b 03be b879 d7bd f390 47be b9ab bcbe
00000350: a463 b2bd 8a4d 89bd d47f 42bc c62d f8be
00000360: c443 07bb bb66 50bc dda4 6c3e ce86 f4bd
00000370: cd4a a33d 0ffc 0f3b 7ecc f53d 5974 34be
00000380: 133a 0abe e066 83be 5486 8d3d cf92 a33d
00000390: 0dba efbd 265d 83be 8a50 36be 98ae d6be
000003a0: 6b2d 9b3e a7ea 49bc ef82 8d3d e397 c43d
000003b0: 42be 52be 55a7 233e 2f10 173e aa37 cd3d
000003c0: e6f0 3b3e e1ce 2abe c218 703e 2b09 7ebd
000003d0: 250b 96bd be5f 8cbd 65a6 f13d f28c ba3e
000003e0: fbaf 5d3e 7cf4 be3d b3b9 9dbe 2d56 633e
000003f0: 34e6 0ebe d06f 30be 32ca 793d 16e4 f1bd

network.2.bias f4 [64]
0.5214812 -0.055586737 0.521028 0.0 0.5239987 0.45468402 -0.06005288 0.0
0.53981906 0.0 -0.0555881 0.49510464 -0.070843674 0.5117522 0.0 0.4767985
-0.12065779 -0.061830208 -0.060055446 -0.053469047 -0.07885483 -0.10099487 0.48087475 0.4592058
0.0 -0.30272877 0.5120151 0.555699 0.42369565 0.5069356 -0.06422691 0.5446654
-0.062379684 -0.084093295 -0.48062295 -0.24007757 0.42778414 0.44401425 0.5218986 0.48896778
-0.09424012 0.50478137 0.0 0.38594514 -0.06427396 0.0 -0.6044545 0.4347536
0.51201487 0.5731212 0.49550635 -0.09365024 -0.0600535 0.47351107 0.5406335 0.53202754
0.50665176 0.53818244 0.4984745 0.514148 0.0 0.5267251 0.0 -0.060364068
00000000: cb7f 053f ebae 63bd 1762 053f 0000 0000
00000010: c724 063f 58cc e83e 02fa 75bd 0000 0000
00000020: 9531 0a3f 0000 0000 59b0 63bd 5b7e fd3e
00000030: 7d16 91bd 3102 033f 0000 0000 ef1e f43e
00000040: 6e1b f7bd ac41 7dbd b3fc 75bd 5c02 5bbd
00000050: a47e a1bd 66d6 cebd 3735 f63e 061d eb3e
00000060: 0000 0000 44ff 9abe 6c13 033f 4a42 0e3f
00000070: a3ee d83e 88c6 013f 6689 83bd 316f 0b3f
00000080: d781 7fbd 1b39 acbd 3614 f6be e5d6 75be
00000090: 8606 db3e d655 e33e 269b 053f fc59 fa3e
000000a0: f700 c1bd 5a39 013f 0000 0000 9a9a c53e
000000b0: 11a2 83bd 0000 0000 88bd 1abf 0698 de3e
000000c0: 6813 033f 12b8 123f 02b3 fd3e b2cb bfbd
000000d0: a9fa 75bd 0b70 f23e f566 0a3f f532 083f
000000e0: eeb3 013f 53c6 093f 0d38 ff3e 349f 033f
000000f0: 0000 0000 75d7 063f 0000 0000 5040 77bd

network.4.weight f4 [1, 64]
1.2772877 0.045180272 1.3443636 0.004294585 1.2314901 1.1863382 0.038658865 0.018970681
1.3217803 -0.009798427 0.049729872 1.288488 0.056229804 1.3528161 0.0037308664 1.4211797
0.059694786 0.04892874 0.054391418 0.03883241 0.06748002 0.055405628 1.3325076 1.2754923
-0.0063974946 -0.21725263 1.2551936 1.332313 1.5760437 2.5127378 0.05183163 1.2440188
0.046500564 -0.06686785 -0.14323351 0.10877258 1.7442495 1.2135737 1.3188573 1.9316865
0.060571793 1.2309217 0.0002927646 1.5807325 0.03992568 -0.0041874116 -3.9128907 1.54086
1.3586111 1.3973881 2.5981836 0.0051775808 0.03318434 1.5602266 1.9193041 1.2158204
1.2196681 1.2464906 1.3868779 1.175304 0.019690847 1.1721374 0.010703525 0.050030947
00000000: 2a7e a33f f30e 393d 1b14 ac3f 97b9 8c3b
00000010: 78a1 9d3f eed9 973f c258 1e3d 6768 9b3c
00000020: 1930 a93f 9589 20bc 8db1 4b3d 2ded a43f
00000030: 3951 663d 1429 ad3f 8d81 743b 37e9 b53f
00000040: 8582 743d 8169 483d 89c9 5e3d bc0e 1f3d
00000050: f732 8a3d 03f1 623d 9c8f aa3f 5543 a33f
00000060: 13a2 d1bb 7977 5ebe 2faa a03f 3b89 aa3f
00000070: cdbb c93f b2d0 2040 674d 543d 023c 9f3f
00000080: 6077 3e3d 03f2 88bd ceab 12be 29c4 de3d
00000090: 9143 df3f 6256 9b3f 51d0 a83f 8141 f73f
000000a0: 211a 783d d88e 9d3f 337e 9939 7155 ca3f
000000b0: 1c89 233d 8e36 89bb cd6c 7ac0 e73a c53f
000000c0: f8e6 ad3f 9ddd b23f a448 2640 b2a8 a93b
000000d0: 4dec 073d 81b5 c73f c2ab f53f 01a0 9b3f
000000e0: 161e 9c3f 018d 9f3f 3785 b13f 5d70 963f
000000f0: b34e a13c 9908 963f d65d 2f3c 40ed 4c3d

exp_avg f4 [64, 2]
6e-45 6e-45 0.0 0.0 0.0006144835 0.00017613251 0.0 0.0
6e-45 6e-45 6e-45 6e-45 0.0 0.0 6e-45 6e-45
6e-45 6e-45 6e-45 6e-45 6e-45 6e-45 -6e-45 -6e-45
6e-45 6e-45 0.0 0.0 0.0 6e-45 6e-45 6e-45
6e-45 6e-45 6e-45 6e-45 6e-45 6e-45 0.0 6e-45
6e-45 6e-45 6e-45 6e-45 0.0 6e-45 6e-45 6e-45
0.0 0.0 6e-45 6e-45 6e-45 6e-45 6e-45 6e-45
6e-45 6e-45 0.0 0.0 6e-45 6e-45 6e-45 6e-45
0.0007769734 0.00016387625 6e-45 6e-45 0.0 0.0 -6e-45 -6e-45
6e-45 6e-45 6e-45 6e-45 6e-45 6e-45 6e-45 6e-45
0.0 6e-45 6e-45 6e-45 6e-45 6e-45 6e-45 6e-45
6e-45 6e-45 6e-45 6e-45 6e-45 6e-45 6e-45 6e-45
6e-45 6e-45 0.0 0.0 0.0 0.0 6e-45 6e-45
6e-45 6e-45 6e-45 6e-45 6e-45 6e-45 6e-45 6e-45
6e-45 6e-45 6e-45 6e-45 6e-45 6e-45 6e-45 6e-45
6e-45 6e-45 6e-45 6e-45 6e-45 6e-45 0.0 0.0
00000000: 0400 0000 0400 0000 0000 0000 0000 0000
00000010: 4a15 213a 36b0 3839 0000 0000 0000 0000
00000020: 0400 0000 0400 0000 0400 0000 0400 0000
00000030: 0000 0000 0000 0000 0400 0000 0400 0000
00000040: 0400 0000 0400 0000 0400 0000 0400 0000
00000050: 0400 0000 0400 0000 0400 0080 0400 0080
00000060: 0400 0000 0400 0000 0000 0000 0000 0000
00000070: 0000 0000 0400 0000 0400 0000 0400 0000
00000080: 0400 0000 0400 0000 0400 0000 0400 0000
00000090: 0400 0000 0400 0000 0000 0000 0400 0000
000000a0: 0400 0000 0400 0000 0400 0000 0400 0000
000000b0: 0000 0000 0400 0000 0400 0000 0400 0000
000000c0: 0000 0000 0000 0000 0400 0000 0400 0000
000000d0: 0400 0000 0400 0000 0400 0000 0400 0000
000000e0: 0400 0000 0400 0000 0000 0000 0000 0000
000000f0: 0400 0000 0400 0000 0400 0000 0400 0000
00000100: cdad 4b3a 32d6 2b39 0400 0000 0400 0000
00000110: 0000 0000 0000 0000 0400 0080 0400 0080
00000120: 0400 0000 0400 0000 0400 0000 0400 0000
00000130: 0400 0000 0400 0000 0400 0000 0400 0000
00000140: 0000 0000 0400 0000 0400 0000 0400 0000
00000150: 0400 0000 0400 0000 0400 0000 0400 0000
00000160: 0400 0000 0400 0000 0400 0000 0400 0000
00000170: 0400 0000 0400 0000 0400 0000 0400 0000
00000180: 0400 0000 0400 0000 0000 0000 0000 0000
00000190: 0000 0000 0000 0000 0400 0000 0400 0000
000001a0: 0400 0000 0400 0000 0400 0000 0400 0000
000001b0: 0400 0000 0400 0000 0400 0000 0400 0000
000001c0: 0400 0000 0400 0000 0400 0000 0400 0000
000001d0: 0400 0000 0400 0000 0400 0000 0400 0000
000001e0: 0400 0000 0400 0000 0400 0000 0400 0000
000001f0: 0400 0000 0400 0000 0000 0000 0000 0000

exp_avg_sq f4 [64, 2]
2.1128437e-09 3.769004e-11 0.0 0.0 5.821043e-06 6.5476524e-07 0.0 0.0
2.6098268e-10 4.690317e-12 0.00021101852 4.59186e-06 0.0 0.0 3.725535e-11 6.2585234e-13
9.303423e-12 1.7108821e-13 5.2781075e-11 1.7785744e-12 2.3017552e-10 3.8469596e-12 4.720366e-14 1.1558905e-14
6.677353e-12 2.0894082e-13 0.0 0.0 0.0 6.482888e-17 2.8941822e-15 5.8832907e-18
3.434321e-12 7.408428e-14 1.1797455e-09 2.0808105e-11 2.8566523e-15 1.5542014e-15 0.0 6.0649027e-18
6.000487e-13 5.6693802e-14 6.5211443e-13 2.0447545e-14 0.0 8.313963e-20 2.7911026e-11 4.589066e-13
0.0 0.0 6.4635287e-13 8.204949e-15 1.7968589e-10 3.0776195e-12 2.5765768e-12 4.382303e-14
1.8842454e-12 3.0232347e-14 0.0 0.0 6.160662e-12 9.419578e-14 1.3890393e-13 1.885749e-14
2.6913396e-05 9.716958e-07 5.3657786e-12 1.0348181e-13 0.0 0.0 6.5576047e-09 1.262133e-10
5.0943797e-15 4.0007264e-16 2.5860045e-14 3.4391875e-15 2.2558528e-12 1.09611864e-13 1.0990891e-11 1.9436458e-13
0.0 3.495653e-16 5.1671455e-11 1.0253606e-12 4.256918e-10 8.3963435e-12 5.3364305e-12 7.783208e-14
9.5884975e-12 2.9301653e-13 1.1071568e-11 2.9824857e-13 6.5641733e-12 1.0656904e-13 2.4285146e-10 5.096431e-12
3.5220958e-15 1.3063622e-15 0.0 0.0 0.0 0.0 3.7340495e-12 4.8229525e-13
1.0278206e-13 1.1226409e-14 1.9154818e-10 3.309076e-12 2.2850027e-12 2.3225359e-14 5.703698e-11 9.371461e-13
3.524195e-12 3.7995868e-13 1.8593738e-10 3.0085136e-12 6.362731e-11 1.0669086e-12 5.887025e-12 9.1681315e-14
2.5754938e-11 3.935893e-13 1.8800363e-12 6.199961e-14 1.7818837e-11 2.6153296e-13 0.0 0.0
00000000: 8a31 1131 36c3 252e 0000 0000 0000 0000
00000010: 6152 c336 20c3 2f35 0000 0000 0000 0000
00000020: 0c7a 8f2f 9f06 a52c da44 5d39 c713 9a36
00000030: 0000 0000 0000 0000 ccd9 232e 6a29 302b
00000040: e4aa 232d d2a0 402a 3522 682e e54f fa2b
00000050: a614 7d2f 555a 872c 1d96 5429 0a3a 5028
00000060: 40f0 ea2c 173f 6b2a 0000 0000 0000 0000
00000070: 0000 0000 377c 9524 3d8c 5027 1c0e d922
00000080: 3aab 712c aed2 a629 9b24 a230 b007 b72d
00000090: efd7 4d27 e9fb df26 0000 0000 63c1 df22
000000a0: 11e6 282b 8153 7f29 cc8d 372b d42c b828
000000b0: 0000 0000 d34e c41f 0b82 f52d b52b 012b
000000c0: 0000 0000 0000 0000 a2ee 352b a6ce 1328
000000d0: 1591 452f 7791 582c 7b4f 352c 845c 4529
000000e0: 8c97 042c 8627 0829 0000 0000 0000 0000
000000f0: 4fc2 d82c 2c1c d429 5564 1c2a 69da a928
00000100: 14c4 e137 376b 8235 a3ca bc2c 3405 e929
00000110: 0000 0000 0000 0000 4d51 e131 e3c5 0a2f
00000120: 5c8b b727 4da0 e625 34ed e828 d0d1 7727
00000130: d5bd 1e2c f0d2 f629 935a 412d c7d5 5a2a
00000140: 0000 0000 bc82 c925 e340 632e 824e 902b
00000150: cb06 ea2f c5b5 132d 4bc2 bb2c 2443 af29
00000160: c1ae 282d 22f4 a42a e9c5 422d 26e6 a72a
00000170: d1f4 e62c def8 ef29 4e82 852f 9250 b32c
00000180: 33cb 7d27 4244 bc26 0000 0000 0000 0000
00000190: 0000 0000 0000 0000 5461 832c 09c1 072b
000001a0: d371 e729 ac3c 4a28 059c 522f 04db 682c
000001b0: f3ca 202c 0832 d128 eed9 7a2e 3fe4 832b
000001c0: 41fe 772c d1e5 d52a b870 4c2f 90b4 532c
000001d0: feea 8b2e 6f27 962b 9b21 cf2c ae72 ce29
000001e0: f78a e22d 3292 dd2a b94b 042c 589c 8b29
000001f0: 74bc 9c2d df3a 932a 0000 0000 0000 0000

exp_avg f4 [64]
6e-45 0.0 0.002365829 0.0 6e-45 6e-45 0.0 6e-45
6e-45 6e-45 6e-45 -6e-45 6e-45 0.0 6e-45 6e-45
6e-45 6e-45 6e-45 6e-45 6e-45 6e-45 6e-45 6e-45
0.0 6e-45 6e-45 6e-45 6e-45 0.0 6e-45 6e-45
0.0025091486 6e-45 0.0 -6e-45 6e-45 6e-45 6e-45 6e-45
6e-45 6e-45 6e-45 6e-45 6e-45 6e-45 6e-45 6e-45
6e-45 0.0 0.0 6e-45 6e-45 6e-45 6e-45 6e-45
6e-45 6e-45 6e-45 6e-45 6e-45 6e-45 6e-45 0.0
00000000: 0400 0000 0000 0000 060c 1b3b 0000 0000
00000010: 0400 0000 0400 0000 0000 0000 0400 0000
00000020: 0400 0000 0400 0000 0400 0000 0400 0080
00000030: 0400 0000 0000 0000 0400 0000 0400 0000
00000040: 0400 0000 0400 0000 0400 0000 0400 0000
00000050: 0400 0000 0400 0000 0400 0000 0400 0000
00000060: 0000 0000 0400 0000 0400 0000 0400 0000
00000070: 0400 0000 0000 0000 0400 0000 0400 0000
00000080: 8770 243b 0400 0000 0000 0000 0400 0080
00000090: 0400 0000 0400 0000 0400 0000 0400 0000
000000a0: 0400 0000 0400 0000 0400 0000 0400 0000
000000b0: 0400 0000 0400 0000 0400 0000 0400 0000
000000c0: 0400 0000 0000 0000 0000 0000 0400 0000
000000d0: 0400 0000 0400 0000 0400 0000 0400 0000
000000e0: 0400 0000 0400 0000 0400 0000 0400 0000
000000f0: 0400 0000 0400 0000 0400 0000 0000 0000

exp_avg_sq f4 [64]
5.2508295e-09 0.0 0.0003112654 0.0 8.91197e-10 0.00034555807 0.0 8.843251e-11
1.5789916e-11 1.1120549e-10 4.2304757e-10 1.4525506e-13 1.6786694e-11 0.0 4.264844e-14 4.635593e-15
9.206921e-12 3.6377559e-09 8.128335e-13 3.9898737e-15 1.82958e-12 2.9227176e-12 5.4694582e-17 8.318821e-11
0.0 1.9176128e-12 3.5639636e-10 4.9005704e-12 4.351693e-12 0.0 2.176578e-11 9.0509875e-13
0.00033170296 1.419014e-11 0.0 2.112398e-08 2.0392481e-13 2.2018749e-13 1.1364635e-11 2.5685759e-11
2.2996636e-13 1.7910282e-10 1.0292348e-09 8.865749e-12 2.764059e-11 5.919595e-11 1.5059317e-11 8.739065e-10
7.811399e-13 0.0 0.0 2.6131056e-10 5.679559e-12 3.6399592e-10 5.4182947e-12 1.605108e-10
1.9516835e-10 3.5202166e-10 1.1766892e-10 2.0850908e-11 6.7078114e-11 4.49847e-12 3.649355e-11 0.0
00000000: c96a b431 0000 0000 5631 a339 0000 0000
00000010: 6af8 7430 052c b539 0000 0000 1477 c22e
00000020: bbe3 8a2d 208b f42e a792 e82f ec8a 232a
00000030: 46a8 932d 0000 0000 4e12 4029 cd03 a727
00000040: 49f8 212d 14fc 7931 d4ca 642b 17c0 8f27
00000050: c9be 002c 00ab 4d2c f73b 7c24 cdee b62e
00000060: 0000 0000 a4f0 062c 54ee c32f 6a6c ac2c
00000070: 911c 992c 0000 0000 2e74 bf2d 3dc3 7e2b
00000080: 6be8 ad39 b6a2 792d 0000 0000 2074 b532
00000090: 5399 652a b9e8 772a c4ed 472d 30ef e12d
000000a0: a575 812a f6ec 442f fb74 8d30 c9f7 1b2d
000000b0: 1321 f32d 5b2c 822e 9176 842d b437 7030
000000c0: 10df 5b2b 0000 0000 0000 0000 31a8 8f2f
000000d0: ebd4 c72c df1b c82f a9a3 be2c c67b 302f
000000e0: 0297 562f a586 c12f db60 012f 1268 b72d
000000f0: 9f81 932e 9e46 9e2c 1680 202e 0000 0000

exp_avg f4 [64, 64]
6e-45 0.0 6e-45 0.0 6e-45 6e-45 0.0 6e-45
6e-45 -6e-45 6e-45 6e-45 6e-45 0.0 0.0 -6e-45
-6e-45 6e-45 6e-45 0.0 6e-45 -6e-45 0.0 6e-45
0.0 -6e-45 6e-45 -6e-45 -6e-45 0.0 -6e-45 -6e-45
6e-45 -6e-45 0.0 6e-45 6e-45 -6e-45 -6e-45 6e-45
-6e-45 -6e-45 6e-45 6e-45 -6e-45 6e-45 -6e-45 6e-45
6e-45 0.0 0.0 -6e-45 6e-45 6e-45 -6e-45 6e-45
-6e-45 6e-45 6e-45 6e-45 6e-45 -6e-45 -6e-45 0.0
0.0 0.0 0.0 0.0 6e-45 6e-45 0.0 0.0
0.0 6e-45 0.0 0.0 0.0 0.0 0.0 0.0
0.0 6e-45 0.0 0.0 0.0 0.0 0.0 0.0
0.0 0.0 6e-45 0.0 0.0 0.0 0.0 0.0
0.0 0.0 0.0 6e-45 0.0 0.0 0.0 0.0
0.0 0.0 6e-45 0.0 0.0 0.0 0.0 6e-45
0.0 0.0 0.0 0.0 0.0 0.0 0.0 0.0
0.0 0.0 0.0 0.0 0.0 0.0 0.0 0.0
6e-45 0.0 6e-45 0.0 6e-45 6e-45 0.0 6e-45
-6e-45 6e-45 6e-45 -6e-45 -6e-45 0.0 0.0 0.0
-6e-45 6e-45 -6e-45 0.0 -6e-45 0.0 0.0 6e-45
0.0 0.0 6e-45 0.0 6e-45 0.0 0.0 0.0
6e-45 6e-45 0.0 6e-45 -6e-45 0.0 6e-45 6e-45
-6e-45 6e-45 6e-45 6e-45 6e-45 6e-45 6e-45 6e-45
-6e-45 0.0 0.0 -6e-45 6e-45 6e-45 -6e-45 6e-45
-6e-45 6e-45 6e-45 6e-45 6e-45 -6e-45 6e-45 0.0
6e-45 0.0 6e-45 0.0 6e-45 6e-45 0.0 6e-45
6e-45 6e-45 6e-45 -6e-45 6e-45 0.0 6e-45 -6e-45
6e-45 6e-45 -6e-45 6e-45 -6e-45 -6e-45 6e-45 6e-45
0.0 -6e-45 6e-45 -6e-45 -6e-45 0.0 -6e-45 -6e-45
6e-45 6e-45 0.0 6e-45 -6e-45 6e-45 6e-45 6e-45
6e-45 6e-45 6e-45 6e-45 6e-45 6e-45 6e-45 6e-45
-6e-45 0.0 0.0 6e-45 -6e-45 6e-45 -6e-45 6e-45
6e-45 6e-45 6e-45 6e-45 6e-45 6e-45 6e-45 0.0
00000000: 0400 0000 0000 0000 0400 0000 0000 0000
00000010: 0400 0000 0400 0000 0000 0000 0400 0000
00000020: 0400 0000 0400 0080 0400 0000 0400 0000
00000030: 0400 0000 0000 0000 0000 0000 0400 0080
00000040: 0400 0080 0400 0000 0400 0000 0000 0000
00000050: 0400 0000 0400 0080 0000 0000 0400 0000
00000060: 0000 0000 0400 0080 0400 0000 0400 0080
00000070: 0400 0080 0000 0000 0400 0080 0400 0080
00000080: 0400 0000 0400 0080 0000 0000 0400 0000
00000090: 0400 0000 0400 0080 0400 0080 0400 0000
000000a0: 0400 0080 0400 0080 0400 0000 0400 0000
000000b0: 0400 0080 0400 0000 0400 0080 0400 0000
000000c0: 0400 0000 0000 0000 0000 0000 0400 0080
000000d0: 0400 0000 0400 0000 0400 0080 0400 0000
000000e0: 0400 0080 0400 0000 0400 0000 0400 0000
000000f0: 0400 0000 0400 0080 0400 0080 0000 0000
00000100: 0000 0000 0000 0000 0000 0000 0000 0000
00000110: 0400 0000 0400 0000 0000 0000 0000 0000
00000120: 0000 0000 0400 0000 0000 0000 0000 0000
00000130: 0000 0000 0000 0000 0000 0000 0000 0000
00000140: 0000 0000 0400 0000 0000 0000 0000 0000
00000150: 0000 0000 0000 0000 0000 0000 0000 0000
00000160: 0000 0000 0000 0000 0400 0000 0000 0000
00000170: 0000 0000 0000 0000 0000 0000 0000 0000
00000180: 0000 0000 0000 0000 0000 0000 0400 0000
00000190: 0000 0000 0000 0000 0000 0000 0000 0000
000001a0: 0000 0000 0000 0000 0400 0000 0000 0000
000001b0: 0000 0000 0000 0000 0000 0000 0400 0000
000001c0: 0000 0000 0000 0000 0000 0000 0000 0000
000001d0: 0000 0000 0000 0000 0000 0000 0000 0000
000001e0: 0000 0000 0000 0000 0000 0000 0000 0000
000001f0: 0000 0000 0000 0000 0000 0000 0000 0000
00000200: 0400 0000 0000 0000 0400 0000 0000 0000
00000210: 0400 0000 0400 0000 0000 0000 0400 0000
00000220: 0400 0080 0400 0000 0400 0000 0400 0080
00000230: 0400 0080 0000 0000 0000 0000 0000 0000
00000240: 0400 0080 0400 0000 0400 0080 0000 0000
00000250: 0400 0080 0000 0000 0000 0000 0400 0000
00000260: 0000 0000 0000 0000 0400 0000 0000 0000
00000270: 0400 0000 0000 0000 0000 0000 0000 0000
00000280: 0400 0000 0400 0000 0000 0000 0400 0000
00000290: 0400 0080 0000 0000 0400 0000 0400 0000
000002a0: 0400 0080 0400 0000 0400 0000 0400 0000
000002b0: 0400 0000 0400 0000 0400 0000 0400 0000
000002c0: 0400 0080 0000 0000 0000 0000 0400 0080
000002d0: 0400 0000 0400 0000 0400 0080 0400 0000
000002e0: 0400 0080 0400 0000 0400 0000 0400 0000
000002f0: 0400 0000 0400 0080 0400 0000 0000 0000
00000300: 0400 0000 0000 0000 0400 0000 0000 0000
00000310: 0400 0000 0400 0000 0000 0000 0400 0000
00000320: 0400 0000 0400 0000 0400 0000 0400 0080
00000330: 0400 0000 0000 0000 0400 0000 0400 0080
00000340: 0400 0000 0400 0000 0400 0080 0400 0000
00000350: 0400 0080 0400 0080 0400 0000 0400 0000
00000360: 0000 0000 0400 0080 0400 0000 0400 0080
00000370: 0400 0080 0000 0000 0400 0080 0400 0080
00000380: 0400 0000 0400 0000 0000 0000 0400 0000
00000390: 0400 0080 0400 0000 0400 0000 0400 0000
000003a0: 0400 0000 0400 0000 0400 0000 0400 0000
000003b0: 0400 0000 0400 0000 0400 0000 0400 0000
000003c0: 0400 0080 0000 0000 0000 0000 0400 0000
000003d0: 0400 0080 0400 0000 0400 0080 0400 0000
000003e0: 0400 0000 0400 0000 0400 0000 0400 0000
000003f0: 0400 0000 0400 0000 0400 0000 0000 0000
