data/models/production/test_convenience_sim.pth (torch, 199155 bytes, 39 tensors)

shared_backbone.0.weight f4 [64, 2]
000000 4a c6 b3 bc 38 bb 3d 3e 1c f6 c6 be 84 47 5d 3e
       -0.021945138 0.1852845 -0.38859642 0.21609312
000010 06 17 df bc 41 b1 9c be 61 9d e1 bd 6d 42 41 3e
       -0.027232658 -0.30603984 -0.11016346 0.18872996
000020 39 d2 6f 3e 85 e4 83 3d 34 38 eb 3d d3 93 06 3e
       0.23420037 0.06440071 0.11485329 0.13142328
000030 3a 04 37 3e b6 76 e6 3c 77 a2 72 3e 77 7d 9a bd
       0.17872706 0.028132778 0.23694788 -0.07543462
000040 37 e6 ad 3e 15 ce 0a be db 5a 15 be 9a b4 0f 3d
       0.33964702 -0.13555177 -0.1458544 0.035084344
000050 ba 4d c0 be e5 e0 48 3c 10 ea 3a bd a1 e7 7d be
       -0.375593 0.01226065 -0.045633376 -0.2479539
000060 11 fc 16 3e 80 ec d0 3d 3a 89 a1 be 6d b8 ad bd
       0.14744593 0.10201359 -0.31550008 -0.08482442
000070 e9 6e cf bc 47 e8 44 be f2 bf a6 bb 24 23 01 be
       -0.02532144 -0.19229232 -0.0050887996 -0.12611061
000080 32 4d 39 bd 49 26 86 be 99 d5 89 bd 5c b6 09 be
       -0.045239635 -0.26201084 -0.06730194 -0.13448471
000090 0f 6e cb bd 83 78 3d bd ad 82 d6 bd 2f 4d 33 be
       -0.099331014 -0.046257507 -0.10474143 -0.17509912
0000a0 49 8c 00 bd 2a 4f bc bc 2e 67 8e be e5 99 66 3d
       -0.031383786 -0.022986967 -0.27813095 0.05629911
0000b0 35 2b 61 be 1c 0a 22 bd ae ac d4 3d 10 a1 7a bc
       -0.21989138 -0.039560422 0.103844985 -0.015297189
0000c0 23 68 90 bb 78 4c 1f be 21 a8 35 be 26 d3 d8 bd
       -0.0044069453 -0.15556514 -0.17739917 -0.10587148
0000d0 1c 6a 4c bc a5 71 d7 bd cd 64 6d 3e c0 df 37 be
       -0.01247647 -0.10519723 0.23182984 -0.17956448
0000e0 4e d7 8a 3d 14 95 a5 3e 76 e4 f8 3d f0 13 29 be
       0.06779347 0.323403 0.121529505 -0.16511512
0000f0 d6 51 83 3d a6 a5 3a 3e c4 72 04 bc 04 12 ab be
       0.06412093 0.18227252 -0.008084003 -0.33412182
000100 54 b3 6f 3e f4 5f 1f 3d 2d 26 d5 bd 35 38 d9 be
       0.23408252 0.038909867 -0.10407672 -0.42425695
000110 a7 d2 00 3e d6 1e 75 bd d2 4c a9 be e6 e8 18 be
       0.12580357 -0.05984386 -0.33066422 -0.14932594
000120 52 45 c0 3e b4 26 44 bd f3 0f 02 be 68 6c ff bd
       0.37552887 -0.047888473 -0.12701397 -0.12471849
000130 0b 15 9c 3e 9b 79 79 bd ae 3c 2e 3e 19 92 4f 3e
       0.30484805 -0.060906988 0.17015335 0.20270576
000140 41 f7 b4 bd a7 98 f6 bb 94 85 66 3d a5 dd a4 3e
       -0.088362224 -0.007525522 0.056279734 0.3220035
000150 40 8c 14 be 9c af 03 3e f5 ea fe bd 63 cc cb be
       -0.14506626 0.12859958 -0.12447158 -0.39804372
000160 b0 80 74 3c 1d 50 83 be 8c 12 c3 be c2 92 8d 3e
       0.01492326 -0.2564706 -0.38100088 0.2765103
000170 22 da 05 be 1e 42 79 be 2b ea 76 3e da 5b c8 3d
       -0.13071492 -0.24341628 0.24112765 0.09783144
000180 da 55 20 3e b5 f6 9c 3e 58 33 d0 bd 7e 29 e2 3d
       0.1565775 0.30656973 -0.10166043 0.1104307
000190 08 97 23 3e 76 15 ed 3d 65 c2 1e be ba a9 6f 3e
       0.15975583 0.11576359 -0.15503843 0.2340459
0001a0 6e 4e d5 3e 6d ff 24 3d 5e 4b 1f be b8 3e 6c bd
       0.416614 0.040282656 -0.15556094 -0.057677
0001b0 75 78 67 3e a9 7b 05 be b2 89 a0 be 36 56 4c 3e
       0.22604544 -0.13035454 -0.31355053 0.19954762
0001c0 4f c5 0c bd 21 85 0c 3b 9c cf d3 3d b5 8f 5d bd
       -0.034367856 0.0021441656 0.10342333 -0.054092128
0001d0 3f 93 d7 3e 96 04 f0 bb f9 41 91 be 11 cc b1 3e
       0.42104527 -0.0073247654 -0.28370646 0.34726003
0001e0 1f ee 66 be 7b 9b d7 3c b6 74 14 be b2 e4 8f be
       -0.22551773 0.026319256 -0.14497647 -0.28104168
0001f0 85 b8 5b be a7 c4 74 3e 12 02 60 be b7 a1 42 be
       -0.21457107 0.23903142 -0.2187579 -0.19007002

shared_backbone.0.bias f4 [64]
000000 14 82 f6 bd cb ae 28 3e 00 00 00 00 38 9b 70 bd
       -0.12036529 0.16472928 0.0 -0.058741778
000010 3a ba d3 3d 54 56 79 3c b8 be 1e bc cd f0 a6 3d
       0.10338254 0.015218336 -0.009689026 0.08151398
000020 a3 a1 a4 3d 17 9c 70 bd bd c5 06 bd 9a 66 8a bd
       0.08038642 -0.05874261 -0.03290342 -0.06757851
000030 6a 58 10 3e 00 00 00 00 00 00 00 00 d0 98 61 bd
       0.14096227 0.0 0.0 -0.055077374
000040 00 00 00 00 00 00 00 00 00 00 00 00 00 00 00 00
       0.0 0.0 0.0 0.0
000050 00 00 00 00 bb de 8a 3c a2 9b 70 bd c3 96 8d 3d
       0.0 0.01695191 -0.058742173 0.06913521
000060 00 00 00 00 00 00 00 00 0d 6f c8 bd 65 7f d0 bc
       0.0 0.0 -0.09786806 -0.025451371
000070 c6 7e 9e 3c 35 fe c6 3d dc 7b 90 3d 63 00 2c bd
       0.01934756 0.09716455 0.07054874 -0.041992556
000080 99 b4 d9 3d 00 00 00 00 22 e3 be 3d 00 00 00 00
       0.106301494 0.0 0.09320666 0.0
000090 8b 21 ad 3d 00 00 00 00 ab 36 66 3d ee 40 85 3d
       0.084536634 0.0 0.05620448 0.06506525
0000a0 00 00 00 00 27 2e cd bd cd 9b 70 bd 00 00 00 00
       0.0 -0.100185685 -0.058742333 0.0
0000b0 19 3e 64 bd dc dd 54 3e 00 00 00 00 9b 3b be 3d
       -0.055723283 0.20787758 0.0 0.092887126
0000c0 ba 59 b2 3d dd 75 70 bd 30 63 93 bc 01 9c 70 bd
       0.0870852 -0.058706153 -0.017991632 -0.058742527
0000d0 48 5f ff 3c 0f 9c 70 bd fe 2d eb bc 46 87 9f 3d
       0.031173363 -0.05874258 -0.028708454 0.07789473
0000e0 d3 9b 70 bd eb b3 26 3d ef fa 83 bc 6c 76 69 3e
       -0.058742356 0.040698927 -0.016110865 0.2279908
0000f0 53 9a 70 bd 00 00 00 00 80 91 fd 3d 00 00 00 00
       -0.058740925 0.0 0.123812675 0.0

shared_backbone.2.weight f4 [64, 64]
000000 e1 ae 6b 3e 2e 96 61 be 5b 26 37 3d e8 3e a7 3e
       0.2301593 -0.22029945 0.044714313 0.3266518
000010 53 5b a8 be 60 dc 0a 3d 91 98 5d 3e be de 5c bd
       -0.32882175 0.033901572 0.2164023 -0.05392336
000020 bd b4 9b bc 4d 0c b1 bc ed e6 40 3e 79 1f 92 3c
       -0.019007081 -0.02161231 0.18838091 0.017837273
000030 22 24 23 3e 4e 6f eb 3d d6 99 c0 3d 24 c5 40 be
       0.15931752 0.11495839 0.09404342 -0.18825203
000040 74 1b d9 bc f0 46 9a bd 6c d1 19 be 5d 92 59 3e
       -0.026502348 -0.075330615 -0.15021294 0.2124724
000050 b3 2d 5b 3e 3d 63 ef 3d 98 4b bf ba 4e 1f 45 be
       0.21404152 0.1168885 -0.0014594672 -0.19250223
000060 69 11 0b 3e c7 3e b5 3d 4e 6f c6 bd b7 45 ca bd
       0.1358086 0.088498645 -0.096891984 -0.09876578
000070 9e f0 70 bd 39 90 e0 3d a9 6f cb bd c8 92 3d 3e
       -0.05882322 0.10965008 -0.09933407 0.18513024
000080 95 26 07 3e c1 7e cf 3d eb 6a df bd a8 2c 3f be
       0.13198312 0.10131598 -0.10909065 -0.18669379
000090 dc e8 99 3e f9 6e 56 be f2 2a 57 be b0 ad cb bd
       0.3006047 -0.2094077 -0.21012476 -0.09945238
0000a0 f9 67 21 3d ef 0c 4b 3b c6 0b 08 3e 80 56 3b 3c
       0.039405797 0.003098305 0.13285741 0.011434197
0000b0 14 94 51 be 3c 32 ae be f7 9a 89 3e c1 57 b3 3c
       -0.20466644 -0.340227 0.2687604 0.02189243
0000c0 35 69 8d be 86 5d ce be 4f aa 10 3d b2 af 44 be
       -0.2761933 -0.40305728 0.03531867 -0.19207647
0000d0 e2 9a fd 3d ef 51 69 be 48 69 82 be b4 37 49 be
       0.12383057 -0.22785161 -0.25470948 -0.19650155
0000e0 7d a2 8c be 7b 25 83 be 40 43 91 be 62 74 6b 3d
       -0.2746772 -0.25614533 -0.2837162 0.05748404
0000f0 3a d6 4d 3c d2 c6 7c be c6 18 01 bd 78 ef 99 bd
       0.012563283 -0.24685219 -0.031517766 -0.07516378
000100 a8 3c 76 bd 1f 16 85 3e c9 4e 8a be 69 55 33 3e
       -0.06011644 0.2599344 -0.27013233 0.1751305
000110 1b 48 fc bd ac ac 04 be 9f a3 1a 3e 86 8c 32 b8
       -0.123184405 -0.12956494 0.15101479 -4.256938e-05
000120 61 17 34 bd c0 67 8b 3e 4c 40 05 bd 47 5f 0b 3d
       -0.04396761 0.27227592 -0.03253202 0.03402641
000130 59 b4 3d be fb 61 a2 3d 19 71 18 be 16 dd 13 be
       -0.18525828 0.079288445 -0.14886893 -0.14439806
000140 58 11 7d be 35 d2 2e 3e ed 7c 12 be 85 3c b7 3d
       -0.24713647 0.17072375 -0.14305468 0.0894709
000150 e7 4d 0f 3e 24 dd c4 bd de 5d 17 be d1 7f 85 be
       0.13994561 -0.09612492 -0.14781901 -0.2607408
000160 57 d5 19 3d 2d b2 84 3e b4 92 88 3e 04 99 12 be
       0.037556972 0.25917187 0.26674426 -0.14316183
000170 7f 6e d1 3c 28 e1 e8 bd ec 2f 95 be 56 45 9b be
       0.025565384 -0.1137107 -0.29138124 -0.30326337
000180 77 30 a5 3d 14 53 21 3e 53 86 25 be 30 68 c8 3e
       0.080658846 0.15754348 -0.16164522 0.3914199
000190 76 e3 58 3d 1f 66 6b bd c8 54 28 be aa 84 ac be
       0.0529513 -0.057470437 -0.16438591 -0.33694965
0001a0 c2 69 00 be b4 9d 0c be 22 d9 e1 bd 50 eb 50 be
       -0.12540343 -0.13732034 -0.11027743 -0.20402265
0001b0 0f af 9c bc 47 ac 8d be 62 65 7d be 90 f5 6b 3d
       -0.019126443 -0.276705 -0.24745706 0.057607234
0001c0 19 db 49 3e 58 0a 08 be 35 26 2c be c0 bb d8 3b
       0.19712485 -0.13285196 -0.1681145 0.0066141784
0001d0 4a 54 4f be b5 01 86 be 76 af 68 3e 43 69 6e be
       -0.20246997 -0.26173177 0.22723183 -0.23282342
0001e0 52 8a 69 3e 0e 01 4c be 92 d1 01 3e be a2 65 be
       0.22806671 -0.19922277 0.12677601 -0.22425362
0001f0 79 56 6b bd a0 eb 45 3e 6e e6 aa be 44 d2 a6 bd
       -0.057455514 0.19328165 -0.3337893 -0.08145574
000200 2f 25 a2 3c 8a f4 23 3e 06 04 8e be a5 3f 35 bd
       0.019793121 0.16011253 -0.27737445 -0.04425015
000210 68 52 ff be 70 00 17 be 39 72 3a bd eb 64 57 bd
       -0.49867558 -0.1474626 -0.045519087 -0.052586477
000220 ce 52 a4 3e 51 70 0c 3d d9 2e b1 3e b2 d1 a9 bd
       0.32094425 0.0342868 0.34606054 -0.08291949
000230 b7 19 be bd f6 2e 6b bd 0f f0 21 3d 58 7b 9c be
       -0.092822485 -0.057417832 0.03953558 -0.30562854
000240 4d 85 52 3e 3f 38 c0 3d 4e 52 21 3e 99 78 5b bd
       0.20558663 0.09385728 0.15754053 -0.053581808
000250 ac ef 05 bd c2 e7 e1 3d e7 f3 0c 3e 19 3c 17 be
       -0.032699272 0.110305324 0.13764916 -0.14769019
000260 0f 9d 5b be df 45 da bd 62 df 0f be 79 f3 9c bd
       -0.21446632 -0.10657858 -0.14050058 -0.07663626
000270 40 a0 80 3d ad 24 cf bd 0f c3 ab 3d 74 e6 86 3d
       0.06280565 -0.10114417 0.08386814 0.06586924
000280 7c 9c cf bd 60 db 9e be 2b 8d 4a be 01 82 62 3e
       -0.10137269 -0.31026745 -0.19780414 0.22119905
000290 e7 8c 12 3d 39 0f 06 3d 84 b6 20 3e 18 61 1f 3d
       0.035778906 0.03272936 0.15694624 0.038910955
0002a0 62 85 e3 bc 91 1b 1d be 98 68 93 be b0 4a 32 be
       -0.027773563 -0.15342547 -0.28790736 -0.17411304
0002b0 fa 54 4d bd 40 15 b0 3e e7 b7 96 bd 64 c4 b0 be
       -0.050129868 0.34391212 -0.07359295 -0.34524834
0002c0 a7 cd 01 bd c8 bc a5 bd 87 84 26 be 45 28 0f 3e
       -0.031690266 -0.08092648 -0.16261493 0.13980205
0002d0 a3 0f d1 3b 5a 10 90 bd f4 c4 f8 bb 90 21 a6 be
       0.006380038 -0.07034369 -0.007591838 -0.3244748
0002e0 8a a6 86 bc f7 a6 86 be ae 95 83 bd 52 a6 3f bc
       -0.016436834 -0.2629926 -0.064250335 -0.011697369
0002f0 df d7 17 3f 1b b5 aa bd a8 94 9a 3c 43 c6 20 3e
       0.5931377 -0.083353244 0.018869713 0.15700631
000300 96 b4 d7 bd f7 bd 8f be 4a 02 4d be c7 65 3c 3e
       -0.10532491 -0.2807462 -0.20020404 0.183982
000310 95 f7 d9 3d 75 b1 8e 3d aa da 03 be 9c ec 5e be
       0.10642926 0.06967441 -0.12876382 -0.21769947
000320 47 ba 30 be bd 89 42 3d 42 ad 60 3c 00 b2 b3 3c
       -0.17258559 0.04749464 0.013713183 0.021935463
000330 f2 91 a8 bc db c7 c6 3e 5e 6e c6 bd d6 b0 c7 bd
       -0.020577405 0.38824353 -0.096890196 -0.09750526
000340 8f 81 81 be 91 e7 52 3e ad 5d 3f 3d ef 0e 7d 3d
       -0.25294158 0.20596148 0.046720196 0.06178182
000350 90 e9 84 3e fc 90 86 3d 0f 2e 09 3e 7e 9c 9f bd
       0.25959444 0.06570622 0.13396476 -0.077935204
000360 82 76 68 3d c3 24 15 3e 2c 47 59 bd 89 16 0a be
       0.056753643 0.14564805 -0.05304639 -0.13485159
000370 a1 8a 4f bc f2 f7 0c be ce f4 be bd 1d 74 85 be
       -0.012667329 -0.13766459 -0.093240365 -0.2606515
000380 5c 64 1f 3e 6f 4f 0e be ad 2d 53 3d 65 bb 1f be
       0.15565628 -0.13897489 0.05155723 -0.15598829
000390 58 3f 05 be 71 f0 31 ba 09 8c a1 3e 8b f5 d7 bc
       -0.13012445 -0.0006787843 0.3155215 -0.026362201
0003a0 ab 4d fc 3d 83 a9 fe 3d b0 da 81 be fe a9 c2 3c
       0.123195015 0.124346755 -0.25362158 0.0237627
0003b0 04 83 84 be c8 f8 e6 bb 76 72 18 bd bb 25 b0 be
       -0.25881207 -0.0070487 -0.037218533 -0.34403786
0003c0 b5 31 19 bf 6d 56 c4 3e df 06 ab be c8 d6 2c be
       -0.5984147 0.38347188 -0.3340368 -0.16878808
0003d0 20 bb 88 be b1 5f 29 be 25 22 d9 3d df 52 57 be
       -0.26705265 -0.1654041 0.10602216 -0.21027707
0003e0 c9 85 da bd ee 2b 49 be 63 6a 54 3d 82 33 2e 3e
       -0.10670049 -0.19645664 0.05185927 0.17011836
0003f0 10 6c 59 bc 28 6c 97 3d cb ff 27 3e e9 aa 13 3e
       -0.013270393 0.07393676 0.16406171 0.14420666

shared_backbone.2.bias f4 [64]
000000 90 bf c0 bd 1c d0 a7 bd b7 56 8f bd d3 09 91 bd
       -0.09411538 -0.081939906 -0.069989614 -0.07081952
000010 e5 83 6b 3d f0 b4 08 3e 2c 09 6a bc 78 e4 44 bd
       0.05749883 0.13350272 -0.014284413 -0.048069447
000020 61 21 8d bd e0 1f a0 bd e5 9b 70 bd 19 9c 70 bd
       -0.06891132 -0.0781858 -0.058742423 -0.058742616
000030 fd 49 26 3e 26 48 b8 3d 0f a1 82 bd 40 b8 5d bd
       0.16239162 0.08998136 -0.06378376 -0.054130793
000040 fa 56 ba bd a3 e9 c0 bd f6 4f 46 bd fc cd aa 3c
       -0.09098621 -0.09419563 -0.0484161 0.020850174
000050 00 00 00 00 14 9c 70 bd bd 9f 99 bd 00 00 00 00
       0.0 -0.058742598 -0.07501171 0.0
000060 8c 9b 70 bd 27 f1 d4 bc 4f 4d ea 3b 31 9c 70 bd
       -0.05874209 -0.025993897 0.007150329 -0.058742706
000070 0e 66 ae bd f8 9b 70 bd 5c 81 bf 3d 94 d3 0a 3e
       -0.08515559 -0.058742493 0.09350845 0.13557273
000080 c2 70 4f bd c8 c1 67 3d 0e 9b 06 bd f6 de 37 3e
       -0.050644644 0.05658129 -0.032862715 0.17956147
000090 44 b1 cb 3d 8d b8 5d bd 8f 99 70 bd 80 ce 4e bd
       0.0994592 -0.05413108 -0.058740195 -0.050489902
0000a0 1e a9 a9 bd 77 aa f4 3d 24 10 98 bd f0 08 4e bd
       -0.0828421 0.11946576 -0.074249536 -0.050301492
0000b0 15 49 a5 bc 04 9c 70 bd 5f e4 60 bd 27 0d 40 bc
       -0.02017645 -0.058742538 -0.05490529 -0.011721886
0000c0 fd 71 b2 bb 40 9c 70 bd df f7 26 bd 00 00 00 00
       -0.0054457174 -0.05874276 -0.040763732 0.0
0000d0 bf 5f 4d bd 9c 9b 70 bd 26 d4 12 3e 97 31 17 3e
       -0.05014014 -0.05874215 0.1433874 0.14765011
0000e0 98 a6 0b 3d c1 6a 81 bc f9 20 bd 3d df b5 5d bd
       0.034094423 -0.015797975 0.09234805 -0.054128524
0000f0 ce 5c bc bd 50 71 6c bd 00 00 00 00 6e d4 b3 bc
       -0.091973886 -0.05772525 0.0 -0.02195188

goal_head.weight f4 [2, 64]
000000 e6 fe 88 bd 50 d6 be bd 8d 7f 5a 3d 4a 06 61 be
       -0.06689243 -0.093182206 0.0533443 -0.21975055
000010 12 64 2c be 7c c9 ec be 5a 19 87 bd 50 a1 50 bd
       -0.16835049 -0.4624747 -0.06596632 -0.05093509
000020 3e 82 58 3e b4 5e 2f 3e 71 07 e2 bd 4c 9c f7 bd
       0.21143433 0.1712597 -0.110365756 -0.12090358
000030 3d 9d c7 be ed ce 2e be f0 5a 5e be e8 ec 1d be
       -0.3898715 -0.17071123 -0.21714377 -0.15422404
000040 3b 0d e0 bb ef ba 0a 3e a3 ea d8 bd d0 7b 7c be
       -0.0068375147 0.13547872 -0.105916284 -0.24656606
000050 c3 39 48 be d2 a8 af bd fc a9 da 3d 02 70 c9 bd
       -0.19553284 -0.08577122 0.10676953 -0.09835817
000060 63 18 37 3e cc 38 85 bd c0 b8 b6 bd 40 18 b7 bc
       0.17880397 -0.06504974 -0.08921957 -0.02235043
000070 1c a2 b6 bd 99 b0 8f be bc fa 4f be 67 af d2 be
       -0.08917639 -0.2806442 -0.20310491 -0.41149446
000080 3c b2 cc 3d 45 d9 dd bd 13 2f a1 bd af 14 62 be
       0.09994933 -0.108324565 -0.07870307 -0.22078203
000090 66 51 93 3d be 47 94 3e c8 99 ee bb 6e 58 67 3e
       0.0719326 0.28960985 -0.0072815157 0.22592327
0000a0 af f6 a6 3e 01 a7 12 bf e6 bc 95 3d 10 4e 35 bd
       0.3261008 -0.5728608 0.0731142 -0.0442639
0000b0 f5 d7 a1 be 8d a4 49 be 5e ca 29 be 70 81 34 be
       -0.31610075 -0.19691677 -0.16581103 -0.17627501
0000c0 41 21 34 be da 84 19 bd 31 f4 b1 bc d2 b1 8f 3d
       -0.1759081 -0.037480213 -0.021722885 0.070163384
0000d0 5c 4c 34 be c6 19 85 be ac b4 47 be 3b 0f a6 be
       -0.17607254 -0.25996226 -0.19502515 -0.32433495
0000e0 13 7d 2f be 9d c1 2b 3d ce 7f 00 bf 62 23 3c 3e
       -0.17137556 0.04193269 -0.50195014 0.18372872
0000f0 a9 34 76 be 7c 9a 8c 3e f7 ea 3d be 4c 1f f5 3d
       -0.24043526 0.27461612 -0.18546663 0.1196886
000100 79 48 51 3d fa a8 e9 3c b7 dd 35 3d 09 29 00 3d
       0.051094506 0.028522957 0.044400897 0.031289134
000110 60 16 c2 3e 0b f1 7d 3d c7 da 7a 3e 26 e5 d8 be
       0.37907696 0.061997455 0.2449752 -0.42362326
000120 e9 b3 1d 3d f2 c2 62 3e 13 25 12 3d a6 00 8a 3e
       0.038501654 0.22144678 0.035679888 0.2695362
000130 a9 66 2c 3e f3 42 44 3e 78 e8 0e be a3 09 3a 3e
       0.16836037 0.19166164 -0.13955867 0.18167739
000140 d6 25 5d 3e cd e2 38 3d ae 38 6c bd 70 fa bc 3e
       0.21596465 0.04513817 -0.05767124 0.3690982
000150 be 77 b3 3c a6 7b 48 3e 8c c1 68 3e 5e 61 13 be
       0.021907683 0.19578418 0.22730082 -0.14392611
000160 43 53 7b 3e e5 39 d4 3d 08 09 6e be 5d 5c 3b bd
       0.2454348 0.10362605 -0.23245633 -0.04574238
000170 6e c4 62 be 3b f6 eb bd 59 4c e7 ba 82 10 99 3e
       -0.22145244 -0.11521574 -0.0017646655 0.29895407
000180 10 15 ab 3d 97 57 4e 3e 45 db f8 3d 6c a1 c9 3e
       0.08353627 0.201506 0.12151197 0.39380968
000190 5a e8 c5 3e f1 90 6b 3e 86 d4 56 3c 51 42 1a bd
       0.38653833 0.2300451 0.013112193 -0.0376609
0001a0 e8 09 34 be 59 6a 51 3e 34 46 b5 3d 39 72 a1 3d
       -0.17581904 0.20450725 0.08851281 0.07883114
0001b0 0f 9e d6 3c 5e fd c1 3d ce b4 34 3e 72 be ed 3e
       0.026198415 0.09472154 0.17647097 0.4643436
0001c0 f6 7d 87 be 62 99 df 3c f5 fa 04 be f3 cf ac bb
       -0.26463288 0.027294818 -0.12986358 -0.005273813
0001d0 f8 af 6c 3e 9a fa 08 3e 44 ac 74 3e ce 66 62 3e
       0.23114002 0.13376847 0.23893839 0.2210953
0001e0 f4 95 a6 3e 86 2c 84 bc 4e 36 56 3e 2f 5a 3d 3d
       0.3253628 -0.016134512 0.20919153 0.046228584
0001f0 6a 47 95 be e5 8f 20 3e 4d 27 8f be 78 da d1 be
       -0.29156047 0.15679891 -0.27959672 -0.4098699

goal_head.bias f4 [2]
000000 64 ce 3e be 64 ce 3e 3e
       -0.1863342 0.1863342

portfolio_head.weight f4 [15, 64]
000000 94 46 c5 bd 39 c5 24 3e 12 48 2f be 3a de 41 3e
       -0.09632602 0.1609086 -0.17117336 0.18932429
000010 aa d7 63 bc fd 5a d4 3d 7b e5 17 3d 30 a5 69 3e
       -0.013906399 0.10368917 0.037084084 0.2281692
000020 f4 6d c1 be 4f c2 33 3e 16 63 5f be 0d b8 b9 3d
       -0.377792 0.17554592 -0.21815142 0.09068308
000030 86 27 58 3c 7b 6b 71 3d c1 e6 1f 3e cc 84 58 be
       0.013193017 0.058940392 0.1561537 -0.21144408
000040 1f 6d 2d bd e5 13 94 3c eb 36 52 3e 41 fa 54 ba
       -0.042340394 0.018075893 0.20528762 -0.0008124449
000050 8e 36 53 3e 1f 72 79 3c 3c 57 dd bd a1 37 b6 bd
       0.2062628 0.0152249625 -0.10807654 -0.08897329
000060 4a 78 a1 be 09 07 eb 3e 64 27 8e be 75 47 9b 3e
       -0.31537086 0.45903805 -0.27764428 0.30327955
000070 51 e3 d8 3d dc 5a 5c 3d a0 de 39 be aa 9c 68 bd
       0.10590232 0.053797588 -0.18151331 -0.05679003
000080 57 b7 99 be a1 83 fd bb 3e aa be bd 7c b8 1d be
       -0.3002269 -0.0077366387 -0.09309815 -0.15402406
000090 fd fb 05 be 88 bf d5 bb 14 00 64 bc 68 69 ff 3d
       -0.13084407 -0.0065230764 -0.013916034 0.124712765
0000a0 7b 0b 27 be ad 04 4d 3e 86 1d 09 3c 4f 33 10 3d
       -0.16312973 0.20021315 0.008368855 0.03520518
0000b0 07 c5 10 be 20 77 6c 3e 47 38 00 3e ce 48 b8 be
       -0.1413766 0.23092318 0.12521468 -0.35993046
0000c0 86 d3 b6 bd 14 27 4f be d2 29 a7 3e be 97 87 3e
       -0.08927064 -0.20229751 0.32649094 0.26482958
0000d0 79 af 95 bd 4d ff 70 be 79 0e 25 be 4e 34 43 3e
       -0.073088594 -0.2353489 -0.16118802 0.19062921
0000e0 3f 37 8e 3d 69 0b cd bd db ea d2 3e b6 08 69 bd
       0.06944131 -0.10011942 0.41194806 -0.056893073
0000f0 f6 af 18 3e 15 85 53 3e b3 14 4d be dd 73 45 be
       0.14910874 0.20656236 -0.20027427 -0.1928248
000100 0c 29 3c 3d b3 04 46 bd cc 7a 95 bc 1f c1 5d be
       0.045937583 -0.048344325 -0.01824703 -0.21655701
000110 db 83 1b 3e 98 67 69 3e 18 17 ac bd 16 4d b5 bd
       0.15187018 0.22793424 -0.08402842 -0.088525936
000120 61 a1 88 3c 50 44 87 3e 14 00 95 3d 45 fa 7a 3e
       0.016678514 0.26419306 0.072754055 0.24509533
000130 5d e1 7f 3e 7b fb 8d 3e 48 2f ba be 27 ea 99 bb
       0.24988313 0.27730927 -0.36364198 -0.0046971026
000140 e3 bc c8 3c 8c 54 e5 bd 37 bd 0b 3d d6 bf ff 3d
       0.02450413 -0.11197767 0.034115996 0.12487762
000150 00 07 00 3f fa 13 d9 3d bf 61 8e 3e e2 1f be 3d
       0.5001068 0.10599513 0.2780895 0.09283425
000160 23 00 89 be d3 fe e9 ba 48 76 97 3d 15 c4 bc 3e
       -0.26757917 -0.0017852433 0.07395607 0.3686835
000170 52 34 8c 3c 99 1f 01 3e a2 1b 71 3e e4 d0 d3 bc
       0.017114792 0.1260971 0.23545697 -0.025856443
000180 5a 12 3b be 26 48 9f bd 29 34 81 3e 73 70 d9 3d
       -0.1826872 -0.07777433 0.25235108 0.10617151
000190 e2 05 82 3e 64 02 a6 be 10 44 3a bd 9c 3b 43 bd
       0.25395113 -0.324237 -0.045475066 -0.04766427
0001a0 69 fb a2 3d db 3b ab bd 39 3b 00 3d c0 7d 33 3b
       0.07958109 -0.08361026 0.03130648 0.0027388185
0001b0 51 29 84 3e 20 30 c4 bd aa 94 7c bd 82 19 82 3e
       0.25812772 -0.095794916 -0.061665215 0.25410086
0001c0 6b 10 a3 3e 11 76 f5 bd 5f 34 dd bc de a1 96 bd
       0.31848463 -0.1198541 -0.027002512 -0.073550925
0001d0 54 aa 09 3d 75 33 29 be 3d 2b 0c be 2c 88 cb bc
       0.033609703 -0.16523536 -0.13688369 -0.024845205
0001e0 1a 58 c0 3c 9d 97 65 3d 9a 44 2b 3e 8d be 89 bc
       0.02347951 0.056052793 0.16725388 -0.016814495
0001f0 08 01 0d be 33 07 32 3e c3 8a 1e 3e 37 62 5f 3e
       -0.13769925 0.17385559 0.15482621 0.2181481
000200 8d 81 3d bd b0 0a 78 be 3d 12 4d bd 52 d5 14 3e
       -0.046266127 -0.24222827 -0.05006622 0.145345
000210 d4 47 3c be 95 2f 50 3e ec e4 11 be ca 7e 18 be
       -0.18386775 0.20330651 -0.14247483 -0.14892116
000220 b0 c9 81 3e aa 32 c4 3d 9a 54 67 3d a0 77 6e 3e
       0.25349188 0.09579976 0.056477167 0.23287821
000230 15 d2 1b 3f 31 53 d0 3e d9 42 59 3c 1c f4 63 be
       0.60867435 0.4068847 0.013260567 -0.22261089
000240 b4 cb 00 3e 57 6c 0e 3e 15 ac 10 3e 42 3e 9a be
       0.12577707 0.13908516 0.14128144 -0.30125624
000250 90 33 4d be 2b 88 57 bd 9f d4 2f bd 7f b1 91 3e
       -0.20039201 -0.052620094 -0.04292738 0.2845573
000260 ba aa fe 3d ef 48 8d 3d 2a cb 09 3e b0 33 72 bd
       0.12434907 0.068986766 0.13456407 -0.059131324
000270 cf 45 75 3e 4e ce 3b bc 87 0c 20 3e d1 05 b2 3e
       0.23952411 -0.011462761 0.15629779 0.34770063
000280 d4 81 15 3e c3 44 e3 bd 52 e8 ad be f1 6f 5d 3e
       0.14600307 -0.110971 -0.3396631 0.21624734
000290 9d f1 72 3e 8b eb 1e be 90 ba 18 bc 2d 6c 0c 3e
       0.2372498 -0.1551954 -0.009321824 0.13713141
0002a0 ef af 72 3e 7f eb 5f 3e c8 38 56 bd b1 69 83 bd
       0.23699926 0.21867178 -0.052300245 -0.064166434
0002b0 12 59 1e be fd 4e d8 3d b4 06 63 be 86 1f ee bd
       -0.15463665 0.10561941 -0.22170526 -0.11627106
0002c0 ad ab 35 3e a7 d3 f9 bd 7e 0d 4a 3e 7d d0 f8 bd
       0.1774127 -0.121985726 0.1973171 -0.12149141
0002d0 36 24 16 3d 2f 4e 17 be 78 69 1d 3e 90 79 9a 3e
       0.036655627 -0.14775918 0.15372264 0.3017087
0002e0 53 bf d2 bc 49 81 63 3e 80 8c 04 bc aa ac e1 bd
       -0.025725996 0.22217287 -0.008090138 -0.11019261
0002f0 f5 b2 a8 3e bd 88 51 3c 2c fa bc bd 82 67 ff 3e
       0.32949033 0.012788949 -0.09227404 0.49883658
000300 77 f6 19 bc f9 e6 a3 be ab b5 3e 3e ef 1d c6 3d
       -0.009397141 -0.32012156 0.18623988 0.09673678
000310 03 22 aa 3d ad de cc 3e 9f ff 14 3e 81 ef 49 be
       0.083072685 0.40013638 0.14550637 -0.1972027
000320 f6 e5 8d be df cd 36 be 2d 2f 22 be fb dd 3a be
       -0.2771451 -0.17851971 -0.15838309 -0.18248741
000330 6d 1b 57 be e7 d8 45 bd 00 e3 4a 3d f3 96 e0 be
       -0.21006556 -0.048302557 0.04953289 -0.43865165
000340 64 71 08 3d 76 52 35 3c 05 93 90 be 85 8c 93 3c
       0.033311263 0.0110670235 -0.28237167 0.01801134
000350 30 e1 4f 3e 1c d8 2c bd 1a 5f 58 be 00 6e c7 3e
       0.20300746 -0.042198285 -0.21130028 0.3895111
000360 a4 d8 6f be 41 d9 35 3e cc 55 c1 3b 87 d2 90 bc
       -0.23422486 0.17758657 0.0059001204 -0.017678512
000370 d0 07 85 bc 9a fa b5 bd e8 ce a8 bd a7 33 09 3e
       -0.016239077 -0.08885689 -0.08242589 0.1339861
000380 51 7b 14 3d 64 3f 90 3e 85 a1 2c 3e 07 09 7a 3e
       0.036250416 0.28173363 0.1685849 0.24417506
000390 49 16 a0 3b d4 c7 e8 3d 2d b6 5e 3e 0f 18 f1 bd
       0.004885469 0.11366239 0.21749182 -0.11772167
0003a0 e9 81 39 3e e4 c6 55 3e 65 c8 ec bd 3c 9b af bd
       0.18115963 0.20876652 -0.1156166 -0.085745305
0003b0 f7 60 33 be c2 c0 54 3d 08 9d 85 be 9f 33 d9 3c
       -0.17517458 0.05194164 -0.26096368 0.026513873
0003c0 68 28 87 3e 8f 84 5d 3d a0 67 8e 3e 8f 4e 4a bd
       0.26398015 0.054081496 0.27813435 -0.049391326
0003d0 ef 73 44 3e ca f8 83 3e ad 93 ce bb e0 07 85 3d
       0.1918485 0.25775748 -0.0063042254 0.06495643
0003e0 14 e4 55 3e ba 23 ee bd 5a ec 11 3e 9f bc 9f 3e
       0.20887786 -0.11627908 0.14250317 0.31198594
0003f0 1f bc 51 3c 4b 1e 5a 3d 1b a0 b4 3e bc 27 15 3c
       0.012801199 0.053251546 0.352784 0.009103712

portfolio_head.bias f4 [15]
000000 56 e7 3d bd 87 17 cf 3d a0 28 fb 3d cb 82 ae 3d
       -0.046363197 0.10111909 0.12263608 0.085210405
000010 84 69 27 be b7 ba 86 bd ee a1 a3 bd bf df b1 bd
       -0.16348845 -0.06578582 -0.0798987 -0.08685254
000020 c1 f7 a1 3d a4 6f 01 3e ca 80 a9 bd 09 52 83 3d
       0.079085834 0.12640244 -0.08276518 0.06412131
000030 d9 8a bc bd 15 6e b0 3d 04 78 07 bd
       -0.092061706 0.086147465 -0.03307344

network.0.weight f4 [64, 2]
000000 fb 2d a7 3e 11 76 b8 3e 3d bc 7c be c5 dc 08 be
       0.32652268 0.36027578 -0.24681182 -0.13365467
000010 4a 55 38 be 02 4d b3 be ff f2 31 3e eb c5 63 3e
       -0.18001285 -0.3501969 0.17377852 0.22243468
000020 1f af 78 be 88 2e 28 bd ab f6 d6 bc f6 e3 2f be
       -0.24285553 -0.04106 -0.026240667 -0.17176804
000030 ec 3b 78 be 83 7b 86 be 0c b3 a1 be 64 19 b2 be
       -0.24241608 -0.26266107 -0.31581914 -0.34784997
000040 94 ae 98 3c 54 e8 95 be a7 6e 8a be 19 b9 c6 3d
       0.018637933 -0.29278815 -0.27037546 0.09703273
000050 51 eb dd be f3 d7 09 3d 6d 26 74 bb 16 bb 03 be
       -0.43343595 0.03365321 -0.003725435 -0.12864336
000060 6a 06 1e be 8e fd cd bd 2c ac 0d be a0 30 a5 be
       -0.15432134 -0.10058127 -0.1383521 -0.3226366
000070 cf be f3 bd 4b 93 99 3d 1e ab 41 be 63 16 e4 bd
       -0.11901628 0.07498797 -0.18912932 -0.111370824
000080 66 82 53 be a4 cd 33 bd 4c ca d1 3d da 42 51 be
       -0.20655212 -0.043897286 0.10243663 -0.20435658
000090 55 ea 04 3e 98 00 53 3d cb 3f 58 bc 94 6f ed bc
       0.12980016 0.051514238 -0.013198803 -0.028983869
0000a0 34 74 da be 77 d4 40 be f0 61 34 be f0 ec ff 3d
       -0.4266678 -0.18831049 -0.17615485 0.12496364
0000b0 d1 50 0c bd c1 3a 34 be da 7a 1e 3d e0 41 0c 3e
       -0.03425676 -0.17600538 0.03869138 0.13697004
0000c0 17 0e c5 bd a1 2a a0 be 28 bb d1 bd 2a 18 6b be
       -0.09621828 -0.31282523 -0.10240775 -0.22958437
0000d0 68 cb 7d bd b5 c5 29 be 84 f7 6c be b6 ca 8c be
       -0.06196156 -0.16579325 -0.23141295 -0.27498406
0000e0 74 d9 d0 3e c0 21 b0 3e cd 06 d1 be e0 8b 61 be
       0.40790904 0.3440075 -0.408255 -0.22026014
0000f0 63 b8 f0 be 35 28 f4 3c 5f 08 d1 bd 0e c9 b9 bd
       -0.47015676 0.029804328 -0.10206675 -0.09071551
000100 5b ef 3a be 34 12 9c be 4a 15 5f 3c c0 8c 19 3e
       -0.1825537 -0.30482638 0.013615916 0.14995098
000110 5a 25 9d 3e 44 a0 b9 bc b1 d8 b4 bd 7a 32 e7 bd
       0.3069256 -0.022659428 -0.08830393 -0.112889245
000120 2a 0c cd be c1 74 27 bb af a3 d0 be 7b b2 8b bc
       -0.40048343 -0.0025551768 -0.4074988 -0.01705288
000130 f1 6c 18 3e c9 65 5a bd 1e 3c 59 be 46 ab 4c bd
       0.14885308 -0.053319726 -0.21214339 -0.049968027
000140 4c 37 05 be 89 16 b4 be d2 3d 06 bf a3 d6 54 3e
       -0.13009375 -0.35173443 -0.5243808 0.20785002
000150 4a 2e 17 bd 93 b6 9e bd d1 59 f1 be d3 49 e2 bd
       -0.03690938 -0.07749667 -0.47138837 -0.11049237
000160 91 1e cf 3e 20 a3 86 3e f0 21 2c bd 8c 01 60 be
       0.40453008 0.2629633 -0.042024553 -0.2187559
000170 8e e6 23 be 10 a7 2b bd 05 69 ef bd 24 84 f6 bd
       -0.16005918 -0.04190737 -0.11689953 -0.120369226
000180 42 60 e4 bd 70 eb 8f be 5c d2 e7 bb 9b ad f9 be
       -0.11151172 -0.28109312 -0.0070746373 -0.48765263
000190 f2 af d7 3c 6d 80 1f 3e b9 31 8c be 0c b7 23 be
       0.026329014 0.15576334 -0.27381685 -0.15987796
0001a0 27 c0 06 bd 1a 7f 4f bd 0c d5 75 bd dc 67 db 3d
       -0.032898095 -0.050658323 -0.06001763 0.10713169
0001b0 9d a6 f8 bd 9d 6b 32 bc 84 53 b1 bd 5d e6 a5 be
       -0.12141154 -0.010889915 -0.086585075 -0.32402316
0001c0 98 8b 54 be f6 49 8a 3e 9e f3 24 bd eb 39 10 be
       -0.20756376 0.27009553 -0.040271394 -0.14084594
0001d0 6e 2b 80 be ed b8 a8 be e0 c5 c1 bd 31 a7 49 bb
       -0.25033134 -0.32953587 -0.0946157 -0.003076982
0001e0 34 d0 ce be f0 05 0e bd 56 bc 2d 3e dd 3c fe bd
       -0.4039322 -0.03467363 0.16966376 -0.124139525
0001f0 e3 5a bc bd a1 1e 18 be 4a 60 22 bd d2 f0 d1 bd
       -0.09197023 -0.14855434 -0.03964261 -0.10251011

network.0.bias f4 [64]
000000 67 c1 46 3e cf 09 8d 3e 00 00 00 00 94 bd 84 3e
       0.19409715 0.27546546 0.0 0.25925887
000010 00 00 00 00 00 00 00 00 cd e2 8b 3e 7f d7 95 3e
       0.0 0.0 0.27321473 0.29265973
000020 f1 7f f1 bd a5 f1 51 bd 47 a1 bb 3e 00 00 00 00
       -0.11791981 -0.05125584 0.36646482 0.0
000030 22 5b 92 3e 0e 56 75 3e c1 cf 67 bd 00 00 00 00
       0.28585154 0.23958609 -0.056594614 0.0
000040 00 00 00 00 ca 3c 6b 3e 70 4a 1c 3e 00 00 00 00
       0.0 0.22972408 0.1526277 0.0
000050 c8 08 d4 3e f2 9a 70 bd 0a c8 53 3e c5 ed 4e 3e
       0.4141295 -0.058741517 0.20681778 0.2020789
000060 d7 33 74 3e aa f3 40 3e 00 00 00 00 4c e1 8d 3e
       0.238479 0.1884295 0.0 0.2771095
000070 4f 7b 3b 3d cd 8b b7 3e 6f 67 d9 3e 00 00 00 00
       0.045771893 0.35848847 0.42461726 0.0
000080 00 00 00 00 1d 44 09 be 7e 8c 70 3e 00 00 00 00
       0.0 -0.1340489 0.23491094 0.0
000090 00 00 00 00 f5 32 b0 3e 51 ad 85 3e 00 00 00 00
       0.0 0.34413877 0.26108792 0.0
0000a0 00 00 00 00 a1 45 ec 3e 00 00 00 00 ea 2a e2 3e
       0.0 0.46146873 0.0 0.44173366
0000b0 f5 96 1a 3e 00 00 00 00 38 7c 87 3e 00 00 00 00
       0.15096648 0.0 0.2646196 0.0
0000c0 d7 d9 88 3e 3e 29 85 bc ab 0f 6d 3e b5 29 85 3e
       0.267287 -0.016255017 0.23150508 0.26008382
0000d0 f3 67 90 bd e3 9b 70 bd a0 d9 95 3e 00 00 00 00
       -0.07051077 -0.058742415 0.29267597 0.0
0000e0 23 96 70 bd f7 9a 70 bd a0 5c 96 3e 00 00 00 00
       -0.05873693 -0.058741536 0.29367542 0.0
0000f0 81 20 b0 3e be e5 79 3e 00 00 00 00 41 7a 72 3e
       0.343998 0.24404046 0.0 0.23679449

network.2.weight f4 [64, 64]
000000 c4 1e d3 bd 02 5f 67 be d7 80 40 3d 24 0b 41 be
       -0.103086025 -0.22594836 0.04699787 -0.18851906
000010 db 7d 6c be 4b ae 05 3e 8a 98 9f 3e 4f 1b 2f 3f
       -0.23094885 0.13054769 0.31171066 0.68401045
000020 51 51 58 3e 57 17 8a ba f9 8d ea 3e f8 d9 d4 be
       0.2112477 -0.001053552 0.45811442 -0.41572547
000030 9e 99 0e ba 41 47 2e 3c 0c 36 c4 bc e7 d1 b8 3e
       -0.0005439761 0.010637105 -0.023951553 0.36097643
000040 f7 4c b3 bc 8d 86 48 3e b8 db 68 be 21 ed 50 be
       -0.021887286 0.19582577 -0.22740066 -0.20402957
000050 e4 67 03 3f 50 4e a9 3d 6c dd 1c be a1 77 8a 3d
       0.513304 0.0826689 -0.1531884 0.06761099
000060 c3 48 4c 3d 4d 25 79 3e 96 b1 c5 3d f7 d8 34 be
       0.04987408 0.24330635 0.096530125 -0.1766089
000070 f0 4e 22 be b1 0b d0 3e 74 b4 27 3f 0b bf 3e be
       -0.15850425 0.4063392 0.65509725 -0.18627565
000080 8d 7b f3 3d 71 4e 86 be d7 8c 8a 3d 55 ee 8c bd
       0.118888 -0.2623172 0.06765144 -0.06881396
000090 9c eb 05 3e ab 8c b9 3e 9e 7e 4a be a6 e0 7d 3e
       0.13078159 0.36240134 -0.19774863 0.24792728
0000a0 34 41 1e 3e ba 7f e8 3e f5 bd e3 3d 7c 62 0f 3f
       0.1545456 0.45409948 0.11120216 0.5600965
0000b0 da fc 45 ba 35 f6 6b bd 00 0b 17 3d bb 30 b7 be
       -0.00075526314 -0.05760785 0.036875725 -0.35779366
0000c0 51 3c ac 3d ae 2b 2f be 26 fd 85 be d7 75 98 3e
       0.08409942 -0.17106506 -0.261697 0.29777405
0000d0 98 22 a2 be 00 b8 74 be 01 28 83 bd 0d 90 73 bd
       -0.31667018 -0.23898315 -0.064041145 -0.05946355
0000e0 8e c3 60 bd b9 7e 10 3d 54 2e ac bd 6b 81 21 bd
       -0.054873995 0.035277102 -0.08407274 -0.039430063
0000f0 7f 2f f5 3e 45 24 09 3d 69 ed 2a 3d 05 26 08 bd
       0.478878 0.033481855 0.04173032 -0.033239383
000100 42 d3 ef be 5d 25 87 3e 67 a8 32 be 7b 7b 9c bd
       -0.46840864 0.26395693 -0.17447053 -0.076407395
000110 58 ca 20 bd c3 12 0e be aa e1 67 be 70 20 b1 3e
       -0.03925547 -0.13874345 -0.22644678 0.3459506
000120 d0 fa f8 3d 52 12 d1 3d 67 b9 28 3f d7 f4 c7 bc
       0.12157214 0.102085724 0.659079 -0.02440874
000130 1b 5a 7f 3e 53 6f 0c bd 09 52 06 be 7a 32 17 3e
       0.24936716 -0.034285855 -0.13117231 0.14765349
000140 52 c2 0e 3e 41 96 99 be 42 f2 88 bd da 84 f2 bc
       0.13941315 -0.29997447 -0.06686832 -0.029604364
000150 01 25 2e 3f c8 87 ec bd 3a d2 4c 3e e2 e5 7a be
       0.68025213 -0.11549336 0.2000207 -0.24501756
000160 3d 4d 85 3e 3f 37 5f bd 1e f9 62 3d 1e ef a0 3e
       0.2603549 -0.054496046 0.055413358 0.31432432
000170 97 09 78 be ef 97 f8 3e 68 99 4f 3f 59 7b 23 3d
       -0.24222408 0.48553416 0.81093454 0.039912555
000180 e0 b9 de 3c d6 a3 e5 3d 74 5e 64 be 0a 50 6b be
       0.027188241 0.1121289 -0.22301656 -0.22979751
000190 5f d8 38 bd 60 e1 24 3f 81 c2 7d be fa fb 5a bd
       -0.045128223 0.64406395 -0.24781229 -0.05346296
0001a0 11 e8 01 3c bc 39 1e 3f 11 bd bf be 3b 95 fb 3e
       0.007928864 0.61806846 -0.37448934 0.4913729
0001b0 79 b2 3e 3e f9 6c 97 bd 8c bb 34 be 04 80 7a bd
       0.1862277 -0.07393832 -0.17649668 -0.06115724
0001c0 01 90 ce 3d 03 f0 e2 bd eb 98 cc bd 30 31 e1 3e
       0.1008606 -0.11080935 -0.09990104 0.4398284
0001d0 88 5d 62 bd 9e c8 ad bd 04 64 8d 3d be 02 11 3e
       -0.05526498 -0.0848553 0.06903842 0.14161202
0001e0 86 e7 0e 3f 2f d0 61 bb 6c 29 4e 3e c4 16 64 be
       0.55822027 -0.0034456362 0.20132989 -0.2227431
0001f0 98 9d 10 3f b3 ea 2a 3d 4d c6 f8 3e 9a 36 8e 3e
       0.5649047 0.041727733 0.4858879 0.27776033
000200 68 c0 36 be c1 09 e7 3d 61 7d 74 3e cf 98 44 3e
       -0.17846835 0.11281157 0.23875953 0.19198917
000210 5a 20 41 be 32 76 54 3e 36 55 01 3e b5 df 00 3f
       -0.18859997 0.20748213 0.12630162 0.5034135
000220 89 5a 73 be 88 cd 35 be 17 ee 00 3f f9 4a 59 be
       -0.23765005 -0.17754185 0.50363296 -0.21220006
000230 21 5f 92 3e b5 e6 3d 3e 21 48 c0 3d 81 8f 80 be
       0.28588203 0.18545039 0.093887575 -0.25109485
000240 81 f7 99 be 1b 1a f1 3c d7 91 fc bc 4b 6f a1 bc
       -0.30071643 0.029431393 -0.03083126 -0.019706389
000250 78 a6 9e 3e 93 66 8b be 0b 57 de bd ed c7 ab bd
       0.3098638 -0.27226695 -0.10856446 -0.08387742
000260 36 e7 9a be 0b b8 c2 bd 65 ae 48 3d af 3e c0 bc
       -0.30254525 -0.0950776 0.04899444 -0.02346739
000270 34 54 8f be b5 c6 40 3f 05 b9 49 3f 38 dc c3 bc
       -0.2799393 0.753032 0.7879794 -0.02390872
000280 7a f8 f0 bc eb 6a ba 3d 13 10 d9 bc f8 9e 61 bc
       -0.029415358 0.09102424 -0.026496923 -0.013770811
000290 da 2c 6e 3e e2 fa 3f 3f cb 93 b7 bd cf 00 17 3e
       0.23259297 0.7499219 -0.08963736 0.14746402
0002a0 25 ef f5 3d b6 3a 2e 3f a5 97 00 bf 0c 5c 20 3f
       0.12008504 0.68058336 -0.5023139 0.6264045
0002b0 60 58 05 be 00 bc 34 bd 46 68 02 3e aa 2e a4 3e
       -0.13021994 -0.044124603 0.1273509 0.32066852
0002c0 0b 3f 2e bd a0 47 8b bd 1e 71 9e bd c5 51 b6 3c
       -0.04254059 -0.06800771 -0.07736419 0.022255788
0002d0 59 84 58 bb 45 97 d5 3d 98 95 c5 3d 30 5a 8f 3e
       -0.003303787 0.10429243 0.09647673 0.27998495
0002e0 6e 4e 69 3d e4 f3 1e bc fd 3e 9b 3e a8 bd 51 3d
       0.056959562 -0.009701703 0.30321494 0.05120626
0002f0 59 06 60 3f 0b fa 24 be ad 8a c6 bd a1 90 a9 3d
       0.87509686 -0.16111009 -0.09694419 0.08279539
000300 b4 bb 04 3d c7 ee 87 3c 55 3e 32 3d 23 bc 23 be
       0.03240557 0.01659335 0.043516476 -0.15989737
000310 11 82 5a bd 6c c7 9b bd 5e 3b e7 3e 0e 9a dc 3e
       -0.053346697 -0.07606396 0.4516248 0.43086284
000320 ec ad 91 3c 8e ac cd bb 43 80 e3 3e a8 5e 1f 3e
       0.017783128 -0.0062766736 0.44433793 0.15563452
000330 e5 0a f8 3c 37 b6 3b bd 60 0b ad 3e ec 7b 73 be
       0.030278632 -0.04582807 0.3379774 -0.23777741
000340 ff 6d 77 3e 66 3d 89 bd d9 51 9f bd 0c 88 36 be
       0.24163054 -0.06701164 -0.07779283 -0.17825335
000350 06 36 18 3f de a5 7d 3c 67 ef a4 bd fb 76 bf bd
       0.59457433 0.01548144 -0.08053475 -0.093488656
000360 0f 89 b9 3d df 0c 9b 3d dd b7 56 3e af 3a b5 3e
       0.09059345 0.07570814 0.20968576 0.35396335
000370 96 fa 8d be 3a 34 20 3f fb 03 16 3f ba b9 40 3e
       -0.27730244 0.6257969 0.58599824 0.18820849
000380 c5 ce 9d bd 1d 5c 2b 3e 14 20 a4 be a7 b7 c9 3d
       -0.07705454 0.16734357 -0.32055724 0.09849482
000390 ee 10 1e 3d b0 31 d2 3e 15 38 c0 be d0 26 a2 3e
       0.038590364 0.41053534 -0.37542787 0.31670237
0003a0 47 e3 e6 3e 88 09 30 3f 39 06 23 be 10 c6 02 3f
       0.45095274 0.68764544 -0.15920343 0.5108347
0003b0 a8 f0 df be 5d 05 ec bb 89 92 da 3e 1b b5 4a bc
       -0.43738294 -0.007202788 0.42689922 -0.0123722805
0003c0 ac 93 4f be 13 26 d4 bd d0 a7 75 3e 4d 3e 3c 3f
       -0.20271176 -0.103588246 0.23989797 0.73532563
0003d0 58 3f 3c 3e 1c 23 96 3e f5 06 b7 3c 7d 3c 45 3e
       0.18383539 0.2932366 0.022342185 0.19261356
0003e0 71 12 90 3d 2e 43 ea bd 45 15 0e 3e 28 02 e0 bd
       0.070347674 -0.11438595 0.13875301 -0.10937911
0003f0 fe 07 cc 3e 17 21 8d 3e 58 1c 73 3e b2 a1 20 3e
       0.39849848 0.27564308 0.23741281 0.15686682

network.2.bias f4 [64]
000000 71 01 66 3e 44 9c 92 3e 0f 35 ba 3e ed 82 9f 3e
       0.22461487 0.28634846 0.36368605 0.31154576
000010 67 94 2a 3e 1f 9b 70 bd 5c 92 76 3e 36 8a 97 bd
       0.16658174 -0.058741685 0.24079269 -0.073994085
000020 ce 94 70 bd 61 c6 7b 3e 73 dd 8d 3e 00 00 00 00
       -0.05873566 0.24587394 0.27708015 0.0
000030 f2 f9 98 3e 00 00 00 00 00 00 00 00 a9 1f 3a 3e
       0.29878193 0.0 0.0 0.1817614
000040 00 00 00 00 00 00 00 00 c8 90 8d 3e a9 d5 c7 3e
       0.0 0.0 0.27649522 0.39030197
000050 f5 6c de 3d d3 c5 a3 bd 00 00 00 00 a9 21 96 3e
       0.10860626 -0.07996716 0.0 0.29322556
000060 b5 a0 78 3e 31 96 70 bd c6 9b 70 bd 00 00 00 00
       0.24280055 -0.058736984 -0.058742307 0.0
000070 8c 8e 70 bd 9c ac 5d bd c8 77 80 3e cc 2d 71 3e
       -0.058729693 -0.05411969 0.25091386 0.23552626
000080 b5 61 c0 3e ed 99 70 bd a4 91 70 bd 40 de 74 bd
       0.37574545 -0.058740545 -0.058732644 -0.059782267
000090 07 71 6e 3e d2 bd 9c 3e 31 99 f2 bc 89 9b 70 bd
       0.23285304 0.3061357 -0.029614063 -0.05874208
0000a0 32 72 17 bd 21 99 70 bd 3c 5f 82 3e 00 00 00 00
       -0.03697414 -0.058739785 0.25463283 0.0
0000b0 a5 c0 6d 3e 62 51 70 3e 00 00 00 00 be 52 ab 3e
       0.2321802 0.23468545 0.0 0.33461565
0000c0 2d 9c 70 bd 21 38 a5 bd 00 00 00 00 74 9a 70 bd
       -0.05874269 -0.08067346 0.0 -0.058741048
0000d0 e7 93 71 3e 90 dd 60 bd 44 9b 73 bd ed f8 8b 3e
       0.23591577 -0.0548988 -0.059474245 0.27338353
0000e0 83 36 8c 3e 00 00 00 00 f1 9f 83 3e f5 19 81 3e
       0.2738534 0.0 0.25707963 0.25215116
0000f0 53 c5 8a 3e 8e 9a 70 bd 91 1f 3d bd 42 0d 86 3e
       0.2710367 -0.058741145 -0.046172682 0.2618199

network.4.weight f4 [1, 64]
000000 d3 d7 7c 3e 4d b6 c4 3e f2 44 e7 3e fa 2d c1 3e
       0.24691705 0.38420334 0.4516979 0.3773039
000010 9a 86 cf 3d 9f b7 24 3d de 2b a4 3e 1d 9d 4d 3d
       0.10133095 0.040214177 0.32064718 0.050198663
000020 85 cc 6e 3d 13 30 a5 3e aa e1 a6 3e c4 46 b2 bb
       0.058300514 0.3226324 0.32594043 -0.005440565
000030 8d c7 ac 3e b9 63 ae b8 9b 21 3d 3c 08 18 eb 3d
       0.33745995 -8.315541e-05 0.011543657 0.11479193
000040 ff 27 2f bc ef e6 b1 bc 78 5c 8d 3e 7c 1f 04 3f
       -0.010690688 -0.021716563 0.2760961 0.5161054
000050 e2 a5 09 bf cd 98 8f 3d b3 d4 70 3c 40 0e a3 3e
       -0.5376874 0.07011566 0.014699149 0.3184681
000060 22 1c 93 3e 4b 96 52 3d 5e 96 54 3d 97 46 6d bb
       0.287324 0.05141286 0.051901214 -0.0036205405
000070 dd 87 6d 3d 63 65 53 3d b8 a1 87 3e b0 c6 85 3e
       0.057990897 0.05161036 0.2649057 0.2612815
000080 d0 76 fb 3e bd f0 6a 3d 6f b6 61 3d 30 60 63 3d
       0.49114084 0.057358492 0.055105623 0.055511653
000090 93 cc 62 3e a1 32 bc 3e 51 2e d6 bc ef a1 12 3d
       0.22148351 0.36757377 -0.026145132 0.035798963
0000a0 e6 f3 43 bd 13 ee 6b 3d d9 d9 9e 3e 9b d2 8e 3c
       -0.04784002 0.057600092 0.3102558 0.017434409
0000b0 81 07 7b 3e 80 8c 80 3e bd 1b 09 3a 8e 96 eb 3e
       0.24514581 0.25107193 0.00052302686 0.46013302
0000c0 e3 30 14 3d 0a 1f 70 3d 33 ae a9 bb e9 1c 69 3d
       0.036179435 0.05862335 -0.005178237 0.056912336
0000d0 eb 29 7a 3e 32 32 30 3d 22 22 73 3d 5d 21 ad 3e
       0.24430053 0.04301662 0.059358723 0.33814517
0000e0 d0 30 9e 3e 62 e1 f5 3b ad e1 5a 3e 24 54 95 3e
       0.30896616 0.0075036744 0.21375151 0.29165757
0000f0 33 09 74 3e d2 8f 17 3d 71 73 65 3d 5d be 97 3e
       0.23831634 0.037002392 0.056018297 0.29637423

exp_avg f4 [64, 2]
000000 e1 02 0d 30 60 e9 fb 2d f8 65 49 3a c9 81 67 b7
       5.129959e-10 2.8639036e-11 0.0007682736 -1.3798891e-05
000010 00 00 00 00 00 00 00 00 c6 58 8b 2b c7 f3 b7 2a
       0.0 0.0 9.901184e-13 3.2676485e-13
000020 8e e8 c4 3b a2 23 86 39 31 0d a5 3a 96 2a ae 37
       0.006009168 0.0002558502 0.0012592432 2.0762247e-05
000030 22 29 69 3b f6 7a 16 39 d1 21 0f 3c 34 92 c7 39
       0.0035577496 0.00014350921 0.00873609 0.00038065168
000040 0d 4d e1 3b 58 d4 77 39 00 00 00 00 3c 48 48 2b
       0.0068756402 0.0002363486 0.0 7.115452e-13
000050 09 f2 70 2f f1 eb 0e 2f f2 9f 8e 2d 6d 14 d6 29
       2.1913861e-10 1.2998648e-10 1.6214561e-11 9.5070524e-14
000060 07 53 09 3c 52 48 ba 39 00 00 00 00 00 00 00 00
       0.008381612 0.00035530567 0.0 0.0
000070 00 00 00 00 00 00 00 00 27 8e 77 2e 2a 55 26 2c
       0.0 0.0 5.6287554e-11 2.3637294e-12
000080 00 00 00 00 00 00 00 00 00 00 00 00 00 00 00 00
       0.0 0.0 0.0 0.0
000090 00 00 00 00 00 00 00 00 00 00 00 00 00 00 00 00
       0.0 0.0 0.0 0.0
0000a0 00 00 00 00 00 00 00 00 4a 38 f0 38 f2 9d d3 b7
       0.0 0.0 0.000114545765 -2.522671e-05
0000b0 00 00 00 00 4e 78 92 2a 43 5b 99 3b 03 a7 ac 39
       0.0 2.6018288e-13 0.0046800687 0.0003293083
0000c0 00 00 00 00 00 00 00 00 00 00 00 00 00 00 00 00
       0.0 0.0 0.0 0.0
0000d0 70 65 43 30 67 3f 73 2e 08 0b a2 3b 55 2d 8e 39
       7.108474e-10 5.5308116e-11 0.0049451627 0.00027118126
0000e0 ea 91 8e 3b 73 a2 62 39 f8 f6 e7 3b 18 d2 74 39
       0.0043508904 0.00021613557 0.0070790015 0.0002334792
0000f0 4d d0 a3 3b 89 2c 55 39 52 49 e2 2f a7 f0 18 2e
       0.0049991966 0.00020329854 4.1161258e-10 3.477454e-11
000100 c2 6d 1b 3c 28 b2 10 3a 00 00 00 00 00 00 00 00
       0.0094866175 0.00055197114 0.0 0.0
000110 d7 4c fb 3b c8 66 b6 39 00 00 00 00 00 00 00 00
       0.007669072 0.00034790323 0.0 0.0
000120 9a cb a9 3b 9d 75 41 39 00 00 00 00 00 00 00 00
       0.005181742 0.00018449729 0.0 0.0
000130 2f a9 40 3b e3 17 48 39 ec 18 c1 3b e0 26 63 39
       0.0029397716 0.00019082385 0.0058928635 0.00021662889
000140 00 00 00 00 00 00 00 00 77 3c 10 32 dc 8c 51 2f
       0.0 0.0 8.395651e-09 1.9058483e-10
000150 00 00 00 00 32 c0 b6 2a 00 00 00 00 00 00 00 00
       0.0 3.2463057e-13 0.0 0.0
000160 54 f8 0f 2f 79 ef 89 2d 61 98 8d bb f6 4e 07 ba
       1.3093998e-10 1.5681444e-11 -0.0043211435 -0.00051616074
000170 00 00 00 00 00 00 00 00 e5 50 d9 3b 1d 42 5b 39
       0.0 0.0 0.006631958 0.00020910097
000180 ee 3f b4 3b ab fb 76 39 00 00 00 00 45 69 ac 27
       0.005500785 0.00023554142 0.0 4.7853724e-15
000190 3b 72 11 3b 64 3a 2f 39 0c 1e 9a 2b 1c 30 1e 2b
       0.002219333 0.00016711053 1.0950698e-12 5.619964e-13
0001a0 4d 0f 06 3c 96 8e b8 39 00 00 00 00 04 34 42 2b
       0.008182359 0.0003520145 0.0 6.899483e-13
0001b0 f4 8e c6 3a 97 8f 1b 39 f4 8c 08 39 10 e6 9e b6
       0.0015148805 0.00014835443 0.0001302248 -4.7355497e-06
0001c0 00 00 00 00 94 61 c6 2a fd 4a 98 3b 43 b9 7d 39
       0.0 3.5239574e-13 0.004647611 0.00024196976
0001d0 d6 27 40 3b 9e b9 be 38 a6 51 a2 3b 90 ae 0e 38
       0.002932062 9.09448e-05 0.004953581 3.4018012e-05
0001e0 00 00 00 00 77 f7 cd 29 00 00 00 00 00 00 00 00
       0.0 9.146757e-14 0.0 0.0
0001f0 05 fb ac 3a 11 95 49 b8 00 00 00 00 00 00 00 00
       0.0013197368 -4.8060963e-05 0.0 0.0

exp_avg_sq f4 [64, 2]
000000 a6 15 d4 34 d0 0f c1 30 38 85 ab 35 38 9a d7 32
       3.9503828e-07 1.4047092e-09 1.2779265e-06 2.5099425e-08
000010 00 00 00 00 00 00 00 00 12 bf 02 2e 38 d9 63 2c
       0.0 0.0 2.9728282e-11 3.237922e-12
000020 70 19 80 37 c7 c6 ec 33 45 34 76 37 08 d1 e2 33
       1.5270634e-05 1.1025764e-07 1.4674913e-05 1.0561968e-07
000030 c0 18 18 37 09 aa 7d 33 75 6e d0 37 0c 4c 44 34
       9.065669e-06 5.90608e-08 2.4846968e-05 1.8281588e-07
000040 ae be a1 37 39 5d 25 34 00 00 00 00 79 0c 87 2d
       1.9281488e-05 1.5400737e-07 0.0 1.5353262e-11
000050 6b 92 e2 32 1a c5 b9 30 51 4f 8b 31 b1 c9 08 2c
       2.6376446e-08 1.3516541e-09 4.0544497e-09 1.9438724e-12
000060 3a 37 8d 37 0c d0 03 34 00 00 00 00 00 00 00 00
       1.6834227e-05 1.2276013e-07 0.0 0.0
000070 00 00 00 00 00 00 00 00 5c 77 03 34 74 2e c5 2f
       0.0 0.0 1.2243748e-07 3.5867098e-10
000080 00 00 00 00 00 00 00 00 00 00 00 00 00 00 00 00
       0.0 0.0 0.0 0.0
000090 00 00 00 00 00 00 00 00 00 00 00 00 00 00 00 00
       0.0 0.0 0.0 0.0
0000a0 00 00 00 00 00 00 00 00 3a 14 1f 36 35 ef 0c 33
       0.0 0.0 2.370462e-06 3.2813848e-08
0000b0 00 00 00 00 8a 74 10 2c 17 d0 0a 37 88 11 70 33
       0.0 2.0528323e-12 8.273891e-06 5.58953e-08
0000c0 00 00 00 00 00 00 00 00 00 00 00 00 00 00 00 00
       0.0 0.0 0.0 0.0
0000d0 f5 88 4a 35 56 2a 80 31 47 f2 36 37 36 7e a1 33
       7.545016e-07 3.7301033e-09 1.0904455e-05 7.5201044e-08
0000e0 e6 ef 1c 37 33 34 8f 33 8c 0f 67 37 a8 f3 e0 33
       9.35418e-06 6.6684514e-08 1.3772293e-05 1.0475134e-07
0000f0 18 07 08 37 d6 83 78 33 47 01 53 35 b4 ef 99 31
       8.107883e-06 5.7861904e-08 7.8605484e-07 4.480137e-09
000100 f9 00 98 37 dc a7 16 34 00 00 00 00 00 00 00 00
       1.8120265e-05 1.4030906e-07 0.0 0.0
000110 bc c0 79 37 8a 6d ee 33 00 00 00 00 00 00 00 00
       1.4886431e-05 1.1102664e-07 0.0 0.0
000120 c2 69 b1 37 55 e0 27 34 00 00 00 00 00 00 00 00
       2.1149292e-05 1.5634699e-07 0.0 0.0
000130 fd 98 ac 37 1b 86 0f 34 c6 5c 65 37 1b 67 db 33
       2.0575239e-05 1.33667e-07 1.3671064e-05 1.0216737e-07
000140 00 00 00 00 00 00 00 00 c4 99 86 36 c3 c3 b3 32
       0.0 0.0 4.011412e-06 2.0927365e-08
000150 00 00 00 00 de e1 60 2c 00 00 00 00 00 00 00 00
       0.0 3.1957696e-12 0.0 0.0
000160 0a 6c 62 34 6c 98 20 30 4f 1f 01 37 59 4a 86 33
       2.1087195e-07 5.8424265e-10 7.696289e-06 6.253385e-08
000170 00 00 00 00 00 00 00 00 b6 40 82 37 cc 2f d0 33
       0.0 0.0 1.5527341e-05 9.694449e-08
000180 7b 29 15 37 ab 3b 8e 33 00 00 00 00 bc 27 48 26
       8.89075e-06 6.623244e-08 0.0 6.944279e-16
000190 07 23 92 36 6f 6b 0a 33 fa ee 1f 2e 53 7e 28 2d
       4.355217e-06 3.222834e-08 3.6364668e-11 9.577744e-12
0001a0 b4 11 c8 37 1e 54 50 34 00 00 00 00 51 f3 7d 2d
       2.3850102e-05 1.9402111e-07 0.0 1.4435412e-11
0001b0 84 40 40 37 7c 55 86 33 c6 70 42 34 1b 35 62 32
       1.1459113e-05 6.255411e-08 1.8108685e-07 1.3167006e-08
0001c0 00 00 00 00 57 7f 84 2c 23 4c 04 37 72 04 54 33
       0.0 3.765803e-12 7.88554e-06 4.936414e-08
0001d0 9c 3f 16 37 f6 49 5b 33 4a 70 b7 37 cc 4b fb 33
       8.955507e-06 5.1057178e-08 2.1867589e-05 1.1701886e-07
0001e0 00 00 00 00 df d2 8e 2a 00 00 00 00 00 00 00 00
       0.0 2.5370588e-13 0.0 0.0
0001f0 98 54 d9 36 e2 f5 5f 33 00 00 00 00 00 00 00 00
       6.476952e-06 5.2144863e-08 0.0 0.0

exp_avg f4 [64]
000000 f5 c0 15 30 66 80 47 39 00 00 00 00 aa 61 04 2d
       5.448009e-10 0.00019025951 0.0 7.525017e-12
000010 3d c0 18 3c fe 41 e0 3a 02 3b b9 3b fc 5b 64 3c
       0.009323177 0.0017109511 0.005652786 0.013937946
000020 62 58 19 3c d4 ad 10 2e cd 62 bc 31 21 30 3b 2e
       0.009359451 3.28962e-11 5.4827525e-09 4.2561624e-11
000030 43 55 46 3c 00 00 00 00 00 00 00 00 cb a6 d0 2e
       0.012105289 0.0 0.0 9.488373e-11
000040 00 00 00 00 00 00 00 00 00 00 00 00 00 00 00 00
       0.0 0.0 0.0 0.0
000050 00 00 00 00 b8 6e a4 ba d9 9c 53 2d 64 13 2b 3c
       0.0 -0.0012545204 1.20287886e-11 0.010441635
000060 00 00 00 00 00 00 00 00 f6 0b 98 30 92 92 21 3c
       0.0 0.0 1.1062855e-09 0.009861605
000070 26 39 ed 3b 43 b6 0f 3c ed e0 ef 3b 2c 33 31 30
       0.0072394786 0.008771482 0.0073205144 6.4464944e-10
000080 9b f7 94 3c 00 00 00 00 4b 03 51 3c 00 00 00 00
       0.018184474 0.0 0.012757133 0.0
000090 d3 6a 09 3c 00 00 00 00 eb fb ae 3b a9 6f f5 3b
       0.008387285 0.0 0.0053400896 0.0074901176
0000a0 00 00 00 00 a5 4d d7 32 cf 03 84 2d 00 00 00 00
       0.0 2.5064603e-08 1.5008354e-11 0.0
0000b0 24 d3 17 30 d9 29 38 bc 00 00 00 00 8e 2c 1e 3c
       5.523353e-10 -0.011240446 0.0 0.009654177
0000c0 09 64 02 3c 68 17 79 2a 0d 5a 8f 3b 66 af d9 2d
       0.007958421 2.2123763e-13 0.0043747486 2.4747936e-11
0000d0 06 0d 39 3c 9e 49 0c 2e 9f 13 42 3b ac 58 2e 39
       0.011294609 3.18977e-11 0.0029613746 0.00016626966
0000e0 4a 4e 8f 2d 07 0b 0c 3c b9 8a 90 3b 79 2e b8 3b
       1.6291985e-11 0.008547551 0.0044110683 0.0056207743
0000f0 10 c9 94 2c 00 00 00 00 da 23 a5 3a 00 00 00 00
       4.2287354e-12 0.0 0.0012599186 0.0

exp_avg_sq f4 [64]
000000 e5 dc 4d 35 e9 a1 1f 38 00 00 00 00 3b 01 ec 30
       7.6689895e-07 3.8059345e-05 0.0 1.717161e-09
000010 2a a6 d5 38 e6 e7 be 38 61 c0 47 38 65 19 38 39
       0.00010187582 9.1031005e-05 4.7624464e-05 0.00017557068
000020 db 04 2e 39 b1 f1 0c 33 e8 56 23 36 2e 14 29 33
       0.00016595742 3.2816107e-08 2.4339479e-06 3.9366732e-08
000030 6d b9 ef 38 00 00 00 00 00 00 00 00 cc 7d 97 34
       0.00011430946 0.0 0.0 2.821747e-07
000040 00 00 00 00 00 00 00 00 00 00 00 00 00 00 00 00
       0.0 0.0 0.0 0.0
000050 00 00 00 00 ea ee 56 38 e0 c2 96 31 e7 9d 65 38
       0.0 5.1244082e-05 4.3877293e-09 5.4744913e-05
000060 00 00 00 00 00 00 00 00 c4 bb 3c 36 3c 0f 79 38
       0.0 0.0 2.8123477e-06 5.9380414e-05
000070 90 d0 5d 38 a6 09 c3 38 ba 0a 43 38 8a 1e 12 36
       5.2884745e-05 9.300122e-05 4.6501613e-05 2.1773471e-06
000080 ef e1 ee 38 00 00 00 00 d1 93 bf 38 00 00 00 00
       0.00011390808 0.0 9.135123e-05 0.0
000090 c4 dc 23 39 00 00 00 00 bb a4 ee 38 39 16 c6 38
       0.00015627133 0.0 0.00011379408 9.445515e-05
0000a0 00 00 00 00 fe 8f 3f 37 07 b3 ea 31 00 00 00 00
       0.0 1.1418013e-05 6.8306494e-09 0.0
0000b0 96 48 fd 34 ab da 85 38 00 00 00 00 41 0e c1 38
       4.7177735e-07 6.382664e-05 0.0 9.205612e-05
0000c0 38 ad 87 38 91 e4 d0 2b e9 87 d5 37 b1 89 9f 32
       6.469566e-05 1.4842729e-12 2.5454867e-05 1.8572651e-08
0000d0 11 5f 2e 39 ae 84 04 33 85 e6 4f 38 13 2c bf 37
       0.00016629348 3.0854316e-08 4.9567334e-05 2.2789498e-05
0000e0 0f 48 0a 32 36 fd 34 38 54 07 4b 38 d0 d2 f1 38
       8.049041e-09 4.3151165e-05 4.8405796e-05 0.000115310424
0000f0 fc 0e 15 30 00 00 00 00 cd 78 4e 38 00 00 00 00
       5.422718e-10 0.0 4.922673e-05 0.0
