data/models/production/test_historical_small.pth (torch, 198451 bytes, 39 tensors)

shared_backbone.0.weight f4 [64, 2]
00000000: c00c febc d195 8dbd 8b93 1a3d e56d 2f3d
00000010: ef20 72be c429 03bd c4b9 b53e 75a0 dabc
00000020: 4380 8abe d3c8 9dbd a78c 813b d794 ba3c
00000030: 5028 c4b8 2930 153e be62 823e f75b 133e
00000040: 5e98 9d3b 11b4 1b3e 9efd e7bd df47 cf3d
00000050: b419 793c 495b 1c3e eb36 103c fda5 073c
00000060: 6b20 b8be 07ba 82bc 3efb ccbe b256 27bd
00000070: 3f91 81bc b074 a63d 2c29 07be 2415 4cbd
00000080: 8608 a03e 8067 47be d64b 86bd e91f cabc
00000090: 1382 4ebe ac3e 89bb a6a3 55bd 8959 74bc
000000a0: 5085 e8bd ae49 7d3d 6eb7 143f ad6d 3abe
000000b0: db87 8cbd 292d 73bd c73e 83bc daf6 053e
000000c0: 57b4 81be f79c c3bd 592e c4bd 5a60 0e3d
000000d0: 1552 29bd 2c11 f9bd 11ef fdbd 1d2c 8dbe
000000e0: 1b1f 7ebd d068 8e3e 7dce febd 3959 09bd
000000f0: 5d2a 41be 295d 47be 03de 12bf 6594 d13d
00000100: 550d 40be bcaf bbbc 24b3 633e 75eb 97be
00000110: 2dbc 89be ab42 29bd 1866 87be 0a31 43bd
00000120: 609c 513a c3eb 8fbd 8b75 00bc 274e c6be
00000130: 7c39 c3bc 0cfe 86bd f1d6 e1bd 8217 8f3d
00000140: 9d2c f93d 7a3a fbbe 57b7 723c 683c c6bd
00000150: 17d8 7a3e d87a 24be 6969 6d3c 098f 0c3e
00000160: 9165 82ba b08d d23d 92a0 7cbe 3736 ff3d
00000170: ed89 353c fe51 9e3d b2fc a3be 81a0 a53e
00000180: f334 23bd 8035 a6bd c14f 033e fdfd 383d
00000190: a4a0 6bbf 569b ac3e ad25 12be 6e84 87be
000001a0: ee41 b6bc 91df 85bd 5635 2e3f 5162 1cbe
000001b0: d942 a73d b56e b93e 157d a5bd c2f5 6fbd
000001c0: de5f 303c 5b93 41be 6a2c 4abe cbcf f53d
000001d0: 1926 12bd 8dfa 50be 433c 363e e5ac 7cbe
000001e0: 13e6 8dbe f4d8 1e3c 00e9 a53d db95 53be
000001f0: ccbf b6bd c1be c43e f019 ddbb 91c2 47be
-0.031011939 -0.06913341 0.037738364 0.042829413 -0.23645376 -0.032022253 0.3549329 -0.02668784
-0.2705098 -0.0770432 0.0039535346 0.02277605 -9.353517e-05 0.14569153 0.2546596 0.1439055
0.0048094233 0.15205409 -0.113276705 0.1012113 0.015203882 0.15269198 0.008802156 0.008279321
-0.35962233 -0.015957845 -0.40035433 -0.040854163 -0.015816329 0.08127725 -0.131993 -0.04982485
0.31256503 -0.19473076 -0.06557433 -0.02467342 -0.20166807 -0.0041883793 -0.05215802 -0.014913925
-0.11353552 0.061837845 0.5809239 -0.182059 -0.0686185 -0.05936924 -0.016021146 0.13082448
-0.253329 -0.09551423 -0.095791526 0.034759857 -0.041338045 -0.121614784 -0.12399114 -0.27572718
-0.062041383 0.2781434 -0.12441728 -0.033532355 -0.18863817 -0.19469132 -0.57370013 0.10233382
-0.18755086 -0.022910945 0.22236305 -0.29671827 -0.2690138 -0.041323345 -0.2644508 -0.04765419
0.0007996019 -0.0702739 -0.007840524 -0.387315 -0.023831122 -0.06591424 -0.11027325 0.06986906
0.121667124 -0.49068052 0.014814219 -0.0967949 0.24496494 -0.16062486 0.014490464 0.13726439
-0.0009948482 0.10280931 -0.24670628 0.124615125 0.011080247 0.077304825 -0.3202873 0.32349017
-0.03984542 -0.08115673 0.12823392 0.045164097 -0.92041993 0.33712262 -0.14272185 -0.26468223
-0.022248235 -0.065367825 0.68050134 -0.1527188 0.08167047 0.36217275 -0.08080498 -0.058583982
0.010765044 -0.18903868 -0.19743505 0.12002524 -0.035680864 -0.20408078 0.17796426 -0.24675329
-0.27714595 0.00969528 0.08101082 -0.20662634 -0.08923301 0.38426784 -0.0067474768 -0.19507815

shared_backbone.0.bias f4 [64]
00000000: e2f6 88bd 3025 0bbd 9dfb 75bd ae85 40bd
00000010: 0000 0000 e5c5 42bd 22dc b5bd 3998 35bd
00000020: 9a37 cebd 8cfb 75bd c9df 22bd 9b59 d3bd
00000030: 59f3 d6bc 72fb 75bd 3eea 2fbd 0000 0000
00000040: 5c69 dfbc 14f3 75bd 0000 0000 08fc 75bd
00000050: 33fb 75bd 2b59 95be a4f9 75bd 597a 8cbd
00000060: 0000 0000 f4fa 75bd 0000 0000 0000 0000
00000070: 5cb1 92bc 0000 0000 0000 0000 3af9 75bd
00000080: 0000 0000 8dfb 77be 1dfa 75bd 725d 59bd
00000090: 24d0 9abd 0000 0000 0000 0000 0c54 02bd
000000a0: 3b05 e1bd a2bc 3bbd bb82 9cbe 85e0 a6bd
000000b0: bf80 8bbd 1911 c7bb b735 42bd 7526 25bd
000000c0: 3501 d5bd b3dc 00be af2e eb3e 0000 0000
000000d0: 58f5 2ebd 756d b0be ea98 bcbd 0000 0000
000000e0: 226d 10bd ffb3 d6bc b6ee 87bd 9185 1bbd
000000f0: acfb 75bd 9708 60bc edfb 75bd 8151 4ebd
-0.06687714 -0.03397101 -0.06005441 -0.047002487 0.0 -0.04755201 -0.088798776 -0.044334624
-0.10069199 -0.060054347 -0.0397642 -0.10319825 -0.026239084 -0.06005425 -0.042948 0.0
-0.027271919 -0.06004627 0.0 -0.06005481 -0.060054015 -0.29169592 -0.06005253 -0.068592735
0.0 -0.06005378 0.0 0.0 -0.017906837 0.0 0.0 -0.060052134
0.0 -0.24217053 -0.06005298 -0.053067632 -0.07559231 0.0 0.0 -0.031818435
-0.10987326 -0.04583419 -0.3056849 -0.081482925 -0.06811666 -0.0060750362 -0.047414508 -0.04031988
-0.10400621 -0.1258419 0.45934054 0.0 -0.042714447 -0.3445851 -0.092088535 0.0
-0.035260327 -0.026208876 -0.066373274 -0.037969176 -0.060054466 -0.013673923 -0.06005471 -0.050370697

shared_backbone.2.weight f4 [64, 64]
00000000: 2433 1e3e 8418 93bd e3f3 a33d f962 9cbd
00000010: ffc3 9abe 19d0 b4bd 4852 95be 4e14 d93d
00000020: 762f 9c3d 2c35 3bbe 4e3c a2be 97f9 7bbd
00000030: 1e8f 8c3e 3ea8 0d3c 1a86 11bf 9124 0cbe
00000040: cb72 35be f311 8d3e 72d2 c1bd 59cf 643d
00000050: d147 24be b589 08be f34b dfbd 5bb6 86be
00000060: 9f10 48be 5536 74bd 1046 0e3e 9eb9 983e
00000070: 05b6 db3d b1e5 2c3e 53a0 9cbd 6c25 323e
00000080: bd0c 96bd b44e 053e 6a44 183e d325 47be
00000090: d52b d7bd 37d5 5d3d 8fa9 31bd f850 ae3e
000000a0: a003 bfbd a4f4 5a3e d7c9 48bd ae54 d33d
000000b0: 2126 933d cd7b c0be a477 8abd 8ea5 f93d
000000c0: a08b 11be d929 a1bd 98e5 0dbe 22b5 2cbe
000000d0: b04b f43d 5768 bd3d af55 79be c5db 903e
000000e0: 99b4 0ebe 8b21 30bd 587f 983c ae12 81bd
000000f0: 4f20 5bbd 413e 7abc 0d1f e93d 674c adbd
00000100: cd4a de3d cf69 82be 52ad 9a3e 55ad 1d3e
00000110: d9a6 5bbe 6623 68be 7463 a9bd 8a4b ffbd
00000120: c401 2c3d 7886 c7bd cf5b 52be c6f8 00be
00000130: 40a0 103e 3057 46be e6a6 5a3c 183a 353e
00000140: f4cc 5fbe 5894 093e d8da 1abb ca12 acbe
00000150: d3a9 02bc 9afb 243e 3d9a 633e 7ac5 1e3e
00000160: 8b47 8cbd 49f3 393d 461b 983c 0f25 3abe
00000170: 57ed 20be e4b5 dabd 65af 8e3e 710c 45be
00000180: e752 c53d 8c8c f3be 4773 333d e748 ad3d
00000190: 7bfb 0dbe 4c1c 7c3b 6b8f 283e af8d 00be
000001a0: c366 b03d 7dc4 9cbc 9dc7 dfbe 17b7 47be
000001b0: c7af af3d 9926 2b3d 5c8a fabd b35d 893e
000001c0: f891 8bbe 646b 303e d065 953e 59fa 00be
000001d0: 8967 09bd 809d f63d 1c60 81bb 5c9b 8d3e
000001e0: 8c0f 5abe 0681 e9bd 035a 89be 84fd 5bbe
000001f0: 077f 56be e281 8cbe 6e70 983e 1111 70be
00000200: 6648 4fbc 104b 74bd ea2c 81be 3c78 dfbe
00000210: cd3d fdbd 97d1 3fbe e4ba 073e ebbe 0abe
00000220: 0d39 a63d 5130 233e 2f6a 71be 5359 d1bd
00000230: 8feb 023e dd5f 70bb 6f76 2dbd 1f99 873d
00000240: 8017 c3bd a550 22be fd5e ed3e 5652 7e3d
00000250: 6bdb af3d 267a 71be d5fd 69be 63a6 73bd
00000260: bea0 393d 2a4c fbbd 1940 28be fd5f a43e
00000270: 7c22 38be a552 b03d 3ccc ccbd 6b47 5fbd
00000280: a456 bf3e f901 b1be 3a8e 023e a73e c2bd
00000290: 8303 6ebe 74fe 4abd cc1e 4abe 2b00 80be
000002a0: ddb0 ab3c 6308 7cbd 97a2 b6be 2475 8dbd
000002b0: 1db2 b83c 0e67 183e 169a edbe f01a 30be
000002c0: 5863 4fbd 545c 56be bce7 2d3e 9d66 e03d
000002d0: 92e4 153d 48fc debe 0fce 6f3e 4a33 183d
000002e0: 6ddf 663b 20bd a4bd be9c 3dbd cd48 1fbd
000002f0: 6182 7abb 3bec 3dbf f01b 02bd a1f0 17be
00000300: 0c24 0bbe c7f8 9cbe 5246 313d a5f6 85be
00000310: 5047 c4bd cdb9 43be 7248 1a3e b27e 44be
00000320: 6ca9 543e 3483 4f3e 572d 09be be9e 183f
00000330: 8451 9a3e 0e48 7fbe 1209 06bc 663d 783d
00000340: b102 7bbe c5dc 0b3e 612b 9ebd 99b3 5b3d
00000350: 34a3 27bd 318a 04be 0d19 2d3d 297a e5bc
00000360: 6b33 56be afbc b2be 4571 f93c f28d 57be
00000370: e0c0 80bd cb63 7bbe cb3f 853e 13b8 44be
00000380: 43c0 c83d b74f 363e 7e68 543b 423a a13e
00000390: 4715 56be 15eb c13d 6e7d 543e 8e2b b33c
000003a0: 3d05 0ebe d5b5 bf3d 3be4 26be 203e 903e
000003b0: 9576 c4be 94f8 0dbe b739 9cbd 8c44 cdbd
000003c0: 91bd f93d e07c b7bd 3383 23be 8d1e f93d
000003d0: 5ea9 49be fefd 3dbe f2cf f03d 5085 b63d
000003e0: b06c 79bd 7382 053d 30cd 86bd cd3f 1fbe
000003f0: 673e 093d 3e2a 9e3d 097d 21be baa6 ff3d
0.15449196 -0.0718241 0.08005502 -0.07636065 -0.30227658 -0.08828754 -0.29164338 0.10599576
0.0762624 -0.18282002 -0.31686634 -0.061517324 0.2745294 0.008646069 -0.5684525 -0.13685824
-0.17719571 0.27552757 -0.094639674 0.055861805 -0.16043021 -0.13333781 -0.10903158 -0.26311
-0.1953759 -0.059622128 0.13893914 0.29829115 0.10728077 0.16884495 -0.07647767 0.17397088
-0.073266484 0.13018304 0.14869848 -0.19448023 -0.10506407 0.054158416 -0.043374594 0.3404615
-0.09326863 0.21382385 -0.049020614 0.10318886 0.07185007 -0.37594453 -0.06761101 0.1218978
-0.14213419 -0.0786931 -0.13857114 -0.16865972 0.11928499 0.09248417 -0.24349092 0.2829267
-0.1393608 -0.04300074 0.01861541 -0.06302391 -0.05349761 -0.015273632 0.113828756 -0.08461838
0.10854111 -0.2547135 0.30210358 0.15398152 -0.21450366 -0.22669753 -0.08270922 -0.1246558
0.04199387 -0.09742445 -0.20542835 -0.125949 0.1412363 -0.19369197 0.013345456 0.17697942
-0.21855527 0.13435495 -0.0023628976 -0.33608085 -0.00797506 0.16111603 0.22226806 0.15505019
-0.06849583 0.04539803 0.018567692 -0.18178199 -0.15715538 -0.10679224 0.2786819 -0.19243027
0.09634953 -0.47568166 0.04381111 0.08461171 -0.13865463 0.0038469015 0.1646096 -0.12554048
0.0861335 -0.019136662 -0.4370698 -0.19503437 0.08578449 0.041784856 -0.12233421 0.268293
-0.27259803 0.17228466 0.2917924 -0.125955 -0.033546004 0.120417595 -0.0039482247 0.27657592
-0.21294993 -0.114015624 -0.26826486 -0.21483427 -0.20946895 -0.27442843 0.29773277 -0.2344401
-0.0126515385 -0.059641898 -0.2522958 -0.4364642 -0.12365303 -0.18732296 0.13254887 -0.13549392
0.0811635 0.159364 -0.23575662 -0.10222115 0.12785171 -0.0036678233 -0.042349275 0.066210024
-0.09525967 -0.15851076 0.46361533 0.06209024 0.085867725 -0.23581752 -0.22850735 -0.05948485
0.04531931 -0.122703865 -0.16430701 0.32104483 -0.17981905 0.08609513 -0.09999892 -0.05451147
0.3737079 -0.34571818 0.12749568 -0.09484606 -0.23243527 -0.04955907 -0.1973831 -0.25000128
0.020958358 -0.061531436 -0.3567092 -0.069071084 0.022545869 0.14883062 -0.4640662 -0.17197776
-0.05063185 -0.20933658 0.16982931 0.10957072 0.036594935 -0.4355185 0.23418449 0.037158288
0.0035228387 -0.08043885 -0.04629206 -0.038887788 -0.0038224685 -0.74188584 -0.031764925 -0.14837886
-0.1358797 -0.30658552 0.043279953 -0.26164737 -0.09583914 -0.19113846 0.15066698 -0.19188955
0.20767754 0.20264894 -0.13396202 0.5961722 0.30140316 -0.2492983 -0.0081808735 0.06060543
-0.24512745 0.13658436 -0.077231176 0.053638075 -0.040927127 -0.12943341 0.04226022 -0.028012352
-0.20918052 -0.3490958 0.030449519 -0.21050242 -0.06286788 -0.24549787 0.26025233 -0.19210844
0.09802296 0.17803846 0.0032410915 0.3148976 -0.20906554 0.094686665 0.20750973 0.021871354
-0.13869186 0.093608536 -0.16298 0.28172398 -0.3837172 -0.13864356 -0.07628196 -0.1002284
0.1219436 -0.08959365 -0.15968017 0.1216403 -0.19693515 -0.18553922 0.117584124 0.08912146
-0.060894668 0.03259511 -0.06582105 -0.15551682 0.033506777 0.07722901 -0.15770353 0.124829724

shared_backbone.2.bias f4 [64]
00000000: 0000 0000 f73c 3abe 09a3 b6bd f8b9 10be
00000010: 4ffb 75bd 93fa 75bd 443a 27bd d5fb 0fbd
00000020: f39d 9dbd 35fc 75bd 154a 88bd f483 273e
00000030: 6053 95bd d4fd 523e 55da 0a3e ea17 59bd
00000040: bbb6 8dbd 3df1 dfbb 496d 883e 30e2 4c3e
00000050: 8cab bfba 3b9c da3d c7fb 75bd bb52 0b3e
00000060: 227e 1bbd 2dfc 75bd f71b 9abd ee3a a6bc
00000070: 79e6 e7bd 0c33 0ebe 4b91 fcbc 8f8b dc3d
00000080: b5c8 0ebe 6acb 9c3d 69bc 8abd c48f d3b8
00000090: 4ffb 75bd 383a 4d3e 1cbf 91bd 158e 31bd
000000a0: 71b1 503e bf82 d0bd f1a5 a8bd 9bea 8bbc
000000b0: 2113 8fbd 4fc9 78bd 1b59 a6bd 2300 b0bd
000000c0: 1eca 1bbd 5dec acbd c37c c5bc 1832 1ebe
000000d0: d854 bd3d 34fc 75bd c537 64bd b752 d1bd
000000e0: bcfb 75bd ceb3 203e d2cf 93bd 1c37 ac3d
000000f0: e81a 8fbd 7a12 2f3e 86fb 75bd 529e bdbd
0.0 -0.18187319 -0.08917815 -0.14133441 -0.06005412 -0.06005342 -0.04082705 -0.035152275
-0.07696142 -0.060054976 -0.06654755 0.1635893 -0.07291293 0.2060464 0.1355985 -0.05300132
-0.06919619 -0.0068341778 0.26645878 0.20008159 -0.0014623269 0.1067433 -0.060054567 0.13605778
-0.037962086 -0.060054947 -0.07524865 -0.020291772 -0.11323256 -0.1388666 -0.030831 0.10768806
-0.13943751 0.07655986 -0.06774218 -0.000100880425 -0.06005412 0.2004174 -0.07116529 -0.04334839
0.20380189 -0.10181188 -0.08234776 -0.017079642 -0.069860704 -0.060738858 -0.08122464 -0.08593776
-0.03803455 -0.0844352 -0.024107343 -0.15448797 0.09244698 -0.060054973 -0.05571725 -0.10220855
-0.060054526 0.1569359 -0.07217373 0.08408949 -0.06987554 0.17096892 -0.060054325 -0.09258713

goal_head.weight f4 [2, 64]
00000000: 2129 51bd 4196 67be 49b4 95bd 9818 853d
00000010: 0d77 033e cdd9 813c 5819 c0bb cd87 0c3e
00000020: e588 ef3d cccf 40be 0837 4f3e 218f a3bf
00000030: bb41 883d 6505 8fbf c53b 52bf 6b12 a53d
00000040: 9247 9f3d d669 69bc a6d2 cb3d 465d b23e
00000050: 219c a1be dc72 e63e 7521 02be ebbf 31bf
00000060: a316 87bc 8316 22be 03f1 4f3e 86dd 533d
00000070: d59f fb3c 7d30 49be 61fc 50bb a575 2ebf
00000080: b925 a83e 22f4 61bf db43 9d3c 34bb 9cbc
00000090: 32f3 07be 38a0 c3bf 4294 d63d 5a8f cebd
000000a0: 5af8 c1bf dd83 913d 4fb1 543e e090 c73b
000000b0: 829e 9abd b37d a53b 58d4 753d 1fd3 58be
000000c0: 4937 15bf a960 e6bc c65a febd 1077 c1bd
000000d0: 5628 4ebf 434c a13e c919 c63d a5be 9cbc
000000e0: 5cb6 4dbe 7159 80bf 1bdf e53d 6c08 c7bd
000000f0: 109c 4abe 5fd1 c6bf 68b1 ad3e 2ea8 bfbd
00000100: bc7c 4c3d f91d 7b3e 1a9f 853e 2fce 42bd
00000110: 9251 08be 1968 5fbe baa6 c4bd 3ace 513d
00000120: c564 5cbe 24d4 1c3e 2823 0f3e 1907 b73f
00000130: 093c cd3d 5f1b ad3f 9c37 f23e 17f7 2b3e
00000140: 0831 923d 33f7 b93d be81 d4bd 0d17 043e
00000150: 4a57 f73c 714f d6be 2775 4bbd 2fdb 6b3f
00000160: 9d4a 443e 31db 153d dfe3 00be fa2a 4abe
00000170: 4db9 afbd cdb6 83be 9381 173e 7cbf 233f
00000180: 1749 fb3d ca3f c53e d17a 0dbe c477 2f3d
00000190: ef21 023f 9466 8a3f 0df7 1bbe dfe2 ba3c
000001a0: 74f3 c13f f668 6f3e 14b2 a53d 2ae8 6e3e
000001b0: 7600 f13c 4943 f03d e4ba 62be aae1 97be
000001c0: 64b2 0dbd dac3 4d3e 6f1d 253e 221f 193d
000001d0: ac88 423f b476 323e b732 21be bf77 93be
000001e0: fc9d 38be 6fac 863f f00a 94bd afb4 b23c
000001f0: 3f95 1b3c 6ba3 933f 8e97 02bd 6dee abbe
-0.051064614 -0.22615911 -0.07309777 0.064988315 0.12838383 0.015850926 -0.005862396 0.13723679
0.116960324 -0.18829268 0.20235837 -1.2778054 0.06653162 -1.1173521 -0.8212245 0.080601536
0.07777323 -0.014246425 0.099522874 0.34836787 -0.3156443 0.45009506 -0.12708075 -0.6943347
-0.016490286 -0.158289 0.20306782 0.051724933 0.030715862 -0.19647403 -0.003188871 -0.6814826
0.3284128 -0.8826314 0.019197395 -0.019132234 -0.13276365 -1.528327 0.10477497 -0.10085936
-1.5153916 0.07105229 0.20770763 0.0060902685 -0.07549764 0.005050385 0.06001696 -0.21174286
-0.58287483 -0.028122263 -0.124196574 -0.094465375 -0.805303 0.31503496 0.09672887 -0.019133875
-0.20089096 -1.0027295 0.112241946 -0.09718403 -0.19786096 -1.5532645 0.33924413 -0.093582496
0.049923643 0.24523152 0.26097947 -0.047559913 -0.13312367 -0.21817054 -0.09602113 0.051222064
-0.21522816 0.153153 0.13978255 1.4299041 0.100212164 1.3523978 0.47308052 0.16793476
0.07138258 0.09080353 -0.10376309 0.12899418 0.03019299 -0.41857484 -0.049672272 0.9213132
0.19169088 0.03658599 -0.12586926 -0.19742957 -0.08580265 -0.25725403 0.14795522 0.63964057
0.122698 0.3852523 -0.13816382 0.042838827 0.5083303 1.0812554 -0.15230961 0.022813259
1.5152421 0.23379883 0.08090606 0.23330751 0.029419165 0.117315836 -0.22141606 -0.29664356
-0.034593955 0.20094243 0.1612451 0.037383206 0.75989795 0.17428094 -0.15742002 -0.28802297
-0.18029016 1.0521373 -0.07228649 0.021814672 0.009496032 1.1534246 -0.031882815 -0.33580342

goal_head.bias f4 [2]
00000000: eb63 60be e863 603e
-0.21913116 0.21913111

portfolio_head.weight f4 [15, 64]
00000000: a1fe c93d 60d1 0fbe 9a13 e93d 4807 27be
00000010: 1e39 903d e75e 70bc 5420 093d b10f 543e
00000020: c320 a33e 6811 c2be 668f a0bd 8328 57be
00000030: 29c2 b1bd e353 123a 5be6 c43d 151b d0bd
00000040: b581 a73d 230b 13be d8a7 203f d625 6f3e
00000050: 6031 fd3c b6be 8dbe 0ef6 1e3e fddc b6be
00000060: 5d37 003e 9ea9 76be df14 3fbd 4052 053d
00000070: 976b cdbe 1d86 83be dea5 423c 4181 0dbd
00000080: b4ce 753e a80d 95bc 1122 b4be b112 6fbe
00000090: 112e 7c3e a4a9 77be f73d 4fbe d884 ba3d
000000a0: 7e9e 84be 35af 843e 5e24 cf3d 565c 6c3e
000000b0: a576 423d 82dc 9dbd da84 bdbd 3416 a53e
000000c0: 3729 da3d 454b 103e b18c 6fbe 93b7 77bd
000000d0: 188d 30be 63fb fa3d fd0c 20be f67b 433e
000000e0: 86d7 c23d 1e64 c2be 42b1 3ebe b1cc 8d3e
000000f0: f2ca 97bd c1bc a6be 1d56 933d 5a2f b93e
00000100: 7f9e 4bbd 4aab 2bbd d2ab d4bc 8e01 ba3d
00000110: 9d24 1abc c052 8fbe a268 273e 5ef1 2b3d
00000120: 13df da3e 4db7 d63d ba5a 203c f3c2 3fbe
00000130: 1e73 2f3e 3e0a 9cbe 17a2 8dbe d892 a73d
00000140: 2dae 3a3d 3a4e 9b3c c9ba 22bf edc8 73bf
00000150: 42cb 103e 9b0c 96be 1012 1a3e 0bcb d8bd
00000160: 9b59 033e c96f 03bd 6454 883e aaa3 e6bd
00000170: 0749 58be 4ef2 46be 9d78 35be f5bf 9ebd
00000180: dc07 303e 9d0f 2c3e bd54 88bd a145 ba3d
00000190: eefb 7abd 5c7a 1abe f998 a3bd 48e5 3bbd
000001a0: 635b 25be ace8 893d 53e9 e63d acb9 b9be
000001b0: 1f9f 0b3e d724 54bd e50d 30be 2e0d ef3d
000001c0: 2bf0 dabd b048 07be cfba 81bc bb27 2d3e
000001d0: 095b 78be 66aa 453e 79d1 813e 89a0 4c3d
000001e0: 5b50 afbd 14d6 143d 0a0e 713e 8197 2b3e
000001f0: d4cf 15be 8e3d 1ebe 5fdd f6be 286a 063d
00000200: 0f84 b43c b09c edbd 7423 183d 34cb ccbd
00000210: 8ea5 643c 8aef 10be b2eb 913e e5df 7abe
00000220: a8c1 8a3d ac7c 613e 575e 71be d9f4 b43c
00000230: eb42 08bf 8ef6 ccbd cdc7 16be 0341 69bd
00000240: dc96 4e3e c4b1 6e3d 91f6 ab3d f0d6 eabc
00000250: 7d11 3e3d bbf9 15bf 75c9 633e c2dc 08be
00000260: 6d0a 55bc 38cc 373d fcc8 f3be c853 203e
00000270: ac01 463d bca3 debd 47cd 843e 9cf8 1a3e
00000280: af97 5f3e ff18 d93d 8887 043e 00ae 9f3d
00000290: 13a3 d6bd 00d3 b3bd ce59 a5bd e0cb 093e
000002a0: 0cff 993c b68d 81be 52a1 1abd 03dc 59be
000002b0: edb4 07be eeb9 bfbd 3730 8c3e 009b 513c
000002c0: 9c6e db3e 25ba 08bd 8e66 90be bfa6 02be
000002d0: 0684 b43d b223 b73d 096c 09bd 2996 d23c
000002e0: 6cdc 503e e67c 44bd eac3 59bd 6efb dcbd
000002f0: 73e2 5bbd be48 a33c fd63 173e 414b 75be
00000300: 5d1f ccbd 844e d7be 97e4 ad3e 2c7d 183e
00000310: 510a bf3d 5735 a2be 6d9b 4ebe 8f8b 213e
00000320: 5a5d 95be 3a32 033e 60d9 ecbc 6bdd 433d
00000330: 5d9e 813d 0700 1c3e 613a 84bd ef60 253d
00000340: c55f bc3d 3368 de3d 8509 813d 96fb cd3d
00000350: 1ae8 763d 0e2e 9c3c 6af8 a0bd c2bd a1bc
00000360: ec70 69be 979e 9cbd a8b7 9bbe 53f8 6e3c
00000370: cabc 96be e53a 4bbe b9e5 10bd a753 e9bd
00000380: 5759 c1bd 5bfd fbbc d3ce d03d 6b56 91bd
00000390: 32fb 92bd ae8c 483e 3f8f dfbe a426 79be
000003a0: 899f 933e bc1a a5bd 738e 0f3e 7003 32be
000003b0: 5696 bd3e 799b 3ebd 57b8 6d3d 568c 38be
000003c0: 097d 053e 33ff e7bc 265b 563e e794 86be
000003d0: b433 8a3c aad3 7e3c 7c7a fd3d 7032 c3bc
000003e0: b9e2 243e 23f5 b93e f83b cabe 1e4b 04bf
000003f0: 796e c0be f51e 8e3e 521d eebd 6493 593c
0.0986302 -0.14044714 0.11380692 -0.16311371 0.07042144 -0.014671064 0.033478096 0.20709111
0.31860933 -0.37903905 -0.07839851 -0.21011548 -0.08679611 0.0005581958 0.09614249 -0.101614155
0.081790365 -0.14359717 0.6275611 0.23354277 0.030907333 -0.27684563 0.1552355 -0.35715476
0.1252112 -0.24088141 -0.046650764 0.032549143 -0.40121147 -0.25688258 0.011880366 -0.034547094
0.24004632 -0.018194988 -0.3518224 -0.23346974 0.24626948 -0.24185807 -0.20238481 0.09107369
-0.2590217 0.25914922 0.10114358 0.23082098 0.04747643 -0.07708074 -0.09253855 0.32243502
0.10652392 0.14091213 -0.23393513 -0.060477804 -0.17241323 0.122549795 -0.15629955 0.19090256
0.09513764 -0.37967008 -0.18622306 0.2769523 -0.074117556 -0.32565883 0.07194159 0.3616894
-0.0497117 -0.0419114 -0.025960837 0.09082328 -0.009408143 -0.2799282 0.16348508 0.041978233
0.42748317 0.104841806 0.009787256 -0.18726711 0.17133757 -0.30476564 -0.27662727 0.08182305
0.045576263 0.0189582 -0.6356626 -0.95228463 0.14140037 -0.29306492 0.15045953 -0.105856024
0.1282715 -0.03208903 0.26626885 -0.11261685 -0.21121608 -0.1942837 -0.17721792 -0.07751457
0.17190498 0.16802831 -0.066567875 0.09095312 -0.061275415 -0.15085739 -0.079881616 -0.045872957
-0.16148143 0.06733832 0.11274972 -0.3627447 0.13634919 -0.051792946 -0.171928 0.11672436
-0.1069034 -0.13211322 -0.015836148 0.16909687 -0.24253477 0.19303283 0.25355127 0.049957786
-0.085602485 0.036336973 0.23540512 0.16757013 -0.14630061 -0.15453169 -0.48215768 0.032816082
0.022035627 -0.116021514 0.037143186 -0.099996954 0.013955487 -0.14153877 0.28500134 -0.24499471
0.06775218 0.22020215 -0.23571144 0.022089409 -0.5322711 -0.10007964 -0.14724655 -0.056946766
0.20174736 0.058275 0.08396638 -0.028666943 0.046403397 -0.58584183 0.22244819 -0.13365462
-0.013002974 0.044872493 -0.47614276 0.1565696 0.04834144 -0.108710736 0.25937864 0.151339
0.21835206 0.10600471 0.12942326 0.0779686 -0.10480323 -0.087804794 -0.080737695 0.13456678
0.018798374 -0.2530343 -0.037751503 -0.21275334 -0.13252611 -0.09361635 0.27380535 0.012793303
0.42857826 -0.033380646 -0.28203243 -0.12758921 0.08814244 0.08942355 -0.033550296 0.025706368
0.20396584 -0.047970675 -0.053165354 -0.10790144 -0.053682756 0.019932147 0.14784236 -0.23954488
-0.099669196 -0.4205209 0.33963463 0.148915 0.093281396 -0.3168132 -0.20176478 0.15775894
-0.29172784 0.12812129 -0.028912246 0.047818583 0.063290335 0.15234385 -0.064564474 0.040375646
0.09197954 0.10859718 0.06300644 0.10057752 0.060279943 0.01906493 -0.07859881 -0.019743804
-0.22796983 -0.07647436 -0.30413556 0.014585572 -0.2944091 -0.19846685 -0.03537533 -0.113929085
-0.09440868 -0.030760458 0.101956986 -0.07096561 -0.07176818 0.19584915 -0.43663976 -0.24331146
0.28832653 -0.0806174 0.14019184 -0.17384124 0.3702876 -0.04653499 0.05803713 -0.18022284
0.13035978 -0.02831993 0.20933208 -0.26285478 0.016870357 0.015553394 0.12376878 -0.023827761
0.16102113 0.36319837 -0.39498878 -0.5167712 -0.37584284 0.27757993 -0.11626686 0.01327977

portfolio_head.bias f4 [15]
00000000: a2ad 8bbc 601d 51be 32d7 79bd 4e4c 1b3e
00000010: 5f4a 973e e49a 9ebe af5e c4bd c6fa 4a3d
00000020: 88ab 0e3e b057 1b3e bbcb 0e3e 933f 97be
00000030: b919 8d3d 1f23 d5bd 517f e23d
-0.017050568 -0.20421362 -0.060996242 0.15165827 0.29548928 -0.30977547 -0.09588372 0.049555562
0.13932621 0.15170169 0.13944905 -0.2954069 0.06889672 -0.104070894 0.1105944

network.0.weight f4 [64, 2]
00000000: 17c9 59bf ec67 663d 4857 84be 5501 c53d
00000010: 7188 113f 359f 89bc a4cb 91bf a953 83bd
00000020: 7067 6abe e7bf 2bbd 7977 04bf e824 9f3e
00000030: fda3 1abe 067b 7cbd eacc 8fbf d18c 203e
00000040: 4063 d1be 372c c23e 0594 61bf ed99 283e
00000050: 701d ccbe be0b 003f aae8 72be f64c 27be
00000060: 1bb1 efbc 15fc b43e 35db e9be 6c51 54bd
00000070: 803a 38bf ea64 223f 1851 84bf 6f61 bbbc
00000080: d065 33be 2968 8abc 6dcd 81bf 8437 aebd
00000090: f33b d1be 2f33 823c fa0c 7abe b9cd 18be
000000a0: 01b1 2fbc f341 f1bc 82bb 21be 5c3b d3bc
000000b0: aec1 77bf 71eb e93c 806f 21bc 57f7 1bbd
000000c0: cd9f efbc 1bde 8bbc 0529 aabc 8493 f5bc
000000d0: ea9c 533f 1972 853e a685 4fbf 2783 a3bd
000000e0: abf0 7cbd b5b5 45be fae1 7abe 2f1f 133d
000000f0: 3929 85bc 2bde 88be 9ef4 333f 0a9a 2c3e
00000100: 2ae4 79bf a7c5 7abd e3d3 74bf bb79 1f3e
00000110: 50ad 77bf f25f 9f3d e622 a2be b030 25be
00000120: 33fd 60bf c4e6 babe c810 72be 3578 ecbd
00000130: 148a 6a3f 96d4 323e aadb 32bd 905b 54be
00000140: c9f1 623f 362e 9c3e d2b6 86be 33db 01be
00000150: a6a8 7cbf f0bc cc38 63e8 00be b9fe d0bc
00000160: 14cb ddbe 26a7 7a3e a013 953f efbc 1c3e
00000170: 8ce7 d6be 3aac 65bd 2167 ccbc 6164 5ebe
00000180: 7e4d d9be e437 893e f158 39bd 8782 36be
00000190: c6d9 bcbc 99d9 23be 8f8d 673f 29d9 a43e
000001a0: 2a86 24bd 83fe bd3a 93df 38bd 1deb 5e3e
000001b0: 50d9 84bf 4a18 073d 651e 85be 4d5f 9e3e
000001c0: cefa 9b3e 1614 e63d 4cf2 03bd b7d7 87bd
000001d0: a8f7 45bf f930 c9bc a8de 7ebf d92e 32be
000001e0: 52ae 55bf 26b0 babd fb6a d9bd 1b83 d43d
000001f0: b8b5 8abf 3ea4 203e 14ad 5ebf a516 e2bc
-0.85072464 0.05625145 -0.2584784 0.09619395 0.5684882 -0.016799549 -1.1390271 -0.06412441
-0.22891021 -0.04193106 -0.517448 0.31082845 -0.15101619 -0.06164076 -1.123441 0.15678717
-0.40896034 0.37924358 -0.88116485 0.16464968 -0.3986621 0.5001792 -0.23721567 -0.16337952
-0.029259255 0.35348573 -0.45675054 -0.051835462 -0.71964264 0.6343523 -1.0337248 -0.022873608
-0.17519307 -0.01689537 -1.0140816 -0.085066825 -0.4086605 0.015893547 -0.24419013 -0.14922227
-0.010723353 -0.029450392 -0.15794185 -0.02578514 -0.96779907 0.02855465 -0.009853244 -0.03807768
-0.029251004 -0.017073682 -0.020771513 -0.029977567 0.82661307 0.26063612 -0.81063306 -0.07984
-0.061752956 -0.19307597 -0.24500266 0.03591841 -0.016255008 -0.26732 0.7029513 0.16855636
-0.97613776 -0.061223652 -0.95635813 0.1557378 -0.9674883 0.07781972 -0.3166725 -0.16131854
-0.8788635 -0.36504185 -0.23639214 -0.11546365 0.9161694 0.17463908 -0.04366652 -0.20738053
0.88650185 0.30504006 -0.26311356 -0.12681274 -0.9869484 9.7626704e-05 -0.12588648 -0.025512086
-0.43319 0.24477825 1.1646614 0.15306447 -0.4197353 -0.05607245 -0.02495152 -0.21717979
-0.42441934 0.26800454 -0.045250837 -0.1782323 -0.023053061 -0.16000976 0.90450376 0.3219693
-0.04016701 0.0014495406 -0.045135092 0.21769376 -1.0378819 0.03298215 -0.25999752 0.30932084
0.30464786 0.112343 -0.032213494 -0.06632941 -0.7733102 -0.024559485 -0.99558496 -0.17400683
-0.83469117 -0.09115629 -0.10616108 0.10376569 -1.0836706 0.15687653 -0.86982846 -0.027598688

network.0.bias f4 [64]
00000000: 6060 f43e 6f65 703e 320b c63d 7942 243f
00000010: a2fa 75bd 8b60 fe3e 0000 0000 639a 203f
00000020: 935f be3e 46d6 fb3e d4c9 f63e 0000 0000
00000030: ae97 a8bd 2871 d93e 9aec af3e 8741 153f
00000040: 0000 0000 a2e9 123f 8b9b c13e 0000 0000
00000050: 942e 83bd d2f6 75bd c025 0b3f 0000 0000
00000060: 4fe5 75bd 0000 0000 fc8e 5c3e 5ffa ea3e
00000070: 0000 0000 c0f7 75bd 0000 0000 4075 ea3d
00000080: 424d 0d3f 0fb2 083f 8ce5 0a3f 0000 0000
00000090: d00c 013f 0000 0000 0cc3 9b3e 0000 0000
000000a0: a344 283e 0000 0000 e6dc 0d3f 69e6 75bd
000000b0: 08e0 053f d54c c83e 0000 0000 0a4e 7abd
000000c0: 693b 083f e7fb 75bd 3f88 6ebd 8546 ab3e
000000d0: 07f9 75bd bd71 99bd b242 153f 30f8 75bd
000000e0: ab04 a33c 0000 0000 fb8e de3e 89af 103f
000000f0: b2cb f13e 0ef5 75bd 87e1 1a3f 205c fb3e
0.47729778 0.23476194 0.09670104 0.6416393 -0.060053475 0.4968303 0.0 0.62735575
0.37182292 0.49186915 0.48200858 0.0 -0.082320556 0.42469144 0.343602 0.5830311
0.0 0.57387745 0.37813982 0.0 -0.064053684 -0.06004984 0.54354477 0.0
-0.06003314 0.0 0.21538919 0.45894143 0.0 -0.060050726 0.0 0.11448145
0.5519601 0.53396696 0.5425651 0.0 0.50410175 0.0 0.30422246 0.0
0.16432433 0.0 0.5541519 -0.06003419 0.5229497 0.39121118 0.0 -0.06110958
0.5321565 -0.060054686 -0.058235403 0.3345224 -0.060051944 -0.07492397 0.58304894 -0.060051143
0.019899687 0.0 0.4346846 0.56517845 0.4722572 -0.060048155 0.6050038 0.49093723

network.2.weight f4 [64, 64]
00000000: fcde e3bd d221 633e ea8c 0dbe d8c3 aabd
00000010: 5506 203d 36b6 743c ee88 573e cc07 80be
00000020: c9a0 2cbd ad25 c9bc e60d 36be 6703 47bd
00000030: 9a35 c8bd 42d2 113d a56a 4b3e de84 c2be
00000040: 2b1f 2b3e 3b9f c6bd cd46 613e 6174 393d
00000050: b1c4 dbbe 0901 a73d 4608 67be 3bb0 a23e
00000060: 2ce1 a63d 584f 13be 5be4 703e cd67 2fbe
00000070: b487 c93d 0bb4 2ebd f464 6abe 8b48 d7be
00000080: 44a5 78be 9d56 83bd 37e0 23bd 10cb 983c
00000090: 0ab2 57bb d349 5a3e 7cb5 b5bc 9d9a e6bd
000000a0: c862 8c3e b651 793e 5276 1dbe 67ab c9bd
000000b0: d05e e4bc bc8a 58be 9e61 203d 17b1 98bd
000000c0: 2856 91bd 5776 eebd 2bb1 e13b 4f14 073e
000000d0: bd78 803d 61c3 d3be 410c c13d 67ed 95bc
000000e0: 00b7 7cbe 3cde 333d b79f 083d affe 7d3e
000000f0: 7e7f d13d 6789 0ebe 680a 45bd c424 853e
00000100: 1894 e63e 4a52 d9bb 9a4e 883e f433 1abd
00000110: 1130 4cbe 59b5 cb3e 2480 a4bd 4e11 163f
00000120: 48aa cbbd 0aa6 393e 5aed bd3e e360 a73d
00000130: 126d fa3d 4d66 3a3d b86c 34bf be18 bdbe
00000140: 062d 1f3e 75c3 993e 2886 4b3e 6ad3 1dbe
00000150: 8746 013e f398 37be 89dd ed3e 40bf c6bd
00000160: a78d 2b3d 88ca 893c d4fa 5e3e 0b13 e53d
00000170: 3990 bbbb 8932 92bd bf65 74bd b0bd 9c3d
00000180: 762d 0b3f 421a 0d3f 5b62 493d cabd 4f3e
00000190: 9c24 493d f64e bd3d c0ca fa3d d2b9 82bc
000001a0: ae6d 013e f818 58be 7a6e 28be 3848 59be
000001b0: 6cdb c73e 50f3 c03e 61f0 95bd 53ba d43d
000001c0: f582 1a3f ca8c 8e3e c055 363e 8f20 043f
000001d0: feb7 f3bd ed17 e3bd 05ca 9a3e be62 99be
000001e0: 50f0 563d 5e3d 07bd 41b9 903e 18e0 fbbc
000001f0: 8322 14bc 6e3c 89be 3524 a53d bf21 c93e
00000200: 59d4 ed3e 8665 eebc d1a4 89be f426 5e3d
00000210: 4157 acbd cd84 db3e 29d9 cfbd 8fe7 7a3e
00000220: 9d1e 173f 586f 823e 7e15 db3d acf3 0ebe
00000230: 4123 153e 3fff bc3e 8b86 0dbf 2475 813e
00000240: 4030 7e3d 6466 c93e fc87 75bc fad8 09be
00000250: 24a5 133d bd9d b03b 5879 8f3e 0698 b73d
00000260: 6660 073e 3584 823d 109c 2e3b 6e4a ec3e
00000270: 184c c33d abaf b63e 8c22 c2be cf78 713d
00000280: 7557 963e 3e46 683e c2e1 473e 59a0 8e3c
00000290: e62d a03e 13ff 88be de50 67be 451c 953a
000002a0: d54d abbe 0ba9 9f3a b966 063f 2e88 82bd
000002b0: 6aaf 523f 7e3a aabe 5eea 07be 6324 a33c
000002c0: c930 253f 211e c2bc 826e 693e b00d 3bbe
000002d0: 0503 e8bc 0336 5fbe 1245 e43e 42f4 3e3e
000002e0: cab2 96bd 5734 aa3d 4996 1a3f bb2e 833e
000002f0: 8c2d 623e 2254 0dbe 8625 073e 3e51 ba3e
00000300: 30d2 ee3e c496 33be 1679 7f3e 9e58 703e
00000310: 8d14 fa3d a1c4 5e3f 4dd4 9b3e 359d 923e
00000320: 991b 2a3e 95d7 dc3e 401c 0c3f 897e 223d
00000330: 832a 19be abe0 573e 2f77 abbe c605 653e
00000340: 30f1 3e3d 6770 943e b4ca 833e 43dd 7abb
00000350: 5f0e 573d 9201 cfbd 9d97 733e 6e3e dbbe
00000360: 5194 013e cfdd 8c3c 10ae b53e 42b5 903e
00000370: ae9d 5c3e bfa4 02bc 9e8e a03d ab82 e63c
00000380: 9d3a 9b3e 3530 e53d 6a34 aa3d d329 ccbd
00000390: 9b22 713e 48db b4be 35e8 233f 6e99 44bb
000003a0: b848 c53e 4c1e 2cbe 3dd2 343e 916e ad3d
000003b0: 246b 5e3f 44eb 163f c2ba 10be 6358 a43e
000003c0: f155 243f 799f c4be 295c 24bd 6c7d 4a3f
000003d0: 805b bdbe c740 8a3a 2e8b 413e 1a33 3cbd
000003e0: 0751 3d3e 660a 9b3e 5855 fb3e 20e8 da3e
000003f0: 2d71 593e f01c f83d e73b 9f3e aed3 ee3e
-0.11126515 0.2218087 -0.13823286 -0.083381355 0.03906854 0.014936021 0.21048328 -0.2500595
-0.042145524 -0.024554098 -0.1777874 -0.04858723 -0.09775849 0.035600908 0.198649 -0.37991995
0.16711108 -0.096983396 0.21999665 0.045277003 -0.429235 0.08154494 -0.2256175 0.31775078
0.08148417 -0.14385736 0.2352461 -0.1712944 0.098403364 -0.04265217 -0.22890073 -0.42047533
-0.24281794 -0.064130045 -0.04000875 0.018651515 -0.0032912516 0.21317224 -0.022181265 -0.11259959
0.27419114 0.24347576 -0.15377167 -0.098471455 -0.027877241 -0.21146673 0.039155595 -0.07455652
-0.07096511 -0.11643665 0.006887575 0.13191341 0.06273029 -0.4136 0.09426165 -0.018301679
-0.24679184 0.04391311 0.03335544 0.24804185 0.10229395 -0.13919602 -0.048105627 0.26004612
0.45034862 -0.006632124 0.26622468 -0.037647203 -0.19940211 0.39786795 -0.080322534 0.58620155
-0.09944588 0.18129745 0.37095147 0.081727766 0.12227835 0.045507718 -0.7047839 -0.3693294
0.15544519 0.30031934 0.19875395 -0.1541268 0.1262456 -0.17929439 0.4645808 -0.09704447
0.041883137 0.016820207 0.21775371 0.11185273 -0.00572398 -0.07138545 -0.059667345 0.076533675
0.5436624 0.5511819 0.049166065 0.20287243 0.04910718 0.09243576 0.12245703 -0.015957747
0.12639496 -0.21103275 -0.16448393 -0.21218956 0.39034593 0.37685633 -0.07321239 0.10387101
0.60356075 0.2784179 0.17806149 0.5161218 -0.11900328 -0.11088548 0.30232254 -0.29958147
0.052475274 -0.03301751 0.28266338 -0.030746505 -0.009041431 -0.26803917 0.080635466 0.3928356
0.4645107 -0.029101145 -0.26883557 0.054236367 -0.0841508 0.42874756 -0.10148842 0.24502395
0.5903109 0.25475574 0.10697459 -0.13960141 0.1456423 0.36913487 -0.5528342 0.25284684
0.062057734 0.3933593 -0.0149860345 -0.13461676 0.036046162 0.0053898976 0.28022265 0.08964543
0.13220367 0.06372873 0.0026643313 0.46150535 0.09535998 0.356809 -0.37916982 0.058953103
0.293636 0.22683045 0.19519714 0.017410444 0.31285018 -0.26757106 -0.22589442 0.0011376223
-0.3345782 0.0012181116 0.5250049 -0.063736305 0.8229891 -0.3324775 -0.13272998 0.019914811
0.64527565 -0.023696007 0.22796062 -0.1826694 -0.028321752 -0.21797948 0.44583946 0.18647864
-0.0735832 0.08310764 0.60385567 0.2562159 0.22087687 -0.13801625 0.13197908 0.36390108
0.46644735 -0.17537981 0.24948534 0.23471305 0.12210951 0.8701878 0.3043541 0.28635564
0.1661209 0.43133226 0.54730606 0.039671455 -0.14957623 0.21081798 -0.33489367 0.22365484
0.046616733 0.28992006 0.25740588 -0.0038278855 0.05250394 -0.101077214 0.23788305 -0.42821068
0.12654234 0.01719561 0.35484362 0.2826329 0.21544525 -0.007973849 0.07839702 0.02813848
0.30318156 0.111908354 0.083107784 -0.09968915 0.23548357 -0.35323548 0.64026195 -0.0029998678
0.38532043 -0.16808432 0.17658325 0.084683545 0.86882234 0.58952737 -0.14133742 0.32098684
0.64193636 -0.38402918 -0.040126953 0.7909763 -0.3698387 0.001054787 0.18900749 -0.04594717
0.1848794 0.3028137 0.4908855 0.42755222 0.2123458 0.121148944 0.3110039 0.46645874

network.2.bias f4 [64]
00000000: 0000 0000 e56d c53e 1c9d a73e dffa 1c3f
00000010: 66db 583e 8ace 963e 120c 48be c0af aa3e
00000020: 67c1 c23e 0000 0000 7457 2d3e a7cb 75bd
00000030: e92d 5d3e d075 153f cbf9 75bd 638d bcbc
00000040: 5c99 95bd eff6 75bd 0000 0000 59c3 2e3e
00000050: ed88 003f 16b0 63bd 0000 0000 dd91 993e
00000060: 865c 043f 5742 08be 0000 0000 2132 5c3e
00000070: 0000 0000 4338 633e 1750 f83e 0f90 893e
00000080: 5720 753e cabf 5a3e e2fb 75bd 91f6 75bd
00000090: 12fc 75bd a1ba f13e 5bfb 75bd d48c 103f
000000a0: 5624 49bc f580 903e 00fc 75bd 6961 773e
000000b0: f144 e7bd e000 af3e 81b2 cdbd 2555 893e
000000c0: 62a7 63bd ebfb 75bd 0286 9cbd 6cd7 2e3e
000000d0: b956 6e3e 0000 0000 baae 5f3e 880d dc3e
000000e0: 9b35 903e 9dc0 a33e 79f3 75bd 20fc 75bd
000000f0: 7ff0 d23e 0000 0000 0000 0000 44b1 ef3e
0.0 0.38560405 0.32737052 0.613203 0.21177444 0.29454452 -0.19535854 0.33337212
0.3803818 0.0 0.16927892 -0.06000867 0.21599545 0.5838289 -0.060052674 -0.023016637
-0.073046416 -0.060049947 0.0 0.17066707 0.5020893 -0.05558785 0.0 0.29994097
0.5170368 -0.13306557 0.0 0.21503498 0.0 0.22189431 0.48498604 0.2686772
0.23938118 0.21362224 -0.060054667 -0.060049597 -0.060054846 0.472127 -0.060054164 0.56464887
-0.01227673 0.28223386 -0.06005478 0.24158253 -0.112924464 0.34180355 -0.100438125 0.26822773
-0.05557955 -0.0600547 -0.076427475 0.17074364 0.2327527 0.0 0.21843997 0.42979074
0.28165898 0.3198289 -0.060046647 -0.0600549 0.4119911 0.0 0.0 0.4681493

network.4.weight f4 [1, 64]
00000000: 731a 513c 5627 873e 06d3 8f3e ce50 043f
00000010: 58e0 513e f517 813e 978b 1ebe 6b6c 603e
00000020: 6684 503e b2f4 4b3c f283 ee3d c9eb 713d
00000030: 6bce 3a3e de99 d93e 74c2 273d 6ae1 a0bf
00000040: 1712 623d abb0 713d 980c b4bc 1a56 8a3e
00000050: fe53 c63e 1fed 313d d75c 32bc a0e3 833e
00000060: 9d78 cf3e e043 1940 e6e5 9b3c cbd4 5b3e
00000070: 58bc d63b 1e6d 9b3e 89b9 a83e 77a0 563e
00000080: 4878 143e c71c 963e 9557 443d 1a48 5c3d
00000090: eb85 273d 5b68 a83e c887 173d 1b75 d43e
000000a0: 6eeb 4abd 54dd 9a3e 5cb1 433d dfb1 6c3e
000000b0: f864 843d eb74 723e 84b1 393d 9f1f 453e
000000c0: a4eb 443d 8a0e 4b3d a6f2 84bd 917b febe
000000d0: 18f7 803e 4289 983c 35ca 283e a17f 75c0
000000e0: f547 4b3e 9ed3 703e ef58 743d fec6 133d
000000f0: 4d3c 943e 82eb 84bc ba15 47bc ac52 a33e
0.012762654 0.26397198 0.28090686 0.516858 0.20495737 0.2521359 -0.15482937 0.21916358
0.20363006 0.012448477 0.1164626 0.059062753 0.18242805 0.42500204 0.04095693 -1.2568791
0.055193033 0.059006374 -0.021978661 0.27018815 0.38735956 0.043439027 -0.010886393 0.25759602
0.40521708 2.3947678 0.019030523 0.21467893 0.006553214 0.30356687 0.32954052 0.2095965
0.14499009 0.2931883 0.047935087 0.0537797 0.0408992 0.32892117 0.036994725 0.41495594
-0.04954093 0.30246985 0.047776565 0.23114727 0.06464571 0.23677413 0.045335308 0.19250344
0.048076287 0.049574412 -0.06491594 -0.4970365 0.25188518 0.018620137 0.16483386 -3.8359149
0.19851668 0.23518226 0.059655126 0.036078446 0.28952256 -0.01622558 -0.012151176 0.3189901

exp_avg f4 [64, 2]
00000000: 0400 0000 0400 0000 de2f 92b6 7655 b3b4
00000010: 0000 0000 0400 0000 4e08 be39 18bd 7c38
00000020: 0000 0000 0000 0000 0400 0000 0400 0000
00000030: 0400 0000 0400 0000 c537 213a d272 8438
00000040: 0400 0000 0400 0000 0000 0000 0400 0000
00000050: 0400 0000 0400 0000 0400 0000 0400 0000
00000060: 0000 0000 0400 0000 0000 0000 0400 0000
00000070: 0400 0000 0400 0000 0000 0000 0000 0000
00000080: 643d b43a 1d85 b638 0000 0000 0400 0000
00000090: 0000 0000 0000 0000 0400 0000 0400 0000
000000a0: 0400 0000 0400 0000 215d 053c 80bf b739
000000b0: 0000 0000 0400 0000 0400 0000 0400 0000
000000c0: 0000 0000 0000 0000 0000 0000 0400 0000
000000d0: 0000 0000 0000 0000 0000 0000 0000 0000
000000e0: 0400 0000 0400 0000 0000 0000 0000 0000
000000f0: 0000 0000 0000 0000 0000 0000 0400 0000
00000100: 0000 0000 0000 0000 0400 0000 0400 0000
00000110: 0000 0000 0400 0000 0000 0000 0400 0000
00000120: 0400 0000 0400 0000 0000 0000 0000 0000
00000130: 0000 0000 0000 0000 0400 0000 0400 0000
00000140: 0400 0000 0400 0000 0400 0000 0400 0000
00000150: 1c00 0000 0400 0000 0400 0000 0400 0000
00000160: 0400 0000 0400 0000 0400 0000 0400 0000
00000170: 0400 0000 0400 0000 0000 0000 0400 0000
00000180: 0400 0000 0400 0000 b211 4b09 151e fe06
00000190: 2623 a6bb e7f3 2fba 0000 0000 0000 0000
000001a0: 0400 0000 0400 0000 8532 0b3c 0407 bf39
000001b0: f7d9 0bb7 a994 1db5 0000 0000 0000 0000
000001c0: 0400 0000 0400 0000 0400 0000 0400 0000
000001d0: 0400 0000 0400 0000 5750 1a3a 4080 4338
000001e0: 0000 0000 0400 0000 97d3 3b3a 2976 0d38
000001f0: 0400 0000 0400 0000 0400 0000 0400 0000
6e-45 6e-45 -4.3567115e-06 -3.340353e-07 0.0 6e-45 0.00036245811 6.025759e-05
0.0 0.0 6e-45 6e-45 6e-45 6e-45 0.0006149973 6.3156374e-05
6e-45 6e-45 0.0 6e-45 6e-45 6e-45 6e-45 6e-45
0.0 6e-45 0.0 6e-45 6e-45 6e-45 0.0 0.0
0.0013751206 8.7032306e-05 0.0 6e-45 0.0 0.0 6e-45 6e-45
6e-45 6e-45 0.008139879 0.0003504716 0.0 6e-45 6e-45 6e-45
0.0 0.0 0.0 6e-45 0.0 0.0 0.0 0.0
6e-45 6e-45 0.0 0.0 0.0 0.0 0.0 6e-45
0.0 0.0 6e-45 6e-45 0.0 6e-45 0.0 6e-45
6e-45 6e-45 0.0 0.0 0.0 0.0 6e-45 6e-45
6e-45 6e-45 6e-45 6e-45 3.9e-44 6e-45 6e-45 6e-45
6e-45 6e-45 6e-45 6e-45 6e-45 6e-45 0.0 6e-45
6e-45 6e-45 2.4443556e-33 9.558838e-35 -0.005070108 -0.00067120645 0.0 0.0
6e-45 6e-45 0.0084959315 0.00036435586 -8.3357945e-06 -5.8703387e-07 0.0 0.0
6e-45 6e-45 6e-45 6e-45 6e-45 6e-45 0.00058866054 4.6611065e-05
0.0 6e-45 0.0007165013 3.3727065e-05 6e-45 6e-45 6e-45 6e-45

exp_avg_sq f4 [64, 2]
00000000: b68a 9432 88d5 ea2d 3a60 5b37 ce77 3233
00000010: 0000 0000 c3d5 642b 6a76 0139 2dff c734
00000020: 0000 0000 0000 0000 e1ce 8f36 fc42 5132
00000030: 8ea6 fb33 c6e2 9c2f d39e 0239 a5f5 d334
00000040: 4f92 e233 b818 432f 0000 0000 3453 472b
00000050: 464b a235 77cc 7031 54fd bb33 23b6 462f
00000060: 0000 0000 04f1 102d 0000 0000 29e1 102b
00000070: c715 3c33 a598 fe2e 0000 0000 0000 0000
00000080: 4be4 ca38 ae22 9e34 0000 0000 88ec 9f27
00000090: 0000 0000 0000 0000 b2d5 7231 f297 742c
000000a0: 22ac 3d2c 165d 252b 4d06 763a 305c 0436
000000b0: 0000 0000 7b17 7229 81c6 0635 60fb a530
000000c0: 0000 0000 0000 0000 0000 0000 fb76 672a
000000d0: 0000 0000 0000 0000 0000 0000 0000 0000
000000e0: 9cbb 0a33 606a c92e 0000 0000 0000 0000
000000f0: 0000 0000 0000 0000 0000 0000 5d38 3529
00000100: 0000 0000 0000 0000 34e9 6237 e7c1 cb32
00000110: 0000 0000 de82 af29 0000 0000 6763 0c2d
00000120: 18f5 a833 fc82 0f2f 0000 0000 0000 0000
00000130: 0000 0000 0000 0000 580e ab34 24a3 1930
00000140: bcf4 2636 907a b831 4959 1735 21cf e530
00000150: da94 e437 17e5 7f33 c200 e233 579c 392f
00000160: 8da1 9a33 f7cf 242f b999 c432 8b06 0430
00000170: ba6f 8d34 f351 4e30 0000 0000 51eb 252c
00000180: baf3 8532 f1bf a62d 3db7 7d37 1c9d 3533
00000190: 680c 7f3b 178b 5c37 0000 0000 0000 0000
000001a0: e62a b734 77d0 8f30 b4d7 fb3a 2f2c 8a36
000001b0: bc15 7036 5315 3732 0000 0000 0000 0000
000001c0: 40ec 1032 f30a 2e2d bbc4 fd2e 1a79 cc2d
000001d0: 1adc 7733 5b7f 3c2f c714 0538 d46e ca33
000001e0: 0000 0000 880c 912b 095e 4837 5a61 4733
000001f0: 6e33 7530 5610 302b 5ed9 9032 89fe 002e
1.7292546e-08 2.6697547e-11 1.3075822e-05 4.1552816e-08 0.0 8.1298526e-13 0.00012346511 3.7252303e-07
0.0 0.0 4.285816e-06 1.2180632e-08 1.17183944e-07 2.8537367e-10 0.00012456933 3.9480543e-07
1.05505585e-07 1.7743929e-10 0.0 7.081447e-13 1.2091848e-06 3.5040821e-09 8.753946e-08 1.8072703e-10
0.0 8.2389685e-12 0.0 5.147155e-13 4.3791967e-08 1.1577698e-10 0.0 0.0
9.6746335e-05 2.9455026e-07 0.0 4.4387813e-15 0.0 0.0 3.5337107e-09 3.4758832e-12
2.6954068e-12 5.874896e-13 0.0009385094 1.9723193e-06 0.0 5.375516e-14 5.020775e-07 1.2076775e-09
0.0 0.0 0.0 2.0558201e-13 0.0 0.0 0.0 0.0
3.230126e-08 9.159318e-11 0.0 0.0 0.0 0.0 0.0 4.023896e-14
0.0 0.0 1.3524947e-05 2.3720487e-08 0.0 7.794263e-14 0.0 7.98015e-12
7.867692e-08 1.3052309e-10 0.0 0.0 0.0 0.0 3.1861669e-07 5.589291e-10
2.4878382e-06 5.3690385e-09 5.638181e-07 1.6720813e-09 2.7249032e-05 5.958017e-08 1.0524083e-07 1.6881195e-10
7.20057e-08 1.4989597e-10 2.2887308e-08 4.803062e-10 2.6344588e-07 7.505882e-10 0.0 2.3578537e-12
1.5594072e-08 1.8957254e-11 1.5122639e-05 4.2285237e-08 0.0038917307 1.3145406e-05 0.0 0.0
3.411762e-07 1.0463869e-09 0.0019214065 4.117864e-06 3.5775438e-06 1.06568505e-08 0.0 0.0
8.43562e-09 9.893186e-12 1.1540054e-10 2.3245895e-11 5.770935e-08 1.7143746e-10 3.172902e-05 9.4265175e-08
0.0 1.0306348e-12 1.1942823e-05 4.642184e-08 8.9203567e-10 6.255043e-13 1.6862653e-08 2.9329903e-11

exp_avg f4 [64]
00000000: 0400 0000 c405 d1b6 0400 0000 0292 2d3b
00000010: 0000 0000 0400 0000 0400 0000 f084 263b
00000020: 0400 0000 0400 0000 0400 0000 0400 0000
00000030: 0400 0000 0400 0000 0400 0000 0000 0000
00000040: 1742 863b 0400 0000 0000 0000 0400 0000
00000050: 0400 0000 52f7 8e3c 0400 0000 0400 0000
00000060: 0000 0000 0400 0000 0000 0000 0000 0000
00000070: 0400 0000 0000 0000 0000 0000 0400 0000
00000080: 0000 0000 0400 0000 0400 0000 0400 0000
00000090: 0400 0000 0000 0000 0000 0000 0400 0000
000000a0: 0400 0000 0400 0000 3100 0000 0400 0000
000000b0: 0400 0000 0400 0000 0400 0000 0400 0000
000000c0: 0400 0000 4cc3 7909 550e efbc 0000 0000
000000d0: 0400 0000 8cf2 983c 4d60 1bb7 0000 0000
000000e0: 0400 0000 0400 0000 0400 0000 5e69 0c3b
000000f0: 0400 0000 3e6d d83a 0400 0000 0400 0000
6e-45 -6.2293566e-06 6e-45 0.0026484733 0.0 6e-45 6e-45 0.0025408827
6e-45 6e-45 6e-45 6e-45 6e-45 6e-45 6e-45 0.0
0.004097234 6e-45 0.0 6e-45 6e-45 0.017451916 6e-45 6e-45
0.0 6e-45 0.0 0.0 6e-45 0.0 0.0 6e-45
0.0 6e-45 6e-45 6e-45 6e-45 0.0 0.0 6e-45
6e-45 6e-45 6.9e-44 6e-45 6e-45 6e-45 6e-45 6e-45
6e-45 3.0064113e-33 -0.029181639 0.0 6e-45 0.018670343 -9.261142e-06 0.0
6e-45 6e-45 6e-45 0.0021425108 6e-45 0.0016512049 6e-45 6e-45

exp_avg_sq f4 [64]
00000000: 7815 9c33 a41b 8a38 21d3 ee30 6762 2e3a
00000010: 0000 0000 d833 a737 3979 da34 7ecf 313a
00000020: db64 9c34 b806 d030 3e84 c136 2263 8e34
00000030: c244 9732 4634 9730 ebf6 6434 0000 0000
00000040: 43ae 083a aee7 262d 0000 0000 bc11 3f32
00000050: cc0d 3530 429f 513b e5a8 fc2e 4578 0b36
00000060: 0000 0000 bb91 f12f 0000 0000 0000 0000
00000070: 23ef 6a34 0000 0000 0000 0000 7b21 bd2e
00000080: 0000 0000 f40e 1d38 2e2c 372f 5684 9232
00000090: d493 9a34 0000 0000 0000 0000 0dd7 5b35
000000a0: b165 0f37 e5ea 4236 c7aa b138 3486 d434
000000b0: 4cd2 a734 fc4e 8135 fee8 a435 9e29 ad31
000000c0: fef2 3133 72cb 8938 6e4d c03c 0000 0000
000000d0: 9f4e e735 350a d43b 6d0a 9037 0000 0000
000000e0: 8dac 0433 7f54 5733 985d 8e34 bbfd 2b39
000000f0: 8061 1731 7593 a238 ae34 de31 6511 8633
7.268221e-08 6.585501e-05 1.7376786e-09 0.00066522363 0.0 1.9932093e-05 4.0693865e-07 0.0006782933
2.9130646e-07 1.5135901e-09 5.7672432e-06 2.652169e-07 1.7609981e-08 1.1001553e-09 2.1323983e-07 0.0
0.00052139553 9.487451e-12 0.0 1.1121696e-08 6.5867023e-10 0.0031985794 1.1489635e-10 2.078262e-06
0.0 4.3941192e-10 0.0 0.0 2.1879946e-07 0.0 0.0 8.600672e-11
0.0 3.7445643e-05 1.6659449e-10 1.7056816e-08 2.8792294e-07 0.0 0.0 8.18968e-07
8.547141e-06 2.904498e-06 8.4718275e-05 3.9585723e-07 3.1259185e-07 9.634236e-07 1.2286762e-06 5.039694e-09
4.1432024e-08 6.570564e-05 0.023474421 0.0 1.7233723e-06 0.0064709433 1.7170993e-05 0.0
3.089058e-08 5.0135437e-08 2.651766e-07 0.00016402353 2.2028814e-09 7.752228e-05 6.4670393e-09 6.243025e-08

exp_avg f4 [64, 64]
00000000: 0000 0000 0000 0000 0000 0000 0000 0000
00000010: 0000 0000 0000 0000 0000 0000 0000 0000
00000020: 0000 0000 0000 0000 0000 0000 0000 0000
00000030: 0000 0000 0000 0000 0000 0000 0000 0000
00000040: 0000 0000 0000 0000 0000 0000 0000 0000
00000050: 0000 0000 0000 0000 0000 0000 0000 0000
00000060: 0000 0000 0000 0000 0000 0000 0000 0000
00000070: 0000 0000 0000 0000 0000 0000 0000 0000
00000080: 0000 0000 0000 0000 0000 0000 0000 0000
00000090: 0000 0000 0000 0000 0000 0000 0000 0000
000000a0: 0000 0000 0000 0000 0000 0000 0000 0000
000000b0: 0000 0000 0000 0000 0000 0000 0000 0000
000000c0: 0000 0000 0000 0000 0000 0000 0000 0000
000000d0: 0000 0000 0000 0000 0000 0000 0000 0000
000000e0: 0000 0000 0000 0000 0000 0000 0000 0000
000000f0: 0000 0000 0000 0000 0000 0000 0000 0000
00000100: 0400 0000 0400 0000 0400 0080 0400 0000
00000110: 0000 0000 0400 0000 0400 0000 0400 0000
00000120: 0400 0000 0400 0080 0400 0000 0400 0000
00000130: 0400 0080 0400 0080 0400 0000 0000 0000
00000140: 0400 0000 0400 0080 0000 0000 0400 0000
00000150: 0400 0080 0400 0000 0400 0080 0400 0000
00000160: 0000 0000 0400 0080 0000 0000 0000 0000
00000170: 0400 0000 0000 0000 0000 0000 0400 0080
00000180: 0000 0000 0400 0000 0400 0080 0400 0080
00000190: 0400 0000 0000 0000 0000 0000 0400 0000
000001a0: 0400 0000 0400 0000 0400 0000 0400 0000
000001b0: 0400 0000 0400 0080 0400 0000 0400 0080
000001c0: 0400 0000 0400 0000 0400 0000 0000 0000
000001d0: 0400 0000 0400 0000 0400 0000 0000 0000
000001e0: 0400 0000 0400 0080 0400 0000 0400 0000
000001f0: 0400 0080 0400 0000 0400 0080 0400 0000
00000200: 0000 0000 21f2 0000 0000 0000 7b8f 0c00
00000210: 0000 0000 0400 0000 0000 0000 e8d0 1100
00000220: 0000 0000 0000 0000 0400 0000 0000 0000
00000230: 0000 0000 0000 0000 0000 0000 0000 0000
00000240: ba51 1200 0000 0000 0000 0000 0000 0000
00000250: 0000 0000 0400 0000 0000 0000 0000 0000
00000260: 0000 0000 0000 0000 0000 0000 0000 0000
00000270: 0000 0000 0000 0000 0000 0000 0000 0000
00000280: 0000 0000 0400 0000 0000 0000 0000 0000
00000290: 0000 0000 0000 0000 0000 0000 0000 0000
000002a0: 0400 0000 0000 0000 0400 0000 0000 0000
000002b0: 0000 0000 0400 0080 0000 0000 0000 0000
000002c0: 0000 0000 4b41 0100 8978 7916 0000 0000
000002d0: 0000 0000 0400 0000 3321 0100 0000 0000
000002e0: 0000 0000 0000 0000 0000 0000 0ab3 0100
000002f0: 0000 0000 1c15 3600 0000 0000 0000 0000
00000300: 0000 0000 0400 0000 0000 0000 0400 0000
00000310: 0000 0000 0400 0000 0000 0000 0400 0000
00000320: 0000 0000 0000 0000 0400 0000 0000 0000
00000330: 0000 0000 0000 0000 0000 0000 0000 0000
00000340: 0000 0000 0000 0000 0000 0000 0000 0000
00000350: 0000 0000 0000 0000 0000 0000 0000 0000
00000360: 0000 0000 0000 0000 0000 0000 0000 0000
00000370: 0000 0000 0000 0000 0000 0000 0000 0000
00000380: 0000 0000 0000 0000 0000 0000 0000 0000
00000390: 0000 0000 0000 0000 0000 0000 0000 0000
000003a0: 0000 0000 0000 0000 0000 0000 0000 0000
000003b0: 0000 0000 0000 0000 0000 0000 0000 0000
000003c0: 0000 0000 0000 0000 0400 0000 0000 0000
000003d0: 0000 0000 0000 0000 0000 0000 0000 0000
000003e0: 0000 0000 0000 0000 0000 0000 0400 0000
000003f0: 0000 0000 0400 0000 0000 0000 0000 0000
0.0 0.0 0.0 0.0 0.0 0.0 0.0 0.0
0.0 0.0 0.0 0.0 0.0 0.0 0.0 0.0
0.0 0.0 0.0 0.0 0.0 0.0 0.0 0.0
0.0 0.0 0.0 0.0 0.0 0.0 0.0 0.0
0.0 0.0 0.0 0.0 0.0 0.0 0.0 0.0
0.0 0.0 0.0 0.0 0.0 0.0 0.0 0.0
0.0 0.0 0.0 0.0 0.0 0.0 0.0 0.0
0.0 0.0 0.0 0.0 0.0 0.0 0.0 0.0
6e-45 6e-45 -6e-45 6e-45 0.0 6e-45 6e-45 6e-45
6e-45 -6e-45 6e-45 6e-45 -6e-45 -6e-45 6e-45 0.0
6e-45 -6e-45 0.0 6e-45 -6e-45 6e-45 -6e-45 6e-45
0.0 -6e-45 0.0 0.0 6e-45 0.0 0.0 -6e-45
0.0 6e-45 -6e-45 -6e-45 6e-45 0.0 0.0 6e-45
6e-45 6e-45 6e-45 6e-45 6e-45 -6e-45 6e-45 -6e-45
6e-45 6e-45 6e-45 0.0 6e-45 6e-45 6e-45 0.0
6e-45 -6e-45 6e-45 6e-45 -6e-45 6e-45 -6e-45 6e-45
0.0 8.686e-41 0.0 1.153497e-39 0.0 6e-45 0.0 1.636145e-39
0.0 0.0 6e-45 0.0 0.0 0.0 0.0 0.0
1.682357e-39 0.0 0.0 0.0 0.0 6e-45 0.0 0.0
0.0 0.0 0.0 0.0 0.0 0.0 0.0 0.0
0.0 6e-45 0.0 0.0 0.0 0.0 0.0 0.0
6e-45 0.0 6e-45 0.0 0.0 -6e-45 0.0 0.0
0.0 1.15258e-40 2.0152094e-25 0.0 0.0 6e-45 1.03745e-40 0.0
0.0 0.0 0.0 1.56063e-40 0.0 4.96669e-39 0.0 0.0
0.0 6e-45 0.0 6e-45 0.0 6e-45 0.0 6e-45
0.0 0.0 6e-45 0.0 0.0 0.0 0.0 0.0
0.0 0.0 0.0 0.0 0.0 0.0 0.0 0.0
0.0 0.0 0.0 0.0 0.0 0.0 0.0 0.0
0.0 0.0 0.0 0.0 0.0 0.0 0.0 0.0
0.0 0.0 0.0 0.0 0.0 0.0 0.0 0.0
0.0 0.0 6e-45 0.0 0.0 0.0 0.0 0.0
0.0 0.0 0.0 6e-45 0.0 6e-45 0.0 0.0
