data/models/production/test_convenience_hist.pth (torch, 199283 bytes, 39 tensors)

shared_backbone.0.weight f4 [64, 2]
-0.051125474 -0.39508602 0.1605774 0.116622545 -0.11353129 -0.1393557 -0.025103532 -0.27404264
0.2087119 0.34702012 -0.033814803 -0.058790635 -0.040315088 0.12183526 -0.12388829 -0.09497357
-0.07510098 -0.12884988 -0.13011287 -0.03939224 -0.17790096 0.1944238 -0.06819178 -0.26056024
0.23187521 -0.00831962 0.039204534 0.024411662 -0.18220936 0.13576132 0.009908841 -0.21932796
-0.30185023 -0.043142866 0.031650823 -0.10553343 -0.26821867 0.114954665 -0.24333102 0.0629482
-0.07972455 -0.24882673 -0.12267855 -0.008182375 0.2289216 -0.0626734 -0.2743682 0.176701
0.069857344 -0.31611937 -0.24335025 0.11722859 0.17056742 0.12042208 0.2729227 -0.025727626
-0.10801908 -0.0042732493 0.31848317 -0.21701908 -0.30938283 -0.059666693 -0.054834735 0.08860203
-0.13708177 0.12880495 0.24632502 -0.021189548 -0.23970954 -0.1371026 -0.043578487 -0.23319486
0.111959934 0.33909234 0.23343544 0.29225448 -0.07065482 -0.18598801 0.25595814 0.046680775
-0.009992061 0.10193481 0.4706274 0.20985451 -0.04854431 -0.08968618 -0.123649545 -0.31111374
-0.010320314 -0.054443482 -0.006806323 -0.085992455 0.3250619 -0.010662928 -0.27049658 -0.45921466
-0.22166736 -0.053592943 0.05281589 -0.159713 -0.1828043 -0.08172098 -0.03233032 -0.029225675
-0.3092569 -0.09141232 -0.21214643 0.055784516 0.36825514 -0.1140099 -0.07108386 0.13653807
0.07283787 0.057756457 0.06030398 0.35813928 -0.03494486 -0.15408762 0.29550663 0.07153827
-0.0077330675 -0.2809011 0.05278248 -0.20814118 0.20655891 -0.038298942 -0.12158119 0.045738608
00000000: f268 51bd b748 cabe 676e 243e cdd7 ee3d
00000010: 1883 e8bd 43b3 0ebe eca5 cdbc 514f 8cbe
00000020: 93b8 553e 9fac b13e 6481 0abd 73ce 70bd
00000030: 6f21 25bd c484 f93d 25b9 fdbd 8181 c2bd
00000040: 8bce 99bd 39f1 03be 4f3c 05be c259 21bd
00000050: ab2b 36be 0817 473e 22a8 8bbd 2768 85be
00000060: b270 6d3e 044f 08bc ef94 203d f7fa c73c
00000070: 1795 3abe 0405 0b3e b158 223c 8297 60be
00000080: 1d8c 9abe 93b6 30bd 4ba4 013d e921 d8bd
00000090: f553 89be 5a6d eb3d c42b 79be fcea 803d
000000a0: a046 a3bd 6fcc 7ebe e43e fbbd 5e0f 06bc
000000b0: 6d6a 6a3e e95a 80bd fd79 8cbe 1bf1 343e
000000c0: 5e11 8f3d 66da a1be cf30 79be 8b15 f03d
000000d0: 3aa9 2e3e da9f f63d 86bc 8b3e bec2 d2bc
000000e0: 1b39 ddbd 9d06 8cbb 3a10 a33e 403a 5ebe
000000f0: 6d67 9ebe 1065 74bd 639a 60bd fb74 b53d
00000100: 2a5f 0cbe 72e5 033e a03c 7c3e b495 adbc
00000110: 6b76 75be a064 0cbe 5b7f 32bd a2ca 6ebe
00000120: 404b e53d 839d ad3e b309 6f3e 61a2 953e
00000130: 79b3 90bd a473 3ebe f20c 833e 5734 3f3d
00000140: beb5 23bc 33c3 d03d 13f6 f03e 1ae4 563e
00000150: 66d6 46bd 63ad b7bd f93b fdbd 4d4a 9fbe
00000160: 8916 29bc 2100 5fbd 9307 dfbb d01c b0bd
00000170: 836e a63e 90b3 2ebc 877e 8abe 2f1e ebbe
00000180: c5fc 62be 4684 5bbd 7a55 583d ce8b 23be
00000190: 0d31 3bbe 545d a7bd cc6c 04bd af6a efbc
000001a0: ec56 9ebe 6236 bbbd ea3c 59be 4e7e 643d
000001b0: f08b bc3e 067e e9bd 6a94 91bd a3d0 0b3e
000001c0: 052c 953d 0992 6c3d 4e01 773d 085e b73e
000001d0: 5722 0fbd 25c9 1dbe a54c 973e a882 923d
000001e0: ac65 fdbb 45d2 8fbe 7132 583d f622 55be
000001f0: 2e84 533e 5adf 1cbd 8fff f8bd 6858 3b3d

shared_backbone.0.bias f4 [64]
0.0 0.0730171 0.0 0.0 0.19024375 -0.08762765 -0.074325144 0.0
0.0 0.0 0.20834403 0.0 0.106636 -0.12718491 -0.057848394 -0.09000471
-0.057848647 -0.072195314 -0.057848368 -0.057848647 0.0 0.0 -0.012740552 0.06084216
-0.076053455 -0.057848345 0.09093593 0.19774409 -0.05784873 0.091714315 0.0 -0.05407573
0.039159726 0.14737551 0.0 -0.057848822 0.113022365 0.08424288 0.0 0.19884014
-0.05784755 -0.09079861 -0.05784883 0.0 -0.057848632 0.0 0.049555946 0.0
0.0 -0.14842884 0.0 0.0 0.0 -0.057617277 0.10314971 -0.053099178
-0.1164632 0.07764319 0.0 0.17219168 0.0 -0.05993714 0.093854345 -0.05784821
00000000: 0000 0000 fd89 953d 0000 0000 0000 0000
00000010: 42cf 423e 2076 b3bd c837 98bd 0000 0000
00000020: 0000 0000 0000 0000 2358 553e 0000 0000
00000030: fa63 da3d c33c 02be 70f2 6cbd 6454 b8bd
00000040: b4f2 6cbd 23db 93bd 69f2 6cbd b4f2 6cbd
00000050: 0000 0000 0000 0000 c0bd 50bc a135 793d
00000060: eac1 9bbd 63f2 6cbd 9e3c ba3d 6d7d 4a3e
00000070: caf2 6cbd b7d4 bb3d 0000 0000 837e 5dbd
00000080: f365 203d 9be9 163e 0000 0000 e3f2 6cbd
00000090: 4578 e73d 8887 ac3d 0000 0000 c09c 4b3e
000000a0: 8df1 6cbd 9ff4 b9bd e5f2 6cbd 0000 0000
000000b0: b0f2 6cbd 0000 0000 2dfb 4a3d 0000 0000
000000c0: 0000 0000 bbfd 17be 0000 0000 0000 0000
000000d0: 0000 0000 1800 6cbd 2840 d33d 867e 59bd
000000e0: 4284 eebd 6503 9f3d 0000 0000 0453 303e
000000f0: 0000 0000 a680 75bd b536 c03d 3ff2 6cbd

shared_backbone.2.weight f4 [64, 64]
0.06977242 -0.04127198 0.15072957 0.3697196 -0.15040416 -0.24630846 -0.04585981 -0.106010206
-0.015483093 0.27180716 -0.13793851 -0.19821614 0.02438535 -0.28107056 -0.16885822 -0.074474536
0.060703162 -0.007481756 -0.24435407 0.11416622 -0.14307341 0.3954746 0.08401375 -0.3976703
0.12342017 0.13057815 -0.20058954 0.14040053 0.09956438 0.22486109 0.045574263 0.23990256
-0.031202897 -0.20523793 -0.13542312 0.37182733 -0.049281903 -0.10154594 0.06763705 -0.0030882182
0.020644771 0.045214247 -0.120506965 -0.027147308 -0.15305792 0.11519528 -0.07118718 0.1390456
0.10525841 -0.0258396 0.18858403 -0.24836574 0.08101801 0.0521445 0.054624744 -0.046005473
-0.2638689 0.2323471 0.21119079 -0.3036441 -0.18323104 0.33115366 -0.11650353 -0.15478542
-0.026174283 -0.062100727 -0.1504904 0.14494011 -0.16073287 0.06383801 0.080924764 -0.09189879
-0.08377503 0.06151018 -0.014180302 0.4014835 -0.10849566 -0.08204577 0.033386152 0.074657574
0.23124418 -0.34273636 0.009464037 -0.045152083 -0.13144077 0.030188974 -0.24723136 -0.050528504
-0.2169924 -0.24730153 0.14096206 -0.17762056 -0.09564182 0.119106844 0.12923832 -0.10540259
0.07210422 -0.6468417 0.29250664 0.24514611 -0.122539334 -0.025911242 -0.4068536 -0.1707092
-0.14288999 0.07514674 -0.23882928 -0.041625936 0.0012436807 -0.011507309 0.11734044 -0.08461714
0.31932777 0.20242454 0.13696373 0.3457568 0.1116522 -0.07784844 0.11211761 -0.060453597
0.0026963844 -0.06378781 -5.338121e-05 0.15964852 -0.22987778 -0.16793023 -0.03674037 -0.1312839
-0.10116526 -0.07711656 0.15449941 -0.039416533 -0.16744953 -0.3384943 -0.15946315 0.019597318
-0.057807293 -0.13467321 0.04953362 0.03156871 -0.29552183 -0.21705513 0.27395418 -0.15459447
-0.19701411 -0.11227438 -0.06990296 0.09022394 0.0070191645 -0.023947202 0.25572118 0.23772402
-0.048915036 -0.016664425 -0.35547927 -0.27732718 0.037906844 -0.23597479 0.2855475 0.117769465
-0.1077831 -0.16753443 0.19864208 -0.4448127 -0.23540546 -0.22115709 0.02360821 -0.05517843
-0.28808457 0.08804257 0.13423498 0.18340825 0.098164424 -0.037802078 -0.038151238 0.20489271
-0.053072155 0.0028569598 -0.010395757 -0.05251799 0.3096446 0.13461491 0.2366181 -0.13578631
-0.11853792 0.19022974 -0.3431437 0.05074547 -0.061653852 0.09397419 0.20385206 -0.36558506
0.119951025 0.029222978 -0.19746445 -0.13821717 0.18903099 0.28757697 -0.23496015 0.048233707
-0.106712796 0.060336772 0.12571724 0.123688005 -0.34486845 -0.31113815 -0.0118649965 -0.21736503
-0.25164267 0.024279136 -0.2878299 0.031637594 0.061789516 -0.17719968 0.09165522 -0.4603648
-0.11335177 -0.29614598 -0.17193101 0.1716035 -0.14717677 -0.06967679 0.14071245 -0.033056058
-0.09437442 -0.15021734 -0.26400998 -0.240383 -0.014227733 0.05432932 0.048072338 -0.043237463
0.19948085 -0.009619852 -0.093908116 -0.14256337 0.29226273 -0.26972386 -0.05020619 -0.03324718
0.003907503 0.3201889 0.098509975 -0.06642341 0.029170169 -0.11924777 0.019530112 0.29341388
0.063905165 -0.2764892 -0.09673349 -0.29452735 -0.14348611 -0.1440638 -0.26282513 -0.2764565
00000000: d8e4 8e3d cf0c 29bd da58 1a3e e34b bd3e
00000010: 8c03 1abe 4938 7cbe 7fd7 3bbd e11b d9bd
00000020: cdac 7dbc 4f2a 8b3e c13f 0dbe 2cf9 4abe
00000030: c9c3 c73c 7be8 8fbe 2be9 2cbe 1b86 98bd
00000040: e1a3 783d 8529 f5bb f437 7abe fbcf e93d
00000050: d681 12be a67b ca3e 670f ac3d 719b cbbe
00000060: b7c3 fc3d 47b6 053e 5867 4dbe 28c5 0f3e
00000070: 69e8 cb3d fc41 663e 14ac 3a3d 04a9 753e
00000080: 389d ffbc e429 52be 5cac 0abe 2760 be3e
00000090: d2db 49bd 51f7 cfbd 4b85 8a3d b463 4abb
000000a0: 391f a93c 9332 393d 5bcc f6bd 0864 debc
000000b0: 37bb 1cbe 81eb eb3d 96ca 91bd f861 0e3e
000000c0: b991 d73d 92ad d3bc 2c1c 413e 9753 7ebe
000000d0: c5ec a53d 7995 553d 32be 5f3d 3c70 3cbd
000000e0: d319 87be 66ec 6d3e 6642 583e 3d77 9bbe
000000f0: eba0 3bbe f98c a93e 6799 eebd 1280 1ebe
00000100: 736b d6bc 555d 7ebd 281a 1abe 2e6b 143e
00000110: 2897 24be 81bd 823d e2bb a53d 6f35 bcbd
00000120: 3e92 abbd 19f2 7b3d 7f54 68bc 3f8f cd3e
00000130: f932 debd 9d07 a8bd ebbf 083d 12e6 983d
00000140: 46cb 6c3e 247b afbe 0c0f 1b3c 64f1 38bd
00000150: 6998 06be de4e f73c 382a 7dbe faf6 4ebd
00000160: 4133 5ebe 9d3c 7dbe 5c58 103e 2ae2 35be
00000170: dcdf c3bd 4aee f33d 0d57 043e 50dd d7bd
00000180: 61ab 933d 6b97 25bf 6ec3 953e 9507 7b3e
00000190: e7f5 fabd d043 d4bc 1d4f d0be 64ce 2ebe
000001a0: c151 12be 89e6 993d aa8f 74be f57f 2abd
000001b0: 0003 a33a 2789 3cbc 2f50 f03d c04b adbd
000001c0: ee7e a33e 6148 4f3e 3840 0c3e 0907 b13e
000001d0: e9a9 e43d 016f 9fbd eb9d e53d 319e 77bd
000001e0: d3b5 303b 2fa3 82bd a3e5 5fb8 e77a 233e
000001f0: 1565 6bbe e7f5 2bbe 127d 16bd 496f 06be
00000200: bb2f cfbd 49ef 9dbd 1835 1e3e 3b73 21bd
00000210: e477 2bbe 204f adbe 4f4a 23be 8e8a a03c
00000220: 57c7 6cbd c6e7 09be c4e3 4a3d 314e 013d
00000230: a34e 97be b343 5ebe b943 8c3e 034e 1ebe
00000240: 11be 49be 1cf0 e5bd 4829 8fbd 54c7 b83d
00000250: 0501 e63b ec2c c4bc e3ed 823e ed6d 733e
00000260: 225b 48bd d583 88bc 6101 b6be d4fd 8dbe
00000270: 3544 1b3d 60a3 71be 4833 923e 1e31 f13d
00000280: 63bd dcbd 258e 2bbe d468 4b3e 7dbe e3be
00000290: 210e 71be 0177 62be 0166 c13c c702 62bd
000002a0: d27f 93be aa4f b43d e574 093e 5fcf 3b3e
000002b0: 6e0a c93d 5ad6 1abd 7944 1cbd 65cf 513e
000002c0: 3062 59bd d53b 3b3b f752 2abc 1b1d 57bd
000002d0: bd89 9e3e 7ed8 093e 044c 723e 910b 0bbe
000002e0: 02c4 f2bd 96cb 423e 88b0 afbe 7bda 4f3d
000002f0: c088 7cbd 8a75 c03d 98be 503e f72d bbbe
00000300: e2a8 f53d 0765 ef3c 1f34 4abe cd88 0dbe
00000310: 5791 413e 4a3d 933e 6599 70be b590 453d
00000320: 3d8c dabd b123 773d 05bc 003e 2350 fd3d
00000330: 9992 b0be 804d 9fbe 6765 42bc f094 5ebe
00000340: 4fd7 80be 0ae5 c63c 715e 93be 6c96 013d
00000350: 0117 7d3d d573 35be bbb5 bb3d efb4 ebbe
00000360: f924 e8bd 72a0 97be af0e 30be d4b8 2f3e
00000370: 82b5 16be b4b2 8ebd ed16 103e ca65 07bd
00000380: 6047 c1bd 93d2 19be 512c 87be f626 76be
00000390: 701b 69bc 6c88 5e3d 80e7 443d c419 31bd
000003a0: b544 4c3e 959c 1dbc e652 c0bd 22fc 11be
000003b0: 76a3 953e 3f19 8abe 02a5 4dbd 322e 08bd
000003c0: 830a 803b cdef a33e 99bf c93d ff08 88bd
000003d0: 47f6 ee3c 2d38 f4bd 9dfd 9f3c 583a 963e
000003e0: b6e0 823d fe8f 8dbe 351c c6bd 4acc 96be
000003f0: 06ee 12be 7685 13be 0491 86be b58b 8dbe

shared_backbone.2.bias f4 [64]
0.0 -0.0751863 -0.06531689 -0.057848804 -0.05784839 0.008998706 0.14123215 0.19707249
-0.057848886 0.21161236 0.06542639 -0.05784872 0.0 -0.062277716 -0.099028796 0.0
-0.024633598 0.12189797 0.14967218 0.12155767 -0.040658496 -0.0072571295 0.0 0.012158404
-0.057848863 -0.057847623 -0.019293586 0.042904325 0.07365045 -0.067997135 -0.057847787 0.0
0.21245886 -0.04526511 0.0 -0.02730734 -0.079859816 -0.067421645 0.09516156 -0.045218322
-0.019600969 -0.057848733 -0.082346275 -0.08142156 -0.09786255 -0.050382473 0.0 -0.057848733
-0.057843868 -0.023446193 -0.0435791 0.228634 -0.034481212 0.06679326 -0.051378142 -0.04491762
0.01373427 -0.045747507 0.060251817 -0.009123967 0.0 0.15182522 -0.057848867 -0.07154723
00000000: 0000 0000 46fb 99bd ddc4 85bd def2 6cbd
00000010: 6ff2 6cbd 4f6f 133c 299f 103e 5fcd 493e
00000020: f4f2 6cbd e9b0 583e 45fe 853d c8f2 6cbd
00000030: 0000 0000 eb16 7fbd 9ccf cabd 0000 0000
00000040: 66cc c9bc a5a5 f93d aa43 193e 3af3 f83d
00000050: 8689 26bd 37cd edbb 0000 0000 0b34 473c
00000060: eef2 6cbd a1f1 6cbd 950d 9ebc 72bc 2f3d
00000070: 0cd6 963d 1542 8bbd cdf1 6cbd 0000 0000
00000080: d18e 593e e867 39bd 0000 0000 a5b3 dfbc
00000090: 8b8d a3bd 5c14 8abd 10e4 c23d d936 39bd
000000a0: 3692 a0bc cbf2 6cbd 2aa5 a8bd 59c0 a6bd
000000b0: 296c c8bd da5d 4ebd 0000 0000 cbf2 6cbd
000000c0: b1ed 6cbd 3b12 c0bc 0080 32bd 081f 6a3e
000000d0: 2c3c 0dbd e8ca 883d e371 52bd 8afb 37bd
000000e0: b405 613c bd61 3bbd 9cca 763d b17c 15bc
000000f0: 0000 0000 1278 1b3e eff2 6cbd 5b87 92bd

goal_head.weight f4 [2, 64]
-0.18950336 0.15743214 -0.16993678 0.13925081 -0.14203097 -0.14499004 -0.41131476 -0.31949976
0.029003175 -0.40517446 -0.23584549 0.29225555 -0.036199108 0.11398884 0.20738058 -0.18219624
-0.13473755 -0.26055476 -0.18680125 -0.5149074 -0.0072229817 -0.56707066 -0.349337 0.123069026
0.3534331 -0.13283019 -0.41892695 -0.19504014 0.2350083 0.03960266 -0.28671837 -0.08554417
-0.15604477 0.103220075 0.06534312 0.09336245 0.052316166 0.25182354 -0.30836332 -0.18323307
0.05484977 0.03580907 -0.14858721 -0.11685078 -0.031368747 -0.048093442 0.050014373 -0.17933674
-0.045349 -0.118262276 -0.10326324 -0.50574726 0.023022877 -0.32376444 0.03764823 -0.10110398
-0.22558469 -0.057458326 -0.32751814 -0.07763732 0.23070966 -0.340553 0.06780055 -0.026446601
0.018812334 0.24767357 -0.20341732 0.12989046 -0.13488962 0.3072778 0.29120398 0.26414517
-0.1779819 0.62145525 0.2255739 0.032768883 -0.031552814 0.23929717 0.15230832 -0.09768207
-0.1354965 0.299633 0.2885844 0.23794052 -0.16496107 -0.14088164 0.16195723 -0.034154363
0.1515258 0.09090374 -0.184834 0.31502265 0.12882388 0.21200442 0.019521816 -0.19832776
0.315932 -0.059802942 0.22734237 0.1747435 0.090772875 -0.23525876 0.5343087 0.07011867
-0.0064348243 -0.24790989 -0.17439918 -0.10954058 -0.14095882 0.17670715 -0.005499946 -0.14574364
0.128266 0.1998584 0.0145903425 0.21500906 -0.17679937 0.34284496 0.00090625376 -0.08174272
0.12763456 -0.42861012 -0.025902765 0.17641999 -0.35248747 0.16073968 -0.006192951 0.1715391
00000000: 2b0d 42be e435 213e e803 2ebe c497 0e3e
00000010: 9170 11be 4578 14be d997 d2be 7995 a3be
00000020: 1198 ed3c 0773 cfbe 7b81 71be 85a2 953e
00000030: 8445 14bd fb72 e93d 935b 543e a791 3abe
00000040: a4f8 09be 6f67 85be d448 3fbe f9d0 03bf
00000050: c3ae ecbb 8b2b 11bf 4ddc b2be 9d0b fc3d
00000060: 2ff5 b43e a304 08be 987d d6be 9ab8 47be
00000070: 04a6 703e 6636 223d c0cc 92be c831 afbd
00000080: 33ca 1fbe 0c65 d33d 9dd2 853d d034 bf3d
00000090: 7a49 563d 04ef 803e cce1 9dbe 73a1 3bbe
000000a0: 27aa 603d 88ac 123d 3f27 18be 764f efbd
000000b0: 847c 00bd a1fd 44bd dfdb 4c3d 0da4 37be
000000c0: dfbf 39bd 7e33 f2bd ad7b d3bd a778 01bf
000000d0: 799a bc3c 74c4 a5be 0835 1a3d 9a0f cfbd
000000e0: acff 66be 6c59 6bbd 75b0 a7be 5100 9fbd
000000f0: 273f 6c3e f65c aebe 04db 8a3d 8ba6 d8bc
00000100: 531c 9a3c 249e 7d3e a14c 50be 0102 053e
00000110: 8120 0abe 8453 9d3e b018 953e 093e 873e
00000120: e340 36be b117 1f3f d8fc 663e aa38 063d
00000130: 863d 01bd 510a 753e b6f6 1b3e 8a0d c8bd
00000140: 98bf 0abe 7f69 993e 56c1 933e aea6 733e
00000150: 8eeb 28be 4743 10be 1ed8 253e 72e5 0bbd
00000160: 9429 1b3e bd2b ba3d 2045 3dbe a64a a13e
00000170: 68ea 033e b017 593e 37ec 9f3c 6f16 4bbe
00000180: d7c1 a13e eef3 74bd 70cc 683e f6ef 323e
00000190: 21e7 b93d ace7 70be 74c8 083f 619a 8f3d
000001a0: 38db d2bb 17dc 7dbe b395 32be d056 e0bd
000001b0: 8257 10be b8f2 343e e438 b4bb d23d 15be
000001c0: 2a58 033e aea7 4c3e 550c 6f3c 562b 5c3e
000001d0: e50a 35be 6089 af3e a991 6d3a ba68 a7bd
000001e0: a2b2 023e c972 dbbe 0932 d4bc 71a7 343e
000001f0: 3d79 b4be f198 243e 3dee cabb f2a7 2f3e

goal_head.bias f4 [2]
-0.20782708 0.20782706
00000000: 9fd0 54be 9ed0 543e

portfolio_head.weight f4 [15, 64]
-0.140378 -0.121410556 0.22733349 0.036499508 0.2726735 0.040087525 -0.1952473 -0.07819137
0.37873974 0.036345568 -0.36937383 -0.14089788 0.34325922 0.059535548 0.22286619 0.23182042
0.14614479 0.025187949 -0.21050729 -0.1691968 0.018471032 -0.45743635 -0.15989183 0.27585515
-0.21130325 -0.045907952 0.0909419 -0.2695935 -0.12846972 0.0073359376 -0.04193849 0.004722383
0.15075555 0.4597261 0.13527629 0.035267852 -0.3626299 -0.14836748 -0.23561536 -0.096309274
0.118308134 0.070399046 -0.11103441 -0.060499676 -0.17574988 -0.19851096 -0.15205425 0.045031402
-0.09035754 -0.2658371 -0.1426877 -0.17756236 0.049857788 -0.0465287 -0.042101417 0.31074908
0.01966415 -0.16037926 0.21764816 -0.18899226 -0.1766631 -0.015380295 -0.1370626 0.22023249
0.071537256 0.19955687 -0.3759296 0.17468625 0.54604363 0.018071342 -0.15916985 -0.028413784
0.048915505 -0.005438186 0.3849573 -0.10698694 -0.2076251 0.2656251 0.17422557 -0.047818575
0.014629041 0.11029619 0.25006196 0.15042475 0.37338832 0.14723803 -0.24845828 -0.28046376
-0.052271552 -0.02377499 0.26536664 0.14110233 -0.3058239 -0.06558576 -0.00034772823 -0.008548346
-0.2240543 0.019045413 -0.18980892 -0.19662537 -0.24298413 -0.09538109 0.36955756 -0.080685504
0.03271669 -0.10206155 -0.011627872 0.3742353 0.25404996 -0.0780301 0.07604702 0.2910899
0.03891094 -0.05282264 0.34530666 -0.3450376 -0.037034143 -0.07649066 -0.11691704 -0.06236907
-0.1661503 0.13759811 0.16450691 -0.120477796 -0.1334362 0.20409691 -0.08356894 -0.08511295
0.0078341365 0.09569787 0.21930848 0.13872272 0.026670959 0.10184905 -0.025334187 -0.3892323
-0.09962689 -0.20263924 -0.26321116 -0.30547658 -0.089057386 -0.093182296 0.15711048 -0.027006947
0.30765364 -0.041264836 -0.03316826 -0.16386515 0.19054407 0.15726435 -0.024205314 0.22967687
0.43038917 -0.15015651 -0.19623777 0.16729817 -0.4531599 0.039924514 -0.04458473 -0.21802452
-0.48047405 0.03053462 -0.31743202 -0.07576247 -0.3706978 0.15511917 -0.060845498 -0.23761085
-0.14063835 0.049072456 -0.10487093 0.0077114366 -0.07878826 0.23218466 -0.12815376 -0.07742573
-0.16431037 0.068890765 0.046760954 -0.11412397 0.03839206 0.26432317 0.12186507 -0.2702868
0.03279741 0.07380359 -0.22620821 -0.06270259 -0.074896 -0.28243157 -0.11033226 0.1805228
-0.24613322 0.015292546 0.053332165 -0.16386166 -0.33900803 -0.1549082 -0.15599927 -0.09289932
-0.1590263 0.30788463 -0.47397715 -0.08984616 -0.04958737 0.05407846 -0.18620759 -0.011627579
-0.041324683 -0.18616337 -0.1636887 -0.16369759 -0.26231468 -0.04621493 -0.35454443 0.17705956
-0.04360978 -0.020047326 0.23481484 0.059967667 0.23171593 -0.14088894 -0.08078644 -0.22937483
0.004748749 -0.14163531 -0.24368654 0.2939701 -0.055359144 -0.07671117 -0.4079899 0.102641076
0.21824458 -0.04930382 -0.26326582 0.09530677 -0.0070328536 -0.15609013 0.08918898 0.21848954
0.0075033624 -0.03677955 -0.26611063 -0.1402855 0.016513035 -0.053081527 0.024856398 0.15186994
0.38423976 -0.050822355 0.040353347 0.026128775 0.15504088 -0.09578952 -0.12621117 -0.23379388
00000000: 40bf 0fbe 19a6 f8bd 1cca 683e 8280 153d
00000010: dc9b 8b3e d132 243d e9ee 47be cc22 a0bd
00000020: 2dea c13e 17df 143d 911e bdbe 8947 10be
00000030: acbf af3e 8cdb 733d 0937 643e 5562 6d3e
00000040: fba6 153e f556 ce3c 398f 57be ed41 2dbe
00000050: 9050 973c 1935 eabe afba 23be e33c 8d3e
00000060: e15f 58be fa09 3cbd bf3f ba3d 2908 8abe
00000070: 918d 03be 4e62 f03b b2c7 2bbd 38be 9a3b
00000080: aa5f 1a3e 3861 eb3e de85 0a3e 0675 103d
00000090: a0aa b9be a5ed 17be 2745 71be cc3d c5bd
000000a0: 894b f23d 602d 903d 0266 e3bd 82ce 77bd
000000b0: c7f7 33be 7546 4bbe 1cb4 1bbe d972 383d
000000c0: 600d b9bd cd1b 88be b91c 12be e8d2 35be
000000d0: ae37 4c3d e194 3ebd 8972 2cbd 811a 9f3e
000000e0: b616 a13c 763a 24be 29df 5e3e 3087 41be
000000f0: 2ce7 34be a2fd 7bbc 235a 0cbe a084 613e
00000100: 2082 923d a358 4c3e d879 c0be f4e0 323e
00000110: 84c9 0b3f 5a0a 943c 6cfd 22be 06c4 e8bc
00000120: a05b 483d d032 b2bb 2019 c53e f81b dbbd
00000130: ad9b 54be 0300 883e 3068 323e 69dd 43bd
00000140: a5ae 6f3c f8e2 e13d 1f08 803e f208 1a3e
00000150: c12c bf3e 91c5 163e d96b 7ebe f298 8fbe
00000160: b21a 56bd c5c3 c2bc 23de 873e 217d 103e
00000170: f394 9cbe d451 86bd 4b4f b6b9 5d0e 0cbc
00000180: 7e6e 65be 2005 9c3c 455d 42be 2958 49be
00000190: d5d0 78be 2957 c3bd a636 bd3e 713e a5bd
000001a0: f001 063d a505 d1bd d482 3ebc c59b bf3e
000001b0: d612 823e 3fce 9fbd 8abe 9b3d bc09 953e
000001c0: 1461 1f3d 8d5c 58bd 09cc b03e c5a8 b0be
000001d0: 1db1 17bd 23a7 9cbd 3372 efbd b676 7fbd
000001e0: 4e23 2abe 85e6 0c3e 8074 283e 10bd f6bd
000001f0: 80a3 08be c8fe 503e 3126 abbd b34f aebd
00000200: c05a 003c 3ffd c33d 6792 603e 540d 0e3e
00000210: 0e7d da3c 3c96 d03d a489 cfbc 7549 c7be
00000220: 2f09 ccbd a980 4fbe 9dc3 86be 6d67 9cbe
00000230: b863 b6bd 5cd6 bebd 92e1 203e ac3d ddbc
00000240: c784 9d3e 5105 29bd 71db 07bd 44cc 27be
00000250: fc1d 433e e809 213e 394a c6bc 6a30 6b3e
00000260: f85b dc3e a1c2 19be 8ef2 48be 3650 2b3e
00000270: 9304 e8be e387 233d 7a9e 36bd d241 5fbe
00000280: b200 f6be bd23 fa3c 7386 a2be 5b29 9bbd
00000290: 1acc bdbe 8fd7 1e3e 2139 79bd 4250 73be
000002a0: 8003 10be 3300 493d 92c6 d6bd 38b0 fc3b
000002b0: bd5b a1bd d1c1 6d3e bd3a 03be 6291 9ebd
000002c0: fa40 28be 9a16 8d3d 6a88 3f3d d4b9 e9bd
000002d0: fe40 1d3d 5e55 873e 6594 f93d 0863 8abe
000002e0: 9456 063d 5626 973d 20a3 67be 376a 80bd
000002f0: 1363 99bd df9a 90be e1f5 e1bd f8da 383e
00000300: 590a 7cbe 968d 7a3c d472 5a3d 5acb 27be
00000310: 7692 adbe 41a0 1ebe 46be 1fbe 0042 bebd
00000320: cad7 22be 0ea3 9d3e 22ad f2be 4301 b8bd
00000330: 201c 4bbd 6081 5d3d 34ad 3ebe 9a81 3ebc
00000340: 1244 29bd 9ca1 3ebe 039e 27be 57a0 27be
00000350: 1c4e 86be de4b 3dbd d986 b5be 1a4f 353e
00000360: 2ba0 32bd 4a3a a4bc 4d73 703e a8a0 753d
00000370: f146 6d3e 3145 10be 5c73 a5bd 3ce1 6abe
00000380: 659b 9b3b d908 11be f788 79be 4083 963e
00000390: 45c0 62bd bf1a 9dbd 0de4 d0be 7c35 d23d
000003a0: 827b 5f3e cdf2 49bd c7ca 86be 3230 c33d
000003b0: da73 e6bb 17d6 1fbe b6a8 b63d b9bb 5f3e
000003c0: c4de f53b 27a6 16bd a73f 88be 01a7 0fbe
000003d0: 5846 873c 046c 59bd a59f cb3c cb83 1b3e
000003e0: 13bb c43e 1a2b 50bd 8d49 253d 030c d63c
000003f0: 09c3 1e3e 4c2d c4bd 803d 01be aa67 6fbe

portfolio_head.bias f4 [15]
-0.054020464 -0.01327934 -0.10467149 0.0056559397 -0.071004726 -0.028297672 -0.0032542602 0.022932049
0.0018129739 -0.116923966 0.052038737 0.14515695 -0.007832296 0.083134554 0.0068919985
00000000: 9044 5dbd 9791 59bc 025e d6bd 7655 b93b
00000010: ed6a 91bd 85d0 e7bc 6d45 55bb fedb bb3c
00000020: 4fa1 ed3a d575 efbd 9226 553d 06a4 143e
00000030: 0853 00bc 7342 aa3d 46d6 e13b

network.0.weight f4 [64, 2]
-0.35518906 0.19360727 -0.29082257 0.07342694 -0.14304039 0.1674655 0.074620105 -0.14202362
-0.05682336 -0.08972742 -0.04582147 -0.26970658 -0.06729324 -0.083242826 -0.03214288 0.075222135
-0.018459925 -0.18776077 -0.4497315 0.527465 -0.31253356 0.21903448 0.25049886 0.020891193
-0.18020476 0.400112 -0.035529297 0.32983112 -0.15235162 -0.24444607 -0.020746633 -0.12178858
-0.07706515 -0.027653746 -0.029409943 -0.006287067 -0.05817389 0.038500525 -0.09326965 0.00088087894
-0.15171458 -0.023276959 -0.21177028 0.683283 -0.05520571 -0.10546828 0.14951387 0.216598
-0.35716555 0.21794146 -0.26867676 -0.24052003 -0.037320726 -0.17233007 -0.104410015 -0.07900918
-0.25010994 0.07824279 -0.28134766 0.43128034 -0.18022342 0.08078915 0.3215937 0.26909593
0.0477823 0.22090878 -0.055159677 -0.13643682 0.43347794 0.24555676 -0.27671772 -0.06855334
-0.28512335 0.004775433 -0.123035446 0.26418522 -0.21803387 0.03112214 -0.097576156 -0.11282825
-0.1927447 -0.07402526 -0.038289852 0.23415035 -0.23840497 0.09202424 -0.4670444 0.455501
-0.05289527 0.07102948 -0.2543068 -0.089876994 -0.38550466 0.26207632 -0.37699082 0.39353585
-0.40921664 -0.27709123 -0.18717304 0.06939066 -0.2786461 0.14954412 -0.46021947 0.44262996
-0.17209871 -0.3452779 -0.19092897 0.15030703 -0.046551123 -0.10276771 -0.14044535 0.2219665
-0.09930488 0.03495175 -0.39680135 -0.018550282 -0.46578017 0.3992213 -0.26107267 -0.15404558
-0.174804 -0.16347611 -0.45791978 0.4606474 0.23604973 0.32918152 -0.10065069 -0.03144865
00000000: 57db b5be fc40 463e b2e6 94be dd60 963d
00000010: 2e79 12be 137c 2b3e 6dd2 983d a46e 11be
00000020: 9dbf 68bd 02c3 b7bd 4baf 3bbd fb16 8abe
00000030: 0ad1 89bd 377b aabd 41a8 03bd 100e 9a3d
00000040: 4539 97bc 5c44 40be 3543 e6be f207 073f
00000050: 6604 a0be 934a 603e 6341 803e 0224 ab3c
00000060: 9987 38be 7bdb cc3e 2b87 11bd a0df a83e
00000070: 1002 1cbe 1250 7abe d8f4 a9bc 4b6c f9bd
00000080: 55d4 9dbd 1c8a e2bc 1fed f0bc be03 cebb
00000090: bf47 6ebd bab2 1d3d 2904 bfbd c9ea 663a
000000a0: 115b 1bbe 52af bebc 4fda 58be a2eb 2e3f
000000b0: 621f 62bd c1ff d7bd 2a1a 193e decb 5d3e
000000c0: 67de b6be 0c2c 5f3e 0090 89be e24a 76be
000000d0: 9edd 18bd 4b77 30be ebd4 d5bd 91cf a1bd
000000e0: 690e 80be c23d a03d cd0c 90be c7d0 dc3e
000000f0: 7d8c 38be c874 a53d eea7 a43e f1c6 893e
00000100: 5fb7 433d e935 623e 1def 61bd 18b6 0bbe
00000110: d2f0 dd3e 3b73 7b3e f2ad 8dbe b265 8cbd
00000120: b0fb 91be 3c7b 9c3b 02fa fbbd 4943 873e
00000130: 4544 5fbe dcf3 fe3c 02d6 c7bd 7f12 e7bd
00000140: de5e 45be 8e9a 97bd d2d5 1cbd 1cc5 6f3e
00000150: 6f20 74be 3477 bc3d 7220 efbe 6d37 e93e
00000160: b6a8 58bd e777 913d 8034 82be 6e11 b8bd
00000170: de60 c5be de2e 863e f104 c1be 887d c93e
00000180: d884 d1be e7de 8dbe 4aaa 3fbe b11c 8e3d
00000190: b4aa 8ebe 1822 193e e3a1 ebbe 65a0 e23e
000001a0: a53a 30be 44c8 b0be e282 43be 16ea 193e
000001b0: 64ac 3ebd e177 d2bd e8d0 0fbe 304b 633e
000001c0: 5b60 cbbd 9129 0f3d 8c29 cbbe c3f6 97bc
000001d0: bd7a eebe bc66 cc3e 51ab 85be 20be 1dbe
000001e0: d2ff 32be 4866 27be 7674 eabe fad9 eb3e
000001f0: 05b7 713e 7b8a a83e f321 cebd 4dd0 00bd

network.0.bias f4 [64]
0.30301762 -0.057317834 -0.05784695 0.2185432 0.0 0.0 0.0 0.23249753
0.0 0.36585 0.25147852 0.26111943 0.1983081 0.24765962 0.0 -0.057491176
0.0 -0.05784425 -0.057844363 -0.05773866 0.0 0.23208709 0.0 0.23582304
0.2885321 0.0 0.0 0.0 0.22385362 0.2291625 0.15279199 0.25107872
0.18628453 0.0 0.1991609 0.2260697 0.2319983 -0.0578483 -0.057838805 0.0
0.0 0.24201918 -0.06501884 0.38370955 -0.05784846 0.0 0.31841397 0.30741006
0.0 0.22557099 0.22493781 0.37701845 0.0 -0.072562106 0.0 -0.05779338
-0.05784582 0.0 0.38098425 0.0 0.0 0.37530234 0.22358681 0.0
00000000: 2025 9b3e 1bc6 6abd ecf0 6cbd cac9 5f3e
00000010: 0000 0000 0000 0000 0000 0000 d513 6e3e
00000020: 0000 0000 b150 bb3e cbc1 803e 72b1 853e
00000030: 4711 4b3e 7c9a 7d3e 0000 0000 de7b 6bbd
00000040: 0000 0000 18ee 6cbd 36ee 6cbd 607f 6cbd
00000050: 0000 0000 3da8 6d3e 0000 0000 987b 713e
00000060: 7bba 933e 0000 0000 0000 0000 0000 0000
00000070: e239 653e 93a9 6a3e 8175 1c3e 648d 803e
00000080: 5fc1 3e3e 0000 0000 d6f0 4b3e d17e 673e
00000090: f690 6d3e 57f2 6cbd 62e8 6cbd 0000 0000
000000a0: 0000 0000 e0d3 773e 9928 85bd 9475 c43e
000000b0: 82f2 6cbd 0000 0000 2807 a33e da64 9d3e
000000c0: 0000 0000 15fc 663e 1956 663e 9008 c13e
000000d0: 0000 0000 719b 94bd 0000 0000 c0b8 6cbd
000000e0: bdef 6cbd 0000 0000 5e10 c33e 0000 0000
000000f0: 0000 0000 a127 c03e f1f3 643e 0000 0000

network.2.weight f4 [64, 64]
0.58090574 0.013827455 -0.36308983 -0.0049683484 -0.16945516 -0.024693519 0.057357088 0.20930587
-0.13297527 0.45596373 0.28283522 0.21061635 0.30043015 -0.07312808 -0.11863582 -0.11821877
-0.20651534 0.102271706 -0.17592268 -0.24864683 -0.19876604 0.35177833 0.2482364 0.00041692436
0.36829892 0.021581803 -0.23090889 -0.21230416 0.45743644 0.29965642 0.39764562 -0.11620391
-0.048052266 0.024417525 -0.22747086 0.049272336 0.408589 0.05740542 0.04903381 -0.12393274
0.2600841 0.23134257 0.044413414 0.6010066 -0.028531414 0.10177288 0.6312855 0.4916154
0.18629673 -0.11183089 0.10964585 0.65979093 0.022412917 -0.175664 0.013945819 -0.39944562
0.16069728 0.46199414 0.4398337 0.12910907 -0.3048974 0.685198 -0.2489917 -0.104216
-0.05025078 -0.15382953 0.018623915 0.032722067 -0.15444945 0.080213 -0.19020253 -0.08983477
-0.07947206 0.22186834 0.27988875 -0.16142815 0.17200786 -0.37073848 -0.022661876 0.003285845
0.11392649 0.14028977 0.13067752 0.03526848 0.01696846 -0.021436227 0.054323904 0.124214776
-0.0015485747 -0.26048818 -0.2542184 0.030168042 -0.02169728 -0.2859694 -0.17259438 -0.118748955
-0.33963758 -0.2171961 -0.08187416 -0.11593352 0.27476013 0.071060404 0.047102038 0.23362356
-0.21257032 -0.32767576 0.28016075 -0.29781842 -0.020548526 0.0794075 -0.03189902 0.32298338
-0.0051670196 -0.44518894 -0.057411198 0.016330525 -0.0479566 -0.18812202 0.010803874 -0.19105259
-0.08730976 0.17319782 -0.10760547 -0.32715842 0.15992951 -0.10306915 -0.1054449 0.09621945
0.46139687 -0.041609984 0.09744263 0.104344316 0.003108981 -0.20617734 -0.25734448 -0.16989996
-0.14753975 0.75259835 0.16273753 -0.4386088 0.34243774 -0.3557095 -0.2038836 0.031038895
-0.22200239 -0.2191312 -0.08247448 0.013971307 0.0052244216 -0.014140931 -0.2910745 -0.0862704
0.65713114 0.10633612 0.26664668 0.32742846 0.53803957 0.26753643 0.24586079 0.09263577
0.14112051 -0.306093 -0.21442483 0.35122663 0.53315854 0.19677645 -0.07928997 0.06820565
0.10728278 0.12593246 -0.1760884 0.2995508 0.12913671 -0.1170409 0.47758088 0.46709982
0.031179013 0.1917535 0.42173237 0.6691652 0.000950017 -0.2275786 -0.05917857 -0.025517853
-0.1894496 0.09612582 0.53868514 0.29400635 -0.022756513 0.5149576 0.024744375 0.059671182
-0.057252362 0.13292237 0.15591833 0.6251727 -0.09313124 0.1871608 0.05383809 -0.3120621
-0.048570134 -0.076755434 0.16027622 0.18453483 -0.10036603 -0.12960826 -0.08682098 -0.049978286
-0.13524899 -0.14840671 0.025118234 -0.19256783 0.0034702593 -0.46508458 -0.025617745 -0.13329808
0.19596566 0.16076241 -0.122605495 0.029709777 -0.23879322 -0.08101218 -0.13702907 -0.010779643
-0.24037783 0.038854107 0.040634274 -0.056369532 0.020339208 0.13424487 -0.060022295 -0.15121692
0.075819485 -0.037251733 0.1540707 0.25577432 -0.36338684 -0.32126838 0.08811219 0.12947468
-0.055042285 0.13074052 -0.18825091 -0.15989889 -0.06375882 -0.37595683 0.15356402 0.04671723
0.24737675 -0.13020973 0.11702361 -0.022136912 0.1810445 0.0680485 -0.31038615 -0.19986594
00000000: 3db6 143f 8d8c 623c e9e6 b9be 87cd a2bb
00000010: a785 2dbe 104a cabc 44ef 6a3d 4754 563e
00000020: ab2a 08be 1474 e93e c7cf 903e d0ab 573e
00000030: fbd1 993e 2dc4 95bd 56f7 f2bd af1c f2bd
00000040: c278 53be d473 d13d 1325 34be 469d 7ebe
00000050: 5389 4bbe 4a1c b43e af31 7e3e a496 da39
00000060: ad91 bc3e 52cc b03c 6173 6cbe 4366 59be
00000070: 1c35 ea3e 916c 993e 3598 cb3e 51fc edbd
00000080: 74d2 44bd 4307 c83c 1fee 68be cad1 493d
00000090: 9432 d13e f221 6b3d add7 483d 73d0 fdbd
000000a0: be29 853e 11e5 6c3e d7ea 353d 92db 193f
000000b0: b6ba e9bc 4d6e d03d ed9b 213f 04b5 fb3e
000000c0: 92c4 3e3e 9807 e5bd 018e e03d 0fe8 283f
000000d0: 4b9b b73c 43e1 33be 017d 643c 2384 ccbe
000000e0: d48d 243e 7f8a ec3e e231 e13e 2b35 043e
000000f0: 831b 9cbe 2369 2f3f aef7 7ebe 336f d5bd
00000100: c3d3 4dbd 7d85 1dbe 2e91 983c 9307 063d
00000110: ff27 1ebe b746 a43d 74c4 42be 4bfb b7bd
00000120: 3fc2 a2bd 7431 633e 944d 8f3e 6c4d 25be
00000130: d422 303e 6fd1 bdbe 66a5 b9bc 5557 573b
00000140: 4b52 e93d 1fa8 0f3e 54d0 053e af75 103d
00000150: 7101 8b3c 079b afbc be82 5e3d 5164 fe3d
00000160: 8bf9 caba b55e 85be ea28 82be f822 f73c
00000170: 7fbe b1bc 956a 92be 95bc 30be a732 f3bd
00000180: fae4 adbe a868 5ebe a4ad a7bd 8e6e edbd
00000190: 5cad 8c3e 1e88 913d 11ee 403d 043b 6f3e
000001a0: 09ac 59be 1ec5 a7be 3b71 8f3e a87b 98be
000001b0: 6255 a8bc 66a0 a23d 8ca8 02bd 145e a53e
000001c0: 1a50 a9bb ceef e3be 0128 6bbd 98c7 853c
000001d0: 246e 44bd 0fa3 40be bb02 313c 4aa3 43be
000001e0: 76cf b2bd c55a 313e 4260 dcbd 4f81 a7be
000001f0: 90c4 233e eb15 d3bd 7ff3 d7bd b40e c53d
00000200: 363c ec3e 3b6f 2abd 0090 c73d 79b2 d53d
00000210: 0cc0 4b3b 2720 53be a8c2 83be 41fa 2dbe
00000220: a914 17be 49aa 403f aba4 263e 5591 e0be
00000230: 0054 af3e 8e1f b6be ddc6 50be 4845 fe3c
00000240: 9854 63be ee63 60be 61e8 a8bd e9e7 643c
00000250: a031 ab3b 5daf 67bc b807 95be 89ae b0bd
00000260: bf39 283f c0c6 d93d ea85 883e b4a4 a73e
00000270: f6bc 093f 89fa 883e eec2 7b3e d3b7 bd3d
00000280: e581 103e 39b8 9cbe 2f92 5bbe fad3 b33e
00000290: 147d 083f c47f 493e c862 a2bd 67af 8b3d
000002a0: 13b7 db3d 70f4 003e 8450 34be b95e 993e
000002b0: 6a3c 043e 24b3 efbd 7b85 f43e b527 ef3e
000002c0: 216b ff3c 085b 443e 4eed d73e 694e 2b3f
000002d0: 900a 793a 5d0a 69be 3a65 72bd d10a d1bc
000002e0: 13ff 41be 9ddd c43d 45e7 093f 0088 963e
000002f0: de6b babc 43d4 033f b7b4 ca3c c569 743d
00000300: 7481 6abd cd1c 083e 0ea9 1f3e 510b 203f
00000310: 97bb bebd 15a7 3f3e 5485 5c3d 9bc6 9fbe
00000320: 7af1 46bd f431 9dbd 731f 243e b3f6 3c3e
00000330: b58c cdbd 07b8 04be 33cf b1bd 08b6 4cbd
00000340: b67e 0abe eef7 17be c1c4 cd3c 8030 45be
00000350: 4a6d 633b 911f eebe 4edc d1bc 4b7f 08be
00000360: 39ab 483e e79e 243e 9718 fbbd eb61 f33c
00000370: 3686 74be b7e9 a5bd 5951 0cbe 1a9d 30bc
00000380: 9b25 76be 7c25 1f3d 2070 263d bde3 66bd
00000390: 699e a63c 7d77 093e f0d9 75bd 9cd8 1abe
000003a0: 3f47 9b3d 4695 18bd b6c4 1d3e daf4 823e
000003b0: d70d babe 4a7d a4be 2a74 b43d 0395 043e
000003c0: 0574 61bd d8e0 053e d9c4 40be 89bc 23be
000003d0: fc93 82bd 6a7d c0be e33f 1d3e 915a 3f3d
000003e0: 5550 7d3e b355 05be 13aa ef3d 7858 b5bc
000003f0: bb63 393e 035d 8b3d efea 9ebe a8a9 4cbe

network.2.bias f4 [64]
0.20264672 0.0 0.21095403 -0.057847098 -0.086683504 -0.066980496 0.17804548 0.32371396
0.29000244 -0.057847843 0.19241783 -0.05784873 0.0 -0.057847314 0.0 0.19850534
0.2620496 0.23266853 -0.057848476 -0.05784684 -0.06878563 0.24429964 -0.05784219 0.2636101
0.20467035 -0.057848766 0.0 0.22489221 0.2051757 0.2389043 0.1997773 -0.052273616
0.20277335 0.21001531 0.2051542 0.2037013 -0.05331614 -0.05784738 0.1351433 -0.04181592
-0.057848223 0.0 0.0 0.20566891 0.0 0.0 0.20397328 -0.057847768
-0.07021621 0.25191963 0.0 0.29881275 0.15610605 -0.079141416 0.2775062 -0.057847053
-0.05313832 0.21958578 0.0 -0.059215702 0.21885663 0.0 -0.053138636 0.17451052
00000000: 9f82 4f3e 0000 0000 5504 583e 14f1 6cbd
00000010: 1f87 b1bd 122d 89bd 8e51 363e d6bd a53e
00000020: 337b 943e dcf1 6cbd 2e09 453e caf2 6cbd
00000030: 0000 0000 4ef1 6cbd 0000 0000 fc44 4b3e
00000040: 5d2b 863e a940 6e3e 86f2 6cbd cff0 6cbd
00000050: 7bdf 8cbd af29 7a3e efeb 6cbd e7f7 863e
00000060: 1b95 513e d4f2 6cbd 0000 0000 254a 663e
00000070: 9419 523e 54a3 743e 6c92 4c3e dc1c 56bd
00000080: d1a3 4f3e 410e 573e f113 523e 1397 503e
00000090: 0662 5abd 60f1 6cbd 0163 0a3e 2c47 2bbd
000000a0: 42f2 6cbd 0000 0000 0000 0000 df9a 523e
000000b0: 0000 0000 0000 0000 5fde 503e c8f1 6cbd
000000c0: 84cd 8fbd 9cfb 803e 0000 0000 fcfd 983e
000000d0: 44da 1f3e e514 a2bd 4b15 8e3e 08f1 6cbd
000000e0: 91a7 59bd 18db 603e 0000 0000 2a8c 72bd
000000f0: f41b 603e 0000 0000 e6a7 59bd e3b2 323e

network.4.weight f4 [1, 64]
0.27818042 0.014531999 0.2844936 0.053549733 0.069613054 0.05201443 0.3017874 0.47632894
0.43191183 0.045267478 0.26497942 0.04319453 -0.013582179 0.04245486 -0.010286678 0.3266386
0.38590428 0.3450377 0.051290862 0.045821972 0.054260504 0.34971055 0.043563206 0.38650435
0.31881934 0.03921745 -0.011681035 0.30098 0.26816228 0.3354233 0.2546527 0.06725465
0.2716494 0.3139641 0.16985483 0.32377023 0.062137466 0.036881793 0.18195881 0.05784433
0.043426722 -0.00040454013 0.007378378 0.24621019 0.0013257294 -0.0030539902 0.21638298 0.047314107
0.05592492 0.35129988 -0.0010854919 0.40591842 0.20178854 0.071941346 0.44021404 0.044508874
0.042945758 0.27742723 -0.0062980712 0.057577517 0.3354558 0.013732949 0.036173128 0.30461726
00000000: aa6d 8e3e 9f17 6e3c 25a9 913e f756 5b3d
00000010: 4a91 8e3d 150d 553d e183 9a3e 63e1 f33e
00000020: 8c23 dd3e 646a 393d 62ab 873e bfec 303d
00000030: ca87 5ebc 26e5 2d3d 7489 28bc 2d3d a73e
00000040: 3f95 c53e c8a8 b03e 5e16 523d d2af 3b3d
00000050: 4340 5e3d 430d b33e 556f 323d e6e3 c53e
00000060: 4a3c a33e 7aa2 203d d061 3fbc 0d1a 9a3e
00000070: 914c 893e 9abc ab3e d761 823e cebc 893d
00000080: a115 8b3e e7bf a03e 6dee 2d3e 36c5 a53e
00000090: db83 7e3d 5d11 173d 6953 3a3e 2dee 6c3d
000000a0: 38e0 313d 7518 d4b9 52c6 f13b 861e 7c3e
000000b0: 19c4 ad3a 7425 48bb 8093 5d3e 70cc 413d
000000c0: 8711 653d 94dd b33e 1047 8eba 8ad4 cf3e
000000d0: a8a1 4e3e fc55 933d bc63 e13e f04e 363d
000000e0: e4e7 2f3d f10a 8e3e 0d60 cebb 67d6 6b3d
000000f0: ddc0 ab3e 2a00 613c 462a 143d cbf6 9b3e

exp_avg f4 [64, 2]
0.0 0.0 0.0076867756 0.00034043263 0.0 0.0 0.0 0.0
0.008697455 0.00044278306 1.5051395e-08 8.698634e-10 5.2506275e-09 3.7448825e-10 0.0 0.0
0.0 0.0 0.0 0.0 0.004234164 0.0001517713 0.0 0.0
0.008306421 0.00038682128 1.5297067e-08 4.8671767e-10 0.0 2.1252878e-11 2.9673723e-07 9.330953e-09
0.0 3.7020505e-11 6.107789e-08 2.4265585e-09 0.0 1.9642503e-11 0.0 3.7533508e-11
0.0 0.0 0.0 0.0 0.0059844325 0.00030371235 9.205076e-05 -4.8588052e-05
4.804621e-07 6.255438e-09 0.0 1.9162009e-11 0.004582032 0.00014196447 0.008241322 0.0002989521
0.0 5.3380855e-11 0.008149574 0.00038011995 0.0 0.0 2.2324752e-08 1.1078564e-09
0.00035437598 5.0717706e-05 0.009118318 0.00039362712 0.0 0.0 1.7277124e-09 1.0839178e-10
0.006587774 0.00025890276 0.009951479 0.00044423388 0.0 0.0 0.01251794 0.0005854024
-1.8901292e-11 6.7790188e-12 0.0007800102 5.16239e-05 1.0190903e-09 1.11451945e-10 0.0 0.0
0.0 3.6233672e-11 0.0 0.0 0.0052506607 0.00023521144 0.0 0.0
0.0 0.0 2.1774221e-07 5.734572e-09 0.0 0.0 0.0 0.0
0.0 0.0 1.4063452e-10 4.782092e-11 0.0058783996 0.0002784145 2.7730807e-09 5.8038563e-10
4.6983064e-07 1.0900947e-08 0.005802795 0.00023043841 0.0 0.0 0.010577063 0.00048746777
0.0 0.0 4.0041843e-05 1.1318898e-06 0.0061593084 0.00030454044 0.0 1.6069061e-11
00000000: 0000 0000 0000 0000 59e1 fb3b 187c b239
00000010: 0000 0000 0000 0000 0000 0000 0000 0000
00000020: c57f 0e3c 5625 e839 5e4a 8132 321b 6f30
00000030: 0269 b431 89e0 cd2f 0000 0000 0000 0000
00000040: 0000 0000 0000 0000 0000 0000 0000 0000
00000050: bebe 8a3b cc24 1f39 0000 0000 0000 0000
00000060: a817 083c 46ce ca39 9b66 8332 b6c9 0530
00000070: 0000 0000 3af1 ba2d 414f 9f34 f74d 2032
00000080: 0000 0000 62d1 222e ed29 8333 78c0 2631
00000090: 0000 0000 fcc6 ac2d 0000 0000 f912 252e
000000a0: 0000 0000 0000 0000 0000 0000 0000 0000
000000b0: 0f19 c43b 953b 9f39 600b c138 06cb 4bb8
000000c0: 1bf9 0035 6aef d631 0000 0000 028d a82d
000000d0: df24 963b 4cdc 1439 9c06 073c acbc 9c39
000000e0: 0000 0000 80c5 6a2e ca85 053c d64a c739
000000f0: 0000 0000 0000 0000 a6c4 bf32 3b43 9830
00000100: 8acb b939 b9b9 5438 ff64 153c bd5f ce39
00000110: 0000 0000 0000 0000 7a74 ed30 265b ee2e
00000120: 41de d73b 57bd 8739 870b 233c 10e8 e839
00000130: 0000 0000 0000 0000 0c18 4d3c b175 193a
00000140: ed41 a6ad f983 ee2c 9979 4c3a be86 5838
00000150: 0d10 8c30 de15 f52e 0000 0000 0000 0000
00000160: 0000 0000 7d5b 1f2e 0000 0000 0000 0000
00000170: bc0d ac3b 17a3 7639 0000 0000 0000 0000
00000180: 0000 0000 0000 0000 86cc 6934 d409 c531
00000190: 0000 0000 0000 0000 0000 0000 0000 0000
000001a0: 0000 0000 0000 0000 19a1 1a2f 9251 522e
000001b0: 979f c03b 29f8 9139 8d90 3e31 0289 1f30
000001c0: 083d fc34 df46 3b32 5f25 be3b d7a1 7139
000001d0: 0000 0000 0000 0000 6b4b 2d3c d192 ff39
000001e0: 0000 0000 0000 0000 9af2 2738 70eb 9735
000001f0: 06d4 c93b baaa 9f39 0000 0000 4f58 8d2d

exp_avg_sq f4 [64, 2]
0.0 0.0 8.507046e-06 2.376973e-08 0.0 0.0 0.0 0.0
1.1894992e-05 3.5161488e-08 5.024457e-07 1.7227277e-09 9.040417e-08 5.820152e-10 0.0 0.0
0.0 0.0 0.0 0.0 6.009048e-06 2.009122e-08 0.0 0.0
1.5717433e-05 4.3135035e-08 1.5363234e-07 1.4952471e-10 0.0 3.1146708e-12 1.5902343e-06 3.1495717e-09
0.0 9.450661e-12 6.8946156e-07 1.3821438e-09 0.0 2.6605456e-12 0.0 9.714385e-12
0.0 0.0 0.0 0.0 5.507118e-06 1.4780113e-08 4.9509467e-08 1.6985634e-09
1.267722e-06 3.1426453e-09 0.0 2.5319725e-12 4.461862e-06 1.353658e-08 1.5745087e-05 4.476205e-08
0.0 1.964934e-11 9.8953815e-06 2.994517e-08 0.0 0.0 4.1107035e-07 1.2015157e-09
5.4594334e-06 1.7992287e-08 1.2818334e-05 4.059681e-08 0.0 0.0 2.0583533e-08 8.101575e-11
1.2354918e-05 3.573502e-08 1.5509575e-05 4.4777174e-08 0.0 0.0 2.4700432e-05 7.4099255e-08
2.4635394e-12 3.1689167e-13 7.5468433e-06 1.7459678e-08 7.1614688e-09 8.5654886e-11 0.0 0.0
0.0 9.053185e-12 0.0 0.0 9.407114e-06 2.5118036e-08 0.0 0.0
0.0 0.0 9.933436e-07 1.5201881e-09 0.0 0.0 0.0 0.0
0.0 0.0 1.10580774e-10 7.431976e-12 6.756061e-06 2.035715e-08 4.9758345e-08 2.545065e-10
1.1925955e-06 1.7200099e-09 6.4114233e-06 1.8362137e-08 0.0 0.0 1.7281298e-05 5.3017647e-08
0.0 0.0 3.177781e-06 5.983208e-09 4.138355e-06 1.1972988e-08 0.0 1.7805668e-12
00000000: 0000 0000 0000 0000 7cb9 0e37 302e cc32
00000010: 0000 0000 0000 0000 0000 0000 0000 0000
00000020: 9a90 4737 7704 1733 cedf 0635 18c5 ec30
00000030: 3824 c233 aefb 1f30 0000 0000 0000 0000
00000040: 0000 0000 0000 0000 0000 0000 0000 0000
00000050: 54a1 c936 0f95 ac32 0000 0000 0000 0000
00000060: eed8 8337 7943 3933 23f6 2434 7767 242f
00000070: 0000 0000 ec2c 5b2c 0970 d535 da6f 5831
00000080: 0000 0000 fe41 262d 7013 3935 ddf5 bd30
00000090: 0000 0000 2138 3b2c 0000 0000 b3e5 2a2d
000000a0: 0000 0000 0000 0000 0000 0000 0000 0000
000000b0: c9c9 b836 a0eb 7d32 3ca4 5433 e372 e930
000000c0: 9926 aa35 00f6 5731 0000 0000 f62b 322c
000000d0: 1ab7 9536 828e 6832 5114 8437 6540 4033
000000e0: 0000 0000 61d6 ac2d 5704 2637 109d 0033
000000f0: 0000 0000 0000 0000 14b1 dc34 9322 a530
00000100: 2d30 b736 758d 9a32 530e 5737 aa5c 2e33
00000110: 0000 0000 0000 0000 abcf b032 d027 b22e
00000120: f847 4f37 127b 1933 8f1a 8237 0651 4033
00000130: 0000 0000 0000 0000 c633 cf37 7f20 9f33
00000140: 2e5b 2d2c e764 b22a e43a fd36 3dfa 9532
00000150: f210 f631 6a5b bc2e 0000 0000 0000 0000
00000160: 0000 0000 ec43 1f2d 0000 0000 0000 0000
00000170: 3fd3 1d37 25c3 d732 0000 0000 0000 0000
00000180: 0000 0000 0000 0000 0753 8535 ddee d030
00000190: 0000 0000 0000 0000 0000 0000 0000 0000
000001a0: 0000 0000 0000 0000 712b f32e a5be 022d
000001b0: 1fb2 e236 d9dd ae32 e1b5 5533 9bea 8b2f
000001c0: 4511 a035 7865 ec30 b521 d736 c4ba 9d32
000001d0: 0000 0000 0000 0000 4ef7 9037 85b5 6333
000001e0: 0000 0000 0000 0000 dd41 5536 db94 cd31
000001f0: 33dc 8a36 c2b1 4d32 0000 0000 ae97 fa2b

exp_avg f4 [64]
0.0 0.014666747 0.0 0.0 0.01845309 3.099169e-08 1.4860885e-08 0.0
0.0 0.0 0.0062869713 0.0 0.014918918 1.9984101e-08 9.825644e-10 4.1986024e-07
1.7115354e-09 9.432999e-08 9.081135e-10 1.7352512e-09 0.0 0.0 0.013272618 -0.0022599178
6.0179184e-07 8.8589924e-10 0.0050380384 0.01039221 2.4679074e-09 0.014331311 0.0 5.4455775e-08
0.0018173303 0.016997468 0.0 4.000718e-09 0.008708408 0.017123735 0.0 0.02413208
3.8489023e-10 0.0010593709 4.468992e-09 0.0 1.6751565e-09 0.0 0.007715929 0.0
0.0 2.4770225e-07 0.0 0.0 0.0 2.0481683e-09 0.011816254 2.441115e-08
5.348631e-07 0.008581796 0.0 0.019033512 0.0 5.0127488e-05 0.013439666 7.4290585e-10
00000000: 0000 0000 cc4c 703c 0000 0000 0000 0000
00000010: ef2a 973c b91b 0533 dd4e 7f32 0000 0000
00000020: 0000 0000 0000 0000 f002 ce3b 0000 0000
00000030: 7a6e 743c 81a9 ab32 e90a 8730 2769 e134
00000040: 4c3b eb30 7692 ca33 ce9e 7930 b97d ee30
00000050: 0000 0000 0000 0000 6575 593c 211b 14bb
00000060: d28a 2135 9e83 7330 2116 a53b 1744 2a3c
00000070: e397 2931 e0cd 6a3c 0000 0000 c2e2 6933
00000080: 7c33 ee3a 463e 8b3c 0000 0000 b076 8931
00000090: b6ad 0e3c 1347 8c3c 0000 0000 a4b0 c53c
000000a0: 7c98 d32f 97da 8a3a ab8d 9931 0000 0000
000000b0: 543b e630 0000 0000 e7d5 fc3b 0000 0000
000000c0: 0000 0000 f0fb 8434 0000 0000 0000 0000
000000d0: 0000 0000 c2bf 0c31 f698 413c b0b0 d132
000000e0: 8393 0f35 a99a 0c3c 0000 0000 2bec 9b3c
000000f0: 0000 0000 fb3f 5238 0b32 5c3c 5a35 4c30

exp_avg_sq f4 [64]
0.0 3.989765e-05 0.0 0.0 5.970485e-05 2.368789e-06 8.451766e-07 0.0
0.0 0.0 3.0038565e-05 0.0 6.9309914e-05 2.5138098e-07 6.6573094e-09 5.328942e-06
2.0199856e-08 2.3362852e-06 5.6866587e-09 2.076355e-08 0.0 0.0 2.4348808e-05 3.4791858e-06
5.7881375e-06 5.4118465e-09 2.3109233e-05 7.322178e-05 4.19986e-08 5.0732084e-05 0.0 2.3898506e-06
2.536856e-05 6.677171e-05 0.0 1.1037044e-07 6.036158e-05 7.282796e-05 0.0 0.000119375596
1.0215302e-09 2.5606818e-05 1.3771975e-07 0.0 1.935031e-08 0.0 3.99774e-05 0.0
0.0 2.411603e-06 0.0 0.0 0.0 1.3262671e-08 3.4071378e-05 4.5998968e-07
2.9634296e-06 3.0963412e-05 0.0 8.948367e-05 0.0 9.163939e-06 1.9432966e-05 3.8057912e-09
00000000: 0000 0000 c757 2738 0000 0000 0000 0000
00000010: 986b 7a38 7cf7 1e36 18e0 6235 0000 0000
00000020: 0000 0000 0000 0000 54fb fb37 0000 0000
00000030: 7a5a 9138 8af5 8634 50be e431 43cf b236
00000040: f483 ad32 13c9 1c36 6164 c331 885b b232
00000050: 0000 0000 0000 0000 ab40 cc37 f57b 6936
00000060: b937 c236 1bf3 b931 b3da c137 a58e 9938
00000070: f361 3433 29c9 5438 0000 0000 5261 2036
00000080: 91ce d437 ca07 8c38 0000 0000 cb04 ed33
00000090: c12c 7d38 37bb 9838 0000 0000 4959 fa38
000000a0: e665 8c30 39ce d637 1ee0 1334 0000 0000
000000b0: c837 a632 0000 0000 68ad 2738 0000 0000
000000c0: 0000 0000 06d7 2136 0000 0000 0000 0000
000000d0: 0000 0000 d8d9 6332 dde7 0e38 80f4 f634
000000e0: 55df 4636 b6de 0138 0000 0000 2ea9 bb38
000000f0: 0000 0000 d1be 1937 fa03 a337 18c4 8231

exp_avg f4 [64, 64]
0.0 0.0 0.0 0.0 0.0 0.0 0.0 0.0
0.0 0.0 0.0 0.0 0.0 0.0 0.0 0.0
0.0 0.0 0.0 0.0 0.0 0.0 0.0 0.0
0.0 0.0 0.0 0.0 0.0 0.0 0.0 0.0
0.0 0.0 0.0 0.0 0.0 0.0 0.0 0.0
0.0 0.0 0.0 0.0 0.0 0.0 0.0 0.0
0.0 0.0 0.0 0.0 0.0 0.0 0.0 0.0
0.0 0.0 0.0 0.0 0.0 0.0 0.0 0.0
0.0 2.276855e-10 0.0 0.0 5.872235e-11 -8.373253e-12 -9.656667e-12 0.0
0.0 0.0 1.1809459e-11 0.0 2.0963703e-10 8.281647e-11 0.0 7.56717e-11
0.0 1.1329376e-11 0.0 0.0 0.0 0.0 1.4569033e-10 5.34023e-12
9.7659936e-11 0.0 2.170897e-10 1.6733906e-10 0.0 9.737772e-11 0.0 6.218094e-11
7.628123e-12 1.9553814e-10 0.0 0.0 1.5120291e-10 2.3498697e-10 0.0 2.3853636e-10
-1.1800722e-15 5.159247e-10 0.0 0.0 0.0 0.0 3.3406214e-10 0.0
0.0 1.3111805e-10 0.0 0.0 0.0 5.305085e-12 2.5920643e-10 2.2334606e-11
1.5809076e-10 1.6541385e-10 0.0 2.2485726e-10 0.0 1.03658984e-10 1.9263172e-10 0.0
0.0 1.0864275e-09 0.0 0.0 2.8607863e-10 1.9051231e-10 1.2702091e-10 0.0
0.0 0.0 0.0 0.0 9.612096e-10 7.7906154e-10 0.0 5.0412297e-10
0.0 2.3649493e-10 0.0 0.0 0.0 0.0 1.3633181e-09 0.0
7.2318745e-10 0.0 9.76443e-10 7.8318746e-10 0.0 7.669241e-10 0.0 1.7462759e-10
-4.192197e-12 9.70267e-10 0.0 9.28581e-12 5.009531e-10 1.0724979e-09 0.0 1.1613998e-09
-3.9110666e-15 3.0189444e-09 3.897575e-12 0.0 0.0 0.0 1.874744e-09 0.0
0.0 1.0011914e-09 0.0 0.0 0.0 0.0 1.9533586e-09 -4.1311377e-12
1.1652058e-09 6.8261674e-10 0.0 1.100416e-09 0.0 5.9779115e-10 1.274148e-09 0.0
0.0 2.631707e-10 0.0 0.0 1.0386357e-10 9.66035e-11 8.5460056e-11 0.0
0.0 0.0 0.0 0.0 2.1607469e-10 2.668148e-10 0.0 1.7600227e-10
0.0 7.5280004e-11 0.0 0.0 0.0 0.0 4.1761405e-10 0.0
2.2702995e-10 0.0 2.2889887e-10 1.873115e-10 0.0 2.0432168e-10 0.0 1.3056282e-11
-2.1199688e-14 2.4377744e-10 0.0 2.2717735e-12 1.09597956e-10 2.6610328e-10 0.0 2.7241312e-10
-1.2636383e-14 8.046604e-10 1.0969449e-11 0.0 0.0 0.0 4.6995413e-10 0.0
0.0 3.167265e-10 0.0 0.0 0.0 0.0 5.693413e-10 -1.393187e-12
3.7578374e-10 1.6479225e-10 0.0 2.554762e-10 0.0 1.9926615e-10 2.9786248e-10 0.0
00000000: 0000 0000 0000 0000 0000 0000 0000 0000
00000010: 0000 0000 0000 0000 0000 0000 0000 0000
00000020: 0000 0000 0000 0000 0000 0000 0000 0000
00000030: 0000 0000 0000 0000 0000 0000 0000 0000
00000040: 0000 0000 0000 0000 0000 0000 0000 0000
00000050: 0000 0000 0000 0000 0000 0000 0000 0000
00000060: 0000 0000 0000 0000 0000 0000 0000 0000
00000070: 0000 0000 0000 0000 0000 0000 0000 0000
00000080: 0000 0000 0000 0000 0000 0000 0000 0000
00000090: 0000 0000 0000 0000 0000 0000 0000 0000
000000a0: 0000 0000 0000 0000 0000 0000 0000 0000
000000b0: 0000 0000 0000 0000 0000 0000 0000 0000
000000c0: 0000 0000 0000 0000 0000 0000 0000 0000
000000d0: 0000 0000 0000 0000 0000 0000 0000 0000
000000e0: 0000 0000 0000 0000 0000 0000 0000 0000
000000f0: 0000 0000 0000 0000 0000 0000 0000 0000
00000100: 0000 0000 c557 7a2f 0000 0000 0000 0000
00000110: bf21 812e c74d 13ad c3e1 29ad 0000 0000
00000120: 0000 0000 0000 0000 13c1 4f2d 0000 0000
00000130: 947f 662f 871d b62e 0000 0000 6167 a62e
00000140: 0000 0000 f94e 472d 0000 0000 0000 0000
00000150: 0000 0000 0000 0000 2f30 202f 84e4 bb2c
00000160: a8c1 d62e 0000 0000 51b1 6e2f c2fd 372f
00000170: 0000 0000 c822 d62e 0000 0000 c2bc 882e
00000180: 0332 062d 18ff 562f 0000 0000 0000 0000
00000190: d63f 262f 7a2f 812f 0000 0000 0223 832f
000001a0: fb10 aaa6 f9d0 0d30 0000 0000 0000 0000
000001b0: 0000 0000 0000 0000 11a7 b72f 0000 0000
000001c0: 0000 0000 732a 102f 0000 0000 0000 0000
000001d0: 0000 0000 f5a7 ba2c 1080 8e2f 1075 c42d
000001e0: 98d2 2d2f dcdf 352f 0000 0000 b13b 772f
000001f0: 0000 0000 d2f2 e32e 02cd 532f 0000 0000
00000200: 0000 0000 4551 9530 0000 0000 0000 0000
00000210: fd45 9d2f 7378 512f 35a9 0b2f 0000 0000
00000220: 0000 0000 0000 0000 0000 0000 0000 0000
00000230: 8e1b 8430 9525 5630 0000 0000 8092 0a30
00000240: 0000 0000 b403 822f 0000 0000 0000 0000
00000250: 0000 0000 0000 0000 7e5f bb30 0000 0000
00000260: cbc9 4630 0000 0000 8933 8630 eb47 5730
00000270: 0000 0000 7ccf 5230 0000 0000 4c01 402f
00000280: f47f 93ac 3c5a 8530 0000 0000 925b 232d
00000290: 71b3 0930 2a67 9330 0000 0000 1f9f 9f30
000002a0: 39e9 8ca7 d575 4f31 3c22 892c 0000 0000
000002b0: 0000 0000 0000 0000 d8d4 0031 0000 0000
000002c0: 0000 0000 4a9a 8930 0000 0000 0000 0000
000002d0: 0000 0000 0000 0000 d93b 0631 fb59 91ac
000002e0: 0925 a030 e2a2 3b30 0000 0000 723d 9730
000002f0: 0000 0000 d051 2430 191e af30 0000 0000
00000300: 0000 0000 fcad 902f 0000 0000 0000 0000
00000310: fe65 e42e f06e d42e bced bb2e 0000 0000
00000320: 0000 0000 0000 0000 0000 0000 0000 0000
00000330: 9e93 6d2f d8ae 922f 0000 0000 3c84 412f
00000340: 0000 0000 e08a a52e 0000 0000 0000 0000
00000350: 0000 0000 0000 0000 f495 e52f 0000 0000
00000360: 409f 792f 0000 0000 4ead 7b2f 80f3 4d2f
00000370: 0000 0000 71a7 602f 0000 0000 44b0 652d
00000380: 27f3 bea8 a004 862f 0000 0000 a2dc 1f2c
00000390: 2a02 f12e b54a 922f 0000 0000 bdc2 952f
000003a0: 08a3 63a8 f12e 5d30 02fa 402d 0000 0000
000003b0: 0000 0000 0000 0000 152e 0130 0000 0000
000003c0: 0000 0000 4b1f ae2f 0000 0000 0000 0000
000003d0: 0000 0000 0000 0000 d57f 1c30 da12 c4ab
000003e0: dc96 ce2f e530 352f 0000 0000 1473 8c2f
000003f0: 0000 0000 6f18 5b2f 6bc0 a32f 0000 0000
