data/models/production/test_simulation.pth (torch, 197363 bytes, 39 tensors)

shared_backbone.0.weight f4 [64, 2]
0	0x3df95c0f	0.12175762
1	0xbde1ef27	-0.11031943
2	0xbd1fe2be	-0.039034598
3	0x3d95f0ec	0.07321343
4	0xbd8828de	-0.0664842
5	0x3c9baef6	0.019004326
6	0x3e115d2d	0.141957
7	0x3e7b2f9b	0.24529879
8	0xbea7ed00	-0.32798004
9	0x3e33c511	0.17555644
10	0xbc190b48	-0.009341069
11	0xbe51461e	-0.20436904
12	0x3d94f918	0.07274073
13	0xbdddd6c0	-0.10831976
14	0xbdc54401	-0.09632111
15	0x3e2b4166	0.16724166
16	0xbcb44efa	-0.022010315
17	0x3d5c796a	0.053826727
18	0x3c3b92fc	0.011448618
19	0xbe237921	-0.15964176
20	0x3e1abb8d	0.15110607
21	0xbdffe13c	-0.12494132
22	0xbcc8fe35	-0.024535278
23	0xbd2becd2	-0.041973896
24	0xbd9f7086	-0.07785134
25	0xbdd13658	-0.102154434
26	0xbd5ee9a5	-0.05442204
27	0x3dfae8d5	0.122514404
28	0x3de251de	0.11050771
29	0xbe06fe55	-0.13182957
30	0xbe092a1d	-0.13394971
31	0x3e2adce8	0.16685832
32	0xbdf1a7f4	-0.11799613
33	0x3c33c2aa	0.0109717045
34	0xbc923a7b	-0.017850151
35	0xbe78a5e9	-0.2428204
36	0x3e56cbea	0.20976225
37	0xbe7f73bb	-0.24946491
38	0xbe4d97b9	-0.20077409
39	0x3e7d8230	0.24756694
40	0xbe249a35	-0.1607445
41	0xbe167331	-0.1469238
42	0xbd83b45a	-0.06430884
43	0x3db70637	0.08936732
44	0xbdc51f21	-0.09625078
45	0xbd5b3bad	-0.053523708
46	0xbcadc79f	-0.02121335
47	0xbbbbe6d8	-0.005734306
48	0x3e15ce0f	0.14629386
49	0x3e249151	0.16071059
50	0x3d0a44e7	0.033757117
51	0xbbcd0a82	-0.006257356
52	0xbe97e10b	-0.29663882
53	0xbe87d895	-0.26532426
54	0xbda65df6	-0.081233904
55	0x3d1b8810	0.037971556
56	0xbb2c41a8	-0.0026284251
57	0x3d6bd73b	0.057578307
58	0x3ea5e54e	0.32401508
59	0xbe4b7e29	-0.19872345
60	0xbe61bdb8	-0.22045028
61	0xbc9de588	-0.019274488
62	0xbdf3840a	-0.11890419
63	0xbc1fa1e1	-0.009743185
64	0x3b72d8b8	0.0037055444
65	0xbd829700	-0.06376457
66	0x3e5a3de8	0.21312678
67	0xbe9520e3	-0.29126653
68	0xbdc9103f	-0.09817552
69	0xbda449c0	-0.08021879
70	0x3ed7742a	0.42080814
71	0xbdf4c69b	-0.119519435
72	0xbd5218dc	-0.05129324
73	0xbe90c95d	-0.28278628
74	0xbcff8128	-0.031189516
75	0xbe733495	-0.23750527
76	0x3ddf80a5	0.10913209
77	0x3c8b53d9	0.017007755
78	0xbda6df64	-0.08148077
79	0x3e8176f8	0.25286078
80	0x3b201952	0.0024429155
81	0xbe8b4cc2	-0.27207
82	0x3cccc53a	0.024996389
83	0x3ddfaa4a	0.10921152
84	0x3ed451bb	0.41468605
85	0xbda35fc9	-0.07977254
86	0xbe978c45	-0.29599205
87	0xbc6435cd	-0.013928843
88	0xbe15211d	-0.14563413
89	0xbd6dac54	-0.058025673
90	0x3e4d67c4	0.20059115
91	0x3de23368	0.11044961
92	0x3ba6bed4	0.0050886665
93	0x3ec073d4	0.3758837
94	0xbda6d3e3	-0.08145883
95	0xbe921583	-0.28532037
96	0x3e2fb24a	0.17157856
97	0x3e0c96d9	0.13729419
98	0xbef557fb	-0.47918686
99	0xbe12c1f1	-0.14331795
100	0xbe0d88da	-0.13821736
101	0x3ea059f3	0.31318626
102	0xbd4bb48b	-0.049732726
103	0x3ec35f66	0.3815872
104	0x3b768a84	0.0037619183
105	0xbe71a19e	-0.23596808
106	0xbd76f7fd	-0.060295094
107	0x3e90b956	0.282664
108	0x3e02d9ca	0.12778392
109	0xbd89e79b	-0.06733628
110	0xbe413391	-0.18867327
111	0x3dfbb227	0.12289839
112	0x3cc82bd0	0.024434954
113	0xbe3b792d	-0.18307944
114	0x3c2af6ec	0.010434847
115	0xbe5ec377	-0.21754251
116	0xbe198758	-0.14993036
117	0x3da951db	0.08267566
118	0x3e699d9c	0.2281403
119	0x3d26e77f	0.040748116
120	0x3cf79fb6	0.030227523
121	0xbd65271c	-0.0559455
122	0x3dc20ffc	0.09475705
123	0x3a73adf4	0.00092956354
124	0x3c9ca798	0.019122884
125	0x3ecbad60	0.39780712
126	0x3e76c45b	0.24098341
127	0xbcc61aea	-0.024182756

shared_backbone.0.bias f4 [64]
0	0x3c841a02	0.016125683
1	0xbdc318b5	-0.09526197
2	0xbd6869fc	-0.0567417
3	0xbd316534	-0.043309405
4	0x3d5f7f0f	0.054564532
5	0xbc8ac9e6	-0.016941976
6	0xbe059269	-0.13044132
7	0xbd11bfe2	-0.035583384
8	0xbe034e5f	-0.12822865
9	0xbd99e948	-0.07515198
10	0xbd658820	-0.056038022
11	0xbc98d786	-0.018657457
12	0x00000000	0.0
13	0xbd76833e	-0.060183756
14	0xbd357332	-0.044299312
15	0x3c63969a	0.013890887
16	0xbd5b8bee	-0.053600244
17	0x00000000	0.0
18	0xbc3c519f	-0.011494069
19	0xbd1fa037	-0.038971152
20	0x00000000	0.0
21	0xbc736fc0	-0.014858186
22	0xbd68697a	-0.056741215
23	0x00000000	0.0
24	0x3d898926	0.06715612
25	0xbd686725	-0.05673899
26	0x00000000	0.0
27	0xbd686986	-0.05674126
28	0xbd32e59b	-0.043676
29	0x3b994498	0.0046773665
30	0xbd596d5e	-0.053082816
31	0x00000000	0.0
32	0xbc781b58	-0.015143238
33	0x3c7ffd5f	0.015624373
34	0x00000000	0.0
35	0xbd1d9427	-0.038471367
36	0x00000000	0.0
37	0xbd6869b0	-0.056741416
38	0x3ccbf10d	0.024895215
39	0x3ddd0aa0	0.10793042
40	0x00000000	0.0
41	0xbd25b9de	-0.04046046
42	0xbcf05eb0	-0.029342026
43	0x00000000	0.0
44	0x00000000	0.0
45	0x3d4ba55f	0.049718257
46	0x3cb9b1f5	0.022667864
47	0x00000000	0.0
48	0xbb833114	-0.0040036533
49	0x00000000	0.0
50	0x3d3da083	0.046295654
51	0x3d348597	0.044072714
52	0x00000000	0.0
53	0xbdd0e106	-0.1019917
54	0xbd2181e2	-0.039430507
55	0xbd686833	-0.056739997
56	0xbd11706c	-0.035507604
57	0xbdd20667	-0.102551274
58	0xbd686969	-0.056741152
59	0x3cfc5d5b	0.030806234
60	0x3d182214	0.037141874
61	0x3c6cfb86	0.014464265
62	0x3cefec50	0.029287487
63	0xbc1aa4cb	-0.009438704

shared_backbone.2.weight f4 [64, 64]
0	0xbe3399c2	-0.17539123
1	0x3c9956c6	0.018718135
2	0x3e3ae270	0.18250442
3	0x3d993d73	0.07482424
4	0x3dadf991	0.08494867
5	0x3cd1e5d1	0.02562228
6	0x3e34374b	0.17599218
7	0xbc982dda	-0.018576551
8	0x3d5b91e9	0.053605948
9	0x3e5bec54	0.21476871
10	0xbdd70e54	-0.1050078
11	0xbe1eb109	-0.15497221
12	0xbd282b0b	-0.041056674
13	0x3b191b24	0.0023362124
14	0x3e909cff	0.2824478
15	0xbd9f0478	-0.07764524
16	0x3d22c789	0.039741073
17	0x3dbe4e4f	0.0929228
18	0x3e66dc92	0.22545078
19	0x3d003a93	0.03130586
20	0xbecf0feb	-0.40441832
21	0xbe3a98e5	-0.18222387
22	0xbea89294	-0.3292433
23	0xbd3cf297	-0.04612979
24	0xbdac583a	-0.084152654
25	0x3e48574d	0.19564553
26	0x3e4248dd	0.18973108
27	0x3df8c139	0.12146229
28	0xbcf2192f	-0.029553024
29	0x3da07ea4	0.07836655
30	0xbe0490ab	-0.12945811
31	0xbe1fc162	-0.15601113
32	0x3d000527	0.031254914
33	0x3e95e7ca	0.29278404
34	0x3cda1759	0.026622461
35	0x3d3172d8	0.043322414
36	0x3d9c5c14	0.0763475
37	0xbdaef306	-0.08542447
38	0x3d9657be	0.07340954
39	0x3ce659b9	0.028118955
40	0xbdb3d7eb	-0.087814175
41	0x3e091a30	0.13388896
42	0x3db80dd5	0.08987013
43	0xbe53b1ca	-0.2067329
44	0xbe754b0e	-0.23954412
45	0x3d9f22c6	0.077703044
46	0x3ea40c56	0.32040662
47	0xbe7b2902	-0.24527362
48	0x3ea32e53	0.3187128
49	0xbe96d071	-0.29455903
50	0xbe6c4599	-0.23073424
51	0x3e9dc4c0	0.3081417
52	0xbe74522c	-0.23859471
53	0x3db40a74	0.08791056
54	0xbe1e659b	-0.15468447
55	0x3d93ef1a	0.072233394
56	0x3e6c8c99	0.23100509
57	0x3b9fa92a	0.004872461
58	0x3e70e935	0.23526461
59	0xbd994e09	-0.07485587
60	0x3e93e65b	0.28886685
61	0xbe8f971d	-0.28044978
62	0xbe52781d	-0.20553632
63	0x3e9d83ec	0.3076471
64	0xbe327bcd	-0.17430039
65	0xbe607af1	-0.21921898
66	0xba5e51ba	-0.0008480806
67	0xbe1a0efa	-0.15044776
68	0xbe5506f4	-0.20803434
69	0xbe1d6861	-0.15371849
70	0x3e3aed70	0.18254638
71	0x3e79123e	0.24323365
72	0x3e718495	0.23585732
73	0xbea0a656	-0.31376904
74	0xbc6148da	-0.013750279
75	0xbe14eb70	-0.14542937
76	0x3d00e165	0.031464953
77	0x3d01cdf4	0.031690553
78	0xbea9881b	-0.33111653
79	0xbcb23ab9	-0.021756517
80	0x3e5ba4bd	0.21449561
81	0x3e50a525	0.20375498
82	0x3e1a1be1	0.15049697
83	0xbe994b80	-0.29940414
84	0xbe819d63	-0.2531539
85	0x3d997d97	0.074946575
86	0xba89e1ee	-0.0010519603
87	0x3e12ccfd	0.1433601
88	0xbe339003	-0.17535405
89	0x3ccffe19	0.025389718
90	0x3da6f6d5	0.08152548
91	0x3ccddc14	0.025129355
92	0xbebfa4df	-0.37430474
93	0x3e2170a8	0.15765631
94	0xbdd04dc8	-0.101710856
95	0xbe8c54c8	-0.27408433
96	0x3c98037b	0.018556347
97	0xbe48dc4d	-0.19615288
98	0x3e418971	0.18900086
99	0xba8cbbda	-0.0010737136
100	0x3df1625f	0.11786341
101	0x3d8b41e0	0.06799674
102	0xbf0874d3	-0.5330326
103	0xbe3a21a9	-0.18176903
104	0xbe593739	-0.21212472
105	0x3baf3608	0.005347017
106	0x3ddafc16	0.10692613
107	0xbe32e9e2	-0.17472032
108	0xbc37a9ae	-0.011209888
109	0x3dfe711c	0.12423918
110	0xbe0367e2	-0.12832597
111	0xbe17d295	-0.14826424
112	0x3dd0e996	0.10200803
113	0x3d91da85	0.071217574
114	0xbdaf0577	-0.08545964
115	0xbe4a4aec	-0.19755143
116	0x3e2543c6	0.16139135
117	0xbe028e27	-0.1274954
118	0xbd89a218	-0.0672037
119	0xbe9964d5	-0.2995974
120	0xbeb01a35	-0.34394994
121	0x3ba66280	0.00507766
122	0xbe1756a1	-0.1477914
123	0x3e16a25b	0.14710371
124	0x3d96d1e9	0.07364256
125	0x3e5006a6	0.20315036
126	0x3d1906c5	0.03735997
127	0xbdfb3b97	-0.12267225
128	0x3e20619a	0.15662232
129	0x3e5d798c	0.21628398
130	0x3e032479	0.12806882
131	0xbe46b824	-0.19406182
132	0xbe79a645	-0.24379833
133	0xbdffacab	-0.12484106
134	0x3e13c8f1	0.14432122
135	0x3d0dbfec	0.03460686
136	0x3bed2b38	0.007237818
137	0x3da8a93b	0.08235403
138	0xbd94591d	-0.072435595
139	0xbe90ad71	-0.28257325
140	0x3df0ca0a	0.11757286
141	0xbe11715c	-0.142034
142	0xbe992116	-0.29908055
143	0xbe985d2b	-0.29758582
144	0xbded4205	-0.11584858
145	0x3ddc9588	0.10770708
146	0xbe685106	-0.22687158
147	0xbce5946a	-0.02802487
148	0x3cd81693	0.026377952
149	0xbe2b507a	-0.16729918
150	0xbd0c8df6	-0.034315072
151	0x3ea93cec	0.33054292
152	0x3df94721	0.1217177
153	0xbd16993d	-0.036767233
154	0x3e2b9788	0.16757023
155	0xbcd938db	-0.026516369
156	0xbeb4d8a7	-0.35321543
157	0xbd56afa0	-0.052413583
158	0x3eb3e410	0.35134935
159	0x3e54ca76	0.20780358
160	0xbd29966a	-0.04140321
161	0x3ddf3e34	0.10900536
162	0xbda00b5e	-0.07814668
163	0xbd3acf07	-0.045607593
164	0xbe2dea92	-0.16984013
165	0xbd557c8e	-0.052120738
166	0x3dfa2ed9	0.12215967
167	0xbd0b051e	-0.033940427
168	0xbe2f78f7	-0.17135988
169	0xbe882031	-0.2658706
170	0x3d9f0402	0.07764436
171	0x3ec922c6	0.39284343
172	0x3dc279e7	0.09495907
173	0x3e235f80	0.15954399
174	0xbe9fb568	-0.3119309
175	0xbda52139	-0.08062977
176	0x3dbda3b7	0.09259742
177	0xbd35603e	-0.044281237
178	0xbb409a81	-0.0029388967
179	0xbe555314	-0.20832473
180	0x3e76b65a	0.24092999
181	0xbd805a64	-0.06267241
182	0xbd666c46	-0.0562556
183	0xbd3c148a	-0.045918025
184	0x3e9fefaf	0.31237552
185	0x3c77921b	0.015110518
186	0x3cb1d35e	0.021707233
187	0xbf00fb88	-0.50383806
188	0x3e65b49e	0.22432181
189	0x3c3b96f9	0.011449569
190	0xbd906b30	-0.070516944
191	0x3d6917b3	0.056907367
192	0xbdce3f57	-0.10070675
193	0xbc5f8922	-0.013643535
194	0x3ea02fbf	0.31286427
195	0xbe8ec400	-0.2788391
196	0xbe618c34	-0.2202614
197	0x3e443af4	0.19163114
198	0x3d1960a8	0.037445694
199	0xbe8e620c	-0.2780918
200	0xbe4e349c	-0.20137256
201	0x3e3a066e	0.18166515
202	0x3d555993	0.052087378
203	0xbe3bcfc7	-0.1834098
204	0x3c885ff1	0.01664731
205	0x3eaced23	0.3377467
206	0xbc4ffff5	-0.012695302
207	0x3d192a2a	0.037393726
208	0x3d161677	0.036642518
209	0x3e096c51	0.13420226
210	0xbdd8a253	-0.10577836
211	0x3e93abe6	0.28842086
212	0x3df2218a	0.11822803
213	0xbe1dfcda	-0.15428486
214	0x3ea2a9be	0.31770128
215	0x3e78f608	0.24312603
216	0xbe5e6183	-0.21716885
217	0xbe6f3093	-0.23358373
218	0x3dc5f7ce	0.096664056
219	0xbe337421	-0.17524768
220	0x3d46a0c8	0.048493177
221	0xbea092a0	-0.31361866
222	0xbed212b5	-0.41029897
223	0xbdb44bac	-0.08803496
224	0xbe98e64f	-0.29863212
225	0xbb0c7a33	-0.002143514
226	0x3ce1a820	0.027545989
227	0xbe499d9a	-0.19689026
228	0x3e33d81e	0.17562911
229	0xbe47d75e	-0.1951575
230	0xbe228c2f	-0.15873788
231	0xbd9e197b	-0.07719704
232	0xbc95a238	-0.018265828
233	0xbd3bece2	-0.045880206
234	0xbea97158	-0.33094287
235	0x3d3736f6	0.04473015
236	0xbd882bd0	-0.066489816
237	0x3e9ad417	0.30239937
238	0x3d3091db	0.04310785
239	0x3e5eeac5	0.21769245
240	0x3d20e665	0.03928222
241	0xbc89a67d	-0.01680302
242	0x3e355239	0.17707147
243	0xbd8f5075	-0.06997768
244	0x3dbbb120	0.09164643
245	0x3e172ad4	0.14762431
246	0xbdd56ae0	-0.104207754
247	0xbec52cb3	-0.38510665
248	0x3e0dcbc2	0.13847259
249	0x3da00529	0.07813484
250	0xbdc0ad6e	-0.09408079
251	0x3e121d46	0.1426898
252	0x3d8f4d9f	0.06997227
253	0xbd6b69dd	-0.057474006
254	0xbe0909cb	-0.13382642
255	0xbe2ecd6b	-0.17070548

shared_backbone.2.bias f4 [64]
0	0xbd300081	-0.04296923
1	0xbd80ab08	-0.062826216
2	0xbd937643	-0.07200291
3	0xbd3ec3e2	-0.046573527
4	0xbdcc1466	-0.09964828
5	0xbc996592	-0.01872519
6	0x3d6a7067	0.0572361
7	0xbd6863ab	-0.056735676
8	0x00000000	0.0
9	0xbd4ff53f	-0.050770994
10	0x3cfa57bc	0.030559413
11	0x3da870d4	0.08224645
12	0xbd686991	-0.0567413
13	0x3d4ba972	0.049722143
14	0xbdbf8d57	-0.0935313
15	0x3d669560	0.0562948
16	0xbd9b58bb	-0.07585283
17	0x3d9d31b0	0.07675493
18	0xbd9cb02a	-0.07650788
19	0xbb012c89	-0.0019710383
20	0xbd6866c9	-0.05673865
21	0x00000000	0.0
22	0xbcc12f19	-0.023582028
23	0x00000000	0.0
24	0x3c6bf1fc	0.014400955
25	0xbd6869b7	-0.056741443
26	0xbda2c30e	-0.0794736
27	0x00000000	0.0
28	0xbc38222c	-0.011238616
29	0xbdd8bec7	-0.10583263
30	0x3d94b018	0.0726015
31	0xbd9d72b5	-0.07687894
32	0x3d427f14	0.047484472
33	0xbd20e7f9	-0.039283726
34	0xbd9353f9	-0.07193751
35	0xbd7397c8	-0.05947092
36	0x3cf6b8d2	0.030117426
37	0xbd68692d	-0.05674093
38	0xbd9fff19	-0.07812328
39	0xbd686902	-0.05674077
40	0xbd84a7a4	-0.064772874
41	0xbcb97151	-0.022637041
42	0xbd935e62	-0.071957365
43	0xbd6869f6	-0.056741677
44	0xbdcc5a3c	-0.09978148
45	0x3d76c566	0.060246848
46	0xbc8ad06d	-0.016945088
47	0x00000000	0.0
48	0x00000000	0.0
49	0x3d70e5a8	0.058812767
50	0xbcf7b9cd	-0.030239964
51	0x3d23e67b	0.040014725
52	0x3da87335	0.08225099
53	0x3d241750	0.040061295
54	0xbd6869d3	-0.056741547
55	0x3d7596d7	0.059958305
56	0xbb2c8184	-0.0026322315
57	0xbd77bbba	-0.060481764
58	0x00000000	0.0
59	0xbc8fcf21	-0.017554821
60	0xbd43905a	-0.047745086
61	0xbd53cc9c	-0.051708803
62	0x3d54f324	0.05198969
63	0xbd145a39	-0.036218856

goal_head.weight f4 [2, 64]
0	0xbd93ca34	-0.072163016
1	0xbe68dbf7	-0.2274016
2	0x3c7a7ecc	0.01528902
3	0x3d00e342	0.03146673
4	0xbe77fe25	-0.24218042
5	0xbdf5a665	-0.11994628
6	0xbeb78f07	-0.3585131
7	0x3e6341e5	0.22193106
8	0xbe982274	-0.29713786
9	0x3c5ced70	0.013484344
10	0x3ba2fd22	0.0049740234
11	0xbec275d3	-0.37980518
12	0x3e9dab4f	0.3079476
13	0xbc90d33b	-0.017678848
14	0xbe36598e	-0.178076
15	0x3d62ebfa	0.055400826
16	0xbe1d43f5	-0.15357955
17	0xbe64e7b4	-0.22354013
18	0xbce19a97	-0.027539534
19	0xbd7118cd	-0.058861542
20	0x3dd29422	0.1028216
21	0xbec969a0	-0.39338398
22	0x3deef0bc	0.1166701
23	0xbdde1af2	-0.10844983
24	0xbe6bfc46	-0.23045453
25	0xbdadf7c3	-0.084945224
26	0xbc14793d	-0.009062109
27	0x3d441a35	0.047876555
28	0xbdb48211	-0.08813871
29	0xbdea1c84	-0.1143122
30	0x3d8b96ee	0.06815897
31	0x3dfa9d1f	0.12237
32	0xb7a0de00	-1.9176863e-05
33	0x3e1d9a45	0.1539088
34	0xbe77099e	-0.24124762
35	0x3de6166c	0.112347454
36	0xbdf7333c	-0.12070319
37	0x3ea4e21a	0.32203752
38	0x3e9fcd67	0.31211397
39	0x3e843389	0.25820568
40	0xbca9a8fd	-0.020710463
41	0xbe4b432c	-0.19849843
42	0xbd8134a3	-0.06308868
43	0x3deb61ce	0.11493264
44	0x3e232454	0.15931827
45	0xbebc3707	-0.36760733
46	0xbc9ffd4b	-0.01952996
47	0x3cb30004	0.021850593
48	0x3e8d08b5	0.27545705
49	0xbc98bb73	-0.01864407
50	0xbe719b8a	-0.2359449
51	0xbcf5b2b2	-0.029992435
52	0xbee5cc6c	-0.44882524
53	0xbe7ecf23	-0.24883704
54	0xbde525fe	-0.11188887
55	0xbe0fd758	-0.14046991
56	0xbdb98309	-0.09058196
57	0x3d7e8bf7	0.0621452
58	0xbe868cec	-0.2627939
59	0x3dc3cc48	0.09560448
60	0x3d2ffdd8	0.042966694
61	0x3e6d3743	0.23165612
62	0x3ddc0d98	0.1074478
63	0xbda865cd	-0.08222542
64	0xbe15fcc5	-0.14647205
65	0xbe2ea5fa	-0.17055503
66	0x3da1c695	0.07899205
67	0x3d9cba26	0.076526925
68	0xbdd53900	-0.104112625
69	0xbdf45760	-0.11930728
70	0x3eb3b88a	0.3510173
71	0xbdfea8c3	-0.124345325
72	0x3ebaef5e	0.36510748
73	0xbdc4796a	-0.095934704
74	0x3e110d16	0.14165148
75	0x3d5d86e5	0.054083724
76	0xbe4c0e27	-0.19927274
77	0x3cf4c54b	0.029879233
78	0xbdded472	-0.108803645
79	0x3eb54593	0.35404643
80	0xbe47929b	-0.1948952
81	0x3eeb99b1	0.46015695
82	0x3e114aab	0.1418864
83	0x3c86a59a	0.016436387
84	0xbe57218e	-0.21008894
85	0x3d9b59dc	0.07585499
86	0x3e7d2cca	0.24724117
87	0x3cac7cae	0.021055546
88	0x3d9b0d55	0.07570902
89	0xbe2f2240	-0.17102909
90	0xbe0ae55b	-0.13564055
91	0x3da9fe0f	0.08300411
92	0xbe6fe88a	-0.2342855
93	0xbe410cae	-0.18852493
94	0x3e7a7cb2	0.2446163
95	0x3d5dd6d5	0.054159958
96	0x3e0f3819	0.13986243
97	0xbe84f897	-0.2597091
98	0xbeb8ecee	-0.36118263
99	0x3cf533e1	0.029931964
100	0x3d20d746	0.0392678
101	0x3d931a6b	0.07182773
102	0x3dfe393c	0.1241326
103	0x3e6d1021	0.23150684
104	0xbe9cf074	-0.306522
105	0x3b665eb3	0.003515166
106	0xbdf15253	-0.1178328
107	0xbdd6a5b7	-0.10480826
108	0x3d75b869	0.05999032
109	0x3ded5789	0.11588962
110	0x3e0a89bd	0.13529105
111	0xbd1e7658	-0.03868708
112	0x3c469927	0.012121475
113	0x3e9543e8	0.2915337
114	0xbe51d9c7	-0.20493232
115	0x3e4b3c64	0.19847256
116	0xbd1ccaea	-0.03827945
117	0xbcbeb60f	-0.023280172
118	0x3bacf1ea	0.005277862
119	0x3e746847	0.23867904
120	0x3d2f6f62	0.042830832
121	0xbd0d4a10	-0.03449446
122	0xbdded04f	-0.108795755
123	0x3d98638e	0.074408635
124	0xbe13b2bd	-0.14423652
125	0xbe1389d4	-0.14408046
126	0x3e2c81c1	0.16846372
127	0x3cbca62e	0.02302846

goal_head.bias f4 [2]
0	0xbddcf8f2	-0.1078967
1	0x3ddcf8f0	0.107896686

portfolio_head.weight f4 [15, 64]
0	0x3d9fd5f0	0.07804477
1	0xbdf518c0	-0.11967611
2	0x3e36516b	0.17804496
3	0xbe6c8e44	-0.23101145
4	0xbd19eca8	-0.03757921
5	0xbe31b6cd	-0.17354889
6	0xbe217643	-0.1576777
7	0xbe61898b	-0.22025125
8	0x3e1d5508	0.15364468
9	0x3d69b0a7	0.057053234
10	0x3ca98f3b	0.02069818
11	0x3e5fd87c	0.21859926
12	0xbee96a1d	-0.4558877
13	0x3e09cafb	0.13456337
14	0xbb0ddb8c	-0.0021645753
15	0x3e0f5fec	0.14001435
16	0xbe33bf46	-0.17553434
17	0xbdb9b53c	-0.09067771
18	0xbe4832d2	-0.19550636
19	0x3e12cb0b	0.14335267
20	0x3e852685	0.2600595
21	0xbdc10413	-0.09424605
22	0xbd61b527	-0.0551044
23	0xbe76596f	-0.24057554
24	0x3e8890f0	0.2667308
25	0x3cd69a20	0.02619654
26	0x3d4346b5	0.047674853
27	0xbe35de05	-0.17760475
28	0x3c0fa45b	0.008767213
29	0x3e254024	0.16137749
30	0x3ed1b66c	0.4095949
31	0x3df2887e	0.1184244
32	0xbc8e9946	-0.01740707
33	0x3c4140de	0.011795251
34	0x3e9c5df0	0.3054042
35	0x3e2e7b87	0.1703931
36	0x3e1512f3	0.1455801
37	0xbcbf0f09	-0.023322599
38	0x3dc157cc	0.09440574
39	0x3e7a6b00	0.2445488
40	0x3ea01650	0.31267023
41	0xbd9e019f	-0.07715153
42	0x3e25a10f	0.1617472
43	0x3e5db431	0.21650769
44	0x3b6fdfba	0.0036601857
45	0xbeaaead6	-0.3338229
46	0x3ab5741f	0.0013843811
47	0x3e582629	0.21108307
48	0xbd7e2d60	-0.06205499
49	0x3d386d0f	0.04502588
50	0xbead8bc2	-0.3389569
51	0x3d46fd38	0.048581332
52	0xbe5945ad	-0.21217985
53	0xbdf7ffd9	-0.12109346
54	0xbc3ff44d	-0.011715961
55	0x3e857ccc	0.26071775
56	0xbe41f0d0	-0.18939519
57	0xbddd9753	-0.108198784
58	0xbc578041	-0.013153137
59	0x3d9a45eb	0.07532867
60	0x3dab67ff	0.08369445
61	0xbb67d933	-0.0035377264
62	0x3e588a46	0.21146497
63	0x3e8b6e83	0.2723275
64	0x3e740007	0.23828135
65	0xbd2de164	-0.042451277
66	0x3edb70f0	0.42859602
67	0xbdc8c003	-0.09802248
68	0x3bace19b	0.0052759177
69	0xbe8eef8e	-0.2791714
70	0xbed4f472	-0.41592747
71	0x3d01b9f4	0.03167148
72	0xbd95a799	-0.07307357
73	0x3e9baa6e	0.30403465
74	0xbda554d0	-0.08072817
75	0x3ddd5e8b	0.10809048
76	0x3d8c9947	0.06865173
77	0xbd998d1c	-0.074976176
78	0x3d8d1df2	0.06890477
79	0x3d48ed6f	0.04905456
80	0x3dbf514b	0.09341677
81	0x3e2b31be	0.16718194
82	0xbec0c271	-0.37648347
83	0xbd125ccc	-0.03573303
84	0xbec4e0ec	-0.38452852
85	0xbdb02058	-0.08599919
86	0x3e65d4ac	0.22444409
87	0x3d0419b3	0.03225107
88	0x3e36fa92	0.17869022
89	0x3d86b299	0.065770335
90	0x3dedeec5	0.11617807
91	0x3da2a033	0.07940712
92	0x3d1f2f87	0.038863685
93	0x3de73697	0.11289709
94	0x3d256e25	0.040388245
95	0x3d85673e	0.065138325
96	0x3eab8d68	0.33506322
97	0x3f0125ee	0.504485
98	0x3dd94c72	0.10610284
99	0x3d8f30b3	0.069917105
100	0x3d9e9d5b	0.07744857
101	0xbe1039e2	-0.1408458
102	0x3d851014	0.06497207
103	0xbe7b6aba	-0.24552432
104	0x3d04bd03	0.032406818
105	0xbdc5def4	-0.096616656
106	0xbca94175	-0.020661095
107	0xb9a68ba8	-0.0003176604
108	0x3c5adb3f	0.013357936
109	0x3e23bf00	0.1599083
110	0xbe87bc76	-0.26510972
111	0xbd9b30fe	-0.07577704
112	0xbd97dfcf	-0.07415735
113	0xbe024268	-0.12720644
114	0x3e42817c	0.18994707
115	0xbe4512a9	-0.192454
116	0xbda1f971	-0.07908905
117	0x3e42d69e	0.19027182
118	0xbd0e32df	-0.034716483
119	0xbe3c8935	-0.18411715
120	0x3e2885be	0.16457269
121	0xbd37cce6	-0.04487314
122	0xbe5635d9	-0.20918979
123	0xbdeb8fca	-0.11502035
124	0x3cf79d21	0.030226292
125	0xbe2610a7	-0.1621729
126	0x3e5e0eaf	0.21685289
127	0x3da2d150	0.079500794
128	0xbe088e93	-0.13335638
129	0xbe3a4919	-0.18191947
130	0xbe838b5a	-0.25692254
131	0x3cd4d653	0.025981104
132	0x3d45836e	0.048221044
133	0xbe9689b4	-0.29401934
134	0x3ddb3338	0.107031286
135	0x3d683ef2	0.056700654
136	0x3e0a48aa	0.13504282
137	0xbdcbb016	-0.09945695
138	0x3e0554a1	0.13020565
139	0xbd4cf76e	-0.050040655
140	0xbd9fc065	-0.07800368
141	0xbe8a8ffa	-0.2706297
142	0xbe3a2919	-0.1817974
143	0x3ed8d7b9	0.42352083
144	0x3e058aa4	0.13041168
145	0x3da4a1a1	0.08038641
146	0x3d4cc131	0.04998893
147	0x3d42c94d	0.047555257
148	0x3d28746c	0.041126654
149	0x3e1708cc	0.1474945
150	0x3cd8cf1e	0.026465949
151	0x3e170a8a	0.14750114
152	0xbd190804	-0.03736116
153	0x3eb47d8f	0.35252044
154	0x3e414f3d	0.18877883
155	0xbd3880bb	-0.045044642
156	0xbe78009a	-0.2421898
157	0xbe9631c9	-0.29334858
158	0x3dbe136b	0.092810474
159	0x3e3d206d	0.184694
160	0xbd46ca45	-0.048532743
161	0x3e920fab	0.2852758
162	0xbe22850c	-0.15871066
163	0xbc5b27d1	-0.013376192
164	0xbe1f431d	-0.15552945
165	0x3d035821	0.03206647
166	0xbdd685ad	-0.104747154
167	0x3e406dfd	0.18791957
168	0x3ec01bf4	0.37521327
169	0xbe142b3b	-0.14469616
170	0xbeb2120e	-0.347794
171	0xbebe6fe3	-0.37194738
172	0x3e2702b0	0.16309619
173	0xbe7d4cbf	-0.24736308
174	0xbdd23a8a	-0.10265072
175	0x3da3cb62	0.079977766
176	0x3e020db2	0.12700537
177	0x3e29cfe6	0.16583213
178	0xbd4b7925	-0.04967608
179	0xbe87eda5	-0.26548496
180	0xbe0bdfb9	-0.13659562
181	0xbd1ab64b	-0.037771504
182	0xbc07b45e	-0.008282749
183	0xbdd59dd0	-0.10430491
184	0x3e4079d5	0.18796475
185	0xbd17d3ee	-0.037067346
186	0x3d937de5	0.07201747
187	0xbe06515f	-0.13116978
188	0xbe1ecfbd	-0.15508933
189	0xbdf2897a	-0.11842628
190	0xbd143304	-0.036181465
191	0x3e053504	0.13008505
192	0xbd0b9fb9	-0.03408787
193	0xbed187ec	-0.40924013
194	0xbdaddd50	-0.08489478
195	0x3e973db7	0.29539272
196	0x3c8604d3	0.016359722
197	0x3ecdaeeb	0.40172514
198	0xbe242fd5	-0.16033871
199	0x3dd60049	0.10449273
200	0xbe91102e	-0.28332657
201	0xbc600e0c	-0.013675224
202	0x3eb345ce	0.35014194
203	0x3e50047a	0.20314208
204	0x3df78d43	0.120874904
205	0x3dc64062	0.09680249
206	0xbd832ae6	-0.064046666
207	0x3e87db76	0.26534623
208	0xbdfa236b	-0.12213787
209	0x3eae057d	0.33988562
210	0x3e74e5d7	0.23915802
211	0xbd2abbce	-0.04168301
212	0xbded56b5	-0.11588804
213	0x3c163587	0.009168035
214	0xbdb2b91e	-0.087267146
215	0x3d1f5d13	0.038907122
216	0x3d817062	0.063202634
217	0xbe317c49	-0.17332567
218	0xbd9a16e1	-0.07523895
219	0x3e4ecaa6	0.20194492
220	0x3e0282ba	0.1274518
221	0x3e0e0f7e	0.13873097
222	0x3e1f2101	0.15539934
223	0x3d6d838d	0.057986785
224	0xbebaa16a	-0.36451274
225	0x3e7da962	0.24771646
226	0x3e83e00d	0.25756875
227	0xbe762ee7	-0.2404133
228	0xbce28e07	-0.027655615
229	0xbe38541a	-0.18000832
230	0xbbd05556	-0.006357829
231	0xbe09c31f	-0.13453339
232	0xbc201c67	-0.009772397
233	0xbe12e793	-0.14346151
234	0xbd234138	-0.03985712
235	0xbd9e7fcf	-0.07739221
236	0x3e04984f	0.12948726
237	0x3e0676dc	0.13131279
238	0xbe3827ac	-0.17983884
239	0x3d58c8ae	0.052925758
240	0xbe1028d6	-0.14078078
241	0x3d8503cd	0.064948656
242	0xbe239033	-0.15972976
243	0xbddc1d77	-0.107478075
244	0x3e240657	0.16018043
245	0xbe1139cf	-0.14182208
246	0xbe2fadae	-0.17156097
247	0x3dfe1fe1	0.12408424
248	0xbe153eaa	-0.14574686
249	0xbe10df76	-0.14147744
250	0x3defb760	0.11704898
251	0x3e384f27	0.17998944
252	0x3e57d44b	0.21077077
253	0x3d492afc	0.04911326
254	0x3dcba09e	0.09942745
255	0xbd66bf1d	-0.056334604

portfolio_head.bias f4 [15]
0	0x3d83b69e	0.06431316
1	0xbc12997c	-0.008947726
2	0xbc96b5e4	-0.01839728
3	0x3ceca93c	0.028889291
4	0xbce4d647	-0.027934207
5	0xbd7ca0f0	-0.06167692
6	0x3ce5a772	0.028033946
7	0x3c9a3830	0.01882562
8	0x3cf9d00f	0.030494718
9	0x3af7a55a	0.0018893883
10	0xbd118910	-0.035531104
11	0xbd70eef8	-0.05882165
12	0xbd19cca1	-0.037548665
13	0x3c0ed10c	0.008716833
14	0x3ce5cf87	0.028053058

network.0.weight f4 [64, 2]
0	0x3e3d122b	0.18463962
1	0x3e8b74d9	0.27237585
2	0xbeb29aeb	-0.34883818
3	0x3bb17c97	0.0054164636
4	0x3e7cea28	0.24698699
5	0x3e22c29e	0.15894553
6	0xbe93b8e4	-0.28851998
7	0xbce0b3f0	-0.02742955
8	0x3e0c374a	0.13692966
9	0x3e2dd6ac	0.16976422
10	0x3ec1b105	0.37830368
11	0xbe35f4ff	-0.1776924
12	0xbe69b0c6	-0.2282134
13	0xbd952fed	-0.07284532
14	0x3e81b2d9	0.25331762
15	0x3e313990	0.17307115
16	0xbdfc9005	-0.12332157
17	0x3db2ff34	0.087400824
18	0xbe2f6543	-0.17128472
19	0x3e6604f0	0.22462821
20	0x3ea7e6db	0.32793316
21	0x3e59bd78	0.21263683
22	0x3ef0405b	0.469241
23	0x3ee1bc46	0.44088954
24	0x3e54dcfb	0.20787422
25	0x3c03158c	0.008000743
26	0x3e64f6a1	0.22359706
27	0x3ef4dedc	0.47826278
28	0xbdd5e79c	-0.104445666
29	0xbd87f4c6	-0.06638484
30	0x3e9f5fe2	0.3112784
31	0x3e3f2501	0.1866646
32	0xbe25cc21	-0.1619115
33	0x3e67c10f	0.2263224
34	0x3e3e0edf	0.1856036
35	0x3e4adb68	0.1981026
36	0x3ea3ac1b	0.31967244
37	0x3e8e0e3a	0.2774523
38	0xbd1d82dc	-0.038454875
39	0xbdc4f686	-0.09617333
40	0x3e501588	0.20320714
41	0x3e2fe2f3	0.17176418
42	0xbea4837c	-0.32131565
43	0xbd4f4efd	-0.05061244
44	0xbde9ec72	-0.114220515
45	0xbdaf7b5b	-0.0856845
46	0xbe5df1e1	-0.216743
47	0x3f091f54	0.5356343
48	0xbd8f7dfe	-0.07006453
49	0x3ddfb6f4	0.109235674
50	0xbd2dd776	-0.042441808
51	0xbd36a4c0	-0.04459071
52	0xbe3ac6e4	-0.18239933
53	0xbe8d1b55	-0.27559915
54	0xbde375dc	-0.11106464
55	0x3d56f849	0.052482877
56	0xbe8e1046	-0.2774679
57	0x3cf38b1b	0.029729417
58	0xbe007059	-0.12542857
59	0xbe0181e7	-0.1264721
60	0x3e21bc72	0.15794542
61	0x3ed83ac9	0.4223235
62	0xbd35f437	-0.044422355
63	0xbec4785c	-0.38373077
64	0xbdbe0f5c	-0.09280273
65	0xbcfc3b96	-0.030790132
66	0xbd076947	-0.033059385
67	0xbec47192	-0.38367897
68	0xbdb375fb	-0.08762737
69	0x3d18e299	0.037325475
70	0xbd7deb15	-0.06199177
71	0x3e588a5c	0.2114653
72	0x3ea3c93a	0.3198946
73	0x3e7719a9	0.24130882
74	0x3eda4dbd	0.42637435
75	0x3e43d85b	0.19125502
76	0xbce4576b	-0.027873715
77	0xbde11271	-0.109898455
78	0xbd0698c7	-0.032860544
79	0xbe7db32e	-0.24775383
80	0x3e76b4d4	0.24092418
81	0x3ec12ca7	0.3772938
82	0xbe3ea310	-0.18616891
83	0x3e71e08d	0.23620816
84	0xbd28f958	-0.041253418
85	0xbe7ecc40	-0.24882603
86	0xbebaf495	-0.36514726
87	0x3ef7351f	0.48282716
88	0xbe775c4b	-0.241563
89	0x3ea8a5a6	0.3293888
90	0xbe2a4b7d	-0.16630359
91	0xbe82d2f9	-0.25551584
92	0xbd892a0a	-0.066974714
93	0xbec6fb47	-0.38863584
94	0xbe2cba4a	-0.16867939
95	0xbd4676fe	-0.048453324
96	0x3e348a24	0.17630821
97	0x3d811a65	0.063038625
98	0xbe3629fb	-0.17789452
99	0xbdacae89	-0.084317274
100	0xbc79a219	-0.015236401
101	0x3e7ca907	0.24673854
102	0x3e86ccff	0.26328275
103	0x3ea2d31c	0.3180169
104	0x3e74d368	0.2390877
105	0x3d5dcf36	0.05415269
106	0xbd94db76	-0.07268421
107	0xbc5a4e19	-0.013324284
108	0x3dd50270	0.104008555
109	0xbdca9b8d	-0.0989295
110	0xbe001449	-0.12507738
111	0xbed2c51c	-0.41166008
112	0xbd932c3d	-0.07186172
113	0xbe62070d	-0.22073002
114	0xbd78aac6	-0.060709737
115	0xbc3abfe7	-0.011398292
116	0x3e2198fa	0.15781012
117	0x3df846b2	0.12122859
118	0x3e01cced	0.12675829
119	0x3e86043b	0.26175103
120	0xbdf96596	-0.12177579
121	0x3e23d2e1	0.15998413
122	0x3ebf6834	0.37384188
123	0x3eb8e9c7	0.36115858
124	0xbd59436f	-0.053042825
125	0xbc6283bd	-0.013825354
126	0xbdb47f06	-0.0881329
127	0xbd495ca0	-0.0491606

network.0.bias f4 [64]
0	0x3e88702a	0.26648074
1	0xbd6866db	-0.056738716
2	0x3e864539	0.26224688
3	0x00000000	0.0
4	0x3e791079	0.2432269
5	0x3e8664e1	0.2624884
6	0x00000000	0.0
7	0x3e6577ca	0.22408977
8	0xbd6868dc	-0.056740627
9	0xbd5ab864	-0.053398505
10	0x3e7198a2	0.23593381
11	0x3e86184a	0.26190406
12	0x3e856a4f	0.2605767
13	0x3e74323a	0.23847285
14	0x00000000	0.0
15	0x3e6dc661	0.23220207
16	0x3e8417e8	0.2579949
17	0x3e54403a	0.20727625
18	0x3e87c9a9	0.26521042
19	0x00000000	0.0
20	0x3e898255	0.26857248
21	0x00000000	0.0
22	0x00000000	0.0
23	0x3e823152	0.25428253
24	0xbd6e3278	-0.0581536
25	0xbd6869bc	-0.05674146
26	0x00000000	0.0
27	0xbd686750	-0.05673915
28	0xbd686915	-0.05674084
29	0x00000000	0.0
30	0x3e63ea81	0.22257425
31	0x00000000	0.0
32	0x00000000	0.0
33	0xbd6860da	-0.05673299
34	0xbd68662f	-0.056738075
35	0x3e83bcbf	0.2572994
36	0x3e86c182	0.2631951
37	0x3e861050	0.2618432
38	0x00000000	0.0
39	0xbd686902	-0.05674077
40	0x3e85e1e0	0.2614889
41	0x3e82d02c	0.25549448
42	0x00000000	0.0
43	0x3e8e2cac	0.27768457
44	0x3e4b96c7	0.19881736
45	0x00000000	0.0
46	0x00000000	0.0
47	0xbd68689c	-0.05674039
48	0x3e86d811	0.2633672
49	0x00000000	0.0
50	0x3e841fea	0.25805598
51	0x3e87f792	0.2655607
52	0x3e5d1f5c	0.21593994
53	0xbd686833	-0.056739997
54	0x3e715224	0.2356649
55	0x00000000	0.0
56	0x00000000	0.0
57	0x00000000	0.0
58	0x3e844d1a	0.25840074
59	0x3e8709ad	0.2637457
60	0xbd68687c	-0.05674027
61	0x3e862ac3	0.262045
62	0x00000000	0.0
63	0x00000000	0.0

network.2.weight f4 [64, 64]
0	0x3ec29f5c	0.38012207
1	0xbc28f360	-0.010311931
2	0x3ea1ea6d	0.31624165
3	0x3d8180af	0.063233726
4	0x3e72bfef	0.2370603
5	0x3e68c702	0.22732165
6	0xbe8d4287	-0.2758982
7	0x3e913839	0.28363207
8	0xbdff3035	-0.12460367
9	0xbda9521c	-0.08267614
10	0x3f115c43	0.56781405
11	0xbcdc427c	-0.026887171
12	0x3ef7a560	0.4836836
13	0x3e96fcaf	0.29489657
14	0xbe3494d8	-0.17634904
15	0xbc7491b5	-0.014927317
16	0x3e3c734a	0.18403354
17	0xbd0291bc	-0.031877264
18	0x3dea659a	0.1144516
19	0xbd8576b0	-0.065167785
20	0x3e024881	0.1272297
21	0x3e040b6c	0.12894982
22	0x3c3c7c3a	0.011504227
23	0x3e89ddc0	0.26926994
24	0xbe9c65e6	-0.30546492
25	0xbde5cdbe	-0.11220883
26	0xbd4eaf00	-0.05045986
27	0xbe206da9	-0.15666832
28	0x3e9ae95a	0.30256158
29	0x3dceec7a	0.10103698
30	0x3e6a5be2	0.22886613
31	0x3d97ff1e	0.074217066
32	0xbe79d03a	-0.24395838
33	0x3e7cf32c	0.24702138
34	0x3e1c031c	0.15235561
35	0x3e0e13b0	0.13874698
36	0x3e3bd682	0.18343547
37	0x3edb3b9c	0.42818916
38	0x3db56d7c	0.08858773
39	0xbc32f468	-0.010922529
40	0x3e73a67b	0.23793976
41	0x3e4df142	0.20111564
42	0x3df7aa64	0.12093046
43	0x3f067252	0.5251819
44	0xbdad2c71	-0.08455742
45	0xbd57ccd8	-0.05268559
46	0x3dd70bf9	0.105003305
47	0x3d911e05	0.07085804
48	0x3df14f50	0.11782706
49	0x3d6a05bd	0.05713438
50	0x3ebc220b	0.36744723
51	0x3edf17df	0.435729
52	0x3eb9409d	0.3618211
53	0x3e7ec6b9	0.24880494
54	0x3e02005e	0.12695453
55	0x3d9e3404	0.07724765
56	0x3e57c5ae	0.21071503
57	0x3d9b4199	0.07580871
58	0x3ec5685a	0.38556176
59	0x3e8f6db7	0.28013393
60	0xbd06a91a	-0.03287611
61	0x3e66a7a9	0.22524895
62	0xbf176703	-0.5914156
63	0xbe7550e6	-0.23956642
64	0x3e9e2912	0.3089071
65	0x3e08a875	0.13345511
66	0x3ea5b7c8	0.32366776
67	0x3e29a3dc	0.16566414
68	0x3e1a2a0e	0.15055105
69	0x3d9a66cb	0.075391375
70	0xbe2ee84a	-0.17080799
71	0x3e9b9ad2	0.30391556
72	0x3e16c247	0.14722548
73	0x3d2c3bec	0.042049333
74	0x3e8963a7	0.2683384
75	0x3e4e6c83	0.20158581
76	0x3f0450df	0.516859
77	0x3e70f178	0.23529613
78	0xbc86980c	-0.016429923
79	0x3c0b40fc	0.00849938
80	0x3eb63fcd	0.3559555
81	0x3eb0aa08	0.34504724
82	0x3ed8c340	0.42336464
83	0xbea20416	-0.31643742
84	0x3e6b4fab	0.2297961
85	0x3e0c2f0a	0.13689819
86	0xbe675c0e	-0.2259371
87	0x3e6c4e75	0.23076804
88	0x3d63e411	0.055637423
89	0x3cae2bef	0.021261184
90	0x3d472c63	0.048626315
91	0x3e324dec	0.17412537
92	0xbd890d7b	-0.06692024
93	0x3dc4dba3	0.09612205
94	0xbd4c466e	-0.049871854
95	0x3e3be934	0.18350679
96	0x3cd97d81	0.026549103
97	0xbe7b103e	-0.24517915
98	0x3e650968	0.2236687
99	0x3f0dcd89	0.55391747
100	0x3e957343	0.291895
101	0xbdf0bcd2	-0.117547646
102	0xbdc88135	-0.09790269
103	0xbbf7dd28	-0.0075642057
104	0x3e047218	0.12934148
105	0x3e0beed5	0.13665326
106	0x3ef708af	0.48248813
107	0x3e9011bc	0.2813853
108	0x3ed9f77a	0.42571622
109	0x3ddfa704	0.109205276
110	0xbe06613f	-0.13123034
111	0x3e1b8764	0.15188366
112	0x3ee2aa64	0.44270623
113	0x3e558b67	0.20853959
114	0x3ed3cca1	0.41367057
115	0x3e4eaac5	0.20182331
116	0x3ed35726	0.41277426
117	0xbe8bfe20	-0.2734232
118	0xbca4ce93	-0.020118034
119	0x3e381824	0.17977959
120	0xbe584ae1	-0.21122314
121	0xbd6015f1	-0.054708425
122	0x3ec438b4	0.3832451
123	0x3f2c7332	0.67363274
124	0x3e193dfc	0.14965051
125	0x3ed264d5	0.41092554
126	0xbbdae285	-0.0066798353
127	0x3dd609dd	0.104511
128	0xbd2fd751	-0.04292995
129	0xbd945125	-0.072420396
130	0xbd6bf46d	-0.05760615
131	0xbe600f45	-0.21880825
132	0xbdc0c720	-0.0941298
133	0x3dc64397	0.096808605
134	0xbe9f71f2	-0.3114162
135	0xbe4f6e00	-0.20256805
136	0x3c6bcf3e	0.014392672
137	0x3e365fcd	0.17809983
138	0x3d4b85d2	0.049688168
139	0xbe0d2d81	-0.1378689
140	0x3d7c1397	0.06154212
141	0xbe7c5bb2	-0.24644354
142	0xbed76493	-0.4206892
143	0x3e9a259b	0.30106816
144	0x3e062796	0.13101038
145	0x3c555437	0.013020567
146	0xbdd52e1d	-0.10409186
147	0x3ebc7b68	0.36812901
148	0x3e09f1d4	0.13471156
149	0xbd81ac19	-0.06331653
150	0x3d01283c	0.03153251
151	0xbe45a508	-0.19301236
152	0xbd39befc	-0.045348153
153	0x3e424f7e	0.18975636
154	0x3db1c302	0.08679773
155	0x3d26dab1	0.040735904
156	0xbc09bbb3	-0.008406567
157	0xbe6d6430	-0.2318275
158	0xbbc378c2	-0.005965323
159	0x3ee10eec	0.43956697
160	0xbc5726e8	-0.013131835
161	0xbdb3dffb	-0.08782955
162	0x3b08816d	0.0020829097
163	0x3dcd4d8b	0.10024556
164	0xbcf22995	-0.029560843
165	0xbd34d87d	-0.04415177
166	0xbcb30f9c	-0.021858029
167	0x3ed1548d	0.4088482
168	0xbe0cea7a	-0.1376132
169	0xbd244643	-0.04010607
170	0xbd13b291	-0.036058966
171	0xbe355843	-0.1770945
172	0xbd10362e	-0.03520792
173	0xbe2ab85e	-0.16671893
174	0x3de82f49	0.11337144
175	0x3dcdc181	0.100466736
176	0x3e03620c	0.1283037
177	0xbc0e56dc	-0.008687701
178	0x3e020dbd	0.12700553
179	0xbd0b53e1	-0.03401554
180	0x3dfe1511	0.12406362
181	0x3d5fee77	0.054670777
182	0xbd7bf63b	-0.06151412
183	0x3e200697	0.15627514
184	0xbefdb052	-0.49548584
185	0x3e6ce911	0.23135783
186	0xbe0621fd	-0.13098903
187	0xbdf098cd	-0.117478944
188	0xbd4e6103	-0.050385486
189	0xbdd8d8c4	-0.1058822
190	0xbea99472	-0.33121067
191	0x3e6e18f4	0.23251706
192	0x3e07a466	0.13246307
193	0xbe59a04f	-0.21252559
194	0x3d641cc0	0.05569148
195	0xbd87be43	-0.066280864
196	0x3d3fbf83	0.0468135
197	0x3e34803e	0.17627046
198	0x3d8122e0	0.0630548
199	0x3d5a9b2a	0.053370632
200	0x3ef7344a	0.4828208
201	0xbeea0a5d	-0.45711032
202	0xbcdbc398	-0.026826665
203	0xbdb26517	-0.087106876
204	0x3deacd06	0.11464886
205	0xbc7ecf30	-0.015552327
206	0xbe3cd01b	-0.18438761
207	0xbe0dc3f6	-0.13844284
208	0x3def5073	0.11685266
209	0xbd1eb08a	-0.03874258
210	0xbea40c36	-0.32040566
211	0x3e313f50	0.17309308
212	0xbdb3eacf	-0.087850206
213	0xbd290b1b	-0.041270357
214	0x3da97bfc	0.08275601
215	0x3de94f8c	0.113921255
216	0x3e554cb0	0.20830035
217	0xbe029c59	-0.12754954
218	0x3db8ab2d	0.09017024
219	0x3e1d522c	0.15363377
220	0x3e220667	0.15822755
221	0xbe59f681	-0.2128544
222	0x3d50edad	0.051007915
223	0xbeac689a	-0.33673555
224	0xbe88ec34	-0.2674271
225	0xbe36cd78	-0.17851818
226	0x3d5e736c	0.054309294
227	0xbd141cc4	-0.036160246
228	0xbeabc913	-0.33551845
229	0xbd9796e3	-0.07401826
230	0xbe4dcaa7	-0.20096837
231	0x3d60b074	0.05485578
232	0xbe3d0e37	-0.18462454
233	0x3e89d8a2	0.2692309
234	0x3cc685c5	0.024233708
235	0xbd44414f	-0.047913846
236	0xbe87fbdf	-0.2655935
237	0xbd36c1a2	-0.044618256
238	0x3e5506e3	0.20803408
239	0xbe717f64	-0.23583752
240	0x3d9db68e	0.07700835
241	0x3d5a0a49	0.053232465
242	0xbebecff9	-0.37268046
243	0x3d9cb7a1	0.07652212
244	0x3db1272a	0.08650048
245	0xbe9751c6	-0.29554576
246	0xb941831b	-0.00018454755
247	0x3dc63472	0.09677972
248	0xbdd437f2	-0.10362233
249	0xbdca21c2	-0.0986972
250	0x3e05fec5	0.13085468
251	0xbd85c33d	-0.06531379
252	0x3df379c6	0.11888461
253	0xbd3f8977	-0.046761956
254	0x3df7e52b	0.12104257
255	0x3ce82698	0.028338715

network.2.bias f4 [64]
0	0x3e7e6932	0.24844816
1	0x3e7c5a87	0.24643908
2	0x00000000	0.0
3	0xbd686992	-0.056741305
4	0x3e5379ae	0.20651886
5	0x3e569213	0.2095416
6	0xbd6862b4	-0.056734756
7	0x3e7eb011	0.24871852
8	0xbd68667b	-0.056738358
9	0xbd8c1a09	-0.06840903
10	0xbd6869cc	-0.05674152
11	0x00000000	0.0
12	0xbd8b5f75	-0.06805316
13	0xbd54988a	-0.051903285
14	0x3e62a39f	0.22132729
15	0x3e7bfab6	0.24607357
16	0x3e7dd437	0.24787985
17	0x00000000	0.0
18	0xbd549e2a	-0.05190865
19	0x3e7d8398	0.2475723
20	0x3e618db3	0.2202671
21	0x3e7e2db4	0.24822122
22	0xbd9517ce	-0.07279931
23	0xbd8eb676	-0.069683954
24	0xbd541c1e	-0.051784627
25	0x3e659e4e	0.2242367
26	0x3e7e979e	0.24862525
27	0x00000000	0.0
28	0x3e7c3f4f	0.24633525
29	0xbd686400	-0.056735992
30	0x00000000	0.0
31	0x3e10d11e	0.14142272
32	0xbd686635	-0.056738097
33	0x00000000	0.0
34	0x3e7e4c59	0.24833812
35	0x3e7e076a	0.24807516
36	0xbd686846	-0.056740068
37	0xbd8a1c1d	-0.067436434
38	0x00000000	0.0
39	0xbd6864b6	-0.05673667
40	0x00000000	0.0
41	0x00000000	0.0
42	0xbd6869e3	-0.056741606
43	0xbd73c00f	-0.059509333
44	0x3e7837e2	0.24240068
45	0x00000000	0.0
46	0x3e55d6c8	0.20882714
47	0xbd6869d9	-0.05674157
48	0x3e7f2ea3	0.24920134
49	0x3e793bff	0.24339293
50	0x3e794bce	0.24345323
51	0x00000000	0.0
52	0x00000000	0.0
53	0x3e5ed956	0.21762595
54	0x00000000	0.0
55	0x00000000	0.0
56	0x3e7cc723	0.2468534
57	0x3e7d8cb5	0.24760707
58	0x3e65c3dc	0.22437996
59	0xbd6868a7	-0.05674043
60	0xbd6869d9	-0.05674157
61	0xbd68682d	-0.056739975
62	0x3e7ee8e0	0.24893522
63	0x3e7db36a	0.24775472

network.4.weight f4 [1, 64]
0	0x3e6d46af	0.23171495
1	0x3e79d070	0.24395919
2	0xbc657ea7	-0.014007247
3	0x3d488884	0.048958316
4	0x3e45acc9	0.19304194
5	0x3e49dac7	0.19712363
6	0x3d5c1d6f	0.053739008
7	0x3e74fcf6	0.23924622
8	0x3d63bb68	0.055598646
9	0x3d1fcac0	0.039011717
10	0x3d2a8166	0.04162731
11	0x3ab6c8c2	0.0013945329
12	0x3d66eee4	0.056380168
13	0x3d412bc4	0.04716088
14	0x3e5e3903	0.21701436
15	0x3e7a2163	0.24426799
16	0x3e67b6c9	0.22628321
17	0x3ce51f73	0.027969098
18	0x3cd8b3af	0.026452867
19	0x3e68b1bd	0.22724052
20	0x3e64485f	0.22293232
21	0x3e6fc265	0.23414
22	0x3d593017	0.053024378
23	0x3d645e94	0.05575426
24	0x3d36beb0	0.044615448
25	0x3e680d50	0.22661328
26	0x3e675548	0.22591126
27	0xbc26dae7	-0.010184026
28	0x3e73c2e0	0.23804808
29	0x3d4a67e7	0.049415495
30	0xbc886805	-0.016651163
31	0x3e02a7a4	0.12759262
32	0x3d50dc06	0.05099108
33	0x3a74ac4d	0.0009333536
34	0x3e79052b	0.24318378
35	0x3e6b0ab0	0.22953296
36	0x3d3574fc	0.044301018
37	0x3d78d469	0.060749445
38	0x3bc7f754	0.006102482
39	0x3d576483	0.05258609
40	0xbc4ec0e5	-0.012619232
41	0x3be7524d	0.0070593716
42	0x3d091a5b	0.0334724
43	0x3d7814ad	0.060566593
44	0x3e6dd20b	0.23224656
45	0x3c5eed7f	0.013606428
46	0x3e5d22b5	0.21595271
47	0x3d1e494a	0.038644113
48	0x3e6a351b	0.2287182
49	0x3e6336fa	0.2218894
50	0x3e6bd6a1	0.23031093
51	0xbc4e8bdb	-0.012606586
52	0xbc8dc298	-0.017304704
53	0x3e5dafd8	0.2164911
54	0xbcd8468d	-0.026400829
55	0x3a13ee2e	0.00056430965
56	0x3e6a6bef	0.22892736
57	0x3e67cf46	0.22637662
58	0x3e611c82	0.21983531
59	0x3d27621f	0.04086506
60	0x3d1ec158	0.038758606
61	0x3d3864e6	0.0450181
62	0x3e68ee26	0.22747096
63	0x3e767f1c	0.24071926

exp_avg f4 [64, 2]
0	0x3ab42149	0.001374283
1	0x3982eb5a	0.00024970883
2	0x3947192e	0.00018987499
3	0x3808981f	3.25666e-05
4	0x39004ad8	0.00012234913
5	0x37d1edd3	2.5025487e-05
6	0x396552b6	0.00021869954
7	0x373056e7	1.0510651e-05
8	0xb77df3f1	-1.5136772e-05
9	0x37d9e505	2.5975061e-05
10	0x3995682e	0.00028497115
11	0x380870bc	3.252992e-05
12	0x3a27b29a	0.0006397158
13	0x38d21e38	0.00010019209
14	0x37e873e5	2.7710523e-05
15	0x36f6bb20	7.3531555e-06
16	0x39c9add9	0.00038467234
17	0x38817928	6.1737665e-05
18	0x3957f7eb	0.00020596354
19	0x38237758	3.8973376e-05
20	0xb92386a6	-0.00015595052
21	0x39575b76	0.0002053807
22	0x3a335546	0.0006841015
23	0x38e3acaa	0.00010856365
24	0x00000000	0.0
25	0x00000000	0.0
26	0x37b32ee4	2.1360298e-05
27	0x360fc2e4	2.1422102e-06
28	0xbaadf24f	-0.0013271066
29	0x38f6ea65	0.000117738535
30	0x3a2b1e77	0.0006527672
31	0x38eddcf7	0.000113421986
32	0x36b72349	5.4579327e-06
33	0x365dcccf	3.305078e-06
34	0x00000000	0.0
35	0x00000000	0.0
36	0xb98389f0	-0.00025089039
37	0x3966fa1f	0.00022027687
38	0x32845dde	1.5409508e-08
39	0x34ce1c07	3.8390883e-07
40	0x00000000	0.0
41	0x00000000	0.0
42	0x3a5e5c92	0.0008482422
43	0x389dfa0a	7.532917e-05
44	0x00000000	0.0
45	0x351d0d4d	5.8506413e-07
46	0x00000000	0.0
47	0x00000000	0.0
48	0x3913e7fe	0.00014105436
49	0xb79d55bb	-1.875578e-05
50	0xb226265e	-9.671195e-09
51	0x3395b8e6	6.971986e-08
52	0x00000000	0.0
53	0x00000000	0.0
54	0x00000000	0.0
55	0x352fad29	6.544456e-07
56	0x378e72a1	1.6981097e-05
57	0x35123d26	5.447822e-07
58	0xbb22c232	-0.0024834988
59	0xb9522b34	-0.00020043255
60	0x35fd3763	1.8866089e-06
61	0x3621f716	2.4134692e-06
62	0x00000000	0.0
63	0x00000000	0.0
64	0x3a0d1eff	0.0005383342
65	0x38980c5b	7.250226e-05
66	0xbb3d9063	-0.0028925173
67	0xb9d36f5e	-0.0004032803
68	0x00000000	0.0
69	0x00000000	0.0
70	0xbb2ea95d	-0.0026651241
71	0xb98860a7	-0.00026011953
72	0x00000000	0.0
73	0x00000000	0.0
74	0x37b2ec5a	2.1329313e-05
75	0x36153769	2.2234983e-06
76	0xbb3e6351	-0.0029050896
77	0xb96e6aa6	-0.00022737178
78	0xbb8654fc	-0.0040994864
79	0xba046015	-0.0005049718
80	0x00000000	0.0
81	0x00000000	0.0
82	0x38b245b5	8.500685e-05
83	0xb84ba891	-4.855596e-05
84	0xbba04976	-0.0048915697
85	0xb9c1c896	-0.00036961277
86	0x00000000	0.0
87	0x00000000	0.0
88	0x00000000	0.0
89	0x00000000	0.0
90	0xba413c6f	-0.0007371371
91	0xb9c75501	-0.0003801957
92	0xba07cac8	-0.0005180058
93	0xb93cd620	-0.00018008845
94	0x00000000	0.0
95	0x00000000	0.0
96	0x3a382f4a	0.00070260896
97	0x38ad36e7	8.259509e-05
98	0x00000000	0.0
99	0x00000000	0.0
100	0x382e8dea	4.1617e-05
101	0xb82d4704	-4.1312553e-05
102	0xb985d8c3	-0.00025529237
103	0xb84d413a	-4.8936556e-05
104	0x00000000	0.0
105	0x00000000	0.0
106	0x39ad6d9f	0.00033078805
107	0x385d514d	5.2766223e-05
108	0x3b884c3f	0.00415948
109	0x3a3a4344	0.000710536
110	0x00000000	0.0
111	0x3442980f	1.8122977e-07
112	0x38661812	5.485869e-05
113	0x373b6389	1.1169243e-05
114	0x39accf9b	0.00032961075
115	0x383de91e	4.527822e-05
116	0x354924aa	7.493169e-07
117	0x35213cf2	6.006586e-07
118	0xbb936fe6	-0.0044994233
119	0xb9c20ec4	-0.00037013565
120	0xbad6993f	-0.0016372575
121	0xb9699f91	-0.00022280055
122	0xbb5fdbd0	-0.0034158118
123	0xb9d081e2	-0.00039769622
124	0x3a9c9e3a	0.0011949011
125	0x39224252	0.0001547423
126	0xbadb73d8	-0.0016742898
127	0xb9e70d26	-0.0004406955

exp_avg_sq f4 [64, 2]
0	0x35a25963	1.2095956e-06
1	0x330776c0	3.154014e-08
2	0x3494da67	2.7726057e-07
3	0x320cfbdc	8.206339e-09
4	0x34e75632	4.3089818e-07
5	0x329adb1e	1.8027603e-08
6	0x351edf36	5.91844e-07
7	0x327ae982	1.4605009e-08
8	0x315671eb	3.1205853e-09
9	0x31205ef6	2.3337043e-09
10	0x3562df14	8.451618e-07
11	0x32344ef8	1.0495334e-08
12	0x35575ca5	8.0228557e-07
13	0x3287848d	1.5776346e-08
14	0x32df7396	2.601318e-08
15	0x30829144	9.500032e-10
16	0x34ab0bb1	3.185974e-07
17	0x32179306	8.822786e-09
18	0x350346ec	4.890451e-07
19	0x32409fac	1.1212176e-08
20	0x35be62a2	1.4184809e-06
21	0x3300932a	2.9936167e-08
22	0x356d3d0c	8.8378215e-07
23	0x328935fa	1.5973445e-08
24	0x00000000	0.0
25	0x00000000	0.0
26	0x3260a2b6	1.3075512e-08
27	0x2fd71b7c	3.91278e-10
28	0x360e1fb4	2.1178103e-06
29	0x33307805	4.108735e-08
30	0x341f17f5	1.4816744e-07
31	0x32258061	9.633454e-09
32	0x3036ecbf	6.654765e-10
33	0x2f391397	1.6832612e-10
34	0x00000000	0.0
35	0x00000000	0.0
36	0x3646ea1b	2.9640566e-06
37	0x3392ecab	6.8417044e-08
38	0x27f64374	6.835185e-15
39	0x2d62995e	1.2880667e-11
40	0x00000000	0.0
41	0x00000000	0.0
42	0x3663fa57	3.3971353e-06
43	0x335ef2ba	5.190916e-08
44	0x00000000	0.0
45	0x2d2d571d	9.8532545e-12
46	0x00000000	0.0
47	0x00000000	0.0
48	0x359f7aaf	1.1882129e-06
49	0x331920c0	3.5652874e-08
50	0x27420152	2.6923624e-15
51	0x2a1d89c9	1.3992205e-13
52	0x00000000	0.0
53	0x00000000	0.0
54	0x00000000	0.0
55	0x2d58e3de	1.2328775e-11
56	0x33e2b305	1.05565086e-07
57	0x314f141e	3.01339e-09
58	0x3640c7ec	2.87266e-06
59	0x332fdb37	4.0944737e-08
60	0x2eb6ad8b	8.307229e-11
61	0x2ea9b338	7.717066e-11
62	0x00000000	0.0
63	0x00000000	0.0
64	0x35794d02	9.287179e-07
65	0x32983b4f	1.77221e-08
66	0x367e7410	3.7916507e-06
67	0x3395d404	6.9769186e-08
68	0x00000000	0.0
69	0x00000000	0.0
70	0x36027a89	1.9442834e-06
71	0x33426c45	4.5267615e-08
72	0x00000000	0.0
73	0x00000000	0.0
74	0x3260fb37	1.3095636e-08
75	0x2f1c79b9	1.4231362e-10
76	0x35ea6794	1.7464504e-06
77	0x33323519	4.1492147e-08
78	0x36895423	4.092713e-06
79	0x339ca408	7.294153e-08
80	0x00000000	0.0
81	0x00000000	0.0
82	0x35758c75	9.1474004e-07
83	0x329d9336	1.834415e-08
84	0x3631f9cd	2.6520459e-06
85	0x33780d84	5.7754292e-08
86	0x00000000	0.0
87	0x00000000	0.0
88	0x00000000	0.0
89	0x00000000	0.0
90	0x368ac07d	4.135129e-06
91	0x33892454	6.386168e-08
92	0x35ea8fa2	1.7476161e-06
93	0x330a5ffe	3.2217933e-08
94	0x00000000	0.0
95	0x00000000	0.0
96	0x36064302	2.000656e-06
97	0x32b80951	2.1424656e-08
98	0x00000000	0.0
99	0x00000000	0.0
100	0x35386d60	6.8704503e-07
101	0x32bb03b6	2.1771353e-08
102	0x36680021	3.457077e-06
103	0x339d7b1e	7.333277e-08
104	0x00000000	0.0
105	0x00000000	0.0
106	0x34c2d9a9	3.6293685e-07
107	0x322e0902	1.0130181e-08
108	0x368f3851	4.268288e-06
109	0x339ba7e8	7.248292e-08
110	0x00000000	0.0
111	0x2b850eeb	9.454359e-13
112	0x348b6017	2.5960682e-07
113	0x3141a5c0	2.8179414e-09
114	0x34ead7a9	4.374281e-07
115	0x31f27ec0	7.0575368e-09
116	0x2d8e2a54	1.6162328e-11
117	0x2d36b439	1.038552e-11
118	0x364c6d3a	3.0461947e-06
119	0x337cd86c	5.8870157e-08
120	0x3558c75f	8.0756394e-07
121	0x3293c74d	1.7203684e-08
122	0x3670c8f2	3.5879752e-06
123	0x33a5d6d4	7.722488e-08
124	0x36892a1a	4.0878194e-06
125	0x33a87571	7.844472e-08
126	0x365ccffe	3.2903622e-06
127	0x33929193	6.8251346e-08

exp_avg f4 [64]
0	0x3a4d97bb	0.0007842739
1	0x39b2c836	0.00034099974
2	0x39713651	0.00023003785
3	0xb92252b2	-0.0001548033
4	0x3a7c26c0	0.00096188113
5	0x39845066	0.00025236903
6	0x3a64a2a8	0.00087217474
7	0x391adc1d	0.00014768583
8	0x3a0fd060	0.00054860674
9	0x39f9cadd	0.00047644126
10	0x3af0925a	0.0018354163
11	0x3ac7414e	0.0015201957
12	0x00000000	0.0
13	0x3881360b	6.1612656e-05
14	0x3a6445ed	0.00087079295
15	0x3b0ce06b	0.0021496068
16	0x38a10a04	7.678944e-05
17	0x00000000	0.0
18	0x3a452b24	0.0007521382
19	0x3745471d	1.1758672e-05
20	0x00000000	0.0
21	0x39fe899a	0.00048549176
22	0x377bc332	1.5006213e-05
23	0x00000000	0.0
24	0xbae87981	-0.0017736406
25	0x36454d87	2.9400414e-06
26	0x00000000	0.0
27	0x378ccf2b	1.678577e-05
28	0x38af5921	8.361252e-05
29	0xbb599675	-0.0033201252
30	0x3877b776	5.906025e-05
31	0x00000000	0.0
32	0x39f9a4f7	0.0004761589
33	0xbbd8558c	-0.006601995
34	0x00000000	0.0
35	0xbb6ba2d3	-0.0035955205
36	0x00000000	0.0
37	0x37cd3ae2	2.4465324e-05
38	0xbb739921	-0.003717013
39	0xbc042b82	-0.008067014
40	0x00000000	0.0
41	0x38cfa576	9.901349e-05
42	0xbbbdbc3c	-0.0057902616
43	0x00000000	0.0
44	0x00000000	0.0
45	0xbbb9dad4	-0.0056718383
46	0xbb00c443	-0.001964823
47	0x00000000	0.0
48	0x3ae27362	0.0017276818
49	0x00000000	0.0
50	0xbac86648	-0.0015289271
51	0xbaa5467f	-0.001260951
52	0x00000000	0.0
53	0x3a0402fc	0.0005035845
54	0x3c2100ee	0.009826882
55	0x369bf8e0	4.648333e-06
56	0x38f3621d	0.00011605418
57	0x39db0d62	0.00041780906
58	0x37683d82	1.38425985e-05
59	0xbbcff858	-0.0063467436
60	0xbb3c0d47	-0.0028694437
61	0xbb8dd9c3	-0.0043289377
62	0x3a1e7842	0.00060451415
63	0xbba0f017	-0.0049114334

exp_avg_sq f4 [64]
0	0x3689786d	4.0969376e-06
1	0x35724efb	9.0266957e-07
2	0x35cc728b	1.5232521e-06
3	0x3606aa9f	2.006687e-06
4	0x35d1b16e	1.5623352e-06
5	0x357baf85	9.37602e-07
6	0x35e75814	1.7236475e-06
7	0x351982b7	5.7187157e-07
8	0x3563ec4b	8.490794e-07
9	0x357567c0	9.142059e-07
10	0x367f7b20	3.806963e-06
11	0x3663b29b	3.3929598e-06
12	0x00000000	0.0
13	0x33d36e20	9.845485e-08
14	0x36b29973	5.322677e-06
15	0x3638a571	2.7514436e-06
16	0x33a74662	7.789346e-08
17	0x00000000	0.0
18	0x3713e172	8.814373e-06
19	0x3231fbae	1.0359981e-08
20	0x00000000	0.0
21	0x36f12f2d	7.1878517e-06
22	0x31deb91b	6.4820944e-09
23	0x00000000	0.0
24	0x3692aa2b	4.3709492e-06
25	0x2f88c9dc	2.4881686e-10
26	0x00000000	0.0
27	0x320b5702	8.110648e-09
28	0x34b89e2f	3.4387764e-07
29	0x36b6342f	5.4300976e-06
30	0x3342d840	4.5365823e-08
31	0x00000000	0.0
32	0x364c64ae	3.0456972e-06
33	0x37260bd2	9.897123e-06
34	0x00000000	0.0
35	0x3702c8d5	7.795364e-06
36	0x00000000	0.0
37	0x32940045	1.722959e-08
38	0x36d55483	6.357733e-06
39	0x3758a016	1.2911876e-05
40	0x00000000	0.0
41	0x35f09f52	1.7927762e-06
42	0x36fdd184	7.5643784e-06
43	0x00000000	0.0
44	0x00000000	0.0
45	0x37717d80	1.439394e-05
46	0x36cfcc5a	6.1928704e-06
47	0x00000000	0.0
48	0x369b62d6	4.630866e-06
49	0x00000000	0.0
50	0x36953bdc	4.4475146e-06
51	0x373a3fc7	1.1101313e-05
52	0x00000000	0.0
53	0x3589a0f9	1.0254145e-06
54	0x373fcd53	1.1432293e-05
55	0x302af70c	6.2196714e-10
56	0x34fbb0b5	4.6880965e-07
57	0x353bc572	6.995025e-07
58	0x31bd8573	5.5157954e-09
59	0x3732bb47	1.0653231e-05
60	0x365c1124	3.2792532e-06
61	0x375fab07	1.3331656e-05
62	0x37714540	1.4380843e-05
63	0x3724b6f4	9.817759e-06
