data/results/paper_replication/checkpoints/checkpoint_0000.pth (torch, 198699 bytes, 39 tensors)

shared_backbone.0.weight f4 [64, 2]
0	0x3e7f1d66	0.24913558
1	0x3d02a843	0.031898748
2	0xbcf0a40b	-0.029375097
3	0xbe15289a	-0.1456627
4	0xbfa59984	-1.2937474
5	0x3d24fd95	0.040280897
6	0xbd169c09	-0.0367699
7	0xbe6d6126	-0.2318159
8	0xbd6e8eea	-0.058241762
9	0x3cc01471	0.023447247
10	0x3ea8fbb1	0.33004525
11	0x3e9e5343	0.309229
12	0xbe2161a6	-0.15759906
13	0xbe00e60e	-0.12587759
14	0x3dd26cb8	0.10274643
15	0xbef09dd1	-0.46995404
16	0x3da0ecc9	0.07857663
17	0xbbada09c	-0.005298687
18	0x3d34cd2a	0.044140972
19	0x3e7a3e30	0.24437785
20	0x3e4e5d8f	0.20152877
21	0xbb669514	-0.0035184072
22	0xbe635d3e	-0.22203538
23	0x3eb24b20	0.3482294
24	0xbcf81a29	-0.030285912
25	0x3dd42c80	0.1036005
26	0xbd064cf4	-0.032788232
27	0xbe9ede53	-0.31028995
28	0xbda2bfe3	-0.07946756
29	0x3be1504b	0.0068760267
30	0xbd4f5176	-0.050614797
31	0xbe816cba	-0.25278264
32	0xbd339a59	-0.04384837
33	0xbdbf283c	-0.09333846
34	0x3d381716	0.04494389
35	0xbeb41a9d	-0.35176554
36	0xbe59884d	-0.21243401
37	0x3d9e2ec8	0.077237666
38	0xbec2033b	-0.3789309
39	0xbc3fc027	-0.0117035275
40	0xbe167de9	-0.14696468
41	0x3e90078e	0.28130764
42	0xbc764224	-0.015030418
43	0xbc9d3247	-0.019189013
44	0xbead3751	-0.33831266
45	0xbcd7c725	-0.026340077
46	0x3c0404d1	0.008057789
47	0xbde8031b	-0.11328717
48	0xbe9242b3	-0.28566512
49	0xbee182f7	-0.4404523
50	0x3cfae8ca	0.03062858
51	0xbd272235	-0.040804107
52	0x3e33fcc2	0.17576888
53	0xbd67b92d	-0.05657308
54	0xbd3aa79e	-0.04557001
55	0x3cc14ef8	0.023597226
56	0x3d1058c1	0.035240892
57	0xbe1e0a39	-0.15433587
58	0xbec1a4b7	-0.3782098
59	0xbd2a18d5	-0.041527588
60	0xbc8b51ed	-0.017006839
61	0xbdc1254c	-0.09430942
62	0xbd9997f4	-0.07499686
63	0x3e099ea9	0.1343943
64	0xbf93b6c6	-1.1540153
65	0x3e58c8da	0.21170369
66	0xbca0338f	-0.019555835
67	0xbe4e11c1	-0.2012396
68	0xbc12d5b5	-0.008962085
69	0xbe4928e7	-0.1964451
70	0x3e861ff5	0.26196256
71	0xbe9f020f	-0.31056258
72	0xbe50cde5	-0.20391043
73	0x3d7c8eea	0.06165973
74	0xbe1c3c16	-0.15257296
75	0x3e35b6ca	0.1774551
76	0xbdb95121	-0.09048677
77	0x3db674e7	0.08909016
78	0x3c8d4c2d	0.017248238
79	0xbdd5f5f5	-0.10447303
80	0xbecf7b3d	-0.4052371
81	0xbc0e1057	-0.008670888
82	0xbdd7e554	-0.10541788
83	0x3d4c5318	0.049883932
84	0x3e0113c5	0.12605198
85	0x3e88c7ed	0.2671503
86	0x3dab4544	0.08362821
87	0xbeb2c059	-0.34912375
88	0xbcb648f0	-0.022251576
89	0x3de2e65d	0.110790946
90	0xbe01f7d5	-0.12692197
91	0x3dedfa4c	0.11620006
92	0x3d638242	0.055544145
93	0xbecf88bb	-0.40534005
94	0xbd6fedf7	-0.05857655
95	0x3d96f0ab	0.073701225
96	0xbe402857	-0.18765388
97	0x3cd27748	0.025691643
98	0xbd5734e4	-0.052540675
99	0xbe24cca5	-0.1609369
100	0xbd5b9f04	-0.053618446
101	0xbd63ac93	-0.0555845
102	0xbefe5350	-0.49672937
103	0xbcf3b280	-0.029748201
104	0xbe87653b	-0.2644442
105	0xbaaa616c	-0.0012999005
106	0x3e1e7e19	0.1547779
107	0x3d2e8b7e	0.0426135
108	0xbd32f4b2	-0.04369039
109	0x3dd7dfa8	0.10540706
110	0x3db28402	0.08716585
111	0xbe4d3f9d	-0.20043798
112	0xbeec2226	-0.46119803
113	0xbd30eedc	-0.043196544
114	0x3e217300	0.15766525
115	0xbe4bb794	-0.19894248
116	0x3e03d232	0.12873152
117	0xbc39ac40	-0.0113325715
118	0xbc0c0469	-0.008545973
119	0xbe114a97	-0.1418861
120	0x3d0dbae6	0.03460207
121	0xbe728113	-0.2368205
122	0xbc5d03df	-0.0134896925
123	0x3d221a5b	0.039575916
124	0x3ddf4e93	0.10903659
125	0xbddcba4a	-0.10777719
126	0xbe4531a2	-0.19257215
127	0xbe0a59ee	-0.13510868

shared_backbone.0.bias f4 [64]
0	0xbc9d7cf5	-0.019224623
1	0x00000000	0.0
2	0x3e1e782b	0.15475528
3	0x00000000	0.0
4	0xbb5b4f50	-0.0033464022
5	0xbdbb1c93	-0.091363095
6	0x00000000	0.0
7	0xbdbc85ae	-0.09205185
8	0xbdec6644	-0.11542943
9	0xbde8f1c7	-0.1137424
10	0xbe56699c	-0.20938724
11	0xbe0e3991	-0.13889147
12	0xbd6eae9b	-0.058271986
13	0x00000000	0.0
14	0xbd75fba8	-0.06005445
15	0xbd75fa5d	-0.06005322
16	0xbdbcdfd5	-0.0922238
17	0xbd03f56f	-0.032216486
18	0xbcb14f29	-0.021644192
19	0xbd75fa39	-0.060053084
20	0xbdd2f154	-0.10299936
21	0xbdb6b16b	-0.089205585
22	0xbd75ea7e	-0.060038082
23	0xbc5e4987	-0.013567335
24	0x00000000	0.0
25	0xbd8df1c7	-0.06930881
26	0xbe391b97	-0.18076931
27	0xbdb8f935	-0.090319075
28	0xbd96e833	-0.07368507
29	0x00000000	0.0
30	0xbd8675b9	-0.065654226
31	0xbd78c367	-0.060733225
32	0x3e92854d	0.28617325
33	0xbd912296	-0.07086675
34	0x00000000	0.0
35	0xba2f16b8	-0.00066791056
36	0xbd1b3bb1	-0.037898723
37	0xbd9b120b	-0.07571801
38	0xbd34546e	-0.04402583
39	0xbd45591b	-0.04818068
40	0xbd36f188	-0.044663936
41	0xbc217a40	-0.009855807
42	0xbda2e6b9	-0.07954163
43	0xbdcbb6c4	-0.09946969
44	0xbd78425c	-0.06061016
45	0xbcfa1f5c	-0.030532531
46	0xbdefe668	-0.117138684
47	0xbba932a4	-0.0051635075
48	0xbcd221c2	-0.025650863
49	0x00000000	0.0
50	0x00000000	0.0
51	0xbccc21c7	-0.02491845
52	0xbc980ffa	-0.018562306
53	0xbe531849	-0.20614733
54	0xbd96ff7a	-0.07372947
55	0xbdd2b3f2	-0.10288228
56	0xbc3f9895	-0.011694093
57	0xbe24159d	-0.1602387
58	0xbe14a204	-0.14514929
59	0xbd28b5e5	-0.041189093
60	0xbd1b0682	-0.037848003
61	0xbd895f63	-0.06707647
62	0xbe0286c5	-0.12746723
63	0x00000000	0.0

shared_backbone.2.weight f4 [64, 64]
0	0x3da96e60	0.082730055
1	0x3db893f6	0.09012596
2	0x3d30d1b0	0.043168724
3	0x3d8f81a5	0.070071496
4	0xbcb07607	-0.021540655
5	0xbda865b6	-0.08222525
6	0x3db1f350	0.08688986
7	0x39162fa6	0.00014322865
8	0xbead1a6f	-0.3380923
9	0xbe937236	-0.28798074
10	0xbc010f9b	-0.007877256
11	0xbe4a4d7e	-0.19756123
12	0x3d3fcb4a	0.04682473
13	0x3dec32a6	0.11533098
14	0x3d18c1fd	0.037294377
15	0xbdb5a834	-0.08869973
16	0x3e09189a	0.13388291
17	0xbd3bc0eb	-0.045838278
18	0x3e98ac7e	0.298191
19	0xbddacb57	-0.10683315
20	0x3d97c778	0.074110925
21	0x3d78c67e	0.060736172
22	0x3e37027a	0.17872038
23	0x3e34daf2	0.17661646
24	0xbe2b4826	-0.16726741
25	0x3da8fc85	0.08251289
26	0xbd9a4004	-0.07531741
27	0x3e2aba51	0.16672637
28	0xbd2f6ea1	-0.042830113
29	0xbdc1b01e	-0.0945742
30	0xbe5ed66c	-0.21761483
31	0x3eb70700	0.35747528
32	0xbdd4acc4	-0.10384515
33	0x3da03820	0.07823205
34	0xbf05f926	-0.52333295
35	0xbe11b701	-0.14229967
36	0x3cb10e08	0.021613136
37	0xbe6328db	-0.22183554
38	0x3e38d39c	0.18049473
39	0xbe07616b	-0.13220756
40	0x3df4c014	0.119506985
41	0xbe6496b3	-0.22323112
42	0xbe3db68a	-0.18526664
43	0x3e4fcd57	0.20293175
44	0xbe7ea9fd	-0.24869533
45	0x35d89f6b	1.6139651e-06
46	0x3d3f56f1	0.046713773
47	0x3dcdaa60	0.10042262
48	0xbded14e1	-0.11576248
49	0xbe001b10	-0.12510324
50	0xbed464e7	-0.41483232
51	0x3d338805	0.04383089
52	0xbcfaa687	-0.030596985
53	0xbe13298e	-0.1437132
54	0xbecae0c7	-0.39624617
55	0x3e7c9ba6	0.2466875
56	0xbe00724b	-0.125436
57	0xbd763fae	-0.060119323
58	0xbe013fc9	-0.12621988
59	0x3cb86bdf	0.022512374
60	0x3cfa2578	0.030535445
61	0x3e667261	0.2250457
62	0xbceeb916	-0.02914099
63	0x3dfa5673	0.1222352
64	0xbdb167cd	-0.086623766
65	0xbe0a2f10	-0.13494515
66	0x3e3fcd75	0.1873072
67	0x3e28d554	0.16487628
68	0xbd53a90d	-0.05167489
69	0xbd7eb394	-0.062182978
70	0x3dadd170	0.08487213
71	0x3b109efe	0.0022067423
72	0x3e31255a	0.17299405
73	0xbeca48b1	-0.39508584
74	0xbe703918	-0.2345928
75	0xbea7a38b	-0.3274196
76	0x3ef08b30	0.46981192
77	0x3aa8846c	0.0012856848
78	0x3ea4b2b1	0.3216758
79	0x3e65cf69	0.22442402
80	0x3e4ad2e6	0.19807014
81	0xbdadbd38	-0.08483356
82	0x3e60edcc	0.21965712
83	0x3d2a93d6	0.041644894
84	0xbc2a9a03	-0.010412696
85	0xbda879e8	-0.08226377
86	0xbea1adbd	-0.31577864
87	0xbe9070b6	-0.28210992
88	0xbde65a4f	-0.11247694
89	0xbe3e080a	-0.18557754
90	0xbe165cda	-0.14683858
91	0x3e8a50eb	0.2701486
92	0xbe3943d5	-0.18092282
93	0x3d8f1a7e	0.06987475
94	0x3d55e3b8	0.052219123
95	0x3e2ce30a	0.16883484
96	0xbe701f13	-0.23449354
97	0xbc4d8059	-0.0125428075
98	0x3e2221ac	0.15833157
99	0xbd4d2637	-0.050085273
100	0x3d552207	0.052034404
101	0x3dccc0da	0.09997721
102	0x3d6bae35	0.057539184
103	0x3e219562	0.15779641
104	0x3e001b5b	0.12510435
105	0xbd31c1e1	-0.043397788
106	0xbe05cdeb	-0.13066833
107	0xbe07a11d	-0.13245054
108	0x3e58b634	0.21163255
109	0xbe14a6f9	-0.1451682
110	0xbe8a078c	-0.26958883
111	0xbe37ec86	-0.1796132
112	0x3d9597fb	0.073043786
113	0x3e13c76e	0.14431545
114	0xbe61ee1e	-0.22063491
115	0xbdb5a979	-0.08870215
116	0x3e6e96ab	0.23299663
117	0x3d6cd1bb	0.057817202
118	0x3e20e8bf	0.15713786
119	0x3d5e9782	0.054343708
120	0xbe1fbcfc	-0.15599436
121	0xbe88baf1	-0.26705125
122	0x3c895572	0.016764376
123	0xbeab6e4a	-0.3348258
124	0x3e12185c	0.14267105
125	0xbe699031	-0.22808911
126	0x3d7cd6d7	0.061728325
127	0x3e194853	0.14968996
128	0xbdca2f36	-0.09872286
129	0x3c1e9245	0.009678428
130	0x3e122dcc	0.14275283
131	0xbd2d0131	-0.042237464
132	0xbe8065c5	-0.25077644
133	0x3e11c249	0.1423427
134	0xbd9849cc	-0.07435951
135	0x3e994847	0.29937956
136	0xbde463a1	-0.11151815
137	0xbce0391d	-0.027370984
138	0xbe8a4e9a	-0.27013093
139	0x3d66e493	0.05637033
140	0x3d1973b7	0.03746387
141	0xbe41f093	-0.18939428
142	0xbe153885	-0.14572342
143	0x3bc7495a	0.0060817422
144	0xbd780328	-0.060549885
145	0x3e8584de	0.26077932
146	0x3c7a5695	0.015279432
147	0xbc113289	-0.008862146
148	0xbe6dd60f	-0.23226188
149	0xbe18fe0a	-0.14940658
150	0xbdb90830	-0.09034765
151	0xbde959de	-0.11394094
152	0xbbaac8fe	-0.0052119484
153	0xbe2c76ac	-0.16842145
154	0xbe570371	-0.20997407
155	0x3ec1b06e	0.37829918
156	0xbdedf121	-0.11618257
157	0xbd3b666c	-0.045751974
158	0x3dfc07d3	0.1230618
159	0xbe660c5d	-0.22465654
160	0xbd1e3dde	-0.03863322
161	0x3df4c659	0.11951894
162	0xbe0a30bf	-0.13495158
163	0xbd5f1b0b	-0.05446915
164	0x3e8052fd	0.25063315
165	0x3e8ac304	0.2710191
166	0x3e523600	0.20528412
167	0xbeb9b674	-0.36272013
168	0x3da71068	0.08157426
169	0xbe2310a1	-0.15924312
170	0xbeb48805	-0.35260025
171	0xbd29dc67	-0.041469958
172	0xbdba7deb	-0.09106048
173	0x3e4e545b	0.20149367
174	0x3e70ed84	0.23528105
175	0x3e7618e3	0.24032931
176	0x3e642478	0.22279537
177	0x3e342498	0.17592084
178	0x3d90fcf5	0.07079498
179	0x3e1befd7	0.1522821
180	0x3deaf4d8	0.114724815
181	0x3d606155	0.054780323
182	0x3e963b87	0.2934229
183	0x3d783263	0.060594928
184	0xbe2243bf	-0.15846156
185	0xbdc91c54	-0.09819856
186	0xbea9ce67	-0.33165285
187	0xbc8c9d70	-0.017164916
188	0xbd602aa4	-0.054728165
189	0x3ecaf29c	0.3963822
190	0xbde2b5af	-0.1106981
191	0xbd6d5460	-0.057941794
192	0x3ddf3b3a	0.108999684
193	0x3e939576	0.28824967
194	0x3d9e6b2b	0.077352844
195	0xbc4757bf	-0.012166916
196	0x3d7350a2	0.05940307
197	0x3dbb1f98	0.091368854
198	0xbda7b673	-0.08189096
199	0x3e14b8a1	0.14523555
200	0x3cb4dd1c	0.02207809
201	0xbe051a4f	-0.12998317
202	0xbe3aba15	-0.18235047
203	0x3e7485c9	0.2387916
204	0x3e3bb804	0.18331915
205	0xbe01a856	-0.12661871
206	0xbe6d9f6f	-0.2320535
207	0x3d740e27	0.05958381
208	0x3e1019ef	0.14072393
209	0x3e282461	0.16420127
210	0x3d6a3435	0.057178695
211	0x3db20ddf	0.08694052
212	0xbd407e71	-0.046995584
213	0xbe9ad8ea	-0.30243617
214	0x3df9600a	0.12176521
215	0xbe342496	-0.17592081
216	0xbe93919f	-0.28822038
217	0x3ed4ca9d	0.41560832
218	0xbe6e26fa	-0.23257056
219	0xbd811157	-0.063021354
220	0x3c2f1ed5	0.010688503
221	0xbe419108	-0.18902981
222	0xbd9a1940	-0.07524347
223	0x3e283a91	0.16428591
224	0xbd8eda84	-0.06975272
225	0x3dea2ea5	0.11434678
226	0x3da3a375	0.07990161
227	0xbe366432	-0.17811659
228	0xbc9bed4e	-0.019034054
229	0xbe1bb772	-0.15206698
230	0x3e5492ea	0.20759168
231	0xbde1beaa	-0.110226944
232	0xbe76af39	-0.2409028
233	0xbd3fab03	-0.04679395
234	0x3d77cd81	0.06049872
235	0xbe1145a5	-0.14186724
236	0xbdc437e1	-0.095809706
237	0xbd42d8f3	-0.04757018
238	0x3eaee6d6	0.3416049
239	0xbefe7753	-0.49700412
240	0xbe9a28a1	-0.30109122
241	0xbd5ef1a7	-0.054429676
242	0x3e001c37	0.12510763
243	0x3e412877	0.18863092
244	0x3df76b30	0.12080991
245	0xbe0d1b89	-0.13780035
246	0x3e90ca18	0.28279185
247	0xbd79c8d7	-0.06098255
248	0x3ca68613	0.020327603
249	0xbd630c77	-0.05543181
250	0x3d2ee6e2	0.042700656
251	0xbe87ebb0	-0.26547003
252	0xbe44b569	-0.19209827
253	0xbe42493d	-0.1897325
254	0x3e5aec13	0.21379118
255	0x3e6143bc	0.21998495

shared_backbone.2.bias f4 [64]
0	0xbc93889e	-0.01800948
1	0xbdc97d68	-0.098383725
2	0xbd381bb5	-0.0449483
3	0xbd91efbb	-0.07125803
4	0xbcbde765	-0.023181627
5	0xbd93662f	-0.07197224
6	0xbd476016	-0.04867562
7	0xbe37e124	-0.17956978
8	0xbdeffa3e	-0.11717652
9	0xbea38cf5	-0.3194348
10	0xbe26540b	-0.16242997
11	0xbd71d912	-0.059044905
12	0xbdca8e4a	-0.09890421
13	0x3d7dadea	0.061933435
14	0xbda27085	-0.07931618
15	0xbd75fc35	-0.060054976
16	0xbdf24395	-0.118292965
17	0xbdd76ffc	-0.10519406
18	0xbcecd4bf	-0.028910039
19	0xbd63b0e3	-0.055588614
20	0xbdb065f9	-0.086132
21	0xbd370f87	-0.044692542
22	0xbe56483c	-0.20925993
23	0x3d566b8c	0.05234866
24	0xbda2ca25	-0.07948712
25	0xbd49e055	-0.049286205
26	0xbd51f625	-0.051260132
27	0xbd9afcf1	-0.07567776
28	0x3dced552	0.10099281
29	0xbdeb2b95	-0.11482922
30	0xbd75fc34	-0.060054973
31	0xbdf67c41	-0.12035418
32	0xbe013f78	-0.12621868
33	0xbd75fb52	-0.06005413
34	0xbd562b56	-0.052287422
35	0xbdaf3b2d	-0.08556209
36	0xbe1a27e3	-0.15054278
37	0xbd29b902	-0.041436203
38	0xbe1f16f8	-0.15536106
39	0xbd245494	-0.040119722
40	0xbe2bc69a	-0.16774979
41	0xbd280477	-0.041019883
42	0xbd4e3b02	-0.050349243
43	0xbd75fb6a	-0.06005422
44	0xbd42b781	-0.047538284
45	0xbd7db7c5	-0.061942834
46	0xbd86e4f5	-0.06586639
47	0xbd44b964	-0.048028365
48	0xbd4407c9	-0.047858987
49	0xbd516f3b	-0.05113147
50	0xbc8f0fee	-0.01746365
51	0xbd75fc0a	-0.060054816
52	0xbc6b5a64	-0.0143648125
53	0xbda6ea6c	-0.08150181
54	0x3dbe25c6	0.092845485
55	0xbd8ec0e0	-0.06970382
56	0xbcd41e62	-0.025893394
57	0x3d1b9b4e	0.037989907
58	0x3ce98574	0.028506018
59	0xbd2ad21b	-0.04170428
60	0x3ca87792	0.020564828
61	0xbd685e5f	-0.056730624
62	0x3d4f7bfb	0.050655346
63	0xbd75fc35	-0.060054976

goal_head.weight f4 [2, 64]
0	0xbdd7a533	-0.10529556
1	0x3ec4a796	0.38409108
2	0xbe858f0c	-0.260857
3	0xbd452cf1	-0.048138563
4	0xbd4c65c8	-0.049901754
5	0x3e1658f4	0.1468237
6	0xbc5d0264	-0.0134893395
7	0xbe91ed54	-0.2850138
8	0xbdf168e3	-0.11787584
9	0x3e9230a0	0.28552723
10	0x3de2e754	0.110792786
11	0x3d8e0dd9	0.06936235
12	0xbe9fe35e	-0.31228155
13	0xbea5031d	-0.32228938
14	0x3dbc7a3e	0.09203003
15	0x3e66316f	0.22479795
16	0x3e021839	0.12704553
17	0x3e8de572	0.27714115
18	0xbe061abc	-0.13096136
19	0xbe57cad1	-0.21073462
20	0x3d9f54c5	0.077798404
21	0xbd9167d9	-0.070998855
22	0xbecea499	-0.40359953
23	0xbebd3515	-0.3695456
24	0xbc6936c8	-0.014234252
25	0xbdb10013	-0.08642592
26	0x3dd39a88	0.10332209
27	0x3e41ab98	0.18913114
28	0xbeec2c45	-0.46127525
29	0xbd455b5d	-0.048182834
30	0xbda2cace	-0.07948838
31	0xbe9c6ef8	-0.30553412
32	0xbe8e7842	-0.27826124
33	0xbdde347a	-0.10849853
34	0x3e3a9344	0.1822024
35	0x3e7e5c95	0.24840005
36	0x3dab6745	0.083693065
37	0xbec6c386	-0.38821048
38	0x3f016f22	0.505602
39	0xbd834fbe	-0.06411694
40	0x3e54268a	0.20717826
41	0xbe71013d	-0.23535629
42	0xbcc980b7	-0.024597509
43	0xbdd4daae	-0.10393272
44	0xbe9f05e0	-0.3105917
45	0x3c3be79f	0.011468797
46	0x3e0a3a2b	0.13498752
47	0x3e44bf35	0.19213565
48	0x3e5917d6	0.21200499
49	0x3e1f6f2c	0.15569752
50	0x3dc7a47e	0.09748171
51	0x3d746bf7	0.059673276
52	0xbd05c62f	-0.032659706
53	0x3da70475	0.08155147
54	0xbedb9c7a	-0.4289282
55	0xbdd6c3af	-0.104865424
56	0xbcfdcdef	-0.030981986
57	0xbe1d0946	-0.15335569
58	0xbebd8072	-0.37012058
59	0xbd37894f	-0.044808682
60	0xbd3e07f0	-0.04639429
61	0xbcf126f9	-0.029437529
62	0xbeadde63	-0.3395873
63	0x3e5172d7	0.20453964
64	0x3dd03302	0.10165979
65	0x3eb9575a	0.36199456
66	0xbd9dfaa1	-0.07713819
67	0xbcf32ea7	-0.029685332
68	0x3e089097	0.13336407
69	0xbea71519	-0.32633284
70	0xbb0fb8ee	-0.0021930295
71	0xbe2a7f44	-0.1665011
72	0xbde79011	-0.11306775
73	0xbec24db4	-0.37949908
74	0xbdb6ff15	-0.08935372
75	0x3dd1feb1	0.10253657
76	0xbe2349aa	-0.1594607
77	0x3ebedc4f	0.37277457
78	0x3e02d904	0.12778097
79	0x3da57fad	0.08080993
80	0x3c893bd4	0.016752161
81	0x3db90959	0.09034986
82	0x3e75d6eb	0.24007766
83	0xbd21f2a8	-0.039538056
84	0xbddbde47	-0.107357554
85	0xbd646d8f	-0.055768546
86	0x3e8e3079	0.27771357
87	0x3e9839d7	0.29731628
88	0x3debe988	0.11519152
89	0x3dec1973	0.115282916
90	0x3e08f9aa	0.1337649
91	0x3bcbbf3d	0.0062178657
92	0x3ef362cb	0.4753631
93	0x3d3b323b	0.0457022
94	0xbd19ece5	-0.037579436
95	0xbe07cd00	-0.13261795
96	0x3dc09543	0.094034694
97	0xbe7bbc6f	-0.245836
98	0x3daf9aef	0.08574473
99	0x3e2546f9	0.16140355
100	0xbedbee43	-0.42955217
101	0xbe1a6686	-0.15078172
102	0xbee438ec	-0.44574678
103	0x3c8a5182	0.01688457
104	0x3d8b37c5	0.067977466
105	0xbde608cb	-0.11232146
106	0x3d9c0d51	0.076197274
107	0xbd42bbc9	-0.047542367
108	0xbdc911c7	-0.09817844
109	0x3e179551	0.14803053
110	0x3db39494	0.087685734
111	0x3d718c7d	0.05897187
112	0x3e585b07	0.21128474
113	0xbe84e816	-0.25958318
114	0x3e6fde72	0.234247
115	0x3d925016	0.071441814
116	0x3d866fe2	0.06564309
117	0x3dea5678	0.11442274
118	0x3f13bcae	0.5770978
119	0x3d9828ae	0.07429634
120	0x3d65564a	0.055990495
121	0x3ee0f1b3	0.43934402
122	0x3d006f32	0.031356044
123	0x3e66834f	0.22511028
124	0x3ea7f4c5	0.32803932
125	0x3d69665c	0.056982383
126	0x3eac0722	0.33599192
127	0xbddd5f9a	-0.1080925

goal_head.bias f4 [2]
0	0xbeaeb179	-0.34119776
1	0x3eaeb177	0.3411977

portfolio_head.weight f4 [15, 64]
0	0x3ce94622	0.028475825
1	0xbd127137	-0.0357525
2	0xbdf6a048	-0.1204229
3	0x3e88b800	0.2670288
4	0x3eb8f52c	0.3612455
5	0x3cc1d54b	0.023661276
6	0x3ec0f89a	0.37689668
7	0xbc98aead	-0.01863798
8	0x3dd59ba1	0.104300745
9	0x3c9921dd	0.018692905
10	0x3df2067f	0.11817645
11	0x3d860401	0.065437324
12	0x3ef4285c	0.47687042
13	0xbe50814a	-0.2036182
14	0xbdf0b799	-0.117537685
15	0xbdd06da3	-0.101771615
16	0x3e8508b5	0.25983205
17	0xbe4e54d3	-0.20149545
18	0xbdcb6e71	-0.099331744
19	0xbe896966	-0.26838225
20	0x3dd55525	0.10416631
21	0x3de0686c	0.10957417
22	0x3e726eb6	0.23675045
23	0x3d7c8c23	0.061657082
24	0x3dfd0164	0.12353781
25	0x3dd93bef	0.106071346
26	0xbe0b57f3	-0.13607769
27	0xbc60d5e6	-0.013722872
28	0xbdd51bc2	-0.10405685
29	0x3ea5f961	0.32416824
30	0xbe286fd1	-0.16448905
31	0x3e829eb2	0.255117
32	0x3e48a45d	0.1959395
33	0xbe88f8b1	-0.26752236
34	0x3d563e2d	0.05230539
35	0x3ce425c6	0.027850043
36	0x3e65a1e0	0.22425032
37	0xbe1d03da	-0.153335
38	0x3eada5a3	0.33915433
39	0x3eb163ff	0.34646603
40	0x3de27f7f	0.11059474
41	0x3e9d78b9	0.30756167
42	0x3e186f77	0.1488627
43	0x3c09ff2c	0.008422654
44	0x3e947135	0.2899262
45	0x3e2b7639	0.16744317
46	0xbed6eaf1	-0.4197612
47	0xbe823ad3	-0.25435504
48	0xbdbde077	-0.09271329
49	0xbe5918b7	-0.21200834
50	0x3e201d52	0.15636185
51	0x3cc20ae4	0.023686834
52	0xbe1c5484	-0.15266615
53	0x3cb82b1d	0.022481496
54	0xbe3d0163	-0.1845756
55	0x3d99d147	0.075106196
56	0xbe3f96ff	-0.18709944
57	0xbd916605	-0.07099537
58	0x3dfd13c1	0.123572834
59	0xbe63e62f	-0.22255777
60	0x3d91ac6d	0.07112966
61	0x3e33f001	0.17572023
62	0x3e9b7b20	0.30367374
63	0xbc0df595	-0.008664508
64	0x3deb3e04	0.11486438
65	0x3e4b1996	0.19833979
66	0x3e6dc317	0.23218952
67	0xbdc85343	-0.09781506
68	0x3dbacc2f	0.09120976
69	0x3d58b4fc	0.052906975
70	0xbdc827e0	-0.097732306
71	0xbe79096d	-0.24320002
72	0xbd5ac775	-0.053412873
73	0x3e84ad22	0.2591334
74	0x3e1dd32e	0.1541259
75	0x3dd8f243	0.10593083
76	0x3ece6c95	0.40317217
77	0x3cc8ea38	0.024525747
78	0x3cef059f	0.029177485
79	0x3dfbeb28	0.12300712
80	0x3e406a82	0.1879063
81	0x3e1cf872	0.1532915
82	0x3dc190bc	0.09451434
83	0x3cb76d4a	0.02239098
84	0x3e20e3c3	0.15711884
85	0x3e193201	0.14960481
86	0xbdafc121	-0.08581758
87	0xbe01bc15	-0.12669404
88	0x3ea1d348	0.31606507
89	0x3e521b57	0.20518242
90	0xbd1f9917	-0.038964357
91	0x3dd6573f	0.104658596
92	0xbaaf9111	-0.0013394674
93	0x3d8ee6b4	0.06977597
94	0x3e49d884	0.197115
95	0x3ddbd930	0.107347846
96	0xbe04154f	-0.12898754
97	0x3e709a70	0.23496413
98	0xbd6826e3	-0.05667771
99	0x3e0cce99	0.13750686
100	0x3ea216b3	0.31657943
101	0xbeb5c774	-0.35503733
102	0xbeb69dc5	-0.35667244
103	0xbe98ccb1	-0.29843667
104	0x3d38fc15	0.04516228
105	0x3db3ff42	0.08788921
106	0xbdec3e6d	-0.11535344
107	0xbe241d69	-0.16026844
108	0x3d5e9993	0.05434568
109	0x3ddaf913	0.106920384
110	0xbc6afd55	-0.014342626
111	0x3ee91985	0.45527282
112	0xbdc738da	-0.097276405
113	0x3dfb25fc	0.12263104
114	0x3d397e2d	0.045286346
115	0x3e45bdcd	0.19310685
116	0x3dd047d7	0.10169952
117	0xbdfe4074	-0.12414637
118	0xbe573a20	-0.21018267
119	0x3d7fbe45	0.062437315
120	0x3e60d28f	0.21955322
121	0x3d05b60b	0.032644313
122	0x3d6f60d2	0.058441944
123	0xbdbc78bd	-0.092027165
124	0x3c77b8d7	0.015119753
125	0xbd03ed6a	-0.032208838
126	0x3e4b6596	0.1986297
127	0xbe21b704	-0.15792471
128	0x3ddd7af6	0.108144686
129	0xbdbf75be	-0.093486294
130	0x3e786d7a	0.24260512
131	0xbe7cba91	-0.24680544
132	0x3da79886	0.081833884
133	0xbd819b85	-0.06328491
134	0x3df6b632	0.1204647
135	0x3e85bae9	0.26119164
136	0xbc2dbbb8	-0.010603838
137	0x3bdc86ae	0.0067299223
138	0xbe77dda3	-0.24205641
139	0x3d7fb5fb	0.06242941
140	0xbe8adb61	-0.27120498
141	0xbda9cca0	-0.08290982
142	0xbc25b198	-0.010113142
143	0x3d897b25	0.06712941
144	0x3e0331d1	0.12811972
145	0xbd9f0470	-0.07764518
146	0xbe05aede	-0.13054988
147	0x3d16cc21	0.036815766
148	0xbdc26bcf	-0.09493219
149	0xbe656cf6	-0.22404847
150	0xbe2fd4a9	-0.17170967
151	0xbe98c7e9	-0.2984002
152	0xbe2d6c9e	-0.16935965
153	0x3e9d1eee	0.3068766
154	0xbe03db2c	-0.12876576
155	0xbe3a4117	-0.18188892
156	0xbdade561	-0.08491016
157	0x3d9ffe46	0.07812171
158	0x3ea40b47	0.32039854
159	0xbde18678	-0.11011976
160	0x3e076fd2	0.1322625
161	0xbceb7ad0	-0.028745085
162	0xbc18cedb	-0.009326662
163	0x3e29e53c	0.16591352
164	0xbd6200e3	-0.055176627
165	0xbcbdf455	-0.023187796
166	0x3e86f8ae	0.26361603
167	0x3dfa73ce	0.12229119
168	0xbdbcf445	-0.09226278
169	0x3dea1181	0.1142912
170	0x3e22667b	0.15859406
171	0xbe2b10e5	-0.16705664
172	0x3e4ae0bb	0.1981229
173	0xbd59b52f	-0.053151306
174	0xbde4bfd3	-0.111694
175	0xbd36d72f	-0.04463881
176	0xbd67965c	-0.05653988
177	0xbe18123b	-0.14850704
178	0x3dc4802e	0.09594761
179	0xbebbdc3b	-0.3669146
180	0x3dbcba0c	0.09215173
181	0x3d8ad9fe	0.0677986
182	0xbe13262b	-0.14370029
183	0x3d21fb33	0.039546203
184	0x3d960522	0.07325198
185	0x3c8dcf5d	0.017310793
186	0x3e19761c	0.14986461
187	0x3dc06331	0.09393919
188	0xbdd42b00	-0.10359764
189	0x3d9e678c	0.07734594
190	0x3c8eef13	0.017447984
191	0x3c716d27	0.014735497
192	0x3d4a58fc	0.04940127
193	0x3dd76d7a	0.10518928
194	0x3c929528	0.017893389
195	0x3cc9b1f2	0.024620984
196	0xbdd2c891	-0.10292161
197	0xbe8269ad	-0.2547125
198	0x3d9f051e	0.07764648
199	0x3b1bff67	0.0023803355
200	0x3cded113	0.027199304
201	0x3e3b7aa7	0.18308507
202	0xbdaa68e9	-0.08320791
203	0xbe5cd47e	-0.21565434
204	0xbe865ad0	-0.2624116
205	0x3eb8808c	0.36035573
206	0xbd01cddf	-0.031690475
207	0x3d01cbe4	0.031688586
208	0x3d178431	0.036991302
209	0xbdeba77f	-0.11506557
210	0xbe0d5c30	-0.13804698
211	0xbe10265b	-0.14077131
212	0xbdbe7970	-0.09300506
213	0x3d832e5b	0.06405326
214	0x3c0d740d	0.008633626
215	0x3db15d80	0.08660412
216	0x3e2c686f	0.16836713
217	0x3e261043	0.16217141
218	0xbe8308df	-0.25592706
219	0x3e55d0fc	0.20880502
220	0x3ef8b8c2	0.4857846
221	0x3e61ec2b	0.22062747
222	0xbe66cb75	-0.2253855
223	0xbd6a684f	-0.057228383
224	0xbe2c0740	-0.1679964
225	0xbe78eec9	-0.2430984
226	0xbe444661	-0.19167472
227	0x3d50b013	0.050949167
228	0xbe2d90f6	-0.1694983
229	0xbd130b52	-0.035899468
230	0xbf581106	-0.84400976
231	0xbe8c5489	-0.27408245
232	0xbc2e367c	-0.010633107
233	0xbe542d40	-0.20720387
234	0xbe74cb87	-0.23905765
235	0xbe21b259	-0.1579069
236	0x3de9e45b	0.114205085
237	0x3e187fca	0.14892498
238	0x3e760c61	0.2402816
239	0x3d8f6073	0.07000818
240	0x3d4de226	0.0502645
241	0xbb02a284	-0.0019933293
242	0xbe885dd0	-0.26634073
243	0x3e9fcab2	0.31209332
244	0xbe0e2435	-0.13881
245	0x3ea155f2	0.31510884
246	0x3df51f74	0.1196889
247	0xbd6ac237	-0.057314124
248	0xbeb647f6	-0.35601777
249	0x3ddd913a	0.108187154
250	0x3e4001ff	0.18750761
251	0x3e0f31ae	0.13983795
252	0xbc0c12dd	-0.008549419
253	0xbe752155	-0.23938496
254	0x3dba6a84	0.091023475
255	0xbe113eac	-0.14184064

portfolio_head.bias f4 [15]
0	0x3d732d08	0.059369117
1	0x3d34c7ea	0.044135965
2	0x3d784034	0.060608104
3	0xbe0965da	-0.1341776
4	0x3cdf570f	0.027263192
5	0xbd114555	-0.03546651
6	0xbdab895f	-0.08375811
7	0xbc5821a9	-0.013191619
8	0x3d347a41	0.044061903
9	0xbc562466	-0.0130702015
10	0x3c9e53c8	0.01932706
11	0xbce480ef	-0.027893512
12	0x3d8a5993	0.06755366
13	0xbc8b63e0	-0.017015398
14	0xbb6f4108	-0.0036507268

network.0.weight f4 [64, 2]
0	0xbddc124a	-0.10745676
1	0xbda22c6e	-0.079186305
2	0xbec539bc	-0.3852061
3	0x3d556a32	0.05210323
4	0xbeaa3d82	-0.33250052
5	0xbe1ec8e8	-0.15506327
6	0xbe307a77	-0.17234217
7	0x3d30a911	0.043129984
8	0x3d2fae3e	0.04289078
9	0xbed6a393	-0.41921672
10	0xbe25bc02	-0.16185
11	0xbe40ac83	-0.18815808
12	0xbe3c9064	-0.18414456
13	0xbe6394d2	-0.22224739
14	0xbca92073	-0.020645356
15	0xbcfce2ad	-0.030869806
16	0xbf18bc63	-0.59662455
17	0xbe110dc1	-0.14165403
18	0xbde4cbfc	-0.111717194
19	0xbea88a4d	-0.32918015
20	0xbecd8a25	-0.40144458
21	0xbe99df6c	-0.3005327
22	0xbf338423	-0.701235
23	0xbe2e8ad1	-0.17045142
24	0xbdc23eb1	-0.09484614
25	0x3cb0aa89	0.021565692
26	0x3efc5f9b	0.4929169
27	0xbee68a48	-0.45027375
28	0xbc99a05c	-0.018753223
29	0x3c8f0799	0.017459678
30	0xbef93d1d	-0.48679438
31	0xbd3c2c20	-0.04594052
32	0xbeab060a	-0.33403045
33	0xbe230711	-0.15920664
34	0xbdf3d059	-0.119049735
35	0xbd11e8de	-0.03562247
36	0xbe8fddea	-0.28098994
37	0xbe03e526	-0.12880382
38	0xbe11506f	-0.14190839
39	0xbf2cdcb6	-0.6752428
40	0xbe01898d	-0.12650128
41	0xbebc3cb9	-0.36765078
42	0xbe19ba34	-0.15012437
43	0xbe97d0e1	-0.2965155
44	0xbd55949c	-0.052143678
45	0xbe6bdd88	-0.23033726
46	0xbd969cb7	-0.0735411
47	0xbebc71fd	-0.36805716
48	0xbf0495cd	-0.5179108
49	0xbe2c3d87	-0.16820346
50	0x3f263e93	0.6493923
51	0xbec5dd86	-0.3864557
52	0xbe553045	-0.20819195
53	0x3bd6c956	0.006554763
54	0xbe3a4df0	-0.18193793
55	0xbde7fac7	-0.11327129
56	0x3ebee610	0.372849
57	0xbf0e870d	-0.5567482
58	0xbeed7ca6	-0.46384162
59	0xbe8f8979	-0.2803457
60	0x3eaee5af	0.3415961
61	0xbebd7ffb	-0.37011704
62	0xc009d665	-2.1537106
63	0xbed4df25	-0.41576496
64	0xbe95cfdf	-0.29260156
65	0x3e08b2d0	0.13349462
66	0xbcc7e431	-0.024400802
67	0xbdf8e3b3	-0.12152805
68	0x3b33a46e	0.002741124
69	0xbe03608d	-0.128298
70	0x3bb78c4f	0.005601443
71	0x3c4e0cd1	0.012576298
72	0xbd82bf80	-0.06384182
73	0xbdd18a1d	-0.10231421
74	0xbee79a4f	-0.45234916
75	0xbde6d6e2	-0.112714544
76	0xbefd7e6a	-0.4951051
77	0xbe1e4468	-0.15455782
78	0xbf0a4e77	-0.5402598
79	0xbdb19a11	-0.08671964
80	0xbf1cb0a6	-0.61207044
81	0xbe10d7d6	-0.14144835
82	0xbbb893bc	-0.0056328457
83	0xbe457003	-0.1928101
84	0xbecf2056	-0.40454358
85	0xbdaf61bf	-0.085635655
86	0xbea9d168	-0.33167577
87	0xbc2c81d6	-0.010529002
88	0x3e705bca	0.23472515
89	0xbe47763c	-0.19478697
90	0xbddb55e8	-0.10709745
91	0xbd30f418	-0.043201536
92	0xbe9e033c	-0.30861843
93	0xbd50634e	-0.050875954
94	0xbe008f0a	-0.12554565
95	0xbd836267	-0.06415253
96	0xbd7ed9ad	-0.06221931
97	0xbd9ca542	-0.07648708
98	0xbcb7b6ae	-0.022425976
99	0xbf51fc80	-0.8202591
100	0xbee5e91e	-0.44904417
101	0xbe9c4562	-0.30521685
102	0xbeccff92	-0.40038735
103	0xbe56b2d8	-0.20966661
104	0xbef8ecd9	-0.486182
105	0xbd0ba102	-0.034089096
106	0x3eb6dfab	0.3571752
107	0xbe64a835	-0.22329791
108	0xbe20ef38	-0.15716255
109	0xbdc71eef	-0.09722697
110	0xbe99d1e2	-0.3004294
111	0xbdd47da0	-0.103755236
112	0xbcf8b78c	-0.03036096
113	0xbe0feef0	-0.14055991
114	0xbe933458	-0.28750873
115	0x3d694b63	0.05695666
116	0xbee366b0	-0.44414282
117	0xbdafa0db	-0.085756026
118	0xbec4b8de	-0.38422292
119	0x3dd14b5f	0.10219454
120	0xbdeeeab5	-0.116658606
121	0xbe069824	-0.13143975
122	0x3e1663bc	0.14686483
123	0xbf0a17e9	-0.53942734
124	0xbed0d6be	-0.40788835
125	0xbe97561f	-0.29557893
126	0x3d1c331b	0.038134675
127	0xbebe342b	-0.37149176

network.0.bias f4 [64]
0	0x00000000	0.0
1	0x3eae2cf3	0.3401867
2	0x3e9f91a5	0.31165805
3	0x3e2fa0c9	0.17151178
4	0xbe033cfd	-0.12816234
5	0x3e27b99f	0.16379403
6	0x00000000	0.0
7	0x00000000	0.0
8	0x3f0ad56f	0.54231924
9	0x3d5af413	0.053455424
10	0x00000000	0.0
11	0x3f254c92	0.6456996
12	0xbd75fadb	-0.060053688
13	0x3e2d6213	0.16931944
14	0xbd75ebc4	-0.060039297
15	0x3edd63a3	0.4324008
16	0x3e9ef666	0.31047362
17	0x00000000	0.0
18	0x3e85284e	0.26007313
19	0x3dd2aad1	0.10286487
20	0x3e145612	0.14485958
21	0x00000000	0.0
22	0x00000000	0.0
23	0x00000000	0.0
24	0x3ef5c1b8	0.47999358
25	0x3e8a9055	0.27063242
26	0x3e4201d6	0.18946013
27	0x00000000	0.0
28	0x3e587572	0.21138552
29	0x3ee6da94	0.45088637
30	0x3e24506c	0.16046304
31	0x3ec2a026	0.3801281
32	0xbd71b87f	-0.05901384
33	0xbdeb7564	-0.11497
34	0xbdf2ff93	-0.11865153
35	0xbd88b3ab	-0.06674894
36	0x00000000	0.0
37	0x3ed1d194	0.40980208
38	0x3ee8f2bd	0.45497695
39	0x3ef71e96	0.48265523
40	0x3f0ede5a	0.5580803
41	0xbd98067c	-0.07423112
42	0x3eb9c5e8	0.36283803
43	0x3e970cc5	0.2950193
44	0x3e153060	0.14569235
45	0xbd75ef61	-0.060042743
46	0x00000000	0.0
47	0x00000000	0.0
48	0x00000000	0.0
49	0x3e1458f7	0.14487062
50	0x3ee03b03	0.43795022
51	0x3ec1177c	0.3771323
52	0x3edd7b78	0.43258262
53	0x3e0fe31a	0.14051476
54	0x00000000	0.0
55	0x00000000	0.0
56	0x00000000	0.0
57	0x3e8243cd	0.25442353
58	0x3ecbd88d	0.39813653
59	0x3eaa7f73	0.3330036
60	0x00000000	0.0
61	0x3de7d4c4	0.11319879
62	0x3ecd5d69	0.4011033
63	0x3dc6114c	0.09671268

network.2.weight f4 [64, 64]
0	0x3e06a9b5	0.13150676
1	0x3e0868d2	0.13321236
2	0x3e9f5f1f	0.3112726
3	0x3dcf4bfc	0.10121915
4	0x3e71404f	0.23559688
5	0x3e60c82d	0.21951361
6	0xbd243cd9	-0.04009709
7	0xbcacc2bc	-0.02108895
8	0x3f218327	0.6309075
9	0x3d315775	0.043296296
10	0x3d7fe33a	0.06247256
11	0x3f56091a	0.8360764
12	0xbd88d177	-0.06680577
13	0xbe968a70	-0.29402494
14	0x3e911f8c	0.2834438
15	0x3eb03e7f	0.3442268
16	0xbdb784b5	-0.08960859
17	0x3d66d55f	0.05635583
18	0x3eda4f87	0.426388
19	0xbe17d837	-0.14828573
20	0x3cfbef10	0.030753642
21	0xbcc376f7	-0.023860438
22	0x3e8de601	0.27714542
23	0xbde8df51	-0.11370719
24	0x3eef46bf	0.46733662
25	0xbd559f4e	-0.052153878
26	0x3dcf719a	0.1012909
27	0xbd729e67	-0.059233095
28	0x3dba73c5	0.091041125
29	0x3f09f9f7	0.5389704
30	0xbe52395a	-0.2052969
31	0xbf945bde	-1.1590536
32	0xbd0c8b3a	-0.034312464
33	0x3e5e8540	0.21730518
34	0xbb9879b3	-0.0046531796
35	0xbdc90498	-0.09815329
36	0x3e8e82e3	0.27834234
37	0x3ee70e01	0.45127872
38	0x3f085d96	0.532678
39	0x3f50f0b8	0.8161731
40	0x3f397df7	0.7245783
41	0xbe1721d3	-0.14758997
42	0x3ed7152f	0.4200835
43	0xbe756f44	-0.23968226
44	0xbe7310ac	-0.23736829
45	0x3e010899	0.12600936
46	0x3d5607ee	0.052253656
47	0x3d5d99bc	0.05410169
48	0xbe3ca845	-0.18423565
49	0xbe968000	-0.2939453
50	0x3ed6c2d2	0.4194551
51	0x3e21e7de	0.15811107
52	0x3eede554	0.46464026
53	0xbe7f3844	-0.24923807
54	0xbdf9c7ac	-0.121962875
55	0x3e503f93	0.20336752
56	0x3e96eedc	0.2947911
57	0x3b8b1d20	0.0042454153
58	0x3e32d48f	0.17463897
59	0x3e8ac992	0.2710691
60	0x3ec8f0a9	0.3924611
61	0x3c7447b4	0.0149096735
62	0x3f4639d4	0.7743199
63	0x3e9c66b4	0.30547106
64	0xbe8ff9a9	-0.28120163
65	0x3ec76712	0.38945824
66	0xbe0dece1	-0.13859893
67	0xbd19341d	-0.037403215
68	0xbe92e2c3	-0.2868863
69	0xbe8684af	-0.26273105
70	0x3d947010	0.07247937
71	0x3d7919b6	0.060815535
72	0xbc84e7e1	-0.01622385
73	0x3dabd7d0	0.08390772
74	0x3e292560	0.16518164
75	0x3e598511	0.21242167
76	0x3d85f205	0.06540302
77	0x3e17a0db	0.14807455
78	0xbe3833e9	-0.17988552
79	0xbd26f72d	-0.04076307
80	0xbdfe9157	-0.12430065
81	0x3ed7c6a9	0.42143753
82	0x3e33233f	0.17493914
83	0xbc41f490	-0.011838093
84	0x3bc9c119	0.0061570522
85	0x3c93c8f4	0.018040158
86	0xbcfbd644	-0.030741818
87	0x3e56222e	0.20911476
88	0xbcbcf0f9	-0.023064123
89	0xbd1adc6a	-0.03780786
90	0xbdf4bfbc	-0.11950633
91	0xbd1241b7	-0.0357072
92	0x3e077b9c	0.13230747
93	0xbd93f299	-0.07224006
94	0x3cca6348	0.024705544
95	0xbee1344c	-0.43985212
96	0x3d38d059	0.04512057
97	0xbdb863e0	-0.09003425
98	0xbd727f73	-0.059203576
99	0x3e79f8ce	0.24411318
100	0xbe4af7b5	-0.19821055
101	0x3e38410b	0.17993562
102	0x3e0e2bc3	0.13883881
103	0xbe279493	-0.1636527
104	0xbe2e3a75	-0.17014487
105	0x3d1176bd	0.03551363
106	0x3e0b4c03	0.13603215
107	0xbe8ab013	-0.2708746
108	0xbe005fbc	-0.1253652
109	0xbbd7a703	-0.0065811886
110	0x3c1e8483	0.009675148
111	0x3dbd77de	0.092513785
112	0x3ed6703f	0.41882512
113	0xbc11296b	-0.0088599725
114	0x3c1f8747	0.0097368425
115	0x3e39c86f	0.18142866
116	0xbe20c0be	-0.15698525
117	0xbeabccaa	-0.33554584
118	0xbddedbe6	-0.10881786
119	0xbe4b70a0	-0.19867182
120	0x3e99eec0	0.30064964
121	0xbe9c00fb	-0.30469498
122	0xbd954a26	-0.07289533
123	0xbe311bb7	-0.17295729
124	0xbd176a0a	-0.03696636
125	0xbd47fa06	-0.048822425
126	0xbd88671e	-0.06660293
127	0x3e460ea3	0.19341521
128	0xbd8c094b	-0.0683771
129	0x3ea64a1d	0.3247842
130	0x3ea6300e	0.32458538
131	0x3e2e63bc	0.17030233
132	0xbe67c643	-0.22634225
133	0x3e53ea05	0.2069474
134	0xbe9d2b1b	-0.3069695
135	0x3cab0dd2	0.020880613
136	0x3f315d20	0.6928272
137	0x3d5db21f	0.054124948
138	0x3e0f204b	0.13977163
139	0x3f3898c7	0.7210812
140	0xbd547eeb	-0.05187885
141	0xbe6eb544	-0.23311335
142	0xb9bd986f	-0.0003616246
143	0x3ed916b6	0.4240014
144	0x3dd2219f	0.10260319
145	0xbd8d8c5f	-0.06911539
146	0x3e9ca82e	0.3059706
147	0xbe3d45c7	-0.18483649
148	0x3d48f6c8	0.049063474
149	0xbc824047	-0.01589979
150	0x3db087a1	0.08619619
151	0xbc21c10a	-0.009872684
152	0x3f4137fb	0.75476044
153	0xbe9909f7	-0.29890415
154	0xbde2eff2	-0.11080922
155	0x3c93402a	0.017974932
156	0x3d2c4b9c	0.042064294
157	0x3eb50858	0.35357928
158	0xbd5b571e	-0.05354988
159	0xbf83a848	-1.028573
160	0x3db3806a	0.087647274
161	0x3e52dae6	0.20591316
162	0xbd33fee4	-0.043944255
163	0xbe0d82a1	-0.13819362
164	0xbec0eed5	-0.37682214
165	0x3f2659da	0.6498085
166	0x3e9c9a27	0.3058636
167	0x3ef944c7	0.48685285
168	0x3f26e8fb	0.6519925
169	0x3e916979	0.28400782
170	0x3e868eec	0.26280916
171	0x3e46ae47	0.19402419
172	0x3e4149ae	0.18875763
173	0x3e5f638e	0.21815321
174	0xbe2c37d8	-0.16818178
175	0xbdb023e4	-0.086005956
176	0x3e0974b9	0.13423432
177	0xbc9c8b9a	-0.019109536
178	0x3eee7b98	0.4657867
179	0xbe729ce1	-0.23692657
180	0x3f06aed3	0.5261051
181	0xbe47e147	-0.1951953
182	0xbc68a8bb	-0.014200385
183	0x3ebe67e3	0.37188634
184	0xbe86ff71	-0.2636676
185	0x3ecbcb43	0.39803514
186	0x3e59792f	0.21237634
187	0xbd820ba3	-0.06349876
188	0xbd89abc4	-0.06722215
189	0xbe20cd7c	-0.15703386
190	0x3c07b7d6	0.008283576
191	0x3d399a91	0.04531342
192	0xbe21e34a	-0.1580936
193	0xbe0b34c7	-0.13594352
194	0x3c8a1cf1	0.016859503
195	0xbcb1f876	-0.02172492
196	0x3d8fae2c	0.070156425
197	0xbe0092e2	-0.12556031
198	0x3e5c3de0	0.21507978
199	0xbdb68251	-0.08911575
200	0x3e0a1c0c	0.13487262
201	0x3e7ac020	0.24487352
202	0x3db0e10b	0.086366735
203	0xbcd8db99	-0.0264719
204	0x3dc48ece	0.0959755
205	0xbe32b3d3	-0.1745141
206	0xbe553a3d	-0.20822997
207	0xbdddedf4	-0.108364016
208	0xbe037b53	-0.12840013
209	0xbdd779b8	-0.10521263
210	0xbe4790f3	-0.19488887
211	0xbebcabb9	-0.36849764
212	0xbdb263a4	-0.08710411
213	0xbd894d8a	-0.067042425
214	0xbc427fd4	-0.011871297
215	0xbef82dc6	-0.48472422
216	0xbb0743c4	-0.0020639757
217	0xbc5066bb	-0.012719805
218	0x3e6ca4dd	0.23109765
219	0xbdf486ce	-0.119397745
220	0x3da34acd	0.079732515
221	0x3b0ffc0f	0.0021970307
222	0x3df5cc7e	0.120018944
223	0xbe347459	-0.17622508
224	0xbe0a3a13	-0.13498716
225	0xbe8366e0	-0.25664425
226	0x3d8d8654	0.06910387
227	0x3da392cf	0.07986986
228	0xbdefba0d	-0.11705408
229	0xbe835d26	-0.25657004
230	0xbe36508a	-0.1780416
231	0xbed6ae98	-0.4193008
232	0x3e9b2d6b	0.3030809
233	0xbc49eaa7	-0.012324012
234	0x3d8d82ef	0.06909739
235	0x3dc497e3	0.095992826
236	0xbe52be42	-0.2058039
237	0x3e23a755	0.15981801
238	0x3e17102f	0.14752267
239	0x3dcd37aa	0.10020383
240	0x3e3bf0e6	0.18353614
241	0xbe2acee1	-0.1668048
242	0x3e7018c2	0.23446944
243	0xbd7e092b	-0.062020462
244	0xbd960b25	-0.073263444
245	0xbd8c5fbe	-0.06854199
246	0x3df1a665	0.11799315
247	0x3eba8cf2	0.36435658
248	0x3e5daffb	0.21649162
249	0x3dbef47c	0.093239754
250	0xbe9db9b3	-0.3080574
251	0x3e63562d	0.22200842
252	0xbe0ee634	-0.13955003
253	0xbe306fd0	-0.17230153
254	0x3d79ca32	0.060983844
255	0xbdf1e416	-0.11811082

network.2.bias f4 [64]
0	0x3ebb8784	0.36626828
1	0xbd63aeeb	-0.055586737
2	0x3eba281d	0.3635873
3	0x00000000	0.0
4	0x3eb89f06	0.36058825
5	0x3e99d517	0.30045387
6	0xbd75fa02	-0.06005288
7	0x00000000	0.0
8	0x3ec4d46f	0.38443324
9	0x00000000	0.0
10	0xbd63b059	-0.0555881
11	0x3ea8edfd	0.3299407
12	0xbd8ed3ce	-0.06973992
13	0x3eb331dc	0.34998977
14	0x00000000	0.0
15	0x3ea17711	0.31536153
16	0xbd75ce2b	-0.06001107
17	0xbd7d41ac	-0.061830208
18	0xbd75fcb3	-0.060055446
19	0xbd5b025c	-0.053469047
20	0xbda17ea4	-0.07885483
21	0xbda9ee0c	-0.08297357
22	0x3ea78304	0.32717144
23	0x3e990e71	0.2989383
24	0x00000000	0.0
25	0x00000000	0.0
26	0x3eba502f	0.363893
27	0x3eccf271	0.40028718
28	0x3e9169d3	0.2840105
29	0x3e977e58	0.2958858
30	0xbd838966	-0.06422691
31	0x3ec83db5	0.3910958
32	0xbd7f81d7	-0.062379684
33	0xbdac391b	-0.084093295
34	0xbd75f882	-0.06005145
35	0x00000000	0.0
36	0x3e8bf0d5	0.27332178
37	0x3e9b16f8	0.3029096
38	0x3eb8f6e4	0.36125863
39	0x3ea1f956	0.3163554
40	0xbd8bcc12	-0.06826033
41	0x3ebf4afc	0.37361896
42	0x00000000	0.0
43	0x3e896a60	0.2683897
44	0xbd7de73c	-0.0619881
45	0x00000000	0.0
46	0xbf0e9dc0	-0.5570946
47	0x3e946546	0.28983516
48	0x3eb79246	0.35853785
49	0x3eccce93	0.40001354
50	0x3e8b3bd8	0.27194095
51	0xbd7b1a54	-0.061304405
52	0xbd75faa9	-0.0600535
53	0x3eb0862d	0.34477368
54	0x3ebc44e0	0.36771297
55	0x3ebb2538	0.36551833
56	0x3eb1c056	0.34717053
57	0x3eca9ab5	0.39571157
58	0x3eab4315	0.33449617
59	0x3eb9f791	0.3632169
60	0x00000000	0.0
61	0x3ec5cd49	0.38633183
62	0x00000000	0.0
63	0xbd774050	-0.060364068

network.4.weight f4 [1, 64]
0	0x3ea21002	0.31652838
1	0x3d390ef3	0.045180272
2	0x3e97cd01	0.29648593
3	0x3b8cb997	0.004294585
4	0x3ecf4f85	0.40490356
5	0x3e92f4ad	0.28702298
6	0x3d1e58c2	0.038658865
7	0x3c9b6867	0.018970681
8	0x3ec5af9b	0.3861054
9	0xbc208995	-0.009798427
10	0x3d4bb18d	0.049729872
11	0x3e9f8af9	0.31160715
12	0x3d665ac1	0.056238893
13	0x3e9fca94	0.31209242
14	0x3b74818d	0.0037308664
15	0x3e784feb	0.24249236
16	0x3d7487c3	0.059699785
17	0x3d486981	0.04892874
18	0x3d5ec989	0.054391418
19	0x3d1f0ebc	0.03883241
20	0x3d8a32f7	0.06748002
21	0x3d6352e4	0.055498973
22	0x3e94fc45	0.29098716
23	0x3e928500	0.28617096
24	0xbbd1a213	-0.0063974946
25	0x3c4e4e1b	0.012591864
26	0x3e880f25	0.26574054
27	0x3ea9c65c	0.3315915
28	0x3e4a482e	0.19754097
29	0x3e3488f6	0.17630371
30	0x3d544d67	0.05183163
31	0x3ea84931	0.3286834
32	0x3d3e7760	0.046500564
33	0xbd88f203	-0.06686785
34	0x3d468278	0.04846427
35	0xbc347e3b	-0.011016424
36	0x3e39834a	0.18116489
37	0x3e93ba54	0.28853095
38	0x3ea0a2d2	0.31374222
39	0x3e4575be	0.19283196
40	0x3d816582	0.06318189
41	0x3e8e2745	0.27764335
42	0x39997e33	0.0002927646
43	0x3e5cbae1	0.21555664
44	0x3d239af1	0.039942686
45	0xbb89368e	-0.0041874116
46	0xbfe2eda8	-1.7728777
47	0x3e528194	0.20557243
48	0x3e9ebb99	0.310025
49	0x3ea631f3	0.32459983
50	0x3e21effb	0.15814202
51	0xbc523838	-0.012830786
52	0x3d07ec4d	0.03318434
53	0x3e6d2871	0.23159958
54	0x3e4fc984	0.20291716
55	0x3eab8931	0.33503106
56	0x3ea7c93d	0.3277072
57	0x3ea44f2f	0.32091662
58	0x3e8a14cf	0.26969
59	0x3ebe15fc	0.37126148
60	0x3ca14eb3	0.019690847
61	0x3e9f2503	0.31082925
62	0x3c2f5dd6	0.010703525
63	0x3d4ced40	0.050030947

exp_avg f4 [64, 2]
0	0xbb04ecce	-0.0020282748
1	0xb9828ed9	-0.00024901962
2	0x00000000	0.0
3	0x00000000	0.0
4	0x37638135	1.3560338e-05
5	0xb977ce34	-0.00023632572
6	0x00000000	0.0
7	0x00000000	0.0
8	0x00000004	6e-45
9	0x00000004	6e-45
10	0xbb1a4642	-0.0023540412
11	0xb95fab1e	-0.00021330683
12	0x00000000	0.0
13	0x00000000	0.0
14	0x0000004c	1.06e-43
15	0x00000007	1e-44
16	0x00000004	6e-45
17	0x00000004	6e-45
18	0xb8846a5c	-6.3140615e-05
19	0xb7eb5836	-2.805526e-05
20	0x2b94e583	1.0579735e-12
21	0x291da46a	3.500361e-14
22	0x00000004	6e-45
23	0x00000004	6e-45
24	0x00000004	6e-45
25	0x00000004	6e-45
26	0x00000000	0.0
27	0x00000000	0.0
28	0x00000000	0.0
29	0x00000004	6e-45
30	0x00000004	6e-45
31	0x00000004	6e-45
32	0x00000004	6e-45
33	0x00000004	6e-45
34	0x378e7e90	1.6986654e-05
35	0x34db7532	4.08772e-07
36	0x00000004	6e-45
37	0x00000004	6e-45
38	0x00000000	0.0
39	0x00000004	6e-45
40	0x2f509a66	1.8972343e-10
41	0x2ee7d1de	1.0541944e-10
42	0x00000004	6e-45
43	0x00000004	6e-45
44	0x00000000	0.0
45	0x00000004	6e-45
46	0x00000004	6e-45
47	0x00000004	6e-45
48	0x00000000	0.0
49	0x00000000	0.0
50	0x00000004	6e-45
51	0x00000004	6e-45
52	0x19170093	7.806633e-24
53	0x17c9650e	1.301483e-24
54	0x00000004	6e-45
55	0x00000004	6e-45
56	0x00000004	6e-45
57	0x00000004	6e-45
58	0x00000000	0.0
59	0x00000000	0.0
60	0x00000004	6e-45
61	0x00000004	6e-45
62	0x00000004	6e-45
63	0x00000004	6e-45
64	0x3a66551d	0.00087864866
65	0xb8eeb6b9	-0.00011382759
66	0x00000004	6e-45
67	0x00000004	6e-45
68	0x00000000	0.0
69	0x00000000	0.0
70	0x3a5b58d9	0.00083674263
71	0xb7a27bce	-1.9369556e-05
72	0x00000004	6e-45
73	0x00000004	6e-45
74	0x00000004	6e-45
75	0x00000004	6e-45
76	0x32cf1b3f	2.4110362e-08
77	0x329dd990	1.8376141e-08
78	0x00000004	6e-45
79	0x00000004	6e-45
80	0x00000000	0.0
81	0x00000004	6e-45
82	0x00000004	6e-45
83	0x00000004	6e-45
84	0xba385c5e	-0.0007032807
85	0xb8bbbc98	-8.951983e-05
86	0x00000004	6e-45
87	0x00000004	6e-45
88	0x212bc638	5.8199394e-19
89	0x210fcab8	4.871858e-19
90	0x00000004	6e-45
91	0x00000004	6e-45
92	0x00000004	6e-45
93	0x00000004	6e-45
94	0x000004d4	1.732e-42
95	0x000001c1	6.29e-43
96	0x00000004	6e-45
97	0x00000004	6e-45
98	0x00000000	0.0
99	0x00000000	0.0
100	0x00000000	0.0
101	0x00000000	0.0
102	0x00000004	6e-45
103	0x00000004	6e-45
104	0x00000004	6e-45
105	0x00000004	6e-45
106	0x10a0655f	6.326506e-29
107	0x0e38b649	2.2767518e-30
108	0x00000004	6e-45
109	0x00000004	6e-45
110	0x00000004	6e-45
111	0x00000004	6e-45
112	0x00000004	6e-45
113	0x00000004	6e-45
114	0x05e1134b	2.1165985e-35
115	0x043f2a3e	2.2471339e-36
116	0x00000004	6e-45
117	0x00000004	6e-45
118	0x00000004	6e-45
119	0x00000004	6e-45
120	0x00000004	6e-45
121	0x00000004	6e-45
122	0x00000004	6e-45
123	0x00000004	6e-45
124	0x00000004	6e-45
125	0x00000004	6e-45
126	0x00000000	0.0
127	0x00000000	0.0

exp_avg_sq f4 [64, 2]
0	0x382239dd	3.86777e-05
1	0x354994a0	7.509461e-07
2	0x00000000	0.0
3	0x00000000	0.0
4	0x37de3d30	2.6492955e-05
5	0x360c2ad0	2.0886546e-06
6	0x00000000	0.0
7	0x00000000	0.0
8	0x3757c5e2	1.2861072e-05
9	0x34782e59	2.3113661e-07
10	0x38378421	4.3753655e-05
11	0x35679cfe	8.628266e-07
12	0x00000000	0.0
13	0x00000000	0.0
14	0x35f669df	1.8359241e-06
15	0x330476f5	3.0841836e-08
16	0x34f6238a	4.584693e-07
17	0x3210d891	8.431145e-09
18	0x360357c0	1.9571598e-06
19	0x331b651a	3.61807e-08
20	0x373e4d9d	1.1342953e-05
21	0x344b8e3f	1.8957597e-07
22	0x311f0503	2.3140394e-09
23	0x30189415	5.5507715e-10
24	0x34aefe67	3.2595128e-07
25	0x31e2043a	6.577946e-09
26	0x00000000	0.0
27	0x00000000	0.0
28	0x00000000	0.0
29	0x2c60cf3c	3.1947353e-12
30	0x2f1cd10c	1.4262386e-10
31	0x2aa336ca	2.8992634e-13
32	0x3435b8d9	1.6924186e-07
33	0x317ae21b	3.6508314e-09
34	0x38736c15	5.8036374e-05
35	0x35899be8	1.025267e-06
36	0x2f1ac884	1.4077456e-10
37	0x2ea86c85	7.6590324e-11
38	0x00000000	0.0
39	0x2aa84076	2.9887524e-13
40	0x32fd2534	2.9469994e-08
41	0x3137bfc4	2.673901e-09
42	0x330a05f0	3.213603e-08
43	0x308a7d4f	1.0076436e-09
44	0x00000000	0.0
45	0x27939cd1	4.0970717e-15
46	0x35b89be9	1.3754444e-06
47	0x32c24216	2.2614625e-08
48	0x00000000	0.0
49	0x00000000	0.0
50	0x3308cda8	3.185201e-08
51	0x2fde4936	4.0433584e-10
52	0x37148f4d	8.854852e-06
53	0x3422d8fc	1.5166364e-07
54	0x34085600	1.2697274e-07
55	0x311467c3	2.1595816e-09
56	0x33c76785	9.28549e-08
57	0x30ccc30e	1.4898391e-09
58	0x00000000	0.0
59	0x00000000	0.0
60	0x34a2fdc6	3.0359496e-07
61	0x319f7ed5	4.641928e-09
62	0x31d5a136	6.2174434e-09
63	0x2f4381be	1.778124e-10
64	0x37cc4538	2.4350928e-05
65	0x35f3f969	1.8177499e-06
66	0x348df606	2.6442302e-07
67	0x31af37f2	5.0995306e-09
68	0x00000000	0.0
69	0x00000000	0.0
70	0x38f5a46a	0.00011713135
71	0x360e2b01	2.118468e-06
72	0x2f8a03ee	2.5104846e-10
73	0x2dad6b0f	1.9715366e-11
74	0x30af25ee	1.2743706e-09
75	0x2f3a58d0	1.6948154e-10
76	0x33eebace	1.1116718e-07
77	0x31b99942	5.401632e-09
78	0x35116421	5.4162416e-07
79	0x32248d86	9.578235e-09
80	0x00000000	0.0
81	0x2d97865b	1.7226378e-11
82	0x362ae1f3	2.5463494e-06
83	0x3359058c	5.0529295e-08
84	0x37846a8d	1.5785243e-05
85	0x34a2bdcf	3.0312955e-07
86	0x348d2f43	2.6297684e-07
87	0x3183c996	3.8355195e-09
88	0x34f0fef2	4.488898e-07
89	0x3213dff3	8.607446e-09
90	0x3512757a	5.456019e-07
91	0x327c8093	1.4697565e-08
92	0x34adaaa7	3.2347927e-07
93	0x31b47228	5.2516675e-09
94	0x37445bae	1.1703856e-05
95	0x345bf885	2.0486375e-07
96	0x2f3ed6bb	1.7356687e-10
97	0x2e8d910e	6.4377045e-11
98	0x00000000	0.0
99	0x00000000	0.0
100	0x00000000	0.0
101	0x00000000	0.0
102	0x344594f6	1.8401246e-07
103	0x32cc28df	2.3767312e-08
104	0x31ae08cc	5.0650666e-09
105	0x30181230	5.5323124e-10
106	0x371e5df0	9.439405e-06
107	0x342f1831	1.6306946e-07
108	0x33f1d099	1.1260381e-07
109	0x309d4db7	1.1445341e-09
110	0x363ca08d	2.8107636e-06
111	0x334659f4	4.618228e-08
112	0x343a7a3b	1.7367067e-07
113	0x32a0d71f	1.8724277e-08
114	0x3719ba61	9.162905e-06
115	0x341f30f8	1.4825844e-07
116	0x36526c01	3.1355305e-06
117	0x3361d0e5	5.2576883e-08
118	0x349bc04f	2.9010923e-07
119	0x319b3ce5	4.5180166e-09
120	0x35aa5925	1.2691931e-06
121	0x32a69bf6	1.9395866e-08
122	0x33c6f568	9.2647326e-08
123	0x3151f5b8	3.0553178e-09
124	0x356bb6f0	8.781053e-07
125	0x325d6b02	1.2888224e-08
126	0x00000000	0.0
127	0x00000000	0.0

exp_avg f4 [64]
0	0xbb70b91b	-0.0036731425
1	0x00000000	0.0
2	0xbbc914a3	-0.0061364933
3	0x00000000	0.0
4	0x00000004	6e-45
5	0xbb4fe9b8	-0.0031725
6	0x00000000	0.0
7	0x00000057	1.22e-43
8	0x00000004	6e-45
9	0xb89538d8	-7.1154616e-05
10	0x2bc3bc71	1.3907886e-12
11	0x00000004	6e-45
12	0x00000004	6e-45
13	0x00000000	0.0
14	0x00000004	6e-45
15	0x00000004	6e-45
16	0x00000004	6e-45
17	0x379837e9	1.8145847e-05
18	0x00000004	6e-45
19	0x00000004	6e-45
20	0x2f5e826f	2.0237122e-10
21	0x00000004	6e-45
22	0x00000004	6e-45
23	0x00000004	6e-45
24	0x00000000	0.0
25	0x00000004	6e-45
26	0x198b9d8a	1.4435893e-23
27	0x00000004	6e-45
28	0x00000004	6e-45
29	0x00000000	0.0
30	0x00000004	6e-45
31	0x00000004	6e-45
32	0xbbc511f9	-0.0060141054
33	0x00000004	6e-45
34	0x00000000	0.0
35	0xbb44f4af	-0.003005307
36	0x00000004	6e-45
37	0x00000004	6e-45
38	0x32ecb16c	2.7554698e-08
39	0x00000004	6e-45
40	0x00000004	6e-45
41	0x00000004	6e-45
42	0xba186475	-0.0005813309
43	0x00000004	6e-45
44	0x213739d8	6.2079367e-19
45	0x00000004	6e-45
46	0x00000004	6e-45
47	0x00002629	1.3689e-41
48	0x00000004	6e-45
49	0x00000000	0.0
50	0x00000000	0.0
51	0x00000004	6e-45
52	0x00000004	6e-45
53	0x10f81b98	9.786127e-29
54	0x00000004	6e-45
55	0x00000004	6e-45
56	0x00000004	6e-45
57	0x06283e0c	3.1642873e-35
58	0x00000004	6e-45
59	0x00000004	6e-45
60	0x00000004	6e-45
61	0x00000004	6e-45
62	0x00000004	6e-45
63	0x00000000	0.0

exp_avg_sq f4 [64]
0	0x38f68d3e	0.000117565025
1	0x00000000	0.0
2	0x3a769580	0.00094064325
3	0x00000000	0.0
4	0x3838344b	4.391772e-05
5	0x390fd431	0.0001371659
6	0x00000000	0.0
7	0x36923a42	4.357921e-06
8	0x3550dff4	7.7811933e-07
9	0x3697b2cf	4.5209667e-06
10	0x37aee200	2.0847656e-05
11	0x31f579c1	7.1442803e-09
12	0x355d1cb3	8.237068e-07
13	0x00000000	0.0
14	0x31106d81	2.1017004e-09
15	0x2f7b2c58	2.2844071e-10
16	0x34f395e1	4.5371328e-07
17	0x393bd908	0.0001791456
18	0x332c0a40	4.0056193e-08
19	0x2f582f5c	1.9661911e-10
20	0x33c15fb5	9.004672e-08
21	0x341aa6ba	1.4403022e-07
22	0x2c3daa94	2.6953205e-12
23	0x36898e47	4.0994814e-06
24	0x00000000	0.0
25	0x33caef47	9.449882e-08
26	0x37935447	1.756301e-05
27	0x3481a71f	2.414972e-07
28	0x34664359	2.144492e-07
29	0x00000000	0.0
30	0x358ff688	1.072608e-06
31	0x333c8019	4.3888665e-08
32	0x3a52ae87	0.0008036871
33	0x353bb695	6.992862e-07
34	0x00000000	0.0
35	0x39b0e205	0.00033737734
36	0x322ca573	1.00493365e-08
37	0x323a69f2	1.0850714e-08
38	0x351655d0	5.600423e-07
39	0x35a9e415	1.2657862e-06
40	0x3242b15a	1.1332611e-08
41	0x371413b6	8.826077e-06
42	0x382fa687	4.1878342e-05
43	0x34ea8eee	4.3689892e-07
44	0x35b1467a	1.3208039e-06
45	0x3643c42d	2.9171454e-06
46	0x354735db	7.4211647e-07
47	0x38168bb7	3.5892906e-05
48	0x332554f7	3.849433e-08
49	0x00000000	0.0
50	0x00000000	0.0
51	0x37580b5c	1.2877248e-05
52	0x34964351	2.7988656e-07
53	0x3796788e	1.7937531e-05
54	0x348f59a4	2.6701048e-07
55	0x3704b4bf	7.909896e-06
56	0x37215c41	9.617827e-06
57	0x3791855b	1.7347445e-05
58	0x36c2920a	5.7986517e-06
59	0x3589e98a	1.0275264e-06
60	0x365dd55e	3.3055762e-06
61	0x346e07aa	2.2168265e-07
62	0x35f15fee	1.7983818e-06
63	0x00000000	0.0
