data/comparisons/sentiment_gbm_enhanced_test/baseline_model.pth (torch, 358157 bytes, 57 tensors)

state_encoder.encoder.0.weight f4 [64, 2]
0	0x3b0fd90c	0.0021949438
1	0xbd95d2e2	-0.07315613
2	0xbd87fc7a	-0.06639953
3	0x3e0cd98b	0.13754861
4	0xbda7d560	-0.08194995
5	0x3d0877fc	0.03331755
6	0xbc15d708	-0.009145506
7	0xbdc94dc1	-0.098292835
8	0x3b998192	0.0046846354
9	0x3d995ab6	0.07488005
10	0x3c35aa97	0.011088035
11	0xbd3e19ae	-0.04641121
12	0xbc25a872	-0.010110961
13	0x3d8762c3	0.06610634
14	0xbabeb45c	-0.0014549601
15	0x3dd67280	0.10471058
16	0xbc960554	-0.018313088
17	0x3de1788e	0.11009322
18	0xbcb1c7c7	-0.021701707
19	0x3e21f1a8	0.15814841
20	0x3c9624d3	0.018328106
21	0xbdfce80b	-0.12348946
22	0xbc4d2b2f	-0.012522503
23	0x3e0f3f3e	0.13988969
24	0xbbd4961f	-0.0064876224
25	0x3dfecb6e	0.12441145
26	0x3bdc65a2	0.0067259828
27	0x3d03e3d0	0.03219968
28	0x3bbd27e6	0.0057725785
29	0xbd4f8d95	-0.050672133
30	0x3c504d22	0.012713702
31	0xbe95a262	-0.2922545
32	0x3d16f6d4	0.036856487
33	0xbe0bb5ab	-0.1364352
34	0xbc5013c0	-0.012700021
35	0x3c658e2a	0.014010945
36	0x3ccd773f	0.025081275
37	0x3d41c5fd	0.047307957
38	0xbbad5c37	-0.005290534
39	0x3d27df8c	0.040984675
40	0xbd1552a8	-0.03645578
41	0x3dc2ba9d	0.0950825
42	0x3c669440	0.0140734315
43	0xbe5568fe	-0.20840833
44	0xbb08fbdd	-0.0020902075
45	0x3b30a9a0	0.0026956573
46	0x3a14f783	0.0005682634
47	0xbe20e699	-0.15712966
48	0xbb16c6f9	-0.002300678
49	0x3dc2f384	0.09519103
50	0x3cd67ccb	0.026182553
51	0xbe3eb24f	-0.18622707
52	0x3d1cd20d	0.038286258
53	0xbe7758c2	-0.24154952
54	0x3b7501b8	0.0037385058
55	0x3e169b7f	0.14707755
56	0x3c1c12f0	0.009525999
57	0xbd794b01	-0.060862545
58	0xbbacc27f	-0.005272209
59	0x3e0d8c7d	0.13823123
60	0x3baec06e	0.005332998
61	0xbdbf81fa	-0.09350963
62	0xbdaaeb4a	-0.08345659
63	0x3ef6ac17	0.4817817
64	0xbd089443	-0.03334452
65	0x3e5109b5	0.20413859
66	0xbcac32bf	-0.021020291
67	0x3e5ae750	0.21377301
68	0xbb51fe7a	-0.003204255
69	0x3d58be35	0.05291577
70	0x3c802083	0.015640503
71	0x3cc50a61	0.0240528
72	0xbc929f96	-0.017898362
73	0x3e2c11d9	0.16803683
74	0x3b0e7823	0.0021739088
75	0x3dbe9b71	0.09306992
76	0x3be3f76f	0.0069569866
77	0x3d3ad3d8	0.045612186
78	0x3c54f92a	0.0129988585
79	0xbe781af3	-0.2422903
80	0x3b47baa5	0.003047624
81	0xbd003466	-0.03129997
82	0x3bbc3840	0.00574401
83	0xbd486604	-0.048925415
84	0x3c132459	0.008980834
85	0xbd2a57d9	-0.041587684
86	0x3d4ceea9	0.05003229
87	0xbdfbfe39	-0.123043485
88	0x3cc47bb0	0.02398476
89	0xbe8451ee	-0.25843757
90	0x3b1b10b2	0.0023661074
91	0x3b04d00c	0.0020265607
92	0xbcbbfbf6	-0.022947293
93	0x3db7b669	0.08970339
94	0xbc8c3826	-0.017116617
95	0xbe1bd09c	-0.15216297
96	0xbadbb5de	-0.0016762575
97	0xbcccf117	-0.025017304
98	0xb8a72164	-7.9694e-05
99	0x3df0321f	0.1172831
100	0xbc37aeb1	-0.011211083
101	0xbd8e15e3	-0.06937768
102	0x3c95088c	0.018192552
103	0xbda7d4dd	-0.08194897
104	0xbbdfa421	-0.0068249856
105	0xbdc48b96	-0.095969364
106	0x3b56ba37	0.0032764801
107	0x397beda8	0.00024025759
108	0xb977a9fc	-0.0002361908
109	0xbcc67360	-0.024224937
110	0xbb14a93c	-0.002268388
111	0xbd8f452e	-0.06995617
112	0xb9820dfc	-0.0002480595
113	0x3dfdaeec	0.12386879
114	0xbcc9efa0	-0.024650395
115	0x3cdfd4ba	0.027323116
116	0xbd0cef61	-0.034407977
117	0x3e3ee3a3	0.18641524
118	0xbbb4424b	-0.005501067
119	0xbc5420cb	-0.012947272
120	0x3a890984	0.0010455106
121	0x3ded4a54	0.115864426
122	0xbb8bcd2c	-0.0042664018
123	0x3d6b63f0	0.057468355
124	0x3e24b402	0.16084293
125	0xbe9cda7a	-0.30635434
126	0x3df305ec	0.11866364
127	0xbe8607f7	-0.26177952

state_encoder.encoder.0.bias f4 [64]
0	0xbb873199	-0.0041257855
1	0x3cdec4b6	0.027193408
2	0x3d372dc4	0.04472138
3	0xbc1aa110	-0.009437814
4	0xbcda1ca2	-0.026624981
5	0xbaafad99	-0.0013403177
6	0xbc13babe	-0.009016691
7	0xbbd2e9de	-0.0064365705
8	0xbaf81eea	-0.0018930112
9	0xba8daf8a	-0.0010809761
10	0x3c35305f	0.011058896
11	0x3c0728a5	0.0082494365
12	0xbbce8f96	-0.006303738
13	0xbc3f9099	-0.01169219
14	0x3cabd5bd	0.020975942
15	0x3c7380ea	0.0148622785
16	0xbc2decf5	-0.010615577
17	0xbabbe2d1	-0.0014334564
18	0xbc2942fd	-0.010330913
19	0x3c5c0691	0.0134293
20	0x3b67a1d0	0.003534425
21	0x3b621f70	0.0034503601
22	0xbb72299a	-0.0036951066
23	0xbc347f83	-0.011016729
24	0xba4c8b74	-0.00078027626
25	0x3c231aa0	0.009955078
26	0x3ca57f52	0.020202313
27	0x3b26fdf9	0.002548097
28	0x3c221535	0.009892751
29	0xbba39635	-0.0049922713
30	0x3c227810	0.00991632
31	0x3ae60990	0.0017550457
32	0x3b104840	0.002201572
33	0xbc46f76a	-0.012143949
34	0xbbc1bbb7	-0.00591227
35	0xbc1c55e0	-0.009541959
36	0xbc8a3404	-0.016870506
37	0x3c68a901	0.01420045
38	0x3952fb44	0.00020120764
39	0x3bdee46e	0.0068021333
40	0x3b82ae8a	0.003988092
41	0xbbe9567f	-0.007120907
42	0x3bbc97c7	0.005755398
43	0xbcf0f420	-0.029413283
44	0x3b2ef4df	0.0026696248
45	0x3b9bea67	0.0047581675
46	0x3b825b08	0.003978137
47	0x3c15367e	0.00910723
48	0xbbf837ec	-0.007575026
49	0x3b1aca98	0.002361929
50	0x3a50f08c	0.00079704146
51	0x3bfc0224	0.007690685
52	0xbc3d8adc	-0.011568751
53	0xbbd79779	-0.0065793362
54	0xbaf19d50	-0.0018433724
55	0xbad391df	-0.0016141495
56	0x3a97a90a	0.0011570763
57	0x3ca52954	0.020161308
58	0xbc8ebd64	-0.017424293
59	0x3b62058d	0.0034488172
60	0xbba4f1c9	-0.005033706
61	0xbb8d0e3b	-0.004304675
62	0xbd383470	-0.044971883
63	0xbd24a4e9	-0.040196333

state_encoder.encoder.2.weight f4 [64, 64]
0	0x3d3df81e	0.0463792
1	0x3d43761d	0.047720063
2	0xbe751372	-0.23933199
3	0x3d2bcc6a	0.04194299
4	0xbd961135	-0.07327501
5	0xbdf19607	-0.117961936
6	0xbc06092c	-0.008180898
7	0xbd2fe72c	-0.042945072
8	0xbbc5268f	-0.0060165594
9	0x3ce4485e	0.027866539
10	0x3bd6bfa4	0.006553607
11	0xbe38cf95	-0.18047936
12	0xbb55f174	-0.0032645138
13	0xbd5c8312	-0.053835936
14	0x3c48b841	0.012250961
15	0xbd0ac205	-0.033876438
16	0xbde09b4d	-0.10967121
17	0xbd99dcb9	-0.07512803
18	0xbca6afdd	-0.02034753
19	0xbd679df3	-0.056547116
20	0x3c94497b	0.018101444
21	0xbc59e9b7	-0.013300351
22	0xbe1feb4b	-0.15617101
23	0x3cbfd998	0.023419186
24	0xbd26c5fe	-0.040716164
25	0x3e05465d	0.13015123
26	0x3d80c090	0.062867284
27	0xbc895270	-0.016762942
28	0x3c671f7e	0.014106629
29	0xbd5a7049	-0.05332974
30	0xbd68acc7	-0.0568054
31	0x3e203339	0.1564454
32	0x3e419915	0.18906052
33	0xbdea0cae	-0.114282
34	0x3caf5ef5	0.021407584
35	0x3dbc9ab7	0.09209197
36	0x3d822a93	0.06355777
37	0x3d8a6946	0.067583606
38	0xbccd9506	-0.025095474
39	0xbd46e95d	-0.048562396
40	0xbd19c366	-0.037539862
41	0x3d36d5ce	0.044637494
42	0x3d37c6a3	0.04486717
43	0x3d8ec242	0.069706455
44	0x3d1d3280	0.03837824
45	0xbc6ca26e	-0.014443023
46	0x3e03f600	0.1288681
47	0xbc83a9f3	-0.016072249
48	0xbc34bfcf	-0.011032059
49	0x3d4de078	0.0502629
50	0xbd777484	-0.060413852
51	0xbd338e63	-0.043836962
52	0xbcff4b7c	-0.031163923
53	0x3cf6a5d5	0.030108372
54	0x3cc00d12	0.023443732
55	0x3d71bd5e	0.059018485
56	0xbc5383e8	-0.012909867
57	0x3dc9e07f	0.09857272
58	0x3cf5a830	0.029987425
59	0xbd873365	-0.066015996
60	0xbd2f6e11	-0.042829577
61	0x3c2645d0	0.010148481
62	0x3ddb59ea	0.10710509
63	0xbe32601b	-0.17419474
64	0xbd91a875	-0.07112209
65	0x3e008f88	0.12554753
66	0xbe95a1a6	-0.2922489
67	0x3d83cd3d	0.064356305
68	0xbd837be2	-0.06420113
69	0x3d3dff76	0.046386205
70	0xbcc66a73	-0.02422068
71	0x3cddb457	0.027063532
72	0xbbf34c82	-0.007424892
73	0xbd2ff96f	-0.042962488
74	0x3d320f5c	0.04347168
75	0x3cdc695f	0.026905714
76	0xbd421c1d	-0.047390092
77	0x3d659e87	0.056059387
78	0xbd24e40d	-0.04025655
79	0x3d834f6c	0.06411633
80	0xbbdef728	-0.0068043657
81	0xbd7028a5	-0.05863251
82	0xbbb50422	-0.0055241743
83	0x3cc4e8be	0.024036761
84	0xbd8819d9	-0.06645555
85	0x3d16e401	0.036838535
86	0x3c9c98a8	0.01911576
87	0xbd5f3dfb	-0.05450247
88	0xbbecaa8b	-0.0072224787
89	0x3d68f1d1	0.05687124
90	0x3ca78784	0.020450361
91	0xbe0092cd	-0.12556
92	0xbd66d333	-0.05635376
93	0x3cbdf3ff	0.023187635
94	0xbd9e9a8b	-0.077443205
95	0x3e15e736	0.14638981
96	0x3ce2c5a3	0.027682131
97	0xbdcf08d4	-0.10109106
98	0xbdcf4dda	-0.10122271
99	0x3d6f0329	0.058352623
100	0xbb945b81	-0.0045275097
101	0x3d92cea9	0.071683235
102	0x3d7b4b0d	0.06135087
103	0x3d57c5bd	0.052678812
104	0xbc8e1f0d	-0.01734879
105	0x3d635fdb	0.055511337
106	0xbbdf764b	-0.0068195215
107	0xbc96c17b	-0.018402806
108	0x3d2c53f8	0.042072266
109	0x3d8e944b	0.069618784
110	0xbda62c84	-0.081139594
111	0xbca7865d	-0.020449812
112	0xbd28ad95	-0.041181166
113	0xbd88c62a	-0.06678422
114	0xbd5cb5ef	-0.053884443
115	0x3db73898	0.08946341
116	0x3db6176a	0.08891185
117	0x3d82deb1	0.06390131
118	0x3df44183	0.11926558
119	0xbd0974e1	-0.03355873
120	0xbd74aff0	-0.0597381
121	0x3ce71930	0.028210253
122	0xbca66406	-0.020311367
123	0x3e1e2f5d	0.15447755
124	0x3d1118e3	0.035424124
125	0x3c155809	0.0091152275
126	0xbaf0f0cb	-0.0018382309
127	0xbe4a7f9b	-0.1977524
128	0x3d902d1b	0.07039853
129	0x3d957840	0.072983265
130	0xbe0bb5f7	-0.13643633
131	0x3c47fd2d	0.012206358
132	0x3d1b97f7	0.03798672
133	0x3cac38de	0.02102321
134	0x3ca0776f	0.0195882
135	0x3c2cf757	0.010557017
136	0xbd1c32a8	-0.038134247
137	0xbd032c75	-0.03202482
138	0x3cd4bc44	0.025968678
139	0x3e0bf85d	0.13668962
140	0x3b161e77	0.0022906342
141	0xbcdd03fe	-0.026979443
142	0xbd9fec01	-0.07808686
143	0x3cae9809	0.02131273
144	0xbde1841c	-0.11011526
145	0x3d1feaa6	0.039042138
146	0x3e092333	0.13392334
147	0x3d47b944	0.048760667
148	0x3c31c485	0.010850077
149	0x3da63b2d	0.08116756
150	0xbcd78134	-0.026306726
151	0x3c95e84c	0.018299244
152	0x3c92a363	0.017900174
153	0x3de30b37	0.110861234
154	0xbce0fb4d	-0.02746358
155	0xbb16f20b	-0.0023032452
156	0xbc213211	-0.009838597
157	0x3c07be00	0.008285046
158	0xbc510484	-0.012757424
159	0xbdedf614	-0.11619201
160	0x3d48ee1d	0.049055208
161	0x3dec323a	0.115330175
162	0xbc84d7d7	-0.016216202
163	0x3bace12d	0.0052758665
164	0x3d46be89	0.048521552
165	0xbb76a040	-0.0037632138
166	0x3dfd730e	0.123754606
167	0x3d0dd89f	0.034630414
168	0x3df07955	0.11741892
169	0xbd55150d	-0.05202203
170	0xbd18eab6	-0.037333213
171	0xbe66df9e	-0.2254624
172	0x3cff19ca	0.031140227
173	0xbcc73b66	-0.024320316
174	0x3d846111	0.064638264
175	0x3dae4e83	0.08511069
176	0xbe0358ff	-0.12826918
177	0xbd370648	-0.044683725
178	0xbd663af5	-0.05620857
179	0xbdb43a99	-0.08800239
180	0xbe488d52	-0.1958516
181	0x3d0da48e	0.03458076
182	0x3c22764e	0.009915901
183	0xbd54f151	-0.05198795
184	0x3d81df77	0.06341451
185	0x3d320531	0.043461982
186	0xbd4411c8	-0.04786852
187	0x3b908669	0.004410554
188	0x3a7c1ed2	0.00096176297
189	0xbe29582e	-0.16537544
190	0xbdaaa3b1	-0.08332003
191	0x3d64b8cb	0.055840295
192	0xbc92ba8b	-0.017911216
193	0xbe82a417	-0.25515816
194	0xbc10d72a	-0.008840362
195	0x3dee5b80	0.11638546
196	0xbec99355	-0.39370218
197	0x3db5853c	0.08863303
198	0xbdf29e1b	-0.118465625
199	0x3cce80db	0.025207927
200	0x3d90aa3d	0.070637204
201	0x3d182778	0.037147015
202	0x3d51b8af	0.05120152
203	0x3cfe7cfb	0.031065455
204	0xbcd6c0e0	-0.026215017
205	0x3d98984c	0.07450923
206	0x3bb91669	0.0056484235
207	0xba5b0b5d	-0.000835588
208	0xbdc4e4a9	-0.09613926
209	0xbdc53a45	-0.09630255
210	0xbdf4f79e	-0.11961292
211	0xbd8648ad	-0.065568306
212	0x3d818619	0.06324405
213	0xbd1f7a37	-0.038934913
214	0x3db4a1cc	0.08819923
215	0x3c97889e	0.018497761
216	0x3a61ece9	0.0008618371
217	0x3e2f6622	0.17128804
218	0xbc5b2547	-0.013375587
219	0x3e399d0b	0.18126313
220	0xbbbbd98b	-0.0057327203
221	0xbcc55519	-0.02408843
222	0xbc4b8f0f	-0.012424245
223	0xbe4a8892	-0.1977866
224	0x3e1ca56b	0.15297477
225	0xbdd012cd	-0.10159836
226	0x3d974fc0	0.07388258
227	0xbce78588	-0.028261915
228	0x3d826fd9	0.063689895
229	0x3cf71eba	0.030166019
230	0xbd5b462c	-0.053533718
231	0xbd01d7b9	-0.03169987
232	0x3d580c00	0.05274582
233	0xbd57b863	-0.05266608
234	0x3cbbc698	0.022921845
235	0x3dc5872d	0.09644923
236	0xbd228818	-0.03968057
237	0xbd844645	-0.06458715
238	0x3ca8e03c	0.020614736
239	0xbe22e800	-0.15908813
240	0xbd44ef47	-0.048079755
241	0x3e2c25fa	0.16811362
242	0x3ca552f5	0.020181159
243	0x3d5bcb92	0.053660937
244	0xbd63b4fa	-0.055592515
245	0x3d18b994	0.037286356
246	0x3d886031	0.06658972
247	0xbd20e4f3	-0.039280843
248	0xbd02fce9	-0.031979475
249	0x3e513753	0.20431261
250	0x3e2b73a8	0.16743338
251	0xbd179dae	-0.03701561
252	0x3d52de81	0.051481728
253	0xbbc78579	-0.006088909
254	0xbe7fe701	-0.24990465
255	0xbdd03a10	-0.101673245

state_encoder.encoder.2.bias f4 [64]
0	0xbc3b3250	-0.01142557
1	0xbbd1d203	-0.006403209
2	0x3b9c7966	0.004775214
3	0x3c26549f	0.010152011
4	0x3bf71c4e	0.007541216
5	0xbbf9b0b7	-0.007619943
6	0x3c23c6c0	0.009996116
7	0x3c3299b4	0.0109009035
8	0x3c0e52de	0.008686749
9	0x3cc0ae16	0.02352051
10	0x3aab64e0	0.0013076328
11	0xbc2151e3	-0.0098461835
12	0x3c71c6c1	0.014756859
13	0x3b245c42	0.0025079404
14	0x3bd4aeba	0.0064905556
15	0x3bb79a7c	0.005603133
16	0xbae16bfd	-0.0017198321
17	0x3bb5d8be	0.0055495193
18	0x39dd8e18	0.00042258273
19	0xbbdc197b	-0.0067169047
20	0xbba2fdbf	-0.0049740965
21	0xbafc2474	-0.0019236938
22	0x3c1bf9b5	0.009519984
23	0x3b85b5bb	0.004080502
24	0xbc051784	-0.008123282
25	0xb9b31aa0	-0.00034161378
26	0x3abf7890	0.0014608074
27	0xbc5bd244	-0.01341683
28	0xbb228f4a	-0.0024804645
29	0x3c10bd46	0.008834189
30	0xbc0624b6	-0.0081874635
31	0xbc570a9c	-0.013125088
32	0xbbf1e982	-0.0073825726
33	0x3a987d9e	0.0011634117
34	0xbb0f29cf	-0.0021844988
35	0xbc14fb12	-0.009093063
36	0xbc115ab5	-0.008871724
37	0x3b9b6a0d	0.004742867
38	0x3c9393ef	0.018014876
39	0x3bdc700c	0.006727224
40	0xbc76e81c	-0.015069988
41	0xbb7c9afa	-0.0038544522
42	0xbaeb7218	-0.001796308
43	0x3b6d6428	0.0036223028
44	0xb9983561	-0.0002903147
45	0x3c1ca908	0.009561785
46	0x3ad09327	0.0015912995
47	0x39934c5e	0.00028094923
48	0xbc16cb38	-0.009203725
49	0x3b0d05fe	0.0021518464
50	0x3c0f3e68	0.008742906
51	0xbc7be959	-0.015375459
52	0xbc612a92	-0.01374306
53	0x39635348	0.00021679432
54	0x3c6fd43b	0.014638002
55	0x3b9152b6	0.0044349087
56	0xbbaf2cd8	-0.005345922
57	0xbc0fd13a	-0.008777911
58	0xbb034c15	-0.0020034362
59	0x3bebb41c	0.0071931016
60	0x3ca04d45	0.019568095
61	0xbc2d451d	-0.01057556
62	0x3bd83171	0.0065976907
63	0xbbf47728	-0.0074604936

shared_layers.0.weight f4 [64, 64]
0	0xbc3c5a95	-0.011496206
1	0x3de98edd	0.11404202
2	0x3b88e694	0.0041778777
3	0x3db5d124	0.08877781
4	0x3cca0c4f	0.024664072
5	0xbd59f004	-0.053207412
6	0x3b458bdb	0.0030143175
7	0xbd86b98c	-0.06578359
8	0xbd211855	-0.039329845
9	0x3d20829f	0.03918707
10	0x3ce11dc8	0.027480021
11	0x3e1e6b49	0.15470614
12	0xbd7022be	-0.058626883
13	0x3e073525	0.13203867
14	0x3d1cce2c	0.03828256
15	0xbdab62b4	-0.083684355
16	0x3c22c8e0	0.009935588
17	0x3c8712b1	0.016488405
18	0xbd826769	-0.0636738
19	0x3d6ade29	0.057340775
20	0xbc1b5866	-0.009481525
21	0xbd536171	-0.0516066
22	0x3bd585d6	0.0065161986
23	0x3cd5fa4f	0.026120333
24	0xbdb7a144	-0.08966306
25	0xbe22d670	-0.15902114
26	0xbd91b752	-0.07115044
27	0x3d884fdc	0.06655857
28	0x3ce4ee4e	0.027945664
29	0xbd1d27fd	-0.038368214
30	0x3dde14cc	0.108438104
31	0x3dc6fb13	0.09715857
32	0x3de2da02	0.11076738
33	0xbcbf4532	-0.023348425
34	0xbe31374e	-0.17306253
35	0x3d40a42a	0.04703156
36	0xbcb0f56a	-0.021601398
37	0xbd761ca2	-0.0600859
38	0xbdbc9963	-0.09208944
39	0x3cadc71f	0.021213112
40	0x3a8c0ec0	0.0010685548
41	0xbc97328d	-0.018456722
42	0x3d47bd82	0.048764713
43	0xbd326b33	-0.043559264
44	0x3c8ed6ad	0.01743635
45	0x3d1556d4	0.03645976
46	0xbd5a6c7f	-0.053326126
47	0x3d8c3fec	0.0684813
48	0x3da50266	0.08057098
49	0x3e13a4c2	0.14418319
50	0xbd6bd4ca	-0.05757598
51	0x3dfb67fb	0.12275692
52	0xbcbca6f0	-0.02302882
53	0xbd8aa7c7	-0.06770282
54	0xbd9b56aa	-0.07584889
55	0xbda8f3ec	-0.082496494
56	0x3d8f654f	0.07001745
57	0x3d3ae79e	0.045631044
58	0xbd6429cc	-0.055703923
59	0xbb7283bc	-0.003700479
60	0x3c852ee0	0.016257703
61	0xbd6ffc9c	-0.058590516
62	0xbdd09b75	-0.10185901
63	0x3cddc61f	0.02707201
64	0x3daa0104	0.08300975
65	0xbd0eee92	-0.034895487
66	0x3ce46cdb	0.027883938
67	0xbd495e9f	-0.049162503
68	0x3cf76bad	0.030202711
69	0x3bb275bc	0.005446164
70	0x3cf6ea3b	0.030140987
71	0xbb298f35	-0.0025872712
72	0xbbc9b45e	-0.0061555346
73	0x3dfb73f3	0.12277975
74	0xbd2023fb	-0.039096814
75	0xbd1a0d28	-0.037610203
76	0x3e0143ad	0.12623473
77	0xbd8e9e4c	-0.069637865
78	0xbdb88304	-0.09009364
79	0x3ce281c7	0.027649773
80	0xbb85c10d	-0.0040818513
81	0xbc95ddd3	-0.01829425
82	0x3da64789	0.08119113
83	0xbd849d60	-0.064753294
84	0x3d6e79a7	0.058221485
85	0xbd0a9fca	-0.033843793
86	0xbb79661e	-0.0038055251
87	0x3cee3f64	0.029082961
88	0x3ca6df2d	0.02037009
89	0x3d67b5a2	0.056569703
90	0xbc990818	-0.018680617
91	0x3d0c2bcd	0.03422146
92	0xbcd9e0f7	-0.02659653
93	0xbd0cad1e	-0.034344785
94	0xbd2d6960	-0.04233682
95	0x3c55683e	0.013025342
96	0x3d799fb9	0.06094334
97	0xbc04f22d	-0.00811438
98	0xbd874648	-0.06605202
99	0xbc5883cd	-0.0132150175
100	0xbc082b9b	-0.008311178
101	0xbdfc823e	-0.12329529
102	0xbc9944ea	-0.018709619
103	0xbbebd4b3	-0.0071969866
104	0xbd115c72	-0.035488553
105	0xbdff7cbf	-0.12474965
106	0x3d8bc946	0.06825499
107	0x3d2eee98	0.04270801
108	0xbd01a18b	-0.0316482
109	0xbd562f6d	-0.052291322
110	0x3db9c501	0.09070779
111	0xbda858f0	-0.082200885
112	0x3c601afd	0.0136783095
113	0x3d639d13	0.05556972
114	0xbdabed14	-0.083948284
115	0xbcf2f2ba	-0.029656757
116	0xbda97746	-0.08274703
117	0x3b02583c	0.0019889018
118	0x3a2ebef6	0.00066660286
119	0xbcb22b52	-0.021749172
120	0xbe05906e	-0.13043377
121	0xbcab6273	-0.020920968
122	0xbd2aea71	-0.041727487
123	0xbd0a282e	-0.033729725
124	0x3cf8fd71	0.030394288
125	0xbd4df0a8	-0.050278336
126	0xbdd2af46	-0.10287337
127	0x3de5b423	0.11215999
128	0xbe87326d	-0.2640566
129	0x3d442c9b	0.0478941
130	0x3d0afb15	0.033930857
131	0xbe0b8c02	-0.13627627
132	0x3c397acf	0.011320784
133	0xbdceb32f	-0.1009277
134	0x3d262726	0.04056468
135	0xbce5c392	-0.028047357
136	0x3d996817	0.07490557
137	0x3c34571f	0.011007099
138	0xbd8ef932	-0.06981124
139	0x3dd15f4e	0.10223256
140	0x3cb352d0	0.021890074
141	0xbddb0653	-0.106945656
142	0x3cf36c14	0.029714622
143	0xbd8ea5cf	-0.06965219
144	0xbe0a36b1	-0.13497426
145	0xbb9f0a4f	-0.004853524
146	0xbd7e3c38	-0.062069148
147	0xbe041f40	-0.12902546
148	0x3d104b2f	0.03522795
149	0x3deb8c62	0.11501385
150	0xbdfb657c	-0.12275216
151	0x3ae6a9b3	0.0017598182
152	0xbd35e483	-0.04440738
153	0x3e1289fa	0.14310446
154	0xbe7a40d4	-0.24438792
155	0xbdbfcda0	-0.09365392
156	0x3e127e46	0.14305982
157	0x3df47ede	0.119382605
158	0x3bdff1fe	0.0068342676
159	0xbcf4b818	-0.029872939
160	0xbd2fd403	-0.0429268
161	0xbdd49010	-0.1037904
162	0xbd8924ff	-0.066965096
163	0xbdb86009	-0.09002692
164	0x3ddb22ee	0.10700022
165	0xbdeec9c1	-0.11659575
166	0x3e358d16	0.17729601
167	0x3d736a5b	0.0594276
168	0xbd04bc9c	-0.032406434
169	0xbc30ebad	-0.010798377
170	0xbe09c012	-0.13452175
171	0xbda97f01	-0.08276177
172	0x3dbd4dc1	0.09243346
173	0x3e01c020	0.12670946
174	0xbc73252d	-0.014840406
175	0xbd9321fd	-0.07184217
176	0x3dc662a7	0.09686785
177	0xbe017569	-0.12642445
178	0xbd49057d	-0.0490775
179	0x3bb6c00f	0.0055770944
180	0xbdc98f8b	-0.09841832
181	0x3db4a6ce	0.08820878
182	0xbe35a4b0	-0.17738605
183	0xbd086aac	-0.033304855
184	0x3d90eaba	0.070760205
185	0xbde173d3	-0.1100842
186	0xbd31d055	-0.04341157
187	0x3cbc51e7	0.022988273
188	0x3de2fc03	0.11083224
189	0xbe40b5f3	-0.18819408
190	0xbd32c916	-0.0436488
191	0xbe696524	-0.22792488
192	0xbc8f6371	-0.017503472
193	0x3cf3b82a	0.029750902
194	0x3d403fb7	0.046935763
195	0xbc8cbe7d	-0.017180676
196	0x3c4ad8eb	0.012380819
197	0x3cec4d44	0.028845437
198	0xbd8e5843	-0.06950428
199	0xbcf11da8	-0.029433087
200	0x3cdcea35	0.026967147
201	0xbd8eee94	-0.06979099
202	0x3ddfb253	0.109226845
203	0xbd8918c7	-0.06694179
204	0xbd8305ff	-0.06397628
205	0x3b9ea942	0.0048419544
206	0x3d9fe03f	0.078064434
207	0x3d3db9d2	0.04631979
208	0x3d78d354	0.060748413
209	0x3e11eb76	0.14249977
210	0xbd41431a	-0.047183134
211	0x3ceaf220	0.028679907
212	0x3cb51cc3	0.022108441
213	0x3d1362f8	0.035983056
214	0x3d47dc5f	0.048794147
215	0xbdf989b2	-0.121844664
216	0xbdc96f78	-0.09835714
217	0x3bf1576d	0.0073651583
218	0x3be14c78	0.006875571
219	0xbda847df	-0.08216833
220	0x3db622aa	0.088933304
221	0xbe0b6334	-0.13612062
222	0xbc8063db	-0.015672615
223	0xbda50d87	-0.08059221
224	0x3da35b20	0.07976365
225	0xbda00adf	-0.078145735
226	0x3c00e788	0.007867701
227	0xbde1d014	-0.11026016
228	0x3dc1fbf6	0.09471886
229	0xbc4b0e66	-0.01239357
230	0x3e356580	0.177145
231	0x3c7ac292	0.015305178
232	0x3ce6eb53	0.028188383
233	0xbdbfdddf	-0.093684904
234	0x3d06dbfa	0.03292463
235	0x3d148eac	0.036268875
236	0x3d287d80	0.04113531
237	0x3d2574f5	0.040394742
238	0x3dbb4ad5	0.091451325
239	0xbd18e803	-0.03733064
240	0xbcecdc26	-0.028913569
241	0x3d82bc98	0.06383628
242	0x3cb99d22	0.022657935
243	0xbda03385	-0.078223266
244	0x3cbf4237	0.023347003
245	0xbd2798db	-0.04091726
246	0xbcb1fa10	-0.021725684
247	0x3d7bc1ca	0.06146411
248	0xbdcb84ba	-0.09937425
249	0xbc8c10d9	-0.017097877
250	0x3c2a54c2	0.010396184
251	0x3d7f6e0b	0.062360805
252	0x3caf8a34	0.021428205
253	0xbbd9b014	-0.0066433046
254	0xba5b3ae4	-0.00083629624
255	0x3cd289f3	0.025700545

shared_layers.0.bias f4 [64]
0	0xbc813153	-0.01577059
1	0x3996f13e	0.0002878997
2	0xba4ff7cc	-0.0007933348
3	0xbbedb831	-0.0072546233
4	0xbbc492fc	-0.005998967
5	0xbb185ab3	-0.002324742
6	0xbb38ffdc	-0.0028228676
7	0x3bfddc80	0.007747233
8	0xbb2ef947	-0.0026698874
9	0xba2ad90b	-0.0006517327
10	0x3be6e335	0.007046128
11	0xbaccfdc4	-0.0015639593
12	0x3b5ed3c3	0.0034000732
13	0xbb702ac2	-0.003664658
14	0x3c18aba0	0.009318262
15	0xbbd0c3fc	-0.0063710194
16	0xb7e9e410	-2.7881964e-05
17	0x3c4d5617	0.012532732
18	0x3bbf965e	0.0058467826
19	0xbba6df43	-0.005092533
20	0x3c16d422	0.00920585
21	0x3dc34d82	0.09536268
22	0xbad27a66	-0.0016058206
23	0x3b6ca8b3	0.0036111295
24	0xbc14614d	-0.009056401
25	0xbb70e529	-0.0036757684
26	0x3a94ab6b	0.001134259
27	0x39e5ad20	0.00043807272
28	0xbc45c27e	-0.012070296
29	0xbb9c212c	-0.0047646966
30	0x3bd847e0	0.006600365
31	0x3b844af3	0.004037255
32	0x3b9882f2	0.004654282
33	0x3b373358	0.0027954187
34	0x3be39e54	0.0069463644
35	0xbb8cbb72	-0.004294806
36	0x3b45c75a	0.0030178637
37	0xbba3256c	-0.0049788263
38	0x3b4b126a	0.0030986317
39	0x3a3d8d98	0.0007230877
40	0xbb3ee291	-0.0029126743
41	0x3ac4ab28	0.0015004622
42	0x3a08ae7f	0.000521399
43	0x3b40eb85	0.0029437256
44	0x3abe3c26	0.0014513775
45	0x3b378564	0.002800309
46	0x3b48d4f0	0.0030644499
47	0x3b2a178a	0.0025953972
48	0xbc205a6f	-0.009787186
49	0xbbeebb00	-0.0072854757
50	0xbbdf09a4	-0.006806569
51	0xbb14e0eb	-0.002271707
52	0x3c03a493	0.008034843
53	0xbb3fa7ee	-0.002924438
54	0xbbc38dc9	-0.00596783
55	0x3b61b8e6	0.0034442483
56	0x3b518f29	0.00319762
57	0x3b2082a9	0.0024491942
58	0xbbd54d10	-0.0065094307
59	0x3a1b7d61	0.00059314637
60	0x3b054e86	0.0020340993
61	0xbba596dc	-0.005053384
62	0xbac2d2e8	-0.001486388
63	0xbbac7500	-0.005262971

goal_head.weight f4 [2, 64]
0	0x3b84627a	0.0040400596
1	0x3ba6dbf1	0.005092137
2	0xbca0dbf9	-0.019636141
3	0x3c442dc0	0.011973798
4	0xbc0cb7ab	-0.008588712
5	0x3c323f6f	0.010879382
6	0xbc57d295	-0.013172765
7	0xbbe30975	-0.0069286176
8	0xbd3e295c	-0.046426162
9	0xbd75022a	-0.059816517
10	0x3c284c33	0.010272074
11	0xbd4e793f	-0.050408598
12	0x3c82269b	0.01588755
13	0xbbdaa602	-0.0066726217
14	0xbbcf51f2	-0.0063269073
15	0x3b7570c5	0.003745125
16	0xbb8fa676	-0.0043838574
17	0x3c66ac6f	0.014079197
18	0x3c02e31a	0.007988716
19	0xbc62aa92	-0.013834612
20	0xbdb6b853	-0.08921876
21	0xbe496541	-0.19667532
22	0xbafe34bb	-0.0019394377
23	0x3d72fae3	0.059321295
24	0x3b5d9f34	0.0033816816
25	0xbd305012	-0.04304511
26	0x3c402006	0.011726385
27	0xbb1bc509	-0.0023768565
28	0xbbd5b867	-0.0065222266
29	0x3b94f5b1	0.0045458903
30	0xbb7b5a18	-0.003835326
31	0x3c81b3a3	0.015832728
32	0xbbdb8848	-0.0066995956
33	0xbd18fe63	-0.037351977
34	0xbc00bd19	-0.007857584
35	0xbd1f2c4a	-0.038860597
36	0xbccafdfc	-0.024779312
37	0x3da1c18a	0.07898243
38	0x3a5021b6	0.00079395936
39	0x3bd2ed28	0.0064369626
40	0xbc74831e	-0.014923839
41	0xbc151560	-0.0090993345
42	0xbb59f173	-0.0033255487
43	0xbd9a31b2	-0.0752901
44	0x3b3125f1	0.0027030671
45	0xbc0c388d	-0.008558405
46	0x3a13db4c	0.0005640283
47	0x3c74d68b	0.014943729
48	0x3baae3d1	0.005215146
49	0xbc712762	-0.014718862
50	0x3a9ec376	0.0012112695
51	0x3b8dc693	0.0043266504
52	0x3c1a0b1d	0.009402064
53	0xbcfab679	-0.030604588
54	0x3c3621d7	0.0111164665
55	0x3c21d253	0.009876805
56	0x3b902942	0.0043994496
57	0x3c000fd7	0.0078162765
58	0xbcd27019	-0.025688218
59	0xbc3a0579	-0.011353844
60	0x3bd50a94	0.006501505
61	0xbc11f8ed	-0.008909446
62	0x3c239180	0.00998342
63	0x3b3b8335	0.002861214
64	0xbac88006	-0.0015296943
65	0xbb9f510c	-0.0048619565
66	0x3cacfea9	0.021117525
67	0xbc0eeca5	-0.008723413
68	0x3c3eefda	0.011653865
69	0xbbfe8f68	-0.00776856
70	0x3c3ff656	0.011716446
71	0x3bd31708	0.0064419545
72	0x3d3bacc5	0.045819063
73	0x3d7bd24c	0.06147985
74	0xbc26680f	-0.010156645
75	0x3d515a67	0.051111605
76	0xbc7b5f58	-0.015342556
77	0x3bc77cac	0.00608786
78	0x3bc1a1dd	0.005909188
79	0xbb4573cf	-0.0030128842
80	0x3b86544f	0.004099406
81	0xbc64e631	-0.0139708975
82	0xbb76045b	-0.0037539217
83	0x3c7e3597	0.0155157065
84	0x3db7f8f1	0.08983029
85	0x3e4c33d5	0.19941647
86	0x3ad1a5c6	0.0015994839
87	0xbd75b0af	-0.05998295
88	0xbb8d45b2	-0.004311287
89	0x3d35771a	0.044303037
90	0xbc1d233e	-0.009590922
91	0x3b560870	0.0032658838
92	0x3bd0097f	0.0063487883
93	0xbba4e3ff	-0.005032062
94	0x3b91a3ed	0.0044445903
95	0xbc89c673	-0.01681826
96	0x3b8ac048	0.0042343475
97	0x3d176fe3	0.036971938
98	0x3beccf5e	0.0072268685
99	0x3d231c8a	0.03982214
100	0x3ca512bd	0.020150537
101	0xbda02341	-0.07819224
102	0x39a54c1b	0.00031527955
103	0xbc02674b	-0.007959197
104	0x3c8a66be	0.016894694
105	0x3c204e9c	0.009784367
106	0x3b6675be	0.0035165395
107	0x3d9f00c0	0.07763815
108	0xbb45a910	-0.0030160584
109	0x3c37df88	0.011222728
110	0xba2f1461	-0.0006678757
111	0xbc6b2cae	-0.014353914
112	0xbb8a958f	-0.0042292546
113	0x3c898ff8	0.016792282
114	0xbb81417b	-0.0039445735
115	0xbb9b3a18	-0.00473715
116	0xbbbad019	-0.0057010767
117	0x3cf062b0	0.029343933
118	0xbc32a5db	-0.010903801
119	0xbc0ea7ee	-0.00870703
120	0xbb8795d8	-0.004137736
121	0xbc0c2d52	-0.008555727
122	0x3ca7bf02	0.020476822
123	0x3c36ddc7	0.011161274
124	0xbb9a2459	-0.00470404
125	0x3be462a4	0.0069697667
126	0xbc1583f9	-0.009125703
127	0xbb33c112	-0.0027428311

goal_head.bias f4 [2]
0	0xbf06613c	-0.5249212
1	0x3f06613d	0.52492124

portfolio_head.weight f4 [15, 64]
0	0xbca57e9b	-0.020201972
1	0xbd04b7ec	-0.032401964
2	0x3c07ec0f	0.008296027
3	0xbd098d49	-0.033582006
4	0xbcdca71a	-0.026935149
5	0xbd0512ac	-0.03248851
6	0xbca10669	-0.019656377
7	0x3c18573c	0.009298142
8	0xbbe382ca	-0.0069430815
9	0x3c9e2970	0.019306868
10	0x3cc3bc91	0.023893626
11	0xbc8025a2	-0.015642945
12	0xbb2127be	-0.0024590339
13	0x3a8399e7	0.0010040373
14	0x3c8bc862	0.017063323
15	0xbc485236	-0.012226632
16	0xbb67123c	-0.0035258671
17	0xbc919212	-0.017769847
18	0xbd1246b1	-0.035711948
19	0x3bcf96c2	0.0063351104
20	0xbcb11849	-0.021618025
21	0xbc72508c	-0.014789712
22	0x3c7091e6	0.014683222
23	0xba164393	-0.0005732115
24	0xbce6d3c5	-0.028177151
25	0xbce5671f	-0.028003274
26	0x3b699e4e	0.0035647335
27	0xbca90487	-0.020632042
28	0xbd0b09d9	-0.03394494
29	0xbbddd3c9	-0.0067696315
30	0xbc05ac58	-0.008158766
31	0x3c3b51ab	0.011433045
32	0xbbd06cf8	-0.0063606463
33	0x3c6fde83	0.014640453
34	0x3d1ac95b	0.037789684
35	0x3cfab29c	0.030602746
36	0x3b27afc7	0.002558695
37	0x3c269d9f	0.010169416
38	0xb8db725c	-0.00010464035
39	0xbc0eaf6c	-0.008708816
40	0x3b93fef0	0.004516475
41	0xbcf0d1d6	-0.029396933
42	0x3c83c91f	0.016087113
43	0xbc9118fa	-0.017712105
44	0x3c64e664	0.013970945
45	0xbc00212b	-0.007820408
46	0x3d1c48e5	0.038155455
47	0xbc3b1142	-0.011417689
48	0xbab75199	-0.001398611
49	0xbd23cd7a	-0.03999088
50	0xbc7cd615	-0.0154319005
51	0x3ab40b16	0.0013736214
52	0x3d0ec04e	0.034851365
53	0xbb9b34ff	-0.0047365422
54	0xbcc65f59	-0.024215387
55	0xbcaffac1	-0.021481873
56	0x3c23077c	0.009950515
57	0xb969d2b0	-0.00022299099
58	0xbcb13067	-0.021629525
59	0x3c6dcef3	0.014514673
60	0x3cdd0887	0.026981605
61	0x3aa9a76a	0.001294357
62	0x3bb67182	0.0055677304
63	0xbcd1c3aa	-0.025605995
64	0x3b92d772	0.0044812495
65	0xbc639b51	-0.013892011
66	0xba5fe9e8	-0.00085416296
67	0xbd787b6f	-0.06066459
68	0xbc6b2880	-0.014352918
69	0x3c20ffc6	0.009826606
70	0xbd529420	-0.051410794
71	0x3c2f2eb6	0.010692289
72	0xbc96ef23	-0.018424576
73	0xbcbc5679	-0.022990452
74	0x3ce82b4c	0.028340958
75	0xbc5294eb	-0.012852888
76	0x3c3dabc7	0.011576599
77	0xbb8798ae	-0.004138074
78	0x3c3322be	0.010933576
79	0xbc097fa9	-0.008392253
80	0xbc71aa9a	-0.014750147
81	0x3cd20674	0.025637843
82	0xbccc8d9c	-0.024969868
83	0x3cff149e	0.03113776
84	0x3cc88ffb	0.024482718
85	0x3d0fba52	0.0350898
86	0x3c8bdea6	0.01707394
87	0xbd0e6991	-0.034768645
88	0xbbbda804	-0.0057878513
89	0x3c1f3b51	0.009718732
90	0xbcf6fd77	-0.030150158
91	0x3b22ac4e	0.002482194
92	0xbd3179b0	-0.04332894
93	0xbbd936b6	-0.0066288365
94	0x3cf229f4	0.02956102
95	0xbd0766c2	-0.03305698
96	0x3b5bb6b7	0.0033525655
97	0x3c7a486a	0.015276054
98	0x3c381d3d	0.01123744
99	0xbc27fa5b	-0.0102525605
100	0x3c264c8f	0.010150089
101	0xbb9ccd58	-0.004785221
102	0xbc866daa	-0.016409714
103	0xbbe1d48e	-0.0068917936
104	0x3cd8d77e	0.026469942
105	0x3d09d722	0.033652432
106	0x3cffc8cd	0.031223679
107	0x3bcc3766	0.00623219
108	0x3c1cc2e2	0.009567948
109	0x3caac953	0.020847952
110	0x3cccd539	0.025004016
111	0x3ca983b9	0.020692693
112	0x3b7097bd	0.0036711537
113	0xbc1f5a65	-0.009726142
114	0xbd18de3f	-0.037321325
115	0xbc1ebdbb	-0.00968879
116	0x3c50b4e0	0.012738436
117	0x3bed948c	0.007250374
118	0xbcfcb8af	-0.030849783
119	0x3c790e43	0.015201154
120	0xbcc2fc32	-0.023801897
121	0x3d076341	0.03305364
122	0xbb472a72	-0.003039029
123	0xbcb09448	-0.021555081
124	0xbd843d73	-0.06457033
125	0x3cf58df0	0.029974908
126	0x3bd415d8	0.0064723305
127	0x3b9b5d01	0.0047413115
128	0xbae4bbd8	-0.0017451001
129	0x3c4a3ffc	0.012344357
130	0xbc0e6cb3	-0.008692908
131	0xbb7dd720	-0.003873296
132	0x3d07225e	0.03299176
133	0x3b095609	0.0020955822
134	0xbc7e448c	-0.015519273
135	0xbc2cf4ce	-0.010556413
136	0xbc980ca1	-0.01856071
137	0x3c0b28a3	0.008493575
138	0xbbd91815	-0.0066251853
139	0x3c3bb5f3	0.011456954
140	0xbc62624c	-0.013817381
141	0x3b8b378f	0.0042485665
142	0x3974d9f8	0.00023350853
143	0x3c418fae	0.011814041
144	0x3bc14cd0	0.0058990493
145	0x3d35fcf7	0.0444307
146	0x3cec60de	0.028854784
147	0x3c406c42	0.011744561
148	0x3c0d5673	0.008626568
149	0x3d0ba38f	0.03409153
150	0xbb8aada0	-0.0042321235
151	0x3c938435	0.018007377
152	0xbc96a08b	-0.0183871
153	0x3cd2172b	0.025645813
154	0x3a892f0c	0.0010466292
155	0xbb2b25af	-0.002611499
156	0xbc835046	-0.016029488
157	0xb98e4f3d	-0.00027143388
158	0x3bebe31f	0.007198706
159	0xbc8565ac	-0.016283832
160	0xbb575a7d	-0.0032860332
161	0x3c17a124	0.0092547275
162	0x3c76fa42	0.015074315
163	0xbcacf64e	-0.021113541
164	0x3c8bbd06	0.017057907
165	0xbbc996b1	-0.006151997
166	0xbce3e713	-0.027820146
167	0xb87c5ec0	-6.0169725e-05
168	0xbc07e31b	-0.008293892
169	0xbba48990	-0.0050212815
170	0xbc4eca3c	-0.012621459
171	0x3d3dff1b	0.046385866
172	0xbcafe1da	-0.02147
173	0x3c0cb367	0.008587695
174	0x3c2ad43b	0.010426576
175	0xbc55c5c6	-0.013047641
176	0xbc1234db	-0.008923735
177	0xbc2d4da0	-0.010577589
178	0x3b314633	0.0027049899
179	0x3c98aa68	0.018635944
180	0x3bf6af86	0.0075282482
181	0x3c8db388	0.017297521
182	0xbcf9fd40	-0.030516267
183	0x3d084c6e	0.033276014
184	0x3ac16a0f	0.0014756339
185	0x3d1290de	0.035782687
186	0xbcfaa41d	-0.030595833
187	0x3c907b74	0.017636992
188	0xbc83d001	-0.016090395
189	0xbc14e585	-0.009087925
190	0x3a70008a	0.0009155354
191	0x3bf169d3	0.0073673516
192	0x3c8c3495	0.017114917
193	0xbbc05b61	-0.005870268
194	0x3bf786f0	0.0075539276
195	0x3cb1b539	0.021692859
196	0xbb1610e7	-0.0022898258
197	0xbc731449	-0.014836379
198	0x3d05872a	0.032599606
199	0x3c16c1b4	0.009201456
200	0x3cb00c07	0.02149011
201	0xbbaea779	-0.005330023
202	0x3c91c10d	0.01779225
203	0xbbd632d7	-0.0065368223
204	0x3b835a0c	0.004008537
205	0xbc83b6b7	-0.016078336
206	0x3bcc3a86	0.0062325625
207	0xbc2fb9ea	-0.010725478
208	0x3d0557e2	0.032554515
209	0x3c99ce58	0.01877515
210	0x3b21f9cb	0.0024715539
211	0xbc7b4933	-0.015337276
212	0x3cf5d996	0.03001098
213	0x3c62c92d	0.013841909
214	0xbd1a1e57	-0.03762659
215	0x3cd00738	0.025394067
216	0xbbd4a71a	-0.0064896466
217	0x3d5db4e1	0.054127578
218	0x3cd19615	0.02558426
219	0x3b8a5be4	0.00422238
220	0x3cf1ebdd	0.029531414
221	0xbbc30328	-0.005951304
222	0x3c069c6b	0.008216004
223	0x3d071bc0	0.03298545
224	0xbc0ce190	-0.0085987
225	0x3cec4c88	0.028845087
226	0x3d000c02	0.03126145
227	0x390e0b08	0.00013546285
228	0x3d2a3954	0.04155858
229	0xbc00cbe9	-0.007861116
230	0xbc981fed	-0.01856991
231	0xbcc7f4fe	-0.024408814
232	0x3d18a635	0.037267882
233	0x3bb19242	0.0054190466
234	0xbc2b11ba	-0.010441238
235	0x3c5aea19	0.013361477
236	0xbd4bba36	-0.04973813
237	0xbc5d8904	-0.013521437
238	0xbd227df0	-0.039670885
239	0xbd0a4459	-0.033756588
240	0xbc8734dd	-0.0165047
241	0xb983d0de	-0.00025141885
242	0x3b9e4da2	0.004831032
243	0x3cc0aba5	0.023519346
244	0xbd294a73	-0.041330766
245	0x3c6b85cd	0.014375162
246	0x3baaf1cf	0.005216814
247	0xbc77a8c0	-0.015115917
248	0x3c0201e5	0.007935022
249	0xbd730d3c	-0.059338793
250	0xbc54d637	-0.012990526
251	0x3c1beba5	0.009516631
252	0x39d47312	0.00040521525
253	0x3c5b6310	0.013390318
254	0xbc0c541c	-0.008564975
255	0x3b2efdd6	0.002670159

portfolio_head.bias f4 [15]
0	0x3b13bc62	0.0022542705
1	0xbb6a3249	-0.0035735539
2	0xb98fc878	-0.00027424446
3	0x3ca1cd69	0.019751268
4	0xbad38651	-0.0016138052
5	0x3b0ff97b	0.002196877
6	0x3b8a87fc	0.0042276364
7	0x3b933638	0.0044925474
8	0x3be5d57b	0.0070139742
9	0x3baeb190	0.0053312257
10	0xbb2c1552	-0.0026257825
11	0xbb8e2afd	-0.0043386207
12	0xbb071a72	-0.0020615128
13	0x3c0e7a2e	0.008696122
14	0xbbe1fd41	-0.0068966453

state_encoder.encoder.0.weight f4 [64, 2]
0	0xbeced1e7	-0.40394518
1	0xbe29b027	-0.16571103
2	0xbf29ea07	-0.6637272
3	0x3dc46b75	0.09590808
4	0xbf0e8bec	-0.55682254
5	0xbd90d344	-0.07071546
6	0x3e596c59	0.21232738
7	0x3e3cc059	0.1843275
8	0xbdce80b3	-0.10083141
9	0xbd938be1	-0.07204414
10	0xbe9ab1bc	-0.30213726
11	0xbdedbf4c	-0.116087526
12	0x3e7cfb1c	0.24705166
13	0xbd3ab300	-0.045580864
14	0x3e4a9854	0.19784671
15	0xbe36c85b	-0.17849867
16	0xbe4bb6f2	-0.19894007
17	0x3d887676	0.0666322
18	0x3e669558	0.22517908
19	0xbd7aecef	-0.061261114
20	0xbed094d6	-0.40738553
21	0xbd25cd4f	-0.040479
22	0xbea17c7e	-0.31540293
23	0x3e847c06	0.25875872
24	0xbd2dbecf	-0.042418297
25	0xbe2b10a5	-0.16705568
26	0xbea37a1a	-0.31929094
27	0x3e452c7d	0.19255252
28	0xbebf7c63	-0.37399587
29	0xbd9ee98c	-0.07759389
30	0x3d45b98b	0.04827265
31	0xbe044598	-0.12917173
32	0x3dbff06d	0.093720295
33	0xbbfa33b9	-0.0076355604
34	0xbefbfb4b	-0.4921516
35	0x3c5dcf1f	0.013538151
36	0x3ea02b6d	0.3128313
37	0x3e0e90af	0.1392238
38	0xbd7e5f81	-0.0621028
39	0xbdd286c3	-0.1027961
40	0xbe9b2693	-0.30302867
41	0x3e8bad65	0.27280727
42	0x3f0a9a5a	0.5414177
43	0x3dae1dbc	0.08501765
44	0xbe04bb14	-0.1296199
45	0xbc084aa9	-0.008318582
46	0xbb9aec70	-0.0047278926
47	0xbdbcb4c3	-0.09214165
48	0xbf1e055e	-0.6172694
49	0x3e426603	0.18984227
50	0x3e78e9cb	0.24307935
51	0xbd68df0b	-0.056853335
52	0xbee8f0d7	-0.45496246
53	0xbc638486	-0.0138865765
54	0x3f25373a	0.64537394
55	0x3e3a73bd	0.18208213
56	0x3eb46b20	0.3523798
57	0x3dedd7a0	0.11613393
58	0xbecf1cef	-0.40451762
59	0xbe9001a8	-0.28126264
60	0xbf11bea6	-0.5693153
61	0xbe2a6cb3	-0.16643028
62	0x3f002fff	0.50073236
63	0x3df0bb71	0.117545016
64	0x3da80be0	0.0820539
65	0x3e5dc468	0.21656954
66	0xbf1cd4d4	-0.6126225
67	0xbd55f7f2	-0.052238412
68	0xbefc973f	-0.49334142
69	0xbbd22868	-0.006413508
70	0x3eb2ec67	0.34945986
71	0xbea9531b	-0.33071217
72	0x3f266e04	0.6501162
73	0x3dd25d14	0.102716595
74	0x3cc4551d	0.023966366
75	0x3de0c89e	0.10975765
76	0x3db12c1d	0.08650992
77	0xbe459fe6	-0.19299278
78	0xbf21de57	-0.6322989
79	0xbd8e860e	-0.06959163
80	0x3f0d2223	0.55130213
81	0xbdc2845c	-0.09497902
82	0xbee27b72	-0.44234806
83	0x3e79b82f	0.24386667
84	0x3ee0b498	0.43887782
85	0xbd8e7c09	-0.069572516
86	0x3e14ace3	0.14519076
87	0xbe4fc1f4	-0.20288831
88	0x3e8827d9	0.265929
89	0xbe51fd29	-0.20506729
90	0x3ea8f378	0.32998252
91	0x3ddbd1eb	0.10733398
92	0xbd0f545b	-0.034992557
93	0x3df86883	0.12129309
94	0x3ec7d4ef	0.39029643
95	0xbd839a43	-0.064259075
96	0xbe865c0b	-0.26242098
97	0x3ec78929	0.38971832
98	0xbef6e5a1	-0.48222068
99	0xbde6666d	-0.11250005
100	0xbf23e66f	-0.6402349
101	0x3e3c77ba	0.18405047
102	0xbf007658	-0.5018058
103	0xbe7ac0d2	-0.24487618
104	0x3e27eb3f	0.16398333
105	0x3ec25119	0.37952498
106	0x3dcaa38a	0.09894474
107	0xbe7ab975	-0.24484809
108	0xbe3e8a33	-0.18607406
109	0x3e7a63e0	0.24452162
110	0x3e922670	0.2854495
111	0x3e153743	0.14571862
112	0x3f2b89f8	0.670074
113	0x3c6dac78	0.014506452
114	0x3efc494f	0.4927468
115	0xbdd40fba	-0.10354562
116	0xbee12cac	-0.43979394
117	0xbe68f087	-0.22748004
118	0xbce61dc9	-0.028090375
119	0xbe0905a1	-0.13381054
120	0xbe4c57cf	-0.19955371
121	0x3dda49d1	0.106586106
122	0x3eb64ca4	0.35605347
123	0xbd2398c0	-0.039940596
124	0x3ebc1556	0.36735028
125	0xbe971551	-0.2950845
126	0xbeb8b159	-0.36072806
127	0xbe5ed7de	-0.21762034

state_encoder.encoder.0.bias f4 [64]
0	0x3ea6b689	0.32561138
1	0x3e09afbc	0.13445944
2	0x3e35326c	0.17695016
3	0xbe0e9f5e	-0.13927981
4	0x3da5a81f	0.08088707
5	0x3d53f70b	0.05174927
6	0xbe81ecd6	-0.25376004
7	0xbd40f35b	-0.04710708
8	0x3e051d0c	0.12999362
9	0xbe82f1cf	-0.2557511
10	0x3e3449cd	0.17606278
11	0x3ea6e8a9	0.3259938
12	0xbad29560	-0.0016066246
13	0x3e5f3365	0.21796949
14	0x3de725f9	0.112865396
15	0xbbe72b57	-0.007054727
16	0xbd94a621	-0.07258249
17	0x3e6da973	0.23209171
18	0xbcf1f0ba	-0.029533733
19	0xbd0f05dc	-0.034917697
20	0x3eadf71d	0.33977595
21	0xbe708fa5	-0.23492296
22	0x3dba708f	0.091035
23	0xbcead442	-0.028665666
24	0x3e140085	0.14453323
25	0xbe74be45	-0.23900707
26	0x3ea1e1a0	0.3161745
27	0xbe01a5f4	-0.12660962
28	0xbe9f32b3	-0.31093368
29	0x3da0a1e0	0.07843375
30	0x3e4411b7	0.19147383
31	0xbe0dd25a	-0.13849774
32	0xbda1e6d5	-0.07905356
33	0x3e2395cc	0.15975112
34	0x3e5be782	0.21475032
35	0xbe965cdc	-0.2936772
36	0xbe55a0d2	-0.2086213
37	0x3bb4d080	0.005518019
38	0x3b7bbb04	0.003841103
39	0x3e217895	0.15768655
40	0xbe15e26d	-0.14637156
41	0x3e962abb	0.29329476
42	0xbe172b60	-0.1476264
43	0xbd9cee8e	-0.07662688
44	0xbe09aa21	-0.13443805
45	0xbd7b0076	-0.061279736
46	0x3d96f0f8	0.0737018
47	0xbddf3e89	-0.109005995
48	0x3ebbe4dc	0.36698043
49	0x3e5c6412	0.21522549
50	0x3e120c5b	0.14262526
51	0x3dd18ee0	0.10232329
52	0xbe1ca5d3	-0.15297632
53	0x396ad2b8	0.00022394478
54	0x3e4a198c	0.19736308
55	0xbedbf5bc	-0.42960918
56	0xbe2db9ab	-0.16965358
57	0xbdbb1286	-0.091343924
58	0x3eb7763a	0.35832387
59	0x3cabfa89	0.020993488
60	0x3ea0b23a	0.31385976
61	0xbe9b7905	-0.30365768
62	0xbe80abfa	-0.25131208
63	0x3e258e60	0.16167593

state_encoder.encoder.2.weight f4 [64, 64]
0	0x3f2c6c3e	0.67352664
1	0x3e44b93d	0.19211288
2	0x3dee0003	0.11621096
3	0x3b6f321e	0.0036498378
4	0xbdab695a	-0.083697036
5	0x3cd98847	0.02655424
6	0xbe3d6504	-0.18495566
7	0xbbafd62c	-0.0053661074
8	0x3d969564	0.07352713
9	0xbe6ee546	-0.23329648
10	0xbd0177fa	-0.03160856
11	0x3e01fc1b	0.12693827
12	0xbe9c69c9	-0.30549458
13	0x3e864094	0.26221144
14	0x3db67c7e	0.08910464
15	0xbe3a727e	-0.18207738
16	0xbded43d1	-0.115852006
17	0x3e24a885	0.1607991
18	0xbbd88757	-0.0066079306
19	0x3e109c43	0.14122109
20	0x3ec7c50d	0.39017525
21	0xbf0a8496	-0.5410856
22	0xbe613d01	-0.21995927
23	0xbe6ffdba	-0.23436633
24	0x3e883d7a	0.26609403
25	0x3d2c77f6	0.04210659
26	0x3f0a843d	0.5410803
27	0xbe873322	-0.264062
28	0xbeb3a6f7	-0.35088322
29	0x3edb8828	0.42877316
30	0xbd3535cb	-0.044240754
31	0xbe23d2df	-0.1599841
32	0xbc8c99af	-0.017163126
33	0x3e0a4af5	0.13505156
34	0x3e930ab8	0.28719115
35	0xbf1c683e	-0.6109656
36	0xbee4f3f4	-0.4471737
37	0xbe006fba	-0.1254262
38	0x3eba7af9	0.36421946
39	0xbdeb6356	-0.11493556
40	0xbe8537f7	-0.2601926
41	0x3eb1e711	0.34746602
42	0xbec828a2	-0.390935
43	0x3daab4ba	0.08335252
44	0x3d2d8fb7	0.042373385
45	0x3ea239a6	0.31684607
46	0x3e8af736	0.27141732
47	0x3dfdbdb0	0.12389696
48	0x3e8ad85e	0.271182
49	0x3e5c2e20	0.2150197
50	0xbd6bae22	-0.057539113
51	0x3e8427e1	0.25811675
52	0xbe8dbc57	-0.27682754
53	0xbe3b3dc2	-0.18285277
54	0xbe0b009d	-0.13574453
55	0xbe844f43	-0.25841722
56	0xbdebcdcb	-0.11513861
57	0xbe351808	-0.17684948
58	0x3f027439	0.5095859
59	0x3ecc2dc2	0.3987866
60	0x3e3f632d	0.18690176
61	0xbe99821c	-0.29982078
62	0xbf26e0cb	-0.65186757
63	0x3e42eada	0.19034901
64	0xbf44e017	-0.76904434
65	0xbe2625a9	-0.16225304
66	0xbe5eb55f	-0.21748875
67	0xbe08348a	-0.13301292
68	0xbd6a299e	-0.057168595
69	0xbe481a22	-0.19541219
70	0xbe5b2cf8	-0.21403873
71	0xbd5ed0bc	-0.054398283
72	0x3d444e4a	0.047926225
73	0x3ef2aa0d	0.47395363
74	0x3bef7ff2	0.0073089534
75	0xbcad0a2c	-0.021123014
76	0xbdd76d96	-0.10518949
77	0xbe9133a9	-0.28359726
78	0xbe6e8855	-0.23294194
79	0xbd65754b	-0.056020062
80	0xbe332ae9	-0.17496838
81	0xbdf0868e	-0.11744414
82	0xbe06e2b4	-0.13172418
83	0x3ea02dc8	0.31284928
84	0xbd9d8660	-0.076916456
85	0x3efe15a5	0.49625888
86	0xbe4bf52c	-0.19917744
87	0xbd54a97c	-0.051919445
88	0xbe14df5b	-0.14538328
89	0x3e970a16	0.29499882
90	0xbec0e9e9	-0.3767846
91	0x3d6b9779	0.057517502
92	0x3eb173d7	0.3465869
93	0x3b999b75	0.0046877214
94	0xbe396f9d	-0.18108983
95	0x3e5172d0	0.20453954
96	0x3d13b74e	0.036063485
97	0xbe8fbbb8	-0.28072906
98	0xbe333f57	-0.17504631
99	0x3f0146bd	0.50498563
100	0x3f3229bf	0.6959495
101	0x3e659db7	0.22423445
102	0xb89977c1	-7.3179144e-05
103	0x3db973c7	0.09055286
104	0xbd6c14e1	-0.0576371
105	0xbecd0d80	-0.40049362
106	0x3dd94816	0.106094524
107	0xbc593d8e	-0.013259305
108	0xbe3b5a3e	-0.18296143
109	0x3e03178a	0.12801948
110	0xbcccb9af	-0.024990885
111	0xbe054cb5	-0.13017543
112	0x3d0f8009	0.035034213
113	0xbe85b3ce	-0.26113743
114	0x3c2d6bcf	0.010584786
115	0xbdfa3b52	-0.12218346
116	0x3e5711c8	0.21002877
117	0x3db38f03	0.08767512
118	0x3cb35ba1	0.021894278
119	0x3e231cab	0.15928905
120	0x3ec1180c	0.3771366
121	0x3e196ef0	0.14983726
122	0xbf9aba75	-1.2088152
123	0x3e4e14de	0.20125148
124	0x3d9c1971	0.0762204
125	0x3eea76b5	0.4579369
126	0x3e562c65	0.20915373
127	0x3de78460	0.113045454
128	0x3f5a22b8	0.85209227
129	0x3ebd1286	0.36928195
130	0x3ec92f65	0.39293972
131	0xbd9c7f2b	-0.07641443
132	0xbd93fc97	-0.07225912
133	0x3d18e646	0.03732898
134	0xbe559a7d	-0.20859714
135	0xbdeadd06	-0.11467938
136	0x3e673626	0.2257925
137	0xbdac7cc6	-0.08422236
138	0x3f095bd7	0.5365576
139	0xbd0bbf89	-0.03411821
140	0xbd031e60	-0.03201139
141	0x3ecd140b	0.40054354
142	0x3e551e43	0.20812325
143	0x3e534821	0.20632984
144	0xbdbb60d0	-0.09149325
145	0x3e89cc88	0.26913857
146	0x3e003fcf	0.12524341
147	0x3e1c719c	0.15277714
148	0x3ebb6bf1	0.3660579
149	0xbdf6d44a	-0.1205221
150	0x3dcc8f41	0.09988261
151	0xbdd5d427	-0.104408555
152	0x3e3bb38a	0.18330207
153	0xbe7a80e2	-0.24463227
154	0x3e81593e	0.252634
155	0x3ec78c55	0.38974252
156	0xbed5daf0	-0.417686
157	0x3e0496d4	0.12948161
158	0x3eafe5f9	0.34355143
159	0xbe64a0b9	-0.22326936
160	0xbdf7562f	-0.12076985
161	0x3e42172f	0.18954156
162	0x3ea983d0	0.33108377
163	0xbe3e8fb4	-0.18609506
164	0xbe56fb64	-0.20994335
165	0x3e807510	0.25089312
166	0x3e5e4441	0.21705724
167	0x3eb9cf32	0.3629089
168	0xbe04863a	-0.12941828
169	0x3f0d9451	0.5530444
170	0xbee289e1	-0.44245818
171	0xbe3f7c4e	-0.18699762
172	0x3de8a83c	0.11360213
173	0x3e12f730	0.14352107
174	0x3da0c4ab	0.078500114
175	0x3e02fd59	0.12791957
176	0x3e49f435	0.19722064
177	0x3efc5d87	0.49290106
178	0x3e37e2a1	0.17957546
179	0x3eb13836	0.34613198
180	0x3de40233	0.11133232
181	0x3dd3d320	0.10343003
182	0x3e69a364	0.22816235
183	0xbebf81db	-0.3740376
184	0xbeaa1c95	-0.3322493
185	0x3e50aeb4	0.20379144
186	0x3f47861f	0.7793903
187	0x3e85e772	0.2615314
188	0x3e14352a	0.14473405
189	0xbe965f84	-0.29369748
190	0xbe48869b	-0.19582598
191	0x3e4a3fe8	0.19750941
192	0x3e692639	0.22768487
193	0xbd2011b8	-0.039079398
194	0x3da32b85	0.07967285
195	0xbcc9e2a6	-0.024644207
196	0x3d56d95d	0.052453388
197	0xbe6d3931	-0.23166348
198	0xbf00d10f	-0.50319
199	0x3e89118b	0.26771197
200	0x3f07daf4	0.5306847
201	0xbf0eb50c	-0.55745006
202	0xbda7f62b	-0.0820125
203	0x3f534c3f	0.8253822
204	0x3ce037f6	0.027370434
205	0x3e1b5dc7	0.15172492
206	0xbd06cec4	-0.03291203
207	0x3eaacce4	0.33359444
208	0x3d22d6aa	0.0397555
209	0xbd2d4959	-0.042306278
210	0x3f29f6ca	0.66392195
211	0x3c84c4a9	0.016207056
212	0x3f23848f	0.63874143
213	0xbe7cfce3	-0.24705844
214	0x3ea200a2	0.31641108
215	0x3c971fa3	0.018447703
216	0xbd14ded8	-0.036345333
217	0xbef798b2	-0.48358685
218	0x3f00ac52	0.5026294
219	0x3ebba7da	0.36651498
220	0xbf24169a	-0.6409699
221	0xbde3aa67	-0.11116486
222	0xbecd26e4	-0.40068734
223	0x3e70e753	0.23525743
224	0x3d2fe8eb	0.042946737
225	0xbdebe120	-0.115175486
226	0x3baf1989	0.00534362
227	0xbeef2fea	-0.46716243
228	0x3d9ef6af	0.07761895
229	0xbed4a79c	-0.41534126
230	0x3dc90f0b	0.09817322
231	0x3e722345	0.23646267
232	0xbda3998f	-0.07988273
233	0x3e85d40d	0.26138344
234	0x3d747966	0.059686087
235	0xbed0aa5d	-0.40754977
236	0xbec08e20	-0.37608433
237	0x3ee33274	0.4437443
238	0x3e8b955a	0.27262384
239	0xbdcd541e	-0.1002581
240	0x3f0dbd4f	0.55366987
241	0x3d053e3e	0.032530062
242	0xbdaf1968	-0.08549768
243	0xbdf4389c	-0.1192486
244	0xbe5355c8	-0.20638192
245	0x3d802e8f	0.0625888
246	0x3ed37fec	0.41308534
247	0xbf3b34f9	-0.73127705
248	0x3e180b92	0.14848164
249	0x3eeb9a65	0.4601623
250	0x3f0a8f9e	0.5412539
251	0x3e8daa99	0.27669218
252	0x3ec85983	0.39130792
253	0xbed3f35d	-0.4139661
254	0xbf0aa6cf	-0.5416078
255	0xbf2743e7	-0.65337986

state_encoder.encoder.2.bias f4 [64]
0	0x3e1119d4	0.14170009
1	0xbdd3bb9a	-0.103385165
2	0x3e8d6ad9	0.2762058
3	0x3e949cb3	0.29025802
4	0x3e8f9376	0.2804219
5	0x3ea3f0f3	0.32019767
6	0xbd57190c	-0.05251412
7	0xbe53ce05	-0.20684059
8	0xbe3ff003	-0.18743901
9	0x3d66a997	0.056314077
10	0x3d29b1fc	0.041429505
11	0xbe77ba8f	-0.2419226
12	0xbe95985b	-0.292178
13	0x3ded71c1	0.115939625
14	0x3eb59b7d	0.3547019
15	0xbe7447d5	-0.23855527
16	0xbea55b93	-0.32296428
17	0x3ef6a66c	0.48173845
18	0x3dc71506	0.09720807
19	0xbda09844	-0.07841542
20	0x3ea0175f	0.3126783
21	0xbea1063e	-0.31450075
22	0xbe841b1f	-0.25801942
23	0x3ea9001d	0.330079
24	0x3c715d30	0.01473169
25	0x3e406c88	0.18791401
26	0xbe1a7ad2	-0.15085915
27	0xbd0650b5	-0.032791812
28	0xba387780	-0.000703685
29	0xbe960723	-0.2930232
30	0x3da101e3	0.07861688
31	0xbd66dc94	-0.056362703
32	0xbea4594a	-0.32099372
33	0xbe86bc17	-0.26315376
34	0xbdb4522e	-0.08804737
35	0x3e5fe9fc	0.21866602
36	0x3e1dbf60	0.15405035
37	0xbe90fb15	-0.2831656
38	0x3ea4d295	0.3219191
39	0xbe93780f	-0.28802535
40	0x3ddc82fa	0.10767169
41	0xbe99afa2	-0.3001681
42	0x3e8a2622	0.26982218
43	0xbd6c94cd	-0.057759095
44	0xbe852a15	-0.2600867
45	0xbe8d3094	-0.27576125
46	0x3eb48e0c	0.35264623
47	0x3e781d76	0.24229988
48	0x3e928ab2	0.2862144
49	0x3e75ec26	0.24015865
50	0xbe71feb8	-0.23632324
51	0x3edd8a93	0.43269786
52	0xbe29907a	-0.1655902
53	0x3e9f9323	0.31166944
54	0xbe5a69e5	-0.21329458
55	0xbe8dce6d	-0.27696553
56	0xbe649cc2	-0.22325423
57	0xbdfdf5a6	-0.12400369
58	0xbe0d4a4c	-0.13797873
59	0xbe96eea7	-0.29478952
60	0x3e31e4ab	0.17372386
61	0x3ea8e595	0.32987657
62	0x3f0bb5cb	0.5457427
63	0x3b98470a	0.0046471404
