data/comparisons/sentiment_gbm_enhanced_test/sentiment_model.pth (torch, 493775 bytes, 81 tensors)

state_encoder.time_encoder.0.weight f4 [16, 1]
0	0xbd7d92e6	-0.06190767
1	0x3d7e53f5	0.062091786
2	0xba5c3cde	-0.0008401404
3	0xb9eb4e14	-0.00044880866
4	0xbbfb1839	-0.0076627997
5	0xbdac9e6c	-0.08428654
6	0xbcdf2228	-0.027237967
7	0xbcb11df1	-0.021620722
8	0xbb41ba68	-0.002956057
9	0xbd8d9678	-0.06913465
10	0x3e64e03c	0.22351164
11	0x3d402352	0.046908684
12	0xbce478a5	-0.027889559
13	0xbc450676	-0.012025466
14	0x3d20f8c6	0.03929975
15	0x3dc25a93	0.09489932

state_encoder.time_encoder.0.bias f4 [16]
0	0x3d0c68f8	0.034279794
1	0xbce977e6	-0.028499555
2	0x3b1cac66	0.0023906468
3	0xbc0a808b	-0.008453499
4	0xbb9f67a1	-0.0048646485
5	0x3d32e576	0.043675862
6	0x3c32fcca	0.010924527
7	0x3bbdd4f8	0.00579321
8	0x3b817e48	0.0039518215
9	0x3d2460e3	0.04013146
10	0xbdf41e72	-0.119198695
11	0xbc8dfa44	-0.01733125
12	0x3c54e113	0.012993115
13	0x3b244777	0.002506701
14	0xbc81a780	-0.01582694
15	0xbd2b9d46	-0.041898035

state_encoder.wealth_encoder.0.weight f4 [32, 1]
0	0x3ca0cc86	0.019628774
1	0x3e143444	0.14473063
2	0xbd8f71f3	-0.07004156
3	0xbe066a8f	-0.13126586
4	0x3df32d0a	0.11873825
5	0xbe636699	-0.22207107
6	0xbcc78c2f	-0.024358837
7	0x3d309284	0.04310848
8	0x3d833ee8	0.06408483
9	0xbd39879b	-0.04529534
10	0xbda01450	-0.07816374
11	0xbe22ab96	-0.15885767
12	0x3cb13c4c	0.021635197
13	0xbddbcc01	-0.1073227
14	0x3d8cc76c	0.06873974
15	0xbe5a7807	-0.2133485
16	0xbd4c9abf	-0.049952265
17	0xbb3c648d	-0.0028746456
18	0xbad7a52f	-0.0016452427
19	0x3d844095	0.064576305
20	0xbd112e08	-0.03544429
21	0x3dea5cc3	0.11443474
22	0xbd6d33d9	-0.057910774
23	0x3ef740c3	0.48291597
24	0x3d079a05	0.03310587
25	0x3db4812b	0.08813699
26	0xbd2b2d2b	-0.041791122
27	0xbdfe51c4	-0.12417939
28	0xbe1b6450	-0.15174985
29	0x3db34716	0.08753793
30	0x3ceb5ff5	0.02873228
31	0x3cf7a9c0	0.03023231

state_encoder.wealth_encoder.0.bias f4 [32]
0	0x3ba06977	0.004895385
1	0xbc45b7e6	-0.012067771
2	0x3b23fc9d	0.0025022395
3	0x3c2a0f66	0.010379648
4	0x3aa63345	0.0012680074
5	0x3c48211d	0.012214926
6	0xbbadcad5	-0.0053037205
7	0xbb8987e7	-0.004197109
8	0xbb1814e6	-0.0023205816
9	0x3c06d5c8	0.00822968
10	0x3c1b591b	0.009481694
11	0x3c54d798	0.012990855
12	0x3b385d5c	0.0028131818
13	0x3894e61a	7.10005e-05
14	0xbbab4585	-0.0052267932
15	0x3c1a7c09	0.009428986
16	0x3c0c1393	0.008549589
17	0xba375fc4	-0.0006995166
18	0x3b125052	0.0022325707
19	0xbb22086f	-0.0024724265
20	0x3a4044d9	0.0007334478
21	0xbbf57030	-0.0074901804
22	0x3a7df20f	0.00096872536
23	0xbcd780ba	-0.026306499
24	0xbb26e64f	-0.0025466864
25	0x3ba74445	0.005104574
26	0xbb14a930	-0.0022683851
27	0x3c6180e0	0.013763636
28	0x3b93ddcf	0.0045125256
29	0xbc14dc85	-0.009085779
30	0xbc2f336a	-0.01069341
31	0xbb700d9d	-0.0036629208

state_encoder.sentiment_encoder.0.weight f4 [16, 2]
0	0xbdce2c27	-0.10067015
1	0xbd3c2174	-0.04593034
2	0xbe791c15	-0.24327119
3	0xbe2b2e0a	-0.16716781
4	0xbdd80241	-0.10547305
5	0xbd558d6c	-0.052136824
6	0x3de3a52a	0.11115487
7	0x3db1ea76	0.08687298
8	0xbd4fb1be	-0.050706618
9	0xbc92c37f	-0.017915485
10	0xbed42516	-0.41434544
11	0xbec79a5c	-0.38984954
12	0x3f187adc	0.5956247
13	0x3ee02d2b	0.4378446
14	0x3e3e692a	0.18594804
15	0x3ddc1322	0.10745837
16	0x3cedaeb6	0.029013973
17	0x3c8d3f1c	0.017242007
18	0x3ecd7b94	0.40133345
19	0x3ec88369	0.39162758
20	0x3ede4c22	0.4341746
21	0x3ea3c8dd	0.31989184
22	0xbca6f774	-0.020381667
23	0xbc0ea83b	-0.008707101
24	0xbec28929	-0.3799527
25	0xbe9a3633	-0.30119476
26	0xbf1cec1f	-0.6129779
27	0xbf016b21	-0.5055409
28	0xbd328921	-0.043587808
29	0xbca6de15	-0.020369569
30	0x3d192634	0.03738995
31	0x3d5099f7	0.050928082

state_encoder.sentiment_encoder.0.bias f4 [16]
0	0xbae87ee2	-0.0017738009
1	0xbc65be1f	-0.014022379
2	0xbbbc74f8	-0.0057512484
3	0x3ba81a82	0.005130113
4	0x3b3763fd	0.0027983182
5	0xbd11d43b	-0.03560279
6	0x3d1f8979	0.038949464
7	0x3c705018	0.014667533
8	0x3b30ce54	0.002697845
9	0x3d082351	0.033236805
10	0x3cc541e8	0.024079278
11	0xbafeb588	-0.0019432763
12	0xbcbcce6b	-0.023047647
13	0xbd263060	-0.040573478
14	0xbb85b436	-0.0040803207
15	0x3b793e70	0.00380316

state_encoder.fusion.0.weight f4 [64, 64]
0	0x3d32cb6c	0.04365103
1	0x3de36122	0.11102511
2	0xbdab251c	-0.083566874
3	0x3bd62506	0.0065351753
4	0xbdce46b0	-0.10072076
5	0x3e8e02e2	0.27736574
6	0x3de915c6	0.11381106
7	0xbd37d69a	-0.044882394
8	0xbd4d0268	-0.050051123
9	0x3db9fa2f	0.09080922
10	0xbd1990eb	-0.03749172
11	0x3dc09083	0.094025634
12	0x3d1d9e94	0.03848131
13	0xbd4e6b9f	-0.050395604
14	0x3e2960ce	0.16540834
15	0x3dacbcab	0.08434423
16	0xbdab60b7	-0.08368056
17	0xbe16791d	-0.14694639
18	0x3cb62d49	0.02223839
19	0xbe0d30e3	-0.1378818
20	0x3cd29000	0.02570343
21	0xbcbd919f	-0.023140727
22	0xbcd935d3	-0.026514923
23	0xbe09f1e8	-0.13471186
24	0x3dac948e	0.08426772
25	0x3a50f53e	0.0007971114
26	0xbd321b13	-0.04348285
27	0xbdbbf914	-0.09178367
28	0x3da1d831	0.07902563
29	0x3d834e71	0.06411446
30	0x3c140f0f	0.009036793
31	0xbde116b4	-0.109906584
32	0x3d83084f	0.06398069
33	0x3d1a70f6	0.037705384
34	0xbbb125d9	-0.005406123
35	0xbc7a8d40	-0.015292466
36	0xbe26445e	-0.16237018
37	0x3c8cb118	0.017174289
38	0xbd6152f1	-0.05501074
39	0x3d4d9763	0.0501932
40	0xbd053b31	-0.032527152
41	0xbcc42865	-0.023945043
42	0xbd9433c4	-0.07236436
43	0xbd4dabd1	-0.050212685
44	0xbdd6cb2a	-0.10487969
45	0xbd53c039	-0.05169699
46	0xbceb6023	-0.028732365
47	0x3e16bf0a	0.14721313
48	0x3ca43719	0.020045804
49	0xbe33a6de	-0.17544124
50	0x3df85868	0.12126237
51	0x3e387524	0.18013436
52	0x3d257b01	0.04040051
53	0xbe5fb5cd	-0.21846695
54	0x3eb1d294	0.3473097
55	0x3c8c8d42	0.0171572
56	0xbc97f489	-0.01854922
57	0x3e468555	0.193868
58	0x3e3cccf8	0.18437564
59	0x3e05044d	0.12989922
60	0xbe97f9d0	-0.2968278
61	0xbeb39c37	-0.3508012
62	0x3d9144ed	0.07093225
63	0x3d9ab9a3	0.07554939
64	0x3d7f90bc	0.06239389
65	0x3e8bc8d7	0.27301666
66	0x3d883a2c	0.066517204
67	0xbbf00b2c	-0.0073255505
68	0xbc65fcac	-0.014037292
69	0xbcb5d962	-0.022198383
70	0xbe1ca221	-0.15296222
71	0xbe1bdfa2	-0.15222028
72	0xbd453a3e	-0.048151247
73	0x3e0ae7e0	0.13565016
74	0x3d29ddab	0.041471165
75	0xbd89a143	-0.06720211
76	0x3bbcdac6	0.0057633845
77	0x3e087153	0.1332448
78	0x3cbc6572	0.022997592
79	0xbe9c4cd5	-0.30527368
80	0xbcafcaaa	-0.021458942
81	0x3dc422bc	0.095769376
82	0xbdc6d873	-0.09709253
83	0x3c63eb95	0.013911148
84	0xbd8968c9	-0.06709439
85	0xbdeb4bd8	-0.114890754
86	0xbd876d53	-0.06612649
87	0x3e04c897	0.12967144
88	0xbd489efc	-0.048979744
89	0xbbaef227	-0.0053389254
90	0x3d485ee2	0.048918612
91	0xbd17072f	-0.036872085
92	0xbde3cf9a	-0.11123581
93	0x3d831c79	0.06401915
94	0x3db3cff1	0.08779896
95	0xbd1003ac	-0.03515975
96	0xbc818539	-0.015810596
97	0xbda3e862	-0.08003308
98	0x3d364491	0.044498984
99	0xbcbea10f	-0.023270158
100	0x3d0a8982	0.033822544
101	0x3cc478dd	0.023983413
102	0x3dc57b19	0.0964262
103	0x3baed71a	0.0053357007
104	0x3c253abc	0.010084804
105	0x3dbe4221	0.09289957
106	0x3d9b30af	0.07577645
107	0x3d178e50	0.037000954
108	0xbd8fcee4	-0.07021883
109	0xbd1fd34d	-0.03901987
110	0x3d82f616	0.063945934
111	0xbd0faf5b	-0.03507934
112	0x3d9bd0da	0.07608195
113	0xbdb21dc9	-0.08697087
114	0x3d7bbf93	0.061461996
115	0xbdf15d21	-0.11785341
116	0x3c045bce	0.008078529
117	0x3d75a7e0	0.05997455
118	0xbe3619bc	-0.17783254
119	0x3dd008dc	0.1015794
120	0xba5c383c	-0.00084007136
121	0x3d82a846	0.06379752
122	0x3df79922	0.12089755
123	0xbe1a0b32	-0.15043333
124	0xbdfe39bc	-0.12413356
125	0x3e197d78	0.14989269
126	0xbd1847ad	-0.03717773
127	0x3cf0c7b1	0.029392095
128	0xbe8ca0a6	-0.27466315
129	0xbd77d4a0	-0.06050551
130	0xbdb876da	-0.09007044
131	0x3d84a0e7	0.06476002
132	0x3d313c27	0.043270256
133	0xbd61e807	-0.05515292
134	0x3d3df673	0.04637761
135	0xbd608909	-0.054818187
136	0x3c269189	0.010166534
137	0xbd729373	-0.05922265
138	0xbdc4104c	-0.09573421
139	0x3dca42ee	0.09876047
140	0x3cea511b	0.028603127
141	0xba43198c	-0.00074424664
142	0x3d98e4c3	0.07465508
143	0xbbfdffb3	-0.007751429
144	0xbd3a3d2f	-0.045468505
145	0xbd2b3acf	-0.04180413
146	0x3dd3154e	0.10306798
147	0xbce1b4c8	-0.027552024
148	0x391a3aa8	0.00014708436
149	0x3c065726	0.008199489
150	0x3d3edffa	0.04660032
151	0xbcc71d56	-0.02430598
152	0xbb81183d	-0.003939657
153	0x3d51ad22	0.051190503
154	0xbda0f76f	-0.07859694
155	0x3b15fa24	0.002288469
156	0xbdd4ffbc	-0.1040034
157	0x3d893122	0.066988245
158	0xbd8c6e81	-0.068570144
159	0xbdc77a19	-0.09740085
160	0x3ba07748	0.004897032
161	0x3d87501b	0.06607076
162	0x3d8974ac	0.067117065
163	0x3e28d918	0.16489065
164	0x3da39cd5	0.07988898
165	0xbdc5a6c9	-0.09650952
166	0x3cd7779e	0.026302155
167	0x3e1a4058	0.15063608
168	0x3ce09fd6	0.027419966
169	0xbdcf1fbe	-0.10113476
170	0x3dc3cb48	0.09560257
171	0x3da137c6	0.07871966
172	0xbd8f0f81	-0.06985379
173	0x3d5b3cf5	0.05352493
174	0xbd997fba	-0.07495065
175	0x3e0915a5	0.13387163
176	0x3a1b5ff1	0.0005927077
177	0xbb43c418	-0.002987152
178	0xbc8731d6	-0.016503256
179	0x3d0cd4db	0.034382682
180	0xbca49140	-0.020088792
181	0x3da79b5e	0.08183931
182	0xbe8514d9	-0.25992468
183	0x3d26e30c	0.040743873
184	0x3e2f0851	0.17093016
185	0x3dba8cf5	0.09108917
186	0x3df5562b	0.11979326
187	0x3d56eccd	0.052471925
188	0x3e6b943d	0.23005767
189	0xbe148cf9	-0.14506902
190	0x3d439ca6	0.047756813
191	0xbc8518ad	-0.016247118
192	0x3e8ea112	0.27857262
193	0xbd3c690f	-0.04599863
194	0xbcc6a8f1	-0.02425048
195	0xbca89086	-0.020576727
196	0xbde4808d	-0.111573316
197	0x3ec49dd5	0.38401666
198	0xbde4b836	-0.11167948
199	0xbd83450c	-0.06409654
200	0x3cd1f039	0.025627242
201	0x3dccda53	0.100025795
202	0x3e78ca00	0.24295807
203	0x3cbdeabe	0.023183223
204	0xbda40894	-0.08009449
205	0x3d708a01	0.05872536
206	0x3d83628d	0.064152814
207	0x3ccb5ed2	0.024825487
208	0x3d92e591	0.071726926
209	0xbe1dff37	-0.15429388
210	0xbd4b9b32	-0.049708553
211	0xbe109eba	-0.1412305
212	0xbc98a883	-0.01863504
213	0xbd76d740	-0.060263872
214	0x3d15eef7	0.036604848
215	0x3dbe9c39	0.09307141
216	0x3c9bdc46	0.019025933
217	0xbd8df1a5	-0.06930856
218	0xbcf84ded	-0.030310595
219	0xbdeae29b	-0.11469003
220	0x3e62d69c	0.2215218
221	0x3cfa5822	0.030559603
222	0x3c417185	0.01180685
223	0x3e3c6b67	0.18400346
224	0x3dcf6f16	0.1012861
225	0x3d95bdc8	0.073115885
226	0xbd8d9190	-0.069125295
227	0xbd8f6e11	-0.070034154
228	0xbd36a7f5	-0.04459377
229	0x3d3e6b5e	0.046489112
230	0xbb5110a7	-0.0031900795
231	0xbc3a52a9	-0.011372247
232	0xbd808410	-0.06275189
233	0xbe002b4f	-0.12516521
234	0xbdb4a4e9	-0.088205166
235	0xbd8daaaa	-0.06917317
236	0xbd193c22	-0.037410863
237	0x3e070f83	0.13189511
238	0x3e099a32	0.13437727
239	0x3dccd6b4	0.10001889
240	0xbca3b2c5	-0.019982705
241	0xbdc0bbee	-0.09410845
242	0xbc4e6453	-0.012597161
243	0x3c842af2	0.01613376
244	0x3c7c2424	0.015389476
245	0x3df38023	0.118896745
246	0xbecf6f38	-0.4051454
247	0xbd81f29b	-0.063451014
248	0xbbf7541b	-0.007547868
249	0x3da0df8b	0.078551374
250	0x3c68a43a	0.014199311
251	0x3d6760d7	0.056488838
252	0x3e294d2d	0.16533346
253	0x3ea9006d	0.33008137
254	0xbcac2ecf	-0.021018414
255	0xbd63db04	-0.05562879

state_encoder.fusion.0.bias f4 [64]
0	0x3c7a956f	0.015294417
1	0x38c2e19c	9.292664e-05
2	0x3b5ee823	0.0034012876
3	0xbc6c0619	-0.014405751
4	0xbc1b5897	-0.009481571
5	0x3c146eb8	0.0090596005
6	0xbc0371f7	-0.008022777
7	0x3c323b25	0.010878359
8	0x3c17adc7	0.00925774
9	0xbb16d8c2	-0.0023017381
10	0xbc566b5d	-0.013087121
11	0x3c47cfe2	0.012195559
12	0x3b58ef9b	0.00331018
13	0x3b584b27	0.0033003779
14	0xbb90bece	-0.004417277
15	0x3b88b678	0.0041721426
16	0x3b848b80	0.00404495
17	0xbb34392e	-0.0027499902
18	0x3ba09ab5	0.004901255
19	0xbb94088c	-0.0045176204
20	0x3c29a777	0.010354868
21	0x3c34efa3	0.011043462
22	0xbbe36844	-0.0069399197
23	0xbba3bcf6	-0.004996891
24	0x3bfe71b4	0.0077650193
25	0xbc037921	-0.008024485
26	0x3b5b7b1f	0.0033490134
27	0xbb72c28a	-0.0037042224
28	0xbb843113	-0.0040341704
29	0xbba5eb67	-0.0050634625
30	0x3b71c0f9	0.0036888702
31	0x3bdb9d97	0.006702136
32	0x3b44feeb	0.003005917
33	0xbb264cad	-0.0025375292
34	0x3b84003c	0.0040283483
35	0xbaa03c96	-0.0012225087
36	0x3a61f30d	0.0008619286
37	0x3c06bc63	0.008223626
38	0xbc35d745	-0.011098688
39	0x3b3407bd	0.0027470433
40	0xbb92beec	-0.004478326
41	0x3a270e74	0.0006372698
42	0x3c127a00	0.00894022
43	0x3bfd3e4e	0.0077283746
44	0xbbf9475e	-0.0076073846
45	0x38c3e8a0	9.3416544e-05
46	0xbb5585ab	-0.0032580893
47	0x3aaecca8	0.0013336139
48	0x3c01566f	0.0078941425
49	0x3b5533a6	0.0032532006
50	0x3a367ec4	0.00069616386
51	0x3bd617d6	0.006533603
52	0x3c146dde	0.0090593975
53	0x3c3d1bae	0.011542244
54	0xbb782daa	-0.0037869015
55	0x399f6440	0.00030401535
56	0xbb00f0b4	-0.001967472
57	0x3bac8977	0.0052654105
58	0xba79eace	-0.0009533585
59	0xbb9452bc	-0.0045264643
60	0x3b33a47f	0.002741128
61	0xbbbc0392	-0.0057377303
62	0xbbbe0cfd	-0.005799888
63	0xbc01b55b	-0.007916774

shared_layers.0.weight f4 [64, 64]
0	0xbd89926f	-0.06717383
1	0xbd6b957f	-0.057515617
2	0xbd890347	-0.06690078
3	0xbe41291f	-0.18863343
4	0xbc64166c	-0.013921361
5	0xbdb9ffa2	-0.09081961
6	0xba788ffc	-0.00094819046
7	0x3d8bfb95	0.06835095
8	0x3cc92893	0.02455548
9	0xbd770bcd	-0.06031399
10	0xbde40729	-0.11134178
11	0x3e7e43f0	0.24830604
12	0x3de90e97	0.11379736
13	0xbd9aa0cd	-0.075502016
14	0x3dad6df7	0.0846824
15	0xbe9f487c	-0.3110999
16	0xbd1721e4	-0.036897555
17	0xbce56ad6	-0.028005045
18	0x3d91ffb9	0.07128853
19	0x3e8a34c2	0.26993376
20	0xbc2223f4	-0.009896267
21	0x3dcc3def	0.099727504
22	0x3df906c8	0.121594965
23	0xbdeffe2b	-0.117184006
24	0x3dec17f2	0.11528005
25	0x3daf18b5	0.08549634
26	0x3c9d062f	0.019167988
27	0xbd915b1b	-0.07097455
28	0x3e4390fc	0.19098276
29	0xbd07db82	-0.033168323
30	0x3e166eff	0.14690779
31	0xbd396631	-0.045263473
32	0xbdd22469	-0.10260851
33	0xbcd3dad3	-0.02586118
34	0xbc13bd99	-0.009017372
35	0x3d503ab3	0.05083723
36	0x3d9480be	0.07251118
37	0x3d0aa1c1	0.033845667
38	0xbe25e45b	-0.16200392
39	0x3def1e54	0.116757065
40	0x3da66c05	0.08126072
41	0x3cafbfba	0.021453727
42	0xbd7d6961	-0.061868075
43	0xbe276b56	-0.16349539
44	0x3d9eddfd	0.07757185
45	0xbdfca7a7	-0.12336665
46	0x3e542792	0.2071822
47	0xbde71d98	-0.112849414
48	0x3e3203ef	0.17384313
49	0x3dbec12d	0.09314189
50	0x3e1f3296	0.15546641
51	0xbe334a02	-0.175087
52	0x3db3d75a	0.087813094
53	0x3d88a930	0.06672895
54	0xbce27a3f	-0.027646182
55	0x3cef8bcf	0.02924147
56	0xbe18658a	-0.14882484
57	0xbce958ab	-0.028484663
58	0xbdfb8292	-0.12280764
59	0xbcd48dc0	-0.025946498
60	0x3e07fd61	0.1328025
61	0x3e67fcd0	0.22655034
62	0xbe28facc	-0.16501921
63	0x3e00c140	0.12573719
64	0xbdee2fcb	-0.116302095
65	0x3df1537c	0.117835015
66	0xbe284630	-0.16433024
67	0x3c8baca3	0.017050093
68	0x3ddf8a7f	0.10915088
69	0x3b953034	0.0045528654
70	0xbd381cec	-0.044949457
71	0x3d5560a6	0.052094124
72	0xbe364cf3	-0.17802791
73	0x3e13d67c	0.14437288
74	0xbda14996	-0.078753635
75	0xbdc4f451	-0.09616912
76	0x3e6f4965	0.23367842
77	0xbd803d5e	-0.06261705
78	0x3bd9746a	0.006636192
79	0x3dba1f3b	0.09087988
80	0xbc76b677	-0.015058151
81	0xbd6ec3e6	-0.058292292
82	0x3da98f7b	0.0827932
83	0xbd9e4076	-0.07727139
84	0x3d4cb14c	0.04997377
85	0x3d55d5da	0.052205898
86	0x3dd29b95	0.10283581
87	0x3d562140	0.052277803
88	0xbded9ace	-0.11601792
89	0x3d3def87	0.04637101
90	0xbcb8dee1	-0.022567214
91	0xbda954fd	-0.08268163
92	0x3d994f75	0.07485858
93	0xbd46fe05	-0.048582096
94	0x3cb233d0	0.021753222
95	0x3d410a0a	0.047128715
96	0xbcd9d16a	-0.026589114
97	0xbe34daf9	-0.17661656
98	0x3dca1430	0.09867132
99	0xbddf9cf7	-0.109186105
100	0xbccbb38d	-0.02486589
101	0x3d8f48a6	0.069962785
102	0x3e3a3150	0.18182874
103	0xbd4ec7d9	-0.05048356
104	0xbc834e14	-0.016028441
105	0xbdc7a49b	-0.09748193
106	0xbd97915a	-0.074007705
107	0xbdd91f84	-0.10601714
108	0x3d649c1e	0.055812947
109	0x3d8a4fc4	0.06753495
110	0xbde41512	-0.11136831
111	0x3df51c9f	0.1196835
112	0x3c6bc858	0.014391027
113	0xbd9b874e	-0.07594167
114	0xbe2d8abf	-0.16947459
115	0xbdb5be4c	-0.08874187
116	0x3dd1e7f4	0.1024932
117	0xbd86ef3d	-0.065886
118	0xbd9ab390	-0.0755378
119	0xbdc142c3	-0.09436562
120	0x3e03a2f4	0.1285513
121	0xbd0756e5	-0.033041853
122	0xbe73e748	-0.23818696
123	0x3d357db5	0.044309337
124	0xbe1220dd	-0.14270349
125	0x3d31821e	0.04333698
126	0xbcfe675a	-0.031055141
127	0x3ca2e1f3	0.019883132
128	0x3c0c6ebe	0.008571325
129	0x3e282e45	0.164239
130	0xbd2e8f84	-0.042617336
131	0xbd9d82cd	-0.07690964
132	0x3e81bdc9	0.25340107
133	0x3e029ca1	0.12755062
134	0xbd50faad	-0.051020313
135	0x3d8c079a	0.068373874
136	0xbd825a71	-0.063649066
137	0x3d4c51df	0.049882766
138	0xbd8fb82b	-0.07017549
139	0x3dc2f183	0.09518721
140	0xba607e5e	-0.0008563752
141	0x3e1369ee	0.14395878
142	0xbe1348ac	-0.14383191
143	0xbd29a408	-0.041416198
144	0x3d85a4bb	0.065255605
145	0x3caa4895	0.020786563
146	0xbe8075fd	-0.25090018
147	0xba962984	-0.0011456464
148	0x3d70b5cd	0.05876713
149	0x3e577e32	0.21044233
150	0x3d54b6ca	0.051932134
151	0xbd557f03	-0.05212308
152	0x3e4c94bf	0.19978617
153	0xbe4916a8	-0.19637549
154	0xbcd8c552	-0.026461277
155	0xbe020fca	-0.12701336
156	0xbe1edd49	-0.15514101
157	0xbd333ddf	-0.043760177
158	0x3e5ad153	0.21368913
159	0x3e8d2273	0.27565345
160	0x3e95a4af	0.29227206
161	0x3bf776b5	0.007551993
162	0xbe2bcb41	-0.16776754
163	0xbda9be56	-0.08288257
164	0xbe043827	-0.12912045
165	0xbe8400e9	-0.25781944
166	0x3cc647c8	0.02420415
167	0xbd98d9c7	-0.07463413
168	0x3d7a9a32	0.06118221
169	0xbda2cd68	-0.079493344
170	0xbe9333ce	-0.2875046
171	0x3d665ce5	0.056240935
172	0xbd6b3917	-0.057427492
173	0xbdc0b1dc	-0.09408924
174	0xbe6d039a	-0.23145905
175	0x3d956c2f	0.07296025
176	0xbd8e32e7	-0.069433026
177	0x3dec5ca3	0.115411066
178	0x3db28701	0.08717156
179	0xbe178632	-0.14797285
180	0x3e12d27b	0.14338104
181	0xbe237af6	-0.15964875
182	0x3e339b5e	0.17539737
183	0x3d8c27e7	0.06843548
184	0x3d045527	0.03230777
185	0x3cf46cdd	0.029837066
186	0xbe12d170	-0.14337707
187	0xbe127f3f	-0.14306353
188	0xbc83e4ee	-0.016100373
189	0xbd04b278	-0.032396764
190	0xbc8da6f0	-0.017291516
191	0xbe2df84f	-0.16989253
192	0xbcbdbf1d	-0.023162419
193	0xbde5e796	-0.11225812
194	0x3db5daee	0.08879648
195	0xbd80902e	-0.062775
196	0xbd95f708	-0.07322508
197	0x3da6202f	0.08111607
198	0xbe458ae4	-0.19291264
199	0x3e48911d	0.19586606
200	0x3da7a520	0.08185792
201	0xbbd3536a	-0.0064491527
202	0xbc8e3a9b	-0.01736193
203	0xbdb220f3	-0.08697691
204	0x3d5ba4ca	0.053623952
205	0x3d909d8b	0.07061299
206	0x3cb6cd38	0.022314653
207	0xbcebad37	-0.028769119
208	0xbded7062	-0.11593701
209	0xbcf9a30a	-0.03047325
210	0x3c67e948	0.01415474
211	0xbd92386a	-0.071396664
212	0xbe1037eb	-0.14083831
213	0xbdb7b65f	-0.089703314
214	0xbda389e6	-0.079852864
215	0x3e5c2117	0.21496998
216	0x3e835667	0.25651857
217	0x3e57b558	0.21065271
218	0x3e11a316	0.14222369
219	0x3dbfe400	0.093696594
220	0x3da41433	0.08011665
221	0xbdfe6f67	-0.12423592
222	0x3ce84235	0.028351882
223	0xbe0832c8	-0.13300622
224	0xbea3f25f	-0.32020852
225	0x3db51532	0.08841933
226	0x3d0c1655	0.034200985
227	0xbdaea13a	-0.08526845
228	0xba174b60	-0.00057714246
229	0x3d9c1569	0.07621271
230	0xbd1cfa72	-0.03832478
231	0x3df8db97	0.121512584
232	0xbe420c93	-0.18950109
233	0xbc0b6107	-0.00850702
234	0x3a9ab2ac	0.0011802516
235	0x3e2fa23a	0.17151728
236	0xbdd909d9	-0.105975814
237	0xbd6d26db	-0.057898384
238	0xbeaef49b	-0.34170994
239	0x3dce7966	0.10081749
240	0xbd8e5739	-0.0695023
241	0xbe46044e	-0.1933758
242	0x3e273365	0.16328199
243	0xbd632952	-0.055459328
244	0x3c6c4634	0.014421035
245	0x3d4f0d69	0.0505499
246	0x3b61ceef	0.0034455617
247	0xbdcd192c	-0.10014567
248	0xbd96fc8f	-0.073723905
249	0xbd8a3836	-0.06749003
250	0xbe225904	-0.1585427
251	0xbda8e629	-0.082470246
252	0xbdbfd5c6	-0.09366946
253	0x3cc73065	0.024315068
254	0x3dc2b47e	0.095070824
255	0xbd84259a	-0.064524844

shared_layers.0.bias f4 [64]
0	0xbbdca086	-0.006733003
1	0xba926916	-0.0011170234
2	0x3ba3ec28	0.0050025173
3	0xbb8ba26d	-0.004261306
4	0xbbde9340	-0.006792456
5	0xbb588e08	-0.0033043642
6	0x3b8f9981	0.0043823128
7	0xb972526a	-0.0002310962
8	0xbb7ba888	-0.0038400013
9	0xbbb84087	-0.0056229266
10	0x3c7657f6	0.01503562
11	0xbb82e276	-0.0039942814
12	0x3b4ec85e	0.0031552534
13	0xbc0c4fa2	-0.008563908
14	0xbbba3b07	-0.005683306
15	0x3b152b4a	0.0022761398
16	0x3b94006e	0.004516653
17	0xbba7ee1d	-0.005124821
18	0x3bb38f8e	0.0054797595
19	0xbaa6e116	-0.0012731876
20	0x3c33716f	0.010952338
21	0x39d6395c	0.00040859997
22	0x3bbe0213	0.005798587
23	0x3b74aa49	0.0037332943
24	0xba2d38de	-0.00066079
25	0xbb3281df	-0.0027238054
26	0xba9c73e8	-0.0011936398
27	0x3ce3e4d4	0.027819075
28	0xba230949	-0.000621934
29	0xbb107813	-0.0022044226
30	0x3a70eb3a	0.0009190325
31	0x399e8492	0.0003023488
32	0xbae07afc	-0.0017126496
33	0x3b419c14	0.0029542493
34	0xbbae51d6	-0.005319814
35	0xbb606552	-0.003424008
36	0x3b32833e	0.002723887
37	0x3a32abbc	0.00068157515
38	0xbae35300	-0.0017343462
39	0xbb257a3f	-0.0025249866
40	0xbb31f604	-0.0027154693
41	0x3a82e536	0.0009986523
42	0xb8b6bf30	-8.714048e-05
43	0xba2e69b2	-0.0006653323
44	0xba583634	-0.0008247823
45	0x3b6f60a0	0.00365261
46	0xbb94c745	-0.0045403563
47	0x3a9dffce	0.0012054385
48	0x3bdb5d52	0.0066944743
49	0x38ed7940	0.00011323625
50	0x3b1c0eb0	0.0023812465
51	0x3bd25a3e	0.006419449
52	0xbd9e570e	-0.07731448
53	0xbacc2880	-0.0015576035
54	0x3a9e2b1c	0.0012067291
55	0xbb685d23	-0.0035455904
56	0x3bd07a05	0.006362202
57	0x3b014c79	0.001972942
58	0x3b794014	0.0038032578
59	0x3c0ecf80	0.008716464
60	0x3c2fa10d	0.01071955
61	0x3b9cee7d	0.004789172
62	0x3c02dec9	0.007987686
63	0x3bcf0891	0.00631816

goal_head.weight f4 [2, 64]
0	0xbc4a08e3	-0.01233122
1	0x3c0566eb	0.008142213
2	0x3ce9e48d	0.028551364
3	0xbc84c2c1	-0.016206147
4	0xbc1f1471	-0.009709463
5	0x3dad102d	0.08450351
6	0xbc10b1e4	-0.008831475
7	0xbb1024b2	-0.0021994528
8	0xbab8d275	-0.0014100807
9	0x3c481b0b	0.012213479
10	0xbb4c47fa	-0.003117083
11	0xbb7070e1	-0.0036688375
12	0xbb0bb604	-0.0021318207
13	0xbc097d6a	-0.008391717
14	0xbcfc42f8	-0.030793652
15	0xbd4f4d22	-0.05061067
16	0x3c8e4398	0.017366216
17	0x3d9962cf	0.07489549
18	0x3cb14b8e	0.021642473
19	0x3b9de553	0.0048185973
20	0x3b14fd3e	0.0022733952
21	0x3c00b160	0.0078547895
22	0xba281f4f	-0.0006413357
23	0xba1be887	-0.000594743
24	0x3bae7df1	0.005325072
25	0x3aa5f2ee	0.00126609
26	0xbc3eabeb	-0.011637668
27	0xbdce4489	-0.10071666
28	0x3bf54764	0.007485317
29	0xbbedcb87	-0.0072569284
30	0x3b927c50	0.0044703856
31	0xbccd5b1e	-0.025067862
32	0xbb73862a	-0.0037158825
33	0xbae0a321	-0.001713846
34	0xbb4f31d1	-0.0031615386
35	0xbc0e40f8	-0.008682482
36	0xbce0bcba	-0.027433742
37	0xbb0b9f60	-0.0021304712
38	0x3a761cf0	0.00093884673
39	0x3b0c7956	0.0021434627
40	0x3d35597b	0.04427479
41	0x3c1811f5	0.009281625
42	0x3ad89ae2	0.0016525651
43	0xbb2a0cda	-0.0025947602
44	0x3bd3f6f6	0.006468649
45	0x3c859708	0.016307369
46	0x3b043dc5	0.002017842
47	0xba9fe709	-0.0012199591
48	0xbb896886	-0.0041933684
49	0xbc039f17	-0.008033535
50	0x3c0bb870	0.00852786
51	0x3b054628	0.0020336006
52	0x3e29d7c6	0.16586217
53	0x3bbd3cc4	0.005775066
54	0x3c03ceec	0.0080449395
55	0x3a965cae	0.0011471712
56	0x3d093ba3	0.03350414
57	0x3b8f7dd6	0.0043790145
58	0xbb871f4c	-0.004123604
59	0x3bbb69db	0.005719406
60	0x3c065157	0.008198104
61	0x3a208262	0.0006122944
62	0xbbee25b4	-0.007267678
63	0xbc251039	-0.010074669
64	0x3c054d0f	0.008136048
65	0xbc27e70f	-0.01024796
66	0xbcf9ba19	-0.030484246
67	0x3c9137dc	0.017726831
68	0x3c1f2eaf	0.00971572
69	0xbda939d2	-0.082629815
70	0x3c314ce6	0.010821557
71	0x3b18767c	0.0023263982
72	0xba006446	-0.00048977544
73	0xbc2219d2	-0.009893851
74	0x3b8c644d	0.0042844177
75	0x3a912393	0.0011073224
76	0x3a40021a	0.0007324532
77	0x3b8ac278	0.0042346083
78	0x3cfab86a	0.030605514
79	0x3d524a0c	0.051340148
80	0xbc92a896	-0.017902654
81	0xbd9cda57	-0.076588325
82	0xbca3db80	-0.020002127
83	0xbb43d4fa	-0.0029881583
84	0xb9cce1ec	-0.00039078237
85	0xbc0c2a16	-0.008554956
86	0x39093694	0.0001308567
87	0xbaa5120b	-0.0012593878
88	0xbbd66dd2	-0.0065438533
89	0x39aea7e0	0.00033312943
90	0x3c2b5e1e	0.010459451
91	0x3dd00e76	0.10159008
92	0xbc084588	-0.008317359
93	0x3b91e60b	0.004452472
94	0xbb1a3d14	-0.002353494
95	0x3ce35d9f	0.027754603
96	0x3b4ff780	0.0031733215
97	0x3a1b36d4	0.0005920951
98	0x3b1ae120	0.002363272
99	0x3bd80bfd	0.006593226
100	0x3cd83137	0.026390655
101	0x3ba2e441	0.0049710576
102	0xbaeea134	-0.0018206001
103	0xb8ffa08b	-0.00012189251
104	0xbd37591d	-0.04476272
105	0xbc2d8c96	-0.0105926
106	0x3aa17f52	0.001232127
107	0x3b3bf77c	0.0028681448
108	0xbbcd072a	-0.0062569575
109	0xbc8516af	-0.016246168
110	0xbb6412fd	-0.0034801357
111	0x3a9dd931	0.0012042877
112	0x3b5ca665	0.0033668515
113	0x3c1c1da0	0.0095285475
114	0xbc1547db	-0.00911137
115	0xbb3118d9	-0.0027022867
116	0xbe2907da	-0.16506901
117	0xbc1e7e63	-0.009673688
118	0xbc0d5bcd	-0.008627844
119	0xbab2a388	-0.0013629058
120	0xbd08937c	-0.033343777
121	0xbc07acd6	-0.008280953
122	0x3b8d5c3f	0.004313975
123	0xbb6ae770	-0.0035843514
124	0xbbf4ef17	-0.007474791
125	0xbb5a43ae	-0.00333045
126	0x3bb27cca	0.005447005
127	0x3c2cc5f4	0.010545243

goal_head.bias f4 [2]
0	0xbf078c2b	-0.52948254
1	0x3f078c2b	0.52948254

portfolio_head.weight f4 [15, 64]
0	0x3a8f2b6a	0.0010922973
1	0xbb965fb9	-0.0045890477
2	0x3c2c0d99	0.010501289
3	0xbc069ba5	-0.0082158195
4	0x3c4f0430	0.012635276
5	0x3d1ec12e	0.03875845
6	0xbb35c788	-0.0027737338
7	0xbc547327	-0.012966908
8	0xbc167e2a	-0.009185353
9	0x3d26d96c	0.040734693
10	0xbc67fc4c	-0.014159273
11	0xbbce6d9f	-0.006299689
12	0xbc79e308	-0.015251882
13	0x3c0dc1f9	0.008652204
14	0x3c1096c2	0.008825006
15	0xbad54c40	-0.0016273335
16	0xbc76cc8b	-0.015063415
17	0x3c83c071	0.016082974
18	0xbce24444	-0.027620442
19	0xbcb4a238	-0.022050008
20	0xbd33784d	-0.0438159
21	0x3c23595a	0.009970034
22	0xbc7a7bc3	-0.015288296
23	0x3b447cf1	0.0029981697
24	0x3c4d286e	0.012521846
25	0x3cd7776c	0.026302062
26	0x3bfe0542	0.0077520916
27	0xbc85f341	-0.016351344
28	0x3aa4f88b	0.0012586279
29	0xba6ed5d8	-0.00091108447
30	0x3b8ee272	0.0043604905
31	0xbbc4d961	-0.006007359
32	0x3cac41c7	0.021027459
33	0xbbcde46d	-0.006283334
34	0x3c960f04	0.018317707
35	0xbc3885e7	-0.011262394
36	0x398d1a30	0.00026913127
37	0x3d266bfb	0.040630322
38	0x3c8e8009	0.017395036
39	0x3d08e176	0.03341814
40	0x3c22388a	0.009901175
41	0x3c270c5d	0.010195819
42	0xbc578d10	-0.0131561905
43	0xbbd1a724	-0.0063980985
44	0x3c25ff2f	0.010131641
45	0xba39ba02	-0.0007084907
46	0xbc135a0e	-0.008993639
47	0x3c20b1d4	0.0098080225
48	0xbb8b7cd2	-0.004256823
49	0xbaa215e6	-0.0012366145
50	0x3b7d7819	0.003867632
51	0xbbbc2659	-0.005741876
52	0x3d6280de	0.05529868
53	0xba462826	-0.0007559083
54	0x3c40927c	0.011753675
55	0xbc056df6	-0.0081438925
56	0xbc60f7c5	-0.013730948
57	0x3b2ee07a	0.0026684091
58	0x38990000	7.2956085e-05
59	0xbcd219f2	-0.025647137
60	0xbc434725	-0.011918818
61	0xbc591fa3	-0.013252172
62	0x3c014a70	0.007891282
63	0xbca941a9	-0.020661192
64	0x3ccb611e	0.024826583
65	0xbcab5ccb	-0.02091827
66	0xbbe27748	-0.006911192
67	0x3baec5d1	0.00533364
68	0xbba7a8bb	-0.00511655
69	0xbc0c1a61	-0.008551211
70	0x3cd6ca63	0.026219552
71	0xbbde9ada	-0.006793362
72	0xbc812bd2	-0.015767965
73	0x3bb21e8a	0.0054357694
74	0xbcd28c41	-0.025701644
75	0x3c93c99a	0.018040467
76	0xbb6acd0c	-0.0035827784
77	0x3c2ccdd0	0.010547116
78	0x3c572d2b	0.0131333275
79	0x3c45390b	0.012037526
80	0xbc38cde2	-0.011279555
81	0x3b84d7fb	0.004054067
82	0xbbeaf40a	-0.007170205
83	0x3be78006	0.007064822
84	0xbcc6ae21	-0.024252953
85	0x3bbf64ae	0.0058408594
86	0xbab30d45	-0.0013660571
87	0x3ca20641	0.019778373
88	0xbc26c569	-0.010178902
89	0xbbe81299	-0.007082295
90	0x3ce29502	0.027658943
91	0xbca066ae	-0.019580211
92	0x39edfff0	0.0004539485
93	0x3bedc8d4	0.0072566066
94	0x3c32fe55	0.010924895
95	0x3ae07ff4	0.0017127977
96	0xbc9d8925	-0.019230435
97	0xbc6fff3b	-0.014648254
98	0xba60092f	-0.00085462903
99	0x3cb297d7	0.021800919
100	0xbccd9d7f	-0.025099514
101	0x3c81239c	0.01576405
102	0xbc0e2be0	-0.008677453
103	0x3c2846f0	0.010270819
104	0xbb4950ee	-0.0030718404
105	0x3c0112c0	0.0078780055
106	0x3c037726	0.008024013
107	0x3b75ad6b	0.0037487398
108	0xbc851fcb	-0.016250512
109	0x3cf5d76e	0.030009951
110	0x3a9e5789	0.0012080531
111	0xbc80be6a	-0.015715797
112	0xbc3c682b	-0.011499445
113	0x3b60e5c6	0.0034316643
114	0x3c720d97	0.014773748
115	0xbcd49d2c	-0.025953852
116	0xbc81ce3f	-0.015845416
117	0x3b9d3450	0.004797496
118	0x3c827a5d	0.015927488
119	0xbc31e796	-0.010858437
120	0x3ac5e304	0.0015097563
121	0xbcba239b	-0.022722056
122	0x3c4dc95b	0.012560214
123	0xbb465320	-0.0030261949
124	0xbcdc82ef	-0.026917903
125	0xbb5afffc	-0.0033416739
126	0xbb7b1f94	-0.0038318383
127	0x3bb848dd	0.0056239204
128	0x3c5ecc02	0.013598444
129	0x3baa7eee	0.0052031195
130	0xbb548fba	-0.00324343
131	0x3ac4b948	0.0015008831
132	0x3c342822	0.0109958965
133	0xbc05a46f	-0.00815688
134	0x3c62bf04	0.013839487
135	0xbb9ec5a7	-0.0048453393
136	0x3ccc29a3	0.024922198
137	0xbc41580e	-0.011800779
138	0x3c2cfb26	0.010557925
139	0x3b996515	0.0046812394
140	0xbc41090e	-0.011781944
141	0xba6dd80c	-0.0009073026
142	0x3c91ef42	0.017814282
143	0xbbb7d0fc	-0.0056096297
144	0x3c214f61	0.009845586
145	0xbcb4e7dc	-0.022083215
146	0x3bc70275	0.006073291
147	0xbce753be	-0.028238174
148	0x3bc444e4	0.0059896577
149	0xbc691da2	-0.014228256
150	0x3b22983b	0.0024809975
151	0x3bf4e113	0.00747312
152	0x3c36b57e	0.01115167
153	0xbb2899f7	-0.0025726536
154	0xbad42b8b	-0.0016187293
155	0x3cab571f	0.020915566
156	0xbbcd878e	-0.006272263
157	0x3c2154af	0.00984685
158	0xbbcfc887	-0.0063410434
159	0x3bf80422	0.007568852
160	0x3d0619e4	0.032739535
161	0xbb53649d	-0.0032256015
162	0x3bd61052	0.0065327073
163	0x3c22572c	0.009908479
164	0x3ab3dd66	0.0013722598
165	0x3a884633	0.0010396898
166	0xbc5416b1	-0.012944863
167	0x3c4bb5b0	0.012433454
168	0x3b06acdf	0.0020549817
169	0xbd07f81f	-0.03319561
170	0xbbbbe73e	-0.0057343533
171	0x3bdfcf29	0.0068301153
172	0x3c653a2f	0.013990923
173	0xbce18b75	-0.027532319
174	0xbc1297be	-0.008947311
175	0xbc7c37f6	-0.0153942015
176	0xbbb9547a	-0.0056558223
177	0x3c773b46	0.0150898155
178	0xbd0418f5	-0.032250363
179	0x3aa660c8	0.0012693638
180	0xbc356fd3	-0.011074024
181	0x37f44440	2.9118848e-05
182	0xbc51ccda	-0.012805188
183	0xbc3f1886	-0.011663562
184	0xbc97f6c5	-0.018550286
185	0x3afe430f	0.0019398647
186	0xbb58b2f0	-0.003306564
187	0x3b1d75d0	0.002402652
188	0xbbc252d2	-0.005930283
189	0x3c0dc4a9	0.0086528445
190	0xbbf7e675	-0.0075653144
191	0x38d49fb0	0.00010138692
192	0x3ba68581	0.005081833
193	0x3cd8f6d7	0.02648489
194	0xbcb290d5	-0.021797577
195	0x3d3d4f39	0.04621813
196	0x3c3f28ae	0.011667414
197	0xbc9b7c54	-0.018980183
198	0x3ba435b6	0.0050112857
199	0x3a879aa5	0.001034577
200	0x3cc4d714	0.024028338
201	0x3c58affb	0.013225551
202	0xbb7e5ea4	-0.0038813734
203	0x3c2d551f	0.0105793765
204	0xbc704545	-0.014664953
205	0x3c663c67	0.014052487
206	0xbc7841cf	-0.015152409
207	0x3d279e78	0.040922612
208	0x362275f8	2.4208548e-06
209	0xb9cdfa34	-0.00039287063
210	0x3a0dab52	0.0005404252
211	0x3c9a6aa0	0.01884967
212	0x3c3db3b8	0.011578493
213	0x3bdff978	0.006835159
214	0x3d401864	0.04689826
215	0x3bb54f96	0.005533169
216	0x3cbdc9cd	0.023167515
217	0xbca8c956	-0.020603817
218	0xbd1e6543	-0.03867079
219	0x3cee1e26	0.02906711
220	0x3bc6ddd4	0.0060689244
221	0xbca507ff	-0.020145414
222	0xbcab038a	-0.020875711
223	0xbd092bba	-0.033488967
224	0xbd02a3e2	-0.031894572
225	0xbcecc157	-0.028900785
226	0xbd3a4e58	-0.04548487
227	0x3cf5c713	0.030002153
228	0x3c858d38	0.01630269
229	0xbca18cfa	-0.019720543
230	0x3c57367c	0.013135549
231	0xbbb04785	-0.0053796195
232	0xbb742fa1	-0.0037259834
233	0x3b020e44	0.0019844929
234	0x3b9e96bf	0.0048397477
235	0x3ac45718	0.0014979569
236	0x3c866f05	0.01641036
237	0xbc02c9e5	-0.007982706
238	0x3c9b8b30	0.018987268
239	0x3c8e0d49	0.01734032
240	0x3c48efe1	0.012264223
241	0xbc9db1bd	-0.019249791
242	0xbbc21277	-0.0059226113
243	0x3c1e7430	0.009671256
244	0xbc6ceddf	-0.01446101
245	0x3d2946a1	0.041327123
246	0x3cf384ef	0.029726474
247	0xbc393d00	-0.011306047
248	0xbbd08933	-0.0063640117
249	0xbcb9b5d1	-0.022669705
250	0xbca2ca5a	-0.01987188
251	0x3963148c	0.00021656061
252	0xbcd20406	-0.025636684
253	0x3c3c022d	0.011475128
254	0xbc015c51	-0.007895545
255	0xbaf8a814	-0.001897099

portfolio_head.bias f4 [15]
0	0x3c3f5f51	0.01168044
1	0xbc9996c2	-0.018748645
2	0x3b802132	0.003910207
3	0xbbc634ad	-0.00604876
4	0x3b0741ff	0.0020638702
5	0x3b117123	0.002219268
6	0x3c26d0e6	0.010181641
7	0xbad6d64e	-0.0016390772
8	0x3c45b3e4	0.012066815
9	0xb963c554	-0.00021721917
10	0x3c22a949	0.009928056
11	0xbbc13d0f	-0.0058971713
12	0x3bf327e6	0.0074205277
13	0x3abbe4f3	0.00143352
14	0x3b7a8b62	0.0038230051

state_encoder.time_encoder.0.weight f4 [16, 1]
0	0xbf399fba	-0.7250935
1	0xbeb4d758	-0.35320544
2	0x3f81c70a	1.0138867
3	0x3ef207a9	0.4727147
4	0x3f34d0ec	0.7063129
5	0x3f21bfbc	0.6318319
6	0xbf1c172b	-0.6097285
7	0xbf161ef2	-0.5864097
8	0xbebc7715	-0.36809602
9	0x3ee82113	0.45337734
10	0x3f2e1331	0.67998034
11	0xbf036c2a	-0.5133692
12	0xbf1e0007	-0.6171879
13	0xbf0477a6	-0.5174507
14	0xbf4ce8d8	-0.8004279
15	0xbf4d7a3f	-0.8026466

state_encoder.time_encoder.0.bias f4 [16]
0	0x3e7c4e93	0.24639349
1	0x3dcf9b4c	0.101370424
2	0xbe8af5c2	-0.27140623
3	0xbe8a4fbf	-0.27013966
4	0xbe7b3499	-0.24531783
5	0xbe5f6447	-0.21815597
6	0x3ed27908	0.41107965
7	0x3e1a09a3	0.15042739
8	0x3dda602d	0.10662875
9	0xbea62089	-0.32446697
10	0xbe64a0b3	-0.22326927
11	0x3e0a987f	0.13534735
12	0x3e3866d8	0.18007982
13	0x3dce1a98	0.10063666
14	0x3ea8148a	0.3282817
15	0x3e91416a	0.2837022

state_encoder.wealth_encoder.0.weight f4 [32, 1]
0	0xbc469288	-0.012119897
1	0xbe1fe43b	-0.15614407
2	0xbeac5954	-0.33661902
3	0x3e0fa608	0.1402818
4	0xbe11bb4c	-0.14231604
5	0x3e0efacd	0.1396286
6	0xbe556873	-0.20840625
7	0x3e8917a9	0.26775864
8	0xbe81a083	-0.25317773
9	0xbe00cfd0	-0.12579274
10	0x3ed66046	0.41870326
11	0x3f1747ba	0.5909382
12	0x3e19a91c	0.15005916
13	0x3d84201d	0.064514376
14	0xbe1458f8	-0.14487064
15	0x3e7e4365	0.24830396
16	0x3ea66be9	0.32504204
17	0xbd9650e8	-0.073396504
18	0xbdfcdead	-0.123471595
19	0xbc109755	-0.008825143
20	0xbdaf9787	-0.085738234
21	0x3e0201af	0.12695955
22	0xba527f27	-0.00080298114
23	0xbbec18f1	-0.0072051217
24	0xbe9906ea	-0.29888088
25	0x3d5674c9	0.05235747
26	0xbdd4a9e1	-0.10383964
27	0xbe39d698	-0.18148267
28	0x3d04272d	0.032263923
29	0xbc27c1d2	-0.010239081
30	0xbe3bc0fd	-0.18335338
31	0xbe316d1e	-0.17326781

state_encoder.wealth_encoder.0.bias f4 [32]
0	0x3d026da3	0.03184284
1	0x3b5daec2	0.0033826088
2	0x3ce31b85	0.027723083
3	0xbd396ccc	-0.045269772
4	0xbb0acab7	-0.0021177956
5	0xbcf48947	-0.029850615
6	0x3dc2f8f7	0.095201425
7	0xbc86d3da	-0.01645844
8	0x3cae9dc1	0.021315457
9	0x3e3ca957	0.18423973
10	0x3cc72ba1	0.024312796
11	0x3db11833	0.08647194
12	0xbde02818	-0.10945147
13	0xbd0a1115	-0.033707697
14	0x3cd10c79	0.025518643
15	0x3ca2387e	0.019802328
16	0xbd50c23d	-0.05096649
17	0x3de6749d	0.11252711
18	0xbe413db1	-0.1887119
19	0x3cd3c1ce	0.02584925
20	0x3d895a74	0.06706706
21	0x3e45abbd	0.19303794
22	0xbe7a982e	-0.24472114
23	0xbe41be03	-0.1892014
24	0x3d989e92	0.0745212
25	0xbe3c86da	-0.18410817
26	0x3ce6a050	0.028152615
27	0x39227902	0.00015494603
28	0xbdf58836	-0.11988871
29	0x3db7a627	0.08967238
30	0x3c52abf6	0.0128583815
31	0x3c1cc647	0.009568757

state_encoder.sentiment_encoder.0.weight f4 [16, 2]
0	0xbf6146dc	-0.8799875
1	0x3d67b27e	0.056566708
2	0x3f038a17	0.51382583
3	0xbda58bf2	-0.08083333
4	0x3f223254	0.63358045
5	0x3cbd1159	0.023079561
6	0xbf0725d4	-0.52792096
7	0x3f201131	0.6252623
8	0x3eced16a	0.40394145
9	0x3e99f618	0.30070567
10	0xbf061ce7	-0.5238785
11	0xbf1c2aa4	-0.61002564
12	0x3b7ac784	0.0038265893
13	0x3e47c90d	0.19510289
14	0xbf88e9c2	-1.0696337
15	0xbeebea00	-0.46076965
16	0x3ea4baf9	0.321739
17	0xbefe7505	-0.49698654
18	0xbd937d15	-0.07201592
19	0xbe19f77d	-0.15035816
20	0xbd9bef5a	-0.07614012
21	0xbda21f0b	-0.07916077
22	0xbf922253	-1.1416725
23	0x3ed96981	0.42463306
24	0xbf5b94ff	-0.85774225
25	0x3eecf653	0.4628168
26	0xbe51c5a7	-0.20485555
27	0x3e18f6cc	0.14937896
28	0x3f88b0db	1.0678972
29	0xbf130095	-0.57422763
30	0x3f3c857d	0.73641187
31	0xbef25d22	-0.4733668

state_encoder.sentiment_encoder.0.bias f4 [16]
0	0xbd8890ae	-0.066682205
1	0xbdf80600	-0.121105194
2	0x3d816629	0.06318314
3	0xbde1bee9	-0.11022741
4	0x3e5dbc90	0.21653962
5	0xbe06c352	-0.13160446
6	0x3e0d27b5	0.13784678
7	0xbd84f755	-0.06492487
8	0xbd4d197b	-0.05007313
9	0x3c658160	0.014007896
10	0xbe021b19	-0.1270565
11	0xbdd11f42	-0.1021104
12	0xbda8f2e0	-0.0824945
13	0xbe427656	-0.18990454
14	0x3d08349b	0.033253293
15	0x3dc3e186	0.095644996

state_encoder.fusion.0.weight f4 [64, 64]
0	0x3e32ad4e	0.17448923
1	0xbd05b510	-0.032643378
2	0xbe64abb6	-0.22331128
3	0xbe5ca867	-0.21548615
4	0xbe90f0d7	-0.28308746
5	0xbed7b1c5	-0.42127815
6	0x3f262cd9	0.6491218
7	0x3e76cf7c	0.24102587
8	0x3e2a1f1f	0.16613434
9	0xbed05629	-0.40690735
10	0xbf03b01e	-0.5144061
11	0x3eeb9f06	0.46019763
12	0x3ee24771	0.4419513
13	0x3e207c16	0.15672335
14	0x3efd7b57	0.49508163
15	0x3f1095f9	0.5647884
16	0x3e2c7dc5	0.16844852
17	0x3e33011f	0.17480896
18	0x3e37b161	0.17938758
19	0x3e8e953c	0.27848232
20	0x3dea0986	0.11427598
21	0xbe385502	-0.18001178
22	0xbd204062	-0.0391239
23	0xbe45d0dd	-0.19317956
24	0x3cc903af	0.02453789
25	0x3d6d8d94	0.057996348
26	0x3e0d733e	0.13813493
27	0x3e261a66	0.16221008
28	0x3bceed51	0.0063149114
29	0xbe177447	-0.1479045
30	0xbe188c45	-0.14897259
31	0x3e6e2bea	0.2325894
32	0xbddab1de	-0.10678457
33	0xbdeb4e8b	-0.1148959
34	0xbe1b4ba4	-0.15165573
35	0xbe78e318	-0.2430538
36	0x3dc2b481	0.09507085
37	0x3e95aaea	0.2923196
38	0x3e5abd0f	0.21361183
39	0xbde7ed89	-0.11324603
40	0x3e720818	0.236359
41	0x3dc911fd	0.09817884
42	0xbc43e92a	-0.011957446
43	0x3e6cbcc6	0.23118886
44	0xbe0a6ad0	-0.13517308
45	0x3f0461f7	0.5171198
46	0xbe5d1acd	-0.21592255
47	0xbd4adb80	-0.049525738
48	0xbec45eb2	-0.38353497
49	0xbeb43627	-0.35197565
50	0x3e3ecbb2	0.18632391
51	0xbe5712d6	-0.21003279
52	0x3e96b7b2	0.29437023
53	0xbde6b61a	-0.11265202
54	0xbe948693	-0.29008922
55	0xbe71ecbe	-0.23625466
56	0xbe93a855	-0.28839365
57	0x3d1b5cc6	0.037930273
58	0xbca3ff56	-0.020019215
59	0xbe614e0c	-0.22002429
60	0xbe86e348	-0.26345277
61	0xbe5a483a	-0.21316615
62	0x3e5066d8	0.20351732
63	0x3e8eb57a	0.2787283
64	0x3efe089a	0.49615937
65	0x3d534a55	0.05158456
66	0xbe95cf4f	-0.29259726
67	0xbeb478f1	-0.3524852
68	0xbeb15c8e	-0.34640926
69	0xbeab5026	-0.33459586
70	0x3f3734c1	0.7156487
71	0x3ecc7581	0.39933398
72	0x3edf0d78	0.43564963
73	0xbea535aa	-0.32267505
74	0xbe45dfe3	-0.19323687
75	0x3cc68a3e	0.02423584
76	0x3e334bef	0.17509435
77	0x3df9d64a	0.121990755
78	0x3f1b22fe	0.6060027
79	0x3ec8ebee	0.392425
80	0x3e7a5886	0.24447832
81	0x3e5bf7ea	0.2148129
82	0x3db02301	0.086004265
83	0xbd9ed73a	-0.07755895
84	0xbe2e3c78	-0.17015254
85	0xbe4312bd	-0.19050117
86	0xbd4beffc	-0.049789414
87	0xbebed2f8	-0.3727033
88	0x3d069eb5	0.0328662
89	0x3e6b6afa	0.22990027
90	0xbd570caf	-0.05250233
91	0xbb25658d	-0.002523753
92	0xbe1bf7b8	-0.15231216
93	0x3d164755	0.03668912
94	0x3dc2f4ea	0.0951937
95	0xbd35a9da	-0.044351436
96	0xbdd3a3de	-0.103339896
97	0x3e237584	0.15962797
98	0xbed4b96a	-0.4154771
99	0x3eca131d	0.39467707
100	0x3e4337b5	0.1906422
101	0x3d058ddc	0.03260599
102	0x3e3f2d77	0.18669687
103	0x3ca0649b	0.019579222
104	0x3d443291	0.047899786
105	0xbeb684a1	-0.35648063
106	0x3e10ffa3	0.14160018
107	0xbe3af793	-0.18258505
108	0xbda553a3	-0.08072593
109	0xbe294152	-0.16528824
110	0xbe430306	-0.19044122
111	0xbd6b1d11	-0.057400767
112	0xbd09e301	-0.033663753
113	0xbf0094be	-0.5022696
114	0xbad2b6b8	-0.0016076183
115	0x3eb53d65	0.35398403
116	0x3ef24ebc	0.47325695
117	0x3e71b6f4	0.23604947
118	0x3ed7a4df	0.42117974
119	0xbe58023f	-0.21094607
120	0xbc29ebc1	-0.0103711495
121	0x3c9aa1e2	0.01887602
122	0xbe002bfa	-0.12516776
123	0xbeb7825e	-0.3584165
124	0xbe3d6c9a	-0.1849846
125	0xbe89cb6e	-0.26913017
126	0x3dcd3eaf	0.100217216
127	0xbc8b4081	-0.016998531
128	0xbe71cd1d	-0.23613401
129	0x3e68fc97	0.22752605
130	0x3e904fde	0.28185934
131	0x3d94ecc7	0.07271724
132	0x3f0ee238	0.5581393
133	0x3e86168a	0.2618907
134	0xbed1682a	-0.40899783
135	0xbe7459f8	-0.23862445
136	0xbdd59a23	-0.1042979
137	0x3e7b1f0f	0.24523567
138	0x3e401815	0.18759187
139	0xbedac608	-0.4272921
140	0xbf0f14c6	-0.5589107
141	0xbeb0d99d	-0.34541026
142	0xbeaf38f4	-0.3422314
143	0xbebcc72e	-0.36870712
144	0xbe6a4784	-0.22878844
145	0x3d3220d6	0.043488346
146	0x3e842ff7	0.25817844
147	0xbd990b30	-0.07472837
148	0xbe02af8f	-0.12762283
149	0x3d82c3fc	0.06385037
150	0xbea9dc67	-0.33175966
151	0xbe545ac3	-0.20737748
152	0xbe9cba7b	-0.30611023
153	0xbf007147	-0.5017285
154	0x3e2f10b6	0.17096218
155	0x3e2c258b	0.16811197
156	0x3e3c9785	0.18417175
157	0xbe10aa6c	-0.14127511
158	0xbe18665c	-0.14882797
159	0xbdef1b35	-0.11675111
160	0x3d8ccc09	0.06874854
161	0x3ced1340	0.028939843
162	0x3e905102	0.28186804
163	0x3e847cb9	0.25876406
164	0xbbec9de3	-0.00722097
165	0x3e5a544b	0.21321218
166	0xbdde8358	-0.108648956
167	0xbd08d5f0	-0.03340715
168	0x3e90f4ef	0.2831187
169	0xbda7d3c0	-0.08194685
170	0xbd8dab2a	-0.069174126
171	0xbe372418	-0.17884862
172	0x3cfb6698	0.030688569
173	0xbc10d6a1	-0.008840234
174	0xbe567298	-0.20942152
175	0x3d9c49fb	0.07631298
176	0xbd27cdd6	-0.040967785
177	0xbdcb764b	-0.09934672
178	0xbe02249a	-0.12709275
179	0x3db31be5	0.08745555
180	0xbe9b1e0a	-0.30296355
181	0x3e8e1a5c	0.27754486
182	0x3dd5e3f9	0.10443873
183	0x3bee3f05	0.007270696
184	0xbe35116f	-0.17682432
185	0xbe806a37	-0.25081035
186	0xbe3e8fa4	-0.18609482
187	0x3f181a9b	0.59415597
188	0x3ea3ac30	0.31967306
189	0x3dfd07c9	0.123550005
190	0xbed1c376	-0.40969437
191	0xbe7fb2bb	-0.24970524
192	0x3f001a17	0.5003981
193	0x3cd42eee	0.025901284
194	0xbee1a98a	-0.4407466
195	0xbe530793	-0.20608358
196	0xbefa4f5f	-0.4888868
197	0xbecef0b9	-0.40418032
198	0x3f1c3460	0.6101742
199	0x3ddbcb93	0.10732188
200	0x3d5b97a7	0.053611424
201	0xbeb58b60	-0.35457897
202	0xbf3b172f	-0.7308225
203	0x3e5adf39	0.21374215
204	0x3e57715d	0.21039338
205	0x3ec940ed	0.39307347
206	0x3ef46e3f	0.4774036
207	0x3eba2fdb	0.36364636
208	0xbe3372e8	-0.17524302
209	0x3d217ad6	0.039423786
210	0x3dead335	0.11466066
211	0xbd75e88a	-0.06003622
212	0x3dd2f10b	0.102998815
213	0xbda96b96	-0.082724735
214	0xbe004fa1	-0.12530376
215	0xbe42bd0f	-0.19017433
216	0xbe4ac98a	-0.19803444
217	0x3d4457e5	0.047935385
218	0xbd1baa14	-0.038003996
219	0x3eb2faa8	0.3495686
220	0x3e79dada	0.24399891
221	0x3db6285c	0.08894417
222	0x3ef5dfc3	0.4802228
223	0x3e98d904	0.2985307
224	0x3e28f3d3	0.16499262
225	0x3e9d753a	0.307535
226	0xbc2eef06	-0.010677105
227	0xbda9c76a	-0.08289988
228	0xbdb2e98d	-0.087359525
229	0x3d879aa1	0.0662129
230	0xbc1e419e	-0.009659199
231	0xbde660f9	-0.11248965
232	0xbdd9da67	-0.1063736
233	0xbdca0040	-0.09863329
234	0x3d3babb4	0.045818046
235	0x3d9ee552	0.07758583
236	0x3e0f4c89	0.1399404
237	0xbc7fb678	-0.015607469
238	0xbe2c9ddd	-0.16857095
239	0xbe48a0e0	-0.19592619
240	0xbeb05ef9	-0.34447458
241	0x3e9282eb	0.28615507
242	0x3eb8e068	0.36108708
243	0xbd9ca2d7	-0.07648247
244	0x3e60fc00	0.2197113
245	0x3d949a11	0.07255948
246	0xbd2955e3	-0.041341674
247	0x3ed0cfe2	0.40783602
248	0x3eeda0cc	0.4641174
249	0xbcb8924d	-0.0225307
250	0x3e2e1dbb	0.17003529
251	0xbf08ddab	-0.5346324
252	0xbebb38ac	-0.36566675
253	0xbe650d04	-0.22368246
254	0x3ea85cc9	0.3288329
255	0x3e9ccd70	0.30625486

state_encoder.fusion.0.bias f4 [64]
0	0x3e4980a2	0.19677976
1	0x3e5cbe1b	0.21556894
2	0x3c7f4a6b	0.0155817075
3	0x3ddc5f32	0.107603446
4	0xbe6ee648	-0.23330033
5	0xbe3bd20b	-0.18341844
6	0x3ed6e537	0.41971752
7	0x3d92c540	0.07166529
8	0x3d7306da	0.059332706
9	0xbe8f6f5f	-0.28014657
10	0xbee84667	-0.45366213
11	0x3ea4faf6	0.32222718
12	0x3cf11823	0.029430455
13	0x3e85b0a0	0.26111317
14	0xbce4f3c0	-0.02794826
15	0xbe8b8835	-0.27252355
16	0xbe9c2514	-0.30497038
17	0x3d9415e1	0.072307356
18	0xbe51fc65	-0.20506437
19	0x3e9153a5	0.28384128
20	0x3d2e446f	0.042545732
21	0xbe828b2d	-0.25496808
22	0x3d579333	0.052630614
23	0x3e20d4a4	0.15706116
24	0x3e855457	0.2604091
25	0xbddfb6fd	-0.10923574
26	0xbe8c2b25	-0.27376667
27	0xbe08083c	-0.13284391
28	0xbe54ce8b	-0.20781915
29	0xbe4de2f5	-0.20106108
30	0x3de2c8f3	0.11073484
31	0x3ea7e438	0.32791305
32	0x3de6067d	0.11231706
33	0x3e858902	0.2608109
34	0x3e95e4a9	0.29276016
35	0x3eb5b80e	0.35491985
36	0x3c395d7b	0.011313791
37	0x3e8757fd	0.26434317
38	0xbea20635	-0.3164536
39	0xbd8f23c4	-0.069892436
40	0x3c482f9c	0.012218382
41	0xbe120fd0	-0.14263844
42	0x3e6e9a25	0.23300989
43	0xbc8e6573	-0.01738236
44	0xbe5536c6	-0.20821676
45	0xbe9fdae5	-0.3122169
46	0xbe2ac382	-0.16676143
47	0xbe27db28	-0.16392195
48	0xbe6b4662	-0.22976068
49	0xbe443adc	-0.19163078
50	0xbd08f515	-0.033436853
51	0xbeaf6757	-0.3425853
52	0xbe30ba37	-0.17258535
53	0x3e8919b5	0.26777425
54	0xbe514668	-0.20437014
55	0xbeb44a08	-0.3521273
56	0x3e8001e3	0.2500144
57	0xbe019e4e	-0.12658045
58	0x3e63f80c	0.22262591
59	0x3e9cc8fb	0.30622086
60	0xbe863df5	-0.26219144
61	0x3edb157c	0.4278983
62	0x3e7f0e43	0.24907784
63	0xbe98699e	-0.2976808
