data/results/test_training/final_model_safe.pth (torch, 199401 bytes, 39 tensors)

shared_backbone.0.weight f4 [64, 2]
00000000: 0359 b8bc 7186 e9bd 8a6a 60bd 7163 2f3c
00000010: 12c6 fbbd 8c1b 723e 187f abbd 51da 823e
00000020: 39ad aeba 7706 2bbe 269e 813e 1fc7 dd3d
00000030: 1713 a33c 8dc7 6cbd a87f 313e a54a 3e3e
00000040: a749 fdbe cf41 9dbe f8e0 0abe e454 5ebc
00000050: bdce febd ef61 56be d695 5abd 0c93 19bd
00000060: d647 d23c 2c54 6c3e 3154 5ebe 8ecc d9be
00000070: e486 a2be 391b 9ebd 6e4c 05bf d543 5d3c
00000080: a4c6 ad3d 621b a2be e438 bb3d fc66 8cbe
00000090: f8cd 863d a0b1 f2be 92a7 46be 548f 523d
000000a0: 7bc1 c93e cc4e 33be d02a 983d ad90 14bf
000000b0: 7ddc 43bd ab0f 5ebe 4e3c 533b 630d c1be
000000c0: 4e7b 9b3e 38f3 f0bd e6a8 323e d5c9 f33b
000000d0: 197c 5bbb 1e8c 303e a532 49bd bb7c c2bd
000000e0: 5b1a 983c a85e 013d abbc 35bd a164 00be
000000f0: cd3e 53bd 2d24 dcbc 37d4 27bb ca7a 75be
00000100: 431c f0bd 6216 ddbd 9b22 bbbd 1f63 c83b
00000110: ec6d 663e de37 d3bd 1a08 3cbd 21b5 103d
00000120: 8aca a9bc 7f6d 01be 604e 553c 1184 bebe
00000130: e143 f7bd c429 23be 1dac 343e 8b02 dbbe
00000140: f1b0 ad3c 9f15 67bc 5942 fb3d 2b28 78bd
00000150: b5c7 15be 619f 463d 8b29 78bd 47d7 23be
00000160: 7a83 4f3d abbb bcbe 2ff4 a53c 2523 c4be
00000170: 73e7 33bd 22ee 58bd 3b03 1b3e 5fd2 d23d
00000180: 943a cfbc 24a4 eb3d 36bd a0bd ead4 793c
00000190: a211 913e d17e aabd 5aa1 20bc 026d 8bbd
000001a0: cd06 373e b372 f1bd 614c debe fa7e d0bc
000001b0: 1262 08be 9d1f 233d bcff 783e 8096 fd3c
000001c0: 583f aebe c207 0b3e c4c7 18be d7d4 f0bc
000001d0: 0583 68bd 207e 11bd b9fd 04bd a737 f5bc
000001e0: 8301 2bbc 30f9 98bd 1dd2 c63d 95ba 01be
000001f0: 60ab 76bd 147f f3be 6dce 4e3d 41dd 543e
-0.022503382 -0.11402596 -0.054789104 0.010704861 -0.12293638 0.23643321 -0.083738506 0.25557187
-0.0013326771 -0.16701685 0.2531597 0.10828995 0.019906564 -0.057807494 0.17333853 0.18583162
-0.49470255 -0.3071427 -0.13562381 -0.013570044 -0.12441776 -0.20935796 -0.05336555 -0.03749375
0.02566902 0.23078984 -0.21711804 -0.42538875 -0.31743538 -0.07720036 -0.5206975 0.013504942
0.08485153 -0.31661516 0.091417104 -0.2742232 0.06582254 -0.47401142 -0.1939986 0.05140622
0.39405426 -0.17510527 0.07430041 -0.5803326 -0.047817696 -0.21685664 0.003223199 -0.37705526
0.30367512 -0.1176514 0.17447242 0.0074398317 -0.0033490716 0.1724095 -0.049120564 -0.09496447
0.018567255 0.03158441 -0.04436938 -0.12538387 -0.051573563 -0.026872719 -0.0025608668 -0.23972622
-0.117241405 -0.10795285 -0.0913746 0.006115332 0.2250287 -0.1031339 -0.045906164 0.035328988
-0.020726461 -0.12639426 0.013019174 -0.37210134 -0.12073494 -0.15933901 0.17643781 -0.42775378
0.021202536 -0.014104276 0.12268514 -0.060585182 -0.14626963 0.04849184 -0.060586493 -0.1600009
0.050662495 -0.3686193 0.020258037 -0.38308063 -0.0439219 -0.052961476 0.15137951 0.10294031
-0.025296487 0.11505917 -0.07848589 0.015248517 0.28333765 -0.083249696 -0.009804094 -0.06807901
0.17873688 -0.11789455 -0.43417647 -0.025451172 -0.13318661 0.03982507 0.24316305 0.030955553
-0.34032702 0.13577178 -0.14919955 -0.029398365 -0.056765575 -0.035520673 -0.03246853 -0.029933764
-0.010437372 -0.07469404 0.09708045 -0.12668832 -0.06022203 -0.4755789 0.05048983 0.20787527

shared_backbone.0.bias f4 [64]
00000000: 0000 0000 48a0 04bc 8e28 7bbc 1ebe cbbc
00000010: 2299 53bd 17ee 54be 173e e93d a74f 23be
00000020: 0000 0000 93d8 75bd 0000 0000 4dcd 75bd
00000030: a478 ad3e 0000 0000 0000 0000 835b 1fbd
00000040: 0b52 43bd 3d83 87bd c250 f53c 77ad 75bc
00000050: 5e67 59be 40b6 4dbd 5dd7 75bd 193f c63d
00000060: cdbc 3abe e437 83bd d5e0 9ebd 0000 0000
00000070: eefa 71bd 0000 0000 0000 0000 0000 0000
00000080: 0000 0000 619a 31bd ced8 3a3e 01bd c4bd
00000090: e504 bebd 1839 7bbc 0000 0000 3f68 24be
000000a0: cf10 dd3d 34d4 8b3e 7b35 03bd 17a5 5a3e
000000b0: f75b 633e addc b2bd e3d8 75bd c958 87bc
000000c0: 7b5d 9cbd e9d8 75bd 3bbd 63be 33d6 febc
000000d0: 0b78 c23d 0000 0000 e9d8 75bd 59cd eb3d
000000e0: bed7 75bd 0000 0000 07d9 75bd 0000 0000
000000f0: 0000 0000 1a27 0e3e 47a7 92bd e9e5 463e
0.0 -0.008094855 -0.015329493 -0.024870928 -0.05165971 -0.20793949 0.11388796 -0.15948354
0.0 -0.060020994 0.0 -0.060010243 0.33881104 0.0 0.0 -0.03890563
-0.047685664 -0.066168286 0.029945735 -0.0149949705 -0.21230838 -0.050222635 -0.06001984 0.09680004
-0.18236084 -0.06407145 -0.07757727 0.0 -0.059077196 0.0 0.0 0.0
0.0 -0.043360118 0.18246767 -0.09606362 -0.09278277 -0.015333436 0.0 -0.16055392
0.107942216 0.27310336 -0.032033425 0.2135204 0.2220305 -0.08733497 -0.060021292 -0.016521828
-0.076350175 -0.060021315 -0.22240154 -0.031107998 0.09495553 0.0 -0.060021315 0.11513776
-0.0600202 0.0 -0.060021427 0.0 0.0 0.13882104 -0.07160812 0.19423641

shared_backbone.2.weight f4 [64, 64]
00000000: 04de e6bd c184 553e 0fcb 88be f51e e13e
00000010: 1d94 233c 8fdd 98bd fa97 b8bd 518d 4ebe
00000020: a503 9e3c 6041 5dbd 7225 4ebd 23b6 883d
00000030: 3d8b 8abe b1f3 42be a4b0 ff3d b36f d33d
00000040: db53 aa3e f5c2 123e e64b 51bd 98a5 0ebe
00000050: 9dc9 07bd 66b4 02bf 55a5 843d 75c8 88be
00000060: ae22 61be 8b5d 6f3e 6b3d f1bd 7e51 96be
00000070: 5ba8 a9bc 8c7a 773e 3f8d fc3d fe12 b9bd
00000080: 8acc 34be 0ab9 52bd ed56 403e e3ee a9be
00000090: 7298 89be f74c 6bbc 179e 793e c41f dfbd
000000a0: a787 62bd 177b 0fbe 12ab 20be 4e2e 853d
000000b0: a4d6 24be 1938 8bbd 7f10 e8bd 63c8 b6be
000000c0: 5497 e2bd 8a64 0d3e 94d6 7abe f7ce 7d3d
000000d0: 313d 15bc 41c5 2fbb c4f4 69be de09 47bd
000000e0: 4833 efbd 26c6 533e 6daf 103e 32e2 aa3e
000000f0: 2503 7abc af31 c7bd c425 813e 72cf aebd
00000100: d02f 07ba c363 59be 52d6 8e3d 88f8 ba3e
00000110: 463e 9fbe 7ec5 fb3b 1846 6fbe 9964 47be
00000120: ffc6 3c3e 4c39 abbe 60bf a03e 7391 e6bd
00000130: c6d6 1f3e 630f 21be 0d8a df3d a2db 9b3c
00000140: ad46 843d 3386 7e3e 893a 5f3e 6ce6 563e
00000150: cbd2 723d bfc6 3bbe d9e9 3d3e f80c fa3d
00000160: 46b2 1bbd 289d 47bd adcb 83be d19f 5d3c
00000170: 349d 4bbe a138 a6bd e790 fbbd 1beb 7b3e
00000180: 36c3 643d 2bdc b7bd 07a4 c2bd 4eb2 ccbd
00000190: dc78 993d b63e df3d 6781 40be eb7b 78bd
000001a0: 25f4 dbbe e761 8fbe 4d11 ecbd 84de 96be
000001b0: 1c64 07be 9aa1 92be 176d 05be 3426 28bd
000001c0: 4ff3 90be b3e7 1f3d 8fd6 c0be d553 17bd
000001d0: ad12 8cbd 9704 843e b841 8dbd d6f2 7c3e
000001e0: cc79 0cbd 5bd1 87be 2cef f0bd 7768 91be
000001f0: a979 0f3c 07fa 07be 6f9a eabd 8664 18be
00000200: 7db3 a1bd 8fc3 c83d a5ca dfbd 3c37 01be
00000210: 5cf3 2dbe 7081 73be 6cc1 28bd fc03 4ebe
00000220: 9f2b 23be 480b 48bd ada3 653c d904 a73d
00000230: 709d b73e 3d5d 8cbe cde6 b9bd 4363 463e
00000240: 0ca5 fb3d 1266 de3d 4c87 d4bd d35f 833d
00000250: b43a ab3b b5a7 4f3e 16cc 84bd 7c42 e7bd
00000260: 1398 a73e 6d8d 5f3e 53d4 a2bd 03ed 07be
00000270: cefc dabe 5edc 9fbc 7781 0b3c 1632 bebd
00000280: 5095 57be 7592 5fbd 2867 93be 77b7 07be
00000290: 9bc0 d4bd 755f 28be 8fdb c33c 4dcb a3be
000002a0: cec9 f5bd 47cf 2dbe 9708 5b3e 8644 1cbd
000002b0: bb0a 21be c84e ef3d 1ea9 d43c c782 90bd
000002c0: 1e58 f73c 5c07 28be 0814 4f3d 1eee 19be
000002d0: f3ee dfbe 08c6 0bbe 1a09 d63e 5a40 d1bd
000002e0: 77e3 eebd 331a 653e e974 59bd f01d 853d
000002f0: 2bbd 643e ff4f c6be 2ef9 b4bd e262 fbbd
00000300: e918 0abc 21ff 45bd cfdc 16be 44fd c53d
00000310: dd1c 913c e0d4 663e 27b2 de3d f25a eebd
00000320: 3ad0 903e 27d3 9e3e b070 11be 46e2 803e
00000330: 1383 3fbe b741 fc3d 95e5 4e3e 5ccd 0b3d
00000340: daf6 45be 3c68 9c3c b1f9 423e 3606 66bd
00000350: 2883 053e 64fe 14be 3dd1 af3c fa44 bd3d
00000360: 4c50 7d3e 4fd9 46be e738 29be 55d7 98bb
00000370: 8f2e fdbe 04b7 22be 33ef 53bd 804b 923c
00000380: 0e9f 23bd b9d0 d6bb 086a f5bd ab53 28bd
00000390: 9617 a33e a6f4 833e 3cbb 5c3e 81d5 0bbe
000003a0: 3164 33bc b8c3 7a3e 3d99 57be e8b8 bd3d
000003b0: 5a0b 4a3e 0e59 f6bd 3f95 26be 0bda 99be
000003c0: 3341 893e 7b84 873e 05b9 073e cebc d83d
000003d0: c647 62be fd8a 35be 3623 4abd 8c3b 5abe
000003e0: 7209 2cbe da56 a13d 2ddb b5be bbf1 4dbe
000003f0: 18e5 243e 23cf efbd f112 213e b0c4 f9bd
-0.11272815 0.20851423 -0.2671742 0.4396893 0.009984043 -0.07464134 -0.09013362 -0.20171095
0.019288847 -0.054017425 -0.05032868 0.06675365 -0.27059355 -0.19038273 0.124848634 0.10324039
0.33267102 0.14332183 -0.051097773 -0.13930357 -0.033151258 -0.51056516 0.06476847 -0.26715437
-0.21985886 0.23375528 -0.11779293 -0.2935905 -0.020710161 0.24167842 0.12331628 -0.090368256
-0.1765615 -0.051446 0.1878316 -0.3319007 -0.2687412 -0.014361612 0.24376713 -0.10894731
-0.05530515 -0.14011799 -0.15690258 0.065029725 -0.16097504 -0.06797809 -0.113312714 -0.35699758
-0.1106402 0.13807884 -0.24495918 0.061964955 -0.009108827 -0.0026820453 -0.22847277 -0.048593394
-0.11679703 0.20681056 0.1412942 0.33375698 -0.015259539 -0.09726273 0.25224125 -0.08535661
-0.0005156966 -0.21229462 0.06974472 0.3651774 -0.31102198 0.007683455 -0.23366582 -0.19471969
0.18435286 -0.33442152 0.31396008 -0.11258211 0.15609273 -0.15728526 0.10915003 0.019025628
0.06458793 0.2485588 0.21799673 0.20986336 0.05928306 -0.18337534 0.18546237 0.12209505
-0.03801181 -0.04873386 -0.2574133 0.013526873 -0.19884187 -0.0811627 -0.12283497 0.24601404
0.05585023 -0.089775406 -0.09503942 -0.099949464 0.07493755 0.10900633 -0.18799363 -0.060665052
-0.42959705 -0.2800438 -0.11526737 -0.2946664 -0.13221782 -0.28638917 -0.13029896 -0.04105206
-0.2831063 0.039039325 -0.37663695 -0.036945183 -0.068394996 0.25784752 -0.068973005 0.2470201
-0.034295842 -0.26526913 -0.117643684 -0.28400013 0.008757033 -0.13278972 -0.11455237 -0.14882097
-0.07895563 0.09802925 -0.10927323 -0.12618726 -0.16987365 -0.23779845 -0.041200086 -0.20118707
-0.15934609 -0.048838884 0.014016074 0.081552215 0.35862303 -0.27414885 -0.09077225 0.19373803
0.122873396 0.10859312 -0.10377368 0.064147614 0.005225504 0.20278819 -0.06484239 -0.11291978
0.3273321 0.21831293 -0.07950654 -0.13274007 -0.42771 -0.019514259 0.008514754 -0.09286897
-0.21053052 -0.05458303 -0.2878964 -0.1325358 -0.10388299 -0.16442664 0.023908405 -0.31991044
-0.12001382 -0.16973601 0.21389996 -0.038151287 -0.1572675 0.11684948 0.025959548 -0.07056194
0.030193385 -0.16409057 0.050556213 -0.15032241 -0.4373699 -0.13649762 0.4180382 -0.10217352
-0.11664479 0.22373275 -0.05309001 0.06499851 0.22337787 -0.38732907 -0.0883659 -0.1227472
-0.008428791 -0.048339013 -0.1473267 0.09667447 0.017713958 0.22542143 0.108738236 -0.1163844
0.28283864 0.3102047 -0.14203143 0.25172633 -0.18702345 0.123172216 0.20204766 0.034131393
-0.19332448 0.019092672 0.19040562 -0.056158267 0.13038313 -0.14550167 0.021462077 0.09241672
0.24737662 -0.19418834 -0.16525613 -0.0046643415 -0.49449584 -0.15890127 -0.05174179 0.017858267
-0.03994661 -0.0065556434 -0.119831145 -0.041095417 0.31853932 0.2577259 0.21555799 -0.13655664
-0.01094918 0.24488723 -0.2105455 0.09263784 0.19730893 -0.120287046 -0.1626787 -0.30049166
0.26807556 0.26468262 0.13254173 0.10582887 -0.22097692 -0.17728801 -0.049349986 -0.21311778
-0.16800478 0.07877894 -0.3551878 -0.20111744 0.16103017 -0.1170943 0.15729882 -0.12195718

shared_backbone.2.bias f4 [64]
00000000: ecd8 75bd dd89 63bd dde6 1bbd d5ab d5bc
00000010: 0000 0000 0000 0000 0000 0000 d0bf 723e
00000020: 207a 11be 257a 09bd b27f 2e3e dcf2 f23d
00000030: 949c be3d ad7e ff3c a434 9f3e 0000 0000
00000040: f8aa 6cbd 9828 05be 82f6 5abd 4926 483e
00000050: 98d8 75bd 0631 803e 7fd8 75bd 98d7 75bd
00000060: 37e8 683a cfdc e63b 12ca 75bd 4bd0 5f3e
00000070: 7afe 0cbd 7d99 b1bd dd30 d9b8 0000 0000
00000080: 0000 0000 c8d8 75bd 649c 7cbd 8726 8bbd
00000090: 99a9 583e ed03 9e3c 0000 0000 15d8 5abd
000000a0: 6868 953e 1ed7 75bd ff44 a0bd acf8 2a3d
000000b0: 437c 61bd cbd6 75bd 0ecf 07bd 6222 6abd
000000c0: 0ed6 b3bc 1369 55bd 0000 0000 3bf7 823e
000000d0: 22ef 1dbd 897b 59bc 8059 5fbc 0000 0000
000000e0: e88d 4fbd 7cd7 75bd 87d4 75bd ef4d a03e
000000f0: 16a9 e8bd 3133 d8bd 0000 0000 61d1 b8bd
-0.060021326 -0.0555514 -0.038061965 -0.026082912 0.0 0.0 0.0 0.23705983
-0.14206743 -0.03356375 0.170409 0.11862728 0.09307209 0.031188333 0.3109485 0.0
-0.057780236 -0.13003767 -0.053457744 0.19545855 -0.060021013 0.25037402 -0.06002092 -0.06002006
0.00088847004 0.0070453654 -0.060007162 0.21856801 -0.034422375 -0.08671854 -0.00010356468 0.0
0.0 -0.06002119 -0.061672583 -0.06794458 0.21158446 0.019288981 0.0 -0.053428728
0.29181218 -0.060019605 -0.0782566 0.04174106 -0.055050146 -0.060019296 -0.033156447 -0.057161696
-0.021952655 -0.05210216 0.0 0.25579247 -0.038558133 -0.013274082 -0.013632178 0.0
-0.05067244 -0.060019955 -0.060017135 0.3130946 -0.113603756 -0.10556639 0.0 -0.09024311

goal_head.weight f4 [2, 64]
00000000: 4fb2 80bd a0d6 a4bd 14d3 6b3b b827 86bc
00000010: 3979 9abc 2320 153d 08c5 9d3e 85ab 0dbf
00000020: adcf f2bd f49b eebb b8ae 12bf e311 95be
00000030: 150c a2bd a133 6bbe 34d0 cdbe 0a0b ce3d
00000040: ea88 7ebc 5a12 863d eb5c e6bd 1193 efbd
00000050: 2b7c d9bd 8355 0fbf 1c1c 4e3d 7fbf cc3d
00000060: 1f77 21be c867 8d3e b2af 9abd ca3c 24bf
00000070: 9332 3e3d 47f6 20be 49dc 953e f0f2 a13e
00000080: 9333 ce3c b33f b83d d25c 3bbe 1971 b7bd
00000090: b0af 67be a730 b7bd ad2a 843e c61d 07be
000000a0: 1e4c 07bf f407 153e 9a20 9d3e 06b1 d33d
000000b0: 9826 2abd 3e3a 923e 65a6 2ebc 01d9 ac3e
000000c0: aabd 8d3d 00e1 6fbe 33a6 e23d 8586 3bbf
000000d0: cecf 57bd 3afb a73e a37e 4b3d 7009 313e
000000e0: 638c 2a3e eb7f 903e ca9a a43d 9e31 57bf
000000f0: caa8 3fbe 0386 743d 8169 60be d58d 793d
00000100: 9813 6e3e ff97 9abe 7ce4 a03d 41fc d6bb
00000110: bd07 403e 6940 9ebd 1c98 47be 75bd b53e
00000120: 68ba 18be 7153 fd3d 626b 9e3e 61f8 b43e
00000130: 54e6 5d3e 9c21 fd3a 04e0 fc3e 4f8e ed3c
00000140: ec51 1cbe e4fb ae3d 762d a3bb 2c32 2c3f
00000150: ad31 99bd 6469 aa3e 76d8 df3d acd8 7cbe
00000160: 479b 963e 1f99 1d3e ac39 31bd 2d31 253f
00000170: 1f82 a9be 07a5 13be 5dd9 a9bd dc84 043e
00000180: 3c87 45be ce46 813d 62db 90be d10e 89bd
00000190: 2f08 3f3e ed76 a03d 6325 16be 0ce3 073c
000001a0: c37f ea3e 77be b73d 1cf2 2d3e d1b3 b53e
000001b0: b76e 353d 41bf 3ebe 3511 423e 02e2 6bbe
000001c0: 3b21 7a3d aa5c dabd 09d1 b43d c47b 153f
000001d0: 60c0 05be 2662 90be 9f3e 943d 9376 3cbd
000001e0: 56ee db3d 1301 733e b8da 85be 3b9d c03e
000001f0: ed18 d8be ae8e 703d 5478 7cbe 92b2 583d
-0.0628401 -0.08048749 0.0035983967 -0.016376361 -0.018856632 0.0364076 0.30814385 -0.55339843
-0.11856017 -0.0072817747 -0.5729785 -0.2911521 -0.07912461 -0.22968914 -0.4019791 0.10060699
-0.015535573 0.06546469 -0.112481914 -0.116979726 -0.10619386 -0.55989856 0.050319776 0.099974625
-0.15768097 0.2761824 -0.075530425 -0.64155257 0.04643495 -0.15718947 0.29269627 0.3163066
0.025171077 0.08996525 -0.18297127 -0.089571185 -0.22625613 -0.089448266 0.2581381 -0.13194951
-0.5285052 0.14553815 0.30688936 0.10336499 -0.041540712 0.2856006 -0.010659789 0.3375931
0.06920941 -0.23425674 0.11066856 -0.73252136 -0.052688412 0.32808858 0.049681317 0.17288756
0.16655116 0.28222594 0.08037336 -0.84060085 -0.18716732 0.059698116 -0.21915247 0.060926277
0.23249662 -0.3019409 0.0785608 -0.0065608327 0.18752952 -0.07727129 -0.19491619 0.35496107
-0.14914858 0.12369431 0.30941302 0.35345748 0.21669894 0.0019312385 0.4938966 0.028998522
-0.15265626 0.08544138 -0.0049797846 0.67264056 -0.07480178 0.33283532 0.109299585 -0.24692029
0.29415342 0.15390442 -0.04326789 0.6452816 -0.33107087 -0.14418422 -0.08293412 0.12941307
-0.19289869 0.06312333 -0.28292376 -0.06692279 0.18655466 0.07835183 -0.146627 0.008293878
0.458006 0.08971875 0.16986889 0.35488752 0.04429504 -0.18627645 0.18951876 -0.23035434
0.061066847 -0.106622055 0.08828933 0.58391976 -0.13061666 -0.2819988 0.072385065 -0.04601152
0.10738818 0.23730879 -0.26143432 0.37619957 -0.42206517 0.05872982 -0.24655277 0.052904673

goal_head.bias f4 [2]
00000000: f0f2 bbbe f1f2 bb3e
-0.36708784 0.36708787

portfolio_head.weight f4 [15, 64]
00000000: b2cc 82bd 2b29 97be 70d8 2abe 4f17 95bd
00000010: 60fe 03be f8d7 293e 5989 d93d 0893 c5be
00000020: 3440 f13c 710f 293e 3e2b 5b3d 4e82 083e
00000030: df18 8fbe b003 b93d 43fd 78bd b61f d8bd
00000040: 5702 3cbe b9f5 e83b 0aaf 8fbd cf9a 0bbe
00000050: 1b3f e43e a9ef ec3e 068a 653e a3ba 843d
00000060: ae47 c23d aaa7 0fbe 8b1f 9f3d 5884 4f3e
00000070: 7473 0f3e 81a4 aebe a8d5 8e3e 100b 953d
00000080: a3d5 c3bc 8d87 62be c981 2e3e 42b8 0ebc
00000090: a6f7 e93d 6e41 09be d21f 78ba f87a 983d
000000a0: e42c 98be 855c 5b3e 5c3a 91be f6b8 f3bd
000000b0: e97c 01be 1834 ef3d acb7 2abe 1c70 903d
000000c0: 3844 91be 31f3 e33d a0c9 c83d b1b8 bdbd
000000d0: 2de7 f93c 8a35 963d ddc7 913d 27ee 7e3e
000000e0: 1dac 1dbe 633a f13e 8a5b 403e 34fd dabb
000000f0: f6d1 aabd 4946 74bd f758 9cbd 90af b93e
00000100: 2ccd 1ebc 1797 a8bd 037a 863d 3696 943e
00000110: 500e efbd 7c3a 733e 9a57 f0bd d8e9 7a3e
00000120: 3682 fcbd 8e2d 1abe b2bd 0dbd 0c46 f93d
00000130: 0d28 be3d dd36 af3d cb5f db3c 8db6 3abe
00000140: 45ab db3d 79c4 a43d 50f9 6d3e f69a 8c3e
00000150: 1059 be3d c698 233e d09e 43be cfdc 373e
00000160: 1731 903d 706d c8bc 9e71 85be cb29 b7bd
00000170: 7913 b93d 2fc1 8e3d 69c9 8c3e b155 09be
00000180: 9cd6 3e3e 912f eebd 03fd 96bd 52b6 0abe
00000190: 2cf2 3fbd 8887 8dbd 19eb 173e 3ff0 a5be
000001a0: 211b 9c3e 9b20 e93e 327f acbe 8c84 d5bd
000001b0: 7862 283e ed60 b23d 0af5 273e 3305 57be
000001c0: ec61 1f3d bab3 413e 7993 43bd 5055 ad3c
000001d0: 27a4 afbd 9607 b23e f88f 01be 8258 34be
000001e0: 0c7a efbd e30a 3f3e 7419 2cbe 81cd 9d3d
000001f0: 3f44 943e 4081 9cbd 7a49 1e3e fe8d d83d
00000200: b00d be3d 5d57 d43d 0194 223d 9d6e f9bd
00000210: 5974 553e 0009 403e 80e0 f23d 42ab b63d
00000220: 6da6 083e ecad b13d 057d 473e ffc4 ce3e
00000230: 0d3a 693e 9abd 14bd 10fc a93e d47b 04be
00000240: 053d 14bd 4ffc 22be 9270 c0bd 347c 323e
00000250: fb2d e1bd 6281 773e e32e 353e 0707 8ebe
00000260: 701b 603d 525e 85be 89f3 7cbc f7ee 4b3c
00000270: c449 36be 6ec6 d03d f6ed 56be 695a 4ebe
00000280: 88b3 91be c4e5 1ebe 56da 963d 477f 13be
00000290: f6e4 5b3a 038d 313e 32b6 63bc e10f 9ebb
000002a0: 41b0 8a3e 8911 5c3d 290d f33e 0731 7cbe
000002b0: f6d7 0b3e c6ce 2ebe c64e 253d ea64 d6bc
000002c0: 3962 81be 5c90 093e 6650 be3d acf0 9dbe
000002d0: b4f2 0fbf 8e05 1bba e675 08bd 330b 333d
000002e0: 2b3a b7bd aff6 1e3d f542 49bd 2235 3b3e
000002f0: d351 153e 30c0 28bd 217c 353c 39eb 8dbe
00000300: 5fca 86be d6df 9fbe 2bf6 d73d 9073 74be
00000310: f551 c93d ee52 783e 4613 0abe 6b2b 4dbd
00000320: 89d0 c53d 701c 2fbe f4a2 973d 7358 d53d
00000330: cf93 00be df07 1d3d 24b4 8c3e f716 823e
00000340: 0c74 763d 6618 ccbe 1267 3e3e 1ecf 23be
00000350: ce64 2ebd 1ab6 393c 9432 5cbe 077a bc3d
00000360: 22b1 ea3b 3a3b e33d 9669 70be c8b0 b53d
00000370: a0df 1b3e fb38 a4be 9711 13bb a94f 80bd
00000380: cebb 8f3c 4657 253e 8f4a 40be c8de 55be
00000390: 8e45 c53d ad7b 83be fed8 e9bc 0f4e 513e
000003a0: 9380 4abe f8d1 42be c4d8 b9be 8773 41bd
000003b0: badf 7ebc 9dc8 84be 7c65 5b3d a35b af3d
000003c0: ce3c 40be 9e3e bf3d 8303 9c3e 3490 9d3d
000003d0: 1a88 52ba 1f10 993d 9049 f73d 4a4a 61be
000003e0: 2879 72bc 55f6 25be 63ba 9a3e 27d0 103e
000003f0: 67f9 d9bd 5e50 09be bdbf 3e3e 7a2c a9be
-0.06386699 -0.29523596 -0.16684127 -0.072798364 -0.12890005 0.16586292 0.106219 -0.38588738
0.02944956 0.16509797 0.053508036 0.13330957 -0.27948663 0.090339065 -0.060788404 -0.105529234
-0.18360268 0.0071093705 -0.07015808 -0.13633274 0.44579396 0.46276596 0.22415933 0.06480911
0.09486328 -0.14028803 0.07769688 0.20265329 0.14008886 -0.34109882 0.27897382 0.07277501
-0.02390558 -0.22122021 0.17041697 -0.008710923 0.11424188 -0.13403866 -0.0009465191 0.074453294
-0.2972175 0.21422012 -0.28364837 -0.11900513 -0.12645306 0.11679858 -0.16671628 0.07052633
-0.2837236 0.111303695 0.09804082 -0.09263743 0.030505741 0.073344305 0.07118199 0.24895535
-0.15397687 0.47114858 0.1878492 -0.006683016 -0.08340828 -0.05963734 -0.07634156 0.36266756
-0.0096924715 -0.08231943 0.06566241 0.29020852 -0.11672652 0.23752779 -0.11735459 0.24503267
-0.12329523 -0.1505644 -0.034604736 0.121715635 0.09284983 0.08555386 0.026779076 -0.182337
0.107260264 0.08045287 0.23239636 0.27461976 0.09294331 0.15976247 -0.19103551 0.17955326
0.07040613 -0.024466246 -0.26063246 -0.08943518 0.09036917 0.069704406 0.27497414 -0.13411595
0.18636554 -0.11630166 -0.07372477 -0.13546112 -0.046861812 -0.06910616 0.14835776 -0.32409856
0.30489448 0.45532688 -0.33690792 -0.10425672 0.16443813 0.087098934 0.16402069 -0.20998077
0.038911745 0.18916216 -0.047748063 0.021158844 -0.085762314 0.34771413 -0.12652576 -0.17611888
-0.116932005 0.18656497 -0.16806585 0.077052124 0.28958318 -0.0764184 0.15457717 0.10573958
0.092799544 0.10368226 0.03969193 -0.12179301 0.20845164 0.18753433 0.11859226 0.089193836
0.13344736 0.08675751 0.19481285 0.4038467 0.22776051 -0.03631363 0.3320012 -0.12937862
-0.036191005 -0.1591656 -0.09396471 0.17430192 -0.10995098 0.2417045 0.17693667 -0.27739736
0.054713666 -0.26048523 -0.015438923 0.01244711 -0.17801577 0.101940975 -0.20989212 -0.20151676
-0.28457284 -0.15517336 0.07365863 -0.14404021 0.0008388305 0.17338948 -0.013898419 -0.0048236703
0.27087596 0.05372766 0.47470978 -0.24628077 0.13656601 -0.17071065 0.040358327 -0.026171166
-0.2527025 0.13433975 0.092926785 -0.3084768 -0.5622971 -0.00059136085 -0.03331556 0.043711852
-0.089466415 0.038809475 -0.04913612 0.18281987 0.14581995 -0.04119891 0.011076958 -0.27718523
-0.26326272 -0.3122546 0.10545 -0.23872209 0.09830085 0.24250385 -0.13483915 -0.050090235
0.096589155 -0.17100692 0.07404128 0.10417261 -0.12556385 0.038337585 0.27481186 0.25408146
0.060169265 -0.39862365 0.18594006 -0.15996978 -0.042576604 0.01133492 -0.21503669 0.09202962
0.007162229 0.11095281 -0.23477778 0.08871609 0.15222025 -0.32074723 -0.0022440904 -0.06265194
0.017545607 0.16146573 -0.18778442 -0.20885766 0.09632407 -0.25680295 -0.028545853 0.20439933
-0.1977561 -0.19025409 -0.36298192 -0.047229316 -0.01555627 -0.25934306 0.05356358 0.085624
-0.18773195 0.09338115 0.3047143 0.0769352 -0.0008031145 0.07473778 0.12074578 -0.22000995
-0.014799394 -0.1620725 0.30220327 0.14141904 -0.10643273 -0.13409564 0.1862783 -0.33041745

portfolio_head.bias f4 [15]
00000000: ee5c dcbc 21f1 e13d e937 533d 42da 3a3d
00000010: c821 89bd b3b3 52bd b9ee d0bd d191 9b3d
00000020: 7ede d4bd 2fd7 0ebe c609 693d 7d61 29be
00000030: 1baa 273e 8bb6 e63d ce02 a93c
-0.026899781 0.1103232 0.051566992 0.045618303 -0.066958964 -0.051440906 -0.10201783 0.07596172
-0.103939995 -0.13949274 0.056894086 -0.16541095 0.16373484 0.11265286 0.02063122

network.0.weight f4 [64, 2]
00000000: e3b7 56bd beba 6b3b 0ba1 233f b1f5 cb3e
00000010: 378a 4dbd 26c3 0cbe 3e07 3abe 4cf0 41be
00000020: b114 78be 10bd 39bb cbf3 9ebe f930 75be
00000030: 85c0 c8be 62f7 43bb f4ac b2be f573 ab3d
00000040: 618d 9fbe 8080 c3be fe71 62be 3263 0a3e
00000050: f16d eebe e94e 923e 3613 9ebe f754 67be
00000060: a876 ccbe 5a51 9bbc 1dd5 6bbe 37cd 4e3d
00000070: 11f9 8abd b1e5 dcbd 3fe5 92bd 10b5 82bc
00000080: 2e3b 13bd b200 f3bd 5f53 0fbd b100 ddbc
00000090: b6fe d5bd 613e b5bd f6a9 34bd 918e 42bd
000000a0: dc9f e0be 0b30 053c 3728 123f ef49 b13e
000000b0: abac d7be ec67 1a3c 13f0 62be 83d3 33be
000000c0: 884c 2ebe e4ed 6fbe df55 493f 17a8 b43d
000000d0: 7d69 a3bd 08e9 78be 4548 9abe 2031 b5bd
000000e0: a5ea 49bd d006 fd3d 581c 1b3f 15d1 1c3e
000000f0: 0368 eabe e240 df3c 0995 ccbe e7e2 403c
00000100: 32fb dabe c15d 80bd 72e3 6abe 0521 363b
00000110: b800 01be c3f2 54be 1624 1cbd d6d0 f1bd
00000120: 3160 d4be d06c 9c3d 2ad3 88be 7cec 11be
00000130: 2290 a1be c636 70bb c793 5abe 7e0c 82bd
00000140: e3cb bb3a c1b1 07bf 0c41 29be 8d7a 513e
00000150: e61b d1be 475a dabd 50a4 ccbd 2114 ddbd
00000160: ad00 e8be 9dca cdbb 1025 bbbe cc76 c03c
00000170: d466 cabe d12f 293b c645 3cba bdfa d7bc
00000180: def8 e1bc a2a3 7dbd d16f 853b ed09 fabd
00000190: 9ef9 efbe 8419 9b3c 2f63 d7be 1769 50bd
000001a0: cd4f 32be 17a5 4ebd fe74 45be b3a2 50bd
000001b0: 171e fdbe b5a4 7c3e ec44 d9bd fc8b 513e
000001c0: b941 c7be 6744 df3d a6c8 a3bb 57e7 073e
000001d0: f543 dcbe 88ec b63b 14e8 b1be 049c a1ba
000001e0: c968 e7be d71c 343d ff19 9a3e 80ff b3bd
000001f0: abca 0b3f 2258 873d d2c6 e0be 3e4c c23d
-0.05242146 0.0035969461 0.6391761 0.39835885 -0.05018064 -0.13746318 -0.18166825 -0.18939322
-0.24226643 -0.002834145 -0.31045374 -0.23944463 -0.3920938 -0.002990209 -0.34897578 0.083717264
-0.3116255 -0.38183975 -0.22113797 0.13514403 -0.46568254 0.2857583 -0.30874032 -0.22591005
-0.39934278 -0.01895969 -0.23030515 0.050488677 -0.06785787 -0.10785998 -0.071726315 -0.015955478
-0.03594511 -0.11865367 -0.03499162 -0.026977869 -0.10448973 -0.088497885 -0.0441074 -0.047499243
-0.43871963 0.00812913 0.57092613 0.3462672 -0.42123923 0.009424191 -0.22161894 -0.17561154
-0.17021382 -0.23430592 0.78646654 0.08821123 -0.07979105 -0.24307644 -0.30133262 -0.088472605
-0.04929604 0.12354815 0.60590124 0.15314133 -0.4578248 0.027252618 -0.39957455 0.011772848
-0.42769772 -0.06267882 -0.22938326 0.0027790677 -0.1259793 -0.20795731 -0.03812035 -0.118074104
-0.41479638 0.07637942 -0.26723605 -0.14250368 -0.31555277 -0.0036653741 -0.21345435 -0.06350039
0.0014327731 -0.53005606 -0.1652872 0.20456906 -0.40841597 -0.1066175 -0.099922776 -0.10794855
-0.45313016 -0.006280257 -0.36551714 0.023494147 -0.39531577 0.0025815854 -0.0007182028 -0.026364679
-0.02758449 -0.06192363 0.0040721674 -0.122089244 -0.4687013 0.018933065 -0.4206786 -0.05088147
-0.17413254 -0.05045041 -0.1928291 -0.050936412 -0.4943702 0.24672206 -0.10608849 0.20463556
-0.3891733 0.109017186 -0.0049982844 0.13271843 -0.43020597 0.005582396 -0.34747374 -0.0012329821
-0.45197132 0.043972816 0.30097958 -0.08788967 0.5460612 0.06608607 -0.43901688 0.09487198

network.0.bias f4 [64]
00000000: e18c b3bd 1e92 ee3e 23d6 75bd 0000 0000
00000010: 991c 58bd b296 ed3e 31f5 ad3e 530b eb3e
00000020: c12d b63e afc8 75bd 8fec 393f f436 c03e
00000030: 4d51 b03e 496f e53e 0000 0000 0000 0000
00000040: 5140 a8bd 0000 0000 0000 0000 eed8 75bd
00000050: 896f c23e c555 1c3f 36af ba3e 18c5 553e
00000060: 0000 0000 baa2 0d3f 0000 0000 6ffc 883e
00000070: 1fd1 75bd 2c68 113f b7be 213f 42c5 b03e
00000080: 03d5 c03e 0455 ef3e 0000 0000 4cd8 75bd
00000090: a7bc 75bd aede 9d3e a0f0 893e 0000 0000
000000a0: 0000 0000 fad7 75bd 9c81 b93e 0000 0000
000000b0: 57bd c93e fbcd 9f3e 4f6f af3e 0000 0000
000000c0: 0000 0000 04d6 fdbd dee7 ce3e 2f9b bd3e
000000d0: 0000 0000 f9d6 75bd 8239 3b3f 6f56 abbd
000000e0: 60bb 0b3f b0bb 04be ec9c bf3e 7010 9b3e
000000f0: 5625 253f a572 063f e7c0 fb3e 3223 bb3e
-0.08767105 0.46595854 -0.06001867 0.0 -0.052761648 0.46404034 0.3397613 0.45907077
0.35581782 -0.06000584 0.72626585 0.37541926 0.34437028 0.44811466 0.0 0.0
-0.082153924 0.0 0.0 -0.060021333 0.3797572 0.61068374 0.364618 0.20875967
0.0 0.55326426 0.0 0.26755092 -0.060013887 0.5679958 0.6318163 0.34525496
0.37662515 0.4674455 0.0 -0.06002073 -0.059994366 0.30833954 0.26941395 0.0
0.0 -0.060020424 0.36231697 0.0 0.39402267 0.31211838 0.3426461 0.0
0.0 -0.12394336 0.40411276 0.37032458 0.0 -0.060019467 0.73134625 -0.08366095
0.54582787 -0.12962222 0.3742441 0.30285978 0.64510095 0.52518684 0.4917061 0.3655029

network.2.weight f4 [64, 64]
00000000: 7916 33be 76d0 8a3d 391d 053b 7dce adbe
00000010: 1f1d 95be 4563 2d3f 9cc0 3fbe 5a7f 9d3e
00000020: d8b0 113f 5b0a d43e eb3e 833f ed7e 083e
00000030: 66aa 363e fad0 123f 5887 053e 6291 793e
00000040: 8766 c83c ca60 85be f454 0e3e 3b94 84bd
00000050: c651 873e c4ab 4b3e 803e f4bd 8261 833d
00000060: 6e9b efbc 000f 50bd 047a 0abe 08bd 933d
00000070: d174 043e e718 1dbe aa82 063f a4d0 11bc
00000080: edf3 6f3e b14f 423e af33 2abe 8efa 2a3e
00000090: f0c3 203e 649e 913e e13e d7bb 5c22 f33d
000000a0: 7515 043e de57 8ebd 998d 6c3e 9e76 033e
000000b0: b203 523d f311 00be b8bb 263e 438c 0abe
000000c0: e036 c0bd 44e8 20bd ca75 1a3e 7e7c 873e
000000d0: 51c0 ddbd 1289 e2bd 11af 5e3f a8b2 1e3d
000000e0: 3965 b03e 64cb c43e fb76 ef3b d7f7 803e
000000f0: 735d 153f d394 913b 4c78 a8bd 34f7 0b3d
00000100: a2b3 083e d06a bc3d 8935 713d 9e69 94be
00000110: 5bfb 9b3d c572 283f 16b4 65bc 7176 1b3f
00000120: e6d0 cbbd 79eb b83d 3d56 473f 11b3 9d3e
00000130: b400 033e 5b79 a63e 6748 533d d7d0 cbbd
00000140: 1174 2ebe 0556 b63c 4a15 973e d0de b1bc
00000150: a3a0 7d3e 2236 c53e 00c9 a23e bc93 603e
00000160: 2fe8 c6bd 54d5 0fbd ffb0 c3be 77bc 3d3e
00000170: e5d4 aa3e 1562 a1bd d6a4 443f 5937 983e
00000180: 292c 0ebd a7e5 fe3e bc11 0c3d e251 e6be
00000190: 6d12 edbc a3c2 0ebc c598 85bc c149 ee3d
000001a0: 2f79 793e 1724 58be 27a6 583e d1bd aabe
000001b0: 61c3 883e 6b10 64bc 5aa6 913e 2026 d23d
000001c0: b961 27bd 03d0 1dbd 8de1 943e 803e c13e
000001d0: aec4 813d 64d4 6d3e 7d7f 2d3f 495f af3d
000001e0: 29a4 4f3f 593f babc ecc0 cfbd ad7a 24be
000001f0: e394 623f 52f4 503e bc82 b4be 105d 1e3e
00000200: 76a6 a23d be14 783d 7a02 5bbd 8016 07be
00000210: 338b 42be 2041 1f3f 00b9 113f 4821 ec3e
00000220: 0288 cc3d 4b21 a2be 3790 0f3f 8595 be3d
00000230: 2d80 2cbe 7b8a 473f 7cbb 83bd a0c4 c8bd
00000240: ee4b aabd 522c 4ebe f30b f4bc 3b91 8ebe
00000250: c1d1 543e 3cf6 ee3d f50e 93bc 935b 2cbe
00000260: 87ca 7bbe ec54 31be 2d6a f33d 2780 88be
00000270: 1df7 14be 7ba6 1b3e 3fa0 573f 8741 3b3e
00000280: 6e1a c9bc 9d30 063e 1bc7 35be 88a2 e03c
00000290: e85e d9bd 66c2 aabd 1141 0c3e ddaa 863d
000002a0: 8715 37bd 4e82 cebe 5f60 333e 26bc 143e
000002b0: 81e3 ec3d 4616 cd3d abdc b63e 0b4d 43be
000002c0: 48a8 23bd ac77 6bbe 32dc bf3d 01a8 0c3e
000002d0: 1210 bdbb c567 04be 5246 2d3f 02b7 5abd
000002e0: 6772 ad3e 7e48 be3c 4b5e 76bc 9567 253e
000002f0: a7de 803f 48a1 693e a76b 473b 7d5e bb3e
00000300: d259 a13d 339f 34be 0ce1 623c 94b6 aabd
00000310: f453 fb3c dde5 543e e087 193c 5088 adbe
00000320: 0162 2fbd 03fc 10bd 9be5 9bbd 4035 0a3e
00000330: 9c9f bf3d de8b 4a3e f050 65be d93c 98bd
00000340: 025a 01be ca80 0abe f2d6 e83d d598 bcbc
00000350: 1ae4 38be 1023 a7bd efaa 613e 5186 923e
00000360: ff03 123c 9499 d2bd 00c3 483e a020 473c
00000370: 23a3 a73e eb66 2fbe 2581 02be 22e7 32bd
00000380: f43a 41bd 8d41 cd3d 3d98 473d 720a daba
00000390: 6f28 e13c 374f 1c3d a713 ffbe f592 c83d
000003a0: f841 71be 98d7 033d 5299 1b3d c3ae 143e
000003b0: d2ce 853e 11e9 58bc 8618 75bd 1e4a 5a3e
000003c0: d00e 28bc 84f0 38be aa9e c1be 5dbf 6cbe
000003d0: f311 5d3e b78c e23c d10a 063e 261a 04bf
000003e0: 627b b4be dba9 17be 3276 cb3d 13ca 3a3e
000003f0: 2144 34bd 1f44 003e e960 fd3b a2ed a0bd
-0.17489041 0.06778042 0.0020311608 -0.339466 -0.2912378 0.677296 -0.18725818 0.30761224
0.5691047 0.4141415 1.0253576 0.13329668 0.1783844 0.5735012 0.13039911 0.24371865
0.024462951 -0.26050407 0.13899595 -0.06473585 0.26429576 0.19889742 -0.119259834 0.064150825
-0.02924892 -0.050795555 -0.13523108 0.07213789 0.12935187 -0.1534153 0.5254313 -0.008899841
0.23432894 0.18975712 -0.16621278 0.16697142 0.15699744 0.28441155 -0.006568775 0.11871788
0.1289881 -0.06950353 0.2310089 0.12838218 0.051273055 -0.12506847 0.16282547 -0.13530068
-0.093854666 -0.039284006 0.15083995 0.26462168 -0.10827697 -0.110613 0.8698588 0.0387446
0.34452227 0.38436425 0.0073078847 0.25189087 0.5834572 0.00444279 -0.0822607 0.0341713
0.13349774 0.0920006 0.058888946 -0.2898683 0.076163016 0.65800124 -0.014019987 0.607276
-0.099519536 0.09029288 0.77865964 0.3080068 0.12793237 0.32514462 0.05158272 -0.099519424
-0.17036463 0.022257814 0.2950843 -0.02171269 0.2476831 0.38517863 0.31793976 0.21931356
-0.09712254 -0.035115555 -0.38220975 0.18528925 0.3336555 -0.07880036 0.7681402 0.29729727
-0.034710083 0.49784586 0.0341966 -0.44984347 -0.02893945 -0.008713397 -0.016308198 0.11635161
0.24362634 -0.21107517 0.21157132 -0.33347943 0.26711562 -0.01391993 0.2844723 0.10261178
-0.04086468 -0.038528454 0.29078332 0.37742996 0.06336342 0.23225552 0.67772657 0.08563096
0.81109864 -0.022735285 -0.10144219 -0.16062422 0.88508433 0.20405701 -0.35255992 0.15465188
0.07941906 0.060566656 -0.05346916 -0.13192177 -0.18998413 0.6220875 0.5692291 0.46119142
0.09986879 -0.31666026 0.5607943 0.09305862 -0.1684577 0.7794568 -0.06432244 -0.09803128
-0.08315264 -0.20134094 -0.029790854 -0.27845177 0.2078314 0.11668059 -0.017951468 -0.16831808
-0.24588977 -0.17317551 0.11885486 -0.26660272 -0.14547391 0.15200226 0.8422889 0.18286715
-0.024548735 0.13104482 -0.17751734 0.027421251 -0.10613805 -0.0833786 0.13696696 0.06575558
-0.044698264 -0.4033379 0.17517231 0.14524898 0.115668304 0.10014014 0.3571523 -0.19072358
-0.039955407 -0.2299487 0.09368171 0.13735963 -0.005769738 -0.1293021 0.67685425 -0.053397186
0.33876345 0.023227926 -0.01503713 0.16152795 1.0067948 0.2281543 0.0030429156 0.36595526
0.0787846 -0.17638855 0.013847601 -0.08335605 0.03067968 0.20790811 0.009370774 -0.3389306
-0.042818073 -0.035396587 -0.07612153 0.13496876 0.09356615 0.19779918 -0.22394156 -0.07433481
-0.12631992 -0.13525692 0.113691226 -0.023022095 -0.18055764 -0.081609845 0.22037862 0.286181
0.008912086 -0.10283199 0.19605637 0.0121537745 0.3274165 -0.17129104 -0.12744577 -0.043677457
-0.047175363 0.100222684 0.04872917 -0.0016635193 0.0274851 0.038161483 -0.4981968 0.09793655
-0.23560321 0.032188028 0.037988015 0.14519791 0.26134354 -0.013239161 -0.05983784 0.21317336
-0.010257438 -0.180605 -0.37816364 -0.23119874 0.21588878 0.027654989 0.13090064 -0.516024
-0.35250384 -0.14810888 0.09934653 0.18241148 -0.044010285 0.12525986 0.0077325 -0.07857825

network.2.bias f4 [64]
00000000: e522 b33e 4fab 043f 0194 a93e 0000 0000
00000010: 24d9 b73e 0000 0000 7efb b53e 29d8 75bd
00000020: cb28 4f3f 76c6 b23e cad8 75bd f6d7 75bd
00000030: 0000 0000 b387 ab3e e63d 57bd c5d7 75bd
00000040: dc2c b23e d6bb b63e 0000 0000 5a80 b83e
00000050: 0000 0000 0000 0000 e545 be3e f4c6 2bbd
00000060: ddd7 75bd 60f0 a93e 0000 0000 08d5 75bd
00000070: 5825 ac3e ed2f a43e df88 b83e ff58 b73e
00000080: 62be a93e 29f5 b63e 682f bc3e c7b2 8c3e
00000090: 5a60 8cbd be89 c53e ecd2 75bd 4c5b 933e
000000a0: cf65 a63e c4d6 75bd 680f 99bd 8e2f b73e
000000b0: 7510 b63e 258b a23e a2ff 86bd efd5 b23e
000000c0: 019a b93e 237f a83e 4115 82bd b0f8 af3e
000000d0: 0000 0000 f57c 563f 00f2 bf3e 0000 0000
000000e0: 0000 0000 0000 0000 0000 0000 0000 0000
000000f0: 930a a4bd dc85 ab3e 1036 b53e 0719 b63e
0.3498756 0.51823896 0.3312073 0.0 0.35907853 0.0 0.35543436 -0.0600206
0.8092162 0.3491704 -0.0600212 -0.06002041 0.0 0.33501968 -0.052549265 -0.060020227
0.3479985 0.35690182 0.0 0.36035424 0.0 0.0 0.371627 -0.041937783
-0.060020316 0.33191204 0.0 -0.060017616 0.3362224 0.32067814 0.36041924 0.35810086
0.33153063 0.35733917 0.36754918 0.27480146 -0.06854315 0.3858165 -0.060015604 0.2878059
0.3249955 -0.06001927 -0.07473642 0.3577847 0.3555943 0.31746784 -0.06591727 0.34928843
0.36250308 0.32909498 -0.0635171 0.3436942 0.0 0.8378442 0.3748932 0.0
0.0 0.0 0.0 0.0 -0.08009829 0.33500564 0.3539281 0.3556597

network.4.weight f4 [1, 64]
00000000: 6556 a23e 8a07 e33e e902 9e3e bf34 2b3c
00000010: f101 ad3e 9c11 8fbb a9fd 903e 6ca5 cb3c
00000020: 94de f3bf dadb b43e a82d 4a3d 8bc1 1c3d
00000030: 00a2 79bc f494 af3e 9cce 673d d1ae 563d
00000040: 753d 963e 1f19 8c3e 9b08 113c 3727 cd3e
00000050: 6f90 623c 9074 babc 7c21 b73e fdd5 6d3d
00000060: 5ebd 5c3d a6c1 903e c3be ac3c 1062 4d3d
00000070: 8951 a63e 6059 ad3e 7a9f 9b3e 0b85 af3e
00000080: 5c02 7d3e 984c ad3e 0115 aa3e a878 103e
00000090: 556b 343d cbdc c43e 2e41 5b3d ed9f 8b3e
000000a0: 1551 803e aefa 533d 0949 283d 7497 c53e
000000b0: ba84 893e 9edc a43e 56b9 523d f06d ac3e
000000c0: cd5b ab3e da9f ac3e 361a 5a3d 630e 8b3e
000000d0: 7356 ab3b 7f31 eebf e145 b43e 0fcd a63b
000000e0: dfd9 423b 7cd3 b63c d3e7 99bb 6a80 ebbc
000000f0: 2e44 98bd a59a 953e 38ed ab3e 38bd ab3e
0.3170654 0.4434169 0.30861595 0.010449587 0.33790544 -0.004366113 0.28318527 0.024859153
-1.90523 0.35323983 0.049359947 0.038270514 -0.015236378 0.3429333 0.056593522 0.05241281
0.29343763 0.27362916 0.008852149 0.4006898 0.013828381 -0.02276066 0.35767734 0.058065403
0.053891532 0.28272742 0.021087056 0.050142348 0.3248408 0.3385725 0.30395108 0.3428119
0.24707931 0.338475 0.3321915 0.14108527 0.044047672 0.38449702 0.053528957 0.2727045
0.2506186 0.05175274 0.041085277 0.38592112 0.26859075 0.32199568 0.05144628 0.33677626
0.33468476 0.33715707 0.053247653 0.27159414 0.0052288114 -1.8608855 0.35209563 0.005090363
0.0029731912 0.02231764 -0.004696825 -0.028747756 -0.07434879 0.29219547 0.3357942 0.335428

exp_avg f4 [64, 2]
00000000: 0000 0000 0000 0000 278c 2a19 ec67 9917
00000010: 2297 99b4 965f 66b4 1e1f aeb4 8a66 83b4
00000020: 6aee 0d13 c757 7b11 0bb2 333a ad7e da38
00000030: 635a d7b9 80a5 61b8 5ddc 403a 60f2 d438
00000040: 0000 0000 0000 0000 0000 0000 49ee d90f
00000050: 0000 0000 0000 0000 b021 1812 624f 6011
00000060: 0a3f 55bb d1ef f9b9 0000 0000 0000 0000
00000070: 0000 0000 0000 0000 e52b 0e12 fbb0 1912
00000080: c0f0 8937 bebc 6634 cee6 0738 92ac d235
00000090: 9b8f 48ba ad4b 04b9 06b4 b713 97e8 2213
000000a0: 64b1 353a 094b 9c38 610e 1ab8 1d2e 0fb5
000000b0: e11f 4311 73c2 4d0f 3654 e3ba 034c 9ab9
000000c0: fb24 763a 092d 1739 5385 5d3a 20b2 0839
000000d0: d8fc 65b4 769c 2cb4 0000 0000 0000 0000
000000e0: a97b 281c d443 8e1a 0000 0000 0000 0000
000000f0: 0000 0000 0000 0000 0000 0000 0000 0000
00000100: 0000 0000 0000 0000 296b a811 d780 0e11
00000110: ba60 e3ba 7d93 7cb9 8ba7 f713 abb2 8012
00000120: 7124 9613 c6b8 9611 d522 1315 79b2 3f13
00000130: 0000 0000 0000 0000 c2d7 fa28 c232 4627
00000140: 1b6e 54bb 4f3b f5b9 a8dc 75bb 3748 10ba
00000150: 2c35 0513 c074 e211 4aae bcba fe82 52b9
00000160: 5747 83ba 71b1 2ab9 f2db 2b14 f138 4c12
00000170: 6314 0c11 cb36 b610 e2f6 8e3a 698a 3439
00000180: 4fd7 8f13 07a7 cd11 830c 0a12 2df1 1711
00000190: 1545 3a39 cbc8 f637 3e61 1a12 4f0e 160f
000001a0: e513 e5ba 7bdc 72b9 0000 0000 0000 0000
000001b0: 74f1 ca0f 3364 a110 6307 26bb dd2b d9b9
000001c0: 0000 0000 fd89 2c0f 0000 0000 0000 0000
000001d0: 6aba 1613 b805 aa11 0000 0000 0000 0000
000001e0: 0000 0000 0000 0000 5d62 543a f661 1038
000001f0: 8f79 2e15 ca4b 9712 4a3c 1fbb 4615 c2b9
0.0 0.0 8.8170975e-24 9.913627e-25 -2.8608434e-07 -2.1455193e-07 -3.2432666e-07 -2.4475258e-07
1.791425e-27 1.9827457e-28 0.00068548386 0.00010418645 -0.0004107534 -5.3798314e-05 0.00073570554 0.000101540936
0.0 0.0 0.0 2.1489636e-29 0.0 0.0 4.8004266e-28 1.7694946e-28
-0.0032538795 -0.00047671658 0.0 0.0 0.0 0.0 4.4861404e-28 4.8496433e-28
1.644378e-05 2.1489083e-07 3.240146e-05 1.5696444e-06 -0.00076507934 -0.00012616692 4.637321e-27 2.056195e-27
0.00069310353 7.452636e-05 -3.6729853e-05 -5.3338755e-07 1.5392611e-28 1.014473e-29 -0.0017343822 -0.00029429802
0.0009389666 0.00014417259 0.0008450348 0.00013036327 -2.1419271e-07 -1.6075668e-07 0.0 0.0
5.5746364e-22 5.8839406e-23 0.0 0.0 0.0 0.0 0.0 0.0
0.0 0.0 2.657177e-28 1.1241527e-28 -0.0017347552 -0.00024087536 6.2516776e-27 8.121981e-28
3.7901257e-27 2.3779703e-28 2.971389e-26 2.4195583e-27 0.0 0.0 2.7849146e-14 2.7505536e-15
-0.003241426 -0.0004677423 -0.0037515555 -0.0005503925 1.6813176e-27 3.5728466e-28 -0.0014395204 -0.00020075959
-0.0010015768 -0.00016278565 8.67667e-27 6.4441236e-28 1.1050335e-28 7.1870764e-29 0.0010907317 0.000172177
3.6310586e-27 3.2446236e-28 4.3560544e-28 1.1986118e-28 0.00017764077 2.9418987e-05 4.871369e-28 7.398327e-30
-0.0017477243 -0.00023161054 0.0 0.0 2.0011742e-29 6.3657684e-29 -0.0025333993 -0.00041422146
0.0 8.50683e-30 0.0 0.0 1.902457e-27 2.6824795e-28 0.0 0.0
0.0 0.0 0.00081018155 3.442351e-05 3.5234913e-26 9.548123e-28 -0.002429741 -0.00037018413

exp_avg_sq f4 [64, 2]
00000000: 0000 0000 0000 0000 65a1 0436 5e32 3a33
00000010: bd05 ac34 42fb 3432 d5ae db31 538c c130
00000020: 7808 a833 38fb b830 35e8 0838 b6bf 2435
00000030: 49a1 7c37 05eb a234 1897 9737 c582 bb34
00000040: 0000 0000 0000 0000 0000 0000 e68b 172d
00000050: 0000 0000 0000 0000 edb2 9331 7f8c 2030
00000060: 8238 9538 2205 d935 0000 0000 0000 0000
00000070: 0000 0000 0000 0000 6609 012f df45 882f
00000080: 376f be36 832b dd33 8dca ce35 e79d e332
00000090: 61be 1637 c022 2934 71ec 5533 033c 1931
000000a0: f387 bc37 466d dc34 9116 6536 8009 8633
000000b0: cef9 f22f 9217 072c 20e7 d136 6e5a e733
000000c0: 6c03 ab37 6490 c034 c666 1d37 e63c 3834
000000d0: 204d d634 89e9 ea31 0000 0000 0000 0000
000000e0: 00a2 d435 1567 d832 0000 0000 0000 0000
000000f0: 0000 0000 0000 0000 0000 0000 0000 0000
00000100: 0000 0000 0000 0000 7bc4 8330 5329 ba2e
00000110: fe76 4237 38f8 8734 8b89 ed33 86f4 1331
00000120: c3c2 5233 dd85 7630 1070 da34 a032 0332
00000130: 0000 0000 0000 0000 06bb 6e36 45ae 8933
00000140: d8f6 9337 945b cd34 64b0 2338 d274 6235
00000150: 772f 6032 a904 8830 dead e937 a776 2435
00000160: dda8 c537 993a 0335 dfd5 4734 8e7f 3f31
00000170: d072 7a2f b0e2 d32e 8940 3237 1624 7834
00000180: 4438 8e34 9a7e 9d31 763d 7331 d554 932f
00000190: 658f 8637 be5e 9734 b87d 4132 2388 0e2f
000001a0: 2ef2 b637 369f 0035 0000 0000 0000 0000
000001b0: 4c6b 032d f939 a62e cfa6 c237 ed2f 0035
000001c0: 0000 0000 81fb bd2b 0000 0000 0000 0000
000001d0: 89fc 9033 237b b830 0000 0000 0000 0000
000001e0: 0000 0000 0000 0000 672d c437 9eca fd34
000001f0: 312a 792f 5b5c 3b2a 982e e937 53ea 2835
0.0 0.0 1.9763477e-06 4.335231e-08 3.2041672e-07 1.0534508e-08 6.393615e-09 1.4082481e-09
7.82465e-08 1.3459163e-09 3.2641186e-05 6.1373737e-07 1.5057923e-05 3.034585e-07 1.8070961e-05 3.4926612e-07
0.0 0.0 0.0 8.61442e-12 0.0 0.0 4.2986046e-09 5.840732e-10
7.115399e-05 1.6169254e-06 0.0 0.0 0.0 0.0 1.173582e-10 2.4787902e-10
5.6753884e-06 1.0299029e-07 1.5407146e-06 2.6498084e-08 8.985023e-06 1.5751993e-07 4.980797e-08 2.2298543e-09
2.2474653e-05 4.10577e-07 3.4136795e-06 6.241589e-08 4.419704e-10 1.9197738e-12 6.255592e-06 1.0773225e-07
2.0386382e-05 3.5867845e-07 9.381858e-06 1.715849e-07 3.9916722e-07 6.836846e-09 0.0 0.0
1.5842379e-06 2.5192586e-08 0.0 0.0 0.0 0.0 0.0 0.0
0.0 0.0 9.587348e-10 8.4656414e-11 1.1591006e-05 2.5326312e-07 1.10611914e-07 2.153031e-09
4.907157e-08 8.968451e-10 4.06872e-07 7.636714e-09 0.0 0.0 3.5573626e-06 6.411259e-08
1.7638711e-05 3.8250857e-07 3.9026505e-05 8.4361557e-07 1.3049308e-08 9.896627e-10 2.7856728e-05 6.126742e-07
2.3562863e-05 4.8886574e-07 1.8611125e-07 2.7866665e-09 2.2778157e-10 9.635437e-11 1.06246525e-05 2.3109928e-07
2.64905e-07 4.5836943e-09 3.539609e-09 2.679942e-10 1.6040818e-05 2.8194876e-07 1.1262664e-08 1.296319e-10
2.1808864e-05 4.79154e-07 0.0 0.0 7.4703126e-12 7.559104e-11 2.3204278e-05 4.7753457e-07
0.0 1.3499064e-12 0.0 0.0 6.7514584e-08 1.342276e-09 0.0 0.0
0.0 0.0 2.3386163e-05 4.7272346e-07 2.2661407e-10 1.6640979e-13 2.7797461e-05 6.2925864e-07

exp_avg f4 [64]
00000000: 0000 0000 3cea c018 44e1 aeb4 bc83 c6b4
00000010: 38e5 6813 f102 5b3a 447e 87b9 313f 663a
00000020: 0000 0000 62ad 2e12 0000 0000 28d9 0010
00000030: 580a 79ba 0000 0000 0000 0000 46f3 6814
00000040: a45a 3f37 0a9c 1d38 379c 0bbb a9ae 6715
00000050: a2b0 693a 7e63 44b8 bba5 5911 2830 e6ba
00000060: 797c 913a 901e 443a 80b7 83b4 0000 0000
00000070: 3a55 7c1c 0000 0000 0000 0000 0000 0000
00000080: 0000 0000 bd09 4a13 e50b 9eba 2da3 8814
00000090: 4236 e613 d140 a514 0000 0000 a0b4 3029
000000a0: 5723 47bb 7842 83bb 6246 1214 7253 cf39
000000b0: 6847 9fb9 f57e 8414 8622 c112 b541 883a
000000c0: 7f9c 2e14 e7cb ec12 ea8c 4639 974b 0e12
000000d0: e5a4 c4ba 0000 0000 72c1 f312 6ed8 73bb
000000e0: 684b 8a11 0000 0000 ff50 8113 0000 0000
000000f0: 0000 0000 2017 f73a e2bc 5615 2f82 e3ba
0.0 4.9867353e-24 -3.2573928e-07 -3.6976223e-07 2.939553e-27 0.00083546253 -0.00025843282 0.000878322
0.0 5.511843e-28 0.0 2.541084e-29 -0.00095001375 0.0 0.0 1.1760984e-26
1.1405591e-05 3.757704e-05 -0.0021302828 4.678786e-26 0.0008914565 -4.68227e-05 1.7169351e-28 -0.0017561959
0.0011099718 0.0007481361 -2.4534165e-07 0.0 8.348996e-22 0.0 0.0 0.0
0.0 2.5500786e-27 -0.0012057988 1.3796852e-26 5.8113665e-27 1.6686308e-26 0.0 3.9236518e-14
-0.0030386054 -0.0040057264 7.384997e-27 0.00039544288 -0.00030380045 1.337867e-26 1.2188523e-27 0.0010395559
8.8156185e-27 1.494396e-27 0.00018935246 4.490047e-28 -0.0015002756 0.0 1.5383144e-27 -0.003720786
2.1819034e-28 0.0 3.2644046e-27 0.0 0.0 0.0018851496 4.3365958e-26 -0.0017357523

exp_avg_sq f4 [64]
00000000: 0000 0000 9de2 f036 cccf 9b35 0565 2834
00000010: d87d 8134 e4a6 8138 9bdd 3538 977d 1438
00000020: 0000 0000 74b8 c231 0000 0000 c9e5 532d
00000030: 9b6b 6039 0000 0000 0000 0000 3a4d 1834
00000040: bb01 8637 7b97 9036 ac25 db37 5e64 4235
00000050: da04 4738 e190 3437 0e27 1730 6dd5 9f37
00000060: d920 2438 fcf4 a537 b711 6135 0000 0000
00000070: 07f9 9a36 0000 0000 0000 0000 0000 0000
00000080: 0000 0000 b281 1b33 fb77 0a38 32e2 1535
00000090: 2abe 3334 a213 7835 0000 0000 5289 1237
000000a0: 670f 5638 d998 f138 7b52 d834 940a b138
000000b0: f505 9538 bd7f 0e35 b30b ee32 7674 fc37
000000c0: 1648 6d35 9ceb 3233 7fba f537 3ae9 9032
000000d0: fce1 7c38 0000 0000 7097 3d33 04a4 8438
000000e0: 421b 7430 0000 0000 9470 5534 0000 0000
000000f0: 0000 0000 d669 8938 84b7 bc2f a552 aa38
0.0 7.1789386e-06 1.1608877e-06 1.568297e-07 2.4119686e-07 6.182285e-05 4.336015e-05 3.5402914e-05
0.0 5.667113e-09 0.0 1.2044984e-11 0.00021402391 0.0 0.0 1.4184198e-07
1.597485e-05 4.309169e-06 2.6124377e-05 7.2416685e-07 4.7449816e-05 1.0762568e-05 5.498898e-10 1.9053661e-05
3.913124e-05 1.9783613e-05 8.384481e-07 0.0 4.6185482e-06 0.0 0.0 0.0
0.0 3.6206707e-08 3.3013504e-05 5.5835983e-07 1.6739855e-07 9.241577e-07 0.0 8.7342505e-06
5.103592e-05 0.000115202456 4.0293148e-07 8.441988e-05 7.105983e-05 5.3085006e-07 2.7712167e-08 3.0094972e-05
8.839428e-07 4.165814e-08 2.929312e-05 1.6869866e-08 6.0291946e-05 0.0 4.4142723e-08 6.324801e-05
8.880542e-10 0.0 1.9878127e-07 0.0 0.0 6.5523825e-05 3.4327396e-10 8.1216254e-05
